models/ho_obedience_policy.pth (torch, 628274 bytes, 11 tensors)

critic.0.weight f4 [256, 42]
0.2634366 0.19837412 -0.057054467 0.09659061 -0.06081463 0.5455965 0.40728447 -0.04329885
-0.052079044 0.13400431 -0.18396896 -0.2152677 -0.03802545 0.048630234 -0.006514594 -0.10355798
0.0735084 -0.12261555 0.10175347 -0.15179968 -0.033284873 -0.082977936 0.08493745 -0.06319086
-0.091178745 0.12242744 -0.07205884 0.053145908 -0.02803545 0.00042577577 -0.32113388 -0.3321521
0.06443623 -0.08341915 -0.14704113 -0.12288503 0.10958761 0.021485524 -0.08770191 -0.104245014
0.10703613 -0.014564051 0.048041474 -0.21465524 -0.023251098 -0.0976322 -0.11898653 0.0742899
0.11339365 -0.06406476 -0.10376325 -0.11220336 -0.04174344 -0.21237797 0.043789584 0.0051274356
-0.11803419 0.40491167 0.0847891 -0.10684466 0.0075219404 0.023033768 -0.20694718 -0.3192052
-0.0394519 0.1366091 -0.12978174 0.06884957 0.022345392 0.023751458 -0.052831735 0.022970337
0.31432045 0.30989483 -0.023609048 0.089998946 -0.12657823 -0.048689738 0.010392351 0.03430953
0.012181304 -0.012657196 -0.037744407 -0.054689754 0.010604176 0.055252336 0.045435272 -0.088048555
0.02012097 0.57651085 0.23016891 0.1160369 0.05799188 0.09604369 -0.30413923 -0.048135363
0.03771967 -0.00020574688 0.13188042 -0.16617362 -0.18286674 0.03915867 -0.0035020877 -0.1438087
-0.3185794 -0.12252169 -0.12722962 -0.04516655 0.004161477 0.024592977 0.19524401 -0.18680014
0.0009497709 0.096267775 -0.122434124 -0.29175457 0.054005217 -0.10000403 0.10000627 0.08995813
0.038182903 -0.02149632 -0.11545455 -0.03223822 -0.029261135 -0.13873528 0.23658471 0.115588106
0.105436295 0.017316215 -0.12265042 0.31214204 0.3030796 -0.148196 0.037618425 -0.0104858875
-0.20930004 -0.15931062 0.06451109 0.06421572 -0.08007394 0.24358627 -0.02282515 0.08507459
-0.1531588 0.12591194 -0.459157 -0.22294648 -0.043032043 0.021451296 -0.08230191 0.103064895
0.05270268 0.0370897 -0.041535977 0.04954311 -0.113088444 -0.15633653 -0.085676126 -0.15465476
0.14064549 0.11397372 0.011356293 -0.012277142 -0.101871625 -0.021917632 0.09014992 -0.12192467
-0.10674355 -0.14493334 -0.008860522 0.122811265 -0.06891563 -0.90038353 -0.39479223 -0.08329443
-0.017718675 -0.097520605 0.20489128 0.2241398 0.007853957 0.1807148 0.09901835 -0.3209176
-0.07600221 -0.06070394 0.038082007 0.12241961 0.25697213 0.22922264 0.08216627 -0.09231753
-0.13856918 -0.2071337 0.011928383 0.11730622 0.08398914 0.043090284 -0.07352109 0.17481059
0.1547637 0.030150058 0.048506603 -0.14614737 0.059505776 -0.096927814 0.009961992 0.014821954
-0.07235639 0.027739054 -0.087011635 -0.19746105 -0.020510752 0.07163164 0.019727426 -0.000913447
-0.11284732 -0.055709522 -0.03370851 -0.0077518076 0.1947499 0.20445605 0.08244754 -0.092686266
0.08925836 0.20688915 -0.010371822 0.121353365 -0.03784432 -0.10211083 0.012604241 0.05852777
0.052381873 -0.022382976 0.042977974 0.058082234 -0.26381353 0.072999574 -0.12684639 0.2035964
0.22536175 0.17307702 -0.10864005 0.09014636 0.11581226 -0.074503824 -0.10215394 0.017981792
0.22691455 0.049101908 0.052458 0.06545634 -0.015531376 -0.24513097 0.09300866 -0.11276158
00000000: 29e1 863e 9622 4b3e f2b1 69bd 4cd1 c53d
00000010: c318 79bd 36ac 0b3f 9787 d03e 235a 31bd
00000020: d650 55bd 6d38 093e 5c62 3cbe 236f 5cbe
00000030: 93c0 1bbd 7f30 473d 6078 d5bb 3516 d4bd
00000040: 928b 963d dd1d fbbd 2064 d03d 6071 1bbe
00000050: b855 08bd 56f0 a9bd b0f3 ad3d 366a 81bd
00000060: ecbb babd 3dbb fa3d 9693 93bd 86af 593d
00000070: 9aaa e5bc a83a df39 a96b a4be d70f aabe
00000080: 24f7 833d a9d7 aabd f391 16be 26ab fbbd
00000090: 786f e03d 6902 b03c 0f9d b3bd 697e d5bd
000000a0: c235 db3d 0f9e 6ebc 23c7 443d 95ce 5bbe
000000b0: 1679 bebc 64f3 c7bd 36af f3bd 4e25 983d
000000c0: ee3a e83d 6334 83bd d481 d4bd e0ca e5bd
000000d0: 2bfb 2abd 9c79 59be b55c 333d 0c04 a83b
000000e0: e9bb f1bd 9550 cf3e e8a5 ad3d 60d1 dabd
000000f0: 9c7a f63b 50b1 bc3c f6e9 53be dd6e a3be
00000100: 5198 21bd 42e3 0b3e 81e5 04be 0101 8d3d
00000110: af0d b73c 6b92 c23c 1766 58bd 4a2c bc3c
00000120: 9cee a03e 89aa 9e3e c367 c1bc 5e51 b83d
00000130: b99d 01be e46e 47bd ae44 2a3c 2688 0c3d
00000140: 1894 473c 2160 4fbc e199 1abd 5d02 60bd
00000150: 23bd 2d3c 4650 623d 561a 3a3d cd52 b4bd
00000160: bcd4 a43c 3796 133f 66b1 6b3e c1a4 ed3d
00000170: e588 6d3d 8eb2 c43d 23b8 9bbe 9629 45bd
00000180: f17f 1a3d c2bd 57b9 a90b 073e 6b29 2abe
00000190: 6b41 3bbe d764 203d 4883 65bb 9642 13be
000001a0: d71c a3be a7ec fabd 7b48 02be 8f00 39bd
000001b0: 005d 883b 3677 c93c 0cee 473e 8948 3fbe
000001c0: 0cfa 783a 0a28 c53d bebe fabd db60 95be
000001d0: 9334 5d3d eace ccbd 16d0 cc3d f83b b83d
000001e0: ad65 1c3d 0d19 b0bc 6f73 ecbd 390c 04bd
000001f0: 0cb5 efbc 9f10 0ebe 4343 723e 75b9 ec3d
00000200: fcee d73d bcda 8d3c 2530 fbbd 15d1 9f3e
00000210: 402d 9b3e b1c0 17be c715 1a3d 00cd 2bbc
00000220: c052 56be 5322 23be 641e 843d 8883 833d
00000230: cefd a3bd ae6e 793e cffb babc 963b ae3d
00000240: a9d5 1cbe 0fef 003e a016 ebbe 154c 64be
00000250: 5e42 30bd a1ba af3c e78d a8bd b013 d33d
00000260: c4de 573d 5feb 173d a121 2abd b7ed 4a3d
00000270: ea9a e7bd af16 20be f776 afbd d15d 1ebe
00000280: 5f05 103e 0e6b e93d bf0f 3a3c 1126 49bc
00000290: 12a2 d0bd 9b8c b3bc 85a0 b83d a4b3 f9bd
000002a0: 5d9c dabd 6869 14be b92b 11bc 7984 fb3d
000002b0: a323 8dbd 897f 66bf 3522 cabe 4596 aabd
000002c0: c126 91bc e2b8 c7bd 05cf 513e e784 653e
000002d0: e2ad 003c 4d0d 393e 22ca ca3d 504f a4be
000002e0: 0ca7 9bbd b2a4 78bd e1fb 1b3d 22b7 fa3d
000002f0: da91 833e 57b9 6a3e ca46 a83d f910 bdbd
00000300: 14e5 0dbe db1a 54be 446f 433c 3e3e f03d
00000310: 8002 ac3d 707f 303d 3a92 96bd 8c01 333e
00000320: 607a 1e3e 41fd f63c dcae 463d a8a7 15be
00000330: 54bc 733d 1782 c6bd 9f37 233c c8d7 723c
00000340: 962f 94bd 033d e33c 2833 b2bd 3b33 4abe
00000350: 2a06 a8bc 9cb3 923d 699b a13c 6474 6fba
00000360: 7f1c e7bd ab2f 64bd ef11 0abd e002 febb
00000370: 856c 473e ed5c 513e 41da a83d 4cd2 bdbd
00000380: 16cd b63d c0da 533e 93ee 29bc 1d88 f83d
00000390: a502 1bbd 7c1f d1bd 0582 4e3c d1ba 6f3d
000003a0: 608e 563d 815c b7bc ac09 303d a3e7 6d3d
000003b0: 9112 87be cd80 953d 05e4 01be 937b 503e
000003c0: 3bc5 663e 1a3b 313e ad7e debd a89e b83d
000003d0: fa2e ed3d 7695 98bd 1636 d1bd 8d4e 933c
000003e0: 4a5c 683e 151f 493d 33de 563d f90d 863d
000003f0: 5077 7ebc 9d03 7bbe 537b be3d 8bef e6bd

critic.0.bias f4 [256]
0.011498142 0.09130225 0.044119358 -0.061445106 0.16574773 -0.114355005 -0.013115043 0.055576347
-0.050351515 -0.010497016 0.06815073 0.13127935 -0.041626196 0.09602923 -0.024166012 -0.09620654
0.03320521 -0.0705513 0.12587851 0.08321487 0.02331283 -0.16156434 0.018512899 -0.09283854
-0.11222305 0.010801754 -0.11021632 -0.02540477 0.060588613 -0.12540741 -0.043850105 0.062271405
-0.036798216 0.00069717056 0.00783041 0.057473604 -0.12662472 -0.13289727 -0.09210817 0.08396847
0.007187629 -0.06676153 -0.009643095 0.14659616 -0.10883258 -0.02443262 -0.10227108 -0.099296756
-0.041317753 -0.058085013 0.02385549 -0.05721061 -0.037529327 -0.01842679 0.11117489 0.07638342
0.039190803 -0.07271405 -0.105805695 -0.14002186 0.06406898 0.084535025 0.14442497 0.10819457
-0.093742445 -0.0776064 -0.053895727 0.027453018 0.015078664 -0.088167846 0.0606778 -0.14898242
0.047094397 0.074389756 0.031682335 -0.16296826 -0.019516345 -0.010395062 -0.059434954 -0.012459297
-0.08550526 -0.10588749 0.11305383 0.085488394 0.0778969 0.112655014 -0.025701959 0.08817385
-0.0745976 -0.11207543 0.068089485 -0.14627704 -0.14138493 0.1298679 -0.010475162 -0.031529963
-0.1014245 0.003770957 -0.115532026 0.016876828 -0.0712957 0.11020975 0.04783611 0.11736093
0.104610726 -0.0912824 -0.1045274 0.16806373 -0.023865255 -0.03977449 0.020216497 0.1040359
0.062459875 0.14924301 0.08623224 -0.002701781 -0.033047043 0.113278314 0.09191962 0.12025898
0.13203551 -0.08162829 -0.03225402 -0.044345368 -0.08838033 -0.045365438 0.04486484 -0.09528457
0.0115717985 -0.09946404 -0.04739432 0.05130363 0.016596317 0.11045788 0.10929474 -0.10916489
0.07168281 -0.13747698 0.04665214 0.10315506 0.0077720736 0.05177357 0.10739948 -0.1286652
0.06329509 0.051279772 -0.042450402 0.0646249 -0.020366797 -0.07893118 -0.07718004 -0.04551712
0.026793238 -0.10383551 0.09988615 -0.052827973 0.033121772 0.097542115 -0.08832898 -0.062970616
0.09198189 0.055220187 -0.12521595 0.07859506 -0.0037528593 -0.123857684 -0.14377834 -0.089312494
-0.0015336168 -0.12384188 -0.011322218 -0.031982154 -0.07166739 -0.06719092 0.085764706 -0.124339715
-0.09290181 0.07755056 0.05512848 -0.078852214 0.16460529 -0.12416149 0.07291667 0.08690911
0.035344515 0.025524097 -0.13614532 -0.097288325 0.016931068 0.092400424 0.036405195 -0.015516153
0.11208319 -0.15710342 0.04944162 0.06227431 -0.14803985 0.08063422 0.072257675 -0.131135
0.102321826 0.110767156 -0.07994019 0.039183576 -0.07711673 0.016436296 0.07038774 0.072566524
0.14816727 0.04139919 0.07811701 -0.07018366 0.028344356 0.07322504 0.041636735 0.027820824
-0.12029101 -0.01534842 -0.09377065 -0.08115569 -0.052477125 -0.046288654 0.00010364415 0.084004365
0.023867449 0.018853722 -0.05115683 0.105901554 -0.019511951 0.04655377 0.09163133 0.023834188
0.0886125 -0.08520277 0.12778273 0.029008118 -0.03589052 -0.05068345 0.06409042 0.13170205
0.15966837 0.0176817 0.050343283 0.023668775 -0.13484645 -0.14840841 -0.104154244 -0.05645873
-0.055192664 -0.12992665 -0.016294928 -0.073652655 -0.041547798 0.13898908 -0.026316341 -0.0687429
00000000: b462 3c3c adfc ba3d 80b6 343d ddad 7bbd
00000010: c6b9 293e f532 eabd 7ae0 56bc 06a4 633d
00000020: 643d 4ebd adfb 2bbc 9c92 8b3d 186e 063e
00000030: 3b80 2abd f9aa c43d cdf7 c5bc ef07 c5bd
00000040: 3002 083d 337d 90bd 4ce6 003e 8f6c aa3d
00000050: 8cfa be3c 1f71 25be 5da8 973c 2222 bebd
00000060: 33d5 e5bd d7f9 303c 18b9 e1bd aa1d d0bc
00000070: c42b 783d cd6a 00be 2b9c 33bd 4d10 7f3d
00000080: bab9 16bd 53c2 363a 1f4b 003c 7169 6b3d
00000090: e9a9 01be 3916 08be 35a3 bcbd a9f7 ab3d
000000a0: 3486 eb3b 45ba 88bd 12fe 1dbc 4e1d 163e
000000b0: 9ee3 debd eb26 c8bc 8073 d1bd 195c cbbd
000000c0: ce3c 29bd 8dea 6dbd 976c c33c ac55 6abd
000000d0: 5ab8 19bd c8f3 96bc a9af e33d e96e 9c3d
000000e0: 8986 203d 1beb 94bd a8b0 d8bd e461 0fbe
000000f0: 9936 833d b320 ad3d 24e4 133e 1d95 dd3d
00000100: 0afc bfbd 1bf0 9ebd c4c1 5cbd 27e5 e03c
00000110: 800c 773c 5891 b4bd 4989 783d d98e 18be
00000120: 0ee6 403d a859 983d 56c5 013d 27e1 26be
00000130: bee0 9fbc 0d50 2abc 1172 73bd 1422 4cbc
00000140: 621d afbd 8adb d8bd c488 e73d 8a14 af3d
00000150: 6988 9f3d acb7 e63d ea8c d2bc 7e94 b43d
00000160: a0c6 98bd ce87 e5bd 8072 8b3d a6c9 15be
00000170: 36c7 10be 17fc 043e 04a0 2bbc 9025 01bd
00000180: a6b7 cfbd 2922 773b 0e9c ecbd 4641 8a3c
00000190: 7b03 92bd a6b5 e13d ccef 433d ed5a f03d
000001a0: 263e d63d 44f2 babd 7612 d6bd e618 2c3e
000001b0: 1181 c3bc 93ea 22bd 119d a53c c610 d53d
000001c0: edd5 7f3d 29d3 183e 879a b03d 5d10 31bb
000001d0: 565c 07bd 76fe e73d 5b40 bc3d 574a f63d
000001e0: 5134 073e bc2c a7bd cb1c 04bd 7da3 35bd
000001f0: bf00 b5bd 1cd1 39bd 32c4 373d 8e24 c3bd
00000200: a497 3d3c cdb3 cbbd 8c20 42bd c123 523d
00000210: 00f5 873c be37 e23d ecd5 df3d d891 dfbd
00000220: 70ce 923d c4c6 0cbe 5016 3f3d f642 d33d
00000230: e1ac fe3b 8610 543d 42f4 db3d cfc0 03be
00000240: dba0 813d bd0a 523d 79e0 2dbd 0f5a 843d
00000250: 45d8 a6bc aca6 a1bd 9210 9ebd 2970 3abd
00000260: 7e7d db3c b6a7 d4bd 1c91 cc3d 2562 58bd
00000270: b2aa 073d 29c4 c73d d3e5 b4bd bdf6 80bd
00000280: 0061 bc3d 902e 623d 9c38 00be 72f6 a03d
00000290: 88f2 75bb 19a9 fdbd a13a 13be 78e9 b6bd
000002a0: a403 c9ba d0a0 fdbd d380 39bc b8ff 02bd
000002b0: 5ac6 92bd 659b 89bd 68a5 af3d d2a5 febd
000002c0: 4e43 bebd d4d2 9e3d 67ce 613d 457d a1bd
000002d0: 4a8e 283e 6148 febd 5655 953d 67fd b13d
000002e0: 69c5 103d e917 d13c ae69 0bbe 1a3f c7bd
000002f0: 06b3 8a3c 6f3c bd3d 9d1d 153d 7637 7ebc
00000300: df8b e53d b8df 20be 4c83 4a3d 5913 7f3d
00000310: c297 17be 8e23 a53d d5fb 933d 4148 06be
00000320: 1b8e d13d e4d9 e23d afb7 a3bd f57e 203d
00000330: 60ef 9dbd 69a5 863c 7327 903d c29d 943d
00000340: 29b9 173e 3292 293d d0fb 9f3d 73bc 8fbd
00000350: 6c32 e83c 03f7 953d 488b 2a3d 7fe8 e33c
00000360: 225b f6bd f077 7bbc d40a c0bd f434 a6bd
00000370: 41f2 56bd 2c99 3dbd 885b d938 7b0a ac3d
00000380: ab85 c33c 1f73 9a3c d389 51bd eae2 d83d
00000390: 87d7 9fbc 2aaf 3e3d 35a9 bb3d ea3f c33c
000003a0: 787a b53d ca7e aebd 7ad9 023e 6fa2 ed3c
000003b0: f001 13bd 7399 4fbd d741 833d e7dc 063e
000003c0: 1b80 233e 36d9 903c c234 4e3d 05e5 c13c
000003d0: 3015 0abe 60f8 17be d24e d5bd 4541 67bd
000003e0: b411 62bd 7e0b 05be f17c 85bc 34d7 96bd
000003f0: 062e 2abd 2753 0e3e 5e95 d7bc 14c9 8cbd

critic.2.weight f4 [256, 256]
-0.40403745 0.47312364 -0.1124348 -0.19970775 0.104357824 0.40156686 0.15671784 -0.04097607
0.07199984 0.054142218 0.026024621 0.36529416 0.23855786 0.108885504 -0.24589032 -0.1181101
0.010640602 0.7152198 0.033178236 0.47610435 -0.11207486 -0.10203572 0.08572653 0.07510704
0.08781702 -0.18215588 -0.050549164 0.61000603 0.085258774 0.12428605 0.12842606 -0.6241827
0.11623622 -0.04764194 0.15378778 -0.102565035 -0.1044769 -0.06681185 -0.25613043 -0.016948858
-0.3495851 0.064792044 -0.72017604 -0.112080425 0.1728161 0.17784762 -0.23811181 -0.4992263
-0.15142503 -0.24828793 -0.0010872976 -0.12725118 -0.0389334 -0.024861183 0.044532463 -0.055422813
0.47821242 -0.3113511 -0.16729821 -0.43574116 0.24212475 0.16701405 -0.058975622 0.06866285
0.3407228 0.017418537 0.11807656 -0.010078631 -0.119032495 0.039303556 -0.08221994 0.040419426
-0.38652638 0.005476903 0.15525913 -0.06978259 -0.31996962 -0.40992126 0.18551813 0.16881509
0.12938352 -0.19393529 -0.1852387 -0.1918664 0.18206498 -0.37298417 0.038088843 -0.09582023
0.13591306 -0.47965217 -0.700721 -0.037136804 0.19389762 -0.085504614 -0.1581986 0.24767274
0.1759427 -0.052610204 -0.061087586 -0.2637183 -0.07688956 -0.40089116 0.16379395 -0.006672448
0.40326202 0.28438893 -0.102598846 0.6240377 -0.019923115 -0.049697816 -0.023583602 0.05783879
-0.07373178 0.3245873 0.052180197 -0.42624697 -0.018791866 0.30982164 0.12864965 0.06794763
-0.08378247 -0.18789546 -0.20093027 -0.1719064 0.32538024 0.29651037 0.0071881926 -0.10810967
-0.059546124 0.29191783 0.24846391 -0.31128907 -0.078757085 0.11623806 0.06503636 -0.06325884
0.14724532 -0.065661974 -0.041530523 0.1069104 -0.042592507 0.41953057 -0.13202728 0.088433005
0.36924472 -0.0420062 0.0040353863 0.09808949 -0.0077715153 0.049055427 0.33890244 0.084716976
-0.004363597 -0.11836818 -0.022917926 -0.051863298 -0.04919002 0.031559937 0.31831238 -0.208093
0.07479243 -0.07716476 -0.39436823 -0.33111653 0.008332869 -0.17988525 0.15041712 0.23870434
0.048052207 -0.12468454 0.11048627 0.17503422 0.15999039 0.12221053 0.019387944 -0.27856082
0.108422615 -0.0050067645 -0.23690842 -0.36532006 0.16545025 0.009087406 0.45012462 0.06487184
-0.5413069 -0.60952145 0.12708095 0.061254892 0.6590449 0.38858962 -0.16098133 0.5776701
-0.09131261 -0.10976557 0.4153105 0.039646823 -0.12491842 -0.010164866 0.17624025 -0.17693447
-0.080771424 -0.23098522 0.05725098 -0.05520218 0.50110763 0.04490061 -0.21943988 0.071543254
0.1523321 0.11531914 -0.50056857 0.14010948 -0.060145512 0.097789824 0.014627278 -0.0034374439
-0.11847339 -0.25058404 -0.017290287 0.098269865 0.038593166 0.012921886 -0.12183322 0.0122294035
0.09910318 0.012649469 0.09465817 -0.36702204 0.2553625 0.116761334 0.121514566 0.14863953
-0.011057819 -0.034141686 0.12455089 -0.16747345 0.028102634 0.18770656 0.31137437 0.036070902
0.17860253 -0.035359487 0.08177675 -0.027779646 0.07766758 -0.11867795 -0.47322828 0.13382691
-0.18985829 -0.26678577 0.15357105 -0.18275054 -0.04022374 -0.015470829 0.06600191 0.14566118
00000000: ffdd cebe 433d f23e 3744 e6bd 3080 4cbe
00000010: 8eb9 d53d 2c9a cd3e a47a 203e 86d6 27bd
00000020: a774 933d 3bc4 5d3d 9631 d53c d607 bb3e
00000030: 8348 743e 5dff de3d acca 7bbe b5e3 f1bd
00000040: eb55 2e3c a518 373f e7e5 073d f3c3 f33e
00000050: 8187 e5bd 1bf8 d0bd 6491 af3d b8d1 993d
00000060: 69d9 b33d 1287 3abe a40c 4fbd 5b29 1c3f
00000070: 279c ae3d af89 fe3d 1f82 033e 70ca 1fbf
00000080: 410d ee3d 3224 43bd 8b7a 1d3e 9e0d d2bd
00000090: fcf7 d5bd a7d4 88bd 8723 83be 55d8 8abc
000000a0: d1fc b2be b1b1 843d 755d 38bf 6c8a e5bd
000000b0: b4f6 303e b01d 363e 95d3 73be 979a ffbe
000000c0: 2a0f 1bbe 313f 7ebe a783 8eba 224e 02be
000000d0: a178 1fbd aea9 cbbc ac67 363d 0803 63bd
000000e0: 42d8 f43e 6969 9fbe 3950 2bbe 7719 dfbe
000000f0: 8def 773e bb05 2b3e 6c90 71bd 1c9f 8c3d
00000100: 3873 ae3e 52b1 8e3c 20d2 f13d d820 25bc
00000110: 4fc7 f3bd c4fc 203d ee62 a8bd d78e 253d
00000120: c9e6 c5be 9877 b33b 40fc 1e3e 2dea 8ebd
00000130: 0fd3 a3be 33e1 d1be 77f8 3d3e dddd 2c3e
00000140: 1d7d 043e f996 46be 37af 3dbe a078 44be
00000150: 3e6f 3a3e c8f7 bebe 0c03 1c3d 663d c4bd
00000160: cb2c 0b3e f894 f5be 7462 33bf c31c 18bd
00000170: 198d 463e 0b1d afbd d0fe 21be ec9d 7d3e
00000180: 532a 343e cc7d 57bd fa36 7abd 1606 87be
00000190: 4678 9dbd 9b41 cdbe 9ab9 273e 8da4 dabb
000001a0: 5c78 ce3e 6d9b 913e 581f d2bd efc0 1f3f
000001b0: cd35 a3bc f08f 4bbd 6632 c1bc 5ee8 6c3d
000001c0: b000 97bd 4e30 a63e e7ba 553d 0b3d dabe
000001d0: 66f1 99bc f1a0 9e3e bcbc 033e 2128 8b3d
000001e0: 2596 abbd ab67 40be aac0 4dbe 3b08 30be
000001f0: 3d98 a63e 35d0 973e ee8a eb3b 9a68 ddbd
00000200: a3e6 73bd 4176 953e 536d 7e3e 4861 9fbe
00000210: 654b a1bd 380e ee3d c831 853d da8d 81bd
00000220: 7ac7 163e c979 86bd e91b 2abd d7f3 da3d
00000230: 7b75 2ebd b6cc d63e 2932 07be 5d1c b53d
00000240: a50d bd3e b10e 2cbd 463b 843b 24e3 c83d
00000250: 32a8 febb 58ee 483d 9f84 ad3e 1880 ad3d
00000260: 81fc 8ebb 046b f2bd 60be bbbc 9c6e 54bd
00000270: 797b 49bd fe44 013d d7f9 a23e 5516 55be
00000280: c62c 993d 8f08 9ebd a2ea c9be 1b88 a9be
00000290: 9686 083c d733 38be f206 1a3e e96e 743e
000002a0: 64d2 443d 9c5a ffbd a046 e23d 2c3c 333e
000002b0: 85d4 233e 8449 fa3d 77d3 9e3c 869f 8ebe
000002c0: ad0c de3d c90f a4bb 1f98 72be 3b0b bbbe
000002d0: ca6b 293e 58e3 143c bc76 e63e 87db 843d
000002e0: 1793 0abf 9909 1cbf 8221 023e 69e6 7a3d
000002f0: 2bb7 283f 38f5 c63e 4ad8 24be 30e2 133f
00000300: 1b02 bbbd c5cc e0bd 94a3 d43e b564 223d
00000310: 3bd5 ffbd 8a8a 26bc 5378 343e 4f2e 35be
00000320: 7d6b a5bd 6487 6cbe 0180 6a3d ae1b 62bd
00000330: 9748 003f b4e9 373d d9b4 60be 4585 923d
00000340: f2fc 1b3e 712c ec3d 4325 00bf dc78 0f3e
00000350: 245b 76bd 0846 c83d 40a7 6f3c bd46 61bb
00000360: 2da2 f2bd 8d4c 80be 5ca4 8dbc b641 c93d
00000370: de13 1e3d 51b6 533c b283 f9bd d65d 483c
00000380: 9cf6 ca3d b83f 4f3c 25dc c13d 50ea bbbe
00000390: e0be 823e 9120 ef3d a1dc f83d f634 183e
000003a0: db2b 35bc 27d8 0bbd 8914 ff3d 297e 2bbe
000003b0: 7f37 e63c 2636 403e 766c 9f3e 15bf 133d
000003c0: 95e3 363e 1cd5 10bd 927a a73d 2492 e3bc
000003d0: 2e10 9f3d 6d0d f3bd fa4a f2be ec09 093e
000003e0: 366a 42be 2598 88be bb41 1d3e f522 3bbe
000003f0: a6c1 24bd 5c79 7dbc 022c 873d 3428 153e

critic.2.bias f4 [256]
0.005452933 0.074084245 -0.040616795 -0.016225781 -0.06580706 0.053087756 -0.021974217 0.062393345
0.019323425 0.024030259 0.029612977 -0.064913526 -0.016876731 -0.006070731 -0.061764788 0.0689591
0.079864964 0.10808474 0.041291676 0.044415876 -0.042554468 -0.011727236 0.0061252126 0.0488379
0.039971896 -0.0002555609 -0.006335453 -0.018162297 0.020038513 -0.07373315 -0.10140033 -0.0064634304
0.0046073 0.11311048 0.073113285 0.019484404 -0.02161391 0.06867161 -0.010365703 0.06882948
0.05542124 -0.027129939 0.027162349 0.0140145235 -0.023888614 -0.018134201 -0.020765329 0.0011656061
0.030915236 -0.047732323 -0.0948903 0.04904184 -0.10725152 -0.028666563 0.11036289 0.003150253
0.035596255 -0.017667646 0.0063838474 0.021513583 -0.11872396 -0.0028784263 -0.02534763 0.05850694
0.042140584 -0.036172926 0.028366314 -0.041519783 -0.07020761 0.004797671 -0.027117193 0.07053343
-0.010277185 0.0683206 -0.039686605 -0.030587224 0.04675601 0.021928828 -0.023013001 -0.009911914
0.08037366 0.052391194 -0.055604946 -0.051212996 0.14205624 0.022478087 -0.025607226 -0.035408206
0.055336647 0.061785467 0.024654299 0.08137555 -0.11480306 0.019580342 0.082282804 0.017778749
0.030085146 0.047298048 0.013886775 0.015426167 0.015116758 -0.02977995 0.014719127 -0.031552706
0.07387964 -0.009335541 -0.039435197 0.010719807 -0.10210072 0.0076886844 0.089662574 -0.03750984
-0.007785729 -0.05437922 0.050570056 -0.0012337137 0.019502562 -0.078297466 0.08847674 0.000718158
0.10178847 0.05020506 -0.067330256 -0.012054082 -0.017540852 -0.030745778 -0.038609274 0.020199116
0.07637841 0.032616556 -0.019204985 0.09400989 -0.008107626 0.010520091 -0.039995458 -0.03807936
0.045342274 -0.020599294 -0.056118734 0.08408292 0.039990302 0.035793394 0.02198807 0.007377293
-0.020421546 0.12366787 0.049487256 -0.040397096 0.0034149135 0.034114294 0.027725225 0.055931862
-0.002130393 0.03219621 0.019629084 0.061656434 0.056171264 -0.017724313 0.0017672917 -0.04693227
-0.02956736 -0.021077104 0.06591001 -0.045259565 0.01790594 0.03424588 0.045468062 0.0151687525
0.02361712 -0.017658325 0.017365096 0.0080686165 0.037347 -0.0075099375 -0.037049226 -0.0056976364
0.006275012 -0.001544901 0.08338155 0.075184606 -0.059268657 -0.032646112 -0.06643542 0.006311021
0.032924768 0.068179615 0.01845836 0.024885898 0.0100506935 0.0133203985 0.0387788 0.021585865
-0.01749107 -0.00527543 -0.016709007 -0.03886935 -0.004499391 0.028264422 -0.0174468 -0.015002839
0.040325996 0.06023035 -0.005482551 -0.043712735 -0.0009895756 0.03503246 0.094858065 -0.011502611
0.010687975 -0.12964983 0.014659327 0.007836985 0.041245822 0.026870674 -0.027545035 -0.010099491
-0.06611991 0.06380425 -0.066244535 -0.059721116 -0.105981335 -0.02108956 0.066622645 -0.12150101
-0.04293617 -0.02417769 -0.04577509 -0.09744818 0.032890145 0.0800604 0.010459785 0.08371437
0.059155878 -0.024659174 -0.06883114 -0.027181888 -0.01397485 -0.024368273 -0.03098254 -0.07600255
-0.06826327 0.048002247 0.0933277 -0.00997921 0.053470176 -0.037406206 0.013677512 0.104494676
-0.017633665 0.060910605 0.04336561 -0.0708087 -0.020758314 0.05454526 0.030087695 0.0020284948
00000000: 84ae b23b 7bb9 973d cc5d 26bd eeeb 84bc
00000010: dac5 86bd 8c72 593d 4603 b4bc 2a90 7f3d
00000020: 294c 9e3c 1bdb c43c ea96 f23c 62f1 84bd
00000030: 1241 8abc fcec c6bb 13fd 7cbd 6e3a 8d3d
00000040: 3e90 a33d 885b dd3d 7621 293d 6ced 353d
00000050: 984d 2ebd 9823 40bc 02b6 c83b 400a 483d
00000060: 92b9 233d cefc 85b9 a299 cfbb 19c9 94bc
00000070: cf27 a43c 6801 97bd faaa cfbd 2fcb d3bb
00000080: d5f8 963b 78a6 e73d 6bbc 953d c29d 9f3c
00000090: a80f b1bc b3a3 8c3d e9d4 29bc 78f6 8c3d
000000a0: 6201 633d 9b3f debc 9383 de3c 2c9d 653c
000000b0: 0eb2 c3bc 2d8e 94bc 0d1c aabc 40c7 983a
000000c0: f341 fd3c f882 43bd d855 c2bd 19e0 483d
000000d0: afa6 dbbd 24d6 eabc f005 e23d 7a74 4e3b
000000e0: 61cd 113d bdbb 90bc 982f d13b 413d b03c
000000f0: 8c25 f3bd fba3 3cbb d5a5 cfbc f9a4 6f3d
00000100: 9b9b 2c3d 102a 14bd 7960 e83c a610 2abd
00000110: 02c9 8fbd c835 9d3b e024 debc d573 903d
00000120: a361 28bc aceb 8b3d 6c8e 22bd 0f92 fabc
00000130: 3b83 3f3d 16a4 b33c c385 bcbc 9565 22bc
00000140: f29a a43d 2698 563d 03c2 63bd b8c4 51bd
00000150: 3177 113e f723 b83c 3fc6 d1bc 3208 11bd
00000160: aea8 623d c212 7d3d d0f7 c93c 39a8 a63d
00000170: de1d ebbd f466 a03c e383 a83d bda4 913c
00000180: 2075 f63c 99bb 413d 5b85 633c 09be 7c3c
00000190: 47ac 773c 15f5 f3bc 7e28 713c 693d 01bd
000001a0: 354e 973d 19f4 18bc cd86 21bd 21a2 2f3c
000001b0: 2f1a d1bd 5cf1 fb3b 03a1 b73d eba3 19bd
000001c0: 6e1f ffbb bfbc 5ebd 8c22 4f3d 90b4 a1ba
000001d0: d6c3 9f3c 6c5a a0bd 4b33 b53d c442 3c3a
000001e0: 7976 d03d d2a3 4d3d 72e4 89bd 7c7e 45bc
000001f0: d5b1 8fbc 92de fbbc c224 1ebd 9e78 a53c
00000200: 496c 9c3d f098 053d c653 9dbc 4288 c03d
00000210: d9d5 04bc 765c 2c3c 47d2 23bd 1af9 1bbd
00000220: d2b8 393d dabf a8bc c2dc 65bd aa33 ac3d
00000230: dfcc 233d 189c 123d 5320 b43c 38bd f13b
00000240: 164b a7bc 9545 fd3d 26b3 4a3d 6d77 25bd
00000250: becc 5f3b 6ebb 0b3d 0320 e33c cf18 653d
00000260: 109e 0bbb 2ce0 033d 2ccd a03c 758b 7c3d
00000270: d713 663d 9432 91bc 78a4 e73a 0d3c 40bd
00000280: 4037 f2bc e4a9 acbc d4fb 863d 1862 39bd
00000290: 7aaf 923c 6845 0c3d b83c 3a3d 5c86 783c
000002a0: b178 c13c 31a8 90bc 3f41 8e3c 3b32 043c
000002b0: 2bf9 183d ec15 f6bb eec0 17bd 3db3 babb
000002c0: 9e9e cd3b 477e caba f2c3 aa3d 63fa 993d
000002d0: b1c3 72bd eeb7 05bd 4b0f 88bd aecc ce3b
000002e0: 1fdc 063d c1a1 8b3d fd35 973c 83dd cb3c
000002f0: aaab 243c cd3d 5a3c 85d6 1e3d d7d4 b03c
00000300: 6f49 8fbc 84dd acbb 54e1 88bc 7835 1fbd
00000310: a16f 93bb ca8a e73c 97ec 8ebc 78ce 75bc
00000320: df2c 253d 19b4 763d f9a6 b3bb 200c 33bd
00000330: a6b4 81ba 327e 0f3d f244 c23d 7375 3cbc
00000340: 9e1c 2f3c edc2 04be ad2d 703c b366 003c
00000350: 61f1 283d e31f dc3c 20a6 e1bc 5678 25bc
00000360: e069 87bd cdab 823d 37ab 87bd 219e 74bd
00000370: be0c d9bd 03c4 acbc 7471 883d 86d5 f8bd
00000380: d6dd 2fbd 4a10 c6bc a97e 3bbd e992 c7bd
00000390: d1b7 063d b5f6 a33d 855f 2b3c 7172 ab3d
000003a0: 6f4d 723d 0902 cabc 57f7 8cbd 8dac debc
000003b0: c5f6 64bc f99f c7bc 19cf fdbc 3aa7 9bbd
000003c0: 9dcd 8bbd 019e 443d 9822 bf3d d77f 23bc
000003d0: 8b03 5b3d 4037 19bd a517 603c 4e01 d63d
000003e0: 7a74 90bc 667d 793d 23a0 313d 2704 91bd
000003f0: 570d aabc da6a 5f3d 787a f63c 7ff0 043b

critic.4.weight f4 [1, 256]
-0.31338406 0.18006806 -0.21532145 -0.20590164 0.26209727 -0.23723981 -0.21544068 -0.21911618
0.21510226 0.3242284 0.1871357 -0.3021534 -0.22680598 0.22118568 0.2871667 -0.23661536
0.18192437 0.1894875 0.2942151 -0.27617982 -0.24798709 -0.25231877 -0.30044472 0.24316154
-0.21749529 -0.20207693 0.28727734 0.2364645 0.21949606 -0.19397117 0.23345587 -0.20320725
0.22492513 0.1885179 0.20460533 0.21549603 -0.2941381 0.29537132 0.3068332 0.16334884
0.2526929 0.20663074 -0.2315599 0.24418792 -0.20467713 0.22117308 0.21993218 -0.29446003
-0.2446907 -0.20268956 -0.2064675 -0.24436294 -0.1444775 0.19135813 0.16162102 0.2241257
0.24394877 -0.23913918 0.2222512 -0.17829415 -0.1758018 -0.21808209 0.24268353 -0.28151962
-0.22957025 -0.17798176 -0.34936848 0.23953508 -0.15859593 -0.38678145 -0.19903073 -0.32125023
0.22415541 -0.20239934 -0.25762394 0.31625962 -0.26761338 -0.22282003 0.21559489 0.17364624
-0.31976312 0.21154444 0.29673687 -0.2031477 -0.21366027 -0.33188716 -0.17395459 -0.20239274
0.30378565 0.20253113 0.26448223 0.19555111 -0.17164218 -0.21878825 -0.34546977 0.2493097
0.2114473 0.22200648 0.21383622 -0.2656651 0.18191637 0.20636415 -0.22291127 -0.21943176
-0.3387583 -0.2811275 0.3091289 -0.21378338 -0.20597516 -0.2496482 -0.21676072 0.27764112
0.3077208 -0.31050885 0.19802229 0.2746033 0.19097887 -0.19126628 -0.3576101 -0.22973865
0.19844104 0.23619741 0.21760209 0.2482446 -0.18128286 0.21655944 -0.2000535 0.24170169
0.20504768 0.19122061 0.24168055 0.1931965 -0.2034028 0.34446758 -0.21908247 0.30986342
0.29845247 -0.22120897 -0.26034945 -0.28462276 -0.24177928 0.21817507 0.31248316 -0.20613618
0.20903243 0.1946432 0.16722515 0.21373837 0.19398658 -0.32012904 -0.18065786 0.19769739
0.3337603 0.29307142 0.2095652 -0.27148134 0.18265773 -0.20996611 0.29994598 -0.2758576
-0.30091998 -0.28892803 0.2274271 0.2732939 0.27776986 -0.3130483 -0.20392048 0.32343033
0.22483353 -0.37890756 -0.24709085 0.29144675 -0.2258917 -0.19811854 -0.32248667 0.2422557
-0.21121252 -0.24619608 0.21227995 -0.26150578 0.28957167 -0.23731339 0.24464239 0.19905627
0.1977167 0.18720803 0.17836314 0.21603592 -0.31146017 -0.21676672 -0.22882545 -0.22939457
-0.23154518 -0.2212258 0.30605718 -0.22626822 0.31625506 0.3107305 -0.40186384 0.22870108
-0.2240407 0.19535667 -0.21897575 0.29585576 0.23474465 0.16259682 0.20684563 0.2303043
-0.30198434 -0.17944117 -0.21732953 -0.21036571 0.21677874 0.22804494 -0.25369143 -0.18276317
0.19639495 -0.28631207 0.23760734 -0.31551805 -0.17612495 -0.26989415 0.19310088 -0.17211825
-0.2154728 -0.18294306 0.30469787 -0.18032125 0.21835859 0.20351267 0.21106397 -0.21905455
0.20632772 -0.3579595 0.2560426 0.23368953 -0.21991336 -0.18295002 0.23819785 0.20898053
-0.2171786 -0.29702023 0.21766374 -0.24063413 -0.2278902 -0.1710957 -0.34566125 0.18964872
-0.28367087 0.22288248 -0.23451975 0.34165847 -0.21074602 0.27993506 0.24011996 0.1623546
00000000: e073 a0be c363 383e 3a7d 5cbe e1d7 52be
00000010: 9d31 863e feee 72be 7b9c 5cbe fe5f 60be
00000020: c443 5c3e 4401 a63e 80a0 3f3e dab3 9abe
00000030: d43f 68be 807e 623e 8407 933e 4c4b 72be
00000040: 624a 3a3e 0309 423e 5da3 963e 7167 8dbe
00000050: 54f0 7dbe ed2f 81be e4d3 99be 57ff 783e
00000060: 16b7 5ebe 41ed 4ebe 0416 933e c023 723e
00000070: 93c3 603e 61a0 46be 0e0f 6f3e 9015 50be
00000080: c652 663e d60a 413e 0f84 513e feaa 5c3e
00000090: 4599 96be e93a 973e 3e19 9d3e eb44 273e
000000a0: f760 813e 0297 533e 0a1e 6dbe 660c 7a3e
000000b0: e296 51be 327b 623e e735 613e 77c3 96be
000000c0: 3390 7abe da8d 4fbe 376c 53be 473a 7abe
000000d0: e9f1 13be 63f3 433e fb7f 253e 3581 653e
000000e0: b5cd 793e e7e0 74be d295 633e be92 36be
000000f0: 6305 34be e950 5fbe 0882 783e 5723 90be
00000100: 7714 6bbe da40 36be 6de0 b2be af48 753e
00000110: f966 22be 3808 c6be b6ce 4bbe e97a a4be
00000120: ff88 653e c641 4fbe 49e7 83be c8ec a13e
00000130: 9f04 89be ef2a 64be e8c4 5c3e 52d0 313e
00000140: feb7 a3be 1b9f 583e e5ed 973e f305 50be
00000150: c2c9 5abe 1ded a9be 2721 32be 0b40 4fbe
00000160: cb89 9b3e 5264 4f3e 376a 873e 8d3e 483e
00000170: f8c2 2fbe 070a 60be 6ae1 b0be 0b4b 7f3e
00000180: a485 583e ab55 633e e2f7 5a3e 4205 88be
00000190: 4948 3a3e 2051 533e da42 64be b8b2 60be
000001a0: ba71 adbe f2ef 8fbe 2546 9e3e 08ea 5abe
000001b0: 27eb 52be c7a3 7fbe 86f6 5dbe fa26 8e3e
000001c0: 958d 9d3e 04fb 9ebe 5bc6 4a3e ce98 8c3e
000001d0: f78f 433e 4fdb 43be ac18 b7be 9c40 6bbe
000001e0: 2134 4b3e bcdd 713e 15d3 5e3e d533 7e3e
000001f0: 37a2 39be c2c1 5d3e d3da 4cbe a680 773e
00000200: 05f8 513e 56cf 433e 1b7b 773e 4ed5 453e
00000210: d348 50be 0e5e b03e 2857 60be 6ba6 9e3e
00000220: c3ce 983e 9b84 62be 864c 85be 13ba 91be
00000230: fd94 77be 4969 5f3e cbfd 9f3e 5d15 53be
00000240: 990c 563e 8c50 473e 123d 2b3e 3bde 5a3e
00000250: 6ba4 463e f4e7 a3be 60fe 38be 2f71 4a3e
00000260: a1e2 aa3e 750d 963e 4398 563e 9aff 8abe
00000270: a10a 3b3e 5b01 57be 8592 993e 353d 8dbe
00000280: 2f12 9abe 60ee 93be a6e2 683e 2eed 8b3e
00000290: da37 8e3e de47 a0be 88d0 50be a998 a53e
000002a0: c33a 663e 2c00 c2be 6205 7dbe 8238 953e
000002b0: 2750 67be 96df 4abe f91c a5be e111 783e
000002c0: 1848 58be d31a 7cbe ea5f 593e 16e4 85be
000002d0: bd42 943e 4802 73be 8983 7a3e 68d5 4b3e
000002e0: 3f76 4a3e 76b3 3f3e d4a4 363e 8538 5d3e
000002f0: b577 9fbe 18f8 5dbe 3851 6abe 69e6 6abe
00000300: 2e1a 6dbe 0489 62be 87b3 9c3e dbb2 67be
00000310: 2fec a13e 1118 9f3e 19c1 cdbe 9e30 6a3e
00000320: ed6a 65be 940b 483e 2e3b 60be 687a 973e
00000330: e760 703e c87f 263e 57cf 533e e4d4 6b3e
00000340: b19d 9abe 6dbf 37be a28b 5ebe 1c6a 57be
00000350: 3ffb 5d3e 9d84 693e d8e3 81be 4526 3bbe
00000360: c21b 493e 7f97 92be 574f 733e 958b a1be
00000370: 195a 34be 912f 8abe 3dbc 453e c43f 30be
00000380: e7a4 5cbe 6d55 3bbe 5c01 9c3e 22a6 38be
00000390: 6599 5f3e a065 503e 2721 583e d64f 60be
000003a0: 9347 533e 7846 b7be 0418 833e 4f4c 6f3e
000003b0: f830 61be 4057 3bbe 23ea 733e fefe 553e
000003c0: 1164 5ebe 0913 98be 3ee3 5e3e cb68 76be
000003d0: 0c5c 69be b633 2fbe 83fa b0be 4633 423e
000003e0: 4f3d 91be 4e3b 643e f225 70be dced ae3e
000003f0: cecd 57be a653 8f3e 02e2 753e 4940 263e

actor.0.weight f4 [256, 42]
0.026983853 0.0011106502 0.057619777 -0.0019366073 0.10269843 -0.09886323 0.038593706 -0.08294339
-0.10251243 0.11083914 0.051173713 0.22806284 -0.11259244 -0.02031237 0.13939805 -0.17696477
-0.0802794 -0.04177905 0.028433256 -0.07902191 0.15406923 0.231819 0.10284309 0.0046946327
0.10402538 -0.11899212 0.04704841 -0.11431975 0.004795032 -0.12439876 -0.017565018 0.18160349
-0.076179735 -0.11323348 0.09927283 0.07086319 0.029164318 -0.038456567 0.02517122 -0.21440037
0.008264128 0.12505938 0.10657271 0.09469621 0.100413375 0.11700287 0.07289685 -0.04859361
0.056360442 0.058851503 -0.04863231 0.13301276 0.052699436 -0.005610567 0.03711892 -0.029097287
-0.13568409 -0.13600323 -0.17012277 -0.09888503 0.07988294 -0.08105179 0.25644454 0.12219583
0.08274973 0.012618511 0.12506469 0.11743791 -0.04309863 0.054949544 -0.02710012 0.0981184
-0.15396096 -0.118841335 -0.05388481 -0.15326047 -0.071573704 0.11931272 0.0071480516 0.017953526
0.030989787 -0.13168241 0.034024436 0.051945955 0.099084124 0.08056208 -0.06486529 0.19101487
-0.06324898 0.037806023 0.07515888 0.018290408 0.06364777 -0.111903876 0.0017626352 -0.03346576
0.04852498 -0.032039143 0.04847029 -0.05930948 -0.12377784 -0.04641475 0.0844643 0.031800687
-0.1911974 0.052660134 0.13293327 -0.06465264 -0.08972537 0.031254146 0.08622761 0.1864791
-0.088947885 0.049903642 -0.08490924 -0.11400571 -0.079079926 0.056491382 -0.0573842 -0.027400836
0.018891323 -0.09659029 0.109308355 0.13638626 -0.1300585 0.110055715 -0.16387825 0.077153645
-0.00092622754 -0.10572543 -0.058151484 -0.16224921 0.017841617 -0.08478913 0.11731134 0.05063483
0.09449428 0.014022332 0.08750424 0.1365124 0.08167164 0.20341581 0.09548171 -0.114847176
0.08610082 0.07705745 -0.06833301 0.09394952 0.06863234 -0.1267573 -0.028142497 0.121466115
-0.0436744 0.015611711 -0.11972358 -0.087137856 -0.011571157 0.104865335 -0.021005176 -0.11628011
-0.03704544 0.1147386 -0.13443552 0.071073666 0.039215423 -0.1386569 -0.15418088 -0.07857588
-0.08626863 -0.1785162 -0.08224345 -0.15266716 0.008531827 -0.195191 -0.1328302 -0.08646161
0.05255699 0.0025852919 0.14694889 -0.030272942 0.09109285 0.04999314 -0.11620298 0.001523376
0.10165589 0.0066976896 -0.0047278106 0.07179581 0.118656844 -0.06160224 -0.024578799 0.012291862
0.023663655 0.043299146 0.11289806 0.03629125 -0.010385134 -0.08139475 -0.11867442 0.08705651
0.08318541 -0.1114885 0.10086636 0.04976237 0.05016626 0.0878555 0.10829264 -0.102866605
-0.13876113 -0.16054578 0.15388593 0.036204487 -0.10130495 0.16800663 0.10474798 0.23683462
0.1545286 -0.10445374 0.14011107 -0.040048294 0.006326805 -0.18760955 0.019513909 0.05433495
-0.078435756 -0.24321903 -0.14556625 -0.12620321 -0.03662017 -0.15172882 0.010009794 0.08400232
0.13251927 0.05319125 0.010054529 0.06736025 0.02293463 0.036504984 0.075531 0.057838894
0.012607884 0.010223946 0.16374198 0.10695698 -0.058848023 -0.09588552 -0.0791416 0.044291265
0.09672149 -0.07205524 0.14050414 0.017700452 -0.08845433 0.02234292 -0.08104464 -0.12623061
00000000: 3e0d dd3c 3d93 913a b702 6c3d c2d5 fdba
00000010: 8e53 d23d ce78 cabd 6f14 1e3d 39de a9bd
00000020: 09f2 d1bd a2ff e23d 879b 513d 4e89 693e
00000030: dd96 e6bd 2166 a6bc 5dbe 0e3e 4136 35be
00000040: 8769 a4bd 8220 2bbd dcec e83c 3dd6 a1bd
00000050: 53c4 1d3e f661 6d3e 669f d23d 6fd5 993b
00000060: 420b d53d 24b2 f3bd d5b5 403d 7920 eabd
00000070: a51f 9d3b c7c4 febd 83e4 8fbc 44f6 393e
00000080: 1f04 9cbd f4e6 e7bd 8e4f cb3d b820 913d
00000090: 02ea ee3c a284 1dbd e033 ce3c c58b 5bbe
000000a0: 4466 073c 910f 003e cb42 da3d 16f0 c13d
000000b0: 87a5 cd3d 339f ef3d f24a 953d 180a 47bd
000000c0: 35da 663d 460e 713d ac32 47bd 7f34 083e
000000d0: 5ddb 573d d9d8 b7bb 020a 183d 6f5d eebc
000000e0: c5f0 0abe 6e44 0bbe aa34 2ebe 3c84 cabd
000000f0: ab99 a33d 7bfe a5bd b34c 833e cf41 fa3d
00000100: b178 a93d dfbd 4e3c f510 003e 4983 f03d
00000110: 3088 30bd c612 613d 1201 debc 4df2 c83d
00000120: f1a7 1dbe 1663 f3bd 52b6 5cbd 50f0 1cbe
00000130: 3c95 92bd 3a5a f43d 343a ea3b 4613 933c
00000140: 4bde fd3c c1d7 06be 355d 0b3d 48c5 543d
00000150: 9eec ca3d bbfd a43d 18d8 84bd 6799 433e
00000160: ae88 81bd 7dda 1a3d e6ec 993d c4d5 953c
00000170: c359 823d dc2d e5bd 3908 e73a 6513 09bd
00000180: 21c2 463d 7a3b 03bd c888 463d 7fee 72bd
00000190: 3c7f fdbd 651d 3ebd 9efb ac3d 7041 023d
000001a0: 40c9 43be 27b2 573d a91f 083e 9a68 84bd
000001b0: efc1 b7bd 5904 003d 1a98 b03d 61f4 3e3e
000001c0: 4f2a b6bd c367 4c3d e5e4 adbd d37b e9bd
000001d0: a8f4 a1bd 8263 673d b20b 6bbd b877 e0bc
000001e0: fac1 9a3c 21d1 c5bd 0fdd df3d d7a8 0b3e
000001f0: 0e2e 05be e464 e13d b3cf 27be bb02 9e3d
00000200: 14ce 72ba 9386 d8bd 4030 6ebd a824 26be
00000210: 9528 923c eca5 adbd ee40 f03d 7866 4f3d
00000220: 3886 c13d ecbd 653c 6c35 b33d e8c9 0b3e
00000230: 7643 a73d 3c4c 503e ea8b c33d ff34 ebbd
00000240: a055 b03d 4cd0 9d3d 2df2 8bbd 9b68 c03d
00000250: 1d8f 8c3d aacc 01be 188b e6bc 3ac3 f83d
00000260: ede3 32bd 43c8 7f3c a331 f5bd 5575 b2bd
00000270: f394 3dbc a3c3 d63d 0c13 acbc 4424 eebd
00000280: f6bc 17bd 12fc ea3d 77a9 09be 128f 913d
00000290: 5aa0 203d 13fc 0dbe 98e1 1dbe 64ec a0bd
000002a0: 9cad b0bd f3cc 36be 416f a8bd c854 1cbe
000002b0: 13c9 0b3c 26e0 47be a404 08be c912 b1bd
000002c0: 0046 573d 006e 293b c579 163e f6fe f7bc
000002d0: e38e ba3d 9bc5 4c3d d4fb edbd 04ac c73a
000002e0: f730 d03d 4b78 db3b c0eb 9abb ae09 933d
000002f0: 5c02 f33d a152 7cbd 7a59 c9bc ce63 493c
00000300: 48da c13c 725a 313d 1937 e73d 22a6 143d
00000310: 6926 2abc 4ab2 a6bd 930b f3bd af4a b23d
00000320: 1d5d aa3d 1554 e4bd 0693 ce3d a0d3 4b3d
00000330: 237b 4d3d 96ed b33d 88c8 dd3d baab d2bd
00000340: 6617 0ebe 1d66 24be 4694 1d3e 284b 143d
00000350: f878 cfbd ee09 2c3e 1c86 d63d c684 723e
00000360: bf3c 1e3e d8eb d5bd 4779 0f3e ae09 24bd
00000370: 1651 cf3b b81c 40be a2db 9f3c 538e 5e3d
00000380: eda2 a0bd 690e 79be 520f 15be 6a3b 01be
00000390: 08ff 15bd cd5e 1bbe 1e00 243c 6909 ac3d
000003a0: 22b3 073e 11df 593d c0bb 243c 2cf4 893d
000003b0: 68e1 bb3c 4086 153d ffaf 9a3d 7ae8 6c3d
000003c0: 4c91 4e3c 5682 273c faab 273e 430c db3d
000003d0: a00a 71bd a15f c4bd fe14 a2bd c26a 353d
000003e0: eb15 c63d b391 93bd 51e0 0f3e 8a00 913c
000003f0: 8b27 b5bd 8008 b73c bbfa a5bd 9942 01be

actor.0.bias f4 [256]
0.054271184 -0.113920346 -0.08003423 -0.05358403 0.013759299 -0.038035445 -0.077720925 -0.14351836
-0.118562974 -0.17665647 0.0032816706 0.092791356 -0.1326011 -0.088852346 -0.06029416 -0.11069292
-0.12663208 0.09806961 -0.06332428 -0.11715702 0.10175459 0.064262114 0.100893095 0.05370518
-0.17012885 -0.11061817 0.027297214 -0.07666787 -0.1373987 -0.14460088 0.07397148 -0.044893384
-0.04571499 0.083696954 0.03526392 -0.014130673 0.03258395 -0.06795188 -0.11226075 -0.13148394
-0.132 -0.055865385 0.09078865 0.09431077 -0.035709858 0.025350204 -0.004544022 0.05263544
-0.1450735 0.1317819 0.060839903 -0.06020035 -0.13176118 -0.023887426 0.0013041315 0.005640508
-0.045385037 0.091531955 0.12601522 -0.0893517 -0.13253877 0.14885156 -0.10386804 0.09243433
0.022987315 0.032222293 0.09991185 0.12117442 0.09796755 0.141669 -0.07367522 0.13560203
0.06129246 0.11405897 0.009118694 0.011845311 -0.048614174 -0.06375574 -0.0354309 0.044541787
-0.14136876 0.020308405 0.13951822 0.07498952 0.13945678 0.021726985 0.055826835 0.053277865
0.06901586 -0.0060194796 0.07112714 0.06446571 0.13015428 0.023388354 -0.09533691 0.010933561
0.07285176 0.1574085 0.076532535 -0.14328699 -0.03161955 0.015818192 0.05924102 -0.089057006
0.12726983 0.03640796 -0.06677434 0.057108786 0.14638563 -0.0731121 0.13847436 -0.094164655
-0.017663607 -0.04359525 -0.1288441 -0.07358932 -0.0037102166 -0.14786392 -0.059817504 -0.13862652
-0.029160056 0.03868729 0.095021725 0.116177596 0.015137814 0.09759377 0.104308255 -0.08492761
0.01473956 -0.1685487 -0.04835412 0.15071009 -0.17025836 0.031836838 0.057171326 -0.15129663
0.07327424 -0.06752887 0.11453525 -0.16488771 -0.063375466 -0.0752669 -0.08027502 -0.0061254045
-0.1257276 0.08428963 0.004513348 -0.058846068 -0.072626315 -0.009912761 -0.033277076 0.009770617
-0.13261504 -0.14934584 0.13519917 -0.056847364 -0.065144695 0.095849834 0.073065445 0.053405292
-0.08946714 0.05194105 0.040218238 -0.010397414 -0.021236464 0.106833585 -0.08997923 0.016880961
-0.110743016 0.039647922 0.07705946 -0.059475057 -0.09667108 -0.01143126 -0.0795745 -0.12810194
-0.043699343 0.11005176 0.12405191 -0.11101964 0.040612977 0.14798161 -0.03887975 0.07324367
0.14267214 -0.12733045 0.11730796 -0.023829583 -0.029080506 0.12338665 -0.06854636 -0.04913014
0.048914954 0.086337306 -0.12963568 -0.07889937 0.031948406 0.11532852 -0.14172418 0.11065158
-0.06347015 -0.04569441 0.01761369 -0.10254922 0.11441716 -0.10969325 -0.11150176 -0.10128761
0.023847539 -0.009201701 -0.15593709 -0.015265316 0.11862226 0.032558594 -0.09325941 0.11286805
0.010116427 0.08742134 0.016167603 -0.09316761 -0.0033154578 0.0070441016 0.010366379 -0.102895066
-0.15479705 0.11913702 0.088700786 -0.09371104 0.039535396 0.053634245 -0.01232361 0.1004014
-0.1581821 0.01474762 0.102484085 -0.16729188 0.015892526 -0.023260554 0.01463473 -0.07754617
-0.10480144 0.0026356154 -0.14491302 0.022818945 0.016766801 -0.09096775 0.060980983 -0.1424408
0.09523579 -0.020484777 -0.046363857 0.07552428 -0.076935925 0.08705897 0.0008261297 0.05023517
00000000: 764b 5e3d 124f e9bd fde8 a3bd ee7a 5bbd
00000010: af6e 613c 0ecb 1bbd 262c 9fbd 7af6 12be
00000020: 25d1 f2bd 6fe5 34be 4c11 573b 6509 be3d
00000030: 95c8 07be 38f8 b5bd 02f7 76bd f8b2 e2bd
00000040: d7ab 01be b8d8 c83d 29b0 81bd 05f0 efbd
00000050: b664 d03d db9b 833d 0aa1 ce3d f6f9 5b3d
00000060: 4236 2ebe c78b e2bd 689e df3c 0b04 9dbd
00000070: 3fb2 0cbe 4112 14be 5c7e 973d 20e2 37bd
00000080: a43f 3bbd 4f69 ab3d e670 103d 5784 67bc
00000090: bf76 053d 5b2a 8bbd f7e8 e5bd baa3 06be
000000a0: 022b 07be 1ad3 64bd 66ef b93d 0126 c13d
000000b0: 8044 12bd 3bab cf3c 05e6 94bb 4298 573d
000000c0: 268e 14be d6f1 063e 4333 793d a494 76bd
000000d0: 67ec 06be 90af c3bc 64ef aa3a 03d4 b83b
000000e0: a9e5 39bd 1b75 bb3d 220a 013e 06fe b6bd
000000f0: 3eb8 07be 8b6c 183e c4b8 d4bd 364e bd3d
00000100: e54f bc3c 86fb 033d 969e cc3d 4b2a f83d
00000110: 36a3 c83d ae11 113e 09e3 96bd 42db 0a3e
00000120: cd0d 7b3d c097 e93d 9366 153c d612 423c
00000130: a81f 47bd 5f92 82bd fe1f 11bd 7371 363d
00000140: f9c2 10be d05d a63c dddd 0e3e 1b94 993d
00000150: c2cd 0e3e cafc b13c aeaa 643d e439 5a3d
00000160: 3058 8d3d 0e3f c5bb 1bab 913d 9906 843d
00000170: 2a47 053e ef98 bf3c ff3f c3bd ae22 333c
00000180: 4e33 953d b22f 213e 17bd 9c3d d3b9 12be
00000190: 8083 01bd 2795 813c b6a6 723d 8563 b6bd
000001a0: 0653 023e 8320 153d fcc0 88bd e7ea 693d
000001b0: 1de6 153e ccbb 95bd 39cc 0d3e 66d9 c0bd
000001c0: 45b3 90bc ef90 32bd b5ef 03be ffb5 96bd
000001d0: 1b27 73bb a469 17be 3303 75bd 1cf4 0dbe
000001e0: 12e1 eebc 9076 1e3d c09a c23d 85ee ed3d
000001f0: 9804 783c 3edf c73d 919f d53d 87ee adbd
00000200: 327e 713c 0898 2cbe f80e 46bd bf53 1a3e
00000210: 3558 2ebe 5867 023d 7b2c 6a3d 81ed 1abe
00000220: ce10 963d 944c 8abd 7591 ea3d 53d8 28be
00000230: ffca 81bd 8825 9abd 3b67 a4bd 9eb7 c8bb
00000240: bcbe 00be 0ba0 ac3d b5e4 933b 9308 71bd
00000250: 1bbd 94bd 2269 22bc 8b4d 08bd f014 203c
00000260: 3dcc 07be 1eee 18be a771 0a3e c8d8 68bd
00000270: 956a 85bd eb4c c43d 56a3 953d 82bf 5a3d
00000280: 8c3a b7bd 23c0 543d e1bb 243d ea59 2abc
00000290: 18f8 adbc 91cb da3d 0847 b8bd f149 8a3c
000002a0: 3ccd e2bd dc65 223d 5ad1 9d3d 1e9c 73bd
000002b0: 7dfb c5bd 2e4a 3bbc f5f7 a2bd 282d 03be
000002c0: 15fe 32bd d162 e13d ee0e fe3d 445e e3bd
000002d0: cb59 263d 7e88 173e 5f40 1fbd c700 963d
000002e0: a518 123e ea62 02be 283f f03d 4236 c3bc
000002f0: 3e3a eebc 24b2 fc3d 0962 8cbd b03c 49bd
00000300: 0c5b 483d 9dd1 b03d 37bf 04be fe95 a1bd
00000310: 55dc 023d 5c31 ec3d 2520 11be 4c9d e23d
00000320: a3fc 81bd 102a 3bbd 964a 903c 5305 d2bd
00000330: 8b53 ea3d dba6 e0bd 095b e4bd e16f cfbd
00000340: ea5b c33c bbc2 16bc f9ad 1fbe 601b 7abc
00000350: 3af0 f23d 295c 053d cafe bebd 5d27 e73d
00000360: 5fbf 253c f609 b33d ec71 843c a9ce bebd
00000370: 2748 59bb 35d2 e63b bfd7 293c a6ba d2bd
00000380: 1e83 1ebe 1cfe f33d c2a8 b53d 93eb bfbd
00000390: deef 213d 95af 5b3d f7e8 49bc 409f cd3d
000003a0: 7dfa 21be 00a0 713c 2de3 d13d 904e 2bbe
000003b0: 0b31 823c eb8c bebc 82c6 6f3c 87d0 9ebd
000003c0: 23a2 d6bd 4aba 2c3b 1464 14be ccee ba3c
000003d0: 885a 893c 4d4d babd 32c7 793d 00dc 11be
000003e0: fb0a c33d b1cf a7bc 07e8 3dbd 79ac 9a3d
000003f0: 9590 9dbd f94b b23d a090 583a 65c3 4d3d

actor.2.weight f4 [256, 256]
0.04753884 0.052203927 0.024683079 0.015415847 -0.013097253 -0.03467874 -0.061946005 -0.11013765
-0.085209034 0.025355112 0.0702962 -0.0058342596 -0.023281213 -0.02312944 -0.09233556 -0.05759915
0.021688826 -0.061177205 0.029885503 0.048905738 -0.036315255 0.041792095 0.019311469 -0.015434931
0.051834773 0.0071693994 0.028113693 0.028911304 -0.012075867 0.03443173 0.0044916715 -0.018585904
-6.0230577e-06 -0.006288899 -0.033729244 0.030489773 -0.00016558918 0.02284926 -0.052676413 -0.021080729
0.019797558 0.02368609 -0.0066885897 -0.031392958 0.06814119 -0.025284857 0.07802829 -0.017903067
0.066087335 -0.03356862 -0.05421427 -0.033945303 -0.035697542 -0.0012204612 0.05204147 -0.010623713
0.017663917 0.04155637 -0.099057294 -0.07648217 0.019613096 0.029169623 0.055357896 -0.0013091402
-0.058368843 -0.03786863 0.053370733 -0.060190435 0.019282449 -0.015075943 -0.008661757 0.039632026
0.05087557 -0.0040001776 -0.043976564 0.044330735 0.019608987 0.00774448 0.038098857 -0.04679742
-0.0056777215 0.006112011 -0.052275006 0.007650203 0.04626739 -0.04931904 -0.037149698 -0.07940442
-0.06948136 -0.0667379 -0.016345548 -0.004818492 0.001712606 0.04757151 0.067038774 -0.012060572
0.033292945 -0.022374494 0.04825175 0.032807115 0.009062876 0.0877612 -0.015226196 0.041694365
0.0011019167 -0.013214425 0.031257715 -0.019139096 0.09105838 0.030907817 0.00040839877 -0.04025429
-0.039298214 0.041824583 0.0019218205 -0.023452567 0.012310107 0.05995926 0.06081333 -0.04734449
0.08917549 0.07109641 0.0153244855 -0.036559757 -0.010272347 0.06757375 -0.05142493 -0.0016925711
-0.057366207 -0.04718495 -0.05293336 0.03829708 -0.021326806 -0.016124627 0.049303763 -0.02734487
0.05865775 0.049243897 -0.017101483 0.00031579405 -0.05111514 0.02230815 0.07338169 0.03199793
-0.04518958 -0.0020079797 0.07980081 -0.03623424 -0.035698798 0.03303039 -0.017806673 0.018332416
0.08398372 0.03590558 -0.048973873 -0.048625097 0.044823237 0.007841118 0.022801775 -0.019066028
-0.042183653 -0.009230922 -0.034497395 -0.043505147 -0.040118616 -0.061900154 0.0081781875 -0.005054122
0.019266544 0.033416506 0.027759941 0.042832285 -0.02910757 -0.012267416 0.015866993 0.012131909
-0.06087475 0.01304509 -0.053455427 -0.015651284 -0.019034628 0.016927715 0.036386646 0.06050533
-0.027720839 0.038708374 0.06933682 0.056335367 -0.0046854476 0.044133443 -0.070019744 -0.054761548
0.034934483 0.06104093 0.08608499 -0.047597945 -0.06372008 0.03406184 -0.022274531 0.046852846
0.026970765 -0.04183887 0.0013804655 -0.046357833 -0.013140762 -0.018138126 -0.06456383 0.018804155
-0.037489858 -0.04336007 -0.013660343 -0.015037304 -0.014909337 -0.053809028 0.034146823 -0.017861145
0.021983573 0.07653317 0.01386321 -0.044385105 -0.06548532 0.017468343 0.07205846 0.038212825
-0.039206646 0.007831248 -0.0070112683 -0.009027325 -0.021081872 -0.015110109 -0.006940716 -0.056177992
-0.017359542 0.008247286 -0.041665334 0.042151082 0.06418928 0.0076731076 -0.06809368 -0.061458696
-0.018014045 0.004092405 -0.046281338 0.06108426 0.031877786 -0.0552813 -0.05336059 -0.060506817
-0.017335761 0.073402956 0.03328802 0.013976367 -0.058973614 0.02674829 0.05721897 0.009093094
00000000: 16b8 423d c9d3 553d 2b34 ca3c c092 7c3c
00000010: dc95 56bc 4b0b 0ebd 18bb 7dbd d98f e1bd
00000020: 1382 aebd 86b5 cf3c 74f7 8f3d 512d bfbb
00000030: 3eb8 bebc f479 bdbc 6d1a bdbd 16ed 6bbd
00000040: c4ac b13c f394 7abd 71d2 f43c 6251 483d
00000050: 4ebf 14bd 302e 2b3d 1633 9e3c cbe2 7cbc
00000060: b350 543d 48ed ea3b b04e e63c 66d7 ec3c
00000070: dbd9 45bc 4908 0d3d df2e 933b 7741 98bc
00000080: ac19 cab6 1c13 cebb ad27 0abd b0c5 f93c
00000090: 02a2 2db9 5f2e bb3c 39c3 57bd 7eb1 acbc
000000a0: 7d2e a23c 5509 c23c f52b dbbb e795 00bd
000000b0: 9c8d 8b3d 3022 cfbc 4ccd 9f3d 74a9 92bc
000000c0: cc58 873d 407f 09bd c80f 5ebd 3b0a 0bbd
000000d0: 9637 12bd e2f7 9fba 7029 553d 150f 2ebc
000000e0: ebb3 903c 0337 2a3d 8dde cabd afa2 9cbd
000000f0: a5ab a03c 22f5 ee3c f6be 623d 7597 abba
00000100: 2b14 6fbd 231c 1bbd 459b 5a3d 3f8a 76bd
00000110: 3af6 9d3c 1701 77bc 0bea 0dbc 3155 223d
00000120: e762 503d ec13 83bb c520 34bd 2594 353d
00000130: 07a3 a03c 68c5 fd3b 8c0d 1c3d a7ae 3fbd
00000140: 2e0c babb 4447 c83b 511e 56bd 8eae fa3b
00000150: e082 3d3d c302 4abd 482a 18bd c99e a2bd
00000160: 3e4c 8ebd e1ad 88bd 19e7 85bc 71e4 9dbb
00000170: 8679 e03a 58da 423d a04b 893d b599 45bc
00000180: 2f5e 083d b74a b7bc a1a3 453d c160 063d
00000190: 757c 143c 25bc b33d 4b77 79bc b6c7 2a3d
000001a0: 306e 903a 5181 58bc 1708 003d 98c9 9cbc
000001b0: d17c ba3d 6432 fd3c 5b1e d639 afe1 24bd
000001c0: 2af7 20bd 4150 2b3d 98e5 fb3a 991f c0bc
000001d0: 55b0 493c d797 753d 6617 793d 4cec 41bd
000001e0: a4a1 b63d ff9a 913d 8d13 7b3c afbf 15bd
000001f0: 594d 28bc 1b64 8a3d f3a2 52bd 43d9 ddba
00000200: d4f8 6abd 0245 41bd a7d0 58bd 66dd 1c3d
00000210: 8eb5 aebc cb17 84bc bef2 493d 5902 e0bc
00000220: 1c43 703d f8b3 493d 6918 8cbc 2991 a539
00000230: 1c5e 51bd 95bf b63c 2449 963d 4310 033d
00000240: b618 39bd 4f98 03bb 9b6e a33d 5b6a 14bd
00000250: e738 12bd e04a 073d 4ddf 91bc dd2d 963c
00000260: a8ff ab3d bb11 133d d498 48bd 1c2b 47bd
00000270: 9298 373d 0878 003c caca ba3c 5c30 9cbc
00000280: c4c8 2cbd 4b3d 17bc 244d 0dbd 7432 32bd
00000290: 6b53 24bd 048b 7dbd cefd 053c 0c9d a5bb
000002a0: dfd4 9d3c bfdf 083d d168 e33c e870 2f3d
000002b0: 0073 eebc 46fd 48bc 7ffb 813c eac4 463c
000002c0: cd57 79bd 13bb 553c 14f4 5abd 1f37 80bc
000002d0: 82ee 9bbc feab 8a3c 2a0a 153d 70d4 773d
000002e0: d016 e3bc ac8c 1e3d 7600 8e3d eabf 663d
000002f0: 6288 99bb 45c5 343d 8366 8fbd a54d 60bd
00000300: 7617 0f3d 0e06 7a3d 544d b03d 10f6 42bd
00000310: ac7f 82bd 6e84 0b3d 1479 b6bc c5e8 3f3d
00000320: cbf1 dc3c 3c5f 2bbd bcf0 b43a b6e1 3dbd
00000330: 5a4c 57bc 6896 94bc 0b3a 84bd 2c0b 9a3c
00000340: f78e 19bd 549a 31bd a2cf 5fbc 065f 76bc
00000350: 4b46 74bc db66 5cbd 8add 0b3d 8951 92bc
00000360: e516 b43c 6cbd 9c3d 8422 633c 28cd 35bd
00000370: 2b1d 86bd c519 8f3c 6393 933d 0d85 1c3d
00000380: 2697 20bd a34e 003c c8be e5bb 58e7 13bc
00000390: e4b3 acbc 6490 77bc f26e e3bb e51a 66bd
000003a0: 9935 8ebc a01f 073c 45a9 2abd 9da6 2c3d
000003b0: ab75 833d b16e fb3b b374 8bbd 1dbc 7bbd
000003c0: 3192 93bc 9519 863b 8091 3dbd 7d33 7a3d
000003d0: 4892 023d a56e 62bd a290 5abd ffd5 77bd
000003e0: ba03 8ebc 4a54 963d 0559 083d 22fd 643c
000003f0: 518e 71bd 3b1f db3c 705e 6a3d 33fb 143c
