models/ho_policy_best.pth (torch, 628194 bytes, 11 tensors)

critic.0.weight f4 [256, 42]
00000000: aada 763e 0b03 643e b506 c4bc 69d5 38be
00000010: bccc 8c3e 28b5 aabf 1dc3 bdbe c06f afbc
00000020: 3685 11be f0a6 993d bc31 b73e 73b2 063e
00000030: ba82 3cbc 9cac 2dbe 6978 c1bd 2f4d 033f
00000040: 23d2 893e 5ad4 acbd cd83 d7bd fe5b ea3d
00000050: 339c a6be 13a8 7abe 9f8d 2b3c f927 bf3d
00000060: ef2d 67bc f4f1 e4bf 4056 49bf cb7e 4fbe
00000070: 6761 aebc c8ac a93c 02b6 d2bd 82e8 043c
00000080: e9fd aa3e 950a 713c ffc3 c0bc 76d9 f93d
00000090: ed12 233e 8348 e9be 8a52 03bf 00b4 ac3d
000000a0: ec51 81be 1b19 f93b 60b8 243d aa2d 623e
000000b0: ab00 ba3e e1c4 c13d a86e 0bbe 1f0d 143d
000000c0: 6e4c 913d e4bb 2fbe e61e b33e 906f ccbc
000000d0: 0289 38bf 1384 96be 8afc 9a3d d55a 23bd
000000e0: 70d5 043e f960 29bc cb1b 80bd 11c6 b83c
000000f0: 6f5f 08bd b822 fcbc c8d2 273d 1fd9 243d
00000100: 3039 ffbb b029 acbd ff09 df3d 5671 7e3e
00000110: 237b 07bd ef83 02be a81a 4ebe d0cd 96bd
00000120: fe4a eabd b444 8f3d 3147 72be 257e b9bc
00000130: a81f bdbd 1fb6 1d3e 3c06 bdbd 2c92 353e
00000140: a2fa 003d 2d60 68be 1109 55bd 1b2e 33bd
00000150: 3876 04ba b7fa 443d 46ef 773e a99f 633e
00000160: 9de8 c9bd 0283 7abc 5478 313e 9470 15be
00000170: c5c6 e23e 239c 12be 474e fabc 4a61 c83d
00000180: d686 4ebc 299b 963d 27fd 1a3e 11c3 073e
00000190: 609d d43d a94a b93d 62f9 153e 57a6 19be
000001a0: 1407 b2bd 7ff4 63bc 4b24 903e 0280 01bd
000001b0: 5f1b adbb e33f 51be 5347 8abd 1d4c 3ebd
000001c0: 2e72 8bbd 0149 f2bd 3029 a23d e2b2 cf3d
000001d0: e071 a0be 79d8 44be 01a8 8c3d 36ee 91bd
000001e0: 887b 7d3c 83f4 263b 01bb 6a3e ab54 003e
000001f0: 4443 03be ae70 85bd 04ac 7ebd f1ae 92bb
00000200: a7f6 153c 2e4e 27be 123e f93d 849c fc3d
00000210: 4879 a2bd b50b 223c fcb7 20be 2cff e6bd
00000220: 5fe3 bdbd 706b 02be 3269 533d 6505 08be
00000230: a5fb 4ebd acb5 85ba d006 f6bb 9741 f4bd
00000240: cd94 16be d775 033e eebe 41bc dcd1 543d
00000250: f5f4 00bd 7bce fa3d 478b aebd e223 f3bd
00000260: 82e0 30be f11e 21be 8e2f 263e 634b 2cbb
00000270: c1dd b23d 74a0 d8bd 08e4 7b3e bf09 ab3e
00000280: 19e3 b7bd 0280 ce3d 30df 7b3e 27a7 07be
00000290: ba78 a3bd 5fd6 803e 01fc e4bd 4375 89be
000002a0: 1834 a5bd 9f3e 39be e9f5 48be 7144 39be
000002b0: 4c29 183e 2ede 6b3d 0e26 973c 8bbd 1a3e
000002c0: 3e68 5cbe b8dd 8b3c 9130 873d ad82 3d3d
000002d0: b136 d1bd 5838 6abd b091 3cbe ef12 3bbd
000002e0: 1660 ea3c 6de1 cbbc e018 34bd 0812 18be
000002f0: 1a63 71bd da69 c33d e7d8 4abe 9822 85bc
00000300: 0eb8 183d d755 f5bc f500 06be e660 1e3e
00000310: 62a6 a8bd 3aca a53b 11c2 8cbe c689 93bc
00000320: bcd9 183e 4b5f 8fbd b5e3 593e 81ff a4bd
00000330: fca1 0abe 562d bebd 1c97 97be 6588 adbd
00000340: b0e4 b0bd 9ae2 d6ba 7c2e 0f3e ca33 4cbd
00000350: 0969 1f3e 8f8b 10be be87 e5bb 5575 023e
00000360: ea8d aebc fd4b 663e 2b53 9fbd 60f8 993d
00000370: e18a e8bc 9abf 0b3c 9f6f 2f3e bfbe 46be
00000380: e986 3dbe 8cb5 8abc 1bb3 e33d 6149 00be
00000390: 253e f1bd cf5f 0c3e 6699 d1bd 0720 e3bd
000003a0: ab47 6ebe 6ee7 f8bd b400 2dbe 9837 4b3d
000003b0: 005e 1dbe 9ec5 4fbe 8766 5b3e 8326 9e3d
000003c0: 7958 893d 7b60 f53d 8cd5 ae3d c106 cf3d
000003d0: 9370 71bd dfc8 193e c568 483e f48a 76bd
000003e0: 446e 48be 5e9a 343e 9a73 48bd bc94 87be
000003f0: d8e6 6e3d 5244 e63c a34a 75bd 3c63 ce3d
0.24106851 0.22266786 -0.02392898 -0.1805016 0.2749995 -1.3336535 -0.37062922 -0.021415591
-0.14210972 0.07502544 0.35780132 0.1315401 -0.011505777 -0.16960377 -0.094467945 0.5128965
0.26918134 -0.0843894 -0.10523186 0.11443327 -0.32541046 -0.24478178 0.010470777 0.09333796
-0.0141100725 -1.7886338 -0.7864723 -0.20263211 -0.02128668 0.020712271 -0.102886215 0.008112075
0.33396843 0.014711996 -0.023530958 0.121996805 0.15925188 -0.45563135 -0.5129782 0.0843277
-0.25257814 0.0076018698 0.040214896 0.22087732 0.36328635 0.0946138 -0.13616431 0.036145326
0.07094656 -0.17161518 0.3498451 -0.02495554 -0.7208406 -0.2939764 0.07567699 -0.039881546
0.12972045 -0.0103380615 -0.06255301 0.022555383 -0.033294138 -0.030778274 0.0409725 0.040246125
-0.0077887997 -0.08406389 0.108905785 0.24847922 -0.033076417 -0.12745641 -0.20127356 -0.07363474
-0.11440085 0.06995526 -0.2365997 -0.022643158 -0.092345536 0.15401505 -0.09229705 0.17731541
0.031489022 -0.22692938 -0.0520106 -0.04374514 -0.00050530164 0.048090663 0.2421237 0.22228874
-0.098588206 -0.015290024 0.17331058 -0.14593726 0.44292274 -0.14317374 -0.030554904 0.097841814
-0.01260539 0.07353813 0.15135632 0.13258006 0.103815794 0.090474434 0.14645913 -0.1500486
-0.08692756 -0.013913273 0.2815269 -0.03161622 -0.005282804 -0.20434527 -0.06751885 -0.046459306
-0.068088874 -0.11830331 0.07918012 0.10141541 -0.3133688 -0.19223203 0.06867982 -0.07125513
0.015471347 0.002547533 0.22922899 0.12532298 -0.12818629 -0.065156326 -0.062175766 -0.004476421
0.009153045 -0.16338417 0.12170042 0.123345405 -0.07933289 0.0098904865 -0.15695184 -0.11279139
-0.09271883 -0.12736297 0.051613994 -0.13283308 -0.050532956 -0.0010201237 -0.0075081363 -0.11926573
-0.147052 0.12837921 -0.011825306 0.05195795 -0.03148361 0.12246414 -0.08522659 -0.118720785
-0.17273143 -0.1573446 0.16229078 -0.0026290051 0.087337025 -0.10577479 0.24598706 0.33405873
-0.08978862 0.10083009 0.24596858 -0.13247357 -0.07982011 0.25163552 -0.111808784 -0.26847276
-0.08066577 -0.18090294 -0.19625057 -0.18092515 0.14859504 0.057584934 0.018450763 0.15111367
-0.2152414 0.017073497 0.0660106 0.0462672 -0.1021551 -0.05718264 -0.1841495 -0.045672353
0.02861027 -0.024887765 -0.043969035 -0.14850628 -0.0589324 0.09541674 -0.19809304 -0.016251847
0.037284903 -0.029948158 -0.13086303 0.15466651 -0.0823486 0.0050595077 -0.2749181 -0.018010031
0.14926809 -0.070005976 0.2127827 -0.08056546 -0.13538355 -0.09285991 -0.29607475 -0.08473281
-0.08637369 -0.0016394437 0.13982576 -0.049854077 0.15567411 -0.14115737 -0.007004707 0.12740071
-0.021307904 0.22489925 -0.07779535 0.07518077 -0.028386535 0.008529568 0.17132424 -0.19408701
-0.18508495 -0.016932271 0.11118146 -0.12527992 -0.11779431 0.13708423 -0.102343366 -0.11090093
-0.23269527 -0.12153517 -0.168948 0.049613565 -0.1536789 -0.20290229 0.2142583 0.07722189
0.06706328 0.11981293 0.085368246 0.1010871 -0.05894525 0.15018032 0.19571216 -0.06019111
-0.19573313 0.17637011 -0.04893837 -0.26480663 0.05832562 0.02810875 -0.059885632 0.10077521

critic.0.bias f4 [256]
00000000: bb2f 193e 87c7 16be 64fc f93d 7060 9fbc
00000010: 02b1 903c 3bfa ecbd 47a7 b63d c3d7 9bbd
00000020: 73b5 783d f34c cf3d edd5 f7bc abd1 303b
00000030: f0d6 c6bd 4e32 37bd 3a0a 823c fc39 b0bc
00000040: 060c bfbd b725 d8bd 1088 cb3d 9ace d5bd
00000050: c1f0 173e d9f7 653c 9a3a a7bd 9d74 b63d
00000060: c249 8dbc a072 823b cca1 0a3e 8ae7 d63d
00000070: d04d 673d d646 043d 8eaf 36bd 2ec1 cebb
00000080: 6d2a 16be b9fa de3d a663 7fbd 6d36 073e
00000090: dd8d 233d 1a8f 163e ac76 71bd 594a 923d
000000a0: b4f8 11be 52de 893d 788d 5e3b ea5b db3c
000000b0: 29e4 123e ea31 4d3d 6f99 2abe 57f9 68bd
000000c0: 4434 7ebc 4971 8abd 9ab3 8f3c 7274 973d
000000d0: 7485 8c3d 7378 89bd 6327 a1bd becc 01be
000000e0: 7ef1 9e3d e6e9 943d 1aa6 033e caf8 983d
000000f0: cd01 1abe 63da b73d ddc4 9d3d 0da1 d03d
00000100: dcfa 47bd fed8 93bd 8b19 bebd 13ab 033e
00000110: 783a 913d b264 d1bd ae79 cd3d c55c 5e3d
00000120: 58bf 533e ed88 953d f768 843d 34fc 0dbd
00000130: c0e5 9fbc fd54 0fbe b2ea e3bc 4890 4d3e
00000140: 6c33 0dbe 91e5 c23d cc18 203e 7f30 ce3c
00000150: 0d9e 553e 932c 2d3e c2ca be3d 0ed1 c83c
00000160: 254d 8ebd b972 7ebd e1d0 49bd 0bb3 be3b
00000170: ac23 d53d 8c34 88bc cc0b c63d 031f 8a3d
00000180: a26b 1cbe 5ca8 2abe 6576 5c3e a00c ee3c
00000190: 8dfb 073e d6ee 133c f037 e0bd 2c12 053e
000001a0: 32dd 543d 6afa a5bc 3eac 25bd 94ad 07be
000001b0: 47f1 073e d34b 9fbd 3740 283e 4eea 53bd
000001c0: daed 233d 4a90 80bd 2c95 363b 537e 71bd
000001d0: a524 89bc 4038 b23d 8c9c 1d3b 5679 3fbe
000001e0: 9669 23bd 6a71 f03d ada6 d53d 90c3 263e
000001f0: 7459 a33d 1705 7ebc feee 6bbd 0978 c53d
00000200: a3f7 41bd 942d 033e 33c2 99bd 70ab 0ebe
00000210: 603c 3ebc 3193 183e 31ed 12be 9dae cebd
00000220: 3dae afbc ef69 173e bfe8 a0bd 72c8 25bd
00000230: 2bae 05be 1fc9 da3d cd23 b8bc 2508 aebc
00000240: da89 973c 66ea 4cbb 39c9 613d fa15 09bc
00000250: af4a 9dbd f81a 7cbd 5a14 6dbd 52d7 33be
00000260: 9427 013d 997d 163e 1262 223d ba63 913d
00000270: ff72 26bd 4031 53bd 9042 67bc efa5 cf3d
00000280: cfc7 12be fcd2 e23d 1920 ebbd 045d 033e
00000290: b930 83bc 3240 c9bd f4ad b1bb dc70 a73d
000002a0: 9e88 47bd f755 e8bd 0198 e73d d65a 0e3e
000002b0: da27 a43d 5595 c73d 71f1 f6bc 1d21 9d3c
000002c0: fe5a 9dbd 4fc9 053e 07b3 02be 4643 5c3d
000002d0: 9e2b 04be 69f1 d1ba 927f 9c3d 685f d0bd
000002e0: e82a 003e c537 0abe 9a9f 5d3d 79ee 073e
000002f0: fe7e 203c 83f8 873d 1e65 acbc 99b7 a1bd
00000300: 537b e93d 8490 cebd 7e6b 84bd fdc5 d7bd
00000310: 1819 0ebe a766 10bd 4383 a9bd 33aa 8d3d
00000320: c552 4bbd e182 89bd eee7 bbbd c1e9 e5bd
00000330: d471 5abd 01ae b1bd f7d4 cbbc 85ab 11be
00000340: 9b21 d33d c420 02be 9dcc 943d db68 e3bd
00000350: 7329 1b3e 0d5e eebc 3439 32bd dd0b bebd
00000360: 47b8 d83d a63d febd 6da1 883d c17c 2f3e
00000370: f08d 37bd a623 b6bd 8a9c e53d 75e7 07bc
00000380: 5562 f13d dc55 03be 13c0 073e b785 f33c
00000390: d1f1 f3bd c8fe b33d db46 c0bc 0fa4 b7bd
000003a0: 1c27 b4bd 039d 84be 2dbb 3ebd 1ff6 b83d
000003b0: aa97 24bd 79d1 31bd e7c8 dcba 6f96 ae3d
000003c0: 17fa 1f3e 28fb 97bd 95d6 8c3c c53a a1bd
000003d0: 4883 013d ccb7 0ebd 0118 e9bd ba96 28be
000003e0: d659 04be b2df 6f3b 52c6 e83d 8666 82bd
000003f0: a5f4 e8bd 9364 dabd dd86 b03c 89b2 863d
0.14959614 -0.14724551 0.12206343 -0.019455165 0.017662529 -0.11571165 0.08918624 -0.07609513
0.06071992 0.10122099 -0.030253375 0.002698044 -0.09708965 -0.04472571 0.015874017 -0.021512024
-0.09328465 -0.105540685 0.09938061 -0.10439797 0.14837934 0.014036142 -0.08165474 0.08908961
-0.017247085 0.0039809495 0.13538283 0.10493381 0.056470692 0.032294117 -0.044601016 -0.00630965
-0.14664622 0.10887665 -0.06235089 0.13204356 0.039930213 0.14703026 -0.058951065 0.07143087
-0.14255029 0.06731857 0.0033958834 0.026777226 0.14344849 0.05009643 -0.16660093 -0.056878414
-0.015515391 -0.06759889 0.017541695 0.07395257 0.06861392 -0.06712427 -0.078688405 -0.12675759
0.07760905 0.07271175 0.12856331 0.07469328 -0.1503975 0.08977201 0.07703564 0.10186968
-0.048823223 -0.07219122 -0.09282216 0.12858228 0.0709123 -0.10224284 0.10032974 0.05428769
0.2067846 0.07301507 0.06465333 -0.034664348 -0.019518733 -0.13997264 -0.027821872 0.2007457
-0.13789147 0.095164426 0.1563446 0.02516961 0.20861073 0.16911535 0.09316017 0.024513748
-0.06948308 -0.062121127 -0.049271468 0.0058196834 0.104071945 -0.016626619 0.09670219 0.06744196
-0.15275434 -0.16665787 0.21529539 0.029058754 0.13279553 0.009029111 -0.10948169 0.12995213
0.05196876 -0.020261008 -0.040447466 -0.13249809 0.13275634 -0.07778134 0.16430746 -0.051737122
0.040021755 -0.06277521 0.002785991 -0.058958363 -0.016741106 0.08702135 0.0024049608 -0.1869863
-0.039895616 0.11740382 0.104321815 0.16285539 0.07976046 -0.015504143 -0.057600968 0.096420355
-0.047355305 0.12810355 -0.07507744 -0.13932586 -0.011611074 0.14899899 -0.14348294 -0.100918986
-0.021445388 0.14786504 -0.07856893 -0.040474363 -0.13054721 0.10682892 -0.022478009 -0.021244118
0.01849835 -0.0031267642 0.05512354 -0.008367056 -0.076802604 -0.061549157 -0.057880737 -0.17562607
0.031531885 0.14696349 0.03964431 0.070990995 -0.040637013 -0.05156064 -0.014114991 0.10139071
-0.14334033 0.11075398 -0.114807315 0.12828451 -0.016014444 -0.098266974 -0.005422348 0.08175823
-0.048714273 -0.113445215 0.11308289 0.13901839 0.080154136 0.0974528 -0.030144425 0.019180829
-0.07683371 0.13065074 -0.12763606 0.053775094 -0.12907264 -0.001601738 0.076415196 -0.10174447
0.12516367 -0.13497837 0.054107286 0.13274564 0.009795902 0.06639197 -0.02104431 -0.078963466
0.11400475 -0.10086158 -0.06465815 -0.1053581 -0.1387676 -0.035254147 -0.08276989 0.069172285
-0.049639482 -0.06714416 -0.091750965 -0.11226226 -0.05333121 -0.08675767 -0.024881823 -0.14225586
0.10309144 -0.12707812 0.072655894 -0.11103984 0.1515253 -0.029097581 -0.043511584 -0.092796065
0.10582023 -0.12414102 0.066714145 0.17137434 -0.044813097 -0.08893518 0.11211498 -0.00829493
0.117863335 -0.12825722 0.13256864 0.029726846 -0.11911357 0.0878883 -0.023471287 -0.089668386
-0.08796522 -0.2590104 -0.046565223 0.09031319 -0.0401837 -0.04341266 -0.0016844542 0.08524787
0.15622745 -0.07420951 0.017192164 -0.078725375 0.03161934 -0.03484325 -0.113815315 -0.16463748
-0.12924895 0.0036601839 0.113659516 -0.06367211 -0.11374787 -0.10663714 0.021548683 0.06577022

critic.2.weight f4 [256, 256]
00000000: 562f 4a3e 39c3 66be 897e edbd 40a4 49bd
00000010: 82ac 893e 5fd9 0ebe 6f56 34bd 80da 273e
00000020: 0f6e d1bd 0e06 193e 4d65 653e c808 46be
00000030: bcfb 813d ed9b 47be 5b55 5e3c 3f88 c73d
00000040: 92ec 2abe d944 f43d 0559 15be a404 4dbe
00000050: 1814 a73d a2d6 123e 7af5 043a 7f75 6fbd
00000060: e76f a93d 019e db3c ed6f b43d 4a0f 0a3d
00000070: d6e3 7cbd 98de 2e3d ba71 963d 402c f43c
00000080: aab8 6abe 5def bb3e 8631 d7bd 91af 7fbe
00000090: 887d 0e3e bf1f 80bd 1769 bebd f206 13be
000000a0: 18c7 153e fa31 55be 875b 2d3e 6651 36bd
000000b0: fbe9 be3d 4855 643e 990e 643e 20fd 3d3e
000000c0: e0a2 c33d 352a 5fbe 646f 163e 161a 4f3d
000000d0: 46de 903d 086d a73d eef7 2a3e bb9b f43d
000000e0: 5537 47be a866 b73d 8dfe dd3c 398a 5abe
000000f0: 9841 96bd 426f 7dbe a4c1 293e 74d8 973e
00000100: 84f8 94be 32a6 16be 1ff0 debc 34a9 323e
00000110: 9ce3 54bc 4617 6f3d 2e1b 1b3e 8cca 073e
00000120: bacf 70bd f72d 09be 67f8 913e 3a15 82be
00000130: ded1 a7bd 0377 84bd 7839 703e 0ce8 88bc
00000140: 3fe1 1ebe fa8b b33d 297a 9c3d ced6 39be
00000150: 5243 93be ec70 983e cc51 0f3e 129b 6fbd
00000160: abab 26be 3315 d5bd e2b9 f7bd cb07 8fbe
00000170: 12aa a1bd 1360 bdbd ac84 1e3d 595e 72be
00000180: 51b0 9b3c af39 c0bd 517d 703e 3ee4 06be
00000190: 5970 723e 8157 023d 3080 0dbe a7b0 81bd
000001a0: 7af3 a0bb 9177 6e3c f476 24be d8be db3d
000001b0: 105b c7bc bb84 cdbc 7a98 bd3d a056 ebbd
000001c0: db01 9e3d 6e19 ab3e 917b 883d 079d b73c
000001d0: 63ef 2cbe 11b2 503e 8cea 58be 152d b9bd
000001e0: d4d8 d4bd 90e1 78be daaf d2bd 79af dc3c
000001f0: ab96 b63d d24c 34be 2088 723d 7277 cebd
00000200: 9a9b 853d 25e3 763e 853c 62be f4c0 873c
00000210: cb75 a13e 2263 78be e1ef 593c 943f b8be
00000220: 84dc 903e 1b05 793d c8bf c63d 8c75 103e
00000230: 23f2 3fbe 21d3 1fbc b4b5 4c3d 4262 553e
00000240: ce75 10be 10bb 943c 6281 3c3d e2e5 863d
00000250: f541 e5bd cb31 fe3c 7504 a63e bf40 61be
00000260: 108f 9c3d 7b6a acbc baef 79bb f90c 7b3c
00000270: 828b 163e 966f 1bbe d09c c5bc fff7 ee3d
00000280: c0a1 763e 640e 7c3d 75a1 f73d f17e 26be
00000290: 9d4d 62be b692 14be 7c36 7abc bcd7 273e
000002a0: 0e6e 1dbe 91ff 36be 3528 57be 4583 f5bd
000002b0: b25d 1d3e 351c 0ebe d2ec 993b 31da cdbd
000002c0: 5d97 92be e751 f63c 8e07 9e3c f458 21bd
000002d0: c18d 77be b8e6 433e 950d 81bd d5ab 993e
000002e0: 06f8 083e b660 acbd f6a3 0cbc c0df 1d3d
000002f0: 2f9f acbd e6b3 ab39 3d26 d4bd 3571 71be
00000300: 45ed 573e cebf a5bd 57f9 27bd 5cc0 37be
00000310: cb63 3ebe 9c0b c2bd 4163 53be bc09 40be
00000320: 1624 73bd 1fa1 003b d3ef bc3d 2bd2 9a3d
00000330: cd81 f7bd 5c09 8fbb ad6f 633e 209c d33d
00000340: 0693 4e3e 1df9 c53d 42f6 20bd e190 343d
00000350: e03c aa3d adc2 04be 84af 0abe ac50 fd3d
00000360: 855c 0dbd 71c1 1bbe 7d6d 56be 2b82 013d
00000370: f2e6 46bd 39bf 30bd f012 a9bd 62b6 26be
00000380: 4b73 003e 8ca9 85bd 2abb 133e f76f c93d
00000390: 094f 09bd a3e1 5a3e 8ae2 323e c497 0f3d
000003a0: aa0c 9dbc 802b 04be 197f 143d 4eb3 663e
000003b0: 44cf 493e d617 163e 4936 d7bd 7c30 2c3e
000003c0: 1769 113c bdd4 8a3d 6d29 3dbe a945 e93d
000003d0: 31ff 4a3e 743b 1c3e 0273 4bbd 3efe ccbd
000003e0: 6ed0 8dbd 87c8 b53d 6f17 da3a 657d 99bd
000003f0: 9955 a53d d8ce 3b3e b939 4d3e 1a37 833d
0.1974462 -0.22535409 -0.115964 -0.049228907 0.26889426 -0.13950108 -0.044027742 0.16391945
-0.1022607 0.14943716 0.22401924 -0.19339287 0.06346843 -0.19493075 0.013570155 0.09742784
-0.16691807 0.11927194 -0.1458474 -0.20021302 0.081581295 0.14339688 0.0005071979 -0.058461662
0.08273297 0.02680874 0.08810411 0.033705987 -0.06174072 0.04269275 0.0734591 0.029806256
-0.22922006 0.36706057 -0.10507493 -0.24969317 0.13915074 -0.06256055 -0.09297388 -0.14358118
0.1462673 -0.20819846 0.16929446 -0.04451122 0.09321972 0.22298157 0.22271194 0.18553591
0.0955255 -0.21793444 0.1469093 0.050561987 0.07073645 0.08175093 0.1669614 0.11943766
-0.19454701 0.08955127 0.027098918 -0.2134179 -0.0733673 -0.24749473 0.16577774 0.29657328
-0.29095852 -0.14711836 -0.027214108 0.17447358 -0.012993719 0.058371805 0.15147087 0.13260859
-0.058791853 -0.1339644 0.28509828 -0.2540682 -0.08194326 -0.06468012 0.23459423 -0.016712211
-0.15515612 0.08766933 0.07640488 -0.18148348 -0.287623 0.29773653 0.13996047 -0.058497496
-0.16276424 -0.10404434 -0.12096001 -0.27935633 -0.078937665 -0.0924684 0.038700745 -0.23668803
0.019004973 -0.09386002 0.23485304 -0.13173005 0.2367567 0.03182173 -0.13818431 -0.06332522
-0.004911837 0.014554874 -0.16061002 0.1072976 -0.024335414 -0.025087705 0.09257598 -0.11491132
0.07715198 0.3341784 0.066641934 0.022413744 -0.16888194 0.20380427 -0.21183223 -0.09041802
-0.10392919 -0.24304795 -0.10287447 0.02693914 0.089154564 -0.1760743 0.05921185 -0.10081376
0.06523819 0.24110086 -0.22093399 0.0165715 0.3153518 -0.24256566 0.0133018205 -0.35986006
0.2829324 0.060795885 0.09704548 0.1410734 -0.18744712 -0.009754927 0.049977973 0.20838264
-0.14107439 0.018155605 0.046021827 0.065868154 -0.11194221 0.031029603 0.32425275 -0.21997355
0.076444745 -0.021046868 -0.0038137273 0.015322917 0.14701656 -0.15179285 -0.024122626 0.11668395
0.2408514 0.06153716 0.12091342 -0.16259362 -0.2209992 -0.14509091 -0.015271779 0.1639089
-0.15374014 -0.17870928 -0.21011432 -0.11987928 0.15367773 -0.13877948 0.0046974206 -0.10051382
-0.28631106 0.030068351 0.019290712 -0.039391473 -0.24175169 0.19130981 -0.06301419 0.3001391
0.13375863 -0.08416884 -0.008584013 0.038543463 -0.08428799 0.00032749696 -0.10358856 -0.23578341
0.21086605 -0.080932245 -0.041009273 -0.17944473 -0.18592755 -0.094748706 -0.20643331 -0.18753713
-0.059360586 0.0019627286 0.0922543 0.075596176 -0.120853044 -0.0043651294 0.2221057 0.10332513
0.20173272 0.09666655 -0.03929735 0.04408348 0.08312392 -0.12964888 -0.13543516 0.123689026
-0.03451206 -0.15210511 -0.20940204 0.03161828 -0.04856009 -0.043151114 -0.08255565 -0.16280511
0.12543981 -0.06526479 0.14426866 0.09835809 -0.03352264 0.21375136 0.1746923 0.035056844
-0.019171078 -0.12907219 0.036254022 0.22529337 0.19707972 0.1465753 -0.10508401 0.1681537
0.008875153 0.06778858 -0.18472834 0.1139024 0.1982391 0.15257055 -0.049670227 -0.1000943
-0.069245204 0.08876138 0.0016639064 -0.0749462 0.08072967 0.18340623 0.2004155 0.06406994

critic.2.bias f4 [256]
00000000: d5d1 353e cd24 9abd d6e1 583e 9993 50bd
00000010: 22d3 373e 063d a5bc bd79 493e 0c70 ca3a
00000020: 5430 41be 36e3 24be d715 363d 94b0 8abd
00000030: c600 a7bd 34fc 8abd ff31 3e3e 0c47 063e
00000040: d181 6dbe 43b5 0abe f5f0 b33d 1fa5 20bd
00000050: 7632 34bd b815 2fbe 81f2 8c3e d9d5 783e
00000060: b548 433e 4f3e dc3d 064f a3bc 2b4f 8d3d
00000070: 38b2 e23d a6f4 5c3e b723 00be 8199 d03d
00000080: 1c5f 813c aa99 0abd 025e 5e3b 80e6 0f3e
00000090: d574 943e 6b7c 633e 7a88 163e ccaf b2bd
000000a0: 01f7 0e3e 69c1 51bd 53ad 13be 8acf 9cbd
000000b0: d5a5 05be 4227 4bbe 134f dfbd 3c15 0c3e
000000c0: a142 2e3e 2c88 513e fb5d b33e 5df3 6b3c
000000d0: d2c2 363e 6b1d 593d d0b6 6abe 5bc0 06bd
000000e0: 9b01 2239 e368 b03d 3655 db3d 2764 44be
000000f0: e177 ed3d 013f 81be 501e 3fbe 8210 793e
00000100: 8a65 99bd d8da 523d c0ba 30be bf59 5bbe
00000110: d071 4fbd 410d af3d a1e5 493e 60a8 863e
00000120: d0f6 6d3d 6fde 87bd 9104 1dbd 1bae fb3d
00000130: 8a26 0f3e d98c 473e 06ec a3be ad75 33be
00000140: 3af5 143e 29f1 1abe 4906 be3d 351d d4bc
00000150: 5f84 7a3e bdec 0d3e 4c0e 4dbe 2165 2e3e
00000160: 4820 4c3e c945 223e adf2 053e 90db 433e
00000170: c54b 38be 7d61 8cbd b2d1 76bd 986c 35be
00000180: 5ff7 38be d336 2abe ed3e 213d f141 3bbe
00000190: a32e 4b3e 6d6d 21be ee3a 5dbe bc3b bbbd
000001a0: 0913 503e de8f 2f3e ea62 08be 7895 2d3c
000001b0: 137b 72be 601f 3abe e770 723e e821 a2bd
000001c0: 182e 413e 292a 4bbe b91b 033e 0f2e df3c
000001d0: a686 87be 873c 01be b6aa 3cbe e97c 27be
000001e0: 8ce4 2a3e e1eb 053e e3a5 01bd 5be6 d33c
000001f0: 9d9a 153e 0d48 4abe 6d9b 83be 1d4f 523e
00000200: da64 d73d a1bc 2d3e 7e19 303e be07 b23d
00000210: 2def 7abd 7585 a7bc e9d1 2fbe 9af7 2fbc
00000220: d1ad 463e 7e8d 15be f56c f53c 2c61 223e
00000230: aa59 36be 0fff 61be ab77 003e 291f 483e
00000240: a42c 00be eb2c 56be aab7 20be f23b 2e3e
00000250: 1fd0 2a3e 5663 90bc 845f 44be 7363 98bd
00000260: 9abb b03d a206 97be 4cdb 673e b1dd 7a3d
00000270: c239 043e e546 bbbc 2d15 b7ba 755c 0cbd
00000280: 7973 b3bd e4d4 6b3e 9f2c 14be d666 993d
00000290: 4a18 25bd 3bae ff3b 7f82 48be 3485 6bbe
000002a0: a82b e73d 544a 41be 439c e5bd 7d12 393e
000002b0: de00 763e caec 50bd d3e2 fbbd 95bc 003e
000002c0: fa5d 03bd 9ed5 cebd a970 613e 0128 aa3e
000002d0: 217b f83b 9fea 163e 07b1 943d 4683 11be
000002e0: c9a1 7bbd a479 3d3e 25a2 04be f2cf 783e
000002f0: 0666 403e 42de 55be d282 0cbe 665a ccbd
00000300: 85e6 6a3e 449e 4d3e 1ed6 f1bd 7887 013e
00000310: 9615 093e 3bf6 e5bd 7134 053e 0d58 1fbc
00000320: b862 70be c52e 6a3e 39f2 2bbd 903b 46bd
00000330: 4db8 493d d260 bebe 6aa4 46bd 642a 50bd
00000340: 4af5 74be 1541 24be 52d9 57be f7fd 593e
00000350: 8d18 91bd 834a 113e 1953 263e 2959 233c
00000360: 34d7 02be 2106 2ebe 90a6 f5bc a214 983d
00000370: d41f 803d 9cbb 193d 4833 23be 506f 233e
00000380: 476a 703e 11ff 503e 23ba 3d3e 8ec0 4cbe
00000390: 189d 8bbd c0a2 b43e 398f 83bd 7db8 203c
000003a0: 92d5 fbbd 1d2e f93d 698d 95be f2eb de3d
000003b0: 4285 cabc 910b 203e feb7 223e 1660 39be
000003c0: dd28 033e 8df6 683d 9977 50be bc85 27be
000003d0: d9aa 1b3d ce37 b3bd e6fb 00bd 55ab 08be
000003e0: 44ea b6bd 8312 8d3e 1cd7 03be bc60 1a3e
000003f0: 1896 6a3d 483d 303e e1f4 13bd d668 543e
0.17755826 -0.075265504 0.211799 -0.05092201 0.17951635 -0.0201707 0.19675346 0.001544477
-0.18866092 -0.16102299 0.04445442 -0.06771961 -0.081544444 -0.06786385 0.1857376 0.1311304
-0.23194052 -0.13545708 0.08786193 -0.03921997 -0.043993436 -0.17098129 0.27528766 0.24300326
0.19070704 0.10754072 -0.019935142 0.06899866 0.11069149 0.21577701 -0.12513624 0.101855285
0.015792422 -0.03383795 0.0033930545 0.14052773 0.28995386 0.2221543 0.14700499 -0.08724937
0.13961412 -0.05120984 -0.14421587 -0.076567724 -0.13051541 -0.19839194 -0.10903754 0.13679975
0.17017604 0.20462102 0.3503264 0.014401284 0.17847756 0.05300657 -0.229213 -0.03289829
0.00015450122 0.086137556 0.10709612 -0.1917883 0.11595131 -0.2524338 -0.18663907 0.24322703
-0.0749007 0.051478237 -0.1725874 -0.21420954 -0.05064565 0.0854745 0.19716503 0.26300335
0.058096707 -0.06634223 -0.038334433 0.12289067 0.13979545 0.19487323 -0.3201601 -0.17525358
0.14546672 -0.15131058 0.092785425 -0.025892833 0.24464558 0.1385984 -0.20024985 0.17030765
0.1993419 0.15846933 0.13080855 0.19126725 -0.17997654 -0.06854532 -0.060258575 -0.17717206
-0.18063115 -0.16622476 0.03936665 -0.18286873 0.19842009 -0.15764399 -0.21604511 -0.09142253
0.20319761 0.17144725 -0.13318983 0.010594718 -0.23679762 -0.18176031 0.23675881 -0.07916623
0.1886524 -0.19840302 0.12803544 0.027243642 -0.26469916 -0.12620746 -0.18424496 -0.16356243
0.16688746 0.13078262 -0.031652343 0.025866678 0.14609762 -0.19754048 -0.25704518 0.20537992
0.10517283 0.16966487 0.17197224 0.08692883 -0.061263252 -0.02044938 -0.17169918 -0.010740185
0.19402243 -0.14604756 0.029959181 0.1585738 -0.17807642 -0.22069953 0.1254565 0.19543137
-0.12517029 -0.20915572 -0.15695062 0.17015055 0.16680954 -0.017625492 -0.19177061 -0.074408434
0.08629532 -0.29497248 0.22642249 0.061246578 0.12912658 -0.022860954 -0.0013968103 -0.03426786
-0.08762259 0.2303043 -0.14470147 0.074903175 -0.040306367 0.0078027523 -0.1958103 -0.23000032
0.11287624 -0.1887601 -0.11211445 0.18073459 0.24023768 -0.05100707 -0.12299123 0.12571938
-0.032072045 -0.10099338 0.22015633 0.33233646 0.0075830375 0.14737938 0.07260328 -0.14210233
-0.061433587 0.18503433 -0.12952478 0.24298075 0.18788919 -0.20885566 -0.13721779 -0.0997818
0.22939499 0.20079905 -0.11808418 0.12649333 0.1338714 -0.11228605 0.13008286 -0.009725583
-0.23475158 0.22869404 -0.04197905 -0.048396647 0.04924803 -0.37183243 -0.04849664 -0.050821677
-0.23921695 -0.16040452 -0.21078995 0.21288286 -0.07084761 0.1418858 0.16242637 0.009969988
-0.12777406 -0.16994525 -0.02998665 0.074258104 0.06256071 0.037532434 -0.15937531 0.15960431
0.23478042 0.204098 0.18528037 -0.19995329 -0.06817073 0.35280418 -0.06423802 0.00980961
-0.12296595 0.121669985 -0.2920945 0.10884847 -0.024721745 0.15629412 0.158905 -0.1810306
0.12808557 0.056875754 -0.20358123 -0.1635961 0.03800473 -0.08750878 -0.03149023 -0.13346608
-0.08931401 0.27553186 -0.12875026 0.15075964 0.057272047 0.17210877 -0.036122207 0.20743117

critic.4.weight f4 [1, 256]
00000000: 84d6 fc3e b2af d93e da7e 053f 2ca0 093f
00000010: 1c31 013f f6d8 4f3f b3d1 f03e 3ddd 97be
00000020: a598 06bf f287 9e3e 4737 10bf ec0b 2bbf
00000030: 0f29 ab3e 64d5 cebe f662 063f 1f01 013f
00000040: 46e6 07bf 3db2 eabe b48c 473f cf34 58bf
00000050: bb13 b13e 2038 01bf b9c0 083f 6e68 3cbe
00000060: 00e8 fcbd 1687 263f d186 f2be c0cf b6be
00000070: ee64 47be f642 f73e 36dc 03bf 093f debe
00000080: 6b71 c9be 4268 dc3e 6c32 273f 0827 033f
00000090: bc9a 1abe 98fa f93e 4976 223f 6600 2a3e
000000a0: e9a9 023f 566f 32bf 9d18 06bf a2d4 19bf
000000b0: b4d7 ad3e 9e00 02bf f143 883e 32cf f93e
000000c0: 7a22 fe3e da57 c2be 3446 033f 3b83 33bf
000000d0: 4063 f33e 46e4 e33e c987 03bf c29e 493f
000000e0: 7553 073f 31a3 83be e9f0 193f e219 f7be
000000f0: 3f9b b1be 2fcc 07bf 1de2 08bf ee6e 093f
00000100: 0563 913e c90b 01bf 4a55 00bf 27d0 fdbe
00000110: 3c00 013f 3a00 a9be e1cb 053f 5333 f93e
00000120: da18 0e3f 8c44 34bf 5541 2bbf 32da 1f3f
00000130: d992 053f 968f e53e 7678 edbe e74d 353e
00000140: a88e 033f aeed 583e ce85 043f 4e9e 02bf
00000150: f862 81be b37b 0e3f ee12 853e 8662 093f
00000160: 37c1 fe3e 1737 073f 3ca0 8dbe 2a46 f33e
00000170: 3a4d 02bf ef04 0b3f 6a35 08bf 5557 febe
00000180: 9166 ffbe 8c0a 353e 5206 92be a627 07bf
00000190: 3e7d 053f cb16 973e dc47 13bf 999f 963e
000001a0: d423 ff3e 3d3e 4b3f 6a9b 00bf 961d 2e3f
000001b0: e884 05bf e837 06bf f674 f93e 6272 05bf
000001c0: 90cc 013f 91b6 00bf db8b fc3e 116e f8be
000001d0: 7afc 07bf 924c 04bf 4d87 a13e 6e47 03bf
000001e0: 9a06 063f 4bba 073f dd48 4cbf 4915 91be
000001f0: 8212 073f 3489 0c3e c275 08bf c75f df3e
00000200: 0c83 3cbe 895f 263f 9bd3 463f 8632 e33e
00000210: 0306 e23e 7647 243f 0002 06bf e60b e9be
00000220: 1cb1 f93e e920 9c3e e2ec 35bf 7e7d 423f
00000230: 782a 08bf ca31 b43e 1a62 99be 54eb 063f
00000240: 2681 1dbf a7d4 b93e b03b 82bf 6621 5dbe
00000250: adfd f93e b4e2 30bf 1151 f5be 946a 4c3f
00000260: 80a0 9bbe a930 00bf 94e1 bbbe c149 1b3f
00000270: 70d9 0b3f 7751 a23e 5a6c 563f 9ef8 803f
00000280: 4bf0 c63e a0c1 003f ff6a 05bf fe73 99be
00000290: 0d44 03bf 30ea b73e 6513 fcbe 3e42 eabe
000002a0: 676e ff3e d655 04bf f609 ae3e d757 003f
000002b0: 1f68 023f 1545 22bf 4db6 04bf b8a9 033f
000002c0: bab0 c43e 3569 01bf 073d 063f aa35 fb3e
000002d0: e44f 043f fba8 073f 65bb 1ebf 3bb4 9c3e
000002e0: 9807 073f 0448 003f 01e4 8b3e c02c 0f3f
000002f0: 8e40 fb3e dddc 05bf 41cd 02bf 01b2 e73e
00000300: 2c85 063f 9140 023f 4886 1cbf de19 063f
00000310: 769b fa3e dbd7 efbe 50b0 f73e 457c 80bf
00000320: fa7d 06bf 52d6 c13e d75d 963e 2e3f 02bf
00000330: f591 f6be eb37 06bf b6d1 2ebf bd87 edbe
00000340: eea2 f1be 3441 00bf 1de0 07bf 3a30 053f
00000350: 148f a33e ad32 073f 4a60 003f c244 04bf
00000360: 11a0 04bf e8cd 07bf d972 9c3e 64ae 85be
00000370: 6bde 123f 6b8c c2be 4f8d 04bf 4f27 053f
00000380: 0e4c 033f c230 043f 887d 083f 2c7b 8e3e
00000390: 9bf5 9a3e c8b8 053f 9d73 12bf 322c 9bbe
000003a0: 978b f8be e129 253f 6793 ffbe 7ab5 173f
000003b0: fe11 42bf a8a7 3e3f 3dab 043f d371 febe
000003c0: da76 91be 1480 edbe 5170 ffbe f158 03bf
000003d0: e8c9 99be 7c44 c93e 2925 ef3e ff4a fcbe
000003e0: 3517 13bf bc95 233f 6c2c 803e 91bf 023f
000003f0: 4fba ee3e 2f8b 033f 8063 df3e 5876 333f
0.49382412 0.42516857 0.52146685 0.5376003 0.5046556 0.8119043 0.47034988 -0.2966098
-0.5257667 0.30963093 -0.56334347 -0.66815066 0.33429763 -0.4039718 0.5249475 0.50392336
-0.53085744 -0.4583911 0.7794907 -0.8445558 0.34585366 -0.50476265 0.5341907 -0.18399212
-0.12348938 0.65049875 -0.47368482 -0.35705376 -0.19472095 0.48293275 -0.5150789 -0.43407467
-0.39344344 0.43048292 0.6531131 0.5123143 -0.15098089 0.48824 0.6346174 0.16601714
0.5104051 -0.69701135 -0.52381307 -0.60090077 0.3395363 -0.5078219 0.26614335 0.4879089
0.4963568 -0.3795765 0.51278996 -0.70122117 0.4753666 0.44510096 -0.51379067 0.7875787
0.5286172 -0.25710443 0.60133225 -0.48261935 -0.34688756 -0.53045934 -0.5347002 0.5368489
0.28395858 -0.5040861 -0.5013014 -0.4957287 0.5039098 -0.33007985 0.5226422 0.4867197
0.5550667 -0.70417094 -0.66896564 0.62442315 0.52177197 0.4483611 -0.46380967 0.17705499
0.5138955 0.21184418 0.5176667 -0.51022804 -0.2527082 0.556575 0.25991005 0.5366596
0.49756786 0.52818435 -0.27661312 0.47514468 -0.5089909 0.54304403 -0.53206503 -0.49676004
-0.4988294 0.17679805 -0.28520447 -0.52794874 0.5214423 0.29509577 -0.57531524 0.29418638
0.49832022 0.79391843 -0.50237143 0.68013895 -0.52155924 -0.52429056 0.48722047 -0.5212766
0.5070276 -0.50278574 0.4932545 -0.48521474 -0.53119624 -0.5167934 0.3154854 -0.5128087
0.52353823 0.53018636 -0.7979868 -0.28336552 0.52762616 0.13724214 -0.53304684 0.4362776
-0.18409365 0.64989525 0.77666634 0.44374484 0.44145212 0.6417154 -0.523468 -0.4551689
0.48767936 0.30493858 -0.7106458 0.75972736 -0.531898 0.35194236 -0.29957658 0.5270283
-0.6152519 0.36295053 -1.0174465 -0.21594772 0.48826352 -0.6909592 -0.4791341 0.79850125
-0.3039589 -0.5007425 -0.3669554 0.60659415 0.5462866 0.31702778 0.8375908 1.0075872
0.38855204 0.5029545 -0.5211639 -0.29971308 -0.5127571 0.35920858 -0.49233547 -0.45753664
0.49888918 -0.51693475 0.33991975 0.5013403 0.50940126 -0.6338666 -0.5184067 0.51430845
0.38416082 -0.5055116 0.5243687 0.4906438 0.51684403 0.5299222 -0.6200469 0.30606255
0.5274596 0.5010989 0.2732239 0.5592766 0.4907269 -0.52290136 -0.5109444 0.45252994
0.52546954 0.5087977 -0.61142397 0.5238322 0.48946732 -0.46844372 0.48376703 -1.0037924
-0.52535975 0.37858826 0.2936847 -0.50877655 -0.4815823 -0.52429074 -0.68288743 -0.46392623
-0.47194618 -0.5009949 -0.53076345 0.5202671 0.31945097 0.528117 0.50146925 -0.51667416
-0.5180674 -0.53048563 0.30556372 -0.26109612 0.5737063 -0.37997755 -0.5177812 0.52013105
0.51287925 0.516369 0.53316545 0.27828348 0.30265507 0.5223508 -0.5720766 -0.30307156
-0.48544 0.6451703 -0.49917147 0.59261286 -0.75808704 0.74474573 0.5182379 -0.49696216
-0.2841099 -0.46386778 -0.49890378 -0.5130759 -0.30036855 0.39310062 0.46708038 -0.49275967
-0.57457286 0.6390035 0.2503389 0.5107356 0.46626517 0.5138425 0.436306 0.70102453

actor.0.weight f4 [256, 42]
00000000: db2b c5bb f04e 23be bad8 5d3c 2bd3 17be
00000010: f324 ee3e ead1 b63e f983 2ebd 862c 11bb
00000020: 0422 bfbd 32a6 1bbe dedc 67be 0de2 6fbe
00000030: 6401 f03d 5dd5 3cbc 95a8 11be 6cfd 07bf
00000040: 0946 0fbf 72f4 3d3e 7897 413d 80e0 20bb
00000050: 90b1 36bd 157a 64be fc11 263c cf06 d43d
00000060: 41b7 45bc 237c d43e 3eff 853d 72cd a63d
00000070: d992 a73c 2d92 8abd 9323 5b3e 3978 7a3e
00000080: b1ad 353e f65f cf3c 9b9c e53d 5a97 a03d
00000090: b68a d6bb 334d 1f3e 89a1 2e3e de15 5b3e
000000a0: 7bdf e6bb 6e4f a03e 4520 cb3d 2904 383e
000000b0: 0470 373e 7356 823e 19a2 423d 89a1 823c
000000c0: 7836 3dbe 1a8b 673e 3e35 d23d 2f91 febd
000000d0: 04ad 823e c5a3 273e e5f1 cb3d 8134 573e
000000e0: d136 253d 3bde f5be 61ed 92be e47f a93d
000000f0: 33fb 263e 906c 8d3d a17d 3cbe 4556 e8be
00000100: 8227 743d a794 833e 2e58 153e 8d3b 4f3e
00000110: 82b8 f43d e47c 843e c970 19be 3d3b ec3d
00000120: fec8 da3d 6445 91bd 6857 5e3e 609a 46be
00000130: 9082 283e 6864 b03c 8338 7e3e 84ae 823e
00000140: b509 d73d 8149 2fbe 79df 86be 67ed d53e
00000150: f1f5 0b3c 6ddf 143e 499f 813e 49ff 793e
00000160: 4374 81bc 5b6b 7bbe 050a a2be 3e06 2d3e
00000170: 2b0d 403e a280 8b3d 30d5 e63d 1fee 99bc
00000180: d86e 593e b76f 413e 12c8 193e 8488 ec3d
00000190: 04e7 573b e520 4b3d 22a7 fbbc 8014 833b
000001a0: 66ff d0bd d0a5 12be 14d9 433e a08c aabc
000001b0: fdc8 fcbd fb4f 4b3e 9ec2 493e 5827 4f3d
000001c0: 2ffc 2abe 6546 38bd 5e34 58be 7e3a b4be
000001d0: 6f1f 623b 5ee0 c6bc 03bc ebbe 7bd9 063e
000001e0: a879 1abd 316f cf3d 79c2 70be 86af 30be
000001f0: e7f9 bbbe 6445 3fbc e192 4ebe c3dc 313e
00000200: c204 ffbd 1e56 1a3e 22b0 8f3f 7412 04be
00000210: 2a05 ae3c e2db d0bd e39b 32be 967a 96bd
00000220: 2da3 d33e f58a 583e 5e94 80be 8b5b 443d
00000230: 496d 00be dde6 0bbe af61 36bd a15b 823d
00000240: eb53 04bd 72a4 dc3d c71b 05be 98b5 e7bd
00000250: fb54 be3d 37f9 66be c61f 35be ea5f 5bbd
00000260: 83ab 763e 1810 a83d a0cc 2e3e 0e07 cdbc
00000270: 6c75 babe ecf8 8abe 5356 39be fbfc aa3d
00000280: aadc 05be 04f0 7cbd e44e 54bd d592 793e
00000290: 8047 ffbd 332b a1bd 8313 babd 45cb ad3e
000002a0: 4acb 4fbd df05 ff3d d86f a3be d250 1e3d
000002b0: 5cd5 2f3f 28cb 1a3f 7a2c 833e 8ada 093d
000002c0: 295a a9be 96d8 d23d 8fd5 833d 03f8 59bd
000002d0: 7ed3 a03d bf01 663d b886 abbc 310f 8cbe
000002e0: 6bcc 6dbe 62d9 08be 5d18 41bc 2f07 013e
000002f0: 7b56 31be 74d9 e8bd 97a5 0a3b 9c2d 63bd
00000300: 97cf 8cbe 61b6 62be bd6f 9ebe 9cfc a4bd
00000310: 93d5 773d 0c4a 063e 2c0f b43e 3659 2b3e
00000320: 91ed be3d b465 a73d 7bd1 293e 803d 483b
00000330: a516 163e 7f0e 9f3b e08d c9bc c2bf 7b3e
00000340: 64ea 083e 5452 e83c 8749 0a3e cbc8 f43d
00000350: 115a 6bbb 4b3e f9bd 6f87 483d 843b b83d
00000360: 5404 ccbb dc5d 2f3e a0e3 05be 2a01 67bd
00000370: 2875 cdbe f273 d5be ec77 3f3d d17e fb3c
00000380: ddd0 91bd 9f4b 2ebe 3b34 abbe cec6 4e3e
00000390: bf56 923d c819 b73c 818d 883e 0e77 b1bd
000003a0: f26e 60bd 55f4 4e3e 8cc8 c03e 3528 993e
000003b0: d43e ad3d 31b3 2c3e 336b b93d 61b6 14be
000003c0: 092e 5b3e 0b61 8f3e 20eb 993e f495 193e
000003d0: 1ead a63e 9bda 80bd 00c0 103e 6db7 343e
000003e0: 1886 b53d 82bb 523e a5ed 553e 5f86 0fbe
000003f0: f093 043e dcf8 7cbe 19ab 18bd ceb3 f43a
-0.006017191 -0.15948081 0.013540441 -0.14826648 0.46512565 0.35707027 -0.042606328 -0.0022151782
-0.0933266 -0.15200117 -0.22642848 -0.23426075 0.11719015 -0.011525479 -0.14224465 -0.53121066
-0.5596624 0.1855028 0.047263592 -0.0024547875 -0.04460293 -0.22312196 0.010136124 0.10352861
-0.012067617 0.4150096 0.06542824 0.08144654 0.020455765 -0.06766162 0.21400289 0.24459924
0.1774204 0.025314312 0.11211511 0.07841368 -0.0065472974 0.15556793 0.17053808 0.2139506
-0.007045684 0.313106 0.09918264 0.17970337 0.17913824 0.2545658 0.04751787 0.015946167
-0.1847781 0.22611657 0.102640614 -0.12430035 0.25522625 0.16371067 0.09958247 0.21016122
0.04033548 -0.4802111 -0.2869673 0.08276346 0.16306762 0.06905472 -0.18407299 -0.45378318
0.05960799 0.2569935 0.14584419 0.2023756 0.119492546 0.25876534 -0.1498443 0.11534736
0.106828675 -0.07093313 0.2171303 -0.19394827 0.16456056 0.021532252 0.24826245 0.2552377
0.10499898 -0.17117883 -0.2634237 0.41782686 0.008542524 0.14538355 0.25316837 0.2441379
-0.015802508 -0.24552672 -0.3164827 0.16896912 0.18755023 0.06811644 0.11271131 -0.018790303
0.2123369 0.18890272 0.15017727 0.11549476 0.0032944093 0.049591918 -0.030719344 0.0040002465
-0.102049634 -0.14321065 0.19125777 -0.020819008 -0.12343023 0.19854729 0.19703147 0.05057463
-0.16697763 -0.04498901 -0.21113726 -0.35200876 0.00345036 -0.024276908 -0.4604188 0.131689
-0.037713677 0.1012863 -0.23511685 -0.17254457 -0.36714098 -0.011674259 -0.20173217 0.1736937
-0.12452079 0.15071914 1.1225626 -0.12897664 0.021242697 -0.10198189 -0.17442279 -0.073476
0.4133543 0.21146758 -0.25113195 0.047938865 -0.12541689 -0.13662286 -0.044526752 0.06365133
-0.032306593 0.10773553 -0.12998877 -0.11313933 0.092935525 -0.22556005 -0.17687902 -0.053558268
0.24088864 0.08206195 0.17070246 -0.025027778 -0.3641771 -0.27143037 -0.18099336 0.083490334
-0.13072458 -0.061752334 -0.05183305 0.24372418 -0.124648094 -0.07869568 -0.09085753 0.33944145
-0.05073098 0.12452292 -0.31921268 0.038651295 0.68684936 0.6046624 0.2561987 0.03365568
-0.330766 0.10295217 0.064372174 -0.053215038 0.07852839 0.05615401 -0.020938262 -0.2735534
-0.2322251 -0.13364175 -0.011785594 0.12600397 -0.17318146 -0.11369601 0.0021155828 -0.05546342
-0.27502128 -0.22139885 -0.30944625 -0.08055994 0.060506415 0.13114184 0.35167825 0.1673325
0.09322656 0.08173695 0.16583817 0.0030554235 0.14657076 0.004854023 -0.024603784 0.24584869
0.13370663 0.02835957 0.13504611 0.11952361 -0.0035911838 -0.121700846 0.048957285 0.08995727
-0.006226102 0.17125648 -0.13075113 -0.056397595 -0.40128446 -0.41690022 0.046745226 0.03070012
-0.07119916 -0.17021035 -0.33438286 0.20193025 0.07145452 0.02235116 0.2667046 -0.08665286
-0.054793306 0.20210393 0.37653005 0.29913488 0.08459249 0.16865231 0.0905365 -0.14522697
0.2140428 0.28003725 0.300622 0.14998609 0.32553953 -0.06291696 0.14135742 0.17648096
0.08863467 0.20579341 0.20891435 -0.14016102 0.12947059 -0.24704307 -0.037272546 0.0018669309

actor.0.bias f4 [256]
00000000: a5f2 03bb 8849 fe3d e17a 143e 5857 1abe
00000010: 48ea a83d 915a 703e cfae 4d3d 45dc 21be
00000020: 901b 953c 35b0 0cbe e74c 143d 6c62 cfbd
00000030: 352c 21be 2ccf 9d3b 3bc8 543d 323f 82ba
00000040: c082 183e ecf9 26be 041e fcbd a7e6 233e
00000050: c986 2fbe ce72 413d 33c1 02bc 0a3c f0bd
00000060: ba76 973c bd87 103e 656c 0c3e 30ba cabb
00000070: 50f5 d73d 8e1e 8f3e 3e2e 883d 9eb0 303e
00000080: 71a7 5abd 5c7a a0bc d8b9 7bbd c5db 73be
00000090: e9df 3c3e 247a 3ebe 7094 37bd 6788 52be
000000a0: affb 1fbc 6bd6 c0bd b09b ac3d 58c5 0c3b
000000b0: cf92 2ebe b266 4dbe 0a37 363e 48c6 cabc
000000c0: aa84 d23c 8771 2cbc 54bc dfbd 97c8 b93b
000000d0: 77d7 113c fa9f 903d 2156 f9bd eb8f 9b3d
000000e0: c6b7 cfbc 61be 46bd 5c1b a73a 68c6 b23c
000000f0: 6d3b f6bd 6da3 493d b837 6a3d cbf5 e8bd
00000100: 37ab abbc c2a4 f0bc 3905 08bd af56 223e
00000110: 53f4 c0bd 485d 67bc a96d bb3c 2343 ab3d
00000120: e544 213e 9bec c9bd 4768 2b3d aa3e 08be
00000130: db4a 753e 42e3 86bd 6cd8 fcbd 7a5f 603d
00000140: 3303 c4bd 04bf 1fbd 3bea aebd 1f87 58bd
00000150: 7a43 8ebd a431 6a3e d8bc c9bd 7dfb f13d
00000160: bcd6 78bd 6b55 c73d 73f0 3b3d 6b31 06be
00000170: 6127 fb3d 87df fd3b a95d 7fbc 14ec 28be
00000180: 98da c33d d38d a03d 4c44 83bc b6e9 1cbe
00000190: b360 113d 2fbd 51be 2b30 94bb 9032 86be
000001a0: 4173 b33b ac9a 6c3d 8f17 bcbd e2af 10be
000001b0: 0663 213e 6e9f ba3d 3e1b 55be 55e2 243e
000001c0: 5e46 dd3c b2a1 a33d f89a 6f3e c500 e33d
000001d0: 95dd b53c bac7 b0bd 9e16 82bd 865c a7bd
000001e0: 410a aebd e172 be3d 6ef4 383d 6827 26be
000001f0: 9702 86bd 49d8 8a3e 6039 afbc c6bf 9dbd
00000200: 9e49 203d 91dc edbc 0755 5a3e aeff 12bc
00000210: de70 40be 0a65 5f3c 657f 67be d13d b8bd
00000220: 103c 303e 8d57 b1bd 6419 31be b404 2bbd
00000230: 4f85 dabd 34be 033c 7d0b cbbc 9cba b6bd
00000240: 4c00 0a3d 68af dbbd 218f 793e 0c2c f13b
00000250: d85c cbbd 83ad 1bbe 39e4 0d3b b22f d5bd
00000260: 451c 983b e456 fdbd 4431 df3d 1962 4fbc
00000270: 0843 87bd 51f1 ac3d 761c ea3d 437f a03d
00000280: d007 053e c652 b83d 2787 e93c 5c1e d83d
00000290: 15ff 66be cd12 a13b cc71 e2bc dc5c 353c
000002a0: c884 5c3e 92c8 74bd 1c54 3cbe fcba 1e3e
000002b0: 6190 57bd d684 5ebe b3b7 813d fe53 4e3e
000002c0: 393e 16bc e54f 923d 45f0 6f3e 5a42 adbd
000002d0: 272e 67bd 9696 8c3d e045 8dbd 985f 623d
000002e0: 6214 0ebe 3e1a dbbd 455a 3d3e 07dd 2ebe
000002f0: 3629 993d 8ece 49bd 09d9 85bd 5db7 1c3e
00000300: 8df5 cc3b 27f4 a4bb f488 0cbb cd9e 82bd
00000310: 26ad 55bd c74d df3d c48a 0f3d ebaf 903d
00000320: 1745 853e 6df5 1e3b e085 17be 1498 f53d
00000330: 8115 f3bc 8415 133d 1742 3ebe ada1 82be
00000340: 704d 3cbe ed18 b9bc e7af f63d f438 5ebd
00000350: a89e 8f3d e790 083e bdb9 273e 7ecd 7e3c
00000360: 8495 6f3e 75e9 29be 6a32 09bd 4195 e0bc
00000370: 28a0 1fbe 8aea 02be d041 6dbc e650 e1bd
00000380: 7e1d da3d e1ef a5bd 61af b03d 75a3 47be
00000390: 506e a8bd e98b cf3c 4aa6 f73d 8e07 d53d
000003a0: 073d 41be 56d2 c6bd af8d 1e3e d73c 99bd
000003b0: 4229 32be 0a70 00bc b4d2 3ebe c679 a3be
000003c0: a182 a2bd cfb4 b8bd d692 54be ce55 0b3e
000003d0: c38d 603d 035e 4d3e 0c63 8a3e 3086 22bb
000003e0: 43b2 d53d ed1a 88be b24f 12bc f2f3 d73d
000003f0: fe49 23be 5aca eb3d c97a cabd 04aa 74bc
-0.002013364 0.12416369 0.145 -0.15072381 0.082478106 0.23472048 0.05021554 -0.15806682
0.01820162 -0.13739093 0.036206152 -0.10126194 -0.1573952 0.0048159566 0.051948767 -0.0009937047
0.14893627 -0.16306275 -0.123104125 0.16005956 -0.1714126 0.047228627 -0.007980633 -0.117302015
0.01848923 0.1411428 0.13713224 -0.006186746 0.105448365 0.27953 0.06649445 0.17254874
-0.05338234 -0.019589595 -0.06145653 -0.23814304 0.1844479 -0.1860128 -0.044819295 -0.20559846
-0.009764596 -0.09415897 0.084281325 0.002147993 -0.1704819 -0.20058706 0.17794433 -0.024752751
0.025698025 -0.010525114 -0.109245926 0.005669664 0.0089014685 0.07061763 -0.12174631 0.075958095
-0.025356185 -0.048521403 0.0012749243 0.021823123 -0.12023053 0.04922812 0.057182044 -0.11375006
-0.020955665 -0.029375438 -0.033208106 0.1585338 -0.09421601 -0.014121361 0.022879438 0.08362415
0.15748937 -0.09859582 0.041847493 -0.13305154 0.23954336 -0.06586315 -0.12345967 0.054778554
-0.09570923 -0.039000526 -0.0854077 -0.052863237 -0.06946464 0.22870499 -0.09850472 0.11815546
-0.06075166 0.09733089 0.045883607 -0.13104789 0.1226337 0.007747594 -0.015586295 -0.16496307
0.09563178 0.07839551 -0.016023777 -0.15323529 0.03549261 -0.20482324 -0.0045223436 -0.2621045
0.005476386 0.057764694 -0.09184181 -0.14129594 0.1576043 0.0911244 -0.20811173 0.16101964
0.027011093 0.07989825 0.2339896 0.11084131 0.022200385 -0.08631845 -0.0635197 -0.08171944
-0.084980495 0.09299255 0.04515498 -0.1622597 -0.06543463 0.27118137 -0.021389663 -0.077025935
0.039132707 -0.029035838 0.21321498 -0.008972092 -0.18793055 0.013634929 -0.22607191 -0.089961655
0.17210412 -0.08659277 -0.17294842 -0.041752532 -0.10669958 0.008040953 -0.024785751 -0.08922312
0.03369169 -0.107268155 0.24371006 0.007359987 -0.09929818 -0.15202908 0.0021650924 -0.10409488
0.004642042 -0.12370089 0.108980685 -0.012657666 -0.06604582 0.08444465 0.1143121 0.07836773
0.12991261 0.09000163 0.028506828 0.105526656 -0.22558244 0.0049155713 -0.027642153 0.011069503
0.21535027 -0.05976159 -0.1839146 0.15501016 -0.052627925 -0.2173036 0.06333866 0.20149228
-0.0091701085 0.07144145 0.234315 -0.08459921 -0.0564405 0.068646595 -0.06898093 0.055266947
-0.13874963 -0.10698365 0.18491466 -0.17076503 0.074785635 -0.04926925 -0.06535537 0.15304323
0.006254858 -0.005033988 -0.0021443935 -0.06377945 -0.05216708 0.10903507 0.035044447 0.07064804
0.26029274 0.0024255172 -0.14797163 0.11991897 -0.02967334 0.03590919 -0.18579899 -0.25513974
-0.18388915 -0.022594893 0.120452695 -0.054253533 0.07012683 0.13336526 0.16379447 0.015551923
0.2339688 -0.16592963 -0.033495344 -0.02741492 -0.15588439 -0.12784782 -0.014481023 -0.11001758
0.106501564 -0.08102394 0.08627201 -0.19495948 -0.082241654 0.025335269 0.12092264 0.104018316
-0.18870936 -0.09708087 0.15483736 -0.074823074 -0.17398551 -0.007839212 -0.18635064 -0.31928843
-0.07935072 -0.090188615 -0.20759138 0.1360695 0.054822695 0.20055394 0.27028692 -0.002479922
0.10434391 -0.26583043 -0.008930134 0.10544576 -0.15946195 0.11513205 -0.09886701 -0.014933113

actor.2.weight f4 [256, 256]
00000000: 20f1 993e 0a2f a1bc cefd a13e 2049 e23d
00000010: 985a 663e 8805 c8be 04d4 24bd 66be a8bd
00000020: 2cbd 493c f631 a3bd f8ae d73d d88d 7b3e
00000030: c076 3c3e 4342 b8bc d437 69be 2720 503e
00000040: 14d4 43bd 3c30 bbbb 4084 37be 0a83 953d
00000050: f0a2 f83e 1d30 9a3e 7200 5d3d 4acc b2bd
00000060: cfe6 75bd fca6 283e 3706 253d b48f 40be
00000070: 16fe b7bd 1e7a d8bc 35a6 afbd b09e 243e
00000080: 5e13 9f3d e683 853d 4381 833e ecc5 893d
00000090: 77e9 013e 7344 a3bd b85a 05be 9467 02bf
000000a0: cfcb aabe b8b9 a2bd 9334 25be b1a4 b0bc
000000b0: 77bf b13e ae65 c6be 15f2 b03e 32a7 a13d
000000c0: 56a9 1b3f 3e55 59be dc53 063d 4a2d 83bd
000000d0: e49c 2f3e 2f5d 9f3c aabc fcbd 602b 8fbe
000000e0: 1ee6 a53e bed7 9c3e e427 af3d 8648 19be
000000f0: 7ddc 183e b660 df3d 5293 6dbe 7e80 d6bd
00000100: 9bd1 81bd 4408 cb3c 5ae7 6dbd 5303 eabe
00000110: b83f 5f3e aa61 e23d 9e86 403d 970b 65bd
00000120: 7757 4abd 7a00 0fba 901d 08be f2f3 21bf
00000130: 7a0e f43e 843c d73d 00e6 d23e 54b6 9b3e
00000140: 00d6 913d 2981 d8bd 0ed0 5abe 8d5e 053d
00000150: f7b5 29be 5a7e f2bd 5b7e a1bd 2f8e d53d
00000160: 7228 bdbd 4f05 6e3e 68d3 7fbe 9ba6 a83d
00000170: 321b 91be 9172 cfbd 74ae ffbd df3b 0bbf
00000180: d875 633e 1a15 88be eace 163e 78ee 4a3c
00000190: 9bec 83bd bd3e a5be d12d 453a 67e1 303e
000001a0: 7e3e 50be d2a8 84bd 9ad1 b83d f482 5ebe
000001b0: 3a62 773e 24a4 24be aa13 d9be a057 7b3e
000001c0: 234b 4d3c 9242 603e d923 573d 0b39 ca3d
000001d0: f0b5 d4be 12a5 903e 2292 fe3d 4871 bbbd
000001e0: bb95 c3bd d2ac d13c 1ce6 41be f023 15be
000001f0: b9c8 a53e 842d f33d e480 b8be 009a 263d
00000200: 2905 ed3a 18f4 cf3d 9aad 05be 0aa1 783e
00000210: 0d3c 96be eb70 173d cbc6 5d3d d5d8 7a3c
00000220: a23f 1b3f 7326 37bd b5d0 503c cdc7 fb3c
00000230: 8e58 0fbf bffe 9cbd 0357 d6be b988 6a3c
00000240: 670f e3be 5cb6 463d 762a acbd 1de6 b1bc
00000250: 7020 b43d 2d3d 753e 5636 013e ec5e cfbd
00000260: 2148 f93e 4cf8 c3be 91f9 a2bc 783a 2b3e
00000270: a5db 823c 52fc 8b3d 6285 3e3d d0fa 72bd
00000280: 0ff7 a93e 4024 dd3e 01ba d73d b351 653e
00000290: a3a6 21bd 3d7a 81bc 879d 8d3e 32a8 633e
000002a0: 8791 04be 3a83 e83e 4956 d83d d4be d13c
000002b0: 9eb1 1e3e 1435 1fbe f886 e8bd 7cce a13e
000002c0: 038e a1bd cacf 133e 48bd 3d3e d0c9 ccbd
000002d0: b50f 853e f2bd e83d dded 3bbe 3e78 73bd
000002e0: a36a 923e 2f57 ccbe 053a 6f3d 46a5 c33d
000002f0: 10d4 13bd 49be a0be cbf0 18bd aec5 243f
00000300: f09d 83bd 921d babe c858 f6bd 167e 1dbe
00000310: 1bdb babe ba0b 943e d9b0 b13c 6e21 0b3e
00000320: 949a 42bc 432c 543e f0d4 683b 96d3 923d
00000330: 2490 513e 545c b03e 51e2 1c3d 9b69 053e
00000340: 2ef8 e7bd c196 13bd 41ac 78bb 1c07 80be
00000350: 8f67 863e c42b 853d edf8 b8bc 8c25 62be
00000360: aec7 9f3c 3a28 c9bd c0ae 3fbe c26d dfbd
00000370: 1fcb 5cbe 2171 113d f7ad a63b d045 163e
00000380: 3c2f 9ebe 237c 833b 40fa 193d 12c8 093c
00000390: 23cf 00be 053f d7be 10a5 2bbe 7aaa 4cbe
000003a0: 2980 803d 668b 6e3d 8bfe 6d3c 6b06 2fbd
000003b0: 6373 783d 7780 d2bc e820 73bd e950 4dbe
000003c0: d95d 9f3d 58dc 20bf 6da9 92be b7a1 133e
000003d0: 67d7 d33d 2bf6 5f3e b629 613d 2f79 c63e
000003e0: 170a c9be f734 cd3d d4d4 6e3b bdd9 fcbd
000003f0: f9f9 0d3e 8fa3 afbd a363 053e d30d a93d
0.30066776 -0.01967575 0.3163895 0.11049104 0.22495496 -0.3906672 -0.040241256 -0.082394406
0.0123131685 -0.07968514 0.105314195 0.24565828 0.18404675 -0.022492534 -0.22775203 0.20324765
-0.047809675 -0.005712537 -0.17921543 0.07300384 0.4856181 0.30114833 0.053955503 -0.08730371
-0.06003457 0.1646995 0.04028913 -0.18804818 -0.0898401 -0.026425418 -0.08576623 0.1607616
0.07767366 0.06519298 0.25684556 0.06727204 0.12686716 -0.0797204 -0.13022888 -0.509393
-0.3335862 -0.07945579 -0.16133337 -0.021562906 0.3471639 -0.3874945 0.34559694 0.07893218
0.6080526 -0.21223924 0.03279482 -0.064051226 0.17149693 0.019453613 -0.12340672 -0.2796278
0.32402128 0.30633348 0.085525304 -0.14969072 0.1492786 0.10907118 -0.2320073 -0.10473727
-0.06338807 0.024784215 -0.058081962 -0.4570566 0.2180165 0.11053784 0.04700338 -0.055919256
-0.04939982 -0.0005455088 -0.13292527 -0.63262856 0.47667295 0.10509589 0.411911 0.30412543
0.071208954 -0.1057151 -0.21368429 0.032560874 -0.1657332 -0.11840506 -0.078854285 0.1042751
-0.0923623 0.23244213 -0.24982989 0.082349025 -0.2834106 -0.10129274 -0.12484446 -0.5438823
0.22212923 -0.265786 0.14727369 0.012385957 -0.06441613 -0.32274428 0.0007521781 0.17273484
-0.20336339 -0.064775124 0.09024353 -0.21729642 0.24158564 -0.1607824 -0.42397815 0.24545145
0.012530121 0.21900395 0.05252442 0.09874161 -0.41545057 0.2825094 0.12430216 -0.09152466
-0.09550043 0.025595102 -0.18935436 -0.1456449 0.32379702 0.11873916 -0.36035836 0.04067421
0.0018083203 0.10153979 -0.13054505 0.24280182 -0.2934269 0.03697292 0.054144662 0.015310486
0.6064397 -0.044714402 0.012745072 0.03073492 -0.559945 -0.076657765 -0.4186326 0.014314824
-0.4434769 0.048513755 -0.08406536 -0.021716172 0.087952495 0.23949118 0.12618384 -0.10125527
0.48687842 -0.38275373 -0.019894393 0.16721523 0.015973875 0.06835236 0.046513923 -0.059321225
0.33196303 0.4319172 0.10533524 0.22394447 -0.039465558 -0.015805358 0.27659246 0.2223213
-0.1294614 0.45412618 0.105633326 0.02560369 0.15497443 -0.15547591 -0.11353868 0.31602848
-0.07888415 0.14434734 0.18529236 -0.0999943 0.25988546 0.11364354 -0.18352456 -0.059440844
0.28596982 -0.39910266 0.05840494 0.09553008 -0.03609091 -0.31395176 -0.037339013 0.64364135
-0.064266086 -0.36350685 -0.120286524 -0.15380129 -0.3649529 0.28915197 0.021690773 0.13586971
-0.011877675 0.2072001 0.0035527311 0.07169263 0.20465142 0.3444544 0.03830177 0.13028567
-0.113266334 -0.036032442 -0.0037944468 -0.25005424 0.26250884 0.06502488 -0.022579635 -0.22084635
0.019504394 -0.09822126 -0.18719006 -0.109096065 -0.2156186 0.03550828 0.005086656 0.14675069
-0.30895412 0.004012601 0.037592173 0.008409517 -0.12579016 -0.42040268 -0.16762185 -0.19986907
0.062744446 0.05823841 0.01452602 -0.04273073 0.060656916 -0.025696022 -0.059357554 -0.20050396
0.07781572 -0.6283622 -0.28644887 0.14417158 0.10343819 0.2187125 0.05497142 0.3876433
-0.3926551 0.10019868 0.0036442773 -0.12346218 0.13864888 -0.08576118 0.1302629 0.0825459
