models/ho_policy_ep9000.pth (torch, 628226 bytes, 11 tensors)

critic.0.weight f4 [256, 42]
00000000: f4c9 abbd 72c8 06be 42af be3e f7c7 953e
00000010: 5b00 3c3e af5b cabe e553 3d3e 41e0 c0be
00000020: 831b 623f 0711 173f 7c55 45be 619a bbbd
00000030: 4fb4 acbc b624 df3d 6399 13bf 3158 9e3e
00000040: d438 dc3e e0e6 593e caaa abbe 11e6 39bf
00000050: ecb4 d1bd fddb 963c e092 c33e f521 53be
00000060: c7c3 c7bf 391f e7be 0230 b3bd 9a42 a7bf
00000070: a345 95be b40f 86bf da7f 413e 770a 0d3f
00000080: 31ca 4bbf e13f d13f dd00 09bf 566f fabd
00000090: d9f7 00be 03fe c9bd 3c13 a6be 012a 02bf
000000a0: e625 4fbf 2484 f03e d292 fabe cf59 62bf
000000b0: 781c 5abf 8e91 17be 2619 0a3c 2a8d debe
000000c0: 50ac 053e ea0e f1be 259a 8dbf 0b68 413d
000000d0: d3a2 1bbf e684 833e 988e f6be a1ef 7c3e
000000e0: 1d97 993e 14cc 1fbf 5e54 6fbc 40ff 18be
000000f0: e52a 913e a8aa 40bf f5a0 e9be 0eaa 0f3e
00000100: 5acf 1e3f bc14 98bd 000c aaba d402 c6bd
00000110: 6910 d83e f561 643f 1d8c 82be 3744 4abf
00000120: c9fa 28be b7b8 83bd 9115 a2be 6890 2dbf
00000130: 3721 5ebe a868 8a3c 00de 8cbd 2a6a 903e
00000140: 778c 363f 8f7a 69bf 4844 9ebf ac2f 423f
00000150: 1788 17be 13e1 f1be 01d8 e3be 1780 8c3e
00000160: cd28 aa3e 323e 6ebf 52d3 93bd 9be7 c8be
00000170: c076 9f3f fa87 dbbe a167 55bd 2846 7b3e
00000180: 5b36 b5bd 30ec dc3e 5003 d83e 8468 b1bc
00000190: 7ee8 803e 63cc ec3e 266c ab3d d0d6 ccbe
000001a0: c57c a13e 6c89 303e a73b 263f dc19 8abe
000001b0: be8e bdbe d1e8 c6bd 1879 9a3e ad7c 0dbf
000001c0: ae00 49bf 3bba a9bf be1f a8bd dce1 503e
000001d0: 871c 64bf 44ae f33e 5e8d 13bf 20c8 13bc
000001e0: ede2 efbc 412d e83c a61e 91be bf79 82bd
000001f0: 64dd 63bd e510 e4bd 56e5 9d3e eb5c a03e
00000200: 00af 473f 6f8f 2abf 94e3 013d a0fe de3e
00000210: 0d06 4e3e df24 6e3e 6614 1c3f bb02 7ebe
00000220: b6be 813e 94de 0dbe b3b1 aa3e 0452 24be
00000230: 4245 513f cea9 3d3e 0b59 633e 308b 863e
00000240: 0665 9dbe 080f e0be 5df6 d53e e136 a0bd
00000250: e921 a33d 0518 0ebf a5ac d8be 0efd 5dbe
00000260: da0f 93be 7069 bbbf 26e1 cd3a 0837 0c3e
00000270: c232 2c3e 0f5f a93d 606c a0bd 4459 cd3f
00000280: 2503 143f 8e58 c33d b154 52be 3ad2 2b3b
00000290: a43e debd 6c03 66be d41f 7f3f 5d38 cdbe
000002a0: ba82 e4bd 5057 e8bd f3bb d3bd 03f4 743f
000002b0: 4909 4d3e a698 ecbd a85d e93b 7c9c c3be
000002c0: 5a57 3a3f 7c3e 4dbd 0057 4d3e ae27 313e
000002d0: 6ba9 d0bc 0d71 823e 0032 9ebe 9478 a13b
000002e0: 84f3 3fbd b32e d93e fc80 ea3d c565 bebe
000002f0: fd3d 53be 9957 1c3e 8bd0 793f 6f98 ad3e
00000300: 886d 1fbe d524 543e 09f3 833e 3032 89be
00000310: 7602 62bf 1160 a5be c47a 2a3e 0de2 853d
00000320: 02a0 6abf 3e31 583e 0758 74bd 9ee2 c73d
00000330: f272 843d 4e2b 8ebd 8fbb 40be fbc7 2c3e
00000340: 3a60 76bf f75a ad3e 41f2 603e fc87 9abe
00000350: 8b93 7c3f edd1 f93d 46a1 06be 68a7 57bf
00000360: e6ee 01be caeb a83e 6eab 0640 aa8b c8be
00000370: 63ca a7be aea3 eabe 29ae 193f c7b7 b93d
00000380: 1569 a0be d626 033e 01b7 43be 7e7a 583e
00000390: 237a 08be 5dbe fdbc 77e2 0ebf 0650 34be
000003a0: 7cbd 96be b29e 173f 6e45 c33f 05e6 263e
000003b0: be30 103f 3d8b 1ebf e561 143e ac16 77bf
000003c0: 1697 27bf 2d63 a1bf fcdb 993d ff4d 043f
000003d0: fd97 ca3e 9617 d93d 848c 9d3c 0bf9 49bf
000003e0: e2c0 863e 7841 e13e 000c c23f e636 25bf
000003f0: bc54 efbe f4c2 d4be 2922 aabe e407 633a
-0.08388129 -0.13162401 0.37243086 0.29254124 0.1835951 -0.39523074 0.18489034 -0.37671092
0.8832323 0.59010357 -0.19270891 -0.09160305 -0.021082072 0.10895674 -0.57655925 0.3092666
0.43012106 0.21279478 -0.3352874 -0.7261668 -0.10239586 0.018415445 0.38197994 -0.20618422
-1.5606622 -0.45141008 -0.08749391 -1.30672 -0.2915469 -1.0473542 0.18896428 0.55094093
-0.79605395 1.6347619 -0.5351694 -0.12228267 -0.12594546 -0.09862902 -0.3243655 -0.5084534
-0.80917203 0.46975815 -0.4894014 -0.8841829 -0.8519969 -0.14801618 0.008428847 -0.43467075
0.13054013 -0.4708169 -1.1062666 0.047218364 -0.60795325 0.2568733 -0.48155665 0.24700786
0.29998103 -0.62420774 -0.014607517 -0.1494112 0.28353038 -0.752604 -0.45630613 0.14029714
0.62035143 -0.0742583 -0.0012973547 -0.09668508 0.4220002 0.8921197 -0.25497523 -0.7901034
-0.16501917 -0.06431716 -0.3165708 -0.6779847 -0.21692358 0.016895607 -0.06878281 0.28205997
0.7130808 -0.91202635 -1.2364588 0.7585399 -0.14798008 -0.4724203 -0.44500735 0.27441475
0.33234254 -0.9306365 -0.072180405 -0.392392 1.2458115 -0.4287718 -0.05210078 0.24538481
-0.08848258 0.43148947 0.42190027 -0.021656282 0.25177377 0.46249685 0.08370237 -0.4000764
0.31540504 0.17239922 0.6493477 -0.26972854 -0.37022966 -0.09712375 0.30170512 -0.55268365
-0.7851666 -1.3259958 -0.08209179 0.20398659 -0.8910603 0.47593892 -0.57637584 -0.0090198815
-0.029283011 0.028341891 -0.28343695 -0.063708775 -0.055631056 -0.11136035 0.30839032 0.3132089
0.78001404 -0.6662511 0.031711176 0.43553638 0.20119496 0.23256253 0.60968626 -0.24805729
0.25340813 -0.13854438 0.333387 -0.16046911 0.81746304 0.18521807 0.22201936 0.26278067
-0.30741137 -0.43761468 0.41789523 -0.07822967 0.07965452 -0.555054 -0.42319217 -0.21678564
-0.2872303 -1.4641552 0.0015707358 0.13692868 0.16816238 0.08270084 -0.07833171 1.6042867
0.578173 0.09538375 -0.2054012 0.0026217834 -0.108517915 -0.22462243 0.9965794 -0.40082064
-0.111577466 -0.113447785 -0.10338583 0.9568483 0.20023073 -0.11552553 0.0071217604 -0.38205326
0.7278954 -0.050108418 0.20052719 0.17300293 -0.02547141 0.25476876 -0.30897522 0.004927704
-0.046863094 0.4241844 0.11450383 -0.3718702 -0.20629115 0.15267791 0.97583836 0.3390536
-0.15569127 0.20717175 0.2577136 -0.26796103 -0.88285005 -0.32299855 0.16648394 0.065372564
-0.916504 0.21112534 -0.059654262 0.09760021 0.064672366 -0.069418535 -0.18821548 0.16873161
-0.9624058 0.33858463 0.21967413 -0.30181873 0.9866263 0.12198243 -0.13147458 -0.84239817
-0.12688789 0.32992393 2.1042132 -0.39169055 -0.32771596 -0.45828003 0.6003137 0.09068256
-0.3133017 0.12807783 -0.19112779 0.21140477 -0.13327841 -0.030974561 -0.5581431 -0.17608652
-0.2944144 0.59226525 1.5255563 0.16298683 0.56324375 -0.6193121 0.14490469 -0.9651897
-0.65464914 -1.2608391 0.07512662 0.5168151 0.39569083 0.10600202 0.019232042 -0.78895634
0.26319033 0.4399526 1.5159912 -0.64536893 -0.46744335 -0.41554987 -0.33229187 0.00086605386

critic.0.bias f4 [256]
00000000: f08a 90be a27c b9bd 0579 983c f228 f4bb
00000010: 72b9 50be 2d02 3b3e d370 333e ce53 1cbe
00000020: 96af 41be e2d3 bb3e 2d3d 16be 40f2 81be
00000030: cd5a 813e be91 91bd 0e21 e03d adaa 00be
00000040: 6f1b 6dbe f97a cbbc e9a5 0ebe 33ee babd
00000050: a50c 113e bfcf 01be ae2f c93d f2eb cdbd
00000060: 6eba 69bb bf77 a13e 82c7 313e 3119 423c
00000070: aa36 923e eca7 1ebe 6bee babd ba84 01bd
00000080: a0d8 c13d 301d 9d3d 3604 efbc be22 503e
00000090: b70f 46bd 5b8f 4d3d 0941 a13e e130 9abe
000000a0: 294a 663d a0cb edbb 2ed1 4f3e b149 24be
000000b0: 62ff 393d 9943 213e a225 3a3e d4c0 763d
000000c0: d992 14be e5d2 8a3e 2a08 913e b546 4a3d
000000d0: b8d4 123e 1a11 9bbd d773 963e f9b5 57be
000000e0: da77 673c af8c 513c 0088 0cbe deea 94be
000000f0: 0ea4 513e b4bb 3cbe 0841 87be c140 0dbe
00000100: 6f61 0dbc 0838 b73d f6da 4bbd 11cd 8b3d
00000110: 7b6f 113e 55ec 4f3e db7b 94be 4900 93be
00000120: 6410 cdbd 8f34 59bd f74a 46be 3e75 593e
00000130: 5e66 613d 0a0d 6abc 8119 273e 4013 4e3e
00000140: 20b4 98bd 051f 6f3e eeea 3abe cc61 2abd
00000150: 0e20 73be add0 acbd 94b5 cabd cf54 56be
00000160: 5605 a7bd bf19 7fbc 71ba 173e 4811 103d
00000170: 499b 88bb a414 863c 1ba9 65bd 6caa a4bd
00000180: 70d9 7c3d c170 c93d 2a69 e5bd cfcd 913d
00000190: 9775 203e ac97 09be fb19 663c 0a95 2d3e
000001a0: 7cda 183e a38c 59be 7bed 2ebc 6edb 5fbe
000001b0: f522 173d 1e8b 8bbd 8ce2 843e f426 f33d
000001c0: 4337 b3be 73a6 11bf 6f49 babd 9180 3cbe
000001d0: 1557 b0bd 2942 123e c6d4 6a3d e2d9 123b
000001e0: db90 38be cc3e 45be 5b2e 2ebd 8d3e 2b3e
000001f0: fe44 b4bd c3df a43e 42de bd3d 04c0 4dbe
00000200: 6f1f d23e 2a78 a6be 56e5 03be 3c82 a5be
00000210: bed7 19be 4206 1cbd 50fc 02be 619e 473d
00000220: 7127 6bbc a221 36be a7c7 28be e4d9 133d
00000230: fe63 f33d 5d6a 4dbe 710d 2b3d a7b4 97be
00000240: 310d 133d 651f 8d3d def7 813e 5457 0c3e
00000250: 8872 3c3d b2fa 033d 8a94 1c3e 7ced e1bc
00000260: 80f6 683e 8208 94be 8b0b 023e 922b 65bc
00000270: 8b53 093e c152 8dbe a13a 2f3d 89dc d1be
00000280: 389e d5bd 0e8f de3d 4728 b2bc 624d f03c
00000290: baeb a4bd c757 0bbe 960d 673b 8a95 a8bc
000002a0: b23b aa3e 896c 17be 74f5 ffbd 8cd1 093d
000002b0: 6456 61be bc01 16bd a94c bbbd 416b 69be
000002c0: d12e 69bc 796a f63d ac55 b0bd ecb0 203e
000002d0: 39a7 75be de10 533e 4b1d 85be 8ff7 2dbe
000002e0: 9d64 9cbe 19c6 d03d 2c0b 89be 321b 85b9
000002f0: b1ed 063e 944d c5bd 70a7 a4bd 5579 15be
00000300: 73b6 82bd 49de 8a3e 0e52 0a3e b446 fcbd
00000310: 3495 28bb 2eb5 d5bd c42d bc3e 623f 42be
00000320: 7e9b 03be aeb2 45bd 6ba8 56be 13af c8bd
00000330: b7e0 bd3e 1f7a 11bd ab84 06be c329 27bc
00000340: 1843 673e 6956 2c3e 8aa2 cbbd c022 833e
00000350: 79df b03e b5b9 463e 99f7 7f3e 84ad 10be
00000360: 5e2a 22be 9c7f 86bd 31c7 2d3e d600 cdbd
00000370: 8b75 a5bd ee70 75bd 407e 84bc a3fa 013d
00000380: 00e5 71be ac25 f2bd be69 8cbe 6415 423e
00000390: 61fa cfbd 6eb1 de3d 3f5d 8b3e 01af 57be
000003a0: a176 b9be eaa3 13be 238b 54be c1c3 f93d
000003b0: 225e c3bd 4435 64be d223 2f3d aeb4 ecbd
000003c0: da3f 643e 1ab5 833e 1d5c 863e ffa9 12be
000003d0: 4503 e4bd 9400 2fbe 909b 9ebe 6858 333e
000003e0: 0f2c 003e 5d9b 4abe 91f8 cdbd 6334 6fbe
000003f0: c635 edbd cc6f 0cbc f20a 263e ab94 9f3b
-0.28231 -0.09056975 0.018612394 -0.00745117 -0.20383242 0.18262549 0.17523508 -0.15266344
-0.18914637 0.3668509 -0.14671774 -0.25380135 0.25264588 -0.07107876 0.10943805 -0.12565108
-0.23154996 -0.024838911 -0.13930477 -0.09127464 0.1416498 -0.12676905 0.09823547 -0.100547686
-0.00356641 0.31536672 0.17361262 0.011846826 0.2855733 -0.15493745 -0.09127506 -0.03162072
0.09465146 0.07671583 -0.029176813 0.20325753 -0.04835483 0.050185543 0.3149493 -0.30115417
0.05622307 -0.00725694 0.2029464 -0.16043736 0.045409568 0.15748443 0.18178418 0.06024249
-0.14509143 0.27114025 0.2832654 0.049383838 0.14338958 -0.07571621 0.29385254 -0.21065511
0.014127696 0.012789889 -0.13723755 -0.2908544 0.20472738 -0.18430978 -0.26416802 -0.13794233
-0.008629187 0.08946234 -0.049769364 0.06826223 0.14202683 0.20304997 -0.29000744 -0.28711155
-0.10012892 -0.05302864 -0.19364534 0.2123613 0.055029266 -0.014285335 0.16318323 0.20124531
-0.07456231 0.23351677 -0.18253681 -0.041597173 -0.23742697 -0.08438239 -0.098979145 -0.2093079
-0.081553146 -0.015570103 0.14817216 0.03517273 -0.004168902 0.016367264 -0.056069475 -0.08040318
0.061730802 0.09835959 -0.11201699 0.07119333 0.15669857 -0.13436764 0.01404428 0.16951385
0.14927095 -0.21245055 -0.010676737 -0.2186105 0.036898572 -0.06813644 0.25954092 0.11872664
-0.350031 -0.56894606 -0.090960376 -0.18408419 -0.086103596 0.1428305 0.057331823 0.00224077
-0.18024008 -0.19262236 -0.042524677 0.1672308 -0.08802222 0.32201967 0.09270908 -0.2009278
0.41039607 -0.32513553 -0.12880453 -0.32325923 -0.15023705 -0.038091905 -0.12791562 0.048735026
-0.014352665 -0.17786267 -0.16482411 0.03609647 0.11884306 -0.20060106 0.041760866 -0.29630014
0.035901252 0.06890754 0.2538442 0.13705188 0.046007663 0.032221504 0.15291038 -0.027579062
0.22750282 -0.2891274 0.12699716 -0.013987439 0.13410775 -0.276022 0.042780522 -0.40988567
-0.104305685 0.10867129 -0.021747721 0.029333774 -0.08052774 -0.13607703 0.00352559 -0.020579118
0.3324867 -0.14787497 -0.12497988 0.033647105 -0.22005612 -0.036622748 -0.09145481 -0.2279482
-0.014232353 0.12032027 -0.086100906 0.1569249 -0.23989572 0.20611903 -0.2599891 -0.16988967
-0.30545512 0.10194034 -0.26766336 -0.00025388 0.1317661 -0.096339375 -0.08039749 -0.14597066
-0.06382456 0.27122715 0.13507864 -0.12318173 -0.0025723698 -0.10434948 0.36753666 -0.18969491
-0.12852284 -0.048266105 -0.20962684 -0.09799018 0.37085506 -0.035516854 -0.13136546 -0.010202828
0.22584188 0.16829838 -0.09943111 0.2561245 0.34545496 0.19406779 0.24996795 -0.14128691
-0.15836474 -0.06567308 0.16970517 -0.10009925 -0.0807906 -0.05992215 -0.016173482 0.031733166
-0.23622513 -0.118235916 -0.27424425 0.18953472 -0.10155178 0.10873686 0.2721958 -0.21062852
-0.3622332 -0.14417997 -0.20756201 0.1219554 -0.09539439 -0.22285944 0.04275877 -0.115578994
0.22289982 0.25724107 0.26242152 -0.14322661 -0.11133436 -0.17090064 -0.3097806 0.17514193
0.12516807 -0.19785829 -0.10057176 -0.23359828 -0.11582522 -0.008571576 0.16215113 0.0048700175

critic.2.weight f4 [256, 256]
00000000: ee28 f13e 50d8 d2bd 332f 8abd ba51 12bf
00000010: ce53 cebd 4cec eb3e 775a 313f 2243 ae3e
00000020: e600 d1be f9d9 eb3e 3467 993d dbab 713f
00000030: 5af8 ca3d 7c88 46bf 0e1c 153e 399f 7fbe
00000040: 1ba3 063f 16f4 873e d8a4 d03e 7fc3 68bf
00000050: 4b5c 77bd f683 0d3f 1124 993c 100b f63d
00000060: 7274 e3be 3002 023f 3397 cabf 8d10 33bf
00000070: 92ac c1be d0e3 b0bd 1771 bd3f 5624 46be
00000080: e871 ac3e 1ee0 933e 05e2 2abe 1b2d 1a3f
00000090: 5bb0 633f 04d3 fabc ce1a fc3e b563 1abf
000000a0: 02e8 52bf f0aa 403f 467d ccbe 6d10 42be
000000b0: 06f7 aa3d 34d5 523f 651e 4b3e 321d 28bf
000000c0: 6233 a23e 864e fd3d b316 be3e 7fe4 80be
000000d0: ef18 8b3e 1ad2 2fbd 5e78 56be f6e3 4b3f
000000e0: 16d4 24bf 61ca 663e 9d6e 263f 1b11 493d
000000f0: 5751 0a3f 4f50 45bf 80ae 14bd c8a4 773f
00000100: 240c 2abf ff51 69be 5c4c 6d3e 8199 3ebf
00000110: e249 3fbf 4ace cabd b730 24bd 667a 013e
00000120: 4c84 20be 9384 2abf 449c 6f3e 1033 d73e
00000130: efa4 b03d 4088 20be c72a de3e 82d5 1fbf
00000140: 93f7 22bf c771 dc3d 8355 18bf 1ae3 9e3e
00000150: 75ef c73e a750 5e3f 508a 8c3f 398a 243e
00000160: 9ab9 313e 176e 463f 5e95 5ebf d22a 6b3e
00000170: 1751 8eba bdc3 fc3d 00d8 0dbd 7b21 943e
00000180: 73a4 aabe f518 e03e c11d a43e a354 90be
00000190: bde6 45be b235 d83e 2236 6b3f c4d5 2abf
000001a0: 0d50 943e 1a9d c13d 6e87 d33e 067b 5d3b
000001b0: 42f4 fe3e ddf4 443f 996b d03e 0053 b6be
000001c0: 28da a43e 78fd 0d3e 5418 54bf 88dc 853d
000001d0: 98f1 41be b94e 6dbf fd86 593e d4f5 9b3f
000001e0: dad0 043f 860b 8dbe 6569 5b3f 9329 8abe
000001f0: 3a18 933d 39e1 1abe 0925 bb3e 74f2 4a3f
00000200: 4875 83be a334 92be 545a e4bc a9b8 e9be
00000210: 4ab9 b33f 70ca 9d3e 2a67 a0be d3e8 39bf
00000220: 1f8f 4dbf 3cc4 7cbe 0a14 3f3f 7f3c 8bbb
00000230: e2de 9f3e 65ea 7fbe 16d6 763e e144 6fbe
00000240: b567 8d3f f41b dabe 9d30 6a3f d863 383e
00000250: 6cd4 743f cb91 b23e 978e 323f ca33 cdbf
00000260: 7800 6e3e c031 2b3f 0520 013f 75d3 513f
00000270: 52b9 cc3c 0900 123e 3310 993f b9db 833f
00000280: f476 84bc 9fe0 c83e 9daa 283e a740 a7bd
00000290: e3cb 3dbe 3570 c63e d3d2 5f3f 0f93 bb3e
000002a0: a1ec 423f 9a27 293e f643 5abd 06dd 113f
000002b0: 3024 4a3e b217 ffbc b2c8 be3c 8fde 74bf
000002c0: ac28 20bf ade9 eebd f2a1 55bf b640 043e
000002d0: 5407 233f 54b4 c2be 267e 133f ad6f 1fbf
000002e0: fde6 7c3f b216 b53e e020 62bf 2809 6cbd
000002f0: 43fd 743d 6ada aebf 51f9 2c3e 0e50 c9bd
00000300: 32fc b7be 97bc 833e a567 8dbe 5669 04bf
00000310: fc96 d73e f0c4 86bd a2b1 0d3e 3630 8d3f
00000320: 28ca 5ebf 4736 073e 2410 b6be 45bb c2bc
00000330: 78c0 c9be 3a76 16bf 8af5 40be 6974 b33d
00000340: 5662 e23e 173f 46bd 6c51 853d 932c 56be
00000350: 7ce3 55bd c68b 88be 1217 6dbc a2e8 223e
00000360: 0194 ae3f b6fe b8bd 9842 803e 8483 1bbf
00000370: 31f3 713f 6f9f 1bbd 06a2 a3be ae43 b03e
00000380: 5b28 083e 4c96 febe 6269 3abf bd07 4a3e
00000390: 2e8c d6be 42bf 62bf f1ca 3a3f 6dcd ae3e
000003a0: 3506 413f 4156 cf3e 49bb 52be 7d79 08bf
000003b0: d4a1 6ebf 1088 173f 2a7e 6abf c84b 5c3f
000003c0: 5855 17bf 06ff 07bf fc6d 9b3e 8a7f 883e
000003d0: 0649 ffbe 05d8 b93e 435d 9ebe 7d71 9a3f
000003e0: 3de4 9cbe 9ff1 8e3f a524 2d3e 9f9d 8bbd
000003f0: 86c9 8abf 4bd0 0cbf 16d7 7ebc 0297 2b3f
0.4710154 -0.102951646 -0.06747284 -0.57155955 -0.10074578 0.46078718 0.69278663 0.34035593
-0.40820998 0.46064737 0.074903876 0.94402856 0.099106506 -0.7755201 0.14561483 -0.24963082
0.5259263 0.2655341 0.40750766 -0.90923303 -0.06039075 0.5527948 0.018693956 0.12013829
-0.44424778 0.5078459 -1.5827392 -0.6994713 -0.37826973 -0.08637202 1.4800137 -0.19349799
0.33680654 0.28881925 -0.16687782 0.60225075 0.8894097 -0.030618198 0.492392 -0.6030839
-0.82385266 0.7526083 -0.39939326 -0.18951578 0.08347897 0.8235657 0.19835813 -0.6566955
0.31679827 0.12368493 0.37126693 -0.2517433 0.2716746 -0.042924978 -0.20944354 0.79644716
-0.6438612 0.22538139 0.6501253 0.04908858 0.54030365 -0.77075666 -0.03629923 0.9673581
-0.66424775 -0.22785185 0.2317366 -0.7445298 -0.7472211 -0.09902628 -0.04008552 0.12644348
-0.15675467 -0.6660854 0.23399454 0.42031145 0.086252086 -0.15676975 0.43392012 -0.6243516
-0.6365902 0.10763889 -0.5950548 0.3103264 0.3904988 0.86841816 1.097971 0.16068353
0.17355958 0.77511734 -0.86946666 0.22965553 -0.0010857907 0.123420216 -0.03462982 0.28931794
-0.3332859 0.4376904 0.3205395 -0.28189573 -0.19326301 0.42228466 0.91879475 -0.6673243
0.28967324 0.09453793 0.41314262 0.0033795252 0.4979573 0.7693613 0.4070709 -0.356102
0.3219769 0.13866222 -0.8284962 0.065362036 -0.18939817 -0.92698246 0.212429 1.2184396
0.5188118 -0.27547854 0.85707694 -0.26984844 0.07182355 -0.15124978 0.36551693 0.79276204
-0.25675416 -0.28555784 -0.027875103 -0.45648697 1.4040921 0.3081851 -0.31328708 -0.72620887
-0.8029651 -0.24684232 0.7463995 -0.004249155 0.31224734 -0.24991758 0.24105105 -0.23366119
1.1047274 -0.42599452 0.9148043 0.18006837 0.9563663 0.34876856 0.69748825 -1.603143
0.23242366 0.6687279 0.5043948 0.8196328 0.024990711 0.14257826 1.1958069 1.0301429
-0.016170003 0.39233872 0.16471334 -0.08166628 -0.18534808 0.38757482 0.8743107 0.36635634
0.7614232 0.16519013 -0.05328747 0.5697788 0.19740367 -0.031139228 0.023289058 -0.956521
-0.6256206 -0.11665664 -0.83450234 0.1291531 0.63683057 -0.38028204 0.5761436 -0.6227978
0.9878996 0.35368878 -0.88331413 -0.05762592 0.05981184 -1.3660405 0.16891982 -0.09829722
-0.35934597 0.2572982 -0.27618137 -0.5172323 0.4210738 -0.065805316 0.13837293 1.1030338
-0.87027216 0.13204299 -0.3555919 -0.023770938 -0.39404655 -0.5877415 -0.18843666 0.08762438
0.4421565 -0.04840001 0.065096706 -0.20915441 -0.0522189 -0.2666914 -0.014470832 0.15909055
1.3638917 -0.09032957 0.25050807 -0.6074755 0.94511706 -0.037993845 -0.31959552 0.34426636
0.13296644 -0.49724042 -0.7281705 0.19729514 -0.41903824 -0.88573086 0.72965914 0.34141102
0.75400096 0.40495494 -0.20579256 -0.53310376 -0.9321568 0.5919199 -0.9159876 0.86053133
-0.591146 -0.5312351 0.3035735 0.26659805 -0.498604 0.36297622 -0.30930528 1.2065884
-0.30642882 1.1167487 0.1690851 -0.06817173 -1.084275 -0.5500533 -0.01555421 0.67027295

critic.2.bias f4 [256]
00000000: e008 35bd 8209 8fbe 51fb 4cbd d0d4 8c3c
00000010: 9355 443e 8286 e63d 9b16 3b3e 68b7 5d3d
00000020: a936 afbe ec67 6c3d 7f13 633e 091b cdbe
00000030: 2b7b f83e 6206 073f 876c c8be a457 73be
00000040: 5815 023f e3e5 503d 22ae 533e 3cbd 803e
00000050: ef97 d3bd 2b6a 603e 4de8 d13e 6e15 1f3f
00000060: 8084 803e d3bf 35bd 46c0 7b3e f202 7b3e
00000070: d08f 96bd e8ba 3fbf d377 25be 85d4 aabc
00000080: 7ea1 953b 2de7 11bf 4c8f e03d 5140 dbbe
00000090: c4d9 763b bb0a 1d3d 9be2 1bbe 9845 153e
000000a0: 75d1 003d c98d 81be 1213 80be b46e 593e
000000b0: 177d 30bf ea4b 1ebf d1ed dbbd 93d8 8dbe
000000c0: 54b4 edbc 9c3c 173e b0a1 05be 57ae fa3e
000000d0: 98fc 39bf af71 27bf 0fb1 703d 4df3 2b3e
000000e0: e6a6 99bb a69f 06bf 6e9b 203f 0e80 02bd
000000f0: 71d3 593f a98a 18bf 157e 6ebc 6a81 d9bd
00000100: 4580 d13e 1f62 a23d b321 70be a080 133d
00000110: ca18 b2be 1214 223d 303d dcbc a5ef 063f
00000120: 9de7 efbd 60f5 f2be 4cbd 863e b8f9 373e
00000130: fd36 a7be 61ac b03d d909 07bd 3828 723e
00000140: 7c93 513e c3fb 0cbe 9f18 3d3f d6ce 64be
00000150: e98f 213e 12f3 97bd 7790 0f3d e9fa 86be
00000160: a81b 31bd c229 51bf 308f e83e 6a10 04bf
00000170: 4fbb 9b3e 0441 cb3e 3616 403f 6bff 9c3e
00000180: 68d4 50bd 64e0 393e e1e7 bc3e 5b97 67bd
00000190: be1e a93e 3ba5 2dbe fe2b 38be 66d9 923d
000001a0: 60a3 0ebf 2488 873d 3ffb e63d 359e 64bb
000001b0: 783a a33e ea91 c8bd facc b23e fbf6 82be
000001c0: ce3d fcbe ef46 1dbd 0ae8 2f3e 6e47 9abe
000001d0: b1cb 113f a9a4 773e 7b58 713b 3c2c c53e
000001e0: ffe4 3f3f a434 14be d0b3 a53e 3517 53be
000001f0: 95ea a63e 6326 babe f531 a23e cc29 07bb
00000200: 8471 613e d68a 6e3e c95c 713e 5224 a8be
00000210: f2cc 1dbf 82bf 993e 3631 403e b44e db3d
00000220: 556d d63e 5433 02bf e06d 4b3e e1e1 7ebd
00000230: 6561 07be 3189 9abe bd87 323c e6cc 50be
00000240: 36d9 9abe 934f 233e f2f7 343f f87d e93e
00000250: 3255 243f 688b 9d3e f956 8ebe 22b8 613f
00000260: 950c e2be c034 a63e 72c6 e33d 307f 9cbe
00000270: 6a5c b5be 78cc 193e a50f 48be 977c 0bbf
00000280: a90c b83d 8433 93bd c0cf ba3e 991e c23e
00000290: 7e05 1fbf 01b4 90bc c105 7a3e df8d b4be
000002a0: 0841 4abd 1047 bebe 9c19 1dbf 83ef 7a3e
000002b0: bc21 153f 6827 a73e cd49 363e 3a2c 5d3e
000002c0: e347 ae3e 2e7a 96be 6409 0fbf 5087 c0be
000002d0: 9eef dc3d 347b e0bc 2b16 94be 0939 cdbd
000002e0: 534a 7fbe 217d e0be 4192 173e 4a58 033d
000002f0: 0150 3d3e 9979 48be a8ae 063e 26a4 4a3f
00000300: 5889 f3be cbf4 dd3d 2eb6 dc3e a218 203e
00000310: 1829 8dbd b075 7e3e 3916 96be 4833 78b8
00000320: 1e99 b03e 71b6 b4bd beeb ebbe a270 bf3d
00000330: a3a1 fd3e 1603 693e 6d41 9abd b712 663e
00000340: bb47 20be c730 c4be 8fe5 6e3e a322 70bc
00000350: 1d6a e23d 5d2f aa3d 1377 d1be 625a c83e
00000360: d4d2 ea3d a18a 873e 9bd1 923c ec26 853e
00000370: 7b2e f23e e992 b73d 1a95 6abd dffb fcbd
00000380: caae 0ebf 0ede f23d c0e5 fa3d 4bc0 1a3e
00000390: 40de 013e 84ee 00bd 0a0b b73e 9e5a df3d
000003a0: ca5e 5f3c b082 19be 4ad5 523e c66b 0d3e
000003b0: 48d5 1a3d 29ac 923d da17 6dbe ee24 cd3e
000003c0: 2578 44bd 02c8 683d 9478 dabe 93e9 3ebe
000003d0: 006e 5ebd b237 c1be f2bb af3b 9eef c0be
000003e0: 95bb 62be 8cae e23e 1536 43bd ec2e febe
000003f0: 7099 7d3e 9a06 6a3d 11ee 48bd 12ec ce3e
-0.044197917 -0.2793694 -0.05004436 0.01719132 0.19173269 0.11256124 0.18270342 0.054129988
-0.3422139 0.057716295 0.22175406 -0.4005969 0.4853147 0.52744114 -0.391453 -0.23763901
0.5081382 0.051000487 0.20671895 0.25144374 -0.103317134 0.219155 0.40997544 0.62142074
0.2510109 -0.04437239 0.24585065 0.24512842 -0.07351649 -0.7489457 -0.1615899 -0.02085329
0.0045663705 -0.5699337 0.10964832 -0.42822507 0.003766642 0.03834031 -0.15223162 0.14577329
0.031449754 -0.25303486 -0.2501455 0.21233636 -0.6894087 -0.61834586 -0.10738719 -0.27704296
-0.029016651 0.14769214 -0.1304996 0.48961136 -0.7265105 -0.6540784 0.058762606 0.1679203
-0.0046890853 -0.52587354 0.62737167 -0.031860404 0.8508826 -0.5958658 -0.0145564275 -0.10620387
0.40918174 0.07928871 -0.23450355 0.03601134 -0.34784538 0.03956992 -0.026884645 0.5270942
-0.117140986 -0.4745283 0.26316297 0.17966354 -0.3265914 0.08626629 -0.032968376 0.23648155
0.20466417 -0.13767914 0.73865694 -0.22344527 0.15777554 -0.07419409 0.03504988 -0.26363304
-0.043239266 -0.8170434 0.45421743 -0.51587546 0.30416343 0.3969804 0.7503389 0.30663618
-0.050983816 0.18152004 0.3689566 -0.05654083 0.33031267 -0.16957562 -0.17985532 0.07170372
-0.5571804 0.06617764 0.1127839 -0.0034884338 0.31880546 -0.09793456 0.3492201 -0.25579056
-0.49265903 -0.038397726 0.1717836 -0.30132622 0.56951433 0.24183907 0.003682642 0.3851031
0.74958795 -0.14473206 0.3236375 -0.20614322 0.32600847 -0.36357412 0.3167874 -0.0020624278
0.22015959 0.23295149 0.23570551 -0.3284021 -0.61640847 0.3002892 0.18768772 0.10708371
0.4188029 -0.5085957 0.19866133 -0.062227134 -0.13220747 -0.30182794 0.01089662 -0.20390663
-0.30243844 0.15948324 0.70690835 0.4560392 0.641925 0.3077042 -0.2780073 0.8817159
-0.44150224 0.3246212 0.11121835 -0.30565786 -0.3542207 0.15019405 -0.19537218 -0.54486984
0.0898679 -0.0718756 0.36486626 0.3791397 -0.62117755 -0.017663958 0.24416257 -0.3526449
-0.049378425 -0.3716359 -0.613672 0.24505429 0.582546 0.32647252 0.1780159 0.21598902
0.3403922 -0.2939009 -0.55873704 -0.37603235 0.10787891 -0.027402498 -0.28923163 -0.10020644
-0.24930696 -0.43845466 0.14801885 0.03206662 0.1848755 -0.19577636 0.13152564 0.7915672
-0.47565722 0.10837706 0.43107742 0.15634397 -0.06892604 0.24849582 -0.2931383 -5.9175567e-05
0.3449182 -0.088238604 -0.46078295 0.09347655 0.49537382 0.22755083 -0.0753201 0.22468077
-0.15652363 -0.38318464 0.23329757 -0.014656696 0.11055396 0.08309815 -0.4091116 0.39131457
0.114659935 0.26472953 0.017922213 0.26006258 0.47301087 0.08963568 -0.0572711 -0.12352728
-0.55735457 0.1185876 0.122508526 0.15112416 0.12682438 -0.031477466 0.3575061 0.10905956
0.013633439 -0.1499126 0.20589176 0.13810644 0.037801057 0.07161743 -0.2315363 0.40067238
-0.04796614 0.056831367 -0.4267012 -0.18643789 -0.054304123 -0.37737805 0.005362981 -0.37682813
-0.2214187 0.44273794 -0.047659 -0.49645174 0.24765563 0.057135202 -0.049055163 0.40414482

critic.4.weight f4 [1, 256]
00000000: ffd2 16c0 8a81 5bbf 3f21 08c0 5a26 d83e
00000010: d7fb 86bf a2ed d7be 1f7b 8fbf ee38 8fbf
00000020: b374 19bf 7b2e a73f e013 2fbf 7926 99bf
00000030: c9b0 80bf d13f 0fbf 8f52 0a40 70f6 83bf
00000040: 250e a53f c516 30bf 0219 273f 7874 67bf
00000050: 48db 1e40 931c f73f 1050 7b3f 1475 3cbf
00000060: 449d 2140 f294 523f 1b00 45bf 2db8 df3f
00000070: e885 983e 6e28 e4bf 5633 c23e fd1d 00bf
00000080: 3103 563f f531 10c0 3371 69bf 04f8 3f3f
00000090: b9df 3ec0 137c 323f 290d a43f 3f24 263f
000000a0: c894 1cc0 2658 57bf 73fc 2940 d8d2 e3be
000000b0: e650 933d 580f 423f bb5b 85c0 69d8 6f40
000000c0: 0a3e 6d3f 22c4 77bf e07f 25bf c462 3240
000000d0: 7374 fdbf 3d63 84bf c114 22c0 8ad6 cbbe
000000e0: 0d4e 53bf 0ebd dc3e 1b41 ce3f 2614 7cbf
000000f0: 65a4 533e 3c27 12bf fe43 3dbf dd5c 7e3f
00000100: f23c a33e e3e5 043f a2c0 90be 3498 dabe
00000110: c84e 7abf afd6 b4bf 7b9b 0d40 1341 3b3f
00000120: 1671 ebbf b806 f83f 8a3b 3940 545c e3bf
00000130: f35a 95bf 05dc 10bf abf2 d93f afb5 323f
00000140: 91d0 5ebf 9834 9bbf f879 573f d1c9 e4bf
00000150: 98a4 c0bf 7e61 34bf 7687 8d3f 905c 20bf
00000160: 1ac5 19c0 d1ad afbf 8b5a 893f d2ab 2cbf
00000170: 06ad 683f 78eb c23f e5aa 4d40 ef3b ef3f
00000180: 14a1 abbf 004c 6e3f 6f64 98bf e6c1 86c0
00000190: 40e2 5fbf bfe1 36c0 de1b 58bf 702a 63bf
000001a0: c786 24c0 7035 2540 6c40 873f c060 4140
000001b0: b640 c73f 7d05 80bf 1c45 c9bf 63df 64bf
000001c0: 51f0 d4bf 9f9b d5bf 77e6 64be a806 08c0
000001d0: db39 853f db55 12c0 cbe4 c5bf a700 9abf
000001e0: 7162 2840 d134 0640 0d30 983f b9eb eabf
000001f0: 51c1 52c0 a5f3 c0bf 38e5 2b40 9b11 5c40
00000200: 4c55 3a40 15a2 db3f 6942 863f ca33 f3bf
00000210: 5f16 693f 79d2 10be 12fa 0240 21ac 56bf
00000220: 6afa 26c0 7fc8 933f e409 a0bf a654 973f
00000230: f9f7 b63f 7b87 dfbf 22ac e43f 230c 683f
00000240: d6f3 eabe eedb 6540 eb5d 0b40 09f1 0540
00000250: c459 c13f f1cc 903f fe51 b1bf 811c ea3f
00000260: 194b c4bf cd37 0d40 7e12 debe 3ceb eabe
00000270: 9091 06c0 c8a0 9c3f bbc7 0e3f d9ef 5fbe
00000280: 1fff dc3e d677 f03f f9ae 6fc0 dbb8 48c0
00000290: 542a 9bbf aa40 753f 4e17 863f 2703 1bbf
000002a0: f965 483f 5eff 64bf 3ac4 ba3e aff4 1fc0
000002b0: 247d 863f b40d 03c0 5e94 12bf dde5 8cbf
000002c0: 8372 2fbe c600 303f 3fd1 bbbf 82cb 75bf
000002d0: 30ff 25bf 3b39 be3f 5086 ef3f 0f52 cc3f
000002e0: bc3a e13f 7402 37c0 e602 5440 ddac 2140
000002f0: be4a e53e 1ca0 36c0 f520 c8bf 8cb4 0640
00000300: 9119 a3bf 4af4 1bbf b0bf 803f abd4 5b3f
00000310: 2d12 0940 d42f 2440 8515 18c0 8e5d e03e
00000320: 3b8f 6cc0 79db 82bf ceaf f6bf 5d41 b7bc
00000330: 4e15 0840 daa6 f7bf c9c2 69bf a7fa 4940
00000340: 00ea d6be 3e82 9e3e 8d1b 18bf 3227 37c0
00000350: 1390 aa3e d25c b5bf c705 a3bf a30c 90bf
00000360: 6f65 6640 8803 d1be 2f0e 5b40 ef19 26bf
00000370: 5765 1440 e816 39c0 f843 393f 6265 0bc0
00000380: ff9a 77bf e2ab 0dc0 be8e cdbf 06bd 233f
00000390: 932b 94bf cbf4 3ebf 2329 d23f 8301 dc3f
000003a0: ce0d 01c0 7ecc 64bf d46c d23f 92bf 60bf
000003b0: b6a9 1c40 dc09 8dbf 2327 cabf 855e 66bf
000003c0: d87d 8dbf cfa5 5a3f 7737 50c0 c7ce 2640
000003d0: 334a db3f ae70 12c0 a1ec 2fc0 3267 26c0
000003e0: b4ee c3bf 4449 6cbf 2038 3540 2fbd 81bf
000003f0: 9017 363f 3487 873f 721c cb3f aa4e c53f
-2.3566282 -0.85744536 -2.1270292 0.4221676 -1.0545605 -0.42173487 -1.1209449 -1.1189249
-0.59943694 1.306106 -0.683897 -1.1964866 -1.005395 -0.5595675 2.161289 -1.0309582
1.2894942 -0.68784744 0.65272534 -0.9041209 2.4821339 1.9305595 0.9816904 -0.7361615
2.5252237 0.8225852 -0.76953286 1.7478081 0.29789662 -1.7824838 0.3792979 -0.5004576
0.8359862 -2.2530491 -0.91188353 0.74987817 -2.982405 0.6972057 1.2816516 0.6489906
-2.446581 -0.8411888 2.6560333 -0.444968 0.071931645 0.7580466 -4.1674476 3.7475836
0.9267279 -0.9678365 -0.64648247 2.7872782 -1.9801162 -1.0342785 -2.5325167 -0.39812118
-0.8254097 0.43112987 1.6113619 -0.98468244 0.2066818 -0.57091117 -0.7393187 0.9936045
0.31882435 0.5191328 -0.28271967 -0.42694247 -0.9777646 -1.4128016 2.2126148 0.7314617
-1.8393886 1.937705 2.894259 -1.7762551 -1.166838 -0.56585723 1.7027181 0.6980848
-0.87037 -1.2125425 0.84170485 -1.787409 -1.505023 -0.7046126 1.1056964 -0.6264124
-2.4026551 -1.372492 1.0730757 -0.67449677 0.9088901 1.5228109 3.2135556 1.8690165
-1.3408532 0.93084717 -1.190565 -4.2111692 -0.87454605 -2.8575284 -0.8441752 -0.8873663
-2.5707262 2.5813866 1.0566535 3.0215302 1.5566623 -1.0001675 -1.5724216 -0.8940336
-1.6635839 -1.6688117 -0.2235354 -2.1254063 1.0408281 -2.2864902 -1.5460447 -1.2031449
2.6310084 2.0969737 1.1889664 -1.8353187 -3.293049 -1.5074354 2.6858654 3.4385746
2.911456 1.7158839 1.0489017 -1.900018 0.9104976 -0.14142789 2.046513 -0.838564
-2.609034 1.1545562 -1.2503018 1.1822708 1.4294425 -1.746322 1.7865031 0.9064352
-0.45889157 3.5915484 2.1776073 2.0928366 1.5105519 1.1312543 -1.3853147 1.8289949
-1.5335418 2.2065308 -0.43373483 -0.45882595 -2.1026344 1.2236567 0.55773515 -0.21868838
0.43163392 1.8786571 -3.7450545 -3.1362827 -1.2122293 0.95801795 1.0475862 -0.60551685
0.782806 -0.8945216 0.36477834 -2.4993093 1.050694 -2.0477114 -0.5725764 -1.1007649
-0.17133527 0.6875118 -1.4673232 -0.96013653 -0.6484251 1.4861215 1.8712864 1.5962542
1.7596049 -2.8595247 3.312677 2.5261757 0.44783586 -2.8535223 -1.5635058 2.1047697
-1.2742177 -0.6091963 1.0058498 0.8587138 2.1417344 2.5654192 -2.3763134 0.43821377
-3.696242 -1.0223228 -1.9272401 -0.022370035 2.1263003 -1.9347794 -0.91312844 3.1559236
-0.41975403 0.30958742 -0.5941704 -2.8617673 0.33313045 -1.4168952 -1.2736138 -1.1253856
3.599941 -0.40823007 3.4227407 -0.6488332 2.3186853 -2.892023 0.7236934 -2.178063
-0.9672088 -2.213616 -1.6059186 0.639603 -1.1575798 -0.74592274 1.6418804 1.7187961
-2.0164676 -0.8937453 1.6439462 -0.87792313 2.4478583 -1.1018634 -1.5793194 -0.89987975
-1.105403 0.85409254 -3.2533853 2.6063707 1.7132019 -2.2881274 -2.7488177 -2.6000485
-1.5307221 -0.92299294 2.8315506 -1.0135859 0.71129704 1.0588136 1.5868056 1.5414631

actor.0.weight f4 [256, 42]
00000000: a4d6 8bbe 942e babc df0b 1ebf e668 9f3f
00000010: cb9d fd3e 364f 5cc0 94f3 86bf d611 5dbe
00000020: 85f5 4a3f a95b 98bb 5e37 3c40 89ae 8b3f
00000030: 820d bc3c 59a1 563e b138 88bd b2b9 8f3f
00000040: 579d 2e3f b23c 1f3e 6ebc cabd d911 0e3e
00000050: 56f1 4fc0 dcc3 d8bf 2161 6b3e 96a2 8c3f
00000060: 025c 55bf da67 34bf a943 2bbf 5a93 7b3e
00000070: 37e1 82be 39a3 9d3f e002 723f 9dd1 e13f
00000080: 30ac 07be fbe6 a7bd a0a7 46bd 701c 88bc
00000090: 8fe4 d23d a23f 4b3e 73e0 2fbf fb5b 07bf
000000a0: 6c9e aebf f6dd dc3f 93ce 293d 6264 093f
000000b0: cdae 9f3e 74ad b2bf de37 103f 4b5d 21bc
000000c0: 0e0c a8be edeb 113d 71a0 65bf 1303 67be
000000d0: 9563 2740 ca71 313f 871b af3c be78 00be
000000e0: cd42 213f 209a a33e 9ab4 a33e 3d16 8dbd
000000f0: 677a 4d3e 4a49 c33e c471 d8be 9742 99bf
00000100: b714 273e 474f 95bf c24a 1bbf d97f 4f3c
00000110: 52dc 2abf 8f65 733e 3b83 06be 8303 3cbf
00000120: f3d2 4fbf 5196 7abf 3f40 e53d df79 06be
00000130: 63ea 25bd e352 123e e8c3 6e3e 141d 8fbd
00000140: 1a6e e53f 4e3e c63e b478 b9be 87a5 b43e
00000150: 895b 24bf 6207 ffbf ce99 243f fc4f fa3e
00000160: 48b5 75be ebdf e13e ce34 a53e d11f bc3d
00000170: ca52 4d3f 4429 19bf 5223 613c 701f b93e
00000180: 0940 963e 667a f53d 5a00 ed3e fa52 083f
00000190: d537 003f 86ab 1d3e 15a5 7abe 4b5c 7abf
000001a0: 0610 f2bf 1e65 fdbf d10d c2bd 7289 113e
000001b0: ad2d 55bf 8647 673f c275 5e40 c6e8 4cbf
000001c0: 0ae7 26bd 1811 493f 1e90 af3d fbd8 9b3d
000001d0: 2cd4 a7bd 08fb 463f e221 49bf fe45 17be
000001e0: a2aa 8f3d 9d33 043d 33b4 cf3d a8df 833e
000001f0: c080 8ebd c311 b5be 8f33 1cbf 63b8 0bc0
00000200: 559b ce3e 9296 703e b83a afbf 9782 84bf
00000210: bca3 a3bd 1ac8 8e3e f562 023f d449 a5be
00000220: 6400 d6bf a8bb 4ebf d477 b53d a7a8 6a3d
00000230: 5c75 ac3d fcd9 8dbb cf6a 5ebd 4680 bc3d
00000240: e7ea 8bbe 6753 5ebe 230d 983f c2c7 6c3f
00000250: 211f fabd 825b db3e e237 23bf c356 da3e
00000260: 624d a63f daa6 29bf 6800 873d 5d1f 3440
00000270: 870d 9cbc 4fc9 f93e f49d 89bd 1c20 1b3f
00000280: 4687 1f3c 522a a5bd bfa0 ecbd d6c4 c63d
00000290: 34ef 19bf 5556 373e 5ba1 cc3e 437e 48bc
000002a0: fb9c 67bf c90f 80be a997 d4be ada9 b9be
000002b0: 64e9 57bd 649d 37bf b14e 2c3e 25ab 1dbf
000002c0: 3e0a 80be 1169 7d3e 520b 473f 10c5 6a3f
000002d0: 2d05 28bf 17a9 fbbe b18a 87be 9b8f 5dbf
000002e0: 357c df3e 5f44 0fbf 1b2e 29bf f452 93be
000002f0: 59bc 13be 7fa0 9a3f 2d75 f5be 43cf 72be
00000300: 70a2 343e d05e cbbe b37e 313e 4e01 43bf
00000310: b7c2 d93e 7889 0ebf 6d2f debe a4be 833f
00000320: f09f 4bbf 5bf7 2f3f 0919 e83d 7ba7 f5bd
00000330: e124 19bf 5c98 1abf fc18 20be 9804 16bf
00000340: 0f76 743e 737f 1d3f a99c 40bf 2c7b 6dbf
00000350: f408 803e 0c9c ad3e 871e df3d 8ebe b43e
00000360: 7895 013f fe9f 473d 4ecd 113e f469 44be
00000370: 26d7 a03d cc70 a33e 6306 cebd b897 65be
00000380: 6118 793e e581 7b3f 583c 563f 59c0 d63d
00000390: 479a afbe 92a7 2a3e ed73 1dbf 0a7a 18bf
000003a0: ce2e 0ebe 3cb4 a73e 203d e53e 7e6b 95be
000003b0: 3ee1 263e 8490 9ebe f1bd 063c dd97 51bf
000003c0: 5265 b5bd c8eb 8e3f ae3d 88be 01ff aa3e
000003d0: a0e7 8dbe 0069 e2bd 8fe8 67be f9ce dfbd
000003e0: 4eb9 c33e 107b 1cbf 0126 d73f 8ab3 3e3f
000003f0: 78ab 95be 96a6 c9bf 8866 3d3e b8b3 383f
-0.27312195 -0.022727288 -0.61736864 1.2453887 0.4953445 -3.4423347 -1.0543084 -0.21588835
0.79280883 -0.0046495986 2.9408793 1.0912639 0.02295566 0.20959987 -0.06651438 1.1228545
0.6820883 0.15550497 -0.09899221 0.13873996 -3.249105 -1.6934772 0.2298627 1.0987117
-0.8334352 -0.70470965 -0.66900116 0.24567929 -0.2556245 1.2315437 0.94535637 1.7642094
-0.13249278 -0.08198353 -0.048499703 -0.016615123 0.102975 0.19848493 -0.6870186 -0.52874726
-1.3642097 1.7255237 0.04145677 0.53668797 0.3118805 -1.3959184 0.56335247 -0.009848903
-0.32821697 0.035625387 -0.8969794 -0.22559766 2.615453 0.69314253 0.02137543 -0.1254606
0.62992555 0.31953526 0.31973726 -0.06889007 0.20066224 0.38141853 -0.42274296 -1.1973447
0.16316496 -1.1664819 -0.60660946 0.012664759 -0.6674243 0.2376921 -0.13135998 -0.7344286
-0.8118126 -0.97885615 0.111938946 -0.13132428 -0.04050673 0.14289431 0.2331692 -0.06987968
1.7924225 0.3871941 -0.36224902 0.35282537 -0.6420217 -1.9924128 0.6429719 0.48889148
-0.23994935 0.44116148 0.3226685 0.09185756 0.8020445 -0.5982859 0.013741331 0.36156797
0.2934573 0.11986236 0.4628933 0.5325161 0.5008519 0.15397462 -0.24477036 -0.9779708
-1.891114 -1.9796484 -0.094752915 0.14212587 -0.8327282 0.9034351 3.4759374 -0.80042684
-0.04074768 0.7854171 0.0857241 0.07609745 -0.081947654 0.77726793 -0.78567326 -0.14772794
0.070149675 0.032275785 0.10141792 0.25756574 -0.06958151 -0.35365114 -0.6101617 -2.183129
0.40352884 0.23494938 -1.3689795 -1.0352353 -0.07990214 0.2788704 0.50932246 -0.3228289
-1.6718869 -0.8075509 0.08860746 0.057289746 0.08420822 -0.0043289643 -0.05430108 0.09204154
-0.27327654 -0.21711503 1.1879009 0.92492306 -0.122129686 0.42843252 -0.63757145 0.4264432
1.2992365 -0.6627022 0.06591874 2.8144143 -0.01904942 0.487864 -0.0671958 0.6059587
0.009736842 -0.080647126 -0.115540974 0.09705512 -0.6013062 0.17904027 0.39966854 -0.012237134
-0.9047391 -0.25012043 -0.41521958 -0.36262265 -0.052712813 -0.71724534 0.16826893 -0.6158927
-0.25007814 0.24747111 0.7775165 0.91706944 -0.656329 -0.49152443 -0.26473 -0.8654725
0.4364945 -0.559637 -0.66085976 -0.28774226 -0.14427318 1.208023 -0.4794096 -0.23711877
0.1764009 -0.39720774 0.17333488 -0.76173866 0.42531368 -0.5567851 -0.43395558 1.0292554
-0.7954092 0.6873681 0.113329 -0.11994835 -0.598219 -0.6038873 -0.15634531 -0.5860076
0.23873161 0.615226 -0.75239044 -0.9276607 0.2500683 0.33908117 0.108944945 0.35301632
0.50618696 0.048736565 0.14238474 -0.19181043 0.07853536 0.31921995 -0.10059812 -0.22421157
0.24325706 0.9824508 0.8368583 0.10485906 -0.34297392 0.16665486 -0.61505014 -0.59561217
-0.13885042 0.32754695 0.44773197 -0.29183573 0.1629686 -0.30969632 0.0082239965 -0.8187235
-0.08857216 1.1165705 -0.26609558 0.33397678 -0.27715778 -0.110551834 -0.22647308 -0.10928149
0.38227314 -0.6112528 1.6808473 0.74492705 -0.29232383 -1.5753963 0.18496144 0.7214923

actor.0.bias f4 [256]
00000000: aa2c 9abd 171f 0f3d e689 043d 7be5 b3bd
00000010: 9ea8 44bf 8b6b 1dbe 4975 adbd 43cd f7bc
00000020: 47df 53be b500 923e e67a b13d ca83 7cbe
00000030: 436d 063f 4da0 533d 3fd4 c23e a3c4 043e
00000040: 96be 6ebd c5c6 4e3e bfe1 5d3d 285d b1be
00000050: 62cf bd3e 9455 593e 8fba f83c 0749 41be
00000060: ff50 df3d 55db 6ebe 04b1 0bbd 81a9 a73e
00000070: 9cf5 e23c 9c12 f53c 4dd6 79be 2be7 0cbb
00000080: 9f1c a83d 4ebe 00bf e893 a13d 507d 853e
00000090: 432f 413e 4182 f83d 5931 09bd 48a9 f53e
000000a0: ce22 ec3c e5a5 e1ba 5f42 64be 27ba 463d
000000b0: 30ba adbc 8be2 a6bc 578e 1c3d 1c12 6a3e
000000c0: 8c50 33bd d6ab f3be 996f ffbe cb40 af3c
000000d0: 34e2 f3be ab9d bebd 7056 c03d 7173 503e
000000e0: 9118 4bbe 768c d63e 4f6f 953c f8cb c73c
000000f0: 2ccb 843e 42b5 d1bc 393c 123e 3901 f8bb
00000100: b72f 34bd 32cb 2e3e 6da3 1bbb f248 27bd
00000110: 6474 573c 4b85 e93c 8230 043f 0841 d3bc
00000120: 89f8 cabe 77f8 babd 422c f2be 9a3a 8dbe
00000130: c3ad 73be 98f5 23bd edd0 8cbc 407e ab3d
00000140: 2b8b 283d 0d63 36be 749c 323e c414 763e
00000150: dc02 053e 3b7d e2bd 610b 62be 51a2 22be
00000160: 2797 a33e c8bd 84bd af7f 673e 43ca c6be
00000170: 15af 30be 0525 a3bb 6c00 7dbd cc14 73bd
00000180: 153d 553e 4fb2 193e bbf4 b9bd b40e f23e
00000190: 5e1f b53e a0bc c63d 9371 2ebe d7c1 143e
000001a0: 61f0 00be 658e fbbd 2312 893c 7271 1bbe
000001b0: e84d eabe 3d13 a8bd 0e2d 6bbe 1a1f 0cbe
000001c0: f60c bcbd caa4 753e 46bc f9be 88d2 0b3e
000001d0: 5c26 0b3e 914c 06bd 12ae 2ebe ec4e be3d
000001e0: 5f28 6b3e 0e62 9d3e afe3 0f3e f420 47bf
000001f0: 5094 e63d e782 c5bc 683c 1f3e 2041 7fbe
00000200: 1d45 523e 8bb9 21bb d75f 483e 1325 f6ba
00000210: 64ab 5bbe afb7 0d3e ddc8 5e3e 99dc a13d
00000220: 5d9a a0bd bb82 013e 594e 13be 13d1 383e
00000230: e11b 70be 8fa6 99be 3b38 84be 1ecb e73d
00000240: e0c7 5abd 3b0f 143d add2 03be 0455 a4bd
00000250: 8586 073c 5ab2 873e 5c17 64bd 35bf f23c
00000260: 0036 cc3d d33b 8fbe 394a 0e3e b559 a93d
00000270: 3b1e 293e f57b 78bd 288d ca3d e5b7 3a3d
00000280: b9cc f5bd 063e 7b3c a63d 973b 99b7 bfbc
00000290: aa04 4a3d c732 5abd 728b e2ba f5da 703e
000002a0: 247b 423e 6bd4 f4bd 153a 183e 4803 a3bd
000002b0: 1823 e1bd e4f8 54be 1a66 ff3d a1bc c0be
000002c0: 798b dd3d 659e 82bc e1ad 08be f724 c53d
000002d0: d4f1 9ebd 6d2f f33c c18e 35be 00a8 0f3f
000002e0: 9019 f93d 3941 353e e440 07be 0ec7 54be
000002f0: be51 043d 3203 f0bd 8919 1abe afe6 4cbe
00000300: 1d6b afbe eaab 81bd 344c 8d3d ee66 eebc
00000310: 6e2a 1bbd ae6b d5bc 2690 05bd 1a56 b53e
00000320: e4b0 86bd b73d 2fbe 62f5 7f3e 0b0b 893e
00000330: 4717 47bd d798 493e 8823 373e 52ca de3d
00000340: 0bee 52bc ad03 503d c5a8 903d 83ce a13d
00000350: 9a14 1f3e 9fae 3cbe a76c 05be 92fe eb3e
00000360: 4d90 c43d ead5 23bd 0d7d 12be 33e9 103e
00000370: 64fd 13bb 03a0 c83d 8018 1fbc f453 f9bd
00000380: 8b29 3e3d b854 fdbd 8fa3 c9bd c96c ccbd
00000390: 0792 31be 553e 353d 758c 053d cbb2 25be
000003a0: 5236 9abd 3385 13bd 3f8b ed3c 8090 47bd
000003b0: da63 99bd a753 11bf b423 a03d 25db 98be
000003c0: 07f1 acbe 68aa a1bd 99e3 d73e acf1 38be
000003d0: d642 d53d ae4c e53c 5c86 a33e 9219 463d
000003e0: e2b5 973d 073b a03e 91eb e0bd 9026 36bd
000003f0: 75a3 873e caf1 e83e df4f 0cbd 2ea4 02bf
-0.0752805 0.03494176 0.032358073 -0.08784004 -0.7681979 -0.15373056 -0.08469636 -0.030249244
-0.20690642 0.28516164 0.08666019 -0.24659649 0.5251047 0.051666547 0.38052556 0.12965636
-0.058287226 0.20193012 0.054170366 -0.34641385 0.37072283 0.21224052 0.030362396 -0.18875514
0.10904121 -0.23325856 -0.034104362 0.3274651 0.027705006 0.0299161 -0.24398156 -0.0021500092
0.08208584 -0.5029038 0.07889539 0.26072168 0.18865685 0.12134219 -0.033494327 0.47980714
0.02882519 -0.0017215578 -0.22290944 0.048517372 -0.021206945 -0.020371696 0.038221683 0.2285847
-0.043777987 -0.47592038 -0.4988983 0.0213932 -0.47633517 -0.093074165 0.09391487 0.20356537
-0.1983359 0.41904038 0.018241553 0.024389252 0.25936258 -0.025599126 0.14280786 -0.007568505
-0.043990817 0.170697 -0.0023748532 -0.04084105 0.013150308 0.028505942 0.5163652 -0.025787845
-0.39642742 -0.09129422 -0.4729939 -0.27583772 -0.23796754 -0.04002914 -0.017189467 0.0837369
0.041148346 -0.17811222 0.17442495 0.24031359 0.12989372 -0.11059042 -0.22074653 -0.15882231
0.31951258 -0.064815104 0.22607301 -0.38826188 -0.17254288 -0.0049787783 -0.06176798 -0.059346005
0.20824082 0.15009426 -0.09079882 0.47276843 0.35375494 0.09703946 -0.17035513 0.14527069
-0.12591697 -0.12283019 0.016732281 -0.15179995 -0.45762563 -0.082067944 -0.22966406 -0.1368374
-0.091821596 0.23988643 -0.48776454 0.1365453 0.13588852 -0.032787863 -0.1705859 0.09292397
0.22964619 0.30738872 0.14051698 -0.7778466 0.11258757 -0.02411027 0.15550387 -0.24927187
0.20534177 -0.0024677243 0.1956781 -0.001877936 -0.21452099 0.13839601 0.21756311 0.07903404
-0.078419425 0.12647526 -0.14385356 0.18048505 -0.23448135 -0.30009887 -0.2582415 0.113180384
-0.053413272 0.036147337 -0.12873335 -0.08024028 0.008271818 0.2650326 -0.05568634 0.02963219
0.09971237 -0.2797533 0.13895501 0.082690634 0.16515438 -0.06066509 0.09890205 0.04558553
-0.120019384 0.015334612 0.0046155034 -0.023402976 0.049320854 -0.05327108 -0.001728399 0.23521025
0.18992287 -0.11954578 0.14865907 -0.0795961 -0.10993022 -0.20798069 0.12470646 -0.37643912
0.10817618 -0.015944669 -0.1334758 0.09626191 -0.07760969 0.0296857 -0.17730238 0.5611572
0.12163079 0.17700662 -0.13208348 -0.20779058 0.032304518 -0.117193595 -0.15048803 -0.20009874
-0.34261408 -0.06331618 0.068993 -0.029101815 -0.03788226 -0.026052322 -0.032608174 0.35417253
-0.06576708 -0.17113386 0.2499595 0.26766238 -0.048606183 0.1968721 0.17884648 0.10878433
-0.012874137 0.050784755 0.0706344 0.07900717 0.15535203 -0.18425988 -0.13029729 0.4609266
0.09597836 -0.039998926 -0.14305516 0.14151458 -0.0022581453 0.09796145 -0.009710431 -0.12174216
0.046426337 -0.123696744 -0.098456495 -0.099816866 -0.17340861 0.044248898 0.032604653 -0.16181485
-0.07529892 -0.0360157 0.028997062 -0.04872179 -0.07489748 -0.5676827 0.0781931 -0.29854694
-0.3377764 -0.078938305 0.4216583 -0.1806094 0.104131386 0.027990665 0.31938446 0.04836423
0.07407738 0.31295034 -0.10982431 -0.04447037 0.26491895 0.4549697 -0.03425586 -0.5103177

actor.2.weight f4 [256, 256]
00000000: 4fed 7e3d 82d2 0d3f 6e93 fb3d 3ac2 65bf
00000010: e068 ce3e bb48 74be e2e4 933f 446e b43f
00000020: 0d6b 2fbf cb7a 8ebe 5e04 e43e da54 b0be
00000030: 94c1 c83d 42a9 45bf 5e3b 6cbd df4d 7cbd
00000040: ae71 083f 1e6e dc3e ac09 fc3e 3a86 603d
00000050: 8207 03be e562 cb3d e231 5f3f e937 813e
00000060: 0969 5e3e 72a9 993e cf52 01be c238 5c3e
00000070: 9e45 c1bd 0bdc 5b3e 963b 0cbf 7919 ddbe
00000080: 9f18 ecbe 4c81 f4be 3a75 32bf 91a2 b3bf
00000090: 030d adbf ccb6 1b3f bec4 28bd 86b8 dc3e
000000a0: 3e1a fdbd a9c3 433d 4acc 823d d724 10bf
000000b0: ae18 5fbe 677e 3d3e db04 95bf 7583 2e3f
000000c0: dee8 31be 8dcb 083e 1717 883d 0a9c debd
000000d0: 94e1 603c 2a7a 773f f5f0 a73e 3702 4d3f
000000e0: ccef 993e 0ea2 643e ebeb e6be b6ff 573e
000000f0: 0e0d d5be 61fb 953d 4225 153e 2c80 f9be
00000100: 0d69 663f 90c7 203d 04c3 dcbe dfa2 e03e
00000110: c3a3 74be c091 0cbf 68ba e0be 1729 79bd
00000120: 2ea5 83be 4b38 32bd c101 b03e 3514 5a3f
00000130: eb8e 68be 21f8 a7bd 4b2a d03d 5896 29bf
00000140: 8194 143f 11b5 fdbe 0349 c4bd 6be0 42bf
00000150: 72eb b6be 4d1b 8a3d 1b6c 6bbf af87 d53e
00000160: b428 973e ea22 ab3e 3ba8 e7bd facc 87bf
00000170: 1c92 91bd a83f 4a3f 6da6 603e 55f0 68be
00000180: 6053 233f 264e 70be fd69 143f d032 90bd
00000190: 142d 4e3e 9d1f 0ebf dbd6 ec3e c3b5 e9be
000001a0: 9b6d 413f 13ab bdbc 6209 a2bf 77ae e63d
000001b0: 0b22 a73e f3f0 6e3e c78f 953f 7912 12bd
000001c0: 7730 9d3e fda7 663f 9f9c d83e 24f2 da3e
000001d0: e371 96bd 17d0 66bf bb74 8fbe 9e0f 47be
000001e0: 4fd2 ab3e 642b 81bf c113 833e 1368 8c3e
000001f0: 48d8 e83d a2ee 6fbe 3cdc 98bc 4910 463e
00000200: fe1a 6fbf 4fef 293d 0a9b e73e 9aad 463f
00000210: f936 fcbe 9573 c6bd 9292 aabf 09db 693e
00000220: ba7a 433f d983 afbd 9d60 a3bd a657 f7bc
00000230: 7499 03bf 7f2b 5abe 25a1 2fbc 88cd 1b3f
00000240: 196b 303e 9789 9cbe 1927 e53e 05ba a73f
00000250: 8a19 e83d cc96 963e 7057 1bbf bf7b 983e
00000260: de2d 1b3f 5884 4e3f e7e7 883f dcc4 b0be
00000270: d357 1f3f ad8c c2bf 5fa8 8abe 4b52 3c3e
00000280: b486 09be f734 3e3f c1de 23bd c54a 4abf
00000290: 096f acbd 0c15 853e 5e77 9dbe d3c2 a93e
000002a0: 1088 bfbf 625e 2bbf 1316 833e 0edd 05bf
000002b0: d9b7 9c3d e556 b2be c1aa 043f 4a64 a53f
000002c0: 974a d93e 577e 4b3e bc42 d0be 65ed 78bd
000002d0: 1b99 8fbd 414b f63e 18fb 65be eda5 a73e
000002e0: 8ef3 10bf 198b ccbe f29e 3dbe 9832 0b3f
000002f0: a50b 37bf c4d0 2fbf 609b 5dbe 3c5f 6dbe
00000300: 7ef2 63be ea4e 10bf 5d86 3d3e fc8a 25bf
00000310: 2dcc f2be 8015 5c3e c44e 22bd 2b26 e5bc
00000320: dbc6 4ebf 0c67 523e 6868 bbbe d3a5 af3e
00000330: b414 133f 5f8e 83bf 4801 143f cba8 0c3e
00000340: b2cd 97be c965 533e 65ce b2bf 4d69 0c3f
00000350: 4551 a33f fc2c 29bd fc7d 8c3e ace3 0dbe
00000360: 7e4a 06bf 6199 0e3f a7f6 6dbe 4c98 c23f
00000370: a936 85bf 64b1 ee3e 7f27 42be cece 2c3f
00000380: 692c f7be c646 a73d a3ab bfbe 06b0 37bf
00000390: 1ec5 a33e e581 b4be 572d b23e 83de 7d3e
000003a0: 38cb 97bf 196b e4bd 22b6 c13e e41a 8b3e
000003b0: 22d6 813e 78c8 523e 4aee c53d a301 f63b
000003c0: fc5b f9be fef0 8c3d cb58 1fbe 3e63 e2be
000003d0: bfb7 873f 892b 423e c211 8ebe cb45 eebe
000003e0: 00a7 723f d782 83bf ac0e b03e 9c1b fb3e
000003f0: 7d7d 29bf 25d9 233e 19f7 993f ff79 573f
0.062238034 0.55399334 0.12283979 -0.8974949 0.40314388 -0.2385587 1.1554224 1.409615
-0.6852272 -0.2782806 0.44534582 -0.34439737 0.09802547 -0.7721139 -0.057673804 -0.0615977
0.5329846 0.43052763 0.4922613 0.05481551 -0.12795833 0.09930972 0.8718549 0.2523797
0.21719755 0.3001209 -0.12629245 0.21506026 -0.094371065 0.21470658 -0.5477842 -0.43183497
-0.46112534 -0.47754896 -0.69710124 -1.4033986 -1.3519596 0.608258 -0.041203253 0.4310953
-0.12358521 0.047794018 0.06386621 -0.56306213 -0.21786758 0.1850525 -1.1642107 0.6816934
-0.17373988 0.13358898 0.06645029 -0.10869606 0.013725657 0.9667078 0.32801023 0.80081505
0.30065763 0.22327444 -0.45101866 0.2109364 -0.41611522 0.07323337 0.14564994 -0.487306
0.90004045 0.039252818 -0.43117535 0.4387426 -0.23890595 -0.54909897 -0.43892217 -0.060830202
-0.2571196 -0.043510716 0.34376338 0.85187083 -0.22710769 -0.08201624 0.10164317 -0.6624503
0.580391 -0.49552205 -0.095842384 -0.76123685 -0.35726506 0.067434885 -0.9196183 0.4170508
0.29523242 0.33425075 -0.11311384 -1.0609429 -0.07107946 0.7900338 0.21938486 -0.2274793
0.63799095 -0.23467311 0.57974225 -0.07040942 0.20134383 -0.5551699 0.46257672 -0.45646486
0.7555787 -0.023152864 -1.2659113 0.11263745 0.3264316 0.23334102 1.1684502 -0.03566215
0.30701038 0.9010008 0.42306992 0.42762864 -0.07345941 -0.9016127 -0.28018746 -0.19439551
0.3355889 -1.0091367 0.2560101 0.27423152 0.113693774 -0.23430875 -0.018659703 0.1934215
-0.9340056 0.041487988 0.45235473 0.77608645 -0.4926069 -0.09690014 -1.332598 0.22837462
0.7635914 -0.0857007 -0.07977412 -0.030193161 -0.51406026 -0.21305655 -0.010719572 0.6086049
0.17228355 -0.30573723 0.44756392 1.3103644 0.11332996 0.29411924 -0.60680294 0.2978191
0.6061686 0.8067069 1.0695771 -0.34525192 0.62243384 -1.5199181 -0.27081582 0.18390767
-0.13430291 0.7429957 -0.040007357 -0.7902034 -0.08419616 0.2599262 -0.30755132 0.33156452
-1.4963398 -0.6694089 0.2560278 -0.5229043 0.07652254 -0.3483192 0.5182305 1.2921231
0.4243972 0.19872414 -0.40675914 -0.060773272 -0.070116244 0.4810429 -0.22459066 0.3274378
-0.56621635 -0.39949873 -0.18517664 0.54374075 -0.71502143 -0.68677926 -0.21641302 -0.2318086
-0.22260472 -0.56370413 0.18508287 -0.646652 -0.474214 0.21492577 -0.039625898 -0.027972301
-0.8077218 0.20547122 -0.36603093 0.343062 0.57453465 -1.0277823 0.57814455 0.13736264
-0.2964912 0.20644297 -1.3969237 0.54848176 1.2759176 -0.041302666 0.27439868 -0.13856381
-0.52457416 0.5570279 -0.23238622 1.5202727 -1.0407306 0.46619713 -0.18960379 0.6750306
-0.4827607 0.08167796 -0.37435636 -0.71752965 0.31986326 -0.35255352 0.34800217 0.24791913
-1.1858892 -0.1115324 0.3783427 0.27168953 0.25358683 0.20584285 0.09664591 0.0075075193
-0.4870299 0.06881903 -0.15561216 -0.4421634 1.060295 0.1896192 -0.27747923 -0.46537623
0.9478607 -1.0274304 0.34386194 0.49044502 -0.66207105 0.16000803 1.2028533 0.84170526
