models/ho_policy.pth (torch, 628162 bytes, 11 tensors)

critic.0.weight f4 [256, 42]
00000000: 8528 42bd b2d9 fabd accf d33e bfa0 b03e
00000010: 868e 713e eadf 89be 5889 2c3e 2a91 a7be
00000020: da4f 6d3f 0711 173f 26b9 76be 6526 21be
00000030: c062 e23c 6dd2 243e 6399 13bf 1d00 fb3e
00000040: 1da7 e83e 391a 863e f93b 90be 11e6 39bf
00000050: 0593 1dbe 6ec3 3cbd 5309 de3e d365 1bbe
00000060: c7c3 c7bf dd47 debe 969d 2fbe 4254 9fbf
00000070: c46b afbe b40f 86bf 6fb6 833e e3ed 293f
00000080: 8e18 3ebf 9a07 c93f dd00 09bf 566f fabd
00000090: 598f bbbd cdc2 3dbd 3c13 a6be 85aa 01bf
000000a0: ec6d 44bf 24b5 0f3f 62fe f0be 46f3 6bbf
000000b0: 0fe9 52bf 3364 f9bd 611c 0e3d 4d3e c3be
000000c0: 427f d83d a25a e3be 450d 8abf 0b68 413d
000000d0: 275b 08bf 3dc4 753e 69ca e8be bbf0 8b3e
000000e0: 1d97 993e 189d 39bf 3c31 b7bd b813 fbbd
000000f0: 9480 9e3e a8aa 40bf d006 e4be 3e23 d33d
00000100: 1c90 253f d01a 46bd 000c aaba c32e 66bd
00000110: 793b e43e 0daa 6a3f 2d1b 90be 3744 4abf
00000120: 5771 04be 8859 86bd 60bd 94be 7fbc 33bf
00000130: 3721 5ebe a868 8a3c 0347 1bbd 92dc 9d3e
00000140: 778c 363f 2962 69bf 4596 9dbf dce7 563f
00000150: 8226 debd eb86 d6be d4fd e3be b1ec 8c3e
00000160: 7d93 aa3e d136 49bf 69b3 7dbd 0fa2 c8be
00000170: 5f76 9f3f fa87 dbbe 4274 8cbc cadc 5c3e
00000180: f441 b4bd 1553 dd3e 5003 d83e c8cd a9bd
00000190: d235 4a3e 250e ed3e 645b ad3d d0d6 ccbe
000001a0: a51b 033e e177 943d 786d 263f 6294 89be
000001b0: be8e bdbe 0b22 a1bd 5b7c 873e 3d0a 0dbf
000001c0: 812e 49bf 3bba a9bf a516 ecbd 6d0d 93bd
000001d0: 0ddf 63bf 3fae f23e 5e8d 13bf 20c8 13bc
000001e0: 6921 0fbd 4de5 ee3c a61e 91be d728 61bd
000001f0: 7ee8 93bd 88ef cbbd c784 a43e 3a67 8f3e
00000200: 9bb8 453f b605 2dbf a930 b53c dd46 c83e
00000210: 3b2b 2d3e 11d8 643e 1b02 1a3f bb02 7ebe
00000220: 72ff 903e eb9e 17be 951b a63e d316 2ebe
00000230: 4245 513f 3d75 ca3d 50dd 2e3e dceb 813e
00000240: 206d a2be 080f e0be 41c2 a53e 3c36 02be
00000250: c1b5 8f3d b5a5 10bf a5ac d8be 71eb 03be
00000260: 28a9 b4bd 83de bcbf 9a54 333c 0837 0c3e
00000270: fcc5 073e 7827 30be 5f84 b4bd 5adc ce3f
00000280: 2503 143f 8e58 c33d d2e2 52be 3473 e4bb
00000290: a43e debd d5da 82be 998a 7d3f 16d3 bcbe
000002a0: 0ad9 55bd 85ab f0bc 686c b6bd e1d5 783f
000002b0: 648f 5c3e 4315 e6bd cf80 36bd c4f6 bbbe
000002c0: 7b0d 3e3f 7c3e 4dbd 7995 f63d 84e3 ba3d
000002d0: af87 2dbc f430 8a3e 0032 9ebe 7942 ae3d
000002e0: 363a 82bd 4bd1 e03e fde0 043e c565 bebe
000002f0: efd1 6cbe 23b3 bf3d bdae 7d3f 1671 b53e
00000300: 886d 1fbe 81dd 3d3e d5d3 a13d 890a 81be
00000310: 9bdd 65bf 1160 a5be 1160 463e 7856 93bd
00000320: 9eb8 66bf 1db2 473e 0758 74bd 9ee2 c73d
00000330: cf61 ac3d 643f 5ebd 8fbb 40be e546 3e3e
00000340: e8ea 73bf af29 b93e 7a38 8e3e 67ea a4be
00000350: 5668 843f 284a 3c3e 22d9 8ebd 7915 3bbf
00000360: 14cb 4ebe 17ae c63e 75ee 0940 aa8b c8be
00000370: 0e67 dcbe dd64 0fbf d054 283f f4ad 1b3e
00000380: 1569 a0be 57cf 5b3e 2034 6bbe 03ce 893e
00000390: 3548 8fbd 5dbe fdbc 73d4 fdbe 466f 6fbe
000003a0: 2212 6fbe 371a 283f 6e45 c33f 1101 783e
000003b0: 3241 f13e 79ac 0bbf 8082 ad3d ac16 77bf
000003c0: de8c 0cbf f676 8dbf 93a6 0d3e ba74 e13e
000003d0: fd97 ca3e 9617 d93d a6a4 203d f82b 3abf
000003e0: e2c0 863e 1def f63e e68b c53f 920b 15bf
000003f0: f59b efbe 9420 d6be d6d0 a9be 3986 b33a
-0.047401924 -0.12248553 0.4136938 0.3449764 0.23589525 -0.26928645 0.16849267 -0.3272794
0.9269997 0.59010357 -0.24094066 -0.15737303 0.027634978 0.16095896 -0.57655925 0.49023524
0.45439997 0.2619188 -0.28170756 -0.7261668 -0.15388115 -0.046084814 0.4336649 -0.15175562
-1.5606622 -0.43414202 -0.17149958 -1.2447588 -0.34261906 -1.0473542 0.25725123 0.6637861
-0.7425622 1.5705445 -0.5351694 -0.12228267 -0.09158201 -0.046328355 -0.3243655 -0.5065082
-0.7673023 0.56135774 -0.4706908 -0.9216808 -0.8238687 -0.121773146 0.034695033 -0.3813347
0.105711475 -0.44405085 -1.07853 0.047218364 -0.5326409 0.2400064 -0.45466927 0.273321
0.29998103 -0.7250533 -0.089449376 -0.122596204 0.30957472 -0.752604 -0.44536448 0.10309456
0.6467302 -0.048365414 -0.0012973547 -0.05619694 0.44576624 0.91665727 -0.28145733 -0.7901034
-0.1293386 -0.065600455 -0.29050732 -0.702095 -0.21692358 0.016895607 -0.03790952 0.30832344
0.7130808 -0.91165406 -1.2311484 0.8394754 -0.108471885 -0.4189981 -0.44529593 0.2752433
0.3331565 -0.7859927 -0.061938677 -0.3918614 1.2457999 -0.4287718 -0.01714528 0.215686
-0.08801642 0.4322745 0.42190027 -0.08291203 0.19747093 0.46299854 0.08464697 -0.4000764
0.12803514 0.072494276 0.65010786 -0.2687102 -0.37022966 -0.07867821 0.26462063 -0.5509375
-0.78586584 -1.3259958 -0.115277566 -0.07180295 -0.89012223 0.47398564 -0.57637584 -0.0090198815
-0.03494397 0.029162074 -0.28343695 -0.05497059 -0.07222079 -0.09957796 0.3213255 0.28008443
0.7723481 -0.6758684 0.02211793 0.39116564 0.16911022 0.22348048 0.6015946 -0.24805729
0.2831989 -0.14806716 0.32442918 -0.17000894 0.81746304 0.09885643 0.17076612 0.2537526
-0.3172388 -0.43761468 0.32374766 -0.12716001 0.07017089 -0.5650285 -0.42319217 -0.12882783
-0.088213265 -1.4755405 0.010945464 0.13692868 0.13259119 -0.17202556 -0.0881431 1.6160996
0.578173 0.09538375 -0.20594338 -0.006971741 -0.108517915 -0.2555758 0.9903961 -0.36879796
-0.052208938 -0.029378662 -0.089073956 0.97201353 0.21539074 -0.11234524 -0.044556435 -0.36711705
0.7423932 -0.050108418 0.120402284 0.091254264 -0.0105914315 0.26990473 -0.30897522 0.085087724
-0.06358759 0.43909678 0.12976451 -0.3718702 -0.23126958 0.093603395 0.99094754 0.3543784
-0.15569127 0.18541528 0.07901732 -0.2520335 -0.8979127 -0.32299855 0.19372584 -0.07194227
-0.90125453 0.19501539 -0.059654262 0.09760021 0.08417093 -0.054259673 -0.18821548 0.18581732
-0.95280313 0.36164615 0.27777463 -0.32210085 1.0344341 0.18387663 -0.069750085 -0.7307964
-0.20194656 0.38804695 2.1551793 -0.39169055 -0.43047374 -0.5601328 0.65754414 0.15203077
-0.3133017 0.21465813 -0.22969103 0.26914987 -0.06996194 -0.030974561 -0.49576148 -0.23382291
-0.23346761 0.65665 1.5255563 0.24219157 0.47120053 -0.5456005 0.084721565 -0.9651897
-0.54902446 -1.1051929 0.13833074 0.44034368 0.39569083 0.10600202 0.03921952 -0.7272334
0.26319033 0.48229304 1.5433319 -0.5822078 -0.46798673 -0.4182173 -0.33167142 0.0013696618

critic.0.bias f4 [256]
00000000: 4988 6bbe c3b1 83bd 1f31 9f3c cfa0 8bbc
00000010: 5833 41be 2337 7a3e 42f5 333e 7e99 41be
00000020: e8e2 45be 2847 c53e 0c9b 17be e806 80be
00000030: 1ef7 963e 8ae5 1dbd 205d e93d 6a66 0ebe
00000040: 9d88 68be a017 31bd fc77 0fbe 65b8 e0bd
00000050: 8566 343e df88 eabd a142 d13d 7120 9cbd
00000060: dd39 78bc b455 9d3e 5713 5c3e 1d82 ccb9
00000070: 270a 9c3e 18e9 14be 1fe2 93bd 267c aebc
00000080: b871 b23d bad1 3a3d 9699 8cbc edd9 453e
00000090: 2cc6 1abd 18de 473d 87cf a03e 1a63 c1be
000000a0: e596 1d3d afea 24ba 6721 533e cb9f 68be
000000b0: 4602 643b b1e6 303e 89b0 653e 9bbf 673d
000000c0: 3f3a 28be 5198 783e 2af1 9a3e 84d1 e53c
000000d0: c950 123e a644 f6bd 1c7a b83e d106 4fbe
000000e0: 7db8 d43c 0e71 fdbb 6b36 e4bd f896 a0be
000000f0: be6d 813e d31e 43be b122 8abe 1e06 05be
00000100: a8bf 1abb c699 ab3d b0b6 febb 0b00 663d
00000110: 8ed0 0f3e 5769 4d3e 9cd9 9abe b641 9fbe
00000120: cad3 febd 0021 bbbd d07c 14be 0383 6d3e
00000130: 8d86 b53c 787c 5e3c 1664 243e 9d06 463e
00000140: d905 e9bd 1e6a 493e 36db 4bbe a1f6 b4bc
00000150: 2ab4 97be d486 92bd 8232 d7bd 4a68 34be
00000160: 097e 9cbd 4980 7dbd 3a74 303e 8b8a 153d
00000170: 1c08 11bc c55e 363c d477 46bd 3091 babd
00000180: f03f 703d 2e2f d33d 4f6e bebd d9cb a03d
00000190: 7c2c 3f3e ea68 fbbd ff84 983c 40e7 2f3e
000001a0: b924 4f3e 42a9 5bbe f966 4cbc 058a 64be
000001b0: b539 1e3d a5f5 2eba ecc5 923e cc57 533e
000001c0: 69b2 b9be b8f4 11bf 25d8 c1bd 2469 4ebe
000001d0: 6928 11bd 317e 123e 4a09 9d3c accf b33c
000001e0: 077f cebd 70f9 4cbe 5013 25bd 80da 313e
000001f0: 277f dfbd 636c a63e 557c e63d 7638 47be
00000200: b449 ea3e 8025 c5be 2c3c 1ebe e493 33be
00000210: 64cc 2fbe aa08 05bd 1b0a 13be 53c8 373d
00000220: 82c3 1a3d da59 2cbe 7858 2ebe d8ef eb3c
00000230: 6cd4 033e 003e 84be 5fb2 fd3c d18b 38be
00000240: c582 823d 66ae f03c c5b2 883e 220a 2c3e
00000250: 3b83 7f3d 5c04 db3d 0685 1c3e f619 7dbb
00000260: 9f07 3e3e 9494 93be f76a ff3d e8da 70bd
00000270: bf33 f73d 3d78 8fbe 027e 3c3d f4ad c0be
00000280: caf6 acbd 2437 c23d c9e9 183e 468c cd3c
00000290: 51ff eabd f931 efbd b04e a53c dcec c23a
000002a0: 184e 873e 36c4 17be c140 03be 2b1f bc3c
000002b0: 0258 8fbe 6e04 28bd c6e7 bdbd 342c 65be
000002c0: 6aa9 2dbc 6310 fb3d 1148 d9bd 4105 553e
000002d0: c999 88be 98f8 473e 1dba 63be 9c2a 1cbe
000002e0: 6e33 9ebe b07d 473e dce0 98be b965 9b3c
000002f0: 0741 fb3d ce6b dfbd 6ee8 b3bd 370c febd
00000300: ca56 a6bd 9fcc 8b3e 8783 0a3e c490 0ebe
00000310: b955 62bb 32ad 8ebd 4d8e c83e 3fad 47be
00000320: bc89 c2bd 6403 47bd c1cc 66be 4efe c0bd
00000330: 4ece 893e dc0f 56bd 7b34 debd e795 753c
00000340: 890f 733e dee2 3a3e 5b91 cebd 3f8b 863e
00000350: 2c4d 3e3e e77e 6e3e 1abb 8b3e da27 25be
00000360: b408 23be 942a 67bd 7c50 223e b841 f5bd
00000370: f5e3 1fbd cc9d 98bd 23d1 e6bb 79ee 143d
00000380: d880 6bbe be6b ebbd 125f 94be 0944 423e
00000390: debe d5bd 804b f23d b8ec 983e 7559 71be
000003a0: ddbe e0be e21a 38be 4d88 4abe 7104 e03d
000003b0: e5f0 c5bd 4198 66be b455 8c3d b2c9 03be
000003c0: 77c5 6f3e 0a32 8f3e f5a9 863e 30de 02be
000003d0: 7a74 ffbd 0909 5abe c001 b7be c351 373e
000003e0: ed4a 113e 9b42 71be 6cdb 42bd 735d 83be
000003f0: 76f2 19be d927 abbc cd4b 273e 0ce3 87bc
-0.23001207 -0.0643039 0.019432602 -0.017044453 -0.18867242 0.24435095 0.17574027 -0.18906209
-0.19324839 0.3853085 -0.1480524 -0.2500527 0.2948541 -0.038548984 0.11394715 -0.13906255
-0.22708364 -0.04323542 -0.14010614 -0.109726705 0.17617233 -0.11451887 0.102177866 -0.07623375
-0.015150514 0.3072945 0.21491753 -0.00039006854 0.30476496 -0.14542043 -0.072208636 -0.021299433
0.087130964 0.045610167 -0.01716308 0.19321413 -0.037786648 0.04879579 0.3140833 -0.3777092
0.038473982 -0.0006291074 0.2061821 -0.22717206 0.0034791394 0.17275502 0.22430624 0.056579214
-0.16428469 0.24276854 0.3026212 0.028054006 0.1428863 -0.120248124 0.36030662 -0.20217444
0.025966877 -0.0077344244 -0.11143192 -0.3136518 0.2527904 -0.19054727 -0.26979592 -0.12990615
-0.0023612771 0.08378939 -0.007773243 0.056152385 0.14044401 0.20059715 -0.30244148 -0.3110482
-0.12442739 -0.091371536 -0.14500737 0.23194508 0.022158885 0.01357948 0.16053805 0.1933846
-0.113780685 0.19669387 -0.19907841 -0.022090258 -0.29629642 -0.07154623 -0.105076805 -0.17617908
-0.07641227 -0.06188992 0.17231837 0.036509078 -0.008852031 0.011130993 -0.04845412 -0.091097236
0.058654726 0.10311733 -0.092983834 0.07851381 0.18669313 -0.1227587 0.018618105 0.17178059
0.20228852 -0.21451285 -0.0124757225 -0.22318275 0.038629252 -0.0006674177 0.28666627 0.2063896
-0.3626893 -0.57014036 -0.094650544 -0.20157295 -0.03543893 0.1430595 0.019169468 0.021949612
-0.10082822 -0.20017028 -0.04030162 0.17368507 -0.10912924 0.32504568 0.11254183 -0.19455132
0.45759356 -0.38505173 -0.15452641 -0.17536885 -0.17167813 -0.032478966 -0.14359324 0.04486878
0.037784107 -0.1683115 -0.17025936 0.02880089 0.12874001 -0.25828552 0.030968843 -0.18022086
0.063725986 0.029380035 0.2669889 0.1680074 0.06238101 0.10694191 0.1528512 -0.003862021
0.18557595 -0.28824294 0.12471574 -0.058802515 0.12070417 -0.28021422 0.046018608 -0.37632716
-0.08445509 0.094831735 0.14932932 0.025091302 -0.11474479 -0.116794534 0.020179123 0.0014871615
0.26426768 -0.14820942 -0.1281767 0.02296408 -0.27996832 -0.04101985 -0.09272723 -0.22380143
-0.0105994735 0.12258985 -0.10609449 0.20802785 -0.2667983 0.19528425 -0.22238965 -0.15250629
-0.30898613 0.1948154 -0.29859054 0.018969404 0.12268262 -0.10909234 -0.08784567 -0.124046735
-0.081220224 0.2730455 0.13526736 -0.13922411 -0.0034535958 -0.06966628 0.39171067 -0.19499682
-0.09498927 -0.048587218 -0.22539045 -0.09423505 0.2691521 -0.05226122 -0.108498536 0.014989353
0.23736395 0.18250605 -0.10086318 0.2627811 0.18584126 0.23290597 0.27291185 -0.16128483
-0.15921289 -0.05643709 0.15851015 -0.119754255 -0.039035756 -0.07451972 -0.007043974 0.036360238
-0.22998369 -0.114951596 -0.28978783 0.18971266 -0.10436796 0.11830807 0.29868102 -0.23569281
-0.43895617 -0.17979005 -0.19778557 0.10938347 -0.096650876 -0.22519018 0.06852284 -0.1286991
0.2341517 0.27967864 0.26301542 -0.1278007 -0.12473388 -0.21292509 -0.35743523 0.17902283
0.14188738 -0.23560564 -0.04757254 -0.25657234 -0.15033898 -0.020893024 0.1633751 -0.016587757

critic.2.weight f4 [256, 256]
00000000: c8cc ec3e 57ff 01be dd2f 2bbe 5d87 11bf
00000010: bf82 c0bd b687 ef3e f2ae 333f 9e66 6d3e
00000020: 8b3c c8be 536c f03e 30f3 3a3d 6e5a 6f3f
00000030: 5988 f83d 2fb6 48bf de9d 0f3d 130a 85be
00000040: a027 053f 22aa 813e 8e41 cc3e 99d6 65bf
00000050: b3cc 93bd fb4e 0a3f 5377 dc3c 5aaf 063e
00000060: d4f9 e5be 0f5c 053f bac8 c8bf 7244 35bf
00000070: 3225 c8be 2794 9dbd 2948 bc3f 554d 35be
00000080: 1a10 b13e e397 903e 9210 36be e8e1 173f
00000090: 78c5 3f3f 9e9b 12be 7c5b 003f 62a4 1cbf
000000a0: e5b1 56bf 39ba 433f db2c afbe b73b 32be
000000b0: 7011 903d e814 1b3f 2a48 533e 23ff 38bf
000000c0: 1fa9 9d3e b4b2 0a3e e904 bd3e cc7f 84be
000000d0: acaf 8b3e 5b06 49bd 02bc 53be eb05 413f
000000e0: e1cd 20bf 9294 6d3e d300 1a3f d4b7 253d
000000f0: c526 0f3f e882 44bf 02fb 3abd ec26 793f
00000100: 3f1a 2dbf cc7d 36be 9e72 763e d54e 40bf
00000110: abe1 3fbf 6b50 b9bd 3bc7 f4bd 0d8b f03d
00000120: 5165 23be cc9c 26bf d87e 663e 10a8 db3e
00000130: e6a5 853d 8ec2 e8bd 9757 e23e c71b 1dbf
00000140: 3df1 24bf a312 ef3d dbdc 16bf 2a27 993e
00000150: 1cc0 c73e f376 5c3f 0256 8a3f ec30 1b3e
00000160: e70e 213e 1c59 453f 8bfc 54bf 45f8 673e
00000170: 8df6 d73b 277a 033e 6e40 6bbc 51d2 983e
00000180: 8ea9 8fbe a251 dc3e 613c a73e eaa8 5ebe
00000190: 4733 3ebe 1da0 db3e e8c7 783f c2dd 1cbf
000001a0: aa8a 923e a1ff 133b b20a d13e 03af 59bb
000001b0: bf41 f93e 5bfc 453f c7df d43e 9f1e b5be
000001c0: 6732 a03e a8bd 043e ffa3 48bf baf7 853d
000001d0: 3ce5 48be 83c3 71bf 909d 3a3e 2019 9e3f
000001e0: 03ca 053f bd34 a2be 54f6 563f ef9d 90be
000001f0: 314d 833d 6130 2ebe 3b06 b93e 50fd 3d3f
00000200: 0ea6 7dbe 9ad2 96be 77b6 15bd c767 eebe
00000210: f79d b23f 1eb4 aa3e bf0c a4be 9135 3abf
00000220: 4e16 52bf e778 5fbe cd1c 413f 44df d83c
00000230: 0552 9b3e bfa1 85be 0d8a 803e 7a3a 7abe
00000240: 9a26 8d3f d9c1 ddbe 0458 6c3f b24f 463e
00000250: 5072 733f cf9f ad3e 8e03 353f 4459 cabf
00000260: 62df 5d3e 33c8 023f 997e 033f bc05 543f
00000270: fa1c 063d 5556 0b3e 882b 983f 77b1 823f
00000280: c896 c8ba 995e db3e c0f4 2d3e 6662 94bd
00000290: 0f64 21be 249e ca3e 069d 5b3f 8bd0 bb3e
000002a0: 1b47 453f aa8d 263e cbbd c83c 1373 113f
000002b0: b6e2 4d3e 8990 1fbd 43bb 6b3c f40b 5fbf
000002c0: fa8f 1bbf 535c 11be 5d3c 59bf 453b 0d3e
000002d0: eca8 1f3f 8b83 bdbe b906 113f 2546 1bbf
000002e0: 2a7d 5f3f abec b93e 2474 5dbf 266e 25bd
000002f0: 61e5 8c3d e67a a8bf b027 283e 27d8 a3bd
00000300: e987 bebe 9b9c 753e ea6d 90be e877 ebbe
00000310: 6ce0 d33e a062 99bd 1809 173e 4d3a 853f
00000320: ed2a 61bf 40e7 0f3e d366 e9be 2eda 63bc
00000330: e9bb c5be 34cb 17bf 7826 1fbe 829d c63d
00000340: 4fb7 e53e 7f9a 74bd 58cd c63c b4ed 4ebe
00000350: 2431 32bd 3a54 83be cdf2 e5bb 0f6c 3f3d
00000360: cfc4 aa3f e9d8 a4bd 2960 993e da6b 21bf
00000370: f223 723f 7852 c4bc 07f7 5dbe d93c b43e
00000380: bffd e53d e6dd 04bf 6e9c 3cbf dddd 813e
00000390: c179 dbbe 8d9f 60bf e24c 3f3f 9583 ab3e
000003a0: 9290 3e3f e20f c53e 31b6 59be 2906 15bf
000003b0: d22d 7bbf 20cb 0e3f 64f6 63bf 055a 593f
000003c0: b25a 23bf e514 06bf 76fb bb3e 12db 6a3e
000003d0: 64c5 01bf 9aa9 923e 7dfd a2be 9f99 993f
000003e0: bcb8 d6be 164c 8c3f 8efc 233e b37a 95bd
000003f0: 6faa 8bbf c5d8 0ebf dc8b d0bc 0415 293f
0.46249986 -0.1269506 -0.16717477 -0.5684717 -0.09399938 0.46783227 0.7018882 0.23183677
-0.3910869 0.46957645 0.045642078 0.9349736 0.12135381 -0.7840299 0.035062663 -0.2598425
0.5201359 0.25325114 0.39893764 -0.89780575 -0.07216778 0.54026765 0.026912367 0.13152829
-0.44917166 0.52093595 -1.5686257 -0.70807564 -0.39090878 -0.076942734 1.4709522 -0.17705281
0.34582597 0.2824088 -0.17779759 0.5932908 0.7491069 -0.14317176 0.50139594 -0.6118833
-0.83865196 0.7645603 -0.3421391 -0.17405592 0.07034576 0.60578775 0.20632997 -0.7226431
0.30793092 0.13544732 0.3691781 -0.2587875 0.27282465 -0.049078327 -0.20677188 0.75399655
-0.62814146 0.23201206 0.6015751 0.040458515 0.5591853 -0.7676225 -0.045649536 0.97325015
-0.67618173 -0.17821425 0.2406716 -0.7512029 -0.74953717 -0.09048542 -0.11952063 0.11745272
-0.15956618 -0.65083003 0.22509325 0.4290166 0.06525783 -0.11365233 0.4420745 -0.6137051
-0.644306 0.116734765 -0.5893075 0.29912692 0.39013755 0.86119 1.0807498 0.15155381
0.15728341 0.77089095 -0.8319785 0.22653301 0.0065906704 0.12839566 -0.014358623 0.2984796
-0.28059047 0.4303103 0.32663253 -0.21744123 -0.18574248 0.42895594 0.9718003 -0.61275876
0.28621417 0.0022582787 0.40828472 -0.0033215887 0.48682973 0.7733819 0.4157698 -0.35374925
0.31288454 0.12962973 -0.7837524 0.06541391 -0.19618696 -0.9443895 0.18224168 1.2351418
0.5226137 -0.3168086 0.83969617 -0.28245494 0.064112075 -0.17010643 0.36137566 0.7421465
-0.24770376 -0.2945755 -0.036550965 -0.4656355 1.3954457 0.33340544 -0.32040974 -0.72737986
-0.82065284 -0.21823464 0.7543457 0.026473649 0.30336013 -0.26099965 0.25105324 -0.2443637
1.1027405 -0.43311957 0.923218 0.19366339 0.950963 0.33910987 0.7070855 -1.5808492
0.21667245 0.5108673 0.5136505 0.8282125 0.032742478 0.13607152 1.1888285 1.0210408
-0.0015303725 0.4284561 0.16987896 -0.072453305 -0.15760826 0.39573777 0.85786474 0.36682543
0.77061623 0.16264978 0.024504563 0.56816214 0.20106015 -0.0389562 0.014387908 -0.87127614
-0.60766566 -0.14195375 -0.8485773 0.13792141 0.6236713 -0.37014422 0.5665088 -0.6065391
0.8730036 0.36313376 -0.8650534 -0.04038825 0.06879688 -1.3162506 0.1642139 -0.08000212
-0.37213066 0.23985521 -0.28208858 -0.4598992 0.41382158 -0.07489514 0.14749563 1.0408417
-0.87956125 0.14053059 -0.4558626 -0.013906999 -0.38619927 -0.5929444 -0.15542018 0.09698011
0.44866416 -0.05971765 0.024267837 -0.20207864 -0.043503895 -0.25650197 -0.0070174695 0.046733912
1.3341311 -0.08049185 0.29956177 -0.63055193 0.945861 -0.023965105 -0.21676265 0.35202673
0.11230039 -0.5190109 -0.7367619 0.2536458 -0.42866328 -0.87743455 0.7472669 0.33498827
0.74439347 0.3848868 -0.21260907 -0.58212525 -0.9811679 0.55778694 -0.8904784 0.84902984
-0.63810265 -0.5237563 0.36715287 0.22935131 -0.5069182 0.2864502 -0.3183402 1.2000006
-0.41937816 1.096072 0.1601431 -0.07298794 -1.0911387 -0.55799514 -0.025457315 0.6604769

critic.2.bias f4 [256]
00000000: 120a 10bd 8209 8fbe 51fb 4cbd fdca 9b3c
00000010: 9355 443e 8286 e63d 9b16 3b3e 2cf6 8e3d
00000020: a936 afbe 8115 8c3c 5786 703e 2bce cbbe
00000030: 1d92 fa3e 6206 073f 876c c8be e866 84be
00000040: 7a88 073f e3e5 503d 22ae 533e 3cbd 803e
00000050: 15f9 d7bd 2b6a 603e 199b d13e 6e15 1f3f
00000060: 99d4 673e d3bf 35bd 46c0 7b3e f202 7b3e
00000070: d08f 96bd e8ba 3fbf d377 25be 5314 9a3c
00000080: 0450 8f3b 2de7 11bf 4c8f e03d 5140 dbbe
00000090: c4d9 763b bb0a 1d3d 9bb9 e2bd b439 2d3e
000000a0: 75d1 003d c98d 81be 7808 77be b46e 593e
000000b0: 177d 30bf c818 1fbf 7190 febd 931b 8abe
000000c0: 54b4 edbc 9c3c 173e b0a1 05be 57ae fa3e
000000d0: 98fc 39bf 6f31 2abf 59f8 593c 4df3 2b3e
000000e0: 8eb6 0dbd a69f 06bf c9c2 1b3f b372 ffbc
000000f0: 71d3 593f a98a 18bf 157e 6ebc 434c cdbd
00000100: 4580 d13e 1f62 a23d b321 70be a080 133d
00000110: dab3 b2be 5ca2 2e3d 303d dcbc a5ef 063f
00000120: 9de7 efbd 1241 d9be 0aaf 8e3e b8f9 373e
00000130: fd36 a7be 61ac b03d d909 07bd 3828 723e
00000140: 54d9 623e 7a99 06be b493 3a3f d6ce 64be
00000150: 9dde 0c3e 12f3 97bd 7790 0f3d 50ac 8dbe
00000160: a81b 31bd c229 51bf 31f5 f23e 6a10 04bf
00000170: 4fbb 9b3e 6cda ce3e 3616 403f 6bff 9c3e
00000180: 68d4 50bd 64e0 393e e1e7 bc3e 5b97 67bd
00000190: be1e a93e 3ba5 2dbe 1eac 52be df07 cf3d
000001a0: a36b 0fbf af00 703d 3ffb e63d 359e 64bb
000001b0: 783a a33e ea91 c8bd 7151 b43e fbf6 82be
000001c0: ce3d fcbe ef46 1dbd 0ae8 2f3e 6794 98be
000001d0: b1cb 113f a9a4 773e da00 8b3b 3c2c c53e
000001e0: d9d0 403f a434 14be c878 a83e 3517 53be
000001f0: 95ea a63e 3f9d bebe dee8 a03e f329 e93a
00000200: 8471 613e dff6 6d3e 3d07 723e fd7f a9be
00000210: f2cc 1dbf 82bf 993e 3631 403e 83e0 ea3d
00000220: 783a d53e 5433 02bf e06d 4b3e e1e1 7ebd
00000230: 6561 07be da98 91be 3836 083d abc2 49be
00000240: 36d9 9abe 8dc6 243e f2f7 343f f87d e93e
00000250: 0df6 293f 688b 9d3e f956 8ebe 6e21 5a3f
00000260: 950c e2be 9df5 a23e 72c6 e33d 307f 9cbe
00000270: 6a5c b5be 78cc 193e a50f 48be 977c 0bbf
00000280: 708f 9b3d a8ad 5abd c0cf ba3e 991e c23e
00000290: 9109 21bf b08e 9fbc 8f6a 7b3e df8d b4be
000002a0: 0841 4abd b95d c1be 9c19 1dbf 83ef 7a3e
000002b0: 938e 133f 6827 a73e cd49 363e c296 683e
000002c0: e347 ae3e 2e7a 96be 24ce 09bf 5087 c0be
000002d0: 4269 a33d e51a d1bc 2b16 94be 0939 cdbd
000002e0: 534a 7fbe c37d dfbe 429d 0d3e 9660 973d
000002f0: 0150 3d3e eef1 5fbe a8ae 063e 7798 4a3f
00000300: 5889 f3be cbf4 dd3d 776e bf3e 2893 533e
00000310: 1829 8dbd b075 7e3e 1d3a 97be 4833 78b8
00000320: f496 b13e fe27 a6bd d374 ebbe a270 bf3d
00000330: 3251 f33e 1603 693e f256 babd b712 663e
00000340: bb47 20be c730 c4be f0fb 7f3e f66f a9bc
00000350: ac64 e23d 33dc f13d 1377 d1be 625a c83e
00000360: d4d2 ea3d a18a 873e 9bd1 923c ec26 853e
00000370: 408e f13e 9fb1 b03d de6c 6abd dffb fcbd
00000380: caae 0ebf 0ede f23d 564e fd3d a459 063e
00000390: 40de 013e 84ee 00bd 0a0b b73e 315e a53d
000003a0: ca5e 5f3c b082 19be 4ad5 523e c66b 0d3e
000003b0: 48d5 1a3d 1759 ce3d da17 6dbe 01de c93e
000003c0: 690e adbd 02c8 683d c0f0 d5be e7f5 3dbe
000003d0: 006e 5ebd b237 c1be 3786 83bc 7971 bebe
000003e0: 95bb 62be 8cae e23e 1536 43bd ce4c 06bf
000003f0: 7099 7d3e 8044 af3c 11ee 48bd 5411 cf3e
-0.035165854 -0.2793694 -0.05004436 0.01901769 0.19173269 0.11256124 0.18270342 0.06980547
-0.3422139 0.017100098 0.23488747 -0.3980573 0.489396 0.52744114 -0.391453 -0.2585976
0.5294262 0.051000487 0.20671895 0.25144374 -0.105455555 0.219155 0.40938643 0.62142074
0.22639693 -0.04437239 0.24585065 0.24512842 -0.07351649 -0.7489457 -0.1615899 0.01880852
0.0043735523 -0.5699337 0.10964832 -0.42822507 0.003766642 0.03834031 -0.11070558 0.16916543
0.031449754 -0.25303486 -0.24124324 0.21233636 -0.6894087 -0.6214719 -0.12429894 -0.26974162
-0.029016651 0.14769214 -0.1304996 0.48961136 -0.7265105 -0.6648168 0.01330384 0.1679203
-0.034597926 -0.52587354 0.60844094 -0.031182623 0.8508826 -0.5958658 -0.0145564275 -0.100243114
0.40918174 0.07928871 -0.23450355 0.03601134 -0.3490284 0.042635307 -0.026884645 0.5270942
-0.117140986 -0.42432457 0.2786792 0.17966354 -0.3265914 0.08626629 -0.032968376 0.23648155
0.22153217 -0.13144484 0.7288163 -0.22344527 0.13756795 -0.07419409 0.03504988 -0.27670527
-0.043239266 -0.8170434 0.4745269 -0.51587546 0.30416343 0.40401018 0.7503389 0.30663618
-0.050983816 0.18152004 0.3689566 -0.05654083 0.33031267 -0.16957562 -0.2057347 0.10108923
-0.56023616 0.058594402 0.1127839 -0.0034884338 0.31880546 -0.09793456 0.35218385 -0.25579056
-0.49265903 -0.038397726 0.1717836 -0.29800722 0.56951433 0.24183907 0.004242045 0.3851031
0.75318676 -0.14473206 0.3290465 -0.20614322 0.32600847 -0.37229344 0.31427664 0.0017788991
0.22015959 0.23238705 0.23635574 -0.3310546 -0.61640847 0.3002892 0.18768772 0.114686035
0.4164617 -0.5085957 0.19866133 -0.062227134 -0.13220747 -0.2843693 0.033254832 -0.19703166
-0.30243844 0.16091366 0.70690835 0.4560392 0.6639107 0.3077042 -0.2780073 0.8520726
-0.44150224 0.31828013 0.11121835 -0.30565786 -0.3542207 0.15019405 -0.19537218 -0.54486984
0.07595718 -0.053388268 0.36486626 0.3791397 -0.6290522 -0.019477218 0.24552368 -0.3526449
-0.049378425 -0.37766817 -0.613672 0.24505429 0.57639426 0.32647252 0.1780159 0.2271376
0.3403922 -0.2939009 -0.5383017 -0.37603235 0.07979061 -0.02552552 -0.28923163 -0.10020644
-0.24930696 -0.43650636 0.1382952 0.07391469 0.1848755 -0.21869633 0.13152564 0.7913889
-0.47565722 0.10837706 0.37388965 0.20661604 -0.06892604 0.24849582 -0.29536524 -5.9175567e-05
0.3468548 -0.08113097 -0.45987567 0.09347655 0.47522885 0.22755083 -0.09098615 0.22468077
-0.15652363 -0.38318464 0.2499845 -0.02068327 0.11054358 0.11809578 -0.4091116 0.39131457
0.114659935 0.26472953 0.017922213 0.26006258 0.4717884 0.086276285 -0.05723273 -0.12352728
-0.55735457 0.1185876 0.12368457 0.13120133 0.12682438 -0.031477466 0.3575061 0.08074606
0.013633439 -0.1499126 0.20589176 0.13810644 0.037801057 0.10075586 -0.2315363 0.39427188
-0.08450014 0.056831367 -0.4178524 -0.18550836 -0.054304123 -0.37737805 -0.01605521 -0.37195948
-0.2214187 0.44273794 -0.047659 -0.52460945 0.24765563 0.021394968 -0.049055163 0.40442908

critic.4.weight f4 [1, 256]
00000000: ac24 0cc0 f33c 55bf 5790 06c0 b39e cb3e
00000010: af1d 8abf fa65 cbbe 4759 8cbf 49cc 83bf
00000020: 1c30 13bf 180d a43f f8d8 25bf 1ad1 9abf
00000030: 03e2 3ebf 6884 15bf a7c1 0840 4ed4 80bf
00000040: 29ab a63f 2ed2 29bf 6bd4 203f 0fb9 6dbf
00000050: dca9 1f40 6b3e fa3f 1071 653f abb9 42bf
00000060: ccec 1d40 5b50 4c3f 84bb 3ebf 5596 dc3f
00000070: 40fe 8b3e 9606 e1bf afab b53e ceb3 f3be
00000080: 9abe 4f3f 0da1 0ec0 9c2c 63bf 6db3 393f
00000090: a170 40c0 7c37 2c3f 3d69 9f3f ae6d 143f
000000a0: b025 1ec0 bd9c 5dbf 51e9 2740 304b d7be
000000b0: a270 c53d 1074 303f 66eb 84c0 3e0a 6f40
000000c0: 73f9 663f 8b7f 71bf 77c4 2bbf dcd1 3040
000000d0: 9b52 fabf edc6 78bf 41af 23c0 315e d8be
000000e0: 5a50 44bf b644 e93e 7d20 cc3f 8fcf 75bf
000000f0: dc94 3a3e a5e2 0bbf 67ff 36bf 5bdd 833f
00000100: 4bb5 963e 7a2a 0b3f fa38 84be dc1f e7be
00000110: b049 80bf 0da6 a7bf 632c 0f40 7cfc 343f
00000120: 3e4f e8bf 25bc f13f 07c4 3440 2c7e e6bf
00000130: 1b39 92bf 9c20 17bf 8314 dd3f 1871 2c3f
00000140: 91ac 4bbf 3d15 9dbf 67e6 503f a9eb e7bf
00000150: 3a40 c2bf 15a6 3abf 4ea9 903f 27a1 26bf
00000160: 0256 1bc0 f98b acbf 67a8 873f 3b67 26bf
00000170: 6f68 623f 81cf bf3f fd19 4c40 171a ec3f
00000180: ecc2 aebf 9790 743f 9742 95bf 408a 87c0
00000190: a99d 59bf a772 38c0 8cfc 4ebf fb66 55bf
000001a0: d468 25c0 e71f 2640 4462 8a3f a8f1 4240
000001b0: de1e c43f e3c6 79bf cfe7 c6bf fa23 6bbf
000001c0: 79ce d1bf c779 d2bf edd6 4bbe 5d9c 09c0
000001d0: 0318 823f c3e6 13c0 2223 bebf 7f22 9dbf
000001e0: bcad 2640 e9a3 0440 e860 943f 910d eebf
000001f0: 3952 54c0 f779 bebf 63b3 2c40 7043 5b40
00000200: 34e6 3b40 058c d83f 341e 873f a255 f6bf
00000210: c8d1 623f d985 efbd 2a69 0140 8aef 2abf
00000220: 8269 25c0 57ea 963f 0ce8 9cbf 7e76 9a3f
00000230: d119 ba3f c878 dcbf 50e5 d73f ad77 5c3f
00000240: 2f6c debe 473a 6240 03cd 0940 2160 0440
00000250: 571d b43f 19ab 8d3f 2630 aebf a9fa e63f
00000260: f16c c7bf 3742 0840 d68a d1be e472 f7be
00000270: 7822 08c0 a0c2 9f3f 520c 153f 4fe0 46be
00000280: 7a77 d03e d19f f33f e13f 71c0 f327 47c0
00000290: bbdc 96bf 4185 7b3f 9a40 883f 90be 14bf
000002a0: 90aa 4e3f f543 6bbf e14b c73e 9785 21c0
000002b0: c972 673f 9c9e 04c0 f5d8 18bf 718e 8dbf
000002c0: 0d82 48be 2fbc 293f a2be b8bf 1910 7cbf
000002d0: 6ecc 21bf 41d6 bf3f 28a8 f23f e773 cf3f
000002e0: 945c e43f 9095 38c0 12de 5240 ff40 2340
000002f0: 17c3 d83e f131 38c0 1dff c4bf a423 0540
00000300: b9f7 9fbf b3af 15bf 7343 7b3f 3a19 623f
00000310: 15a3 0a40 ec9e 2240 257e 16c0 e6d5 d33e
00000320: f342 6ac0 28aa 7ebf f68d f3bf d8df 3fbd
00000330: eb0b 0840 b2c8 fabf 9273 64bf bf69 4840
00000340: a871 e3be e609 ab3e bda0 f7be b55e 34c0
00000350: 6c08 9e3e ce1b adbf efe3 9fbf 7b2e 93bf
00000360: 57f6 6740 e07b c4be 477d 5940 58d5 1fbf
00000370: 9136 1540 e8ed 35c0 61ff 323f 7ad4 09c0
00000380: 6856 71bf ca3c 0fc0 bbf1 cbbf 6e78 1d3f
00000390: bb09 91bf 6239 45bf 4b07 cf3f 6822 d93f
000003a0: b69e 02c0 e787 5ebf fc4a cf3f fb7a 5abf
000003b0: 9e3a 1e40 0e13 88bf fb48 cdbf 5044 4dbf
000003c0: d22a 8fbf 66ea 603f 1f24 4ec0 f29c 2740
000003d0: 5b28 d83f c6df 10c0 ed44 2ec0 f13d 25c0
000003e0: 8c10 c7bf db8d 72bf 38a7 3340 78ad 80bf
000003f0: 275c 3c3f 67e0 813f 4a3e ce3f d22c c23f
-2.1897383 -0.83296126 -2.1025598 0.39769515 -1.0790309 -0.3972624 -1.0964745 -1.0296718
-0.57495284 1.2816496 -0.64784193 -1.2095063 -0.74563617 -0.5840516 2.1368196 -1.006479
1.3020984 -0.66336334 0.62824124 -0.928605 2.4947424 1.9550298 0.89625645 -0.76064557
2.467578 0.7981011 -0.74504876 1.7233378 0.27342415 -1.7580135 0.35482547 -0.47598118
0.8115021 -2.2285798 -0.88739944 0.72539407 -3.0068743 0.6727216 1.2453991 0.5797986
-2.4710503 -0.8656729 2.6236155 -0.4204955 0.09640624 0.689271 -4.153735 3.7350001
0.9022438 -0.9433524 -0.67096657 2.7628088 -1.9556459 -0.97178537 -2.5575716 -0.42259362
-0.76685107 0.45560235 1.5947415 -0.96019834 0.18220848 -0.5464271 -0.71483463 1.0301927
0.2943519 0.5436169 -0.2582472 -0.45141494 -1.0022488 -1.309755 2.2370842 0.7069776
-1.8149183 1.8885542 2.8244646 -1.8007255 -1.1423677 -0.5903413 1.7271885 0.6736007
-0.7956019 -1.2272106 0.81601566 -1.8118793 -1.517585 -0.7290967 1.1301668 -0.6508965
-2.4271245 -1.3480216 1.0598267 -0.6500127 0.88440603 1.49852 3.1890862 1.8445462
-1.3653235 0.95533127 -1.1660947 -4.235626 -0.85006195 -2.8819978 -0.80854106 -0.8336026
-2.5845232 2.5956972 1.0811238 3.0459995 1.532192 -0.975691 -1.5539492 -0.9185177
-1.6391135 -1.6443413 -0.19906206 -2.1501687 1.0163578 -2.3109596 -1.4854472 -1.2276152
2.604354 2.0725043 1.1592073 -1.859789 -3.3175185 -1.4880971 2.698449 3.425991
2.9359255 1.691773 1.0556092 -1.9244883 0.8860135 -0.11695451 2.0220437 -0.6677176
-2.5845647 1.1790265 -1.2258315 1.2067411 1.4539129 -1.722436 1.6866856 0.8612011
-0.43441913 3.534807 2.153138 2.0683672 1.4071454 1.106784 -1.3608444 1.8045245
-1.5580121 2.1290414 -0.40926236 -0.48329842 -2.1271038 1.248127 0.58221924 -0.19421504
0.40716153 1.9033147 -3.7695239 -3.1118133 -1.1786112 0.98250204 1.0644715 -0.58103275
0.8072901 -0.9190057 0.3892508 -2.5237787 0.90409523 -2.0721807 -0.5970605 -1.1059095
-0.1958086 0.6630277 -1.4433177 -0.98462063 -0.6320256 1.498726 1.8957567 1.6207246
1.7840753 -2.8841286 3.294804 2.550842 0.42336342 -2.8780482 -1.5390354 2.0803003
-1.2497474 -0.5847122 0.98149794 0.8831974 2.1662037 2.5409498 -2.3514493 0.4137413
-3.6603363 -0.9947839 -1.9027698 -0.046844333 2.1257274 -1.9592497 -0.89238846 3.1314542
-0.4442265 0.3340599 -0.4836482 -2.8182805 0.308658 -1.352411 -1.2491435 -1.149856
3.6244104 -0.3837576 3.3982713 -0.6243491 2.3314555 -2.8426456 0.6992093 -2.1535935
-0.9427247 -2.2380853 -1.5933145 0.61511886 -1.1331095 -0.77040684 1.6174101 1.6963625
-2.040937 -0.8692612 1.6194758 -0.85343903 2.4723277 -1.0630815 -1.6037897 -0.8018236
-1.1184943 0.87857664 -3.2209547 2.6189542 1.6887316 -2.263658 -2.722957 -2.5819056
-1.5551925 -0.94747704 2.8070812 -1.0052938 0.73578113 1.0146607 1.6112759 1.5169928

actor.0.weight f4 [256, 42]
00000000: fa13 91be 4e3a 09bd 0ad3 20bf 9105 9e3f
00000010: 4510 f83e 69b9 5cc0 71ec 85bf 5a2c 68be
00000020: 6a2d 483f a95b 98bb 334a 3d40 6131 8d3f
00000030: fc6c 463c 3686 4b3e b138 88bd ae42 913f
00000040: b857 313f 1822 143e 29f1 e0bd d911 0e3e
00000050: 0c2d 4fc0 aa44 d7bf b846 603e 3f3f 8b3f
00000060: 025c 55bf 000b 37bf 4c3d 2ebf ff79 703e
00000070: e4a6 7abe 39a3 9d3f 31c3 6e3f ade8 df3f
00000080: 73c6 12be 2eb2 91bd a0a7 46bd 701c 88bc
00000090: 23d0 b93d 5f25 403e 73e0 2fbf 2c34 09bf
000000a0: 2098 b0bf 7b81 db3f 2b39 0d3d 3017 073f
000000b0: d3ef 9a3e 9dda b3bf b6dd 0d3f dc44 513b
000000c0: 75d4 a2be 125a d83c 23fe 67bf 1303 67be
000000d0: 99a5 2740 b5d1 323f 5c28 473c d6e3 09be
000000e0: cd42 213f 00c3 a53e 04c9 a63e 03f7 9fbd
000000f0: e511 443e 4a49 c33e 17dd d4be 9867 98bf
00000100: d3a8 1d3e f87b 96bf c24a 1bbf a710 743b
00000110: 372e 2ebf 250c 6a3e 972c fabd 8303 3cbf
00000120: b5b3 50bf 3e38 7bbf 626e d23d b649 fabd
00000130: 63ea 25bd e352 123e b493 5f3e 9df2 a1bd
00000140: 1a6e e53f 4e1b c13e fe07 b9be 1d56 b13e
00000150: b312 26bf d5e8 ffbf 860a 233f e53c f73e
00000160: e3db 7bbe bb1c ee3e ab61 a93e 7cc7 af3d
00000170: d7c4 4b3f 4429 19bf e9a3 f13b 9e17 bb3e
00000180: 0029 933e 2b2d e93d 5a00 ed3e 0b74 083f
00000190: 5566 013f 1e7e 173e 9364 80be 4b5c 7abf
000001a0: 1912 f2bf 38c8 fcbf 025d cebd 1f67 0b3e
000001b0: ad2d 55bf 8743 653f 72ca 5d40 286d 4ebf
000001c0: 3c43 0ebd 1811 493f c47f a83d 99e5 be3d
000001d0: ae1b b4bd 6a7e 483f e221 49bf fe45 17be
000001e0: facf 813d 9835 d73c 33b4 cf3d 3be7 7a3e
000001f0: 6013 90bd 3b66 b6be b733 1ebf 1603 0cc0
00000200: 093e ca3e c5e9 673e 4250 b0bf 003e 81bf
00000210: e7b4 86bd e96f 8a3e c934 003f d449 a5be
00000220: cd1a d7bf d450 4dbf fe14 a43d ccf4 473d
00000230: 5c75 ac3d e094 ef3b 553d 33bd 951e ab3d
00000240: 2b40 90be 6753 5ebe caaf 983f 22d2 6e3f
00000250: f2bc 05be cb06 d73e e237 23bf 02fe d43e
00000260: 05a1 a43f 26cf 2bbf d55c 983d 5d1f 3440
00000270: bd0d cbbc 4683 043f 62f4 9abd d747 1d3f
00000280: 4687 1f3c 522a a5bd aaf3 01be 7c6b b53d
00000290: 34ef 19bf fd46 333e d45a c73e 75e9 a2bc
000002a0: 339d 67bf 2e11 80be ac99 d4be 3aab b9be
000002b0: aed0 57bd 649d 37bf e650 2c3e 99ad 1dbf
000002c0: 3c0a 80be 1169 7d3e 520b 473f 33c5 6a3f
000002d0: d407 28bf 80aa fbbe b18a 87be a48f 5dbf
000002e0: 297e df3e e746 0fbf 2e2f 29bf f452 93be
000002f0: e8bb 13be 85a0 9a3f f677 f5be 5ed0 72be
00000300: 70a2 343e d95f cbbe 207d 313e 3a02 43bf
00000310: 58c5 d93e 7889 0ebf c32f debe a4be 833f
00000320: 89a1 4bbf 5cf7 2f3f 0919 e83d 7ba7 f5bd
00000330: f526 19bf 6f9a 1abf fc18 20be fb04 16bf
00000340: 0974 743e 147f 1d3f d4f5 42bf 6ddb 6fbf
00000350: 1678 753e c04d a83e e9e2 c93d 79ed b73e
00000360: eff1 033f cc2a 1d3d c734 073e f469 44be
00000370: 595e ae3d 44d7 a83e 3040 e3bd d434 70be
00000380: 6118 793e 63a3 7c3f 2f37 583f 5186 c13d
00000390: fee8 b4be 92a7 2a3e 45c2 19bf ddba 15bf
000003a0: b4cc 18be 5065 a23e 203d e53e f77a 9abe
000003b0: 50e5 1a3e 79e0 a3be 1c4b 983c dd97 51bf
000003c0: 1100 c5bd 6801 903f 878c 8dbe 574e b03e
000003d0: a0e7 8dbe 0069 e2bd 65b6 72be 970a f5bd
000003e0: 4eb9 c33e 087a 1ebf 064f d53f ab1a 3d3f
000003f0: 5569 86be e2f5 c5bf 6e00 5d3e 3991 403f
-0.28335553 -0.03350287 -0.6282202 1.2345449 0.48449913 -3.4488165 -1.0462781 -0.22673169
0.78194296 -0.0046495986 2.9576538 1.1030694 0.012110945 0.19875416 -0.06651438 1.1348474
0.69274473 0.1446613 -0.10983498 0.13873996 -3.2371244 -1.681783 0.21901977 1.0878676
-0.8334352 -0.7150116 -0.6806228 0.23484038 -0.24477726 1.2315437 0.9326659 1.7492882
-0.14333515 -0.07114063 -0.048499703 -0.016615123 0.09072902 0.18764256 -0.6870186 -0.5359523
-1.3796425 1.7148889 0.034478348 0.52769756 0.30261096 -1.405109 0.5541643 0.0031931913
-0.31802717 0.026410136 -0.90622157 -0.22559766 2.6194823 0.6985124 0.0121556185 -0.13465819
0.62992555 0.32375336 0.32575238 -0.078107856 0.19147451 0.38141853 -0.41574928 -1.1906614
0.15396433 -1.1756582 -0.60660946 0.003724137 -0.6803927 0.22856195 -0.12215536 -0.7344286
-0.8152421 -0.98132694 0.1027496 -0.122210905 -0.04050673 0.14289431 0.21833688 -0.07907603
1.7924225 0.37716144 -0.3613891 0.34636012 -0.6487228 -1.999293 0.6368793 0.48288646
-0.24595599 0.46506295 0.33082327 0.085829705 0.7959723 -0.5982859 0.007374276 0.36541456
0.28742218 0.11385568 0.4628933 0.5330207 0.5054677 0.14794204 -0.25076732 -0.9779708
-1.8911773 -1.9748602 -0.100763336 0.13613556 -0.8327282 0.89556164 3.4654813 -0.8063531
-0.03473209 0.7854171 0.08227494 0.09321136 -0.08794342 0.7831789 -0.78567326 -0.14772794
0.063384965 0.026270673 0.10141792 0.2450227 -0.070349455 -0.3562487 -0.6179766 -2.1876884
0.39500454 0.2264777 -1.3774493 -1.0097046 -0.06577473 0.27038506 0.50080544 -0.3228289
-1.6805054 -0.8020146 0.080118164 0.04881744 0.08420822 0.0073114485 -0.043759663 0.083554424
-0.28173956 -0.21711503 1.1928647 0.9328939 -0.13060358 0.4199737 -0.63757145 0.41600043
1.2861639 -0.6711296 0.07439581 2.8144143 -0.024786824 0.5176281 -0.075661436 0.61437744
0.009736842 -0.080647126 -0.12690607 0.08858392 -0.6013062 0.17507549 0.38936484 -0.019886712
-0.9047424 -0.25013107 -0.41523492 -0.36263448 -0.052689247 -0.71724534 0.16827735 -0.61593014
-0.25007808 0.24747111 0.7775165 0.9170715 -0.65636945 -0.4915352 -0.26473 -0.86547303
0.4365094 -0.55967563 -0.66087615 -0.28774226 -0.1442715 1.2080237 -0.47943085 -0.23712298
0.1764009 -0.39721563 0.17332888 -0.7617527 0.42533374 -0.5567851 -0.43395814 1.0292554
-0.7954336 0.68736815 0.113329 -0.11994835 -0.5982507 -0.60391897 -0.15634531 -0.5860135
0.23872389 0.6152203 -0.76156354 -0.9369419 0.2397159 0.3287182 0.09857733 0.35923365
0.51541036 0.038370892 0.13203727 -0.19181043 0.08514089 0.32976735 -0.11096227 -0.23457652
0.24325706 0.9868681 0.84459203 0.09449447 -0.3533401 0.16665486 -0.60062057 -0.58488256
-0.14921838 0.3171792 0.44773197 -0.3017194 0.15126538 -0.32007197 0.018590502 -0.8187235
-0.09619153 1.1250429 -0.27646276 0.3443477 -0.27715778 -0.110551834 -0.2370239 -0.119649105
0.38227314 -0.61904955 1.6664741 0.7386882 -0.26252237 -1.5465662 0.21582195 0.7522159

actor.0.bias f4 [256]
00000000: b961 b0bd 6ae9 d23c 17e2 d73c d63e c5bd
00000010: b1aa 44bf 9909 28be 7406 5dbd 407f c9bc
00000020: 1395 47be 8771 873e c16b b93d fa9c 74be
00000030: 436d 063f 0472 693d add0 c23e 25ed 093e
00000040: 6122 aebd d042 4c3e c894 7e3d d858 aabe
00000050: 9462 c03e ff72 543e 91b8 ba3c 896f 18be
00000060: 7899 e83d 7843 6cbe 36fd ccbc 81a9 a73e
00000070: e13c 023d 66e9 dd3c 7db9 71be c6fe 103d
00000080: 3268 c53d fdbf 00bf f099 b33d a3e7 7e3e
00000090: b32b 363e a00f ee3d 16aa f13b 526f fe3e
000000a0: 01da 783c 33f2 7a3b be50 64be 301f e03c
000000b0: 8bd2 18bd a544 2abd d6bc 033d 66d6 783e
000000c0: 9a68 5ebd 1049 f4be e023 03bf e051 dd3c
000000d0: 1f37 f3be b1ef c6bd 09b0 d83d fe43 4e3e
000000e0: f891 4abe 9908 d73e a146 edbc 5ebe 143d
000000f0: a232 873e 6de4 89bc 05aa 103e 9a55 893c
00000100: 99d5 63bd 84ca 2f3e 007d 33bc 6d97 3dbd
00000110: fe4a ba3b 9153 1a3d 2922 043f e743 1cbd
00000120: 08f2 ccbe 0a55 abbd 123d f4be 8103 80be
00000130: c101 7bbe b22d 32bd 9e45 67bc 8a49 b13d
00000140: 0fd6 093d 1e54 3bbe 621d 333e 23ba 633e
00000150: 96a4 f23d ca3f ebbd 94f8 63be d249 2abe
00000160: 9f0b ac3e 6055 74bd a8b2 5e3e 70a2 dabe
00000170: 88d1 1ebe 1992 f2bb bbe0 7cbd 5b6c 47bd
00000180: bfb3 483e d216 133e e43e c2bd e06d f23e
00000190: 328e b23e 957c f93d 7ec3 10be dc5e 133e
000001a0: 820e d8bd fa63 e1bd b0b4 313c ea93 26be
000001b0: 4945 eabe d613 b1bd 1005 71be bcbe 0ebe
000001c0: 5f90 c8bd 73d6 623e 24ce f9be 0742 013e
000001d0: 54d6 123e 53e3 f4bc 63db 26be 574f ba3d
000001e0: 1acb 793e 7984 a13e 3dd3 263e f420 47bf
000001f0: 5ae2 f13d ca6a 1bbd 907e 223e fcd0 6dbe
00000200: d67e 2e3e feea 87bb b7e6 553e e162 ad3b
00000210: 35ea 56be b4d7 103e 7241 493e 2a0a a13d
00000220: f1ab 9dbd 8340 003e cdd8 27be 2611 303e
00000230: 54d1 70be f01f a0be 51cc 83be 15f9 cf3d
00000240: 5606 34bd 8b9a b03c b64b 00be 2148 92bd
00000250: a773 ca3b aa59 873e 4c10 4abd 011c dd3c
00000260: 66f4 b53d 0b1a 8ebe adab 003e 6a9d a53d
00000270: a5ce 363e 4732 64bd 7cdc c63d d1b6 303d
00000280: 27a0 f3bd ba0b a23c 2089 3a3b 03e5 26bd
00000290: ff29 8a3d 61c6 62bd 5efe 033c 6c77 783e
000002a0: f219 2b3e f3bb eabd 586c 0e3e 3f67 9cbd
000002b0: a0a7 e6bd 7fc6 4cbe 9e88 ca3d 85ba bebe
000002c0: d6b5 cd3d cf4d eabc 2bcb 02be 7cd1 ce3d
000002d0: feff aabd 0630 1b3d 7f41 29be 2da9 0f3f
000002e0: 2d68 033e f056 343e 88ef f7bd 7f74 47be
000002f0: f42a 453d db55 fcbd ceb2 1bbe d3a6 4cbe
00000300: f09a abbe eed5 a7bd ca58 a13d d44d 53bd
00000310: 6e74 12bd 14c0 e0bc e4e2 c7bc 43e2 ba3e
00000320: b3b9 92bd 14dd 39be 094c 6f3e 0f6b 823e
00000330: b78d 84bd 0954 433e c4f4 373e 78d8 ad3d
00000340: 3df0 cfba 51fb cb3b 60e3 c03d 370b 833d
00000350: 8780 223e a70a 37be 4f5f fdbd 35e7 e73e
00000360: 71f7 a23d ce3e f6bc d86b 0bbe 4705 083e
00000370: 0d30 8bbb 2282 003e f5e6 7dbb 6dbb 15be
00000380: 705e 313d 9851 e8bd 67bd cbbd 1c62 dcbd
00000390: ec0d 39be 4674 103d 694c ff3c f05a 1ebe
000003a0: 824f 9cbd 3b32 6bbd 6690 163d f703 83bd
000003b0: 8e8c 8bbd 4453 11bf 8682 c93d a9c2 96be
000003c0: 277e a8be 0b2b a4bd df4d da3e 0fdf 18be
000003d0: 1fbd c03d fe3c ff3c b279 9c3e d405 a83c
000003e0: 42a6 a23d 319b a43e 20ad d2bd 7b35 58bd
000003f0: 5141 873e 4fbc e73e f20a 76bd c046 01bf
-0.08612389 0.025746066 0.026352925 -0.09631126 -0.76822954 -0.16409911 -0.053961232 -0.02459681
-0.19490461 0.26453802 0.090537556 -0.23888007 0.5251047 0.0569935 0.38049832 0.1346937
-0.08502651 0.19947362 0.062153608 -0.33270907 0.3757521 0.20746993 0.022793086 -0.14886297
0.11357397 -0.23072612 -0.025023084 0.3274651 0.03179634 0.027088832 -0.23605914 0.03539922
0.09639014 -0.5029295 0.087695956 0.2489305 0.17790107 0.11624074 0.007375012 0.49694306
0.015188695 0.0038291335 -0.22296426 0.027358621 -0.037310164 -0.04156937 0.03216251 0.24300537
-0.054298975 -0.47711992 -0.51226616 0.02701658 -0.47502992 -0.09713686 0.10580451 0.20143124
-0.19782245 0.41998747 -0.028964343 0.03631436 0.26405817 -0.016832555 0.14127357 0.01676445
-0.055623624 0.17167097 -0.010955095 -0.04628699 0.0056852093 0.03767735 0.51614624 -0.038150694
-0.40028405 -0.08365829 -0.47702843 -0.25002673 -0.24512388 -0.04350061 -0.014115719 0.086566046
0.033651408 -0.18293807 0.17491677 0.22238974 0.118477985 -0.11486776 -0.22262794 -0.16629723
0.33602616 -0.059651732 0.2174784 -0.42702055 -0.15509617 -0.00740267 -0.061737757 -0.04868732
0.19599818 0.14364174 -0.09484652 0.47349453 0.3487411 0.12181965 -0.14137074 0.14391655
-0.10549642 -0.11005397 0.010846302 -0.16267362 -0.45755985 -0.086463615 -0.23537087 -0.13939947
-0.097931616 0.22152118 -0.48790085 0.12622844 0.14339572 -0.029893553 -0.16294627 0.09097164
0.24393883 0.3154638 0.16291519 -0.7778466 0.11810751 -0.03794364 0.15868592 -0.23224252
0.17040572 -0.0041478863 0.20888792 0.0052913283 -0.2098778 0.14144784 0.19653872 0.07863267
-0.07698811 0.1252461 -0.16391297 0.17194042 -0.23517352 -0.31274366 -0.2574182 0.101549305
-0.043951355 0.021558067 -0.12528881 -0.07142664 0.0061783376 0.26435596 -0.04933195 0.026990892
0.08884506 -0.27754244 0.12565489 0.08086665 0.17852266 -0.05571201 0.09710023 0.043143097
-0.11895781 0.019780982 0.002846308 -0.040745746 0.06746291 -0.05536497 0.008056251 0.24264306
0.16709116 -0.1146163 0.13908517 -0.0763688 -0.11262441 -0.19997595 0.09889339 -0.37251678
0.10044448 -0.028601555 -0.12772815 0.1009855 -0.08349608 0.037887596 -0.16528891 0.56117517
0.12832709 0.17611289 -0.12106234 -0.19478033 0.048136666 -0.12321063 -0.15204927 -0.19985513
-0.33516645 -0.08195101 0.07878263 -0.051587895 -0.035755567 -0.02743534 -0.024400182 0.3650075
-0.071643256 -0.18150741 0.23368849 0.25472304 -0.064723425 0.19075026 0.17964464 0.08488554
-0.0015864443 0.0062250276 0.09418368 0.063986234 0.15869342 -0.17875157 -0.12371694 0.45293584
0.07957352 -0.030059244 -0.13615358 0.13283263 -0.0042476715 0.12549642 -0.0038742397 -0.14622279
0.043302953 -0.11343688 -0.09948235 -0.107609004 -0.18071717 0.035267137 0.031164365 -0.15464377
-0.076323524 -0.05742095 0.036758803 -0.063972406 -0.06813918 -0.5676768 0.098393485 -0.2944539
-0.32908747 -0.08016022 0.42637536 -0.1492884 0.09411072 0.031157013 0.30561596 0.020510592
0.079418674 0.32149652 -0.10286927 -0.052785378 0.2641702 0.45260856 -0.060069032 -0.5049858

actor.2.weight f4 [256, 256]
00000000: f2db a13d 3caa 0e3f 8405 053e b940 6bbf
00000010: 07e6 c53e 4f1f 80be 8c0b 963f 215d b83f
00000020: 56ac 33bf 14f8 85be cb8e d83e 29d5 b8be
00000030: 84d5 ea3d 887c 3dbf df10 28bd 85ea 9cbd
00000040: c076 0d3f 40de d63e f08e ea3e 84a5 2b3d
00000050: b704 f1bd 997b ed3d b472 633f 8c68 713e
00000060: d759 4d3e 242e 923e de8f e0bd 2442 6d3e
00000070: bd88 d2bd 4c31 603e 8af3 07bf 489c e5be
00000080: 329c f4be 2504 fdbe bdeb 2dbf 6084 b1bf
00000090: ccba adbf 6ee9 163f 4c04 c9bc 3696 e33e
000000a0: 1257 10be be15 843d 276e 413d 3e9e 0bbf
000000b0: 371b 70be 6a70 2c3e 382a 97bf 27b0 2f3f
000000c0: fed9 20be f284 ef3d 81fb b03d ed79 bcbd
000000d0: ae22 3fbb 7d2c 793f dd22 aa3e f103 493f
000000e0: e302 913e f180 533e 9e8c efbe 5b24 693e
000000f0: 0df1 c7be 42b1 8b3d 1d31 263e 70cd 01bf
00000100: 5d51 5e3f 47a3 883d bd0a debe aa2e e73e
00000110: 4350 73be e441 12bf 8f37 d8be b6a8 9ebd
00000120: 0728 8cbe b362 76bd f77e a73e 35e4 553f
00000130: 009c 87be dcdf 85bd 8212 a53d 7153 25bf
00000140: b157 103f 281c 03bf 276b e8bd 63ba 3ebf
00000150: 9804 b9be e77a a83d a5ac 6fbf 4f0f cd3e
00000160: 977d 8e3e 9ca1 a23e 1440 c9bd 424f 85bf
00000170: fe4f 5fbd c34b 4b3f 61a8 4f3e af14 7abe
00000180: 98d3 273f f07a 80be 3949 103f 963d 5cbd
00000190: c42d 5f3e 125f 12bf c05f f53e ea32 e1be
000001a0: bf96 443f be95 21bd 26aa a1bf e568 043e
000001b0: 329f 9e3e 8dc3 5b3e 8c71 933f 5ef1 9abc
000001c0: 6258 ac3e 56e8 6a3f c619 d03e 50b1 e63e
000001d0: e83d a5bd a3e8 5ebf c2df 97be 07b6 3cbe
000001e0: d955 b43e fe24 7ebf bd96 8b3e 3ae5 833e
000001f0: 6517 fd3d 5040 58be f733 433c fa90 573e
00000200: 63d8 6abf 2296 4c3d ca17 de3e 8344 483f
00000210: 6842 02bf 6cbb e8bd 0784 a8bf f9ca 583e
00000220: 395e 423f 45ad d1bd bc35 81bd 5d8c 2ebd
00000230: b3d9 07bf 5a29 6bbe de1b e0bc e20d 203f
00000240: 8175 413e 4289 97be 227e ee3e 5322 aa3f
00000250: bbd1 c73d be9f a03e e601 20bf 678a 923e
00000260: 9fe0 163f c075 4a3f 1a83 8b3f 40ae a8be
00000270: ffbf 263f dcf2 c4bf 7225 82be 8632 2b3e
00000280: 74ec f0bd 0aae 423f 2f94 2ebd bbe4 4dbf
00000290: d8e7 cbbd 8b24 793e e0f3 94be b63f a13e
000002a0: 1169 bdbf f129 34bf a900 753e 0538 fdbe
000002b0: 502b 2b3d 7d94 b5be 29a7 093f 3245 a33f
000002c0: f453 d53e 8167 3a3e afce c7be a649 8ebd
000002d0: 6af0 5abd e919 fe3e bf82 69be c628 b03e
000002e0: 0b25 0abf a6b3 c4be bb78 2cbe 34bd 133f
000002f0: d9c4 32bf e348 2dbf fdb5 4cbe 6bc5 63be
00000300: d0fb 74be 618f 14bf 087a 4a3e 7766 21bf
00000310: 138a f8be 31fc 523e d565 bcbc 59a0 39bc
00000320: f6be 50bf 1678 463e e25c b3be b106 a73e
00000330: 956f 193f 2588 81bf 0366 183f 2ab2 1d3e
00000340: 6e14 a4be 8359 423e 0eea b4bf adce 093f
00000350: a155 a63f b466 6dbd d359 983e 09b6 f9bd
00000360: e908 02bf 2033 133f bd1b 81be 677d c03f
00000370: 3e59 87bf 8645 f73e 3698 65be 53da 313f
00000380: 0ba9 eebe 9943 853d ac28 b7be 7f83 32bf
00000390: 7e41 9b3e 3ce6 abbe a7a8 b53e 2c8b 6d3e
000003a0: cb8e 98bf 983c 03be f5eb c53e 8bde 943e
000003b0: b52d 8a3e 16bf 413e c956 9e3d 3917 09bc
000003c0: 77cf 00bf c0ed 553d 304f 0ebe 35e6 eabe
000003d0: f1ad 893f 9821 363e 3190 85be cb00 e6be
000003e0: 0b29 753f 0c63 81bf 6b6a a93e 0968 003f
000003f0: 3e3d 25bf 86e2 343e cd0b 9c3f fe39 533f
0.07903279 0.5572851 0.12990385 -0.91895634 0.3865206 -0.25023887 1.1722274 1.4403421
-0.7018484 -0.2616583 0.42296442 -0.36100128 0.11466506 -0.74018145 -0.041031715 -0.076619186
0.55259323 0.41966438 0.45812178 0.041905895 -0.117684774 0.1159584 0.888469 0.23575038
0.20053802 0.28550828 -0.109649405 0.23169762 -0.10279987 0.21893805 -0.53105986 -0.44845796
-0.47775418 -0.49417225 -0.67937833 -1.3868523 -1.3572631 0.58949935 -0.024538182 0.4445054
-0.14095715 0.064494595 0.04722419 -0.54538333 -0.23447882 0.16839758 -1.1809759 0.6862816
-0.15708157 0.11695279 0.086417206 -0.09202943 -0.0029164958 0.9733351 0.33229724 0.7852164
0.28322515 0.20654656 -0.4678697 0.22767775 -0.39051095 0.068209186 0.16229673 -0.507041
0.868429 0.06671768 -0.43367568 0.4515279 -0.23761086 -0.5713179 -0.42229888 -0.07747023
-0.27374288 -0.06015272 0.32714054 0.8355134 -0.26486206 -0.065368384 0.08060171 -0.64580446
0.56383806 -0.5121484 -0.11348563 -0.74503154 -0.36136317 0.08226567 -0.9362281 0.40050742
0.27830192 0.31763923 -0.09826675 -1.0414813 -0.054519646 0.7941248 0.20279075 -0.24421953
0.6555724 -0.25093794 0.5636173 -0.05376967 0.21794802 -0.57176316 0.47924614 -0.43984157
0.7679252 -0.039449446 -1.263005 0.12930639 0.3098083 0.21461315 1.1519027 -0.018913921
0.3366118 0.91760767 0.40644664 0.45057154 -0.08068448 -0.87073725 -0.296629 -0.18428813
0.35221747 -0.99275196 0.27263442 0.25760823 0.12357978 -0.21118283 0.011914245 0.21051398
-0.9173643 0.049947865 0.43377525 0.7822954 -0.5088258 -0.11363873 -1.3165292 0.21171178
0.7592502 -0.10238127 -0.06309077 -0.04261433 -0.5306656 -0.22964993 -0.027357038 0.62521183
0.1889248 -0.29596907 0.46580607 1.3291725 0.097568 0.31371874 -0.62502897 0.28621218
0.58936495 0.7908592 1.0899384 -0.32945442 0.6513671 -1.5386615 -0.25419194 0.16718492
-0.1176385 0.7604681 -0.042621788 -0.8042714 -0.0995633 0.24330346 -0.29092312 0.3149392
-1.4797689 -0.703765 0.23926033 -0.49456802 0.041789353 -0.3546485 0.5377069 1.2755492
0.41665614 0.18203546 -0.39024875 -0.06947641 -0.053451933 0.49629143 -0.22803782 0.34406108
-0.53962773 -0.3841831 -0.1684293 0.57710576 -0.69831616 -0.6768934 -0.19991298 -0.22243278
-0.23924184 -0.5803128 0.19773114 -0.63046974 -0.48542842 0.20604016 -0.022997776 -0.011329734
-0.81541383 0.19381747 -0.350318 0.32622293 0.59935886 -1.0119673 0.5953066 0.15399995
-0.32046837 0.18979459 -1.4133928 0.5383099 1.2994882 -0.057959273 0.2975603 -0.121929236
-0.50794846 0.57499886 -0.25216475 1.503827 -1.057411 0.4829523 -0.22421345 0.6947376
-0.46613345 0.06507034 -0.35773218 -0.697319 0.30323404 -0.33574092 0.35480234 0.23197621
-1.1918577 -0.12816083 0.38656583 0.29076037 0.26987997 0.1892055 0.07731397 -0.008367353
-0.50316566 0.05222869 -0.13897395 -0.4587876 1.0756208 0.17786252 -0.26086572 -0.4492248
0.9576575 -1.0108352 0.33089003 0.50158745 -0.64546573 0.17664537 1.2191101 0.82510364
