models/ho_policy.pth (torch, 628146 bytes, 11 tensors)

critic.0.weight f4 [256, 42]
00000000: c113 813e c3a4 483e 555e f8bb d717 28be
00000010: 7d2b 953e 757b a5bf 6697 b8be 7c02 a6bb
00000020: aac7 00be f0a6 993d 3b1d bd3e 8fc5 093e
00000030: ccb6 9e3b 08ef 1cbe 6978 c1bd 04a9 023f
00000040: 5b35 883e 4458 8bbd b507 b6bd fe5b ea3d
00000050: bef7 9abe ad9b 72be dfb5 db3c 11a4 e03d
00000060: ef2d 67bc 59f9 d8bf 4bc7 12bf 37c1 3ebe
00000070: 4228 1abd c8ac a93c 3375 4bbd 17f0 f93d
00000080: a95c b33e d599 d6ba ffc3 c0bc 76d9 f93d
00000090: 19b7 183e c2e9 e0be 8a52 03bf 02a0 fb3d
000000a0: bb30 80be 5b46 aabc e1f1 ce3c 17f5 123e
000000b0: e4fb bb3e 13b1 c93d 7478 07be e273 27bd
000000c0: 8fad 7d3c dac5 2bbe 171a b53e 906f ccbc
000000d0: 8e95 12bf a51b 86be bce8 a23d 1882 13bd
000000e0: 70d5 043e 62c6 a4bd b8d9 efbd 5d77 d83c
000000f0: be0d f1bc b822 fcbc ce81 223e 56be 7c3d
00000100: 3774 80bb 7c3d a4bd ff09 df3d 243d 8e3e
00000110: 7685 e13c e71b fdbd b510 52be d0cd 96bd
00000120: e186 e8bd d03b 053b 2551 6ebe 862f d9bc
00000130: a81f bdbd 1fb6 1d3e 9643 8cbd 3888 393e
00000140: a2fa 003d d034 70be 6a82 7cbd 2d82 17bc
00000150: b63f 89bc 99b7 83bd 7f04 643e e6b4 4f3e
00000160: d8be f1bd 3d7d 0dbd 1797 f43d 5d5b 29be
00000170: 6cd1 d83e 239c 12be ff71 5d3b b769 863d
00000180: 064e 03bd 148a 5d3d 27fd 1a3e c48e fe3d
00000190: 2ed1 783d 6c74 913d 9b0e 023e 57a6 19be
000001a0: 6d45 0a3c 55b6 79bc e32e 863e 772c 51bd
000001b0: 5f1b adbb 9bd1 33be b804 21bd 48fc 86bd
000001c0: 3e38 47bd 0149 f2bd a726 bb3d d990 6c3c
000001d0: 4667 aabe c8ed 30be 01a8 8c3d 36ee 91bd
000001e0: 12e2 233d 227a 8abc 01bb 6a3e 66f7 ae3d
000001f0: e6f9 09be e537 a3bc 6979 6abd 499e 723d
00000200: 78c5 b53c 1ff5 19be 12f8 093e df3e f93d
00000210: 785e 21bd 0ed0 bb3c fa5e 13be 2cff e6bd
00000220: 50b8 9dbc 2d80 77bd 4567 843d b458 f5bd
00000230: a5fb 4ebd f107 d1bb b817 c33c d78e d9bd
00000240: bd3b 09be d775 033e 1c8b ffbc 7450 a43d
00000250: 0920 97bc 40c0 0a3e 478b aebd 8b76 f6bd
00000260: f432 09be dfc5 13be 7cd6 183e 634b 2cbb
00000270: ab34 743d c6a9 93bd 919e 843e b15c a43e
00000280: 19e3 b7bd 0280 ce3d 25a8 583e 2b9c f4bd
00000290: ba78 a3bd 1a07 923e 433b f9bd 62fb 95be
000002a0: 2f8c 50bd fa84 1dbe 77a6 31be 03f5 21be
000002b0: c978 2f3e 3e0d 49bd 7126 0fbd 060d 323e
000002c0: 0619 45be b8dd 8b3c 3964 143d aafb 943c
000002d0: 6e97 a2bd 84fa 0cbd b091 3cbe 90a7 c9bd
000002e0: dc04 f8bb fd24 0bbb e7b5 adbc 0812 18be
000002f0: eb3d edbd ecc5 643d 6f89 33be e767 d53b
00000300: 0eb8 183d ab6f daba fabd d3bd 59b0 353e
00000310: 9045 d7bd 3aca a53b d6ec 7bbe a364 47bc
00000320: 3129 303e 17fe bdbd b5e3 593e 81ff a4bd
00000330: 6e0e eabd 1c8e 8fbd 1c97 97be 512c b1bd
00000340: 799f 35bb 2046 983c 9c8e 1f3e 2480 db3c
00000350: 017a 313e 27f5 fcbd 9f4d 2e3c 7a94 023e
00000360: c9ce 0a3c f85c 783e a162 76bd 60f8 993d
00000370: 233c 91bc da6c 2d3d 9980 413e c5ad 34be
00000380: e986 3dbe 31f9 0fbc 209f 0e3e c270 dcbd
00000390: 351c cdbd cf5f 0c3e 77e6 01be b7ca c2bd
000003a0: b336 5cbe 7bc5 d4bd b400 2dbe 299a 523d
000003b0: 3a0f 03be a7b4 3dbe 8b55 493e 8326 9e3d
000003c0: 852f 1e3d e36e e63d 7ef7 d23d dee4 aa3d
000003d0: 9370 71bd dfc8 193e 8ae2 2c3e 4a46 2ebd
000003e0: 446e 48be 4f5d 523e b004 43bd 7e79 97be
000003f0: 3c0a 383d 5825 81bd 3ff2 93bd f915 b53d
0.25210384 0.19594102 -0.0075796046 -0.16415344 0.2913474 -1.2928301 -0.36053008 -0.005066214
-0.12576166 0.07502544 0.36936364 0.13454269 0.0048435684 -0.15325558 -0.094467945 0.5103915
0.26603207 -0.06803945 -0.08888189 0.11443327 -0.30267137 -0.23692198 0.026820121 0.10968793
-0.0141100725 -1.6951095 -0.57335347 -0.18628393 -0.03763605 0.020712271 -0.049672317 0.12203997
0.35031632 -0.001637275 -0.023530958 0.121996805 0.14913596 -0.43928343 -0.5129782 0.122863784
-0.25037178 -0.020785501 0.025261821 0.14351307 0.36715615 0.09848227 -0.13229543 -0.040882
0.015483274 -0.16774693 0.35371467 -0.02495554 -0.5725945 -0.26192966 0.07954547 -0.03601274
0.12972045 -0.08045651 -0.117114484 0.026424104 -0.029425498 -0.030778274 0.15869829 0.061704956
-0.003920104 -0.0801954 0.108905785 0.27781022 0.02752946 -0.123588376 -0.20514186 -0.07363474
-0.11353851 0.002032984 -0.23273142 -0.026511919 -0.092345536 0.15401505 -0.068488285 0.1811837
0.031489022 -0.23457646 -0.06164781 -0.009247345 -0.016754013 -0.06431503 0.2226734 0.20283851
-0.11803979 -0.034543265 0.119428806 -0.16538759 0.42347276 -0.14317374 0.003378987 0.06563132
-0.03205683 0.05408676 0.15135632 0.12429574 0.060746364 0.07102284 0.12700884 -0.1500486
0.008439404 -0.015241225 0.26207647 -0.051067796 -0.005282804 -0.17560427 -0.03931114 -0.065910876
-0.04863762 -0.11830331 0.09138232 0.014438831 -0.33281916 -0.17278206 0.06867982 -0.07125513
0.04001052 -0.01690394 0.22922899 0.08543281 -0.13474235 -0.019924114 -0.057244692 0.059232984
0.022188887 -0.15034913 0.13473538 0.12170195 -0.039396733 0.022926357 -0.143917 -0.11279139
-0.019252926 -0.060424972 0.064650096 -0.119798094 -0.050532956 -0.0063791205 0.02381502 -0.10622948
-0.13401695 0.12837921 -0.031194262 0.08023158 -0.018447893 0.135499 -0.08522659 -0.12034329
-0.13398343 -0.1443095 0.1492557 -0.0026290051 0.05962054 -0.07210116 0.25902227 0.32101968
-0.08978862 0.10083009 0.21157892 -0.11943849 -0.07982011 0.28521043 -0.121695064 -0.29293352
-0.05091494 -0.15382758 -0.17348658 -0.15816121 0.1713592 -0.049084894 -0.03494877 0.1738778
-0.19247827 0.017073497 0.036228392 0.018186409 -0.07939039 -0.034418598 -0.1841495 -0.09846413
-0.0075689387 -0.0021231764 -0.021204902 -0.14850628 -0.115840755 0.055852816 -0.17532896 0.0065126303
0.037284903 -0.001666536 -0.103389695 0.17743053 -0.10511315 0.0050595077 -0.24602064 -0.01216999
0.17203213 -0.092769794 0.2127827 -0.08056546 -0.114285335 -0.07009527 -0.29607475 -0.08651031
-0.0027713461 0.018588126 0.15581745 0.0267945 0.17331697 -0.123514466 0.0106386235 0.12751952
0.008472153 0.24254215 -0.060152654 0.07518077 -0.01772887 0.042340137 0.18896712 -0.17644413
-0.18508495 -0.008787439 0.13927889 -0.10763694 -0.10015146 0.13708423 -0.12685572 -0.09511321
-0.21505241 -0.10389229 -0.168948 0.05141655 -0.12798777 -0.18525945 0.19661538 0.07722189
0.038619537 0.11251619 0.10301112 0.08344434 -0.05894525 0.15018032 0.16883293 -0.0425475
-0.19573313 0.20543407 -0.047611892 -0.2958488 0.044931635 -0.06305951 -0.07223939 0.088420816

critic.0.bias f4 [256]
00000000: 4fed 293e 7cd1 12be 2b26 d23d 895a d2bb
00000010: 0a97 253d 47d8 c8bd 065a 9d3d 683f 9abd
00000020: 36ce ad3d 5120 fe3d 1ab2 0dbd 16f3 19bc
00000030: 4e9f 88bd c841 25bd b200 db3c 620b 683b
00000040: 33dd d2bd 2f0e 82bd 89be aa3d da29 bebd
00000050: ca22 053e dd59 0dba 8f35 79bd a04a b63d
00000060: 4307 b7bc caa7 8dbc 1b8b f23d 1d3f 103e
00000070: cf57 9d3d 9559 983c b24e b1bc 4983 8d3a
00000080: 381f 2dbe 0987 e23d 4d3f 6bbd c425 0c3e
00000090: 6fcf ec3c 2a6e 073e 79b2 9fbd 434d 9a3d
000000a0: 73cd 0ebe 9459 733d 6350 efbb 56c5 263d
000000b0: eb46 0f3e 3ac9 6c3d e3a9 2abe 1a9e 27bd
000000c0: 4813 0bbd b928 84bd 720f 873c 1ee5 5a3d
000000d0: af73 9f3d 3362 b3bd 9a2a a9bd 68ae f3bd
000000e0: e20c 733d 391b b13d 39ae 283e 95b2 aa3d
000000f0: c6c3 24be dc36 db3d e270 b73d 8915 fa3d
00000100: 33e5 0cbd 76e0 84bd 0ab2 efbd 18ef 0f3e
00000110: 9a74 9d3d 6fb4 c9bd 2558 b73d 913a 263d
00000120: 20a0 3c3e 2cf4 3c3d aec7 a23d a512 55bd
00000130: 209e a8bb 4e23 febd 7c6e a9bc b27e 5b3e
00000140: fa4a 06be d1e4 bd3d 4917 0f3e aaf6 f93b
00000150: 8f63 4f3e 6273 3e3e faca a93d 6431 243d
00000160: b9bd 8ebd 3bb7 43bd c569 59bd 0186 193d
00000170: 78bb f13d 0600 00bd 87d8 a33d 4467 8f3d
00000180: ad1e 36be abaa 2dbe e432 7d3e b3b7 a5bc
00000190: 4411 0a3e 6bb9 093c 8906 0bbe df9e 0f3e
000001a0: ca6c 863d 5446 31bd 12ab 1bbd 7b06 e2bd
000001b0: f3f4 183e 97e3 b9bd 17d3 1a3e 7f4b 36bd
000001c0: eac5 693d 7e0f 8bbd 885d b33c ac29 90bd
000001d0: f1ed 38bb 6a21 e23d 0470 ad3b b793 4abe
000001e0: 79ea d7bc 4e19 f33d 8ee6 b43d 97a3 123e
000001f0: 1858 cc3d b287 323b 5276 36bd b6f5 c63d
00000200: 5b1f 80bd 7b8f 0b3e eba7 87bd 78d2 f9bd
00000210: a10e d2bb 2808 173e 1409 2ebe fe28 cbbd
00000220: 5ab9 773b b36b 2e3e 2c93 b4bd 3d92 acbc
00000230: dfbb 18be 8208 d53d 011b 31bc b65e f3bb
00000240: ec81 4cbc 8758 aabc 0184 0e3d 5f88 bb3b
00000250: 2862 bdbd bd29 98bd ff0e 74bd 7886 50be
00000260: 6307 243d 5de3 2f3e 3c87 763d c323 b03d
00000270: 5955 ecbc 9321 11bd 9b1d f63b 0b4e e93d
00000280: 98c1 05be 9f03 cd3d 762d eebd b03c dc3d
00000290: c88a acbc 9e93 f7bd ad2f 0b3c 00a0 7b3d
000002a0: e255 79bd a0ba 0abe a5d4 c63d c0b5 163e
000002b0: 98a0 af3d c4c4 e93d ba76 83bc eaa1 123d
000002c0: 4b60 b3bd 1356 0e3e ecaf 0fbe de99 903d
000002d0: 6e4d 28be d4ea 7d3c 0e42 c23d fd2e bdbd
000002e0: aacd 033e a1c9 e2bd 2bea 1f3d 74fd 133e
000002f0: b9e8 ad3c 1762 aa3d 5811 f3ba a90c bebd
00000300: 63a9 fc3d 35e1 e9bd 15b6 a7bd cb59 f5bd
00000310: cf46 1ebe 6c26 fdbc 7cd2 e3bd 7e03 5c3d
00000320: 992c 80bd b502 bebd 55b6 8ebd 0174 00be
00000330: 84fe 42bd aa77 c2bd 3b1b 89bc 46a2 e1bd
00000340: 1a3d cc3d a410 eabd 9322 bd3d 36e1 d2bd
00000350: b87c 043e f648 ddbc cc96 afbd 4738 a9bd
00000360: 3c6e d63d a06e 05be 6e7f 263d 1c48 203e
00000370: bf52 17bd bbd8 edbd 451c f93d a10e 9ebc
00000380: 4a66 073e 5801 16be 5c9c ee3d d8eb 0a3d
00000390: ebb7 0cbe 8147 a73d 5b4d 0bbd 1e3a d3bd
000003a0: a98d d3bd c578 87be 97f9 84bd 82f2 b43d
000003b0: a499 8ebb 7c53 54bd c3aa 8c3c eebe d33d
000003c0: edd8 0d3e b69c c4bd d1fe 3b3d 0b88 cdbd
000003d0: fc5a 7b3c c2a9 2cbd d390 03be 314c 36be
000003e0: 3941 eabd ce42 963c 8050 043e cbf5 8cbd
000003f0: ad04 fdbd fbf9 02be 6866 0b3d ee06 533d
0.16594432 -0.14337724 0.10261186 -0.006419484 0.040427245 -0.09806877 0.07683186 -0.07531625
0.08486597 0.124085076 -0.03459368 -0.009396335 -0.0667101 -0.040345937 0.02673373 0.0035407175
-0.10296097 -0.063503616 0.08337123 -0.09285326 0.13001552 -0.0005392114 -0.060842093 0.08900952
-0.02234233 -0.017291922 0.118429385 0.14086576 0.07682764 0.018597404 -0.02164397 0.0010796572
-0.1690644 0.11060912 -0.057433415 0.13686281 0.028907506 0.13225618 -0.07797713 0.07534268
-0.1394556 0.0594116 -0.007303284 0.040715538 0.13991897 0.057809092 -0.16666369 -0.04092226
-0.033953935 -0.0645308 0.016486857 0.05344116 0.07785737 -0.087589644 -0.08260079 -0.118985
0.059338458 0.086477704 0.1647271 0.08334843 -0.16090307 0.10703823 0.089570776 0.12211139
-0.03439827 -0.06488125 -0.1170388 0.14056051 0.076882556 -0.09848868 0.08952359 0.040583197
0.18420458 0.046131298 0.07948242 -0.052019734 -0.005145803 -0.124090776 -0.020682566 0.21435049
-0.13114539 0.09272159 0.13973726 0.0076282816 0.20252822 0.18598703 0.08290668 0.040086165
-0.069697805 -0.047782164 -0.053079385 0.03748131 0.11803335 -0.031250022 0.08000284 0.07002118
-0.1778514 -0.16959636 0.24726444 -0.020229196 0.13483149 0.0084060235 -0.13576712 0.14025448
0.065637186 -0.04327996 -0.038004942 -0.11036392 0.1493719 -0.090766124 0.15119587 -0.044505592
0.05707351 -0.06790064 0.021895185 -0.07039198 -0.0028217996 0.110415295 0.0052928943 -0.19782911
-0.026356922 0.11870061 0.08833037 0.14320217 0.0997774 0.0027241525 -0.044546433 0.097148344
-0.062559806 0.13628952 -0.06623825 -0.12198347 -0.0064104353 0.14749205 -0.1699565 -0.09919928
0.0037799687 0.17033271 -0.08817133 -0.021065826 -0.14915417 0.10402013 -0.010809661 -0.007427062
-0.012482148 -0.020794166 0.034793857 0.005723044 -0.092472374 -0.07429836 -0.059584614 -0.20363796
0.040046107 0.17176576 0.060187563 0.08600571 -0.02884929 -0.03543241 0.0075108535 0.11391839
-0.13062131 0.10010456 -0.11629765 0.10753763 -0.02106227 -0.120887026 0.0084952535 0.061431885
-0.06087292 -0.13547754 0.097085275 0.1471777 0.08575553 0.11414483 -0.016047824 0.035798945
-0.08758601 0.13900022 -0.14031953 0.07060598 -0.16435787 0.015497882 0.09485255 -0.09237478
0.12871423 -0.11073614 0.03904168 0.14452153 0.021229135 0.083194904 -0.0018544598 -0.092797585
0.123369955 -0.11419908 -0.08189026 -0.11980017 -0.15456699 -0.03090211 -0.11124131 0.053714268
-0.06258506 -0.0927786 -0.06968371 -0.12544252 -0.047606006 -0.0949548 -0.016736617 -0.11017279
0.09972592 -0.11428955 0.0923511 -0.10296862 0.12938201 -0.02701233 -0.08573684 -0.08262687
0.10470244 -0.13030481 0.04064887 0.15652508 -0.036944147 -0.11613604 0.12163595 -0.019294085
0.13222614 -0.1464895 0.11650917 0.033916324 -0.13742034 0.08167935 -0.03400932 -0.10313819
-0.10329754 -0.26459327 -0.06492918 0.08835317 -0.0043518115 -0.05183743 0.01717127 0.10339151
0.13852282 -0.09600203 0.04589731 -0.10035714 0.015341517 -0.04215408 -0.12848215 -0.17802502
-0.114382215 0.018342402 0.12921333 -0.06882819 -0.123544075 -0.12790672 0.03403321 0.05152028

critic.2.weight f4 [256, 256]
00000000: 82e8 1c3e d34a 6dbd 1550 a8bd edfc 48bd
00000010: dc6d 773e 92d5 28be 3a3e 89bc 0cf2 0f3e
00000020: 9c6a 4bbe 5f12 da3d 5a60 a53d 8452 81bd
00000030: 3359 9d3d 9b41 89be 376b 8e3d 042c e23d
00000040: 9472 15be dae6 0f3e d67d 05be d6b2 21be
00000050: 903c c43d 22d2 953d 23eb dabd 7385 0cbc
00000060: 63be 693e a165 7a3d c9da 073e f299 f33d
00000070: fa2e 17be 6325 393d 460e 893d e6c0 933d
00000080: 7abe 6dbe 3dcb 533e 8016 33bd 541c 66be
00000090: df1d d33d ee25 42bd cf03 1fbe d0da 12be
000000a0: 22ef 363e e1b7 63bb 593a ff3d bc37 87bc
000000b0: 4d48 5d3d 9cf7 803e 3151 343e b645 443e
000000c0: e736 543d 4eed 5dbe dcb4 343e 777f 8ebd
000000d0: b9df 033d 1c1e fc3d 8e78 5a3e a740 2c3e
000000e0: fd13 d9bd 85e0 123d 3e24 f03d 540d 1fbe
000000f0: 0e12 76bd 59c7 94be 5b03 543d 1604 7b3e
00000100: 72bb 2bbe 2401 d4bd 59d3 15bc ba74 f43d
00000110: 999d 06bd 8802 f53d 8459 243e 2e2d 973d
00000120: 0669 923d 7bd5 06be 30e6 023e 386d 1cbe
00000130: 2c42 b8bd 628e c4bd 7ac4 413e 9411 6b3c
00000140: fd38 20bd ddf8 df3d 4631 a63d 4e6f d0bd
00000150: 8cdc 91be 2b7a 403e 4f43 d13d 1225 49bd
00000160: 7a5a 46be ee80 8cbd ba1a ddbd 33b2 08be
00000170: f26a 893d 4a9b 193d 586f 363e 6ddd 8fbe
00000180: c3f5 d3bc 3d05 bebd 436f 8a3e 720c 5bbe
00000190: f8bb 293e 8e2c 963d 4465 02be 46c6 4dbd
000001a0: 975b b0bd 0de3 ef3c e3ce b5bd 51bf cb3d
000001b0: 041c 2b3d 0e1a a53d ce73 3b3e b5cc 92bd
000001c0: e8ce 3a3d db70 713e bb03 e43d ae27 033d
000001d0: 0384 c8bd 7186 433e 7ddc 77be 14f1 f2bd
000001e0: 7cd7 2bbe 8411 59be 6659 0fbe 6590 5f3d
000001f0: f4fa 493c 856d 6abe f660 a63d b5a3 c4bd
00000200: 919d f23c bb19 503e 8ef7 64be de70 0f3c
00000210: f09b 813e c485 eabd a0f4 3dbd 8130 a6be
00000220: 7bf3 523e 3bb2 343d 0bf8 d33d 9eb0 253e
00000230: f433 18be e8c0 d4b9 4003 933c ac8c 2c3e
00000240: 2f2a 3dbe 489c 063d 3a2c ae3d 780c 383d
00000250: b6e3 6abd 3faa c23d 3175 623e 55b5 82be
00000260: 646b a9bd daf4 c23c 36ca b73c 2598 083d
00000270: a985 273e a9d4 40be 46dd 8bbd 004c 863d
00000280: e4c1 5f3e 4ffa 253e 2f9c 123e 6605 52be
00000290: d6e7 67be b5a5 62bd 2a2d 393d 4906 5e3e
000002a0: 27e9 17bd a516 5dbe 5845 7bbe 7f9c d8ba
000002b0: f2b8 253d b30e 88be 90df 9dbd 9b58 0fbe
000002c0: 2c70 1ebe 4384 af3d 5a6d 793d d116 04be
000002d0: 2836 6abe 81b7 5c3e cc61 d4bd 4704 603e
000002e0: 2349 b83d b91e 03bd 4cd4 f5bc 6bbb 68ba
000002f0: dfec dfbd 39fb e13c 8fc6 e0bd 6028 34be
00000300: 220e 003e a909 1cbe 9bec 9abc 6880 57be
00000310: 3a86 24be b960 27be 74ce 33be 10be 07be
00000320: 5388 a73c 063d ef3d aeba 6b3d b3a2 d23d
00000330: b21d c9bd a320 9e3d b8bb 3b3e c94c fc3d
00000340: b5cc 723e 227f a43c f561 073d 6dba a43b
00000350: 4761 2cbc 4ea8 29be 5dee 3dbe 4b7b a03d
00000360: d46a 253c d24b a3bd 3980 5dbe 406e 3d3e
00000370: 205a a8bd d9a5 07bd a539 553d 01aa 50be
00000380: 8789 c03d 8eca 0bbd fefe e23c aa66 873d
00000390: 5db3 8cbd e7ca 3c3e 8611 223e e2b7 6dbb
000003a0: d855 ff3d f313 29be cdaa 813d 39fe 5d3e
000003b0: b6f0 fa3d 633c ff3d e0f8 b0bd 82f7 503e
000003c0: 6037 763d fec8 0c3e 6990 75bd 7b9d df3d
000003d0: c579 383e a401 793e 8d75 37bd 8186 39bd
000003e0: cfa6 1f3d d000 d5bc 3d9d 613d ba0c 98bd
000003f0: 69ba f23d f900 753e 0ae1 943c 2171 1c3e
0.1532307 -0.057932686 -0.082183994 -0.049069334 0.24163002 -0.1648772 -0.016753305 0.14057177
-0.19864887 0.10648035 0.08075018 -0.06314567 0.07683029 -0.26807866 0.06954043 0.110435516
-0.1459449 0.14052907 -0.13036284 -0.15790877 0.09581864 0.0731547 -0.1068938 -0.008576739
0.22826533 0.061132077 0.13267054 0.11894597 -0.14764014 0.04520167 0.066921756 0.07214527
-0.23217192 0.20682998 -0.04372263 -0.22471744 0.10308432 -0.047399454 -0.15528797 -0.14341283
0.1786466 -0.0034747052 0.12462301 -0.016506068 0.05402403 0.2518891 0.17609097 0.19167218
0.05181017 -0.21672556 0.17647117 -0.06957906 0.03219578 0.123104304 0.2133505 0.16821538
-0.105995156 0.03585865 0.11725663 -0.15532428 -0.060075812 -0.2905834 0.051761013 0.24513277
-0.16770723 -0.1035178 -0.0091446275 0.11936326 -0.03286514 0.119633734 0.16049773 0.07381664
0.07148938 -0.13167374 0.12783122 -0.15276039 -0.08996996 -0.0959747 0.18922606 0.014347453
-0.03911685 0.10936139 0.08114867 -0.1017748 -0.28488576 0.18796603 0.10217916 -0.04910762
-0.19370452 -0.06860529 -0.10796113 -0.13349228 0.06709851 0.03750161 0.17815912 -0.28098622
-0.025874024 -0.09278343 0.2703801 -0.21391466 0.1657561 0.07332717 -0.12733942 -0.050237916
-0.086112194 0.029283071 -0.08877351 0.099486 0.041774765 0.0806161 0.18305895 -0.07167951
0.045607477 0.23578207 0.11133524 0.032020263 -0.09790804 0.19094254 -0.24205203 -0.11862388
-0.1678142 -0.21198088 -0.13998947 0.054581065 0.012327898 -0.22893341 0.081239626 -0.09601537
0.02961615 0.20322315 -0.2236006 0.008754937 0.25314283 -0.11451295 -0.04637587 -0.3245888
0.20600693 0.044115286 0.10350045 0.16180655 -0.14863569 -0.00040579517 0.017945886 0.16850537
-0.18473123 0.032863885 0.08504529 0.044933766 -0.05734607 0.09505128 0.22115017 -0.2552897
-0.08272436 0.023798395 0.022435289 0.03334822 0.16359581 -0.18831123 -0.06829314 0.065574646
0.21851307 0.16208766 0.14317392 -0.20509872 -0.22647032 -0.05533381 0.045209087 0.21682085
-0.037087586 -0.2159067 -0.24538171 -0.0016526132 0.04045958 -0.26573715 -0.07708657 -0.13998644
-0.15472478 0.08570149 0.0608953 -0.12899329 -0.22872221 0.21554376 -0.10370216 0.21876632
0.08998325 -0.03201172 -0.030008458 -0.0008878025 -0.109338515 0.027585613 -0.10975372 -0.17593527
0.12505391 -0.1523806 -0.01891165 -0.21045077 -0.16066828 -0.1634549 -0.17559224 -0.13256097
0.020450747 0.11681561 0.05755108 0.10284939 -0.09820117 0.07721069 0.18333328 0.12319333
0.23710902 0.020080153 0.033052403 0.0050271065 -0.01052124 -0.1656811 -0.1854796 0.07836016
0.010096271 -0.07973446 -0.21630944 0.18499088 -0.08220315 -0.03311715 0.052056927 -0.20377351
0.09401231 -0.034128718 0.02770948 0.066113785 -0.06870148 0.18436776 0.15826997 -0.0036272933
0.12467545 -0.16511516 0.06331406 0.2167901 0.12252943 0.1246269 -0.08641219 0.20406917
0.060111403 0.13748547 -0.059952173 0.10918709 0.18015201 0.24317032 -0.04478984 -0.04529429
0.03897744 -0.026001364 0.055081595 -0.074243024 0.11851961 0.23926152 0.018173713 0.1527753

critic.2.bias f4 [256]
00000000: ecc8 5a3e 4288 6dbd 8571 883e daa2 f5bd
00000010: 0a77 5e3e ffd2 ce3b 11a0 713e 545b 9fb8
00000020: 8d0c 60be 3275 5ebe 6d6f a73d 0c83 95bd
00000030: 1ad1 a0bd 12b6 8ebd f8da 673e e23d 2c3e
00000040: 7c48 90be 7be3 36be 1cdf 0e3e 3100 4fbd
00000050: 7418 29bc 07f6 65be 4797 753e 83d6 9b3e
00000060: 0dd1 0c3e fb56 0b3e 2b74 39bd e2b5 2b3d
00000070: 6b28 c03d f743 833e b629 2abe 83df a23d
00000080: 9959 c93c 720c 19bd 1e07 213c 8a12 3a3e
00000090: 7b9e 933e a11f 883e 68f2 203e e47d 99bd
000000a0: 0698 383e 49bf 84bd 989f 48be 6db8 91bd
000000b0: 0136 57be ff01 72be 3c8a 88bd 5726 483e
000000c0: 45ad 553e 58ca 973e 30ca 703e ed17 cf3b
000000d0: 882a 613e 2068 513d 6c48 8ebe aaf1 0a3c
000000e0: de44 a23c ab6f fc3c d0a3 ba3d 694a 71be
000000f0: 48f2 d03d 875a 97be 52ef 6fbe 39c9 923e
00000100: 0230 cbbd bc9b 2b3d 5a25 5ebe cb76 8fbe
00000110: 0f0e b4bd 2757 0b3e e029 7b3e 152c 5a3e
00000120: 08b8 723d 62c2 95bd 5efa 87bd 1a64 0e3e
00000130: b826 3d3e 70b3 2e3e c0c7 39be f869 17be
00000140: 5ac5 413e 2d65 5bbe 6f34 b93d f328 a0bc
00000150: da74 6a3e 7e47 4a3e a4c8 8bbe 342a 583e
00000160: 0ba8 803e f5b3 583e ef5e 033e 548e 743e
00000170: 203b 5dbe 03bc 97bd 350b 88bd 6a21 5fbe
00000180: dbc7 66be 34e4 1fbe b5a1 c73c 3ed1 6dbe
00000190: 2510 763e 547b 1ebe 259b 8bbe 4519 cabd
000001a0: 5acf 7a3e 21bb 2e3e 59dc 2dbe 488b 773c
000001b0: d160 8dbe eec3 60be 05c6 8e3e 0453 1fbe
000001c0: 7e51 673e cfcd 82be e5ad 283e 5a71 33bc
000001d0: 8b1c 1cbe a780 2bbe a443 83be 3764 43be
000001e0: 40c6 503e b681 303e 6c44 35bd c0bd ec3d
000001f0: 0996 3e3e 2cce e3bd 210d 96be a897 483e
00000200: a5ba d93d f93d 963d ce50 593e b1fd 883d
00000210: 93b8 7ebd 90ab 9b3b 6aa3 57be c77a adbc
00000220: 0cce 6e3e 5105 1cbe 211b 6e3c fd57 203e
00000230: 3c05 64be 5c46 73be 4232 423e 4172 753e
00000240: 6576 febd b17a 8fbe 4a93 2fbe 4796 6c3e
00000250: 53fc 3f3e a602 8fbd 8b2c 71be da86 c0bd
00000260: 1db0 1d3d 1f7d 18be acfb 5f3e e1d0 f23d
00000270: 0bf7 f53d e122 4dbd 7062 393c c963 8dbc
00000280: c59d e8bd 0850 8a3e af32 3abe 532d 763d
00000290: d4c3 50bc db5b 193c 13a8 76be 373a 8abe
000002a0: ff1d 1c3e b990 6cbe a1f9 2dbe 8f71 623e
000002b0: ffdb 8f3e 2629 a7bd 250b 29be 52a5 2e3e
000002c0: d888 dcbd 1921 26be ac43 853e a638 1f3e
000002d0: fa5d 613c 29dd 503e 4ef0 be3d 9476 53be
000002e0: e786 b73b a329 583e 5aa4 bebd 1c05 513e
000002f0: 39fe 6d3e d875 85be 08eb 3abe 061a bebd
00000300: fa2a 8d3e 51d3 753e ce8a 1cbe 5fe0 2a3e
00000310: 37cd 3c3e d780 72bd 0501 2a3e 372e c63b
00000320: e7ef 8bbe 495f ca3d 5ad6 38bc 2f52 0bbd
00000330: 2cd6 fe3c b632 6cbe 623a 9fbd 9d9a 95bd
00000340: 049a 6abe a9d2 4ebe e3e0 6ebe 26ff cd3d
00000350: c133 f9bd bc9b 473e 6f8c 4f3e 0258 f63c
00000360: a476 0bbe 5b3f 56be 0fd6 3cbd c880 c83c
00000370: 1bbc 183d c338 39ba 0a99 24be 8857 583e
00000380: 9dfb 8b3e 89a5 7c3e a875 653e 79c9 87be
00000390: e447 0fbe c648 6e3e e930 67bd ad67 fabc
000003a0: 8ec7 19be 830f 063e b46f 63be d0c7 493e
000003b0: 06e5 6bbd 0add 313e 5690 4e3e d443 5dbe
000003c0: c4d0 483e c16b b63d c408 77be 6cc0 5abe
000003d0: 35af 103d d14e 4fbd e7ed c8bc 49e2 30be
000003e0: 5df4 adbd 843b ed3d fe86 45be ab73 493e
000003f0: f773 763d 3c4d 5e3e b2db 1fbc 71a1 503e
0.21365708 -0.057991274 0.2664911 -0.11993952 0.21725097 0.006311774 0.23596217 -7.598722e-05
-0.21879788 -0.21724394 0.0817555 -0.07300386 -0.07852383 -0.06968321 0.22642124 0.16820481
-0.281803 -0.17860214 0.13952297 -0.050537292 -0.0103207715 -0.22457133 0.23983489 0.30437097
0.13751622 0.13607399 -0.045276802 0.041921504 0.09382709 0.2563779 -0.16617474 0.07952788
0.024578856 -0.037365384 0.009828357 0.18171135 0.28831849 0.2658663 0.1571747 -0.07494715
0.18026742 -0.06481797 -0.1959213 -0.071152546 -0.21016695 -0.23633574 -0.06666991 0.19545875
0.20866878 0.29646564 0.23514628 0.006319991 0.2198888 0.051124692 -0.27789629 0.008480469
0.019808229 0.030814966 0.09113276 -0.23563541 0.102024615 -0.29561254 -0.23431137 0.28669146
-0.09921266 0.041896567 -0.21693936 -0.2802032 -0.08791744 0.13607465 0.24527693 0.21305878
0.059257537 -0.07312466 -0.066395506 0.13905373 0.18471801 0.17060637 -0.18142605 -0.14786518
0.1892294 -0.21425314 0.09043204 -0.019550776 0.22896138 0.19753835 -0.27301514 0.21109849
0.25128207 0.21162398 0.12829183 0.23882419 -0.21604586 -0.07408907 -0.066427626 -0.2179009
-0.22537176 -0.15614396 0.0243691 -0.23224351 0.24029596 -0.15476733 -0.27266803 -0.09868101
0.24493161 0.17063572 -0.16978587 0.015108891 -0.27612928 -0.21949741 0.27885452 -0.15559012
0.2258968 -0.25547644 0.16472585 -0.010952318 -0.15245263 -0.16748296 -0.25637543 -0.19081198
0.20388126 0.17236981 -0.044254705 0.115596294 0.18611921 -0.111233085 -0.29306892 0.19589102
0.10631303 0.07336039 0.21222231 0.06689013 -0.062187742 0.0047506765 -0.21058431 -0.021176709
0.23320788 -0.15236403 0.014532835 0.15658565 -0.22267622 -0.23757309 0.18964484 0.23969366
-0.12424926 -0.28023294 -0.1714603 0.23104201 0.18748598 -0.06982927 -0.23552148 -0.09400721
0.038498033 -0.1489148 0.21873349 0.11856247 0.1201001 -0.05008209 0.011314973 -0.017259495
-0.11358217 0.27014184 -0.18183397 0.06010182 -0.012742002 0.009360279 -0.24087553 -0.2699754
0.15245818 -0.23102082 -0.16989757 0.22113632 0.2809753 -0.08162145 -0.16508158 0.17055252
-0.107682884 -0.16223563 0.26028192 0.15548953 0.013755316 0.20396866 0.09323178 -0.20650703
0.0056007984 0.21109633 -0.09308691 0.20412105 0.2324151 -0.2606647 -0.1825372 -0.09282307
0.2757185 0.24006392 -0.15287325 0.16687153 0.18437658 -0.059204902 0.16601951 0.0060479897
-0.27331468 0.098814555 -0.011281574 -0.034013923 0.031107984 -0.2306622 -0.077748075 -0.07304881
-0.22910315 -0.20197548 -0.23327975 0.10058431 -0.121680744 0.19493002 0.20268415 0.030071262
-0.13619477 -0.20922606 -0.04610258 0.02447547 0.037288766 -0.0007065648 -0.16074005 0.2112714
0.27340403 0.24672522 0.22408164 -0.265209 -0.13992268 0.23269948 -0.05644313 -0.030567015
-0.1501753 0.13091855 -0.2221058 0.19705129 -0.05759146 0.17369476 0.20172247 -0.21607906
0.19610888 0.08907271 -0.24124438 -0.21362466 0.03532334 -0.050612275 -0.024527503 -0.17273821
-0.08493874 0.11583617 -0.19289777 0.1967303 0.060169186 0.2170915 -0.009756969 0.20374085

critic.4.weight f4 [1, 256]
00000000: aaba b73e f116 b03e 3d22 c83e af12 913e
00000010: 97bd b73e f369 0c3f b64a a83e bf47 99be
00000020: 3c28 cabe e0b4 893e 3f3f f7be 284d c7be
00000030: aebc 9e3e 8d1b 48be 7cd0 c13e 99de bf3e
00000040: b294 c7be fb1d a2be c0ec 023f e165 45bf
00000050: 145e a13e 0bd7 b3be 396b d03e 717c 94be
00000060: 7c42 3bbe 6cf7 b83e 8bc7 abbe 4e1a 96be
00000070: 7b8a 82be 15b4 b33e 5154 c0be 44f1 b0be
00000080: 0ad0 a8be 9823 cb3e 2d08 f03e 977b c13e
00000090: 4160 8ebe e2af b73e 2176 013f 8b8c 8b3e
000000a0: 6614 be3e 4019 07bf a83d c7be 6c6d f2be
000000b0: 55b0 8c3e 8880 b9be 379d 893e 21eb af3e
000000c0: 25af b93e 34be 91be 8176 c53e 5351 0ebf
000000d0: d658 af3e 052c d33e 2365 c1be 5a49 fc3e
000000e0: 2345 e73e ff6b 9bbe 6515 f33e e136 acbe
000000f0: f307 adbe 6b14 c8be be48 cabe 9a65 cd3e
00000100: ae0f 8c3e 72da bebe b92f b8be 5ec6 b4be
00000110: 492d d03e e48e 90be dd12 c73e 951d b83e
00000120: 544c d73e 6d02 0ebf 493e fabe 079f 103f
00000130: fb2c c23e ed5a b03e 0966 acbe 4264 843e
00000140: 9382 c33e 11b0 8c3e 47d4 b83e 5985 bfbe
00000150: 4b0b 91be 5749 a63e c8bb 803e 3255 c53e
00000160: d33d b73e f46d c43e dde6 90be e093 b03e
00000170: 8b66 bcbe bde4 023f 6128 c0be e778 b5be
00000180: 04d7 babe dc7e 833e c534 98be a809 c6be
00000190: d7f9 c53e 00d7 8f3e 2069 bebe 7a12 ad3e
000001a0: 6fa8 b93e 2f00 2a3f a8f3 bebe 81ef 093f
000001b0: 4357 c3be 2bf2 c4be 213e b33e 7364 c2be
000001c0: a0e1 ba3e 4ad1 bcbe 156b b93e 6cb1 7fbe
000001d0: 02e3 cebe 8613 c1be 78c4 8e3e dc99 c4be
000001e0: 6086 c53e 4816 c63e b343 26bf b8e4 9bbe
000001f0: 14db c53e 935a 873e 48d5 cfbe 7656 ee3e
00000200: a8d9 8abe b886 063f 9abe fe3e d998 ad3e
00000210: 06ac b53e 28ea e93e 8f1b c8be 7d62 b0be
00000220: 5414 b33e 8b9b 8f3e 6cde edbe 55db 193f
00000230: 1012 cebe 4fdc 913e 1b7d 90be 4005 c93e
00000240: c9dc f9be c40b 933e 752e 45bf 17e2 8fbe
00000250: 8f90 ad3e 22d7 f1be 4721 b1be 6cbe 323f
00000260: 0728 9fbe 0a4e bfbe a809 98be 3d8e ca3e
00000270: 03fd d93e 92d1 7d3e 1a82 183f 8a01 353f
00000280: 11a9 be3e b91a b43e a6a5 bfbe cc77 96be
00000290: be06 bbbe 617a a13e 5440 b7be 4351 a7be
000002a0: 4ea2 bc3e ed9b c1be 283d 8c3e 905e bc3e
000002b0: ab5d be3e e5d4 0bbf f8ee c4be f696 be3e
000002c0: 6ed4 c73e 1e9c bcbe 5344 ca3e 2e20 ba3e
000002d0: 05f9 ed3e c633 cd3e b7ef 89be cffe 8d3e
000002e0: 9101 8a3e 408b bd3e 94f7 8b3e 3443 dd3e
000002f0: ec45 b83e ddd9 c2be 7d9a bebe 192c c53e
00000300: 9b91 c63e 34c3 c23e dde2 bebe 3a8a c43e
00000310: 1304 b63e 08c5 d8be 029b ac3e 4dd5 38bf
00000320: 4be1 c7be 8ad4 803e 8607 9b3e 2d93 e1be
00000330: 824c b2be 175a cbbe bfba f5be 9bab f8be
00000340: 2a8d b0be 7c5e bebe 061c cbbe fa4b c93e
00000350: d897 933e 2d7f ca3e 1457 bd3e 64eb e2be
00000360: 9aed d9be dc08 c4be 2468 943e bf6f 87be
00000370: f037 e63e 5cad b7be 7ca1 ffbe 8fc7 c03e
00000380: 2d6b bf3e 3157 c33e d46a c83e a001 8f3e
00000390: 911b 8e3e 935b ca3e ee74 b5be f6c0 93be
000003a0: 9be2 b0be fb89 0c3f ae7d bebe 883f bf3e
000003b0: a621 13bf fcea 293f 3bef c03e b835 bcbe
000003c0: 7662 91be e7d8 c5be c738 babe edd3 c0be
000003d0: ae2f 97be a7a7 9f3e 44e4 ca3e 4404 b6be
000003e0: 9884 e9be 6f41 053f 63a8 913e 8521 bc3e
000003f0: 5d0c ab3e 24db c33e 1d72 d73e acf2 f63e
0.358846 0.34392503 0.39088622 0.28334567 0.35886833 0.54849166 0.328695 -0.2993755
-0.3948382 0.2689581 -0.4829044 -0.38926053 0.31003326 -0.1954176 0.37854373 0.37474516
-0.38980633 -0.31663498 0.511425 -0.7710858 0.31517088 -0.35125002 0.40706804 -0.2900119
-0.1828708 0.36126268 -0.33550677 -0.29316944 -0.25496277 0.3509833 -0.37564328 -0.3455907
-0.3297122 0.39675593 0.46881238 0.37789604 -0.2780781 0.35876375 0.50570875 0.27255663
0.37124938 -0.52772903 -0.38914227 -0.47349107 0.2747828 -0.36230874 0.26877758 0.34359077
0.36266437 -0.28465426 0.38566974 -0.5559284 0.34247464 0.41244522 -0.37772474 0.49274713
0.45169935 -0.30355832 0.4747726 -0.3363562 -0.33795127 -0.39078078 -0.39508623 0.40116578
0.27355713 -0.37276036 -0.3597391 -0.35307592 0.4065955 -0.28234017 0.3888158 0.3596007
0.4205042 -0.5547245 -0.48875645 0.56492656 0.37924942 0.3444437 -0.33671597 0.2585774
0.38185558 0.27478078 0.36099455 -0.37406424 -0.28328928 0.3247783 0.25143266 0.3854156
0.35789356 0.38365138 -0.28301135 0.3448782 -0.36796984 0.51130277 -0.37530807 -0.35443804
-0.3649217 0.25682724 -0.2972776 -0.38679242 0.38667175 0.2809372 -0.3718958 0.3380316
0.36261317 0.6640653 -0.3729527 0.5388108 -0.38152513 -0.3846601 0.35008338 -0.37967262
0.36500263 -0.36878425 0.3621451 -0.24970025 -0.40407568 -0.37710208 0.2788427 -0.38398635
0.38579082 0.38688874 -0.6494705 -0.30447936 0.38643706 0.2643629 -0.40592408 0.4655034
-0.27119184 0.52549314 0.49754792 0.33905676 0.35482806 0.4568646 -0.39083526 -0.3445014
0.34976447 0.28048357 -0.46458757 0.601003 -0.40248156 0.28488395 -0.28220448 0.39261818
-0.48801258 0.28719914 -0.7702401 -0.2810218 0.33899352 -0.47234446 -0.345957 0.6982181
-0.31085226 -0.37364227 -0.29694867 0.39561644 0.42575845 0.24786976 0.5957352 0.70705473
0.37238362 0.35176638 -0.37431067 -0.29388273 -0.3652858 0.3153868 -0.35791266 -0.32679185
0.3684258 -0.37814274 0.2739041 0.36790895 0.37180838 -0.54621726 -0.3846357 0.3722455
0.39029258 -0.36837858 0.39505252 0.36352676 0.4647905 0.40078562 -0.269407 0.27733466
0.2695432 0.37020302 0.27337325 0.43215334 0.35990846 -0.38056841 -0.3722724 0.38510206
0.38782963 0.38039553 -0.37282458 0.38386708 0.35549983 -0.42337823 0.33712012 -0.7220047
-0.39039072 0.25162154 0.30279177 -0.440576 -0.34823996 -0.3971717 -0.47994038 -0.48568425
-0.344827 -0.3718146 -0.39669818 0.39315778 0.28826785 0.39550152 0.36980498 -0.44320214
-0.42564088 -0.3828801 0.28985703 -0.26452443 0.44964552 -0.3587445 -0.4992789 0.3765225
0.37386456 0.3815246 0.39144003 0.27930927 0.27755406 0.3952299 -0.35440773 -0.28858155
-0.34547886 0.5489804 -0.3720526 0.37353158 -0.5747322 0.6637418 0.37682518 -0.36759734
-0.28395432 -0.38642046 -0.36371443 -0.37661687 -0.29528564 0.31182596 0.39627278 -0.3555013
-0.45608974 0.5205297 0.2844878 0.36744323 0.3340787 0.3825313 0.4207925 0.4823202

actor.0.weight f4 [256, 42]
00000000: db2b c5bb f04e 23be bad8 5d3c 2bd3 17be
00000010: f324 ee3e ead1 b63e f983 2ebd 862c 11bb
00000020: 0422 bfbd 32a6 1bbe dedc 67be 0de2 6fbe
00000030: 6401 f03d 5dd5 3cbc 95a8 11be 6cfd 07bf
00000040: 0946 0fbf 72f4 3d3e 7897 413d 80e0 20bb
00000050: 90b1 36bd 157a 64be fc11 263c cf06 d43d
00000060: 41b7 45bc 237c d43e 3eff 853d 72cd a63d
00000070: d992 a73c 2d92 8abd 9323 5b3e 3978 7a3e
00000080: b1ad 353e f65f cf3c 9b9c e53d 5a97 a03d
00000090: b68a d6bb 334d 1f3e 89a1 2e3e de15 5b3e
000000a0: 7bdf e6bb 6e4f a03e 4520 cb3d 2904 383e
000000b0: 0470 373e 7356 823e 19a2 423d 89a1 823c
000000c0: 7836 3dbe 1a8b 673e 3e35 d23d 2f91 febd
000000d0: 04ad 823e c5a3 273e e5f1 cb3d 8134 573e
000000e0: d136 253d 3bde f5be 61ed 92be e47f a93d
000000f0: 33fb 263e 906c 8d3d a17d 3cbe 4556 e8be
00000100: 8227 743d a794 833e 2e58 153e 8d3b 4f3e
00000110: 82b8 f43d e47c 843e c970 19be 3d3b ec3d
00000120: fec8 da3d 6445 91bd 6857 5e3e 609a 46be
00000130: 9082 283e 6864 b03c 8338 7e3e 84ae 823e
00000140: b509 d73d 8149 2fbe 79df 86be 67ed d53e
00000150: f1f5 0b3c 6ddf 143e 499f 813e 49ff 793e
00000160: 4374 81bc 5b6b 7bbe 050a a2be 3e06 2d3e
00000170: 2b0d 403e a280 8b3d 30d5 e63d 1fee 99bc
00000180: d86e 593e b76f 413e 12c8 193e 8488 ec3d
00000190: 04e7 573b e520 4b3d 22a7 fbbc 8014 833b
000001a0: 66ff d0bd d0a5 12be 14d9 433e a08c aabc
000001b0: fdc8 fcbd fb4f 4b3e 9ec2 493e 5827 4f3d
000001c0: 2ffc 2abe 6546 38bd 5e34 58be 7e3a b4be
000001d0: 6f1f 623b 5ee0 c6bc 03bc ebbe 7bd9 063e
000001e0: a879 1abd 316f cf3d 79c2 70be 86af 30be
000001f0: e7f9 bbbe 6445 3fbc e192 4ebe c3dc 313e
00000200: c204 ffbd 1e56 1a3e 22b0 8f3f 7412 04be
00000210: 2a05 ae3c e2db d0bd e39b 32be 967a 96bd
00000220: 2da3 d33e f58a 583e 5e94 80be 8b5b 443d
00000230: 496d 00be dde6 0bbe af61 36bd a15b 823d
00000240: eb53 04bd 72a4 dc3d c71b 05be 98b5 e7bd
00000250: fb54 be3d 37f9 66be c61f 35be ea5f 5bbd
00000260: 83ab 763e 1810 a83d a0cc 2e3e 0e07 cdbc
00000270: 6c75 babe ecf8 8abe 5356 39be fbfc aa3d
00000280: aadc 05be 04f0 7cbd e44e 54bd d592 793e
00000290: 8047 ffbd 332b a1bd 8313 babd 45cb ad3e
000002a0: 4acb 4fbd df05 ff3d d86f a3be d250 1e3d
000002b0: 5cd5 2f3f 28cb 1a3f 7a2c 833e 8ada 093d
000002c0: 295a a9be 96d8 d23d 8fd5 833d 03f8 59bd
000002d0: 7ed3 a03d bf01 663d b886 abbc 310f 8cbe
000002e0: 6bcc 6dbe 62d9 08be 5d18 41bc 2f07 013e
000002f0: 7b56 31be 74d9 e8bd 97a5 0a3b 9c2d 63bd
00000300: 97cf 8cbe 61b6 62be bd6f 9ebe 9cfc a4bd
00000310: 93d5 773d 0c4a 063e 2c0f b43e 3659 2b3e
00000320: 91ed be3d b465 a73d 7bd1 293e 803d 483b
00000330: a516 163e 7f0e 9f3b e08d c9bc c2bf 7b3e
00000340: 64ea 083e 5452 e83c 8749 0a3e cbc8 f43d
00000350: 115a 6bbb 4b3e f9bd 6f87 483d 843b b83d
00000360: 5404 ccbb dc5d 2f3e a0e3 05be 2a01 67bd
00000370: 2875 cdbe f273 d5be ec77 3f3d d17e fb3c
00000380: ddd0 91bd 9f4b 2ebe 3b34 abbe cec6 4e3e
00000390: bf56 923d c819 b73c 818d 883e 0e77 b1bd
000003a0: f26e 60bd 55f4 4e3e 8cc8 c03e 3528 993e
000003b0: d43e ad3d 31b3 2c3e 336b b93d 61b6 14be
000003c0: 092e 5b3e 0b61 8f3e 20eb 993e f495 193e
000003d0: 1ead a63e 9bda 80bd 00c0 103e 6db7 343e
000003e0: 1886 b53d 82bb 523e a5ed 553e 5f86 0fbe
000003f0: f093 043e dcf8 7cbe 19ab 18bd ceb3 f43a
-0.006017191 -0.15948081 0.013540441 -0.14826648 0.46512565 0.35707027 -0.042606328 -0.0022151782
-0.0933266 -0.15200117 -0.22642848 -0.23426075 0.11719015 -0.011525479 -0.14224465 -0.53121066
-0.5596624 0.1855028 0.047263592 -0.0024547875 -0.04460293 -0.22312196 0.010136124 0.10352861
-0.012067617 0.4150096 0.06542824 0.08144654 0.020455765 -0.06766162 0.21400289 0.24459924
0.1774204 0.025314312 0.11211511 0.07841368 -0.0065472974 0.15556793 0.17053808 0.2139506
-0.007045684 0.313106 0.09918264 0.17970337 0.17913824 0.2545658 0.04751787 0.015946167
-0.1847781 0.22611657 0.102640614 -0.12430035 0.25522625 0.16371067 0.09958247 0.21016122
0.04033548 -0.4802111 -0.2869673 0.08276346 0.16306762 0.06905472 -0.18407299 -0.45378318
0.05960799 0.2569935 0.14584419 0.2023756 0.119492546 0.25876534 -0.1498443 0.11534736
0.106828675 -0.07093313 0.2171303 -0.19394827 0.16456056 0.021532252 0.24826245 0.2552377
0.10499898 -0.17117883 -0.2634237 0.41782686 0.008542524 0.14538355 0.25316837 0.2441379
-0.015802508 -0.24552672 -0.3164827 0.16896912 0.18755023 0.06811644 0.11271131 -0.018790303
0.2123369 0.18890272 0.15017727 0.11549476 0.0032944093 0.049591918 -0.030719344 0.0040002465
-0.102049634 -0.14321065 0.19125777 -0.020819008 -0.12343023 0.19854729 0.19703147 0.05057463
-0.16697763 -0.04498901 -0.21113726 -0.35200876 0.00345036 -0.024276908 -0.4604188 0.131689
-0.037713677 0.1012863 -0.23511685 -0.17254457 -0.36714098 -0.011674259 -0.20173217 0.1736937
-0.12452079 0.15071914 1.1225626 -0.12897664 0.021242697 -0.10198189 -0.17442279 -0.073476
0.4133543 0.21146758 -0.25113195 0.047938865 -0.12541689 -0.13662286 -0.044526752 0.06365133
-0.032306593 0.10773553 -0.12998877 -0.11313933 0.092935525 -0.22556005 -0.17687902 -0.053558268
0.24088864 0.08206195 0.17070246 -0.025027778 -0.3641771 -0.27143037 -0.18099336 0.083490334
-0.13072458 -0.061752334 -0.05183305 0.24372418 -0.124648094 -0.07869568 -0.09085753 0.33944145
-0.05073098 0.12452292 -0.31921268 0.038651295 0.68684936 0.6046624 0.2561987 0.03365568
-0.330766 0.10295217 0.064372174 -0.053215038 0.07852839 0.05615401 -0.020938262 -0.2735534
-0.2322251 -0.13364175 -0.011785594 0.12600397 -0.17318146 -0.11369601 0.0021155828 -0.05546342
-0.27502128 -0.22139885 -0.30944625 -0.08055994 0.060506415 0.13114184 0.35167825 0.1673325
0.09322656 0.08173695 0.16583817 0.0030554235 0.14657076 0.004854023 -0.024603784 0.24584869
0.13370663 0.02835957 0.13504611 0.11952361 -0.0035911838 -0.121700846 0.048957285 0.08995727
-0.006226102 0.17125648 -0.13075113 -0.056397595 -0.40128446 -0.41690022 0.046745226 0.03070012
-0.07119916 -0.17021035 -0.33438286 0.20193025 0.07145452 0.02235116 0.2667046 -0.08665286
-0.054793306 0.20210393 0.37653005 0.29913488 0.08459249 0.16865231 0.0905365 -0.14522697
0.2140428 0.28003725 0.300622 0.14998609 0.32553953 -0.06291696 0.14135742 0.17648096
0.08863467 0.20579341 0.20891435 -0.14016102 0.12947059 -0.24704307 -0.037272546 0.0018669309

actor.0.bias f4 [256]
00000000: a5f2 03bb 8849 fe3d e17a 143e 5857 1abe
00000010: 48ea a83d 915a 703e cfae 4d3d 45dc 21be
00000020: 901b 953c 35b0 0cbe e74c 143d 6c62 cfbd
00000030: 352c 21be 2ccf 9d3b 3bc8 543d 323f 82ba
00000040: c082 183e ecf9 26be 041e fcbd a7e6 233e
00000050: c986 2fbe ce72 413d 33c1 02bc 0a3c f0bd
00000060: ba76 973c bd87 103e 656c 0c3e 30ba cabb
00000070: 50f5 d73d 8e1e 8f3e 3e2e 883d 9eb0 303e
00000080: 71a7 5abd 5c7a a0bc d8b9 7bbd c5db 73be
00000090: e9df 3c3e 247a 3ebe 7094 37bd 6788 52be
000000a0: affb 1fbc 6bd6 c0bd b09b ac3d 58c5 0c3b
000000b0: cf92 2ebe b266 4dbe 0a37 363e 48c6 cabc
000000c0: aa84 d23c 8771 2cbc 54bc dfbd 97c8 b93b
000000d0: 77d7 113c fa9f 903d 2156 f9bd eb8f 9b3d
000000e0: c6b7 cfbc 61be 46bd 5c1b a73a 68c6 b23c
000000f0: 6d3b f6bd 6da3 493d b837 6a3d cbf5 e8bd
00000100: 37ab abbc c2a4 f0bc 3905 08bd af56 223e
00000110: 53f4 c0bd 485d 67bc a96d bb3c 2343 ab3d
00000120: e544 213e 9bec c9bd 4768 2b3d aa3e 08be
00000130: db4a 753e 42e3 86bd 6cd8 fcbd 7a5f 603d
00000140: 3303 c4bd 04bf 1fbd 3bea aebd 1f87 58bd
00000150: 7a43 8ebd a431 6a3e d8bc c9bd 7dfb f13d
00000160: bcd6 78bd 6b55 c73d 73f0 3b3d 6b31 06be
00000170: 6127 fb3d 87df fd3b a95d 7fbc 14ec 28be
00000180: 98da c33d d38d a03d 4c44 83bc b6e9 1cbe
00000190: b360 113d 2fbd 51be 2b30 94bb 9032 86be
000001a0: 4173 b33b ac9a 6c3d 8f17 bcbd e2af 10be
000001b0: 0663 213e 6e9f ba3d 3e1b 55be 55e2 243e
000001c0: 5e46 dd3c b2a1 a33d f89a 6f3e c500 e33d
000001d0: 95dd b53c bac7 b0bd 9e16 82bd 865c a7bd
000001e0: 410a aebd e172 be3d 6ef4 383d 6827 26be
000001f0: 9702 86bd 49d8 8a3e 6039 afbc c6bf 9dbd
00000200: 9e49 203d 91dc edbc 0755 5a3e aeff 12bc
00000210: de70 40be 0a65 5f3c 657f 67be d13d b8bd
00000220: 103c 303e 8d57 b1bd 6419 31be b404 2bbd
00000230: 4f85 dabd 34be 033c 7d0b cbbc 9cba b6bd
00000240: 4c00 0a3d 68af dbbd 218f 793e 0c2c f13b
00000250: d85c cbbd 83ad 1bbe 39e4 0d3b b22f d5bd
00000260: 451c 983b e456 fdbd 4431 df3d 1962 4fbc
00000270: 0843 87bd 51f1 ac3d 761c ea3d 437f a03d
00000280: d007 053e c652 b83d 2787 e93c 5c1e d83d
00000290: 15ff 66be cd12 a13b cc71 e2bc dc5c 353c
000002a0: c884 5c3e 92c8 74bd 1c54 3cbe fcba 1e3e
000002b0: 6190 57bd d684 5ebe b3b7 813d fe53 4e3e
000002c0: 393e 16bc e54f 923d 45f0 6f3e 5a42 adbd
000002d0: 272e 67bd 9696 8c3d e045 8dbd 985f 623d
000002e0: 6214 0ebe 3e1a dbbd 455a 3d3e 07dd 2ebe
000002f0: 3629 993d 8ece 49bd 09d9 85bd 5db7 1c3e
00000300: 8df5 cc3b 27f4 a4bb f488 0cbb cd9e 82bd
00000310: 26ad 55bd c74d df3d c48a 0f3d ebaf 903d
00000320: 1745 853e 6df5 1e3b e085 17be 1498 f53d
00000330: 8115 f3bc 8415 133d 1742 3ebe ada1 82be
00000340: 704d 3cbe ed18 b9bc e7af f63d f438 5ebd
00000350: a89e 8f3d e790 083e bdb9 273e 7ecd 7e3c
00000360: 8495 6f3e 75e9 29be 6a32 09bd 4195 e0bc
00000370: 28a0 1fbe 8aea 02be d041 6dbc e650 e1bd
00000380: 7e1d da3d e1ef a5bd 61af b03d 75a3 47be
00000390: 506e a8bd e98b cf3c 4aa6 f73d 8e07 d53d
000003a0: 073d 41be 56d2 c6bd af8d 1e3e d73c 99bd
000003b0: 4229 32be 0a70 00bc b4d2 3ebe c679 a3be
000003c0: a182 a2bd cfb4 b8bd d692 54be ce55 0b3e
000003d0: c38d 603d 035e 4d3e 0c63 8a3e 3086 22bb
000003e0: 43b2 d53d ed1a 88be b24f 12bc f2f3 d73d
000003f0: fe49 23be 5aca eb3d c97a cabd 04aa 74bc
-0.002013364 0.12416369 0.145 -0.15072381 0.082478106 0.23472048 0.05021554 -0.15806682
0.01820162 -0.13739093 0.036206152 -0.10126194 -0.1573952 0.0048159566 0.051948767 -0.0009937047
0.14893627 -0.16306275 -0.123104125 0.16005956 -0.1714126 0.047228627 -0.007980633 -0.117302015
0.01848923 0.1411428 0.13713224 -0.006186746 0.105448365 0.27953 0.06649445 0.17254874
-0.05338234 -0.019589595 -0.06145653 -0.23814304 0.1844479 -0.1860128 -0.044819295 -0.20559846
-0.009764596 -0.09415897 0.084281325 0.002147993 -0.1704819 -0.20058706 0.17794433 -0.024752751
0.025698025 -0.010525114 -0.109245926 0.005669664 0.0089014685 0.07061763 -0.12174631 0.075958095
-0.025356185 -0.048521403 0.0012749243 0.021823123 -0.12023053 0.04922812 0.057182044 -0.11375006
-0.020955665 -0.029375438 -0.033208106 0.1585338 -0.09421601 -0.014121361 0.022879438 0.08362415
0.15748937 -0.09859582 0.041847493 -0.13305154 0.23954336 -0.06586315 -0.12345967 0.054778554
-0.09570923 -0.039000526 -0.0854077 -0.052863237 -0.06946464 0.22870499 -0.09850472 0.11815546
-0.06075166 0.09733089 0.045883607 -0.13104789 0.1226337 0.007747594 -0.015586295 -0.16496307
0.09563178 0.07839551 -0.016023777 -0.15323529 0.03549261 -0.20482324 -0.0045223436 -0.2621045
0.005476386 0.057764694 -0.09184181 -0.14129594 0.1576043 0.0911244 -0.20811173 0.16101964
0.027011093 0.07989825 0.2339896 0.11084131 0.022200385 -0.08631845 -0.0635197 -0.08171944
-0.084980495 0.09299255 0.04515498 -0.1622597 -0.06543463 0.27118137 -0.021389663 -0.077025935
0.039132707 -0.029035838 0.21321498 -0.008972092 -0.18793055 0.013634929 -0.22607191 -0.089961655
0.17210412 -0.08659277 -0.17294842 -0.041752532 -0.10669958 0.008040953 -0.024785751 -0.08922312
0.03369169 -0.107268155 0.24371006 0.007359987 -0.09929818 -0.15202908 0.0021650924 -0.10409488
0.004642042 -0.12370089 0.108980685 -0.012657666 -0.06604582 0.08444465 0.1143121 0.07836773
0.12991261 0.09000163 0.028506828 0.105526656 -0.22558244 0.0049155713 -0.027642153 0.011069503
0.21535027 -0.05976159 -0.1839146 0.15501016 -0.052627925 -0.2173036 0.06333866 0.20149228
-0.0091701085 0.07144145 0.234315 -0.08459921 -0.0564405 0.068646595 -0.06898093 0.055266947
-0.13874963 -0.10698365 0.18491466 -0.17076503 0.074785635 -0.04926925 -0.06535537 0.15304323
0.006254858 -0.005033988 -0.0021443935 -0.06377945 -0.05216708 0.10903507 0.035044447 0.07064804
0.26029274 0.0024255172 -0.14797163 0.11991897 -0.02967334 0.03590919 -0.18579899 -0.25513974
-0.18388915 -0.022594893 0.120452695 -0.054253533 0.07012683 0.13336526 0.16379447 0.015551923
0.2339688 -0.16592963 -0.033495344 -0.02741492 -0.15588439 -0.12784782 -0.014481023 -0.11001758
0.106501564 -0.08102394 0.08627201 -0.19495948 -0.082241654 0.025335269 0.12092264 0.104018316
-0.18870936 -0.09708087 0.15483736 -0.074823074 -0.17398551 -0.007839212 -0.18635064 -0.31928843
-0.07935072 -0.090188615 -0.20759138 0.1360695 0.054822695 0.20055394 0.27028692 -0.002479922
0.10434391 -0.26583043 -0.008930134 0.10544576 -0.15946195 0.11513205 -0.09886701 -0.014933113

actor.2.weight f4 [256, 256]
00000000: 20f1 993e 0a2f a1bc cefd a13e 2049 e23d
00000010: 985a 663e 8805 c8be 04d4 24bd 66be a8bd
00000020: 2cbd 493c f631 a3bd f8ae d73d d88d 7b3e
00000030: c076 3c3e 4342 b8bc d437 69be 2720 503e
00000040: 14d4 43bd 3c30 bbbb 4084 37be 0a83 953d
00000050: f0a2 f83e 1d30 9a3e 7200 5d3d 4acc b2bd
00000060: cfe6 75bd fca6 283e 3706 253d b48f 40be
00000070: 16fe b7bd 1e7a d8bc 35a6 afbd b09e 243e
00000080: 5e13 9f3d e683 853d 4381 833e ecc5 893d
00000090: 77e9 013e 7344 a3bd b85a 05be 9467 02bf
000000a0: cfcb aabe b8b9 a2bd 9334 25be b1a4 b0bc
000000b0: 77bf b13e ae65 c6be 15f2 b03e 32a7 a13d
000000c0: 56a9 1b3f 3e55 59be dc53 063d 4a2d 83bd
000000d0: e49c 2f3e 2f5d 9f3c aabc fcbd 602b 8fbe
000000e0: 1ee6 a53e bed7 9c3e e427 af3d 8648 19be
000000f0: 7ddc 183e b660 df3d 5293 6dbe 7e80 d6bd
00000100: 9bd1 81bd 4408 cb3c 5ae7 6dbd 5303 eabe
00000110: b83f 5f3e aa61 e23d 9e86 403d 970b 65bd
00000120: 7757 4abd 7a00 0fba 901d 08be f2f3 21bf
00000130: 7a0e f43e 843c d73d 00e6 d23e 54b6 9b3e
00000140: 00d6 913d 2981 d8bd 0ed0 5abe 8d5e 053d
00000150: f7b5 29be 5a7e f2bd 5b7e a1bd 2f8e d53d
00000160: 7228 bdbd 4f05 6e3e 68d3 7fbe 9ba6 a83d
00000170: 321b 91be 9172 cfbd 74ae ffbd df3b 0bbf
00000180: d875 633e 1a15 88be eace 163e 78ee 4a3c
00000190: 9bec 83bd bd3e a5be d12d 453a 67e1 303e
000001a0: 7e3e 50be d2a8 84bd 9ad1 b83d f482 5ebe
000001b0: 3a62 773e 24a4 24be aa13 d9be a057 7b3e
000001c0: 234b 4d3c 9242 603e d923 573d 0b39 ca3d
000001d0: f0b5 d4be 12a5 903e 2292 fe3d 4871 bbbd
000001e0: bb95 c3bd d2ac d13c 1ce6 41be f023 15be
000001f0: b9c8 a53e 842d f33d e480 b8be 009a 263d
00000200: 2905 ed3a 18f4 cf3d 9aad 05be 0aa1 783e
00000210: 0d3c 96be eb70 173d cbc6 5d3d d5d8 7a3c
00000220: a23f 1b3f 7326 37bd b5d0 503c cdc7 fb3c
00000230: 8e58 0fbf bffe 9cbd 0357 d6be b988 6a3c
00000240: 670f e3be 5cb6 463d 762a acbd 1de6 b1bc
00000250: 7020 b43d 2d3d 753e 5636 013e ec5e cfbd
00000260: 2148 f93e 4cf8 c3be 91f9 a2bc 783a 2b3e
00000270: a5db 823c 52fc 8b3d 6285 3e3d d0fa 72bd
00000280: 0ff7 a93e 4024 dd3e 01ba d73d b351 653e
00000290: a3a6 21bd 3d7a 81bc 879d 8d3e 32a8 633e
000002a0: 8791 04be 3a83 e83e 4956 d83d d4be d13c
000002b0: 9eb1 1e3e 1435 1fbe f886 e8bd 7cce a13e
000002c0: 038e a1bd cacf 133e 48bd 3d3e d0c9 ccbd
000002d0: b50f 853e f2bd e83d dded 3bbe 3e78 73bd
000002e0: a36a 923e 2f57 ccbe 053a 6f3d 46a5 c33d
000002f0: 10d4 13bd 49be a0be cbf0 18bd aec5 243f
00000300: f09d 83bd 921d babe c858 f6bd 167e 1dbe
00000310: 1bdb babe ba0b 943e d9b0 b13c 6e21 0b3e
00000320: 949a 42bc 432c 543e f0d4 683b 96d3 923d
00000330: 2490 513e 545c b03e 51e2 1c3d 9b69 053e
00000340: 2ef8 e7bd c196 13bd 41ac 78bb 1c07 80be
00000350: 8f67 863e c42b 853d edf8 b8bc 8c25 62be
00000360: aec7 9f3c 3a28 c9bd c0ae 3fbe c26d dfbd
00000370: 1fcb 5cbe 2171 113d f7ad a63b d045 163e
00000380: 3c2f 9ebe 237c 833b 40fa 193d 12c8 093c
00000390: 23cf 00be 053f d7be 10a5 2bbe 7aaa 4cbe
000003a0: 2980 803d 668b 6e3d 8bfe 6d3c 6b06 2fbd
000003b0: 6373 783d 7780 d2bc e820 73bd e950 4dbe
000003c0: d95d 9f3d 58dc 20bf 6da9 92be b7a1 133e
000003d0: 67d7 d33d 2bf6 5f3e b629 613d 2f79 c63e
000003e0: 170a c9be f734 cd3d d4d4 6e3b bdd9 fcbd
000003f0: f9f9 0d3e 8fa3 afbd a363 053e d30d a93d
0.30066776 -0.01967575 0.3163895 0.11049104 0.22495496 -0.3906672 -0.040241256 -0.082394406
0.0123131685 -0.07968514 0.105314195 0.24565828 0.18404675 -0.022492534 -0.22775203 0.20324765
-0.047809675 -0.005712537 -0.17921543 0.07300384 0.4856181 0.30114833 0.053955503 -0.08730371
-0.06003457 0.1646995 0.04028913 -0.18804818 -0.0898401 -0.026425418 -0.08576623 0.1607616
0.07767366 0.06519298 0.25684556 0.06727204 0.12686716 -0.0797204 -0.13022888 -0.509393
-0.3335862 -0.07945579 -0.16133337 -0.021562906 0.3471639 -0.3874945 0.34559694 0.07893218
0.6080526 -0.21223924 0.03279482 -0.064051226 0.17149693 0.019453613 -0.12340672 -0.2796278
0.32402128 0.30633348 0.085525304 -0.14969072 0.1492786 0.10907118 -0.2320073 -0.10473727
-0.06338807 0.024784215 -0.058081962 -0.4570566 0.2180165 0.11053784 0.04700338 -0.055919256
-0.04939982 -0.0005455088 -0.13292527 -0.63262856 0.47667295 0.10509589 0.411911 0.30412543
0.071208954 -0.1057151 -0.21368429 0.032560874 -0.1657332 -0.11840506 -0.078854285 0.1042751
-0.0923623 0.23244213 -0.24982989 0.082349025 -0.2834106 -0.10129274 -0.12484446 -0.5438823
0.22212923 -0.265786 0.14727369 0.012385957 -0.06441613 -0.32274428 0.0007521781 0.17273484
-0.20336339 -0.064775124 0.09024353 -0.21729642 0.24158564 -0.1607824 -0.42397815 0.24545145
0.012530121 0.21900395 0.05252442 0.09874161 -0.41545057 0.2825094 0.12430216 -0.09152466
-0.09550043 0.025595102 -0.18935436 -0.1456449 0.32379702 0.11873916 -0.36035836 0.04067421
0.0018083203 0.10153979 -0.13054505 0.24280182 -0.2934269 0.03697292 0.054144662 0.015310486
0.6064397 -0.044714402 0.012745072 0.03073492 -0.559945 -0.076657765 -0.4186326 0.014314824
-0.4434769 0.048513755 -0.08406536 -0.021716172 0.087952495 0.23949118 0.12618384 -0.10125527
0.48687842 -0.38275373 -0.019894393 0.16721523 0.015973875 0.06835236 0.046513923 -0.059321225
0.33196303 0.4319172 0.10533524 0.22394447 -0.039465558 -0.015805358 0.27659246 0.2223213
-0.1294614 0.45412618 0.105633326 0.02560369 0.15497443 -0.15547591 -0.11353868 0.31602848
-0.07888415 0.14434734 0.18529236 -0.0999943 0.25988546 0.11364354 -0.18352456 -0.059440844
0.28596982 -0.39910266 0.05840494 0.09553008 -0.03609091 -0.31395176 -0.037339013 0.64364135
-0.064266086 -0.36350685 -0.120286524 -0.15380129 -0.3649529 0.28915197 0.021690773 0.13586971
-0.011877675 0.2072001 0.0035527311 0.07169263 0.20465142 0.3444544 0.03830177 0.13028567
-0.113266334 -0.036032442 -0.0037944468 -0.25005424 0.26250884 0.06502488 -0.022579635 -0.22084635
0.019504394 -0.09822126 -0.18719006 -0.109096065 -0.2156186 0.03550828 0.005086656 0.14675069
-0.30895412 0.004012601 0.037592173 0.008409517 -0.12579016 -0.42040268 -0.16762185 -0.19986907
0.062744446 0.05823841 0.01452602 -0.04273073 0.060656916 -0.025696022 -0.059357554 -0.20050396
0.07781572 -0.6283622 -0.28644887 0.14417158 0.10343819 0.2187125 0.05497142 0.3876433
-0.3926551 0.10019868 0.0036442773 -0.12346218 0.13864888 -0.08576118 0.1302629 0.0825459
