models/ho_policy_ep0.pth (torch, 628178 bytes, 11 tensors)

critic.0.weight f4 [256, 42]
-0.28497273 -0.35548705 0.67444146 0.3596692 0.22296084 -0.17607556 0.52983886 -0.2750364
1.1453336 0.59010357 -1.6699076 -0.39259723 0.10550343 0.16757107 -0.57655925 0.41327292
0.6957571 0.3375583 -0.318456 -0.7261668 -0.31116307 0.20897123 0.45581022 -0.21456066
-1.5847243 -0.64152473 -0.16002518 -1.4915966 -0.37444922 -1.0473542 0.13487008 1.3468356
-0.7990393 1.8779837 -0.5351694 -0.12228267 0.3429951 -0.05579917 0.06495769 -0.32699957
-0.8711039 0.49564815 -0.38218045 -1.0844618 -0.7152285 0.16292526 0.043995444 -0.54365236
0.22876969 -0.25741184 -0.8961972 0.047218364 -2.9945855 -0.7888166 -0.26068726 0.5230441
0.29998103 -0.93847764 -0.31599918 0.09076432 0.5681616 -0.752604 -1.9837081 -0.42365807
0.9072685 0.21055529 0.042632803 0.37095457 1.284983 1.2638242 -0.5299542 -0.7901034
-0.18717796 -0.5521739 -0.080628924 -1.0654525 -0.21692358 0.016895607 0.16152926 0.50559694
0.689528 -0.6395642 -1.5483133 1.2600139 -0.32475206 -0.62226385 -0.32973725 0.28297117
0.29655594 -2.845153 -0.3939187 -0.3628859 1.3399204 -0.4287718 -1.9935362 -0.007680101
-0.048680775 0.44183722 0.42190027 -0.304055 0.256333 0.5016075 0.07667789 -0.4000764
1.161608 0.70420474 0.6685107 -0.2877094 -0.22878996 0.001666089 1.0006752 -0.6467563
-0.80947584 -1.3259958 -0.6449052 -1.2928892 -0.9079335 0.60257256 -0.57637584 -0.0090198815
0.2407844 -0.00087504176 -0.11621038 1.2723149 -0.5321661 -0.6853568 0.3896647 0.30806217
1.0304297 -0.6358731 0.030519733 1.3696566 0.26963282 0.3017649 0.8179527 -0.24805729
0.495405 -0.25624916 0.42315686 -0.13431248 0.81746304 1.3185824 0.5014476 0.3498842
-0.31816983 -0.43761468 0.9540314 -0.042226076 0.120755404 -0.5882144 -0.38405892 -0.056104667
0.03838512 -1.6571722 -0.047742415 0.13692868 0.12972711 -0.75609416 -0.10102119 1.8537427
0.578173 0.09538375 -0.3293062 0.017882725 -0.4615496 -0.31083238 1.4435972 -0.9222557
-0.47310886 -0.8610433 -0.13082024 0.9098667 0.06375469 -0.08127051 0.07961999 -0.51045
0.74654746 -0.050108418 1.3654906 0.5155118 -0.12302163 0.15787387 -0.30897522 1.0747966
0.3939595 0.34685466 -0.010270444 -0.3718702 -0.22582059 0.26313537 0.9060469 0.19109699
-0.088923 0.2335787 0.43014312 -0.47237915 -0.80675334 -0.32299855 0.09334987 0.52693707
-1.1139467 0.44380343 -0.059654262 0.09760021 0.56564754 -0.2242686 -0.06624219 0.16462035
-1.8733548 0.8468546 0.63796407 0.61354536 0.97214746 -0.005677329 -0.2061965 -0.25166857
-0.30326888 0.29767218 2.0281322 -0.39169055 -1.8932588 -1.1350297 0.55302894 0.0052967146
-0.3133017 1.7203294 0.2024523 0.14516062 -0.21610267 -0.030974561 -2.3602314 -1.3193963
-0.39349517 0.5151203 1.6220222 0.13045345 -0.27011386 -0.7473875 0.233028 -0.9651897
-1.0359168 -4.219603 0.047907524 0.651155 0.39569083 0.10600202 -0.3537454 -0.85501367
0.5506593 0.46198136 2.3754892 -1.013881 -0.93635297 -1.1084267 -0.3670921 -0.08626475
00000000: f2e7 91be 6602 b6be 32a8 2c3f 9026 b83e
00000010: d94f 643e 274d 34be 85a3 073f 92d1 8cbe
00000020: 4b9a 923f 0711 173f 88bf d5bf 8102 c9be
00000030: 2f12 d83d c097 2b3e 6399 13bf 8298 d33e
00000040: 231d 323f 71d4 ac3e aa0c a3be 11e6 39bf
00000050: c450 9fbe 8efc 553e f55f e93e cab5 5bbe
00000060: 3fd8 cabf f73a 24bf a4dd 23be a3ec bebf
00000070: cfb7 bfbe b40f 86bf 621b 0a3e 1c65 ac3f
00000080: d78d 4cbf c561 f03f dd00 09bf 566f fabd
00000090: 0e9d af3e ac8d 64bd 8a08 853d 7d6c a7be
000000a0: aa00 5fbf 98c5 fd3e 28ad c3be a5cf 8abf
000000b0: 3719 37bf e1d5 263e 9134 343d cd2c 0bbf
000000c0: 9a42 6a3e 7ccb 83be 2e6d 65bf 0b68 413d
000000d0: 4aa7 3fc0 e2ef 49bf cd78 85be 38e6 053f
000000e0: 1d97 993e 1240 70bf a5ca a1be a5e2 b93d
000000f0: 0a73 113f a8aa 40bf 26ea fdbf b6e9 d8be
00000100: c042 683f ce9b 573e bc9f 2e3d c2ed bd3e
00000110: 537a a43f fec4 a13f 14ab 07bf 3744 4abf
00000120: 94ab 3fbe 455b 0dbf c720 a5bd bf60 88bf
00000130: 3721 5ebe a868 8a3c ed67 253e cd6e 013f
00000140: e884 303f 7bba 23bf 212f c6bf 2348 a13f
00000150: e745 a6be af4c 1fbf 52d3 a8be 99e1 903e
00000160: 2ed6 973e fd16 36c0 b6af c9be 2ecc b9be
00000170: 8382 ab3f fa87 dbbe 322c ffbf 5ba9 fbbb
00000180: 7e65 47bd 7d38 e23e 5003 d83e 19ad 9bbe
00000190: 143e 833e 5969 003f 4c09 9d3d d0d6 ccbe
000001a0: 92af 943f c346 343f 8423 2b3f a54e 93be
000001b0: ea47 6abe ac60 da3a 2016 803f d291 25bf
000001c0: cf39 4fbf 3bba a9bf 8218 25bf 657d a5bf
000001d0: 546e 68bf 3242 1a3f 5e8d 13bf 20c8 13bc
000001e0: 3090 763e 0f63 65ba b5ff edbd 37db a23f
000001f0: 0a3c 08bf 8b73 2fbf 2282 c73e 53ba 9d3e
00000200: 1fe5 833f 94c8 22bf 8504 fa3c e850 af3f
00000210: 500d 8a3e ee80 9a3e 5965 513f bb02 7ebe
00000220: b9a5 fd3e 1733 83be 04a8 d83e 3689 09be
00000230: 4245 513f 4fc7 a83f df5e 003f 0624 b33e
00000240: 28e7 a2be 080f e0be 673b 743f 40f5 2cbd
00000250: 9c4e f73d 3895 16bf 5fa3 c4be 02ce 65bd
00000260: b739 1d3d 381e d4bf 8d8d 43bd 0837 0c3e
00000270: 2fd7 043e 638f 41bf 33e4 cebd 7147 ed3f
00000280: 2503 143f 8e58 c33d d29a a8be cb7e 923c
00000290: 3b50 ecbe 6c25 9fbe cbc7 b83f f318 6cbf
000002a0: 533b f2be 556d 5cbf bef5 05be 06ed 683f
000002b0: d291 823d 2771 a6bd ce0f a33d daac 02bf
000002c0: bc1d 3f3f 7c3e 4dbd 65c8 ae3f 95f8 033f
000002d0: c4f2 fbbd b0a9 213e 0032 9ebe ef92 893f
000002e0: 0fb5 c93e ef96 b13e 5d45 28bc c565 bebe
000002f0: 833d 67be aeb9 863e b1f2 673f eeae 433e
00000300: 431d b6bd 412f 6f3e b83b dc3e aedb f1be
00000310: 6387 4ebf 1160 a5be 372e bf3d 59e5 063f
00000320: ce95 8ebf 343a e33e 0758 74bd 9ee2 c73d
00000330: 47ce 103f aba6 65be fca9 87bd 3d92 283e
00000340: 17ca efbf 77cb 583f 9d51 233f 4f11 1d3f
00000350: a8de 783f e308 babb 2d25 53be b4da 80be
00000360: 0f46 9bbe 7d68 983e ebcc 0140 aa8b c8be
00000370: 4e56 f2bf a748 91bf 4e93 0d3f 1090 ad3b
00000380: 1569 a0be c133 dc3f a84f 4f3e fca4 143e
00000390: 054a 5dbe 5dbe fdbc 080e 17c0 fae1 a8bf
000003a0: 3378 c9be edde 033f 6c9e cf3f 9795 053e
000003b0: 5d4c 8abe ca54 3fbf e49e 6e3e ac16 77bf
000003c0: ec98 84bf fd06 87c0 ae3a 443d 18b2 263f
000003d0: fd97 ca3e 9617 d93d 1e1e b5be 2de2 5abf
000003e0: 02f8 0c3f d288 ec3e 0408 1840 dac6 81bf
000003f0: d4b4 6fbf ede0 8dbf 7ff3 bbbe 93ab b0bd

critic.0.bias f4 [256]
-0.24001126 0.17045768 0.021993142 0.0053599845 -0.3330351 0.11672588 0.09202921 -0.04867707
-0.22276495 0.15615688 -0.43969086 -0.06999577 0.19569136 -0.5288418 0.14545643 -0.14516418
-0.23490837 0.13320374 -0.15271683 -0.17403415 0.11216869 -0.21379715 0.02175605 -0.10432246
0.09797638 0.27364457 0.36238956 0.122393556 0.10573839 0.25141826 -0.14779073 -0.041210353
-0.014988596 -0.008843158 0.12620158 0.40886423 0.022228831 0.30839005 0.18682028 -0.66828185
0.059445497 0.031118337 0.18963479 -0.14327854 0.11553714 0.13199984 0.13242829 -0.008883614
-0.16284329 0.107008345 0.33375558 0.2197117 0.121494 -0.016291318 0.30303526 -0.32341844
-0.091259636 0.049656 0.0011492423 -0.28512257 0.14434023 -0.45816025 -0.16724727 -0.12507783
-0.01735095 0.01948045 -0.26255542 0.2746929 0.052533224 0.22437336 -0.36655095 -0.1445695
-0.026426382 -0.22666614 -0.546435 0.10208729 0.12820172 -0.052690484 0.0018515218 0.107785285
0.038882468 0.10271322 -0.31399485 -0.07038304 -0.19472775 0.12809114 -0.08088706 -0.04693882
0.005926719 -0.037932005 -0.0038951812 0.064023875 0.12726632 -0.06287119 0.40727055 -0.2283984
0.12018487 0.22186242 -0.048747465 0.102928154 0.19774196 -0.14995664 -0.49622732 0.1721254
0.18064484 -0.27648154 -0.06814663 -0.33574882 -0.20864613 -0.15827802 0.23368068 0.08002691
-0.19712988 -0.16561133 -0.17815803 -0.062246174 -0.062305126 0.12621483 0.097015955 -0.011761329
-0.34862435 -0.11350952 -0.37618387 0.24815305 -0.22856419 0.27558297 0.21169984 0.0752726
0.3152953 -0.2079261 -0.07242221 -0.06855438 -0.08240928 -0.23485981 -0.1173287 0.101277806
-0.2882903 -0.20565577 -0.28459194 0.13921782 0.2067899 -0.73973036 0.5478499 -0.2419799
-0.012482556 0.11667251 0.34055135 0.16369441 0.49945715 0.1639848 0.26955163 0.28216234
0.16329135 -0.34210643 0.608869 0.44037685 0.33325323 -0.12940848 0.12329911 -0.23505265
-0.02733034 0.18730377 0.1342609 -0.0045801452 -0.0291952 -0.1495783 0.028447011 -0.19957091
0.10009524 -0.14299446 -0.24406034 -0.18127427 -0.17144088 0.20746802 -0.08925325 -0.26712197
0.26883534 0.12432561 0.021340825 0.48759654 -0.45900807 0.12472085 -0.21784368 -0.16983551
-0.27814275 0.05840328 -0.30433235 -0.026595509 0.53413993 0.24370217 -0.0069229584 -0.23450139
-0.28898844 0.23161648 0.15816359 -0.12667064 -0.32201424 0.017569663 0.37832937 -0.20793937
0.020573197 0.06845722 0.0034003323 -0.15208481 0.10479649 -0.24498582 0.0035759658 0.007011989
0.3455908 0.27919036 -0.52006626 0.34147826 0.17382637 0.20250599 0.116292834 -0.11176466
-0.2921799 -0.12559527 0.2489635 -0.13375671 0.007894372 -0.18814231 0.14643009 0.38839245
-0.22910947 0.0739747 -0.08179492 0.3447931 0.0037915425 -0.044449095 0.15470923 -0.1860768
-0.07796115 -0.18721685 -0.11611132 -0.37861034 -0.1240163 -0.24036211 -0.11917339 -0.18060763
0.160104 0.2371546 0.25950494 -0.055006012 0.14260116 0.0866041 -0.16418976 0.089188226
0.009039661 -0.2836893 0.01205453 -0.12078256 0.28370288 -0.26896772 0.16655415 0.016139513
00000000: 83c5 75be 758c 2e3e f62a b43c cfa2 af3b
00000010: 9483 aabe fa0d ef3d cf79 bc3d 9b61 47bd
00000020: 7f1c 64be 97e7 1f3e 291f e1be f159 8fbd
00000030: 5163 483e 2d62 07bf 88f2 143e eba5 14be
00000040: d28b 70be 9066 083e cd61 1cbe 0236 32be
00000050: b3b8 e53d a4ed 5abe be39 b23c 04a7 d5bd
00000060: d7a7 c83d 241b 8c3e 208b b93e 79a9 fa3d
00000070: 5e8d d83d e5b9 803e 7456 17be 30cc 28bd
00000080: ba92 75bc e5e2 10bc fd3a 013e a756 d13e
00000090: 3d19 b63c 4de5 9d3e d14d 3f3e 8514 2bbf
000000a0: 1f7d 733d e2eb fe3c 9f2f 423e 9cb7 12be
000000b0: bc9e ec3d f72a 073e 489b 073e 948c 11bc
000000c0: 64c0 26be 3127 db3d 03e2 aa3e 1bfc 603e
000000d0: d9d1 f83d 5f75 85bc 7027 9b3e 1a97 a5be
000000e0: 55e6 babd 1764 4b3d 2ca2 963a 96fb 91be
000000f0: edcd 133e fb93 eabe de42 2bbe 6714 00be
00000100: 9423 8ebc 7795 9f3c aa6d 86be 8ca4 8c3e
00000110: 142d 573d 21c2 653e 91ac bbbe 070a 14be
00000120: 247c d8bc 2b1b 68be 2ae3 0bbf 2413 d13d
00000130: 5047 033e fad1 57bd c3ae f23a 88be dc3d
00000140: 3943 1f3d 4f5b d23d efc3 a0be fc24 90bd
00000150: b666 47be 532a 033e 1da8 a5bd ec42 40bd
00000160: ec34 c23b 975e 1bbd 4c46 7fbb f31e 833d
00000170: 1a52 023e 9cc2 80bd c485 d03e 45e1 69be
00000180: 7c23 f63d e72f 633e 6cab 47bd ffcb d23d
00000190: de7c 4a3e 3c8e 19be 8211 febe a441 303e
000001a0: f6fa 383e fd8e 8dbe 7690 8bbd 45e7 abbe
000001b0: 55a7 55be a213 22be fd49 6f3e 26e5 a33d
000001c0: 6adc 49be 0496 29be 0f6f 36be d8f5 7ebd
000001d0: a933 7fbd 763e 013e 4db0 c63d 97b2 40bc
000001e0: e47e b2be ae77 e8bd 2c9b c0be d51b 7e3e
000001f0: bb0c 6abe 3619 8d3e d8c7 583e 8528 9a3d
00000200: 636e a13e 94ea 54be 1852 94bd 3d66 8cbd
00000210: 32c6 a8bd 177f 70be 084a f0bd bd6a cf3d
00000220: c99a 93be 6d97 52be 09b6 91be 1e8f 0e3e
00000230: bbc0 533e f85e 3dbf e43f 0c3f 94c9 77be
00000240: a283 4cbc fff1 ee3d bf5c ae3e 829f 273e
00000250: d9b8 ff3e a2eb 273e ac02 8a3e 9577 903e
00000260: d935 273e 9328 afbe d7de 1b3f 1379 e13e
00000270: 2ba0 aa3e a883 04be 3e84 fc3d a4b1 70be
00000280: e1e3 dfbc 8fcc 3f3e b07b 093e 0b15 96bb
00000290: c62a efbc 0e2b 19be b509 e93c 515c 4cbe
000002a0: bcfe cc3d 246d 12be f4ea 79be f69f 39be
000002b0: 338e 2fbe 7f72 543e 68ca b6bd 36c4 88be
000002c0: c9a4 893e 6d9e fe3d f4d2 ae3c 41a6 f93e
000002d0: 1b03 ebbe a56d ff3d 6a12 5fbe 5ce9 2dbe
000002e0: ba68 8ebe 4738 6f3d 73d1 9bbe d3de d9bc
000002f0: 65bd 083f 108d 793e fcd9 e2bb 2221 70be
00000300: 4bf6 93be df2c 6d3e a3f5 213e f3b5 01be
00000310: 0ddf a4be 41ee 8f3c 63b4 c13e 0fee 54be
00000320: 1f89 a83c 4d33 8c3d 1cd8 5e3b 1fbc 1bbe
00000330: 8b9f d63d 90dd 7abe c05a 6a3b d4c4 e53b
00000340: 47f1 b03e 0af2 8e3e 1023 05bf 3dd6 ae3e
00000350: 8aff 313e bb5d 4f3e f02a ee3d dfe4 e4bd
00000360: 9b98 95be 0c9c 00be 4af0 7e3e 85f7 08be
00000370: 6557 013c 61a8 40be c5f1 153e 60db c63e
00000380: ac9b 6abe 0c80 973d 1884 a7bd b988 b03e
00000390: 877b 783b 4110 36bd 196c 1e3e eb8a 3ebe
000003a0: 18aa 9fbd c6b5 3fbe c6cb edbd 37d9 c1be
000003b0: 42fc fdbd 7c21 76be 2e11 f4bd 35f1 38be
000003c0: 4ef2 233e a8d8 723e d5dd 843e fc4d 61bd
000003d0: 0a06 123e 7e5d b13d 5c21 28be 51a8 b63d
000003e0: 161b 143c b93f 91be 5d80 453c d95c f7bd
000003f0: 8141 913e 23b6 89be 2c8d 2a3e 0337 843c

critic.2.weight f4 [256, 256]
0.64240146 0.06768988 -0.2563806 -0.5586196 -0.3027891 0.29275414 0.49690175 0.37958956
-0.9060163 0.3395055 0.067979194 1.1128303 0.036801644 -0.5919104 0.03638485 -0.3045959
0.47742367 0.40354112 0.51099753 -1.1029636 -0.12756084 0.47651592 -0.16880424 0.017305968
-0.35828602 0.5657001 -1.8734566 -0.5674732 -0.3642486 -0.26304132 1.6699334 -0.3488317
-0.043939263 0.50435215 -0.16769814 0.7717203 0.6500272 -0.21392007 0.29218987 -0.42695478
-0.83800304 0.50285953 -0.34275192 -0.2301065 0.07325232 0.7282846 0.08709013 -0.56698704
0.39633125 0.032969706 0.19042884 -0.26970273 0.38390064 -0.30498713 -0.34783483 0.9375639
-0.8167969 0.018098673 0.71664226 0.21532926 0.4101468 -0.9422473 0.1317967 0.7299238
-0.6091811 -0.11691835 -0.069522 -0.51608574 -0.6175145 -0.22494803 -0.15466115 0.32058337
-0.022941453 -0.885761 0.41684145 0.2732952 0.00012601665 0.028017867 0.26413456 -0.5078198
-0.43497482 0.0617792 -0.69373006 0.4251391 0.5757334 0.9900523 1.0574839 0.27691662
0.24047874 0.9327063 -0.60677606 0.14968266 -0.06692844 -0.008437994 -0.19207804 0.095368646
-0.18632114 0.55758077 0.37836313 -0.2453022 -0.38403514 0.26183963 1.049487 -0.6345068
0.17211375 -0.054904208 0.5909401 -0.15215147 0.561451 0.6562783 0.27221465 -0.45233893
0.4143588 0.30033168 -0.9039364 0.23761919 -0.014292892 -0.8908211 0.3120021 1.1240013
0.41496608 -0.32805884 1.0900437 -0.106007956 -0.09196042 -0.006612273 0.524099 0.5751498
-0.47438654 -0.10333759 0.16530322 -0.3020818 1.5792384 0.3060664 -0.1346234 -0.5364065
-0.82725334 -0.28682628 0.5462028 0.033483878 0.5000397 -0.05346419 0.059824932 -0.10495529
0.9219002 -0.24508448 0.67012024 -0.06233417 0.7589678 0.4924655 0.5690386 -1.7542645
0.41267574 0.58217245 0.3234157 0.63697565 -0.1004084 0.16248935 1.3715404 1.2360672
-0.29579985 0.3561004 -0.095474035 -0.21903382 -0.21621908 0.18000454 0.8910526 0.23215835
0.5727996 -0.009764699 0.09827604 0.6637165 0.27852052 0.08287127 0.028768957 -1.0518199
-0.7217952 0.09748429 -0.564412 -0.029695647 0.8768865 -0.33950964 0.7790283 -0.8751587
0.8754807 0.25837842 -0.76521486 -0.026941927 -0.12333979 -1.2908198 0.1964344 -0.2700454
-0.18348649 0.42851013 -0.12230304 -0.58391 0.6036375 0.11761455 -0.0025750226 0.9349462
-0.675239 -0.105115294 -0.50362873 -0.21953185 -0.54440427 -0.3519008 -0.39975095 -0.15585402
0.56432426 0.010905509 0.18659012 -0.27788416 -0.17164075 -0.25157797 -0.15894984 0.23740672
1.3048127 -0.35474673 0.33967838 -0.861572 0.7486049 -0.19427337 -0.46695587 0.16034053
0.15342942 -0.3878276 -0.54200494 0.1530818 -0.23365545 -1.076012 0.5618065 0.45906186
0.8604504 0.30567896 -0.24654382 -0.44855347 -1.0797907 0.40830067 -0.9186764 0.84560597
-0.65898365 -0.58460575 0.3839776 0.09193126 -0.39533445 0.096047945 -0.1397461 1.3996109
-0.2178922 1.0513333 0.358382 0.1363821 -1.0078559 -0.36428338 -0.17204553 0.68167394
00000000: 6c74 243f fea0 8a3d 5144 83be b201 0fbf
00000010: 2c07 9bbe dfe3 953e e869 fe3e 9059 c23e
00000020: aff0 67bf aad3 ad3e ad38 8b3d 3971 8e3f
00000030: 52bd 163d 7187 17bf 4808 153d fef3 9bbe
00000040: e070 f43e f19c ce3e bcd0 023f e92d 8dbf
00000050: 4f9f 02be e5f9 f33e 05db 2cbe 3fc5 8d3c
00000060: 4471 b7be b9d1 103f 6dcd efbf ec45 11bf
00000070: cb7e babe 5aad 86be 61c0 d53f 129a b2be
00000080: a8f9 33bd 391d 013f 10b9 2bbe 768f 453f
00000090: 2f68 263f dd0d 5bbe e999 953e d199 dabe
000000a0: 5e87 56bf 67bb 003f 2e7d afbe 0aa1 6bbe
000000b0: 5005 963d dc70 3a3f 4f5c b23d 1026 11bf
000000c0: eeeb ca3e 3e0b 073d c7ff 423e 7a16 8abe
000000d0: a08e c43e 4627 9cbe 6817 b2be 3004 703f
000000e0: 9a19 51bf ab43 943c de75 373f 467f 5c3e
000000f0: c3fe d13e 1e37 71bf b7f5 063e 49dc 3a3f
00000100: 4bf3 1bbf e372 efbd 8d61 8ebd 321e 04bf
00000110: 6e15 1ebf c758 66be 7e5f 1ebe 8123 a43e
00000120: b7ef bbbc 3cc1 62bf 3e6c d53e 59ed 8b3e
00000130: 5623 0439 ba85 e53c a53c 873e 7a00 02bf
00000140: 05b5 debe 300c 7d3d 4b98 31bf d5ab d93e
00000150: 4463 133f 1174 7d3f a25b 873f 04c8 8d3e
00000160: 0f40 763e d7c5 6e3f ad55 1bbf 6946 193e
00000170: c711 89bd 833f 0abc 1bb0 44be a350 c33d
00000180: f8ca 3ebe 9dbd 0e3f d0b8 c13e 8030 7bbe
00000190: 41a0 c4be d80f 863e 9755 863f 0a6f 22bf
000001a0: 963e 303e 3ce3 60bd da47 173f 98cd 1bbe
000001b0: 41bb 0f3f db01 283f b85f 8b3e f898 e7be
000001c0: d626 d43e 13c5 993e 6068 67bf 7252 733e
000001d0: bc2c 6abc da0c 64bf bdbe 9f3e 46df 8f3f
000001e0: 6f76 d43e 54f7 a7be 8d86 8b3f b31a d9bd
000001f0: bf55 bcbd c4ab d8bb 5a2b 063f 043d 133f
00000200: cbe2 f2be a9a2 d3bd 3f45 293e 77aa 9abe
00000210: 7c24 ca3f bcb4 9c3e b7da 09be f051 09bf
00000220: e0c6 53bf e5da 92be f2d3 0b3f 6426 093d
00000230: 9a02 003f 44fd 5abd fd0a 753d cdf2 d6bd
00000240: a701 6c3f 6df7 7abe 008d 2b3f 1d52 7fbd
00000250: b74b 423f 7024 fc3e 84ac 113f bd8b e0bf
00000260: 3c4a d33e 4109 153f be96 a53e d610 233f
00000270: eba2 cdbd 9c63 263e a38e af3f 7337 9e3f
00000280: 1473 97be cb52 b63e e487 c3bd 674a 60be
00000290: 8968 5dbe 1c53 383e 061c 643f ebba 6d3e
000002a0: ffa2 123f 1efc 1fbc f344 c93d 53e9 293f
000002b0: 3e9a 8e3e 6ab8 a93d e0ac eb3c 09a2 86bf
000002c0: 92c7 38bf d8a5 c73d 4e7d 10bf 4944 f3bc
000002d0: a27b 603f 35d4 adbe 666e 473f 670a 60bf
000002e0: 811f 603f 2d4a 843e 1fe5 43bf 51b5 dcbc
000002f0: 9299 fcbd 9539 a5bf 1926 493e 6443 8abe
00000300: e2e3 3bbe ae65 db3e 047a fabd 207b 15bf
00000310: fd87 1a3f e6df f03d b6c1 28bb a258 6f3f
00000320: 77dc 2cbf b046 d7bd d0ed 00bf f5cc 60be
00000330: 145e 0bbf 572c b4be 28ac ccbe 3298 1fbe
00000340: 8e77 103f 05ad 323c 7b11 3f3e d546 8ebe
00000350: 98c2 2fbe d4ce 80be bfc3 22be bf1a 733e
00000360: 1a04 a73f 5da1 b5be 53ea ad3e fc8f 5cbf
00000370: 92a4 3f3f 99ef 46be d714 efbe 4f30 243e
00000380: 9a1c 1d3e 5791 c6be d6c0 0abf 7ac1 1c3e
00000390: 6043 6fbe c3ba 89bf 8dd2 0f3f 280a eb3e
000003a0: 7a46 5c3f f481 9c3e fc75 7cbe cda8 e5be
000003b0: 9536 8abf c90c d13e 602e 6bbf a279 583f
000003c0: 27b3 28bf b9a8 15bf b698 c43e 7546 bc3d
000003d0: 4769 cabe c9b4 c43d 9a19 0fbe 7326 b33f
000003e0: 221f 5fbe 1792 863f d87d b73e c0a7 0b3e
000003f0: 6c01 81bf 5a83 babe b42c 30be 2f82 2e3f

critic.2.bias f4 [256]
-0.22651449 -0.38258255 0.01787905 0.24483627 0.19033259 0.11267838 0.09402395 0.13998453
-0.3760768 -0.13112469 0.122911796 -0.2489924 0.1747061 0.6137263 -0.6202939 -0.56355953
0.41924265 0.03983374 0.4281344 0.46760735 -0.13924679 0.32855865 0.38931173 0.8280732
0.15562946 0.12178083 0.20259471 0.30521822 -0.074933276 -0.7093225 -0.20730744 -0.27286816
-0.07191514 -0.5919542 -0.0073581613 -0.2770563 0.21922484 0.14669752 -0.21210642 -0.092491366
0.09155807 -0.20414294 -0.17842013 0.211101 -0.6893994 -0.8055896 -0.19776629 -0.2596915
0.03849436 0.130667 -0.13909838 0.58735776 -0.8325761 -0.6070744 0.46393672 0.23857008
-0.2440049 -0.4564847 0.9177992 -0.31212097 0.9370651 -0.63397187 -0.0145564275 -0.13686965
0.211008 0.055032898 -0.2313343 0.16652311 -0.30286676 0.16809763 -0.049355634 0.5181899
-0.21152595 -0.21032636 0.23560035 0.20826499 -0.32116306 0.36579916 -0.20288418 0.25677282
-0.07216432 -0.19891994 0.4467618 -0.08566475 0.43679023 -0.074190065 0.31950802 -0.48513305
0.14596431 -0.9391657 0.546939 -0.67843974 0.4219353 0.27394685 1.0028969 0.47523066
-0.2306172 0.13684726 0.2823858 0.0049135927 0.36433923 -0.07650258 -0.050532974 0.031973373
-0.57054144 0.08684055 -0.12349051 0.013539077 0.55079067 -0.16530925 0.3924233 -0.44640437
-0.6157854 0.049424715 0.17158172 -0.13344832 0.74497914 0.23858798 -0.40873662 0.2729228
1.0571375 -0.07363223 0.19469553 -0.16834408 0.34492344 -0.32370982 0.25017062 0.14950281
0.114078626 0.23628518 0.32417205 -0.25305104 -0.58405143 0.39191148 0.37173322 -0.27656153
0.49438092 -0.7547864 -0.0053237653 -0.043582957 0.11485107 -0.17567101 0.049536005 -0.2699229
-0.35673043 0.16164613 0.78044176 0.38700613 0.9002423 0.49125907 -0.35161674 1.0373732
-0.32264414 0.36870474 0.022910858 -0.40081546 -0.16714446 0.26722664 -0.5457192 -0.5912701
0.08307569 0.13931768 0.3712425 0.16338605 -0.79905105 0.217866 0.22064051 -0.5794717
-0.115573175 -0.37215215 -0.613672 0.43160665 0.32783633 0.49055055 0.21398522 0.26843175
0.34037873 -0.20803778 -0.817098 -0.27473146 0.11989116 -0.07609234 -0.46466047 -0.23800462
-0.49811348 -0.26667812 0.12538296 -0.15676357 0.06963019 0.12978734 0.08732788 0.9748406
-0.46812606 0.09115611 0.63541335 0.1261261 -0.06665761 0.4439495 -0.09429644 0.072358444
0.32380822 -0.027848214 -0.82982737 0.12886176 0.1643826 0.33576024 -0.019153805 0.36366612
-0.10730293 -0.38318464 0.14832252 0.076253645 0.04028013 -0.27027544 -0.60722727 0.63225484
-0.019208733 0.45401004 0.19874197 -0.16660486 0.3558965 0.20171393 -0.07041636 -0.2363419
-0.56857723 0.2243692 0.072027154 0.43079662 0.08408639 -0.18302143 0.4369027 0.28941593
0.013460902 -0.25752148 0.3125808 0.061484557 -0.15155078 0.056148924 -0.37627217 0.47157988
-0.09997109 0.37300915 -0.4944952 -0.29712594 0.011893002 -0.62020856 0.069528095 -0.18885204
-0.16098441 0.44760522 0.14008822 -0.54523957 0.29166612 0.018955862 -0.039568733 0.6090167
00000000: 6af3 67be dce1 c3be 1677 923c 5cb6 7a3e
00000010: 8ce6 423e ecc3 e63d a18f c03d 1b58 0f3e
00000020: 238d c0be 8d45 06be 2eb9 fb3d ddf7 7ebe
00000030: 28e6 323e 2b1d 1d3f 95cb 1ebf 7045 10bf
00000040: f9a6 d63e b428 233d 6f34 db3e 3b6a ef3e
00000050: b696 0ebe d738 a83e de53 c73e 9bfc 533f
00000060: 545d 1f3e 3a68 f93d fd74 4f3e 9045 9c3e
00000070: 9e76 99bd 2996 35bf 6748 54be 60b5 8bbe
00000080: 3f48 93bd 4f8a 17bf bb1c f1bb 53da 8dbe
00000090: 7a7c 603e e037 163e 6d32 59be 1d6c bdbd
000000a0: cc82 bb3d d90a 51be c4b3 36be dc2a 583e
000000b0: 7b7c 30bf 1f3b 4ebf 3f83 4abe 49f6 84be
000000c0: 43ac 1d3d 92cd 053e ce6f 0ebe 145d 163f
000000d0: b523 55bf 3a69 1bbf 1d89 ed3e b74b 743e
000000e0: 6cdc 79be 5db8 e9be e3f4 6a3f 52ce 9fbe
000000f0: 80e3 6f3f fb4b 22bf 157e 6ebc 8f27 0cbe
00000100: 7b12 583e 2d6a 613d e6e2 6cbe 0985 2a3e
00000110: 5a11 9bbe c921 2c3e 2229 4abd 18a8 043f
00000120: 429a 58be cb5f 57be 3841 713e 6b43 553e
00000130: 7c6f a4be 074a bb3e dfc0 4fbe ba77 833e
00000140: e3ca 93bd abb1 4bbe f6bd e43e 0071 afbd
00000150: f8a2 df3e f6f0 97bd 8e96 a33e 5c63 f8be
00000160: ab77 153e 2a6d 70bf 3204 0c3f 3aae 2dbf
00000170: e707 d83e c342 8c3e ed5e 803f 6f51 f33e
00000180: ea26 6cbe b021 0c3e df94 903e 3402 a13b
00000190: ac8a ba3e 62ad 9cbd aafb 4ebd 83f6 023d
000001a0: 010f 12bf 75d9 b13d 98e8 fcbd 01d3 5d3c
000001b0: 9e00 0d3f d446 29be b5eb c83e 1d8f e4be
000001c0: 1da4 1dbf 9271 4a3d 1eb3 2f3e ada6 08be
000001d0: f4b6 3e3f 6850 743e ed45 d1be 8abc 8b3e
000001e0: 4850 873f 7fcc 96bd 445e 473e 6462 2cbe
000001f0: ce99 b03e 4bbd a5be 5d16 803e 4417 193e
00000200: 0ea2 e93d bef4 713e e1f9 a53e e88f 81be
00000210: 6584 15bf 9fa8 c83e d153 be3e 7999 8dbe
00000220: 7f1f fd3e ae39 41bf fb72 aebb 0b84 32bd
00000230: 0a37 eb3d 1ae3 33be 44e6 4a3d 5633 8abe
00000240: 5fa5 b6be 9086 253e 08cb 473f ab25 c63e
00000250: 4876 663f 4f86 fb3e 1c07 b4be a5c8 843f
00000260: 9d31 a5be dec6 bc3e 8daf bb3c af37 cdbe
00000270: eb27 2bbe eed1 883e 41b4 0bbf 7a5d 17bf
00000280: 9623 aa3d 4ba9 0e3e 7f13 be3e ac4e 273e
00000290: 9c8e 4cbf 4418 5f3e 96ef 613e 4258 14bf
000002a0: a1b1 ecbd ba8a bebe 9c19 1dbf 8cfb dc3e
000002b0: 2ada a73e 7129 fb3e f11e 5b3e e36f 893e
000002c0: 1f46 ae3e db07 55be 562d 51bf 9aa9 8cbe
000002d0: 7f89 f53d 4dd6 9bbd fae7 edbe 7cb7 73be
000002e0: bb08 ffbe 098a 88be 6464 003e a186 20be
000002f0: 469a 8e3d f9e6 043e f6d8 b23d 278f 793f
00000300: 38ae efbe 0eb0 ba3d 73aa 223f 3327 013e
00000310: c983 88bd 594d e33e 7e1e c1bd aa30 943d
00000320: 31ca a53e f021 e4bc 916f 54bf 56f4 033e
00000330: ea53 283e c4e8 ab3e 71e8 9cbc 7232 ba3e
00000340: a3c1 dbbd c730 c4be dce1 173e df2a 9c3d
00000350: c7fc 243d 8b61 8abe 3f73 1bbf 74db 213f
00000360: a25b 9dbc 0174 e83e 0483 4b3e 779a 2abe
00000370: 1138 b63e 198e 4e3e 7436 90bd 9c03 72be
00000380: 478e 11bf 0ac1 653e f982 933d 6091 dc3e
00000390: 7c35 ac3d f869 3bbe b6b1 df3e 532e 943e
000003a0: 1d8b 5c3c dbd9 83be 970a a03e 3bd7 7b3d
000003b0: 2130 1bbe 6afc 653d bfa6 c0be eb72 f13e
000003c0: a5bd ccbd 0efb be3e 7a2e fdbe e420 98be
000003d0: deda 423c fdc5 1ebf bf64 8e3d 6e62 41be
000003e0: 19d9 24be 832c e53e 4973 0f3e d294 0bbf
000003f0: 4355 953e 5349 9b3c d312 22bd 85e8 1b3f

critic.4.weight f4 [1, 256]
-2.2453227 -0.8195115 -1.9873235 1.5828532 -1.0893492 -0.3869395 -1.0614836 -0.9616949
-0.5641071 1.2091651 -0.7769073 -0.96468955 -0.9413474 -1.6832399 1.8484511 -1.0652908
1.0983402 -0.662144 0.6576902 -0.94808185 1.9199487 1.5621914 1.375349 -1.5187575
1.9162946 0.80580646 -0.73473483 1.6912416 0.8850803 -1.736861 0.7219918 -0.6011916
1.3258084 -2.1965923 -0.87669796 0.5786151 -2.9920156 0.8124874 0.9151254 2.531285
-2.4321887 -0.9706507 2.7479835 -0.4101726 0.106730014 1.0774659 -4.2476926 3.9600217
0.88843995 -0.9324695 -0.68020386 2.750899 -1.9374872 -1.1249714 -2.5633137 -1.7115322
-0.7918473 0.7882491 1.5360547 -1.0207105 0.16665481 -0.5281665 -0.7045209 1.5225053
0.23652816 0.55392593 -0.24792662 -0.46261352 -0.6635822 -1.1125771 2.2499986 0.57714415
-1.8251356 1.8770897 2.9424489 -1.8117312 -1.1028156 -0.58124983 1.7364757 0.66328675
-1.0209972 -1.0736216 1.5467234 -1.8215374 -1.4633011 -0.73941046 0.8109658 -1.4596635
-2.1824808 -1.3198041 2.4825103 -0.9910978 0.8726023 1.2761892 3.1767159 1.8338171
-1.4060512 1.7180351 -1.1609339 -4.238785 -0.83720803 -2.8959403 -2.4026392 -0.7546426
-2.385409 2.3044431 1.2203208 2.8827856 1.503277 -1.2109375 -1.724766 -0.9075236
-1.6287783 -1.6064042 -0.18874142 -1.6603696 1.0010955 -2.2329988 -1.5384856 -1.4164604
2.4329498 2.0484223 1.1384073 -1.8660357 -3.326504 -1.1631136 2.4311047 3.5787525
2.9436111 1.63703 0.8419907 -1.255839 1.0134503 -1.7448909 2.8938816 -0.7433061
-2.6871352 1.1858753 -1.2025639 1.2179562 1.0993489 -2.7234516 1.131236 0.7507244
-0.4217148 3.627207 2.14185 1.9962815 0.47269192 1.67951 -1.3611757 1.9663473
-1.5681142 2.3436606 -0.3989394 -1.1094078 -2.1365051 1.2643118 0.5884079 -0.18211697
0.43956098 1.3603324 -3.770153 -3.0852697 -1.1900145 0.7997295 1.7770861 -0.6889434
0.8171117 -0.78057146 0.3995737 -2.5201066 1.0511003 -2.0786428 -0.60737354 -0.98818356
-0.20612921 0.65228957 -1.1136098 -0.90880734 -0.91748536 1.1971288 1.8794154 1.8013687
1.7823907 -2.8920913 3.2805185 2.5584424 0.9768447 -2.850611 -1.5287133 2.0480556
-1.2395824 -0.66824794 1.3974617 1.4928378 2.1765568 2.5211065 -2.4476008 0.40267164
-3.5747435 -0.5789532 -1.8483835 -0.0571646 2.0623367 -1.9559625 -0.6361883 3.1125774
-0.46283266 0.3443828 -0.62509686 -3.0028803 1.1036938 -1.7626652 -1.2236667 -1.0962269
3.6345956 -0.8164423 3.3634949 -0.60299593 2.0507648 -3.6592362 0.60069793 -2.1673331
-0.927911 -2.2455509 -1.7699921 1.0827149 -1.1065981 -0.51577485 1.9862545 1.527442
-2.0512936 -1.1628828 1.5896534 -0.8427545 2.4944758 -0.69125354 -1.282411 -0.52027655
-0.8489945 1.2117964 -2.9090931 2.316259 1.6680294 -2.2475324 -2.3981948 -2.0337038
-1.5789632 -0.9691738 2.796427 -0.88669896 0.9550284 1.5144737 1.618615 1.4921063
00000000: 5eb3 0fc0 81cb 51bf 9e60 febf ef9a ca3f
00000010: cb6f 8bbf ef1c c6be b2de 87bf a331 76bf
00000020: 5369 10bf ecc5 9a3f 66e3 46bf e5f5 76bf
00000030: 25fc 70bf 6874 d7bf 0c9a ec3f 735b 88bf
00000040: 6996 8c3f 4582 29bf 635e 283f 7eb5 72bf
00000050: e1c0 f53f e3f5 c73f 700b b03f a566 c2bf
00000060: 2449 f53f 5549 4e3f 9517 3cbf 9b7a d83f
00000070: 9f94 623f 7651 debf 74d4 383f b1e7 19bf
00000080: 17b4 a93f f894 0cc0 476f 60bf 1f20 143f
00000090: 2f7d 3fc0 2dff 4f3f a945 6a3f 9300 2240
000000a0: fba8 1bc0 907c 78bf f6de 2f40 2502 d2be
000000b0: 4495 da3d 67ea 893f 19ed 87c0 ff70 7d40
000000c0: cd70 633f 52b6 6ebf d721 2ebf bb0e 3040
000000d0: 95ff f7bf 10ff 8fbf 550d 24c0 7d13 dbbf
000000e0: 81b6 4abf b1ca 493f 719d c43f a4a6 82bf
000000f0: 8fa7 2a3e eb35 07bf 7b5b 34bf 74e1 c23f
00000100: 7034 723e 17ce 0d3f 7ae0 7dbe aedb ecbe
00000110: 86e0 29bf ed68 8ebf faff 0f40 b8bf 133f
00000120: 0b9e e9bf 7a44 f03f 1551 3c40 cfe6 e7bf
00000130: 1029 8dbf cacc 14bf d644 de3f 29cd 293f
00000140: 09b0 82bf 6f6c 89bf 08fb c53f 2328 e9bf
00000150: 734d bbbf 014a 3dbf 749b 4f3f 41d6 babf
00000160: c4ad 0bc0 57ef a8bf 73e1 1e40 96b8 7dbf
00000170: dd62 5f3f 2b5a a33f 504f 4b40 85ba ea3f
00000180: 7cf9 b3bf 93e8 db3f 7b99 94bf 20a4 87c0
00000190: 4453 56bf 1657 39c0 d7c4 19c0 4230 41bf
000001a0: 8baa 18c0 ff7b 1340 7933 9c3f 8f7f 3840
000001b0: 616b c03f 0000 9bbf 22c5 dcbf 7753 68bf
000001c0: cf7b d0bf a79e cdbf 6e45 41be fe86 d4bf
000001d0: e623 803f 74e9 0ec0 19ed c4bf 934e b5bf
000001e0: 73b5 1b40 5a19 0340 55b7 913f 42da eebf
000001f0: 71e5 54c0 e8e0 94bf 3897 1b40 480a 6540
00000200: 2064 3c40 338a d13f b48c 573f 55bf a0bf
00000210: bdb8 813f 9658 dfbf 5b35 3940 4f49 3ebf
00000220: 06fa 2bc0 c3ca 973f 9ded 99bf fde5 9b3f
00000230: 77b7 8c3f 084d 2ec0 57cc 903f 792f 403f
00000240: 01eb d7be 2924 6840 1214 0940 2786 ff3f
00000250: ad04 f23e 2ffa d63f 013b aebf 45b1 fb3f
00000260: f7b7 c8bf 89fe 1540 c941 ccbe 1301 8ebf
00000270: 80bc 08c0 f8d4 a13f e6a1 163f df7c 3abe
00000280: 230e e13e 5f1f ae3f 304a 71c0 0f75 45c0
00000290: 6552 98bf 13bb 4c3f 8f77 e33f 985e 30bf
000002a0: 3b2e 513f 88d3 47bf ed94 cc3e 6d49 21c0
000002b0: 748a 863f 7c08 05c0 d57c 1bbf 99f9 7cbf
000002c0: 8913 53be 73fc 263f c48a 8ebf 99a7 68bf
000002d0: 52e0 6abf 843b 993f af90 f03f 4093 e63f
000002e0: 6125 e43f 0618 39c0 04f4 5140 85bd 2340
000002f0: 7f12 7a3f 6970 36c0 e1ac c3bf 5813 0340
00000300: a3aa 9ebf 4c12 2bbf 06e0 b23f 4f15 bf3f
00000310: b54c 0b40 cf59 2140 7ea5 1cc0 fa2a ce3e
00000320: 99c8 64c0 4736 14bf d597 ecbf 6d25 6abd
00000330: 53fd 0340 fb5c fabf 3ddd 22bf 7834 4740
00000340: 67f8 ecbe f152 b03e 5906 20bf 312f 40c0
00000350: d745 8d3f 039f e1bf 1ca1 9cbf 2a51 8cbf
00000360: 379d 6840 5d02 51bf 8043 5740 f15d 1abf
00000370: bb3f 0340 ed30 6ac0 57c7 193f 96b5 0ac0
00000380: 938b 6dbf 1bb7 0fc0 1a8f e2bf 6796 8a3f
00000390: 02a5 8dbf d209 04bf 963d fe3f 3883 c33f
000003a0: 6548 03c0 58d9 94bf c379 cb3f c2be 57bf
000003b0: 7ea5 1f40 fef5 30bf 0b26 a4bf d830 05bf
000003c0: b457 59bf 251c 9b3f 952e 3ac0 963d 1440
000003d0: fd81 d53f 92d7 0fc0 067c 19c0 3428 02c0
000003e0: 771b cabf c61b 78bf a9f8 3240 b4fe 62bf
000003f0: be7c 743f 46da c13f c72e cf3f 57fd be3f

actor.0.weight f4 [256, 42]
-0.2616237 0.4469329 -0.5579436 1.2871358 0.49054733 -3.0974066 -0.7991462 -0.17837268
0.88325816 -0.0046495986 2.7491367 1.1169136 0.051594757 0.26897085 -0.06651438 0.6263553
0.677314 0.18030451 -0.05236983 0.13873996 -3.5350971 -1.7454946 0.2560441 1.1387057
-0.83363825 -0.75959927 -0.70154583 0.29419592 -0.29203942 1.2315437 0.613984 1.4978243
-0.07823606 -0.16351998 -0.048499703 -0.016615123 0.23003818 0.25326118 -0.61173 -0.918459
-0.9077165 1.8609722 0.09071044 0.7459239 0.33373415 -1.3512435 0.59809667 -0.10006105
-0.3399998 0.063654535 -0.8627805 -0.22559766 5.185911 1.279528 0.051753342 -0.08751043
0.62992555 0.9677153 0.6064733 -0.035269618 0.23863141 0.38141853 -1.0614368 -1.4204402
0.20291632 -1.1292762 -0.74952114 0.023010533 -0.585606 0.284714 -0.16944213 -0.7344286
-1.1992959 -2.2678587 0.13992026 -0.18128863 -0.04050673 0.14289431 0.038920213 -0.035472892
1.6452272 0.24564433 -0.47347167 0.6137467 -0.9715596 -2.536702 0.59731424 0.43092927
-0.28760967 1.0526599 0.68372 0.045378264 0.7478287 -0.5982859 0.6001814 0.70738834
0.24459386 0.06741419 0.4628933 1.3502852 0.97624487 0.10249797 -0.29586908 -0.9779708
-2.6818259 -2.1166456 -0.14988284 0.09280731 -0.853664 0.91398025 4.188632 -0.84851944
0.013303072 0.7854171 -0.38455966 -0.6260549 -0.12512083 0.82388425 -0.78567326 -0.14772794
-0.3714557 -0.015649535 0.36655426 0.3658068 -0.5151586 -0.2784344 -0.49727866 -2.382611
0.53059715 0.3688862 -1.2223907 -2.6431513 -0.69577533 0.4237453 0.63070685 -0.3228289
-3.5277483 -1.497452 0.22878814 0.19893779 0.08420822 -0.22318368 -0.27939236 0.22953369
-0.1268847 -0.21711503 1.2203361 0.7689266 0.015623758 0.57858115 -0.5483785 0.7608967
1.9069717 -0.5006226 -0.07248735 2.8144143 0.03791566 0.070762075 0.08896526 0.43950352
0.009736842 -0.080647126 -0.17485088 0.24358678 -0.3811308 -0.037601423 0.58730775 0.092595264
-0.89127004 -0.24252874 -0.3903597 -0.34275624 -0.041790094 -0.7169984 0.14888304 -0.5660959
-0.24050896 0.24747111 0.78808117 0.9135198 -0.6027033 -0.47084513 -0.26473 -0.88667864
0.4078824 -0.51070017 -0.63206035 -0.28774226 -0.14501722 1.1753494 -0.4421338 -0.1995415
0.1966713 -0.38301316 0.18792899 -0.7330385 0.3938296 -0.5567851 -0.41502494 1.0536531
-0.756621 0.6724045 0.113329 -0.11994835 -0.57556146 -0.5726568 -0.1406721 -0.56733423
0.254481 0.63793606 -0.8779153 -1.1718849 0.22160107 0.31695986 0.09396596 0.8006431
0.7195604 0.026699167 0.114232376 -0.19181043 1.3878881 0.72286963 -0.12388208 -0.24619114
0.24325706 1.7458067 1.1286176 0.08114031 -0.36369857 0.16665486 -0.4139668 -0.44191593
-0.161594 0.3078451 0.50319725 -0.36073956 0.14986049 -0.32307944 0.031003064 -0.8187235
-0.018928984 1.6409868 -0.28474724 0.34688595 -0.27715778 -0.110551834 -0.32139403 -0.09960687
0.15565069 -0.43626717 1.408996 0.8552152 -0.234215 -1.5569335 0.041586377 0.5563234
00000000: 8bf3 85be 64d4 e43e 64d5 0ebf dec0 a43f
00000010: 0529 fb3e e93b 46c0 d894 4cbf 54a7 36be
00000020: 351d 623f a95b 98bb dbf1 2f40 06f7 8e3f
00000030: 0655 533d 8cb6 893e b138 88bd d258 203f
00000040: 7364 2d3f bfa1 383e bf81 56bd d911 0e3e
00000050: 083f 62c0 5e6c dfbf 3618 833e 1cc1 913f
00000060: 5169 55bf 1975 42bf 8298 33bf d9a0 963e
00000070: 3186 95be 39a3 9d3f 0e2e 1d3f b5b8 bf3f
00000080: 3a3a a0bd c871 27be a0a7 46bd 701c 88bc
00000090: 218f 6b3e 73ab 813e 569a 1cbf 2120 6bbf
000000a0: 1c60 68bf 5634 ee3f 65c6 b93d def4 3e3f
000000b0: 34df aa3e 8cf5 acbf dd1c 193f cfec ccbd
000000c0: 7414 aebe 4f5d 823d 2fdf 5cbf 1303 67be
000000d0: fcf2 a540 93c7 a33f 50fb 533d ab38 b3bd
000000e0: cd42 213f 31bc 773f d641 1b3f e076 10bd
000000f0: cb5b 743e 4a49 c33e 29dd 87bf fcd0 b5bf
00000100: 4cc9 4f3e 1f8c 90bf 9ee0 3fbf 9680 bc3c
00000110: 46ea 15bf 09c6 913e 3d82 2dbe 8303 3cbf
00000120: 8782 99bf 9924 11c0 4247 0f3e baa3 39be
00000130: 63ea 25bd e352 123e cd6a 1f3d 064c 11bd
00000140: ce96 d23f 308a 7b3e e16a f2be 811e 1d3f
00000150: 21b8 78bf 5359 22c0 96e9 183f c3a2 dc3e
00000160: 9341 93be 8fbd 863f 4608 2f3f 8fde 393d
00000170: b471 3f3f 4429 19bf 7da5 193f 6717 353f
00000180: d076 7a3e 7310 8a3d 5a00 ed3e 25d6 ac3f
00000190: 2feb 793f 75ea d13d 277c 97be 4b5c 7abf
000001a0: 09a3 2bc0 1f77 07c0 e37a 19be c211 be3d
000001b0: b989 5abf 9cfa 693f 4609 8640 9238 59bf
000001c0: 21f5 593c 1811 493f 01e5 c4be 2245 20bf
000001d0: ad1f 00be 14ea 523f e221 49bf fe45 17be
000001e0: 712f bebe 7433 80bc 00ad bb3e 074b bb3e
000001f0: 6fe1 03bf f48e 8ebe 4f9b febe b37c 18c0
00000200: 37d5 073f a7de bc3e 4c77 9cbf 6429 29c0
00000210: 551e 32bf 25f5 d83e 0176 213f d449 a5be
00000220: a1c6 61c0 82ac bfbf 7047 6a3e 59b6 4b3e
00000230: 5c75 ac3d 438a 64be 840c 8fbe e10a 6b3e
00000240: 10ee 01be 6753 5ebe f933 9c3f 60d8 443f
00000250: cafa 7f3c e51d 143f 8962 0cbf 20ca 423f
00000260: a617 f43f cd28 00bf 3f74 94bd 5d1f 3440
00000270: 734d 1b3d b5eb 903d 6b33 b63d 9b06 e13e
00000280: 4687 1f3c 522a a5bd 1c0c 33be d06e 793e
00000290: 9423 c3be f303 1abd cd59 163f 96a2 bd3d
000002a0: 462a 64bf 7459 78be 3add c7be bf7d afbe
000002b0: 172c 2bbd 358d 37bf cc74 183e a9eb 10bf
000002c0: fb47 76be 1169 7d3e b0bf 493f 6fdc 693f
000002d0: c34a 1abf 9d12 f1be b18a 87be 5ffd 62bf
000002e0: f6d5 d03e 3fbd 02bf b5ce 21bf f452 93be
000002f0: 657f 14be d971 963f 5d5f e2be 9b54 4cbe
00000300: 3464 493e 4d1a c4be 7570 403e 69a8 3bbf
00000310: 09a4 c93e 7889 0ebf 267e d4be 1bde 863f
00000320: eab1 41bf b422 2c3f 0919 e83d 7ba7 f5bd
00000330: ff57 13bf a399 12bf 590c 10be d13c 11bf
00000340: 554b 823e c74f 233f 0fbf 60bf 5300 96bf
00000350: 64eb 623e 9048 a23e 3a71 c03d f2f6 4c3f
00000360: 1c35 383f 36b8 da3c aaf2 e93d f469 44be
00000370: 51a6 b13f fc0d 393f e3b5 fdbd 8819 7cbe
00000380: 6118 793e 9876 df3f 8b76 903f e42c a63d
00000390: b336 babe 92a7 2a3e 75f3 d3be ce42 e2be
000003a0: e678 25be df9d 9d3e 89d1 003f dbb2 b8be
000003b0: 0775 193e ab6a a5be 23fa fd3c dd97 51bf
000003c0: f510 9bbc db0b d23f 64ca 91be 099b b13e
000003d0: a0e7 8dbe 0069 e2bd c28d a4be b0fe cbbd
000003e0: e562 1f3e 695e dfbe fb59 b43f 62ef 5a3f
000003f0: 0fd6 6fbe 9949 c7bf 7a56 2a3d 366b 0e3f

actor.0.bias f4 [256]
-0.039339304 0.06961583 -0.016975522 0.058539674 -0.72652304 -0.17476167 -0.23918228 0.022608472
0.00086308154 0.4538971 0.206153 -0.4553461 0.50836563 -0.030103913 0.36445752 0.22554785
-0.13868043 0.3775775 0.20524733 -0.021129258 0.70650816 -0.006298901 0.027672732 0.07328367
0.7135356 0.019678874 0.17553876 0.33244318 0.09149893 -0.31176847 0.15995662 -0.17304148
0.25306222 -0.32277828 -0.055162944 0.33281192 0.06741654 0.23783262 -0.29755977 0.20364226
-0.3892868 -0.22925605 -0.3040525 0.0027194466 0.022684643 0.25315377 0.026709963 0.15348703
-0.33904588 -0.5035919 -0.61550397 0.11404732 -0.0058918865 -0.20979024 -0.008437173 0.29548037
-0.25069967 0.055822894 0.24587004 -0.12331535 0.38237414 -0.09454266 0.33964708 0.059681084
-0.14944273 0.1938963 -0.17553028 0.18369065 0.07646964 0.12039574 0.31188747 0.14104505
-0.40161106 0.10062448 -0.6232427 -0.32185495 -0.41689676 -0.054338004 0.060827214 0.28815705
0.1732824 0.1980944 0.29513112 0.32844734 -0.28547028 -0.16079687 -0.29150295 -0.0017615494
0.0275707 -0.30450708 0.07743587 0.090071656 -0.24128257 0.0025428787 0.13122717 0.11328228
0.4149779 -0.12369221 -0.25141272 0.42114222 0.11905141 0.30049217 -0.20839636 0.26922718
-0.22336565 -0.38286734 0.11676984 -0.25526518 -0.44046998 0.054555904 -0.1706516 -0.0758839
-0.31990558 0.39179102 -0.41069528 0.13206306 0.29570237 -0.20625204 -0.24531595 0.023879748
0.37027416 0.2101227 0.04822265 -0.7848697 0.14394492 -0.10574159 0.11572038 -0.43202534
0.094809234 -0.05893741 0.31397524 0.049114283 -0.12364484 0.31643465 0.26572502 0.3107179
-0.2502641 0.20885542 0.21505018 0.3024938 -0.07709792 -0.26470694 -0.25088644 0.3533187
0.03342816 -0.025584783 -0.18484183 0.0066607366 0.065846995 0.32627714 0.013996123 0.12932119
0.03949344 -0.33566993 0.2878797 -0.1212944 0.02167577 -0.06290574 -0.36811537 0.18723989
-0.43099588 0.24388425 -0.08574557 0.04652414 0.13743521 0.18666427 0.2875704 0.2785708
0.120387815 0.09900917 0.29277337 0.10955841 -0.042110823 -0.10907447 0.036826216 -0.59490126
0.01608924 0.51487327 0.26608604 0.17326868 -0.37576544 0.15270129 -0.31021804 0.4440843
0.125106 0.030162755 -0.23645602 0.106997006 -0.06106343 -0.18247296 -0.3387294 -0.2705436
0.12752214 -0.060361136 -0.08613647 -0.08906853 0.01994324 -0.21590707 0.20971408 -0.10287213
-0.31489655 -0.15249847 0.10640969 -0.16310725 -0.12211219 0.12994932 0.21209155 -0.01994815
-0.17531772 -0.126537 0.26632082 0.15463407 0.009895123 0.0013028204 -0.5942245 0.29000485
-0.08962945 -0.11102348 -0.51599103 0.26870418 0.19085453 0.13237658 -0.0004721284 -0.18680221
-0.21860488 0.124178074 -0.13591744 -0.0698227 -0.15296581 0.2034872 0.08659269 0.2308359
-0.12416988 -0.35092995 0.07997885 -0.040882904 0.05790671 -0.56642824 -0.13998125 -0.19545972
-0.40956828 -0.071449175 0.5814781 -0.023247397 0.10198303 0.038988777 0.43870556 -0.15850468
0.28315356 -0.0038945524 -0.43528107 -0.19532745 -0.17503808 0.048144683 -0.18798146 -0.5287598
00000000: 4022 21bd bf92 8e3d 4010 8bbc 4cc7 6f3d
00000010: 6afd 39bf b9f4 32be 33ec 74be 6735 b93c
00000020: 6c40 623a 3365 e83e c619 533e 2023 e9be
00000030: 4024 023f 7b9c f6bc 2d9a ba3e 04f6 663e
00000040: 3e02 0ebe d751 c13e 5b2c 523e 4417 adbc
00000050: b8dd 343f 0367 cebb edb1 e23c c015 963d
00000060: 45aa 363f 9735 a13c 6fc0 333e fe35 aa3e
00000070: ca63 bb3d 1ea0 9fbe abcb 233e c931 31be
00000080: 5f91 813e 3243 a5be 8af2 61bd 5366 aa3e
00000090: af11 8a3d 658a 733e c159 98be 9987 503e
000000a0: 9950 c7be 19c2 6abe c5ac 9bbe be38 323b
000000b0: 25d5 b93c 5f9d 813e dace da3c b42b 1d3e
000000c0: 6c97 adbe 66eb 00bf ab91 1dbf a491 e93d
000000d0: ba10 c1bb 41d3 56be 123c 0abc 3449 973e
000000e0: b55b 80be 8ca6 643d 5bc5 7b3e c28c fcbd
000000f0: 8bc6 c33e 959f c1bd 39e6 ad3e 2774 743d
00000100: 8407 19be c08c 463e 36be 33be 6719 3c3e
00000110: 1d9c 9c3d 0b92 f63d b7af 9f3e 1d6e 103e
00000120: f79f cdbe 3514 ce3d d58c 1fbf 2cca a4be
00000130: 7e73 d5be 8791 5ebd f525 793d 5289 933e
00000140: f170 313e 42d9 4a3e 6d1b 973e 402a a83e
00000150: 2929 92be efa7 24be e03f 95be cae3 e6ba
00000160: f3db e13c 5ae8 9bbe b396 9e3d 7d77 b83d
00000170: c712 77be 6da6 263b 6a60 063e 8a00 e83d
00000180: fc77 d43e 5752 fdbd 2bb9 80be f49f d73e
00000190: 3ad1 f33d 1cda 993e db65 55be 25d8 893e
000001a0: f7b9 64be 3007 c4be 0725 ef3d 1eb2 82be
000001b0: 4885 e1be 0376 5f3d 4bbf 2ebe 0569 9bbd
000001c0: aaca a3be d598 c83e a746 d2be 8a3b 073e
000001d0: 4d66 973e bc33 53be 1b34 7bbe 769f c33c
000001e0: 9394 bd3e 682a 573e 1d85 453d 38ed 48bf
000001f0: 4c66 133e 0c8f d8bd cefe ec3d 6d32 ddbe
00000200: 582b c23d 5b68 71bd 5dc1 a03e 0f2c 493d
00000210: 8239 fdbd b903 a23e 1c0d 883e 6b16 9f3e
00000220: 9e22 80be 32de 553e 1d36 5c3e 78e0 9a3e
00000230: 84e5 9dbd ab87 87be 3074 80be 30e6 b43e
00000240: f7eb 083d 2e97 d1bc 2d47 3dbe 4f42 da3b
00000250: cada 863d cc0d a73e ff4f 653c c66c 043e
00000260: e0c3 213d eedc abbe f864 933e 3369 f8bd
00000270: 6291 b13c bad4 80bd 9e79 bcbe d0bb 3f3e
00000280: 7eab dcbe cbbc 793e 609b afbd 1990 3e3d
00000290: d1bb 0c3e eb24 3f3e 6d3c 933e d5a0 8e3e
000002a0: e38d f63d 52c5 ca3d 64e6 953e 2960 e03d
000002b0: 667c 2cbd 7062 dfbd 16d7 163d 734b 18bf
000002c0: 95cd 833c bcce 033f 6e3c 883e 586d 313e
000002d0: 5464 c0be ba5d 1c3e e6d4 9ebe 045f e33e
000002e0: ca1b 003e e217 f73c 8721 72be 3f21 db3d
000002f0: a61d 7abd 31da 3abe f16d adbe b184 8abe
00000300: 2a95 023e 3d3d 77bd 5168 b0bd 9069 b6bd
00000310: 0160 a33c be16 5dbe 4abf 563e a0ae d2bd
00000320: 1f3a a1be 8f28 1cbe 53ed d93d 9605 27be
00000330: f515 fabd 6f11 053e 872e 593e 4d6a a3bc
00000340: 7d86 33be ea92 01be 345b 883e 6558 1e3e
00000350: 271f 223c 66c3 aa3a 191f 18bf 847b 943e
00000360: a58f b7bd 4760 e3bd fd17 04bf 9893 893e
00000370: 5f6f 433e ba8d 073e 0088 f7b9 1449 3fbe
00000380: f5d9 5fbe 1351 fe3d f12d 0bbe 34ff 8ebd
00000390: 12a3 1cbe f35e 503e 8257 b13d 3f60 6c3e
000003a0: c74c febd 17ad b3be f4cb a33d d574 27bd
000003b0: 962f 6d3d 7101 11bf 3f57 0fbe 9826 48be
000003c0: efb2 d1be f253 92bd c0db 143f 5371 bebc
000003d0: 7bdc d03d b2b2 1f3d 049e e03e 0d4f 22be
000003e0: 81f9 903e bf3b 7fbb 29dd debe eb03 48be
000003f0: 2f3d 33be 5c33 453d 367e 40be cd5c 07bf

actor.2.weight f4 [256, 256]
0.39683974 0.7358007 -0.40786263 -0.7678771 0.12164306 -0.49211743 1.0000741 1.4210677
-0.4620171 0.003228615 0.49633142 -0.6259744 0.3795282 -1.0609986 0.2238276 0.06187175
0.80805624 0.4754967 0.8319381 -0.123532616 0.46772566 0.39545056 1.1568836 0.18717274
0.38917902 0.10409732 0.15567276 0.49656412 -0.109126806 -0.44635493 -0.2646691 -0.71244884
-0.7383941 -0.7590806 -0.74264497 -1.1611563 -1.639822 0.6269271 -0.16476853 0.5004877
-0.4315253 -0.23384126 -0.21763533 -0.9209474 -0.48002955 0.20388432 -0.9531081 0.7937792
-0.6091268 -0.14791 0.15013424 0.017267661 -0.06876183 1.6652595 0.6016559 0.9145951
0.8846891 -0.049579844 -0.27610525 0.13537508 -0.5089029 -0.08004478 0.43888786 -0.831297
1.4314474 -0.0695332 -1.0803523 0.27339947 -0.37466243 -0.037950948 -0.15963708 -0.06965881
-0.5386229 -0.14003189 0.06226321 0.5519996 -0.39122137 0.19801763 -0.021207063 -0.3846081
0.62004167 -0.5928722 -0.37167612 -0.50797176 -0.7669473 0.3128844 -1.2010065 0.45214185
0.01705474 0.052810073 0.05844328 -0.78367656 0.09559381 0.6825595 -0.010098367 -0.5153741
0.8977828 -0.09832231 0.29704544 0.21108922 0.46832964 -0.69780284 0.73966384 -0.17496485
0.004669312 -0.29422763 -1.4953396 0.31886196 0.044930875 0.19060521 0.848524 0.2439961
0.38832316 1.1823927 0.14156753 0.1901725 -0.42579535 -0.6255437 -0.5620011 -0.53615516
0.6159991 -1.0769145 0.5372192 -0.007267144 0.28389215 -0.49634656 -0.1402458 0.23611002
-1.4988056 -0.24317235 0.7748894 0.6158537 -0.90553635 0.0536711 -1.0294585 -0.048801173
0.41068065 0.1954251 0.19391721 -0.016230557 -0.80386066 -0.49768725 -0.29366043 0.8903655
0.4383326 -0.3196984 0.5299127 1.156815 0.32657173 0.5306908 -0.5154129 0.39066634
1.1935347 0.4549124 1.097425 -0.29920214 0.47789472 -1.9255103 -0.06942904 0.05877284
0.08931644 1.026582 0.11466255 -0.6277758 0.6872103 0.29712248 0.00047429831 0.059743524
-1.2950524 -0.7687054 0.059722777 -0.25072318 0.39553693 -0.5094274 0.87394196 1.007329
0.71582544 0.21392494 -0.1179527 -0.104432896 0.19005017 0.8728224 -0.44242343 0.60893816
-0.24475253 -0.076258905 0.104171455 0.42583835 -1.063504 -0.45811263 -0.41336635 -0.28766927
-0.24366593 -0.64635456 0.6976496 -0.46870872 -0.40664288 0.52146876 0.24299072 0.14427474
-0.6027893 0.6784132 -0.17265071 -0.019632787 0.39182302 -0.99262047 0.42682254 0.41873765
-0.13952765 0.16566747 -1.6637832 0.6554497 1.3047682 -0.16612524 -0.16020998 0.14305465
-0.3974223 0.54890287 -0.51440114 1.2196734 -0.77171755 0.74981976 0.14423147 1.0727805
-0.19478941 -0.27507806 -0.0957589 -1.2187357 0.035896562 -0.07788128 0.066990286 0.12658294
-1.1673759 -0.39824864 0.75775117 0.52357394 0.43804 -0.07565764 -0.19294925 -0.20070405
-0.7674401 -0.21393102 0.12622069 -0.3898194 1.5239288 0.84423923 0.0040023746 -0.3219781
0.78770274 -0.9881423 -0.027201973 0.28397152 -0.4281071 0.38829365 1.5634124 0.5596502
00000000: 942e cb3e 6f5d 3c3f 5fd3 d0be 9893 44bf
00000010: ff1f f93d d1f6 fbbe 6e02 803f 8ce5 b53f
00000020: 818d ecbe 2c97 533b 271f fe3e dc3f 20bf
00000030: 8551 c23e cdce 87bf 1033 653e 3b6d 7d3d
00000040: c6dc 4e3f 4e74 f33e e5f9 543f abfe fcbd
00000050: bd79 ef3e 7f78 ca3e c314 943f 36aa 3f3e
00000060: 7942 c73e fa30 d53d ae68 1f3e a73d fe3e
00000070: e07d dfbd a288 e4be b582 87be 0c63 36bf
00000080: 6507 3dbf 1b53 42bf fb1d 3ebf c5a0 94bf
00000090: b0e5 d1bf 4b7e 203f 15b9 28be f61f 003f
000000a0: e2f0 dcbe 1574 6fbe ccdb 5ebe 35c3 6bbf
000000b0: 6fc6 f5be 0dc7 503e e4fe 73bf 1d35 4b3f
000000c0: bcef 1bbf b875 17be cabc 193e e974 8d3c
000000d0: 01d3 8cbd 3927 d53f 1f06 1a3f e822 6a3f
000000e0: fc7a 623f 3c14 4bbd ab5d 8dbe c49f 0a3e
000000f0: 7647 02bf 85ee a3bd e9b5 e03e e1cf 54bf
00000100: ab39 b73f 6c67 8ebd fc48 8abf 04fb 8b3e
00000110: c1d3 bfbe 7472 1bbd e777 23be 47a9 8ebd
00000120: 31e3 09bf 8564 0fbe b507 7f3d d94f 0d3f
00000130: 2b4e c8be 22c5 4a3e 6fba adbc 5aeb c4be
00000140: 0dbb 1e3f 79c6 17bf 554c bebe 700a 02bf
00000150: a956 44bf 6232 a03e 95ba 99bf 237f e73e
00000160: 62b6 8b3c 604f 583d 3962 6f3d 079f 48bf
00000170: b0c6 c33d 38bc 2e3f 9f73 25bc 8fef 03bf
00000180: 18d5 653f 355d c9bd 5716 983e c627 583e
00000190: e7c8 ef3e 35a3 32bf 9c5a 3d3f fc29 33be
000001a0: 0701 993b 01a5 96be 4a67 bfbf e041 a33e
000001b0: 7009 383d 032e 433e de38 593f 1dda 793e
000001c0: 4bd2 c63e a558 973f 14f7 103e 94bc 423e
000001d0: d901 dabe a223 20bf 4edf 0fbf 7741 09bf
000001e0: 1eb2 1d3f 56d8 89bf 3387 093f 3921 eebb
000001f0: 505a 913e 2321 febe 989c 0fbe d3c6 713e
00000200: ddd8 bfbf 2c02 79be 275f 463f 97a8 1d3f
00000210: 3bd1 67bf 3ad6 5b3d 4cc5 83bf bde3 47bd
00000220: bc44 d23e 841d 483e 3c92 463e f2f5 84bc
00000230: d0c9 4dbf ddd0 febe a95a 96be feee 633f
00000240: 216d e03e 82af a3be 5ca8 073f 8412 943f
00000250: 6934 a73e 5adb 073f 1af2 03bf 6b05 c83e
00000260: bfc5 983f 47ea e83e 6c78 8c3f 0631 99be
00000270: 9eae f43e 1f77 f6bf d030 8ebd cabb 703d
00000280: 8aeb b63d 0a67 833f 33d4 ea3d eab5 20bf
00000290: 04ed 2f3f 7020 983e 3eab f839 a0b5 743d
000002a0: 47c4 a5bf e1c9 44bf df9f 743d ca5e 80be
000002b0: d183 ca3e d669 02bf a9ba 5f3f 28f0 803f
000002c0: 5640 373f 240f 5b3e 2f91 f1bd eae0 d5bd
000002d0: 839c 423e 4a71 5f3f 5385 e2be 5fe3 1b3f
000002e0: 68a0 7abe a12d 9cbd d857 d53d 7c07 da3e
000002f0: e620 88bf bd8d eabe c1a4 d3be 6349 93be
00000300: 9083 79be 7e77 25bf 2a99 323f 97fa efbe
00000310: 7f33 d0be fa7e 053f 8fd2 783e c2bc 133e
00000320: 6650 1abf 7dac 2d3f 59cb 30be f0d4 a0bc
00000330: 079d c83e 601c 7ebf 7c88 da3e c864 d63e
00000340: 56e0 0ebe bca4 293e d9f6 d4bf 8dcb 273f
00000350: a502 a73f bc1c 2abe 160e 24be eb7c 123e
00000360: f07a cbbe e684 0c3f cbaf 03bf 421e 9c3f
00000370: 488f 45bf 30f4 3f3f 6ab1 133e df50 893f
00000380: e076 47be 08d7 8cbe 3e1d c4bd 88ff 9bbf
00000390: 4608 133d 3880 9fbd 3432 893d f59e 013e
000003a0: 936c 95bf 3fe7 cbbe fbfb 413f f108 063f
000003b0: c746 e03e 65f2 9abd 7d94 45be 5d85 4dbe
000003c0: f476 44bf bc10 5bbe ff3f 013e 6996 c7be
000003d0: 1910 c33f 1020 583f 5a26 833b 50da a4be
000003e0: e3a6 493f e5f6 7cbf acd6 debc b764 913e
000003f0: db30 dbbe 6dce c63e e61d c83f 3c45 0f3f
