models/ho_policy_ep2000.pth (torch, 628226 bytes, 11 tensors)

critic.0.weight f4 [256, 42]
000000 9f 1d 8a bd 02 80 ef bd 8d c9 c7 3e 21 1d a2 3e
       -0.06743931 -0.116943374 0.3902096 0.3166285
000010 54 96 54 3e b2 49 a0 be 56 54 41 3e 62 6a b5 be
       0.2076047 -0.31306225 0.18879828 -0.35432726
000020 a4 05 67 3f 07 11 17 3f f0 ce 4a be 23 a6 df bd
       0.9024298 0.59010357 -0.19805503 -0.1092036
000030 59 6c 6b 3a 38 fc 07 3e 63 99 13 bf 9a 11 cf 3e
       0.00089806836 0.13279808 -0.57655925 0.40443116
000040 f7 42 e5 3e 08 a5 70 3e b1 00 9f be 11 e6 39 bf
       0.44777653 0.23500454 -0.31055215 -0.7261668
000050 b4 60 1c be 94 e6 52 bc 8f af cf 3e 40 4f 39 be
       -0.15271264 -0.012872357 0.40563628 -0.18096638
000060 c7 c3 c7 bf cb 16 df be e3 73 cb bd 83 7b a3 bf
       -1.5606622 -0.43572077 -0.09934213 -1.2772068
000070 f2 34 a1 be b4 0f 86 bf ee 2c 5b 3e ce 97 18 3f
       -0.31485707 -1.0473542 0.21403858 0.59606636
000080 94 78 45 bf c3 4e cd 3f dd 00 09 bf 56 6f fa bd
       -0.7713711 1.6039661 -0.5351694 -0.12228267
000090 23 04 ee bd 01 d2 98 bd 3c 13 a6 be 1d aa 00 bf
       -0.11621883 -0.0746193 -0.3243655 -0.5025957
0000a0 f2 0c 4a bf 9e 1d 00 3f 50 48 f8 be bb fc 65 bf
       -0.78926 0.5004519 -0.4849267 -0.8983876
0000b0 89 fb 54 bf d6 10 06 be 9d 5e d1 3c d2 6d d8 be
       -0.8319631 -0.1309236 0.02555781 -0.42271286
0000c0 4b e5 f5 3d f6 e4 e7 be d0 1e 8b bf 0b 68 41 3d
       0.12006625 -0.4529187 -1.0868778 0.047218364
0000d0 7d 80 0e bf 28 fd 84 3e ef 4b ed be 38 47 87 3e
       -0.5566481 0.25974393 -0.46346995 0.26421523
0000e0 1d 97 99 3e 49 0f 33 bf 10 11 61 bd bd 96 06 be
       0.29998103 -0.699452 -0.054947913 -0.1314344
0000f0 77 c3 99 3e a8 aa 40 bf 1f 03 dd be 7f 5c 0a 3e
       0.3003194 -0.752604 -0.43166444 0.13511847
000100 f7 3c 23 3f 0c 58 6c bd 00 0c aa ba 96 bc 99 bd
       0.637649 -0.057701156 -0.0012973547 -0.07506673
000110 c2 09 e7 3e 5d 18 68 3f e3 7c 8b be 37 44 4a bf
       0.45124632 0.90662175 -0.27243719 -0.7901034
000120 51 08 21 be 9d ee 9b bd 27 79 99 be 1b 1d 31 bf
       -0.15725829 -0.07613871 -0.29975244 -0.69185036
000130 37 21 5e be a8 68 8a 3c 5e ef 45 bd 45 2f 99 3e
       -0.21692358 0.016895607 -0.04832398 0.29918876
000140 77 8c 36 3f d8 2a 6b bf 1c e1 9f bf 3c 72 50 3f
       0.7130808 -0.9186225 -1.2490573 0.8142431
000150 f9 57 06 be 4f 1f db be dc 91 e3 be 37 bd 8c 3e
       -0.13119496 -0.42797324 -0.4444722 0.2748811
000160 05 66 aa 3e 38 4f 57 bf 11 61 5f bd 2e a8 c8 be
       0.3328096 -0.84105253 -0.05453593 -0.3919081
000170 34 88 9f 3f fa 87 db be b7 f3 42 bd 95 e4 74 3e
       1.2463441 -0.4287718 -0.047595706 0.23915322
000180 e1 33 b4 bd b1 29 dd 3e 50 03 d8 3e de 13 d1 bd
       -0.087989576 0.4319587 0.42190027 -0.102088675
000190 62 3f 5c 3e 0f 0c ed 3e be 5e ac 3d d0 d6 cc be
       0.21508554 0.46298262 0.08416508 -0.4000764
0001a0 8d fa 4e 3e a5 ce 01 3e b9 5a 26 3f 91 de 89 be
       0.20212765 0.12676485 0.6498218 -0.26927617
0001b0 be 8e bd be cc 05 d3 bd 9c 2e 87 3e b9 61 0d bf
       -0.37022966 -0.1030384 0.26402748 -0.5522724
0001c0 fc 1f 49 bf 3b ba a9 bf de 00 d9 bd 31 d0 59 3d
       -0.7856443 -1.3259958 -0.105958685 0.053177062
0001d0 2b fe 63 bf 93 7a f3 3e 5e 8d 13 bf 20 c8 13 bc
       -0.89059705 0.47554454 -0.57637584 -0.0090198815
0001e0 82 25 fe bc 4d 09 ec 3c a6 1e 91 be 2a 11 6f bd
       -0.031023744 0.028813029 -0.28343695 -0.05836598
0001f0 7a bd 81 bd 08 bd cf bd a3 22 9d 3e e6 73 90 3e
       -0.06334968 -0.10143477 0.30690488 0.28213423
000200 41 39 45 3f 1f 31 2d bf f6 99 af 3c b7 ac b3 3e
       0.7704049 -0.6765308 0.021435719 0.35092708
000210 90 08 2d 3e 84 cd 63 3e 0f 95 19 3f bb 02 7e be
       0.16897798 0.22246367 0.5999307 -0.24805729
000220 b5 20 7f 3e 3d 15 17 be 48 8b a5 3e 00 d3 2e be
       0.2491482 -0.14754196 0.32332826 -0.17072678
000230 42 45 51 3f 67 89 91 3d a4 21 2f 3e 94 61 81 3e
       0.81746304 0.071062855 0.17102677 0.2526976
000240 95 b2 a2 be 08 0f e0 be c3 a3 c7 3e 01 ed c0 bd
       -0.31776872 -0.43761468 0.38992128 -0.09420205
000250 92 2a 8e 3d d1 c1 10 bf a5 ac d8 be 4c 38 34 be
       0.069417134 -0.5654574 -0.42319217 -0.175996
000260 9f e9 3d be 88 ce bc bf b8 da 40 3c 08 37 0c 3e
       -0.1854615 -1.4750528 0.011770897 0.13692868
000270 ee 91 0f 3e 7a 2b a0 bd 04 9f b5 bd fc c2 ce 3f
       0.14020512 -0.078207925 -0.088682204 1.6153255
000280 25 03 14 3f 8e 58 c3 3d 06 55 58 be b3 cd fa bb
       0.578173 0.09538375 -0.21126184 -0.007653916
000290 a4 3e de bd b9 e9 7d be 4b 6f 7e 3f af dd c7 be
       -0.108517915 -0.2479619 0.9938857 -0.3903632
0002a0 4e 44 8d bd 53 f7 35 bd 2c 8b ba bd 41 23 78 3f
       -0.06897794 -0.04442532 -0.09108576 0.96928793
0002b0 3c c7 59 3e 76 f2 eb bd 58 c5 c8 bc 84 42 bd be
       0.21267408 -0.11520855 -0.024508163 -0.3696481
0002c0 54 7f 3d 3f 7c 3e 4d bd 53 21 10 3e b8 b8 f9 3d
       0.7402241 -0.050108418 0.14075212 0.121934354
0002d0 2e 3f 56 bc 7a cf 88 3e 00 32 9e be a4 94 ac 3d
       -0.013076587 0.26720792 -0.30897522 0.084267884
0002e0 e9 cf 33 bd 29 88 df 3e 76 02 02 3e c5 65 be be
       -0.04389945 0.4365857 0.12696251 -0.3718702
0002f0 46 48 56 be 54 4d fc 3d 2d ff 7c 3f 06 fb b3 3e
       -0.20926008 0.12319437 0.9882687 0.35152453
000300 88 6d 1f be 97 7d 47 3e 6b 50 15 3e 1e c2 82 be
       -0.15569127 0.19481502 0.14581458 -0.25538725
000310 93 30 65 bf 11 60 a5 be dd 87 3d 3e 28 4f 18 bd
       -0.89527243 -0.32299855 0.18508859 -0.037184864
000320 df 6f 67 bf 9c 48 4b 3e 07 58 74 bd 9e e2 c7 3d
       -0.90405077 0.19851917 -0.059654262 0.09760021
000330 34 5b 9f 3d d8 5f 69 bd 8f bb 40 be a4 33 3a 3e
       0.077810675 -0.05697617 -0.18821548 0.18183762
000340 84 af 73 bf 71 9a b2 3e 59 bb 8d 3e e9 6f 88 be
       -0.9518969 0.34883454 0.27681997 -0.2664788
000350 84 fd 83 3f cf 9f 32 3e 33 07 a2 bd c9 28 4a bf
       1.0311742 0.17443775 -0.079115294 -0.78968483
000360 20 78 3a be f6 b1 c2 3e 5f a2 09 40 aa 8b c8 be
       -0.18209887 0.38026398 2.1505353 -0.39169055
000370 8a 1c b9 be 8c 35 03 bf 73 70 26 3f 5d 42 12 3e
       -0.36154586 -0.5125358 0.65015334 0.14283128
000380 15 69 a0 be 04 b5 1f 3e f5 fc 69 be cb e7 85 3e
       -0.3133017 0.15596396 -0.22850402 0.26153407
000390 25 e6 a3 bd 5d be fd bc bc 3b 12 bf 37 29 6d be
       -0.08002881 -0.030974561 -0.571224 -0.23160253
0003a0 52 50 78 be f5 67 25 3f 6e 45 c3 3f aa 7b 70 3e
       -0.2424939 0.6461175 1.5255563 0.23484674
0003b0 7e cd 08 3f 70 6c 0f bf 79 4e bf 3d ac 16 77 bf
       0.53438556 -0.5602484 0.09341139 -0.9651897
0003c0 85 e2 14 bf f9 33 95 bf c9 63 03 3e a7 93 e9 3e
       -0.5815814 -1.1656486 0.12831034 0.45620462
0003d0 fd 97 ca 3e 96 17 d9 3d 5c 83 56 3d b9 91 3c bf
       0.39569083 0.10600202 0.052371368 -0.73659855
0003e0 e2 c0 86 3e 92 27 f1 3e c2 e3 c4 3f b3 c5 16 bf
       0.26319033 0.47100502 1.5382006 -0.58895415
0003f0 4f 5b ee be 37 cc d4 be 6e 91 a9 be 3a cd 00 3b
       -0.46554038 -0.41562054 -0.33118767 0.0019653575

critic.0.bias f4 [256]
000000 24 40 84 be 39 68 96 bd 0f 55 9c 3c 7e 37 91 bc
       -0.25830185 -0.07344098 0.019083528 -0.017726656
000010 80 fb 43 be 0e a0 70 3e f5 90 34 3e fd e0 2e be
       -0.19138908 0.23498556 0.17633422 -0.17078014
000020 4b c4 45 be 89 89 b7 3e 48 6c 13 be 49 0e 81 be
       -0.19313161 0.35847118 -0.14396775 -0.2520621
000030 ac 7b 84 3e ab 2a 4a bd 48 c9 dd 3d dc 56 03 be
       0.25875604 -0.049357098 0.10829407 -0.12826103
000040 df f4 6d be 35 3e 21 bd b9 09 0f be d3 ea cb bd
       -0.23237942 -0.039365966 -0.13968553 -0.099568985
000050 09 e1 22 3e 75 5e f4 bd 28 94 c1 3d 56 5f ba bd
       0.15906157 -0.11932079 0.09452087 -0.09100215
000060 79 a1 f2 bb 43 d5 a0 3e b0 8d 47 3e 7e 1b 17 3c
       -0.007404503 0.31412706 0.19487643 0.009222863
000070 02 43 96 3e 99 0d 17 be 72 60 a5 bd 13 77 f6 bc
       0.29347998 -0.14751281 -0.08075036 -0.030086076
000080 e9 bb b7 3d 43 91 41 3d 7a 76 d5 bc d7 bc 3f 3e
       0.08971388 0.047257673 -0.02605747 0.1872438
000090 a3 65 59 bd d6 fd 4d 3d 7b 67 a2 3e ec 5b ab be
       -0.053075444 0.050290905 0.31719574 -0.33468568
0000a0 04 da 48 3d 04 fc 74 bc b3 6d 49 3e 3c 1d 3f be
       0.04903604 -0.014952663 0.19670753 -0.18663496
0000b0 f0 6a 59 3c 2f 0f 20 3e 3a 7a 40 3e b4 e7 7a 3d
       0.013270125 0.15630792 0.18796626 0.061256126
0000c0 af fa 15 be d0 68 84 3e e5 0f 98 3e 36 79 c8 3c
       -0.1464641 0.25861216 0.29699627 0.02447186
0000d0 c0 48 14 3e ca 84 b4 bd a7 21 a4 3e 1f ec 4d be
       0.14480877 -0.0881439 0.32056925 -0.20109604
0000e0 81 b0 90 3c a4 c0 ab 3b 9e e4 06 be 6b 1a a3 be
       0.017662289 0.0052414704 -0.13173148 -0.31856093
0000f0 20 c1 5c 3e f2 95 3c be a5 de 86 be f3 da 12 be
       0.21558046 -0.18416575 -0.2634174 -0.14341335
000100 b0 fa 96 bc ef 95 b4 3d 53 69 02 bd db d0 6d 3d
       -0.018430084 0.0881766 -0.031838726 0.05806051
000110 13 57 11 3e f1 4f 4f 3e 97 ae 98 be d1 de 96 be
       0.14193372 0.20245339 -0.298207 -0.2946687
000120 91 da dc bd d4 ab 9b bd 7e a0 2e be 0f cb 4c 3e
       -0.10783876 -0.07601133 -0.1705341 0.19999336
000130 3e 2b 46 3d fe 86 35 3c 16 a7 28 3e ee 25 4a 3e
       0.048381083 0.011079548 0.16469988 0.19741032
000140 06 fb cc bd a2 f0 54 3e ba f2 38 be 82 04 d3 bc
       -0.100088164 0.20794919 -0.18061343 -0.025758985
000150 33 b3 86 be 4d e3 a7 bd e6 e7 c4 bd c0 ce 4f be
       -0.26308593 -0.08197651 -0.096145436 -0.20293713
000160 e0 98 9c bd 72 82 5b bd f7 d6 22 3e 5b 9f 1c 3d
       -0.07646346 -0.0535912 0.15902315 0.03823791
000170 72 cc 01 bc ea 80 80 3c 82 0b 62 bd 49 77 c9 bd
       -0.007922279 0.015686471 -0.055186756 -0.09837205
000180 d2 4a 6b 3d b2 ee c2 3d 93 3b dd bd 62 91 93 3d
       0.0574444 0.09518184 -0.108023785 0.07205464
000190 8d b5 37 3e 5d fb 09 be 7b ce 51 3c ba 02 31 3e
       0.1794035 -0.13474794 0.012805576 0.17286196
0001a0 4b 1d 31 3e 77 16 57 be fb f3 2a bb ce 74 61 be
       0.1729633 -0.21004663 -0.0026085365 -0.22017214
0001b0 c0 18 15 3d c6 f3 0f bd b2 c7 7c 3e 0b eb 1a 3e
       0.036400557 -0.03514459 0.24685553 0.15128724
0001c0 f3 f9 c0 be 2a db 10 bf da d4 bb bd b5 77 33 be
       -0.37690696 -0.5658442 -0.091714576 -0.17526133
0001d0 e9 77 34 bd 09 9a 1a 3e af 29 41 3d e8 b6 48 3d
       -0.044059668 0.15097822 0.047158893 0.049002558
0001e0 8e d7 27 be 17 10 48 be b4 89 33 bd 78 a7 28 3e
       -0.16390821 -0.19537388 -0.043832496 0.16470134
0001f0 d7 9f cd bd c0 5c a5 3e b4 ff c2 3d db 8e 4e be
       -0.10040253 0.32297325 0.09521428 -0.20171683
000200 d0 2b dc 3e a0 fe bd be 32 8e 1a be 17 e7 73 be
       0.43002176 -0.37108326 -0.15093306 -0.23818623
000210 45 5c 18 be ae 1e 13 bd c5 21 1d be 5b ba 4f 3d
       -0.14878948 -0.03591793 -0.15344913 0.05071483
000220 ec 7a c4 bc 93 f0 33 be 77 2e 31 be 9c 84 37 3d
       -0.023984395 -0.1757224 -0.17302881 0.0448042
000230 03 33 f5 3d c8 71 68 be 4e 50 e0 3c 2b f4 76 be
       0.1197262 -0.22699654 0.027382042 -0.2411658
000240 b8 57 32 3d 3b 60 70 3d 7e 92 8b 3e f4 3b 23 3e
       0.043540686 0.058685523 0.27260202 0.15940839
000250 01 c4 56 3d 34 38 b8 3d 03 43 26 3e ea 41 51 bb
       0.052433018 0.08995095 0.162365 -0.0031930157
000260 33 44 55 3e 6e 7c 93 be 8c 86 05 3e 77 87 59 bd
       0.20826797 -0.2880587 0.13039607 -0.053107705
000270 95 5c 0a 3e 12 37 92 be 8d d3 2e 3d 2b db c7 be
       0.1351188 -0.2855764 0.04268222 -0.390344
000280 f6 4f ca bd bc 5a d3 3d 3e 6a 47 3d f7 b6 39 3d
       -0.098785326 0.103200406 0.048685305 0.045340504
000290 51 8a bc bd 4c e7 01 be 75 f8 01 3c 96 63 57 bc
       -0.09206069 -0.12685889 0.007932772 -0.013146302
0002a0 ff d0 8f 3e e6 10 1a be f5 1f fe bd 8d ed 1f 3d
       0.2808914 -0.15045509 -0.12408439 0.039044905
0002b0 43 97 73 be 8d d8 1c bd 5d e0 c2 bd 76 ee 67 be
       -0.2378817 -0.038292456 -0.0951545 -0.2264956
0002c0 ef 57 82 bb 3d fb fa 3d d1 4a df bd 15 54 36 3e
       -0.0039777677 0.12254951 -0.10902942 0.17805512
0002d0 a7 e7 87 be 50 93 4c 3e 6b 8a 7d be dd 7d 24 be
       -0.26543924 0.1997807 -0.24759834 -0.16063638
0002e0 58 b0 9d be c5 e2 3a 3e 0d fa 8f be a0 7d fa 3c
       -0.30798602 0.18250568 -0.2812046 0.03057748
0002f0 09 11 fb 3d 43 32 cc bd b4 72 ab bd 2b 2d 0c be
       0.122591086 -0.09970524 -0.08371487 -0.13689105
000300 df 23 95 bd 61 db 89 3e ad 51 0c 3e b9 e7 02 be
       -0.072822325 0.26925185 0.13703032 -0.12783708
000310 7e 49 65 bb 12 36 ae bd bb 65 bf 3e 80 6f 41 be
       -0.0034986432 -0.08506407 0.37382302 -0.1889019
000320 73 43 ec bd 31 ed 2c bd 14 67 5c be e0 72 bf bd
       -0.115363024 -0.04221839 -0.21523696 -0.093480825
000330 f2 6a 9e 3e 25 a9 27 bd c1 41 03 be df b6 3c 3b
       0.30940968 -0.040932793 -0.12818052 0.0028795523
000340 04 55 6f 3e 61 47 33 3e 55 04 dd bd 90 28 85 3e
       0.23372275 0.17507698 -0.10791842 0.2600751
000350 3b 26 82 3e fe 57 6b 3e b8 4d 80 3e 62 43 15 be
       0.25419793 0.22982785 0.25059295 -0.14576486
000360 bf 0c 26 be ff da 47 bd f1 a3 25 3e 91 cb e0 bd
       -0.162158 -0.048792835 0.1617582 -0.10976327
000370 c0 21 92 bd 6a de 82 bd 90 79 26 bc 6a fb 01 3d
       -0.071353436 -0.06390078 -0.010160819 0.031733908
000380 34 be 6f be 3c 31 f1 bd 28 c7 9a be 91 25 3e 3e
       -0.234124 -0.11776969 -0.3023007 0.18569018
000390 fc 22 d7 bd b2 08 04 3e 0d 38 8d 3e 81 f2 6f be
       -0.105047196 0.12893942 0.27581826 -0.23432352
0003a0 f0 36 c7 be 54 02 36 be a7 3c 47 be 7c 49 f3 3d
       -0.389091 -0.17774326 -0.19456731 0.118792504
0003b0 8d 5f cd bd 9f c4 69 be e3 9b 43 3d e9 c5 ff bd
       -0.100279905 -0.22828911 0.047756087 -0.1248892
0003c0 97 66 70 3e 9d 09 8c 3e b1 ba 89 3e 2a 5d 12 be
       0.23476635 0.27351084 0.26900247 -0.14293352
0003d0 55 ce fc bd f1 74 3c be 61 3f b2 be 12 f7 30 3e
       -0.12344042 -0.18403985 -0.3481398 0.1728175
0003e0 37 6a 11 3e a6 62 63 be fc 8d 98 bd 56 86 8a be
       0.14200674 -0.222056 -0.07448956 -0.27055615
0003f0 e8 ac 0a be d8 dc 84 bc 36 37 2a 3e 5e 05 81 bb
       -0.13542521 -0.016218588 0.16622624 -0.0039374074

critic.2.weight f4 [256, 256]
000000 a7 46 f0 3e d2 6d e4 bd 59 16 08 be 17 8a 10 bf
       0.46928903 -0.11153759 -0.13289775 -0.5646071
000010 9f 4b cc bd 9d 4b ec 3e 11 fd 31 3f 46 07 80 3e
       -0.09975361 0.46151438 0.69526774 0.2500555
000020 b3 12 cc be 9b 1e ed 3e 18 fe 8c 3d ca 06 71 3f
       -0.39858016 0.46312413 0.06884402 0.94150984
000030 b7 bf ea 3d 8e 19 47 bf a7 1f b8 3d f3 bc 80 be
       0.11462348 -0.7777337 0.08990412 -0.25144157
000040 e8 51 06 3f 79 bf 85 3e 08 b8 cf 3e b2 ab 67 bf
       0.5246873 0.26122645 0.40570092 -0.9049636
000050 01 ec 91 bd ba 40 0c 3f 27 fc ad 3c 05 73 ff 3d
       -0.07125092 0.54786265 0.0212384 0.1247311
000060 83 9f e3 be b0 31 03 3f 57 c8 c9 bf 7e f7 32 bf
       -0.44457635 0.5124769 -1.5764264 -0.69908893
000070 6b 0c c0 be 1d 0c ab bd 59 0e bd 3f c2 d5 2d be
       -0.37509474 -0.0835192 1.4770004 -0.16976073
000080 43 a6 ad 3e 37 68 93 3e e2 4d 2e be 06 06 1a 3f
       0.3391591 0.28790447 -0.17021897 0.6016544
000090 49 6e 54 3f d2 c3 91 bd ed 60 fd 3e 00 03 1b bf
       0.8298078 -0.07117428 0.4948801 -0.6055145
0000a0 cf c2 54 bf 0b ad 42 3f 33 d7 b3 be 44 1e 31 be
       -0.83109754 0.7604529 -0.3512512 -0.17296702
0000b0 85 19 a0 3d 83 ba 33 3f 37 b1 4c 3e 55 f8 2c bf
       0.078173675 0.7020647 0.19989477 -0.67566425
0000c0 50 01 a1 3e fb 01 02 3e 5a 2c bb 3e 2a 02 81 be
       0.31446314 0.12696068 0.36557275 -0.25196964
0000d0 76 23 7f 3e fe 64 09 bd ec bc 55 be ae 03 49 3f
       0.24915871 -0.03354358 -0.20872849 0.7852124
0000e0 e1 39 23 bf b9 c9 67 3e bc d8 1a 3f dd 83 3f 3d
       -0.6376019 0.22635545 0.6048696 0.046756614
0000f0 b6 2d 10 3f 4a 00 45 bf 84 e6 1f bd b1 00 78 3f
       0.5631975 -0.76953566 -0.039038196 0.96876055
000100 fd f7 2a bf 2c 0c 57 be ed d7 6f 3e 84 e6 3e bf
       -0.6678465 -0.21000737 0.23422213 -0.7457049
000110 63 2a 41 bf 4f 79 8f bd 9a 9f a8 bd b4 f1 fd 3d
       -0.754553 -0.0700556 -0.082335666 0.12399617
000120 ca 14 20 be 1e 6a 29 bf 79 1e 6d 3e db 65 d8 3e
       -0.1563293 -0.66177547 0.23156156 0.4226521
000130 11 28 a3 3d 3f 9c 08 be 5d 14 df 3e 99 10 1f bf
       0.079666264 -0.13340853 0.43570223 -0.621347
000140 3f 5d 23 bf d0 80 e1 3d 1d 86 18 bf 00 58 9d 3e
       -0.6381416 0.11010897 -0.5957964 0.307312
000150 dd f4 c9 3e 7a 04 5e 3f c0 b3 8b 3f 74 f2 21 3e
       0.39444628 0.8672558 1.091423 0.15815145
000160 69 51 20 3e 2c f7 46 3f d0 e9 59 bf 31 ff 72 3e
       0.15656056 0.77720904 -0.85122395 0.2373016
000170 e2 23 64 3c 7d 7d fc 3d ad 7b 12 bd 50 64 95 3e
       0.013924571 0.123286225 -0.035762478 0.29178095
000180 4a 8e 9c be ad 94 df 3e 96 ba a2 3e 01 06 8a be
       -0.30577308 0.43668118 0.3178298 -0.26957706
000190 0e 9d 44 be 4d e1 d8 3e f1 06 6f 3f 67 0b 2e bf
       -0.19200537 0.4235939 0.93369967 -0.6798615
0001a0 19 33 92 3e a7 a1 5a 3d 9c c0 d2 3e ac f4 75 bb
       0.2855461 0.05337682 0.41162574 -0.003752987
0001b0 9a 10 fd 3e c5 61 44 3f ad 8b d1 3e 05 08 b8 be
       0.49426728 0.76711684 0.40926877 -0.35943618
0001c0 61 92 a3 3e 1e 6e 0b 3e 55 60 4c bf 44 1f 8e 3d
       0.31947616 0.13616225 -0.7983449 0.06939557
0001d0 ed aa 43 be 04 73 67 bf 49 37 49 3e fe b9 9c 3f
       -0.19108172 -0.90409875 0.19649996 1.224426
0001e0 ff 3f 04 3f f8 c2 88 be bb a5 58 3f 8e c4 86 be
       0.5166015 -0.2671125 0.84627885 -0.26321834
0001f0 2a 5c 87 3d 80 5a 27 be 56 24 ba 3e 8b f1 46 3f
       0.06609376 -0.16343117 0.36355847 0.77712315
000200 29 2a 82 be c1 7a 93 be 31 cf f6 bc 30 fb ea be
       -0.2542279 -0.2880459 -0.030128093 -0.45894766
000210 b8 76 b3 3f 9a 7d 9b 3e a0 05 a2 be 43 c7 37 bf
       1.4020605 0.30369264 -0.31644917 -0.71788424
000220 73 6c 4e bf ac 71 7b be d2 a3 3f 3f e3 52 8e 3c
       -0.8063423 -0.24555081 0.74859345 0.017373508
000230 e0 88 9d 3e 71 c5 82 be 65 14 7a 3e 07 06 72 be
       0.3076849 -0.2554126 0.24421842 -0.23635112
000240 e7 11 8d 3f d5 7c da be c2 aa 6a 3f fa d5 40 3e
       1.1021088 -0.42673364 0.91666806 0.18831626
000250 32 ba 73 3f e1 40 b1 3e d5 47 33 3f be 88 ca bf
       0.95205986 0.3461981 0.7003148 -1.582298
000260 ae a2 66 3e 7d 67 17 3f 07 c4 01 3f f5 62 52 3f
       0.22522995 0.59142286 0.5068974 0.82182246
000270 59 57 da 3c 92 be 10 3e 0e 7f 98 3f 6b 89 83 3f
       0.026652979 0.14135197 1.1913774 1.0276312
000280 12 70 01 bc f5 f9 cb 3e 21 89 27 3e fe 44 a1 bd
       -0.007900255 0.3983914 0.16360904 -0.07874487
000290 21 6c 44 be 04 71 c6 3e 17 d4 5d 3f 0c 6b bb 3e
       -0.19181873 0.387581 0.8665175 0.36605108
0002a0 d0 94 43 3f b8 b5 24 3e 13 c7 6f bd 8e be 0e 3f
       0.76398945 0.16084945 -0.05853946 0.55759513
0002b0 55 e9 4f 3e 7b bc 0a bd c1 8f aa 3c cb b0 68 bf
       0.20303853 -0.033871155 0.0208205 -0.90894765
0002c0 96 55 1e bf 93 84 06 be 85 22 57 bf aa bc 07 3e
       -0.61849344 -0.1313651 -0.8403705 0.13255563
0002d0 25 67 21 3f 4e 2f c1 be eb d3 12 3f ac f2 1c bf
       0.6304801 -0.37731403 0.5735461 -0.6130779
0002e0 af bb 69 3f ad 8c b6 3e 9e 58 60 bf 0b 75 50 bd
       0.9130201 0.35654202 -0.8763522 -0.05089287
0002f0 b9 20 7f 3d e0 32 ab bf c9 f2 30 3e 96 16 bc bd
       0.062287066 -1.3374901 0.17280115 -0.091839954
000300 80 a3 ba be 7d 72 7f 3e 90 de 8d be 60 30 f3 be
       -0.36452866 0.24946018 -0.27708864 -0.47497845
000310 aa ff d6 3e ba 49 8c bd b9 08 11 3e 8d db 8b 3f
       0.4199193 -0.0685 0.14163484 1.0926377
000320 fb 70 5f bf 7d 42 09 3e 71 3b cd be a5 f7 a5 bc
       -0.8728177 0.1340427 -0.40084413 -0.020259688
000330 8d b2 c8 be 95 df 16 bf 37 4a 34 be 94 a0 b8 3d
       -0.39198723 -0.5893491 -0.17606436 0.09015003
000340 b4 37 d1 3e 56 62 46 bd 50 87 8f 3c d4 d2 56 be
       0.4086281 -0.048433624 0.017520577 -0.20978862
000350 6f b9 4b bd 8a f0 86 be a9 dc 53 bc 8c d4 b3 3d
       -0.04973739 -0.26355392 -0.012931027 0.087807745
000360 c6 f0 ac 3f b6 b2 b3 bd 5e 2e 89 3e de 38 1f bf
       1.3510978 -0.08774321 0.26793188 -0.6219615
000370 ee 9a 71 3f 9b 41 27 bd d5 9c 57 be 2e 0e b1 3e
       0.9437703 -0.04083405 -0.2105592 0.3458113
000380 5b 6f 02 3e 01 e1 00 bf f8 dd 3a bf d4 ca 58 3e
       0.12737791 -0.5034333 -0.7299495 0.21171123
000390 7a 46 d7 be 5f 2e 62 bf 34 c1 3d 3f 07 16 ae 3e
       -0.42045957 -0.88352007 0.7412293 0.3400118
0003a0 17 4a 40 3f 50 82 cb 3e b9 e7 54 be 84 09 0b bf
       0.7511305 0.39747858 -0.2079152 -0.54311395
0003b0 5d 72 73 bf ee 94 15 3f e7 ff 67 bf 40 d3 5a 3f
       -0.9509638 0.58430374 -0.9062485 0.8547859
0003c0 5c 6f 1a bf 1f aa 07 bf 01 5a b2 3e 26 5d 82 3e
       -0.6032617 -0.5299396 0.34834293 0.25461692
0003d0 87 18 00 bf aa 51 a2 3e 6a a5 9f be 86 48 9a 3f
       -0.50037426 0.3170293 -0.31180888 1.2053382
0003e0 1f 0a b3 be e7 9f 8d 3f a5 ab 2a 3e e1 23 8b bd
       -0.3496866 1.1064423 0.1666704 -0.06793953
0003f0 4e c0 8a bf fe 4c 0d bf c4 79 ca bc 6f a4 2a 3f
       -1.0839937 -0.55195606 -0.024716265 0.66657156

critic.2.bias f4 [256]
000000 3f ca 2a bd 82 09 8f be 51 fb 4c bd fd ca 9b 3c
       -0.041696783 -0.2793694 -0.05004436 0.01901769
000010 93 55 44 3e 82 86 e6 3d 9b 16 3b 3e c6 ce 2d 3d
       0.19173269 0.11256124 0.18270342 0.042433523
000020 a9 36 af be b1 47 52 3d 47 72 65 3e 67 96 ca be
       -0.3422139 0.0513379 0.22406875 -0.39567873
000030 db b0 f7 3e 62 06 07 3f 87 6c c8 be 72 68 84 be
       0.48377118 0.52744114 -0.391453 -0.25860935
000040 fa 5b 07 3f e3 e5 50 3d 22 ae 53 3e 3c bd 80 3e
       0.5287472 0.051000487 0.20671895 0.25144374
000050 8e bc ee bd 2b 6a 60 3e 4e a4 ce 3e 6e 15 1f 3f
       -0.11657058 0.219155 0.4035973 0.62142074
000060 21 3d 7e 3e d3 bf 35 bd 46 c0 7b 3e f2 02 7b 3e
       0.24828006 -0.04437239 0.24585065 0.24512842
000070 d0 8f 96 bd e8 ba 3f bf d3 77 25 be 88 d5 d1 ba
       -0.07351649 -0.7489457 -0.1615899 -0.0016009072
000080 44 3d 8e 3b 2d e7 11 bf 4c 8f e0 3d 51 40 db be
       0.0043407995 -0.5699337 0.10964832 -0.42822507
000090 c4 d9 76 3b bb 0a 1d 3d a1 c6 1b be 3b 02 19 3e
       0.003766642 0.03834031 -0.1521249 0.14942257
0000a0 75 d1 00 3d c9 8d 81 be 48 5e 7d be b4 6e 59 3e
       0.031449754 -0.25303486 -0.24742997 0.21233636
0000b0 17 7d 30 bf d7 84 1e bf 43 90 d5 bd 7d dc 8a be
       -0.6894087 -0.6192145 -0.10427906 -0.27121344
0000c0 54 b4 ed bc 9c 3c 17 3e b0 a1 05 be 57 ae fa 3e
       -0.029016651 0.14769214 -0.1304996 0.48961136
0000d0 98 fc 39 bf f7 de 27 bf 6e 85 fb 3c 4d f3 2b 3e
       -0.7265105 -0.6557459 0.030703273 0.1679203
0000e0 c6 42 84 bb a6 9f 06 bf 69 4a 24 3f b3 72 ff bc
       -0.0040362803 -0.52587354 0.6417604 -0.031182623
0000f0 71 d3 59 3f a9 8a 18 bf 15 7e 6e bc 54 86 c9 bd
       0.8508826 -0.5958658 -0.0145564275 -0.09840074
000100 45 80 d1 3e 1f 62 a2 3d b3 21 70 be a0 80 13 3d
       0.40918174 0.07928871 -0.23450355 0.03601134
000110 30 aa b2 be f7 96 19 3d 30 3d dc bc a5 ef 06 3f
       -0.34895468 0.037497487 -0.026884645 0.5270942
000120 9d e7 ef bd 97 16 de be 0b a3 85 3e b8 f9 37 3e
       -0.117140986 -0.4337661 0.26100954 0.17966354
000130 fd 36 a7 be 61 ac b0 3d d9 09 07 bd 38 28 72 3e
       -0.3265914 0.08626629 -0.032968376 0.23648155
000140 1d c6 55 3e d3 1a 1d be ad 66 40 3f d6 ce 64 be
       0.20876355 -0.15342264 0.7515667 -0.22344527
000150 1f a3 0e 3e 12 f3 97 bd 77 90 0f 3d e4 32 8d be
       0.13929413 -0.07419409 0.03504988 -0.2757789
000160 a8 1b 31 bd c2 29 51 bf 64 07 e9 3e 6a 10 04 bf
       -0.043239266 -0.8170434 0.4551345 -0.51587546
000170 4f bb 9b 3e 75 ea cd 3e 36 16 40 3f 6b ff 9c 3e
       0.30416343 0.4021794 0.7503389 0.30663618
000180 68 d4 50 bd 64 e0 39 3e e1 e7 bc 3e 5b 97 67 bd
       -0.050983816 0.18152004 0.3689566 -0.05654083
000190 be 1e a9 3e 3b a5 2d be d4 77 3a be 3a 9c 8f 3d
       0.33031267 -0.16957562 -0.18209773 0.0701222
0001a0 19 51 0a bf 9c 1e 85 3d 3f fb e6 3d 35 9e 64 bb
       -0.54029995 0.06499979 0.1127839 -0.0034884338
0001b0 78 3a a3 3e ea 91 c8 bd 32 2f b4 3e fb f6 82 be
       0.31880546 -0.09793456 0.35192257 -0.25579056
0001c0 ce 3d fc be ef 46 1d bd 0a e8 2f 3e 84 10 93 be
       -0.49265903 -0.038397726 0.1717836 -0.28723538
0001d0 b1 cb 11 3f a9 a4 77 3e 21 9f 17 3c 3c 2c c5 3e
       0.56951433 0.24183907 0.009254248 0.3851031
0001e0 20 86 3f 3f a4 34 14 be ec 93 a5 3e 35 17 53 be
       0.74814034 -0.14473206 0.32339418 -0.20614322
0001f0 95 ea a6 3e 2a 27 ba be b5 6a a1 3e 9f d8 17 3a
       0.32600847 -0.36358005 0.31526724 0.0005792472
000200 84 71 61 3e 49 f2 70 3e d5 6c 6d 3e fd 7f a9 be
       0.22015959 0.23529924 0.23186047 -0.3310546
000210 f2 cc 1d bf 82 bf 99 3e 36 31 40 3e 95 33 db 3d
       -0.61640847 0.3002892 0.18768772 0.10703198
000220 c5 de d4 3e 54 33 02 bf e0 6d 4b 3e e1 e1 7e bd
       0.4157621 -0.5085957 0.19866133 -0.062227134
000230 65 61 07 be 9c 4a a3 be 42 e2 18 3c 03 00 4f be
       -0.13220747 -0.3189286 0.009331288 -0.20214848
000240 36 d9 9a be bd 06 24 3e f2 f7 34 3f f8 7d e9 3e
       -0.30243844 0.16018195 0.70690835 0.4560392
000250 1c 94 23 3f 68 8b 9d 3e f9 56 8e be 61 7b 5f 3f
       0.6389787 0.3077042 -0.2780073 0.87297636
000260 95 0c e2 be b6 40 aa 3e 72 c6 e3 3d 30 7f 9c be
       -0.44150224 0.33252496 0.11121835 -0.30565786
000270 6a 5c b5 be 78 cc 19 3e a5 0f 48 be 97 7c 0b bf
       -0.3542207 0.15019405 -0.19537218 -0.54486984
000280 66 5a 9e 3d 32 f9 7f bd c0 cf ba 3e 99 1e c2 3e
       0.07732086 -0.06249351 0.36486626 0.3791397
000290 2d 1e 1e bf b0 8e 9f bc 3f 44 79 3e df 8d b4 be
       -0.61764795 -0.019477218 0.2434244 -0.3526449
0002a0 08 41 4a bd 90 26 c1 be 9c 19 1d bf 83 ef 7a 3e
       -0.049378425 -0.37724733 -0.613672 0.24505429
0002b0 65 d2 16 3f 68 27 a7 3e cd 49 36 3e a7 1f 5e 3e
       0.58914787 0.32647252 0.1780159 0.21691762
0002c0 e3 47 ae 3e 2e 7a 96 be c2 33 0f bf 50 87 c0 be
       0.3403922 -0.2939009 -0.5593835 -0.37603235
0002d0 31 4f ca 3d d1 78 f3 bc 2b 16 94 be 09 39 cd bd
       0.09878386 -0.029720696 -0.28923163 -0.10020644
0002e0 53 4a 7f be e9 f3 e4 be b4 b3 13 3e 64 fc 52 3d
       -0.24930696 -0.4471734 0.1442402 0.05151023
0002f0 01 50 3d 3e 9a c1 4d be a8 ae 06 3e 77 98 4a 3f
       0.1848755 -0.20093384 0.13152564 0.7913889
000300 58 89 f3 be cb f4 dd 3d c1 fd cd 3e 7c ea 34 3e
       -0.47565722 0.10837706 0.4023266 0.17667574
000310 18 29 8d bd b0 75 7e 3e ac 75 9f be 48 33 78 b8
       -0.06892604 0.24849582 -0.31144464 -5.9175567e-05
000320 ae 15 b0 3e af 70 9a bd 0e d0 ea be a2 70 bf 3d
       0.3439154 -0.07541024 -0.45861858 0.09347655
000330 b0 3f fe 3e 16 03 69 3e 38 5b 96 bd b7 12 66 3e
       0.49657965 0.22755083 -0.07341617 0.22468077
000340 bb 47 20 be c7 30 c4 be db 29 78 3e 61 51 2c bc
       -0.15652363 -0.38318464 0.24234717 -0.010517449
000350 ac 64 e2 3d 69 32 af 3d 13 77 d1 be 62 5a c8 3e
       0.11054358 0.08554537 -0.4091116 0.39131457
000360 d4 d2 ea 3d a1 8a 87 3e 9b d1 92 3c ec 26 85 3e
       0.114659935 0.26472953 0.017922213 0.26006258
000370 3a db ff 3e 18 db b1 3d de 6c 6a bd df fb fc bd
       0.49971944 0.08684367 -0.05723273 -0.12352728
000380 ca ae 0e bf 0e de f2 3d 45 6f fc 3d 18 01 12 3e
       -0.55735457 0.1185876 0.123259105 0.1425823
000390 40 de 01 3e 84 ee 00 bd 0a 0b b7 3e 42 df d4 3d
       0.12682438 -0.031477466 0.3575061 0.103941455
0003a0 ca 5e 5f 3c b0 82 19 be 4a d5 52 3e c6 6b 0d 3e
       0.013633439 -0.1499126 0.20589176 0.13810644
0003b0 48 d5 1a 3d 56 db a6 3d da 17 6d be 91 54 cc 3e
       0.037801057 0.08147304 -0.2315363 0.3990827
0003c0 c7 cd 9d bd 02 c8 68 3d 34 a7 d9 be 93 e9 3e be
       -0.077052645 0.056831367 -0.42510378 -0.18643789
0003d0 00 6e 5e bd b2 37 c1 be 63 fd 90 bb d5 f9 bf be
       -0.054304123 -0.37737805 -0.0044247373 -0.37495294
0003e0 95 bb 62 be 8c ae e2 3e 15 36 43 bd df 40 00 bf
       -0.2214187 0.44273794 -0.047659 -0.50098985
0003f0 70 99 7d 3e f4 dc 6a 3d 11 ee 48 bd 3e 8c cd 3e
       0.24765563 0.057339624 -0.049055163 0.4014606

critic.4.weight f4 [1, 256]
000000 6b 9f 10 c0 d1 5c 5a bf d5 d7 07 c0 51 dd d5 3e
       -2.25973 -0.85297877 -2.1225483 0.41770414
000010 06 8e 87 bf 98 a4 d5 be f0 e8 8e bf 62 01 85 bf
       -1.0590217 -0.41727138 -1.1164837 -1.0391047
000020 fa 4f 18 bf 4c 9c a6 3f 18 d0 20 bf 40 4b 99 bf
       -0.59497035 1.3016448 -0.62817526 -1.197609
000030 a8 99 59 bf 8a 64 10 bf 25 09 0a 40 f7 63 83 bf
       -0.85000086 -0.5640341 2.1568081 -1.0264882
000040 78 2c a5 3f 0c f2 2e bf 49 f4 25 3f 31 99 68 bf
       1.2904196 -0.68338084 0.64825875 -0.9085875
000050 71 ea 1e 40 c2 ae f7 3f dd f2 72 3f cd 99 3d bf
       2.4830592 1.9350207 0.9490183 -0.74062806
000060 32 84 1f 40 39 70 51 3f 62 db 43 bf fe 25 df 3f
       2.4924436 0.81811863 -0.76506627 1.7433469
000070 de 3c 96 3e 3f 96 e3 bf 4d ea bf 3e 46 f2 fd be
       0.29343313 -1.7780226 0.37483445 -0.49598902
000080 78 de 54 3f 8b e8 0f c0 7a 4c 68 bf 4b d3 3e 3f
       0.8315196 -2.2485683 -0.90741694 0.7454116
000090 23 29 3f c0 5a 57 31 3f da 62 9e 3f 36 a7 19 3f
       -2.9868858 0.6927391 1.2373917 0.6002077
0000a0 32 de 1c c0 df 7c 58 bf b7 37 29 40 ce 89 e1 be
       -2.4510617 -0.8456554 2.6440256 -0.4405045
0000b0 2b 75 9c 3d 9a ee 32 3f c7 4e 85 c0 64 c9 6f 40
       0.076395355 0.6989533 -4.1658664 3.746667
0000c0 51 19 6c 3f 69 9f 76 bf 99 a4 26 bf 5a 19 32 40
       0.9222613 -0.9633699 -0.65094906 2.7827973
0000d0 44 e2 fc bf 0b 35 7d bf 2b 5e 22 c0 93 1f ce be
       -1.9756551 -0.9890906 -2.5369976 -0.40258464
0000e0 33 1c 4d bf 18 06 df 3e 23 ae cd 3f 6d ef 7a bf
       -0.80121154 0.43559337 1.6068767 -0.98021585
0000f0 b5 12 4f 3e 83 02 11 bf 45 1f 3c bf f5 46 81 3f
       0.2022198 -0.5664446 -0.73485214 1.0099779
000100 e9 f3 a0 3e 9c 0a 06 3f 98 77 8e be 3e e1 dc be
       0.3143609 0.5235994 -0.27825618 -0.43140596
000110 81 73 7b bf 78 99 af bf e5 e4 0d 40 5a 1c 3a 3f
       -0.9822312 -1.371871 2.2170956 0.7269951
000120 e7 de ea bf ce 4b f4 3f 69 77 36 40 83 ee e3 bf
       -1.8349274 1.9085634 2.8510382 -1.7807163
000130 c4 c8 94 bf be 00 12 bf da 84 da 3f f6 90 31 3f
       -1.1623769 -0.5703238 1.7071793 0.6936182
000140 0f 33 53 bf f3 99 9a bf e8 9e 54 3f 00 5c e5 bf
       -0.82499784 -1.2078232 0.8305497 -1.7918701
000150 6f c1 c0 bf 37 86 35 bf a5 19 8e 3f 49 81 21 bf
       -1.5059031 -0.7090792 1.1101576 -0.630879
000160 84 0e 1a c0 a2 1b af bf 8d 2f 89 3f 19 87 2b bf
       -2.407136 -1.3680308 1.0717636 -0.6700302
000170 4d 88 67 3f 9a 83 bd 3f 7b 61 4d 40 c0 a9 ee 3f
       0.90442353 1.4805787 3.2090747 1.8645554
000180 43 33 ac bf b9 70 6f 3f 40 d2 97 bf 53 e6 86 c0
       -1.3453144 0.93531376 -1.1861038 -4.2156157
000190 87 bd 5e bf 29 2b 37 c0 25 d5 4c bf 8d 7f 59 bf
       -0.87007946 -2.8620093 -0.8001273 -0.8496025
0001a0 e0 95 24 c0 75 d9 24 40 9b d2 87 3f 2a aa 41 40
       -2.5716476 2.5757725 1.0611147 3.026011
0001b0 87 ae c6 3f c1 e6 7e bf 0d ff c7 bf 1c 04 66 bf
       1.5522012 -0.9957085 -1.562471 -0.8985002
0001c0 22 5e d4 bf 70 09 d5 bf c6 54 60 be dd 54 08 c0
       -1.6591227 -1.6643505 -0.21907339 -2.1301796
0001d0 ac a7 84 3f 45 9f 12 c0 32 08 c2 bf d6 92 9a bf
       1.0363669 -2.290971 -1.5158751 -1.2076061
0001e0 96 79 27 40 67 eb 05 40 87 f5 92 3f e8 7d eb bf
       2.616796 2.0924928 1.1481179 -1.8397799
0001f0 bb 0a 53 c0 86 37 bd bf 3d f4 2b 40 96 02 5c 40
       -3.29753 -1.478257 2.6867821 3.4376578
000200 b6 9e 3a 40 e2 54 d7 3f 9e b7 85 3f f9 c5 f3 bf
       2.915937 1.6822779 1.044666 -1.9044791
000210 a6 f1 67 3f c8 40 0c be a8 b0 02 40 e8 06 42 bf
       0.906031 -0.13696587 2.0420322 -0.7579179
000220 00 b1 26 c0 ae 5a 94 3f b5 77 9f bf d5 e6 97 3f
       -2.6045532 1.1590173 -1.2458407 1.1867319
000230 28 8a b7 3f b7 f4 de bf 99 5e dd 3f cc 05 5b 3f
       1.4339037 -1.7418431 1.7294494 0.8555572
000240 cd aa e8 be 0a 81 63 40 81 14 0b 40 9f a7 05 40
       -0.4544281 3.554751 2.1731265 2.0883558
000250 07 3a b9 3f c2 3a 90 3f cf bf b0 bf 52 8a e9 3f
       1.4470834 1.1267931 -1.3808535 1.8245337
000260 48 dd c4 bf 5a 8f 08 40 74 c9 db be 46 34 ed be
       -1.538003 2.1337495 -0.42927134 -0.46328944
000270 fa da 06 c0 f7 32 9d 3f 74 ec 0f 3f 28 5e 5b be
       -2.1071153 1.2281178 0.56220174 -0.21422637
000280 18 b6 da 3e 16 1e f1 3f 63 f8 6f c0 71 6f 48 c0
       0.42717052 1.8837306 -3.7495353 -3.1318018
000290 f3 56 9a bf 63 65 76 3f ce b9 85 3f 6e de 19 bf
       -1.2057785 0.96248454 1.0447328 -0.60105026
0002a0 b2 8a 49 3f 17 24 66 bf 43 0d bd 3e 19 3e 20 c0
       0.7872726 -0.8989882 0.3692418 -2.5037901
0002b0 66 f9 79 3f 1e 57 03 c0 17 b9 13 bf aa 77 8b bf
       0.97646177 -2.0521922 -0.577043 -1.0895894
0002c0 34 04 34 be 0d dc 2e 3f 9d 3c bb bf 3b f0 76 bf
       -0.17579728 0.6830452 -1.4627873 -0.9646031
0002d0 aa d0 1e bf 8d 57 be 3f 7f 18 f0 3f 3e e4 cc 3f
       -0.62037146 1.4870468 1.8757476 1.6007154
0002e0 eb cc e1 3f 5e 40 37 c0 3a 9e 53 40 47 f6 21 40
       1.7640661 -2.8633037 3.3065324 2.5306566
0002f0 b5 01 e3 3e 0d ea 36 c0 c6 8e c7 bf 22 6b 06 40
       0.4433724 -2.8580353 -1.5590446 2.1002889
000300 62 87 a2 bf 91 cf 1a bf 87 2d 80 3f 64 f9 5c 3f
       -1.2697566 -0.6047297 1.0013894 0.8631804
000310 97 5b 09 40 6a e6 23 40 a0 c5 17 c0 84 14 de 3e
       2.1462152 2.5609384 -2.371437 0.43375027
000320 09 02 6b c0 90 f3 80 bf 9f 1d f6 bf f6 d0 db bc
       -3.6719992 -1.0074329 -1.922779 -0.026833039
000330 0c 60 07 40 09 39 f8 bf 06 7a 61 bf 3d b1 49 40
       2.1152372 -1.9392406 -0.8807682 3.1514428
000340 0a 33 d9 be 48 cb a0 3e 4e b8 08 bf 45 af 35 c0
       -0.42421752 0.3140509 -0.53406227 -2.8388226
000350 0a 47 a8 3e 04 9a af bf 98 73 a2 bf d2 9e 90 bf
       0.32866699 -1.3718877 -1.2691526 -1.1298468
000360 d9 ae 66 40 7e ba ce be c5 c4 5a 40 36 f5 24 bf
       3.6044219 -0.40376657 3.4182599 -0.6443666
000370 37 77 14 40 c5 a2 37 c0 3f 1f 38 3f f8 1b 0b c0
       2.3197763 -2.8693097 0.7192268 -2.173582
000380 46 76 76 bf 4c f5 0d c0 6c 70 cd bf 4c 98 22 3f
       -0.9627422 -2.2180967 -1.6049933 0.63513637
000390 64 99 93 bf 84 19 40 bf f4 96 d1 3f 52 90 d9 3f
       -1.1531186 -0.75038934 1.6374192 1.6997168
0003a0 38 57 01 c0 c5 a7 63 bf a5 da d1 3f d9 9a 5f bf
       -2.0209484 -0.8892787 1.639485 -0.87345654
0003b0 20 f3 1c 40 38 27 89 bf 52 b9 ca bf 99 c7 5c bf
       2.4523392 -1.0715094 -1.5837805 -0.8624206
0003c0 14 9f 8d bf 88 ca 5b 3f d7 ee 4e c0 cc dd 26 40
       -1.1064172 0.85855913 -3.2333276 2.6072874
0003d0 04 b8 da 3f 44 27 12 c0 51 fb 2e c0 99 26 26 c0
       1.7087407 -2.2836466 -2.7340891 -2.5961058
0003e0 e3 80 c4 bf fd 6d 6d bf b6 ee 34 40 49 8d 7e bf
       -1.5351833 -0.92745954 2.8270698 -0.99434334
0003f0 49 3c 37 3f 77 70 83 3f a1 ae cb 3f 7b bc c4 3f
       0.7157636 1.0268697 1.5912668 1.537002

actor.0.weight f4 [256, 42]
000000 58 74 8e be 3a 62 f0 bc b0 45 1f bf ce cc 9e 3f
       -0.27823138 -0.029343713 -0.6221571 1.2406251
000010 23 2c fb 3e 82 91 5c c0 fe 8f 86 bf 61 f5 61 be
       0.4905711 -3.446381 -1.0512693 -0.22066261
000020 47 bc 49 3f a9 5b 98 bb c3 72 3d 40 d2 b7 8c 3f
       0.78802913 -0.0046495986 2.9601295 1.0993598
000030 a3 ec 94 3c 5b bf 51 3e b1 38 88 bd 5e 26 90 3f
       0.018179243 0.20483153 -0.06651438 1.1261709
000040 85 b2 2f 3f fd 58 1a 3e 4d 80 d4 bd d9 11 0e 3e
       0.68631774 0.15073009 -0.10376034 0.13873996
000050 d7 75 4f c0 98 0b d8 bf 8a 7e 66 3e 7e 06 8c 3f
       -3.2415674 -1.6878538 0.22509208 1.0939481
000060 02 5c 55 bf 02 53 35 bf 62 64 2b bf ec b4 76 3e
       -0.8334352 -0.70829785 -0.66950047 0.24092454
000070 59 6f 80 be 39 a3 9d 3f 72 27 70 3f 2f f8 de 3f
       -0.25084952 1.2315437 0.9381019 1.741949
000080 1a 8e 0c be e2 2c 9e bd a0 a7 46 bd 70 1c 88 bc
       -0.13726082 -0.077234045 -0.048499703 -0.016615123
000090 a6 a7 c8 3d 39 5d 46 3e 73 e0 2f bf 4a c3 08 bf
       0.097976014 0.19371499 -0.6870186 -0.5342299
0000a0 2a 27 af bf 3d 59 dc 3f 5b 2c 3b 3d 15 eb 09 3f
       -1.3683827 1.7214733 0.045696598 0.5387433
0000b0 f1 a1 a0 3e 7f 71 b2 bf 40 b0 10 3f 3b 89 7a bc
       0.3137355 -1.3940886 0.56518936 -0.015291507
0000c0 3d 60 aa be c4 73 19 3d cc 26 65 bf 13 03 67 be
       -0.3327655 0.03746392 -0.89512324 -0.22559766
0000d0 90 fe 27 40 91 aa 30 3f 84 2e be 3c 75 30 fd bd
       2.6249123 0.69010264 0.02321554 -0.12362758
0000e0 cd 42 21 3f 28 1a a3 3e e8 d1 a1 3e 53 52 89 bd
       0.62992555 0.31855893 0.31605458 -0.06705155
0000f0 13 5a 4f 3e 4a 49 c3 3e 42 61 d9 be 3d ce 99 bf
       0.20249204 0.38141853 -0.42457014 -1.2016064
000100 78 f5 28 3e 7b 13 95 bf c2 4a 1b bf f1 03 93 3c
       0.16499889 -1.164657 -0.60660946 0.017946215
000110 0b 96 29 bf 1d 40 75 3e 4c 64 08 be 83 03 3c bf
       -0.6624457 0.23950239 -0.1331951 -0.7344286
000120 3f 10 4f bf 30 96 7f bf 23 ff e8 3d ad 52 08 be
       -0.80884165 -0.9983854 0.113767885 -0.13312788
000130 63 ea 25 bd e3 52 12 3e 33 e2 6c 3e b9 5c 8b bd
       -0.04050673 0.14289431 0.23133163 -0.06804795
000140 1a 6e e5 3f 06 7d c6 3e b5 c3 b5 be 2d 82 b4 3e
       1.7924225 0.3876726 -0.35500875 0.35255566
000150 e8 34 25 bf 1f 7e ff bf aa cd 23 3f 78 b6 f8 3e
       -0.64533854 -1.9960364 0.63985693 0.48576713
000160 52 e8 78 be 64 a5 e8 3e 70 c4 a6 3e aa bb b5 3d
       -0.24307373 0.45438683 0.32571745 0.08873685
000170 94 86 4c 3f 44 29 19 bf 1a 58 2d 3c 56 6b ba 3e
       0.7989285 -0.5982859 0.010580087 0.36410016
000180 e3 a6 94 3e 33 15 ef 3d 5a 00 ed 3e 94 b9 08 3f
       0.29033574 0.11673965 0.4628933 0.5340817
000190 33 d8 00 3f 38 79 1a 3e 9e d8 7d be 4b 5c 7a bf
       0.50329894 0.15085304 -0.24789664 -0.9779708
0001a0 e4 ab f1 bf b5 fd fc bf 2a 73 c8 bd b9 55 0e 3e
       -1.8880582 -1.9764925 -0.09787591 0.13899888
0001b0 ad 2d 55 bf c6 97 66 3f 79 67 5e 40 52 b6 4d bf
       -0.8327282 0.9007534 3.4750655 -0.80356324
0001c0 8d 1c 1a bd 18 11 49 3f 00 a0 a9 3d 71 d7 a9 3d
       -0.037624884 0.7854171 0.08282471 0.08293045
0001d0 4e 3a ae bd b1 c8 47 3f e2 21 49 bf fe 45 17 be
       -0.085072145 0.78040606 -0.78567326 -0.14772794
0001e0 d3 4e 89 3d f9 cf ee 3c 33 b4 cf 3d 40 58 80 3e
       0.06704488 0.029151903 0.10141792 0.2506733
0001f0 9f 46 92 bd cf 37 b7 be 85 b1 1c bf c1 d4 0b c0
       -0.07142376 -0.35784766 -0.61208373 -2.1848605
000200 f1 fd cc 3e 48 51 6d 3e 45 a3 af bf 2c 25 83 bf
       0.40037492 0.23175538 -1.3721701 -1.0245719
000210 7c 80 9a bd 9e 26 8d 3e 85 93 01 3f d4 49 a5 be
       -0.07544038 0.27568525 0.5061572 -0.3228289
000220 c6 c2 d6 bf 24 c1 4e bf 4c f4 ae 3d da 94 5d 3d
       -1.677819 -0.8076346 0.0854269 0.054097034
000230 5c 75 ac 3d 4e 3d d7 3a b6 22 50 bd ed fb b5 3d
       0.08420822 0.0016421468 -0.050814353 0.08885942
000240 4b 8e 8d be 67 53 5e be db 5e 98 3f ce 4c 6d 3f
       -0.27647623 -0.21711503 1.1903948 0.9269532
000250 2e 54 00 be af b7 d9 3e e2 37 23 bf 2b e4 d8 3e
       -0.12532112 0.42522952 -0.63757145 0.42361578
000260 6c 9d a5 3f c1 7a 2a bf 62 88 8d 3d 5d 1f 34 40
       1.2938666 -0.6659356 0.069107786 2.8144143
000270 eb 5e 9b bc 29 44 01 3f f9 2a 90 bd c0 f4 1b 3f
       -0.018966159 0.5049463 -0.070394464 0.60920334
000280 46 87 1f 3c 52 2a a5 bd 46 70 f5 bd 2e 3a c0 3d
       0.009736842 -0.080647126 -0.11984305 0.09386097
000290 34 ef 19 bf b1 6b 39 3e dd 94 c9 3e 08 1e 89 bc
       -0.6013062 0.18107487 0.39371386 -0.016737953
0002a0 0a 9d 67 bf 5d 10 80 be 98 98 d4 be 85 aa b9 be
       -0.90474 -0.25012484 -0.4152267 -0.3626291
0002b0 87 de 57 bd 64 9d 37 bf 6d 50 2c 3e 40 ac 1d bf
       -0.052702453 -0.71724534 0.16827555 -0.6159096
0002c0 41 0a 80 be 11 69 7d 3e 52 0b 47 3f 1b c5 6a 3f
       -0.25007823 0.24747111 0.7775165 0.9170701
0002d0 78 06 28 bf ea a9 fb be b1 8a 87 be 9a 8f 5d bf
       -0.6563487 -0.49153072 -0.26473 -0.86547244
0002e0 7a 7d df 3e 91 45 0f bf ba 2e 29 bf f4 52 93 be
       0.4365042 -0.55965525 -0.66086924 -0.28774226
0002f0 2d bc 13 be 83 a0 9a 3f e6 76 f5 be e5 d0 72 be
       -0.14427252 1.2080234 -0.47942275 -0.237125
000300 70 a2 34 3e 98 5f cb be a1 7d 31 3e c5 01 43 bf
       0.1764009 -0.3972137 0.1733308 -0.76174575
000310 f3 c3 d9 3e 78 89 0e bf 9b 2f de be a4 be 83 3f
       0.4253231 -0.5567851 -0.43395695 1.0292554
000320 ce a0 4b bf 5b f7 2f 3f 09 19 e8 3d 7b a7 f5 bd
       -0.79542243 0.6873681 0.113329 -0.11994835
000330 d6 25 19 bf 4c 99 1a bf fc 18 20 be 98 04 16 bf
       -0.5982336 -0.6039016 -0.15634531 -0.5860076
000340 54 74 74 3e 87 7f 1d 3f 8f 5f 40 bf 80 48 6d bf
       0.238725 0.61522716 -0.7514581 -0.9268875
000350 e6 83 80 3e 30 1b ae 3e a6 19 e1 3d b7 b6 ac 3e
       0.2510063 0.34005117 0.1099122 0.3373315
000360 59 ef 00 3f 43 8d 4b 3d 01 c5 12 3e f4 69 44 be
       0.50365216 0.049695265 0.14332964 -0.19181043
000370 fb a3 8e 3d 56 5f a2 3e 85 10 cc bd 40 9a 64 be
       0.069648705 0.3171336 -0.09964088 -0.22324467
000380 61 18 79 3e 41 e2 79 3f 28 b6 55 3f d5 b6 d8 3d
       0.24325706 0.9761086 0.83481073 0.105817474
000390 c7 1a af be 92 a7 2a 3e d4 aa 1c bf 1c 69 18 bf
       -0.34200117 0.16665486 -0.61198163 -0.59535384
0003a0 d1 31 0d be fe 33 a8 3e 20 3d e5 3e 0a f2 94 be
       -0.13788535 0.32852167 0.44773197 -0.2909091
0003b0 72 e9 28 3e fb 0d 9e be 03 ea ed 3b dd 97 51 bf
       0.16495302 -0.3087004 0.0072605624 -0.8187235
0003c0 07 8d b1 bd d1 3e 90 3f 3c be 87 be 6a 7b aa 3e
       -0.08669477 1.126917 -0.26512325 0.33297282
0003d0 a0 e7 8d be 00 69 e2 bd bf e2 66 be da d3 dd bd
       -0.27715778 -0.110551834 -0.22547434 -0.10831423
0003e0 4e b9 c3 3e 22 73 1c bf 99 33 d7 3f 84 93 3f 3f
       0.38227314 -0.6111318 1.6812621 0.74834466
0003f0 92 36 8f be 03 eb c7 bf d9 a4 4b 3e d4 42 3c 3f
       -0.2797132 -1.5618595 0.19887103 0.7353947

actor.0.bias f4 [256]
000000 fd f1 a3 bd 65 a0 16 3d 8d 7c ef 3c 24 70 ba bd
       -0.0800514 0.036774058 0.029234195 -0.091034204
000010 8e a9 44 bf 0f 6e 1c be 82 f7 90 bd 20 1b 11 bd
       -0.7682122 -0.15276359 -0.07078458 -0.03542626
000020 89 9d 4b be ed 01 8d 3e e0 ac ad 3d 54 fa 7c be
       -0.19884314 0.27540532 0.08480239 -0.24704868
000030 43 6d 06 3f 01 9b 6d 3d e2 d0 c2 3e 42 90 09 3e
       0.5251047 0.05800915 0.3804999 0.13433936
000040 13 0f b6 bd fc 68 50 3e 15 c4 63 3d 04 d2 ac be
       -0.08889594 0.20352548 0.05560692 -0.3375398
000050 ca 22 bf 3e e6 fd 4f 3e fc 55 a9 3c 6e 19 1c be
       0.3733123 0.20311698 0.020670883 -0.15244076
000060 33 d0 df 3d e6 13 6c be fb f7 08 bd 81 a9 a7 3e
       0.10928383 -0.23054466 -0.033439618 0.3274651
000070 90 7d ff 3c 8c fe 00 3d 88 30 76 be a8 ff ed 3b
       0.031187803 0.031492755 -0.2404195 0.0072631426
000080 1d 84 a2 3d f1 b0 00 bf 27 6f a1 3d 16 02 81 3e
       0.07935355 -0.5026999 0.07882529 0.25196904
000090 07 5e 38 3e 7b 6b e9 3d 8a 86 32 bc d9 19 f8 3e
       0.18004619 0.113974534 -0.010896334 0.4845722
0000a0 ef 47 e2 3c ef e5 93 3a 35 41 64 be 95 08 1e 3d
       0.027622191 0.0011283736 -0.222905 0.038582403
0000b0 19 a2 e4 bc f9 27 f1 bc a2 37 18 3d 23 d8 6b 3e
       -0.027909325 -0.029438006 0.03716243 0.23031668
0000c0 5c 97 42 bd c1 b4 f3 be 90 f9 00 bf 8d ca e3 3c
       -0.04750763 -0.47598842 -0.503808 0.027806545
0000d0 e4 a2 f0 be 73 55 c0 bd 99 5f d5 3d 5d 50 57 3e
       -0.46999276 -0.09391298 0.104186244 0.2102675
0000e0 86 29 4b be 58 c9 d6 3e ed 58 2b 3a 34 3a d3 3c
       -0.19840059 0.41950488 0.00065363833 0.02578459
0000f0 75 52 7f 3e 9a 02 c2 bc 20 1d 12 3e b1 82 a7 3c
       0.24933799 -0.023682881 0.14268923 0.02044806
000100 8e 9d 87 bd 7a cd 2d 3e 56 71 44 bb 11 92 46 bd
       -0.06621848 0.16972914 -0.002997478 -0.048479144
000110 57 3c 14 3b 85 86 b1 3c a5 30 04 3f 77 1c e9 bc
       0.0022618973 0.02167059 0.51636726 -0.028455956
000120 f2 f1 ca be ca 26 b8 bd da eb f2 be 54 27 85 be
       -0.39637715 -0.089917734 -0.47445565 -0.26006567
000130 03 80 76 be 88 a1 27 bd 53 bb 25 bc b3 ec a0 3d
       -0.2407227 -0.040925533 -0.010115462 0.07857647
000140 af c3 0a 3d 99 d0 33 be c1 51 35 3e e8 0b 6b 3e
       0.033878025 -0.17560042 0.17706968 0.2295376
000150 96 4f 05 3e 50 81 ea bd 69 03 61 be f7 9e 1f be
       0.13018641 -0.11450446 -0.21973957 -0.15587984
000160 dc b0 a8 3e a8 66 7f bd e2 20 61 3e 45 2e ce be
       0.32947433 -0.06235376 0.219852 -0.40269676
000170 71 66 29 be 25 d3 bb ba 14 54 6e bd 8c fe 59 bd
       -0.16542985 -0.0014329894 -0.058185652 -0.05322127
000180 ff 22 53 3e b8 c1 1c 3e ae 91 bb bd df 60 f2 3e
       0.20618819 0.15308273 -0.091586456 0.47339532
000190 cf f4 b1 3e c2 55 cf 3d 35 09 28 be 74 16 15 3e
       0.34757087 0.10123779 -0.16409762 0.14559346
0001a0 7b b3 ef bd e0 ce ed bd 5d c7 95 3c 73 01 1f be
       -0.11704155 -0.11611724 0.01828354 -0.15527897
0001b0 29 4b ea be 8e 61 c4 bd 15 54 70 be 5f 83 0f be
       -0.45760468 -0.095889196 -0.23469575 -0.14014958
0001c0 40 77 c0 bd b8 8f 68 3e b8 c1 f9 be 66 30 03 3e
       -0.09397745 0.22711074 -0.48780608 0.12811431
0001d0 59 a8 17 3e 39 02 21 bd 04 aa 2b be 07 85 b8 3d
       0.14810313 -0.03930876 -0.16764075 0.09009748
0001e0 99 a1 66 3e ff 2f 9d 3e a4 07 13 3e f4 20 47 bf
       0.22522582 0.3070068 0.14358383 -0.7778466
0001f0 88 12 e6 3d 34 1d f8 bc d2 f7 1c 3e 18 9e 7b be
       0.11234003 -0.030287363 0.15328911 -0.24572027
000200 29 a5 35 3e 57 66 b1 bb 9f 9b 4c 3e 81 ac 2f 3a
       0.17738785 -0.005413811 0.1998124 0.00067014253
000210 7a 81 62 be 31 2a 16 3e 90 05 51 3e 6b 8e 98 3d
       -0.22119704 0.14664532 0.20412278 0.07449039
000220 d0 01 a9 bd 27 d0 ff 3d b1 e5 1f be 71 32 35 3e
       -0.08252299 0.12490874 -0.15614964 0.17695023
000230 9d f7 6f be 8c 4c 97 be b3 31 80 be e2 1c d3 3d
       -0.234343 -0.29550588 -0.25037917 0.10308243
000240 29 06 31 bd ab 61 d7 3c 37 9b 02 be 1d a6 a3 bd
       -0.043218765 0.026291689 -0.12754522 -0.07990668
000250 c4 14 db 3b e5 bb 86 3e 06 74 4a bd 69 62 06 3d
       0.006685825 0.26315227 -0.049427055 0.032808695
000260 74 60 c5 3d c0 4d 91 be 35 fe 04 3e 7b 5a a1 3d
       0.096375376 -0.2837963 0.12987597 0.07878586
000270 6e 74 2e 3e bf 3f 6b bd e3 24 c7 3d fe 72 51 3d
       0.17036602 -0.05743384 0.097238325 0.051135056
000280 b5 f6 f6 bd 8f 27 45 3c 0a 57 10 3b 6d 12 ff bc
       -0.120587744 0.012033357 0.0022024536 -0.031136716
000290 50 ff 5c 3d 3a c6 5a bd 3a 27 09 3c e5 17 74 3e
       0.053954422 -0.0534117 0.008371169 0.2383724
0002a0 b3 30 31 3e a4 81 f6 bd 62 59 0e 3e cf fb 99 bd
       0.17303734 -0.12036446 0.13901284 -0.07518732
0002b0 4b f2 e5 bd 27 9c 52 be fb f3 be 3d c4 92 bc be
       -0.11227854 -0.2056738 0.09323879 -0.36830723
0002c0 fd 9f d3 3d 72 b7 cb bc 8f ee 02 be 92 06 ca 3d
       0.1033325 -0.024867747 -0.12786315 0.098645344
0002d0 24 92 a1 bd 3b 36 de 3c 68 a0 37 be a4 a7 0f 3f
       -0.07889202 0.027125468 -0.17932284 0.56115174
0002e0 15 24 01 3e 99 6e 3b 3e 79 73 fe bd 4f 7e 52 be
       0.1261142 0.18303908 -0.124243684 -0.20555995
0002f0 d7 8f 35 3d 92 f6 f9 bd 80 12 1d be f6 67 4c be
       0.04432663 -0.12205233 -0.15339088 -0.19961533
000300 52 9c ae be 80 8a 8a bd 96 73 a6 3d c6 ef 26 bd
       -0.34103638 -0.06764698 0.08127515 -0.04075601
000310 ab 2d 04 bd af 8f d2 bc 3c 34 f8 bc 14 c0 b7 3e
       -0.032270115 -0.02570328 -0.030298345 0.3588873
000320 2f 30 8d bd ad 19 36 be 50 cb 65 3e 0a c5 83 3e
       -0.06893956 -0.17783232 0.22440839 0.25736266
000330 42 3b 80 bd 54 c6 4b 3e b0 8b 34 3e e1 70 c9 3d
       -0.062613025 0.19899875 0.17631412 0.09835983
000340 4d f8 84 bc 85 a2 01 3d 4e 0d a2 3d 61 39 99 3d
       -0.01623168 0.03164913 0.07912694 0.07481647
000350 fc 33 20 3e 98 94 37 be 2c 91 02 be ba ee e6 3e
       0.1564483 -0.17927778 -0.12750691 0.4510401
000360 65 c4 b7 3d 69 bb 2c bd b0 84 12 be 42 4c 0b 3e
       0.08973006 -0.042170916 -0.14308429 0.13603309
000370 cc 5d 0f 3a 21 3b cb 3d d3 7e fa bb 20 3d 1b be
       0.0005468994 0.09923387 -0.007644513 -0.15160036
000380 a6 70 3a 3d 42 57 ec bd 0c 3e c8 bd 81 7c df bd
       0.045517586 -0.115400806 -0.097774595 -0.10912419
000390 bd 4f 33 be 69 ec 14 3d e5 77 1f 3d 93 6c 16 be
       -0.17510886 0.03635827 0.0389327 -0.14689855
0003a0 13 5a 82 bd e7 23 39 bd ed b5 c6 3c 38 c9 5b bd
       -0.063648365 -0.045200255 0.02425667 -0.053658694
0003b0 b6 a2 96 bd a7 53 11 bf 91 e0 aa 3d 07 59 95 be
       -0.073552534 -0.5676827 0.08343614 -0.29169485
0003c0 af c0 ab be 2b c8 a5 bd 6b 02 db 3e 27 37 28 be
       -0.33545443 -0.0809482 0.42775282 -0.16427289
0003d0 27 41 d4 3d 4b 0e d4 3c 58 dc 97 3e 29 9c f0 3c
       0.10363989 0.025885722 0.29660296 0.029371338
0003e0 46 bd 9d 3d 31 f4 a3 3e 9e 97 da bd 9e a8 44 bd
       0.07702117 0.3202224 -0.1067345 -0.04801237
0003f0 ed 8a 87 3e aa e6 e8 3e 9c b2 48 bd d7 c6 00 bf
       0.2647318 0.45488483 -0.04899846 -0.50303406
