models/ho_policy_ep7000.pth (torch, 628226 bytes, 11 tensors)

critic.0.weight f4 [256, 42]
0	0xbda11481	-0.07865239
1	0xbe014b42	-0.12626365
2	0x3ec1d4dd	0.37857714
3	0x3e9a2d19	0.30112532
4	0x3e44c255	0.19214757
5	0xbeb69e0d	-0.35667458
6	0x3e43d86e	0.1912553
7	0xbebcd0cc	-0.3687805
8	0x3f63d28e	0.88993156
9	0x3f171107	0.59010357
10	0xbe44e9c0	-0.19229794
11	0xbdc15092	-0.09439196
12	0xbc5a0692	-0.013307231
13	0x3df08727	0.11744528
14	0xbf139963	-0.57655925
15	0x3ea86e6f	0.32896754
16	0x3edddd48	0.43332887
17	0x3e61f434	0.22065812
18	0xbea7253a	-0.3264559
19	0xbf39e611	-0.7261668
20	0xbdecd746	-0.11564498
21	0x3c3ceae2	0.01153061
22	0x3ec7e277	0.39039966
23	0xbe49e6a3	-0.19716887
24	0xbfc7c3c7	-1.5606622
25	0xbee3dab3	-0.44502792
26	0xbdaf88f7	-0.08571046
27	0xbfa5e62a	-1.2960865
28	0xbe9983cf	-0.29983374
29	0xbf860fb4	-1.0473542
30	0x3e4a2d7c	0.19743913
31	0x3f1153e0	0.5676861
32	0xbf4988c7	-0.7872433
33	0x3fcfd3d0	1.6236515
34	0xbf0900dd	-0.5351694
35	0xbdfa6f56	-0.12228267
36	0xbdfd4543	-0.12366726
37	0xbdb87957	-0.09007519
38	0xbea6133c	-0.3243655
39	0xbf019684	-0.50620294
40	0xbf4da843	-0.8033487
41	0x3ef576e9	0.47942284
42	0xbefaecdb	-0.4900883
43	0xbf63867d	-0.8887709
44	0xbf5979b2	-0.8495132
45	0xbe168055	-0.14697392
46	0x3c1b73af	0.00948803
47	0xbee61759	-0.44939688
48	0x3dfbe1e4	0.122989446
49	0xbef0533a	-0.46938497
50	0xbf8d5371	-1.1041089
51	0x3d41680b	0.047218364
52	0xbf173e0f	-0.5907907
53	0x3e855d26	0.2604763
54	0xbef5c68d	-0.48003045
55	0x3e7e0f3c	0.24810499
56	0x3e99971d	0.29998103
57	0xbf24bc13	-0.6434948
58	0xbcc28881	-0.02374673
59	0xbe177d3d	-0.14793868
60	0x3e919fd1	0.28442243
61	0xbf40aaa8	-0.752604
62	0xbee251ed	-0.4420313
63	0x3e1191da	0.14215794
64	0x3f1f1a15	0.62149173
65	0xbd967b31	-0.07347716
66	0xbaaa0c00	-0.0012973547
67	0xbdb3cb74	-0.0877904
68	0x3ee03b42	0.4379521
69	0x3f6453ec	0.89190555
70	0xbe832bf0	-0.2561946
71	0xbf4a4437	-0.7901034
72	0xbe2bc200	-0.16773224
73	0xbda0bbf1	-0.07848347
74	0xbea19efd	-0.3156661
75	0xbf2d6e8d	-0.6774681
76	0xbe5e2137	-0.21692358
77	0x3c8a68a8	0.016895607
78	0xbd8d8a18	-0.06911105
79	0x3e90f51e	0.2831201
80	0x3f368c77	0.7130808
81	0xbf69c57a	-0.9131695
82	0xbf9f5eb6	-1.2450778
83	0x3f436dd1	0.7633944
84	0xbe147ccb	-0.1450073
85	0xbeeed54b	-0.46647105
86	0xbee449c3	-0.44587526
87	0x3e8c0c82	0.27353293
88	0x3ea9b53d	0.33146086
89	0xbf6591fe	-0.8967589
90	0xbd8618be	-0.06547688
91	0xbec95aea	-0.39327174
92	0x3f9f5a97	1.2449521
93	0xbedb87fa	-0.4287718
94	0xbdb0b584	-0.08628371
95	0x3e70e5fb	0.2352523
96	0xbdb70169	-0.08935816
97	0x3edc78b2	0.43060833
98	0x3ed80350	0.42190027
99	0xbd310e52	-0.043226548
100	0x3e780c35	0.24223407
101	0x3eec593b	0.46161827
102	0x3da99dbe	0.0828204
103	0xbeccd6d0	-0.4000764
104	0x3e9c8d40	0.30576515
105	0x3e2b7f70	0.16747832
106	0x3f260212	0.6484691
107	0xbe8a8de6	-0.27061385
108	0xbebd8ebe	-0.37022966
109	0xbdc4750a	-0.09592636
110	0x3e995d1e	0.29953855
111	0xbf0db70c	-0.5535743
112	0xbf48c726	-0.78428876
113	0xbfa9ba3b	-1.3259958
114	0xbdaebb9b	-0.08531877
115	0x3e31b1f3	0.17353038
116	0xbf645635	-0.8919404
117	0x3ef4238b	0.47683367
118	0xbf138d5e	-0.57637584
119	0xbc13c820	-0.0090198815
120	0xbd00c2ba	-0.031435706
121	0x3ce0f7ec	0.027461968
122	0xbe911ea6	-0.28343695
123	0xbd807b9e	-0.06273578
124	0xbd71e1a4	-0.05905308
125	0xbdde2ee0	-0.108487844
126	0x3e9bc68f	0.30424926
127	0x3e9b2d0e	0.30307811
128	0x3f46c568	0.7764497
129	0xbf2b88a3	-0.67005366
130	0x3ce4a7c5	0.02791203
131	0x3ecba28a	0.39772445
132	0x3e42f577	0.1903895
133	0x3e6a5141	0.22882558
134	0x3f1b2787	0.6060719
135	0xbe7e02bb	-0.24805729
136	0x3e72951f	0.23689698
137	0xbe11759f	-0.14205025
138	0x3ea8c9d3	0.3296648
139	0xbe283458	-0.16426218
140	0x3f514542	0.81746304
141	0x3e173809	0.1476747
142	0x3e559480	0.2085743
143	0x3e84a24c	0.25905073
144	0xbe9f5acf	-0.3112397
145	0xbee00f08	-0.43761468
146	0x3ed26068	0.41089177
147	0xbda3ced2	-0.07998432
148	0x3d9b60d0	0.07586825
149	0xbf0f140d	-0.5588997
150	0xbed8aca5	-0.42319217
151	0xbe5ba542	-0.2144976
152	0xbe8ce2b7	-0.2751672
153	0xbfbbed07	-1.468171
154	0x3baf1990	0.0053436235
155	0x3e0c3708	0.13692868
156	0x3e2742b8	0.16334045
157	0x3d895d29	0.06707222
158	0xbda84267	-0.0821579
159	0x3fcdde72	1.608351
160	0x3f140325	0.578173
161	0x3dc3588e	0.09538375
162	0xbe530042	-0.20605567
163	0xba9a5346	-0.0011774085
164	0xbdde3ea4	-0.108517915
165	0xbe6f1d86	-0.23351106
166	0x3f7ec7a7	0.99523395
167	0xbec8943c	-0.39175594
168	0xbdcdcc2e	-0.1004871
169	0xbdcdb893	-0.1004497
170	0xbdcf480b	-0.10121163
171	0x3f7585d7	0.9590735
172	0x3e4f50c8	0.2024566
173	0xbddb2fcd	-0.10702477
174	0xb99587c1	-0.0002852064
175	0xbec27ab8	-0.37984252
176	0x3f3ae690	0.7300806
177	0xbd4d3e7c	-0.050108418
178	0x3e40e0d9	0.18835773
179	0x3e23051b	0.15919916
180	0xbcbe918e	-0.023262765
181	0x3e839478	0.2569921
182	0xbe9e3200	-0.30897522
183	0x3d03fc98	0.032223314
184	0xbd38c90a	-0.0451136
185	0x3eda5046	0.4263937
186	0x3def1322	0.11673571
187	0xbebe65c5	-0.3718702
188	0xbe4d2420	-0.20033312
189	0x3e15f2a2	0.14643338
190	0x3f7a6229	0.9780603
191	0x3eaebd83	0.3412896
192	0xbe1f6d88	-0.15569127
193	0x3e5829a1	0.2110963
194	0x3e789936	0.24277195
195	0xbe880835	-0.2656876
196	0xbf6293e6	-0.88506925
197	0xbea56011	-0.32299855
198	0x3e39006d	0.18066569
199	0x3d837614	0.06419006
200	0xbf6a0ddc	-0.914274
201	0x3e55da08	0.20883954
202	0xbd745807	-0.059654262
203	0x3dc7e29e	0.09760021
204	0x3d878031	0.066162474
205	0xbd899c29	-0.06719238
206	0xbe40bb8f	-0.18821548
207	0x3e2eeed2	0.1708329
208	0xbf75d59c	-0.9602907
209	0x3eaded63	0.33970174
210	0x3e6c768e	0.230921
211	0xbe957595	-0.2919127
212	0x3f7f1de5	0.9965499
213	0x3e09b395	0.13447411
214	0xbdf3bdce	-0.11901437
215	0xbf4fbc22	-0.8114644
216	0xbe04b0fd	-0.1295814
217	0x3eaef754	0.3417307
218	0x4007577d	2.1147149
219	0xbec88baa	-0.39169055
220	0xbeaad0c0	-0.3336239
221	0xbeef4815	-0.46734682
222	0x3f1ca8da	0.6119515
223	0x3dd318d3	0.10307469
224	0xbea06915	-0.3133017
225	0x3e077373	0.13227634
226	0xbe4a13a3	-0.19734053
227	0x3e647f4e	0.22314188
228	0xbdf6d7b0	-0.12052858
229	0xbcfdbe5d	-0.030974561
230	0xbf0fd7a1	-0.561884
231	0xbe3e06dc	-0.18557304
232	0xbe906ec3	-0.28209504
233	0x3f1aeeeb	0.6052081
234	0x3fc3456e	1.5255563
235	0x3e34b2f4	0.1764639
236	0x3f0f6f72	0.5602943
237	0xbf1acc12	-0.60467637
238	0x3e07e8a1	0.13272335
239	0xbf7716ac	-0.9651897
240	0xbf243e96	-0.64158
241	0xbf9f0b37	-1.2425297
242	0x3db3eec1	0.08785773
243	0x3f006df1	0.5016776
244	0x3eca97fd	0.39569083
245	0x3dd91796	0.10600202
246	0x3ce45dff	0.027876852
247	0xbf46c893	-0.776498
248	0x3e86c0e2	0.26319033
249	0x3ee50c11	0.44735768
250	0x3fc33575	1.5250689
251	0xbf21d422	-0.63214314
252	0xbeef4ad8	-0.4673679
253	0xbed5375d	-0.416438
254	0xbea9e7a9	-0.33184555
255	0x3aaa85fc	0.0013009901

critic.0.bias f4 [256]
0	0xbe8c2998	-0.27375484
1	0xbdb7515e	-0.089510664
2	0x3c9143af	0.01773247
3	0xbc38533d	-0.011250314
4	0xbe4e71f3	-0.20160656
5	0x3e47c496	0.19508585
6	0x3e33e2f3	0.17567043
7	0xbe1f075a	-0.15530148
8	0xbe4209e5	-0.18949087
9	0x3ec02922	0.37531382
10	0xbe14fb57	-0.14549004
11	0xbe7ebf79	-0.24877729
12	0x3e816c4a	0.2527793
13	0xbd8069c5	-0.06270174
14	0x3de1ec90	0.11031449
15	0xbe011dbd	-0.12609
16	0xbe6da251	-0.2320645
17	0xbcdb416c	-0.026764594
18	0xbe0e0ac1	-0.1387129
19	0xbdbf7aa1	-0.093495615
20	0x3e16020d	0.1464922
21	0xbe053bcd	-0.13011093
22	0x3dc92738	0.098219335
23	0xbdc96689	-0.0983401
24	0xbbba1498	-0.0056787245
25	0x3ea205b7	0.31644985
26	0x3e3748e3	0.17898898
27	0x3c0a44c0	0.008439243
28	0x3e93d921	0.28876594
29	0xbe1ba1cc	-0.1519844
30	0xbdb3bdbd	-0.08776424
31	0xbcfd5fb7	-0.03092943
32	0x3dbbbc2a	0.09166749
33	0x3d89b03a	0.06723066
34	0xbce3a9db	-0.027790954
35	0x3e4a4906	0.19754419
36	0xbd438a35	-0.047739226
37	0x3d546881	0.051857475
38	0x3e9f3aea	0.31099635
39	0xbe9e76b5	-0.3094994
40	0x3d5747fa	0.052558877
41	0xbc2c9119	-0.010532641
42	0x3e4fda19	0.20298041
43	0xbe29208c	-0.16516322
44	0x3d25a600	0.040441513
45	0x3e2166ab	0.15761821
46	0x3e3960df	0.1810336
47	0x3d74c334	0.059756473
48	0xbe1708f3	-0.14749508
49	0x3e8cf869	0.27533272
50	0x3e940d2b	0.28916296
51	0x3d2f58b4	0.042809203
52	0x3e14170c	0.14461917
53	0xbda03425	-0.07822446
54	0x3e978514	0.29593718
55	0xbe564481	-0.2092457
56	0x3c874a6f	0.016514985
57	0x3c18dcbe	0.009329973
58	0xbe098cee	-0.13432667
59	0xbe997e99	-0.299794
60	0x3e56b24d	0.20966454
61	0xbe3e5a9c	-0.18589252
62	0xbe874e1d	-0.26426783
63	0xbe0f9b66	-0.14024124
64	0xbc414d09	-0.011798152
65	0x3db68983	0.08912947
66	0xbd2a35d2	-0.041555233
67	0x3d8950d5	0.067048706
68	0x3e101069	0.1406876
69	0x3e5016f5	0.20321257
70	0xbe953570	-0.29142332
71	0xbe8e86a7	-0.27837107
72	0xbdd2c42e	-0.102913246
73	0xbd7d7680	-0.06188059
74	0xbe408f5e	-0.1880469
75	0x3e702249	0.23450579
76	0x3d62c177	0.055360284
77	0xbc0310dc	-0.007999625
78	0x3e27df46	0.16393766
79	0x3e51dfe0	0.20495558
80	0xbda3e97c	-0.08003518
81	0x3e6a6af2	0.22892359
82	0xbe38dc16	-0.18052706
83	0xbd262024	-0.040557995
84	0xbe768b0a	-0.24076477
85	0xbda3126c	-0.07962498
86	0xbdc69e35	-0.09698144
87	0xbe52822d	-0.2055747
88	0xbda41389	-0.080115385
89	0xbcdd6e08	-0.027030006
90	0x3e193025	0.14959772
91	0x3d170fe7	0.0368804
92	0xbb8b72c7	-0.004255626
93	0x3c7ca054	0.015419085
94	0xbd661951	-0.056176487
95	0xbda172ac	-0.078832
96	0x3d79db20	0.06099999
97	0x3dc65704	0.09684566
98	0xbde63009	-0.11239631
99	0x3d929fc0	0.07159376
100	0x3e26e5dc	0.16298622
101	0xbe095556	-0.1341146
102	0x3c6d6e9f	0.014491706
103	0x3e2dfc09	0.16990675
104	0x3e1cce8c	0.15313166
105	0xbe57d212	-0.21076229
106	0xbc12b7c6	-0.008954948
107	0xbe61b003	-0.220398
108	0x3d0c6a95	0.034281332
109	0xbd887b1c	-0.06664106
110	0x3e8474b1	0.25870278
111	0x3e029608	0.12752545
112	0xbeb32df1	-0.34995988
113	0xbf11c988	-0.5694814
114	0xbdb8d1b8	-0.09024376
115	0xbe327777	-0.17428385
116	0xbd99f55b	-0.07517501
117	0x3e14d204	0.1453324
118	0x3d6f4b53	0.058421444
119	0x3c609df5	0.013709535
120	0xbe30f6e5	-0.17281683
121	0xbe45bcb2	-0.19310263
122	0xbd2ff8f5	-0.042962033
123	0x3e2b8ecd	0.16753693
124	0xbdb2779d	-0.08714221
125	0x3ea4af27	0.3216488
126	0x3dbf11cb	0.093295656
127	0xbe4c2104	-0.1993447
128	0x3ed5754c	0.41691053
129	0xbeaae7aa	-0.3337987
130	0xbe0b3fdc	-0.13598579
131	0xbea0ad7f	-0.31382367
132	0xbe120948	-0.14261353
133	0xbd1d0501	-0.03833485
134	0xbe0ba786	-0.13638124
135	0x3d4a88a4	0.049446717
136	0xbbc8c7fe	-0.0061273566
137	0xbe3680cc	-0.1782257
138	0xbe2b3e92	-0.16723087
139	0x3d1c166f	0.03810733
140	0x3df63b1a	0.120229915
141	0xbe52f5c8	-0.2060157
142	0x3d19c708	0.037543327
143	0xbe9371c4	-0.28797734
144	0x3d1d053a	0.038335063
145	0x3d8c8532	0.068613425
146	0x3e8276e5	0.25481334
147	0x3e102348	0.14075959
148	0x3d46d19e	0.04853975
149	0x3d4cb810	0.049980223
150	0x3e1bd7a5	0.1521898
151	0xbcb12cbb	-0.021627774
152	0x3e61e582	0.22060207
153	0xbe93e21b	-0.28883442
154	0x3e02940f	0.12751792
155	0xbcddb3b5	-0.02706323
156	0x3e09e042	0.13464454
157	0xbe90c319	-0.28273848
158	0x3d2cedcf	0.04221898
159	0xbece6597	-0.40311882
160	0xbdd6d868	-0.10490495
161	0x3de1154c	0.1099039
162	0xbc5ff7b6	-0.013669899
163	0x3d0078f5	0.031365354
164	0xbda9c053	-0.08288636
165	0xbe0a4fb6	-0.1350697
166	0x3b476d83	0.0030430264
167	0xbc84ee57	-0.01622693
168	0x3ea6291e	0.32453245
169	0xbe187cd2	-0.14891365
170	0xbdfe99dc	-0.1243169
171	0x3d13bf4c	0.036071107
172	0xbe63838b	-0.22218148
173	0xbd10f9ac	-0.035394356
174	0xbdb74382	-0.08948423
175	0xbe696493	-0.22792272
176	0xbc386405	-0.011254315
177	0x3df35585	0.11881546
178	0xbdb58fe1	-0.08865333
179	0x3e232cf1	0.15935113
180	0xbe7de792	-0.24795368
181	0x3e528dc5	0.20561893
182	0xbe87046c	-0.2637056
183	0xbe2f3909	-0.17111601
184	0xbe9cd9c6	-0.30634898
185	0x3dedc574	0.11609927
186	0xbe8b1088	-0.2716105
187	0x3c03c8e4	0.0080435015
188	0x3e051b77	0.12998758
189	0xbdc88319	-0.0979063
190	0xbda6804e	-0.08129941
191	0xbe0c99b5	-0.1373051
192	0xbd84f81f	-0.06492638
193	0x3e89fa87	0.2694895
194	0x3e09b3da	0.13447514
195	0xbdfb1757	-0.12260311
196	0xbb19a76a	-0.0023445734
197	0xbdcf995c	-0.10136673
198	0x3ebc63df	0.36794946
199	0xbe432afc	-0.19059366
200	0xbe011d81	-0.12608911
201	0xbd404ffb	-0.046951275
202	0xbe579e2e	-0.21056435
203	0xbdc22077	-0.094788484
204	0x3eb2366c	0.34807146
205	0xbd18d5cd	-0.03731327
206	0xbe06d95a	-0.1316885
207	0xbc0eae17	-0.008708498
208	0x3e694cb8	0.22783172
209	0x3e2aa518	0.16664541
210	0xbdcae84d	-0.09907589
211	0x3e834d8e	0.25645107
212	0x3ea9e944	0.3318578
213	0x3e54d2e0	0.20783567
214	0x3e7fa4c9	0.24965204
215	0xbe1009b6	-0.14066204
216	0xbe235616	-0.15950808
217	0xbd832439	-0.06403393
218	0x3e2b8308	0.16749203
219	0xbdd53259	-0.10409994
220	0xbd9f5718	-0.07780284
221	0xbd7149f3	-0.058908414
222	0xbc8947d1	-0.016757878
223	0x3d082a83	0.033243667
224	0xbe704b0f	-0.23466133
225	0xbded51e4	-0.11587885
226	0xbe9128f3	-0.28351554
227	0x3e40adfb	0.18816368
228	0xbdd11937	-0.102098875
229	0x3de2ea94	0.110798985
230	0x3e8bf7de	0.27337545
231	0xbe5ef6f4	-0.21773893
232	0xbebd0c64	-0.36923516
233	0xbe1831a6	-0.1486269
234	0xbe519642	-0.20467475
235	0x3df5b7ca	0.119979456
236	0xbdc67ce5	-0.096917905
237	0xbe67a96c	-0.22623223
238	0x3d395bbe	0.045253508
239	0xbdf7eae1	-0.121053465
240	0x3e695a5c	0.22788376
241	0x3e85443d	0.26028624
242	0x3e87f1bd	0.2655162
243	0xbe13d5aa	-0.14436975
244	0xbdec01b2	-0.11523761
245	0xbe32e983	-0.1747189
246	0xbea70aca	-0.3262542
247	0x3e322fc7	0.17401038
248	0x3e020411	0.12696864
249	0xbe4f2d9d	-0.20232244
250	0xbddb1bbc	-0.10698649
251	0xbe70b7e0	-0.23507643
252	0xbdf76096	-0.12078969
253	0xbc3dff73	-0.011596548
254	0x3e2b3268	0.16718447
255	0x3c195a2c	0.009359878

critic.2.weight f4 [256, 256]
0	0x3ef0e5e9	0.47050408
1	0xbdd53c76	-0.10411923
2	0xbd9c776b	-0.07639965
3	0xbf11ea4b	-0.5699813
4	0xbdce4cae	-0.10073219
5	0x3eebbcd0	0.4604249
6	0x3f31765a	0.69321215
7	0x3ea08bba	0.31356603
8	0xbed0936f	-0.40737483
9	0x3eec0e83	0.46104822
10	0x3d99629e	0.07489513
11	0x3f7192a2	0.9436437
12	0x3ddd7991	0.108142026
13	0xbf46a03c	-0.7758825
14	0x3e0ade79	0.13561429
15	0xbe7effca	-0.24902263
16	0x3f06012d	0.52345544
17	0x3e87863c	0.264696
18	0x3ed098b9	0.40741518
19	0xbf68a5e5	-0.90878135
20	0xbd83e98b	-0.06441029
21	0x3f0d4770	0.5518713
22	0x3c9ca972	0.019123767
23	0x3df6a9df	0.12044119
24	0xbee3552f	-0.44400927
25	0x3f023192	0.5085689
26	0xbfca5d7b	-1.5809778
27	0xbf32e196	-0.69875467
28	0xbec3788d	-0.3817791
29	0xbdb0792a	-0.0861686
30	0x3fbd5bf3	1.4793686
31	0xbe447e66	-0.19188842
32	0x3eac961d	0.33708277
33	0x3e93c46d	0.28860798
34	0xbe2b4717	-0.16726337
35	0x3f1a5360	0.6028347
36	0x3f5fdb06	0.8744358
37	0xbd356cf4	-0.04429336
38	0x3efc4f99	0.49279478
39	0xbf1a7113	-0.6032879
40	0xbf53229c	-0.82474685
41	0x3f4100cf	0.7539186
42	0xbec693ae	-0.38784546
43	0xbe3dd0d3	-0.18536691
44	0x3da89e10	0.08233273
45	0x3f4ece50	0.8078356
46	0x3e4b4fba	0.19854632
47	0xbf2a6acf	-0.66569227
48	0x3ea205a9	0.31644943
49	0x3dfe8ab9	0.12428803
50	0x3ebe0d65	0.37119594
51	0xbe803e8d	-0.25047722
52	0x3e8bbd3a	0.27292806
53	0xbd1d3636	-0.038381778
54	0xbe536406	-0.20643625
55	0x3f4b7a9f	0.7948398
56	0xbf2498cf	-0.6429567
57	0x3e66dfaa	0.22546259
58	0x3f229213	0.6350414
59	0x3d478ad6	0.04871639
60	0x3f0b2a70	0.5436163
61	0xbf4545dc	-0.7705972
62	0xbd16c640	-0.03681016
63	0x3f778d11	0.96699625
64	0xbf2a2ea1	-0.664774
65	0xbe63016a	-0.22168508
66	0x3e6daf49	0.23211397
67	0xbf3e7910	-0.74403477
68	0xbf3f9a2f	-0.7484464
69	0xbdc31bb0	-0.09526765
70	0xbd6927b6	-0.056922637
71	0x3e011621	0.12606098
72	0xbe20c7c9	-0.15701212
73	0xbf2a2cc4	-0.66474557
74	0x3e6f3519	0.23360099
75	0x3ed76b3f	0.4207401
76	0x3dadf234	0.08493462
77	0xbe18e60d	-0.14931507
78	0x3ede3d98	0.43406367
79	0xbf1fb54d	-0.6238602
80	0xbf22fec5	-0.6367
81	0x3ddd3e4b	0.10802897
82	0xbf188367	-0.59575504
83	0x3e9ea4f6	0.3098523
84	0x3ec88bec	0.39169252
85	0x3f5e5d0b	0.8686072
86	0x3f8c505a	1.0962021
87	0x3e241f29	0.16027512
88	0x3e2d2f04	0.16912466
89	0x3f46f225	0.77713233
90	0xbf5d811d	-0.86525136
91	0x3e6acbc3	0.22929291
92	0x3bb87337	0.005628969
93	0x3dfbf1c2	0.12301971
94	0xbd2950bc	-0.04133676
95	0x3e945837	0.28973553
96	0xbea77ea1	-0.32713798
97	0x3ee04087	0.4379923
98	0x3ea319d2	0.31855637
99	0xbe8e3caf	-0.27780673
100	0xbe430d75	-0.19048102
101	0x3ed82e9c	0.4222306
102	0x3f6aefc9	0.91772133
103	0xbf2e90d0	-0.68189716
104	0x3e94c024	0.29052842
105	0x3d9dcf49	0.07705552
106	0x3ed36213	0.41285762
107	0x3aa82018	0.0012826947
108	0x3efeadb9	0.49741915
109	0x3f452e0b	0.7702338
110	0x3ed09d83	0.40745172
111	0xbeb6da74	-0.35713542
112	0x3ea49de4	0.3215171
113	0x3e0d9262	0.13825372
114	0xbf51db40	-0.81975174
115	0x3d87ba9d	0.066273905
116	0xbe426502	-0.18983844
117	0xbf6988a1	-0.91224104
118	0x3e55bb28	0.20872176
119	0x3f9c2198	1.2197752
120	0x3f045e56	0.51706445
121	0xbe8c8c07	-0.27450582
122	0x3f5a91c0	0.85378647
123	0xbe88c9a4	-0.2671634
124	0x3d91579c	0.07096788
125	0xbe1da9e4	-0.1539684
126	0x3ebae9f5	0.3650662
127	0x3f4915b8	0.78548765
128	0xbe833c8d	-0.25632134
129	0xbe926944	-0.28595936
130	0xbce70f60	-0.028205574
131	0xbee9ee15	-0.45689455
132	0x3fb3b44e	1.40394
133	0x3e9d650d	0.30741158
134	0xbea15777	-0.31512043
135	0xbf37d2bf	-0.7180595
136	0xbf4dc762	-0.8038236
137	0xbe7a123d	-0.2442102
138	0x3f3f2a90	0.7467432
139	0x3bf0957e	0.0073420396
140	0x3e9f868c	0.3115734
141	0xbe8116c7	-0.2521269
142	0x3e774a05	0.2414933
143	0xbe6faf81	-0.23406793
144	0x3f8d45cf	1.1036929
145	0xbeda2f80	-0.42614365
146	0x3f6a2fa1	0.91478926
147	0x3e3ba3af	0.18324159
148	0x3f74620d	0.95462114
149	0x3eb25e8d	0.34837762
150	0x3f32b1fc	0.6980283
151	0xbfcbc73a	-1.5920174
152	0x3e6bbfa6	0.23022327
153	0x3f272301	0.65287787
154	0x3f01387d	0.5047682
155	0x3f51ee72	0.82004464
156	0x3cf24f34	0.029578783
157	0x3e11f94e	0.14255258
158	0x3f98bfd2	1.1933539
159	0x3f83ce0a	1.0297253
160	0xbc6f88a0	-0.014619976
161	0x3ecae29a	0.39626008
162	0x3e276bc1	0.16349699
163	0xbda5f0f6	-0.081026
164	0xbe35f48f	-0.17769073
165	0x3ec63008	0.3870852
166	0x3f5f4ffc	0.8723142
167	0x3ebbc385	0.36672607
168	0x3f43076b	0.76183194
169	0x3e28373a	0.16427317
170	0xbd565869	-0.05233041
171	0x3f115728	0.56773615
172	0x3e4c244d	0.19935723
173	0xbd01cc17	-0.031688776
174	0x3cbc047b	0.022951355
175	0xbf712261	-0.94193083
176	0xbf1fe2c6	-0.62455404
177	0xbdf2a6a4	-0.118481904
178	0xbf562be1	-0.83660704
179	0x3e05ce99	0.13067092
180	0x3f228bae	0.63494384
181	0xbec27903	-0.3798295
182	0x3f13621a	0.57571566
183	0xbf1ee4d5	-0.6206792
184	0x3f78b6e4	0.9715407
185	0x3eb55dd6	0.35423154
186	0xbf61ab02	-0.8815156
187	0xbd63326e	-0.055468015
188	0x3d769e3e	0.060209505
189	0xbfad79bc	-1.3552775
190	0x3e2d9331	0.1695068
191	0xbdc884ae	-0.09790932
192	0xbeb81464	-0.35953057
193	0x3e82a86e	0.25519127
194	0xbe8d8bf9	-0.27645853
195	0xbf0304b3	-0.51179045
196	0x3ed78b0e	0.42098278
197	0xbd877b7e	-0.06615351
198	0x3e0e1b3c	0.13877577
199	0x3f8c692e	1.0969598
200	0xbf5ee35f	-0.8706569
201	0x3e076dd5	0.13225491
202	0xbebd1d33	-0.3693634
203	0xbcbe1b1e	-0.02320629
204	0xbec993c2	-0.39370543
205	0xbf16a776	-0.58849275
206	0xbe3c86ab	-0.18410747
207	0x3db457a4	0.088057786
208	0x3edd9dd4	0.43284476
209	0xbd4366f6	-0.047705613
210	0x3d764b15	0.060130198
211	0xbe56ab93	-0.20963888
212	0xbd5437cf	-0.051811036
213	0xbe883604	-0.2660371
214	0xbc6a6c14	-0.014307994
215	0x3e148786	0.14504823
216	0x3fae11e8	1.3599215
217	0xbdb8b91e	-0.09019683
218	0x3e7e2a35	0.24820788
219	0xbf1cc330	-0.6123533
220	0x3f71bb3a	0.9442631
221	0xbd1e18f6	-0.038598023
222	0xbe9226b1	-0.28545144
223	0x3eb059b3	0.34443435
224	0x3e06c663	0.13161616
225	0xbeff9826	-0.49920768
226	0xbf3a69f8	-0.72817945
227	0x3e4eaad6	0.20182356
228	0xbed6f369	-0.41982582
229	0xbf62ab19	-0.88542324
230	0x3f3b86cc	0.7325256
231	0x3eae8f2b	0.34093603
232	0x3f40e2a6	0.7534584
233	0x3ecde4e2	0.40213686
234	0xbe52c61a	-0.20583382
235	0xbf0a87b6	-0.5411333
236	0xbf700b79	-0.93767506
237	0x3f1675a6	0.5877327
238	0xbf6a3260	-0.91483116
239	0x3f5b726d	0.85721475
240	0xbf18f429	-0.5974756
241	0xbf0836fd	-0.53208905
242	0x3e9f7e63	0.31151113
243	0x3e85c9d5	0.26130548
244	0xbeff5fe4	-0.49877846
245	0x3eb914ee	0.3614878
246	0xbe9e9300	-0.30971527
247	0x3f9a6cb8	1.2064428
248	0xbea1007d	-0.31445685
249	0x3f8e6842	1.1125567
250	0x3e2cbd0a	0.16868988
251	0xbd89e31e	-0.06732772
252	0xbf8ab160	-1.083538
253	0xbf0ce4a0	-0.55036354
254	0xbc9bd285	-0.019021282
255	0x3f2ba24e	0.6704453

critic.2.bias f4 [256]
0	0xbd335c8d	-0.043789435
1	0xbe8f0982	-0.2793694
2	0xbd4cfb51	-0.05004436
3	0x3c9b7884	0.018978365
4	0x3e445593	0.19173269
5	0x3de68682	0.11256124
6	0x3e3b169b	0.18270342
7	0x3d5205b9	0.05127499
8	0xbeaf36a9	-0.3422139
9	0x3d770f20	0.06031716
10	0x3e635e3d	0.22203918
11	0xbecf506f	-0.40491053
12	0x3ef8063b	0.48442253
13	0x3f070662	0.52744114
14	0xbec86c87	-0.391453
15	0xbe8441ad	-0.25831357
16	0x3f05a96d	0.5221165
17	0x3d50e5e3	0.051000487
18	0x3e53ae22	0.20671895
19	0x3e80bd3c	0.25144374
20	0xbdceb403	-0.10092928
21	0x3e606a2b	0.219155
22	0x3ed128be	0.40851396
23	0x3f1f156e	0.62142074
24	0x3e802384	0.25027096
25	0xbd35bfd3	-0.04437239
26	0x3e7bc046	0.24585065
27	0x3e7b02f2	0.24512842
28	0xbd968fd0	-0.07351649
29	0xbf3fbae8	-0.7489457
30	0xbe2577d3	-0.1615899
31	0xbc7b04e6	-0.015320992
32	0x3b9cdd92	0.0047871554
33	0xbf11e72d	-0.5699337
34	0x3de08f4c	0.10964832
35	0xbedb4051	-0.42822507
36	0x3b76d9c4	0.003766642
37	0x3d1d0abb	0.03834031
38	0xbe1c79d6	-0.15280852
39	0x3e161462	0.14656213
40	0x3d00d175	0.031449754
41	0xbe818dc9	-0.25303486
42	0xbe80065f	-0.2500486
43	0x3e596eb4	0.21233636
44	0xbf307d17	-0.6894087
45	0xbf1e9660	-0.61948204
46	0xbddb8dd8	-0.10720414
47	0xbe8b976b	-0.2726396
48	0xbcedb454	-0.029016651
49	0x3e173c9c	0.14769214
50	0xbe05a1b0	-0.1304996
51	0x3efaae57	0.48961136
52	0xbf39fc98	-0.7265105
53	0xbf27cc9a	-0.6554657
54	0x3d3f1e85	0.046659965
55	0x3e2bf34d	0.1679203
56	0xbb948fe3	-0.004533754
57	0xbf069fa6	-0.52587354
58	0x3f260a53	0.64859504
59	0xbd007d16	-0.03136929
60	0x3f59d371	0.8508826
61	0xbf188aa9	-0.5958658
62	0xbc6e7e15	-0.0145564275
63	0xbdccc2a9	-0.09998066
64	0x3ed18045	0.40918174
65	0x3da2621f	0.07928871
66	0xbe7021b3	-0.23450355
67	0x3d1380a0	0.03601134
68	0xbeb21cf1	-0.34787706
69	0x3d1eca9c	0.038767442
70	0xbcdc3d30	-0.026884645
71	0x3f06efa5	0.5270942
72	0xbdefe79d	-0.117140986
73	0xbef1df7e	-0.47240824
74	0x3e86b7b5	0.26312032
75	0x3e37f9b8	0.17966354
76	0xbea736fd	-0.3265914
77	0x3db0ac61	0.08626629
78	0xbd0709d9	-0.032968376
79	0x3e722838	0.23648155
80	0x3e502162	0.20325235
81	0xbe0f941f	-0.14021347
82	0x3f3c3263	0.73514384
83	0xbe64ced6	-0.22344527
84	0x3dfbeeef	0.12301432
85	0xbd97f312	-0.07419409
86	0x3d0f9077	0.03504988
87	0xbe8b2107	-0.27173635
88	0xbd311ba8	-0.043239266
89	0xbf5129c2	-0.8170434
90	0x3ee8197a	0.45331937
91	0xbf04106a	-0.51587546
92	0x3e9bbb4f	0.30416343
93	0x3ecc2416	0.3987128
94	0x3f401636	0.7503389
95	0x3e9cff6b	0.30663618
96	0xbd50d468	-0.050983816
97	0x3e39e064	0.18152004
98	0x3ebce7e1	0.3689566
99	0xbd67975b	-0.05654083
100	0x3ea91ebe	0.33031267
101	0xbe2da53b	-0.16957562
102	0xbe38deb5	-0.18053706
103	0x3d9221c7	0.07135349
104	0xbf0c1c37	-0.5473055
105	0x3d8b15aa	0.067912415
106	0x3de6fb3f	0.1127839
107	0xbb649e35	-0.0034884338
108	0x3ea33a78	0.31880546
109	0xbdc891ea	-0.09793456
110	0x3eb2ea62	0.34944445
111	0xbe82f6fb	-0.25579056
112	0xbefc3dce	-0.49265903
113	0xbd1d46ef	-0.038397726
114	0x3e2fe80a	0.1717836
115	0xbe9e1174	-0.3087269
116	0x3f11cbb1	0.56951433
117	0x3e77a4a9	0.24183907
118	0x3a9191ee	0.0011106113
119	0x3ec52c3c	0.3851031
120	0x3f404c48	0.75116396
121	0xbe1434a4	-0.14473206
122	0x3ea6277b	0.32451996
123	0xbe531735	-0.20614322
124	0x3ea6ea95	0.32600847
125	0xbeb9ab5c	-0.3626355
126	0x3ea2bf45	0.31786552
127	0xb904a605	-0.00012650348
128	0x3e617184	0.22015959
129	0x3e6f27d2	0.23355034
130	0x3e6ff015	0.23431428
131	0xbea8209a	-0.32837373
132	0xbf1dccf2	-0.61640847
133	0x3e99bf82	0.3002892
134	0x3e403136	0.18768772
135	0x3dd7f946	0.10545592
136	0x3ed3eb6f	0.4139056
137	0xbf023354	-0.5085957
138	0x3e4b6de0	0.19866133
139	0xbd7ee1e1	-0.062227134
140	0xbe076165	-0.13220747
141	0xbea067c2	-0.3132916
142	0x3c2e0104	0.010620359
143	0xbe4fce8b	-0.20293634
144	0xbe9ad936	-0.30243844
145	0x3e241d38	0.16026771
146	0x3f34f7f2	0.70690835
147	0x3ee97df8	0.4560392
148	0x3f242dbc	0.64132285
149	0x3e9d8b68	0.3077042
150	0xbe8e56f9	-0.2780073
151	0x3f61203e	0.8793982
152	0xbee20c95	-0.44150224
153	0x3ea69efe	0.32543176
154	0x3de3c672	0.11121835
155	0xbe9c7f30	-0.30565786
156	0xbeb55c6a	-0.3542207
157	0x3e19cc78	0.15019405
158	0xbe480fa5	-0.19537218
159	0xbf0b7c97	-0.54486984
160	0x3db196f9	0.08671374
161	0xbd8d5c65	-0.069023885
162	0x3ebacfc0	0.36486626
163	0x3ec21e99	0.3791397
164	0xbf1f385f	-0.6219539
165	0xbca7bddd	-0.020476276
166	0x3e7ae641	0.24501897
167	0xbeb48ddf	-0.3526449
168	0xbd4a4108	-0.049378425
169	0xbebe57d6	-0.37176389
170	0xbf1d199c	-0.613672
171	0x3e7aef83	0.24505429
172	0x3f15e0af	0.58545965
173	0x3ea72768	0.32647252
174	0x3e3649cd	0.1780159
175	0x3e5f5776	0.21810707
176	0x3eae47e3	0.3403922
177	0xbe967a2e	-0.2939009
178	0xbf12a83d	-0.5728796
179	0xbec08750	-0.37603235
180	0x3ddad8d8	0.10685891
181	0xbcdfc32b	-0.027314743
182	0xbe94162b	-0.28923163
183	0xbdcd3909	-0.10020644
184	0xbe7f4a53	-0.24930696
185	0xbee17ef8	-0.44042182
186	0x3e1707b2	0.1474903
187	0x3d2da7a2	0.042396195
188	0x3e3d5001	0.1848755
189	0xbe55ca46	-0.20877942
190	0x3e06aea8	0.13152564
191	0x3f4a9877	0.7913889
192	0xbef38958	-0.47565722
193	0x3dddf4cb	0.10837706
194	0x3ed88d2d	0.4229521
195	0x3e22b825	0.15890558
196	0xbd8d2918	-0.06892604
197	0x3e7e75b0	0.24849582
198	0xbe94eea7	-0.29088327
199	0xb8783348	-5.9175567e-05
200	0x3eafff95	0.3437468
201	0xbda83cf4	-0.08214751
202	0xbeeb1395	-0.45913377
203	0x3dbf70a2	0.09347655
204	0x3efe2cad	0.4964346
205	0x3e690316	0.22755083
206	0xbd9404d2	-0.07227482
207	0x3e6612b7	0.22468077
208	0xbe2047bb	-0.15652363
209	0xbec430c7	-0.38318464
210	0x3e6ebcb4	0.23314172
211	0xbc72d26f	-0.014820679
212	0x3de2b515	0.11069695
213	0x3da92270	0.082585216
214	0xbed17713	-0.4091116
215	0x3ec85a62	0.39131457
216	0x3dead2d4	0.114659935
217	0x3e878aa1	0.26472953
218	0x3c92d19b	0.017922213
219	0x3e8526ec	0.26006258
220	0x3ef4d16e	0.47816032
221	0x3db5ff1f	0.08886551
222	0xbd6a6ee1	-0.05723465
223	0xbdfcfbdf	-0.12352728
224	0xbf0eaeca	-0.55735457
225	0x3df2de0e	0.1185876
226	0x3dfb0cd4	0.12258306
227	0x3e1aca4e	0.15116236
228	0x3e01de40	0.12682438
229	0xbd00ee84	-0.031477466
230	0x3eb70b0a	0.3575061
231	0x3ddd300f	0.10800182
232	0x3c5f5eca	0.013633439
233	0xbe1982b0	-0.1499126
234	0x3e52d54a	0.20589176
235	0x3e0d6bc6	0.13810644
236	0x3d1ad548	0.037801057
237	0x3d96dd60	0.07366443
238	0xbe6d17da	-0.2315363
239	0x3ecd65b0	0.40116644
240	0xbd88f025	-0.06686429
241	0x3d68c802	0.056831367
242	0xbeda7b33	-0.4267212
243	0xbe3ee993	-0.18643789
244	0xbd5e6e00	-0.054304123
245	0xbec137b2	-0.37737805
246	0x3b7d054e	0.0038607898
247	0xbec0d294	-0.37660658
248	0xbe62bb95	-0.2214187
249	0x3ee2ae8c	0.44273794
250	0xbd433615	-0.047659
251	0xbefdeb40	-0.49593544
252	0x3e7d9970	0.24765563
253	0x3d6d78d8	0.057976574
254	0xbd48ee11	-0.049055163
255	0x3ecf6200	0.40504456

critic.4.weight f4 [1, 256]
0	0xc014cc7c	-2.3249807
1	0xbf5bca61	-0.8585568
2	0xc0083390	-2.1281471
3	0x3ed8b877	0.42328236
4	0xbf86d724	-1.0534406
5	0xbed87fbf	-0.42284963
6	0xbf8f9fd2	-1.1220648
7	0xbf8d7b66	-1.1053283
8	0xbf19bd8a	-0.6005484
9	0x3fa7532e	1.307226
10	0xbf2aae1b	-0.66671914
11	0xbf994587	-1.1974343
12	0xbf731e26	-0.9496788
13	0xbf0ef6fa	-0.55845606
14	0x400a64e0	2.162407
15	0xbf841ad9	-1.0320693
16	0x3fa52d88	1.290452
17	0xbf305f9c	-0.6889589
18	0x3f2761d9	0.6538368
19	0xbf672ba1	-0.9030095
20	0x401eeb36	2.4831061
21	0x3ff6f7e0	1.9294395
22	0x3f7a6ccd	0.97822267
23	0xbf3c2c3d	-0.73505
24	0x402210d3	2.5322769
25	0x3f52ddc9	0.8236967
26	0xbf4548f2	-0.7706443
27	0x3fdfdce0	1.7489281
28	0x3e991805	0.29901138
29	0xbfe44d21	-1.7836038
30	0x3ec2c573	0.38041267
31	0xbf0066d4	-0.50156903
32	0x3f564c08	0.83709764
33	0xc0104446	-2.254167
34	0xbf69ba0a	-0.912995
35	0x3f4040db	0.7509896
36	0xc03ecd68	-2.981287
37	0x3f32c4ea	0.69831717
38	0x3fa263f9	1.2686759
39	0x3f2155af	0.6302137
40	0xc01c8277	-2.445463
41	0xbf570f4f	-0.84007734
42	0x402997e5	2.649896
43	0xbee464f5	-0.44608274
44	0x3d910867	0.07081681
45	0x3f3f4c73	0.7472603
46	0xc0855287	-4.166324
47	0x406fc8a0	3.7466202
48	0x3f6d86e1	0.92783934
49	0xbf780cf9	-0.96894795
50	0xbf253709	-0.645371
51	0x40327515	2.7883961
52	0xbffd9926	-1.9812362
53	0xbf841642	-1.0319293
54	0xc0220270	-2.5313988
55	0xbecb446d	-0.39700642
56	0xbf51a67b	-0.81894654
57	0x3edc2af1	0.43001512
58	0x3fce6505	1.6124579
59	0xbf7c5cfd	-0.9857939
60	0x3e54c8e4	0.20779759
61	0xbf127013	-0.5720226
62	0xbf3d8cd5	-0.7404302
63	0x3f8024f9	1.0011283
64	0x3ea3cf0f	0.3199391
65	0x3f049d0c	0.51802135
66	0xbe9152bf	-0.28383443
67	0xbeda0617	-0.4258277
68	0xbf7a05f1	-0.97665316
69	0xbfb4944d	-1.4107758
70	0x400d892a	2.2114968
71	0x3f3b89ea	0.73257315
72	0xbfeb95c9	-1.8405086
73	0x3ff6095c	1.9221606
74	0x4038dd25	2.8884976
75	0xbfe337a1	-1.7751352
76	0xbf957fa6	-1.167958
77	0xbf10932e	-0.5647458
78	0x3fd9cdf8	1.7015982
79	0x3f32fe86	0.6991962
80	0xbf5a0bfb	-0.8517453
81	0xbf9b0bc9	-1.2112972
82	0x3f5674fd	0.8377226
83	0xbfe4a51e	-1.786289
84	0xbfc0c27d	-1.5059353
85	0xbf3418a7	-0.70350116
86	0x3f8d62c3	1.1045765
87	0xbf2013b9	-0.62530094
88	0xc019b2c9	-2.4015372
89	0xbfafd284	-1.3736119
90	0x3f89393b	1.072059
91	0xbf2cf4a9	-0.6756082
92	0x3f68f5dd	0.9100016
93	0x3fc10fd9	1.5082961
94	0x404dbd36	3.2146735
95	0x3fef60a2	1.8701365
96	0xbfab7c61	-1.3397332
97	0x3f6e0329	0.9297357
98	0xbf988922	-1.191685
99	0xc086b8e3	-4.210069
100	0xbf602b17	-0.8756575
101	0xc036cf6e	-2.8564105
102	0xbf54b92d	-0.83095056
103	0xbf635756	-0.8880514
104	0xc0249685	-2.571687
105	0x4024d68c	2.575595
106	0x3f871bb9	1.0555335
107	0x40414e6f	3.0204122
108	0x3fc76569	1.5577823
109	0xbf802a2e	-1.0012872
110	0xbfc782bc	-1.5586772
111	0xbf64968c	-0.89292216
112	0xbfd51504	-1.6647038
113	0xbfd5c052	-1.6699317
114	0xbe660af5	-0.22465117
115	0xc00809ed	-2.1256058
116	0x3f855e8e	1.0419481
117	0xc012438a	-2.2853723
118	0xbfc474cf	-1.5348147
119	0xbf99dbf4	-1.2020249
120	0x40284027	2.6289155
121	0x40064722	2.0980916
122	0x3f971723	1.1803936
123	0xbfeac706	-1.8341987
124	0xc052af00	-3.2919312
125	0xbfbf70ce	-1.49563
126	0x402bf501	2.6868289
127	0x405c01d2	3.437611
128	0x403a42fb	2.9103382
129	0x3fda91ed	1.7075783
130	0x3f85ff0d	1.046846
131	0xbff30f17	-1.898898
132	0x3f695f36	0.91160905
133	0xbe11f6f7	-0.14254366
134	0x40030c63	2.047631
135	0xbf522e51	-0.82101923
136	0xc0270cbb	-2.610152
137	0x3f93a3cc	1.1534362
138	0xbfa02e97	-1.2514218
139	0x3f972ff3	1.1811508
140	0x3fb6d346	1.4283226
141	0xbfdfab9b	-1.7474245
142	0x3fe4e7c5	1.788323
143	0x3f64a8a2	0.89319813
144	0xbeeb85f3	-0.46000633
145	0x40656aff	3.5846555
146	0x400b703c	2.1787252
147	0x4006035a	2.0939546
148	0x3fbfda67	1.4988526
149	0x3f90f1a4	1.1323743
150	0xbfb176b1	-1.3864347
151	0x3fea4134	1.8301148
152	0xbfc42666	-1.5324218
153	0x400c1a62	2.1891103
154	0xbedea49b	-0.4348496
155	0xbeea591f	-0.4577112
156	0xc0067f3f	-2.1015165
157	0x3f9c7c15	1.2225367
158	0x3f0e7ee4	0.5566237
159	0xbe611457	-0.21980415
160	0x3edd913d	0.4327487
161	0x3ff07aac	1.8787436
162	0xc06f9ca8	-3.7439365
163	0xc048cb2c	-3.1374006
164	0xbf9b447e	-1.2130277
165	0x3f74f7d3	0.9569065
166	0x3f85f0fa	1.0464165
167	0xbf1b4bfe	-0.6066283
168	0x3f481d22	0.78169453
169	0xbf64b687	-0.89341015
170	0x3eba321d	0.36366358
171	0xc01fe25e	-2.4981914
172	0x3f851be1	1.0399133
173	0xc002fb63	-2.0465934
174	0xbf124b87	-0.57146496
175	0xbf8beb0c	-1.0931106
176	0xbe2e4e05	-0.1702195
177	0x3f30499d	0.68862325
178	0xbfbbf37c	-1.468368
179	0xbf7582ab	-0.9590251
180	0xbf23bcc7	-0.63959926
181	0x3fbe589d	1.4870793
182	0x3fef619d	1.8701664
183	0x3fcc2d5c	1.5951343
184	0x3fe11609	1.758485
185	0xc036eadc	-2.8580847
186	0x4053e1d4	3.3106585
187	0x40219a8c	2.5250578
188	0x3ee5dcdb	0.44895062
189	0xc0368e20	-2.8524246
190	0xbfc845a8	-1.5646257
191	0x4006c6dd	2.1058877
192	0xbfa33e44	-1.2753377
193	0xbf1c3d21	-0.61030775
194	0x3f80e463	1.0069698
195	0x3f5b8bd4	0.85760236
196	0x4008ffdc	2.1406164
197	0x40244225	2.5665371
198	0xc0181f33	-2.3769042
199	0x3ee0efab	0.43932852
200	0xc06c0e90	-3.6883888
201	0xbf82ea6e	-1.0227792
202	0xbff6d481	-1.9283601
203	0xbcae1f56	-0.021255177
204	0x4007f13a	2.1240983
205	0xbff78227	-1.9336594
206	0xbf6736aa	-0.90317786
207	0x404a0cf8	3.1570415
208	0xbed657e3	-0.41863927
209	0x3e9df021	0.30847266
210	0xbf141a2a	-0.57852423
211	0xc037450d	-2.8635895
212	0x3eab2230	0.3342452
213	0xbfb424b0	-1.4073696
214	0xbfa32a7a	-1.2747338
215	0xbf8fe7f0	-1.1242657
216	0x4066531e	3.598823
217	0xbed195a5	-0.40934482
218	0x405b2080	3.4238586
219	0xbf2662c6	-0.64994466
220	0x40147524	2.3196497
221	0xc0385370	-2.8800926
222	0x3f398ccf	0.7248048
223	0xc00b77b3	-2.1791809
224	0xbf77e3d6	-0.96832025
225	0xc00d9991	-2.212498
226	0xbfcd6f5c	-1.6049609
227	0x3f2405dc	0.6407144
228	0xbf945046	-1.1586998
229	0xbf3eabf4	-0.7448113
230	0x3fd24dd6	1.6430004
231	0x3fdb0fca	1.7114193
232	0xc000fb7d	-2.0153496
233	0xbf651555	-0.89485675
234	0x3fd29187	1.6450661
235	0xbf610869	-0.8790346
236	0x401c9765	2.4467404
237	0xbf8cbeb4	-1.0995698
238	0xbfca0270	-1.5781994
239	0xbf668f09	-0.90062004
240	0xbf8d9e25	-1.1063887
241	0x3f5a5cf8	0.8529811
242	0xc04fc1f9	-3.2462142
243	0x4026de90	2.6073341
244	0x3fdb6ee6	1.7143219
245	0xc01282ff	-2.2892454
246	0xc02fa434	-2.7443972
247	0xc0264e94	-2.598546
248	0xbfc3ca01	-1.5296022
249	0xbf6c006d	-0.9218815
250	0x40354a71	2.8326685
251	0xbf80ebc4	-1.007195
252	0x3f35ceb9	0.7101856
253	0x3f860028	1.0468798
254	0x3fcaf7bf	1.5856856
255	0x3fc5735d	1.5425831

actor.0.weight f4 [256, 42]
0	0xbe8a72cd	-0.2704071
1	0xbcacd1e6	-0.021096181
2	0xbf1d6f91	-0.6149836
3	0x3f9fb6eb	1.2477697
4	0x3efed5af	0.49772403
5	0xc05c6ba5	-3.44407
6	0xbf87534a	-1.0572293
7	0xbe5aa128	-0.21350539
8	0x3f4b9198	0.79519033
9	0xbb985ba9	-0.0046495986
10	0x403c70e0	2.9443893
11	0x3f8b529f	1.0884589
12	0x3ccf926c	0.025338374
13	0x3e591185	0.2119809
14	0xbd8838b1	-0.06651438
15	0x3f8f7449	1.1207362
16	0x3f2de680	0.6792984
17	0x3e21ad62	0.15788797
18	0xbdc5dc17	-0.096611194
19	0x3e0e11d9	0.13873996
20	0xc04ff0db	-3.2490757
21	0xbfd906d5	-1.695521
22	0x3e6dd1a3	0.23224501
23	0x3f8cf099	1.1010925
24	0xbf555c02	-0.8334352
25	0xbf338794	-0.7012875
26	0xbf2a3d58	-0.66499853
27	0x3e7e0319	0.24805869
28	0xbe841925	-0.25800434
29	0x3f9da339	1.2315437
30	0x3f72b576	0.9480814
31	0x3fe13774	1.7595048
32	0xbe053be6	-0.1301113
33	0xbdacc482	-0.084359184
34	0xbd46a7a0	-0.048499703
35	0xbc881c70	-0.016615123
36	0x3dd7e925	0.10542516
37	0x3e4db019	0.20086707
38	0xbf2fe073	-0.6870186
39	0xbf073d3f	-0.5282783
40	0xbfae420c	-1.3613906
41	0x3fdd2847	1.7277917
42	0x3d24f7d1	0.0402754
43	0x3f0903a4	0.5352118
44	0x3e9ecc59	0.3101528
45	0xbfb2e432	-1.397589
46	0x3f0fca9f	0.5616855
47	0xbb8c56ed	-0.0042828233
48	0xbea671ea	-0.32508785
49	0x3d0b0465	0.033939738
50	0xbf6610a1	-0.89869124
51	0xbe670313	-0.22559766
52	0x4027669d	2.615638
53	0x3f31a6fe	0.69395435
54	0x3ca144b3	0.019686079
55	0xbe022ee6	-0.12713203
56	0x3f2142cd	0.62992555
57	0x3ea5c203	0.32374582
58	0x3ea4e5c8	0.3220656
59	0xbd908aff	-0.070577614
60	0x3e4bc67c	0.19899935
61	0x3ec3494a	0.38141853
62	0xbed71ea2	-0.42015558
63	0xbf9911db	-1.1958574
64	0x3e255e0b	0.16149156
65	0xbf9585b7	-1.1681432
66	0xbf1b4ac2	-0.60660946
67	0x3c380c17	0.011233351
68	0xbf2b59bf	-0.66933817
69	0x3e71bd85	0.23607452
70	0xbe04cba9	-0.12968315
71	0xbf3c0383	-0.7344286
72	0xbf504239	-0.8135105
73	0xbf7beafc	-0.9840543
74	0x3de1d7b5	0.11027471
75	0xbe04d4ec	-0.12971848
76	0xbd25ea63	-0.04050673
77	0x3e1252e3	0.14289431
78	0x3e6d2b80	0.23161125
79	0xbd9288d3	-0.071550034
80	0x3fe56e1a	1.7924225
81	0x3ec5aca8	0.3860829
82	0xbeba01c0	-0.3632946
83	0x3eb486cf	0.352591
84	0xbf247846	-0.6424602
85	0xbfff0a38	-1.9924994
86	0x3f249ef9	0.64305073
87	0x3efa5977	0.4889638
88	0xbe75a23f	-0.23987673
89	0x3ee08486	0.43851107
90	0x3ea52a8f	0.32259032
91	0x3dbc46ad	0.09193168
92	0x3f4d57e8	0.8021226
93	0xbf192944	-0.5982859
94	0x3c84ceea	0.016211946
95	0x3eb9c140	0.3628025
96	0x3e9649d4	0.293532
97	0x3df5a076	0.11993496
98	0x3eed005a	0.4628933
99	0x3f07e719	0.53087
100	0x3f00281d	0.5006121
101	0x3e1dbeec	0.15404862
102	0xbe7a924e	-0.24469873
103	0xbf7a5c4b	-0.9779708
104	0xbff21307	-1.8912057
105	0xbffd5871	-1.9792615
106	0xbdc1e7ba	-0.094680265
107	0x3e119c1b	0.14219706
108	0xbf552dad	-0.8327282
109	0x3f673de3	0.90328807
110	0x405e872a	3.4769998
111	0xbf4ce468	-0.8003602
112	0xbd2733df	-0.040820953
113	0x3f491118	0.7854171
114	0x3dad801e	0.08471702
115	0x3d99085d	0.07472298
116	0xbda7aea3	-0.08187606
117	0x3f46f6b2	0.7772018
118	0xbf4921e2	-0.78567326
119	0xbe1745fe	-0.14772794
120	0x3d8ff428	0.07028991
121	0x3d047fa8	0.032348305
122	0x3dcfb433	0.10141792
123	0x3e830c65	0.25595394
124	0xbd8bab7f	-0.0681982
125	0xbeb5ee91	-0.35533574
126	0xbf1b91dd	-0.60769445
127	0xc00b8b5b	-2.1803806
128	0x3ecfd434	0.40591586
129	0x3e730940	0.23733997
130	0xbfaeec5c	-1.3665881
131	0xbf84cbab	-1.0374655
132	0xbda81a92	-0.08208193
133	0x3e900126	0.28125876
134	0x3f02ff8f	0.511712
135	0xbea549d4	-0.3228289
136	0xbfd67e53	-1.6757301
137	0xbf4f6e20	-0.8102741
138	0x3dba5c9e	0.090996966
139	0x3d7472d1	0.05967981
140	0x3dac755c	0.08420822
141	0xbbee7490	-0.007277079
142	0xbd68dd40	-0.056851625
143	0x3dc16514	0.09443107
144	0xbe8ab1c2	-0.27088743
145	0xbe5e5367	-0.21711503
146	0x3f97bca6	1.1854446
147	0x3f6c2da2	0.9225713
148	0xbdf53a10	-0.11973965
149	0x3edc94a9	0.4308217
150	0xbf2337e2	-0.63757145
151	0x3edb7d2f	0.42868945
152	0x3fa689c1	1.3010789
153	0xbf290a03	-0.660309
154	0x3d821b73	0.06352892
155	0x40341f5d	2.8144143
156	0xbc826b8e	-0.015920427
157	0x3efed1b2	0.4976936
158	0xbd84b8bc	-0.06480548
159	0x3f1a834f	0.6035661
160	0x3c1f8746	0.009736842
161	0xbda52a52	-0.080647126
162	0xbde79903	-0.113084815
163	0x3dcba9f2	0.09944524
164	0xbf19ef34	-0.6013062
165	0x3e39d15a	0.18146268
166	0x3ecd9cb4	0.40158617
167	0xbc260d32	-0.010134982
168	0xbf679d0a	-0.90474
169	0xbe801044	-0.2501241
170	0xbed49860	-0.41522503
171	0xbeb9aa4d	-0.36262742
172	0xbd57c383	-0.05267669
173	0xbf379d64	-0.71724534
174	0x3e2c4f89	0.16827215
175	0xbf1dabf2	-0.6159049
176	0xbe800a41	-0.25007823
177	0x3e7d6911	0.24747111
178	0x3f470b52	0.7775165
179	0x3f6ac523	0.91707057
180	0xbf280605	-0.65634185
181	0xbefba9b0	-0.491529
182	0xbe878ab1	-0.26473
183	0xbf5d8f9a	-0.86547244
184	0x3edf7cfc	0.43650043
185	0xbf0f4533	-0.55964965
186	0xbf292e8d	-0.66086656
187	0xbe9352f4	-0.28774226
188	0xbe13bc2a	-0.14427248
189	0x3f9aa083	1.2080234
190	0xbef57617	-0.47941658
191	0xbe72ce2f	-0.23711465
192	0x3e34a270	0.1764009
193	0xbecb5f58	-0.3972118
194	0x3e317dfa	0.17333212
195	0xbf4301a4	-0.7617438
196	0x3ed9c386	0.42531985
197	0xbf0e8978	-0.5567851
198	0xbede2f92	-0.43395668
199	0x3f83bea4	1.0292554
200	0xbf4ba094	-0.795419
201	0x3f2ff75b	0.6873681
202	0x3de81909	0.113329
203	0xbdf5a77b	-0.11994835
204	0xbf19259c	-0.5982301
205	0xbf1a9917	-0.60389847
206	0xbe2018fc	-0.15634531
207	0xbf160498	-0.5860076
208	0x3e7476fc	0.23873514
209	0x3f1d7f73	0.615226
210	0xbf4071db	-0.7517373
211	0xbf6d5728	-0.92711115
212	0x3e8037ff	0.25042722
213	0x3eadcad7	0.33943817
214	0x3ddfda21	0.10930277
215	0x3eb5d77f	0.35515973
216	0x3f018a20	0.5060139
217	0x3d49176a	0.049094595
218	0x3e122b61	0.1427436
219	0xbe4469f4	-0.19181043
220	0x3d9a1623	0.075237535
221	0x3ea3075b	0.3184155
222	0xbdcd4a72	-0.10023965
223	0xbe6539e8	-0.2238537
224	0x3e791861	0.24325706
225	0x3f7b9815	0.98278934
226	0x3f562b38	0.83659697
227	0x3dd77c3c	0.10521743
228	0xbeaf6b83	-0.34261712
229	0x3e2aa792	0.16665486
230	0xbf1d8d0a	-0.61543334
231	0xbf18ac5f	-0.5963802
232	0xbe0dd101	-0.1384926
233	0x3ea7e301	0.32790378
234	0x3ee53d20	0.44773197
235	0xbe952143	-0.2912694
236	0x3e271a9f	0.16318749
237	0xbe9e61e0	-0.30934048
238	0x3c00e19f	0.007866292
239	0xbf5197dd	-0.8187235
240	0xbdb494e0	-0.08817458
241	0x3f8e92e9	1.1138583
242	0xbe880ee5	-0.26573864
243	0x3eaad063	0.3336211
244	0xbe8de7a0	-0.27715778
245	0xbde26900	-0.110551834
246	0xbe678b9b	-0.22611849
247	0xbddf135f	-0.108923666
248	0x3ec3b94e	0.38227314
249	0xbf1c8860	-0.6114559
250	0x3fd734fb	1.6813043
251	0x3f3ebb78	0.74504805
252	0xbe929f51	-0.28637174
253	0xbfc8ddf5	-1.5692736
254	0x3e43ee3c	0.19133848
255	0x3f3a4f0c	0.72776866

actor.0.bias f4 [256]
0	0xbd954bdc	-0.0728986
1	0x3d0847d2	0.03327162
2	0x3d04d5f1	0.032430593
3	0xbdaf0060	-0.085449934
4	0xbf44a959	-0.76820904
5	0xbe1d0dc5	-0.15337284
6	0xbda098e1	-0.07841659
7	0xbcee059f	-0.029055415
8	0xbe541863	-0.20712428
9	0x3e8f5e78	0.2800176
10	0x3db05b7f	0.086112015
11	0xbe7b4d0f	-0.24541114
12	0x3f066d43	0.5251047
13	0x3d54aa0b	0.051919978
14	0x3ec2d26f	0.38051173
15	0x3e05f662	0.13082269
16	0xbd8c7970	-0.068591
17	0x3e4f8f6a	0.20269552
18	0x3d6a2843	0.057167303
19	0xbeafc757	-0.34331772
20	0x3ebe6dd3	0.37193164
21	0x3e5871fd	0.21137233
22	0x3ce49680	0.027903795
23	0xbe311316	-0.17292437
24	0x3de0522a	0.109531716
25	0xbe6a7b81	-0.22898676
26	0xbd0da3e7	-0.034580138
27	0x3ea7a981	0.3274651
28	0x3ce8dd70	0.028425902
29	0x3cff7f61	0.031188669
30	0xbe7574f6	-0.23970398
31	0xb9c9bbca	-0.0003847762
32	0x3da5ec49	0.081017084
33	0xbf00c0c3	-0.5029413
34	0x3da480ac	0.08032355
35	0x3e81216e	0.25220817
36	0x3e3f0501	0.18654253
37	0x3dffc2e9	0.12488348
38	0xbce15e8c	-0.027510904
39	0x3ef46267	0.47731325
40	0x3cda8369	0.02667399
41	0xb83614b4	-4.3411463e-05
42	0xbe64425f	-0.22290944
43	0x3d3de1d6	0.046357952
44	0xbcbe923e	-0.023263093
45	0xbcbc3092	-0.022972379
46	0x3d1df3cf	0.038562592
47	0x3e69816d	0.22803278
48	0xbd34a8a7	-0.044106152
49	0xbef39dc4	-0.47581303
50	0xbf0083f9	-0.50201374
51	0x3cafb9c1	0.021450879
52	0xbef2b29c	-0.47401893
53	0xbdbd8c03	-0.09255221
54	0x3dcc1382	0.09964658
55	0x3e5311db	0.2061228
56	0xbe4a77bf	-0.19772242
57	0x3ed5908f	0.41711852
58	0x3cb1a610	0.02168563
59	0x3cc849e0	0.024449289
60	0x3e82e1db	0.2556294
61	0xbcbe6728	-0.023242548
62	0x3e125e33	0.14293747
63	0x3a8b0ba8	0.0010608332
64	0xbd3456a0	-0.044027925
65	0x3e2dcb93	0.16972189
66	0xbb219880	-0.0024657547
67	0xbd2f6e2e	-0.042829685
68	0x3c111046	0.008853978
69	0x3cdfa993	0.027302539
70	0x3f04312d	0.51637536
71	0xbcca411f	-0.024689255
72	0xbecaf744	-0.39641774
73	0xbdbe7884	-0.0930033
74	0xbef319d5	-0.47480646
75	0xbe895978	-0.26826072
76	0xbe7353ce	-0.23762438
77	0xbd20b4e3	-0.039235007
78	0xbca43e8e	-0.02004936
79	0x3daad18a	0.08340748
80	0x3d249486	0.040180705
81	0xbe35bcbd	-0.17747779
82	0x3e329f9b	0.17443697
83	0x3e7003a0	0.23438883
84	0x3e03d347	0.12873565
85	0xbde9c495	-0.11414448
86	0xbe5f53ed	-0.21809359
87	0xbe21ae02	-0.15789035
88	0x3ea49a85	0.3214914
89	0xbd823990	-0.063586354
90	0x3e6460bf	0.2230253
91	0xbecace12	-0.39610344
92	0xbe2e0a19	-0.1699604
93	0xbbaf8e68	-0.0053575523
94	0xbd75fd5a	-0.060056068
95	0xbd600cff	-0.054699894
96	0x3e54cad6	0.20780501
97	0x3e1adc3a	0.15123072
98	0xbdbdbb4d	-0.092642404
99	0x3ef1edd3	0.47251758
100	0x3eb4cab1	0.3531089
101	0x3dc83080	0.09774876
102	0xbe2b5b46	-0.16734037
103	0x3e14e2f0	0.14539695
104	0xbdff93a9	-0.12479336
105	0xbdf00b2e	-0.11720882
106	0x3c6a4956	0.014299711
107	0xbe1d30f5	-0.15350707
108	0xbeea4de8	-0.45762563
109	0xbda7739a	-0.08176346
110	0xbe6dfec5	-0.23241718
111	0xbe0d9cb2	-0.13829306
112	0xbdbf9a61	-0.09355617
113	0x3e6efd86	0.23338899
114	0xbef9b71b	-0.4877251
115	0x3e0841cb	0.13306348
116	0x3e0a1bf0	0.1348722
117	0xbd0290cc	-0.03187637
118	0xbe2ee52c	-0.1707961
119	0x3dbc9f30	0.0921005
120	0x3e6b77c4	0.22994906
121	0x3e9ddff1	0.30834916
122	0x3e11c49a	0.14235154
123	0xbf4720f4	-0.7778466
124	0x3de2f0a6	0.11081056
125	0xbcc5d743	-0.024150496
126	0x3e1cba89	0.15305533
127	0xbe7e1808	-0.24813855
128	0x3e479bea	0.1949307
129	0xbb3fac85	-0.0029247117
130	0x3e49eb3a	0.19718638
131	0xbae603ea	-0.0017548774
132	0xbe5db0df	-0.21649502
133	0x3e16081e	0.14651534
134	0x3e58a307	0.2115594
135	0x3da2e77c	0.079543084
136	0xbda1c1e8	-0.07898313
137	0x3dfdfbfa	0.12401576
138	0xbe153140	-0.14569569
139	0x3e35496a	0.17703786
140	0xbe7017e6	-0.23446617
141	0xbe98d24f	-0.29847953
142	0xbe82ff87	-0.25585577
143	0x3de26234	0.11053887
144	0xbd4b43c8	-0.049625188
145	0x3d13400b	0.035949748
146	0xbe03a0fa	-0.12854376
147	0xbd9b93c6	-0.07596545
148	0x3c126330	0.008934781
149	0x3e880713	0.26567897
150	0xbd6f2509	-0.05838493
151	0x3cfd7865	0.030941198
152	0x3dcce90c	0.10005388
153	0xbe8e2435	-0.27762
154	0x3e0a8fca	0.13531414
155	0x3da2e6fc	0.07954213
156	0x3e27e9a2	0.16397718
157	0xbd74b380	-0.059741497
158	0x3dc91f5a	0.09820433
159	0x3d3f2d9b	0.046674352
160	0xbdf6fcdd	-0.120599486
161	0x3c8bf1e3	0.017083114
162	0x3b6271e6	0.0034552752
163	0xbcaac2c2	-0.02084482
164	0x3d5b97bb	0.0536115
165	0xbd59dc68	-0.05318871
166	0x3a60413c	0.00085546426
167	0x3e7072ee	0.23481342
168	0x3e36adbf	0.17839716
169	0xbdf3301d	-0.11874411
170	0x3e1854ac	0.1487605
171	0xbd9efa6b	-0.07762607
172	0xbddd219f	-0.10797428
173	0xbe523bff	-0.20530699
174	0x3deda8e6	0.116044804
175	0xbec028a6	-0.37531012
176	0x3dda0d55	0.10647074
177	0xbc7858f4	-0.015157927
178	0xbe05aa45	-0.13053234
179	0x3dc54e4c	0.096340746
180	0xbda1e3c6	-0.079047725
181	0x3d01f2db	0.031725746
182	0xbe3399f0	-0.17539191
183	0x3f0fa800	0.5611572
184	0x3df6c1d1	0.12048686
185	0x3e3a6596	0.18202814
186	0xbe087542	-0.1332598
187	0xbe5255ec	-0.20540589
188	0x3d1d5318	0.038409323
189	0xbdf576ef	-0.119855754
190	0xbe15d3ba	-0.14631549
191	0xbe4bf9c8	-0.19919503
192	0xbeaee863	-0.34161672
193	0xbd8dc447	-0.069222026
194	0x3d9d2dae	0.07674728
195	0xbcd06a07	-0.025441183
196	0xbd19f6d9	-0.037588928
197	0xbcd94099	-0.02652006
198	0xbcd0c96b	-0.025486669
199	0x3eb52cfe	0.3538589
200	0xbd86abea	-0.06575759
201	0xbe37c463	-0.1794601
202	0x3e766fb0	0.24066043
203	0x3e870b06	0.26375598
204	0xbd51c928	-0.05121723
205	0x3e496745	0.196683
206	0x3e37278c	0.1788618
207	0x3dd1aebc	0.10238406
208	0xbc5dda71	-0.01354085
209	0x3d27b0d7	0.040940132
210	0x3d9267a0	0.07148671
211	0x3d9a744b	0.075417124
212	0x3e1e03af	0.15431093
213	0xbe3c2cf7	-0.18376528
214	0xbe036185	-0.1283017
215	0x3ee87e2b	0.4540876
216	0x3dbdf754	0.0927569
217	0xbd284d1e	-0.04108917
218	0xbe136b3a	-0.14396372
219	0x3e0b7ab3	0.13621025
220	0xb9614618	-0.00021483784
221	0x3dca5796	0.09879987
222	0xbc11d84b	-0.008901666
223	0xbe06bba3	-0.13157515
224	0x3d3d45e2	0.046209224
225	0xbdfe4706	-0.124158904
226	0xbdc99a5f	-0.09843897
227	0xbdcc6075	-0.09979335
228	0xbe311a81	-0.17295267
229	0x3d2f6ba8	0.04282728
230	0x3d048ac7	0.03235891
231	0xbe223634	-0.1584099
232	0xbd962c5b	-0.07332679
233	0xbd338673	-0.043829393
234	0x3d004ff4	0.03132625
235	0xbd35d604	-0.044393554
236	0xbd99a03d	-0.07501266
237	0xbf1153a7	-0.5676827
238	0x3da19b6d	0.07890973
239	0xbe962d87	-0.2933161
240	0xbead0bb1	-0.33797982
241	0xbd9c7d0b	-0.076410376
242	0x3ed8657c	0.42264926
243	0xbe3151cd	-0.17316361
244	0x3dd5eb7e	0.10445307
245	0x3ce4373e	0.027858373
246	0x3e9f3ac6	0.31099528
247	0x3d274f24	0.04084696
248	0x3d97e23b	0.07416197
249	0x3ea0d72d	0.31414166
250	0xbde04f91	-0.10952676
251	0xbd257a2c	-0.040399715
252	0x3e87a3c8	0.26492143
253	0x3ee8f1f8	0.45497108
254	0xbd11d11e	-0.03559982
255	0xbf02023d	-0.50784665
