models/ho_policy_ep4000.pth (torch, 628226 bytes, 11 tensors)

critic.0.weight f4 [256, 42]
00000000: f0b8 91bd cb93 f2bd 7152 c63e cce4 9f3e
00000010: 572a 503e 3dbe a3be eb5a 463e 1c6e b7be
00000020: 4634 663f 0711 173f c49c 4ebe c10c d6bd
00000030: 7ad7 40bb c59a 033e 6399 13bf b9ee b93e
00000040: 2683 e03e 28a8 6c3e e64c a1be 11e6 39bf
00000050: fc53 10be 01ab 55bb 5d84 cd3e 1006 3ebe
00000060: c7c3 c7bf 7a88 e0be b5ab b9bd f133 a4bf
00000070: 9e14 9fbe b40f 86bf ec4a 553e fe6f 163f
00000080: 4f9e 46bf 6a11 ce3f dd00 09bf 566f fabd
00000090: aa90 f3bd b9a9 a1bd 3c13 a6be 22e0 00bf
000000a0: b167 4abf 5936 fc3e 2f17 fbbe 33d6 64bf
000000b0: cf3e 58bf 3082 12be f887 5b3c c236 debe
000000c0: 7562 ff3d 2933 eebe 48bc 8cbf 0b68 413d
000000d0: efc9 14bf 8875 853e f99e f3be 5a0b 813e
000000e0: 1d97 993e 9f38 2bbf 54cd 12bd 5a37 13be
000000f0: f792 933e a8aa 40bf 679b e0be 79e7 0f3e
00000100: e11d 203f 4ad5 8ebd 000c aaba 3976 b1bd
00000110: 73c9 e03e e41e 653f 313a 85be 3744 4abf
00000120: f364 2cbe 7d8c b3bd 6daa 9fbe 742c 2ebf
00000130: 3721 5ebe a868 8a3c bac9 85bd b1f5 923e
00000140: 778c 363f 806b 6abf 6af7 a0bf aec1 473f
00000150: 9149 0bbe c134 dfbe 618d e3be 8ac3 8c3e
00000160: 516c aa3e 9c8f 5cbf 23e7 68bd 6aa2 c8be
00000170: 5789 9f3f fa87 dbbe ca7f 92bd 7725 733e
00000180: 471d b4bd f02f dd3e 5003 d83e 90c2 b5bd
00000190: aed8 643e cf11 ed3e 7678 ac3d d0d6 ccbe
000001a0: e6db 783e e608 143e f15d 263f e5d7 89be
000001b0: be8e bdbe d461 d4bd b4b2 8b3e b15d 0dbf
000001c0: 2223 49bf 3bba a9bf 08f8 ccbd 1918 c33d
000001d0: d6fa 63bf 8e72 f33e 5e8d 13bf 20c8 13bc
000001e0: 0f28 02bd f76c ec3c a61e 91be c57b 73bd
000001f0: d458 79bd 687c d5bd df14 9c3e 8901 943e
00000200: 0bb0 453f 50a9 2cbf 6590 c03c a44d b63e
00000210: f040 313e 61da 653e b10f 1a3f bb02 7ebe
00000220: f335 7a3e 1649 15be ae8f a63e f3b5 2cbe
00000230: 4245 513f a8be c93d 3abe 3c3e 3b67 823e
00000240: 0f9f a1be 080f e0be dc4a d13e c4db adbd
00000250: 3360 923d db36 10bf a5ac d8be 8991 45be
00000260: a38c 66be cf82 bcbf 1269 1f3c 0837 0c3e
00000270: b6f0 173e 40d9 cfbc 6352 b1bd 7775 ce3f
00000280: 2503 143f 8e58 c33d 91a1 55be 3ef2 b6bb
00000290: a43e debd d315 7abe e380 7e3f 1cb3 c6be
000002a0: 53ce a0bd d151 80bd 4653 bfbd e086 773f
000002b0: 9055 573e 6eae e6bd 4aed 87bc c079 bebe
000002c0: a3e5 3c3f 7c3e 4dbd 31fc 2b3e 3a77 0c3e
000002d0: 7610 7dbc 9a96 873e 0032 9ebe 8bc0 963d
000002e0: c1c7 2abd 1951 de3e 6d1e ff3d c565 bebe
000002f0: 4710 50be 2d57 073e 0d63 7c3f c7c0 b23e
00000300: 886d 1fbe 6474 513e 66d1 403e 4301 84be
00000310: ab94 64bf 1160 a5be 4281 3f3e d388 c13a
00000320: 970c 68bf dcc9 4d3e 0758 74bd 9ee2 c73d
00000330: 2861 973d 0f26 73bd 8fbb 40be 0ada 373e
00000340: da26 74bf ca44 b13e 939a 7f3e b1df 90be
00000350: 7fd4 813f 4fae 1e3e f2d9 c9bd 5338 4fbf
00000360: 4db2 1bbe 1f14 b93e fd83 0840 aa8b c8be
00000370: ecf9 aabe 7f6a f6be 38ac 213f 48d6 fc3d
00000380: 1569 a0be e1c1 063e 159d 59be eea5 783e
00000390: 3f51 ccbd 5dbe fdbc 7a58 11bf a720 51be
000003a0: 9e09 86be 634d 203f 6e45 c33f f1da 5b3e
000003b0: a10b 143f 30f6 14bf 208b e63d ac16 77bf
000003c0: 5e73 1dbf e725 9abf 4f69 de3d 6ee9 f43e
000003d0: fd97 ca3e 9617 d93d f225 243d d98b 41bf
000003e0: e2c0 863e 4277 eb3e 0058 c33f faf6 1bbf
000003f0: bbd6 eebe daca d3be d0ea a9be 6d0e a73a
-0.07115352 -0.118445955 0.38734773 0.31229246 0.20328651 -0.31981078 0.1937062 -0.35826194
0.8992351 0.59010357 -0.20176989 -0.10451651 -0.002942531 0.12852009 -0.57655925 0.36314943
0.43850058 0.23111022 -0.3150398 -0.7261668 -0.14094537 -0.0032603147 0.40140048 -0.18557
-1.5606622 -0.43854123 -0.09065954 -1.2828351 -0.31070417 -1.0473542 0.20829362 0.58764637
-0.7758531 1.6099064 -0.5351694 -0.12228267 -0.11892827 -0.078937 -0.3243655 -0.50342
-0.7906447 0.49260214 -0.49041125 -0.8938934 -0.8447084 -0.14307475 0.013399117 -0.43401152
0.12469951 -0.46523407 -1.0994959 0.047218364 -0.58120626 0.26066232 -0.47582224 0.25203973
0.29998103 -0.6688327 -0.035840347 -0.14376584 0.28823063 -0.752604 -0.43868563 0.14053144
0.6254559 -0.069742754 -0.0012973547 -0.08665127 0.43903694 0.8950026 -0.2602096 -0.7901034
-0.16835384 -0.087670304 -0.31184712 -0.6803658 -0.21692358 0.016895607 -0.06532617 0.28703073
0.7130808 -0.9157028 -1.2575505 0.78029907 -0.13602282 -0.43594936 -0.444438 0.27492934
0.33285764 -0.8615663 -0.056861054 -0.39186412 1.2463788 -0.4287718 -0.0715328 0.2374476
-0.08794647 0.43200636 0.42190027 -0.088750005 0.22348282 0.4630265 0.084214136 -0.4000764
0.24302635 0.1445652 0.64987093 -0.26922527 -0.37022966 -0.10370222 0.27284777 -0.55221087
-0.78569233 -1.3259958 -0.10008246 0.09526081 -0.8905462 0.47548336 -0.57637584 -0.0090198815
-0.031776484 0.028860552 -0.28343695 -0.059444208 -0.06087573 -0.10424119 0.30484673 0.2890742
0.77221745 -0.6744585 0.023506353 0.3560611 0.17309928 0.22446586 0.60180193 -0.24805729
0.24434642 -0.14578661 0.32531494 -0.16866283 0.81746304 0.09850818 0.1843194 0.25469384
-0.31566665 -0.43761468 0.40877426 -0.084891826 0.07147255 -0.563337 -0.42319217 -0.19293799
-0.22514586 -1.472742 0.009729641 0.13692868 0.14837918 -0.025372148 -0.08658292 1.6129597
0.578173 0.09538375 -0.20862414 -0.0055830767 -0.108517915 -0.24422388 0.99415416 -0.38808525
-0.07851853 -0.06265605 -0.09342055 0.9669018 0.21028733 -0.112637386 -0.01659264 -0.37202263
0.737879 -0.050108418 0.16795422 0.13717356 -0.015445819 0.26482087 -0.30897522 0.073609434
-0.041694406 0.43421248 0.12456975 -0.3718702 -0.2031871 0.13216849 0.9858864 0.34912702
-0.15569127 0.20454556 0.18829879 -0.25782213 -0.8928935 -0.32299855 0.18701652 0.0014765508
-0.9064421 0.20096534 -0.059654262 0.09760021 0.07391578 -0.059362467 -0.18821548 0.17954269
-0.9537178 0.34622794 0.24961309 -0.28295663 1.0142974 0.15496181 -0.09856023 -0.8094532
-0.15204735 0.36148164 2.133056 -0.39169055 -0.333938 -0.48128125 0.6315341 0.123455584
-0.3133017 0.13159896 -0.21251328 0.24282047 -0.09976434 -0.030974561 -0.5677563 -0.20422612
-0.26179212 0.6261808 1.5255563 0.21470238 0.57830244 -0.5818815 0.11257005 -0.9651897
-0.6150416 -1.2042817 0.1085993 0.47834343 0.39569083 0.10600202 0.04007525 -0.75604016
0.26319033 0.45989424 1.526123 -0.6092373 -0.466482 -0.413657 -0.3318696 0.0012745388

critic.0.bias f4 [256]
00000000: 0876 86be ff4e afbd bcb8 9c3c 0f41 80bc
00000010: 2c6d 46be a3b6 5c3e e5db 333e d5b3 27be
00000020: 4776 45be fea6 bd3e 5a2d 12be 2767 7dbe
00000030: ce6f 823e 64b8 5fbd 9d81 e03d be5b 01be
00000040: 9602 6cbe 3b3b 0abd 25d7 0dbe a293 c5bd
00000050: 2b66 1f3e 0ca8 fabd d2d5 c23d 8293 c3bd
00000060: 95c2 edbb 51ce a23e 26ca 403e 1ee9 123c
00000070: a7a0 953e 2666 17be d365 abbd f6ca f8bc
00000080: bdf0 b73d 4197 593d ba67 e1bc b19f 403e
00000090: bd54 4ebd 6036 543d 1a7a 9f3e efb2 a6be
000000a0: d746 523d 0ae8 7bbc 94cf 4c3e 3c5d 32be
000000b0: 5c56 bc3c 5365 203e 11b2 3c3e 7ada 7a3d
000000c0: 1cf3 19be 1b09 8a3e f6f5 953e 4d43 e93c
000000d0: 6908 153e aefc a7bd ed65 9c3e 344e 50be
000000e0: 2eeb 873c 34ce d13b 11af 08be 79b2 9fbe
000000f0: 4083 5c3e c53b 3dbe f121 86be 00db 12be
00000100: 5a4e 93bc 8f46 b53d bff8 0ebd 3376 7a3d
00000110: 8299 0f3e ba65 503e 159a 97be fbdd 91be
00000120: 60b1 d9bd 5ae0 92bd 9486 38be 32c9 613e
00000130: 5fc6 5e3d 481b b33b 3464 2a3e 0145 4b3e
00000140: bbe8 bbbd 4522 5e3e 7966 36be 18a6 06bd
00000150: 97cf 7fbe 5982 a2bd 0d79 c0bd 4c46 51be
00000160: 9a22 9ebd d320 2dbd 44e9 1b3e 635b 1c3d
00000170: dd0b a2bb 7fba 8a3c 9f18 65bd 9489 b1bd
00000180: 93aa 703d eb49 c43d 2efc e1bd 585e 933d
00000190: d6a2 343e fd59 09be 9305 6b3c 389f 2f3e
000001a0: d095 283e 7634 55be 9c39 9cbb e0b1 61be
000001b0: b331 173d 4230 5ebd 2781 833e deb3 073e
000001c0: 2ee3 bebe 10d7 10bf 01b9 babd 0cff 30be
000001d0: a72a 4cbd d699 193e a455 653d cde9 2a3d
000001e0: 8cce 2dbe 0b15 47be 5568 32bd 0c7d 293e
000001f0: bf01 c7bd 5592 a43e 1082 bf3d 4053 4cbe
00000200: f9b2 d83e 0dd6 b3be 5566 18be 254c 8dbe
00000210: 6984 15be 3d9d 17bd 976f 17be 83ca 523d
00000220: f878 b3bc 4e2d 36be a2d3 2dbe 4af4 2b3d
00000230: 029d f53d 82d8 59be 0681 e63c bbc5 8cbe
00000240: 70fe 2a3d 51e2 9a3d 74c0 873e 296a 1e3e
00000250: b71e 4e3d 7792 903d 52ff 243e 17a4 34bc
00000260: 0983 5a3e ecc1 93be b6fe 043e cfe7 39bd
00000270: ec1c 0c3e 21b5 91be 3162 2f3d 5c9f c9be
00000280: 1b8a d3bd 9bb7 d13d 4e60 dd3c d186 223d
00000290: bbea babd dae4 04be 8cfa a23b 34f4 92bc
000002a0: 8690 983e ca1c 19be ca63 fdbd 7b08 223d
000002b0: 1dbc 67be 4b43 17bd 9f18 bcbd 63f1 67be
000002c0: 5c7d bebb 0d67 f93d 61eb d0bd 3224 303e
000002d0: c163 85be 61c8 503e 7865 85be 4287 29be
000002e0: 683b 9dbe 511e 253e 3794 8ebe 6e4e c73c
000002f0: 5830 013e d5cb cabd 9777 abbd 7fa3 07be
00000300: 45bd 8dbd de5c 8a3e 4911 0b3e 5c22 ffbd
00000310: ffb6 87bb 73f6 c2bd 8640 bd3e 740e 43be
00000320: dcef fbbd a668 31bd 6381 59be 8aa5 bebd
00000330: d44a a73e d53b 1dbd a80c 09be 6014 1ebb
00000340: f8b2 6c3e e2ed 2f3e c1ea d7bd be27 833e
00000350: 0804 933e 303f 663e fc36 7c3e 2544 13be
00000360: 1727 25be 0abb 5dbd 43ff 273e 5e87 dcbd
00000370: 02d6 94bd 3080 73bd 5b69 49bc 6921 0b3d
00000380: 477a 71be bf12 eabd d281 98be 9d93 3e3e
00000390: 9984 d9bd ef7a f43d 92d5 8c3e 8cf6 67be
000003a0: 3fb3 bfbe e458 29be 4fd2 49be 5909 ef3d
000003b0: fe5a cbbd 7580 69be a51e 3a3d e40b ffbd
000003c0: 0ec3 6c3e 3554 8a3e e2a2 893e 2784 11be
000003d0: 0a84 f9bd 8ec0 39be ea99 aebe ba9f 2e3e
000003e0: 5914 0c3e bd98 5abe cfe8 babd ca2c 82be
000003f0: fbfb 03be 6eff 94bc 9d9f 283e 08de 923b
-0.26261926 -0.08559989 0.019131057 -0.015656022 -0.19377583 0.21554045 0.17564352 -0.16377194
-0.192834 0.37041467 -0.14275113 -0.24746381 0.25475925 -0.054619208 0.10962222 -0.12632653
-0.23047861 -0.033747893 -0.13851602 -0.09647299 0.15566318 -0.12239084 0.09513439 -0.09549619
-0.007255862 0.31798032 0.18827114 0.008966712 0.2922413 -0.1478506 -0.08369031 -0.030370217
0.08981464 0.053122763 -0.027515281 0.18810917 -0.05037378 0.05180967 0.31147844 -0.3255839
0.05133709 -0.015375147 0.2000106 -0.17418379 0.022990398 0.15663652 0.18427302 0.06124351
-0.15034145 0.26960072 0.29289216 0.028474474 0.1455399 -0.08202492 0.30546513 -0.20342332
0.016591635 0.006402755 -0.13348033 -0.3119085 0.21534443 -0.18479832 -0.2619777 -0.14341354
-0.017981697 0.088513486 -0.03490519 0.06114788 0.14023402 0.20351306 -0.29609743 -0.2848967
-0.10629535 -0.07171698 -0.18020087 0.22049406 0.0543884 0.0054658987 0.16639787 0.19850542
-0.09175249 0.2169276 -0.17812528 -0.032873243 -0.24981533 -0.07935018 -0.093980886 -0.20436972
-0.077214435 -0.04226763 0.15225703 0.03817309 -0.004945262 0.016934631 -0.055931684 -0.08668819
0.058756422 0.09584411 -0.110344276 0.07195729 0.17640242 -0.13413234 0.014344591 0.17150581
0.16463399 -0.20820794 -0.0047676098 -0.2204051 0.03691263 -0.05424524 0.25684473 0.13252208
-0.372827 -0.5657816 -0.09117318 -0.17284793 -0.049845364 0.1500009 0.055989876 0.041726876
-0.16973323 -0.19441621 -0.04355653 0.16551608 -0.0971713 0.32142892 0.09350979 -0.19953632
0.42324045 -0.35124245 -0.14882787 -0.27597156 -0.14601292 -0.03701519 -0.14788662 0.05146266
-0.021908268 -0.1779072 -0.16975263 0.04198102 0.119928375 -0.21273997 0.028137695 -0.27494606
0.041746557 0.07562698 0.26514018 0.15470184 0.05032226 0.07059186 0.16113022 -0.01102545
0.21339048 -0.28858888 0.1298779 -0.045387086 0.13682908 -0.28458503 0.042818252 -0.39379394
-0.10329076 0.10240098 0.02702346 0.039679352 -0.091268025 -0.12977925 0.004973715 -0.01793871
0.29797763 -0.14952388 -0.12372549 0.03955887 -0.22630353 -0.03692941 -0.091843836 -0.22650675
-0.005813284 0.121778585 -0.10201145 0.17201307 -0.2605267 0.20388938 -0.26053977 -0.16555503
-0.30709386 0.16124846 -0.27847454 0.02432939 0.12616098 -0.09902159 -0.08372419 -0.13245963
-0.06920866 0.27023977 0.13580813 -0.124577254 -0.004141688 -0.09519663 0.3696329 -0.19048482
-0.12301609 -0.04331269 -0.21240763 -0.09308918 0.32674277 -0.03838714 -0.13383734 -0.0024121031
0.23115146 0.17180589 -0.10542823 0.25616258 0.28714013 0.22485042 0.2463035 -0.14381464
-0.16128193 -0.054133452 0.16405968 -0.10768007 -0.07267381 -0.05944842 -0.012293185 0.03396741
-0.23581801 -0.11429357 -0.29786545 0.18610997 -0.10620994 0.1193751 0.2750669 -0.22652644
-0.3744144 -0.16537815 -0.19709133 0.11671705 -0.09929465 -0.22802909 0.04543938 -0.1245344
0.23121282 0.2701737 0.26882082 -0.14210568 -0.121833876 -0.1813986 -0.34101802 0.17053118
0.13679637 -0.21347328 -0.09126436 -0.25424796 -0.12889092 -0.018188205 0.16467138 0.0044820346

critic.2.weight f4 [256, 256]
00000000: 1f4c f03e 18c9 dbbd 5773 ddbd 7515 11bf
00000010: 2d1f cdbd 691f ec3e 25c9 313f a058 8a3e
00000020: a922 cebe a1b3 ec3e 6ddd 933d 1d3f 713f
00000030: 0bf7 e83d 84ea 46bf 0eb8 dd3d 849f 7fbe
00000040: acd8 053f 8879 863e eb4b d03e 2b26 68bf
00000050: afd2 8bbd 59d8 0c3f 7fd5 a63c d9e0 fa3d
00000060: d786 e3be f9ba 023f 1c01 cabf b206 33bf
00000070: e975 c2be 03aa adbd 9e32 bd3f b6c2 38be
00000080: d732 ad3e 0b8b 933e 660f 2dbe a528 1a3f
00000090: 8e44 593f 78a7 84bd 46f5 fc3e 6cc5 1abf
000000a0: 40ef 53bf f8f5 413f 9752 bbbe 0d4c 36be
000000b0: b561 a33d be2e 423f 4a14 4c3e ee00 2dbf
000000c0: 4764 a13e 14da 003e 694d bd3e 7b83 80be
000000d0: 3e5e 843e e7c5 0fbd 84f1 52be b556 4a3f
000000e0: 73d8 23bf 8496 673e 038f 1b3f 33aa 423d
000000f0: 8a7a 0d3f 3a17 45bf 003c 1cbd 63b8 773f
00000100: dda0 2abf 7376 5abe 1a03 6f3e 83af 3ebf
00000110: b7a3 40bf 7d85 a5bd 8eba 97bd 5da2 ff3d
00000120: 9ece 20be f1b8 29bf 22ef 6d3e 3d14 d83e
00000130: a111 aa3d f7e7 0fbe 69bd de3e dd59 1fbf
00000140: e037 23bf 18d0 df3d 1281 18bf e1e7 9d3e
00000150: 1e61 c93e 3f34 5e3f f1fa 8b3f b2cd 223e
00000160: 8581 273e d80a 473f b7c8 5bbf 651c 6e3e
00000170: 6e79 6c3c 5450 fc3d 0747 2abd 60fc 943e
00000180: a29f a1be c2de df3e bcc6 a23e e0bf 8cbe
00000190: 26b6 42be 23a3 d83e 9c1a 6c3f a829 31bf
000001a0: 9dc3 923e aad8 5c3d 09f5 d23e 77b5 64ba
000001b0: 8abe fd3e 92f0 443f d937 d13e ca06 b7be
000001c0: e0f5 a33e 7045 0c3e 4cad 4dbf 2dc2 8b3d
000001d0: a46f 43be de15 66bf d920 4f3e 537b 9c3f
000001e0: d05c 043f 9d9a 89be d253 593f a5a9 87be
000001f0: 2a37 8f3d 426f 23be 4a73 ba3e 5ab5 473f
00000200: e895 82be df0e 93be e695 f0bc 9593 eabe
00000210: 7d90 b33f a8c0 9a3e fd18 a2be ae8d 37bf
00000220: 222a 4ebf 85f6 7abe ae75 3f3f 005c 863c
00000230: c943 9e3e 5f13 82be 80df 783e 9504 71be
00000240: 3826 8d3f 269b dabe c872 6a3f 97c7 3e3e
00000250: 150e 743f efb6 b13e 910c 333f afbe cabf
00000260: 4952 683e 22f3 1d3f eb8a 013f 333c 523f
00000270: 624c fe3c e834 113e a180 983f 83a4 833f
00000280: 925b 2fbc d2e6 cb3e 0039 273e b206 a3bd
00000290: 4642 37be 0172 c63e af99 5e3f 52f6 bb3e
000002a0: 1d5b 433f cd02 273e 7ffd 5dbd c95e 103f
000002b0: 79c6 4e3e ebfb 05bd 4c98 b13c 88f3 6abf
000002c0: 2413 1fbf 773c 00be 76e4 56bf 43ed 063e
000002d0: fbc6 213f eac7 c1be cc0d 133f 25bc 1dbf
000002e0: 19f5 6f3f 321a b63e 72a1 60bf 086e 58bd
000002f0: 16c8 7b3d 550b acbf 6adf 2e3e 1368 c3bd
00000300: 0359 b9be 68e8 803e c2de 8dbe 6038 fbbe
00000310: 3845 d73e 1b45 8abd 88d7 0f3e bcc4 8b3f
00000320: 5738 5fbf 459b 083e f56b c7be 9f08 aebc
00000330: 53fc c8be 2bd7 16bf 4f03 38be 8430 b73d
00000340: 85a6 d33e 3cb3 46bd 9f8d 0e3d 9802 57be
00000350: 1708 4fbd be73 87be 36dd 5cbc 4607 dd3d
00000360: 8265 ad3f 209a b5bd 66eb 813e b100 1ebf
00000370: 628e 713f d715 1ebd acf5 6abe 76c8 b03e
00000380: cf00 043e 27bf 00bf cead 3abf 05d9 533e
00000390: 1d40 d7be ec63 62bf 56e2 3c3f 3f45 ae3e
000003a0: 1d87 403f c77a cc3e cc76 53be 75b9 0bbf
000003b0: 3cd6 71bf d124 163f 5cf0 68bf 46f0 5a3f
000003c0: 7632 1abf 18ee 07bf d97c a93e 05a3 833e
000003d0: 96df ffbe c373 ae3e 8339 9fbe d757 9a3f
000003e0: 8217 abbe e3ea 8d3f 9876 2b3e 6b10 8abd
000003f0: 92b4 8abf 4828 0dbf d345 bbbc 7d2a 2b3f
0.46933076 -0.10731715 -0.10813015 -0.56673366 -0.10015712 0.46117714 0.6944755 0.2702074
-0.4026082 0.46230796 0.07219968 0.9423693 0.11375245 -0.7770159 0.10826121 -0.24963194
0.5228374 0.26264596 0.4068292 -0.9068324 -0.06827294 0.5501762 0.020365475 0.122499175
-0.44438812 0.5106655 -1.5781589 -0.6993209 -0.37980583 -0.08479693 1.4781072 -0.18043026
0.3382785 0.2881702 -0.16900405 0.6021827 0.8487023 -0.06477255 0.4940588 -0.6045749
-0.8278694 0.75765944 -0.3658645 -0.17802449 0.079776205 0.7585257 0.19929615 -0.67579544
0.31521818 0.1258319 0.36973122 -0.25100312 0.2585315 -0.035100844 -0.20599943 0.79038554
-0.6400215 0.22616011 0.60765094 0.047525596 0.55265105 -0.76988566 -0.038143158 0.96765727
-0.6665171 -0.21334247 0.23341027 -0.7448656 -0.7524981 -0.080821015 -0.07408629 0.1248214
-0.15703818 -0.66297823 0.23235753 0.4220294 0.08304144 -0.14053331 0.43503883 -0.62246495
-0.63757133 0.109283626 -0.59571946 0.30840972 0.39331907 0.8679847 1.0935956 0.15898779
0.16358002 0.7775092 -0.8585314 0.23253019 0.014433248 0.12320009 -0.041571643 0.29098797
-0.31567103 0.43724638 0.31792247 -0.2749014 -0.19014797 0.42311963 0.922281 -0.6920419
0.28664866 0.053917564 0.41202572 -0.000872455 0.49559432 0.7692958 0.4086292 -0.35747367
0.32023525 0.13698363 -0.80342555 0.068241455 -0.19085556 -0.89877117 0.20227374 1.2225136
0.5170412 -0.26875773 0.84893525 -0.26496616 0.069929436 -0.1596041 0.36416084 0.78011096
-0.25504994 -0.28722283 -0.029368352 -0.4581572 1.4028469 0.3022511 -0.3165969 -0.7170056
-0.8053304 -0.24508102 0.7478894 0.01640129 0.3091109 -0.25405404 0.24304008 -0.23536904
1.1027288 -0.42696494 0.9158139 0.18630825 0.9533399 0.3470988 0.6994105 -1.5839442
0.2268764 0.61699116 0.50602597 0.82123107 0.031042282 0.14180338 1.1914254 1.028458
-0.010702984 0.3982454 0.16330338 -0.079602614 -0.17896375 0.38758853 0.8695325 0.36711365
0.763109 0.16309662 -0.05419683 0.5639463 0.20192899 -0.03271095 0.021679066 -0.9177785
-0.6213858 -0.12523066 -0.83942354 0.13176446 0.63194245 -0.37847835 0.5744293 -0.6161521
0.93733364 0.3556686 -0.87746346 -0.05283931 0.061470114 -1.3440958 0.17077413 -0.09541335
-0.36200723 0.25177312 -0.27709013 -0.49066448 0.42044997 -0.06751462 0.14047062 1.0919414
-0.8719534 0.1334048 -0.38949552 -0.021244345 -0.39255008 -0.5892207 -0.17970012 0.089448005
0.41337982 -0.048510775 0.03480303 -0.20997083 -0.050544824 -0.26455492 -0.013480475 0.10792403
1.3546603 -0.08867288 0.25374907 -0.61719805 0.94357884 -0.038595047 -0.22945279 0.3452794
0.12890933 -0.50291675 -0.72921455 0.20688255 -0.42041102 -0.8843372 0.7378286 0.34037206
0.75206167 0.39937422 -0.20650786 -0.5457986 -0.9446752 0.5864993 -0.9099176 0.8552288
-0.6023325 -0.5309768 0.33103064 0.25710312 -0.4997527 0.34072694 -0.31098565 1.2058057
-0.33416373 1.1087307 0.16744459 -0.06741413 -1.0836356 -0.5513959 -0.022860443 0.66861707

critic.2.bias f4 [256]
00000000: ba28 2ebd 8209 8fbe 51fb 4cbd a1c5 9b3c
00000010: 9355 443e 8286 e63d 9b16 3b3e fe5c 3a3d
00000020: a936 afbe 4857 653d 2622 633e 581a ccbe
00000030: 224b f73e 6206 073f 876c c8be 726a 84be
00000040: 539e 063f e3e5 503d 22ae 533e 3cbd 803e
00000050: d75a e7bd 2b6a 603e 9679 cf3e 6e15 1f3f
00000060: 2c19 7f3e d3bf 35bd 46c0 7b3e f202 7b3e
00000070: d08f 96bd e8ba 3fbf d377 25be 713c b6bb
00000080: 4bb9 983b 2de7 11bf 4c8f e03d 5140 dbbe
00000090: c4d9 763b bb0a 1d3d 1f5b 1bbe 6fea 183e
000000a0: 75d1 003d c98d 81be df83 7ebe b46e 593e
000000b0: 177d 30bf d698 1ebf acd9 d7bd bac8 8abe
000000c0: 54b4 edbc 9c3c 173e b0a1 05be 57ae fa3e
000000d0: 98fc 39bf ac2e 28bf 78e9 323d 4df3 2b3e
000000e0: 37b8 77bb a69f 06bf a6b9 243f 277a ffbc
000000f0: 71d3 593f a98a 18bf 157e 6ebc 6277 cebd
00000100: 4580 d13e 1f62 a23d b321 70be a080 133d
00000110: 5073 b2be b76c 1a3d 303d dcbc a5ef 063f
00000120: 9de7 efbd 664c f0be 374f 863e b8f9 373e
00000130: fd36 a7be 61ac b03d d909 07bd 3828 723e
00000140: 1338 523e 489f 19be efc3 3d3f d6ce 64be
00000150: 2eac 053e 12f3 97bd 7790 0f3d 95b8 8cbe
00000160: a81b 31bd c229 51bf 0cd9 e73e 6a10 04bf
00000170: 4fbb 9b3e 7969 cd3e 3616 403f 6bff 9c3e
00000180: 68d4 50bd 64e0 393e e1e7 bc3e 5b97 67bd
00000190: be1e a93e 3ba5 2dbe b634 39be a506 8f3d
000001a0: a11f 0bbf ff07 8c3d 3ffb e63d 359e 64bb
000001b0: 783a a33e ea91 c8bd dfca b33e fbf6 82be
000001c0: ce3d fcbe ef46 1dbd 0ae8 2f3e cbb7 96be
000001d0: b1cb 113f a9a4 773e 8ef4 b43b 3c2c c53e
000001e0: ba1e 403f a434 14be d4c8 a53e 3517 53be
000001f0: 95ea a63e b3a3 b9be 6a4a a23e 6556 353a
00000200: 8471 613e 3e5f 703e 41ec 6c3e da5e a9be
00000210: f2cc 1dbf 82bf 993e 3631 403e e924 da3d
00000220: d50a d43e 5433 02bf e06d 4b3e e1e1 7ebd
00000230: 6561 07be b6cb 9bbe d928 163c 3f1c 4fbe
00000240: 36d9 9abe 6944 243e f2f7 343f f87d e93e
00000250: 6fe4 233f 688b 9d3e f956 8ebe 4a4d 603f
00000260: 950c e2be 72d1 a83e 72c6 e33d 307f 9cbe
00000270: 6a5c b5be 78cc 193e a50f 48be 977c 0bbf
00000280: ddbd a33d 7b13 86bd c0cf ba3e 991e c23e
00000290: 679b 1ebf 3d89 9fbc 67f4 7a3e df8d b4be
000002a0: 0841 4abd 0351 c0be 9c19 1dbf 83ef 7a3e
000002b0: ef99 163f 6827 a73e cd49 363e 4cee 5e3e
000002c0: e347 ae3e 2e7a 96be dd44 10bf 5087 c0be
000002d0: 167a d93d 3d99 e6bc 2b16 94be 0939 cdbd
000002e0: 534a 7fbe 4ec0 e3be c899 173e 344a 393d
000002f0: 0150 3d3e 118e 46be a8ae 063e 7798 4a3f
00000300: 5889 f3be cbf4 dd3d 7ed7 d03e e6d6 2a3e
00000310: 1829 8dbd b075 7e3e 2add a2be 4833 78b8
00000320: 464d af3e 209e 9bbd 3d81 eabe a270 bf3d
00000330: 9d37 fe3e 1603 693e 1154 8dbd b712 663e
00000340: bb47 20be c730 c4be 3a9a 713e 0a87 3ebc
00000350: 70a2 e23d 79c3 ab3d 1377 d1be 625a c83e
00000360: d4d2 ea3d a18a 873e 9bd1 923c ec26 853e
00000370: dfb6 fc3e 519c b23d de6c 6abd dffb fcbd
00000380: caae 0ebf 0ede f23d bacb fc3d e79b 153e
00000390: 40de 013e 84ee 00bd 0a0b b73e 4b76 d63d
000003a0: ca5e 5f3c b082 19be 4ad5 523e c66b 0d3e
000003b0: 48d5 1a3d c342 9f3d da17 6dbe 07c9 cb3e
000003c0: b9ee 91bd 02c8 683d 1d22 dabe 93e9 3ebe
000003d0: 006e 5ebd b237 c1be 3b10 54bb cd77 c0be
000003e0: 95bb 62be 8cae e23e 1536 43bd 468f ffbe
000003f0: 7099 7d3e 390e 6d3d 11ee 48bd 7c62 ce3e
-0.04251931 -0.2793694 -0.05004436 0.019015135 0.19173269 0.11256124 0.18270342 0.04549884
-0.3422139 0.05599144 0.22180995 -0.3986385 0.4829951 0.52744114 -0.391453 -0.2586246
0.52585334 0.051000487 0.20671895 0.25144374 -0.11296623 0.219155 0.4052245 0.62142074
0.24911946 -0.04437239 0.24585065 0.24512842 -0.07351649 -0.7489457 -0.1615899 -0.0055614044
0.0046607605 -0.5699337 0.10964832 -0.42822507 0.003766642 0.03834031 -0.15171479 0.1493318
0.031449754 -0.25303486 -0.24854992 0.21233636 -0.6894087 -0.6195196 -0.105395645 -0.27106267
-0.029016651 0.14769214 -0.1304996 0.48961136 -0.7265105 -0.65696216 0.043679684 0.1679203
-0.003779901 -0.52587354 0.6434578 -0.031186176 0.8508826 -0.5958658 -0.0145564275 -0.10081364
0.40918174 0.07928871 -0.23450355 0.03601134 -0.348536 0.037701335 -0.026884645 0.5270942
-0.117140986 -0.46933287 0.2623231 0.17966354 -0.3265914 0.08626629 -0.032968376 0.23648155
0.20529203 -0.15002167 0.74127096 -0.22344527 0.13053963 -0.07419409 0.03504988 -0.27484575
-0.043239266 -0.8170434 0.4528278 -0.51587546 0.30416343 0.40119532 0.7503389 0.30663618
-0.050983816 0.18152004 0.3689566 -0.05654083 0.33031267 -0.16957562 -0.18086514 0.06983689
-0.54345137 0.06837463 0.1127839 -0.0034884338 0.31880546 -0.09793456 0.35115716 -0.25579056
-0.49265903 -0.038397726 0.1717836 -0.29437098 0.56951433 0.24183907 0.0055223173 0.3851031
0.75046885 -0.14473206 0.32379782 -0.20614322 0.32600847 -0.36257705 0.31697398 0.0006917476
0.22015959 0.23473832 0.23136999 -0.33080178 -0.61640847 0.3002892 0.18768772 0.10651571
0.41414514 -0.5085957 0.19866133 -0.062227134 -0.13220747 -0.30428857 0.009165012 -0.20225619
-0.30243844 0.16041721 0.70690835 0.4560392 0.64020437 0.3077042 -0.2780073 0.87617934
-0.44150224 0.32972294 0.11121835 -0.30565786 -0.3542207 0.15019405 -0.19537218 -0.54486984
0.07995198 -0.06546684 0.36486626 0.3791397 -0.61955875 -0.01947462 0.24507295 -0.3526449
-0.049378425 -0.37561807 -0.613672 0.24505429 0.58828634 0.32647252 0.1780159 0.2177059
0.3403922 -0.2939009 -0.5635508 -0.37603235 0.10618989 -0.028149242 -0.28923163 -0.10020644
-0.24930696 -0.44482654 0.14804757 0.04523678 0.1848755 -0.19390132 0.13152564 0.7913889
-0.47565722 0.10837706 0.40789407 0.1668354 -0.06892604 0.24849582 -0.3180936 -5.9175567e-05
0.34238642 -0.07598519 -0.45801726 0.09347655 0.49651805 0.22755083 -0.069008 0.22468077
-0.15652363 -0.38318464 0.23593989 -0.0116288755 0.11066139 0.08386893 -0.4091116 0.39131457
0.114659935 0.26472953 0.017922213 0.26006258 0.4935827 0.08721221 -0.05723273 -0.12352728
-0.55735457 0.1185876 0.12343545 0.14610253 0.12682438 -0.031477466 0.3575061 0.10471781
0.013633439 -0.1499126 0.20589176 0.13810644 0.037801057 0.07776406 -0.2315363 0.3980181
-0.07125611 0.056831367 -0.4260415 -0.18643789 -0.054304123 -0.37737805 -0.0032358307 -0.375914
-0.2214187 0.44273794 -0.047659 -0.49913996 0.24765563 0.057874892 -0.049055163 0.40309513

critic.4.weight f4 [1, 256]
00000000: e595 12c0 535c 5bbf bd17 08c0 aedc d73e
00000010: 3e0e 87bf f5a3 d7be b868 8fbf 1130 89bf
00000020: 7c4f 19bf 141c a73f 992b 21bf 7374 99bf
00000030: afff 62bf 0865 0fbf 0d49 0a40 bfe3 83bf
00000040: 3558 a53f 8ef1 2fbf cbf3 263f af99 67bf
00000050: 4f00 1f40 fa2e f73f add5 753f 4b9a 3cbf
00000060: c0b8 2140 bb6f 523f e4da 44bf c6a5 df3f
00000070: 3b3c 983e 0716 e4bf aae9 c13e 9ff1 ffbe
00000080: fadd 553f 7328 10c0 fc4b 69bf cdd2 3f3f
00000090: 3be9 3ec0 dc56 323f 6da5 9f3f 3456 1b3f
000000a0: 4a9e 1cc0 5d7d 57bf f246 2940 2b89 e3be
000000b0: c978 943d 391b 383f 6746 85c0 84b3 6f40
000000c0: d318 6d3f eb9e 77bf 17a5 25bf 4259 3240
000000d0: 0c62 fdbf 972c 83bf 431e 22c0 3620 ccbe
000000e0: 338a 4fbf bb06 dd3e eb2d ce3f efee 7bbf
000000f0: df10 533e 0502 12bf c71e 3dbf 32b9 803f
00000100: 46f3 a23e 1a0b 053f f576 90be e1e1 dabe
00000110: ff73 7abf 8c21 b3bf fda4 0d40 dc1b 3b3f
00000120: af5e ebbf a1e7 f43f 1776 3740 bb6e e3bf
00000130: 8c48 95bf 3c01 11bf 1205 da3f 7890 323f
00000140: 7f4b 56bf dc94 9abf 879e 553f 38dc e4bf
00000150: 2aed c0bf b586 34bf dd99 8d3f c781 20bf
00000160: 9cce 19c0 6a9b afbf e906 893f 9b86 2cbf
00000170: cf87 683f a86c be3f 63a1 4d40 8829 ef3f
00000180: 7bb3 abbf 3771 6e3f 0852 98bf 41c6 86c0
00000190: 09bd 5fbf 41eb 36c0 6804 4fbf 66d6 5fbf
000001a0: aaab 24c0 729c 2440 d352 873f 426a 4140
000001b0: 4f2e c73f 43e6 7fbf 8d3e c7bf 9a04 65bf
000001c0: eadd d4bf 3889 d5bf f052 64be f514 08c0
000001d0: 7427 853f 5d5f 12c0 b433 c3bf 0e13 9abf
000001e0: f582 2740 4f2b 0640 3f3b 943f 20fe eabf
000001f0: d3ca 52c0 b3df bdbf 1d0a 2c40 b6ec 5b40
00000200: ce5e 3a40 64c0 d83f acf3 853f 3146 f3bf
00000210: 28f1 683f f23e 10be 90f0 0240 e47a 49bf
00000220: e8f0 26c0 e6da 933f 7df7 9fbf 0d67 973f
00000230: 600a b73f 8074 dfbf ebc9 e23f 0ed8 5d3f
00000240: 2aaa eabe ac1a 6440 6954 0b40 87e7 0540
00000250: 9cc5 bc3f 8aba 903f 973f b1bf 1a0a ea3f
00000260: 805d c4bf 2e18 0a40 d1c8 ddbe e934 ebbe
00000270: 129b 06c0 2fb3 9c3f f2ec 0e3f 525c 5fbe
00000280: 74b5 dc3e a1a1 f03f 7bb8 6fc0 59af 48c0
00000290: 0cfa 9abf e165 753f 8d5d 853f f0dd 1abf
000002a0: 308b 483f 9524 65bf e60d bb3e 31fe 1fc0
000002b0: 4c93 803f 3617 03c0 95b9 12bf a66d 8bbf
000002c0: 0a06 30be 8fdb 2f3f 63bc bbbf b9f0 75bf
000002d0: 1cce 1fbf 4a83 be3f b798 ef3f 7664 cc3f
000002e0: 234d e13f d404 37c0 d299 5340 5fb6 2140
000002f0: 1201 e53e 25aa 36c0 8e0e c8bf 0aab 0640
00000300: 2a07 a3bf 13cf 1bbf 4cad 803f e2f9 5b3f
00000310: af1b 0940 5226 2440 8805 18c0 e113 e03e
00000320: 26fc 6ac0 b9c9 82bf 679d f6bf 77df bbbc
00000330: 42b3 0740 41b9 f7bf 4951 62bf 25f1 4940
00000340: ad33 d7be ebcb 9e3e bc27 0fbf 3738 36c0
00000350: 6746 aa3e 85a9 b2bf 60f3 a2bf 0a1f 90bf
00000360: f16e 6640 dbb9 d0be ad04 5b40 b8f4 25bf
00000370: 078b 1440 d3d3 37c0 c11e 393f e05b 0bc0
00000380: c875 77bf 64b5 0dc0 af44 cdbf ce97 233f
00000390: 2c19 94bf 021a 3fbf bc16 d23f 74e7 d93f
000003a0: 5017 01c0 47a7 64bf 6d5a d23f 5b9a 60bf
000003b0: 38b3 1c40 8891 8bbf 8a39 cabf b9bf 64bf
000003c0: 78c9 8dbf 06cb 5a3f 5507 4fc0 acf3 2640
000003d0: cc37 db3f 2c67 12c0 fe92 2fc0 3037 26c0
000003e0: 1b01 c4bf 7b6e 6cbf 9e2e 3540 594b 7fbf
000003f0: c73c 363f 14e0 833f d92e cb3f 433c c53f
-2.2903988 -0.8568775 -2.1264489 0.42160553 -1.0551221 -0.42117277 -1.1203833 -1.0717794
-0.5988691 1.3055444 -0.6295715 -1.1988662 -0.8867139 -0.56013536 2.1607087 -1.0303878
1.2917544 -0.6872796 0.6521575 -0.9046888 2.4843938 1.9311211 0.9602917 -0.7367293
2.5269012 0.8220174 -0.768965 1.7472465 0.29733452 -1.7819222 0.37873584 -0.4998903
0.83541834 -2.2524688 -0.9113157 0.7493103 -2.9829853 0.69663787 1.2472359 0.6067841
-2.4471612 -0.84175664 2.6449552 -0.44440588 0.072496004 0.7191654 -4.164844 3.7453318
0.92616004 -0.96726865 -0.6470503 2.7866979 -1.9795547 -1.0247983 -2.533097 -0.39868325
-0.8107025 0.43169197 1.6107763 -0.9841146 0.20611905 -0.5703433 -0.7387509 1.0056517
0.31826228 0.51970065 -0.28215757 -0.42750457 -0.97833246 -1.3994613 2.213195 0.73089385
-1.838827 1.9133188 2.8665826 -1.7768167 -1.1662765 -0.5664251 1.7032797 0.6975169
-0.8370895 -1.2076678 0.8344502 -1.7879705 -1.5072377 -0.70518047 1.106258 -0.62698025
-2.4032354 -1.3719304 1.0705234 -0.6739289 0.9083223 1.4876909 3.2129753 1.8684549
-1.3414148 0.931415 -1.1900034 -4.211701 -0.8739782 -2.8581088 -0.808661 -0.8743652
-2.5729775 2.5720487 1.0572151 3.0221105 1.5561007 -0.99960726 -1.5565964 -0.89460146
-1.6630223 -1.6682501 -0.22297263 -2.126279 1.0402665 -2.2870705 -1.5250154 -1.2037065
2.617368 2.0963933 1.158058 -1.8358803 -3.2936294 -1.4833893 2.6881173 3.4363227
2.9120364 1.6933713 1.0464988 -1.9005796 0.90992975 -0.14086512 2.0459328 -0.7870314
-2.6084538 1.1551178 -1.2497402 1.1828324 1.4300041 -1.7457428 1.771787 0.866578
-0.4583295 3.564128 2.177027 2.0922563 1.4747806 1.1306927 -1.3847531 1.8284333
-1.5341034 2.1577258 -0.43317273 -0.45938805 -2.1032147 1.2242182 0.558303 -0.21812561
0.43107188 1.8799325 -3.7456348 -3.1357024 -1.2107558 0.9585858 1.0419174 -0.604949
0.78337383 -0.89508945 0.3653404 -2.4998896 1.0044951 -2.0482917 -0.57314426 -1.0892837
-0.17189804 0.68694395 -1.4666866 -0.9607044 -0.6242387 1.4883816 1.871848 1.5968158
1.7601665 -2.8596697 3.3062634 2.526756 0.4472738 -2.8541348 -1.5629442 2.1041894
-1.2736561 -0.60862845 1.0052886 0.85928166 2.1423147 2.564839 -2.3753376 0.43765166
-3.67164 -1.0217811 -1.9266785 -0.022933705 2.120316 -1.935341 -0.8840528 3.1553433
-0.42031613 0.31014952 -0.55920005 -2.847181 0.33256838 -1.3957983 -1.2730522 -1.1259472
3.6005213 -0.40766796 3.4221604 -0.64826536 2.3209856 -2.8723037 0.7231255 -2.1774826
-0.96664095 -2.2141962 -1.6036586 0.6390351 -1.1570182 -0.7464906 1.6413188 1.7023759
-2.017048 -0.89317745 1.6433846 -0.8773553 2.4484386 -1.0903788 -1.579881 -0.89355046
-1.1077108 0.8546604 -3.2348225 2.6086226 1.7126403 -2.287547 -2.7433467 -2.5971184
-1.5312837 -0.9235608 2.8309703 -0.99724346 0.7118649 1.0302758 1.5873672 1.5409015

actor.0.weight f4 [256, 42]
00000000: 62dc 89be a799 a3bc 7428 1dbf 85db 9f3f
00000010: a466 ff3e 048b 5cc0 4684 87bf 3780 59be
00000020: a5d8 4b3f a95b 98bb 5f6e 3c40 2f37 8b3f
00000030: 3298 d83c 1133 5a3e b138 88bd 6246 8f3f
00000040: 468e 2d3f 3dce 223e 8d97 c3bd d911 0e3e
00000050: eff9 4fc0 ac28 d9bf 4df3 6e3e 4715 8d3f
00000060: 025c 55bf 3f3e 33bf f008 2abf 3728 7f3e
00000070: c8a9 84be 39a3 9d3f 00f1 723f d4a3 e03f
00000080: 9e19 04be 6f0f afbd a0a7 46bd 701c 88bc
00000090: b91d da3d fed1 4e3e 73e0 2fbf c6e6 06bf
000000a0: c725 aebf 6a5b dd3f c5be 343d 5fa1 093f
000000b0: a414 a03e 0295 b2bf 5469 103f d2c8 60bc
000000c0: b193 a9be a305 153d 6e6d 65bf 1303 67be
000000d0: fab6 2740 fbd4 303f 0a53 b53c ec67 ffbd
000000e0: cd42 213f da92 a33e 488b a23e 2689 8bbd
000000f0: 063e 4e3e 4a49 c33e 0168 d9be 91aa 99bf
00000100: a1d9 273e 0037 95bf c24a 1bbf f587 833c
00000110: 0e35 2abf 0523 743e 8c48 07be 8303 3cbf
00000120: f94d 4fbf 941c 7ebf 46c7 e63d 4b35 07be
00000130: 63ea 25bd e352 123e fc57 6d3e 5794 8dbd
00000140: 1a6e e53f 6c2a c73e 0b9e b7be dbbc b33e
00000150: 140f 25bf 9258 ffbf fe03 243f 4023 f93e
00000160: 600e 78be 0e3f e53e 9d78 a63e b86e b73d
00000170: ecbc 4c3f 4429 19bf 010a 983c 67f2 ba3e
00000180: a113 953e 6fc8 f03d 5a00 ed3e 157c 083f
00000190: b7bd 003f 0c53 1b3e 98fe 7cbe 4b5c 7abf
000001a0: 8fd3 f1bf c010 fdbf e5bf c6bd c92f 0f3e
000001b0: ad2d 55bf 1ba2 663f 895b 5e40 c67f 4dbf
000001c0: 7283 1dbd 1811 493f 5a32 a93d 9f52 a33d
000001d0: e686 acbd 1992 473f e221 49bf fe45 17be
000001e0: 4616 8b3d 029e f53c 33b4 cf3d 5e26 813e
000001f0: 6fcb 90bd 0abd b6be f794 1bbf 1e8f 0bc0
00000200: 10a0 cf3e b296 723e bffa aebf 2f21 84bf
00000210: 4d09 a6bd 48c9 8f3e afe4 023f d449 a5be
00000220: 77a6 d6bf 6e7e 4fbf 567e b93d 76aa 723d
00000230: 5c75 ac3d f0af a5bb 2dc2 66bd 0b86 c03d
00000240: 85eb 8abe 6753 5ebe 72b7 973f 7321 6c3f
00000250: ad1d f6bd 7f5a dc3e e237 23bf 556d db3e
00000260: 0e67 a63f fe28 29bf f5fd 823d 5d1f 3440
00000270: 3dbd 7cbc 807b 003f ce9f 85bd f2a2 1a3f
00000280: 4687 1f3c 522a a5bd dcf2 e8bd 0cc5 ca3d
00000290: 34ef 19bf 3ee2 3a3e 5242 cd3e fdaf 47bc
000002a0: 099d 67bf 2010 80be e797 d4be 0caa b9be
000002b0: 97bd 57bd 649d 37bf 134e 2c3e 3fab 1dbf
000002c0: 410a 80be 1169 7d3e 520b 473f 21c5 6a3f
000002d0: 2205 28bf 82a9 fbbe b18a 87be 9a8f 5dbf
000002e0: 497c df3e 6d44 0fbf 792e 29bf f452 93be
000002f0: 37bc 13be 83a0 9a3f e074 f5be 0dcc 72be
00000300: 70a2 343e 3d5f cbbe 807e 313e 9c01 43bf
00000310: b3c2 d93e 7889 0ebf 942f debe a4be 833f
00000320: 4fa0 4bbf 5bf7 2f3f 0919 e83d 7ba7 f5bd
00000330: 2025 19bf 9a98 1abf fc18 20be 9804 16bf
00000340: 3179 743e 737f 1d3f f4d5 40bf 75b2 6dbf
00000350: 89f1 7e3e 930e ad3e 8de8 dc3d f85e b43e
00000360: fee9 013f 932d 433d 57ae 103e f469 44be
00000370: deac 9c3d abe5 a33e ef3f d0bd b6b2 66be
00000380: 6118 793e e091 7b3f 9b81 563f 2c87 d43d
00000390: 8827 b0be 92a7 2a3e 4f13 1dbf 1a3c 18bf
000003a0: 204a 0fbe 2f27 a73e 203d e53e bb0c 96be
000003b0: acfb 243e 9e1b 9fbe 237a 183c dd97 51bf
000003c0: 4021 b7bd b456 8f3f f5ca 88be 6f89 ab3e
000003d0: a0e7 8dbe 0069 e2bd a501 69be f304 e2bd
000003e0: 4eb9 c33e 7afa 1cbf cef6 d63f b904 3f3f
000003f0: 4d2e 8ebe 54a9 c7bf fd48 4d3e b6a7 3c3f
-0.2692595 -0.019970728 -0.6138985 1.2488867 0.49882996 -3.4459848 -1.0587242 -0.21240316
0.7962745 -0.0046495986 2.9442365 1.0876216 0.02643976 0.21308543 -0.06651438 1.1193354
0.6779522 0.15898986 -0.095503904 0.13873996 -3.2496297 -1.6965537 0.23335 1.1022118
-0.8334352 -0.70016855 -0.6641989 0.24917684 -0.25910783 1.2315437 0.94898987 1.7549996
-0.12900397 -0.085478656 -0.048499703 -0.016615123 0.106502004 0.20197293 -0.6870186 -0.5269588
-1.3605279 1.7293522 0.044127245 0.5376186 0.31265748 -1.3951724 0.5641072 -0.013719754
-0.33120492 0.03638233 -0.896201 -0.22559766 2.620543 0.6907498 0.022134323 -0.124709934
0.62992555 0.31947976 0.31746888 -0.06813268 0.20140848 0.38141853 -0.4246216 -1.2005178
0.16391613 -1.165741 -0.60660946 0.01605604 -0.66487205 0.23841484 -0.13211268 -0.7344286
-0.8097835 -0.99262357 0.11268477 -0.13203923 -0.04050673 0.14289431 0.23178095 -0.06913059
1.7924225 0.38899553 -0.35862765 0.35105023 -0.6447613 -1.9948905 0.6406859 0.48659706
-0.24224234 0.4477467 0.32513896 0.08956665 0.7997577 -0.5982859 0.018559458 0.36513063
0.29116538 0.1175698 0.4628933 0.53314334 0.5028948 0.15168399 -0.24706495 -0.9779708
-1.8892688 -1.9770737 -0.0970457 0.13983072 -0.8327282 0.90091103 3.4743369 -0.8027309
-0.038455434 0.7854171 0.08261557 0.07974743 -0.08424167 0.779573 -0.78567326 -0.14772794
0.06791358 0.02998257 0.10141792 0.25224584 -0.07070052 -0.356911 -0.6077418 -2.1806102
0.40551805 0.23690298 -1.3670272 -1.0322627 -0.08107243 0.28083253 0.51130193 -0.3228289
-1.6769551 -0.8105229 0.090573 0.059244595 0.08420822 -0.005056374 -0.056337524 0.09400567
-0.27132812 -0.21711503 1.1852858 0.9223854 -0.12017379 0.43037793 -0.63757145 0.4285685
1.30002 -0.66078174 0.06396095 2.8144143 -0.015425977 0.50188446 -0.06524621 0.60404885
0.009736842 -0.080647126 -0.11374447 0.09900865 -0.6013062 0.18250367 0.4008966 -0.012187955
-0.9047399 -0.25012302 -0.41522142 -0.36262548 -0.05267104 -0.71724534 0.16826658 -0.61589426
-0.25007823 0.24747111 0.7775165 0.91707045 -0.6563283 -0.49152762 -0.26473 -0.86547244
0.4364951 -0.55963784 -0.66086537 -0.28774226 -0.14427267 1.2080234 -0.4794073 -0.23710652
0.1764009 -0.397211 0.17333412 -0.7617433 0.42531356 -0.5567851 -0.43395674 1.0292554
-0.79541487 0.6873681 0.113329 -0.11994835 -0.59822273 -0.603891 -0.15634531 -0.5860076
0.23874356 0.615226 -0.75326467 -0.9285043 0.24896826 0.33800182 0.10786543 0.35228705
0.5074767 0.047650885 0.14129005 -0.19181043 0.07650159 0.3201116 -0.10168444 -0.2252911
0.24325706 0.9826946 0.8379151 0.103773445 -0.3440516 0.16665486 -0.6135759 -0.5946671
-0.1399312 0.32647082 0.44773197 -0.29306588 0.1611163 -0.31075758 0.009306463 -0.8187235
-0.08941889 1.1198335 -0.26717344 0.3350329 -0.27715778 -0.110551834 -0.22754534 -0.110361
0.38227314 -0.61319697 1.6794069 0.7461658 -0.277697 -1.559855 0.20047374 0.73693407

actor.0.bias f4 [256]
00000000: 1208 93bd e630 123d 944a f63c 46e5 afbd
00000010: dca8 44bf 9486 1ebe 64cf 8dbd 76ed 06bd
00000020: 894b 54be 50c5 8c3e fa56 ae3d d4e3 7abe
00000030: 436d 063f bc75 533d ecd0 c23e 1bdf 053e
00000040: 33b2 99bd ef6c 4e3e 4942 743d de5b aebe
00000050: 87e7 be3e 281f 553e fb11 c23c 1640 1cbe
00000060: b4d2 dd3d 4f8f 6abe 854b 08bd 81a9 a73e
00000070: af96 f83c d878 f73c 8124 75be e848 363b
00000080: f494 a43d 6bb0 00bf d84e 9d3d 2e21 803e
00000090: 0563 3a3e 9a2e 013e eb77 8dbc cc44 f43e
000000a0: 3778 c93c ec33 653b 6d41 64be 7d7f 313d
000000b0: 9f49 b5bc 7a79 e6bc a3b0 1a3d db84 6a3e
000000c0: 1076 39bd 57a3 f3be 5cc7 00bf e607 a33c
000000d0: 50cf f0be a78e bbbd 9b61 d03d 5746 553e
000000e0: e816 4abe fe9d d53e 3a14 8f3c 5cc8 cb3c
000000f0: 7daf 803e e32f bfbc 55d4 103e 7f73 e13b
00000100: f76a 62bd b262 2e3e 56e7 29bb d98b 40bd
00000110: 09a0 e43b 0594 f43c f630 043f bd30 d3bc
00000120: f4fa cabe c218 bbbd fb87 f3be 4d32 85be
00000130: e327 74be 7f8d 1ebd 9682 a0bc 3950 a83d
00000140: 290a 183d 0ce4 36be ecd0 323e 4434 693e
00000150: ff37 033e 4dec eabd 0c70 60be 0345 21be
00000160: b91b a73e e10c 7cbd 1e16 5e3e 4ae0 ccbe
00000170: f22e 2fbe 7951 4ebb 94de 75bd 5df1 5ebd
00000180: fdc2 553e 79d3 1c3e 4d6e b6bd 8be4 f13e
00000190: 7c70 b13e bd8a cd3d 60b3 28be ecf7 153e
000001a0: 9985 00be ff1b e8bd 97bf 883c 35e9 1cbe
000001b0: 4a4b eabe aa20 abbd e0a1 70be 2d76 0dbe
000001c0: bc08 c5bd 2de1 6c3e 9cb4 f9be 1cff 063e
000001d0: c993 0a3e e055 fcbc b772 2bbe d01d b93d
000001e0: dbc0 683e b5b8 9d3e 7c39 123e f420 47bf
000001f0: e454 e23d 75e8 d5bc a195 1b3e e808 7ebe
00000200: 5a8b 333e 239d 9fbb 042e 4a3e 31ce a9ba
00000210: 31bb 62be 42e5 143e e80e 4f3e f7c7 9e3d
00000220: a2e8 a9bd a1a8 fe3d 7104 19be 3de2 343e
00000230: 8114 70be db01 97be 0c76 81be d847 d73d
00000240: 670e 38bd e6be f53c 7eba 02be 456f 97bd
00000250: 9e83 1f3c ca11 883e 411c 6cbd e6b0 013d
00000260: e29a c93d 0e4c 90be 2ecf 093e b736 a13d
00000270: fefa 2c3e 4566 7cbd 14bd c83d 63d1 423d
00000280: d28b f4bd 6429 7a3c f4e4 b43a 5bc9 cabc
00000290: bca5 5b3d dfb4 5abd 643c 393b 5c6e 713e
000002a0: 7059 2f3e e4c9 f4bd 2421 173e de63 a0bd
000002b0: d694 debd f577 53be f6f4 dc3d 8036 c1be
000002c0: 50c5 d53d d675 8abc 5c77 07be 416e c83d
000002d0: e4e8 a0bd 1e47 013d 91e5 32be c0a7 0f3f
000002e0: f7d9 fc3d e109 3f3e 9ab8 05be 8295 4ebe
000002f0: e654 383d 8f5f f9bd 7a3d 1abe f82d 4cbe
00000300: 9c39 aebe 81cd 91bd f2a2 a43d 329a 26bd
00000310: 91ca 0dbd 31c5 e6bc 8705 e2bc 5432 b53e
00000320: 4a6f 8abd b303 39be 5b69 653e c89c 863e
00000330: f1e4 66bd f016 4d3e ffa1 373e 80fb cc3d
00000340: 18f6 6bbc 9d8c f83c d7c6 9f3d 53fa 9a3d
00000350: 318b 1e3e f36b 39be 8d86 febd 511a e73e
00000360: 57db bc3d 10fc 21bd 5c09 14be 6127 0d3e
00000370: af35 cab8 bb72 cd3d adfc b0bb 022e 0ebe
00000380: 4566 403d 8759 ecbd 8921 c8bd c85c d1bd
00000390: 22cd 30be 2764 203d 437d 033d 79d3 1dbe
000003a0: dea1 8bbd 6dfd 42bd 21ce 043d a825 4abd
000003b0: d2cc 96bd a753 11bf c40e a63d b5bc 94be
000003c0: 28e3 abbe 1efd 9dbd d02b da3e b116 29be
000003d0: 99bc d83d 8685 e83c 2a7c 9b3e 0d47 023d
000003e0: b039 9b3d 60c3 a33e 48d6 e2bd 2724 32bd
000003f0: 3285 873e 46e8 e83e e2e5 40bd e61e 01bf
-0.07179274 0.035691164 0.030064858 -0.08588652 -0.7682016 -0.15481025 -0.06924322 -0.032941304
-0.2073194 0.27494287 0.08512683 -0.24500972 0.5251047 0.051625952 0.3805002 0.13073389
-0.07504692 0.20158742 0.059633527 -0.34054464 0.37286016 0.20812666 0.023690214 -0.15258822
0.10831204 -0.2290623 -0.033275146 0.3274651 0.030345289 0.03020899 -0.23939706 0.0027814452
0.08036223 -0.5026919 0.07681054 0.25025314 0.18201835 0.12615433 -0.017269095 0.47708738
0.024593456 0.0034973575 -0.22290583 0.043334473 -0.022129832 -0.028134096 0.03776611 0.22902243
-0.04527861 -0.47585556 -0.503042 0.019901227 -0.47033167 -0.09158068 0.10174867 0.20827614
-0.197353 0.417221 0.0174657 0.024875812 0.25133887 -0.023338264 0.14143498 0.0068802233
-0.05527779 0.17029837 -0.002592524 -0.04700837 0.0069770855 0.029855737 0.5163721 -0.025780076
-0.39644587 -0.091355816 -0.47564682 -0.2601494 -0.2384334 -0.03870916 -0.019593518 0.08218426
0.037119064 -0.1786043 0.1746251 0.22773844 0.1281433 -0.11470852 -0.21917742 -0.15748982
0.32638338 -0.06153572 0.21688125 -0.4001487 -0.17107752 -0.0031481667 -0.06002672 -0.0544294
0.20875163 0.15315045 -0.08907757 0.47244677 0.3465613 0.10036228 -0.16474676 0.14645356
-0.12550963 -0.11333465 0.01669292 -0.15323336 -0.45760566 -0.083558396 -0.2349925 -0.13814612
-0.096208066 0.23132773 -0.48770607 0.13183254 0.13532938 -0.030802667 -0.16742979 0.090388894
0.22729819 0.30804983 0.14279741 -0.7778466 0.11051348 -0.02611182 0.15193798 -0.24808085
0.17533627 -0.004871027 0.19744116 -0.0012955127 -0.2214172 0.1454058 0.2022053 0.07752984
-0.08296324 0.12434507 -0.149431 0.17664428 -0.23445322 -0.29493603 -0.25285375 0.1051175
-0.04493561 0.029998254 -0.12766454 -0.0739427 0.00973597 0.26576072 -0.057644133 0.031662844
0.09843995 -0.28183025 0.13457939 0.07871764 0.16892621 -0.06162097 0.09801689 0.047562968
-0.11940731 0.015268657 0.0013801144 -0.024754217 0.053624853 -0.05339515 0.0028264755 0.23577255
0.17123961 -0.1195257 0.14758736 -0.07831548 -0.10868232 -0.20651229 0.1078891 -0.37736893
0.10438025 -0.016901892 -0.13229126 0.09786654 -0.0785692 0.031561963 -0.17470385 0.5611534
0.12346261 0.18656112 -0.13058701 -0.2017422 0.04500284 -0.121764295 -0.15062514 -0.1993941
-0.34028327 -0.07119275 0.08038892 -0.040674396 -0.03461701 -0.0281702 -0.027590526 0.3538996
-0.06759508 -0.18067817 0.22403471 0.2629149 -0.05637068 0.20028281 0.1793289 0.10008907
-0.014401935 0.030340487 0.078015976 0.07567277 0.15482785 -0.18107586 -0.12428007 0.45137265
0.09221523 -0.039547026 -0.14456695 0.13784553 -9.64211e-05 0.10031649 -0.005401215 -0.13884738
0.04697253 -0.115405135 -0.09772021 -0.10222775 -0.17265752 0.039158013 0.03210188 -0.15412702
-0.06817983 -0.047604967 0.032423142 -0.049352318 -0.07363285 -0.5676827 0.08108285 -0.29050222
-0.33571744 -0.07714294 0.4261155 -0.16512562 0.10582847 0.028383981 0.30368167 0.03180604
0.075793624 0.31984997 -0.11076027 -0.04349151 0.26468807 0.4548971 -0.047094233 -0.5043777

actor.2.weight f4 [256, 256]
00000000: 269a 8d3d 69f3 0d3f 2577 033e c91c 68bf
00000010: f0e7 ca3e 0bc5 78be dac5 943f 3d4f b53f
00000020: 5e2a 31bf e5f9 8abe ad72 e03e 17d5 b3be
00000030: 70ce d63d ced6 42bf 9b1f 50bd 5164 8abd
00000040: 8068 0a3f ccfa d93e 4b6a f73e 9629 4c3d
00000050: eb44 02be d770 d93d f8f0 603f d26b 7b3e
00000060: fd5d 573e 1cc3 963e 2a98 f4bd fb3d 633e
00000070: f181 ccbd d62f 5e3e 1179 0abf 679a e0be
00000080: 3d9a efbe 3c02 f8be 4d04 31bf 72c3 b2bf
00000090: 1937 adbf 555d 193f aa9d 0cbd bc38 dd3e
000000a0: 57ea 05be 3d13 603d e37c 693d 0651 0ebf
000000b0: 631b 66be 0a77 363e b3c3 95bf f69f 2e3f
000000c0: 4cde 2abe 58c6 013e cdff 9c3d d183 d0bd
000000d0: 2de4 e03b 060a 783f b1a3 a63e a470 4b3f
000000e0: b80a 973e a984 5d3e b87f eabe adfa 5e3e
000000f0: ff4b d2be 64e3 8e3d c22b 1c3e 9f8c fdbe
00000100: 710d 643f 38ba 433d 5ff1 dcbe 5169 e33e
00000110: 5f36 75be 4c90 0ebf 7839 ddbe 81a1 8abd
00000120: 1e26 87be 8953 4ebd d980 ac3e fe56 583f
00000130: 665d 71be 90d0 99bd 06a9 c03d 0ad8 27bf
00000140: 63d7 123f ef9a 00bf 9e39 d4bd 2027 41bf
00000150: 9df9 b5be a60f 9b3d 6b2b 6dbf 5b0c d23e
00000160: 967e 933e b5a3 a73e 4e11 dcbd 3d8f 86bf
00000170: 388a 83bd 841f 4b3f 25a5 593e 40fb 6fbe
00000180: ef36 253f b506 77be edb1 123f f425 82bd
00000190: eb2e 553e a9e1 0fbf d359 f03e d234 e6be
000001a0: dde1 413f bde4 f6bc 960a a2bf 23d8 f43d
000001b0: 1ba1 a33e 3771 663e 9ab1 943f 920c ebbc
000001c0: 9a5c a03e 0667 683f af1b d53e ad12 de3e
000001d0: b4f0 9cbd 3cc5 64bf b7ec 92be ca22 41be
000001e0: 3254 af3e ba50 80bf c194 863e 23e7 883e
000001f0: d36f f13d ec8b 67be 21aa 1dbc 8a4f 4d3e
00000200: 7a5a 6dbf 8bf5 3f3d cdba e33e b68b 473f
00000210: b799 ffbe 61a9 d4bd 19b7 a9bf 28cf 623e
00000220: 10af 423f 8991 bdbd 733b 95bd a8dc 16bd
00000230: 7858 05bf 1d2b 61be f2f5 8fbc 918c 1d3f
00000240: 6171 373e 1660 99be d423 e83e bae3 a83f
00000250: 67d4 da3d 1b4f 9a3e bb02 1dbf 4861 953e
00000260: bb63 193f c4cd 4c3f 62e7 893f b861 adbe
00000270: fec2 213f c253 c3bf 5927 87be e641 353e
00000280: 1b7a 02be 19f9 3f3f 4bf6 29bd cec9 4bbf
00000290: 225e b9bd 1794 813e e1f2 99be 9f41 a63e
000002a0: e2a8 bebf c8a2 2dbf 2205 7f3e 6984 04bf
000002b0: cc57 893d 0af5 b3be a4b7 063f 0e85 a43f
000002c0: 93e9 d73e b66b 443e c0c7 ccbe e5a0 87bd
000002d0: 417f 81bd f7e3 f93e 7e75 68be dd26 ab3e
000002e0: c0be 0fbf 7541 c9be 9b7c 36be d6fe 0c3f
000002f0: c547 35bf 7e94 2ebf 00ad 56be 4dbd 67be
00000300: aff7 6abe d30d 12bf 3baa 433e 8fd6 23bf
00000310: 5774 f5be a10d 583e 9e2e 06bd 58ee acbc
00000320: 4abc 4fbf a6fa 4d3e 4310 b8be 7c1a ac3e
00000330: 8226 153f 41bf 82bf 0d59 153f 10ae 133e
00000340: 0463 9bbe dc5d 4c3e 6eac b3bf 18fe 0a3f
00000350: ed17 a43f b4f9 45bd f7ef 8f3e 8ade 06be
00000360: 0c8a 04bf 1d67 103f ff57 75be fdbb c13f
00000370: 3721 86bf 9b39 f23e 35f0 4abe c9eb 2e3f
00000380: f4aa f3be f540 993d 942a bcbe 1042 36bf
00000390: 3844 a03e 6ae6 b0be 9b1d b43e 5f0e 773e
000003a0: e84f 98bf 8d7a f2bd a3a6 c33e f4b1 8e3e
000003b0: 173c 853e 3fc3 4b3e 3fe7 b23d 082d 6f3a
000003c0: 12cc fcbe e5f4 7d3d 5e54 18be 17e4 e5be
000003d0: 5153 883f 6ea0 3e3e 7391 8abe e7d3 eabe
000003e0: 32b0 733f 2ba4 82bf 3683 ad3e b996 fd3e
000003f0: 79be 27bf 5dde 2a3e 46d7 9a3f 1dbb 553f
0.06914167 0.5544954 0.12838419 -0.9066892 0.3963008 -0.24293916 1.162288 1.4164807
-0.6920527 -0.2714378 0.4383749 -0.35123512 0.104885936 -0.76109016 -0.05081139 -0.06757415
0.54065704 0.42574155 0.48323283 0.049844347 -0.12721603 0.106172256 0.8786769 0.24552849
0.21031947 0.29445732 -0.119430855 0.22191612 -0.09985722 0.21697935 -0.5409098 -0.438678
-0.46797362 -0.48439205 -0.6914719 -1.3965895 -1.353244 0.5990804 -0.034330048 0.43207347
-0.13077675 0.054705847 0.057003867 -0.5559238 -0.22471385 0.17818847 -1.1700348 0.6821283
-0.16686362 0.12673318 0.076659776 -0.10181392 0.006863138 0.96890295 0.32546762 0.7946875
0.29500365 0.21632637 -0.45800567 0.21775313 -0.41073605 0.06976965 0.15251067 -0.49521348
0.8908301 0.047785014 -0.43152902 0.44416288 -0.23946522 -0.5568893 -0.43207908 -0.06769086
-0.2639627 -0.050372634 0.33692053 0.8450774 -0.23570785 -0.07510483 0.09407239 -0.65564024
0.57359904 -0.5023641 -0.10362552 -0.75450325 -0.35542002 0.07571344 -0.92644376 0.4102505
0.28807515 0.32742086 -0.10745488 -1.0512463 -0.064228475 0.79344964 0.21254404 -0.23435688
0.64536947 -0.24123652 0.57302743 -0.06354895 0.20818679 -0.56203705 0.4694353 -0.44962174
0.75735265 -0.030138368 -1.265948 0.11955287 0.3195885 0.22504126 1.16167 -0.028692517
0.3132065 0.907822 0.41622683 0.43373623 -0.07663098 -0.89363456 -0.28696224 -0.18860927
0.34243923 -1.0024636 0.26285365 0.26738843 0.11788907 -0.2261197 -0.009623081 0.20049873
-0.9271618 0.046865027 0.44478455 0.77947557 -0.49921963 -0.10383869 -1.3259002 0.22149336
0.76048374 -0.09256274 -0.0728673 -0.036831528 -0.5208812 -0.21989103 -0.01757333 0.6154261
0.17914344 -0.2995612 0.45339835 1.3194497 0.10685044 0.30138478 -0.6133229 0.29175782
0.599178 0.80001473 1.0773737 -0.33863616 0.6318816 -1.5259936 -0.26397207 0.1770092
-0.12741892 0.7498947 -0.04149465 -0.79604805 -0.090511575 0.25308296 -0.30068114 0.3247194
-1.4895289 -0.6782651 0.24904302 -0.5176454 0.06706199 -0.35147887 0.52623963 1.2853105
0.4217039 0.19181713 -0.39996147 -0.06622485 -0.063231 0.48806736 -0.2270107 0.33428088
-0.56150436 -0.39307752 -0.1782097 0.5507635 -0.70812637 -0.6819533 -0.20964432 -0.22630806
-0.22946046 -0.57052344 0.19107907 -0.63999265 -0.47940323 0.21098949 -0.0327593 -0.021109745
-0.8114668 0.20115146 -0.35949907 0.33613956 0.58261883 -1.0214616 0.58339006 0.14421868
-0.3034898 0.1995768 -1.4036996 0.54293966 1.2819802 -0.04833384 0.28112766 -0.1317083
-0.5177314 0.5640734 -0.23959349 1.5135494 -1.0478886 0.47309574 -0.19818194 0.6832853
-0.47591364 0.07483093 -0.36751235 -0.71194553 0.31302047 -0.34550792 0.35178837 0.24126576
-1.1899385 -0.11839781 0.3821307 0.27870142 0.26022407 0.19898699 0.08735513 0.00091238366
-0.49374443 0.062001128 -0.14875934 -0.4490058 1.0650426 0.18615887 -0.27064094 -0.45864794
0.9519073 -1.020635 0.33889169 0.49529055 -0.65525013 0.16686387 1.2096946 0.8348864
