models/ho_policy_ep6000.pth (torch, 628226 bytes, 11 tensors)

critic.0.weight f4 [256, 42]
0	0xbd99522f	-0.074863784
1	0xbdf99657	-0.12186878
2	0x3ec3e5d3	0.3826128
3	0x3e9cce59	0.3062618
4	0x3e4a013e	0.19727036
5	0xbead0e51	-0.33799985
6	0x3e45e4d2	0.1932557
7	0xbeba569e	-0.3639421
8	0x3f64eb2b	0.8942134
9	0x3f171107	0.59010357
10	0xbe4d2b96	-0.20036158
11	0xbdcc8ed1	-0.099881776
12	0xbc0be723	-0.008538994
13	0x3dfaf580	0.12253857
14	0xbf139963	-0.57655925
15	0x3ead9d37	0.33909008
16	0x3ede447e	0.4341163
17	0x3e66e0c1	0.22546674
18	0xbea47553	-0.3212076
19	0xbf39e611	-0.7261668
20	0xbe007701	-0.12545396
21	0x3bbcd247	0.0057623717
22	0x3eca79b0	0.39545965
23	0xbe4470b5	-0.1918362
24	0xbfc7c3c7	-1.5606622
25	0xbee2e2fc	-0.443138
26	0xbdb6f80a	-0.089340284
27	0xbfa51ed2	-1.2900031
28	0xbe9c132e	-0.30483383
29	0xbf860fb4	-1.0473542
30	0x3e4fa02a	0.20275941
31	0x3f13c28c	0.5771873
32	0xbf483175	-0.78200465
33	0x3fcf0531	1.6173459
34	0xbf0900dd	-0.5351694
35	0xbdfa6f56	-0.12228267
36	0xbdf8aef2	-0.12142743
37	0xbdadfbd1	-0.08495296
38	0xbea6133c	-0.3243655
39	0xbf015eef	-0.5053548
40	0xbf4c519f	-0.79812044
41	0x3ef8a8b0	0.48566198
42	0xbefaac7c	-0.4895972
43	0xbf63c7cb	-0.88976735
44	0xbf58bb01	-0.84660345
45	0xbe14133c	-0.14460462
46	0x3c42620e	0.011864198
47	0xbee63425	-0.44961658
48	0x3df88871	0.12135399
49	0xbeef0945	-0.4668676
50	0xbf8cf7fd	-1.101318
51	0x3d41680b	0.047218364
52	0xbf14d93b	-0.5814397
53	0x3e8630e4	0.26209176
54	0xbef47816	-0.47747868
55	0x3e8040e9	0.25049523
56	0x3e99971d	0.29998103
57	0xbf27bacd	-0.6551941
58	0xbcf03209	-0.029320734
59	0xbe14e588	-0.14540684
60	0x3e92cf2e	0.2867369
61	0xbf40aaa8	-0.752604
62	0xbee1bb75	-0.4408833
63	0x3e1093f2	0.14118937
64	0x3f1fb7d1	0.62389857
65	0xbd91d494	-0.07120624
66	0xbaaa0c00	-0.0012973547
67	0xbdac1515	-0.084024586
68	0x3ee3f5f2	0.4452358
69	0x3f64cfd8	0.89379644
70	0xbe846b79	-0.25863245
71	0xbf4a4437	-0.7901034
72	0xbe2d3867	-0.16916047
73	0xbdb0ee1b	-0.08639165
74	0xbea06ede	-0.31334585
75	0xbf2de2ce	-0.679242
76	0xbe5e2137	-0.21692358
77	0x3c8a68a8	0.016895607
78	0xbd8b1485	-0.06791023
79	0x3e922c74	0.2854954
80	0x3f368c77	0.7130808
81	0xbf699530	-0.9124327
82	0xbf9fece2	-1.2494166
83	0x3f44ce7a	0.7687756
84	0xbe11cdf5	-0.14238723
85	0xbee9cee0	-0.45665646
86	0xbee43055	-0.44568124
87	0x3e8c2390	0.27370882
88	0x3ea9cc4e	0.33163685
89	0xbf61960e	-0.8811959
90	0xbd7b2843	-0.061317693
91	0xbec94333	-0.3930908
92	0x3f9f60db	1.2451433
93	0xbedb87fa	-0.4287718
94	0xbdb3923f	-0.087681286
95	0x3e708339	0.23487557
96	0xbdb6a1ca	-0.089175776
97	0x3edc8fd8	0.43078494
98	0x3ed80350	0.42190027
99	0xbd737f35	-0.059447486
100	0x3e718e50	0.23589444
101	0x3eec70fa	0.46179944
102	0x3da9f8ec	0.08299431
103	0xbeccd6d0	-0.4000764
104	0x3e93e5a3	0.28886136
105	0x3e2571c1	0.16156675
106	0x3f260d7b	0.6486432
107	0xbe8a7753	-0.27044162
108	0xbebd8ebe	-0.37022966
109	0xbdc98f3e	-0.098417744
110	0x3e9554a9	0.29166153
111	0xbf0dacba	-0.55341685
112	0xbf48d29f	-0.7844638
113	0xbfa9ba3b	-1.3259958
114	0xbdb8f167	-0.09030419
115	0x3e16ff78	0.14745891
116	0xbf644b08	-0.8917699
117	0x3ef40f59	0.4766796
118	0xbf138d5e	-0.57637584
119	0xbc13c820	-0.0090198815
120	0xbd03c136	-0.032166682
121	0x3ce269b4	0.027638294
122	0xbe911ea6	-0.28343695
123	0xbd7dcf31	-0.06196517
124	0xbd74dc93	-0.05978067
125	0xbddb27be	-0.107009396
126	0x3e9b9b93	0.3039213
127	0x3e98f7b2	0.29876477
128	0x3f465adf	0.7748241
129	0xbf2bf7cf	-0.67175
130	0x3cd6c539	0.02621709
131	0x3ec298d2	0.38007218
132	0x3e3c285f	0.18374775
133	0x3e6899bf	0.227149
134	0x3f1abc06	0.6044315
135	0xbe7e02bb	-0.24805729
136	0x3e72f377	0.23725687
137	0xbe12c32e	-0.14332268
138	0x3ea7ee90	0.32799196
139	0xbe29f014	-0.16595489
140	0x3f514542	0.81746304
141	0x3e03cfdc	0.12872261
142	0x3e4cbc33	0.19993667
143	0x3e83c6ac	0.25737512
144	0xbea03a24	-0.31294358
145	0xbee00f08	-0.43761468
146	0x3ed2f61a	0.41203386
147	0xbda500f5	-0.08056823
148	0x3d97ea2b	0.07417711
149	0xbf0f8412	-0.560609
150	0xbed8aca5	-0.42319217
151	0xbe56d22d	-0.20978613
152	0xbe870ec1	-0.26378444
153	0xbfbc26b3	-1.469931
154	0x3be66239	0.007030752
155	0x3e0c3708	0.13692868
156	0x3e232f8b	0.15936105
157	0x3d2ddb7d	0.04244565
158	0xbdabbf1d	-0.08386061
159	0x3fce18a6	1.6101272
160	0x3f140325	0.578173
161	0x3dc3588e	0.09538375
162	0xbe5356b7	-0.20638548
163	0xbb3c3d51	-0.002872307
164	0xbdde3ea4	-0.108517915
165	0xbe73e42d	-0.23817511
166	0x3f7eba50	0.9950304
167	0xbec74655	-0.38920847
168	0xbdbc3a8b	-0.09190854
169	0xbdb2a6fa	-0.087232545
170	0xbdc90b0c	-0.0981656
171	0x3f764e64	0.96213365
172	0x3e527374	0.20551854
173	0xbdda047c	-0.106453866
174	0xbbcc4352	-0.006233611
175	0xbec0e9df	-0.3767843
176	0x3f3bae47	0.733128
177	0xbd4d3e7c	-0.050108418
178	0x3e39850e	0.18117163
179	0x3e1a1b32	0.15049437
180	0xbca587e5	-0.020206401
181	0x3e8525ca	0.26005393
182	0xbe9e3200	-0.30897522
183	0x3d43751e	0.047719114
184	0xbd35f613	-0.044424128
185	0x3edbe10f	0.42945144
186	0x3df558fe	0.119798645
187	0xbebe65c5	-0.3718702
188	0xbe4f1e4c	-0.20226401
189	0x3e0fa0c6	0.14026174
190	0x3f7b2aa9	0.9811197
191	0x3eb04f3c	0.3443545
192	0xbe1f6d88	-0.15569127
193	0x3e5834f3	0.21113949
194	0x3e68ba21	0.22727253
195	0xbe867517	-0.26261207
196	0xbf635c59	-0.88812786
197	0xbea56011	-0.32299855
198	0x3e3eab0a	0.18619934
199	0x3d462edb	0.04838453
200	0xbf694535	-0.91121227
201	0x3e52b319	0.20576133
202	0xbd745807	-0.059654262
203	0x3dc7e29e	0.09760021
204	0x3d8d0594	0.068858296
205	0xbd835721	-0.06413103
206	0xbe40bb8f	-0.18821548
207	0x3e32193d	0.1739244
208	0xbf752224	-0.9575522
209	0x3eaf28a6	0.342107
210	0x3e72552c	0.23665303
211	0xbe937908	-0.28803277
212	0x3f805101	1.002472
213	0x3e10f091	0.14154269
214	0xbde54b11	-0.111959584
215	0xbf4e56ec	-0.8060138
216	0xbe09a7ba	-0.13442889
217	0x3eb26d6e	0.34849113
218	0x4007bcb0	2.1208916
219	0xbec88baa	-0.39169055
220	0xbeacb2e5	-0.33730236
221	0xbef1e761	-0.4724684
222	0x3f1e5f4b	0.61864156
223	0x3de17b75	0.11009876
224	0xbea06915	-0.3133017
225	0x3e0906ae	0.13381454
226	0xbe4db47b	-0.20088379
227	0x3e6b63ac	0.2298724
228	0xbde8212b	-0.11334451
229	0xbcfdbe5d	-0.030974561
230	0xbf10d007	-0.56567425
231	0xbe43aeb2	-0.1910961
232	0xbe8cda63	-0.27510366
233	0x3f1ccb71	0.61247927
234	0x3fc3456e	1.5255563
235	0x3e3f6aa8	0.1869303
236	0x3f10977e	0.5648116
237	0xbf18bd92	-0.5966426
238	0x3e00d052	0.12579468
239	0xbf7716ac	-0.9651897
240	0xbf22268e	-0.6334008
241	0xbf9d6a5b	-1.2298082
242	0x3dc2a063	0.095032476
243	0x3efca158	0.49341846
244	0x3eca97fd	0.39569083
245	0x3dd91796	0.10600202
246	0x3d05f4f2	0.0327043
247	0xbf44fa3c	-0.7694433
248	0x3e86c0e2	0.26319033
249	0x3ee7a68b	0.4524425
250	0x3fc376cc	1.5270629
251	0xbf1fe236	-0.62454545
252	0xbeef5245	-0.46742454
253	0xbed4ddc2	-0.41575438
254	0xbea9fa11	-0.33198598
255	0x3a97f083	0.0011592064

critic.0.bias f4 [256]
0	0xbe898a48	-0.26863313
1	0xbdb27399	-0.08713455
2	0x3c92b57a	0.0179088
3	0xbc54181a	-0.012945199
4	0xbe4b4f47	-0.1985446
5	0x3e4efde8	0.20214045
6	0x3e33bdbe	0.1755285
7	0xbe21c361	-0.15797187
8	0xbe434b6a	-0.19071737
9	0x3ec10a7f	0.3770332
10	0xbe1342e4	-0.14380985
11	0xbe7c6dbc	-0.24651235
12	0x3e81568b	0.2526134
13	0xbd720936	-0.059090815
14	0x3de2281f	0.11042809
15	0xbe00eba6	-0.12589893
16	0xbe6b5053	-0.2297986
17	0xbcf0a2b7	-0.029374463
18	0xbe0dcdf5	-0.13848098
19	0xbdc15907	-0.09440809
20	0x3e199b7d	0.1500072
21	0xbe0382f3	-0.12842922
22	0x3dc6715f	0.096895926
23	0xbdc765d9	-0.09736223
24	0xbbdb7dd6	-0.0066983504
25	0x3ea233f3	0.3168026
26	0x3e3a71b0	0.18207431
27	0x3c0f38bc	0.008741554
28	0x3e952277	0.29127857
29	0xbe1a0504	-0.15040976
30	0xbdb078df	-0.08616804
31	0xbcfb33b6	-0.030664306
32	0x3db9c2bc	0.09070346
33	0x3d7e9f8a	0.062163867
34	0xbcdfff38	-0.027343377
35	0x3e463e35	0.19359668
36	0xbd44b275	-0.048021752
37	0x3d556ee0	0.05210769
38	0x3e9eb3ad	0.30996457
39	0xbea17098	-0.31531215
40	0x3d554f90	0.05207783
41	0xbc540b16	-0.012942096
42	0x3e4eee0b	0.20207994
43	0xbe2b522c	-0.16730565
44	0x3d13b9b8	0.036065787
45	0x3e20e73a	0.15713206
46	0x3e3a18ed	0.18173571
47	0x3d765577	0.0601401
48	0xbe1883b3	-0.1489399
49	0x3e8c53d7	0.27407715
50	0x3e94ffae	0.29101318
51	0x3d192ef1	0.037398282
52	0x3e143fb0	0.1447742
53	0xbda29e60	-0.07940364
54	0x3e987b73	0.29781684
55	0xbe54544a	-0.20735279
56	0x3c89dc6a	0.016828734
57	0x3c032cf3	0.008006322
58	0xbe08e758	-0.133695
59	0xbe9c44a2	-0.30521113
60	0x3e59ccf5	0.21269591
61	0xbe3e8819	-0.18606605
62	0xbe86f6ef	-0.2636027
63	0xbe10fe2b	-0.14159457
64	0xbc5c34fb	-0.013440366
65	0x3db62023	0.08892848
66	0xbd1e2e95	-0.038618643
67	0x3d85df2c	0.06536707
68	0x3e0f7045	0.14007671
69	0x3e500c82	0.20317271
70	0xbe9603c8	-0.2929976
71	0xbe8ec60a	-0.27885467
72	0xbdd42051	-0.10357726
73	0xbd87a60c	-0.06623468
74	0xbe3e45a7	-0.18581258
75	0x3e71a18b	0.2359678
76	0x3d6471ea	0.0557727
77	0xbb4bdbc1	-0.0031106325
78	0x3e28e6e7	0.16494332
79	0x3e4f868c	0.2026617
80	0xbdaac9ce	-0.083392724
81	0x3e6631ee	0.22479984
82	0xbe3764bc	-0.17909521
83	0xbd1d76ac	-0.038443252
84	0xbe77f838	-0.24215782
85	0xbda0a0d1	-0.07843173
86	0xbdc4280a	-0.09577949
87	0xbe519b10	-0.20469308
88	0xbda272d5	-0.07932059
89	0xbd0495dd	-0.032369483
90	0x3e1ad65d	0.15120836
91	0x3d1b1c43	0.03786875
92	0xbb88df68	-0.0041770227
93	0x3c7cbb80	0.015425563
94	0xbd68d667	-0.056845095
95	0xbda02bcb	-0.07820853
96	0x3d770457	0.060306873
97	0x3dc55203	0.09634783
98	0xbde57b8e	-0.11205207
99	0x3d930130	0.07177961
100	0x3e2b2fb0	0.1671741
101	0xbe095cb3	-0.13414268
102	0x3c75bab0	0.014998123
103	0x3e2e2e92	0.17009953
104	0x3e1fe4ae	0.15614578
105	0xbe56a641	-0.20961858
106	0xbc016672	-0.00789796
107	0xbe61f441	-0.22065832
108	0x3d125eb9	0.035734866
109	0xbd807830	-0.06272924
110	0x3e84be3f	0.25926396
111	0x3e05a245	0.13050182
112	0xbeb711e8	-0.3575585
113	0xbf119122	-0.5686208
114	0xbdb8c042	-0.09021045
115	0xbe2fbaf5	-0.17161162
116	0xbd86dd84	-0.065852195
117	0x3e171fce	0.14758226
118	0x3d704bdc	0.058666095
119	0x3caf3a5a	0.021390129
120	0xbe306f4f	-0.17229961
121	0xbe46090d	-0.1933939
122	0xbd319caf	-0.043362316
123	0x3e2b2c92	0.16716221
124	0xbdb7b560	-0.089701414
125	0x3ea47473	0.32120094
126	0x3dbf3d66	0.09337883
127	0xbe4bc2bd	-0.19898506
128	0x3ed71350	0.42006922
129	0xbead9f58	-0.33910632
130	0xbe0fa15b	-0.14026396
131	0xbe9cb737	-0.30608532
132	0xbe114a10	-0.14188409
133	0xbd1ba6ca	-0.03800086
134	0xbe10f0f7	-0.14154421
135	0x3d4d4fc1	0.050124887
136	0xbc043f19	-0.008071684
137	0xbe36c59d	-0.17848821
138	0xbe2bbed9	-0.16772021
139	0x3d2098c7	0.0392082
140	0x3df75b96	0.120780155
141	0xbe54b8b8	-0.2077359
142	0x3d0c6a44	0.03428103
143	0xbe8f8f76	-0.2803914
144	0x3d22ceb6	0.039747916
145	0x3d92e07b	0.071717225
146	0x3e83a27f	0.25709912
147	0x3e14cc01	0.14530946
148	0x3d490b2f	0.04908293
149	0x3d6dd785	0.058066864
150	0x3e1e7de0	0.15477705
151	0xbc974c6b	-0.018469056
152	0x3e5e86d9	0.21731128
153	0xbe93dce5	-0.28879467
154	0x3e03adf8	0.12859333
155	0xbd14ca7f	-0.036325928
156	0x3e0b16b5	0.13582881
157	0xbe9188af	-0.28424594
158	0x3d2d1002	0.042251594
159	0xbecc9fe7	-0.39965746
160	0xbdd5a028	-0.10430938
161	0x3ddc3090	0.1075145
162	0x3a2278a6	0.00061977876
163	0x3d090608	0.033453017
164	0xbdb031dc	-0.0860326
165	0xbe08e599	-0.13368835
166	0x3b1e27a4	0.0024132514
167	0xbc87a5bd	-0.016558522
168	0x3ea1e74f	0.31621787
169	0xbe186731	-0.14883114
170	0xbdfdb378	-0.123877466
171	0x3d19cb74	0.037547544
172	0xbe63dee9	-0.22253002
173	0xbd10c530	-0.035344303
174	0xbdb7132c	-0.089392036
175	0xbe68c730	-0.22732234
176	0xbc263936	-0.010145476
177	0x3df40b20	0.119161844
178	0xbdc091ba	-0.09402795
179	0x3e269137	0.16266333
180	0xbe814d35	-0.25254217
181	0x3e52b56b	0.20577018
182	0xbe88049e	-0.26566023
183	0xbe2e3b53	-0.17014818
184	0xbe9cd715	-0.30632845
185	0x3e03c344	0.12867457
186	0xbe8c2cbe	-0.27377886
187	0x3c7836a8	0.01514975
188	0x3e03edbf	0.12883662
189	0xbdc97cf3	-0.09838285
190	0xbda9377d	-0.08262537
191	0xbe0bdbb3	-0.13658027
192	0xbd86eb71	-0.06587876
193	0x3e8abd5f	0.27097604
194	0x3e0a1e2c	0.13488072
195	0xbdfbdc81	-0.12297917
196	0xbb4f426e	-0.0031625289
197	0xbdce98a3	-0.10087707
198	0x3ebc441c	0.36770713
199	0xbe4379a8	-0.19089377
200	0xbdffc466	-0.12488632
201	0xbd374c44	-0.044750467
202	0xbe5880cd	-0.21142884
203	0xbdbf6e75	-0.0934724
204	0x3eae17f8	0.34002662
205	0xbd197cb2	-0.037472434
206	0xbe06d9f8	-0.13169086
207	0xbbe8a5bc	-0.007099835
208	0x3e6a9686	0.22908983
209	0x3e2b1e69	0.1671082
210	0xbdcd80f9	-0.10034365
211	0x3e82fcc2	0.25583464
212	0x3ea3be27	0.31981012
213	0x3e5bd2fa	0.214672
214	0x3e7dacbb	0.24772923
215	0xbe107714	-0.14107925
216	0xbe240cb5	-0.16020472
217	0xbd7c3578	-0.06157443
218	0x3e2a4dde	0.16631266
219	0xbdd88663	-0.10572507
220	0xbd9bf9f8	-0.07616037
221	0xbd6e8709	-0.05823425
222	0xbc80c6e9	-0.015719848
223	0x3d0b83a9	0.034061108
224	0xbe709514	-0.23494369
225	0xbde93926	-0.11387853
226	0xbe93badc	-0.288535
227	0x3e3f4474	0.18678457
228	0xbdd4c438	-0.10388988
229	0x3de74b56	0.11293666
230	0x3e8c486a	0.27398998
231	0xbe6201fa	-0.22071066
232	0xbebdebba	-0.37093908
233	0xbe1ca3eb	-0.15296905
234	0xbe4ed8f9	-0.20199956
235	0x3df248a9	0.11830265
236	0xbdc82df2	-0.097743884
237	0xbe68fd36	-0.22752842
238	0x3d3a5e48	0.04550007
239	0xbdfc9688	-0.12333399
240	0x3e6ae6af	0.22939561
241	0x3e86f51e	0.26358885
242	0x3e88b201	0.26698306
243	0xbe137ba3	-0.14402632
244	0xbdf25add	-0.11833737
245	0xbe360bec	-0.17777985
246	0xbea9e829	-0.33184937
247	0x3e311807	0.17294322
248	0x3e04bdfb	0.12963097
249	0xbe52acde	-0.20573756
250	0xbdd81179	-0.10550208
251	0xbe73fd98	-0.23827207
252	0xbdfcb392	-0.12338938
253	0xbc677d7a	-0.014129037
254	0x3e2ac858	0.16677988
255	0x3c1e4101	0.009659053

critic.2.weight f4 [256, 256]
0	0x3ef0c171	0.47022584
1	0xbdd73b2a	-0.105093315
2	0xbdb1c747	-0.08680587
3	0xbf119405	-0.56866485
4	0xbdce59f0	-0.10075748
5	0x3eebc5eb	0.46049437
6	0x3f3186bf	0.6934623
7	0x3e97e63f	0.2966785
8	0xbed01bbd	-0.40646163
9	0x3eec2e9d	0.46129313
10	0x3d984ad7	0.074361496
11	0x3f7182b3	0.94340056
12	0x3de0f1c9	0.10983617
13	0xbf46ae84	-0.7761004
14	0x3e02fdb9	0.127921
15	0xbe7eca18	-0.2488178
16	0x3f05e67d	0.5230482
17	0x3e874453	0.26419315
18	0x3ed0a157	0.40748093
19	0xbf688eec	-0.9084308
20	0xbd8750cb	-0.06607207
21	0x3f0d32a7	0.55155414
22	0x3c9ea89b	0.019367507
23	0x3df7371b	0.120710574
24	0xbee34c0b	-0.44393954
25	0x3f024f9a	0.5090271
26	0xbfca45e3	-1.5802578
27	0xbf32e50b	-0.6988074
28	0xbec3bc44	-0.38229573
29	0xbdb026ee	-0.08601175
30	0x3fbd5363	1.4791073
31	0xbe4295be	-0.19002435
32	0x3eacb013	0.33728084
33	0x3e93caaa	0.28865558
34	0xbe2ba1dc	-0.16760963
35	0x3f1a538c	0.6028373
36	0x3f5dbed0	0.8661928
37	0xbd52da9b	-0.05147801
38	0x3efc6fdb	0.4930409
39	0xbf1a7f36	-0.6035036
40	0xbf534b42	-0.8253671
41	0x3f4147a7	0.7549996
42	0xbec27b8f	-0.37984893
43	0xbe3b6241	-0.182992
44	0x3da6f3ed	0.08151994
45	0x3f4bf378	0.7966838
46	0x3e4b6649	0.19863237
47	0xbf2c231f	-0.6724109
48	0x3ea1e75b	0.31621823
49	0x3dff366b	0.12461551
50	0x3ebddd7e	0.37083048
51	0xbe8008ab	-0.25006613
52	0x3e8a837f	0.2705345
53	0xbd161d81	-0.03664923
54	0xbe51ffda	-0.20507756
55	0x3f4b3b9d	0.7938784
56	0xbf246ed6	-0.6423162
57	0x3e66f6c7	0.22555076
58	0x3f1fb3ac	0.6238353
59	0x3d46a31e	0.048495404
60	0x3f0b8b4b	0.5450942
61	0xbf4541fa	-0.770538
62	0xbd17f7b4	-0.037101462
63	0x3f777714	0.96666074
64	0xbf2a4921	-0.66517836
65	0xbe5f7692	-0.21822575
66	0x3e6df19d	0.232367
67	0xbf3e736b	-0.74394864
68	0xbf3fd994	-0.7494137
69	0xbdbb1d82	-0.091364875
70	0xbd86ce1d	-0.06582282
71	0x3e00d85b	0.12582533
72	0xbe20f59c	-0.15718693
73	0xbf29f002	-0.6638185
74	0x3e6ef5b9	0.23335923
75	0x3ed78caf	0.4209952
76	0x3dac2633	0.084057234
77	0xbe15a3d0	-0.14613271
78	0x3ede4e7d	0.43419257
79	0xbf1fa3e4	-0.6235945
80	0xbf230596	-0.636804
81	0x3dddbdcc	0.108272165
82	0xbf188fc5	-0.59594375
83	0x3e9e7a93	0.30952892
84	0x3ec8d8b8	0.39227843
85	0x3f5e5ec7	0.8686337
86	0x3f8c3616	1.0954006
87	0x3e23dcba	0.16002169
88	0x3e2b46fa	0.16726294
89	0x3f4716c5	0.7776912
90	0xbf5ce7df	-0.8629131
91	0x3e6cf931	0.23141934
92	0x3c10d4bb	0.008839781
93	0x3dfbb643	0.12290623
94	0xbd2fe276	-0.04294058
95	0x3e94793b	0.28998742
96	0xbea5ef49	-0.32409123
97	0x3ee03dd4	0.4379717
98	0x3ea2c81f	0.31793305
99	0xbe8d65c0	-0.27616692
100	0xbe42b5ce	-0.19014665
101	0x3ed82c44	0.42221272
102	0x3f6b062e	0.91806304
103	0xbf30c1a3	-0.69045466
104	0x3e9448e8	0.28961873
105	0x3d853288	0.06503779
106	0x3ed34bc8	0.41268754
107	0x3a06e014	0.00051450846
108	0x3efe78ca	0.4970153
109	0x3f451eca	0.77000105
110	0x3ed0ba38	0.40767074
111	0xbeb6fb3e	-0.35738558
112	0x3ea47aa7	0.32124826
113	0x3e0d50cc	0.13800353
114	0xbf503b31	-0.8134032
115	0x3d895c41	0.06707049
116	0xbe42a4c8	-0.19008172
117	0xbf679755	-0.9046529
118	0x3e53553e	0.20637986
119	0x3f9c404d	1.2207123
120	0x3f044957	0.5167441
121	0xbe8b8efb	-0.27257523
122	0x3f5a34c6	0.85236776
123	0xbe888239	-0.26661852
124	0x3d90a285	0.07062248
125	0xbe1fc8de	-0.15603969
126	0x3ebacfaf	0.36486575
127	0x3f4891c1	0.783474
128	0xbe831b17	-0.25606605
129	0xbe928985	-0.28620544
130	0xbce8cadd	-0.028417045
131	0xbeea0e92	-0.4571424
132	0x3fb3af07	1.4037789
133	0x3e9cd7a5	0.30633274
134	0xbea1a8ef	-0.315742
135	0xbf373e05	-0.7157901
136	0xbf4de387	-0.80425304
137	0xbe7a2159	-0.24426784
138	0x3f3f36a5	0.74692756
139	0x3c35ba1b	0.011091734
140	0x3e9f3718	0.3109672
141	0xbe8160cd	-0.25269166
142	0x3e7796d6	0.24178633
143	0xbe6ff336	-0.23432621
144	0x3f8d34ea	1.1031773
145	0xbeda4343	-0.42629442
146	0x3f6a3256	0.91483057
147	0x3e3d24c3	0.18471055
148	0x3f7443fd	0.9541624
149	0x3eb23ddb	0.34812817
150	0x3f32c639	0.69833714
151	0xbfcb6360	-1.5889702
152	0x3e6a9693	0.22909002
153	0x3f241a4e	0.6410264
154	0x3f014882	0.50501263
155	0x3f51fe35	0.82028514
156	0x3cfb99c2	0.030712966
157	0x3e11eaad	0.14249678
158	0x3f98a633	1.192572
159	0x3f83c5d2	1.0294745
160	0xbc5e0117	-0.0135500645
161	0x3ecb8735	0.39751592
162	0x3e26f28e	0.16303465
163	0xbda55315	-0.08072487
164	0xbe325b4c	-0.1741764
165	0x3ec623bf	0.38699147
166	0x3f5f17a5	0.87145454
167	0x3ebbe46c	0.3669771
168	0x3f4317fb	0.76208466
169	0x3e27a2a0	0.1637063
170	0xbd5493e0	-0.051898837
171	0x3f1100e9	0.56642014
172	0x3e4d5da3	0.20055251
173	0xbd02ccfb	-0.031933766
174	0x3cba2123	0.022720879
175	0xbf6eb76f	-0.9324865
176	0xbf1fa44d	-0.6236008
177	0xbdf5cf3c	-0.120024174
178	0xbf566a76	-0.83756196
179	0x3e05ecfd	0.13078685
180	0x3f224c2a	0.6339747
181	0xbec255ed	-0.3795618
182	0x3f13511c	0.5754564
183	0xbf1e96c3	-0.61948794
184	0x3f763665	0.9617675
185	0x3eb58942	0.35456282
186	0xbf61418f	-0.8799066
187	0xbd5f7fe5	-0.05456533
188	0x3d77a01b	0.060455423
189	0xbface2ca	-1.350671
190	0x3e2e2992	0.17008045
191	0xbdc708c8	-0.09718472
192	0xbeb84339	-0.35988787
193	0x3e820820	0.25396824
194	0xbe8d9e19	-0.2765968
195	0xbf01abac	-0.50652575
196	0x3ed79251	0.42103818
197	0xbd87f865	-0.06639174
198	0x3e0e7600	0.13912201
199	0x3f8c0779	1.093978
200	0xbf5ef3ba	-0.8709065
201	0x3e079d33	0.1324356
202	0xbec0ba6a	-0.37642223
203	0xbcba72b0	-0.022759765
204	0xbec9775f	-0.39348885
205	0xbf16ad86	-0.58858526
206	0xbe3a7d15	-0.18211778
207	0x3db4f2dc	0.08835384
208	0x3eda12b8	0.42592406
209	0xbd43486c	-0.04767649
210	0x3d572374	0.052524045
211	0xbe570e13	-0.21001463
212	0xbd53323a	-0.05156157
213	0xbe880b46	-0.265711
214	0xbc68a4c5	-0.01419944
215	0x3e08eda1	0.13371898
216	0x3faddc9b	1.3582948
217	0xbdb8370d	-0.08994875
218	0x3e7d0ebb	0.2471265
219	0xbf1d515a	-0.6145226
220	0x3f7198bc	0.9437368
221	0xbd1dfc3d	-0.03857063
222	0xbe86d69a	-0.26335603
223	0x3eb06845	0.3445455
224	0x3e05dfdd	0.13073678
225	0xbf00286e	-0.5006169
226	0xbf3a7297	-0.728311
227	0x3e5118df	0.20419644
228	0xbed72918	-0.4202354
229	0xbf629fb2	-0.88524926
230	0x3f3c0531	0.7344542
231	0x3eae8193	0.34083232
232	0x3f40cf3a	0.753162
233	0x3ecd5472	0.4010349
234	0xbe52bacd	-0.20579071
235	0xbf0b6947	-0.54457515
236	0xbf70afc7	-0.94018215
237	0x3f162641	0.5865212
238	0xbf69ee6c	-0.9137943
239	0x3f5b3917	0.8563399
240	0xbf19994d	-0.59999543
241	0xbf082c79	-0.5319286
242	0x3ea28df1	0.31748918
243	0x3e84ca91	0.25935796
244	0xbeff7272	-0.49892002
245	0x3eb5ee32	0.3553329
246	0xbe9eb3b3	-0.30996475
247	0x3f9a6d83	1.206467
248	0xbea41d15	-0.32053438
249	0x3f8e3785	1.1110693
250	0x3e2c7d20	0.16844606
251	0xbd897a3c	-0.067127675
252	0xbf8aae74	-1.0834489
253	0xbf0cf0a9	-0.5505472
254	0xbca9277a	-0.020648707
255	0x3f2b9f62	0.67040074

critic.2.bias f4 [256]
0	0xbd325641	-0.04353929
1	0xbe8f0982	-0.2793694
2	0xbd4cfb51	-0.05004436
3	0x3c9bbd9d	0.019011313
4	0x3e445593	0.19173269
5	0x3de68682	0.11256124
6	0x3e3b169b	0.18270342
7	0x3d47f734	0.048819736
8	0xbeaf36a9	-0.3422139
9	0x3d741554	0.059590653
10	0x3e6300cb	0.22168271
11	0xbecef9b9	-0.40424898
12	0x3ef7e03d	0.48413268
13	0x3f070662	0.52744114
14	0xbec86c87	-0.391453
15	0xbe847b70	-0.25875425
16	0x3f065c6c	0.52484775
17	0x3d50e5e3	0.051000487
18	0x3e53ae22	0.20671895
19	0x3e80bd3c	0.25144374
20	0xbdd01a18	-0.10161227
21	0x3e606a2b	0.219155
22	0x3ed076b1	0.40715554
23	0x3f1f156e	0.62142074
24	0x3e7f97cf	0.24960254
25	0xbd35bfd3	-0.04437239
26	0x3e7bc046	0.24585065
27	0x3e7b02f2	0.24512842
28	0xbd968fd0	-0.07351649
29	0xbf3fbae8	-0.7489457
30	0xbe2577d3	-0.1615899
31	0xbc4b22ef	-0.012398466
32	0x3b943abc	0.0045236032
33	0xbf11e72d	-0.5699337
34	0x3de08f4c	0.10964832
35	0xbedb4051	-0.42822507
36	0x3b76d9c4	0.003766642
37	0x3d1d0abb	0.03834031
38	0xbe1c5ed7	-0.15270554
39	0x3e16ffcc	0.14746016
40	0x3d00d175	0.031449754
41	0xbe818dc9	-0.25303486
42	0xbe7fe252	-0.24988678
43	0x3e596eb4	0.21233636
44	0xbf307d17	-0.6894087
45	0xbf1eb1e6	-0.619902
46	0xbddb5aeb	-0.107107006
47	0xbe8ac0d5	-0.27100244
48	0xbcedb454	-0.029016651
49	0x3e173c9c	0.14769214
50	0xbe05a1b0	-0.1304996
51	0x3efaae57	0.48961136
52	0xbf39fc98	-0.7265105
53	0xbf2871d7	-0.65798706
54	0x3d2e7856	0.04259523
55	0x3e2bf34d	0.1679203
56	0xbb8f6afc	-0.004376767
57	0xbf069fa6	-0.52587354
58	0x3f266911	0.6500407
59	0xbd000e75	-0.031263787
60	0x3f59d371	0.8508826
61	0xbf188aa9	-0.5958658
62	0xbc6e7e15	-0.0145564275
63	0xbdcc3525	-0.09971074
64	0x3ed18045	0.40918174
65	0x3da2621f	0.07928871
66	0xbe7021b3	-0.23450355
67	0x3d1380a0	0.03601134
68	0xbeb22066	-0.34790343
69	0x3d1cc1b0	0.038270652
70	0xbcdc3d30	-0.026884645
71	0x3f06efa5	0.5270942
72	0xbdefe79d	-0.117140986
73	0xbef0f652	-0.47062927
74	0x3e86a3da	0.26296884
75	0x3e37f9b8	0.17966354
76	0xbea736fd	-0.3265914
77	0x3db0ac61	0.08626629
78	0xbd0709d9	-0.032968376
79	0x3e722838	0.23648155
80	0x3e4fb22c	0.20282811
81	0xbe138a3f	-0.14408205
82	0x3f3c09f5	0.73452693
83	0xbe64ced6	-0.22344527
84	0x3dfa5e90	0.122250676
85	0xbd97f312	-0.07419409
86	0x3d0f9077	0.03504988
87	0xbe8bd167	-0.273082
88	0xbd311ba8	-0.043239266
89	0xbf5129c2	-0.8170434
90	0x3ee83c32	0.45358425
91	0xbf04106a	-0.51587546
92	0x3e9bbb4f	0.30416343
93	0x3ecc8b2f	0.3994994
94	0x3f401636	0.7503389
95	0x3e9cff6b	0.30663618
96	0xbd50d468	-0.050983816
97	0x3e39e064	0.18152004
98	0x3ebce7e1	0.3689566
99	0xbd67975b	-0.05654083
100	0x3ea91ebe	0.33031267
101	0xbe2da53b	-0.16957562
102	0xbe38e27d	-0.18055148
103	0x3d908bf6	0.070579454
104	0xbf0c6590	-0.5484247
105	0x3d8d03f1	0.068855174
106	0x3de6fb3f	0.1127839
107	0xbb649e35	-0.0034884338
108	0x3ea33a78	0.31880546
109	0xbdc891ea	-0.09793456
110	0x3eb2e2c0	0.34938622
111	0xbe82f6fb	-0.25579056
112	0xbefc3dce	-0.49265903
113	0xbd1d46ef	-0.038397726
114	0x3e2fe80a	0.1717836
115	0xbe9e315a	-0.30897027
116	0x3f11cbb1	0.56951433
117	0x3e77a4a9	0.24183907
118	0x3a9b8b9e	0.0011867171
119	0x3ec52c3c	0.3851031
120	0x3f404fd0	0.75121784
121	0xbe1434a4	-0.14473206
122	0x3ea626c2	0.32451445
123	0xbe531735	-0.20614322
124	0x3ea6ea95	0.32600847
125	0xbeb99d0f	-0.3625264
126	0x3ea2d4c0	0.3180294
127	0x3a09da6e	0.0005258684
128	0x3e617184	0.22015959
129	0x3e6fafd7	0.23406921
130	0x3e6f8475	0.23390372
131	0xbea883b7	-0.3291299
132	0xbf1dccf2	-0.61640847
133	0x3e99bf82	0.3002892
134	0x3e403136	0.18768772
135	0x3dd7ecf8	0.10543245
136	0x3ed4f31b	0.41591725
137	0xbf023354	-0.5085957
138	0x3e4b6de0	0.19866133
139	0xbd7ee1e1	-0.062227134
140	0xbe076165	-0.13220747
141	0xbea05943	-0.313181
142	0x3c20bde9	0.009810903
143	0xbe4f88a8	-0.20266974
144	0xbe9ad936	-0.30243844
145	0x3e2419f8	0.16025531
146	0x3f34f7f2	0.70690835
147	0x3ee97df8	0.4560392
148	0x3f24147b	0.6409375
149	0x3e9d8b68	0.3077042
150	0xbe8e56f9	-0.2780073
151	0x3f60d2eb	0.87821835
152	0xbee20c95	-0.44150224
153	0x3ea7489c	0.32672584
154	0x3de3c672	0.11121835
155	0xbe9c7f30	-0.30565786
156	0xbeb55c6a	-0.3542207
157	0x3e19cc78	0.15019405
158	0xbe480fa5	-0.19537218
159	0xbf0b7c97	-0.54486984
160	0x3dacecc2	0.084435955
161	0xbd8e9e11	-0.069637425
162	0x3ebacfc0	0.36486626
163	0x3ec21e99	0.3791397
164	0xbf1ef530	-0.62092876
165	0xbca36bf0	-0.01994893
166	0x3e7aeede	0.24505183
167	0xbeb48ddf	-0.3526449
168	0xbd4a4108	-0.049378425
169	0xbebedc83	-0.37277612
170	0xbf1d199c	-0.613672
171	0x3e7aef83	0.24505429
172	0x3f16357f	0.5867538
173	0x3ea72768	0.32647252
174	0x3e3649cd	0.1780159
175	0x3e5fd291	0.21857668
176	0x3eae47e3	0.3403922
177	0xbe967a2e	-0.2939009
178	0xbf131c63	-0.5746519
179	0xbec08750	-0.37603235
180	0x3dda6245	0.10663275
181	0xbcd34db5	-0.02579389
182	0xbe94162b	-0.28923163
183	0xbdcd3909	-0.10020644
184	0xbe7f4a53	-0.24930696
185	0xbee2e0b3	-0.44312057
186	0x3e176b91	0.14787127
187	0x3d4079e3	0.04699124
188	0x3e3d5001	0.1848755
189	0xbe596666	-0.21230468
190	0x3e06aea8	0.13152564
191	0x3f4a9877	0.7913889
192	0xbef38958	-0.47565722
193	0x3dddf4cb	0.10837706
194	0x3ed66866	0.41876525
195	0x3e23fe74	0.16015035
196	0xbd8d2918	-0.06892604
197	0x3e7e75b0	0.24849582
198	0xbe96fde8	-0.2949059
199	0xb8783348	-5.9175567e-05
200	0x3eaf9f1f	0.34301087
201	0xbda6b4be	-0.081399426
202	0xbeea8cd4	-0.45810568
203	0x3dbf70a2	0.09347655
204	0x3efe2fb0	0.49645758
205	0x3e690316	0.22755083
206	0xbd91617f	-0.07098674
207	0x3e6612b7	0.22468077
208	0xbe2047bb	-0.15652363
209	0xbec430c7	-0.38318464
210	0x3e6ef199	0.2333435
211	0xbc62529f	-0.013813644
212	0x3de2bdfc	0.11071393
213	0x3dab1422	0.083534494
214	0xbed17713	-0.4091116
215	0x3ec85a62	0.39131457
216	0x3dead2d4	0.114659935
217	0x3e878aa1	0.26472953
218	0x3c92d19b	0.017922213
219	0x3e8526ec	0.26006258
220	0x3ef98776	0.4873616
221	0x3db4efd4	0.08834806
222	0xbd6a6d17	-0.057232942
223	0xbdfcfbdf	-0.12352728
224	0xbf0eaeca	-0.55735457
225	0x3df2de0e	0.1185876
226	0x3dfb79f2	0.122791186
227	0x3e1950d9	0.14972247
228	0x3e01de40	0.12682438
229	0xbd00ee84	-0.031477466
230	0x3eb70b0a	0.3575061
231	0x3ddb61b7	0.10711997
232	0x3c5f5eca	0.013633439
233	0xbe1982b0	-0.1499126
234	0x3e52d54a	0.20589176
235	0x3e0d6bc6	0.13810644
236	0x3d1ad548	0.037801057
237	0x3d99c88a	0.07508953
238	0xbe6d17da	-0.2315363
239	0x3eccbd66	0.3998825
240	0xbd8fee03	-0.07027819
241	0x3d68c802	0.056831367
242	0xbeda6cce	-0.42661136
243	0xbe3ee993	-0.18643789
244	0xbd5e6e00	-0.054304123
245	0xbec137b2	-0.37737805
246	0x3b0684b3	0.0020525872
247	0xbec09395	-0.37612596
248	0xbe62bb95	-0.2214187
249	0x3ee2ae8c	0.44273794
250	0xbd433615	-0.047659
251	0xbefded02	-0.49594885
252	0x3e7d9970	0.24765563
253	0x3d6e0908	0.05811408
254	0xbd48ee11	-0.049055163
255	0x3ecf19c8	0.40449357

critic.4.weight f4 [1, 256]
0	0xc0140173	-2.3125885
1	0xbf5bd253	-0.85867804
2	0xc008355d	-2.128257
3	0x3ed8c88c	0.42340505
4	0xbf86d340	-1.0533218
5	0xbed88fd4	-0.42297232
6	0xbf8fa3b6	-1.1221836
7	0xbf8c635f	-1.0967826
8	0xbf19c57c	-0.6006696
9	0x3fa75712	1.3073447
10	0xbf26c203	-0.6513979
11	0xbf994c0c	-1.1976333
12	0xbf6caf6a	-0.9245516
13	0xbf0eef08	-0.5583348
14	0x400a66ad	2.1625168
15	0xbf841ebd	-1.032188
16	0x3fa53343	1.2906269
17	0xbf30678e	-0.6890801
18	0x3f2769cb	0.653958
19	0xbf6723af	-0.90288824
20	0x401eee05	2.4832776
21	0x3ff6f3fc	1.9293208
22	0x3f795ca1	0.97406965
23	0xbf3c244b	-0.7349288
24	0x40225af0	2.5368004
25	0x3f52e5bb	0.8238179
26	0xbf4550e4	-0.77076554
27	0x3fdfe0c4	1.7490468
28	0x3e99281a	0.29913408
29	0xbfe45105	-1.7837225
30	0x3ec2d588	0.38053536
31	0xbf006ec6	-0.50169027
32	0x3f5653fa	0.8372189
33	0xc0104613	-2.254277
34	0xbf69c1fc	-0.9131162
35	0x3f4048cd	0.75111085
36	0xc03ecb9b	-2.981177
37	0x3f32ccdc	0.6984384
38	0x3fa129f0	1.2590923
39	0x3f1f107e	0.6213454
40	0xc01c80aa	-2.445353
41	0xbf57075d	-0.8399561
42	0x40298870	2.6489525
43	0xbee4750a	-0.44620544
44	0x3d90c8d1	0.07069553
45	0x3f3d3ba5	0.73919135
46	0xc085508d	-4.166083
47	0x406fc5d8	3.7464504
48	0x3f6d8ed3	0.9279606
49	0xbf7814eb	-0.9690692
50	0xbf252f17	-0.6452498
51	0x403276e2	2.788506
52	0xbffd9d0a	-1.981355
53	0xbf8489da	-1.0354569
54	0xc02200a3	-2.5312889
55	0xbecb3458	-0.39688373
56	0xbf5118eb	-0.81678647
57	0x3edc1adc	0.42989242
58	0x3fce68e9	1.6125766
59	0xbf7c64ef	-0.9859151
60	0x3e54e8bd	0.20791908
61	0xbf127805	-0.57214385
62	0xbf3d94c7	-0.7405514
63	0x3f80728b	1.0034956
64	0x3ea3df24	0.3200618
65	0x3f04951a	0.5179001
66	0xbe9162d4	-0.28395712
67	0xbed9f602	-0.42570502
68	0xbf79fdff	-0.9765319
69	0xbfb46495	-1.4093195
70	0x400d875d	2.211387
71	0x3f3b91dc	0.7326944
72	0xbfeb99ad	-1.8406273
73	0x3ff58626	1.9181564
74	0x40388ee1	2.8837206
75	0xbfe333bd	-1.7750164
76	0xbf95838a	-1.1680768
77	0xbf108b3c	-0.56462455
78	0x3fd9ca14	1.7014794
79	0x3f330678	0.69931746
80	0xbf5846a0	-0.84482765
81	0xbf9ac939	-1.2092658
82	0x3f5602f0	0.8359823
83	0xbfe4a13a	-1.7861702
84	0xbfc0c838	-1.5061102
85	0xbf3410b5	-0.7033799
86	0x3f8d5edf	1.1044577
87	0xbf200bc7	-0.6251797
88	0xc019b0fc	-2.4014273
89	0xbfafd668	-1.3737307
90	0x3f89309e	1.0717962
91	0xbf2cfc9b	-0.67572945
92	0x3f68fdcf	0.9101228
93	0x3fbfda6d	1.4988533
94	0x404dbf03	3.2147834
95	0x3fef6486	1.8702552
96	0xbfab787d	-1.3396145
97	0x3f6dfb37	0.9296145
98	0xbf988d06	-1.1918037
99	0xc086b7b2	-4.2099237
100	0xbf603309	-0.87577873
101	0xc036cda1	-2.8563006
102	0xbf525393	-0.82158774
103	0xbf62c222	-0.88577473
104	0xc024994e	-2.571857
105	0x40249b7d	2.5719903
106	0x3f8717d5	1.0554148
107	0x40414ca2	3.0203023
108	0x3fc7694d	1.557901
109	0xbf802e12	-1.001406
110	0xbfc73ea7	-1.5565995
111	0xbf648e9a	-0.8928009
112	0xbfd518e8	-1.6648226
113	0xbfd5c436	-1.6700504
114	0xbe662ace	-0.22477266
115	0xc0080126	-2.12507
116	0x3f856272	1.0420668
117	0xc01241bd	-2.2852623
118	0xbfc3da16	-1.530093
119	0xbf99d810	-1.2019062
120	0x40280bbd	2.6257164
121	0x400648ef	2.0982015
122	0x3f96017a	1.1719201
123	0xbfeac322	-1.83408
124	0xc052ad33	-3.2918212
125	0xbfbe9e06	-1.4891975
126	0x402bf7c9	2.6869986
127	0x405bff0a	3.4374413
128	0x403a412e	2.9102283
129	0x3fd9d58c	1.7018294
130	0x3f85d5ba	1.0455849
131	0xbff30b33	-1.8987793
132	0x3f696728	0.9117303
133	0xbe1216d0	-0.14266515
134	0x40030e30	2.047741
135	0xbf4fc25d	-0.8115595
136	0xc0270e88	-2.610262
137	0x3f939fe8	1.1533175
138	0xbfa0327b	-1.2515405
139	0x3f972c0f	1.1810321
140	0x3fb6cf62	1.4282038
141	0xbfdfaf81	-1.7475435
142	0x3fe4ee01	1.7885133
143	0x3f61d50a	0.88215697
144	0xbeeb9608	-0.46012902
145	0x40651279	3.5792525
146	0x400b7209	2.1788352
147	0x40060527	2.0940645
148	0x3fbf1294	1.4927545
149	0x3f90f588	1.132493
150	0xbfb17a95	-1.3865534
151	0x3fea4518	1.8302336
152	0xbfc42282	-1.5323031
153	0x400b8ac4	2.1803446
154	0xbedeb4b0	-0.4349723
155	0xbeea490a	-0.4575885
156	0xc0067d72	-2.1014066
157	0x3f9c7831	1.222418
158	0x3f0e76f2	0.55650246
159	0xbe613430	-0.21992564
160	0x3edda152	0.4328714
161	0x3ff064aa	1.878072
162	0xc06f9adb	-3.7438266
163	0xc048ccf9	-3.1375105
164	0xbf9b4341	-1.2129899
165	0x3f74efe1	0.95678526
166	0x3f85ad99	1.0443603
167	0xbf1b53f0	-0.60674953
168	0x3f481530	0.7815733
169	0xbf64ae95	-0.8932889
170	0x3eba2208	0.3635409
171	0xc01fe091	-2.4980814
172	0x3f83db6a	1.0301335
173	0xc002f996	-2.0464835
174	0xbf124395	-0.5713437
175	0xbf8b90b3	-1.0903534
176	0xbe2e2e2c	-0.170098
177	0x3f30518f	0.6887445
178	0xbfbbf760	-1.4684868
179	0xbf757ab9	-0.95890385
180	0xbf21d319	-0.63212734
181	0x3fbe5e58	1.4872541
182	0x3fef5db9	1.8700477
183	0x3fcc2978	1.5950155
184	0x3fe11225	1.7583662
185	0xc036e957	-2.857992
186	0x4053d4fd	3.3098748
187	0x402198bf	2.524948
188	0x3ee5ecf0	0.4490733
189	0xc0368c82	-2.852326
190	0xbfc8498c	-1.5647445
191	0x4006c8aa	2.1059976
192	0xbfa34228	-1.2754564
193	0xbf1c4513	-0.610429
194	0x3f80e847	1.0070885
195	0x3f5b83e2	0.8574811
196	0x4008fe0f	2.1405065
197	0x402443f2	2.566647
198	0xc0182363	-2.3771598
199	0x3ee0ffc0	0.43945122
200	0xc06ba020	-3.6816483
201	0xbf82fd68	-1.0233583
202	0xbff6d865	-1.9284788
203	0xbcad2078	-0.021133646
204	0x4007de19	2.1229308
205	0xbff77e43	-1.9335407
206	0xbf6500a1	-0.89454085
207	0x404a0ec5	3.1571515
208	0xbed647ce	-0.41851658
209	0x3e9de00c	0.30834997
210	0xbf125659	-0.57163006
211	0xc037142d	-2.8606064
212	0x3eab3245	0.3343679
213	0xbfb3a5ed	-1.4035012
214	0xbfa32e5e	-1.2748525
215	0xbf8fe40c	-1.1241469
216	0x40665151	3.5987132
217	0xbed1a5ba	-0.40946752
218	0x405b224d	3.4239686
219	0xbf266ab8	-0.6500659
220	0x40147821	2.319832
221	0xc038293c	-2.8775167
222	0x3f3994c1	0.72492605
223	0xc00b7980	-2.1792908
224	0xbf77ebc8	-0.9684415
225	0xc00d97c4	-2.212388
226	0xbfcd69a1	-1.604786
227	0x3f240dce	0.64083564
228	0xbf94542a	-1.1588185
229	0xbf3ea402	-0.74469006
230	0x3fd251ba	1.6431191
231	0x3fdab694	1.7086968
232	0xc000f9b0	-2.0152397
233	0xbf651d47	-0.894978
234	0x3fd2956b	1.6451849
235	0xbf61105b	-0.8791558
236	0x401c9598	2.4466305
237	0xbf8c9746	-1.0983665
238	0xbfc9fe8c	-1.5780807
239	0xbf66b5e1	-0.90121275
240	0xbf8da3f6	-1.1065662
241	0x3f5a5506	0.85285985
242	0xc04f7ea7	-3.2421052
243	0x4026e158	2.607504
244	0x3fdb72ca	1.7144406
245	0xc01284cc	-2.2893553
246	0xc02faa2f	-2.7447622
247	0xc02643ba	-2.5978837
248	0xbfc3c61d	-1.5294834
249	0xbf6bf87b	-0.92176026
250	0x40354c3e	2.8327785
251	0xbf803352	-1.0015662
252	0x3f35c6c7	0.71006435
253	0x3f85253e	1.040199
254	0x3fcaf3db	1.5855669
255	0x3fc57741	1.5427018

actor.0.weight f4 [256, 42]
0	0xbe88b953	-0.2670389
1	0xbc9146a5	-0.017733881
2	0xbf1c84a6	-0.61139905
3	0x3fa02cf2	1.2513716
4	0x3f0056d9	0.5013252
5	0xc05ca6bb	-3.4476764
6	0xbf87cb36	-1.060889
7	0xbe56f24b	-0.20990865
8	0x3f4c7c6c	0.7987735
9	0xbb985ba9	-0.0046495986
10	0x403c5a44	2.9430094
11	0x3f8afc86	1.0858314
12	0x3ced085f	0.028934656
13	0x3e5cc0eb	0.21557967
14	0xbd8838b1	-0.06651438
15	0x3f8ed33c	1.1158214
16	0x3f2ceb56	0.67546594
17	0x3e255c28	0.16148436
18	0xbdbe7b9c	-0.0930092
19	0x3e0e11d9	0.13873996
20	0xc0503048	-3.2529469
21	0xbfd97888	-1.6989908
22	0x3e71813d	0.23584457
23	0x3f8d66bb	1.1046976
24	0xbf555c02	-0.8334352
25	0xbf32a387	-0.6978077
26	0xbf293d38	-0.6610904
27	0x3e80db0b	0.25167117
28	0xbe85f0ca	-0.2616027
29	0x3f9da339	1.2315437
30	0x3f737946	0.95106924
31	0x3fe08aed	1.7542397
32	0xbe018bb1	-0.12650944
33	0xbdb42ae1	-0.08797241
34	0xbd46a7a0	-0.048499703
35	0xbc881c70	-0.016615123
36	0x3ddf4bb7	0.10903113
37	0x3e515ff1	0.20446755
38	0xbf2fe073	-0.6870186
39	0xbf064694	-0.52451444
40	0xbfadd427	-1.3580369
41	0x3fddacf7	1.731841
42	0x3d3617ce	0.044456296
43	0x3f09dc8d	0.5385216
44	0x3ea09f2a	0.31371433
45	0xbfb2721c	-1.3941073
46	0x3f10aed0	0.5651674
47	0xbc28d900	-0.010305643
48	0xbea98299	-0.3310745
49	0x3d195dfc	0.037443146
50	0xbf65286e	-0.89514816
51	0xbe670313	-0.22559766
52	0x40278aee	2.6178546
53	0x3f30c8ea	0.6905657
54	0x3cbe02d9	0.023194717
55	0xbdfd3b27	-0.12364798
56	0x3f2142cd	0.62992555
57	0x3ea3d7c9	0.32000569
58	0x3ea2a063	0.3176299
59	0xbd895d12	-0.06707205
60	0x3e4f54b8	0.20247161
61	0x3ec3494a	0.38141853
62	0xbed9cd05	-0.4253923
63	0xbf99b22d	-1.20075
64	0x3e28f01f	0.16497849
65	0xbf95140d	-1.1646744
66	0xbf1b4ac2	-0.60660946
67	0x3c87571e	0.016521033
68	0xbf29bb73	-0.6630165
69	0x3e753b2b	0.23948352
70	0xbe085ee0	-0.13317442
71	0xbf3c0383	-0.7344286
72	0xbf4f8e8e	-0.81076896
73	0xbf7f196c	-0.99648166
74	0x3de8f4bd	0.11374805
75	0xbe084daf	-0.13310884
76	0xbd25ea63	-0.04050673
77	0x3e1252e3	0.14289431
78	0x3e70f8b1	0.23532368
79	0xbd8b6734	-0.06806794
80	0x3fe56e1a	1.7924225
81	0x3ec698fb	0.3878859
82	0xbeb65a55	-0.35615793
83	0x3eb4983f	0.35272405
84	0xbf251284	-0.6448138
85	0xbfff53e5	-1.9947478
86	0x3f240a14	0.6407788
87	0x3ef92f03	0.4866868
88	0xbe77f6f2	-0.24215296
89	0x3ee16fb9	0.4403055
90	0x3ea67356	0.3250987
91	0x3db79d83	0.0896559
92	0x3f4cc2ff	0.7998504
93	0xbf192944	-0.5982859
94	0x3ca02b21	0.019551815
95	0x3ebb3136	0.36560982
96	0x3e951f69	0.29125527
97	0x3df0f742	0.11765911
98	0x3eed005a	0.4628933
99	0x3f08451b	0.53230447
100	0x3f00bb38	0.50285673
101	0x3e1b6a74	0.15177327
102	0xbe7ce725	-0.2469755
103	0xbf7a5c4b	-0.9779708
104	0xbff1ddb8	-1.8895788
105	0xbffd0f64	-1.9770322
106	0xbdc69107	-0.096956305
107	0x3e0f473c	0.13992018
108	0xbf552dad	-0.8327282
109	0x3f66990e	0.9007729
110	0x405e59e3	3.4742362
111	0xbf4d79a3	-0.8026373
112	0xbd1de15e	-0.038545005
113	0x3f491118	0.7854171
114	0x3da883e4	0.08228281
115	0x3d94def1	0.07269085
116	0xbdac57fa	-0.08415218
117	0x3f478bf7	0.77947944
118	0xbf4921e2	-0.78567326
119	0xbe1745fe	-0.14772794
120	0x3d8b4bdf	0.06801581
121	0x3cf659c5	0.030072102
122	0x3dcfb433	0.10141792
123	0x3e81c762	0.2534743
124	0xbd90eceb	-0.070764385
125	0xbeb6a6cb	-0.35674128
126	0xbf1bf358	-0.6091819
127	0xc00ba638	-2.1820202
128	0x3ecef589	0.40421703
129	0x3e71420b	0.2356035
130	0xbfaf2532	-1.3683226
131	0xbf847139	-1.0347053
132	0xbda45ff3	-0.08026113
133	0x3e8f1ecf	0.27953193
134	0x3f028fc0	0.51000595
135	0xbea549d4	-0.3228289
136	0xbfd65fce	-1.6747987
137	0xbf4f1d04	-0.8090365
138	0x3db6d49d	0.089272715
139	0x3d6d577e	0.057944767
140	0x3dac755c	0.08420822
141	0xbbac4cc7	-0.005258176
142	0xbd627904	-0.05529119
143	0x3dbddc5d	0.092705466
144	0xbe8b95e5	-0.27262798
145	0xbe5e5367	-0.21711503
146	0x3f97dcba	1.1864235
147	0x3f6c7d31	0.92378527
148	0xbdf8c742	-0.121473804
149	0x3edbb01c	0.42907798
150	0xbf2337e2	-0.63757145
151	0x3edac062	0.427249
152	0x3fa64d4f	1.2992343
153	0xbf297e09	-0.6620794
154	0x3d85a786	0.06526093
155	0x40341f5d	2.8144143
156	0xbc8b36c1	-0.016993882
157	0x3effd741	0.49968913
158	0xbd884956	-0.06654613
159	0x3f1af7e6	0.60534513
160	0x3c1f8746	0.009736842
161	0xbda52a52	-0.080647126
162	0xbdeb0387	-0.11475282
163	0x3dc81b7a	0.09770866
164	0xbf19ef34	-0.6013062
165	0x3e395c1f	0.18101548
166	0x3ecca872	0.39972264
167	0xbc5b0b77	-0.013369433
168	0xbf679d09	-0.9047399
169	0xbe801025	-0.25012317
170	0xbed49800	-0.41522217
171	0xbeb9aa1b	-0.36262593
172	0xbd57c046	-0.0526736
173	0xbf379d64	-0.71724534
174	0x3e2c4e99	0.16826858
175	0xbf1dab6c	-0.61589694
176	0xbe800a41	-0.25007823
177	0x3e7d6911	0.24747111
178	0x3f470b52	0.7775165
179	0x3f6ac521	0.91707045
180	0xbf280565	-0.6563323
181	0xbefba98d	-0.49152794
182	0xbe878ab1	-0.26473
183	0xbf5d8f9a	-0.86547244
184	0x3edf7c7a	0.43649656
185	0xbf0f44a4	-0.5596411
186	0xbf292e7d	-0.6608656
187	0xbe9352f4	-0.28774226
188	0xbe13bc37	-0.14427267
189	0x3f9aa083	1.2080234
190	0xbef57550	-0.47941065
191	0xbe72ccfe	-0.23711011
192	0x3e34a270	0.1764009
193	0xbecb5f45	-0.39721122
194	0x3e317e5f	0.17333363
195	0xbf43019e	-0.7617434
196	0x3ed9c2f0	0.42531538
197	0xbf0e8978	-0.5567851
198	0xbede2f94	-0.43395674
199	0x3f83bea4	1.0292554
200	0xbf4ba05e	-0.79541576
201	0x3f2ff75b	0.6873681
202	0x3de81909	0.113329
203	0xbdf5a77b	-0.11994835
204	0xbf19253c	-0.5982244
205	0xbf1a98b6	-0.6038927
206	0xbe2018fc	-0.15634531
207	0xbf160498	-0.5860076
208	0x3e747837	0.23873983
209	0x3f1d7f73	0.615226
210	0xbf41549d	-0.75519735
211	0xbf6e2a96	-0.9303373
212	0x3e7ccd44	0.24687678
213	0x3eabfc53	0.33590946
214	0x3dd89f60	0.10577273
215	0x3eb5b57b	0.3549002
216	0x3f026e77	0.50949806
217	0x3d3a9c08	0.04555896
218	0x3e0e8a58	0.13919961
219	0xbe4469f4	-0.19181043
220	0x3d9f4967	0.07777672
221	0x3ea4bb7a	0.32174283
222	0xbdd488e6	-0.10377674
223	0xbe68d746	-0.2273837
224	0x3e791861	0.24325706
225	0x3f7c539e	0.9856509
226	0x3f5716b6	0.8401903
227	0x3dd03e2a	0.10168107
228	0xbeb139c1	-0.34614375
229	0x3e2aa792	0.16665486
230	0xbf1c8f89	-0.6115652
231	0xbf17ba9d	-0.59269124
232	0xbe116ea9	-0.1420237
233	0x3ea614f0	0.3243785
234	0x3ee53d20	0.44773197
235	0xbe971fa6	-0.29516333
236	0x3e223dd2	0.15843895
237	0xbea02dfe	-0.3128509
238	0x3c3ac1a4	0.011398707
239	0xbf5197dd	-0.8187235
240	0xbdbb1d77	-0.09136479
241	0x3f8f42f4	1.1192307
242	0xbe89dd30	-0.26926565
243	0x3eac9bc7	0.337126
244	0xbe8de7a0	-0.27715778
245	0xbde26900	-0.110551834
246	0xbe6b2c71	-0.22966172
247	0xbde64e20	-0.1124537
248	0x3ec3b94e	0.38227314
249	0xbf1d709d	-0.6149996
250	0x3fd6b175	1.6772906
251	0x3f3e74c7	0.7439694
252	0xbe907db5	-0.28220907
253	0xbfc85b3e	-1.5652845
254	0x3e48cf8d	0.19610424
255	0x3f3b8950	0.732564

actor.0.bias f4 [256]
0	0xbd8debfc	-0.06929776
1	0x3d168b20	0.036753774
2	0x3cf70658	0.030154392
3	0xbdb28ed8	-0.087186515
4	0xbf44a8f8	-0.76820326
5	0xbe20ab1e	-0.15690276
6	0xbd96c49a	-0.073617175
7	0xbd0da41d	-0.03458034
8	0xbe56d75c	-0.2098059
9	0x3e8e3336	0.27773446
10	0x3dae8be8	0.08522779
11	0xbe7b9eea	-0.2457234
12	0x3f066d43	0.5251047
13	0x3d4fb28f	0.050707396
14	0x3ec2d279	0.38051203
15	0x3e057d4a	0.13036075
16	0xbd9a9cb0	-0.07549417
17	0x3e4cf468	0.20015109
18	0x3d721b92	0.059108324
19	0xbeade9f2	-0.3396755
20	0x3ebf2fc5	0.37341133
21	0x3e5a0b96	0.21293482
22	0x3ceb9120	0.028755724
23	0xbe2b7702	-0.16744617
24	0x3ddda2a6	0.10822038
25	0xbe6b525c	-0.22980636
26	0xbd0e26a3	-0.034704816
27	0x3ea7a981	0.3274651
28	0x3cf9d561	0.030497255
29	0x3cf50fec	0.029914819
30	0xbe76338a	-0.24043098
31	0x3a9bbf8c	0.0011882647
32	0x3da254e4	0.07926348
33	0xbf00b0bb	-0.5026967
34	0x3d9a3f4f	0.075316064
35	0x3e7d8e60	0.24761343
36	0x3e3ad915	0.18246873
37	0x3e02b6e5	0.12765081
38	0xbcaba2a7	-0.020951582
39	0x3ef3c741	0.47612956
40	0x3ccd41c1	0.025055768
41	0x3a3e5ae2	0.00072614674
42	0xbe64416d	-0.22290583
43	0x3d390a5e	0.045175903
44	0xbcab79c4	-0.020932086
45	0xbccb0091	-0.024780544
46	0x3d185e95	0.037199575
47	0x3e6a7353	0.22895555
48	0xbd366fad	-0.044540096
49	0xbef3776e	-0.47552055
50	0xbf006329	-0.50151306
51	0x3cbbe991	0.022938522
52	0xbef0e6bd	-0.4705104
53	0xbdba53f7	-0.09098046
54	0x3dd07fdc	0.10180637
55	0x3e5561ad	0.20838042
56	0xbe4ab4b3	-0.19795494
57	0x3ed3dc9e	0.41379255
58	0x3c820316	0.015870612
59	0x3cc8eb6d	0.024526322
60	0x3e809a3d	0.25117674
61	0xbcc04362	-0.02346963
62	0x3e105048	0.14093125
63	0x3bdc637f	0.006725728
64	0xbd69d5a3	-0.057088505
65	0x3e2e97d1	0.17050101
66	0xbb6e125a	-0.0036326856
67	0xbd3e50c6	-0.04646375
68	0x3c007f2e	0.007842822
69	0x3cf980dc	0.030456953
70	0x3f0430cf	0.51636976
71	0xbcbedb7d	-0.02329802
72	0xbecafc08	-0.3964541
73	0xbdbebf03	-0.09313776
74	0xbef34e76	-0.47520798
75	0xbe87510c	-0.2642902
76	0xbe7512c8	-0.23932946
77	0xbd2037e6	-0.03911581
78	0xbcaa43c3	-0.020784264
79	0x3da66bb3	0.08126011
80	0x3d230298	0.039797395
81	0xbe37fff2	-0.17968729
82	0x3e316acc	0.17325896
83	0x3e6b0c30	0.22953868
84	0x3e043ec9	0.12914576
85	0xbde91fbb	-0.11383005
86	0xbe60f90a	-0.21970001
87	0xbe212354	-0.15736133
88	0x3ea542fe	0.32277673
89	0xbd800d00	-0.062524796
90	0x3e5fdaef	0.2186086
91	0xbecb8a7d	-0.39754096
92	0xbe305266	-0.17218933
93	0xbb304f4f	-0.002690274
94	0xbd72d0b9	-0.059281085
95	0xbd66f877	-0.0563893
96	0x3e571142	0.21002677
97	0x3e1de3cb	0.15418927
98	0xbdb4fa58	-0.08836812
99	0x3ef1ec24	0.47250473
100	0x3eb321de	0.34986776
101	0x3dc8855e	0.09791063
102	0xbe29e0b9	-0.16589631
103	0x3e15fd6b	0.14647453
104	0xbe01f81b	-0.12692301
105	0xbde958d3	-0.11393895
106	0x3c828d77	0.015936596
107	0xbe1bc8d5	-0.1521333
108	0xbeea4b36	-0.45760506
109	0xbdae1da6	-0.08501749
110	0xbe6eba26	-0.23313197
111	0xbe0c9132	-0.13727263
112	0xbdc50a64	-0.096211225
113	0x3e6f44a7	0.23366033
114	0xbef9b6a8	-0.48772168
115	0x3e08086c	0.13284463
116	0x3e09d911	0.1346171
117	0xbcf461f2	-0.02983186
118	0xbe2cf7e1	-0.16891433
119	0x3db8e427	0.090278916
120	0x3e6b32e2	0.22968629
121	0x3e9d8405	0.30764785
122	0x3e121876	0.14267144
123	0xbf4720f4	-0.7778466
124	0x3de17ed1	0.110105164
125	0xbcb4a52c	-0.022051416
126	0x3e1c82f7	0.15284334
127	0xbe7dc50e	-0.24782202
128	0x3e40627c	0.18787569
129	0xbba52f18	-0.0050410144
130	0x3e48d0f5	0.19610961
131	0xbacab550	-0.0015465412
132	0xbe62b1fe	-0.22138211
133	0x3e145c69	0.14488377
134	0x3e52fab3	0.20603447
135	0x3d9ea6b4	0.0774664
136	0xbda60b0c	-0.08107576
137	0x3dfe1386	0.124060676
138	0xbe16a9dd	-0.14713235
139	0x3e359971	0.17734315
140	0xbe7010ce	-0.2344391
141	0xbe9835f0	-0.2972865
142	0xbe819bd1	-0.2531419
143	0x3de14ad6	0.11000602
144	0xbd45f3db	-0.04832826
145	0x3d02d21d	0.03193866
146	0xbe02254d	-0.12709542
147	0xbd9cb224	-0.07651165
148	0x3c1a2226	0.009407556
149	0x3e8901e8	0.26759267
150	0xbd744e53	-0.05964501
151	0x3d019b43	0.03164221
152	0x3dcc9785	0.099898376
153	0xbe8d5fdb	-0.27612194
154	0x3e0c9b96	0.13731226
155	0x3da2974d	0.079390146
156	0x3e2a6e78	0.16643703
157	0xbd7f59b6	-0.062341414
158	0x3dc8efc5	0.098113574
159	0x3d35e609	0.04440883
160	0xbdf47ffb	-0.11938473
161	0x3c723ab6	0.014784506
162	0x3ab029a7	0.0013440148
163	0xbcc97848	-0.024593487
164	0x3d513618	0.05107698
165	0xbd5ab774	-0.05339761
166	0x394dce50	0.00019627181
167	0x3e7139c7	0.23557197
168	0x3e30da14	0.1727069
169	0xbdf64751	-0.12025321
170	0x3e169b2c	0.14707631
171	0xbda42106	-0.08014111
172	0xbde0542b	-0.10953554
173	0xbe53f646	-0.20699415
174	0x3de03d89	0.10949237
175	0xbec1a051	-0.37817624
176	0x3dd5dac1	0.104421146
177	0xbc8ff488	-0.017572656
178	0xbe088f0f	-0.13335823
179	0x3dc9000a	0.098144606
180	0xbd9fd95f	-0.07805132
181	0x3d006761	0.03134859
182	0xbe3412fb	-0.17585365
183	0x3f0fa7c0	0.5611534
184	0x3dfda578	0.12385076
185	0x3e3b6ae3	0.18302493
186	0xbe055b4a	-0.13023105
187	0xbe4f4d6e	-0.20244381
188	0x3d216acc	0.03940849
189	0xbdf7331d	-0.12070296
190	0xbe191f85	-0.1495343
191	0xbe4cb171	-0.19989564
192	0xbeae39b1	-0.3402839
193	0xbd8cf682	-0.06882955
194	0x3da27157	0.07931774
195	0xbcee92dc	-0.029122762
196	0xbd148fc2	-0.03626991
197	0xbce72db9	-0.028220044
198	0xbce727c8	-0.028217211
199	0x3eb5a1f1	0.35475114
200	0xbd8b1e8d	-0.067929365
201	0xbe37afc8	-0.17938149
202	0x3e72ecdc	0.23723167
203	0x3e87a84f	0.26495597
204	0xbd5c0825	-0.053718705
205	0x3e4cd516	0.20003161
206	0x3e393929	0.18088211
207	0x3dd066a9	0.10175831
208	0xbc709821	-0.014684708
209	0x3d17a346	0.037020944
210	0x3d967c95	0.07347981
211	0x3d9cfd76	0.07665531
212	0x3e1f1174	0.15534002
213	0xbe3959c9	-0.18100657
214	0xbe002a70	-0.12516189
215	0x3ee75b21	0.45186713
216	0x3dbe86f4	0.09303084
217	0xbd1fda1d	-0.03902637
218	0xbe133b32	-0.1437805
219	0x3e0b887a	0.1362628
220	0xba6f81ec	-0.00091364863
221	0x3dcec8bd	0.100968815
222	0xbbad941f	-0.0052971984
223	0xbe0d7c57	-0.13816963
224	0x3d412cd6	0.0471619
225	0xbdf33e61	-0.11877132
226	0xbdc82120	-0.09771943
227	0xbdd06da6	-0.10177164
228	0xbe315237	-0.17316519
229	0x3d2d40e0	0.042298198
230	0x3d00fa34	0.031488612
231	0xbe2122cd	-0.15735932
232	0xbd91da0f	-0.071216695
233	0xbd35cc54	-0.044384316
234	0x3d06aca0	0.03287947
235	0xbd2f4ef6	-0.042799912
236	0xbd9aecf3	-0.07564726
237	0xbf1153a7	-0.5676827
238	0x3da6cd75	0.081446566
239	0xbe9498a3	-0.29022703
240	0xbeac3708	-0.33635736
241	0xbd9acaef	-0.07558238
242	0x3ed84588	0.42240548
243	0xbe2c2614	-0.168114
244	0x3dda29cf	0.106525056
245	0x3cd7fd9c	0.026366048
246	0x3e9c0f81	0.3048058
247	0x3d2714b2	0.04079122
248	0x3d9bb100	0.076021194
249	0x3ea236eb	0.31682524
250	0xbde364cb	-0.11103209
251	0xbd29d3a7	-0.041461613
252	0x3e879b40	0.26485634
253	0x3ee8e90a	0.45490295
254	0xbd2db924	-0.042412892
255	0xbf0171a6	-0.5056404
