models/ho_policy_ep1000.pth (torch, 628226 bytes, 11 tensors)

critic.0.weight f4 [256, 42]
-0.061584655 -0.11775704 0.39717528 0.32483566 0.21579686 -0.30247602 0.18338236 -0.34645656
0.9096697 0.59010357 -0.21076469 -0.12168658 0.008688602 0.14095673 -0.57655925 0.43162447
0.45119154 0.24283993 -0.30221552 -0.7261668 -0.1536345 -0.020826979 0.41375917 -0.17253362
-1.5606622 -0.43205377 -0.10836986 -1.2679155 -0.32291245 -1.0473542 0.22571701 0.61557025
-0.76304674 1.5944093 -0.5351694 -0.12228267 -0.10964981 -0.06642692 -0.3243655 -0.5019112
-0.7824979 0.5177215 -0.48362848 -0.90405357 -0.8305293 -0.12982333 0.026661877 -0.4203609
0.11655303 -0.45172706 -1.0855162 0.047218364 -0.5239479 0.26654884 -0.46225712 0.26532757
0.29998103 -0.70116365 -0.059462994 -0.13023385 0.30138332 -0.752604 -0.4296113 0.13176197
0.6387754 -0.05666267 -0.0012973547 -0.06934539 0.45679113 0.90742326 -0.27357802 -0.7901034
-0.15365338 -0.07800219 -0.29868543 -0.69257593 -0.21692358 0.016895607 -0.04560408 0.30029163
0.7130808 -0.9203181 -1.2470975 0.8228268 -0.12864506 -0.426615 -0.4455263 0.2737854
0.33171436 -0.83033645 -0.054572467 -0.3929933 1.2452832 -0.4287718 -0.03368609 0.23937333
-0.089070685 0.43086404 0.42190027 -0.09554947 0.21478781 0.46189862 0.08306586 -0.4000764
0.18568666 0.11803627 0.64872915 -0.27037978 -0.37022966 -0.100542784 0.2624474 -0.5534062
-0.78455377 -1.3259958 -0.10848138 0.029452858 -0.89169663 0.47668508 -0.57637584 -0.0090198815
-0.032298736 0.027718483 -0.28343695 -0.05830807 -0.067407794 -0.10013975 0.3080926 0.28173724
0.76873213 -0.6784324 0.019536898 0.35371837 0.16936895 0.22062434 0.59820664 -0.24805729
0.25010827 -0.1476458 0.32150477 -0.17261936 0.81746304 0.059815586 0.16662452 0.25086576
-0.31969616 -0.43761468 0.37759352 -0.09892316 0.067531 -0.56739914 -0.42319217 -0.16955546
-0.16826512 -1.4771612 0.013644131 0.13692868 0.133967 -0.105858594 -0.09060661 1.6174865
0.578173 0.09538375 -0.21251789 -0.00955284 -0.108517915 -0.24983373 0.9914181 -0.38645577
-0.06324435 -0.035373967 -0.09062014 0.9698078 0.21319336 -0.113276124 -0.02901053 -0.36914346
0.74070096 -0.050108418 0.1303696 0.1134263 -0.012574924 0.26772514 -0.30897522 0.09687375
-0.04338141 0.43708915 0.1274888 -0.3718702 -0.21327928 0.116990365 0.9887847 0.3520541
-0.15569127 0.19166903 0.12620036 -0.2548183 -0.89578605 -0.32299855 0.18479688 -0.05657307
-0.9035258 0.197938 -0.059654262 0.09760021 0.07884297 -0.05645674 -0.18821548 0.18224408
-0.95163035 0.35026237 0.28816313 -0.27327785 1.0424534 0.18774669 -0.06582915 -0.7649664
-0.19472918 0.39303526 2.1622767 -0.39169055 -0.39960966 -0.5391476 0.66279715 0.1560633
-0.3133017 0.16751267 -0.23804317 0.2742507 -0.066515766 -0.030974561 -0.5521016 -0.24248931
-0.22932026 0.65978247 1.5255563 0.24249917 0.503739 -0.54525864 0.08034672 -0.9651897
-0.56064534 -1.135411 0.14180619 0.4408246 0.39569083 0.10600202 0.060867507 -0.72330976
0.26319033 0.47720096 1.5496714 -0.5751107 -0.46607077 -0.41645184 -0.3314036 0.0017540333
00000000: 3140 7cbd 9a2a f1bd 8f5a cb3e dc50 a63e
00000010: daf9 5c3e 23de 9abe 96c8 3b3e c162 b1be
00000020: 1de0 683f 0711 173f b3d2 57be d036 f9bd
00000030: a35a 0e3c f656 103e 6399 13bf e2fd dc3e
00000040: 9402 e73e 08ab 783e febb 9abe 11e6 39bf
00000050: 5d52 1dbe 579d aabc 3ed8 d33e a7ac 30be
00000060: c7c3 c7bf 2736 ddbe 04f1 ddbd 0e4b a2bf
00000070: c854 a5be b40f 86bf 5c22 673e 0396 1d3f
00000080: 0857 43bf 9b15 cc3f dd00 09bf 566f fabd
00000090: 1490 e0bd d60a 88bd 3c13 a6be 417d 00bf
000000a0: c851 48bf 6589 043f 279e f7be 0e70 67bf
000000b0: 919d 54bf 68f0 04be 026a da3c 8b39 d7be
000000c0: 5bb3 ee3d c548 e7be 32f2 8abf 0b68 413d
000000d0: 7321 06bf 1779 883e f7ac ecbe 04d9 873e
000000e0: 1d97 993e 767f 33bf 788f 73bd 065c 05be
000000f0: ea4e 9a3e a8aa 40bf 03f6 dbbe 9cec 063e
00000100: c986 233f 1e17 68bd 000c aaba f504 8ebd
00000110: 87e0 e93e e44c 683f 6b12 8cbe 3744 4abf
00000120: 5057 1dbe 9dbf 9fbd 4ced 98be a84c 31bf
00000130: 3721 5ebe a868 8a3c 58cb 3abd d3bf 993e
00000140: 778c 363f f899 6bbf e4a0 9fbf c7a4 523f
00000150: 88bb 03be 486d dabe 061c e4be 9a2d 8c3e
00000160: 77d6 a93e ee90 54bf 6187 5fbd 6b36 c9be
00000170: 7165 9f3f fa87 dbbe 6dfa 09bd 481e 753e
00000180: b16a b6bd 369a dc3e 5003 d83e 71af c3bd
00000190: 56f1 5b3e fa7d ec3e 6f1e aa3d d0d6 ccbe
000001a0: a524 3e3e 00bd f13d 1d13 263f 386f 8abe
000001b0: be8e bdbe 60e9 cdbd 815f 863e 07ac 0dbf
000001c0: 84d8 48bf 3bba a9bf 7c2b debd 1f47 f13c
000001d0: 3b46 64bf 1110 f43e 5e8d 13bf 20c8 13bc
000001e0: ae4b 04bd df11 e33c a61e 91be 71d4 6ebd
000001f0: 190d 8abd 1216 cdbd 50be 9d3e dd3f 903e
00000200: a1cb 443f bfad 2dbf d80b a03c 931a b53e
00000210: 0e6f 2d3e 59eb 613e 1224 193f bb02 7ebe
00000220: 310e 803e 7630 17be 469c a43e 21c3 30be
00000230: 4245 513f 3001 753d 9e9f 2a3e 7a71 803e
00000240: 37af a3be 080f e0be f053 c13e 3a98 cabd
00000250: b14d 8a3d 1241 11bf a5ac d8be f29f 2dbe
00000260: b14d 2cbe 9e13 bdbf a28b 5f3c 0837 0c3e
00000270: a52e 093e 64cc d8bd f58f b9bd cc09 cf3f
00000280: 2503 143f 8e58 c33d 4a9e 59be 8483 1cbc
00000290: a43e debd 6ad4 7fbe 94cd 7d3f 88dd c5be
000002a0: 4186 81bd 4be4 10bd 0d97 b9bd 5345 783f
000002b0: 5c4f 5a3e 50fd e7bd 7ea7 edbc 5f00 bdbe
000002c0: 949e 3d3f 7c3e 4dbd 9c7f 053e 0c4c e83d
000002d0: 0e07 4ebc 4513 893e 0032 9ebe bf65 c63d
000002e0: b5b0 31bd 26ca df3e 6d8c 023e c565 bebe
000002f0: e265 5abe a598 ef3d fe20 7d3f 6f40 b43e
00000300: 886d 1fbe e344 443e ab3a 013e 8b77 82be
00000310: 3c52 65bf 1160 a5be 653b 3d3e 2ab9 67bd
00000320: 784d 67bf 42b0 4a3e 0758 74bd 9ee2 c73d
00000330: 6c78 a13d 2f3f 67bd 8fbb 40be 319e 3a3e
00000340: 0c9e 73bf 9755 b33e 1e8a 933e 13eb 8bbe
00000350: 1d6f 853f ab40 403e 6fd1 86bd d7d4 43bf
00000360: 1667 47be eb3b c93e be62 0a40 aa8b c8be
00000370: a399 ccbe 9405 0abf 13ad 293f 0fcf 1f3e
00000380: 1569 a0be 7188 2b3e 97c1 73be 966a 8c3e
00000390: 6b39 88bd 5dbe fdbc 8856 0dbf 1e4f 78be
000003a0: eed2 6abe 81e7 283f 6e45 c33f b451 783e
000003b0: 0af5 003f 1296 0bbf d28c a43d ac16 77bf
000003c0: 7486 0fbf 2655 91bf a435 113e c3b3 e13e
000003d0: fd97 ca3e 9617 d93d 3550 793d d42a 39bf
000003e0: e2c0 863e af53 f43e a25b c63f 743a 13bf
000003f0: d4a0 eebe 2d39 d5be bcad a9be 97e7 e53a

critic.0.bias f4 [256]
-0.25011036 -0.07233698 0.017988982 -0.019625477 -0.19086981 0.24827072 0.17612298 -0.17514274
-0.19087155 0.35172504 -0.1441599 -0.2533651 0.26268378 -0.04450959 0.107839294 -0.12938651
-0.23257914 -0.040122446 -0.13930795 -0.099629514 0.15965028 -0.119279586 0.09464277 -0.08697286
-0.0074503096 0.31012022 0.19966526 0.008510068 0.2943889 -0.14657834 -0.07982525 -0.029860264
0.08936288 0.04115818 -0.025676709 0.1882428 -0.051529694 0.049787678 0.31889138 -0.3372228
0.04601349 -0.014633481 0.19618954 -0.19562419 0.01110744 0.15715425 0.19040948 0.06151762
-0.14129096 0.25221255 0.30012405 0.02035564 0.14466953 -0.091448314 0.32941464 -0.20024422
0.018042073 0.00474464 -0.12916942 -0.3214831 0.21608825 -0.18425462 -0.263958 -0.14388503
-0.018784562 0.0881315 -0.03128139 0.05646287 0.14323948 0.2013805 -0.2990544 -0.3001737
-0.1082757 -0.078026995 -0.1648544 0.20007193 0.042057574 0.01262252 0.16324915 0.19582213
-0.10385827 0.2056259 -0.18215269 -0.025434738 -0.26961613 -0.0808985 -0.09744418 -0.20221859
-0.07614473 -0.054872677 0.16312219 0.03781067 -0.011431246 0.014638715 -0.05534139 -0.10171007
0.056496423 0.094617575 -0.10715647 0.07196053 0.18018611 -0.1345726 0.012407165 0.17393056
0.17949109 -0.21020208 -0.0022938105 -0.2207 0.036112305 -0.02792712 0.24558003 0.16083406
-0.37302002 -0.56614715 -0.09173812 -0.17571045 -0.041239846 0.1499677 0.040171813 0.041970693
-0.15106606 -0.19571519 -0.044239037 0.16560484 -0.10219195 0.3233003 0.09628194 -0.2019568
0.4341865 -0.3742869 -0.15331237 -0.22198915 -0.15031633 -0.03490076 -0.15588155 0.050320044
-0.010399294 -0.1749457 -0.17562513 0.045604475 0.121239685 -0.2358149 0.029457204 -0.22489397
0.045112543 0.049841356 0.28090698 0.16188742 0.053450048 0.0953782 0.16008756 0.0031086507
0.20246156 -0.28750026 0.13099402 -0.053569373 0.13293794 -0.2836302 0.04316252 -0.38583592
-0.09536817 0.10452505 0.07175771 0.04751078 -0.09372956 -0.12500334 0.009858754 -0.002651352
0.2722411 -0.15213971 -0.1245091 0.039694555 -0.2436916 -0.04039577 -0.09613818 -0.22669476
-0.00022566994 0.12149502 -0.11183243 0.18088312 -0.2668656 0.19854201 -0.2399729 -0.15837915
-0.307672 0.18626216 -0.2835547 0.030776085 0.122835115 -0.10098168 -0.08378753 -0.1336229
-0.073932655 0.27043015 0.13770895 -0.12989102 -0.00276091 -0.08064792 0.37637964 -0.18704371
-0.11140656 -0.04057341 -0.21638441 -0.0933288 0.29285657 -0.04291913 -0.12206473 0.0062116454
0.23470238 0.17251192 -0.108542435 0.26207364 0.24023509 0.23078991 0.2541301 -0.1453653
-0.1633022 -0.04793592 0.1600925 -0.111039236 -0.069718085 -0.067073315 -0.009043146 0.031899743
-0.2312574 -0.11863213 -0.30574432 0.18593718 -0.10323517 0.13430285 0.2773248 -0.23814565
-0.3952364 -0.17859602 -0.19415377 0.11974812 -0.099956244 -0.22889239 0.04901897 -0.12806192
0.23619436 0.27371114 0.26882473 -0.14009874 -0.1263145 -0.18657692 -0.35816398 0.17328122
0.14366388 -0.22740151 -0.068512656 -0.27182445 -0.1396447 -0.017834298 0.16517371 -0.008857443
00000000: 770e 80be 6925 94bd a15d 933c 9cc5 a0bc
00000010: 6073 43be ae3a 7e3e 9559 343e 9e58 33be
00000020: d573 43be 4e15 b43e a79e 13be 12b9 81be
00000030: 7d7e 863e b04f 36bd d9da dc3d e67d 04be
00000040: 3a29 6ebe 6f57 24bd bea6 0ebe 8f0a ccbd
00000050: 5d7b 233e db48 f4bd 12d4 c13d d41e b2bd
00000060: ba21 f4bb 14c8 9e3e 0d75 4c3e d06d 0b3c
00000070: 24ba 963e a218 16be 6c7b a3bd 839d f4bc
00000080: e303 b73d 7b95 283d f657 d2bc b8c2 403e
00000090: cd10 53bd 2aee 4b3d bb45 a33e 78a8 acbe
000000a0: a478 3c3d 45c1 6fbc e9e5 483e b551 48be
000000b0: fbfb 353c 0bed 203e b4fa 423e e6f9 7b3d
000000c0: 94ae 10be 0122 813e dca9 993e dfc0 a63c
000000d0: 4024 143e 4149 bbbd 09a9 a83e d20c 4dbe
000000e0: f8cc 933c ed78 9b3b fd44 04be 6f99 a4be
000000f0: 3d46 5d3e 3ead 3cbe 8125 87be 9956 13be
00000100: 15e2 99bc 4a7e b43d ea20 00bd 9c45 673d
00000110: 5fad 123e b136 4e3e a91d 99be 5eb0 99be
00000120: a6bf ddbd 9ecc 9fbd 98cf 28be a8df 4c3e
00000130: 9044 2c3d b0ce 4e3c c92a 273e 9985 483e
00000140: a5b3 d4bd 998f 523e 3c86 3abe 835c d0bc
00000150: 200b 8abe 1dae a5bd d090 c7bd 6412 4fbe
00000160: c5f1 9bbd 2cc2 60bd 8109 273e 5cdf 1a3d
00000170: 1f4a 3bbc 39d7 6f3c a7ad 62bd 5f4d d0bd
00000180: cb68 673d dcc6 c13d da74 dbbd 0b60 933d
00000190: b582 383e 66cd 09be 6c47 4b3c da1a 323e
000001a0: 83cc 373e 373f 57be c153 16bb 2eff 61be
000001b0: 7fea 133d 6ac7 e4bc 5579 7b3e afb1 243e
000001c0: 7bfc bebe 05ef 10bf 32e1 bbbd 71ed 33be
000001d0: 1deb 28bd 2291 193e 338b 243d 76e9 2b3d
000001e0: 10b1 1abe 9069 48be fe33 35bd 5194 293e
000001f0: 034a d1bd 9e87 a53e 772f c53d c3cd 4ebe
00000200: b14d de3e 88a2 bfbe ebfd 1cbe 2051 63be
00000210: 86ec 19be 19f4 0ebd 6a9f 1fbe 641c 4e3d
00000220: cd61 2abc f724 33be 13d7 33be c2cb 3a3d
00000230: 834c f83d 7679 71be 3c50 f13c 9b4a 66be
00000240: eec7 383d 7326 4c3d 0ad3 8f3e d1c5 253e
00000250: 70ee 5a3d a555 c33d feed 233e 81ba 4b3b
00000260: 1552 4f3e 3c33 93be 4c23 063e 8f6b 5bbd
00000270: e220 083e fa37 91be 2fcb 303d 498c c5be
00000280: 6350 c3bd 3b11 d63d b5f5 923d aa9a 423d
00000290: 49f5 bfbd e000 00be 9d86 213c 4ec2 2dbb
000002a0: 2f63 8b3e 83ca 1bbe a1fe febd c296 223d
000002b0: 4a8a 79be 0976 25bd 18e4 c4bd ac22 68be
000002c0: d0a1 6cb9 62d2 f83d 6708 e5bd 6d39 393e
000002d0: 9ca2 88be 994e 4b3e 75bb 75be 252e 22be
000002e0: 2f87 9dbe 82bb 3e3e 152e 91be 211e fc3c
000002f0: fa90 fb3d 7ccf cebd cc98 abbd 71d4 08be
00000300: 016a 97bd d275 8a3e 9303 0d3e 2702 05be
00000310: 62f0 34bb bd2a a5bd d5b4 c03e 6388 3fbe
00000320: 1f29 e4bd 4e30 26bd e093 5dbe 2b23 bfbd
00000330: 4cf1 953e f8cb 2fbd 13fd f9bd 0f8b cb3b
00000340: d255 703e f7a6 303e 7f4b debd 842e 863e
00000350: 3000 763e 3154 6c3e 571d 823e a4da 14be
00000360: b138 27be 7558 44bd 4aef 233e 8a68 e3bd
00000370: 5bc8 8ebd bc5d 89bd b429 14bc 4ea9 023d
00000380: bdce 6cbe 67f5 f2bd 858a 9cbe 5166 3e3e
00000390: f66c d3bd b086 093e 84fd 8d3e 74dc 73be
000003a0: 6d5c cabe e0e1 36be 3fd0 46be 813e f53d
000003b0: dcb5 ccbd c462 6abe 1ec8 483d aa22 03be
000003c0: efdc 713e de23 8c3e 65a3 893e 0b76 0fbe
000003d0: 9758 01be 050e 3fbe 4561 b7be a270 313e
000003e0: a01c 133e f1db 68be 5d50 8cbd 932c 8bbe
000003f0: 05ff 0ebe 3c19 92bc 4c23 293e cf1e 11bc

critic.2.weight f4 [256, 256]
0.47020802 -0.11481655 -0.14120352 -0.5632322 -0.09997291 0.46131253 0.69531924 0.2433844
-0.39782757 0.46314663 0.066702776 0.9414676 0.11483416 -0.7776993 0.07699956 -0.25145322
0.5256712 0.26082975 0.40528163 -0.90464723 -0.075217925 0.54651785 0.021244874 0.124973394
-0.44406053 0.51303464 -1.5759212 -0.6988305 -0.37872493 -0.08341914 1.4763783 -0.16872987
0.33920267 0.2880624 -0.17030947 0.60243773 0.81054294 -0.08294353 0.49491146 -0.6056094
-0.83168215 0.76097804 -0.34589645 -0.16988334 0.077721104 0.66368973 0.19969593 -0.6847578
0.31454128 0.12712443 0.3629373 -0.25128666 0.25529674 -0.035338115 -0.2111057 0.78027093
-0.6372473 0.22590183 0.61790997 0.046751067 0.56598794 -0.7699619 -0.03916333 0.9686215
-0.6683855 -0.20552157 0.23421256 -0.7454136 -0.7556201 -0.07243715 -0.09258395 0.12396506
-0.15490393 -0.66059566 0.23155412 0.42232224 0.07589328 -0.12812558 0.43562084 -0.6210932
-0.637985 0.11013621 -0.5965779 0.30683935 0.3955016 0.8675374 1.0904968 0.15811764
0.15383328 0.7776934 -0.8459918 0.23966703 0.010713757 0.12227731 -0.035710596 0.29185972
-0.30226544 0.43710238 0.3178112 -0.25944632 -0.1926804 0.4232147 0.94447017 -0.66554904
0.28545862 0.04785243 0.41181546 -0.006747515 0.49423236 0.7666363 0.4091152 -0.36043742
0.31947458 0.13612702 -0.7971093 0.0705672 -0.19056351 -0.91843784 0.19304414 1.2257048
0.5157509 -0.27256024 0.8451921 -0.26352608 0.06328033 -0.1661043 0.36372516 0.7691013
-0.25419784 -0.2880805 -0.030120773 -0.45892483 1.4021498 0.3112983 -0.31578842 -0.7165708
-0.80714774 -0.23617017 0.7485668 0.021396605 0.30820054 -0.2551373 0.2443754 -0.23664212
1.1009673 -0.42647305 0.91664296 0.18889903 0.95019615 0.3460969 0.70043194 -1.5818005
0.22499214 0.57452655 0.5069835 0.8217286 0.02533217 0.14169925 1.1917049 1.0275998
-0.0074440003 0.40432638 0.1634606 -0.07872497 -0.18887775 0.38715574 0.8645821 0.36363077
0.7640719 0.15875119 -0.0531041 0.5552093 0.20465069 -0.034002785 0.020818744 -0.89869136
-0.6172466 -0.13294268 -0.84025455 0.13295826 0.6303942 -0.37695625 0.57345825 -0.612334
0.9039178 0.3566032 -0.87363863 -0.049842175 0.06231038 -1.3285066 0.17309317 -0.08933115
-0.36534378 0.24778503 -0.276603 -0.46851182 0.41986072 -0.06852293 0.14155892 1.0866631
-0.8728451 0.13382316 -0.41372734 -0.02068845 -0.39244804 -0.5887527 -0.17176509 0.08992939
0.4147698 -0.047996208 0.010208985 -0.2098478 -0.049720827 -0.26343122 -0.013062627 0.084658474
1.3498243 -0.08787436 0.26684836 -0.6288532 0.9434278 -0.042422164 -0.20354937 0.3456536
0.12626597 -0.5043562 -0.7298949 0.21998845 -0.42033744 -0.88346547 0.7404698 0.34020686
0.7510348 0.39574507 -0.20792678 -0.5491787 -0.9580397 0.5781295 -0.9054418 0.8555358
-0.6106537 -0.53013617 0.3551805 0.2493063 -0.5001705 0.30474412 -0.31184402 1.205404
-0.36686423 1.105228 0.166694 -0.06786769 -1.0836815 -0.551806 -0.026440328 0.6666438
00000000: 1bbf f03e f024 ebbd a897 10be fc2f 10bf
00000010: 99be ccbd 2831 ec3e 7100 323f c339 793e
00000020: 0eb0 cbbe 8e21 ed3e 779b 883d 0504 713f
00000030: 2c2e eb3d 4d17 47bf f2b1 9d3d 7abe 80be
00000040: 6392 063f 7a8b 853e 1381 cf3e f696 67bf
00000050: db0b 9abd 98e8 0b3f bb09 ae3c 0df2 ff3d
00000060: e75b e3be 3d56 033f c9b7 c9bf 8ee6 32bf
00000070: 3ce8 c1be a7d7 aabd f7f9 bc3f 86c7 2cbe
00000080: f9ab ad3e ea7c 933e 9b65 2ebe 5c39 1a3f
00000090: be7f 4f3f 4cde a9bd 0965 fd3e 3809 1bbf
000000a0: 1fe9 54bf 75cf 423f 5719 b1be e6f5 2dbe
000000b0: 3e2c 9f3d 92e7 293f 177d 4c3e 4a4c 2fbf
000000c0: 8e0b a13e e82c 023e ebd2 b93e a5a8 80be
000000d0: 41b6 823e b3be 10bd 182c 58be d6bf 473f
000000e0: a422 23bf cf52 673e 592f 1e3f 0c7e 3f3d
000000f0: 96e4 103f 391c 45bf ba69 20bd 94f7 773f
00000100: 501b 2bbf 3f74 52be 6bd5 6f3e 6dd3 3ebf
00000110: 5270 41bf ee59 94bd a79c bdbd 65e1 fd3d
00000120: 239f 1ebe cc1c 29bf 861c 6d3e 9f3a d83e
00000130: f06d 9b3d 5a33 03be b209 df3e f7ff 1ebf
00000140: fc52 23bf 188f e13d 54b9 18bf 0c1a 9d3e
00000150: 307f ca3e ee16 5e3f 6695 8b3f 97e9 213e
00000160: 7986 1d3e ea16 473f eb92 58bf 466b 753e
00000170: c188 2f3c 876c fa3d 4645 12bd a36e 953e
00000180: 89c2 9abe e2cb df3e 26b8 a23e 26d6 84be
00000190: 034e 45be 99af d83e ccc8 713f 6c61 2abf
000001a0: a227 923e e900 443d 7ad9 d23e 421a ddbb
000001b0: 060c fd3e 4742 443f 8c77 d13e 418b b8be
000001c0: 2c92 a33e e264 0b3e 5b0f 4cbf 8985 903d
000001d0: 1523 43be be1e 6bbf 5dad 453e e5e3 9c3f
000001e0: 4008 043f 048d 8bbe 825e 583f e4ec 86be
000001f0: 1e99 813d 3f17 2abe 2f3a ba3e d3e3 443f
00000200: 3826 82be 4a7f 93be d7bf f6bc 32f8 eabe
00000210: a579 b33f 7e62 9f3e 05af a1be 2f71 37bf
00000220: 3ca1 4ebf 98d6 71be 13a2 3f3f ef47 af3c
00000230: 76cc 9d3e 5ba1 82be 8b3d 7a3e 5052 72be
00000240: 7fec 8c3f ad5a dabe 1da9 6a3f bf6e 413e
00000250: 0e40 733f 9d33 b13e 824f 333f 7078 cabf
00000260: 5764 663e 2c14 133f acc9 013f ce5c 523f
00000270: 6985 cf3c 9c19 113e c989 983f 6488 833f
00000280: cdec f3bb de03 cf3e 3762 273e 8f3a a1bd
00000290: 2b69 41be 4739 c63e 4155 5d3f d02d ba3e
000002a0: 379a 433f ac8f 223e af83 59bd 3222 0e3f
000002b0: f38f 513e 8146 0bbd 128c aa3c a310 66bf
000002c0: e003 1ebf 2022 08be ec1a 57bf 3626 083e
000002d0: 8461 213f 6900 c1be 29ce 123f ecc1 1cbf
000002e0: 2867 673f b294 b63e c8a6 5fbf 4f27 4cbd
000002f0: 2b39 7f3d 810c aabf 563f 313e 40f3 b6bd
00000300: 570e bbbe 5cbb 7d3e e99e 8dbe c8e0 efbe
00000310: fcf7 d63e c055 8cbd d2f4 103e c717 8b3f
00000320: c772 5fbf f008 093e 12d4 d3be d37a a9bc
00000330: f3ee c8be 7fb8 16bf 30e3 2fbe e62c b83d
00000340: b55c d43e ac97 44bd 9643 273c 57e2 56be
00000350: 11a8 4bbd 75e0 86be a104 56bc 6c61 ad3d
00000360: 0bc7 ac3f 79f7 b3bd 59a0 883e 86fc 20bf
00000370: 7c84 713f ddc2 2dbd 3f6f 50be 82f9 b03e
00000380: de4b 013e 7d1d 01bf 64da 3abf a744 613e
00000390: 7836 d7be cb2a 62bf 6e8f 3d3f 982f ae3e
000003a0: d143 403f 199f ca3e c2ea 54be fa96 0cbf
000003b0: 1742 75bf 4b00 143f 09cb 67bf 6504 5b3f
000003c0: cd53 1cbf 01b7 07bf 38da b53e 274a 7f3e
000003d0: 2d0b 00bf 6c07 9c3e 05aa 9fbe ae4a 9a3f
000003e0: a1d5 bbbe 1c78 8d3f d5b1 2a3e 37fe 8abd
000003f0: 13b6 8abf 2843 0dbf 6399 d8bc 2ba9 2a3f

critic.2.bias f4 [256]
-0.04166182 -0.2793694 -0.05004436 0.01901769 0.19173269 0.11256124 0.18270342 0.04190254
-0.3422139 0.04710508 0.22387327 -0.3977261 0.48436916 0.52744114 -0.391453 -0.25859922
0.52916116 0.051000487 0.20671895 0.25144374 -0.11437475 0.219155 0.40340295 0.62142074
0.24758945 -0.04437239 0.24585065 0.24512842 -0.07351649 -0.7489457 -0.1615899 0.00246078
0.0042413212 -0.5699337 0.10964832 -0.42822507 0.003766642 0.03834031 -0.15177214 0.14990659
0.031449754 -0.25303486 -0.24679455 0.21233636 -0.6894087 -0.6191885 -0.10352389 -0.27082455
-0.029016651 0.14769214 -0.1304996 0.48961136 -0.7265105 -0.65493554 0.02477659 0.1679203
-0.001956866 -0.52587354 0.63594806 -0.031182623 0.8508826 -0.5958658 -0.0145564275 -0.09296875
0.40918174 0.07928871 -0.23450355 0.03601134 -0.34905437 0.037285056 -0.026884645 0.5270942
-0.117140986 -0.42747867 0.2600164 0.17966354 -0.3265914 0.08626629 -0.032968376 0.23648155
0.20864287 -0.1482925 0.7484201 -0.22344527 0.14077762 -0.07419409 0.03504988 -0.27617243
-0.043239266 -0.8170434 0.45135778 -0.51587546 0.30416343 0.39906213 0.7503389 0.30663618
-0.050983816 0.18152004 0.3689566 -0.05654083 0.33031267 -0.16957562 -0.18303949 0.06935221
-0.5441782 0.06232832 0.1127839 -0.0034884338 0.31880546 -0.09793456 0.35122034 -0.25579056
-0.49265903 -0.038397726 0.1717836 -0.28921226 0.56951433 0.24183907 0.008647323 0.3851031
0.7483775 -0.14473206 0.3237641 -0.20614322 0.32600847 -0.36623764 0.31470254 0.00063015404
0.22015959 0.23543015 0.23417735 -0.3310546 -0.61640847 0.3002892 0.18768772 0.10788387
0.41586503 -0.5085957 0.19866133 -0.062227134 -0.13220747 -0.314376 0.0090243695 -0.20239955
-0.30243844 0.16050708 0.70690835 0.4560392 0.63874143 0.3077042 -0.2780073 0.87012315
-0.44150224 0.33307984 0.11121835 -0.30565786 -0.3542207 0.15019405 -0.19537218 -0.54486984
0.07543928 -0.06027203 0.36486626 0.3791397 -0.61584485 -0.019477218 0.243285 -0.3526449
-0.049378425 -0.37750962 -0.613672 0.24505429 0.5896034 0.32647252 0.1780159 0.21710646
0.3403922 -0.2939009 -0.5558186 -0.37603235 0.084532596 -0.02868806 -0.28923163 -0.10020644
-0.24930696 -0.4496483 0.14396964 0.056668576 0.1848755 -0.20627204 0.13152564 0.7913889
-0.47565722 0.10837706 0.39755324 0.1841949 -0.06892604 0.24849582 -0.30652857 -5.9175567e-05
0.34459266 -0.07550039 -0.45941666 0.09347655 0.4948994 0.22755083 -0.07591079 0.22468077
-0.15652363 -0.38318464 0.24385242 -0.0108913835 0.11054358 0.088251665 -0.4091116 0.39131457
0.114659935 0.26472953 0.017922213 0.26006258 0.49526834 0.08624021 -0.05723273 -0.12352728
-0.55735457 0.1185876 0.12347746 0.14049329 0.12682438 -0.031477466 0.3575061 0.10459693
0.013633439 -0.1499126 0.20589176 0.13810644 0.037801057 0.08241122 -0.2315363 0.39882323
-0.084504545 0.056831367 -0.42445672 -0.18643789 -0.054304123 -0.37737805 -0.005706747 -0.3737766
-0.2214187 0.44273794 -0.047659 -0.5060322 0.24765563 0.04891244 -0.049055163 0.40142766
00000000: 96a5 2abd 8209 8fbe 51fb 4cbd fdca 9b3c
00000010: 9355 443e 8286 e63d 9b16 3b3e ffa1 2b3d
00000020: a936 afbe 42f1 403d 093f 653e c1a2 cbbe
00000030: 3cff f73e 6206 073f 876c c8be 1e67 84be
00000040: 1b77 073f e3e5 503d 22ae 533e 3cbd 803e
00000050: 4f3d eabd 2b6a 603e d58a ce3e 6e15 1f3f
00000060: 1788 7d3e d3bf 35bd 46c0 7b3e f202 7b3e
00000070: d08f 96bd e8ba 3fbf d377 25be 0a45 213b
00000080: c8fa 8a3b 2de7 11bf 4c8f e03d 5140 dbbe
00000090: c4d9 763b bb0a 1d3d 286a 1bbe 1d81 193e
000000a0: 75d1 003d c98d 81be b6b7 7cbe b46e 593e
000000b0: 177d 30bf 2383 1ebf 5504 d4bd 84a9 8abe
000000c0: 54b4 edbc 9c3c 173e b0a1 05be 57ae fa3e
000000d0: 98fc 39bf dba9 27bf 46f8 ca3c 4df3 2b3e
000000e0: c33e 00bb a69f 06bf 7ecd 223f b372 ffbc
000000f0: 71d3 593f a98a 18bf 157e 6ebc 6666 bebd
00000100: 4580 d13e 1f62 a23d b321 70be a080 133d
00000110: 41b7 b2be 37b8 183d 303d dcbc a5ef 063f
00000120: 9de7 efbd 7cde dabe df20 853e b8f9 373e
00000130: fd36 a7be 61ac b03d d909 07bd 3828 723e
00000140: 7aa6 553e fdd9 17be 7698 3f3f d6ce 64be
00000150: 0228 103e 12f3 97bd 7790 0f3d 7966 8dbe
00000160: a81b 31bd c229 51bf 5e18 e73e 6a10 04bf
00000170: 4fbb 9b3e df51 cc3e 3616 403f 6bff 9c3e
00000180: 68d4 50bd 64e0 393e e1e7 bc3e 5b97 67bd
00000190: be1e a93e 3ba5 2dbe b46e 3bbe 8808 8e3d
000001a0: 434f 0bbf fb4b 7f3d 3ffb e63d 359e 64bb
000001b0: 783a a33e ea91 c8bd 27d3 b33e fbf6 82be
000001c0: ce3d fcbe ef46 1dbd 0ae8 2f3e a113 94be
000001d0: b1cb 113f a9a4 773e 80ad 0d3c 3c2c c53e
000001e0: ab95 3f3f a434 14be 68c4 a53e 3517 53be
000001f0: 95ea a63e 8083 bbbe b120 a13e ec30 253a
00000200: 8471 613e 9a14 713e 30cc 6f3e fd7f a9be
00000210: f2cc 1dbf 82bf 993e 3631 403e 38f2 dc3d
00000220: 43ec d43e 5433 02bf e06d 4b3e e1e1 7ebd
00000230: 6561 07be e4f5 a0be f3da 133c d441 4fbe
00000240: 36d9 9abe f85b 243e f2f7 343f f87d e93e
00000250: 8f84 233f 688b 9d3e f956 8ebe 64c0 5e3f
00000260: 950c e2be 7189 aa3e 72c6 e33d 307f 9cbe
00000270: 6a5c b5be 78cc 193e a50f 48be 977c 0bbf
00000280: e97f 9a3d cedf 76bd c0cf ba3e 991e c23e
00000290: 02a8 1dbf b08e 9fbc b41f 793e df8d b4be
000002a0: 0841 4abd f148 c1be 9c19 1dbf 83ef 7a3e
000002b0: 40f0 163f 6827 a73e cd49 363e 2851 5e3e
000002c0: e347 ae3e 2e7a 96be 214a 0ebf 5087 c0be
000002d0: 6d1f ad3d 3903 ebbc 2b16 94be 0939 cdbd
000002e0: 534a 7fbe 4d38 e6be c76c 133e 4f1d 683d
000002f0: 0150 3d3e fa38 53be a8ae 063e 7798 4a3f
00000300: 5889 f3be cbf4 dd3d 198c cb3e 969d 3c3e
00000310: 1829 8dbd b075 7e3e 50f1 9cbe 4833 78b8
00000320: 736e b03e f39f 9abd a938 ebbe a270 bf3d
00000330: 7463 fd3e 1603 693e 1e77 9bbd b712 663e
00000340: bb47 20be c730 c4be 73b4 793e c671 32bc
00000350: ac64 e23d 4abd b43d 1377 d1be 625a c83e
00000360: d4d2 ea3d a18a 873e 9bd1 923c ec26 853e
00000370: d093 fd3e b59e b03d de6c 6abd dffb fcbd
00000380: caae 0ebf 0ede f23d c0e1 fc3d 79dd 0f3e
00000390: 40de 013e 84ee 00bd 0a0b b73e ea36 d63d
000003a0: ca5e 5f3c b082 19be 4ad5 523e c66b 0d3e
000003b0: 48d5 1a3d 37c7 a83d da17 6dbe 8f32 cc3e
000003c0: b810 adbd 02c8 683d 6452 d9be 93e9 3ebe
000003d0: 006e 5ebd b237 c1be aaff babb a65f bfbe
000003e0: 95bb 62be 8cae e23e 1536 43bd 548b 01bf
000003f0: 7099 7d3e 6958 483d 11ee 48bd ed87 cd3e

critic.4.weight f4 [1, 256]
-2.246862 -0.8520762 -2.1216571 0.416804 -1.0599189 -0.41637123 -1.1155865 -1.0236707
-0.59406775 1.3007476 -0.6289593 -1.1965983 -0.83364344 -0.5649367 2.155917 -1.025591
1.2894424 -0.68247825 0.64735615 -0.9094901 2.4820764 1.9359179 0.94779396 -0.74153066
2.477496 0.81721604 -0.7641637 1.7424498 0.29253298 -1.7771255 0.3739343 -0.4950889
0.830617 -2.247677 -0.90651435 0.744509 -2.987777 0.69183654 1.2332318 0.59910345
-2.451953 -0.846558 2.6438324 -0.43960434 0.07729583 0.6904733 -4.166684 3.7476497
0.9213587 -0.9624673 -0.65185165 2.7819061 -1.9747579 -0.97359544 -2.5378888 -0.4034848
-0.79885924 0.43649352 1.6059796 -0.97931325 0.20131919 -0.565542 -0.73394954 1.0113834
0.31346074 0.524502 -0.27735603 -0.4323061 -0.9831338 -1.359176 2.2179868 0.7260925
-1.8340303 1.9076662 2.846232 -1.7816135 -1.1614797 -0.5712264 1.7080765 0.6927156
-0.8194892 -1.2081215 0.82965344 -1.7927673 -1.5049268 -0.7099818 1.1110548 -0.6317816
-2.4080272 -1.3671336 1.072799 -0.6691276 0.90352094 1.4791858 3.2081835 1.8636582
-1.3462116 0.93621635 -1.1852067 -4.216518 -0.86917686 -2.8629005 -0.79692155 -0.8364802
-2.5706751 2.576604 1.0620118 3.0269022 1.551304 -0.99480593 -1.562881 -0.8994028
-1.6582255 -1.6634533 -0.21817277 -2.1310709 1.0354698 -2.2918622 -1.5096452 -1.2085032
2.6177485 2.0916016 1.1441612 -1.840677 -3.2984211 -1.4759915 2.6857994 3.4386406
2.9168282 1.677522 1.0431577 -1.9053763 0.9051284 -0.13606526 2.041141 -0.74241364
-2.603662 1.1599145 -1.2449435 1.1876291 1.4348009 -1.7409459 1.7091657 0.85091245
-0.45352796 3.5531757 2.1722353 2.0874646 1.4375178 1.125896 -1.3799564 1.8236365
-1.5389001 2.122483 -0.4283712 -0.4641896 -2.1080065 1.229015 0.56310433 -0.21332575
0.42627037 1.8847134 -3.7504265 -3.1309106 -1.2041992 0.96338713 1.0455941 -0.60014766
0.78817517 -0.8998908 0.37014195 -2.5046813 0.96530193 -2.0530834 -0.5779456 -1.0890206
-0.1766979 0.6821426 -1.4618905 -0.9655057 -0.619372 1.4860697 1.8766447 1.6016126
1.7649633 -2.8638065 3.3075113 2.5315478 0.44247225 -2.8589265 -1.5581474 2.0993977
-1.2688594 -0.6038271 1.0004953 0.86408305 2.1471064 2.5600471 -2.3705459 0.43285012
-3.6730304 -0.998832 -1.9218818 -0.02773333 2.113247 -1.9401377 -0.87967116 3.1505516
-0.42511767 0.31495106 -0.5227834 -2.8374763 0.32776684 -1.3585908 -1.2682555 -1.130744
3.605313 -0.40286642 3.4173687 -0.643464 2.3188064 -2.8693693 0.7183242 -2.1726909
-0.9618396 -2.218988 -1.6059705 0.6342338 -1.1522214 -0.75129193 1.636522 1.6998528
-2.0218396 -0.8883761 1.6385878 -0.87255394 2.4532304 -1.0656633 -1.5846777 -0.84850323
-1.1054914 0.8594617 -3.2339098 2.6063046 1.7078435 -2.2827554 -2.7271173 -2.595678
-1.5360805 -0.92836213 2.8261786 -0.99270535 0.7166662 1.0273273 1.5921639 1.5361048
00000000: 96cc 0fc0 aa21 5abf 3bc9 07c0 5567 d53e
00000010: 6cab 87bf 9c2e d5be 8acb 8ebf a407 83bf
00000020: d314 18bf e67e a63f 7a03 21bf 222a 99bf
00000030: a869 55bf b19f 10bf 8bfa 0940 9146 83bf
00000040: 730c a53f e5b6 2ebf 22b9 253f 58d4 68bf
00000050: 57da 1e40 28cc f73f a0a2 723f f4d4 3dbf
00000060: 4b8f 1e40 1235 513f 3ba0 43bf 9808 df3f
00000070: e2c6 953e d978 e3bf 5174 bf3e 4b7c fdbe
00000080: 51a3 543f f1d9 0fc0 5311 68bf 2498 3e3f
00000090: bd37 3fc0 331c 313f 8ada 9d3f d85e 193f
000000a0: ccec 1cc0 06b8 58bf 8d34 2940 d213 e1be
000000b0: 474d 9e3d dcc2 303f 7a55 85c0 7ed9 6f40
000000c0: 2ade 6b3f 4264 76bf c0df 26bf c00a 3240
000000d0: dec4 fcbf 8d3d 79bf c56c 22c0 8f95 cebe
000000e0: 0a82 4cbf 147c df3e bd90 cd3f 46b4 7abf
000000f0: 9e26 4e3e 5cc7 10bf 1ee4 3bbf 0375 813f
00000100: ed7d a03e c345 063f 9c01 8ebe 3a57 ddbe
00000110: a8ae 7bbf 7bf9 adbf 7ff3 0d40 33e1 393f
00000120: 81c1 eabf 682e f43f aa28 3640 e90b e4bf
00000130: 5eab 94bf e53b 12bf 40a2 da3f cf55 313f
00000140: 0bca 51bf baa3 9abf 2b64 543f 6679 e5bf
00000150: 71a1 c0bf 5ec1 35bf 0b37 8e3f 70bc 21bf
00000160: 1e1d 1ac0 3cfe aebf 7a51 893f f24b 2bbf
00000170: 264d 673f f655 bd3f e152 4d40 5a8c ee3f
00000180: a950 acbf e0ab 6f3f dab4 97bf b7ed 86c0
00000190: 6082 5ebf c339 37c0 0d03 4cbf 9123 56bf
000001a0: f185 24c0 14e7 2440 01f0 873f c4b8 4140
000001b0: 2191 c63f 9aab 7ebf 7c0c c8bf 433f 66bf
000001c0: bc40 d4bf 0aec d4bf af68 5fbe 7763 08c0
000001d0: 468a 843f dfad 12c0 0e3c c1bf 3cb0 9abf
000001e0: 3189 2740 cddc 0540 e073 923f 4e9b ebbf
000001f0: 5519 53c0 4aed bcbf 23e4 2b40 b012 5c40
00000200: 50ad 3a40 0ab9 d63f 3186 853f 5fe3 f3bf
00000210: 7fb6 673f b154 0bbe 0ea2 0240 d20e 3ebf
00000220: 66a2 26c0 1478 943f 4f5a 9fbf 3b04 983f
00000230: 8ea7 b73f 51d7 debf f1c5 da3f 66d5 593f
00000240: d134 e8be 3b67 6340 e705 0b40 0599 0540
00000250: 9500 b83f 5c1d 903f 69a2 b0bf ec6c e93f
00000260: aefa c4bf c3d6 0740 7853 dbbe 42aa edbe
00000270: 94e9 06c0 5d50 9d3f 9b27 103f 1172 5abe
00000280: 1c40 da3e 4a3e f13f fd06 70c0 d760 48c0
00000290: 3323 9abf 8aa0 763f 07d6 853f 47a3 19bf
000002a0: d9c5 493f 3e5f 66bf 3f83 bd3e b34c 20c0
000002b0: 071e 773f b865 03c0 3ef4 13bf 0765 8bbf
000002c0: 4bf0 34be e6a0 2e3f 3a1f bbbf 622b 77bf
000002d0: 2a8f 1ebf 8837 be3f e535 f03f a401 cd3f
000002e0: 51ea e13f 9b48 37c0 44ae 5340 e104 2240
000002f0: b98b e23e a7f8 36c0 6071 c7bf 885c 0640
00000300: fc69 a2bf 6a94 1abf 3b10 803f 8c34 5d3f
00000310: 316a 0940 d0d7 2340 06b7 17c0 889e dd3e
00000320: ee12 6bc0 74b3 7fbf 3900 f6bf 0231 e3bc
00000330: 703f 0740 6f56 f8bf 2132 61bf a3a2 4940
00000340: 06a9 d9be 4441 a13e 22d5 05bf 3699 35c0
00000350: 0ed1 a73e 4ee6 adbf 3256 a2bf 38bc 90bf
00000360: 73bd 6640 8244 cebe 2bb6 5a40 0fba 24bf
00000370: 5367 1440 bfa3 37c0 18e4 373f 5e0d 0bc0
00000380: 1f3b 76bf e603 0ec0 7190 cdbf 255d 223f
00000390: fe7b 93bf ab54 40bf 8e79 d13f c794 d93f
000003a0: d265 01c0 9e6c 63bf 3fbd d13f b25f 5fbf
000003b0: ba01 1d40 a867 88bf b8d6 cabf 8237 59bf
000003c0: be80 8dbf af05 5c3f 61f8 4ec0 b2cd 2640
000003d0: 9e9a da3f aa18 12c0 1789 2ec0 971f 26c0
000003e0: 499e c4bf 24a9 6dbf 1ce0 3440 f021 7ebf
000003f0: 7077 373f 767f 833f 07cc cb3f 159f c43f

actor.0.weight f4 [256, 42]
-0.28205293 -0.032163106 -0.62599564 1.2367862 0.48673087 -3.4472258 -1.0474995 -0.22450264
0.78418624 -0.0046495986 2.9686513 1.1048957 0.014339482 0.20099126 -0.06651438 1.131922
0.6910668 0.1468901 -0.10760042 0.13873996 -3.2388148 -1.6840329 0.22125198 1.0901084
-0.8334352 -0.7130593 -0.67603225 0.23708402 -0.24700928 1.2315437 0.9330642 1.7402886
-0.14110087 -0.0733934 -0.048499703 -0.016615123 0.09377453 0.18987493 -0.6870186 -0.5362266
-1.3715675 1.7176037 0.04571554 0.53870314 0.3137518 -1.3940759 0.565202 -0.016566508
-0.3330393 0.03747874 -0.8951105 -0.22559766 2.62133 0.68956196 0.023230428 -0.12361287
0.62992555 0.31718928 0.3155629 -0.06703681 0.20250621 0.38141853 -0.4242781 -1.2014881
0.16501318 -1.1646445 -0.60660946 0.01801601 -0.66220057 0.23951629 -0.13320939 -0.7344286
-0.8084319 -0.99611986 0.11378248 -0.13314173 -0.04050673 0.14289431 0.2301285 -0.068033345
1.7924225 0.38853222 -0.35619608 0.35253945 -0.643015 -1.9937048 0.6420595 0.48796618
-0.24087214 0.45276403 0.32344788 0.09093813 0.80112976 -0.5982859 0.0104838675 0.36174664
0.29253498 0.11894067 0.4628933 0.53184897 0.5009614 0.15305449 -0.2456951 -0.9779708
-1.8902915 -1.9788146 -0.09567468 0.14120048 -0.8327282 0.9030149 3.4770555 -0.8013606
-0.039826095 0.7854171 0.08512225 0.081416026 -0.08287088 0.77820444 -0.78567326 -0.14772794
0.06914287 0.03135321 0.10141792 0.25206468 -0.06844418 -0.35566378 -0.61065555 -2.1828854
0.40164462 0.23302473 -1.3709009 -1.0257233 -0.07670589 0.27695498 0.5074273 -0.3228289
-1.681253 -0.8093924 0.08669704 0.05536712 0.08420822 0.00027683136 -0.052170586 0.09012957
-0.2752066 -0.21711503 1.1894219 0.9258489 -0.124051236 0.4264992 -0.63757145 0.4246161
1.2943059 -0.6646646 0.067837596 2.8144143 -0.017460665 0.50848985 -0.069124274 0.6079329
0.009736842 -0.080647126 -0.11957661 0.09513112 -0.6013062 0.18222518 0.3942223 -0.015472479
-0.90474 -0.25012484 -0.4152267 -0.3626291 -0.052704234 -0.71724534 0.16827556 -0.61590964
-0.25007823 0.24747111 0.7775165 0.9170701 -0.6563488 -0.49153072 -0.26473 -0.86547244
0.4365042 -0.55965537 -0.66086924 -0.28774226 -0.14427252 1.2080234 -0.47942296 -0.23712552
0.1764009 -0.3972137 0.1733308 -0.76174575 0.42532316 -0.5567851 -0.43395695 1.0292554
-0.79542243 0.6873681 0.113329 -0.11994835 -0.5982336 -0.6039016 -0.15634531 -0.5860076
0.238725 0.61522716 -0.74938816 -0.92484236 0.25297487 0.3420197 0.111880794 0.33548668
0.50144064 0.051664162 0.14529498 -0.19181043 0.07030607 0.31501365 -0.0976721 -0.22127719
0.24325706 0.9737705 0.8325852 0.10778625 -0.34003258 0.16665486 -0.61390406 -0.5974141
-0.13591705 0.3304906 0.44773197 -0.28884384 0.16695175 -0.3067318 0.0052920505 -0.8187235
-0.08467577 1.1243788 -0.26315442 0.33100563 -0.27715778 -0.110551834 -0.22349346 -0.10634564
0.38227314 -0.6106276 1.6839306 0.75032926 -0.27684632 -1.5590339 0.20178312 0.738306
00000000: 3e69 90be 76bd 03bd 4041 20bf 034f 9e3f
00000010: ca34 f93e 599f 5cc0 7714 86bf 05e4 65be
00000020: 6ec0 483f a95b 98bb 62fe 3d40 396d 8d3f
00000030: 26f0 6a3c a7d0 4d3e b138 88bd d2e2 903f
00000040: c1e9 303f 5c6a 163e 9c5d dcbd d911 0e3e
00000050: be48 4fc0 648e d7bf e18f 623e ac88 8b3f
00000060: 025c 55bf 0e8b 36bf 7310 2dbf 27c6 723e
00000070: 00f0 7cbe 39a3 9d3f 4cdd 6e3f c7c1 de3f
00000080: bf7c 10be 474f 96bd a0a7 46bd 701c 88bc
00000090: dc0c c03d 936e 423e 73e0 2fbf 2546 09bf
000000a0: 868f afbf 70da db3f 3840 3b3d 73e8 093f
000000b0: 13a4 a03e 1471 b2bf 14b1 103f 7cb6 87bc
000000c0: 2184 aabe 4f83 193d f625 65bf 1303 67be
000000d0: dfc3 2740 2287 303f bd4d be3c bf28 fdbd
000000e0: cd42 213f a266 a23e 7691 a13e 984a 89bd
000000f0: ca5d 4f3e 4a49 c33e fb3a d9be 5dca 99bf
00000100: 37f9 283e 1213 95bf c24a 1bbf 5096 933c
00000110: fa85 29bf c243 753e 0b68 08be 8303 3cbf
00000120: 65f5 4ebf b601 7fbf ca06 e93d 4e56 08be
00000130: 63ea 25bd e352 123e cea6 6b3e 1155 8bbd
00000140: 1a6e e53f b2ed c63e 555f b6be 0d80 b43e
00000150: a29c 24bf b831 ffbf 035e 243f b4d6 f93e
00000160: 30a7 76be b0d0 e73e f69a a53e c53d ba3d
00000170: d716 4d3f 4429 19bf 87c4 2b3c db36 b93e
00000180: 25c7 953e 2a97 f33d 5a00 ed3e 4127 083f
00000190: 023f 003f 51ba 1c3e 7f97 7bbe 4b5c 7abf
000001a0: 12f5 f1bf cc49 fdbf 16f1 c3bd dc96 103e
000001b0: ad2d 55bf fc2b 673f 1488 5e40 f825 4dbf
000001c0: b020 23bd 1811 493f 9354 ae3d 72bd a63d
000001d0: 35b8 a9bd 6838 473f e221 49bf fe45 17be
000001e0: c79a 8d3d 396c 003d 33b4 cf3d 9f0e 813e
000001f0: 762c 8cbd 9019 b6be ec53 1cbf 65b4 0bc0
00000200: 5da4 cd3e 099e 6e3e ae79 afbf e74a 83bf
00000210: fa17 9dbd 0bcd 8d3e c1e6 013f d449 a5be
00000220: 4c33 d7bf 5734 4fbf 388e b13d a2c8 623d
00000230: 5c75 ac3d ad23 9139 d3b0 55bd da95 b83d
00000240: e1e7 8cbe 6753 5ebe fa3e 983f 6f04 6d3f
00000250: 930e febd 1a5e da3e e237 23bf 4867 d93e
00000260: d1ab a53f 7627 2abf 70ee 8a3d 5d1f 3440
00000270: ab09 8fbc 642c 023f 0791 8dbd 7ea1 1b3f
00000280: 4687 1f3c 522a a5bd 95e4 f4bd 1bd4 c23d
00000290: 34ef 19bf 3d99 3a3e 81d7 c93e 4880 7dbc
000002a0: 0a9d 67bf 5d10 80be 9898 d4be 85aa b9be
000002b0: 65e0 57bd 649d 37bf 6e50 2c3e 41ac 1dbf
000002c0: 410a 80be 1169 7d3e 520b 473f 1bc5 6a3f
000002d0: 7a06 28bf eaa9 fbbe b18a 87be 9a8f 5dbf
000002e0: 7a7d df3e 9345 0fbf ba2e 29bf f452 93be
000002f0: 2dbc 13be 83a0 9a3f ed76 f5be 08d1 72be
00000300: 70a2 343e 985f cbbe a17d 313e c501 43bf
00000310: f5c3 d93e 7889 0ebf 9b2f debe a4be 833f
00000320: cea0 4bbf 5bf7 2f3f 0919 e83d 7ba7 f5bd
00000330: d625 19bf 4c99 1abf fc18 20be 9804 16bf
00000340: 5474 743e 877f 1d3f e7d7 3fbf 78c2 6cbf
00000350: ec85 813e 351d af3e c221 e53d e9c4 ab3e
00000360: 6a5e 003f cd9d 533d 35c8 143e f469 44be
00000370: a1fc 8f3d 7849 a13e 4f08 c8bd 7d96 62be
00000380: 6118 793e 0649 793f 4e24 553f 0abf dc3d
00000390: c018 aebe 92a7 2a3e d128 1dbf 21f0 18bf
000003a0: d72d 0bbe 1036 a93e 203d e53e 57e3 93be
000003b0: 66f5 2a3e f30b 9dbe f068 ad3b dd97 51bf
000003c0: 7d6a adbd a5eb 8f3f 2dbc 86be 9279 a93e
000003d0: a0e7 8dbe 0069 e2bd 78db 64be becb d9bd
000003e0: 4eb9 c33e 1752 1cbf 0a8b d73f 9415 403f
000003f0: cdbe 8dbe 6c8e c7bf 3ca0 4e3e 9f01 3d3f

actor.0.bias f4 [256]
-0.08389148 0.03678879 0.03143548 -0.08976405 -0.7682122 -0.15079518 -0.067872114 -0.03186171
-0.19500421 0.27454987 0.083048016 -0.24448112 0.5251047 0.059197526 0.38049942 0.1327326
-0.088680744 0.19999862 0.05661445 -0.3342234 0.3748052 0.20489305 0.022285895 -0.15047275
0.10931721 -0.22930002 -0.031369228 0.3274651 0.028684856 0.033384036 -0.23916212 0.0046468736
0.08140662 -0.5026872 0.080008745 0.24510467 0.18171625 0.11001605 -0.005814614 0.48505417
0.026270501 0.0027808975 -0.222905 0.038072497 -0.030236533 -0.031539574 0.03619667 0.22882406
-0.0472027 -0.4751748 -0.5028785 0.02791917 -0.47078237 -0.09214567 0.10372595 0.21018042
-0.19559495 0.41842273 -0.0034138088 0.028278276 0.2501314 -0.022633404 0.14491478 0.020528272
-0.06546723 0.16794784 -0.006403122 -0.046445385 0.001129469 0.02145541 0.5163635 -0.03028026
-0.3964563 -0.08860674 -0.4757703 -0.24978516 -0.23876286 -0.04256048 -0.013006692 0.08042705
0.032790635 -0.1761592 0.17765936 0.22116907 0.12764856 -0.111597344 -0.21808542 -0.15791434
0.32819167 -0.0627245 0.22153626 -0.40219927 -0.16384494 -0.0025597303 -0.059391536 -0.05227881
0.20449942 0.15233666 -0.09331101 0.4735287 0.34671777 0.101658516 -0.1635067 0.14618966
-0.11092152 -0.11405842 0.015993526 -0.15778042 -0.4576063 -0.09589788 -0.2325974 -0.13983281
-0.09315557 0.2294725 -0.48782182 0.1259218 0.14592263 -0.03959844 -0.16733152 0.09275982
0.23030703 0.30809292 0.14261274 -0.7778466 0.11094204 -0.032001264 0.15205653 -0.24450928
0.16793829 -0.0028577566 0.1983575 0.00050511037 -0.21924129 0.1455942 0.19392015 0.07442363
-0.08203098 0.12299479 -0.15710387 0.17413916 -0.23440559 -0.29713553 -0.25035533 0.10493323
-0.04063922 0.02513175 -0.12811103 -0.07942649 0.005919892 0.26210225 -0.051422402 0.029937116
0.093736455 -0.27627695 0.13187464 0.078697436 0.16955923 -0.05765736 0.09698447 0.048345096
-0.12029917 0.014090654 0.0036653047 -0.032077964 0.05562294 -0.053416442 0.009418022 0.238557
0.16506065 -0.11895822 0.1387978 -0.0756421 -0.11107487 -0.20394096 0.09423201 -0.36583215
0.10495523 -0.027428186 -0.12581332 0.095992744 -0.0793724 0.02778327 -0.17745055 0.5611518
0.12547041 0.1800034 -0.12423611 -0.20546776 0.04495601 -0.12082715 -0.14969422 -0.1968452
-0.34053394 -0.06752732 0.07998559 -0.04447047 -0.030481402 -0.024141815 -0.03196562 0.3594557
-0.06876634 -0.17847858 0.2249966 0.2559465 -0.06396556 0.19851927 0.17629108 0.10007964
-0.014577622 0.027562942 0.07990667 0.07279243 0.15720108 -0.1812465 -0.12583873 0.44977397
0.08889167 -0.04328915 -0.14525767 0.13609385 0.0019265914 0.09849129 -0.008622284 -0.15125091
0.045952953 -0.116044745 -0.097875 -0.109369785 -0.17448038 0.03778071 0.038303845 -0.14544584
-0.06464218 -0.046055432 0.024434501 -0.053010207 -0.07482629 -0.5676827 0.08180673 -0.29416203
-0.334341 -0.07947984 0.43006772 -0.16712365 0.10455363 0.027761813 0.29879186 0.028918166
0.07722485 0.31920657 -0.10728858 -0.048962735 0.26493922 0.45484588 -0.04920128 -0.50564957
00000000: 4ccf abbd d8af 163d 7dc2 003d 37d6 b7bd
00000010: 8ea9 44bf 0d6a 1abe 8900 8bbd 6d81 02bd
00000020: 2faf 47be cd91 8c3e 1415 aa3d 4259 7abe
00000030: 436d 063f 1b79 723d d2d0 c23e 0eeb 073e
00000040: 409e b5bd 70cc 4c3e 8ee4 673d 541f abbe
00000050: 78e6 bf3e 7ccf 513e e990 b63c 8715 1abe
00000060: b4e1 df3d a0cd 6abe 057d 00bd 81a9 a73e
00000070: 81fc ea3c b3bd 083d eae6 74be cd44 983b
00000080: 84b8 a63d 1cb0 00bf a0db a33d b8fc 7a3e
00000090: d313 3a3e 1850 e13d 8488 bebb 0559 f83e
000000a0: 3c35 d73c b83f 363b 3541 64be e8f1 1b3d
000000b0: 9bb2 f7bc a42f 01bd f642 143d db50 6a3e
000000c0: 9e57 41bd 1d4a f3be a5bc 00bf beb6 e43c
000000d0: 630a f1be deb6 bcbd 456e d43d 8939 573e
000000e0: 0b4a 48be 813b d63e 35ba 5fbb d8a7 e73c
000000f0: 3911 803e b069 b9bc 8a64 143e e82a a83c
00000100: af13 86bd 85fa 2b3e 48d1 d1bb 843d 3ebd
00000110: b10a 943a 42c3 af3c 6630 043f 4f0e f8bc
00000120: 52fc cabe 7377 b5bd 2a98 f3be aec7 7fbe
00000130: 407e 74be e653 2ebd 051a 55bc f0b6 a43d
00000140: 794f 063d 1463 34be 56ec 353e 257a 623e
00000150: 4eb6 023e 268d e4bd c951 5fbe 4cb4 21be
00000160: bd08 a83e b475 80bd 67da 623e 10ed cdbe
00000170: f8c6 27be 26c1 27bb 8a44 73bd 4e22 56bd
00000180: 4c68 513e 24fe 1b3e d819 bfbd 5b72 f23e
00000190: fe84 b13e 5732 d03d 4d6e 27be beb2 153e
000001a0: d22a e3bd 7697 e9bd db04 833c 3191 21be
000001b0: 5f4b eabe 1c66 c4bd 032e 6ebe 5530 0fbe
000001c0: 59c8 bebd d7fa 6a3e c8c3 f9be a5f1 003e
000001d0: be6c 153e f931 22bd f458 2bbe dcf8 bd3d
000001e0: 9bd5 6b3e 5bbe 9d3e 1309 123e f420 47bf
000001f0: 9535 e33d c213 03bd b5b4 1b3e a460 7abe
00000200: 04f8 2b3e 3349 3bbb 3a1e 4b3e 6269 043a
00000210: ca80 60be a516 153e 0193 463e 6b6b 983d
00000220: dcff a7bd b1e4 fb3d d6df 20be 8951 323e
00000230: 0508 70be 2622 98be 932e 80be 3ce7 d63d
00000240: 5075 26bd 1ae1 cd3c 8a2f 03be 5baa a2bd
00000250: a7fb c13b 4432 863e 4ca0 52bd af3e f53c
00000260: e6f8 bf3d 2c74 8dbe 250a 073e 1f2c a13d
00000270: efa0 2d3e 202a 6cbd cb9f c63d 8205 463d
00000280: 695f f6bd 7ddc 663c 9c35 703b 2f64 03bd
00000290: e1d4 633d 33cb 5abd 0c4e 1a3c 4948 743e
000002a0: a905 293e 5ea0 f3bd 0321 0e3e 3fea 9abd
000002b0: 397b e3bd e6d5 50be b6fc c03d 5a4e bbbe
000002c0: c5f2 d63d 13b1 e0bc 35d5 00be d897 c43d
000002d0: ff8d a2bd be99 e33c 99b5 35be a5a7 0f3f
000002e0: 517b 003e d052 383e 806f febd 2466 52be
000002f0: cb23 383d 3a74 f7bd 7149 19be ca91 49be
00000300: 775a aebe c34b 8abd 7ccf a33d ab26 36bd
00000310: 22b4 f9bc 0ec5 c5bc 62ee 02bd 940a b83e
00000320: 5ed5 8cbd 17c3 36be 8265 663e 6b0b 833e
00000330: 6000 83bd a348 4b3e a685 343e 8ef6 cc3d
00000340: fad6 6ebc aecb e13c 1ca6 a33d 3314 953d
00000350: 52f9 203e af98 39be dedb 00be c648 e63e
00000360: d60c b63d f74f 31bd 6dbe 14be 305c 0b3e
00000370: ae85 fc3a cdb5 c93d 7b44 0dbc 85e1 1abe
00000380: 2a39 3c3d dea8 edbd b072 c8bd 44fd dfbd
00000390: fcaa 32be f2bf 1a3d 7ee4 1c3d c1ef 14be
000003a0: 1f63 84bd 9fa4 3cbd dd2a c83c 3b21 59bd
000003b0: 873e 99bd a753 11bf 498a a73d 689c 96be
000003c0: be2e abbe 54c6 a2bd d631 dc3e 7622 2bbe
000003d0: 3720 d63d be6c e33c 3ffb 983e cae5 ec3c
000003e0: 1028 9e3d 0b6f a33e 1dba dbbd 268d 48bd
000003f0: 1da6 873e 8fe1 e83e 4887 49bd 4072 01bf

actor.2.weight f4 [256, 256]
0.074095525 0.5516666 0.12671576 -0.9123976 0.3913842 -0.2465987 1.1672817 1.4224457
-0.6969717 -0.2665217 0.4332941 -0.3561437 0.10980286 -0.7538737 -0.04589385 -0.07219869
0.54595387 0.42561892 0.47289458 0.045665804 -0.12538253 0.111091785 0.8835933 0.24062376
0.20540088 0.29004496 -0.11451323 0.2268347 -0.09867006 0.21775061 -0.5359598 -0.44359452
-0.47289026 -0.48930863 -0.6857604 -1.3917577 -1.3523657 0.594318 -0.029408637 0.43597907
-0.13581485 0.05962515 0.052086327 -0.55072474 -0.2296149 0.17326696 -1.1754607 0.6852131
-0.16194476 0.12181497 0.08150282 -0.096894704 0.0019457808 0.96767646 0.3261574 0.7900847
0.29451182 0.21141045 -0.462949 0.22270997 -0.40389857 0.07119228 0.15742561 -0.5004358
0.881653 0.05566645 -0.43579423 0.44935113 -0.23671377 -0.5632347 -0.4271625 -0.07260852
-0.26887926 -0.055290177 0.33200404 0.8405733 -0.24776012 -0.07022118 0.08812163 -0.65073097
0.5687303 -0.50727993 -0.10847968 -0.7501677 -0.35393086 0.07683367 -0.9313569 0.4053844
0.2832067 0.32250845 -0.10291364 -1.046365 -0.059353147 0.79772276 0.20764542 -0.23929222
0.6503243 -0.24196897 0.5682731 -0.05863181 0.21309406 -0.5669172 0.4743608 -0.4447052
0.7590036 -0.03482449 -1.2642509 0.124448866 0.31467193 0.21991973 1.1567445 -0.023776308
0.32220024 0.91272146 0.41131026 0.44021654 -0.077310584 -0.8854233 -0.29183024 -0.18853618
0.34735397 -0.9975888 0.26777035 0.26247185 0.12190139 -0.21969903 -0.0025023315 0.2054737
-0.92241067 0.045844965 0.44204494 0.78254205 -0.5040421 -0.10869612 -1.3217834 0.21657488
0.7626858 -0.09748498 -0.06794991 -0.037215993 -0.52579707 -0.22479744 -0.022490958 0.62034154
0.18406083 -0.29765978 0.45855036 1.32436 0.10218775 0.30720276 -0.6176806 0.2916777
0.59426796 0.796473 1.0832406 -0.33396208 0.63983494 -1.5303222 -0.2590555 0.17209657
-0.122500636 0.7550285 -0.044215806 -0.8003955 -0.094834425 0.24816638 -0.295773 0.31980282
-1.4846816 -0.68741405 0.24412435 -0.51012456 0.056946587 -0.3569339 0.53137654 1.2803776
0.41756704 0.18689881 -0.39510474 -0.06504215 -0.05831404 0.48961174 -0.22825164 0.33919746
-0.55428815 -0.38875 -0.17329219 0.5592558 -0.70320505 -0.6808136 -0.20476529 -0.22706085
-0.23437902 -0.57544065 0.19324957 -0.63545626 -0.47933897 0.21239896 -0.027845131 -0.01619219
-0.8152878 0.20087124 -0.3556421 0.33128208 0.58913565 -1.0166465 0.586902 0.14913702
-0.30963856 0.1946581 -1.4085833 0.54200864 1.2881547 -0.05305771 0.28757903 -0.12679057
-0.51281637 0.5692953 -0.24540703 1.508625 -1.0518374 0.47803238 -0.20777898 0.6884474
-0.47099707 0.06992212 -0.36259577 -0.7113763 0.30810195 -0.34062067 0.35467395 0.23662236
-1.1879311 -0.12332367 0.38101047 0.2843657 0.2650583 0.19406842 0.0825821 -0.0032726899
-0.49849913 0.057104822 -0.1438392 -0.45391554 1.0698795 0.18115787 -0.2657262 -0.4541481
0.95647013 -1.0156826 0.33479577 0.49463463 -0.65033424 0.17178245 1.2143816 0.8299719
00000000: 65bf 973d 063a 0d3f c7c1 013e e492 69bf
00000010: 8363 c83e 5f84 7cbe 7d69 953f b312 b63f
00000020: bd6c 32bf 8875 88be b9d8 dd3e 7858 b6be
00000030: 52e0 e03d defd 40bf 31fb 3bbd e8dc 93bd
00000040: a2c3 0b3f b9ea d93e 3d1f f23e 110c 3b3d
00000050: 4764 00be 1784 e33d 2c33 623f 1366 763e
00000060: 9c54 523e c680 943e ea85 eabd 5b47 683e
00000070: 8713 cabd 04fa 5e3e a934 09bf d21e e3be
00000080: ac1e f2be a986 fabe fe8d 2fbf 1e25 b2bf
00000090: 521a adbf 3925 183f 62ea f0bc a638 df3e
000000a0: 0c13 0bbe 8039 743d 7958 553d 4cfc 0cbf
000000b0: 2b20 6bbe e56c 313e 7f75 96bf 206a 2f3f
000000c0: d9d4 25be 217a f93d f3ea a63d bb70 c6bd
000000d0: 9209 ff3a a5b9 773f 1afe a63e fe42 4a3f
000000e0: 41ca 963e fb7b 583e a707 edbe 150e 643e
000000f0: cbcb cebe 42cd 913d 2e34 213e 901c 00bf
00000100: 03b4 613f 8102 643d 6c20 dfbe 5a11 e63e
00000110: 1865 72be 2630 10bf 0bb5 dabe c7b3 94bd
00000120: 8baa 89be f477 62bd 6ffc a93e d02f 573f
00000130: d4b4 7dbe 1fd0 8fbd 1d79 b43d 4e96 26bf
00000140: 4f98 113f 19dd 01bf 982a debd fe0a 40bf
00000150: 6d36 b5be f95a 9d3d 686d 6ebf 8b8e cf3e
00000160: 7800 913e d41f a53e 63c4 d2bd 4aef 85bf
00000170: 491c 73bd 8f37 4c3f 00a1 543e 0509 75be
00000180: a77b 263f b7c6 77be 597a 113f e927 70bd
00000190: 5435 5a3e 7c21 11bf 6bdf f23e 66b0 e3be
000001a0: 0f4e 423f 20a4 0ebd f9d2 a1bf 0cdf fe3d
000001b0: ae1c a13e a332 613e 3410 943f 88c6 c2bc
000001c0: 6ef7 a43e 1da8 693f 4297 d23e 1064 e13e
000001d0: 0355 9ebd 1aab 62bf c66a 95be a10f 41be
000001e0: 61d8 b13e fb61 7fbf 3219 893e b662 863e
000001f0: 70a7 f93d c8f8 60be 28fe 23bb b367 523e
00000200: 1b23 6cbf eec7 3b3d b753 e23e ad54 483f
00000210: e708 01bf 129c debd 3330 a9bf cec5 5d3e
00000220: 603f 433f 35a6 c7bd 5329 8bbd cc6f 18bd
00000230: a39a 06bf 4d31 66be f53e b8bc b4ce 1e3f
00000240: 717a 3c3e dd66 98be 1dc7 ea3e a184 a93f
00000250: d047 d13d ae49 9d3e 5120 1ebf c856 953e
00000260: f221 183f a8e5 4b3f a1a7 8a3f 14fd aabe
00000270: 39cc 233f 99e1 c3bf eca2 84be 153a 303e
00000280: 9de1 fabd 8c49 413f a21b 35bd b8e6 4cbf
00000290: 8d38 c2bd 541f 7e3e 8f6f 97be 32bd a33e
000002a0: 0c0a bebf 5efa 2fbf bcfb 793e 8697 02bf
000002b0: d340 693d 0ac0 b6be 4b08 083f 6ae3 a33f
000002c0: 59cb d53e 6762 3f3e 2b4b cabe d234 85bd
000002d0: b4da 6ebd 64ae fa3e ccba 69be 4aab ad3e
000002e0: d4e5 0dbf 3d0a c7be 8273 31be 632b 0f3f
000002f0: 3f05 34bf cd49 2ebf fead 51be a482 68be
00000300: 0e01 70be 1450 13bf 37e3 453e 43ad 22bf
00000310: eb6b f5be 1d7f 593e 791b e4bc 7ca5 84bc
00000320: b4b6 50bf 31b1 4d3e b916 b6be ce9d a93e
00000330: 98d1 163f 7921 82bf 363f 163f 60b7 183e
00000340: f288 9ebe 7454 473e 754c b4bf 14c1 0a3f
00000350: 41e2 a43f 0b53 59bd 8f3d 933e 63d5 01be
00000360: ef47 03bf 56bd 113f fb4b 7bbe a01a c13f
00000370: 9ca2 86bf a9c0 f43e 03c4 54be 173e 303f
00000380: 8726 f1be 5433 8f3d 27a6 b9be c21c 36bf
00000390: 8abf 9d3e d565 aebe d397 b53e 224d 723e
000003a0: 200e 98bf 1f91 fcbd ce13 c33e 6298 913e
000003b0: b9b5 873e dfb9 463e ce20 a93d a07a 56bb
000003c0: 473b ffbe bfe6 693d 954a 13be 9e67 e8be
000003d0: d0f1 883f 7381 393e 440d 88be 1a86 e8be
000003e0: 3adb 743f e301 82bf 5a6a ab3e c040 fd3e
000003f0: 4e7c 26bf bde7 2f3e db70 9b3f 0a79 543f
