models/ho_policy.pth (torch, 628114 bytes, 11 tensors)

critic.0.weight f4 [256, 42]
000000 77 94 76 3e 2f 3b 71 3e fe f5 ba bc 22 b3 37 be
       0.24080072 0.23557733 -0.022822376 -0.17939427
000010 a9 5d 8d 3e ca 70 b0 bf d3 f1 c4 be 09 5f a6 bc
       0.2761052 -1.378442 -0.38465747 -0.020308988
000020 ee 62 10 be f0 a6 99 3d d6 db b7 3e 1a 29 09 3e
       -0.14100239 0.07502544 0.3590991 0.13394585
000030 66 60 2a bc 52 8a 2c be 69 78 c1 bd 28 04 06 3f
       -0.01039896 -0.1684964 -0.094467945 0.5235009
000040 a9 eb 8c 3e 34 90 aa bd a6 3f d5 bd fe 5b ea 3d
       0.27523544 -0.08328286 -0.104125306 0.11443327
000050 ff ba ae be ee 04 80 be ee af 3d 3c 21 6c c1 3d
       -0.34127042 -0.2500376 0.011577589 0.09444452
000060 ef 2d 67 bc 96 ac e7 bf 56 03 56 bf 84 5c 4e be
       -0.0141100725 -1.8099544 -0.8359884 -0.2015248
000070 18 72 b7 bc c8 ac a9 3c 15 2f f0 bd 76 be c4 bc
       -0.022393271 0.020712271 -0.1172773 -0.0240166
000080 d6 8e ab 3e 5c e8 5e 3c ff c3 c0 bc 76 d9 f9 3d
       0.33507413 0.0136052035 -0.023530958 0.121996805
000090 84 f1 29 3e 96 b7 e8 be 8a 52 03 bf 0e 45 a7 3d
       0.16596037 -0.45452565 -0.5129782 0.08167468
0000a0 60 2a 80 be 83 48 45 3c 5e 89 29 3d 5d d8 68 3e
       -0.2503233 0.012041214 0.04139077 0.22738786
0000b0 82 bd b9 3e 8e b9 c0 3d 15 f4 0b be a3 19 37 3d
       0.36277395 0.09410392 -0.13667329 0.044702183
0000c0 ca 48 a2 3d 4f 41 30 be be db b2 3e 90 6f cc bc
       0.0792404 -0.17212413 0.34933275 -0.02495554
0000d0 51 fd 41 bf 57 8e 99 be 3b f1 99 3d 50 71 25 bd
       -0.75777155 -0.2999141 0.07516714 -0.040391266
0000e0 70 d5 04 3e e9 36 02 bd 5e e5 81 bd e8 98 b4 3c
       0.12972045 -0.031790648 -0.063425764 0.022045568
0000f0 e9 75 0a bd b8 22 fc bc 83 1d 90 3b 62 34 ff 3c
       -0.033803854 -0.030778274 0.0043980493 0.031152908
000100 7c f6 07 bc 01 35 ad bd ff 09 df 3d 55 46 7b 3e
       -0.008298513 -0.08457375 0.108905785 0.24538548
000110 e9 c0 0a bd 5b 09 03 be 3c 95 4d be d0 cd 96 bd
       -0.03387538 -0.12796538 -0.2007646 -0.07363474
000120 f6 46 e5 bd 08 ad c4 3d 9e cc 72 be 09 51 b5 bc
       -0.11195175 0.096033156 -0.23710868 -0.022133367
000130 a8 1f bd bd 1f b6 1d 3e 9f 94 b9 bd bf 0c 35 3e
       -0.092345536 0.15401505 -0.0906155 0.17680643
000140 a2 fa 00 3d bd d9 69 be d0 6b 58 bd cd 90 29 bd
       0.031489022 -0.22836967 -0.052837193 -0.04139786
000150 a1 7d 7b b9 e5 53 8c 3d f0 b3 79 3e 53 64 65 3e
       -0.00023984026 0.06851939 0.24385047 0.22401552
000160 6d 5f c6 bd ae 70 58 bc 65 35 3e 3e e9 ab 13 be
       -0.0968617 -0.013210459 0.18575056 -0.14421047
000170 6d a9 e3 3e 23 9c 12 be ec 73 1f bd 11 38 dd 3d
       0.444652 -0.14317374 -0.03892891 0.108017094
000180 c1 3b 32 bc 58 24 9a 3d 27 fd 1a 3e e9 86 eb 3d
       -0.010878504 0.07526463 0.15135632 0.115003414
000190 44 78 da 3d db d3 bc 3d 0c be 17 3e 57 a6 19 be
       0.1066747 0.09220096 0.14818591 -0.1500486
0001a0 43 4d de bd f6 62 36 bc f4 06 91 3e 70 da f4 bc
       -0.1085458 -0.011131993 0.28325617 -0.029889315
0001b0 5f 1b ad bb b1 45 5a be 42 e0 9c bd 5d 39 37 bd
       -0.005282804 -0.21315648 -0.07659961 -0.04473244
0001c0 5f fb 8e bd 01 49 f2 bd 12 21 aa 3d ff 78 1a 3e
       -0.06981539 -0.11830331 0.08307089 0.15085219
0001d0 37 8f 9f be 25 9d 46 be 01 a8 8c 3d 36 ee 91 bd
       -0.31163952 -0.19395883 0.06867982 -0.07125513
0001e0 e2 93 02 3c f7 0f 8c 3b 01 bb 6a 3e 33 f9 03 3e
       0.007969828 0.004274364 0.22922899 0.1288803
0001f0 e5 bb ff bd 3f 8b 97 bd c4 8c 81 bd 68 3c 97 bc
       -0.1248701 -0.07399606 -0.06325677 -0.018461421
000200 30 30 02 3c 98 8a 28 be b3 c5 f6 3d 7a ac e0 3d
       0.007946059 -0.1645912 0.12049427 0.10970397
000210 1d f0 b9 bd 2c 45 0e 3c 6f f4 21 be 2c ff e6 bd
       -0.09079001 0.008683484 -0.158159 -0.11279139
000220 4d dc d3 bd fc c8 0d be 67 77 4e 3d d0 41 09 be
       -0.103447534 -0.138462 0.05040684 -0.13404012
000230 a5 fb 4e bd fb f5 8c 3c 5e 57 a2 bb f5 b9 f6 bd
       -0.050532956 0.017207136 -0.0049542626 -0.12047187
000240 39 d1 17 be d7 75 03 3e 5c 73 d5 bc b7 74 23 3d
       -0.14825906 0.12837921 -0.026055984 0.03990623
000250 bf e6 05 bd 1f 56 f8 3d 47 8b ae bd ee 2b f2 bd
       -0.03269076 0.12125801 -0.08522659 -0.11824785
000260 be 65 34 be 5c 5b 22 be f9 6b 27 3e 63 4b 2c bb
       -0.17616937 -0.15855163 0.16349782 -0.0026290051
000270 ba 0d bd 3d fa 69 e7 bd 9c a7 7a 3e e0 a7 ab 3e
       0.09231134 -0.1129951 0.24478 0.33526516
000280 19 e3 b7 bd 02 80 ce 3d a5 eb 83 3e 91 e3 08 be
       -0.08978862 0.10083009 0.2576572 -0.1336806
000290 ba 78 a3 bd 8c 83 7d 3e 3b 8f eb bd ce d5 84 be
       -0.07982011 0.24757212 -0.115019284 -0.2594437
0002a0 9f 6b a6 bd a2 80 3f be 87 3a 47 be 0f 89 37 be
       -0.08125996 -0.18701413 -0.1945592 -0.17923377
0002b0 b0 e4 19 3e 5b cc a3 3d 74 d6 9d 3c ef 78 1c 3e
       0.15028644 0.07997962 0.019267298 0.15280508
0002c0 de ac 5a be b8 dd 8b 3c 84 e4 8e 3d a5 c3 29 3d
       -0.21355006 0.017073497 0.0697718 0.041446347
0002d0 11 c0 cd bd 39 4b 63 bd b0 91 3c be de 3a 31 bd
       -0.100463994 -0.05549166 -0.1841495 -0.04326903
0002e0 09 07 c3 3c 07 07 be bc c2 2b 2d bd 08 12 18 be
       0.023807066 -0.02319671 -0.04227806 -0.14850628
0002f0 03 bf 1c bd de f9 c8 3d 83 1d 49 be 04 90 6e bc
       -0.0382681 0.098132834 -0.19640164 -0.014560703
000300 0e b8 18 3d a9 1a ef bc 6a 33 0c be 48 1c 20 3e
       0.037284903 -0.029187517 -0.13691488 0.15635788
000310 05 1d ac bd 3a ca a5 3b aa 50 8d be 0b 9f 1f bd
       -0.084039725 0.0050595077 -0.27600604 -0.038970035
000320 20 95 1a 3e f1 d5 92 bd b5 e3 59 3e 81 ff a4 bd
       0.15095949 -0.07169712 0.2127827 -0.08056546
000330 1b 33 09 be b5 b6 ba bd 1c 97 97 be 78 51 a7 bd
       -0.13398401 -0.0911688 -0.29607475 -0.08169836
000340 57 6f b5 bd 63 8d 9e ba b1 57 0b 3e 67 cf 88 bd
       -0.08859127 -0.001209658 0.1360767 -0.06680184
000350 7e c8 1e 3e 1a 2c 11 be cd 98 f9 bb 5a d2 f5 3d
       0.15506169 -0.1417698 -0.007617092 0.12003012
000360 b3 29 e5 bc 72 ab 65 3e 22 94 a0 bd 60 f8 99 3d
       -0.027973985 0.22428682 -0.07840754 0.07518077
000370 b3 cd 65 bc cc 26 e5 3b 15 cf 2e 3e 4a 5f 47 be
       -0.014026093 0.0069931503 0.17071183 -0.19469944
000380 e9 86 3d be bf 15 f3 bb 5e c1 e5 3d ec e9 00 be
       -0.18508495 -0.007418364 0.112185225 -0.12589234
000390 20 7f f2 bd cf 5f 0c 3e 32 9b ec bd 7e 91 f5 bd
       -0.118406534 0.13708423 -0.11553039 -0.11990641
0003a0 37 e8 6e be 6a 28 fa bd b4 00 2d be 7b 10 49 3d
       -0.2333077 -0.122147396 -0.168948 0.049087983
0003b0 85 38 1e be 29 66 50 be 13 07 5c 3e 83 26 9e 3d
       -0.15451248 -0.20351471 0.21487074 0.07722189
0003c0 d9 df 9b 3d 16 d1 0e 3e 90 94 ad 3d b8 47 d0 3d
       0.07611055 0.13946947 0.08475602 0.10169929
0003d0 93 70 71 bd df c8 19 3e 07 d4 53 3e f0 0c 79 bd
       -0.05894525 0.15018032 0.20686351 -0.060803354
0003e0 44 6e 48 be 80 e5 31 3e 1a f9 58 bd 11 ce 80 be
       -0.19573313 0.17372704 -0.052971937 -0.25157216
0003f0 19 f1 73 3d c5 6b 3b 3d 4f b3 74 bd cb ae ce 3d
       0.0595561 0.045757074 -0.059741315 0.10091933

critic.0.bias f4 [256]
000000 02 52 1a 3e f2 4c 17 be 94 85 fd 3d 9d 43 a9 bc
       0.15070346 -0.14775446 0.12378994 -0.020662123
000010 6b 8b 9e 3c 36 3b ee bd d4 f2 b6 3d 2c 99 9e bd
       0.019353589 -0.11632387 0.089330345 -0.07744059
000020 de ff 71 3d da 79 d5 3d 87 0e d5 bc d6 d4 21 ba
       0.059081905 0.10423632 -0.026007904 -0.00061733776
000030 26 ad ca bd 44 6c 2d bd d9 3e 6d 3c 81 72 bd bc
       -0.09896307 -0.04233958 0.014480316 -0.023125889
000040 a2 b3 be bd b0 59 dc bd 39 7f ce 3d 80 20 dc bd
       -0.09311606 -0.10759294 0.100828595 -0.107483864
000050 d1 2b 19 3e ad 17 7d 3c 88 dc a7 bd dc 78 b9 3d
       0.14958121 0.015447539 -0.0819636 0.09056255
000060 92 64 6b bc fb c8 dc 3b 65 95 0b 3e 26 85 d6 3d
       -0.01436724 0.006737826 0.13631208 0.10474615
000070 78 2c 61 3d 79 d2 07 3d 94 98 34 bd d5 20 c9 bb
       0.05497405 0.033159707 -0.044090822 -0.006137947
000080 57 99 15 be f2 2a e1 3d 73 c3 73 bd 7b 90 07 3e
       -0.14609276 0.10994519 -0.059512567 0.13238709
000090 c7 c3 21 3d 44 3a 19 3e cb df 61 bd 72 11 9a 3d
       0.03949335 0.14963633 -0.055145066 0.07522859
0000a0 d9 37 11 be 6a 97 89 3d 8d cd 62 3b 5d 60 d5 3c
       -0.1418146 0.06718333 0.003460738 0.026046926
0000b0 a1 21 16 3e 28 94 48 3d c6 98 28 be 0a 7d 65 bd
       0.14661266 0.048969418 -0.16464528 -0.05602745
0000c0 a8 bb 6c bc 56 49 87 bd a7 33 80 3c 82 54 98 3d
       -0.014449038 -0.066057846 0.01564963 0.074379936
0000d0 a0 9e 91 3d 7c 9c 86 bd 30 12 a2 bd 36 a5 01 be
       0.071103334 -0.06572816 -0.07913625 -0.12660679
0000e0 ea 02 a1 3d 53 ee 96 3d 9a a2 00 3e 14 8a 98 3d
       0.07861884 0.073696755 0.12562028 0.07448211
0000f0 90 dd 18 be 1a b4 b8 3d 24 fd 9e 3d 30 28 d5 3d
       -0.1492827 0.09018727 0.077631265 0.10408056
000100 dc c2 4d bd fd df 98 bd f2 1d c1 bd d4 9f 03 3e
       -0.05023466 -0.074645974 -0.0942954 0.12853938
000110 2e 76 96 3d f4 04 d6 bd 9f 47 d3 3d c5 a7 61 3d
       0.0734676 -0.104501635 0.10316395 0.055091638
000120 53 4c 52 3e 9f 43 9b 3d db 86 79 3d b8 fa 0c bd
       0.20536928 0.07581257 0.060919624 -0.03441879
000130 97 52 a6 bc a3 25 0f be ef 3b d0 bc ba b7 4b 3e
       -0.020303054 -0.13979201 -0.025419204 0.19894305
000140 1f d6 0f be 6f ad c9 3d 1c 77 21 3e 11 55 ce 3c
       -0.14046524 0.09847533 0.15768093 0.025187047
000150 92 bd 51 3e 62 68 2d 3e ac 43 be 3d 91 de c3 3c
       0.20482472 0.1693435 0.09290251 0.023909839
000160 af 58 8c bd 84 d3 7d bd b2 a6 6e bd 6c ba 37 3b
       -0.068528526 -0.061969295 -0.05826444 0.00280347
000170 e7 7d cf 3d fd 2e 86 bc e0 60 c7 3d ef 6a 8c 3d
       0.10131436 -0.016379828 0.09735274 0.068563335
000180 50 33 1a be 88 2a 2a be c0 11 56 3e 19 aa 06 3d
       -0.15058637 -0.16617787 0.20905209 0.03287706
000190 2b 55 05 3e ce 37 cb 3b 1b 4e de bd 57 bc 03 3e
       0.1302077 0.006201721 -0.10854741 0.12864815
0001a0 54 2b 54 3d f7 ee a6 bc 46 d5 27 bd 1a b6 07 be
       0.051799133 -0.02037762 -0.040974878 -0.1325306
0001b0 e9 28 05 3e e5 99 9b bd 5f 8f 28 3e 17 cc 54 bd
       0.13003887 -0.075977124 0.16460942 -0.051952448
0001c0 c7 b0 24 3d 74 a3 7f bd c3 28 c4 3a 0c b8 82 bd
       0.04020765 -0.06241174 0.0014965761 -0.063827604
0001d0 b7 75 a2 bc d5 fa b3 3d 95 00 e1 3a 02 48 40 be
       -0.019831521 0.08788077 0.0017166311 -0.18777469
0001e0 02 d9 23 bd 91 60 f1 3d 35 3a da 3d 6f f4 29 3e
       -0.040001877 0.11785997 0.10655633 0.1659715
0001f0 57 d6 a4 3d 82 74 84 bc 54 56 78 bd 7c 54 c0 3d
       0.080486946 -0.016168837 -0.060629204 0.09391114
000200 54 9a 3e bd 82 64 06 3e 72 f6 9b bd df 71 11 be
       -0.046533898 0.13124278 -0.07615365 -0.14203595
000210 8c 52 56 bc d1 c3 16 3e 89 ec 0d be de e0 d2 bd
       -0.013081204 0.14723136 -0.13859762 -0.10296796
000220 2d 5d b7 bc 36 32 16 3e a2 03 a4 bd ae c6 2c bd
       -0.022383297 0.14667591 -0.080085054 -0.042181663
000230 a3 ec 04 be f1 da da 3d 9f bd af bc 21 27 9d bc
       -0.12980895 0.10686291 -0.021452723 -0.019183697
000240 dd c4 bc 3c 5e f0 cb 3a 1f 76 61 3d d4 46 15 bc
       0.02304309 0.0015559306 0.05504429 -0.009111125
000250 21 93 9d bd 23 27 78 bd 50 a0 61 bd 3a 85 32 be
       -0.07694078 -0.0605842 -0.055084527 -0.17433634
000260 54 5b 01 3d 5c 41 0f 3e 12 72 1d 3d bd 2f 95 3d
       0.031581238 0.13989776 0.038438864 0.07284496
000270 76 96 2b bd c1 23 58 bd 70 9d 51 bc ae 51 d1 3d
       -0.041891538 -0.052768473 -0.012793884 0.10220657
000280 3e f3 11 be e4 2d e5 3d d3 6f f2 bd 76 8e 09 3e
       -0.14252946 0.111903936 -0.11837735 0.13433251
000290 b5 d8 70 bc 66 a0 c6 bd 6e 0c d3 bb cb 93 b1 3d
       -0.0147001045 -0.09698562 -0.0064406907 0.086707674
0002a0 93 8f 47 bd e8 b0 dd bd 7c 60 f0 3d 06 61 0f 3e
       -0.048720907 -0.10824758 0.11737153 0.14001855
0002b0 95 4a a0 3d 9b d6 c5 3d 84 71 f2 bc b7 f4 8c 3c
       0.078267254 0.09660073 -0.029595144 0.017206533
0002c0 a6 e8 9b bd 48 f1 03 3e b2 09 02 be 80 f4 5d 3d
       -0.076127335 0.1288501 -0.12699011 0.05418825
0002d0 d6 dd 02 be 87 98 24 bc dc 62 98 3d 8b 89 cc bd
       -0.12779936 -0.010046131 0.07440731 -0.09987172
0002e0 45 73 01 3e b8 9d 09 be 28 1b 5d 3d c3 29 07 3e
       0.12641628 -0.13439071 0.053980976 0.13199525
0002f0 9c 92 31 3c 8b 8d 85 3d 71 5c ab bc 27 19 a2 bd
       0.010838177 0.06521138 -0.020918103 -0.07914954
000300 cc 28 ea 3d 78 7f ce bd c1 38 81 bd c8 50 d6 bd
       0.11433563 -0.100829065 -0.06309653 -0.104646266
000310 3b 77 0d be 26 b0 0a bd 41 93 b5 bd ce b5 89 3d
       -0.13815014 -0.033859394 -0.08865977 0.067241296
000320 ac 13 4b bd 1c 43 84 bd 91 00 ba bd ab 9e e9 bd
       -0.049579307 -0.064581126 -0.09082139 -0.11407217
000330 ce 3e 5d bd 2b a2 b5 bd b6 eb bb bc b4 11 14 be
       -0.054014973 -0.08868822 -0.022939544 -0.14459878
000340 6b 01 d5 3d 36 df 01 be 60 99 90 3d 3f fc e5 bd
       0.10400661 -0.12682804 0.07060504 -0.11229753
000350 c0 6e 1d 3e 32 d6 f9 bc ee 98 1a bd af c4 b9 bd
       0.15374279 -0.030497644 -0.0377435 -0.090707175
000360 72 ac de 3d dc a6 fb bd 48 2f 88 3d 77 7c 30 3e
       0.10872735 -0.12287685 0.06649643 0.1723498
000370 9a 08 37 bd a2 db af bd 5d 56 e8 3d 4b 62 15 bc
       -0.044685937 -0.085868135 0.113445975 -0.009117673
000380 89 f7 ef 3d 40 96 02 be c9 7e 08 3e 1b 4a 05 3d
       0.117171355 -0.12752628 0.13329615 0.032541376
000390 3a 6d ef bd 14 51 b7 3d 98 fc b9 bc cc d2 b6 bd
       -0.11690755 0.08951011 -0.022703454 -0.08926925
0003a0 b5 e9 b1 bd 95 db 83 be 1d 7a 40 bd 14 e9 b6 3d
       -0.08687154 -0.25753465 -0.046991456 0.08931175
0003b0 bc 95 2c bd 3f 6a 32 bd 88 f6 87 bb a3 09 b2 3d
       -0.042134985 -0.043558355 -0.004149262 0.08693244
0003c0 0d 66 22 3e 24 c8 91 bd df 9e 8b 3c 08 7e 93 bd
       0.15859242 -0.07118252 0.01704353 -0.07201773
0003d0 08 31 05 3d 2e 23 11 bd 13 9e e8 bd fa d9 28 be
       0.032517463 -0.03543394 -0.11358275 -0.16489401
0003e0 72 17 01 be 10 1d 6b 3b 02 bf e6 3d 07 92 80 bd
       -0.126066 0.0035875477 0.112669006 -0.062778525
0003f0 3d 1f ed bd fc 55 d6 bd 0a c3 ae 3c 14 76 85 3d
       -0.11578224 -0.10465619 0.021333236 0.06516662

critic.2.weight f4 [256, 256]
000000 09 b7 42 3e 2e 9c 7a be ff 0a f1 bd 7e 10 5d bd
       0.19015135 -0.2447364 -0.117696755 -0.053970806
000010 69 e0 89 3e 0f e6 21 be 71 21 02 bd 3e ee 09 3e
       0.26929024 -0.15810417 -0.031770173 0.13469788
000020 db ad cf bd bb 1e 16 3e 07 83 8a 3e 23 8a 74 be
       -0.10140582 0.1466016 0.2705309 -0.2388082
000030 84 c6 84 3d 8f f8 49 be 05 41 a4 3c 4d 89 b3 3d
       0.06483176 -0.19723724 0.020050535 0.087664224
000040 e9 70 28 be 19 a5 fb 3d 6f ae 18 be 84 0c 5d be
       -0.16449322 0.12287349 -0.14910291 -0.21586806
000050 21 a6 c1 3d 8f fc 1a 3e a4 43 d6 3c 04 6e 7f bd
       0.09455515 0.15135406 0.0261553 -0.06236078
000060 3c 91 65 3d fe 9d da 3c ed 26 c4 3d a5 bc c8 3c
       0.05604671 0.026686665 0.09577737 0.024504015
000070 97 ce 8f bd 87 58 6f 3d 6b 4c 9d 3d 96 d0 e7 3c
       -0.07021826 0.058434036 0.07680591 0.028297704
000080 3c 4f 7e be 7d 1c d0 3e 9b f9 dd bd 6f 6e 7d be
       -0.24834913 0.40646735 -0.10838624 -0.24749158
000090 85 92 0f 3e f9 7a 83 bd 14 2b 48 bd fc a1 22 be
       0.14020737 -0.064199395 -0.048869208 -0.15882105
0000a0 ef 85 1c 3e 28 14 5e be 8d e1 2d 3e 20 e0 38 bd
       0.15285467 -0.21687376 0.16980572 -0.045135617
0000b0 f6 87 f9 3d 77 90 6a 3e c6 8e 57 3e d5 e3 53 3e
       0.121841356 0.22906671 0.21050557 0.2069238
0000c0 12 a5 f6 3d aa 60 74 be a6 ac 21 3e d3 f9 91 3d
       0.120432034 -0.23865 0.15788516 0.07127728
0000d0 e8 16 93 3d 27 02 b2 3d 6d 1b 52 3e 5e fa ef 3d
       0.071821034 0.08691817 0.20518275 0.117176756
0000e0 c1 e2 32 be 7c d2 c4 3d a6 d6 0a 3d 9d 9b 83 be
       -0.17469312 0.09610459 0.03389611 -0.2570466
0000f0 2a 3c 3f bd c2 2e 7e be e2 d9 63 3e 00 b5 98 3e
       -0.046688236 -0.24822524 0.22251084 0.29825592
000100 3d 98 92 be 47 fd 1b be f5 fb e6 bc 0b 19 46 3e
       -0.28631774 -0.15233336 -0.028196314 0.1934549
000110 16 db 97 bc d8 36 49 3d 97 c0 fd 3d cf 8d 0b 3e
       -0.018537086 0.04912457 0.12390249 0.13628314
000120 a9 b7 2b bd fb 0c 1e be 07 84 96 3e 5c b6 84 be
       -0.0419232 -0.15434639 0.29397604 -0.2592038
000130 6d a4 fa bd 4b 9d a3 bd a0 df 72 3e 9f cc 47 bc
       -0.12238393 -0.07988986 0.23718119 -0.012194782
000140 4a 47 4f be 63 d2 b9 3d 4c 42 e6 3d 40 dd 3d be
       -0.20242038 0.09073331 0.11243114 -0.18541431
000150 83 e7 8c be 45 20 ae 3e 86 af 21 3e 3e 0a 82 bd
       -0.2752038 0.34008995 0.15789613 -0.0634961
000160 82 fa 34 be a7 2b dc bd ed ab d5 bd 1a fc a0 be
       -0.17673686 -0.107505135 -0.10433183 -0.31442338
000170 03 8d eb bd 1c f7 cf bd 7c 99 09 3d f7 fa 6b be
       -0.11501505 -0.10154554 0.03359364 -0.23044954
000180 f2 67 93 3c 29 7e fd bd b7 59 75 3e 13 ed 12 be
       0.0179939 -0.12377579 0.23960005 -0.14348249
000190 3c cb 79 3e 19 d8 00 3d 49 f4 0b be 21 b1 61 bd
       0.24393934 0.031456087 -0.13667406 -0.055100564
0001a0 ea 87 14 bb 36 92 df 3b 2e 6f 29 be 5e 91 d5 3d
       -0.002266402 0.0068228496 -0.16546318 0.10428117
0001b0 cd cb e6 bc dd 73 07 bd 7c c4 b8 3d 1b f9 fc bd
       -0.028173352 -0.03306948 0.090218514 -0.123522006
0001c0 2c d5 b8 3d c0 e2 ae 3e 31 18 78 3d d2 92 78 3d
       0.09025034 0.34157372 0.060569946 0.060686894
0001d0 2a b8 5d be 38 5b 6f 3e 7c 55 5c be 55 7e c2 bd
       -0.21652284 0.23374641 -0.21516985 -0.09496752
0001e0 19 db 12 be b9 ea 7f be 60 3f cb bd 54 5b 1b 3d
       -0.14341392 -0.24991883 -0.09924197 0.037928894
0001f0 f8 59 ab 3d 39 e6 2d be 79 55 55 3d aa 10 dd bd
       0.083667696 -0.16982354 0.052083466 -0.10794194
000200 22 7f 90 3d 57 3c 71 3e 73 dc 63 be 5f 7e 94 3c
       0.07055499 0.23558174 -0.22252063 0.018126665
000210 be 4a 9d 3e 92 d7 90 be 65 41 76 3c 87 a1 d3 be
       0.30721086 -0.28289467 0.01503024 -0.41334173
000220 08 d7 94 3e ab 14 91 3d 2c 3f f6 3d 47 a4 14 3e
       0.29070306 0.0708402 0.12023768 0.14515792
000230 cb fd 54 be 1b a1 33 bb 1a 14 33 3d f2 03 54 3e
       -0.2079994 -0.0027409259 0.043720342 0.2070463
000240 14 13 10 be f5 d4 97 3c 55 94 81 3d 97 b2 a5 3d
       -0.14069778 0.018534163 0.0632712 0.08090704
000250 a2 e0 df bd 60 08 fc 3c 6c 76 ba 3e ed a2 63 be
       -0.10931517 0.030765712 0.36418474 -0.2223012
000260 df 59 b8 3d 95 a8 69 bc 18 8c f6 ba f0 1f e9 3c
       0.090015166 -0.0142613845 -0.0018810062 0.028457612
000270 8b 2a 21 3e 3c 64 24 be fe 7b c8 bc 92 4f c1 3d
       0.15738885 -0.16053861 -0.024473187 0.09439005
000280 78 fe 68 3e 68 1c 82 3d 72 fa fa 3d 1e 5e 2a be
       0.22753322 0.06353074 0.122548 -0.16637465
000290 77 a4 78 be c9 46 0b be b7 64 c0 bc 9b 92 25 3e
       -0.24281488 -0.13601221 -0.023485525 0.16169207
0002a0 07 86 19 be ca 5d 3c be 24 a7 5b be 2b f7 22 be
       -0.14992534 -0.18395153 -0.21450478 -0.159146
0002b0 0e 51 10 3e 43 a0 d2 bd 2e c5 4b bc 11 fb b5 bd
       0.1409342 -0.10284474 -0.012437148 -0.08885778
0002c0 75 f5 98 be 47 68 0d 3d 9c 6c c5 3c 54 6b b1 bc
       -0.2987477 0.034523275 0.02409964 -0.021657623
0002d0 8a c7 87 be 38 cd 73 3e 4f 2a 54 bd d1 f1 a3 3e
       -0.26519424 0.23808753 -0.05179816 0.3202043
0002e0 94 37 1e 3e 32 27 9b bd 27 7e 78 bb 9b 37 39 3d
       0.15450889 -0.07575835 -0.003791699 0.045219045
0002f0 49 3b b4 bd a5 28 08 bc d5 7a f1 bd dc cf 80 be
       -0.0880037 -0.008310472 -0.117910065 -0.25158584
000300 5a 19 7d 3e 6a e9 93 bd 66 c4 2c bd 46 29 3c be
       0.24716702 -0.072222546 -0.042179488 -0.1837512
000310 92 08 38 be 5c 34 c3 bd de b1 5d be d9 72 41 be
       -0.1797202 -0.09531471 -0.21649882 -0.18891467
000320 c1 0e 7a bd 0c c7 c5 bc 39 47 b5 3d e6 e0 a6 3d
       -0.061049227 -0.024142765 0.08851475 0.08148365
000330 15 60 e3 bd 2d 17 b7 bc 85 86 84 3e f2 1f d9 3d
       -0.111023106 -0.022349918 0.2588388 0.10601796
000340 36 5d 56 3e 2c bd d3 3d 5a dc 75 bd 05 8d 0c 3d
       0.20933995 0.10338816 -0.060024597 0.034314174
000350 4c 74 10 3e 4b 49 09 be 12 5b ce bd 0d 53 fb 3d
       0.14106864 -0.13406865 -0.10075964 0.122717
000360 c4 11 99 bc f8 e9 22 be 27 a1 62 be 57 c0 e3 3c
       -0.01868523 -0.15909564 -0.22131787 0.027801676
000370 c4 45 53 bd e5 10 88 bd 8d 0b 00 be e6 c1 27 be
       -0.051580206 -0.066438474 -0.12504406 -0.1638256
000380 86 cb 1b 3e 99 05 8a bd 04 de 31 3e 37 5b c8 3d
       0.15214357 -0.06739349 0.17369848 0.09783023
000390 67 27 1c bd 11 e2 4d 3e 09 f9 48 3e 15 b0 14 3d
       -0.038123515 0.20105769 0.1962625 0.036300737
0003a0 13 60 4d bd aa b2 08 be 0b 7f 23 3d e9 c2 77 3e
       -0.05014045 -0.13349405 0.03991608 0.24195446
0003b0 a9 49 61 3e 6f 5c 0d 3e 4b b9 bd bd d4 bc 30 3e
       0.22000755 0.13804792 -0.092638575 0.17259532
0003c0 ae e2 8e bc 50 ec 8d 3d 32 33 62 be 19 ad e9 3d
       -0.017442074 0.06929839 -0.22089842 0.11409969
0003d0 f0 20 67 3e 14 71 1e 3e 47 1e 75 bd 77 37 a0 bd
       0.22571158 0.15472823 -0.059843328 -0.07823079
0003e0 2a 60 81 bd 33 44 d0 3d ee 1b f5 bb 9b 88 87 bd
       -0.0631717 0.10169258 -0.007480136 -0.06617852
0003f0 53 1b c1 3d d7 40 41 3e 5b ac 66 3e f2 e0 46 3d
       0.0942904 0.1887239 0.22526686 0.04855437

critic.2.bias f4 [256]
000000 87 59 3a 3e f1 02 a1 bd 17 86 5b 3e 66 a4 27 bd
       0.18198214 -0.07861889 0.2143787 -0.040928267
000010 10 e4 3c 3e cf 94 ac bc 31 8d 4e 3e 4d c9 c9 3a
       0.18446374 -0.021067051 0.20171048 0.0015395075
000020 43 a4 36 be d6 9b 23 be bc a9 54 3d 4a b3 97 bd
       -0.17836098 -0.15977415 0.051919684 -0.074072435
000030 bc d8 9e bd 33 22 af bd 35 48 44 3e 92 3b f3 3d
       -0.077561826 -0.08551445 0.1916817 0.118765965
000040 df e0 74 be 1a 83 11 be db 2d b8 3d 43 7c 1a bd
       -0.23913907 -0.14210168 0.08993121 -0.03771616
000050 b6 a3 39 bd ba 92 30 be ad 5d a2 3e 94 dc 77 3e
       -0.045322143 -0.17243472 0.31712094 0.24205238
000060 13 36 41 3e 00 2d df 3d 56 59 b6 bc fe b3 8d 3d
       0.18868284 0.10897255 -0.022259396 0.069190964
000070 84 44 e3 3d 8f 96 60 3e f9 5c 07 be 2e 3e d8 3d
       0.11097053 0.21932434 -0.1321906 0.10558735
000080 9e 21 43 3c 22 f7 18 bd d7 6e 84 b8 c8 13 16 3e
       0.01190987 -0.03734506 -6.314896e-05 0.14655983
000090 35 47 5f 3e 2b 6e 5e 3e 29 fe 17 3e 31 c0 c0 bd
       0.21804507 0.21721713 0.14843048 -0.094116576
0000a0 fd cc 14 3e 0b 98 57 bd f2 14 07 be c6 1d 8e bd
       0.14531322 -0.052635234 -0.13191584 -0.069392726
0000b0 16 10 0a be a8 11 51 be 7d f2 e2 bd bb 4d 0a 3e
       -0.13482699 -0.20416892 -0.11081407 0.13506214
0000c0 32 16 35 3e 50 72 4e 3e a3 3b c6 3e c5 f5 86 3c
       0.17684248 0.20160794 0.38717374 0.016474614
0000d0 e0 85 3c 3e a3 7f 68 3d 78 27 70 be 73 fb 11 bd
       0.18410444 0.05676235 -0.23452556 -0.03564019
0000e0 be a5 bf b9 57 3c b2 3d 05 c8 d8 3d 4f ca 48 be
       -0.00036553846 0.08702915 0.10585026 -0.19608425
0000f0 b6 95 fa 3d 48 59 84 be f8 c2 46 be 13 45 80 3e
       0.12235586 -0.25849366 -0.19410312 0.250527
000100 ab 53 99 bd c7 5d 54 3d 55 a3 36 be 49 42 58 be
       -0.074866615 0.051847246 -0.17835744 -0.21119036
000110 18 a0 58 bd 9d 0a b6 3d dc 05 4d 3e 0a d6 97 3e
       -0.052887052 0.08888743 0.20021766 0.29655486
000120 41 77 7b 3d 2d a1 92 bd 8f 2e 07 bd f8 6f 05 3e
       0.061393026 -0.07159648 -0.033003386 0.13030994
000130 eb 0a 15 3e 33 2b 4a 3e b9 62 b3 be 94 08 36 be
       0.14554946 0.19743042 -0.35036257 -0.1777671
000140 5d 34 07 3e 19 c1 1f be bd 9c c0 3d 4b 9b 87 bc
       0.13203569 -0.15601005 0.094048955 -0.016553542
000150 16 a5 81 3e 9a f3 11 3e 57 97 50 be 67 7f 33 3e
       0.25321263 0.14253083 -0.20370232 0.17529069
000160 5f ac 4a 3e 76 35 17 3e 84 72 05 3e f4 5c 3b 3e
       0.19792317 0.14766487 0.13031965 0.18297178
000170 7d 4f 3c be 09 22 56 bd df 5b 74 bd 02 00 3c be
       -0.18389697 -0.052278552 -0.059657928 -0.18359378
000180 ee 88 3e be 69 f7 2f be b9 b7 1d 3d 3a e7 3f be
       -0.18606922 -0.17184223 0.03850529 -0.1874055
000190 0b 54 4d 3e f3 4f 1b be 9f 92 60 be 15 ca b2 bd
       0.20051591 -0.15167217 -0.21930932 -0.0872995
0001a0 e3 9e 55 3e 56 b0 32 3e ec 1a 0c be 4f f1 50 3c
       0.20861392 0.1745008 -0.13682145 0.012752845
0001b0 c3 d7 76 be 25 c1 41 be d5 63 78 3e b6 5b a0 bd
       -0.24105744 -0.18921335 0.24256833 -0.078299925
0001c0 28 18 46 3e 9a 60 41 be 52 8d f1 3d 62 45 b2 3c
       0.19345152 -0.18884507 0.11794533 0.0217616
0001d0 a7 39 97 be f0 16 09 be b7 c9 3c be 1d 2e 25 be
       -0.29536173 -0.13387656 -0.18436323 -0.16130872
0001e0 89 0c 32 3e 0c 0b 0c 3e 38 4f f0 bc e2 82 2b 3d
       0.17387594 0.13676089 -0.02933465 0.041872866
0001f0 68 bc 1b 3e 0a 02 5e be a0 38 2f be 57 0c 52 3e
       0.1520859 -0.21680465 -0.17111444 0.2051252
000200 2f 20 da 3d c2 57 4b 3e d2 74 30 3e d8 7a b8 3d
       0.1065067 0.19857696 0.17232063 0.090078056
000210 49 f7 81 bd 66 76 e3 bc 55 3a 36 be 8a 9b bb bc
       -0.06345994 -0.027766418 -0.1779569 -0.022901315
000220 2e fb 4a 3e b0 c6 12 be f6 c5 0e 3d c3 41 29 3e
       0.1982238 -0.14333606 0.03485676 0.16528992
000230 a9 3c 30 be c1 25 62 be e6 9c 00 3e d5 72 4d 3e
       -0.1721064 -0.22084714 0.12559852 0.20063336
000240 dd 4f 10 be 67 8a 59 be 51 5b 21 be b7 ae 35 3e
       -0.14092965 -0.21244203 -0.1575749 0.1774243
000250 a7 6d 22 3e 1e db a6 bc d2 88 4b be be ce 9b bd
       0.15862142 -0.020368155 -0.19876412 -0.07607792
000260 08 de b2 3d 57 3f a2 be 74 20 62 3e ca 76 88 3d
       0.08733755 -0.3168895 0.22082692 0.06663282
000270 20 2c 02 3e 7c fb ae bc b0 b8 e6 39 87 62 14 bd
       0.12712145 -0.021360151 0.00044006621 -0.036226775
000280 07 f4 b3 bd 23 98 71 3e 61 3e 19 be b8 d8 9a 3d
       -0.08786779 0.23593192 -0.14965202 0.07560867
000290 ce 9e 72 bd 15 6a 24 3b eb 19 48 be 66 4e 69 be
       -0.05923348 0.0025087644 -0.19541137 -0.22783813
0002a0 3e 1a f1 3d b4 78 49 be 5d fd db bd 01 25 3f 3e
       0.117725834 -0.19674951 -0.107416846 0.1866646
0002b0 bd be 7a 3e 5e 54 25 bd 50 dc 03 be be 91 05 3e
       0.24486823 -0.040363662 -0.12877011 0.13043877
0002c0 6a 48 0f bd 94 6b c5 bd 53 56 63 3e 2c 30 b9 3e
       -0.03498117 -0.096396595 0.22200899 0.36169565
0002d0 76 b0 04 3c ec 8a 1a 3e 39 b0 85 3d 93 16 14 be
       0.008098712 0.15092057 0.065277524 -0.14461736
0002e0 0c b4 82 bd a9 bb 31 3e 09 5a 0a be 20 2d 96 3e
       -0.063819975 0.17356743 -0.13510908 0.29331303
0002f0 a7 ab 36 3e 07 4b 5a be ab 73 12 be 64 85 d2 bd
       0.17838918 -0.21317683 -0.14301936 -0.102793485
000300 47 28 71 3e fa f4 4e 3e f1 c1 ee bd a9 4e 07 3e
       0.23550521 0.20210639 -0.11658085 0.132136
000310 25 48 01 3e 68 27 f1 bd 59 b2 0a 3e cb 19 8d bb
       0.12625177 -0.11775094 0.13544597 -0.0043060533
000320 67 3d 76 be b0 bb 86 3e 63 42 27 bd 36 0c 5a bd
       -0.2404686 0.2631507 -0.040834796 -0.0532343
000330 87 fd 55 3d 53 69 cd be b5 5a 56 bd 88 d6 4f bd
       0.052243736 -0.40119419 -0.0523326 -0.050741702
000340 9f d1 85 be f0 dd 27 be 40 29 52 be b6 0f 67 3e
       -0.2613649 -0.16393256 -0.20523548 0.22564587
000350 98 df 96 bd 17 0d 0d 3e ad 5d 18 3e 4d 43 a4 3c
       -0.07366866 0.13774525 0.14879484 0.020051623
000360 85 c1 03 be 4b 88 32 be b0 38 93 bc 0d 65 99 3d
       -0.1286679 -0.17434804 -0.017971367 0.07489977
000370 3a bf 85 3d 32 cf 2b 3d 75 3d 25 be f7 9b 21 3e
       0.06530614 0.041945644 -0.16136725 0.15782152
000380 a4 ec 74 3e 33 5c 56 3e 2b 98 42 3e 20 a1 4e be
       0.23918396 0.20933609 0.1900336 -0.20178652
000390 9f f4 a1 bd dc 04 ca 3e 3b 6d 93 bd b6 e4 39 3c
       -0.07907986 0.39456832 -0.071985684 0.011346033
0003a0 8a 7e ff bd ae fa f4 3d 47 22 a3 be 5b 14 e9 3d
       -0.12475307 0.11961876 -0.3186209 0.113808356
0003b0 01 c6 9f bc e3 c0 27 3e 66 4b 2a 3e 8b 65 3e be
       -0.019503595 0.16382174 0.16630325 -0.18593423
0003c0 2c 82 06 3e 94 73 65 3d 7e ad 55 be ef d5 26 be
       0.13135594 0.056018427 -0.20866963 -0.16292547
0003d0 7a 73 26 3d 04 4c bd bd df 1e 1d bd 4b d7 0f be
       0.04063747 -0.092430145 -0.03835952 -0.14046971
0003e0 19 70 a8 bd 1a 1a 9b 3e a4 b7 06 be 97 ce 21 3e
       -0.08224506 0.3029335 -0.13155991 0.15801464
0003f0 5a 9c 7b 3d 48 99 33 3e 7c d1 ec bc 1d f7 5c 3e
       0.061428405 0.17538941 -0.028908484 0.21578641

critic.4.weight f4 [1, 256]
000000 5e ba 0d 3f af cc e8 3e 1d 70 14 3f dd 92 2b 3f
       0.553625 0.4546866 0.5798357 0.6702097
000010 f6 ee 10 3f 96 b5 76 3f 19 19 08 3f c1 fc a2 be
       0.56614625 0.9637083 0.53163296 -0.3183346
000020 d8 da 18 bf dc 0b c6 3e 51 a1 1a bf 91 e1 46 bf
       -0.5970893 0.38680923 -0.604024 -0.7768794
000030 a4 f1 b5 3e d1 16 fb be 24 eb 15 3f 25 3f 11 3f
       0.3553592 -0.49040845 0.5856192 0.56736976
000040 b0 e8 16 bf 59 8c 04 bf f6 b9 65 3f c4 ea 6a bf
       -0.589488 -0.51776654 0.8973688 -0.91764474
000050 cc 74 b3 3e 6b 0a 17 bf ff 13 17 3f 55 23 7a be
       0.35050046 -0.5900027 0.59014887 -0.2442754
000060 6d 75 d3 bd fd 37 47 3f 7d 85 04 bf 7f 4e c7 be
       -0.103251316 0.77819806 -0.51766187 -0.38927075
000070 50 6e 57 be 87 a7 0a 3f 75 b6 12 bf d7 f5 ea be
       -0.21038175 0.54161876 -0.5730966 -0.45890686
000080 ff c6 ea be af ae d9 3e 3f 53 3e 3f 04 20 12 3f
       -0.45854947 0.42516086 0.74345773 0.570801
000090 8b 48 25 be 9c 4d 0c 3f 3f 8b 33 3f 8b 1d 16 3e
       -0.16140954 0.5480592 0.7013435 0.14659707
0000a0 41 ce 11 3f ba 48 4a bf 4a 73 19 bf bf 8b 28 bf
       0.56955343 -0.7901722 -0.5994154 -0.65838236
0000b0 9e 93 da 3e 6c 74 11 bf 33 46 87 3e f4 0b 11 3f
       0.42690748 -0.5681827 0.26420745 0.56658864
0000c0 fb 0b 0e 3f c1 f0 f1 be 7b 99 11 3f 0f 33 4e bf
       0.5548703 -0.47253993 0.5687482 -0.8054666
0000d0 e5 84 08 3f 74 d0 f0 3e c5 ab 12 bf d8 de 6c 3f
       0.5332778 0.47034037 -0.5729335 0.9252753
0000e0 ea 5e 10 3f 36 9d 82 be 91 0f 29 3f 64 9f 0b bf
       0.5639483 -0.25510567 0.6603938 -0.54540086
0000f0 1a 86 af be 59 10 17 bf ee cb 17 bf 0e 5c 18 3f
       -0.34282 -0.5900932 -0.59295547 0.59515464
000100 27 74 9f 3e eb 06 15 bf 7d ba 0f bf 28 c3 13 bf
       0.31143305 -0.5821368 -0.56143934 -0.5771966
000110 bf 1a 09 3f 54 e7 c2 be 1c 51 15 3f 10 ed 0a 3f
       0.53556436 -0.38067114 0.5832689 0.5426798
000120 84 a4 1e 3f 72 80 44 bf 6c 3e 49 bf 93 07 27 3f
       0.6196978 -0.7675849 -0.78610873 0.6524593
000130 12 03 15 3f eb 30 ff 3e ae 0f 05 bf a3 f1 38 3e
       0.5820781 0.4984201 -0.5197705 0.18060927
000140 ac 66 15 3f 33 8f 93 3e c2 ee 13 3f 6b 39 1c bf
       0.5835979 0.2882019 0.5778619 -0.6102511
000150 c5 9d 98 be de 72 2a 3f 87 01 ae 3e bc 63 19 3f
       -0.2980787 0.66581523 0.3398554 0.5991781
000160 a9 60 0f 3f bd f4 17 3f f8 33 8e be 9a 9a 09 3f
       0.56006867 0.59357816 -0.27774024 0.5375153
000170 b9 ec 11 bf 53 d0 15 3f da b6 19 bf 93 67 0e bf
       -0.57001835 0.58521 -0.60044634 -0.5562679
000180 ac 81 0e bf c1 cd 32 3e 1c b2 88 be a6 81 16 bf
       -0.55666614 0.17461301 -0.26698387 -0.5879158
000190 54 72 14 3f b7 fa b3 3e ac 82 25 bf 70 ba 93 3e
       0.5798695 0.35152218 -0.64652514 0.28853178
0001a0 20 b4 0e 3f 4c 2a 5e 3f e7 74 0f bf d3 17 41 3f
       0.557436 0.8678329 -0.56037754 0.7542698
0001b0 42 29 15 bf f4 4f 15 bf ac d4 0b 3f 67 02 1c bf
       -0.5826608 -0.58325124 0.54621387 -0.60941166
0001c0 d5 26 11 3f fe b9 13 bf b4 e9 0f 3f da bf 1b bf
       0.5669988 -0.57705677 0.5621598 -0.6083962
0001d0 c1 4f 16 bf 09 73 13 bf 98 d6 ca 3e 8e 5a 13 bf
       -0.58715445 -0.57597405 0.39616847 -0.5756005
0001e0 08 f0 14 3f 08 72 17 3f 56 5d 63 bf f4 1a b1 be
       0.5817876 0.5915837 -0.88814294 -0.34590876
0001f0 35 4d 16 3f 62 76 a6 3d ca 7f 19 bf 9c ed f6 3e
       0.5871156 0.081280485 -0.59960616 0.48228157
000200 b6 b6 2e be cb b2 34 3f 5a f5 68 3f 33 bf fe 3e
       -0.17061886 0.70585316 0.90999377 0.49755248
000210 cf db ef 3e d3 2a 3b 3f 8e da 14 bf 43 73 05 bf
       0.46847388 0.7311222 -0.5814599 -0.52129
000220 5f 71 0c 3f a6 df 9b 3e dd 82 4c bf dc fb 57 3f
       0.5486049 0.30444068 -0.7988718 0.8436868
000230 95 73 17 bf 0e 73 eb 3e 60 d4 bd be e1 f0 15 3f
       -0.5916074 0.45986217 -0.37076092 0.5857068
000240 cc a9 2b bf 77 dd e8 3e fd 6d 93 bf 64 fc 92 be
       -0.67055964 0.45481464 -1.1517941 -0.28708184
000250 b9 1f 11 3f c1 ec 50 bf 2a 73 09 bf be 22 53 3f
       0.5668903 -0.8161126 -0.5369135 0.8247489
000260 75 bc a0 be f1 83 0e bf dc 3c db be d1 63 34 3f
       -0.3139378 -0.55670077 -0.4281987 0.7046481
000270 b1 fe 1b 3f 2f 81 b8 3e 9e 77 71 3f 07 fa 92 3f
       0.60935503 0.3603606 0.94323146 1.1482552
000280 43 cc c7 3e a4 b4 10 3f ec de 14 bf 02 a3 97 be
       0.39023027 0.56525636 -0.5815265 -0.29616553
000290 5b 93 11 bf ed 38 ba 3e 77 a6 0d bf 44 43 04 bf
       -0.5686547 0.36371556 -0.5533213 -0.5166514
0002a0 83 70 0e 3f 72 83 13 bf b6 13 d4 3e 58 28 0f 3f
       0.5564043 -0.57622445 0.41421288 0.55920935
0002b0 7b 02 12 3f 79 fc 25 bf dd e3 13 bf 64 65 13 3f
       0.57035035 -0.6483837 -0.57769567 0.57576585
0002c0 e7 53 cb 3e 6b 9f 15 bf 3a 13 15 3f 12 ee 0b 3f
       0.3971245 -0.5844638 0.5823246 0.5466014
0002d0 03 62 0e 3f fb bf 16 3f d4 27 40 bf f4 46 c8 3e
       0.55618304 0.5888669 -0.7506077 0.39116633
0002e0 86 93 21 3f a9 50 12 3f bc 23 8c 3e 04 80 1d 3f
       0.6311573 0.5715433 0.27371013 0.6152346
0002f0 3a a0 0e 3f 94 3d 15 bf 29 27 12 bf 75 e7 e8 3e
       0.55713236 -0.58297086 -0.57091004 0.45489088
000300 29 e0 15 3f c0 f9 10 3f 4f 83 32 bf ea 85 15 3f
       0.58545166 0.5663109 -0.6973161 0.5840746
000310 a4 26 12 3f f2 fc 06 bf c2 44 0b 3f 9b 76 94 bf
       0.5709021 -0.52729714 0.5440179 -1.1598696
000320 b5 97 15 bf 5d 7d de 3e 4d b7 96 3e ed 6d 0b bf
       -0.5843461 0.4345502 0.29436722 -0.5446461
000330 38 82 03 bf 32 8b 14 bf 36 33 4a bf ea c1 eb be
       -0.51370573 -0.58024895 -0.7898439 -0.46046382
000340 c7 24 07 bf 1c f8 0e bf 0c 2b 1a bf 83 83 13 3f
       -0.5279049 -0.55847335 -0.60221934 0.57622546
000350 d1 8b be 3e fe c7 17 3f a0 24 11 3f e3 55 0e bf
       0.37216046 0.5928954 0.5669651 -0.555998
000360 77 29 13 bf 3c a5 17 bf 99 e0 aa 3e 9e 27 87 be
       -0.57485145 -0.592365 0.3337448 -0.26397413
000370 f8 bf 21 3f 8d a1 c5 be 3a 4f 0a bf 87 37 18 3f
       0.63183546 -0.38599816 -0.5402714 0.5945973
000380 a9 89 12 3f 9c 20 13 3f f4 e3 17 3f 13 10 b8 3e
       0.572413 0.5747163 0.59332204 0.35949764
000390 85 70 ce 3e 0e 0c 14 3f 98 ff 2f bf 1a e9 9d be
       0.4032022 0.57830894 -0.6874938 -0.30841905
0003a0 8b f1 0e bf b4 0a 32 3f f4 1c 0e bf 36 6a 37 3f
       -0.55837315 0.6954758 -0.5551293 0.7164644
0003b0 54 57 65 bf 78 46 51 3f 5c ae 13 3f cb f7 0d bf
       -0.8958638 0.8174815 0.57687926 -0.5545623
0003c0 a2 88 be be e3 c0 f3 be bd 07 0f bf 40 f0 12 bf
       -0.37213618 -0.47608098 -0.5587118 -0.5739784
0003d0 e3 d1 98 be a4 7d d8 3e 79 86 fe 3e 2a 39 0d bf
       -0.2984763 0.42283356 0.4971197 -0.5516535
0003e0 ef 22 24 bf 03 e9 31 3f ac b7 9e 3e 5c 4d 12 3f
       -0.64115804 0.6949617 0.30999506 0.5714929
0003f0 c5 88 04 3f bb 6f 12 3f 08 cd e0 3e dd f2 49 3f
       0.51771194 0.5720174 0.43906426 0.78886205

actor.0.weight f4 [256, 42]
000000 db 2b c5 bb f0 4e 23 be ba d8 5d 3c 2b d3 17 be
       -0.006017191 -0.15948081 0.013540441 -0.14826648
000010 f3 24 ee 3e ea d1 b6 3e f9 83 2e bd 86 2c 11 bb
       0.46512565 0.35707027 -0.042606328 -0.0022151782
000020 04 22 bf bd 32 a6 1b be de dc 67 be 0d e2 6f be
       -0.0933266 -0.15200117 -0.22642848 -0.23426075
000030 64 01 f0 3d 5d d5 3c bc 95 a8 11 be 6c fd 07 bf
       0.11719015 -0.011525479 -0.14224465 -0.53121066
000040 09 46 0f bf 72 f4 3d 3e 78 97 41 3d 80 e0 20 bb
       -0.5596624 0.1855028 0.047263592 -0.0024547875
000050 90 b1 36 bd 15 7a 64 be fc 11 26 3c cf 06 d4 3d
       -0.04460293 -0.22312196 0.010136124 0.10352861
000060 41 b7 45 bc 23 7c d4 3e 3e ff 85 3d 72 cd a6 3d
       -0.012067617 0.4150096 0.06542824 0.08144654
000070 d9 92 a7 3c 2d 92 8a bd 93 23 5b 3e 39 78 7a 3e
       0.020455765 -0.06766162 0.21400289 0.24459924
000080 b1 ad 35 3e f6 5f cf 3c 9b 9c e5 3d 5a 97 a0 3d
       0.1774204 0.025314312 0.11211511 0.07841368
000090 b6 8a d6 bb 33 4d 1f 3e 89 a1 2e 3e de 15 5b 3e
       -0.0065472974 0.15556793 0.17053808 0.2139506
0000a0 7b df e6 bb 6e 4f a0 3e 45 20 cb 3d 29 04 38 3e
       -0.007045684 0.313106 0.09918264 0.17970337
0000b0 04 70 37 3e 73 56 82 3e 19 a2 42 3d 89 a1 82 3c
       0.17913824 0.2545658 0.04751787 0.015946167
0000c0 78 36 3d be 1a 8b 67 3e 3e 35 d2 3d 2f 91 fe bd
       -0.1847781 0.22611657 0.102640614 -0.12430035
0000d0 04 ad 82 3e c5 a3 27 3e e5 f1 cb 3d 81 34 57 3e
       0.25522625 0.16371067 0.09958247 0.21016122
0000e0 d1 36 25 3d 3b de f5 be 61 ed 92 be e4 7f a9 3d
       0.04033548 -0.4802111 -0.2869673 0.08276346
0000f0 33 fb 26 3e 90 6c 8d 3d a1 7d 3c be 45 56 e8 be
       0.16306762 0.06905472 -0.18407299 -0.45378318
000100 82 27 74 3d a7 94 83 3e 2e 58 15 3e 8d 3b 4f 3e
       0.05960799 0.2569935 0.14584419 0.2023756
000110 82 b8 f4 3d e4 7c 84 3e c9 70 19 be 3d 3b ec 3d
       0.119492546 0.25876534 -0.1498443 0.11534736
000120 fe c8 da 3d 64 45 91 bd 68 57 5e 3e 60 9a 46 be
       0.106828675 -0.07093313 0.2171303 -0.19394827
000130 90 82 28 3e 68 64 b0 3c 83 38 7e 3e 84 ae 82 3e
       0.16456056 0.021532252 0.24826245 0.2552377
000140 b5 09 d7 3d 81 49 2f be 79 df 86 be 67 ed d5 3e
       0.10499898 -0.17117883 -0.2634237 0.41782686
000150 f1 f5 0b 3c 6d df 14 3e 49 9f 81 3e 49 ff 79 3e
       0.008542524 0.14538355 0.25316837 0.2441379
000160 43 74 81 bc 5b 6b 7b be 05 0a a2 be 3e 06 2d 3e
       -0.015802508 -0.24552672 -0.3164827 0.16896912
000170 2b 0d 40 3e a2 80 8b 3d 30 d5 e6 3d 1f ee 99 bc
       0.18755023 0.06811644 0.11271131 -0.018790303
000180 d8 6e 59 3e b7 6f 41 3e 12 c8 19 3e 84 88 ec 3d
       0.2123369 0.18890272 0.15017727 0.11549476
000190 04 e7 57 3b e5 20 4b 3d 22 a7 fb bc 80 14 83 3b
       0.0032944093 0.049591918 -0.030719344 0.0040002465
0001a0 66 ff d0 bd d0 a5 12 be 14 d9 43 3e a0 8c aa bc
       -0.102049634 -0.14321065 0.19125777 -0.020819008
0001b0 fd c8 fc bd fb 4f 4b 3e 9e c2 49 3e 58 27 4f 3d
       -0.12343023 0.19854729 0.19703147 0.05057463
0001c0 2f fc 2a be 65 46 38 bd 5e 34 58 be 7e 3a b4 be
       -0.16697763 -0.04498901 -0.21113726 -0.35200876
0001d0 6f 1f 62 3b 5e e0 c6 bc 03 bc eb be 7b d9 06 3e
       0.00345036 -0.024276908 -0.4604188 0.131689
0001e0 a8 79 1a bd 31 6f cf 3d 79 c2 70 be 86 af 30 be
       -0.037713677 0.1012863 -0.23511685 -0.17254457
0001f0 e7 f9 bb be 64 45 3f bc e1 92 4e be c3 dc 31 3e
       -0.36714098 -0.011674259 -0.20173217 0.1736937
000200 c2 04 ff bd 1e 56 1a 3e 22 b0 8f 3f 74 12 04 be
       -0.12452079 0.15071914 1.1225626 -0.12897664
000210 2a 05 ae 3c e2 db d0 bd e3 9b 32 be 96 7a 96 bd
       0.021242697 -0.10198189 -0.17442279 -0.073476
000220 2d a3 d3 3e f5 8a 58 3e 5e 94 80 be 8b 5b 44 3d
       0.4133543 0.21146758 -0.25113195 0.047938865
000230 49 6d 00 be dd e6 0b be af 61 36 bd a1 5b 82 3d
       -0.12541689 -0.13662286 -0.044526752 0.06365133
000240 eb 53 04 bd 72 a4 dc 3d c7 1b 05 be 98 b5 e7 bd
       -0.032306593 0.10773553 -0.12998877 -0.11313933
000250 fb 54 be 3d 37 f9 66 be c6 1f 35 be ea 5f 5b bd
       0.092935525 -0.22556005 -0.17687902 -0.053558268
000260 83 ab 76 3e 18 10 a8 3d a0 cc 2e 3e 0e 07 cd bc
       0.24088864 0.08206195 0.17070246 -0.025027778
000270 6c 75 ba be ec f8 8a be 53 56 39 be fb fc aa 3d
       -0.3641771 -0.27143037 -0.18099336 0.083490334
000280 aa dc 05 be 04 f0 7c bd e4 4e 54 bd d5 92 79 3e
       -0.13072458 -0.061752334 -0.05183305 0.24372418
000290 80 47 ff bd 33 2b a1 bd 83 13 ba bd 45 cb ad 3e
       -0.124648094 -0.07869568 -0.09085753 0.33944145
0002a0 4a cb 4f bd df 05 ff 3d d8 6f a3 be d2 50 1e 3d
       -0.05073098 0.12452292 -0.31921268 0.038651295
0002b0 5c d5 2f 3f 28 cb 1a 3f 7a 2c 83 3e 8a da 09 3d
       0.68684936 0.6046624 0.2561987 0.03365568
0002c0 29 5a a9 be 96 d8 d2 3d 8f d5 83 3d 03 f8 59 bd
       -0.330766 0.10295217 0.064372174 -0.053215038
0002d0 7e d3 a0 3d bf 01 66 3d b8 86 ab bc 31 0f 8c be
       0.07852839 0.05615401 -0.020938262 -0.2735534
0002e0 6b cc 6d be 62 d9 08 be 5d 18 41 bc 2f 07 01 3e
       -0.2322251 -0.13364175 -0.011785594 0.12600397
0002f0 7b 56 31 be 74 d9 e8 bd 97 a5 0a 3b 9c 2d 63 bd
       -0.17318146 -0.11369601 0.0021155828 -0.05546342
000300 97 cf 8c be 61 b6 62 be bd 6f 9e be 9c fc a4 bd
       -0.27502128 -0.22139885 -0.30944625 -0.08055994
000310 93 d5 77 3d 0c 4a 06 3e 2c 0f b4 3e 36 59 2b 3e
       0.060506415 0.13114184 0.35167825 0.1673325
000320 91 ed be 3d b4 65 a7 3d 7b d1 29 3e 80 3d 48 3b
       0.09322656 0.08173695 0.16583817 0.0030554235
000330 a5 16 16 3e 7f 0e 9f 3b e0 8d c9 bc c2 bf 7b 3e
       0.14657076 0.004854023 -0.024603784 0.24584869
000340 64 ea 08 3e 54 52 e8 3c 87 49 0a 3e cb c8 f4 3d
       0.13370663 0.02835957 0.13504611 0.11952361
000350 11 5a 6b bb 4b 3e f9 bd 6f 87 48 3d 84 3b b8 3d
       -0.0035911838 -0.121700846 0.048957285 0.08995727
000360 54 04 cc bb dc 5d 2f 3e a0 e3 05 be 2a 01 67 bd
       -0.006226102 0.17125648 -0.13075113 -0.056397595
000370 28 75 cd be f2 73 d5 be ec 77 3f 3d d1 7e fb 3c
       -0.40128446 -0.41690022 0.046745226 0.03070012
000380 dd d0 91 bd 9f 4b 2e be 3b 34 ab be ce c6 4e 3e
       -0.07119916 -0.17021035 -0.33438286 0.20193025
000390 bf 56 92 3d c8 19 b7 3c 81 8d 88 3e 0e 77 b1 bd
       0.07145452 0.02235116 0.2667046 -0.08665286
0003a0 f2 6e 60 bd 55 f4 4e 3e 8c c8 c0 3e 35 28 99 3e
       -0.054793306 0.20210393 0.37653005 0.29913488
0003b0 d4 3e ad 3d 31 b3 2c 3e 33 6b b9 3d 61 b6 14 be
       0.08459249 0.16865231 0.0905365 -0.14522697
0003c0 09 2e 5b 3e 0b 61 8f 3e 20 eb 99 3e f4 95 19 3e
       0.2140428 0.28003725 0.300622 0.14998609
0003d0 1e ad a6 3e 9b da 80 bd 00 c0 10 3e 6d b7 34 3e
       0.32553953 -0.06291696 0.14135742 0.17648096
0003e0 18 86 b5 3d 82 bb 52 3e a5 ed 55 3e 5f 86 0f be
       0.08863467 0.20579341 0.20891435 -0.14016102
0003f0 f0 93 04 3e dc f8 7c be 19 ab 18 bd ce b3 f4 3a
       0.12947059 -0.24704307 -0.037272546 0.0018669309

actor.0.bias f4 [256]
000000 a5 f2 03 bb 88 49 fe 3d e1 7a 14 3e 58 57 1a be
       -0.002013364 0.12416369 0.145 -0.15072381
000010 48 ea a8 3d 91 5a 70 3e cf ae 4d 3d 45 dc 21 be
       0.082478106 0.23472048 0.05021554 -0.15806682
000020 90 1b 95 3c 35 b0 0c be e7 4c 14 3d 6c 62 cf bd
       0.01820162 -0.13739093 0.036206152 -0.10126194
000030 35 2c 21 be 2c cf 9d 3b 3b c8 54 3d 32 3f 82 ba
       -0.1573952 0.0048159566 0.051948767 -0.0009937047
000040 c0 82 18 3e ec f9 26 be 04 1e fc bd a7 e6 23 3e
       0.14893627 -0.16306275 -0.123104125 0.16005956
000050 c9 86 2f be ce 72 41 3d 33 c1 02 bc 0a 3c f0 bd
       -0.1714126 0.047228627 -0.007980633 -0.117302015
000060 ba 76 97 3c bd 87 10 3e 65 6c 0c 3e 30 ba ca bb
       0.01848923 0.1411428 0.13713224 -0.006186746
000070 50 f5 d7 3d 8e 1e 8f 3e 3e 2e 88 3d 9e b0 30 3e
       0.105448365 0.27953 0.06649445 0.17254874
000080 71 a7 5a bd 5c 7a a0 bc d8 b9 7b bd c5 db 73 be
       -0.05338234 -0.019589595 -0.06145653 -0.23814304
000090 e9 df 3c 3e 24 7a 3e be 70 94 37 bd 67 88 52 be
       0.1844479 -0.1860128 -0.044819295 -0.20559846
0000a0 af fb 1f bc 6b d6 c0 bd b0 9b ac 3d 58 c5 0c 3b
       -0.009764596 -0.09415897 0.084281325 0.002147993
0000b0 cf 92 2e be b2 66 4d be 0a 37 36 3e 48 c6 ca bc
       -0.1704819 -0.20058706 0.17794433 -0.024752751
0000c0 aa 84 d2 3c 87 71 2c bc 54 bc df bd 97 c8 b9 3b
       0.025698025 -0.010525114 -0.109245926 0.005669664
0000d0 77 d7 11 3c fa 9f 90 3d 21 56 f9 bd eb 8f 9b 3d
       0.0089014685 0.07061763 -0.12174631 0.075958095
0000e0 c6 b7 cf bc 61 be 46 bd 5c 1b a7 3a 68 c6 b2 3c
       -0.025356185 -0.048521403 0.0012749243 0.021823123
0000f0 6d 3b f6 bd 6d a3 49 3d b8 37 6a 3d cb f5 e8 bd
       -0.12023053 0.04922812 0.057182044 -0.11375006
000100 37 ab ab bc c2 a4 f0 bc 39 05 08 bd af 56 22 3e
       -0.020955665 -0.029375438 -0.033208106 0.1585338
000110 53 f4 c0 bd 48 5d 67 bc a9 6d bb 3c 23 43 ab 3d
       -0.09421601 -0.014121361 0.022879438 0.08362415
000120 e5 44 21 3e 9b ec c9 bd 47 68 2b 3d aa 3e 08 be
       0.15748937 -0.09859582 0.041847493 -0.13305154
000130 db 4a 75 3e 42 e3 86 bd 6c d8 fc bd 7a 5f 60 3d
       0.23954336 -0.06586315 -0.12345967 0.054778554
000140 33 03 c4 bd 04 bf 1f bd 3b ea ae bd 1f 87 58 bd
       -0.09570923 -0.039000526 -0.0854077 -0.052863237
000150 7a 43 8e bd a4 31 6a 3e d8 bc c9 bd 7d fb f1 3d
       -0.06946464 0.22870499 -0.09850472 0.11815546
000160 bc d6 78 bd 6b 55 c7 3d 73 f0 3b 3d 6b 31 06 be
       -0.06075166 0.09733089 0.045883607 -0.13104789
000170 61 27 fb 3d 87 df fd 3b a9 5d 7f bc 14 ec 28 be
       0.1226337 0.007747594 -0.015586295 -0.16496307
000180 98 da c3 3d d3 8d a0 3d 4c 44 83 bc b6 e9 1c be
       0.09563178 0.07839551 -0.016023777 -0.15323529
000190 b3 60 11 3d 2f bd 51 be 2b 30 94 bb 90 32 86 be
       0.03549261 -0.20482324 -0.0045223436 -0.2621045
0001a0 41 73 b3 3b ac 9a 6c 3d 8f 17 bc bd e2 af 10 be
       0.005476386 0.057764694 -0.09184181 -0.14129594
0001b0 06 63 21 3e 6e 9f ba 3d 3e 1b 55 be 55 e2 24 3e
       0.1576043 0.0911244 -0.20811173 0.16101964
0001c0 5e 46 dd 3c b2 a1 a3 3d f8 9a 6f 3e c5 00 e3 3d
       0.027011093 0.07989825 0.2339896 0.11084131
0001d0 95 dd b5 3c ba c7 b0 bd 9e 16 82 bd 86 5c a7 bd
       0.022200385 -0.08631845 -0.0635197 -0.08171944
0001e0 41 0a ae bd e1 72 be 3d 6e f4 38 3d 68 27 26 be
       -0.084980495 0.09299255 0.04515498 -0.1622597
0001f0 97 02 86 bd 49 d8 8a 3e 60 39 af bc c6 bf 9d bd
       -0.06543463 0.27118137 -0.021389663 -0.077025935
000200 9e 49 20 3d 91 dc ed bc 07 55 5a 3e ae ff 12 bc
       0.039132707 -0.029035838 0.21321498 -0.008972092
000210 de 70 40 be 0a 65 5f 3c 65 7f 67 be d1 3d b8 bd
       -0.18793055 0.013634929 -0.22607191 -0.089961655
000220 10 3c 30 3e 8d 57 b1 bd 64 19 31 be b4 04 2b bd
       0.17210412 -0.08659277 -0.17294842 -0.041752532
000230 4f 85 da bd 34 be 03 3c 7d 0b cb bc 9c ba b6 bd
       -0.10669958 0.008040953 -0.024785751 -0.08922312
000240 4c 00 0a 3d 68 af db bd 21 8f 79 3e 0c 2c f1 3b
       0.03369169 -0.107268155 0.24371006 0.007359987
000250 d8 5c cb bd 83 ad 1b be 39 e4 0d 3b b2 2f d5 bd
       -0.09929818 -0.15202908 0.0021650924 -0.10409488
000260 45 1c 98 3b e4 56 fd bd 44 31 df 3d 19 62 4f bc
       0.004642042 -0.12370089 0.108980685 -0.012657666
000270 08 43 87 bd 51 f1 ac 3d 76 1c ea 3d 43 7f a0 3d
       -0.06604582 0.08444465 0.1143121 0.07836773
000280 d0 07 05 3e c6 52 b8 3d 27 87 e9 3c 5c 1e d8 3d
       0.12991261 0.09000163 0.028506828 0.105526656
000290 15 ff 66 be cd 12 a1 3b cc 71 e2 bc dc 5c 35 3c
       -0.22558244 0.0049155713 -0.027642153 0.011069503
0002a0 c8 84 5c 3e 92 c8 74 bd 1c 54 3c be fc ba 1e 3e
       0.21535027 -0.05976159 -0.1839146 0.15501016
0002b0 61 90 57 bd d6 84 5e be b3 b7 81 3d fe 53 4e 3e
       -0.052627925 -0.2173036 0.06333866 0.20149228
0002c0 39 3e 16 bc e5 4f 92 3d 45 f0 6f 3e 5a 42 ad bd
       -0.0091701085 0.07144145 0.234315 -0.08459921
0002d0 27 2e 67 bd 96 96 8c 3d e0 45 8d bd 98 5f 62 3d
       -0.0564405 0.068646595 -0.06898093 0.055266947
0002e0 62 14 0e be 3e 1a db bd 45 5a 3d 3e 07 dd 2e be
       -0.13874963 -0.10698365 0.18491466 -0.17076503
0002f0 36 29 99 3d 8e ce 49 bd 09 d9 85 bd 5d b7 1c 3e
       0.074785635 -0.04926925 -0.06535537 0.15304323
000300 8d f5 cc 3b 27 f4 a4 bb f4 88 0c bb cd 9e 82 bd
       0.006254858 -0.005033988 -0.0021443935 -0.06377945
000310 26 ad 55 bd c7 4d df 3d c4 8a 0f 3d eb af 90 3d
       -0.05216708 0.10903507 0.035044447 0.07064804
000320 17 45 85 3e 6d f5 1e 3b e0 85 17 be 14 98 f5 3d
       0.26029274 0.0024255172 -0.14797163 0.11991897
000330 81 15 f3 bc 84 15 13 3d 17 42 3e be ad a1 82 be
       -0.02967334 0.03590919 -0.18579899 -0.25513974
000340 70 4d 3c be ed 18 b9 bc e7 af f6 3d f4 38 5e bd
       -0.18388915 -0.022594893 0.120452695 -0.054253533
000350 a8 9e 8f 3d e7 90 08 3e bd b9 27 3e 7e cd 7e 3c
       0.07012683 0.13336526 0.16379447 0.015551923
000360 84 95 6f 3e 75 e9 29 be 6a 32 09 bd 41 95 e0 bc
       0.2339688 -0.16592963 -0.033495344 -0.02741492
000370 28 a0 1f be 8a ea 02 be d0 41 6d bc e6 50 e1 bd
       -0.15588439 -0.12784782 -0.014481023 -0.11001758
000380 7e 1d da 3d e1 ef a5 bd 61 af b0 3d 75 a3 47 be
       0.106501564 -0.08102394 0.08627201 -0.19495948
000390 50 6e a8 bd e9 8b cf 3c 4a a6 f7 3d 8e 07 d5 3d
       -0.082241654 0.025335269 0.12092264 0.104018316
0003a0 07 3d 41 be 56 d2 c6 bd af 8d 1e 3e d7 3c 99 bd
       -0.18870936 -0.09708087 0.15483736 -0.074823074
0003b0 42 29 32 be 0a 70 00 bc b4 d2 3e be c6 79 a3 be
       -0.17398551 -0.007839212 -0.18635064 -0.31928843
0003c0 a1 82 a2 bd cf b4 b8 bd d6 92 54 be ce 55 0b 3e
       -0.07935072 -0.090188615 -0.20759138 0.1360695
0003d0 c3 8d 60 3d 03 5e 4d 3e 0c 63 8a 3e 30 86 22 bb
       0.054822695 0.20055394 0.27028692 -0.002479922
0003e0 43 b2 d5 3d ed 1a 88 be b2 4f 12 bc f2 f3 d7 3d
       0.10434391 -0.26583043 -0.008930134 0.10544576
0003f0 fe 49 23 be 5a ca eb 3d c9 7a ca bd 04 aa 74 bc
       -0.15946195 0.11513205 -0.09886701 -0.014933113
