models/ho_policy_ep5000.pth (torch, 628226 bytes, 11 tensors)

critic.0.weight f4 [256, 42]
-0.072110355 -0.118543066 0.38568273 0.31004557 0.20104523 -0.32568002 0.1941236 -0.36035252
0.89743996 0.59010357 -0.20461969 -0.10364852 -0.0049944986 0.12629427 -0.57655925 0.34867898
0.4351605 0.22903751 -0.31734955 -0.7261668 -0.13500409 0.0004582935 0.39919376 -0.18792398
-1.5606622 -0.4409583 -0.090685956 -1.2855937 -0.30852878 -1.0473542 0.20604713 0.58230156
-0.7781553 1.6127898 -0.5351694 -0.12228267 -0.12012355 -0.08117796 -0.3243655 -0.50434154
-0.79354006 0.49014813 -0.48990956 -0.89219487 -0.8460043 -0.14417222 0.012299132 -0.4419095
0.12259081 -0.46638685 -1.1007518 0.047218364 -0.5816064 0.26095802 -0.47698915 0.2509346
0.29998103 -0.66050255 -0.032218862 -0.14492369 0.2871532 -0.752604 -0.4403524 0.14037175
0.6243432 -0.07080426 -0.0012973547 -0.08502025 0.4422271 0.89408207 -0.25908676 -0.7901034
-0.16853593 -0.08703231 -0.31292742 -0.6794887 -0.21692358 0.016895607 -0.06747791 0.28593022
0.7130808 -0.91304886 -1.2549454 0.77306956 -0.13917308 -0.4454119 -0.4450591 0.27432135
0.33224937 -0.870067 -0.05847913 -0.39247602 1.2457604 -0.4287718 -0.08092707 0.2361577
-0.08855979 0.43139762 0.42190027 -0.07541729 0.22945194 0.46241423 0.0836066 -0.4000764
0.2664438 0.15356004 0.64926 -0.26983097 -0.37022966 -0.101509444 0.28175014 -0.5528081
-0.7850811 -1.3259958 -0.09560511 0.12049422 -0.8911542 0.4760774 -0.57637584 -0.0090198815
-0.03231779 0.028251436 -0.28343695 -0.06075352 -0.060285117 -0.10533601 0.304071 0.29384863
0.77324533 -0.6733719 0.02459307 0.36492005 0.17759791 0.22553727 0.60284466 -0.24805729
0.2412342 -0.14426982 0.3263818 -0.16757749 0.81746304 0.11271606 0.19188723 0.2557633
-0.31457338 -0.43761468 0.413461 -0.081427224 0.072555855 -0.56223965 -0.42319217 -0.2020964
-0.24583822 -1.471596 0.008649646 0.13692868 0.15329958 0.00720304 -0.08548957 1.6118013
0.578173 0.09538375 -0.20743625 -0.0044963555 -0.108517915 -0.24184059 0.9945152 -0.38846794
-0.08459902 -0.07452989 -0.09558903 0.9647194 0.20810463 -0.10908284 -0.011705813 -0.37420082
0.7357074 -0.050108418 0.17652257 0.14388007 -0.017623473 0.26263982 -0.30897522 0.06310897
-0.04245879 0.4320346 0.12238577 -0.3718702 -0.20190021 0.13615601 0.98370475 0.34694296
-0.15569127 0.20899895 0.20960253 -0.26001617 -0.8907126 -0.32299855 0.1872948 0.023826383
-0.9086258 0.20316416 -0.059654262 0.09760021 0.071381114 -0.061544824 -0.18821548 0.17717505
-0.9554472 0.3441532 0.24087314 -0.28581852 1.0066057 0.14643179 -0.10708003 -0.8074691
-0.13944496 0.353177 2.1251848 -0.39169055 -0.3333337 -0.47385505 0.6232812 0.11495802
-0.3133017 0.13220072 -0.20442437 0.23453799 -0.10837932 -0.030974561 -0.5705283 -0.19580057
-0.27026635 0.61750245 1.5255563 0.19822703 0.5754954 -0.591118 0.12099789 -0.9651897
-0.62740576 -1.220905 0.09999169 0.4877432 0.39569083 0.10600202 0.034185268 -0.7645612
0.26319033 0.45527318 1.5242279 -0.61865944 -0.46709314 -0.41402206 -0.33203503 0.001109268
00000000: 98ae 93bd b5c6 f2bd 3578 c53e 4bbe 9e3e
00000010: cdde 4d3e 88bf a6be 56c8 463e 2080 b8be
00000020: a0be 653f 0711 173f d387 51be ad45 d4bd
00000030: e4a8 a3bb 4953 013e 6399 13bf 0d86 b23e
00000040: 5bcd de3e cf88 6a3e a47b a2be 11e6 39bf
00000050: 833e 0abe 1d47 f039 2063 cc3e 256f 40be
00000060: c7c3 c7bf 49c5 e1be 8fb9 b9bd 568e a4bf
00000070: 7cf7 9dbe b40f 86bf 05fe 523e b711 153f
00000080: 3035 47bf e56f ce3f dd00 09bf 566f fabd
00000090: 5603 f6bd a140 a6bd 3c13 a6be 871c 01bf
000000a0: 7125 4bbf b2f4 fa3e 6dd5 fabe e266 64bf
000000b0: bd93 58bf e2a1 13be 4c82 493c f641 e2be
000000c0: e410 fb3d 42ca eebe 6fe5 8cbf 0b68 413d
000000d0: 28e4 14bf 4a9c 853e ec37 f4be 807a 803e
000000e0: 1d97 993e b216 29bf edf7 03bd e066 14be
000000f0: bf05 933e a8aa 40bf df75 e1be 9dbd 0f3e
00000100: f5d4 1f3f d301 91bd 000c aaba 191f aebd
00000110: 976b e23e 90e2 643f 05a7 84be 3744 4abf
00000120: af94 2cbe ff3d b2bd 0638 a0be f9f2 2dbf
00000130: 3721 5ebe a868 8a3c dc31 8abd 7265 923e
00000140: 778c 363f 92bd 69bf 0da2 a0bf e3e7 453f
00000150: 6383 0ebe 070d e4be c9de e3be d973 8c3e
00000160: 971c aa3e b6bc 5ebf d087 6fbd 9ef2 c8be
00000170: 1475 9f3f fa87 dbbe 17bd a5bd 53d3 713e
00000180: d65e b5bd 26e0 dc3e 5003 d83e 6174 9abd
00000190: 73f5 6a3e 8fc1 ec3e f039 ab3d d0d6 ccbe
000001a0: 526b 883e d83e 1d3e e735 263f 4927 8abe
000001b0: be8e bdbe 2fe4 cfbd 8e41 903e d584 0dbf
000001c0: 13fb 48bf 3bba a9bf 9dcc c3bd acc5 f63d
000001d0: af22 64bf 6bc0 f33e 5e8d 13bf 20c8 13bc
000001e0: a95f 04bd 8e6f e73c a61e 91be afd8 78bd
000001f0: 87ed 76bd 68ba d7bd 32af 9b3e 5473 963e
00000200: 68f3 453f 1a62 2cbf 6877 c93c cdd6 ba3e
00000210: 3adc 353e 3ef3 663e 0754 1a3f bb02 7ebe
00000220: 1906 773e 78bb 13be 841b a73e 6f99 2bbe
00000230: 4245 513f add7 e63d 167e 443e 68f3 823e
00000240: c30f a1be 080f e0be 29b1 d33e 51c3 a6bd
00000250: 2a98 943d f0ee 0fbf a5ac d8be 5cf2 4ebe
00000260: 04bd 7bbe 425d bcbf 3fb7 0d3c 0837 0c3e
00000270: 91fa 1c3e 7b07 ec3b 2815 afbd 814f ce3f
00000280: 2503 143f 8e58 c33d 2b6a 54be 2a56 93bb
00000290: a43e debd 0fa5 77be 8c98 7e3f 45e5 c6be
000002a0: 4042 adbd 21a3 98bd 2ec4 c3bd daf7 763f
000002b0: 6119 553e d366 dfbd bdc9 3fbc 4097 bfbe
000002c0: 5257 3c3f 7c3e 4dbd 55c2 343e 4c55 133e
000002d0: 1a5f 90bc ba78 863e 0032 9ebe 473f 813d
000002e0: 45e9 2dbd a433 dd3e 64a5 fa3d c565 bebe
000002f0: eebe 4ebe 7b6c 0b3e 13d4 7b3f 82a2 b13e
00000300: 886d 1fbe d203 563e 0ca2 563e d720 85be
00000310: be05 64bf 1160 a5be 35ca 3f3e 8c2f c33c
00000320: b39b 68bf 440a 503e 0758 74bd 9ee2 c73d
00000330: 4330 923d 6d16 7cbd 8fbb 40be 606d 353e
00000340: 3098 74bf d934 b03e 73a7 763e ce56 92be
00000350: 75d8 803f 37f2 153e c64c dbbd 4cb6 4ebf
00000360: a9ca 0ebe 9ed3 b43e 0703 0840 aa8b c8be
00000370: b7aa aabe 219d f2be 5b8f 1f3f 1c6f eb3d
00000380: 1569 a0be a05f 073e 9f54 51be ba2a 703e
00000390: faf5 ddbd 5dbe fdbc 250e 12bf f27f 48be
000003a0: 5a60 8abe a414 1e3f 6e45 c33f 07fc 4a3e
000003b0: ab53 133f 8253 17bf becd f73d ac16 77bf
000003c0: aa9d 20bf 9d46 9cbf 71c8 cc3d 7ab9 f93e
000003d0: fd97 ca3e 9617 d93d da05 0c3d 48ba 43bf
000003e0: e2c0 863e 9119 e93e e619 c33f 7760 1ebf
000003f0: d526 efbe b3fa d3be 7f00 aabe dc64 913a

critic.0.bias f4 [256]
-0.2648585 -0.086699866 0.018521944 -0.014569277 -0.19595852 0.2070201 0.17547858 -0.16081125
-0.19224724 0.37521455 -0.14257188 -0.24627423 0.25360575 -0.056316834 0.11018581 -0.12558551
-0.22897972 -0.03138786 -0.13820924 -0.095391445 0.15278718 -0.12506986 0.095794894 -0.09671983
-0.007231575 0.31737447 0.18523867 0.008749106 0.29227757 -0.1487943 -0.08483423 -0.030258976
0.08988501 0.056898113 -0.02756543 0.19013424 -0.04892768 0.052380066 0.30963033 -0.3209009
0.05175597 -0.014621451 0.20124969 -0.1700674 0.029765021 0.15693973 0.18264633 0.060883917
-0.15087573 0.27258605 0.2922536 0.032513663 0.14514734 -0.08019064 0.3010433 -0.20496829
0.016731435 0.0069953483 -0.13407537 -0.30914035 0.21434852 -0.1857336 -0.26245973 -0.14286914
-0.015611317 0.088745065 -0.036587752 0.063225836 0.13977094 0.20334479 -0.29465467 -0.28119305
-0.104733 -0.06946603 -0.18349127 0.22848234 0.055866253 0.0013899545 0.16617224 0.20052524
-0.08734477 0.22107203 -0.17830142 -0.036471166 -0.24558237 -0.07812254 -0.09456069 -0.20457488
-0.078116104 -0.03672881 0.15141895 0.03812781 -0.0044459524 0.01590468 -0.056475773 -0.08068553
0.059109528 0.0961796 -0.11137682 0.071929164 0.17247763 -0.13396728 0.014953451 0.1707918
0.15998639 -0.20852377 -0.0066596516 -0.22060753 0.03620626 -0.057880018 0.25950906 0.13079797
-0.3667031 -0.5669295 -0.09055199 -0.17127723 -0.05560903 0.14917825 0.05829041 0.031592444
-0.17067252 -0.19366615 -0.04356355 0.16640611 -0.09435268 0.3209684 0.09324768 -0.19918358
0.42188427 -0.3436015 -0.14530714 -0.29368055 -0.14371762 -0.037415184 -0.14437558 0.051180657
-0.015639046 -0.17816724 -0.168759 0.039910205 0.12090567 -0.20954295 0.031040346 -0.28087485
0.041010965 0.07319487 0.26073357 0.15066935 0.049340013 0.06388367 0.15814 -0.014687843
0.21515758 -0.28868946 0.12960841 -0.041662157 0.13719153 -0.28438085 0.042673074 -0.39637038
-0.10422222 0.10441535 0.015266872 0.036423936 -0.08914838 -0.1316867 0.003307718 -0.018663855
0.30665407 -0.14911522 -0.12358537 0.039325684 -0.22335608 -0.036148112 -0.08992121 -0.22661573
-0.007396531 0.12015664 -0.098304555 0.16718636 -0.25703916 0.20560154 -0.26493326 -0.16830358
-0.3067661 0.14484799 -0.2764878 0.020565737 0.12773356 -0.09876023 -0.083647534 -0.13425171
-0.06745944 0.27174994 0.13565202 -0.12344451 -0.0034500933 -0.09905707 0.36798838 -0.19078626
-0.124111384 -0.0437892 -0.21181557 -0.09292278 0.33322188 -0.037747096 -0.13325848 -0.004916086
0.23005451 0.16857001 -0.10305818 0.25525886 0.3047437 0.22086813 0.24610503 -0.14207073
-0.16104132 -0.058464825 0.16512883 -0.106694095 -0.073839985 -0.058012653 -0.013411756 0.034472343
-0.23543914 -0.11300865 -0.2937384 0.18622223 -0.10508726 0.11590581 0.27416286 -0.22345066
-0.37089637 -0.15884976 -0.19894104 0.11671713 -0.09823058 -0.22788604 0.04553586 -0.12469426
0.23031351 0.26691514 0.26773274 -0.14241652 -0.1209107 -0.17997809 -0.33648327 0.17155278
0.13343042 -0.20960933 -0.09897764 -0.24465068 -0.12591216 -0.01689866 0.16542588 0.0076906323
00000000: 899b 87be b38f b1bd 55bb 973c fab3 6ebc
00000010: 5aa9 48be 14fd 533e a8b0 333e b4ab 24be
00000020: 76dc 44be 1f1c c03e 5dfe 11be 502f 7cbe
00000030: 9dd8 813e 7bac 66bd 19a9 e13d 7d99 00be
00000040: a979 6abe 8f90 00bd b986 0dbe 975c c3bd
00000050: 3e74 1c3e 5012 00be 1d30 c43d 0c15 c6bd
00000060: d9f6 ecbb e87e a23e 35af 3d3e 6958 0f3c
00000070: 68a5 953e 885d 18be 92bd adbd ace1 f7bc
00000080: a215 b83d ff0d 693d e6d0 e1bc 8db2 423e
00000090: 6468 48bd 7b8c 563d de87 9e3e 1f4d a4be
000000a0: 11fe 533d cf8e 6fbc 6614 4e3e 2626 2ebe
000000b0: c6d5 f33c cfb4 203e a407 3b3e 6a61 793d
000000c0: 2b7f 1abe 6690 8b3e 44a2 953e 0c2d 053d
000000d0: 81a1 143e fe3a a4bd 5922 9a3e 35e3 51be
000000e0: 5d10 893c 3c39 e53b 0e4b 09be a547 9ebe
000000f0: 2e7e 5b3e f330 3ebe 1f61 86be 4a4c 12be
00000100: 9cc6 7fbc f9bf b53d 0add 15bd 8c7c 813d
00000110: 1d20 0f3e 9e39 503e fadc 96be 89f8 8fbe
00000120: 417e d6bd 3544 8ebd 23e5 3bbe 46f7 693e
00000130: 03d4 643d 222f b63a 0e29 2a3e 7d56 4d3e
00000140: d1e1 b2bd b560 623e a694 36be ca62 15bd
00000150: f279 7bbe b6fe 9fbd 09a9 c1bd 147c 51be
00000160: 56fb 9fbd f370 16bd 920d 1b3e e82b 1c3d
00000170: 5aaf 91bb 884a 823c 2453 67bd 753e a5bd
00000180: d51c 723d cff9 c43d 8819 e4bd 994f 933d
00000190: fa9d 303e b82e 09be 52ff 743c 0ce4 2e3e
000001a0: 79d3 233e 4187 55be 3539 dabb f1e6 61be
000001b0: 044d 143d 9913 6dbd 5fde 843e e7ef 053e
000001c0: 82c0 bbbe 4b22 11bf 5273 b9bd 4c63 2fbe
000001d0: 4bc6 63bd 2fc2 183e edc1 6e3d 1467 013d
000001e0: c7c4 2ebe 6b50 46be b16f 32bd 5d66 2a3e
000001f0: fa3b c1bd f855 a43e a4f8 be3d c8f6 4bbe
00000200: 3701 d83e 89ec afbe 65cb 14be 4c5d 96be
00000210: b62a 13be aa40 19bd 31d7 13be cfa2 513d
00000220: 751d 80bc 7971 36be 29cf 2cbe e278 233d
00000230: 649d f73d 6d92 56be 5348 fe3c d4ce 8fbe
00000240: 1dfb 273d 31e7 953d df7e 853e 1149 1a3e
00000250: c118 4a3d 71d5 823d 74ef 213e 47a5 70bc
00000260: 4552 5c3e 1bcf 93be 11b8 043e f0a5 2abd
00000270: f07b 0c3e 5e9a 91be f6c9 2e3d 0ff1 cabe
00000280: 7672 d5bd b7d7 d53d e721 7a3c 4431 153d
00000290: 6d93 b6bd e1d8 06be 4dc6 583b f1e4 98bc
000002a0: c301 9d3e a9b1 18be 541a fdbd f813 213d
000002b0: 75b7 64be 0b10 14bd 9d28 b8bd f40d 68be
000002c0: 995e f2bb af14 f63d e653 c9bd e732 2b3e
000002d0: a39a 83be 3689 523e 55a5 87be c657 2cbe
000002e0: 7210 9dbe 0853 143e cf8f 8dbe 7a79 a83c
000002f0: 96cc 023e ce42 cabd 664f abbd 4879 09be
00000300: 2d28 8abd cf22 8b3e 5de8 0a3e 7ad0 fcbd
00000310: f61a 62bb 6fde cabd f968 bc3e 795d 43be
00000320: 1c2e febd 4e5c 33bd 2ee6 58be 4c4e bebd
00000330: 0f9c aa3e b39c 1abd e974 08be 1e17 a1bb
00000340: 6993 6b3e 9e9d 2c3e 2b10 d3bd 4ab1 823e
00000350: 5e07 9c3e 412b 623e f502 7c3e fd7a 11be
00000360: 04e8 24be d078 6fbd 8817 293e 6f82 dabd
00000370: 6b39 97bd ad9e 6dbd fbbc 5bbc df32 0d3d
00000380: f516 71be 1471 e7bd e164 96be 0ab1 3e3e
00000390: fd37 d7bd 0660 ed3d 135f 8c3e 40d0 64be
000003a0: 21e6 bdbe 83a9 22be 33b7 4bbe 6409 ef3d
000003b0: 1d2d c9bd f55a 69be cf83 3a3d b45f ffbd
000003c0: 4ed7 6b3e 1aa9 883e 4414 893e a3d5 11be
000003d0: 07a0 f7bd 2d4c 38be 8947 acbe 88ab 2f3e
000003e0: fca1 083e d4a3 56be cab4 cabd b585 7abe
000003f0: 1eef 00be 0f6f 8abc 6765 293e b301 fc3b

critic.2.weight f4 [256, 256]
0.46984482 -0.10608357 -0.09920747 -0.5673445 -0.100613795 0.46077454 0.6938428 0.28126323
-0.40477848 0.4616749 0.07365171 0.943019 0.111137606 -0.7764379 0.11806198 -0.24886295
0.5230594 0.26356074 0.40741912 -0.9078245 -0.06732415 0.5511293 0.019742623 0.12129531
-0.44403255 0.50969017 -1.5793756 -0.69901234 -0.38134465 -0.085603446 1.4787729 -0.18585436
0.33763474 0.2885461 -0.16816832 0.6027099 0.8581211 -0.058257975 0.49342385 -0.603907
-0.82635194 0.7562859 -0.37185898 -0.18060772 0.080728516 0.781332 0.19882552 -0.6766099
0.31584874 0.12508927 0.37028632 -0.25023106 0.2644245 -0.03592689 -0.20479439 0.79279906
-0.64137566 0.22577187 0.6128787 0.048135325 0.54817075 -0.7703175 -0.037505474 0.9668008
-0.6657234 -0.21550237 0.23276731 -0.74421376 -0.7510474 -0.08619889 -0.071063995 0.12545209
-0.15719642 -0.6630975 0.23298343 0.42140326 0.08359279 -0.14351429 0.43447217 -0.6232047
-0.6370594 0.10865072 -0.59596354 0.30910596 0.39282262 0.86851645 1.0946857 0.15963131
0.16579829 0.7778486 -0.8609008 0.23303479 0.012285948 0.122911945 -0.043126285 0.29036304
-0.32059574 0.43775544 0.31769896 -0.2756339 -0.1901869 0.42247978 0.91940606 -0.69619316
0.28797406 0.05646038 0.4124322 -8.522834e-05 0.49643376 0.769578 0.40802738 -0.3574592
0.32086605 0.13761954 -0.80707324 0.067817956 -0.1904019 -0.89969754 0.20427686 1.221546
0.5167469 -0.26968408 0.85071266 -0.26595113 0.07048104 -0.1580805 0.36460754 0.7823713
-0.25568187 -0.28658804 -0.028765004 -0.45752528 1.4034569 0.30393776 -0.31618184 -0.7159113
-0.8046344 -0.24513611 0.74727434 0.013897596 0.31010482 -0.25314617 0.24226126 -0.23471807
1.1028392 -0.4265234 0.91513133 0.18560871 0.95380616 0.3477434 0.6987578 -1.5862769
0.22797553 0.62838995 0.5053854 0.82064223 0.031133965 0.14228953 1.1919978 1.0290941
-0.012242641 0.397935 0.1629888 -0.08029916 -0.1747745 0.38709617 0.8707474 0.36713856
0.7624705 0.16335425 -0.052954197 0.5651315 0.2014654 -0.032116264 0.022331774 -0.92385733
-0.6226434 -0.12229184 -0.8385588 0.13112311 0.6329923 -0.379165 0.57506734 -0.6180017
0.9501802 0.35499728 -0.87840587 -0.053806674 0.060837496 -1.3473655 0.17053175 -0.096446104
-0.36069435 0.25277457 -0.27679124 -0.4989922 0.42092043 -0.066808574 0.13969584 1.0924804
-0.8713021 0.13278961 -0.38298354 -0.022092743 -0.3931383 -0.58878404 -0.18077284 0.08880854
0.41802317 -0.047923643 0.042931385 -0.21027598 -0.05117817 -0.26526567 -0.013965001 0.12036632
1.3568308 -0.0894376 0.24792522 -0.6160051 0.9434445 -0.038344987 -0.24240148 0.34478658
0.12983659 -0.5019602 -0.7286245 0.2055909 -0.420471 -0.88493025 0.73643446 0.34072974
0.7527409 0.40035808 -0.20590644 -0.54607993 -0.94233286 0.58647436 -0.9122836 0.85578775
-0.6013421 -0.5315558 0.32409337 0.258141 -0.49920171 0.34848744 -0.31034976 1.206312
-0.32733625 1.1100336 0.16806865 -0.06711838 -1.0834682 -0.55085915 -0.021949334 0.66984165
00000000: 808f f03e 5842 d9bd 492d cbbd 7d3d 11bf
00000010: 9b0e cebd a4ea eb3e af9f 313f bc01 903e
00000020: 203f cfbe a760 ec3e b5d6 963d b169 713f
00000030: 1d9c e33d a2c4 46bf 7bca f13d eed5 7ebe
00000040: 39e7 053f 6ff1 863e 3d99 d03e 3067 68bf
00000050: 3ee1 89bd cf16 0d3f 48bb a13c ad69 f83d
00000060: 3c58 e3be 0e7b 023f fb28 cabf 79f2 32bf
00000070: 9b3f c3be dc50 afbd 6e48 bd3f 9b50 3ebe
00000080: 76de ac3e 50bc 933e 5134 2cbe 324b 1a3f
00000090: d3ad 5b3f ea9f 6ebd 0da2 fc3e a699 1abf
000000a0: cd8b 53bf f49b 413f 4d64 bebe 3bf1 38be
000000b0: fe54 a53d 6005 483f eb98 4b3e 4e36 2dbf
000000c0: edb6 a13e 6717 003e 2b96 bd3e 491e 80be
000000d0: a662 873e 1328 13bd 9fb5 51be e1f4 4a3f
000000e0: 3231 24bf be30 673e 9ee5 1c3f 8c29 453d
000000f0: eb54 0c3f 8733 45bf 579f 19bd 4280 773f
00000100: d96c 2abf a7ac 5cbe 8e5a 6e3e cb84 3ebf
00000110: a444 40bf 0b89 b0bd 008a 91bd 8376 003e
00000120: 19f8 20be c2c0 29bf 3593 6e3e 2bc2 d73e
00000130: b232 ab3d 69f5 12be 2373 de3e 588a 1fbf
00000140: 5316 23bf 4584 de3d 1191 18bf 2343 9e3e
00000150: 0c20 c93e 1857 5e3f a91e 8c3f 6476 233e
00000160: 07c7 293e 1621 473f ff63 5cbf aca0 6e3e
00000170: 004b 493c 42b9 fb3d 30a5 30bd 77aa 943e
00000180: 2025 a4be 7b21 e03e 70a9 a23e e31f 8dbe
00000190: 5bc0 42be 454f d83e 325e 6b3f b739 32bf
000001a0: 5671 933e 0043 673d 502a d33e 9ebc b2b8
000001b0: 912c fe3e 1003 453f f7e8 d03e e404 b7be
000001c0: 8e48 a43e 23ec 0c3e 5a9c 4ebf 24e4 8a3d
000001d0: b7f8 42be 9452 66bf f42d 513e 9f5b 9c3f
000001e0: 8649 043f 0814 8abe 4ec8 593f bf2a 88be
000001f0: 5d58 903d dbdf 21be d7ad ba3e 7c49 483f
00000200: bce8 82be abbb 92be 96a4 ebbc c140 eabe
00000210: 7aa4 b33f bb9d 9b3e 96e2 a1be f745 37bf
00000220: 85fc 4dbf f604 7bbe 5f4d 3f3f beb2 633c
00000230: 0fc6 9e3e 609c 81be 5613 783e ef59 70be
00000240: d629 8d3f 4661 dabe 0c46 6a3f 3610 3e3e
00000250: a42c 743f 6c0b b23e cbe1 323f 1f0b cbbf
00000260: 6b72 693e 2ade 203f f060 013f 9c15 523f
00000270: a80c ff3c 59b4 113e 6293 983f 5bb9 833f
00000280: 5c95 48bc 23be cb3e 89e6 263e e373 a4bd
00000290: 16f8 32be 7831 c63e 4de9 5e3f 96f9 bb3e
000002a0: 4431 433f 5646 273e 80e6 58bd 75ac 103f
000002b0: f24c 4e3e 588c 03bd 20f1 b63c ea81 6cbf
000002c0: 8f65 1fbf 2574 fabd caab 56bf 2345 063e
000002d0: c90b 223f ea21 c2be 9d37 133f 5c35 1ebf
000002e0: 023f 733f 34c2 b53e 35df 60bf 6364 5cbd
000002f0: bd30 793d 7976 acbf e09f 2e3e 8985 c5bd
00000300: eeac b8be ab6b 813e 95b7 8dbe e87b ffbe
00000310: e282 d73e efd2 88bd 6d0c 0f3e 66d6 8b3f
00000320: a80d 5fbf 00fa 073e 6b16 c4be d7fb b4bc
00000330: 6c49 c9be 8dba 16bf 841c 39be 40e1 b53d
00000340: 2207 d63e 954b 44bd d2d8 2f3d 9652 57be
00000350: 33a0 51bd e7d0 87be 76cd 64bc 9e82 f63d
00000360: a2ac ad3f 0f2b b7bd 1ce0 7d3e 83b2 1dbf
00000370: 9485 713f a20f 1dbd 1838 78be de87 b03e
00000380: e2f3 043e 7780 00bf 2387 3abf 6c86 523e
00000390: fa47 d7be ca8a 62bf f886 3c3f 2174 ae3e
000003a0: a1b3 403f bcfb cc3e 23d9 52be e5cb 0bbf
000003b0: ba3c 71bf 2f23 163f 6b8b 69bf e814 5b3f
000003c0: 8ef1 19bf 0a14 08bf 91ef a53e 0f2b 843e
000003d0: 5e97 ffbe f26c b23e 2ae6 9ebe 6e68 9a3f
000003e0: 9e98 a7be 9515 8e3f 301a 2c3e 5c75 89bd
000003f0: 16af 8abf 1b05 0dbf 17cf b3bc be7a 2b3f

critic.2.bias f4 [256]
-0.0431548 -0.2793694 -0.05004436 0.019012086 0.19173269 0.11256124 0.18270342 0.047286794
-0.3422139 0.05815357 0.22129816 -0.4015378 0.4834909 0.52744114 -0.391453 -0.25865072
0.52539563 0.051000487 0.20671895 0.25144374 -0.10981486 0.219155 0.40619984 0.62142074
0.24931201 -0.04437239 0.24585065 0.24512842 -0.07351649 -0.7489457 -0.1615899 -0.008710313
0.004658676 -0.5699337 0.10964832 -0.42822507 0.003766642 0.03834031 -0.15210527 0.14823705
0.031449754 -0.25303486 -0.24927373 0.21233636 -0.6894087 -0.61983 -0.10608949 -0.27085713
-0.029016651 0.14769214 -0.1304996 0.48961136 -0.7265105 -0.65792936 0.043478288 0.1679203
-0.004773771 -0.52587354 0.6476369 -0.031194298 0.8508826 -0.5958658 -0.0145564275 -0.10041749
0.40918174 0.07928871 -0.23450355 0.03601134 -0.34818432 0.038221672 -0.026884645 0.5270942
-0.117140986 -0.47028977 0.26289138 0.17966354 -0.3265914 0.08626629 -0.032968376 0.23648155
0.20420875 -0.14714877 0.7342554 -0.22344527 0.1251807 -0.07419409 0.03504988 -0.2742895
-0.043239266 -0.8170434 0.45313647 -0.51587546 0.30416343 0.40038908 0.7503389 0.30663618
-0.050983816 0.18152004 0.3689566 -0.05654083 0.33031267 -0.16957562 -0.18060754 0.069914296
-0.5462158 0.069220446 0.1127839 -0.0034884338 0.31880546 -0.09793456 0.3496668 -0.25579056
-0.49265903 -0.038397726 0.1717836 -0.30943 0.56951433 0.24183907 0.0032431716 0.3851031
0.75116056 -0.14473206 0.32421443 -0.20614322 0.32600847 -0.3625004 0.31766394 0.0007825611
0.22015959 0.23456253 0.23372476 -0.33016247 -0.61640847 0.3002892 0.18768772 0.10578108
0.41285226 -0.5085957 0.19866133 -0.062227134 -0.13220747 -0.30521166 0.009760033 -0.20228955
-0.30243844 0.16056934 0.70690835 0.4560392 0.6407267 0.3077042 -0.2780073 0.8772819
-0.44150224 0.3281342 0.11121835 -0.30565786 -0.3542207 0.15019405 -0.19537218 -0.54486984
0.08206287 -0.06645486 0.36486626 0.3791397 -0.62035054 -0.019539006 0.24518128 -0.3526449
-0.049378425 -0.37413365 -0.613672 0.24505429 0.58773726 0.32647252 0.1780159 0.21833612
0.3403922 -0.2939009 -0.5696815 -0.37603235 0.106456526 -0.026136277 -0.28923163 -0.10020644
-0.24930696 -0.44349575 0.1486484 0.046477895 0.1848755 -0.1968628 0.13152564 0.7913889
-0.47565722 0.10837706 0.41441318 0.16318472 -0.06892604 0.24849582 -0.31971312 -5.9175567e-05
0.34220138 -0.07878701 -0.4579502 0.09347655 0.49636865 0.22755083 -0.06963314 0.22468077
-0.15652363 -0.38318464 0.23414585 -0.012689564 0.110694595 0.08343029 -0.4091116 0.39131457
0.114659935 0.26472953 0.017922213 0.26006258 0.49079838 0.08735006 -0.05723273 -0.12352728
-0.55735457 0.1185876 0.12308719 0.14795142 0.12682438 -0.031477466 0.3575061 0.105813116
0.013633439 -0.1499126 0.20589176 0.13810644 0.037801057 0.076571465 -0.2315363 0.39919898
-0.071252555 0.056831367 -0.42642337 -0.18643789 -0.054304123 -0.37737805 -0.0007137436 -0.37583166
-0.2214187 0.44273794 -0.047659 -0.497042 0.24765563 0.05812551 -0.049055163 0.4039458
00000000: 16c3 30bd 8209 8fbe 51fb 4cbd 3cbf 9b3c
00000010: 9355 443e 8286 e63d 9b16 3b3e ccaf 413d
00000020: a936 afbe 7032 6e3d fc9b 623e 5d96 cdbe
00000030: 1f8c f73e 6206 073f 876c c8be de6d 84be
00000040: 5480 063f e3e5 503d 22ae 533e 3cbd 803e
00000050: 9de6 e0bd 2b6a 603e 6df9 cf3e 6e15 1f3f
00000060: a64b 7f3e d3bf 35bd 46c0 7b3e f202 7b3e
00000070: d08f 96bd e8ba 3fbf d377 25be b3b5 0ebc
00000080: cfa7 983b 2de7 11bf 4c8f e03d 5140 dbbe
00000090: c4d9 763b bb0a 1d3d 7cc1 1bbe 74cb 173e
000000a0: 75d1 003d c98d 81be 9d41 7fbe b46e 593e
000000b0: 177d 30bf 2ead 1ebf 7245 d9bd c9ad 8abe
000000c0: 54b4 edbc 9c3c 173e b0a1 05be 57ae fa3e
000000d0: 98fc 39bf 0f6e 28bf 4a16 323d 4df3 2b3e
000000e0: 4b6d 9cbb a69f 06bf 88cb 253f 2f8b ffbc
000000f0: 71d3 593f a98a 18bf 157e 6ebc afa7 cdbd
00000100: 4580 d13e 1f62 a23d b321 70be a080 133d
00000110: 3745 b2be 548e 1c3d 303d dcbc a5ef 063f
00000120: 9de7 efbd d2c9 f0be b399 863e b8f9 373e
00000130: fd36 a7be 61ac b03d d909 07bd 3828 723e
00000140: 191c 513e 2bae 16be 29f8 3b3f d6ce 64be
00000150: 5f2f 003e 12f3 97bd 7790 0f3d ac6f 8cbe
00000160: a81b 31bd c229 51bf 8101 e83e 6a10 04bf
00000170: 4fbb 9b3e ccff cc3e 3616 403f 6bff 9c3e
00000180: 68d4 50bd 64e0 393e e1e7 bc3e 5b97 67bd
00000190: be1e a93e 3ba5 2dbe 2ff1 38be 3a2f 8f3d
000001a0: ccd4 0bbf 73c3 8d3d 3ffb e63d 359e 64bb
000001b0: 783a a33e ea91 c8bd 8707 b33e fbf6 82be
000001c0: ce3d fcbe ef46 1dbd 0ae8 2f3e 9c6d 9ebe
000001d0: b1cb 113f a9a4 773e 648b 543b 3c2c c53e
000001e0: 0f4c 403f a434 14be 6fff a53e 3517 53be
000001f0: 95ea a63e a799 b9be d9a4 a23e c924 4d3a
00000200: 8471 613e 2931 703e 8b55 6f3e 0e0b a9be
00000210: f2cc 1dbf 82bf 993e 3631 403e c0a3 d83d
00000220: 5f61 d33e 5433 02bf e06d 4b3e e1e1 7ebd
00000230: 6561 07be b444 9cbe 8ce8 1f3c fe24 4fbe
00000240: 36d9 9abe 4a6c 243e f2f7 343f f87d e93e
00000250: aa06 243f 688b 9d3e f956 8ebe 8c95 603f
00000260: 950c e2be 3501 a83e 72c6 e33d 307f 9cbe
00000270: 6a5c b5be 78cc 193e a50f 48be 977c 0bbf
00000280: 9410 a83d 7c19 88bd c0cf ba3e 991e c23e
00000290: 4bcf 1ebf 4410 a0bc cd10 7b3e df8d b4be
000002a0: 0841 4abd 728e bfbe 9c19 1dbf 83ef 7a3e
000002b0: f375 163f 6827 a73e cd49 363e 8193 5f3e
000002c0: e347 ae3e 2e7a 96be a6d6 11bf 5087 c0be
000002d0: e105 da3d bf1b d6bc 2b16 94be 0939 cdbd
000002e0: 534a 7fbe e011 e3be 4937 183e 9b5f 3e3d
000002f0: 0150 3d3e 6796 49be a8ae 063e 7798 4a3f
00000300: 5889 f3be cbf4 dd3d f72d d43e e519 273e
00000310: 1829 8dbd b075 7e3e 70b1 a3be 4833 78b8
00000320: 0535 af3e 155b a1bd 7378 eabe a270 bf3d
00000330: 0824 fe3e 1603 693e d29b 8ebd b712 663e
00000340: bb47 20be c730 c4be eec3 6f3e e4e7 4fbc
00000350: d9b3 e23d 80dd aa3d 1377 d1be 625a c83e
00000360: d4d2 ea3d a18a 873e 9bd1 923c ec26 853e
00000370: ed49 fb3e 97e4 b23d de6c 6abd dffb fcbd
00000380: caae 0ebf 0ede f23d 2315 fc3d 9480 173e
00000390: 40de 013e 84ee 00bd 0a0b b73e 8cb4 d83d
000003a0: ca5e 5f3c b082 19be 4ad5 523e c66b 0d3e
000003b0: 48d5 1a3d 80d1 9c3d da17 6dbe cf63 cc3e
000003c0: dcec 91bd 02c8 683d 2a54 dabe 93e9 3ebe
000003d0: 006e 5ebd b237 c1be 861a 3bba 026d c0be
000003e0: 95bb 62be 8cae e23e 1536 43bd 4a7c febe
000003f0: 7099 7d3e 0415 6e3d 11ee 48bd fcd1 ce3e

critic.4.weight f4 [1, 256]
-2.3031824 -0.85884184 -2.1284192 0.42356947 -1.0531573 -0.42313674 -1.1223481 -1.0856729
-0.6008334 1.3075092 -0.63667256 -1.1983823 -0.90444154 -0.55817103 2.162679 -1.0323526
1.2913406 -0.6892439 0.6541218 -0.90272444 2.4839792 1.9291563 0.96810055 -0.734765
2.5367715 0.8239817 -0.77092934 1.7492113 0.2992985 -1.783887 0.38069978 -0.5018541
0.8373827 -2.254439 -0.91328 0.75127465 -2.981015 0.6986022 1.2523643 0.61313874
-2.445191 -0.8397923 2.6470098 -0.44636986 0.0705311 0.729744 -4.1653333 3.7457469
0.92812437 -0.969233 -0.645086 2.7886682 -1.9815195 -1.0350753 -2.5311267 -0.3967193
-0.81514466 0.429728 1.6127411 -0.9860789 0.20808348 -0.57230765 -0.7407152 1.0038464
0.32022622 0.5177363 -0.28412154 -0.4255406 -0.9763681 -1.4066315 2.2112248 0.7328582
-1.8407918 1.9168751 2.8761902 -1.7748519 -1.1682413 -0.56446075 1.7013149 0.69948125
-0.8411381 -1.2079384 0.8361007 -1.7860057 -1.5068239 -0.70321614 1.1042932 -0.6250159
-2.4012651 -1.3738952 1.0709996 -0.67589325 0.9102866 1.4919688 3.2149456 1.8704197
-1.33945 0.9294507 -1.1919682 -4.2097535 -0.8759425 -2.8561385 -0.81432354 -0.8820044
-2.5725608 2.5707624 1.0552503 3.0201402 1.5580655 -1.0015705 -1.5561327 -0.89263713
-1.6649871 -1.6702149 -0.22493707 -2.124456 1.0422313 -2.2851002 -1.5274537 -1.2017417
2.6208942 2.0983636 1.1641454 -1.8339155 -3.291659 -1.4853613 2.6877022 3.4367378
2.9100661 1.6974957 1.0458089 -1.8986148 0.9118941 -0.14282955 2.047903 -0.80036527
-2.610424 1.153153 -1.251705 1.1808676 1.4280393 -1.7477084 1.7848219 0.8732262
-0.46029344 3.5719423 2.1789973 2.0942266 1.485559 1.1326575 -1.3867179 1.8303981
-1.5321386 2.1695702 -0.4351367 -0.45742407 -2.1012444 1.2222534 0.55633867 -0.22009005
0.43303582 1.8781614 -3.7436645 -3.1376727 -1.2129846 0.95662147 1.0414933 -0.6069133
0.7814095 -0.8931251 0.36337647 -2.4979193 1.0178906 -2.0463214 -0.5711799 -1.0891161
-0.1699336 0.6889083 -1.4686514 -0.95874006 -0.6268257 1.4879678 1.8698832 1.594851
1.7582017 -2.8577538 3.3080986 2.5247858 0.44923773 -2.8521645 -1.564909 2.1061597
-1.2756209 -0.6105928 1.0072533 0.8573173 2.1403444 2.5668092 -2.377308 0.43961564
-3.6751933 -1.0243436 -1.9286433 -0.020969087 2.1220357 -1.9333762 -0.88769925 3.1573136
-0.41835216 0.30818555 -0.5672755 -2.8543673 0.33453232 -1.401789 -1.275017 -1.1239824
3.598551 -0.40963194 3.4241307 -0.6502297 2.3205512 -2.8748531 0.72508985 -2.179453
-0.9686053 -2.212226 -1.6040723 0.64099944 -1.158983 -0.74452627 1.6432836 1.7055773
-2.0150776 -0.8951418 1.6453494 -0.8793196 2.4464684 -1.0962462 -1.5779161 -0.900499
-1.1072862 0.85269606 -3.238307 2.6082075 1.7146051 -2.2895174 -2.744633 -2.5976062
-1.5293189 -0.92159647 2.8329406 -0.9981901 0.70990056 1.034876 1.5854024 1.5428663
00000000: 5767 13c0 0fdd 5bbf 0538 08c0 19de d83e
00000010: dccd 86bf 61a5 d8be 1aa9 8fbf 54f7 8abf
00000020: 38d0 19bf 765c a73f f9fc 22bf 9764 99bf
00000030: 7b89 67bf 4ce4 0ebf 5569 0a40 2124 84bf
00000040: a64a a53f 4a72 30bf 8774 273f f318 67bf
00000050: 84f9 1e40 98ee f63f 70d5 773f 8f19 3cbf
00000060: 775a 2240 77f0 523f a05b 45bf 28e6 df3f
00000070: a73d 993e 6956 e4bf 15eb c23e 8379 00bf
00000080: b65e 563f bb48 10c0 b8cc 69bf 8953 403f
00000090: f3c8 3ec0 98d7 323f 794d a03f a9f6 1c3f
000000a0: 027e 1cc0 a1fc 56bf 9c68 2940 978a e4be
000000b0: 9c72 903d 81d0 3a3f 694a 85c0 51ba 6f40
000000c0: 8f99 6d3f a71f 78bf 5b24 25bf 8a79 3240
000000d0: 6ea2 fdbf 597d 84bf fbfd 21c0 cb1e cbbe
000000e0: 52ad 50bf 4f05 dc3e 4d6e ce3f ab6f 7cbf
000000f0: d613 553e c182 12bf 839f 3dbf 0a7e 803f
00000100: b1f4 a33e 5e8a 043f 6178 91be 75e0 d9be
00000110: 43f3 79bf 800c b4bf b584 0d40 989c 3b3f
00000120: 119f ebbf 2a5c f53f 8013 3840 592e e3bf
00000130: ee88 95bf 8080 10bf b0c4 d93f 3411 333f
00000140: d454 57bf ba9d 9abf b20a 563f d69b e4bf
00000150: 9bdf c0bf f905 34bf 7b59 8d3f 0b01 20bf
00000160: 54ae 19c0 ccdb afbf 8416 893f 5707 2dbf
00000170: 8b08 693f d5f8 be3f abc1 4d40 ea69 ef3f
00000180: 1973 abbf 7bf0 6d3f 6a92 98bf 4db6 86c0
00000190: c53d 60bf f9ca 36c0 8277 50bf 0acb 61bf
000001a0: d6a4 24c0 5f87 2440 7112 873f fa49 4140
000001b0: b16e c73f 7633 80bf 5b2f c7bf de83 64bf
000001c0: 4c1e d5bf 9ac9 d5bf e755 66be 16f7 07c0
000001d0: d667 853f 153f 12c0 9a83 c3bf acd2 99bf
000001e0: bbbc 2740 974b 0640 b702 953f bebd eabf
000001f0: 8baa 52c0 5220 bebf 5003 2c40 83f3 5b40
00000200: 863e 3a40 8a47 d93f 11dd 853f cf05 f3bf
00000210: e471 693f e941 12be d810 0340 bde4 4cbf
00000220: 3011 27c0 849a 933f df37 a0bf ab26 973f
00000230: fec9 b63f e9b4 dfbf 0b75 e43f c18b 5f3f
00000240: 95ab ebbe b49a 6440 b174 0b40 cf07 0640
00000250: cc26 be3f ecfa 903f f97f b1bf 7c4a ea3f
00000260: 1e1d c4bf 3dda 0a40 3dca debe 7d33 eabe
00000270: ca7a 06c0 cd72 9c3f 366c 0e3f 495f 61be
00000280: dfb6 dd3e 9867 f03f 3398 6fc0 a1cf 48c0
00000290: 1443 9bbf 25e5 743f a74f 853f ac5e 1bbf
000002a0: 740a 483f d9a3 64bf 7b0c ba3e e9dd 1fc0
000002b0: 3d4a 823f eef6 02c0 d938 12bf 2868 8bbf
000002c0: 1303 2ebe 4b5c 303f c5fc bbbf fd6f 75bf
000002d0: a677 20bf bb75 be3f 5558 ef3f 1424 cc3f
000002e0: c10c e13f 70e5 36c0 e3b7 5340 1796 2140
000002f0: 7d02 e63e dd89 36c0 f04e c8bf 52cb 0640
00000300: 8c47 a3bf cf4f 1cbf aded 803f 2679 5b3f
00000310: 67fb 0840 9a46 2440 d025 18c0 4d15 e13e
00000320: 5e36 6bc0 b11d 83bf c9dd f6bf 5dc7 abbc
00000330: 6fcf 0740 df78 f7bf 4240 63bf 6d11 4a40
00000340: 4132 d6be 7fca 9d3e f838 11bf f4ad 36c0
00000350: d247 ab3e d26d b3bf c233 a3bf a8de 8fbf
00000360: a94e 6640 47bb d1be f524 5b40 7475 26bf
00000370: e983 1440 98fd 37c0 7d9f 393f 287c 0bc0
00000380: 84f6 77bf 1c95 0dc0 3e52 cdbf 8a18 243f
00000390: 8e59 94bf 4699 3ebf 1e57 d23f 5b50 da3f
000003a0: 08f7 00c0 0328 65bf cf9a d23f 171b 61bf
000003b0: f092 1c40 cc51 8cbf 28f9 c9bf 1a87 66bf
000003c0: 8ebb 8dbf 4a4a 5a3f 6c40 4fc0 dfec 2640
000003d0: 2e78 db3f 7487 12c0 11a8 2fc0 2e3f 26c0
000003e0: b9c0 c3bf bfed 6bbf e64e 3540 6389 7fbf
000003f0: 0bbc 353f d176 843f 77ee ca3f a57c c53f

actor.0.weight f4 [256, 42]
-0.26874432 -0.019447614 -0.613312 1.2494642 0.49941492 -3.4460716 -1.0591606 -0.21181877
0.7968613 -0.0046495986 2.9439263 1.0872005 0.027024603 0.21366997 -0.06651438 1.1185163
0.6773906 0.15957426 -0.09491905 0.13873996 -3.2505503 -1.6971456 0.23393442 1.1027895
-0.8334352 -0.69961697 -0.6634353 0.2497614 -0.25969294 1.2315437 0.9494738 1.7547795
-0.1284195 -0.08606332 -0.048499703 -0.016615123 0.10710584 0.20255737 -0.6870186 -0.5263894
-1.3599468 1.7299292 0.04485857 0.5387171 0.31408834 -1.3937395 0.5655379 -0.012619919
-0.33169007 0.03781406 -0.89477336 -0.22559766 2.6194704 0.69020766 0.023565963 -0.1232779
0.62992555 0.31903175 0.31700107 -0.06670073 0.20284076 0.38141853 -0.4258219 -1.2012092
0.16534832 -1.1643078 -0.60660946 0.017008556 -0.6625351 0.2398488 -0.13354449 -0.7344286
-0.8099679 -0.9957024 0.11411749 -0.13347313 -0.04050673 0.14289431 0.23517592 -0.067698054
1.7924225 0.38900456 -0.35625514 0.3526011 -0.6443554 -1.9943914 0.6411477 0.48705846
-0.24178198 0.44380134 0.32468843 0.09002744 0.8002192 -0.5982859 0.018602721 0.36492142
0.29162705 0.11803048 0.4628933 0.5324563 0.50248045 0.15214442 -0.24660464 -0.9779708
-1.8897165 -1.9774538 -0.09658493 0.14029105 -0.8327282 0.90126526 3.474675 -0.8022697
-0.038916174 0.7854171 0.08287798 0.07714976 -0.08378095 0.779112 -0.78567326 -0.14772794
0.06838168 0.030443186 0.10141792 0.25342718 -0.070332 -0.35644224 -0.6091916 -2.1819472
0.40399683 0.23538205 -1.3685431 -1.0332286 -0.07998181 0.27931178 0.5097819 -0.3228289
-1.6764276 -0.80928075 0.08905185 0.05772379 0.08420822 -0.004335682 -0.055011403 0.09248456
-0.27284873 -0.21711503 1.1867226 0.92386305 -0.121694766 0.4288575 -0.63757145 0.4270675
1.2986274 -0.6623025 0.06548191 2.8144143 -0.017071653 0.5001352 -0.06676713 0.60556877
0.009736842 -0.080647126 -0.11507815 0.0974877 -0.6013062 0.1804957 0.39954087 -0.013625062
-0.9047399 -0.25012305 -0.41522172 -0.36262563 -0.05267279 -0.71724534 0.16826761 -0.6158955
-0.25007823 0.24747111 0.7775165 0.91707045 -0.6563304 -0.4915277 -0.26473 -0.86547244
0.43649575 -0.55963945 -0.6608654 -0.28774226 -0.14427267 1.2080234 -0.4794091 -0.23710833
0.1764009 -0.39721105 0.1733339 -0.7617433 0.42531446 -0.5567851 -0.43395674 1.0292554
-0.79541516 0.6873681 0.113329 -0.11994835 -0.5982234 -0.6038917 -0.15634531 -0.5860076
0.23874158 0.615226 -0.75242245 -0.9276157 0.24989334 0.33892676 0.108789854 0.3534063
0.50678366 0.048575662 0.14221466 -0.19181043 0.07621457 0.31940997 -0.10075964 -0.22436704
0.24325706 0.981952 0.83704907 0.104698196 -0.34312645 0.16665486 -0.61515814 -0.5956972
-0.1390069 0.327396 0.44773197 -0.29225054 0.16181462 -0.3098333 0.008381952 -0.8187235
-0.088469036 1.1234046 -0.2662482 0.33410951 -0.27715778 -0.110551834 -0.22663231 -0.10943658
0.38227314 -0.6121015 1.6803207 0.746991 -0.27947482 -1.5620736 0.1988489 0.73530984
00000000: db98 89be 9a50 9fbc 0402 1dbf 71ee 9f3f
00000010: 50b3 ff3e 708c 5cc0 9392 87bf 05e7 58be
00000020: 1aff 4b3f a95b 98bb 4a69 3c40 6329 8b3f
00000030: b362 dd3c 4dcc 5a3e b138 88bd 8b2b 8f3f
00000040: 7869 2d3f 6f67 233e eb64 c2bd d911 0e3e
00000050: 0409 50c0 113c d9bf 818c 6f3e 3528 8d3f
00000060: 025c 55bf 191a 33bf e5d6 29bf 74c1 7f3e
00000070: 79f6 84be 39a3 9d3f b710 733f 9d9c e03f
00000080: 6780 03be f741 b0bd a0a7 46bd 701c 88bc
00000090: 4f5a db3d 336b 4f3e 73e0 2fbf 75c1 06bf
000000a0: bd12 aebf 526e dd3f 9fbd 373d 5de9 093f
000000b0: 30d0 a03e 0e66 b2bf 18c7 103f c7c3 4ebc
000000c0: 48d3 a9be eae2 1a3d de0f 65bf 1303 67be
000000d0: 67a5 2740 73b1 303f 680d c13c 2079 fcbd
000000e0: cd42 213f 2158 a33e f74d a23e 649a 88bd
000000f0: 7db5 4f3e 4a49 c33e 5405 dabe 39c1 99bf
00000100: 1251 293e 0a08 95bf c24a 1bbf 8755 8b3c
00000110: e69b 29bf ec9a 753e e3bf 08be 8303 3cbf
00000120: 0e5a 4fbf 5ae6 7ebf 6eb6 e93d 2ead 08be
00000130: 63ea 25bd e352 123e f5d1 703e 47a5 8abd
00000140: 1a6e e53f 9b2b c73e 1367 b6be 2288 b43e
00000150: 7af4 24bf 3848 ffbf 4122 243f ba5f f93e
00000160: b295 77be ee39 e33e 903d a63e 4e60 b83d
00000170: 2adb 4c3f 4429 19bf bc64 983c fbd6 ba3e
00000180: 2450 953e f7b9 f13d 5a00 ed3e 0e4f 083f
00000190: 8fa2 003f bfcb 1b3e ed85 7cbe 4b5c 7abf
000001a0: 3be2 f1bf 351d fdbf 52ce c5bd 75a8 0f3e
000001b0: ad2d 55bf 52b9 663f 1361 5e40 8c61 4dbf
000001c0: 9166 1fbd 1811 493f eebb a93d b200 9e3d
000001d0: 5995 abbd e273 473f e221 49bf fe45 17be
000001e0: b20b 8c3d fd63 f93c 33b4 cf3d 35c1 813e
000001f0: 390a 90bd 997f b6be fbf3 1bbf 06a5 0bc0
00000200: acd8 ce3e fe07 713e 6c2c afbf d640 84bf
00000210: 81cd a3bd f401 8f3e 1181 023f d449 a5be
00000220: 2e95 d6bf 062d 4fbf d160 b63d c86f 6c3d
00000230: 5c75 ac3d 5612 8ebb a353 61bd 8c68 bd3d
00000240: d4b2 8bbe 6753 5ebe 87e6 973f 4a82 6c3f
00000250: 1b3b f9bd 3693 db3e e237 23bf 97a8 da3e
00000260: 6c39 a63f a88c 29bf 611b 863d 5d1f 3440
00000270: dad9 8bbc dc08 003f 34bd 88bd 8e06 1b3f
00000280: 4687 1f3c 522a a5bd 18ae ebbd a2a7 c73d
00000290: 34ef 19bf ddd3 383e 9f90 cc3e a73b 5fbc
000002a0: 099d 67bf 2110 80be f197 d4be 11aa b9be
000002b0: 6cbf 57bd 649d 37bf 584e 2c3e 54ab 1dbf
000002c0: 410a 80be 1169 7d3e 520b 473f 21c5 6a3f
000002d0: 4505 28bf 85a9 fbbe b18a 87be 9a8f 5dbf
000002e0: 5f7c df3e 8844 0fbf 7a2e 29bf f452 93be
000002f0: 37bc 13be 83a0 9a3f 1c75 f5be 87cc 72be
00000300: 70a2 343e 3f5f cbbe 717e 313e 9c01 43bf
00000310: d1c2 d93e 7889 0ebf 942f debe a4be 833f
00000320: 54a0 4bbf 5bf7 2f3f 0919 e83d 7ba7 f5bd
00000330: 2b25 19bf a598 1abf fc18 20be 9804 16bf
00000340: ac78 743e 737f 1d3f c29e 40bf 3978 6dbf
00000350: 0ae4 7f3e cf87 ad3e 37cd de3d acf1 b43e
00000360: 93bc 013f 46f7 463d b8a0 113e f469 44be
00000370: 6216 9c3d b489 a33e 125b cebd 79c0 65be
00000380: 6118 793e 3561 7b3f d948 563f 026c d63d
00000390: 45ae afbe 92a7 2a3e 017b 1dbf 9d7f 18bf
000003a0: d357 0ebe 73a0 a73e 203d e53e dda1 95be
000003b0: bbb2 253e 78a2 9ebe 7454 093c dd97 51bf
000003c0: 412f b5bd b9cb 8f3f af51 88be 6710 ab3e
000003d0: a0e7 8dbe 0069 e2bd 4d12 68be 4920 e0bd
000003e0: 4eb9 c33e afb2 1cbf c014 d73f cd3a 3f3f
000003f0: 5317 8fbe 07f2 c7bf 0c9f 4b3e 443d 3c3f

actor.0.bias f4 [256]
-0.071207836 0.037123527 0.030525476 -0.08740747 -0.76820225 -0.15388596 -0.070870906 -0.031185301
-0.2074307 0.27648383 0.08454034 -0.24534458 0.5251047 0.05208931 0.38050026 0.1302518
-0.07671846 0.20194574 0.05893867 -0.33877054 0.37292263 0.20923895 0.024512766 -0.15717995
0.10824754 -0.22850327 -0.033241708 0.3274651 0.030010404 0.030998802 -0.24035087 0.0026941332
0.0793661 -0.5026968 0.07498911 0.24720143 0.18239357 0.12633488 -0.018278586 0.47644708
0.024758741 0.002166215 -0.22290583 0.0464207 -0.022136273 -0.026448319 0.037569463 0.22889313
-0.04478346 -0.4758571 -0.5006781 0.023665396 -0.47080246 -0.0917504 0.1025815 0.20908138
-0.19789612 0.41379818 0.014700639 0.026124671 0.25026464 -0.02386471 0.14212981 0.008114977
-0.057544634 0.16923617 -0.0023248964 -0.046904434 0.0070138546 0.029786786 0.5163718 -0.023748228
-0.39644006 -0.09267158 -0.47542545 -0.26078293 -0.23846745 -0.037984673 -0.02252739 0.082369
0.03810458 -0.17838591 0.17497149 0.22591412 0.12767613 -0.11463894 -0.21987094 -0.15848881
0.32426754 -0.06228888 0.21860687 -0.39930433 -0.17097414 -0.0036478417 -0.059695266 -0.054663967
0.20893824 0.1529716 -0.08903604 0.4725306 0.3471931 0.09780307 -0.16654032 0.14644451
-0.12544467 -0.11286865 0.017887278 -0.15326697 -0.45760518 -0.08545872 -0.23469803 -0.13728626
-0.095945425 0.23269616 -0.48771626 0.13195364 0.13533035 -0.030720212 -0.16749457 0.090702176
0.22819763 0.30796644 0.14281085 -0.7778466 0.110487044 -0.024845872 0.15168864 -0.24775995
0.17712809 -0.004517031 0.19657387 -0.0015175849 -0.22126979 0.14614375 0.20164959 0.07682269
-0.08195494 0.123281255 -0.14879759 0.17600997 -0.23444554 -0.29597992 -0.25493047 0.10672203
-0.046069346 0.03071237 -0.12812419 -0.0758335 0.009183493 0.26654854 -0.058272388 0.03123617
0.09990929 -0.27964136 0.13559297 0.07924674 0.16813403 -0.061570324 0.09799172 0.045401026
-0.119311884 0.01504657 0.0009911642 -0.024605395 0.05187761 -0.05340004 0.0018626857 0.235709
0.16922009 -0.119235605 0.14588729 -0.078681804 -0.11103865 -0.20626892 0.10778891 -0.3773613
0.104614034 -0.01859571 -0.13234249 0.09750767 -0.07790316 0.03170805 -0.17466034 0.5611534
0.124015346 0.18622705 -0.12950382 -0.20215684 0.041566107 -0.12075232 -0.14931662 -0.19900031
-0.3401877 -0.06791091 0.0800737 -0.03476884 -0.03567152 -0.028185738 -0.027251028 0.35522974
-0.06761761 -0.18173376 0.22864379 0.26321658 -0.05508074 0.20029445 0.17961985 0.09969761
-0.0143323345 0.03497474 0.07444034 0.075409204 0.15455191 -0.18078674 -0.1257279 0.45189524
0.09189058 -0.039802197 -0.14513348 0.134935 0.00035315915 0.09988789 -0.006730034 -0.13965605
0.047520027 -0.11498474 -0.09769735 -0.101007685 -0.171838 0.041390244 0.0332511 -0.15426461
-0.06989818 -0.045181934 0.03240117 -0.04416704 -0.07563878 -0.5676827 0.07904197 -0.29064265
-0.33555737 -0.07534893 0.421968 -0.16499381 0.10569958 0.027157424 0.3046174 0.036479466
0.075620174 0.31784847 -0.11115853 -0.04390852 0.26464835 0.45488846 -0.044132486 -0.5040651
00000000: 6ad5 91bd d70e 183d 9010 fa3c b002 b3bd
00000010: e7a8 44bf 4894 1dbe c424 91bd 5178 ffbc
00000020: b768 54be 4a8f 8d3e 7c23 ad3d 9c3b 7bbe
00000030: 436d 063f 9a5b 553d eed0 c23e ba60 053e
00000040: 911e 9dbd ddca 4e3e ad69 713d 5573 adbe
00000050: b7ef be3e bc42 563e ffce c83c c8f3 20be
00000060: e3b0 dd3d c3fc 69be 7528 08bd 81a9 a73e
00000070: 61d8 f53c 33f1 fd3c 8a1e 76be 0e90 303b
00000080: b28a a23d bdb0 00bf e493 993d 5f22 7d3e
00000090: 61c5 3a3e ee5d 013e f9bc 95bc dff0 f33e
000000a0: d8d2 ca3c 0ff7 0d3b 6d41 64be a223 3e3d
000000b0: 2157 b5bc 25aa d8bc 70e2 193d f662 6a3e
000000c0: dd6e 37bd 8ba3 f3be 712c 00bf efdd c13c
000000d0: 050d f1be a2e7 bbbd 4016 d23d 6e19 563e
000000e0: 48a5 4abe 5bdd d33e f3da 703c 6803 d63c
000000f0: b022 803e ed7f c3bc 7a8a 113e aef4 043c
00000100: ecb3 6bbd 3f4c 2d3e 4a5d 18bb dd1e 40bd
00000110: 7ad4 e53b 6b03 f43c f130 043f a58b c2bc
00000120: 31fa cabe 99ca bdbd f76a f3be 5785 85be
00000130: d030 74be d195 1bbd 5c8b b8bc 14b1 a83d
00000140: 8c13 1c3d ccaa 36be ba2b 333e 0856 673e
00000150: 88bd 023e d2c7 eabd d925 61be e44a 22be
00000160: 6506 a63e a022 7fbd 7bda 5f3e 9e71 ccbe
00000170: d813 2fbe a110 6fbb 0683 74bd 53e7 5fbd
00000180: e8f3 553e 96a4 1c3e 8758 b6bd 88ef f13e
00000190: 4bc3 b13e fa4c c83d 8c89 2abe 8df5 153e
000001a0: 9174 00be ae27 e7bd 5788 923c 04f2 1cbe
000001b0: 3a4b eabe fb04 afbd ae54 70be c594 0cbe
000001c0: 097f c4bd e747 6e3e f2b5 f9be db1e 073e
000001d0: 0a94 0a3e f4a8 fbbc b283 2bbe 10c2 b93d
000001e0: a4ac 693e c7ad 9d3e 023d 123e f420 47bf
000001f0: 0847 e23d 9289 cbbc 4454 1b3e c9b4 7dbe
00000200: 1161 353e 9a03 94bb a94a 493e b3e9 c6ba
00000210: 8c94 62be b5a6 153e 3b7d 4e3e 3755 9d3d
00000220: fed7 a7bd e27a fc3d 655e 18be f53b 343e
00000230: 7e12 70be ae8a 97be 3f86 82be 1491 da3d
00000240: 36b3 3cbd 8298 fb3c fd32 03be 984e 9bbd
00000250: 5d76 163c 0d79 883e 07af 6ebd ffe2 ff3c
00000260: 3e9d cc3d 272d 8fbe e2d8 0a3e 1d4c a23d
00000270: 542b 2c3e 2a31 7cbd e2af c83d 6df6 393d
00000280: ca59 f4bd e485 763c f4e9 813a 4191 c9bc
00000290: 9e7d 543d 00ba 5abd 5c25 f43a b35d 713e
000002a0: 0848 2d3e cc31 f4bd 7a63 153e ed23 a1bd
000002b0: 3b68 e3bd 2938 53be 6fc0 dc3d 8035 c1be
000002c0: e23f d63d 0856 98bc ca84 07be 1ab2 c73d
000002d0: b18b 9fbd 4de0 013d 29da 32be c0a7 0f3f
000002e0: c2fb fd3d 4eb2 3e3e a69c 04be 3402 4fbe
000002f0: 3941 2a3d fe4c f7bd 75e6 18be bdc6 4bbe
00000300: 152d aebe e014 8bbd aefd a33d c569 0ebd
00000310: 4d1c 12bd c7e5 e6bc 8c3d dfbc ace0 b53e
00000320: 1a7b 8abd 6a18 3abe 9921 6a3e 53c4 863e
00000330: 589c 61bd fd19 4d3e 44ee 373e 432e cc3d
00000340: 2bd2 6abc ac41 0f3d 2d74 983d 2470 9a3d
00000350: db42 1e3e 2920 39be d1be 00be d05e e73e
00000360: 2131 bc3d a107 23bd df9d 14be 672c 0a3e
00000370: 3828 b939 0692 cc3d 9e87 dcbb ff01 0fbe
00000380: 5ca4 423d 1f7d ebbd 8c15 c8bd 1edd cebd
00000390: 4df6 2fbe d188 293d 4e32 083d 8bf7 1dbe
000003a0: c726 8fbd b110 39bd 17b7 043d 80e8 34bd
000003b0: 81e8 9abd a753 11bf c2e0 a13d 1dcf 94be
000003c0: 2dce abbe 8a50 9abd 310c d83e 23f4 28be
000003d0: 0579 d83d 3f79 de3c d0f6 9b3e 7e6b 153d
000003e0: c0de 9a3d 09bd a23e 15a7 e3bd 6cd9 33bd
000003f0: fd7f 873e 24e7 e83e 44c4 34bd 690a 01bf

actor.2.weight f4 [256, 256]
0.066598855 0.55474657 0.12740271 -0.90394384 0.3988374 -0.24141529 1.1597298 1.4137216
-0.689516 -0.2739741 0.4403244 -0.34870577 0.102350235 -0.76430476 -0.05334732 -0.06566996
0.53833544 0.42666796 0.48637176 0.051671237 -0.12788858 0.10363622 0.87614053 0.24806313
0.21285576 0.29659063 -0.12196685 0.21937981 -0.09852082 0.21634611 -0.5434639 -0.4361414
-0.46543765 -0.48185545 -0.69369936 -1.3991214 -1.3527062 0.60142815 -0.03686793 0.43128732
-0.12812994 0.05216868 0.059539795 -0.5585198 -0.22218171 0.18072408 -1.1677065 0.6813659
-0.16939998 0.12926947 0.07412979 -0.10434943 0.009399009 0.96836877 0.3258126 0.7968966
0.29630888 0.21886183 -0.4554152 0.21522698 -0.41253483 0.07028512 0.14997464 -0.4929985
0.89418477 0.044816982 -0.4308941 0.44181132 -0.23971806 -0.5540993 -0.43461567 -0.06515512
-0.2614261 -0.047836922 0.33945704 0.84759367 -0.23225531 -0.077617966 0.09694642 -0.6581675
0.5761258 -0.49982858 -0.101143666 -0.7569968 -0.35587722 0.074169226 -0.92391026 0.4127702
0.29061058 0.3299528 -0.1095261 -1.0537874 -0.066755205 0.7918171 0.21506819 -0.23183022
0.64280105 -0.23880751 0.5755178 -0.06608465 0.2056558 -0.5595413 0.46689367 -0.4521583
0.7569174 -0.02776384 -1.2659922 0.117030464 0.3221251 0.2276053 1.1641903 -0.031228002
0.31066516 0.9052873 0.41876343 0.43136048 -0.075859085 -0.8959689 -0.2844613 -0.19038339
0.3399042 -1.0049558 0.26031706 0.26992503 0.11623053 -0.22948824 -0.012665741 0.19794844
-0.9296976 0.045456585 0.44700086 0.77794755 -0.49676165 -0.10132605 -1.3283824 0.22402963
0.7608916 -0.090027 -0.07540201 -0.03494486 -0.51834494 -0.21736401 -0.015040552 0.6128899
0.17660707 -0.3013053 0.45113018 1.3169465 0.10910722 0.2986744 -0.6110001 0.29360852
0.60170776 0.8024746 1.0743856 -0.34107953 0.6285347 -1.5240042 -0.26650867 0.17954993
-0.1299552 0.7473093 -0.04078371 -0.7938305 -0.08845775 0.25561956 -0.30321553 0.327256
-1.4920629 -0.67473656 0.25157878 -0.51976544 0.06980972 -0.34989515 0.5240412 1.2878337
0.42335242 0.19435328 -0.4024703 -0.06486326 -0.065766595 0.48564133 -0.2267096 0.33174428
-0.5635256 -0.39544433 -0.18074499 0.5478003 -0.71066326 -0.6836356 -0.2121405 -0.22790028
-0.2269242 -0.5679877 0.18917114 -0.6424613 -0.4776389 0.21203172 -0.035292577 -0.023645598
-0.80978936 0.20293835 -0.36188468 0.33869666 0.580304 -1.0238175 0.5813353 0.14168242
-0.30052125 0.20211306 -1.4012309 0.5447236 1.2793711 -0.045831434 0.27823892 -0.13424441
-0.52026737 0.56141824 -0.23687688 1.5160551 -1.0459967 0.47055373 -0.19475481 0.68106323
-0.47845024 0.07736072 -0.37004894 -0.7136413 0.31555715 -0.3480348 0.35023442 0.24371545
-1.1894195 -0.11586218 0.38055113 0.2760972 0.25775227 0.2015233 0.08989246 0.0033255627
-0.49131742 0.06452041 -0.15129437 -0.44647005 1.0632339 0.18717653 -0.27317518 -0.4611233
0.9501169 -1.0231673 0.34063736 0.49369404 -0.65778637 0.16432758 1.2073768 0.83742166
00000000: fb64 883d df03 0e3f db75 023e dd68 67bf
00000010: 6a34 cc3e 9235 77be 0772 943f d4f4 b43f
00000020: 1f84 30bf 5546 8cbe 3372 e13e 9089 b2be
00000030: 009d d13d 7aa9 43bf b882 5abd f97d 86bd
00000040: 5ad0 093f 3974 da3e b805 f93e 38a5 533d
00000050: 39f5 02be 3a3f d43d bf4a 603f 4304 7e3e
00000060: dcf6 593e bada 973e c1c9 f9bd 1aa5 603e
00000070: 49c5 c9bd d689 5d3e 7320 0bbf ed4d dfbe
00000080: d84d eebe c2b5 f6be 4896 31bf 6916 b3bf
00000090: 7a25 adbf 32f7 193f d402 17bd b1d1 dc3e
000000a0: 7f34 03be d3ae 553d 00e0 733d 27fb 0ebf
000000b0: 9a83 63be bc0f 393e 6877 95bf ff6d 2e3f
000000c0: 3077 2dbe 375f 043e 5cd1 973d 27b5 d5bd
000000d0: 4dfe 193c 04e7 773f e9d0 a63e 6a01 4c3f
000000e0: ccb5 973e 511d 603e 2e2c e9be 7664 5c3e
000000f0: c437 d3be a5f1 8f3d f492 193e 4d6a fcbe
00000100: 4be9 643f 0392 373d 279e dcbe 1835 e23e
00000110: a778 75be 74d9 0dbf f285 debe 0c70 85bd
00000120: a4d9 85be a6f0 43bd 50cd ad3e e6fb 583f
00000130: 56d4 6dbe 2bf6 9ebd d88b c63d aa7d 28bf
00000140: fb7c 133f 88e9 ffbe 6924 cfbd 8bca 41bf
00000150: 8a35 b6be 09e6 973d 6285 6cbf 9e56 d33e
00000160: e9ca 943e 93ef a83e 384f e0bd 81e2 86bf
00000170: f4b6 88bd 87b4 4a3f d63a 5c3e e764 6dbe
00000180: 9c8e 243f f589 74be 2255 133f 6457 87bd
00000190: 6f97 523e 193e 0fbf b00c ef3e 4b81 e7be
000001a0: 57c5 413f fe70 e3bc 080c a2bf abad ef3d
000001b0: 95ed a43e 5d11 693e 3004 953f ded1 ffbc
000001c0: 810f 9f3e e9c0 673f 2968 d63e 48db dc3e
000001d0: 025c 9bbd 385e 65bf e9a4 91be ddf3 42be
000001e0: ec07 ae3e 64a2 80bf 4748 853e 9d33 8a3e
000001f0: 460a ee3d f7fe 6abe f883 4fbc ffb2 4a3e
00000200: a900 6ebf af30 3a3d 4cdd e43e 9227 473f
00000210: 8b57 febe 0884 cfbd 6f08 aabf 0668 653e
00000220: cbc9 423f 1360 b8bd 5e6c 9abd 5722 0fbd
00000230: 41b2 04bf ac94 5ebe a66c 76bc 5ae6 1c3f
00000240: 7cd8 343e b044 9abe 89fa e63e b491 a83f
00000250: 9b73 df3d daeb 983e 816a 1cbf db53 963e
00000260: 8509 1a3f fa6e 4d3f 7885 893f faa1 aebe
00000270: a6e7 203f 9212 c3bf d373 88be f0db 373e
00000280: fa12 05be aa4f 3f3f d20c 27bd 7a38 4bbf
00000290: 5629 b5bd 91e0 823e 113f 9bbe 198e a73e
000002a0: ebfb bebf 89bb 2cbf efce 803e 590f 05bf
000002b0: 66f8 8e3d 7525 b3be 9027 063f bcd7 a43f
000002c0: a6c1 d83e 8c04 473e 9610 cebe 07d7 84bd
000002d0: a3b0 86bd fba5 f83e 9026 68be 63da a93e
000002e0: 3743 10bf ae77 cabe 3715 39be a43c 0c3f
000002f0: 07ee 35bf be02 2fbf 5c3b 59be b15e 69be
00000300: d15e 68be a467 11bf 14b6 413e 5878 24bf
00000310: 168d f4be d81e 593e f38e 10bd 6ab4 c1bc
00000320: 5b4e 4fbf 12cf 4f3e f348 b9be a669 ad3e
00000330: ce8e 143f 740c 83bf 64d2 143f 3215 113e
00000340: ecdd 99be baf6 4e3e 895b b3bf 0173 0b3f
00000350: 6fc2 a33f beb9 3bbd 5575 8e3e 5e77 09be
00000360: 3e30 05bf 1bb9 0f3f da8f 72be 180e c23f
00000370: 38e3 85bf 6bec f03e ce6d 47be 295a 2e3f
00000380: 6ef7 f4be 4c6f 9e3d 0e77 bdbe 32b1 36bf
00000390: b590 a13e 9e31 b2be ed51 b33e 8b90 793e
000003a0: e63e 98bf 2749 edbd 99d7 c23e 9d5c 8d3e
000003b0: 1bf8 833e 205c 4e3e 8a19 b83d aff1 593b
000003c0: f58d fbbe 4723 843d e9ec 1abe b997 e4be
000003d0: 0c18 883f 34ab 3f3e 9edd 8bbe 5a18 ecbe
000003e0: dc3a 733f 25f7 82bf 0568 ae3e 77c5 fc3e
000003f0: b064 28bf 7d45 283e 538b 9a3f 4461 563f
