models/ho_policy.pth (torch, 628114 bytes, 11 tensors)

critic.0.weight f4 [256, 42]
-0.11183478 0.014605488 -0.08341997 -0.014175108 -0.15674442 0.19860776 0.03315858 -0.0864934
-0.017797275 0.12589459 -0.05245388 -0.12209095 0.05480689 0.026129348 0.11684735 -0.03841703
-0.11278958 -0.020832825 -0.0031982753 0.09046094 -0.029555695 0.020624982 -0.07105957 -0.040784884
-0.008458093 0.12847205 -0.0014508634 0.0016197856 -0.07527732 -0.121138155 -0.02767509 -0.07293333
0.034114655 0.117116004 0.09693163 0.015109271 -0.112808384 -0.078214936 -0.0163334 -0.02164823
0.058680724 0.048140757 0.11889397 0.108700715 -0.036251497 -0.06893055 -0.122498065 -0.1410172
-0.0988992 -0.0021736799 0.0976573 -0.06918157 0.18474628 -0.012713417 -0.14561626 -0.013987931
-0.015408039 -0.00583886 -0.095668934 0.1045222 -0.14259231 -0.06170644 -0.07433449 -0.11825014
0.017238721 0.07715852 0.04012899 -0.029779097 0.049306516 0.118268386 0.016271949 0.10393495
0.15319699 -0.077611975 0.10455072 0.003115221 -0.016965182 0.058209762 -0.063419685 -0.09194308
-0.07007056 0.22597143 -0.1400213 -0.06705151 -0.09483478 0.08253209 -0.10927434 -0.09008249
0.14588955 0.019438427 -0.113274865 0.09661479 -0.056005348 0.030444175 -0.07553529 -0.024765708
-0.04166422 -0.07111252 -0.11866194 -0.035817012 0.028268898 0.06698136 -0.15790342 -0.08729497
0.12771502 -0.14874414 0.07254073 0.022352709 0.13947774 -0.0037869555 0.14352475 -0.13506745
0.038504455 0.047850907 -0.10400976 0.056423604 -0.039082237 0.048396643 0.08052507 -0.043588623
-0.11338317 0.08299265 0.12446809 0.26199543 -0.05700727 0.109067455 -0.09038794 0.0006361313
0.055100806 0.13822547 0.08407362 -0.040336497 0.07226391 0.0670863 0.16230486 -0.12717065
0.1768257 0.17657314 0.08267227 0.08646071 -0.0650606 -0.08946768 0.018370008 -0.05699274
0.12166125 0.15059192 -0.18754841 0.101443194 0.09289163 0.13761947 -0.08082079 -0.12799403
0.03581943 -0.018603932 0.03726147 0.06748319 0.066948265 -0.13751945 0.1260514 0.10722333
-0.07543057 -0.11647557 -0.07517234 0.063296266 -0.07320274 0.12923262 -0.079316184 0.0998676
0.0069624363 0.060529158 -0.12596273 -0.1635895 -0.12972942 0.012784736 -0.014286113 -0.1011706
-0.14665803 0.07632111 0.06662799 0.053865857 -0.030965794 0.045993544 0.044374555 -0.13398436
-0.05220047 -0.109324306 -0.1387229 -0.09923093 0.046704445 0.017476156 -0.1602778 0.10359039
-0.04778409 -0.113545306 -0.0007405028 -0.07624448 -0.036157105 0.14165717 -0.120025896 -0.07452373
-0.03634043 0.18345505 -0.14499652 -0.09014454 0.1020381 0.0071103037 0.14615673 0.07464064
-0.09498846 0.055607524 -0.05321112 0.1402687 -0.022834871 -0.05360516 0.086988315 -0.059600215
0.117550515 0.14696117 0.11364836 -0.117889725 -0.01679799 0.13110875 -0.123551555 -0.111919336
0.02523373 -0.099956654 0.12222044 -0.0458175 0.017731467 -0.10602153 -0.13646024 -0.119424045
-0.08736846 0.07919668 0.11344199 -0.14247426 0.07360895 0.06867627 0.033060476 -0.021557814
0.016902495 -0.018457867 0.070260026 0.017432775 -0.10387551 -0.00048203766 0.007316592 0.110027574
0.053790104 0.1951175 0.018587066 -0.08391195 0.074244894 0.0128263915 -0.12314949 0.1166942
00000000: a209 e5bd db4b 6f3c 17d8 aabd b63e 68bc
00000010: 9c81 20be d55f 4b3e 4bd1 073d 7423 b1bd
00000020: 97cb 91bc 83ea 003e e1d9 56bd d20a fabd
00000030: 317d 603d 370d d63c aa4d ef3d 2d5b 1dbd
00000040: 39fe e6bd 9aa9 aabc 289a 51bb 9643 b93d
00000050: c91e f2bc b9f5 a83c ae87 91bd 0d0e 27bd
00000060: d093 0abc 2d8e 033e e62a beba fc4e d43a
00000070: ff2a 9abd 4817 f8bd dfb6 e2bc 125e 95bd
00000080: cfbb 0b3d 84da ef3d 1784 c63d e08c 773c
00000090: 1508 e7bd 272f a0bd 9fcd 85bc a157 b1bc
000000a0: 335b 703d 3e2f 453d af7e f33d 7b9e de3d
000000b0: 737c 14bd 762b 8dbd 44e0 fabd d066 10be
000000c0: aa8b cabd 4c74 0ebb 8d00 c83d 11af 8dbd
000000d0: 212e 3d3e f04b 50bc 6e1c 15be a32d 65bc
000000e0: 0072 7cbc e853 bfbb 13ee c3bd bc0f d63d
000000f0: b803 12be e4bf 7cbd ae3c 98bd 212d f2bd
00000100: 3838 8d3c 4905 9e3d 4c5e 243d 4bf3 f3bc
00000110: a1f5 493d b236 f23d c04c 853c d9db d43d
00000120: acdf 1c3e 07f3 9ebd b01e d63d bc28 4c3b
00000130: 91fa 8abc 5c6d 6e3d 2ee2 81bd a74c bcbd
00000140: 2781 8fbd 0e65 673e be61 0fbe 4d52 89bd
00000150: bd38 c2bd 9606 a93d 3acb dfbd 2b7d b8bd
00000160: 1264 153e 563d 9f3c a7fc e7bd fadd c53d
00000170: dd65 65bd 1066 f93c 3fb2 9abd 74e1 cabc
00000180: 1aa8 2abd 71a3 91bd 0805 f3bd dcb4 12bd
00000190: 2d94 e73c 862d 893d 6fb1 21be b5c7 b2bd
000001a0: bac7 023e 6250 18be 3c90 943d 071d b73c
000001b0: 41d3 0e3e 922e 78bb 27f8 123e 1f4f 0abe
000001c0: d9b6 1d3d 50ff 433d 1203 d5bd 701c 673d
000001d0: b214 20bd 8f3b 463d 54ea a43d fc89 32bd
000001e0: 6f35 e8bd 0df8 a93d 20e9 fe3d 4424 863e
000001f0: 7580 69bd c25e df3d 501d b9bd 0dc2 263a
00000200: 62b1 613d fa8a 0d3e ca2e ac3d e237 25bd
00000210: 1aff 933d 8b64 893d 3f33 263e 0639 02be
00000220: cc11 353e 97cf 343e 1450 a93d 5012 b13d
00000230: 7e3e 85bd d53a b7bd b37c 963c 3871 69bd
00000240: 8929 f93d c534 1a3e b10c 40be 73c1 cf3d
00000250: f83d be3d 1eec 0c3e 5f85 a5bd de10 03be
00000260: 65b7 123d 4667 98bc 7c9f 183d a034 8a3d
00000270: 2c1c 893d e6d1 0cbe 9e13 013e e897 db3d
00000280: 587b 9abd be8a eebd f5f3 99bd 79a1 813d
00000290: 51eb 95bd 8e55 043e 8670 a2bd 6287 cc3d
000002a0: 2625 e43b 6ced 773d 60fc 00be 0284 27be
000002b0: cad7 04be 1277 513c 4d10 6abc 8832 cfbd
000002c0: 862d 16be 3e4e 9c3d 4174 883d 72a2 5c3d
000002d0: faab fdbc ba63 3c3d 18c2 353d 3233 09be
000002e0: 29d0 55bd 6ce5 dfbd 600d 0ebe 9639 cbbd
000002f0: 294d 3f3d 282a 8f3c dd1f 24be 3327 d43d
00000300: 40b9 43bd 718a e8bd 4d1e 42ba 1126 9cbd
00000310: 7919 14bd 940e 113e 23d0 f5bd e69f 98bd
00000320: b4d9 14bd a4db 3b3e f879 14be b39d b8bd
00000330: 5af9 d03d 8dfd e83b 1caa 153e 31dd 983d
00000340: 4f89 c2bd b7c4 633d e7f3 59bd 99a2 0f3e
00000350: 3210 bbbc 1691 5bbd ee26 b23d 5b1f 74bd
00000360: 53be f03d fd7c 163e 79c0 e83d 2b70 f1bd
00000370: f09b 89bc 5f41 063e 9908 fdbd f735 e5bd
00000380: f8b6 ce3c 13b6 ccbd b64e fa3d 22ab 3bbd
00000390: 9541 913c d121 d9bd 3cbc 0bbe 9894 f4bd
000003a0: 3cee b2bd de31 a23d 4654 e83d c6e4 11be
000003b0: 4ac0 963d 25a6 8c3d 6c6a 073d 039a b0bc
000003c0: 1a77 8a3c f434 97bc 7de4 8f3d 2ecf 8e3c
000003d0: afbc d4bd 00ba fcb9 06c0 ef3b 2356 e13d
000003e0: 0353 5c3d e2cc 473e e743 983c 07da abbd
000003f0: b50d 983d c925 523c cd35 fcbd 5efd ee3d

critic.0.bias f4 [256]
0.12590739 -0.15112083 -0.038599703 0.063928835 -0.040180072 0.04728427 0.060318958 -0.13721421
0.044398263 0.11672442 -0.12233818 0.14811794 -0.079896495 -0.16063689 -0.10980912 0.042122692
-0.10242924 0.047527548 -0.06591815 -0.016003884 -0.18933807 0.16571994 0.12021662 -0.07494356
-0.017971803 -0.11962729 0.06358615 -0.12940279 0.09755053 0.0767066 0.11345157 -0.124495395
-0.08646147 -0.08789471 -0.03526378 -0.10153452 -0.16181609 0.018554082 -0.013714263 -0.015567331
0.06717549 -0.007099155 -0.035213165 -0.12686361 -0.12349427 0.07021621 -0.17015678 -0.15942019
0.0006445735 -0.0897497 0.12439366 0.15445068 0.013228049 -0.050243605 0.09234623 -0.13871336
-0.16952549 -0.10088966 0.050188076 -0.050270934 0.016001102 0.043026466 0.14368586 -0.071620904
0.05036883 -0.06461567 -0.12544449 0.014567067 -0.08233765 0.048175022 -0.038715646 0.11091257
-0.009578222 -0.00059890276 0.020276353 0.12656277 0.14426216 -0.013264873 0.0860135 -0.082752034
0.1372303 -0.118950635 -0.15828061 0.11388224 0.11509133 0.040709704 0.10731894 -0.089028135
0.17683873 0.09352652 -0.010245344 0.017938854 -0.06043748 -0.01723798 -0.1566485 -0.008821395
-0.123674855 -0.0973577 0.056896493 0.010655746 -0.037846576 0.13754478 -0.014959039 0.037484407
0.060885187 -0.024682961 -0.08560664 -0.07791809 0.18097971 0.12962928 -0.112961434 -0.06469776
-0.09309743 0.0043137698 0.04851699 0.1629165 0.012513167 -0.029856836 -0.15698458 -0.03482814
-0.0644849 0.08812878 0.02012383 0.12016565 0.094231986 0.12512861 0.048743874 0.04522399
0.018736515 -0.0619839 0.08561202 0.07330024 0.02985747 -0.12824336 -0.11454593 -0.018741252
0.05573677 -0.03863503 -0.17029434 0.027688982 -0.11531812 0.04579091 0.06808404 0.040076077
-0.04145826 0.07490679 -0.08623547 0.10919226 -0.07301469 -0.1610312 -0.06022052 0.04781584
-0.12350494 0.14350627 0.10625564 -0.0021162739 -0.1484149 -0.0810145 -0.0019274984 -0.050719894
-0.03229215 0.0500436 -0.015009408 0.05536483 -0.025736637 0.026055554 -0.04312268 0.06844284
0.12731567 0.031036722 -0.07032711 -0.025484385 -0.07974939 -0.12496885 -0.14146326 0.11841075
0.15200953 -0.032041594 -0.13541698 0.062909566 -0.09798651 0.16629228 -0.03247748 -0.13417196
0.06340694 -0.047441687 0.13195524 0.0653138 -0.05013059 -0.031596087 -0.17209537 0.0102217
0.12679152 -0.15942658 -0.105759814 -0.03960161 -0.13126586 -0.044906415 -0.0446704 -0.16209972
-0.17640154 -0.15896052 -0.1101235 0.055813424 -0.04269035 -0.09469702 0.011101316 0.020346658
-0.06847332 -0.10176445 0.027508784 0.078349166 -0.015313409 0.07495089 -0.005761728 -0.19492202
-0.072326764 0.13823977 0.07224809 0.0334338 -0.013972809 -0.040022846 -0.04153365 -0.03631618
0.11868762 0.113275014 0.025094397 0.17229085 -0.039888017 0.08389554 -0.1610824 0.081776425
-0.11899475 -0.0671781 -0.14080924 0.15780751 -0.04638664 0.07289674 0.12839118 -0.14395498
-0.1272508 -0.09168453 0.055020064 0.13448976 0.120296575 0.0019316595 -0.09641287 0.0793948
-0.03317356 0.10607644 0.018870706 -0.01916155 -0.103270926 0.106261685 -0.10811335 -0.085640006
00000000: deed 003e 6bbf 1abe b91a 1ebd 1fed 823d
00000010: dc93 24bd 27ad 413d 0311 773d e281 0cbe
00000020: f4da 353d 360d ef3d 718c fabd 3bac 173e
00000030: c6a0 a3bd ff7d 24be 9be3 e0bd d888 2c3d
00000040: 6cc6 d1bd 3fac 423d 1800 87bd 941a 83bc
00000050: d7e1 41be 7db2 293e 2234 f63d 027c 99bd
00000060: 9a39 93bc 27ff f4bd 7539 823d 2a82 04be
00000070: 93c8 c73d 5a18 9d3d 4c59 e83d 71f7 febd
00000080: b612 b1bd 2402 b4bd c170 10bd 55f1 cfbd
00000090: 1eb3 25be bbfe 973c cab1 60bc 1e0e 7fbc
000000a0: 4e93 893d 07a0 e8bb ae3b 10bd 89e8 01be
000000b0: 90ea fcbd 84cd 8f3d 943d 2ebe 0c3f 23be
000000c0: 98f8 283a b1ce b7bd 1ac2 fe3d 5228 1e3e
000000d0: 75ba 583c 3dcc 4dbd 0520 bd3d e00a 0ebe
000000e0: 1798 2dbe 3d9f cebd 0392 4d3d e5e8 4dbd
000000f0: be14 833c 853c 303d 6322 133e fbad 92bd
00000100: 8c4f 4e3d 3855 84bd 8574 00be b5aa 6e3c
00000110: a4a0 a8bd 2c53 453d 4c94 1ebd 2126 e33d
00000120: faed 1cbc afff 1cba 981a a63c ac99 013e
00000130: 76b9 133e e954 59bc d927 b03d e679 a9bd
00000140: 1a86 0c3e 649c f3bd 5014 22be 183b e93d
00000150: 01b5 eb3d 38bf 263d 08ca db3d 6254 b6bd
00000160: 3615 353e d58a bf3d 16dc 27bc 81f4 923c
00000170: 4b8d 77bd aa36 8dbc 7768 20be 9d87 10bc
00000180: 3e49 fdbd 7963 c7bd 4c0c 693d 7095 2e3c
00000190: 0305 1bbd 8ad8 0c3e c216 75bc 4089 193d
000001a0: bf62 793d ec33 cabc 8952 afbd 8593 9fbd
000001b0: bf52 393e 8abd 043e 5358 e7bd 4280 84bd
000001c0: dea9 bebd 865a 8d3b c0b9 463d 95d3 263e
000001d0: 0704 4d3c 5396 f4bc 91c0 20be f4a7 0ebd
000001e0: a910 84bd dd7c b43d bbda a43c 6919 f63d
000001f0: b3fc c03d b721 003e a8a7 473d ca3c 393d
00000200: 527d 993c d4e2 7dbd 5b55 af3d 701e 963d
00000210: a797 f43c 3a52 03be 0e97 eabd 4187 99bc
00000220: 3d4c 643d c43f 1ebd a461 2ebe 01d4 e23c
00000230: e82b ecbd 408f 3b3d a56f 8b3d d026 243d
00000240: 23d0 29bd bb68 993d 399c b0bd 31a0 df3d
00000250: ba88 95bd 5de5 24be cba9 76bd 8bda 433d
00000260: 28f0 fcbd 4ff3 123e 8f9c d93d 2fb1 0abb
00000270: 13fa 17be eeea a5bd 1da4 fcba aabf 4fbd
00000280: c644 04bd 85fa 4c3d 05ea 75bc 3bc6 623d
00000290: a4d5 d2bc 7572 d53c 68a1 30bd c22b 8c3d
000002a0: 0a5f 023e b940 fe3c a907 90bd a1c4 d0bc
000002b0: a653 a3bd abef ffbd bfdb 10be 5681 f23d
000002c0: 63a8 1b3e 0c3e 03bd c0aa 0abe bbd6 803d
000002d0: 27ad c8bd 8648 2a3e 1b07 05bd 6064 09be
000002e0: 7fdb 813d 3752 42bd 461f 073e 3ec3 853d
000002f0: bc55 4dbd e66a 01bd c539 30be eb78 273c
00000300: a3d5 013e b940 23be 9a98 d8bd 4c35 22bd
00000310: 8f6a 06be caef 37bd 4ff8 36bd 78fd 25be
00000320: 9ba2 34be 8cc6 22be 6e88 e1bd 9e9c 643d
00000330: 14dc 2ebd 83f0 c1bd 4be2 353c 09ae a63c
00000340: bd3b 8cbd e169 d0bd 1a5a e13c 8775 a03d
00000350: 18e5 7abc da7f 993d e1cc bcbb a399 47be
00000360: 0e20 94bd ba8e 0d3e cef6 933d e1f1 083d
00000370: 35ee 64bc ffee 23bd 301f 2abd 46c0 14bd
00000380: 7f12 f33d bbfc e73d c492 cd3c 036d 303e
00000390: 9e61 23bd 6dd1 ab3d c9f2 24be 667a a73d
000003a0: 85b3 f3bd ac94 89bd 4c30 10be 4b98 213e
000003b0: ebff 3dbd e34a 953d fa78 033e ef68 13be
000003c0: 094e 02be 19c5 bbbd b85c 613d afb7 093e
000003d0: 0d5e f63d bd2f fd3a 1c74 c5bd be99 a23d
000003e0: 00e1 07bd 9b3e d93d bd96 9a3c aff8 9cbc
000003f0: b57f d3bd ba9f d93d 886a ddbd 0764 afbd

critic.2.weight f4 [256, 256]
0.06102134 -0.15563169 -0.0518935 0.023295263 -0.06560525 -0.035185628 -0.01173006 -0.14004736
-0.025116952 -0.031369153 0.029919092 0.04828057 0.030515783 -0.07045714 -0.01827651 0.0025542015
0.048659783 0.047166213 -0.02953399 0.094223626 -0.13585505 -0.027127724 -0.03359951 0.035123557
0.032049097 0.06417884 -0.042298224 0.043268234 0.018143144 0.017130326 -0.1128708 0.04618334
-0.036626045 -0.04410067 0.018414369 0.020430492 -0.042722363 -0.048135966 0.060119975 -0.06557148
0.09392779 0.014648545 -0.037888393 0.035883956 -0.010630395 -0.12292163 -0.06798825 -0.037811387
0.00025966897 -0.13626295 0.02610531 0.08640949 -0.0030776535 -0.02169867 -0.0734179 0.070951685
-0.07924442 -0.052360106 -0.0683632 0.002365532 -0.013364942 0.024806082 0.026790958 0.015625495
-0.08445411 -0.025280723 0.050777934 -0.044604443 -0.0507086 -0.06018198 -0.034989223 -0.025524335
0.05405866 -0.043688636 0.008203007 -0.11248127 0.17896627 0.071405336 -0.055617604 0.049016997
0.10939432 0.02764187 -0.09556958 0.010942529 -0.055490892 0.015280671 -0.049858354 0.064901985
-0.034041326 -0.03412157 -0.0597116 -0.05535305 0.045031633 0.059228744 0.015346105 0.042856693
0.041500166 -0.0280563 -0.01699508 -0.056173056 -0.07104864 0.008176557 0.09322936 0.03946479
-0.081267364 0.15675396 -0.004550506 -0.029509515 0.057304643 0.012127535 -0.02822019 0.05650128
-0.0827638 0.069155104 0.193301 0.059070714 -0.080742665 0.062623136 -0.101187915 -0.024191417
-0.036809415 0.17141446 -0.0017741005 -0.08674819 -0.025598787 0.07949855 0.033037208 0.021011934
0.054452907 -0.036960803 0.020747736 -0.05079895 0.003084157 -0.045713946 -0.06267231 0.09794562
-0.027801586 -0.01689961 -0.024535142 0.04004645 0.031420898 -0.010771226 0.11992501 -0.0073708068
0.0061576962 -0.08690565 -0.041529313 0.04450548 -0.029999567 -0.003551716 -0.0446606 -0.058771428
0.033451896 -0.014423113 -0.033012714 -0.011119583 -0.029092994 -0.08005612 -0.030896755 -0.01574402
-0.053500433 -0.100775406 0.12454685 0.024011903 0.0079767145 -0.04222902 0.043206133 0.005978689
-0.049835518 0.121248506 0.040749814 -0.13642883 -0.019545715 0.13858183 -0.027495192 -0.060459893
0.022659836 -0.024335755 -0.010682234 -0.13349168 0.0013235364 0.07289112 -0.04024655 -0.01021131
0.019151589 0.004946202 0.05793694 -0.0021073972 0.00021933398 -0.03924997 -0.00783034 0.05889628
0.060652714 -0.028273143 -0.059250884 0.069656976 0.033256494 -0.056219358 -0.061146144 0.011163232
-0.056416452 0.012664037 -0.037945114 0.008167832 0.011724995 -0.02290825 0.058537137 -0.017629096
0.15432934 0.06279963 0.054913204 0.050180882 -0.05416936 0.076402105 0.0012913455 -0.008324366
-0.04022967 -0.059580207 0.0015401378 0.060067356 0.018243654 -0.05309652 -0.02672303 0.034155425
0.04904231 -0.05600986 0.03565017 0.049190644 0.053833332 -0.0060311686 0.02539209 -0.018259352
0.016937844 0.07281003 -0.0549545 0.0018002788 -0.033320576 -0.029706348 0.13266064 -0.08153517
-0.029101986 -0.07049816 0.08770073 -0.021336468 -0.030821174 0.007759984 0.015699927 0.023376971
0.028901776 0.073218286 -0.07526395 -0.010333449 -0.072615586 -0.05908677 0.05842223 -0.038156018
00000000: 83f1 793d ea5d 1fbe 478e 54bd b5d5 be3c
00000010: 0c5c 86bd ce1e 10bd 702f 40bc 9368 0fbe
00000020: 11c2 cdbc f17c 00bd e218 f53c d9c1 453d
00000030: 3cfc f93c d54b 90bd 9fb8 95bc 6464 273b
00000040: 7b4f 473d 5c31 413d 44f1 f1bc 51f8 c03d
00000050: 961d 0bbe f63a debc a49f 09bd b8dd 0f3d
00000060: ea45 033d 3270 833d e740 2dbd 083a 313d
00000070: eea0 943c e654 8c3c ce28 e7bd be2a 3d3d
00000080: 3105 16bd e7a2 34bd bbd9 963c d95d a73c
00000090: a5fd 2ebd 382a 45bd 5d40 763d 574a 86bd
000000a0: 375d c03d 7300 703c dc30 1bbd 0efb 123d
000000b0: 1c2b 2ebc 56be fbbd 6c3d 8bbd 1de0 1abd
000000c0: 2e24 8839 8488 0bbe ceda d53c 75f7 b03d
000000d0: 75b2 49bb 69c1 b1bc 205c 96bd 1e4f 913d
000000e0: e64a a2bd 8d77 56bd 0102 8cbd 0b07 1b3b
000000f0: a1f8 5abc 2036 cb3c b678 db3c 0a01 803c
00000100: 47f6 acbd 8519 cfbc 86fc 4f3d 26b3 36bd
00000110: d2b3 4fbd 6181 76bd dc50 0fbd 6918 d1bc
00000120: 9d6c 5d3d dbf2 32bd e865 063c 955c e6bd
00000130: ef42 373e f63c 923d 49cf 63bd 0cc6 483d
00000140: 210a e03d 3471 e23c fcb9 c3bd 4b48 333c
00000150: 6b4a 63bd c85b 7a3c 4638 4cbd 55eb 843d
00000160: eb6e 0bbd 0fc3 0bbd 2794 74bd e1b9 62bd
00000170: 1773 383d d799 723d 3b6e 7b3c 808a 2f3d
00000180: 14fc 293d 53d6 e5bc 4439 8bbc b815 66bd
00000190: f381 91bd f7f6 053c 09ef be3d d5a5 213d
000001a0: 816f a6bd 1c84 203e 691c 95bb f0bd f1bc
000001b0: 46b8 6a3d 92b2 463c 072e e7bc e36d 673d
000001c0: 1180 a9bd 31a1 8d3d b3f0 453e 22f4 713d
000001d0: 695c a5bd 8f40 803d 9c3b cfbd 142d c6bc
000001e0: 78c5 16bd 4687 2f3e ef88 e8ba 09a9 b1bd
000001f0: 8cb4 d1bc 23d0 a23d 0652 073d 3821 ac3c
00000200: 030a 5f3d 3664 17bd 28f7 a93c 8f12 50bd
00000210: 911f 4a3b 8c3e 3bbd 575a 80bd b797 c83d
00000220: 27c0 e3bc 0d71 8abc ecfd c8bc bf07 243d
00000230: 33b3 003d cc79 30bc 3e9b f53d cf86 f1bb
00000240: 80c6 c93b 97fb b1bd a41a 2abd 614b 363d
00000250: a7c1 f5bc e8c3 68bb 09ee 36bd 4fba 70bd
00000260: db04 093d ec4e 6cbc 5738 07bd e92e 36bc
00000270: 6e54 eebc 77f4 a3bd 311b fdbc 9af9 80bc
00000280: 4523 5bbd 5663 cebd 6b12 ff3d 9cb4 c43c
00000290: c4b0 023c 56f8 2cbd eaf8 303d e1e8 c33b
000002a0: 5420 4cbd 2351 f83d 47e9 263d 00b4 0bbe
000002b0: 561e a0bc 65e8 0d3e 993d e1bc cba4 77bd
000002c0: 1fa1 b93c c75b c7bc 8904 2fbc 0bb2 08be
000002d0: 837a ad3a f147 953d 91d9 24bd 574d 27bc
000002e0: cbe3 9c3c c013 a23b 494f 6d3d 421c 0abb
000002f0: 04fd 6539 94c4 20bd d44a 00bc 3a3d 713d
00000300: fb6e 783d 149d e7bc 0eb1 72bd 51a8 8e3d
00000310: f637 083d 4546 66bd 6174 7abd fde5 363c
00000320: f014 67bd d27c 4f3c 566c 1bbd 5fd2 053c
00000330: 321a 403c 15aa bbbc a3c4 6f3d e56a 90bc
00000340: 8308 1e3e 189d 803d abec 603d 788a 4d3d
00000350: b1e0 5dbd b578 9c3d 5d42 a93a ec62 08bc
00000360: dec7 24bd 600a 74bd 73de c93a 3009 763d
00000370: b773 953c bd7b 59bd 41ea dabc 8fe6 0b3d
00000380: 97e0 483d 986a 65bd ea05 123d 217c 493d
00000390: 5780 5c3d 1ca1 c5bb 1303 d03c a394 95bc
000003a0: 3cc1 8a3c 6d1d 953d f817 61bd 55f7 eb3a
000003b0: 287b 08bd ba5a f3bc 31d8 073e e9fb a6bd
000003c0: 4a67 eebc 5761 90bd 719c b33d d1c9 aebc
000003d0: b07c fcbc 7747 fe3b 229d 803c 1081 bf3c
000003e0: 6bc3 ec3c 78f3 953d fc23 9abd a04d 29bc
000003f0: 7bb7 94bd f804 72bd 264c 6f3d 7c49 1cbd

critic.2.bias f4 [256]
0.05080717 -0.025449827 -0.062291887 0.045531053 0.023814252 0.04905927 -0.04090239 -0.021121385
-0.01622863 -0.06710368 0.006371147 0.031562727 -0.068146296 0.072194904 -0.06419925 -0.057276107
0.008529569 0.04114965 0.06755611 -0.014533965 0.008202229 0.049176313 0.010362688 0.0080173565
0.01620837 0.007064518 0.055147424 -0.00916245 0.01012374 -0.042642348 0.008364555 -0.06073524
0.0043492094 -0.0014341995 -0.02125452 -0.06621536 0.015715763 0.012802131 -0.014844918 0.069141276
0.01573647 -0.023535283 0.07454024 0.028330399 0.0052899825 0.06256828 -0.079273716 0.030908072
0.08309686 -0.056019418 -0.03246691 -0.0049015363 -0.020047328 0.06584729 0.01660198 -0.015381162
0.026920939 0.046545517 0.039762385 0.030880934 0.01480734 0.03294417 0.008212879 -0.047078963
-0.04973265 0.04987917 0.06234945 -0.027820824 -0.03343456 0.05571438 0.0021311275 -0.057807185
0.06396385 0.04795762 -0.027903397 0.021009658 -0.0045032552 -0.040279735 -0.0051477076 0.01997458
0.036066618 0.018164497 -0.019443596 -0.044418607 -0.0119602 0.07742706 0.04600152 0.016460905
-0.050970413 0.004980161 0.046135757 -0.06618291 0.05829815 0.04353365 0.0030003497 0.013944276
-0.046172105 0.0074189394 0.013707564 0.0614286 0.051371876 -0.012508936 0.037984837 0.028896883
-0.011511381 -0.02826806 -0.06939814 0.018253928 -0.016475854 0.046599593 -0.027674263 -0.022596743
-0.0071557444 -0.061556403 -0.0474842 0.0478593 0.0019516456 -0.044024423 -0.02245653 -0.040946387
-0.012652761 0.045517355 -0.046631407 -0.046412654 0.06886838 0.027118983 -0.014598937 -0.0750419
0.06462318 0.00057729665 0.024066124 0.037536222 -0.01976591 0.015159669 0.023834514 0.04563714
0.016978296 0.027533172 -0.018762918 -0.04533033 0.062457044 -0.0075182277 0.0030527057 -0.05860096
0.052566 0.03912811 -0.0108104525 -0.0638657 0.06156899 0.045043662 -0.060998037 -0.030581802
-0.028677082 -0.02923959 -0.0473965 0.031848058 0.051239945 0.06407609 0.037729368 -0.017692747
0.03672777 0.069134824 -0.0631104 0.031632375 -0.06693049 -0.01776092 -0.04527557 0.05168765
-0.07310065 0.0018712619 0.025544966 0.07033339 0.006084466 -0.024417011 0.06479438 -0.02330342
-0.0130938925 -0.021675171 0.00817482 -0.021942569 0.05605155 -0.040232472 -0.059154756 -0.06638024
-0.020266846 -0.054136056 -0.06011337 0.060812205 0.042972166 -0.056541197 -0.050484907 -0.040234912
-0.03985135 0.016723666 0.018885667 0.030789493 0.01710069 -0.017027732 -0.03696771 -0.005529108
0.05623754 -0.049800474 0.038969375 0.042864516 -0.024279559 0.02846768 0.054390185 -0.0017733235
0.047761075 0.009130299 0.034870673 0.0668977 0.07111055 0.017110286 0.058066733 -0.058829173
0.037271887 0.0015778184 0.025102252 0.07857012 -0.04971611 0.02455318 -0.04500658 -0.016418107
0.070329554 0.0066936864 0.015582276 0.015592758 -0.034321766 0.016581522 0.047342908 0.017600706
0.018597651 -0.009199245 0.020642674 -0.025806999 -0.05053267 0.004497681 0.008554682 -0.067813605
-0.036268014 0.020804748 -0.010681448 0.038764205 0.0055649485 -0.04430104 -0.00570822 -0.038215872
-0.019793063 -0.04747881 -0.017605377 0.0624411 -0.010433376 -0.025286442 0.029741082 0.0430705
00000000: 2e1b 503d 287c d0bc c725 7fbd c57e 3a3d
00000010: 1b16 c33c 60f2 483d 4489 27bd c106 adbc
00000020: e7f1 84bc a76d 89bd 0ec5 d03b eb47 013d
00000030: 4990 8bbd ecda 933d e57a 83bd 5a9a 6abd
00000040: 9bbf 0b3c 898c 283d dc5a 8a3d de1f 6ebc
00000050: a462 063c 1a6d 493d 44c8 293c 3b5b 033c
00000060: 6ac7 843c 797d e73b 44e2 613d 1a1e 16bc
00000070: 0bde 253c bea9 2ebd 7d0b 093c 84c5 78bd
00000080: d083 8e3b c0fb bbba f61d aebc eb9b 87bd
00000090: 58be 803c 07c0 513c 1938 73bc f199 8d3d
000000a0: c5e9 803c 11cd c0bc 8ea8 983d 2715 e83c
000000b0: 9757 ad3b cc23 803d 425a a2bd ed32 fd3c
000000c0: b02e aa3d 9e74 65bd 06fc 04bd 119d a0bb
000000d0: 4b3a a4bc f2da 863d e000 883c 4501 7cbc
000000e0: 4d89 dc3c 83a6 3e3d e2dd 223d 03fa fc3c
000000f0: 7c9a 723c 77f0 063d 508f 063c dfd5 40bd
00000100: 77b4 4bbd 1a4e 4c3d 2362 7f3d 7fe8 e3bc
00000110: adf2 08bd c334 643d 63aa 0b3b 3ac7 6cbd
00000120: 7bff 823d 366f 443d aa95 e4bc 721c ac3c
00000130: 0b90 93bb 5dfc 24bd 1aae a8bb bba1 a33c
00000140: 97ba 133d b6cd 943c 2d48 9fbc 49f0 35bd
00000150: b7f4 43bc 1492 9e3d 176c 3c3d 05d9 863c
00000160: 5ac6 50bd 9e30 a33b d9f8 3c3d e88a 87bd
00000170: 0aca 6e3d 5750 323d 84a1 443b 8876 643c
00000180: f61e 3dbd 931a f33b b195 603c 8e9c 7b3d
00000190: 516b 523d 48f2 4cbc fd95 1b3d 28b9 ec3c
000001a0: 3b9a 3cbc 6b92 e7bc 9d20 8ebd 4389 953c
000001b0: 5ff8 86bc 37df 3e3d 23b5 e2bc ce1c b9bc
000001c0: bc7a eabb 9122 7cbd cb7e 42bd 1d08 443d
000001d0: 5cce ff3a f452 34bd c2f6 b7bc 66b7 27bd
000001e0: 874d 4fbc 6870 3a3d 9300 3fbd 321b 3ebd
000001f0: dd0a 8d3d a128 de3c 6130 6fbc 91af 99bd
00000200: 2859 843d b955 173a 5226 c53c 95bf 193d
00000210: 1eec a1bc 4360 783c 9940 c33c 02ee 3a3d
00000220: 1116 8b3c 3f8d e13c b1b4 99bc 4cac 39bd
00000230: f5d2 7f3d 775b f6bb e70f 483b 8f07 70bd
00000240: 724f 573d cc44 203d 531e 31bc 05cc 82bd
00000250: c42f 7c3d b47f 383d 14d9 79bd b086 fabc
00000260: 33ec eabc dd87 efbc d522 42bd 1c73 023d
00000270: fae0 513d 533a 833d 1c8a 1a3d 61f0 90bc
00000280: dc6f 163d 8f96 8d3d 0740 81bd f390 013d
00000290: da12 89bd 597f 91bc e072 39bd 6eb6 533d
000002a0: cbb5 95bd 2145 f53a ad43 d13c f40a 903d
000002b0: 3360 c73b 2f06 c8bc eab2 843d d0e6 bebc
000002c0: c487 56bc 2190 b1bc aeef 053c e7c0 b3bc
000002d0: 4f96 653d ceca 24bd 424c 72bd 5df2 87bd
000002e0: a806 a6bc c5bd 5dbd 7039 76bd 3816 793d
000002f0: 9503 303d be97 67bd 43c9 4ebd 5dcd 24bd
00000300: 2b3b 23bd 1200 893c 1db6 9a3c 3f3a fc3c
00000310: bf16 8c3c be7d 8bbc 746b 17bd 852d b5bb
00000320: 5659 663d 95fb 4bbd 5a9e 1f3d b492 2f3d
00000330: ede5 c6bc 0d35 e93c 3ec8 5e3d dd6e e8ba
00000340: 1ea1 433d 4097 153c 8dd4 0e3d a901 893d
00000350: 68a2 913d df2a 8c3c 62d7 6d3d dcf6 70bd
00000360: 68aa 183d cdce ce3a 3da3 cd3c 5fe9 a03d
00000370: 1fa3 4bbd c023 c93c d258 38bd 447f 86bc
00000380: f108 903d b656 db3b cd4c 7f3c c478 7f3c
00000390: fb94 0cbd f9d5 873c a3ea 413d 5b2f 903c
000003a0: 1a5a 983c 6eb8 16bc d31a a93c 3369 d3bc
000003b0: 58fb 4ebd 4861 933b f028 0c3c dce1 8abd
000003c0: c58d 14bd b86e aa3c 3d01 2fbc 37c7 1e3d
000003d0: 2c5a b63b 0275 35bd 050c bbbb 3f88 1cbd
000003e0: 1025 a2bc 2479 42bd 2739 90bc 3dc2 7f3d
000003f0: c0f0 2abc 8325 cfbc 92a3 f33c b16a 303d

critic.4.weight f4 [1, 256]
-0.16012901 -0.16855577 0.16688246 -0.22619055 0.17842701 -0.15847522 -0.17462021 0.21294649
0.15889408 -0.22533284 -0.21871537 0.21045393 -0.21563637 0.21828867 -0.17363904 -0.21713692
0.16275328 0.19039223 0.20165673 0.17591329 0.22845311 0.22510679 -0.22573589 -0.22428104
0.20311028 0.17897326 -0.19763552 -0.22269228 -0.21695735 0.18709512 -0.22785492 -0.18204431
0.21140538 0.17605832 0.16658424 -0.22278833 0.1883234 0.18068807 0.18259417 0.18200709
-0.21336408 -0.22277871 -0.19104144 0.20439243 -0.18057874 0.16841292 0.18605722 -0.23006256
0.16794166 0.20105655 0.18994217 -0.20325427 0.18806694 -0.21647914 -0.23174241 0.20197964
0.19727054 0.20213732 0.20800702 0.21143818 0.16837926 -0.23012803 0.20912647 0.1611081
0.24912865 0.19579117 0.21408217 0.19637477 -0.18638898 0.19784339 -0.22929461 0.20254384
-0.18678205 -0.1744118 -0.19602484 -0.23240767 0.18024431 0.22193685 0.19937387 0.22057585
-0.17475757 -0.18538783 -0.21503684 0.16232924 -0.21323153 -0.18834053 -0.17071073 -0.21620609
-0.1859079 -0.22950818 -0.21889217 0.1848576 -0.20588031 -0.22707161 0.20325771 0.19503558
0.20790832 0.20672135 0.21437176 -0.1576124 0.18729115 0.22549315 0.21856989 0.2206673
0.22853617 -0.21198842 -0.18882504 0.18613577 0.22289167 -0.21790227 -0.16099927 0.23766644
0.20401925 0.20162481 0.20756833 -0.2277612 -0.21008953 0.2275804 -0.18425511 -0.21867236
0.20245649 -0.21312563 0.19645248 0.19772936 0.22870736 0.1962196 0.17629224 0.21350724
0.21025503 -0.23283932 0.18066442 0.17619622 -0.20685846 0.19282563 0.21107543 0.20629285
0.19415595 -0.25774476 -0.2259925 -0.21293518 0.19424643 -0.2061913 0.18325143 -0.18870926
0.19984917 0.21862005 0.19475105 -0.17607103 0.22492954 0.16631036 -0.20600635 -0.24595737
0.16894867 0.1638333 0.20057231 -0.19014487 0.17211148 -0.17714602 -0.20486398 -0.16577737
-0.1779421 -0.18723482 0.22672224 -0.18611419 -0.17189813 0.1826003 -0.16582134 0.19845927
0.2204265 -0.19086197 0.21108335 0.21907748 -0.17326115 -0.1643731 0.19670238 -0.17428054
0.18890108 -0.1838887 0.21003205 0.21189898 -0.22109511 -0.21088147 0.19853106 0.22664936
0.17901641 -0.21497817 0.19915323 -0.1800832 -0.21259779 -0.19499442 0.17775176 0.19189851
0.18682858 -0.19662946 0.21924154 0.18114802 0.16481218 -0.19720216 0.17330623 -0.22436598
-0.22934139 -0.21537201 -0.20857954 -0.18588632 -0.23279943 -0.2307221 -0.18045615 0.18108377
-0.20759226 0.18006994 -0.22005846 -0.2229771 0.20220676 0.22760943 -0.2141409 0.18742695
0.22688521 0.17338607 0.18315344 -0.23253863 -0.20491411 0.17970674 -0.18065655 0.22256406
-0.20828271 -0.22345957 0.23897676 0.21109845 -0.22294715 -0.20264055 -0.22154264 0.22861551
-0.2303591 -0.20905839 0.22596167 0.17051896 0.19328183 -0.21698451 -0.19449319 -0.1868031
0.21922612 -0.18203296 -0.17740306 0.1795439 0.17853525 0.17821653 0.16572417 0.16597883
0.17420216 0.21936074 0.16976687 -0.18953882 -0.20727281 -0.1851557 -0.16890708 -0.18204457
00000000: dcf8 23be e299 2cbe 3ce3 2a3e 7f9e 67be
00000010: 92b5 363e 5447 22be a4cf 32be a50e 5a3e
00000020: 21b5 223e a7bd 66be ecf6 5fbe 3c81 573e
00000030: c8cf 5cbe 1187 5f3e 6fce 31be 2459 5ebe
00000040: cca8 263e 2ef6 423e 1a7f 4e3e 9d22 343e
00000050: 9def 693e 6582 663e 4f27 67be eea9 65be
00000060: 24fc 4f3e c444 373e f760 4abe 7209 64be
00000070: 112a 5ebe dd95 3f3e cd52 69be d369 3abe
00000080: a77a 583e a248 343e 0f95 2a3e a022 64be
00000090: d9d7 403e 4b06 393e f7f9 3a3e 1160 3a3e
000000a0: 1d7c 5abe 1a20 64be 5ea0 43be 404c 513e
000000b0: a2e9 38be 7074 2c3e c985 3e3e 8595 6bbe
000000c0: e6f8 2b3e c5e1 4d3e 3380 423e e321 50be
000000d0: 9f94 403e b5ac 5dbe e24d 6dbe c0d3 4e3e
000000e0: 4a01 4a3e 16fd 4e3e cbff 543e 4083 583e
000000f0: 9d6b 2c3e afa6 6bbe 4025 563e 86f9 243e
00000100: 951b 7f3e 7b7d 483e 5b38 5b3e 7816 493e
00000110: c1dc 3ebe 7597 4a3e 35cc 6abe a767 4f3e
00000120: cb43 3fbe 0299 32be bcba 48be 47fc 6dbe
00000130: f791 383e 6a43 633e aa28 4c3e a3de 613e
00000140: a6f3 32be 4fd6 3dbe 9e32 5cbe a339 263e
00000150: 5e59 5abe 57dc 40be cbce 2ebe 2165 5dbe
00000160: a45e 3ebe 3104 6bbe 4525 60be 504b 3d3e
00000170: 4ad2 52be 7685 68be ca22 503e 68b7 473e
00000180: ebe5 543e c3ae 533e 4584 5b3e 2565 21be
00000190: 40c9 3f3e ade7 663e c9d0 5f3e 9cf6 613e
000001a0: 6305 6a3e 7e13 59be 5a5b 41be 609a 3e3e
000001b0: b73d 643e c621 5fbe fedc 24be d55e 733e
000001c0: 6cea 503e bc76 4e3e cb8c 543e 3b3a 69be
000001d0: b621 57be d60a 693e 5fad 3cbe a6eb 5fbe
000001e0: c150 4f3e 9b3d 5abe d72a 493e 9179 4a3e
000001f0: 4332 6a3e caed 483e f485 343e a4a1 5a3e
00000200: 184d 573e 6e6d 6ebe 1800 393e c86c 343e
00000210: b4d2 53be 1574 453e 2824 583e 6f3e 533e
00000220: d1d0 463e 1ff7 83be 946a 67be ae0b 5abe
00000230: 89e8 463e d023 53be 43a6 3b3e 003d 41be
00000240: 43a5 4c3e efdd 5f3e d26c 473e f74b 34be
00000250: ee53 663e 434d 2a3e 54f3 52be 40dc 7bbe
00000260: e100 2d3e ebc3 273e d462 4d3e 56b5 42be
00000270: fe3d 303e c465 35be ddc7 51be 8bc1 29be
00000280: 7436 36be 7cba 3fbe e029 683e b894 3ebe
00000290: 1006 30be 93fb 3a3e 12cd 29be e838 4b3e
000002a0: 7cb7 613e 5271 43be 3c26 583e d955 603e
000002b0: 5f6b 31be 6c51 28be 596c 493e 9976 32be
000002c0: 496f 413e 524d 3cbe a412 573e 0cfc 583e
000002d0: c266 62be 50f1 57be ba4b 4b3e c516 683e
000002e0: 1450 373e 3d23 5cbe d3ee 4b3e bb67 38be
000002f0: 3cb3 59be 9eac 47be 8f04 363e 0b81 443e
00000300: fe4f 3f3e 3c59 49be db80 603e de7e 393e
00000310: 86c4 283e 5def 49be 3077 313e 32c0 65be
00000320: 78d8 6abe 7b8a 5cbe e095 55be fc58 3ebe
00000330: f962 6ebe 6a42 6cbe 7fc9 38be 066e 393e
00000340: 1193 54be 4164 383e 0157 61be 1c54 64be
00000350: 4a0f 4f3e 7212 693e c147 5bbe daec 3f3e
00000360: 9954 683e 1e8c 313e 938c 3b3e 9b1e 6ebe
00000370: 01d5 51be 0b05 383e 08fe 38be d5e7 633e
00000380: 1048 55be 96d2 64be 53b6 743e 312a 583e
00000390: 424c 64be 0181 4fbe 13dc 62be 2f1a 6a3e
000003a0: 42e3 6bbe 6713 56be 7f62 673e 869c 2e3e
000003b0: aceb 453e 3031 5ebe 3929 47be 5049 3fbe
000003c0: d07c 603e d966 3abe 26a9 35be 5bda 373e
000003d0: f2d1 363e 657e 363e 99b3 293e 5bf6 293e
000003e0: 0d62 323e 1aa0 603e 5ed7 2d3e 7716 42be
000003f0: 533f 54be 7599 3dbe faf5 2cbe e469 3abe

actor.0.weight f4 [256, 42]
0.11715321 -0.065661356 0.10939852 -0.15643395 -0.0038692828 0.009403471 0.004581502 -0.019939704
-0.14114669 0.08796018 -0.09476949 0.07497612 -0.022188356 0.035368904 -0.14420314 -0.09072788
0.10371735 0.09988061 -0.11168624 0.101833984 -0.107931346 0.01358272 -0.15554364 0.11284552
-0.056689203 -0.12782983 -0.0015218271 0.0032375928 0.06312031 0.05484993 0.022403019 0.10263641
0.10797122 0.07903809 -0.1372129 -0.09190841 -0.15039377 0.05581748 -0.10753413 0.054766055
-0.1477541 0.20094642 -0.067938365 -0.015387636 0.141221 0.1118425 0.047939617 -0.16550544
0.055939164 0.114393584 0.051929593 -0.08164245 0.15330161 -0.04337358 0.04782922 -0.010602269
0.027357534 0.1321891 -0.03965604 0.13868268 0.03937475 -0.078917906 -0.064615875 0.0792862
-0.010209222 -0.11970303 -0.13659614 -0.008062989 0.045831937 0.111742266 0.008447247 -0.08354781
-0.014996414 -0.08899028 -0.035736013 -0.11371661 -0.1526989 -0.009963095 -0.04980185 -0.11164383
0.12733826 0.0005790935 0.14186737 -0.2472629 0.075101465 0.07912421 -0.08295945 -0.039094567
-0.04721298 -0.1178972 -0.098931 0.14973232 0.10060703 -0.07434377 0.026392605 -0.02493297
-0.11248747 0.04659213 -0.10366802 0.03916512 -0.016886655 0.032359626 -0.13957347 0.046726003
-0.0301203 0.12478653 -0.08825863 0.058817588 -0.1363248 -0.12326752 0.038806777 0.12515743
0.013888434 0.07430106 -0.031674676 -0.12301887 -0.13927017 -0.11586162 -0.14160554 -0.1022049
0.14586811 -0.08170214 -0.061116863 -0.14668462 -0.2553266 0.16522068 -0.031912897 0.022595702
-0.036695886 -0.10103085 0.034650985 -0.013620465 -0.015511107 0.10032906 -0.078563355 0.12177651
0.06311913 0.052294593 -0.0111294845 0.13299495 -0.14927961 0.1310354 -0.015863169 -0.09064099
0.11441805 0.10581149 0.07080092 0.15442666 -0.1362932 0.0020264073 0.037911102 0.030055324
-0.13582143 -0.021113433 0.04147005 -0.081861906 0.091697566 -0.14941932 0.1396285 -0.015654432
-0.10658245 0.100018665 0.13939124 -0.12838492 -0.109987505 0.020996587 -0.24647653 0.10169336
-0.07198021 -0.0048209084 0.13870972 -0.12354766 -0.09860749 -0.09376215 -0.11801952 0.06313806
0.10426992 -0.14168815 0.10274139 0.10943105 -0.07709625 -0.13714613 0.049753755 -0.044256426
0.08185408 0.107133135 0.037642345 0.12052609 -0.06585459 0.027521428 -0.09721636 -0.113053165
0.14866166 -0.1655333 0.083410405 0.008717628 0.13045931 -0.048057575 -0.1423918 0.11082656
-0.0076189465 -0.11582829 0.15137391 0.13196142 -0.14963423 0.13932674 -0.045676243 -0.1217348
-0.07550482 0.26072744 -0.0942001 0.008423145 0.06465905 0.06256303 0.025762513 0.13655102
0.018537592 -0.08274712 0.09091931 0.10734384 -0.1360916 -0.061886664 0.090036 -0.07508516
0.1496066 0.02348353 0.049049534 0.04568491 -0.10966181 -0.08999472 0.009735906 -0.03527862
-0.11819688 -0.029129038 -0.12559235 -0.11915187 -0.09313091 -0.06744232 -0.019036483 0.035937738
0.07107228 -0.15283388 0.09543159 0.14983167 0.034589827 -0.038443215 0.13145815 -0.017670792
0.15495457 0.004428094 -0.2024747 0.25374082 -0.049791664 0.050933477 -0.007847031 -0.08974556
00000000: 06ee ef3d 7679 86bd 550c e03d 3930 20be
00000010: cb93 7dbb 0411 1a3c 6d20 963b 9758 a3bc
00000020: c288 10be 7824 b43d 8216 c2bd 148d 993d
00000030: 5bc4 b5bc fcde 103d fda9 13be 8acf b9bd
00000040: c369 d43d 358e cc3d c1bb e4bd 568e d03d
00000050: 1c0b ddbd 0f8a 5e3c d546 1fbe 8d1b e73d
00000060: f032 68bd d3e5 02be 0b78 c7ba cb2d 543b
00000070: 3945 813d 52aa 603d 8986 b73c 0a33 d23d
00000080: 0420 dd3d b9de a13d 8a81 0cbe 7a3a bcbd
00000090: d300 1abe dfa0 643d db3a dcbd 5f52 603d
000000a0: da4c 17be e6c4 4d3e 4523 8bbd 6c1c 7cbc
000000b0: 3d9c 103e ae0d e53d 555c 443d 427a 29be
000000c0: 7720 653d 2f47 ea3d 20b4 543d 2834 a7bd
000000d0: 19fb 1c3e 7fa8 31bd 92e8 433d 24b5 2dbc
000000e0: e81c e03c 945c 073e 5f6e 22bd d502 0e3e
000000f0: 6b47 213d b69f a1bd 5455 84bd ce60 a23d
00000100: 9544 27bc dd26 f5bd dcdf 0bbe a11a 04bc
00000110: 45ba 3b3d 21d9 e43d 5266 0a3c 1d1b abbd
00000120: 85b3 75bc 8940 b6bd ed5f 12bd 41e4 e8bd
00000130: 1a5d 1cbe 403c 23bc 06fd 4bbd 85a5 e4bd
00000140: f664 023e 4fce 173a ae45 113e 7c32 7dbe
00000150: ccce 993d e00b a23d a5e6 a9bd a021 20bd
00000160: 6662 41bd 1674 f1bd 569c cabd 6e53 193e
00000170: 0f0b ce3d 8c41 98bd 4e35 d83c 3a40 ccbc
00000180: d55f e6bd 64d7 3e3d e64f d4bd 9b6b 203d
00000190: e255 8abc 878b 043d 59ec 0ebe c463 3f3d
000001a0: d9be f6bc 1590 ff3d f1c0 b4bd b6ea 703d
000001b0: ba98 0bbe ae73 fcbd dbf3 1e3d 4529 003e
000001c0: 508c 633c 272b 983d 4ebd 01bd 51f1 fbbd
000001d0: d79c 0ebe db48 edbd 0b01 11be cd50 d1bd
000001e0: 735e 153e 7453 a7bd ad55 7abd 7e34 16be
000001f0: 2bba 82be 9c2f 293e 19b7 02bd 9f1a b93c
00000200: 6d4e 16bd 43e9 cebd 31ee 0d3d 5f28 5fbc
00000210: 4c22 7ebc 5279 cd3d d3e5 a0bd f665 f93d
00000220: 9a44 813d db32 563d 7158 36bc d42f 083e
00000230: c1dc 18be 252e 063e 7af3 81bc fca1 b9bd
00000240: 0354 ea3d b2b3 d83d 1300 913d 0622 1e3e
00000250: 7290 0bbe 79cd 043b ac48 1b3d 9536 f63c
00000260: c614 0bbe 14f6 acbc 80dc 293d 37a7 a7bd
00000270: efcb bb3d 6101 19be c6fa 0e3e b93d 80bc
00000280: e647 dabd 96d6 cc3d 94bc 0e3e 5677 03be
00000290: 2141 e1bd 0901 ac3c 5864 7cbe 9c44 d03d
000002a0: 5c6a 93bd b6f8 9dbb ec09 0e3e 8e06 fdbd
000002b0: b9f2 c9bd 5f06 c0bd 38b4 f1bd 874e 813d
000002c0: 788b d53d b316 11be 146a d23d 631d e03d
000002d0: a4e4 9dbd 0970 0cbe 98ca 4b3d 3a46 35bd
000002e0: 1da3 a73d 9e68 db3d dc2e 1a3d 62d6 f63d
000002f0: c5de 86bd 9e74 e13c 5f19 c7bd 6b88 e7bd
00000300: c33a 183e 9081 29be 13d3 aa3d 62d4 0e3c
00000310: 2097 053e 05d8 44bd 28cf 11be 09f9 e23d
00000320: 5ba8 f9bb 6237 edbd c301 1b3e e520 073e
00000330: b739 19be abab 0e3e 0317 3bbd 1850 f9bd
00000340: 45a2 9abd 117e 853e fbeb c0bd 3b01 0a3c
00000350: f76b 843d 0c21 803d e80b d33c 08d4 0b3e
00000360: 26dc 973c 5277 a9bd e733 ba3d 16d7 db3d
00000370: 995b 0bbe df7c 7dbd cb64 b83d 40c6 99bd
00000380: 7932 193e 8860 c03c 2ae8 483d 1a20 3b3d
00000390: 5f96 e0bd 274f b8bd 5983 1f3c 5080 10bd
000003a0: 3511 f2bd 05a0 eebc 489b 00be e505 f4bd
000003b0: 6bbb bebd 331f 8abd 66f2 9bbc 7333 133d
000003c0: 588e 913d 7c80 1cbe a371 c33d 796d 193e
000003d0: 10ae 0d3d a276 1dbd f79c 063e 56c2 90bc
000003e0: 69ac 1e3e 8b19 913b 8755 4fbe 51ea 813e
000003f0: 58f2 4bbd 9f9f 503d d590 00bc 85cc b7bd

actor.0.bias f4 [256]
-0.092035174 0.061469384 -0.106127344 0.13566071 -0.013819068 -0.14566945 -0.03792689 0.13320535
-0.00034266638 -0.008636078 -0.07689571 -0.043177377 -0.07076771 0.10111124 -0.014245898 -0.009646434
-0.07112077 0.1172357 0.041795455 -0.019731961 -0.018290423 0.050276786 -0.07795239 -0.03954566
-0.062589206 -0.046599094 -0.09147843 -0.06693659 -0.12237538 0.04029472 -0.046382155 -0.0009298738
-0.08519273 -0.0022123232 -0.086807415 -0.11652697 -0.112431794 -0.13824607 0.014970651 3.1390214e-06
0.04194903 -0.05829877 -0.077732615 -0.11905172 -0.022905461 -0.049996283 -0.15249957 0.09042741
0.1250947 0.01565131 -0.11629658 0.0360745 0.040676463 0.088396885 -0.061276175 0.030190494
-0.11927774 -0.09341502 -0.003350151 -0.14201495 -0.08423257 0.054049242 -0.053711183 -0.033928256
0.09241718 -0.08027932 -0.15663654 0.061529562 -0.04466594 -0.050632842 0.14914155 0.1330842
0.08101496 0.11585008 -0.10562441 -0.10587589 0.1527492 0.09078512 -0.14722496 -0.0985758
0.09204496 0.07909143 0.08325538 0.03897057 0.030406311 0.1218917 0.12824625 0.09485819
0.038829625 0.042279843 -0.118589446 -0.056604113 -0.10275638 0.009831452 -0.014963148 0.07526749
-0.14896314 -0.12755726 0.010475714 -0.0145769585 -0.08864967 -0.053683512 -0.122202486 -0.1109442
-0.008354685 -0.07870658 0.06289064 0.15350012 -0.14422433 -0.15136 0.07995783 -0.109729245
-0.114071526 0.01649588 0.116839156 0.085332856 0.018028688 0.12594381 -0.10472094 -0.13653444
-0.0076643513 0.11207666 -0.014884878 -0.100259565 -0.023418648 0.13775335 0.014763962 0.0018635076
0.14032237 0.031513304 0.0772921 0.12160001 0.13107854 -0.06847783 0.14087176 0.105380885
0.10856703 -0.03729591 -0.005335716 0.11496001 -0.124922566 -0.08365539 -0.10303499 -0.055515427
0.07663935 -0.021375064 0.108520254 -0.0011167976 -0.14330527 0.1363428 -0.13570723 -0.02679179
-0.13289347 -0.1296269 -0.036716964 -0.04497172 0.0055774096 0.021564087 0.07559279 0.0642605
0.07368596 0.026621968 0.13796629 0.011712377 0.047780793 0.12843081 0.10694176 -0.094875164
0.1177971 0.14940177 0.084712796 0.11347211 0.014015722 0.12603754 -0.12303393 0.14553177
-0.029031243 -0.049270846 0.08416893 -0.046555158 0.09520751 -0.14324076 0.06021018 0.06702175
0.001749116 -0.0969921 0.0030509175 0.018896183 -0.047688857 -0.070765674 0.1461975 0.12517446
-0.0468468 -0.11287757 -0.079616114 0.081006594 -0.007859662 -0.05623713 -0.019252675 -0.09686827
0.15885058 -0.11623784 0.10091023 -0.13209888 -0.087532304 0.005680495 0.09076186 0.022919364
-0.0072887517 -0.12153234 0.027474722 0.115800746 -0.083480656 -0.03211978 -0.07765803 0.09340241
-0.058744088 0.112390384 0.111056685 -0.10592999 -0.112960644 -0.0045300745 0.099996485 0.1386795
0.023713281 0.12985833 0.0891984 -0.045205127 0.156295 -0.11803648 0.10072051 -0.09441837
0.01740806 -0.1261316 0.02637821 0.08598181 -0.12584902 0.013996109 -0.06401566 -0.1291283
0.12309193 0.016312998 0.04296472 -0.027796095 0.066902846 0.08916911 -0.13019687 -0.12719144
0.06132412 -0.12009737 0.14308757 0.11044091 -0.04563228 0.15415178 -0.06223276 -0.038019106
00000000: f07c bcbd 52c7 7b3d 4b59 d9bd a4ea 0a3e
00000010: 5f69 62bc 5f2a 15be 3a59 1bbd fc66 083e
00000020: e7a7 b3b9 567e 0dbc 7f7b 9dbd c3da 30bd
00000030: a9ee 90bd 6913 cf3d a167 69bc 140c 1ebc
00000040: c4a7 91bd 4519 f03d b631 2b3d eca4 a1bc
00000050: ccd5 95bc 08ef 4d3d 81a5 9fbd a1fa 21bd
00000060: c52e 80bd b1de 3ebd 0b59 bbbd 0d16 89bd
00000070: f19f fabd 140c 253d 37fb 3dbd c6c2 73ba
00000080: 8779 aebd a0fc 10bb 16c8 b1bd b1a5 eebd
00000090: a442 e6bd 6190 0dbe 7647 753c faa7 5236
000000a0: bfd2 2b3d b1ca 6ebd 4732 9fbd 63d1 f3bd
000000b0: 3ca4 bbbc e7c8 4cbd d928 1cbe 0232 b93d
000000c0: d318 003e 2d37 803c e72c eebd dbc2 133d
000000d0: 5d9c 263d 6d09 b53d bafc 7abd 0e52 f73c
000000e0: e347 f4bd 6050 bfbd 358e 5bbb 5e6c 11be
000000f0: 2082 acbd bd62 5d3d 4200 5cbd 5bf8 0abd
00000100: 3845 bd3d 7c69 a4bd 5465 20be 6c06 7c3d
00000110: a2f3 36bd 6264 4fbd 90b8 183e 3947 083e
00000120: 2ceb a53d cf42 ed3d 9c51 d8bd 75d5 d8bd
00000130: 496a 1c3e 8ded b93d 24c2 16be 1ce2 c9bd
00000140: 1182 bc3d b0fa a13d cc81 aa3d 9b9f 1f3d
00000150: a816 f93c 5ba2 f93d fc52 033e 0345 c23d
00000160: d00b 1f3d a12d 2d3d 06df f2bd b7d9 67bd
00000170: f071 d2bd 1914 213c fe27 75bc d825 9a3d
00000180: cb89 18be 5f9e 02be 54a2 2b3c 32d4 6ebc
00000190: f58d b5bd 3ee3 5bbd 4c45 fabd b636 e3bd
000001a0: 17e2 08bc ea30 a1bd cfcc 803d 232f 1d3e
000001b0: 8baf 13be 1efe 1abe eec0 a33d bab9 e0bd
000001c0: 559e e9bd 5e22 873c 5e49 ef3d fec2 ae3d
000001d0: e6b0 933c 6af7 003e ef77 d6bd afcf 0bbe
000001e0: 3d25 fbbb 7388 e53d b4df 73bc e354 cdbd
000001f0: 77d8 bfbc 370f 0d3e 8be4 713c f040 f43a
00000200: abb0 0f3e 1814 013d 524b 9e3d 6d09 f93d
00000210: 7439 063e 1b3e 8cbd b040 103e efd1 d73d
00000220: 6458 de3d 99c3 18bd 3bd7 aebb 2770 eb3d
00000230: 67d7 ffbd 8453 abbd 0204 d3bd 2564 63bd
00000240: 17f5 9c3d c21a afbc de3f de3d 8261 92ba
00000250: 9ebe 12be 729d 0b3e d6f6 0abe 757a dbbc
00000260: 3a15 08be eabc 04be 8764 16bd 4434 38bd
00000270: b4c2 b63b 2ba7 b03c 65d0 9a3d 029b 833d
00000280: aae8 963d 5016 da3c 0947 0d3e 45e5 3f3c
00000290: cbb5 433d 5e83 033e 4804 db3d e94d c2bd
000002a0: 9b3f f13d c7fc 183e e77d ad3d 1164 e83d
000002b0: 33a2 653c fc0f 013e 37f9 fbbd 4806 153e
000002c0: eed2 edbc 3ad0 49bd c360 ac3d 9fb0 3ebd
000002d0: 28fc c23d b5ad 12be f39e 763d b342 893d
000002e0: 9842 e53a cba3 c6bd e7f1 473b 2bcc 9a3c
000002f0: 6455 43bd 98ed 90bd ccb4 153e bc2d 003e
00000300: 6ee2 3fbd 5b2c e7bd c60d a3bd c9e6 a53d
00000310: d0c5 00bc e858 66bd c9b7 9dbc df62 c6bd
00000320: baa9 223e 1b0e eebd 06aa ce3d ee44 07be
00000330: 2344 b3bd 7223 ba3b 5be1 b93d 64c1 bb3c
00000340: 7bd6 eebb f3e5 f8bd ab12 e13c f128 ed3d
00000350: e8f7 aabd 0890 03bd 2c0b 9fbd c349 bf3d
00000360: a49d 70bd ee2c e63d b071 e33d d3f1 d8bd
00000370: e957 e7bd 0571 94bb f5ca cc3d 0002 0e3e
00000380: 5b42 c23c 95f9 043e a7ad b63d 0329 39bd
00000390: cc0b 203e 1cbd f1bd 8e46 ce3d 6b5e c1bd
000003a0: 599b 8e3c a428 01be 1e17 d83c 3b17 b03d
000003b0: 91de 00be f04f 653c a41a 83bd 363a 04be
000003c0: 9f17 fc3d d6a2 853c c6fb 2f3d a3b4 e3bc
000003d0: 5c04 893d 4b9e b63d 5452 05be 793e 02be
000003e0: 002f 7b3d 9cf5 f5bd 8c85 123e d82e e23d
000003f0: eae8 3abd f7d9 1d3e c7e7 7ebd ecb9 1bbd
