models/ho_policy_best.pth (torch, 628194 bytes, 11 tensors)

critic.0.weight f4 [256, 42]
000000 7f 12 96 be 2f 25 c6 be f9 38 27 3f c9 56 ac 3e
       -0.29310986 -0.38700244 0.6532131 0.33659962
000010 06 44 4d 3e 51 56 71 bd 74 5f 14 3f 0b 12 98 be
       0.2004548 -0.05892021 0.5795815 -0.29701266
000020 3b ca 8f 3f 07 11 17 3f e7 d9 d1 bf de 68 c6 be
       1.1233591 0.59010357 -1.6394624 -0.38751882
000030 ef e0 aa 3d 50 62 14 3e 63 99 13 bf cd 58 03 3f
       0.08343684 0.14490628 -0.57655925 0.51307374
000040 04 08 3b 3f a3 6e a1 3e 68 b3 ae be 11 e6 39 bf
       0.73059106 0.31529722 -0.3412125 -0.7261668
000050 31 b7 9a be 77 80 56 3e 45 bd dd 3e dc 05 73 be
       -0.3021789 0.20947443 0.43308464 -0.23732704
000060 3f d8 ca bf 74 82 22 bf 39 13 15 be f5 f7 c1 bf
       -1.5847243 -0.63480306 -0.14558114 -1.5153795
000070 cd 28 b4 be b4 0f 86 bf e5 85 02 3e 95 cc a8 3f
       -0.3518738 -1.0473542 0.12746389 1.3187433
000080 b4 3c 52 bf fe 78 f3 3f dd 00 09 bf 56 6f fa bd
       -0.82123876 1.9021299 -0.5351694 -0.12228267
000090 af d3 a8 3e 7c 5e a0 bd 8a 08 85 3d ee 09 c4 be
       0.32974002 -0.078305215 0.06495769 -0.38288826
0000a0 c1 3d 5b bf 8e f2 f4 3e 18 2b c8 be 3f e2 8c bf
       -0.85641104 0.47841305 -0.39095378 -1.1006545
0000b0 8c 08 40 bf 4c 55 0b 3e 23 60 94 3c 3e f5 f9 be
       -0.7501304 0.13606757 0.018112248 -0.48819917
0000c0 c2 d5 81 3e 34 f8 91 be 94 24 6e bf 0b 68 41 3d
       0.25358397 -0.28509676 -0.93024564 0.047218364
0000d0 96 5f 3f c0 b1 42 48 bf 78 20 94 be 84 3c fe 3e
       -2.990209 -0.78226763 -0.28931022 0.49655545
0000e0 1d 97 99 3e d9 bb 57 bf cd d7 92 be c6 9f 7e 3d
       0.29998103 -0.8427101 -0.28680268 0.06216409
0000f0 a7 06 0b 3f a8 aa 40 bf f6 a1 f9 bf 61 2b d1 be
       0.54307026 -0.752604 -1.9502552 -0.40853408
000100 c9 61 61 3f 67 b5 3e 3e bc 9f 2e 3d 18 a1 b9 3e
       0.88039833 0.18623887 0.042632803 0.36255717
000110 a5 3d a3 3f c6 4b 9f 3f 85 b2 00 bf 37 44 4a bf
       1.2753187 1.2444999 -0.502724 -0.7901034
000120 b3 66 57 be 35 b7 14 bf 29 9b d6 bd f2 12 86 bf
       -0.2103527 -0.5809205 -0.10478813 -1.0474532
000130 37 21 5e be a8 68 8a 3c d6 0d 19 3e 04 9d f5 3e
       -0.21692358 0.016895607 0.14946684 0.47971356
000140 e8 84 30 3f 6e 9d 1d bf 1c 38 cf bf d5 9c 9d 3f
       0.689528 -0.61568344 -1.6188998 1.2313486
000150 02 83 b2 be e7 26 1f bf c8 ba ad be 5d 61 8b 3e
       -0.34865576 -0.62168735 -0.33931565 0.2722272
000160 92 60 93 3e 17 f6 33 c0 d0 b2 b5 be f9 fe bd be
       0.28784615 -2.8118951 -0.35487986 -0.3710859
000170 2d 0d aa 3f fa 87 db be b3 5a 01 c0 11 59 2e 3c
       1.3285271 -0.4287718 -2.0211608 0.010641352
000180 7f fc 6b bd 29 59 dd 3e 50 03 d8 3e 75 4a 69 be
       -0.057613846 0.43232086 0.42190027 -0.2278231
000190 fb 6a 9c 3e ee f2 fb 3e a1 91 8a 3d d0 d6 cc be
       0.3055037 0.49208778 0.06766058 -0.4000764
0001a0 53 60 8a 3f 43 2d 32 3f ec 8d 28 3f 15 b6 97 be
       1.0810646 0.69600314 0.65841556 -0.29631105
0001b0 ea 47 6a be f6 c8 e7 bc 31 e6 7f 3f d9 bc 27 bf
       -0.22878996 -0.028294068 0.9996062 -0.65522534
0001c0 43 af 4c bf 3b ba a9 bf 5f 0a 39 bf 8a 7e b2 bf
       -0.7995493 -1.3259958 -0.7228145 -1.3944867
0001d0 45 34 6a bf ff 4f 1c 3f 5e 8d 13 bf 20 c8 13 bc
       -0.91486007 0.61059564 -0.57637584 -0.0090198815
0001e0 8d 68 5f 3e b2 08 1d bc b5 ff ed bd 57 46 a2 3f
       0.21817227 -0.009584593 -0.11621038 1.2677716
0001f0 3c 3f 10 bf 4d da 24 bf 52 15 c9 3e 4e d8 9d 3e
       -0.5634649 -0.643956 0.3927408 0.3082909
000200 55 4f 85 3f e1 91 20 bf 30 2a 20 3d 8a 58 a6 3f
       1.0414835 -0.62722594 0.039102733 1.299577
000210 c2 de 7a 3e 41 3f 9f 3e 13 0f 54 3f bb 02 7e be
       0.24499038 0.31102946 0.828355 -0.24805729
000220 ab 25 e2 3e 3b 6d 8c be 99 79 dd 3e 02 b0 00 be
       0.44169363 -0.27427086 0.43256834 -0.12567142
000230 42 45 51 3f b3 fa ac 3f 3d 73 02 3f 5b e8 b7 3e
       0.81746304 1.3514007 0.5095709 0.3591946
000240 a0 aa 9e be 08 0f e0 be 7f 1f 7b 3f b4 08 1b bd
       -0.30989552 -0.43761468 0.98094934 -0.037850097
000250 3c 8e 04 3e ee 84 14 bf 5f a3 c4 be ab 76 2e bd
       0.12944883 -0.58015335 -0.38405892 -0.04259364
000260 a8 e2 5b 3d f5 52 d3 bf ab 87 67 bd 08 37 0c 3e
       0.053682953 -1.6509691 -0.056525867 0.13692868
000270 7c eb 11 3e 26 b8 37 bf 06 b6 bd bd 2b 8b ec 3f
       0.14249986 -0.71765363 -0.09263234 1.8479971
000280 25 03 14 3f 8e 58 c3 3d 2a d1 9a be 98 ce d8 3c
       0.578173 0.09538375 -0.30237705 0.0264657
000290 3b 50 ec be cd 90 95 be 04 9a b9 3f e5 87 70 bf
       -0.4615496 -0.29212037 1.4500127 -0.9395736
0002a0 0c eb ed be 3e fe 5f bf 92 30 09 be 93 6d 68 3f
       -0.4646839 -0.8749732 -0.13397434 0.90792197
0002b0 42 80 79 3d db 39 5f 3c 5d 98 d0 3d d3 81 03 bf
       0.06091333 0.013624634 0.10185311 -0.5136997
0002c0 8d 87 3e 3f 7c 3e 4d bd 2f 07 b1 3f d6 6f ff 3e
       0.74425584 -0.050108418 1.3830317 0.49890012
0002d0 70 09 01 be b2 14 1f 3e 00 32 9e be b3 3e 91 3f
       -0.12601256 0.15535238 -0.30897522 1.1347259
0002e0 67 85 cd 3e 0d 34 b0 3e 15 18 53 bc c5 65 be be
       0.4014084 0.34414712 -0.01288416 -0.3718702
0002f0 20 e7 61 be 99 12 7f 3e a7 5d 67 3f 05 e2 40 3e
       -0.22060823 0.24909438 0.9037728 0.1883622
000300 43 1d b6 bd e7 8c 84 3e 65 55 eb 3e 78 fb f2 be
       -0.088923 0.2588875 0.45963588 -0.4745748
000310 d7 e9 4d bf 11 60 a5 be 3c 22 08 3e 37 40 17 3f
       -0.80434936 -0.32299855 0.1329431 0.5908236
000320 b3 07 8f bf be 5c e4 3e 07 58 74 bd 9e e2 c7 3d
       -1.1174225 0.44602007 -0.059654262 0.09760021
000330 6c 31 19 3f 86 8f 68 be fc a9 87 bd e1 da 30 3e
       0.59841037 -0.22711 -0.06624219 0.17270996
000340 d6 ab f1 bf 1a 43 55 3f 94 66 2c 3f ed 6b 25 3f
       -1.8880565 0.83305514 0.6734402 0.64617807
000350 6a 9a 84 3f 80 d6 67 3d 37 f1 11 be 55 72 9f be
       1.0359623 0.056601048 -0.14252172 -0.31141916
000360 d8 93 be be 7b 51 b9 3e d4 cf 05 40 aa 8b c8 be
       -0.3722217 0.36194977 2.0908098 -0.39169055
000370 c8 42 e9 bf 5a b0 91 bf a0 ed 1d 3f d8 3a 8c 3d
       -1.8223505 -1.1381943 0.6169071 0.06847161
000380 15 69 a0 be b3 d0 cf 3f b5 9e 10 3e a9 96 55 3e
       -0.3133017 1.6235565 0.14123042 0.20858254
000390 bb 7a 1c be 5d be fd bc 01 4b 18 c0 71 60 ad bf
       -0.15281193 -0.030974561 -2.3795779 -1.3545057
0003a0 bc 5f a9 be fb 1e 14 3f 6c 9e cf 3f 92 66 2f 3e
       -0.33080852 0.5785977 1.6220222 0.17128971
0003b0 c1 e7 5b be 9a 62 2f bf 46 38 2e 3e ac 16 77 bf
       -0.21475126 -0.6850983 0.17013654 -0.9651897
0003c0 cd c6 7c bf 49 ca 84 c0 dc 4f e6 3d 7a b9 16 3f
       -0.98740846 -4.149693 0.11245701 0.58876765
0003d0 fd 97 ca 3e 96 17 d9 3d d6 52 97 be 21 95 4a bf
       0.39569083 0.10600202 -0.29555386 -0.791338
0003e0 02 f8 0c 3f f2 da 06 3f 8f 8b 1b 40 0f 2c 79 bf
       0.5506593 0.52677834 2.430393 -0.97332853
0003f0 a1 e2 69 bf 66 4e 89 bf 18 0a af be f8 e6 7e bd
       -0.91361433 -1.072705 -0.34187388 -0.062231988

critic.0.bias f4 [256]
000000 b4 68 86 be 58 0b 14 3e 71 a3 59 3c 1d 71 64 3c
       -0.26251757 0.14457452 0.013283596 0.013942984
000010 09 f8 ab be f0 ba 38 3e b2 c0 ec 3d e2 62 86 bc
       -0.33587673 0.18040061 0.11560191 -0.016404573
000020 e2 79 4f be c9 dd 19 3e e2 27 e4 be 5f 7b 47 bd
       -0.20261338 0.1502601 -0.44561678 -0.04870164
000030 81 a2 29 3e 31 e4 06 bf f2 02 07 3e b7 a9 26 be
       0.16565897 -0.5269194 0.13184717 -0.16275679
000040 07 4b 5f be be eb ed 3d 27 c7 22 be ba c9 40 be
       -0.21805964 0.1161723 -0.15896283 -0.18826953
000050 0c 32 ce 3d b0 7f 41 be 5a 45 99 3a 5b 97 d9 bd
       0.100681394 -0.18896365 0.0011693642 -0.10624572
000060 df c0 c5 3d 57 09 91 3e 22 8f b5 3e d2 1b cc 3d
       0.09655928 0.28327438 0.35460764 0.09966244
000070 4f 35 12 3e cf a0 76 3e ce e2 21 be f3 68 87 bd
       0.14278148 0.24084781 -0.15809175 -0.06611814
000080 fd 6e 85 bd 78 97 70 bd 16 f6 a2 3d 81 5f bd 3e
       -0.0651531 -0.0587382 0.079570934 0.36986926
000090 7a 97 1f bd 70 ae a4 3e 2f d8 4f 3e 72 5d 28 bf
       -0.03896282 0.32164335 0.20297311 -0.65767586
0000a0 b9 62 e1 3c be c1 0a 3d 42 8c 3e 3e e4 7d fd bd
       0.027512895 0.033876173 0.18608192 -0.12377527
0000b0 ac f8 13 3e 70 8e 2c 3e dc 11 0f 3e 77 d2 75 bc
       0.1445033 0.1685121 0.13971657 -0.015003792
0000c0 88 06 25 be 36 14 cf 3d d3 bb 99 3e e9 74 3c 3e
       -0.16115773 0.10111277 0.3002611 0.18403973
0000d0 b1 e6 cb 3d 2f 64 37 bd 12 5c 92 3e d3 b9 75 be
       0.0995611 -0.044773277 0.2858587 -0.23996668
0000e0 7c ac 3b bd c7 22 55 3c 79 7e 39 bd 8b 71 8b be
       -0.04581879 0.01300878 -0.04528663 -0.27235064
0000f0 8a 7f 40 3e 07 8f e5 be 29 d4 30 be c1 38 10 be
       0.18798652 -0.44835684 -0.17268433 -0.1408415
000100 a9 64 b2 bc 6e a7 62 3d 61 e2 8c be 37 60 9c 3e
       -0.021776514 0.055335455 -0.27516463 0.30542156
000110 4a 7e 8b 3d cd b0 68 3e 17 de c4 be a1 b4 e0 bd
       0.06811197 0.22723694 -0.3845069 -0.10971952
000120 cd cf 12 bd 53 ee 76 be d3 6b 0b bf 47 5c d6 3d
       -0.035842706 -0.24114351 -0.544614 0.10466819
000130 b4 41 0e 3e 19 82 1f bd 7c 3b f5 3b 4e bb e8 3d
       0.13892251 -0.03894243 0.0074838977 0.113638505
000140 b4 74 34 3d e7 b7 c6 3d a6 28 ac be 23 49 c6 bd
       0.04405661 0.09703045 -0.33624762 -0.096819185
000150 d1 8d 3d be 42 d8 00 3e 1d 8d d1 bd a9 e2 e8 bc
       -0.1851113 0.12582496 -0.10231993 -0.028428392
000160 67 a9 e9 bb 29 11 42 bd 05 be 12 3d 62 04 83 3d
       -0.00713079 -0.047379646 0.035825748 0.0639732
000170 6d aa 10 3e ab 40 c1 3a 4c 0c d4 3e 57 de 4e be
       0.14127512 0.0014744004 0.41415632 -0.20202003
000180 5c df e7 3d 62 20 82 3e 3f d4 28 bd 4b b9 0e 3e
       0.11321899 0.2541533 -0.04121804 0.13937871
000190 61 04 3c 3e 7b f1 26 be df c0 fe be 5f e1 d1 3d
       0.18361045 -0.16303055 -0.49756524 0.10248064
0001a0 ff 3d 44 3e 99 06 84 be b7 6f 4c bd df bf b5 be
       0.19164275 -0.25786284 -0.049911227 -0.3549795
0001b0 40 43 4b be 60 19 18 be d3 98 3a 3e 60 7a 9d 3d
       -0.19849873 -0.1485343 0.1822236 0.07689357
0001c0 63 14 5b be 31 96 3a be 82 71 3c be 9a 7b c5 bd
       -0.21394496 -0.18221356 -0.18402675 -0.09642716
0001d0 d6 82 b6 bd 01 a3 dd 3d b3 cd 72 3d e2 03 27 bc
       -0.08911674 0.10822106 0.0592782 -0.010193797
0001e0 2d ef a9 be 42 7f aa bd 5a a2 c4 be 0c 70 81 3e
       -0.3319029 -0.08325054 -0.38405114 0.25280797
0001f0 10 22 41 be c8 50 9a 3e 82 3e 5d 3e 14 63 3b 3d
       -0.1886065 0.30139756 0.21605876 0.045748785
000200 20 21 9c 3e e5 8d 46 be 06 1f 5f bd e7 3b 85 bd
       0.30494022 -0.19390066 -0.054472946 -0.06505566
000210 77 bd b7 bd 5d 69 65 be 54 6b 25 be 65 43 fa 3d
       -0.089716844 -0.22403474 -0.16154224 0.12219886
000220 b7 d3 98 be 32 45 52 be 9a 52 8d be 56 6c 2f 3e
       -0.29849026 -0.20534208 -0.27602082 0.1713117
000230 93 85 6c 3e 86 be 3d bf e4 3f 0c 3f 5b 16 79 be
       0.2309783 -0.7411884 0.5478499 -0.24324934
000240 7c fe 8f bc 82 06 0b 3e a6 64 b5 3e 19 bd 1b 3e
       -0.017577402 0.13576701 0.3542835 0.15208854
000250 02 55 fb 3e 97 61 e4 3d 6a 83 7e 3e 10 71 8c 3e
       0.49088293 0.11151426 0.24854818 0.2743001
000260 7b 9b 2e 3e d3 64 a6 be f3 de 1b 3f 1d 7a e1 3e
       0.17051499 -0.32498798 0.6088707 0.44038478
000270 45 03 bc 3e 88 cf cf bd bd da 14 3e 48 d0 92 be
       0.36721244 -0.10147005 0.14536567 -0.2867453
000280 9f 87 65 bc 1f 36 40 3e 06 e5 2a 3e 29 6e dc bc
       -0.014009385 0.18770646 0.16688928 -0.026907997
000290 76 e8 00 3c cf 0e f4 bd 64 f8 09 3d d2 6c 58 be
       0.007867923 -0.11916887 0.03368415 -0.21135262
0002a0 27 0e b1 3d 1d 1c f6 bd c8 af 8c be 0c 5d 36 be
       0.086452775 -0.12017081 -0.2747786 -0.17808932
0002b0 ec 34 1e be 61 ff 66 3e f5 ca 10 be 25 36 88 be
       -0.15449876 0.22558357 -0.14139922 -0.2660381
0002c0 89 c0 87 3e 13 17 d5 3d 67 b1 ef 3c 30 33 fc 3e
       0.2651408 0.10404792 0.029259397 0.49257803
0002d0 80 d2 e7 be 0b c9 01 3e 10 97 71 be fb 83 25 be
       -0.45277786 0.12674348 -0.23592782 -0.16163628
0002e0 d5 27 82 be 1c 41 8d 3d b3 34 a0 be ea a5 8e bc
       -0.25421014 0.06897184 -0.31290206 -0.017413098
0002f0 1c bd 08 3f cd c9 73 3e b2 20 48 bc 6f 1f 6f be
       0.5341356 0.2380745 -0.012214826 -0.23351835
000300 9a 86 86 be f2 98 40 3e ee d8 43 3e ec 29 fa bd
       -0.26274568 0.18808344 0.19125721 -0.12215027
000310 1d 59 a2 be 6c a0 ce 3c b6 ae c3 3e 90 12 3a be
       -0.31708613 0.02522298 0.3821923 -0.18171144
000320 09 79 da 3c fc 1f 92 3d aa 70 04 3c 66 f9 ed bd
       0.026669042 0.07135007 0.008083502 -0.116198346
000330 1d 47 f6 3d 2a 80 87 be f0 0e b6 3c 01 30 b1 3c
       0.120252825 -0.2646497 0.02222392 0.021629335
000340 94 49 ab 3e b8 30 80 3e 01 ac 07 bf f7 6b b1 3e
       0.33454573 0.2503717 -0.5299683 0.34652683
000350 21 44 12 3e 85 51 79 3e 2e 17 0b 3e 9b d5 92 bd
       0.14283802 0.24347503 0.13583061 -0.07169648
000360 ae f5 a8 be ac 1c be bd 30 73 52 3e 38 4a 0d be
       -0.3299994 -0.092828125 0.20551753 -0.13797843
000370 10 5d 66 3b 01 de 6f be 71 f4 ea 3d 44 82 c6 3e
       0.0035150684 -0.23424532 0.11472405 0.3877126
000380 40 c3 65 be 2e 61 09 3d 3a 7b 04 be ec 80 b4 3e
       -0.22437763 0.033539943 -0.12937632 0.3525461
000390 56 89 2e bb 64 87 bd 3b 38 ac 2b 3e d2 d5 51 be
       -0.0026632152 0.005783962 0.16764915 -0.20491722
0003a0 07 7c 01 be ad f9 59 be 48 7c d6 bd b4 4e ce be
       -0.12644969 -0.2128665 -0.104729235 -0.4029442
0003b0 b2 7b 05 be c9 42 83 be 30 e5 e5 bd ea b5 57 be
       -0.13035467 -0.2563689 -0.11225355 -0.21065488
0003c0 7e c3 28 3e ad 5d 83 3e 21 ce 8e 3e 85 15 33 bd
       0.16480824 0.25657406 0.2789164 -0.043721694
0003d0 42 50 13 3e 65 09 08 3e 8e 34 28 be f1 6b c7 3d
       0.14386085 0.13284834 -0.16426298 0.09737385
0003e0 67 f8 85 bc 9a c6 88 be ad 7c c1 3b 56 69 07 be
       -0.016353799 -0.2671402 0.005904755 -0.13223776
0003f0 8f 19 91 3e eb 45 85 be 6f ea 17 3e 92 81 56 bc
       0.28339812 -0.26029906 0.14835523 -0.013092415

critic.2.weight f4 [256, 256]
000000 1c 74 24 3f e4 9c 8a 3d a6 43 83 be 5e 01 0f bf
       0.6423967 0.06768206 -0.2563755 -0.5586146
000010 d5 07 9b be 8f e3 95 3e f9 68 fe 3e d0 58 c2 3e
       -0.30279413 0.29275176 0.49689463 0.37958384
000020 29 f1 67 bf 23 d4 ad 3e c8 3c 8b 3d 6f 71 8e 3f
       -0.90602356 0.3395091 0.067987025 1.1128367
000030 4e c5 16 3d ef 86 17 bf 9f 0d 15 3d 06 f4 9b be
       0.03680926 -0.5919027 0.036389943 -0.30459613
000040 47 70 f4 3e 2e 9d ce 3e ae d0 02 3f 19 2e 8d bf
       0.4774191 0.40354294 0.5109967 -1.1029693
000050 72 9e 02 be d7 fa f3 3e eb dc 2c be cc b6 8d 3c
       -0.12755755 0.47652313 -0.16881149 0.017299078
000060 88 70 b7 be 1a d2 10 3f ac cd ef bf e0 45 11 bf
       -0.35828042 0.5657059 -1.8734641 -0.56747246
000070 d5 7d ba be 5d ae 86 be a0 c0 d5 3f df 9a b2 be
       -0.36424127 -0.26304904 1.669941 -0.34883782
000080 90 fb 33 bd bb 1d 01 3f 0d b7 2b be fc 8e 45 3f
       -0.04394108 0.5043599 -0.16769047 0.771713
000090 bb 67 26 3f e8 0f 5b be e6 98 95 3e ce 98 da be
       0.6500203 -0.21392787 0.29218215 -0.42694706
0000a0 38 87 56 bf fa ba 00 3f c5 7c af be 9a a1 6b be
       -0.8380008 0.50285304 -0.3427488 -0.23010865
0000b0 63 05 96 3d 7a 70 3a 3f 27 5f b2 3d 09 26 11 bf
       0.07325246 0.72827876 0.08709555 -0.5669866
0000c0 f1 ec ca 3e 1a 12 07 3d 8c fe 42 3e 41 17 8a be
       0.39633897 0.032976247 0.19042414 -0.26970866
0000d0 a5 8d c4 3e 0c 28 9c be 8b 16 b2 be ad 04 70 3f
       0.38389316 -0.30499303 -0.34782824 0.93757135
0000e0 08 1a 51 bf 51 33 94 3c 5d 75 37 3f de 7e 5c 3e
       -0.81680346 0.018090876 0.7166346 0.21532771
0000f0 1a fe d1 3e 9d 36 71 bf 8a f5 06 3e ce db 3a 3f
       0.41014177 -0.9422396 0.13179603 0.72991645
000100 d8 f2 1b bf c8 6e ef bd 49 5e 8e bd ab 1e 04 bf
       -0.60917425 -0.11691052 -0.06951577 -0.51609296
000110 10 15 1e bf 41 57 66 be 19 61 1e be 83 24 a4 3e
       -0.6175089 -0.22494222 -0.15466727 0.32059106
000120 43 e1 bb bc 00 c1 62 bf 41 6d d5 3e 4e ee 8b 3e
       -0.022934562 -0.88575745 0.41684917 0.2733025
000130 50 a9 0b 39 90 79 e5 3c e8 3b 87 3e 20 00 02 bf
       0.00013319147 0.028012067 0.26412892 -0.5078144
000140 24 b5 de be 9a 04 7d 3d f3 97 31 bf d3 ac d9 3e
       -0.43497574 0.061771967 -0.6937248 0.42514667
000150 25 63 13 3f 9a 73 7d 3f 8e 5b 87 3f 0a c8 8d 3e
       0.5757316 0.9900452 1.0574815 0.2769168
000160 09 3e 76 3e a6 c5 6e 3f cb 55 1b bf e7 45 19 3e
       0.24047102 0.9327034 -0.60677785 0.14968072
000170 10 0e 89 bd a1 5f 0a bc 26 b2 44 be a1 4c c3 3d
       -0.06692135 -0.008445651 -0.19208583 0.095361
000180 d8 c9 3e be 0b be 0e 3f 79 b8 c1 3e b0 2f 7b be
       -0.18631685 0.5575873 0.37836054 -0.2452991
000190 0e a1 c4 be 4f 0f 86 3e d6 55 86 3f f7 6e 22 bf
       -0.38404125 0.26183555 1.0494945 -0.6345057
0001a0 67 3f 30 3e 0c e7 60 bd 5c 48 17 3f e4 ce 1b be
       0.17211686 -0.054907843 0.59094787 -0.15215641
0001b0 c3 bb 0f 3f 9f 01 28 3f ae 60 8b 3e 90 98 e7 be
       0.56145877 0.65627474 0.27222198 -0.45233583
0001c0 1d 26 d4 3e 1c c4 99 3e 75 68 67 bf 6c 50 73 3e
       0.41435328 0.30032432 -0.90393764 0.23761147
0001d0 11 3b 6a bc 81 0c 64 bf c8 bd 9f 3e 1c df 8f 3f
       -0.014296309 -0.8908158 0.3119948 1.1239963
0001e0 6f 77 d4 3e 57 f8 a7 be cc 86 8b 3f bd 19 d9 bd
       0.4149737 -0.32806656 1.0900512 -0.10600612
0001f0 bd 51 bc bd 65 82 d8 bb e1 2a 06 3f 82 3c 13 3f
       -0.09195278 -0.006607341 0.5240918 0.575142
000200 fc e1 f2 be d2 9e d3 bd c3 46 29 3e 98 a9 9a be
       -0.47438037 -0.10333027 0.165309 -0.30207515
000210 b8 24 ca 3f bf b5 9c 3e bc dc 09 be 96 51 09 bf
       1.5792456 0.3060741 -0.1346311 -0.53640115
000220 5e c6 53 bf b6 db 92 be 9e d3 0b 3f 06 2a 09 3d
       -0.8272456 -0.2868325 0.5461978 0.033487342
000230 c5 02 00 3f 0b f5 5a bd c4 02 75 3d b8 ee d6 bd
       0.50004226 -0.053456347 0.05981709 -0.10494751
000240 4d 01 6c 3f 9b f8 7a be 96 8c 2b 3f 14 4c 7f bd
       0.92189485 -0.24508898 0.6701139 -0.062328413
000250 35 4b 42 3f 73 25 fc 3e 02 ac 11 3f fc 8b e0 bf
       0.75896007 0.4924732 0.5690309 -1.754272
000260 3b 4b d3 3e 2f 09 15 3f bb 95 a5 3e 54 10 23 3f
       0.41268334 0.5821714 0.32340798 0.6369679
000270 21 a6 cd bd 97 61 26 3e ce 8e af 3f ad 37 9e 3f
       -0.10041452 0.16248165 1.3715456 1.2360741
000280 14 74 97 be 56 52 b6 3e e6 8b c3 bd 3b 4a 60 be
       -0.29580748 0.35609692 -0.09548168 -0.21903317
000290 7e 66 5d be 99 51 38 3e e7 1b 64 3f cb bc 6d 3e
       -0.21621129 0.17999877 0.89105076 0.2321655
0002a0 96 a2 12 3f 2f 18 20 bc f5 48 c9 3d cd e9 29 3f
       0.57279336 -0.009771391 0.098283686 0.66372377
0002b0 61 99 8e 3e 52 b4 a9 3d c6 b9 eb 3c 09 a2 86 bf
       0.27851394 0.082863465 0.028775107 -1.0518199
0002c0 14 c8 38 bf 2d a9 c7 3d d0 7d 10 bf b7 54 f3 bc
       -0.72180295 0.097490646 -0.56441975 -0.029703481
0002d0 24 7c 60 3f c6 d4 ad be e8 6e 47 3f 71 0a 60 bf
       0.87689424 -0.33951396 0.77903605 -0.8751593
0002e0 18 1f 60 3f f1 49 84 3e 8d e5 43 bf 7a ae dc bc
       0.87547445 0.25837663 -0.7652214 -0.026938666
0002f0 ad 9d fc bd d4 39 a5 bf 5e 27 49 3e 81 42 8a be
       -0.12334762 -1.2908273 0.19643924 -0.27003863
000300 d7 e1 3b be a5 66 db 3e ff 75 fa bd 3a 7b 15 bf
       -0.1834787 0.4285175 -0.12229537 -0.58391154
000310 7f 88 1a 3f e1 e3 f0 3d 39 81 28 bb 44 58 6f 3f
       0.60364527 0.117622145 -0.0025711788 0.9349406
000320 0e dc 2c bf cb 4a d7 bd 52 ee 00 bf 13 ce 60 be
       -0.67523277 -0.105123125 -0.5036365 -0.21953611
000330 9f 5d 0b bf 54 2b b4 be 2b ad cc be 3d 9a 1f be
       -0.5443973 -0.35189307 -0.39975867 -0.15586181
000340 30 77 10 3f 4d a2 32 3c 86 13 3f 3e 6a 47 8e be
       0.56431866 0.010902953 0.18659791 -0.2778886
000350 81 c4 2f be cc cf 80 be b5 c2 22 be 1c 1c 73 3e
       -0.17164804 -0.25158536 -0.15894587 0.23741192
000360 59 04 a7 3f 8f a0 b5 be 2d ea ad 3e 75 90 5c bf
       1.3048202 -0.3547406 0.33967724 -0.86157924
000370 11 a4 3f 3f 9d ed 46 be d5 15 ef be 44 2e 24 3e
       0.7485972 -0.1942658 -0.46696344 0.16033274
000380 ee 1c 1d 3e 5a 92 c6 be 5d c0 0a bf 8f bf 1c 3e
       0.15343067 -0.38783532 -0.54199773 0.15307449
000390 6b 45 6f be 9f ba 89 bf 0d d3 0f 3f 61 09 eb 3e
       -0.23366325 -1.0760077 0.5618141 0.45905593
0003a0 f8 45 5c 3f f0 82 9c 3e 92 76 7c be ca a7 e5 be
       0.86044264 0.30568647 -0.24654606 -0.44854575
0003b0 9b 36 8a bf 4b 0d d1 3e 1d 2e 6b bf 1b 7a 58 3f
       -1.0797914 0.40830454 -0.9186724 0.8456132
0003c0 19 b3 28 bf 66 a8 15 bf 8d 99 c4 3e 9a 43 bc 3d
       -0.6589828 -0.5846008 0.383984 0.091925815
0003d0 5e 69 ca be ae b0 c4 3d 9e 17 0f be b2 26 b3 3f
       -0.39533514 0.096040115 -0.13973853 1.3996184
0003e0 91 1e 5f be 2e 92 86 3f d8 7e b7 3e b3 a9 0b 3e
       -0.21789004 1.051336 0.35838962 0.13638954
0003f0 ab 01 81 bf 57 82 ba be 54 2d 30 be 9c 82 2e 3f
       -1.0078634 -0.36427566 -0.17204791 0.68168044

critic.2.bias f4 [256]
000000 75 f5 67 be 53 e2 c3 be 5c 40 90 3c 82 90 7b 3e
       -0.22652228 -0.3825861 0.017608814 0.24566844
000010 8c e6 42 3e ec c3 e6 3d b2 86 c0 3d 5b 50 04 3e
       0.19033259 0.11267838 0.09400691 0.12921278
000020 23 8d c0 be 08 a9 eb bd 6d 13 9c 3d fa 61 83 be
       -0.3760768 -0.115068495 0.07620893 -0.25660688
000030 5e 13 34 3e 1d 1a 1c 3f 3b 30 1e bf 5f 1c 11 bf
       0.17585513 0.60977346 -0.61792344 -0.56683916
000040 8d 31 cd 3e b4 28 23 3d c2 2a dc 3e f2 68 ef 3e
       0.40076867 0.03983374 0.43001372 0.46759754
000050 f5 88 0f be ea 5e 92 3e 82 9f ba 3e 75 fe 53 3f
       -0.14017089 0.2858804 0.3644982 0.82810146
000060 e7 6f 03 3e cd 35 f0 3d fd 74 4f 3e ca 88 a2 3e
       0.12835656 0.11729012 0.20259471 0.31744987
000070 5e fa 45 bd 6e e6 36 bf cf 75 44 be 26 7c 89 be
       -0.048334472 -0.7144536 -0.19185565 -0.2685253
000080 0d e2 c4 bd 2e 8e 17 bf 30 a0 f1 bb 57 b6 8b be
       -0.09613428 -0.59201324 -0.007373832 -0.27287552
000090 6c 7c 60 3e e0 37 16 3e 75 0b e5 bd 8d 69 a0 bd
       0.21922463 0.14669752 -0.11183826 -0.07832632
0000a0 08 0a cc 3d c6 96 28 be 1b 05 34 be dc 2a 58 3e
       0.09962851 -0.16463766 -0.17580073 0.211101
0000b0 7b 7c 30 bf a5 1d 4e bf 9c cd 5b be d7 57 86 be
       -0.6893994 -0.80513984 -0.21465153 -0.2623889
0000c0 43 ac 1d 3d f7 c9 05 3e ce 6f 0e be 14 5d 16 3f
       0.03849436 0.13065325 -0.13909838 0.58735776
0000d0 b5 23 55 bf 5d 56 18 bf d9 8d ed 3e e6 90 4f 3e
       -0.8325761 -0.5950678 0.46397284 0.20270118
0000e0 6c dc 79 be 3e 2f 01 bf e3 f4 6a 3f 9a 29 9e be
       -0.2440049 -0.5046271 0.9177992 -0.30891114
0000f0 80 e3 6f 3f 8e 4f 22 bf 15 7e 6e bc b1 75 2f be
       0.9370651 -0.6340264 -0.0145564275 -0.1713474
000100 19 f4 4b 3e 2d 6a 61 3d e6 e2 6c be 38 03 28 3e
       0.19917335 0.055032898 -0.2313343 0.16407478
000110 11 74 7b be 7c a4 24 3e 1d 29 4a bd 20 39 08 3f
       -0.24555995 0.16078371 -0.049355615 0.53212166
000120 90 ce 58 be 90 60 57 be 73 cb 7f 3e 6b 43 55 3e
       -0.21172547 -0.2103293 0.24979953 0.20826499
000130 f0 72 a4 be 56 45 bb 3e e1 c0 4f be ba 77 83 3e
       -0.3211894 0.36576337 -0.20288421 0.25677282
000140 1b 72 98 bd 0e 59 39 be 7a 40 dc 3e 57 70 af bd
       -0.07443639 -0.18100378 0.43017942 -0.08566349
000150 f7 9a df 3e f6 f0 97 bd e9 08 b1 3e 02 64 f6 be
       0.43672916 -0.074190065 0.3457711 -0.48123175
000160 56 2e 1c 3e 79 9f 6f bf b3 0f 03 3f 53 a0 2d bf
       0.15252051 -0.9360271 0.5119583 -0.6782276
000170 e7 07 d8 3e 29 7a 86 3e ed 5e 80 3f da 8f f3 3e
       0.4219353 0.26265076 1.0028969 0.47570688
000180 93 ce 4d be 26 23 0c 3e 47 55 90 3e 7c bc 90 3b
       -0.20098333 0.13685283 0.2819006 0.0044170003
000190 f4 90 ba 3e b9 c3 9c bd e8 e0 68 bd 98 32 2e 3d
       0.36438715 -0.07654519 -0.056855112 0.04252872
0001a0 23 d5 0d bf 40 b8 c9 3d 6b e9 fc bd 95 81 6a 3c
       -0.55403346 0.09849596 -0.123492084 0.014313121
0001b0 9e 00 0d 3f e1 7c 23 be ee 75 c8 3e e7 9b e2 be
       0.55079067 -0.15965606 0.39152473 -0.4425957
0001c0 1d a4 1d bf 6c 25 5b 3d 45 b0 2f 3e 7a c2 b8 bd
       -0.6157854 0.053502485 0.17157085 -0.090214685
0001d0 f4 b6 3e 3f 99 21 74 3e a1 65 df be 0a c2 8d 3e
       0.74497914 0.23840941 -0.43632224 0.27687103
0001e0 48 50 87 3f 6f ec 97 bd 35 8b 59 3e 1b 68 2c be
       1.0571375 -0.07418143 0.2124451 -0.16836588
0001f0 ce 99 b0 3e 11 1e 97 be 1c 4e 80 3e 87 94 17 3e
       0.34492344 -0.29515126 0.25059593 0.14802752
000200 0f c6 e9 3d b0 2c 82 3e ed 20 95 3e 5c 21 80 be
       0.1141473 0.2542472 0.29126683 -0.2502545
000210 ec c2 12 bf 37 e4 bd 3e d1 53 be 3e 4a c9 8d be
       -0.5732868 0.37088177 0.37173322 -0.27692634
000220 70 ed 04 3f 8c 39 41 bf fb 72 ae bb cb 7d 32 bd
       0.519248 -0.75478435 -0.0053237653 -0.043576997
000230 42 99 03 3e d4 c0 41 be 52 61 a3 3d b5 d7 89 be
       0.12851432 -0.18921214 0.07977547 -0.26922384
000240 5f a5 b6 be 56 08 47 3e 08 cb 47 3f e8 ab cc 3e
       -0.35673043 0.19436774 0.78044176 0.39974904
000250 b4 5e 6a 3f af 1d 03 3f 4d 0d b4 be 1a 3c 88 3f
       0.91550756 0.5121717 -0.35166398 1.0643342
000260 9d 31 a5 be da 83 bc 3e 8d af bb 3c 89 ba d0 be
       -0.32264414 0.36819345 0.022910858 -0.40767315
000270 a1 34 2b be a8 2b 88 3e bf de 0b bf 7a 5d 17 bf
       -0.16719295 0.26595807 -0.5463676 -0.5912701
000280 3c 9c 51 3d ea 10 0b 3e ee 12 be 3e ac 4e 27 3e
       0.051174387 0.13580671 0.37123817 0.16338605
000290 37 af 4d bf 69 57 5a 3e 50 4f 8f 3e 7c 12 0f bf
       -0.8034548 0.21322407 0.27990198 -0.5588758
0002a0 a1 b1 ec bd c2 f0 bb be 9c 19 1d bf 65 fb dc 3e
       -0.115573175 -0.3670712 -0.613672 0.4316055
0002b0 2e ef c3 3e 83 68 fb 3e f1 1e 5b 3e 43 e1 61 3e
       0.38268417 0.49103174 0.21398522 0.22058587
0002c0 1f 46 ae 3e db 07 55 be d1 c6 52 bf 49 46 8c be
       0.34037873 -0.20803778 -0.8233462 -0.27397373
0002d0 d4 19 07 3e 9a 7d 94 bd fa e7 ed be ce 64 63 be
       0.13193446 -0.07250519 -0.46466047 -0.22206423
0002e0 a8 02 ff be 1d 0c 7a be 9a 90 00 3e cc 6e 20 be
       -0.49806714 -0.24418683 0.12555161 -0.15667266
0002f0 06 03 be 3d 07 ee 04 3e f6 d8 b2 3d 27 8f 79 3f
       0.092779204 0.12981425 0.08732788 0.9748406
000300 2a ae ef be 2b e5 ba 3d 4a 4b 28 3f 23 b6 f1 3d
       -0.46812564 0.091257416 0.6573988 0.11802318
000310 c9 83 88 bd 61 4d e3 3e 41 d7 bf bd 01 31 94 3d
       -0.06665761 0.44394973 -0.09367228 0.07235909
000320 0b 8f b2 3e 1a 9d 5a bd 91 6f 54 bf 56 f4 03 3e
       0.34874758 -0.05337248 -0.82982737 0.12886176
000330 04 2a 28 3e d4 e5 ab 3e 0c 7e 5b 3c 87 32 ba 3e
       0.16422278 0.33573782 0.013396751 0.36366674
000340 72 d9 db bd c7 30 c4 be c8 a9 05 3e 31 fa 83 3d
       -0.10734834 -0.38318464 0.13053048 0.064442046
000350 02 94 9d 3c 92 61 8a be 5e 80 1b bf 05 db 21 3f
       0.019235615 -0.27027565 -0.6074275 0.6322482
000360 a2 5b 9d bc f0 55 f4 3e 41 84 4b 3e e0 9a 2a be
       -0.019208733 0.47721815 0.1987467 -0.16660643
000370 0e f7 a7 3e 24 6e 4e 3e 07 17 95 bd 0d 5e 77 be
       0.32805675 0.20159203 -0.07279783 -0.24156971
000380 47 8e 11 bf 01 c1 65 3e 69 38 96 3d 92 55 e7 3e
       -0.56857723 0.22436906 0.07334978 0.45182472
000390 f1 5b ac 3d 5c d3 05 be b6 b1 df 3e 49 e0 9a 3e
       0.08415974 -0.13068908 0.4369027 0.3024924
0003a0 d7 72 5c 3c 31 21 88 be 06 0a a0 3e 53 b8 7b 3d
       0.013455114 -0.26587823 0.31257647 0.061455082
0003b0 25 27 1b be 19 1c 16 3d 10 0c b0 be 15 00 f0 3e
       -0.15151651 0.03664789 -0.34384203 0.46875063
0003c0 7f 36 1b be de a5 9d 3e f2 ef f4 be 20 b6 a1 be
       -0.15157507 0.3079061 -0.47839314 -0.31584263
0003d0 40 db 42 3c 3d c9 1e bf 01 26 4c 3d 22 cc 53 be
       0.011893094 -0.62025815 0.04984093 -0.20683339
0003e0 04 bf 24 be 83 2c e5 3e 56 b4 0f 3e 5c 4c 04 bf
       -0.16088492 0.44760522 0.14033636 -0.51679015
0003f0 95 1d 93 3e fd 1a 86 3c 05 05 22 bd 85 e8 1b 3f
       0.28733507 0.01637029 -0.03955557 0.6090167

critic.4.weight f4 [1, 256]
000000 73 9a 0f c0 fd 67 51 bf a5 2a fe bf 04 5c ca 3f
       -2.2438018 -0.817993 -1.9856764 1.5809331
000010 a2 a1 8b bf c2 55 c5 be e2 ac 87 bf 88 23 6a bf
       -1.0908701 -0.3854199 -1.0599635 -0.91460466
000020 cf 05 10 bf be 2a 9c 3f dd 6c 4a bf d9 38 7a bf
       -0.56258863 1.2200544 -0.7907236 -0.9774299
000030 a1 78 70 bf 53 1a e7 bf ac 04 d9 3f e5 0c 88 bf
       -0.93934065 -1.8054909 1.6954551 -1.0628935
000040 72 31 8e 3f c1 1e 29 bf 87 b4 46 3f 01 19 73 bf
       1.110884 -0.6606255 0.7761921 -0.9496003
000050 4a e4 f8 3f 74 90 c9 3f 94 12 c0 3f 7e 98 c2 bf
       1.9444668 1.5747209 1.500567 -1.5202787
000060 69 b1 f6 3f b2 e6 4d 3f 11 b4 3b bf fc 32 d8 3f
       1.9272891 0.8043014 -0.73321635 1.6890559
000070 7a 35 62 3f c0 1e de bf 72 11 37 3f cf 35 19 bf
       0.8836285 -1.7353134 0.71510994 -0.5984773
000080 f3 1c a8 3f 0c 7c 0c c0 c3 0b 60 bf ec b6 13 3f
       1.3133835 -2.1950712 -0.87517947 0.5770099
000090 1a 96 3f c0 a9 9b 4f 3f b5 eb 6e 3f e4 20 1f 40
       -2.9935365 0.81096894 0.9332841 2.4863825
0000a0 a4 4f 1b c0 4f 76 78 bf 3c d2 2e 40 f8 3a d1 be
       -2.4267359 -0.97055525 2.7315817 -0.40865302
0000b0 ad b1 dd 3d 9b fe 8a 3f 13 86 87 c0 65 a3 7c 40
       0.108249046 1.085895 -4.2351165 3.9474728
0000c0 49 0d 63 3f d2 52 6e bf 5b 85 2e bf d0 f5 2f 40
       0.88692147 -0.93095124 -0.68172234 2.7493782
0000d0 be cd f7 bf 76 2f 90 bf 42 26 24 c0 ec 19 e5 bf
       -1.9359663 -1.1264484 -2.564835 -1.7898536
0000e0 fd 52 4a bf af b0 49 3f 9a 6b c4 3f ba e8 86 bf
       -0.7903288 0.7878522 1.5345337 -1.0539773
0000f0 4c 19 29 3e 67 d2 06 bf f7 f7 33 bf 51 44 de 3f
       0.16513556 -0.526648 -0.7030024 1.7364599
000100 5b 0f a3 3e 9b 31 0e 3f 48 52 7c be 6e b5 ed be
       0.31847653 0.5554444 -0.24640763 -0.46427482
000110 97 c8 2c bf 9f 9a 8e bf e5 18 10 40 7b 10 c2 3e
       -0.67493576 -1.1140937 2.2515194 0.379032
000120 30 6c e9 bf a3 12 f0 3f 46 83 3b 40 a6 18 e8 bf
       -1.8236141 1.8755687 2.9298873 -1.8132522
000130 46 f7 8c bf 49 30 15 bf ad 76 de 3f a5 69 29 3f
       -1.1012962 -0.582768 1.7379967 0.66176826
000140 43 a8 9e bf 81 7e 8a bf 69 90 ba 3f fa 59 e9 bf
       -1.2395099 -1.0819856 1.457532 -1.8230584
000150 45 7f bb bf 85 ad 3d bf 1d 20 33 3f b0 9f ae bf
       -1.4648215 -0.74092895 0.69970876 -1.3642483
000160 d3 26 0b c0 51 be a8 bf 89 0f 1e 40 0d 59 7d bf
       -2.1742446 -1.318308 2.4696982 -0.98964006
000170 59 ff 5e 3f 0e d9 a1 3f 65 36 4b 40 ae 88 ea 3f
       0.8710838 1.2644365 3.175195 1.8322961
000180 38 19 b5 bf 6a 1a dc 3f bc 68 94 bf a7 b0 87 c0
       -1.4148321 1.7195561 -1.1594462 -4.240314
000190 80 f0 55 bf 01 70 39 c0 27 e4 11 c0 bb a0 5d bf
       -0.835701 -2.8974612 -2.2795503 -0.8657338
0001a0 d7 76 19 c0 21 46 14 40 50 65 9c 3f 43 4d 39 40
       -2.3978784 2.3167803 1.2218418 2.8953407
0001b0 8a 39 c0 3f f0 24 9e bf 5d 36 db bf d5 18 73 bf
       1.501756 -1.2355022 -1.7125965 -0.94959766
0001c0 f8 49 d0 bf 4b de d3 bf 2c b7 3f be 54 d6 d3 bf
       -1.6272573 -1.6552213 -0.18722218 -1.6549783
0001d0 2a e4 7f 3f 5b 02 0f c0 2b 64 bb bf 4c 1f af bf
       0.99957526 -2.2345188 -1.4639944 -1.3681426
0001e0 88 9c 1b 40 a6 00 03 40 b0 c8 94 3f 19 0c ef bf
       2.431429 2.0469146 1.1623745 -1.8675567
0001f0 5c fe 54 c0 2f 7c 96 bf cc 04 1b 40 9b 3c 64 40
       -3.3280249 -1.1756648 2.4221678 3.566199
000200 0b 7d 3c 40 3b 79 d5 3f 17 c3 5a 3f 36 c4 9b bf
       2.945132 1.6677622 0.85453933 -1.2169254
000210 f6 c6 7c 3f a4 92 dc bf 70 1c 39 40 7f e5 3d bf
       0.9874109 -1.7232251 2.8923607 -0.7417831
000220 2c b3 2b c0 9a fc 97 3f c6 bb 99 bf d4 17 9c 3f
       -2.6828108 1.1873963 -1.2010429 1.2194772
000230 1b f8 77 3f 37 8f 25 c0 3a c6 82 3f 13 39 40 3f
       0.96862954 -2.5868661 1.0216744 0.7508709
000240 d4 23 d7 be 02 55 67 40 27 fb 08 40 d3 ce fe 3f
       -0.42019522 3.6145635 2.1403291 1.9906868
000250 cf 72 ea 3e 6a 65 d6 3f 2a 09 ae bf 3e 57 fa 3f
       0.45790717 1.6749699 -1.3596547 1.9557874
000260 ce e9 c8 bf 54 81 1a 40 9c 7a cb be 76 c6 8d bf
       -1.5696352 2.4141436 -0.3974198 -1.107619
000270 6f d5 08 c0 f8 06 a2 3f 81 ff 16 3f 9c ee 38 be
       -2.138027 1.2658377 0.5898362 -0.18059772
000280 14 5c aa 3e 2c 4e af 3f 1b 63 71 c0 24 5c 45 c0
       0.33273375 1.3695731 -3.771674 -3.0837488
000290 1a 18 98 bf c8 b0 50 3f ce 3e ce 3f b5 b5 36 bf
       -1.1882355 0.81519747 1.6112916 -0.7137101
0002a0 bf 91 51 3f 3c 0a 4b bf 1a 5c cd 3e 58 62 21 c0
       0.81863016 -0.7931249 0.4010933 -2.5216274
0002b0 e4 32 88 3f 67 21 05 c0 59 e0 1b bf 3e 5a 80 bf
       1.064053 -2.0801637 -0.608892 -1.002754
0002c0 cc a1 54 be ef 98 26 3f 87 e3 8e bf 22 cf 6d bf
       -0.20764846 0.6507711 -1.1163186 -0.92894185
0002d0 67 62 6d bf 69 37 9a 3f 86 c2 f0 3f b0 ea e7 3f
       -0.92728275 1.204816 1.8809364 1.8118496
0002e0 38 57 e4 3f 2e 2f 39 c0 4f 26 51 40 70 d6 23 40
       1.7839117 -2.8935046 3.2679632 2.5599632
0002f0 28 fb 93 3f 54 89 36 c0 0a 7b c3 bf 6d fa 02 40
       1.1561022 -2.8521318 -1.5271924 2.0465348
000300 da 78 9e bf d3 ae 2a bf 6f 33 c6 3f ca 01 c0 3f
       -1.2380631 -0.6667301 1.5484446 1.5000546
000310 a0 65 0b 40 e8 40 21 40 d9 d6 1b c0 cc 63 cd 3e
       2.1780777 2.5195866 -2.4349883 0.401152
000320 3e ed 63 c0 0a 80 25 bf fe 65 ec bf 79 5e 70 bd
       -3.561355 -0.646485 -1.8468626 -0.058683846
000330 3c 16 04 40 d2 8e fa bf 46 0c 26 bf 90 1b 47 40
       2.063857 -1.9574835 -0.6486248 3.1110573
000340 94 bf ed be 1e 1a b1 3e 78 50 12 bf e2 51 3f c0
       -0.46435225 0.34590238 -0.57154036 -2.9893727
000350 ce 82 85 3f 30 6d e1 bf 44 6f 9c bf 01 83 8c bf
       1.0430543 -1.7611446 -1.2221456 -1.0977479
000360 22 b6 68 40 8b 3e 72 bf 95 2a 57 40 6d fa 19 bf
       3.6361165 -0.94626683 3.361974 -0.60147744
000370 67 0d 04 40 5f 2f 71 c0 39 ca 45 3f 4b 7b 0a c0
       2.063318 -3.7685163 0.7726169 -2.1637752
000380 0f 28 6d bf 06 d0 0f c0 8f f3 e0 bf 22 62 8a 3f
       -0.9263925 -2.2470717 -1.7574328 1.0811198
000390 2b 73 8d bf 6f f3 06 bf c6 0b fe 3f 87 6f c1 3f
       -1.1050771 -0.527152 1.9847343 1.511216
0003a0 50 61 03 c0 4f a7 94 bf ec 47 cb 3f 43 5b 57 bf
       -2.0528145 -1.1613559 1.5881324 -0.8412363
0003b0 69 be 1f 40 7f 08 36 bf f4 c0 a5 bf 86 83 08 bf
       2.4959967 -0.71106714 -1.294951 -0.5332569
0003c0 aa eb 5c bf 32 5f 9a 3f 21 57 39 c0 93 02 15 40
       -0.86297095 1.2060301 -2.895943 2.328282
0003d0 26 50 d5 3f a7 be 0f c0 19 95 0f c0 a2 3d f1 bf
       1.6665084 -2.2460115 -2.2434752 -1.8846934
0003e0 4e 4d ca bf 49 7f 78 bf bc df 32 40 a4 0c 66 bf
       -1.5804842 -0.9706922 2.7949057 -0.8986304
0003f0 e0 a7 68 3f 09 60 c0 3f 9e 60 cf 3f 80 cb be 3f
       0.90881157 1.5029308 1.620136 1.4905853

actor.0.weight f4 [256, 42]
000000 7f f5 83 be 89 a0 e8 3e ba f5 0d bf 8a 3a a5 3f
       -0.25773236 0.4543498 -0.55453074 1.290849
000010 c7 de fc 3e 1a e9 45 c0 6b ed 4c bf 55 53 33 be
       0.49388716 -3.0923524 -0.8004977 -0.17512257
000020 85 11 63 3f a9 5b 98 bb 4f c7 2f 40 ca 80 8e 3f
       0.8869861 -0.0046495986 2.7465398 1.1133053
000030 a2 15 61 3d 26 7d 8b 3e b1 38 88 bd 6e e7 1d 3f
       0.05495227 0.27243918 -0.06651438 0.6168126
000040 ad 29 2c 3f 93 2b 3c 3e 2c 98 48 bd d9 11 0e 3e
       0.6725109 0.18375997 -0.048973247 0.13873996
000050 a1 59 62 c0 7a 3f e0 bf 8c eb 84 3e 2f 2e 92 3f
       -3.5367205 -1.7519372 0.25960958 1.1420344
000060 51 69 55 bf fd c0 41 bf b3 28 33 bf 73 54 98 3e
       -0.83363825 -0.756851 -0.6998398 0.2975193
000070 db 53 97 be 39 a3 9d 3f 7a 42 1e 3f 8a 92 bf 3f
       -0.29556164 1.2315437 0.61820185 1.4966595
000080 4c e3 99 bd 28 d3 2a be a0 a7 46 bd 70 1c 88 bc
       -0.075140566 -0.16682112 -0.048499703 -0.016615123
000090 f5 75 6f 3e 35 61 83 3e 56 9a 1c bf e6 93 67 bf
       0.23384841 0.256601 -0.61173 -0.9046005
0000a0 f0 7c 68 bf f3 aa ee 3f aa ea e6 3d 9c 51 44 3f
       -0.9081564 1.864592 0.11275227 0.76687026
0000b0 1c eb b8 3e 03 7a a9 bf 71 01 20 3f 95 51 b6 bd
       0.36116874 -1.324036 0.625022 -0.08902279
0000c0 0a 36 b6 be f7 99 b9 3d 1c d0 55 bf 13 03 67 be
       -0.35588104 0.090625696 -0.83520675 -0.22559766
0000d0 04 ad a6 40 37 01 a2 3f a2 7d a1 3d cc aa 77 bd
       5.20862 1.2656621 0.07885291 -0.06046562
0000e0 cd 42 21 3f d5 a6 70 3f 73 8a 14 3f 9f e8 04 bc
       0.62992555 0.94004565 0.58023757 -0.008112102
0000f0 0a f5 87 3e 4a 49 c3 3e 3c 07 8c bf da 8d b9 bf
       0.26554137 0.38141853 -1.0939708 -1.4496415
000100 1b 8d 6b 3e 71 1d 8d bf 9e e0 3f bf 67 ac 39 3d
       0.23003046 -1.102461 -0.74952114 0.04533043
000110 71 f2 10 bf ae 4c 9f 3e bc 43 49 be 83 03 3c bf
       -0.56619936 0.3111319 -0.19654745 -0.7344286
000120 69 6c 95 bf b6 a2 0f c0 65 89 2a 3e 4f 90 54 be
       -1.1673709 -2.244306 0.16653974 -0.20758174
000130 63 ea 25 bd e3 52 12 3e 60 89 8a 3d 88 08 0c bc
       -0.04050673 0.14289431 0.067644835 -0.008546956
000140 ce 96 d2 3f ab 53 8a 3e 4d 3e dd be 82 5b 1b 3f
       1.6452272 0.2701696 -0.43211594 0.60686505
000150 de 53 76 bf 90 96 21 c0 63 3e 17 3f 31 fd da 3e
       -0.9622172 -2.5248146 0.5907957 0.42771295
000160 2d 19 95 be 22 43 88 3f 82 1e 2e 3f 36 7b 27 3d
       -0.2912077 1.0645487 0.680153 0.040888987
000170 0a 02 3e 3f 44 29 19 bf a6 a9 1c 3f 4f c6 33 3f
       0.7422186 -0.5982859 0.6119636 0.7022447
000180 0b c5 75 3e d1 c7 82 3d 5a 00 ed 3e 1d ec b0 3f
       0.24000947 0.06385768 0.4628933 1.3822056
000190 ce 75 7b 3f 0d f9 c8 3d dc 1b 99 be 4b 5c 7a bf
       0.9822663 0.09813128 -0.29904068 -0.9779708
0001a0 58 c5 2b c0 af f0 07 c0 9a 14 1d be 90 ee b7 3d
       -2.68392 -2.1240652 -0.1533989 0.08981049
0001b0 b9 89 5a bf b4 5d 6b 3f 3c e1 85 40 05 6a 59 bf
       -0.853664 0.91939855 4.1837444 -0.849274
0001c0 ac 8e 8b 3c 18 11 49 3f 3d 61 c6 be 49 86 28 bf
       0.017035805 0.7854171 -0.38746062 -0.658299
0001d0 b3 b1 03 be 2b f6 52 3f e2 21 49 bf fe 45 17 be
       -0.12860756 0.8240687 -0.78567326 -0.14772794
0001e0 7c 1e c3 be eb ad 9d bc 00 ad bb 3e 38 65 cf 3e
       -0.38109195 -0.01924797 0.36655426 0.4050691
0001f0 9b b2 06 bf 8f 52 ab be 1f 49 f6 be 4a 71 17 c0
       -0.5261628 -0.33461425 -0.48102662 -2.3662896
000200 59 1d 08 3f a1 ab c0 3e 77 87 9b bf 42 18 2a c0
       0.5316978 0.37630942 -1.2150716 -2.6577306
000210 0e 36 36 bf 9d e4 db 3e ca 1a 22 3f d4 49 a5 be
       -0.7117623 0.42947856 0.63322127 -0.3228289
000220 b2 82 5f c0 a3 3a bf bf 77 bd 6f 3e 60 0b 53 3e
       -3.492352 -1.493977 0.23412119 0.20609808
000230 5c 75 ac 3d ca 16 5d be 23 7d 93 be 78 c2 70 3e
       0.08420822 -0.21590725 -0.2880641 0.23511684
000240 d7 6a f3 bd 67 53 5e be 73 e6 a0 3f 94 57 44 3f
       -0.118856125 -0.21711503 1.2570328 0.76696134
000250 f7 b9 b9 3c 62 49 16 3f 89 62 0c bf 39 3a 47 3f
       0.022671683 0.58705723 -0.5483785 0.77823216
000260 6c 5f f6 3f 2e f3 f9 be 8d 2a a2 bd 5d 1f 34 40
       1.924787 -0.48818344 -0.07918272 2.8144143
000270 f1 39 0c 3d 3f 43 c4 3c 2a 9b c6 3d 02 18 da 3e
       0.034234945 0.023957847 0.09697564 0.42596442
000280 46 87 1f 3c 52 2a a5 bd 1c f6 2d be 50 76 80 3e
       0.009736842 -0.080647126 -0.16988415 0.25090265
000290 94 23 c3 be bf c4 f1 bc e5 5a 0f 3f 2f 7c 03 3e
       -0.3811308 -0.029512761 0.5599807 0.12840341
0002a0 43 2f 64 bf be 5c 78 be 60 f1 c7 be 13 8f af be
       -0.89134616 -0.24254128 -0.39051342 -0.34288844
0002b0 89 89 2c bd 5d 89 37 bf 63 ad 18 3e 39 06 11 bf
       -0.04212335 -0.71693975 0.14909892 -0.5665012
0002c0 34 52 76 be 11 69 7d 3e 90 b5 49 3f e3 d2 69 3f
       -0.24054796 0.24747111 0.7879267 0.9133741
0002d0 f2 69 1a bf 34 22 f1 be b1 8a 87 be 83 f6 62 bf
       -0.6031791 -0.47096407 -0.26473 -0.886574
0002e0 78 fc d0 3e 48 da 02 bf 92 db 21 bf f4 52 93 be
       0.40817618 -0.5111432 -0.6322566 -0.28774226
0002f0 57 74 14 be 06 78 96 3f 0d 89 e2 be 3e 9f 4c be
       -0.14497505 1.1755378 -0.44245186 -0.19982621
000300 34 64 49 3e be 27 c4 be a3 60 40 3e bd b4 3b bf
       0.1966713 -0.3831157 0.18786864 -0.7332266
000310 a0 c3 c9 3e 78 89 0e bf f5 94 d4 be 86 d7 86 3f
       0.39407063 -0.5567851 -0.41519895 1.0534523
000320 0a c3 41 bf d9 26 2c 3f 09 19 e8 3d 7b a7 f5 bd
       -0.7568823 0.67246777 0.113329 -0.11994835
000330 cd 69 13 bf 65 af 12 bf 59 0c 10 be 30 47 11 bf
       -0.57583314 -0.5729888 -0.1406721 -0.5674925
000340 b0 43 82 3e f5 47 23 3f 89 a9 67 bf 38 1e 99 bf
       0.25442266 0.6378167 -0.90493065 -1.1962347
000350 ef 7e 48 3e 60 40 94 3e 50 05 86 3d 4d d3 4d 3f
       0.19579671 0.28955364 0.06543982 0.80400544
000360 86 df 3e 3f 79 c8 c4 ba a3 cd b5 3d f4 69 44 be
       0.7455982 -0.0015013359 0.08877113 -0.19181043
000370 02 51 b4 3f 7d c3 43 3f 28 2d 1b be b0 60 8c be
       1.4087222 0.76470166 -0.15153944 -0.27417517
000380 61 18 79 3e eb fa e0 3f 35 b8 94 3f 74 2e 5c 3d
       0.24325706 1.7576574 1.1618716 0.05375524
000390 35 d8 c8 be 92 a7 2a 3e 0d 58 c5 be d4 2e d3 be
       -0.39227453 0.16665486 -0.3854374 -0.41246665
0003a0 9c 95 41 be ce c3 8e 3e 89 d1 00 3f 92 82 ca be
       -0.18904728 0.27883762 0.50319725 -0.39552742
0003b0 cb f9 d6 3d 45 0b b5 be 03 33 6f 3d dd 97 51 bf
       0.10496863 -0.3536016 0.058398258 -0.8187235
0003c0 b2 08 29 bd f7 ea d0 3f 71 05 a1 be 7a e4 c1 3e
       -0.041268058 1.6321706 -0.31449464 0.37869626
0003d0 a0 e7 8d be 00 69 e2 bd 70 b9 b2 be 4c 35 03 be
       -0.27715778 -0.110551834 -0.34907103 -0.128133
0003e0 e5 62 1f 3e 0a 5a ec be 17 5e ac 3f 00 25 5a 3f
       0.15565069 -0.46162444 1.3466214 0.8521271
0003f0 d6 eb 55 be 19 63 c4 bf a7 38 9e 3d e3 02 17 3f
       -0.20890746 -1.5342742 0.07725649 0.5898878

actor.0.bias f4 [256]
000000 05 74 13 bd 98 b7 c5 3d b8 8a a8 bc 4c df 86 3d
       -0.035999317 0.09654158 -0.020573959 0.06585559
000010 2c 13 3a bf bc 2a 50 be f3 71 52 be 06 10 81 3c
       -0.72685504 -0.20328802 -0.2055128 0.01575471
000020 2b fc a3 b9 7d ce e8 3e 92 cf 56 3e 19 33 ea be
       -0.00031277662 0.45470038 0.2097762 -0.4574211
000030 40 24 02 3f af 63 4e bd ea a1 ba 3e 02 11 36 3e
       0.50836563 -0.050388034 0.36451656 0.17779925
000040 19 30 02 be 02 68 b4 3e 23 95 69 3e b9 bf 59 3c
       -0.1271366 0.35235602 0.22810797 0.013290339
000050 c3 5d 3c 3f 98 33 23 bc cb bf e2 3c 6c dc 85 3d
       0.7358057 -0.009961031 0.027679345 0.06536183
000060 64 38 3e 3f 6d b0 1d 3d 43 3c 33 3e fe 35 aa 3e
       0.74304795 0.03849833 0.17503457 0.33244318
000070 cb df b7 3d 1f a8 a0 be eb 89 23 3e ea 93 30 be
       0.08978232 -0.31378266 0.1597058 -0.17243925
000080 61 c5 7c 3e e3 87 a8 be 97 be bb bc 64 a3 a9 3e
       0.24684669 -0.32916173 -0.022918029 0.3313247
000090 e6 c0 85 3d 57 96 78 3e f3 64 82 be 21 92 50 3e
       0.06530933 0.242761 -0.25467643 0.20368244
0000a0 24 f5 c5 be 3e 52 5f be ec ac 9b be ad b4 56 3b
       -0.3866359 -0.21808717 -0.30405366 0.00327615
0000b0 74 ca 05 3c 8d 26 4d 3e cc 81 b3 3c 95 bd 38 3e
       0.008165944 0.20034237 0.021912478 0.1804107
0000c0 f1 47 a7 be c3 94 01 bf 96 24 23 bf 70 48 e8 3d
       -0.32672074 -0.5061762 -0.637277 0.11341941
0000d0 26 17 fa bc 4a fe 35 be 9d 2b c5 3d fb 63 99 3e
       -0.030528616 -0.17772785 0.09627459 0.29959092
0000e0 ee 73 9b be 30 d1 64 3d df 0c 63 3e d3 9d ff bd
       -0.30361885 0.05586356 0.22172879 -0.124812745
0000f0 86 1f cb 3e 82 43 a9 bd 4e bc ad 3e 39 5f 4f 3d
       0.39672488 -0.08264829 0.33932728 0.05062792
000100 fb 5f 10 be 1a f7 72 3e 77 67 55 be 0b 43 39 3e
       -0.14099114 0.23727074 -0.2084025 0.18091981
000110 28 b6 8f 3d 9e 69 16 3e d5 ad a6 3e 89 f4 45 3e
       0.070171654 0.14688727 0.32554498 0.19331564
000120 5b b6 cb be 34 b9 b5 3d b7 1b 1f bf 54 ea a3 be
       -0.39787564 0.08873215 -0.62151664 -0.32014716
000130 c3 ad cd be 51 d7 3e bd cc 4f fd 3b fc 8c 93 3e
       -0.40171632 -0.04659206 0.00773046 0.288185
000140 95 86 1d 3e d7 c4 3f 3e c7 07 9e 3e 41 84 a6 3e
       0.1538337 0.18727432 0.3086531 0.32522777
000150 d4 00 92 be 0d b5 5c be ca 55 91 be 53 cb 32 bd
       -0.28516257 -0.2155344 -0.28385764 -0.043650936
000160 be de e3 3c 3c 3e 9c be 42 55 ee 3d 1b 76 b8 3d
       0.027816173 -0.3051623 0.116373554 0.09006902
000170 e2 6d 6d be a1 57 21 bc 5a 44 f3 3d 68 90 0b 3e
       -0.23186448 -0.0098475525 0.118782714 0.13629305
000180 5a 9a dc 3e 0c 72 fd bd 09 60 7e be 40 c2 da 3e
       0.4308651 -0.12375268 -0.24841322 0.42726326
000190 8d 94 e3 3d 99 ee b2 3e 1a 29 6d be 96 cd 89 3e
       0.11112318 0.3494766 -0.2316021 0.26914662
0001a0 d4 79 6d be a1 ba c2 be 2b d5 af 3d 12 c6 7e be
       -0.23191005 -0.38033012 0.085855804 -0.24880245
0001b0 05 7f e1 be aa 7a 8c 3d b2 10 22 be b8 15 93 bd
       -0.4404222 0.06859334 -0.15826681 -0.07181877
0001c0 9e a2 a0 be 26 87 c8 3e 2c 02 d1 be 17 dd fe 3d
       -0.31374067 0.3916561 -0.4082197 0.12444513
0001d0 9b 54 8a 3e ae 14 03 be cd bd 84 be 75 f2 9a 3c
       0.27017674 -0.12800857 -0.25926057 0.01891444
0001e0 37 80 be 3e 8a 0f 40 3e e9 f2 5e 3d 38 ed 48 bf
       0.37207195 0.18755928 0.054430876 -0.7848697
0001f0 e6 7a 30 3e c9 8c 6d bd 12 e5 81 3d eb 28 ca be
       0.17234382 -0.05799559 0.0634252 -0.39484343
000200 0c 14 d6 3d 18 f8 80 bd a0 ba a1 3e cb 31 7c 3d
       0.104530424 -0.0629732 0.31587696 0.061570924
000210 cc b4 b1 bd cc fa 96 3e 69 80 86 3e 83 c2 a2 3e
       -0.086770624 0.29488218 0.26269844 0.31789026
000220 1c d9 7b be 39 1d 3a 3e 48 3f 5c 3e d1 e5 94 3e
       -0.2459454 0.1817521 0.21508515 0.29081586
000230 16 9b 9e bd 78 44 87 be 88 2d 60 be 36 03 b5 3e
       -0.07744424 -0.26419425 -0.21892369 0.35354012
000240 c9 66 08 3d b0 8f 6b bc 07 61 54 be 18 36 01 3c
       0.03330115 -0.0143775195 -0.20740138 0.007886432
000250 13 85 64 3d af 15 a2 3e 73 3c f5 3b e9 d4 ff 3d
       0.055790972 0.31657168 0.0074840127 0.12491781
000260 6e 35 24 3d 13 bf a6 be 4f 1d 8a 3e 85 81 bb bd
       0.040090017 -0.32567653 0.26975486 -0.09155563
000270 1d cf 07 3d 91 9b 26 bd 60 d7 b1 be 7b dd 2a 3e
       0.033156503 -0.040675703 -0.3473463 0.1668605
000280 61 be d2 be 93 37 80 3e f0 7a 07 be 19 a0 8c 3d
       -0.41160873 0.250424 -0.1323049 0.06866474
000290 fe 48 0b 3e f8 5e 40 3e 8d 54 93 3e 5d 6d 8e 3e
       0.13602063 0.18786228 0.28775445 0.27817813
0002a0 a3 ea ef 3d 1e 82 aa 3c db 01 96 3e e6 04 0e 3e
       0.11714675 0.020813998 0.2929829 0.13869056
0002b0 21 50 99 bd 08 3d ae bd 46 8e 54 3d a9 48 1e bf
       -0.074859865 -0.085077345 0.051893495 -0.6182962
0002c0 9a d2 cf 3c 9e 92 00 3f fc 31 88 3e 4d b9 2d 3e
       0.025368977 0.5022372 0.26600635 0.16965218
0002d0 d4 ff b6 be ec 6b 27 3e 01 30 a1 be ad f2 e3 3e
       -0.35742056 0.16349763 -0.31481937 0.44521084
0002e0 fc 6f 20 3e 6f d6 99 bb 27 52 71 be f1 01 dd 3d
       0.15667719 -0.004694752 -0.23566495 0.10791386
0002f0 ff a2 5e bd a1 73 36 be 15 ad a1 be 6f 20 8d be
       -0.054354664 -0.17817546 -0.31577364 -0.27563807
000300 6e 70 c7 3d b4 20 9b bd 82 b7 53 bd c9 da a2 bd
       0.09738241 -0.07574597 -0.05168868 -0.07951886
000310 6e 1f e7 3c e0 84 5f be 1c b5 5a 3e 51 58 61 bd
       0.028213229 -0.21828032 0.2135815 -0.055015866
000320 b8 0a a1 be 4e ee 1d be 84 9c e9 3d 9f e6 26 be
       -0.3145349 -0.15422937 0.11406806 -0.16298912
000330 e1 6a a8 bd 72 86 18 3e 4d d2 81 3e a0 a5 b0 bc
       -0.082235105 0.14895037 0.2535576 -0.021563351
000340 e2 f7 15 be 4e fc 01 be 7b 9a 96 3e 17 59 0f 3e
       -0.14645341 -0.12693903 0.29414734 0.13998829
000350 e7 3d bd 3d de 6b 0a 3d 8e f6 17 bf 8e d0 96 3e
       0.092403226 0.033794276 -0.5936059 0.2945599
000360 65 66 94 bd 4c 80 0e be cc 77 04 bf 35 26 90 3e
       -0.07246093 -0.13916129 -0.51745296 0.2815415
000370 1a 2e 59 3e 1a ac fe 3d 6b a6 e9 3c b5 d8 35 be
       0.21208993 0.124351695 0.028521737 -0.17758448
000380 a7 7f 5a be 38 47 16 3e 6f b8 0a be 85 3d 95 bd
       -0.21337758 0.14675605 -0.13546918 -0.072871245
000390 c6 74 37 be 74 69 4f 3e 55 bc f8 3d 40 65 74 3e
       -0.1791564 0.20255071 0.121452965 0.23866749
0003a0 8f 7c d5 bd 06 4e b2 be 81 1e a1 3d 61 ad 2c bd
       -0.10424148 -0.34825152 0.07867146 -0.042157535
0003b0 3b 68 5a 3d 6c 01 11 bf 28 1d 0b be 17 f0 20 be
       0.05332206 -0.56642795 -0.13585341 -0.15716587
0003c0 e9 77 d9 be b2 2f b9 bd 3f 12 12 3f 06 9b 90 bd
       -0.42474297 -0.090423 0.5705909 -0.070608184
0003d0 83 17 d6 3d 28 d0 06 3a 98 45 de 3e 59 47 1e be
       0.10453703 0.0005142712 0.4341247 -0.15456904
0003e0 57 c9 8c 3e b1 3c 9a 3d f6 12 e1 be e7 46 f3 bd
       0.2749736 0.07531107 -0.4395978 -0.11878758
0003f0 bb 7d 50 be 30 91 11 3d 05 2f 2b be df 4a 07 bf
       -0.20360462 0.035538852 -0.16717155 -0.5284862
