models/ho_policy_ep3000.pth (torch, 628226 bytes, 11 tensors)

critic.0.weight f4 [256, 42]
0	0xbd8e8862	-0.06959607
1	0xbdef206c	-0.11676106
2	0x3ec6b394	0.38808882
3	0x3ea0955e	0.31363958
4	0x3e51896f	0.20462583
5	0xbea2438a	-0.31692153
6	0x3e4487f7	0.19192491
7	0xbeb6d327	-0.3570797
8	0x3f666dbe	0.90011203
9	0x3f171107	0.59010357
10	0xbe487241	-0.19574834
11	0xbdd65da9	-0.10467083
12	0xbaebd6d6	-0.0017993103
13	0x3e04f57c	0.1298427
14	0xbf139963	-0.57655925
15	0x3ec3f1b8	0.38270354
16	0x3ee2fb43	0.44332322
17	0x3e6dd9ad	0.23227568
18	0xbea0946a	-0.3136323
19	0xbf39e611	-0.7261668
20	0xbe18055f	-0.14845799
21	0xbc004317	-0.007828495
22	0x3ece2f92	0.40270668
23	0xbe3c884e	-0.18411371
24	0xbfc7c3c7	-1.5606622
25	0xbedfe855	-0.43731943
26	0xbdc0cb10	-0.09413731
27	0xbfa3f673	-1.2809585
28	0xbe9fbb4e	-0.3119759
29	0xbf860fb4	-1.0473542
30	0x3e5700f5	0.20996459
31	0x3f16fa93	0.58976096
32	0xbf464205	-0.7744449
33	0x3fcdcfbb	1.6079019
34	0xbf0900dd	-0.5351694
35	0xbdfa6f56	-0.12228267
36	0xbdf31b27	-0.11870413
37	0xbd9eebca	-0.07759817
38	0xbea6133c	-0.3243655
39	0xbf00b5a9	-0.5027719
40	0xbf4a3688	-0.7898946
41	0x3efd14eb	0.49430022
42	0xbef9fd93	-0.48826274
43	0xbf64ff8e	-0.89452446
44	0xbf56ace0	-0.83857536
45	0xbe0c8380	-0.13722038
46	0x3c9dc148	0.019257203
47	0xbedb7b72	-0.4286762
48	0x3dfcefe7	0.12350445
49	0xbeeb2998	-0.4593017
50	0xbf8bf53e	-1.0934217
51	0x3d41680b	0.047218364
52	0xbf13a4e8	-0.576735
53	0x3e84bcd9	0.2592533
54	0xbef09328	-0.4698727
55	0x3e840c1f	0.25790498
56	0x3e99971d	0.29998103
57	0xbf2f6905	-0.6851962
58	0xbd36aa88	-0.044596225
59	0xbe0d228f	-0.13782714
60	0x3e968e6d	0.29405537
61	0xbf40aaa8	-0.752604
62	0xbede12b0	-0.43373632
63	0x3e0ee6eb	0.13955276
64	0x3f219eee	0.6313313
65	0xbd82f2a4	-0.06393936
66	0xbaaa0c00	-0.0012973547
67	0xbdaa2917	-0.083086185
68	0x3ee282b1	0.44240335
69	0x3f668e36	0.90060747
70	0xbe883e3a	-0.26609975
71	0xbf4a4437	-0.7901034
72	0xbe2836c9	-0.16427149
73	0xbda87bde	-0.08226751
74	0xbe9caea8	-0.30602002
75	0xbf2f97e1	-0.68591124
76	0xbe5e2137	-0.21692358
77	0x3c8a68a8	0.016895607
78	0xbd6a2212	-0.0571614
79	0x3e95f584	0.29288876
80	0x3f368c77	0.7130808
81	0xbf6b33dc	-0.91876006
82	0xbfa094c1	-1.2545396
83	0x3f4c05b1	0.79696184
84	0xbe08455b	-0.13307707
85	0xbedbca07	-0.42927572
86	0xbee36c93	-0.44418773
87	0x3e8ce427	0.27517816
88	0x3eaa8cef	0.3331065
89	0xbf5a7830	-0.8533964
90	0xbd657c92	-0.056027003
91	0xbec881b3	-0.39161453
92	0x3f9f9197	1.2466305
93	0xbedb87fa	-0.4287718
94	0xbd7b38e5	-0.061333556
95	0x3e73e80f	0.23818992
96	0xbdb39a74	-0.08769694
97	0x3edd508a	0.4322551
98	0x3ed80350	0.42190027
99	0xbdc8406b	-0.09777912
100	0x3e5fe8fd	0.21866222
101	0x3eed328b	0.46327624
102	0x3dacfaca	0.08446272
103	0xbeccd6d0	-0.4000764
104	0x3e621406	0.22077951
105	0x3e0a9b85	0.13535888
106	0x3f266e35	0.6501191
107	0xbe89b760	-0.26897717
108	0xbebd8ebe	-0.37022966
109	0xbdd61524	-0.10453251
110	0x3e883126	0.26599997
111	0xbf0d4d86	-0.55196416
112	0xbf49336b	-0.7859408
113	0xbfa9ba3b	-1.3259958
114	0xbdd49d6c	-0.10381588
115	0x3d9264fc	0.071481675
116	0xbf63ea8f	-0.89029783
117	0x3ef35227	0.47523615
118	0xbf138d5e	-0.57637584
119	0xbc13c820	-0.0090198815
120	0xbd005e95	-0.0313402
121	0x3cee76ce	0.029109385
122	0xbe911ea6	-0.28343695
123	0xbd6ff8c5	-0.058586854
124	0xbd7d0586	-0.061772846
125	0xbdd31e0e	-0.10308467
126	0x3e9c7ca3	0.3056384
127	0x3e91a00b	0.28442416
128	0x3f457500	0.7713165
129	0xbf2ceb25	-0.675463
130	0x3cb85704	0.02250243
131	0x3eb4f50d	0.3534321
132	0x3e2ecb29	0.17069687
133	0x3e64da9e	0.22349021
134	0x3f19d31e	0.60087764
135	0xbe7e02bb	-0.24805729
136	0x3e7af4ca	0.24507442
137	0xbe16f53e	-0.1474199
138	0x3ea6107e	0.32434458
139	0xbe2dbc82	-0.16966441
140	0x3f514542	0.81746304
141	0x3dae379d	0.08506701
142	0x3e35b147	0.17743407
143	0x3e81e787	0.25371954
144	0xbea2245a	-0.3166836
145	0xbee00f08	-0.43761468
146	0x3ecd368d	0.4008068
147	0xbdb6de88	-0.08929163
148	0x3d905532	0.070475
149	0xbf1079f0	-0.5643606
150	0xbed8aca5	-0.42319217
151	0xbe3c2474	-0.18373281
152	0xbe50d2cf	-0.20392917
153	0xbfbca6f7	-1.4738454
154	0x3c2fa9bc	0.01072162
155	0x3e0c3708	0.13692868
156	0x3e13f9a1	0.14450695
157	0xbd58d58b	-0.052938025
158	0xbdb366f7	-0.08759873
159	0x3fce9a5a	1.6140854
160	0x3f140325	0.578173
161	0x3dc3588e	0.09538375
162	0xbe56d471	-0.20979477
163	0xbbd7d87a	-0.0065870853
164	0xbdde3ea4	-0.108517915
165	0xbe7c4144	-0.24634272
166	0x3f7e8251	0.994176
167	0xbec77a99	-0.38960722
168	0xbd9646fc	-0.07337758
169	0xbd553e20	-0.0520612
170	0xbdbba318	-0.09161967
171	0x3f77fe66	0.96872556
172	0x3e59334d	0.21210976
173	0xbdee1603	-0.11625292
174	0xbcac465b	-0.021029642
175	0xbebd8b93	-0.3702055
176	0x3f3d5c04	0.7396853
177	0xbd4d3e7c	-0.050108418
178	0x3e1fb2ca	0.15595546
179	0x3e05570f	0.13021491
180	0xbc5f5248	-0.013630457
181	0x3e888583	0.2666436
182	0xbe9e3200	-0.30897522
183	0x3da1323d	0.0787091
184	0xbd2ebb33	-0.042658996
185	0x3edf3f38	0.4360292
186	0x3e016d8e	0.12639448
187	0xbebe65c5	-0.3718702
188	0xbe53540b	-0.20637529
189	0x3e02f2f7	0.12787996
190	0x3f7cda7d	0.98770887
191	0x3eb3b042	0.35095412
192	0xbe1f6d88	-0.15569127
193	0x3e4bd982	0.19907191
194	0x3e29ce59	0.16582622
195	0xbe830fa2	-0.25597864
196	0xbf650c0a	-0.89471495
197	0xbea56011	-0.32299855
198	0x3e3e2b8e	0.18571302
199	0xbc9c4362	-0.0190751
200	0xbf6794e6	-0.90461576
201	0x3e4be59a	0.19911805
202	0xbd745807	-0.059654262
203	0x3dc7e29e	0.09760021
204	0x3d9c6319	0.07636089
205	0xbd6baf0e	-0.057539992
206	0xbe40bb8f	-0.18821548
207	0x3e39aa60	0.18131399
208	0xbf73cb2f	-0.9523191
209	0x3eb2536e	0.34829277
210	0x3e86624e	0.26246876
211	0xbe8c609d	-0.2741746
212	0x3f82baa9	1.0213214
213	0x3e26f40e	0.16304037
214	0xbdb954f3	-0.09049406
215	0xbf4db7ec	-0.8035877
216	0xbe2a86d4	-0.16652995
217	0x3ebd1240	0.36927986
218	0x4008fb49	2.1403372
219	0xbec88baa	-0.39169055
220	0xbeadfa47	-0.3398001
221	0xbefc62e2	-0.49294192
222	0x3f23a71b	0.6392686
223	0x3e06a641	0.13149358
224	0xbea06915	-0.3133017
225	0x3e117a1a	0.14206734
226	0xbe612797	-0.21987759
227	0x3e804d74	0.25059092
228	0xbdbb8ebc	-0.09158084
229	0xbcfdbe5d	-0.030974561
230	0xbf127782	-0.57213604
231	0xbe5e7511	-0.21724345
232	0xbe81f028	-0.25378537
233	0x3f226b18	0.6344466
234	0x3fc3456e	1.5255563
235	0x3e68d408	0.22737134
236	0x3f104b26	0.5636467
237	0xbf12ab66	-0.57292783
238	0x3dd642d1	0.10461963
239	0xbf7716ac	-0.9651897
240	0xbf19a461	-0.6001645
241	0xbf981d4d	-1.1883942
242	0x3def26c2	0.11677314
243	0x3ef038ce	0.4691834
244	0x3eca97fd	0.39569083
245	0x3dd91796	0.10600202
246	0x3d37be06	0.044858955
247	0xbf3f7b70	-0.74797726
248	0x3e86c0e2	0.26319033
249	0x3eee7e9e	0.46580976
250	0x3fc3cc64	1.529675
251	0xbf19da21	-0.60098463
252	0xbeee806c	-0.46582353
253	0xbed44bc2	-0.4146405
254	0xbea9b900	-0.33148956
255	0x3ad974fe	0.0016590653

critic.0.bias f4 [256]
0	0xbe85c67d	-0.26127997
1	0xbda34fad	-0.07974181
2	0x3c9ec291	0.019379886
3	0xbc887a6e	-0.016659942
4	0xbe448f6f	-0.1919534
5	0x3e64f90c	0.22360629
6	0x3e3440a3	0.17602782
7	0xbe2ae68f	-0.16689514
8	0xbe45d5fc	-0.1931991
9	0x3ebb4813	0.36578426
10	0xbe12dfa1	-0.1434312
11	0xbe7f7c31	-0.24949719
12	0x3e831b7f	0.25606915
13	0xbd55f597	-0.052236166
14	0x3ddf2d0e	0.108972654
15	0xbe0240ab	-0.12719981
16	0xbe6d5cd9	-0.2317995
17	0xbd149c8f	-0.03628212
18	0xbe0e7d92	-0.13915089
19	0xbdc8d571	-0.09806336
20	0x3e218ff8	0.15777576
21	0xbdf5c35e	-0.12000154
22	0x3dc22d17	0.094812565
23	0xbdc032b8	-0.09384674
24	0xbbe9d1b2	-0.0071355933
25	0x3ea295f0	0.31755018
26	0x3e440cf7	0.1914557
27	0x3c193bf0	0.009352669
28	0x3e95cb39	0.2925661
29	0xbe171497	-0.14753948
30	0xbda874e0	-0.08225417
31	0xbcf8589f	-0.030315695
32	0x3db7c99d	0.089740016
33	0x3d4b7bd7	0.04967865
34	0xbcdb683c	-0.026783101
35	0x3e3fdc12	0.18736294
36	0xbd5455e4	-0.051839724
37	0x3d5218a5	0.051293034
38	0x3ea1168c	0.31462514
39	0xbea8d62c	-0.329759
40	0x3d4ed0d5	0.050492126
41	0xbc7afd87	-0.015319235
42	0x3e4b4c29	0.19853272
43	0xbe381199	-0.17975463
44	0x3c889da1	0.016676726
45	0x3e1fed91	0.15617968
46	0x3e3ea7e4	0.18618733
47	0x3d7c1f3f	0.061553236
48	0xbe17e642	-0.1483393
49	0x3e87ddd3	0.26536426
50	0x3e96cc23	0.2945262
51	0x3cd1c128	0.0256048
52	0x3e14dc6f	0.14537214
53	0xbdacf528	-0.08445197
54	0x3e9fbeff	0.31200406
55	0xbe4f3340	-0.20234394
56	0x3c87a7b3	0.016559457
57	0x3bc40d98	0.005983066
58	0xbe07f8db	-0.13278525
59	0xbea13ff5	-0.31494108
60	0x3e5d5b83	0.2161694
61	0xbe3cd2ab	-0.18439738
62	0xbe866530	-0.26249075
63	0xbe126e72	-0.14299944
64	0xbc9d6f9b	-0.019218257
65	0x3db4f4e7	0.08835774
66	0xbd089fff	-0.03335571
67	0x3d72e8d8	0.05930409
68	0x3e105614	0.14095336
69	0x3e50896b	0.20364921
70	0xbe9857b6	-0.29754418
71	0xbe942ebd	-0.28941908
72	0xbddc1fce	-0.10748254
73	0xbd971752	-0.07377495
74	0xbe34270e	-0.17593023
75	0x3e551957	0.20810448
76	0x3d545b8e	0.051845126
77	0x3c0ab639	0.008466297
78	0x3e29c66a	0.16579595
79	0x3e4a4508	0.19752896
80	0xbdc5155c	-0.096232146
81	0x3e588422	0.21144155
82	0xbe378bc4	-0.1792441
83	0xbcebe71f	-0.02879673
84	0xbe8301fc	-0.2558745
85	0xbda63b0b	-0.0811673
86	0xbdc1d99b	-0.09465333
87	0xbe506faf	-0.20355104
88	0xbd9ca5c0	-0.07648802
89	0xbd4516c2	-0.048117407
90	0x3e1e2f73	0.15447788
91	0x3d1bcf38	0.038039416
92	0xbbcae769	-0.006192137
93	0x3c87030d	0.016480947
94	0xbd63a8a7	-0.05558076
95	0xbdbeab56	-0.093100235
96	0x3d6f8af3	0.05848212
97	0x3dc3f247	0.09567695
98	0xbddf8b88	-0.10915285
99	0x3d939c64	0.072075635
100	0x3e36f7dd	0.1786799
101	0xbe09aff3	-0.13446026
102	0x3c5ff776	0.013669839
103	0x3e305429	0.17219605
104	0x3e2d1296	0.16901621
105	0xbe55bf9c	-0.20873874
106	0xbb56a226	-0.0032750457
107	0xbe619a42	-0.22031501
108	0x3d1783f0	0.03699106
109	0xbd3b4c96	-0.045727335
110	0x3e80eeee	0.2518229
111	0x3e0e771f	0.13912629
112	0xbec07838	-0.3759172
113	0xbf10c283	-0.565468
114	0xbdbbc7de	-0.09168981
115	0xbe32df83	-0.17468075
116	0xbd3e4d5d	-0.046460498
117	0x3e1a4702	0.1506615
118	0x3d553c3b	0.052059393
119	0x3d455c12	0.04818351
120	0xbe2cb967	-0.168676
121	0xbe47b6eb	-0.19503371
122	0xbd31dc38	-0.043422908
123	0x3e28ef5d	0.1649756
124	0xbdca8e6d	-0.09890447
125	0x3ea4ef1f	0.32213685
126	0x3dc0c45e	0.09412454
127	0xbe4d6c47	-0.20060836
128	0x3eda284b	0.42608866
129	0xbeb99a66	-0.3625061
130	0xbe19b040	-0.1500864
131	0xbe8330dd	-0.25623217
132	0xbe170684	-0.1474858
133	0xbd161fc4	-0.036651388
134	0xbe19fc35	-0.15037616
135	0x3d533a0f	0.05156904
136	0xbccb0960	-0.024784744
137	0xbe359d3a	-0.17735758
138	0xbe2f5d80	-0.17125511
139	0x3d330ad4	0.0437115
140	0x3df51de0	0.11968589
141	0xbe5faa2d	-0.2184226
142	0x3cda1025	0.026619026
143	0xbe84b71f	-0.2592096
144	0x3d2f4d35	0.04279824
145	0x3d8e0594	0.06934658
146	0x3e89e172	0.26929814
147	0x3e21dea4	0.15807587
148	0x3d5303d9	0.05151734
149	0x3da2a37d	0.07941339
150	0x3e26516f	0.16242002
151	0xbbf00033	-0.0073242425
152	0x3e57d801	0.21078493
153	0xbe93b6a4	-0.2885028
154	0x3e0507be	0.12991235
155	0xbd4b47c3	-0.049628984
156	0x3e0b245f	0.13588093
157	0xbe91e45c	-0.28494537
158	0x3d2f5bbd	0.042812098
159	0xbec9116c	-0.39271104
160	0xbdd09408	-0.10184485
161	0x3dcf8f2d	0.101347305
162	0x3d10d7cb	0.035362046
163	0x3d2ffba5	0.042964596
164	0xbdbdc0af	-0.09265267
165	0xbe032648	-0.12807572
166	0x3bdb9b03	0.0067018284
167	0xbc7da071	-0.015480147
168	0x3e9440c6	0.28955668
169	0xbe197061	-0.14984275
170	0xbdfd7b60	-0.123770475
171	0x3d1f5b6d	0.03890555
172	0xbe6d3be2	-0.23167375
173	0xbd1a1932	-0.037621684
174	0xbdbf454f	-0.093393914
175	0xbe6830a0	-0.22674799
176	0xbba64b56	-0.0050748987
177	0x3dfaef6d	0.12252698
178	0xbdd6ef01	-0.10494805
179	0x3e344881	0.17605783
180	0xbe867e33	-0.26268157
181	0x3e4ee19a	0.20203248
182	0xbe822af5	-0.254234
183	0xbe268b02	-0.16263965
184	0xbe9d6fce	-0.30749363
185	0x3e3239f4	0.1740492
186	0xbe8f50bc	-0.27991283
187	0x3ce2b697	0.027674956
188	0x3dfeda38	0.12443966
189	0xbdcb7b49	-0.09935624
190	0xbdab8f03	-0.08376887
191	0xbe0a773a	-0.13522044
192	0xbd922f9a	-0.071379855
193	0x3e8a11b2	0.26966625
194	0x3e0bb4db	0.1364321
195	0xbe00bbf1	-0.12571694
196	0xbb89a7e6	-0.0042009233
197	0xbdbaddb7	-0.0912432
198	0x3ebe8731	0.37212518
199	0xbe4278f7	-0.18991457
200	0xbdf6ff57	-0.12060421
201	0xbd2f1b5c	-0.0427507
202	0xbe5aab5e	-0.21354434
203	0xbdbe7610	-0.092998624
204	0x3ea3b98e	0.31977504
205	0xbd233978	-0.03984973
206	0xbe0705e9	-0.13185848
207	0xb926ecd4	-0.00015919219
208	0x3e6df799	0.23238982
209	0x3e33c0ba	0.17553988
210	0xbddb5580	-0.10709667
211	0x3e83dee7	0.25755998
212	0x3e89b56c	0.26896226
213	0x3e6926ee	0.22768757
214	0x3e7e359f	0.24825142
215	0xbe149376	-0.14509377
216	0xbe25826b	-0.16163032
217	0xbd4f6925	-0.050637383
218	0x3e26edcc	0.1630165
219	0xbddda3fe	-0.10822295
220	0xbd929e78	-0.07159132
221	0xbd7c1fb2	-0.061553665
222	0xbc37ece4	-0.011225913
223	0x3d06fa2e	0.032953434
224	0xbe7120d7	-0.23547684
225	0xbdedfa3a	-0.116199926
226	0xbe99fe0f	-0.30076644
227	0x3e3e7192	0.18598011
228	0xbdd9e93c	-0.10640189
229	0x3dfcc228	0.1234172
230	0x3e8d2a8f	0.27571532
231	0xbe6b9b15	-0.23008378
232	0xbec38fea	-0.38195735
233	0xbe301b64	-0.17197949
234	0xbe485ca9	-0.19566597
235	0x3df100fa	0.117677644
236	0xbdcd5317	-0.10025614
237	0xbe698fa9	-0.22808708
238	0x3d3d5cac	0.046230957
239	0xbdff5751	-0.12467826
240	0x3e6e5b13	0.2327693
241	0x3e8bcd14	0.273049
242	0x3e8a18df	0.269721
243	0xbe123e00	-0.14281464
244	0xbdfb405b	-0.12268134
245	0xbe3a7160	-0.18207312
246	0xbeafdf53	-0.3435007
247	0x3e2f6c8e	0.17131254
248	0x3e0ea497	0.13929974
249	0xbe5fa17c	-0.21838945
250	0xbda97dc0	-0.08275938
251	0xbe86b612	-0.26310784
252	0xbe0772cd	-0.13227387
253	0xbc939b3a	-0.018018354
254	0x3e2862e0	0.16443968
255	0x39ed0368	0.000452067

critic.2.weight f4 [256, 256]
0	0x3ef01ad5	0.4689547
1	0xbde01205	-0.10940937
2	0xbdf90fab	-0.121611916
3	0xbf10cd6c	-0.5656345
4	0xbdcc70d4	-0.09982458
5	0x3eec4c16	0.461518
6	0x3f31eb6c	0.6949985
7	0x3e84d66e	0.25944847
8	0xbecd043c	-0.40042293
9	0x3eecfa61	0.46284774
10	0x3d8ff5c0	0.07029295
11	0x3f711a73	0.94180983
12	0x3de92ec1	0.11385871
13	0xbf470aa2	-0.777506
14	0x3dcd3bc7	0.10021167
15	0xbe805c40	-0.2507038
16	0x3f060303	0.52348346
17	0x3e8609ac	0.26179254
18	0x3ecff971	0.40619996
19	0xbf67e205	-0.90579253
20	0xbd8ddc4c	-0.06926784
21	0x3f0c9450	0.54913807
22	0x3cab4fd4	0.020912088
23	0x3dfd6af7	0.123739175
24	0xbee3a92d	-0.44465008
25	0x3f02f8e0	0.51161003
26	0xbfc9e18c	-1.5771956
27	0xbf331133	-0.6994812
28	0xbec13787	-0.37737677
29	0xbdac22ae	-0.08405052
30	0x3fbd1d86	1.4774635
31	0xbe33b40c	-0.17549151
32	0x3ead7e1a	0.3388527
33	0x3e936ce8	0.28794026
34	0xbe2dd653	-0.1697629
35	0x3f1a00f4	0.60157704
36	0x3f570b68	0.8400178
37	0xbd8b8f49	-0.06814439
38	0x3efd3c5c	0.49460113
39	0xbf1aec21	-0.60516554
40	0xbf545c66	-0.8295349
41	0x3f425948	0.7591748
42	0xbeb7b998	-0.35883784
43	0xbe33b4e8	-0.17549479
44	0x3da16e9a	0.07882424
45	0x3f3b96e5	0.7327712
46	0x3e4c853b	0.19972698
47	0xbf2cdba2	-0.67522633
48	0x3ea11eae	0.3146872
49	0x3e018a8a	0.12650505
50	0x3ebc6eee	0.36803383
51	0xbe80dd8b	-0.25169024
52	0x3e817861	0.25287154
53	0xbd0aeb67	-0.033915903
54	0xbe54069d	-0.20705648
55	0x3f49b766	0.7879547
56	0xbf237ce8	-0.63862467
57	0x3e67e070	0.2264421
58	0x3f1a4bf8	0.6027217
59	0x3d4091a2	0.047013886
60	0x3f0eb5bc	0.55746055
61	0xbf450046	-0.7695354
62	0xbd1e898e	-0.0387054
63	0x3f77e273	0.9682991
64	0xbf2ad2bc	-0.66727805
65	0xbe589913	-0.21152143
66	0x3e6f912c	0.23395222
67	0xbf3ed624	-0.745455
68	0xbf40ef80	-0.7536545
69	0xbd993f26	-0.07482748
70	0xbd9ec1b6	-0.07751791
71	0x3dfe853e	0.12427758
72	0xbe20a4cb	-0.15687864
73	0xbf298a3b	-0.6622655
74	0x3e6d63a2	0.23182538
75	0x3ed85e4c	0.42259443
76	0x3da7b81f	0.08189415
77	0xbe0c88c0	-0.13724041
78	0x3edefaf3	0.43550834
79	0xbf1f2c8e	-0.6217736
80	0xbf235371	-0.63799196
81	0x3de0eef8	0.1098308
82	0xbf18750c	-0.595536
83	0x3e9d9317	0.30776283
84	0x3ec9a15a	0.39380914
85	0x3f5e10fb	0.8674466
86	0x3f8bd1b9	1.0923377
87	0x3e223d0c	0.158436
88	0x3e23a19c	0.15979618
89	0x3f46f5ec	0.77718997
90	0xbf5af48a	-0.85529387
91	0x3e712e3f	0.23552798
92	0x3c76c616	0.015061876
93	0x3dfcd86f	0.12345969
94	0xbd1bf3e4	-0.03807439
95	0x3e95414f	0.2915139
96	0xbe9f1db1	-0.3107734
97	0x3edfa4b0	0.43680334
98	0x3ea2c145	0.31788078
99	0xbe8b86a0	-0.27251148
100	0xbe438754	-0.19094592
101	0x3ed8e087	0.423588
102	0x3f6d40d8	0.9267707
103	0xbf2fbbd0	-0.68645954
104	0x3e924c25	0.2857372
105	0x3d586309	0.052828822
106	0x3ed2cdca	0.4117263
107	0xbaed089b	-0.001808423
108	0x3efd5128	0.4947598
109	0x3f44a5c3	0.7681543
110	0x3ed1792c	0.4091276
111	0xbeb76ce3	-0.3582526
112	0x3ea3b1b3	0.3197151
113	0x3e0bb73b	0.13644116
114	0xbf4ce0e7	-0.80030674
115	0x3d8cb0ac	0.06869635
116	0xbe43bb45	-0.19114406
117	0xbf6653ad	-0.8997143
118	0x3e4c0f58	0.19927728
119	0x3f9c9c0f	1.2235125
120	0x3f0465da	0.51717913
121	0xbe892ebb	-0.26793465
122	0x3f58fba5	0.8475898
123	0xbe877418	-0.2645576
124	0x3d8c21a8	0.06842357
125	0xbe25833d	-0.16163345
126	0x3eba3f86	0.3637659
127	0x3f478181	0.7793198
128	0xbe824eb8	-0.25450683
129	0xbe935618	-0.28776622
130	0xbcf4c6a0	-0.029879868
131	0xbeead9a6	-0.45869178
132	0x3fb37ed1	1.4023076
133	0x3e9acbf7	0.30233738
134	0xbea22a72	-0.31673008
135	0xbf37cd6d	-0.7179783
136	0xbf4e5083	-0.805916
137	0xbe7c8b86	-0.24662599
138	0x3f3f9480	0.7483597
139	0x3c882cf7	0.016623003
140	0x3e9dcdf9	0.30821207
141	0xbe8287e7	-0.2549431
142	0x3e799ae2	0.2437549
143	0xbe71a112	-0.235966
144	0x3f8d1fcf	1.1025332
145	0xbeda9c45	-0.4269735
146	0x3f6a97a3	0.9163763
147	0x3e3fe9d2	0.18741539
148	0x3f73f747	0.9529919
149	0x3eb16b11	0.34651998
150	0x3f3332cf	0.699994
151	0xbfca9ef9	-1.5829765
152	0x3e6745ba	0.22585192
153	0x3f1a99fa	0.603912
154	0x3f01af61	0.5065823
155	0x3f52596f	0.82167715
156	0x3cf1c5db	0.02951329
157	0x3e10d1d4	0.14142543
158	0x3f987897	1.1911801
159	0x3f83927d	1.027908
160	0xbc1558e9	-0.009115436
161	0x3ecbd500	0.39810944
162	0x3e277fec	0.16357392
163	0xbda1e083	-0.0790415
164	0xbe3d47f9	-0.18484487
165	0x3ec68b2b	0.38778052
166	0x3f5e32e2	0.8679639
167	0x3ebbf03f	0.3670673
168	0x3f438058	0.7636771
169	0x3e264668	0.16237795
170	0xbd64eaaa	-0.055887856
171	0x3f0fb1df	0.56130785
172	0x3e4f5383	0.20246701
173	0xbd091c54	-0.03347428
174	0x3cad0166	0.02111883
175	0xbf698fcc	-0.9123504
176	0xbf1ea203	-0.6196596
177	0xbe038561	-0.12843849
178	0xbf571ce6	-0.8402847
179	0x3e074532	0.1320999
180	0x3f218a21	0.63101393
181	0xbec170ff	-0.37781522
182	0x3f12e894	0.57386136
183	0xbf1d4ec5	-0.6144832
184	0x3f6ccb91	0.9249812
185	0x3eb66503	0.3562394
186	0xbf6068ea	-0.87660086
187	0xbd540a47	-0.051767614
188	0x3d7e0041	0.06201196
189	0xbfabb5ea	-1.3414891
190	0x3e2fc560	0.17165136
191	0xbdbffb8d	-0.093741514
192	0xbeba03f0	-0.3633113
193	0x3e80492d	0.2505583
194	0xbe8df2ec	-0.27724397
195	0xbef71f2c	-0.4826597
196	0x3ed71980	0.42011642
197	0xbd8b8ecf	-0.06814348
198	0x3e108c7d	0.14116092
199	0x3f8bc2d5	1.0918833
200	0xbf5f5d9f	-0.8725223
201	0x3e091c05	0.13389595
202	0xbeca3ab6	-0.39497918
203	0xbca8475a	-0.020541836
204	0xbec8be49	-0.39207676
205	0xbf16e302	-0.58940136
206	0xbe3637e3	-0.17794757
207	0x3db84ab7	0.08998626
208	0x3ed20430	0.4101882
209	0xbd487bbc	-0.048946127
210	0x3cd83829	0.026393967
211	0xbe56d99f	-0.20981453
212	0xbd4cd3f6	-0.05000683
213	0xbe872276	-0.2639348
214	0xbc564fd7	-0.013080559
215	0x3dc49942	0.09599544
216	0x3fad20ea	1.352567
217	0xbdb4462d	-0.088024475
218	0x3e85c020	0.26123142
219	0xbf1e5ed3	-0.6186344
220	0x3f71941a	0.9436661
221	0xbd201679	-0.03908393
222	0xbe611d2f	-0.21983789
223	0x3eb0fbdd	0.34567156
224	0x3e031fee	0.12805149
225	0xbf00de48	-0.50339174
226	0xbf3aceef	-0.72972006
227	0x3e564df2	0.20928171
228	0xbed75d6a	-0.42063457
229	0xbf624153	-0.88380927
230	0x3f3d6768	0.7398591
231	0x3eae1f25	0.34008136
232	0x3f405ee0	0.7514477
233	0x3ecc074c	0.39849317
234	0xbe5434dc	-0.20723289
235	0xbf0b5a3f	-0.5443458
236	0xbf728731	-0.94737536
237	0x3f15f4eb	0.5857684
238	0xbf6859c0	-0.9076195
239	0x3f5ac227	0.854525
240	0xbf1a4a9f	-0.6027011
241	0xbf07c0e6	-0.53028715
242	0x3eaddbfa	0.3395689
243	0x3e8323c3	0.25613222
244	0xbf000e9d	-0.500223
245	0x3ea86981	0.32892993
246	0xbe9f80c8	-0.3115294
247	0x3f9a4ca5	1.205464
248	0xbeae8b14	-0.34090483
249	0x3f8dbdcc	1.1073546
250	0x3e2aebeb	0.16691558
251	0xbd8ac8f6	-0.067766115
252	0xbf8abf25	-1.0839583
253	0xbf0d4427	-0.5518212
254	0xbcc2c5cc	-0.023775958
255	0x3f2adc78	0.6674266

critic.2.bias f4 [256]
0	0xbd2bef0f	-0.04197603
1	0xbe8f0982	-0.2793694
2	0xbd4cfb51	-0.05004436
3	0x3c9bcafd	0.01901769
4	0x3e445593	0.19173269
5	0x3de68682	0.11256124
6	0x3e3b169b	0.18270342
7	0x3d33f223	0.04393209
8	0xbeaf36a9	-0.3422139
9	0x3d5ac7b1	0.053413097
10	0x3e63d578	0.222494
11	0xbecb21e5	-0.39674297
12	0x3ef77063	0.48327932
13	0x3f070662	0.52744114
14	0xbec86c87	-0.391453
15	0xbe8468a5	-0.25861087
16	0x3f06fe2f	0.52731603
17	0x3d50e5e3	0.051000487
18	0x3e53ae22	0.20671895
19	0x3e80bd3c	0.25144374
20	0xbdeb9819	-0.1150362
21	0x3e606a2b	0.219155
22	0x3ecef28d	0.40419427
23	0x3f1f156e	0.62142074
24	0x3e7ebd29	0.24876846
25	0xbd35bfd3	-0.04437239
26	0x3e7bc046	0.24585065
27	0x3e7b02f2	0.24512842
28	0xbd968fd0	-0.07351649
29	0xbf3fbae8	-0.7489457
30	0xbe2577d3	-0.1615899
31	0xbb4196fb	-0.0029539454
32	0x3b9d5dc1	0.004802436
33	0xbf11e72d	-0.5699337
34	0x3de08f4c	0.10964832
35	0xbedb4051	-0.42822507
36	0x3b76d9c4	0.003766642
37	0x3d1d0abb	0.03834031
38	0xbe1b6225	-0.15174158
39	0x3e19b9f8	0.15012348
40	0x3d00d175	0.031449754
41	0xbe818dc9	-0.25303486
42	0xbe7d6a8b	-0.24747674
43	0x3e596eb4	0.21233636
44	0xbf307d17	-0.6894087
45	0xbf1e8e8b	-0.61936253
46	0xbdd6e3b0	-0.10492647
47	0xbe8ad5fc	-0.27116382
48	0xbcedb454	-0.029016651
49	0x3e173c9c	0.14769214
50	0xbe05a1b0	-0.1304996
51	0x3efaae57	0.48961136
52	0xbf39fc98	-0.7265105
53	0xbf27e8d4	-0.6558964
54	0x3d1bfc87	0.038082626
55	0x3e2bf34d	0.1679203
56	0xbb3e8204	-0.0029069195
57	0xbf069fa6	-0.52587354
58	0x3f24bfa5	0.64354926
59	0xbcff72b3	-0.031182623
60	0x3f59d371	0.8508826
61	0xbf188aa9	-0.5958658
62	0xbc6e7e15	-0.0145564275
63	0xbdcb6237	-0.09930842
64	0x3ed18045	0.40918174
65	0x3da2621f	0.07928871
66	0xbe7021b3	-0.23450355
67	0x3d1380a0	0.03601134
68	0xbeb29524	-0.3487941
69	0x3d189a02	0.03725625
70	0xbcdc3d30	-0.026884645
71	0x3f06efa5	0.5270942
72	0xbdefe79d	-0.117140986
73	0xbeef1c6c	-0.46701372
74	0x3e861a4a	0.26191932
75	0x3e37f9b8	0.17966354
76	0xbea736fd	-0.3265914
77	0x3db0ac61	0.08626629
78	0xbd0709d9	-0.032968376
79	0x3e722838	0.23648155
80	0x3e54376f	0.20724271
81	0xbe1bb9bf	-0.15207575
82	0x3f400c88	0.7501912
83	0xbe64ced6	-0.22344527
84	0x3e0ae575	0.13564093
85	0xbd97f312	-0.07419409
86	0x3d0f9077	0.03504988
87	0xbe8d2911	-0.27570394
88	0xbd311ba8	-0.043239266
89	0xbf5129c2	-0.8170434
90	0x3ee82c22	0.4534617
91	0xbf04106a	-0.51587546
92	0x3e9bbb4f	0.30416343
93	0x3ecdda7e	0.4020576
94	0x3f401636	0.7503389
95	0x3e9cff6b	0.30663618
96	0xbd50d468	-0.050983816
97	0x3e39e064	0.18152004
98	0x3ebce7e1	0.3689566
99	0xbd67975b	-0.05654083
100	0x3ea91ebe	0.33031267
101	0xbe2da53b	-0.16957562
102	0xbe398f91	-0.18121172
103	0x3d8ed76c	0.06974682
104	0xbf0b0dd9	-0.54318005
105	0x3d899fa6	0.06719904
106	0x3de6fb3f	0.1127839
107	0xbb649e35	-0.0034884338
108	0x3ea33a78	0.31880546
109	0xbdc891ea	-0.09793456
110	0x3eb47cc5	0.35251442
111	0xbe82f6fb	-0.25579056
112	0xbefc3dce	-0.49265903
113	0xbd1d46ef	-0.038397726
114	0x3e2fe80a	0.1717836
115	0xbe93c870	-0.2886386
116	0x3f11cbb1	0.56951433
117	0x3e77a4a9	0.24183907
118	0x3c009339	0.007847601
119	0x3ec52c3c	0.3851031
120	0x3f3fd193	0.7492916
121	0xbe1434a4	-0.14473206
122	0x3ea5a6cb	0.32353815
123	0xbe531735	-0.20614322
124	0x3ea6ea95	0.32600847
125	0xbeb9ed05	-0.36313644
126	0x3ea1ce38	0.31602645
127	0x3a48f561	0.0007665959
128	0x3e617184	0.22015959
129	0x3e70bc12	0.23509243
130	0x3e6cad2b	0.23112933
131	0xbea97ffd	-0.3310546
132	0xbf1dccf2	-0.61640847
133	0x3e99bf82	0.3002892
134	0x3e403136	0.18768772
135	0x3ddaadb2	0.10677661
136	0x3ed49965	0.4152328
137	0xbf023354	-0.5085957
138	0x3e4b6de0	0.19866133
139	0xbd7ee1e1	-0.062227134
140	0xbe076165	-0.13220747
141	0xbea2792c	-0.31733072
142	0x3c114744	0.008867089
143	0xbe4f0f33	-0.20220642
144	0xbe9ad936	-0.30243844
145	0x3e245994	0.16049796
146	0x3f34f7f2	0.70690835
147	0x3ee97df8	0.4560392
148	0x3f23bb72	0.63957894
149	0x3e9d8b68	0.3077042
150	0xbe8e56f9	-0.2780073
151	0x3f5feeb5	0.87473613
152	0xbee20c95	-0.44150224
153	0x3ea98667	0.33110353
154	0x3de3c672	0.11121835
155	0xbe9c7f30	-0.30565786
156	0xbeb55c6a	-0.3542207
157	0x3e19cc78	0.15019405
158	0xbe480fa5	-0.19537218
159	0xbf0b7c97	-0.54486984
160	0x3da08594	0.07837978
161	0xbd82539a	-0.06363602
162	0x3ebacfc0	0.36486626
163	0x3ec21e99	0.3791397
164	0xbf1e5e98	-0.6186309
165	0xbc9f8eb0	-0.019477218
166	0x3e7ad228	0.24494231
167	0xbeb48ddf	-0.3526449
168	0xbd4a4108	-0.049378425
169	0xbec0e6ed	-0.37676182
170	0xbf1d199c	-0.613672
171	0x3e7aef83	0.24505429
172	0x3f16a665	0.5884765
173	0x3ea72768	0.32647252
174	0x3e3649cd	0.1780159
175	0x3e5dff66	0.21679458
176	0x3eae47e3	0.3403922
177	0xbe967a2e	-0.2939009
178	0xbf0fc0bd	-0.5615347
179	0xbec08750	-0.37603235
180	0x3dd727d4	0.105056435
181	0xbcf0b049	-0.029380934
182	0xbe94162b	-0.28923163
183	0xbdcd3909	-0.10020644
184	0xbe7f4a53	-0.24930696
185	0xbee44bfe	-0.44589227
186	0x3e16635e	0.14686343
187	0x3d483eb6	0.04888793
188	0x3e3d5001	0.1848755
189	0xbe497f44	-0.19677454
190	0x3e06aea8	0.13152564
191	0x3f4a9877	0.7913889
192	0xbef38958	-0.47565722
193	0x3dddf4cb	0.10837706
194	0x3ece9e41	0.40355113
195	0x3e2f81f9	0.17139424
196	0xbd8d2918	-0.06892604
197	0x3e7e75b0	0.24849582
198	0xbea200dc	-0.3164128
199	0xb8783348	-5.9175567e-05
200	0x3eaf96c4	0.34294713
201	0xbd98212e	-0.074282035
202	0xbeea91f7	-0.45814487
203	0x3dbf70a2	0.09347655
204	0x3efe75c5	0.49699226
205	0x3e690316	0.22755083
206	0xbd92804f	-0.07153379
207	0x3e6612b7	0.22468077
208	0xbe2047bb	-0.15652363
209	0xbec430c7	-0.38318464
210	0x3e74f0d6	0.23919997
211	0xbc354279	-0.011063212
212	0x3de27a0d	0.110584356
213	0x3dacbed0	0.08434832
214	0xbed17713	-0.4091116
215	0x3ec85a62	0.39131457
216	0x3dead2d4	0.114659935
217	0x3e878aa1	0.26472953
218	0x3c92d19b	0.017922213
219	0x3e8526ec	0.26006258
220	0x3efece34	0.49766695
221	0x3db28db6	0.087184355
222	0xbd6a6cde	-0.05723273
223	0xbdfcfbdf	-0.12352728
224	0xbf0eaeca	-0.55735457
225	0x3df2de0e	0.1185876
226	0x3dfcecec	0.12349877
227	0x3e13b6e5	0.14425237
228	0x3e01de40	0.12682438
229	0xbd00ee84	-0.031477466
230	0x3eb70b0a	0.3575061
231	0x3dd5f558	0.10447186
232	0x3c5f5eca	0.013633439
233	0xbe1982b0	-0.1499126
234	0x3e52d54a	0.20589176
235	0x3e0d6bc6	0.13810644
236	0x3d1ad548	0.037801057
237	0x3da232db	0.07919856
238	0xbe6d17da	-0.2315363
239	0x3ecb9b61	0.39766982
240	0xbd9346e1	-0.071912535
241	0x3d68c802	0.056831367
242	0xbeda0745	-0.4258367
243	0xbe3ee993	-0.18643789
244	0xbd5e6e00	-0.054304123
245	0xbec137b2	-0.37737805
246	0xbb910c93	-0.004426548
247	0xbec05b62	-0.3756972
248	0xbe62bb95	-0.2214187
249	0x3ee2ae8c	0.44273794
250	0xbd433615	-0.047659
251	0xbf001e3f	-0.5004615
252	0x3e7d9970	0.24765563
253	0x3d6e629b	0.058199506
254	0xbd48ee11	-0.049055163
255	0x3ecdd9a2	0.40205103

critic.4.weight f4 [1, 256]
0	0xc0119f63	-2.2753532
1	0xbf5acb1d	-0.85466176
2	0xc007f383	-2.1242378
3	0x3ed6ba1b	0.41938862
4	0xbf8756d2	-1.057337
5	0xbed68162	-0.41895586
6	0xbf8f2024	-1.1181684
7	0xbf872ed7	-1.0561169
8	0xbf18be46	-0.59665334
9	0x3fa6d380	1.3033295
10	0xbf20bb42	-0.6278573
11	0xbf9974ad	-1.1988732
12	0xbf5eb444	-0.86993814
13	0xbf0ff63e	-0.5623511
14	0x400a24d3	2.1584976
15	0xbf839b2b	-1.0281729
16	0x3fa5567e	1.291702
17	0xbf2f6058	-0.68506384
18	0x3f266295	0.64994174
19	0xbf682ae5	-0.9069045
20	0x401eff93	2.484349
21	0x3ff7778e	1.933336
22	0x3f74073c	0.9532354
23	0xbf3d2b81	-0.73894507
24	0x4020c065	2.5117428
25	0x3f51de85	0.8198016
26	0xbf4449ae	-0.76674926
27	0x3fdf5d32	1.7450316
28	0x3e9719a8	0.29511762
29	0xbfe3cd73	-1.7797073
30	0x3ec0c717	0.37651893
31	0xbefecf10	-0.4976735
32	0x3f554cc4	0.8332026
33	0xc0100439	-2.2502577
34	0xbf68bac6	-0.90909994
35	0x3f3f4197	0.7470946
36	0xc03f0d75	-2.9851964
37	0x3f31c5a6	0.6944221
38	0x3f9f0858	1.2424421
39	0x3f1a282c	0.6021755
40	0xc01cc284	-2.4493723
41	0xbf580e93	-0.8439724
42	0x402932bb	2.6437213
43	0xbee26698	-0.44218898
44	0x3d990236	0.07471125
45	0x3f3599b0	0.70937634
46	0xc0854572	-4.164727
47	0x406fb441	3.7453768
48	0x3f6c879d	0.9239443
49	0xbf770db5	-0.9650529
50	0xbf26364d	-0.64926606
51	0x40323508	2.7844868
52	0xbffd1978	-1.9773397
53	0xbf8114f0	-1.0084515
54	0xc022427d	-2.5353081
55	0xbecd42c9	-0.40090016
56	0xbf4e4362	-0.8057157
57	0x3ede294e	0.43390888
58	0x3fcde557	1.6085614
59	0xbf7b5db9	-0.98189884
60	0x3e50cc13	0.20390348
61	0xbf1170cf	-0.5681276
62	0xbf3c8d91	-0.73653513
63	0x3f810f0a	1.0082715
64	0x3ea1d0b3	0.31604537
65	0x3f059c50	0.5219164
66	0xbe8f5462	-0.27994066
67	0xbedc0474	-0.42972147
68	0xbf7b0535	-0.9805482
69	0xbfb1a4a4	-1.3878369
70	0x400dc937	2.2154062
71	0x3f3a8aa6	0.7286781
72	0xbfeb161b	-1.8366121
73	0x3ff48823	1.9104046
74	0x4036e1c3	2.8575294
75	0xbfe3b74f	-1.7790316
76	0xbf94fff8	-1.1640615
77	0xbf119272	-0.5686408
78	0x3fda4da6	1.7054946
79	0x3f31ff42	0.6953012
80	0xbf54efca	-0.8317839
81	0xbf9a96b1	-1.2077237
82	0x3f550d2a	0.8322321
83	0xbfe524cc	-1.7901855
84	0xbfc0eb73	-1.5071853
85	0xbf3517eb	-0.7073962
86	0x3f8de271	1.108473
87	0xbf2112fd	-0.629196
88	0xc019f2d6	-2.4054465
89	0xbfaf52d6	-1.3697155
90	0x3f890643	1.0705036
91	0xbf2bf565	-0.6717132
92	0x3f67f699	0.90610653
93	0x3fbdf766	1.4841125
94	0x404d7d29	3.2107642
95	0x3feee0f4	1.86624
96	0xbfabfc0f	-1.3436297
97	0x3f6f026d	0.93363076
98	0xbf980974	-1.1877885
99	0xc086d867	-4.2139163
100	0xbf5f2bd3	-0.87176245
101	0xc0370f7b	-2.8603199
102	0xbf4dddb8	-0.8041644
103	0xbf5d0e0e	-0.8634957
104	0xc024aaf4	-2.5729342
105	0x4024c1fb	2.5743396
106	0x3f879b67	1.05943
107	0x40418e7c	3.0243216
108	0x3fc6e5bb	1.5538858
109	0xbf7f550d	-0.9973915
110	0xbfc7b005	-1.5600592
111	0xbf6595d0	-0.8968172
112	0xbfd49556	-1.6608074
113	0xbfd540a4	-1.6660352
114	0xbe620e24	-0.22075707
115	0xc008392f	-2.1284902
116	0x3f84dee0	1.0380516
117	0xc0128397	-2.2892816
118	0xbfc2b927	-1.5212754
119	0xbf9a5ba2	-1.2059214
120	0x40276ab8	2.6158886
121	0x40060715	2.0941823
122	0x3f9390f0	1.1528606
123	0xbfeb46b4	-1.8380952
124	0xc052ef0d	-3.2958405
125	0xbfbd9947	-1.4812402
126	0x402c0960	2.6880722
127	0x405bed73	3.4363678
128	0x403a8308	2.9142475
129	0x3fd81472	1.688124
130	0x3f85f1b5	1.0464388
131	0xbff38ec5	-1.9027945
132	0x3f685ff2	0.907714
133	0xbe0dfa26	-0.13864955
134	0x4002cc56	2.0437217
135	0xbf46093c	-0.7735784
136	0xc026ccae	-2.6062427
137	0x3f94237a	1.1573327
138	0xbf9faee9	-1.2475253
139	0x3f97afa1	1.1850473
140	0x3fb752f4	1.432219
141	0xbfdf2beb	-1.7435278
142	0x3fe060e6	1.7529571
143	0x3f5c654b	0.8609206
144	0xbee98797	-0.4561126
145	0x4063b59f	3.5579603
146	0x400b302f	2.174816
147	0x4005c34d	2.0900452
148	0x3fbb07ce	1.4611757
149	0x3f9071f6	1.1284778
150	0xbfb0f703	-1.3825382
151	0x3fe9c186	1.8262184
152	0xbfc4a614	-1.5363183
153	0x40094df6	2.1453834
154	0xbedca63e	-0.43095583
155	0xbeec577c	-0.46160495
156	0xc006bf4c	-2.1054258
157	0x3f9cfbc3	1.2264332
158	0x3f0f7e28	0.56051874
159	0xbe5d1786	-0.21591005
160	0x3edb92e2	0.428855
161	0x3ff0e9a3	1.88213
162	0xc06fdcb5	-3.747846
163	0xc0488b1f	-3.1334913
164	0xbf9aa0e5	-1.2080351
165	0x3f75f717	0.96080154
166	0x3f858ded	1.0433937
167	0xbf1a4cba	-0.60273325
168	0x3f491c66	0.7855896
169	0xbf65b5cb	-0.8973052
170	0x3ebc3079	0.36755732
171	0xc020226b	-2.5021007
172	0x3f7d6b64	0.9899199
173	0xc0033b70	-2.0505028
174	0xbf134acb	-0.57536
175	0xbf8b7ccd	-1.0897461
176	0xbe324ad6	-0.1741136
177	0x3f2f4a59	0.6847282
178	0xbfbb73d0	-1.4644718
179	0xbf7681ef	-0.9629201
180	0xbf1f506f	-0.62232107
181	0x3fbe8193	1.4883293
182	0x3fefe14b	1.8740629
183	0x3fccad0a	1.5990307
184	0x3fe195b7	1.7623814
185	0xc03726fe	-2.861755
186	0x40538d5c	3.305503
187	0x4021da99	2.5289671
188	0x3ee3de7f	0.4450569
189	0xc036ce5f	-2.856346
190	0xbfc7c5fa	-1.5607293
191	0x400686d0	2.1019783
192	0xbfa2be96	-1.2714412
193	0xbf1b3ddd	-0.6064127
194	0x3f8064ba	1.0030739
195	0x3f5c8b18	0.8614974
196	0x40093fe9	2.1445258
197	0x40240218	2.5626278
198	0xc017e14e	-2.3731265
199	0x3edef14e	0.43543476
200	0xc06aede1	-3.670769
201	0xbf820856	-1.0158794
202	0xbff654d3	-1.9244636
203	0xbcce057b	-0.025149098
204	0x400791bc	2.11827
205	0xbff801d5	-1.9375559
206	0xbf61d6ae	-0.882182
207	0x4049cceb	3.1531322
208	0xbed85640	-0.42253304
209	0x3e9fee7e	0.31236643
210	0xbf0c0a58	-0.54703283
211	0xc035deec	-2.841731
212	0x3ea923d4	0.33035147
213	0xbfb152f1	-1.3853437
214	0xbfa2aacc	-1.2708373
215	0xbf90679e	-1.1281621
216	0x4066932b	3.6027324
217	0xbecf9748	-0.40545106
218	0x405ae073	3.4199493
219	0xbf256382	-0.6460496
220	0x40148b13	2.3209884
221	0xc037b209	-2.8702414
222	0x3f388d8b	0.7209098
223	0xc00b37a6	-2.1752715
224	0xbf76e492	-0.9644252
225	0xc00dd99e	-2.2164073
226	0xbfcd4666	-1.6037109
227	0x3f230698	0.63681936
228	0xbf93d098	-1.1548033
229	0xbf3fab38	-0.74870634
230	0x3fd1ce28	1.6391039
231	0x3fd99d95	1.7001215
232	0xc0013b8a	-2.019259
233	0xbf641611	-0.8909617
234	0x3fd211d9	1.6411697
235	0xbf600925	-0.87513953
236	0x401cd772	2.4506497
237	0xbf8a68e7	-1.0813264
238	0xbfca821e	-1.5820959
239	0xbf614671	-0.8799811
240	0xbf8dc864	-1.1076779
241	0x3f5b5c3c	0.85687613
242	0xc04ee8f6	-3.2329688
243	0x4026f2ef	2.6085775
244	0x3fdaef38	1.7104254
245	0xc01242f2	-2.285336
246	0xc02f5418	-2.7395077
247	0xc02625e1	-2.596062
248	0xbfc449af	-1.5334986
249	0xbf6cffb1	-0.92577654
250	0x40350a64	2.8287592
251	0xbf7f1406	-0.9963993
252	0x3f36cdfd	0.71408063
253	0x3f83825b	1.0274156
254	0x3fcb776d	1.5895821
255	0x3fc4f3af	1.5386866

actor.0.weight f4 [256, 42]
0	0xbe8b8a69	-0.27254036
1	0xbcc1a412	-0.023637805
2	0xbf1e0442	-0.61725247
3	0x3f9f6d6f	1.2455271
4	0x3efdaed9	0.4954746
5	0xc05c6573	-3.443692
6	0xbf872252	-1.0557349
7	0xbe5cef97	-0.21575771
8	0x3f4afcf7	0.79292244
9	0xbb985ba9	-0.0046495986
10	0x403ca0fb	2.9473255
11	0x3f8b9d15	1.0907313
12	0x3cbd1c04	0.023084648
13	0x3e56c3fb	0.20973198
14	0xbd8838b1	-0.06651438
15	0x3f8fbd57	1.1229657
16	0x3f2e61e8	0.68118143
17	0x3e1f5ed5	0.1556352
18	0xbdca760f	-0.09885799
19	0x3e0e11d9	0.13873996
20	0xc04fc18e	-3.2461886
21	0xbfd8bff9	-1.6933585
22	0x3e6b83f4	0.22999555
23	0x3f8ca728	1.0988512
24	0xbf555c02	-0.8334352
25	0xbf33fed6	-0.70310724
26	0xbf2a936a	-0.66631186
27	0x3e7bb90f	0.24582313
28	0xbe82f1ff	-0.25575253
29	0x3f9da339	1.2315437
30	0x3f721428	0.94562006
31	0x3fdffaf4	1.749846
32	0xbe0788e8	-0.1323582
33	0xbda831f3	-0.08212652
34	0xbd46a7a0	-0.048499703
35	0xbc881c70	-0.016615123
36	0x3dd3280e	0.10310374
37	0x3e4b62a4	0.19861847
38	0xbf2fe073	-0.6870186
39	0xbf07c9da	-0.53042376
40	0xbfae92c6	-1.3638542
41	0x3fdcef71	1.7260572
42	0x3d35cf44	0.044387117
43	0x3f09994b	0.5374953
44	0x3ea01aea	0.31270534
45	0xbfb29379	-1.3951255
46	0x3f106c64	0.5641539
47	0xbc70ed95	-0.0147050815
48	0xbea9e081	-0.33179095
49	0x3d1537d0	0.03643018
50	0xbf656a5d	-0.8961542
51	0xbe670313	-0.22559766
52	0x4027e8e6	2.62359
53	0x3f30d66e	0.69077194
54	0x3cb5b75e	0.022182163
55	0xbdff4f2e	-0.12466274
56	0x3f2142cd	0.62992555
57	0x3ea37174	0.31922495
58	0x3ea259b0	0.3170905
59	0xbd8b7058	-0.06808537
60	0x3e4e4aa4	0.2014566
61	0x3ec3494a	0.38141853
62	0xbed928f7	-0.42414066
63	0xbf99ad26	-1.2005966
64	0x3e27e647	0.16396438
65	0xbf953578	-1.1656942
66	0xbf1b4ac2	-0.60660946
67	0x3c884f5d	0.016639406
68	0xbf29f5b1	-0.6639052
69	0x3e742f89	0.23846258
70	0xbe075535	-0.13216098
71	0xbf3c0383	-0.7344286
72	0xbf4f3f7e	-0.80956256
73	0xbf7e6d32	-0.9938537
74	0x3de6dfff	0.112731926
75	0xbe0741cf	-0.13208698
76	0xbd25ea63	-0.04050673
77	0x3e1252e3	0.14289431
78	0x3e6c79ed	0.23093386
79	0xbd8d7b99	-0.0690834
80	0x3fe56e1a	1.7924225
81	0x3ec70d19	0.3887718
82	0xbeb7860f	-0.35844466
83	0x3eb3c04b	0.35107645
84	0xbf2531d1	-0.6452914
85	0xbfff762f	-1.9957942
86	0x3f23d4e9	0.6399675
87	0x3ef8c52a	0.48587924
88	0xbe78cae9	-0.24296154
89	0x3ee86b50	0.45394373
90	0x3ea6c769	0.32574013
91	0x3db5f61c	0.08884832
92	0x3f4c8dd8	0.79903936
93	0xbf192944	-0.5982859
94	0x3c85cfac	0.016334377
95	0x3ebab1f0	0.3646388
96	0x3e94b589	0.2904475
97	0x3def4fe1	0.116851576
98	0x3eed005a	0.4628933
99	0x3f08ce5f	0.534399
100	0x3f00e03e	0.50342166
101	0x3e1a9684	0.1509648
102	0xbe7dbb22	-0.24778417
103	0xbf7a5c4b	-0.9779708
104	0xbff1ae0d	-1.8881241
105	0xbffcfcfe	-1.9764707
106	0xbdc83880	-0.097764015
107	0x3e0e7342	0.13911155
108	0xbf552dad	-0.8327282
109	0x3f66903e	0.90063846
110	0x405e5d93	3.4744613
111	0xbf4daed6	-0.80344903
112	0xbd1a91c4	-0.03773667
113	0x3f491118	0.7854171
114	0x3da91220	0.0825541
115	0x3da9976d	0.08280835
116	0xbdadff7d	-0.08495996
117	0x3f47c12b	0.78029126
118	0xbf4921e2	-0.78567326
119	0xbe1745fe	-0.14772794
120	0x3d899125	0.06717137
121	0x3cefbb02	0.029263977
122	0x3dcfb433	0.10141792
123	0x3e80651c	0.2507714
124	0xbd921469	-0.07132799
125	0xbeb7149b	-0.35757908
126	0xbf1be482	-0.6089555
127	0xc00ba101	-2.181702
128	0x3ecebb21	0.40377143
129	0x3e70d02b	0.2351691
130	0xbfaf338c	-1.3687606
131	0xbf839383	-1.0279392
132	0xbda13c7c	-0.078728646
133	0x3e8ee57a	0.27909452
134	0x3f027284	0.50955987
135	0xbea549d4	-0.3228289
136	0xbfd6f23a	-1.6792672
137	0xbf4f7344	-0.81035256
138	0x3db5ef1a	0.08883496
139	0x3d6b8fda	0.057510234
140	0x3dac755c	0.08420822
141	0xbb0bba90	-0.0021320917
142	0xbd5e5284	-0.05427791
143	0x3dbcf716	0.092268154
144	0xbe8bce9f	-0.27306077
145	0xbe5e5367	-0.21711503
146	0x3f97f19d	1.187061
147	0x3f6c7cb6	0.92377794
148	0xbdf9ab26	-0.12190847
149	0x3edb778c	0.42864645
150	0xbf2337e2	-0.63757145
151	0x3eda9323	0.4269038
152	0x3fa612fe	1.2974546
153	0xbf2999e7	-0.6625046
154	0x3d868bb5	0.06569616
155	0x40341f5d	2.8144143
156	0xbc85ac4c	-0.01631751
157	0x3f00edd8	0.5036292
158	0xbd892c31	-0.06697882
159	0x3f1b13a1	0.60576826
160	0x3c1f8746	0.009736842
161	0xbda52a52	-0.080647126
162	0xbdecdf83	-0.11566069
163	0x3dc73802	0.097274795
164	0xbf19ef34	-0.6013062
165	0x3e3a9358	0.1822027
166	0x3ecc2053	0.3986841
167	0xbc508f2d	-0.012729448
168	0xbf679d09	-0.9047399
169	0xbe801020	-0.25012302
170	0xbed4980a	-0.41522247
171	0xbeb9aa1a	-0.3626259
172	0xbd57cb9d	-0.052684415
173	0xbf379d64	-0.71724534
174	0x3e2c4ea0	0.16826868
175	0xbf1dab82	-0.61589825
176	0xbe800a41	-0.25007823
177	0x3e7d6911	0.24747111
178	0x3f470b52	0.7775165
179	0x3f6ac521	0.91707045
180	0xbf280584	-0.65633416
181	0xbefba989	-0.49152783
182	0xbe878ab1	-0.26473
183	0xbf5d8f9a	-0.86547244
184	0x3edf7c95	0.43649736
185	0xbf0f44bc	-0.55964255
186	0xbf292e79	-0.66086537
187	0xbe9352f4	-0.28774226
188	0xbe13bc37	-0.14427267
189	0x3f9aa083	1.2080234
190	0xbef5757d	-0.479412
191	0xbe72cdc2	-0.23711303
192	0x3e34a270	0.1764009
193	0xbecb5f3e	-0.39721102
194	0x3e317e5d	0.1733336
195	0xbf43019c	-0.7617433
196	0x3ed9c310	0.42531633
197	0xbf0e8978	-0.5567851
198	0xbede2f94	-0.43395674
199	0x3f83bea4	1.0292554
200	0xbf4ba05d	-0.7954157
201	0x3f2ff75b	0.6873681
202	0x3de81909	0.113329
203	0xbdf5a77b	-0.11994835
204	0xbf192542	-0.59822476
205	0xbf1a98bd	-0.6038931
206	0xbe2018fc	-0.15634531
207	0xbf160498	-0.5860076
208	0x3e7477c9	0.2387382
209	0x3f1d7f73	0.615226
210	0xbf40eb8b	-0.7535941
211	0xbf6dbd6a	-0.9286715
212	0x3e7e6f3d	0.24847122
213	0x3eaccd30	0.33750296
214	0x3ddbe263	0.10736539
215	0x3eaee4a9	0.3415883
216	0x3f01943c	0.5061681
217	0x3d4121fe	0.047151558
218	0x3e102c07	0.14079295
219	0xbe4469f4	-0.19181043
220	0x3d97c5e7	0.07410794
221	0x3ea3a3ce	0.3196091
222	0xbdd14587	-0.102183394
223	0xbe6735c5	-0.22579105
224	0x3e791861	0.24325706
225	0x3f7b1da4	0.98092103
226	0x3f567271	0.83768374
227	0x3dd3818e	0.10327445
228	0xbeb068f2	-0.34455067
229	0x3e2aa792	0.16665486
230	0xbf1c3c40	-0.61029434
231	0xbf17e52e	-0.59334075
232	0xbe0fcd43	-0.14043145
233	0x3ea6e5b5	0.32597128
234	0x3ee53d20	0.44773197
235	0xbe965f8b	-0.29369769
236	0x3e237223	0.15961508
237	0xbe9f5d70	-0.31125975
238	0x3c20a9d1	0.009806112
239	0xbf5197dd	-0.8187235
240	0xbdb6ab61	-0.08919407
241	0x3f8fdc65	1.1239134
242	0xbe890c64	-0.26767266
243	0x3eabcb40	0.33553505
244	0xbe8de7a0	-0.27715778
245	0xbde26900	-0.110551834
246	0xbe698043	-0.22802834
247	0xbde30b1d	-0.11086104
248	0x3ec3b94e	0.38227314
249	0xbf1d29ea	-0.6139208
250	0x3fd6e759	1.6789352
251	0x3f3ecdf7	0.7453303
252	0xbe8f0abd	-0.2793788
253	0xbfc7e111	-1.561556
254	0x3e4bcc2f	0.19902109
255	0x3f3c4a12	0.7355052

actor.0.bias f4 [256]
0	0xbd99e6d0	-0.07514727
1	0x3d1262f0	0.035738885
2	0x3cf06796	0.029346269
3	0xbdb37250	-0.08762038
4	0xbf44a8ff	-0.7682037
5	0xbe1f09b9	-0.15531053
6	0xbd90bdbf	-0.07067441
7	0xbd0219e6	-0.03176298
8	0xbe513797	-0.20431362
9	0x3e8c741b	0.2743233
10	0x3db17501	0.08664895
11	0xbe7b46e1	-0.24538757
12	0x3f066d43	0.5251047
13	0x3d582660	0.052770972
14	0x3ec2d128	0.380502
15	0x3e077714	0.13229018
16	0xbda41c98	-0.08013266
17	0x3e4f7148	0.20258057
18	0x3d723832	0.059135623
19	0xbeae8d3a	-0.34092122
20	0x3ebe4f49	0.37169865
21	0x3e523da4	0.20531327
22	0x3caa9699	0.020823764
23	0xbe1c211b	-0.15247004
24	0x3dde159e	0.10843967
25	0xbe69a0f4	-0.22815305
26	0xbd03b24e	-0.032152466
27	0x3ea7a981	0.3274651
28	0x3cfefc37	0.031126125
29	0x3cf50722	0.029910628
30	0xbe74d2bd	-0.23908515
31	0x3bc4d09f	0.006006315
32	0x3da4c525	0.08045415
33	0xbf00b094	-0.50269437
34	0x3d9ffa5e	0.078114256
35	0x3e803bea	0.2504571
36	0x3e38846d	0.18019266
37	0x3dfc73a7	0.123267464
38	0xbc7046b5	-0.014665295
39	0x3ef534e8	0.47891927
40	0x3cbe3221	0.023217263
41	0x3b879d6c	0.004138639
42	0xbe64416d	-0.22290583
43	0x3d3123c4	0.043247
44	0xbcd2c467	-0.025728418
45	0xbcf0cee7	-0.029395534
46	0x3d1d7793	0.038444113
47	0x3e6b575c	0.22982544
48	0xbd3bab42	-0.04581762
49	0xbef3ca79	-0.47615412
50	0xbf014d03	-0.50508136
51	0x3cb304b9	0.021852838
52	0xbeefea82	-0.46858603
53	0xbdbda4a0	-0.09259915
54	0x3dcd6ad7	0.10030144
55	0x3e556e80	0.20842934
56	0xbe4919cc	-0.19638747
57	0x3ed652ee	0.41860145
58	0x3c4fe02f	0.012687727
59	0x3cd4de8b	0.025985023
60	0x3e8086c0	0.25102806
61	0xbcb9659e	-0.022631463
62	0x3e10e7b2	0.14150885
63	0x3c3b2426	0.011422193
64	0xbd6f7bb4	-0.058467582
65	0x3e2d59ed	0.16928835
66	0xbb6348a2	-0.0034680744
67	0xbd45b03f	-0.048263784
68	0x3bbd0556	0.0057684584
69	0x3ceab4d0	0.028650671
70	0x3f043208	0.5163884
71	0xbce55e93	-0.027999198
72	0xbecafc1b	-0.39645466
73	0xbdb98aaa	-0.09059651
74	0xbef349b5	-0.47517172
75	0xbe8540ee	-0.260261
76	0xbe754d9b	-0.23955385
77	0xbd1add64	-0.03780879
78	0xbc8b6aab	-0.017018637
79	0x3da7819d	0.08179019
80	0x3d0f2bbf	0.03495383
81	0xbe364e96	-0.17803416
82	0x3e3335a4	0.17500931
83	0x3e695521	0.2278638
84	0x3e030e35	0.12798388
85	0xbdeab82e	-0.11460911
86	0xbe60ae59	-0.21941508
87	0xbe1ff423	-0.15620475
88	0x3ea86d85	0.32896057
89	0xbd81097c	-0.06300637
90	0x3e5e7528	0.21724379
91	0xbecd3537	-0.40079662
92	0xbe2bae08	-0.16765606
93	0xbb421872	-0.0029616621
94	0xbd74518f	-0.059648093
95	0xbd571ac6	-0.052515768
96	0x3e530175	0.20606025
97	0x3e1c3ab8	0.15256774
98	0xbdb66cb1	-0.0890745
99	0x3ef1f18a	0.47254592
100	0x3eb1a589	0.34696606
101	0x3dcd7bb0	0.10033357
102	0xbe27342e	-0.16328499
103	0x3e15c0b7	0.14624296
104	0xbdfb3191	-0.122653134
105	0xbdee9285	-0.1164904
106	0x3c9a2429	0.01881607
107	0xbe1ecd42	-0.15507987
108	0xbeea4b6b	-0.45760664
109	0xbdb49275	-0.08816997
110	0xbe727b9f	-0.2367997
111	0xbe0d661a	-0.1380848
112	0xbdc6b6e3	-0.097028516
113	0x3e695430	0.22786021
114	0xbef9b652	-0.48771912
115	0x3e0566a1	0.13027431
116	0x3e0d7477	0.13813959
117	0xbd05d950	-0.03267795
118	0xbe2b2f18	-0.16717184
119	0x3db8aafa	0.09016986
120	0x3e67d29f	0.2263894
121	0x3e9d8bb6	0.30770653
122	0x3e124027	0.14282285
123	0xbf4720f4	-0.7778466
124	0x3de5a484	0.112130195
125	0xbcf0d502	-0.029398445
126	0x3e1b92e2	0.1519275
127	0xbe7bf64c	-0.24605674
128	0x3e339ca4	0.17540222
129	0xbbad6891	-0.0052920063
130	0x3e4c6fd2	0.19964531
131	0xba9ada50	-0.001181433
132	0xbe637603	-0.22212987
133	0x3e143f58	0.14477289
134	0x3e4f2870	0.2023027
135	0x3d9bef43	0.07613995
136	0xbdaaa825	-0.08332852
137	0x3e009604	0.12557226
138	0xbe1b231a	-0.15150109
139	0x3e350368	0.1767708
140	0xbe700dcd	-0.23442765
141	0xbe968658	-0.2939937
142	0xbe8090bb	-0.2511042
143	0x3dd37fd0	0.10327113
144	0xbd34d7c0	-0.044151068
145	0x3cdd3ad5	0.027005592
146	0xbe037870	-0.12838912
147	0xbd979cb1	-0.074029334
148	0x3c214c43	0.009844842
149	0x3e8731e4	0.2640525
150	0xbd615865	-0.05501594
151	0x3d0555cc	0.032552525
152	0x3dc7fbd1	0.09764827
153	0xbe905bd5	-0.28195062
154	0x3e06ac1b	0.1315159
155	0x3da051e9	0.07828123
156	0x3e2dd290	0.16974854
157	0xbd73bb23	-0.05950464
158	0x3dc87bc0	0.097892284
159	0x3d511eb0	0.051054657
160	0xbdf4883e	-0.11940049
161	0x3c85d8e9	0.016338782
162	0x3aaff517	0.0013424483
163	0xbccbc958	-0.024876282
164	0x3d604bcb	0.05475978
165	0xbd5ab7c9	-0.053397927
166	0x3beaffa9	0.0071715903
167	0x3e722ecc	0.23650664
168	0x3e2f810a	0.17139068
169	0xbdf5312d	-0.1197227
170	0x3e13667e	0.14394566
171	0xbd993e10	-0.074825406
172	0xbde4b39d	-0.11167071
173	0xbe52b6d7	-0.2057756
174	0x3dd27c6d	0.102776386
175	0xbec014d0	-0.3751588
176	0x3dd44e73	0.103665255
177	0xbca501bd	-0.02014243
178	0xbe051e18	-0.12999761
179	0x3dc96440	0.09833574
180	0xbda0180d	-0.07817087
181	0x3d00b3ef	0.031421598
182	0xbe32da6f	-0.17466138
183	0x3f0fa7c0	0.5611534
184	0x3dfa6a60	0.12227321
185	0x3e40545f	0.18782185
186	0xbe02d7a5	-0.12777574
187	0xbe4ea3fb	-0.20179741
188	0x3d3cdcb5	0.04610892
189	0xbdfbf818	-0.123031795
190	0xbe1c0e5c	-0.15239853
191	0xbe4bfc9e	-0.19920585
192	0xbeae9348	-0.34096742
193	0xbd90e05c	-0.07074043
194	0x3da7bbd0	0.08190119
195	0xbd2abf56	-0.04168638
196	0xbd037778	-0.032096356
197	0xbcee3e11	-0.02908233
198	0xbcef8e01	-0.029242517
199	0x3eb55519	0.35416487
200	0xbd8ad325	-0.06778554
201	0xbe38ae2c	-0.18035191
202	0x3e64dff5	0.22351058
203	0x3e83f8fb	0.25775895
204	0xbd7532da	-0.05986295
205	0x3e4d1698	0.2002815
206	0x3e35ce48	0.17754471
207	0x3dcbe8f4	0.09956542
208	0xbc820dd0	-0.015875727
209	0x3ceac5f9	0.028658854
210	0x3da043f6	0.078254625
211	0x3d986c79	0.074425645
212	0x3e1f6d5b	0.1556906
213	0xbe395458	-0.18098581
214	0xbdfd041e	-0.12354301
215	0x3ee638cf	0.44965217
216	0x3dbe4ad0	0.09291613
217	0xbd1ed233	-0.03877468
218	0xbe14b7f1	-0.14523293
219	0x3e0d3164	0.13788372
220	0x3a2e95a9	0.00066598743
221	0x3dcebfe3	0.10095193
222	0xbbb677ac	-0.005568465
223	0xbe12fdcb	-0.14354627
224	0x3d3f6f63	0.046737086
225	0xbdeb17dd	-0.11479161
226	0xbdc82aaf	-0.09773766
227	0xbdd694b1	-0.104775794
228	0xbe3290ad	-0.17438002
229	0x3d16de8c	0.03683333
230	0x3d0fb440	0.03508401
231	0xbe199e3e	-0.15001771
232	0xbd87a94f	-0.0662409
233	0xbd472800	-0.04862213
234	0x3cf90bdd	0.030401165
235	0xbd5606f5	-0.05225273
236	0xbd973907	-0.07383924
237	0xbf1153a7	-0.5676827
238	0x3da58193	0.08081355
239	0xbe950153	-0.29102573
240	0xbeabd8dd	-0.3356389
241	0xbda489d3	-0.080341004
242	0x3edb9f75	0.42895094
243	0xbe2751ca	-0.16339794
244	0x3dd6b5f7	0.10483926
245	0x3ce3433b	0.027742019
246	0x3e9a0cf4	0.30088007
247	0x3cedca39	0.029027091
248	0x3d9b4389	0.07581241
249	0x3ea402bf	0.32033345
250	0xbdde2759	-0.10847349
251	0xbd3e3c2c	-0.046444103
252	0x3e877f49	0.26464298
253	0x3ee8edb5	0.45493856
254	0xbd414e41	-0.04719377
255	0xbf00ea05	-0.50357085
