models/mec_policy_ep7000.pth (torch, 576658 bytes, 11 tensors)

critic.0.weight f4 [256, 19]
00000000: a4dd 22be 3d43 3e3e a2b7 a5bd 968e 05bd
00000010: 961d 41be 4e60 df3d c755 edbe 3181 54be
00000020: 75e9 fa3e 6029 a73e 6540 373e 7614 4d3d
00000030: e0d5 12bd e2dd 663e 9321 4fbe b780 babd
00000040: 6962 bbbd aa04 023e 740c 15be 72a6 183e
00000050: 8b21 dbbd 8960 4fbe 131d 0f3e d6f1 f33d
00000060: 20a3 5dbd 9046 113f 3b08 513b 68d2 2abe
00000070: 861c 14be 00db 50bd 75b7 ef3e 5e82 1fbe
00000080: 41fc 4dbe 91d6 03be 42f7 5a3d 7a0d 923c
00000090: 52f2 d43d a39a 2e3e 09eb f3bd 23c0 a13e
000000a0: fc93 3dbc fef8 8dbc 0032 f439 a741 69be
000000b0: 8ec6 fb3e e3d3 b83d 8a6d e1be 50f5 253e
000000c0: 0d6e 003e 889f abbd c2ce 003c 176f 353d
000000d0: 3ea9 953d 3cb4 6bbc d267 4d3e 2a6d febc
000000e0: aa25 debd 45cb d93d 181c 823d 0e14 79be
000000f0: 3eda c1bc b0c5 573c 4618 41be 52dd 8ebe
00000100: f979 86ba 1cb5 ec3e f239 82bd 632a 103e
00000110: 2079 073f 87e6 30be 6657 efbd 3b49 b83d
00000120: 467f 04be 034f e43d bce0 c03c ecde 013e
00000130: fce1 8f3d 1935 9dbd 79c5 10be f188 cabc
00000140: 9f12 f4bd 7f60 5b3e 3af5 463f 3f05 fa3c
00000150: c349 6c3e bb2d b93d a47e 763d e671 fb3e
00000160: 7130 f43d 1915 843d 2359 3fbe 9c03 9cbb
00000170: 4bab 1d3e f901 8fbd 9c68 713d e691 69be
00000180: 5e8d 9fbd 3f0d 843c b15e db3d e002 9cbc
00000190: f43e 793d 6089 d7be 24f5 56be 2146 29be
000001a0: af95 613e 1320 223e 43dd 423f 5203 87be
000001b0: 7f9b 433e d339 44be e7ba 14be 9045 88bd
000001c0: 1fa0 75be 2680 553c 0b7c 93bd 997a fdbd
000001d0: 900b 1bbe f176 f73d 108e 03be 1942 333e
000001e0: b402 363f bbdd 343e 8825 3d3e d395 9e3c
000001f0: cc42 a5bd 886c 953d c88c 24be 655e 36be
00000200: 6f96 55be 4ba9 203e 7777 bebd 39c2 0bbe
00000210: 73af 4bbe 3803 2d3e 3e65 053d a003 be3d
00000220: bc42 c63d 12eb 0ebe ba59 3bbe 5851 ccbe
00000230: 3782 6c3e 5eca 303e 0ea1 5e3e f332 453e
00000240: 75dc 9f3e 3fa8 f4bd cea4 853e 6f22 11be
00000250: c400 9bbd cd5e 36bd 92ca 17be 1ebc fe3d
00000260: 96a1 f5bd 69c3 b2be 5105 cd3c caf3 48be
00000270: a870 c9bd b433 4a3d 6ef5 fb3e b9fe 6abd
00000280: 2f7a 5b3e c198 68bd 8ccb 78bd 98e8 0b3f
00000290: 978f 423b 6b11 a8be 7234 413e d3be 06be
000002a0: aff4 f4bd 9ce3 97be efdf e8bb fc40 3e3d
000002b0: bc95 5cbe 2c92 56be c34c d6bc 9d93 66be
000002c0: 3b35 64be 602d a3be 33fa c0be 52d8 65be
000002d0: b890 513b 49cc 2a3e ca1d b43e 34d4 613e
000002e0: c489 62be 426e 4a3d 9d5a 04be 077f 3abe
000002f0: 72c3 773d 6b98 9e3d ba20 a2bd ba58 80bd
00000300: b04a 013e 63f2 53bd e8eb 943c ed26 66be
00000310: 05fc ab3e 9906 24be f811 e8be 6e3e 42be
00000320: 2ca1 0cbe b310 d5be fa61 1fbd 20c1 9c3e
00000330: 7e8e f63d d0b5 ebbb a462 0c3d b8d5 393e
00000340: ead5 043e 62e8 903d 0697 ef3d d6a9 59bd
00000350: c5fe 3a3e 188c 34bd 7c40 1bbe d694 163f
00000360: 7042 2fbe 2c7c 73bd 34af 81be ca75 65be
00000370: 9c98 38bf 407d 2f3e 4891 ab3d 230b 80bd
00000380: 4acc 0bbe e5a0 2cbe c637 a43d adc6 5c3e
00000390: fbba ce3d 13f5 cbbd c3dd 02be f490 293e
000003a0: 2e36 b33d 4a31 a13d 3538 01bf 9f84 67be
000003b0: f715 fd3c 92a5 e0bd d8f5 f43c 6b7e 223f
000003c0: 3f94 493d 8b40 903e f343 96be 236f 473d
000003d0: e358 79be 0564 f8bd 2e81 18be d5d5 33be
000003e0: 346b 103e b873 d4bd 560e af3d 8817 883c
000003f0: c727 2d3e f8b1 23bf 2c65 203e b7cf 153e
-0.15904862 0.18580337 -0.08091666 -0.032606684 -0.18858942 0.109070405 -0.46354505 -0.20752408
0.4900624 0.32648754 0.17895658 0.05006834 -0.0358485 0.22545579 -0.20227651 -0.09106582
-0.091496296 0.12697092 -0.14555532 0.14907244 -0.10699757 -0.20251669 0.13975935 0.11911361
-0.054110646 0.56748295 0.0031895775 -0.16681826 -0.14464006 -0.050990105 0.46819654 -0.15577075
-0.20115758 -0.1287482 0.05345846 0.017828692 0.103977814 0.17051177 -0.11910064 0.315919
-0.011570927 -0.017330643 0.0004657656 -0.2277895 0.49174923 0.09024789 -0.44028884 0.1620686
0.12541981 -0.083800375 0.007861795 0.044295397 0.07307671 -0.014386233 0.20059136 -0.031057913
-0.108470276 0.10634474 0.06353015 -0.24324057 -0.023663636 0.013169691 -0.18856916 -0.2790323
-0.0010259739 0.46231925 -0.063587084 0.14078669 0.529192 -0.17275439 -0.11686592 0.089983426
-0.12939176 0.11147883 0.023544662 0.12682694 0.07025525 -0.07676143 -0.1413783 -0.024723502
-0.11917614 0.21423529 0.77717936 0.03052008 0.23075013 0.090419255 0.060179368 0.49110335
0.11923302 0.064493366 -0.18686347 -0.0047611725 0.15397374 -0.06982798 0.058937654 -0.22809562
-0.077906355 0.016119597 0.1071142 -0.01904434 0.060851052 -0.42096996 -0.20991951 -0.16530658
0.22029756 0.15832548 0.7611887 -0.2636972 0.19102286 -0.19162683 -0.14524423 -0.06653893
-0.23986863 0.013031041 -0.07201394 -0.12376899 -0.1514113 0.12083233 -0.12847161 0.17505683
0.71097875 0.17662708 0.18471348 0.019358551 -0.08069381 0.07296091 -0.16069329 -0.17809446
-0.20858167 0.1568958 -0.0930013 -0.13648309 -0.19891147 0.16895759 0.032567255 0.09278035
0.09680697 -0.1395686 -0.18295947 -0.3990581 0.23096548 0.17264697 0.21741125 0.19257717
0.31222883 -0.11946153 0.26102298 -0.14173292 -0.075685054 -0.044524003 -0.14823368 0.12438224
-0.11993711 -0.3491471 0.02502695 -0.19624248 -0.098359406 0.049365714 0.49210685 -0.05737183
0.21433328 -0.056786302 -0.060740992 0.54651785 0.0029687637 -0.3282579 0.18867663 -0.13158731
-0.11960732 -0.2966584 -0.007106773 0.046448693 -0.21541494 -0.20954198 -0.02615965 -0.22517247
-0.22285931 -0.31870556 -0.37690887 -0.22445801 0.0031977128 0.16679491 0.35178977 0.22053605
-0.22122866 0.049421556 -0.12925191 -0.1821252 0.060489126 0.07743915 -0.07916398 -0.06266923
0.12626147 -0.05174483 0.018178895 -0.22475787 0.33590713 -0.16018142 -0.4532621 -0.18969128
-0.13733357 -0.41614303 -0.038911797 0.30616093 0.12038897 -0.0071933046 0.03427376 0.18147933
0.12972227 0.070755735 0.11698727 -0.053140484 0.1826125 -0.044078916 -0.15161318 0.58820856
-0.17115188 -0.05944459 -0.25328982 -0.22408214 -0.72107863 0.17137623 0.083773196 -0.06252124
-0.13652149 -0.16858251 0.080184504 0.21560164 0.100942574 -0.099588536 -0.12779908 0.16559201
0.08750568 0.07870729 -0.5047639 -0.22609185 0.030894263 -0.1096908 0.029902384 0.6347415
0.049213644 0.28174242 -0.29348716 0.048689973 -0.24350314 -0.12128452 -0.14893028 -0.17562039
0.14103395 -0.10373634 0.08547656 0.016612783 0.16909705 -0.63943434 0.15663594 0.14630018

critic.0.bias f4 [256]
00000000: 101b e238 43a6 4d3e 35af 3abe 4f78 123e
00000010: 712c 82bd ffb5 7b3e 795a 3e3e 8713 9c3d
00000020: fe94 c83d 16f8 58be 19ad 3dbe 7e6e 683d
00000030: 3505 2abe e6f3 7e3e 6aef ef3d b105 543c
00000040: ffb4 9fbc c6d6 11be 63d0 28be 17fa 143e
00000050: 5c4a 03be 8c0a 6d3c f198 893d 1219 04be
00000060: 88f8 03bd 2e10 c3bd 14d8 82be a413 c03c
00000070: 5be6 433e 0023 04be 6e8b aabd 943d 55bd
00000080: 03c2 6c3e da76 263c 6693 783d ec1f 4abd
00000090: 4640 073e b804 ecbd 0a4f cb3d 5b51 a4bd
000000a0: f2e5 0a3e de60 10be fe2a 373e b6e7 c8bd
000000b0: a58a f53d 95c6 a73d e8ea 63bd 40b1 273d
000000c0: 100e bd3d ceb8 c13d 202f 10be 6a96 bcbd
000000d0: 9017 2b3d d9d1 95bb d55b 4cbe d0dc 8b3d
000000e0: 2a7f 12be 9a71 103d 65ed a9bd e7b1 303e
000000f0: 21f1 0e3e f308 c9bd 393e 783e 75e5 003e
00000100: d814 05bd a50f 01be bf48 8a3d 2582 413e
00000110: aaeb 96bd 8859 89bd a80b ebbd 771e 1c3e
00000120: 0280 8bba 7f69 0abd c607 023e 7396 bdbd
00000130: 2622 14be eb70 223e f5e8 b1bd 7d24 233e
00000140: 3f2a 09bd 5e34 183e 1d28 703e 5986 503b
00000150: ca6b 9fbd cf4d 803e 0883 c2bd accf b33d
00000160: 5c84 a8bc 4f61 ccbd 7084 f3bd ec7a 803c
00000170: b975 11be 8857 bbbc d44f ca3d 8527 a7bc
00000180: 52b7 0b3e aa5e 4cbe a29b c93d 4fb4 33be
00000190: 7dff 19be 6990 da3a 5e10 e33d a59e 07be
000001a0: c9a9 0abe 93e1 d63d 3b0a 48bd b431 6d3c
000001b0: 39ff 2c3d c5af 3bbe 5613 cfbd 313e ee3d
000001c0: 5a96 d23d d49e 3e3e b9a8 063e a5e7 66be
000001d0: 83e4 9a3d 5cff aabd bec7 133c d1fd 00be
000001e0: a4fb 08be 1ccb ab3d b0cd 36be 945a 0f3d
000001f0: 2d31 133e f2cf 61be e6ad 813d d097 ab3d
00000200: 33df a1bd 529d 0d3e 7fc7 a93d 8e5c 08be
00000210: ad00 4abb 15f9 4a3c 342a c03d 0db1 9abd
00000220: b96f ba3c 361d 853d fdb9 4c3e 48ee 8b3d
00000230: 8ef8 b13d d8c6 cb3d c94a 2dbc 30b1 01bd
00000240: 36a6 adbd 3005 d0bd a6d5 b33a 9c69 f43d
00000250: 61b0 1cbe a72b 40bd 6828 5dbe 4862 43be
00000260: 7a3f abbd 295a 4b3e 1871 2bbe ac2a ebbd
00000270: a4db 0c3e 2b97 933d d5b0 2d3e 610d 00be
00000280: c329 903e 9e08 0c3c 5477 04bd 32d4 f83c
00000290: d754 73bd 23fe 22be 4f3a a7bd 42e8 8abb
000002a0: 15e5 78bd 8253 a8bd 37a6 52bd dc83 683e
000002b0: 0fcf 3fbc ff02 3c3e 6276 01be 1ed2 2d3e
000002c0: 2b92 4dbd 0fa8 613d 7a2a 0fbd 141c 60bd
000002d0: ac97 a6bb 60f9 c6bd 500a f03d 7e7c bebc
000002e0: 1922 50be 69e6 eb3d 2f82 32be 2ef9 00be
000002f0: f4cd 1dbe 11d2 0dbe 2678 d9bd c94e 5b3d
00000300: 1173 b83d a84d 033e 1bb6 893e 344a e0bd
00000310: 05df 483e 10b2 613e 2770 593e cf61 4cbd
00000320: e127 23be 8394 29bc c2f1 46bd fdf2 55bd
00000330: 2f30 bc3d 7dd4 273d a08a 07be 0144 113e
00000340: ec2a 91bd 6717 133e d85d 013e a8b7 143e
00000350: c37b 98bc f3b7 87bd 8388 023e 6c93 3c3e
00000360: c7d8 1b3e e7a2 283e 2f8e 873d 25a2 3c3e
00000370: 77a7 913d 8698 bebd 7646 4d3d db1c 64bc
00000380: affc 5abe fe9b 383e f2d9 a93d f6a5 403e
00000390: 5d5e 5b3e c03d f53d 64ff 373e 02fe f7bd
000003a0: ff82 a5bd 6190 7f3e f16d 23be 25fb ffbc
000003b0: d755 ea3d 1396 9bbd 681e 80be da76 b73a
000003c0: 8633 23be c0e1 41be 6917 143e 33dd 34be
000003d0: 58df 6ebe cc6f 3dbe 97be 13bd a566 f0bc
000003e0: 12d3 65be 65df 2c3e 2178 17be 1ec8 52be
000003f0: e32b 4a3e 0715 79be a125 143e 45fa 2d3e
0.000107815606 0.20082955 -0.18230899 0.14303707 -0.06356133 0.24581145 0.185892 0.07620912
0.09794043 -0.21188387 -0.18523063 0.056746 -0.16603549 0.24897727 0.117155865 0.01294081
-0.019495485 -0.14242086 -0.16485743 0.14548527 -0.12821335 0.014467847 0.067186244 -0.12900189
-0.03221944 -0.095245704 -0.2555548 0.023446865 0.19130842 -0.12903976 -0.08327375 -0.05206068
0.23120885 0.010160172 0.060687445 -0.04934685 0.13208112 -0.115243375 0.09927185 -0.0802333
0.1356428 -0.14099452 0.17887494 -0.0980982 0.11989335 0.081921734 -0.055643946 0.040940523
0.09231198 0.09459077 -0.14080477 -0.09208377 0.041770518 -0.004572135 -0.19956906 0.06829226
-0.14306322 0.03526459 -0.082972325 0.17255364 0.13959171 -0.0981616 0.24242486 0.12587531
-0.03249058 -0.12603624 0.067521565 0.18897302 -0.07369168 -0.0670653 -0.11476833 0.15245996
-0.0010643008 -0.033792015 0.12698278 -0.092572115 -0.14466152 0.15863387 -0.08687011 0.15931888
-0.033487555 0.14863726 0.23452802 0.0031818359 -0.07784231 0.25059363 -0.094976485 0.08779845
-0.020570926 -0.09979498 -0.11890495 0.015683614 -0.14205064 -0.022868887 0.09878507 -0.020404587
0.1364415 -0.19957986 0.09844138 -0.17549251 -0.15038867 0.0016675118 0.11087106 -0.13244112
-0.1354133 0.104922436 -0.04883788 0.014477182 0.042235587 -0.1832877 -0.1011111 0.11632956
0.102825835 0.18615276 0.131503 -0.22549303 0.075631164 -0.08349487 0.00901979 -0.12596823
-0.13377243 0.083883494 -0.17851901 0.03499849 0.14374228 -0.22051981 0.063319966 0.08378565
-0.079039 0.13829544 0.08290004 -0.13316557 -0.0030823157 0.012388487 0.093830496 -0.07553301
0.022758352 0.06499712 0.19992824 0.06832558 0.08689986 0.09950036 -0.010576912 -0.03166312
-0.08478968 -0.101572394 0.0013720288 0.11934206 -0.15301658 -0.04691663 -0.21597445 -0.1908046
-0.083617166 0.19858612 -0.1674236 -0.114827484 0.13755661 0.072065674 0.16961987 -0.12505104
0.28156862 0.008546976 -0.032340363 0.03037462 -0.05940708 -0.15917258 -0.08165418 -0.004239113
-0.060765345 -0.08219053 -0.051428046 0.2270655 -0.011707081 0.18360518 -0.12642816 0.16974685
-0.050188225 0.055091914 -0.03495262 -0.054714277 -0.0050839987 -0.09715533 0.11720717 -0.023252722
-0.20325507 0.115185566 -0.17432474 -0.12595055 -0.15410596 -0.13849665 -0.106186196 0.053541932
0.09006322 0.12822592 0.26896748 -0.10951653 0.19616325 0.22040582 0.21234189 -0.049897965
-0.15933181 -0.010350349 -0.048570402 -0.052233685 0.09188878 0.04097413 -0.13236475 0.14186098
-0.07088265 0.14364396 0.12633455 0.14523184 -0.018613702 -0.066268824 0.12747388 0.18415612
0.15219413 0.16468392 0.06618916 0.18421228 0.071120195 -0.09306435 0.050116025 -0.013922895
-0.21385454 0.18028256 0.08293523 0.18813309 0.21422715 0.119746685 0.17968518 -0.12108995
-0.08081626 0.2495742 -0.15959908 -0.031247685 0.11442154 -0.07596984 -0.25023198 0.0013997213
-0.15937623 -0.18933773 0.14462055 -0.17662506 -0.23327386 -0.18499678 -0.036070433 -0.02934582
-0.22443798 0.16882093 -0.1479192 -0.20584151 0.19743304 -0.24324428 0.1446748 0.16990001

critic.2.weight f4 [256, 256]
00000000: 2641 acbe 8dbd b13b 45cd 923e 2834 04be
00000010: 9da8 cbbc d678 24bf e106 71bd 8659 02be
00000020: 336d 91bc 20c3 6cbc f237 f83d ef64 3a3e
00000030: a680 2cbe 2f4b a7bd 371e 373c b20b a6be
00000040: 49a4 cc3e 3b20 6abd 5419 8fbd 9a49 7b3e
00000050: 17dc 523e 495a ae3e b11e 713e 543a ebbc
00000060: 646c 563d 715e 943d 4d23 213e 78a8 433d
00000070: 169f 173e 8dec 67be 516e cdbe 2ad1 0cbe
00000080: 7512 87be d4f0 113e becc 72be 6e92 bc3d
00000090: d865 1cbd d7b6 00be a631 acbd 8adb 853e
000000a0: 70af 793c e0a4 b63e c8bf d5be 38e6 f3bc
000000b0: 9c82 d8bc 4dc9 703e c34f 31be 8dc0 66be
000000c0: 0be2 b93e 56e5 1c3e 264f 1a3d 4c95 073f
000000d0: f01a 853c 1679 0dbd 59f4 d33d 1b68 143d
000000e0: c000 4c3e 251b 3dbd 8be5 8f3c 84a7 a0bd
000000f0: e397 3abe ddbd cf3b 8735 9bbd dc46 6dbe
00000100: 3c2a 673d 13ee 36be 6142 5fbd 3ac1 03be
00000110: 6038 543e a6e4 213e 5f75 473e 8e8c a93d
00000120: afca a33e 3221 ab3e 93cb b03d 8bd1 ccbe
00000130: 0eb4 abbe bb4a 863e 5952 dfbd dd5a 4d3e
00000140: 63df da3c f397 0a3e a673 a5be 5c75 a2be
00000150: 2b19 0f3e aec1 963d 004d 30bd 139a febd
00000160: 57f9 5a3e f593 cfbd 6d37 27bd f400 d53d
00000170: e8d6 02be 0153 ff3d b461 7bbe cb06 69bd
00000180: 5cf0 703e 9b81 97bd c37b 7cbe 9f08 063e
00000190: 2301 98bd b188 eebd f3ac df3b f40e ad3b
000001a0: a613 cbbd 49e4 403b b27b 0ebe c291 e1bc
000001b0: c3aa 7abd 8865 34bd fa25 53be 36f2 ecbd
000001c0: 5b8f a0be a6aa 73be 4d58 2abe 86b2 6cbe
000001d0: 956e 573d 0bb7 3fbd 846b f43a 1ad1 b13e
000001e0: cf3b b7bc 35f3 183c 7903 833d b705 2abd
000001f0: bfa5 563e d313 e53d b908 2e3d aba5 5f3d
00000200: dd7b 093e 7170 7b3c e9d5 3c3e c61b 053e
00000210: 2b69 6d3d b952 f8bd 3dc3 35be ae63 bcbe
00000220: 67d8 443e df7c e43c 4079 04bc 8d9b 873e
00000230: 4273 d6bd 4a3a 17be ce75 5d3d ae85 0dbe
00000240: 64fe 403e 76b3 b93d f2fb 9ebe b6c4 13be
00000250: 666b 1bbd 1fd7 893d e2b8 813e 51f1 24bc
00000260: d978 633c e988 7abd 9682 c6bd 355d 96be
00000270: 5f03 77bd 6700 0ebc e794 3dbe bba2 853e
00000280: ea9b 23be 1a2c 893d a0aa ec3e adaf 10be
00000290: a1fb 6ebe 4158 f1bd bcd4 98bd 1372 b0bc
000002a0: 9808 ae3d 1d62 fe3d bace 46bd 08e5 2e3d
000002b0: 9a16 ddbd ee3d ccbb 9293 17bd 4dae 1fbc
000002c0: 162d b73e 0e7a 69bd 8131 8ebe 8bb7 0dbe
000002d0: c374 a63e f525 9ebd 73c2 42be 30e6 abbd
000002e0: b00c 5b3d 7655 13be 96bc 2a3e 018b febd
000002f0: e691 f9bd c057 483a f06b f43d 00a0 0f3e
00000300: 3d8c b8bc 57dc 93be 3a37 69bc 6fe3 26be
00000310: bc0f 5b3e 3655 253d b205 9abd d549 81bd
00000320: 04c3 963e 56cd 863e fe80 a53e 68f8 a3bd
00000330: d42e 433e 4b7c a13e 3e46 933e 9099 043f
00000340: 7198 053e 0890 423d d912 8ebd 5bac 243c
00000350: 155b 66be 1d11 2ebc 8c13 32be 34f0 8dbc
00000360: 6cb3 4b3e 8f91 4bbe 9a84 9cbd 3f0b 89be
00000370: 4242 0bbe c0a0 0f3e 9fee 783d 54dc e23d
00000380: e9d7 373e 044e 103e 1cc4 64bd b047 963e
00000390: 2bcf a5be 8f6a 35be 44d1 32bc dd84 f83d
000003a0: 4926 783e e41a 823e c555 25be e36e 4a3e
000003b0: 304b 2fba 8b4b 863e 7048 e8bd 8d7e b83c
000003c0: ea09 04be 3a64 4dbe f95c 9a3e 3764 e53e
000003d0: 7cf0 283e 9648 833e 22a4 093d 2959 30be
000003e0: 8701 a83c 150d 033e 5552 e13e 6e77 50bd
000003f0: 782f 2ebd a935 993e a81e 193d 6050 91bc
-0.33643454 0.0054242075 0.28672233 -0.12910521 -0.024860675 -0.6424688 -0.05884445 -0.12729463
-0.017752266 -0.014450818 0.12120046 0.18202566 -0.1684595 -0.08168637 0.011176637 -0.32430798
0.3996909 -0.057159644 -0.06987253 0.24539796 0.2059177 0.34053257 0.23546864 -0.028714336
0.052349463 0.07244576 0.15736122 0.047768086 0.1480678 -0.2264883 -0.40123227 -0.13751665
-0.2638127 0.14252025 -0.23710915 0.09207617 -0.038183063 -0.12569748 -0.08407907 0.26144058
0.0152395815 0.35672665 -0.4174788 -0.029772863 -0.026429467 0.2351429 -0.17315583 -0.2253439
0.3630527 0.1532186 0.037673138 0.52962184 0.016248196 -0.034539305 0.1034934 0.036232095
0.19922161 -0.046168465 0.01756551 -0.07844451 -0.18222003 0.006339772 -0.07578569 -0.23171562
0.056436762 -0.17864256 -0.054506663 -0.12866679 0.2072463 0.15809879 0.19478367 0.08278762
0.31990573 0.33423764 0.08632579 -0.4000362 -0.33535808 0.2622889 -0.109043784 0.20054193
0.026717847 0.13534527 -0.32314795 -0.31730163 0.13974445 0.0736116 -0.043042183 -0.12431731
0.21384178 -0.101356424 -0.040824343 0.104005724 -0.12777293 0.124670036 -0.2454899 -0.056891244
0.2352919 -0.07397767 -0.24656586 0.13089226 -0.07422092 -0.116471656 0.006826037 0.0052813236
-0.09915857 0.0029432944 -0.13914374 -0.027535323 -0.061198007 -0.04404214 -0.20619956 -0.115696356
-0.31359372 -0.23795566 -0.16635247 -0.23114976 0.052595694 -0.046805423 0.0018647765 0.34729844
-0.022367386 0.009335329 0.06397147 -0.041509356 0.20961665 0.11185422 0.042488787 0.054601353
0.13426156 0.015346632 0.18440975 0.12998876 0.057961624 -0.12125153 -0.17750259 -0.367948
0.19223176 0.027891574 -0.008085549 0.26485863 -0.104712024 -0.1476833 0.054067425 -0.13820526
0.18847042 0.090674326 -0.31051594 -0.14430508 -0.03794422 0.06730484 0.25336367 -0.0100673
0.013883793 -0.061165724 -0.09692876 -0.29367986 -0.06030595 -0.008667088 -0.18513833 0.26100716
-0.15977445 0.06697865 0.46223927 -0.14129515 -0.23338176 -0.11784411 -0.07462451 -0.02153877
0.08497733 0.124210574 -0.048536994 0.04269889 -0.107953265 -0.0062329685 -0.03700597 -0.009746146
0.35776585 -0.057001166 -0.27772143 -0.13839547 0.32510957 -0.077220835 -0.19019489 -0.08393514
0.053478897 -0.1438807 0.16673502 -0.12428857 -0.12186031 0.00076424703 0.1193465 0.14025879
-0.022527808 -0.28879043 -0.014234358 -0.16297697 0.21392721 0.040364467 -0.075206175 -0.063129105
0.2944566 0.26328534 0.32324976 -0.08006364 0.19060832 0.3154014 0.28764528 0.5179682
0.13046433 0.04750064 -0.06937189 0.010050858 -0.22495683 -0.010624197 -0.17390269 -0.017326452
0.19892663 -0.19879745 -0.07642479 -0.26766393 -0.13599494 0.14026165 0.06077444 0.110771805
0.17953457 0.1409226 -0.055851087 0.29351568 -0.3238462 -0.1771643 -0.010914151 0.12134717
0.24233355 0.2541114 -0.16146 0.19768862 -0.0006686924 0.2622951 -0.11341941 0.022521282
-0.12894407 -0.20057765 0.30149058 0.4480302 0.16497988 0.25641316 0.033603795 -0.17221512
0.02050854 0.12797959 0.44008127 -0.050895147 -0.04252574 0.29923752 0.03738275 -0.017738521

critic.2.bias f4 [256]
00000000: d96b bcbd 6612 a93b 7005 093d 326d c8bd
00000010: db9b a5bc 919a 8cbc f81d 9e3d 79fb 6bbd
00000020: f358 32bb 442e 9abd f4f0 0fbd c417 623d
00000030: cd17 e23b 5f23 cb3d ebb7 743c f7fa 643d
00000040: 42d2 01bd c103 00bd c0d2 a73c c3b0 2a3d
00000050: 375c b63b ea31 f6bc 933e b9bd 5dc8 2d3c
00000060: 9609 2ebd 0f5d 703d 0f21 563d 7ae1 07bd
00000070: 2cc8 873d cc4e 13bd 5825 84bd 2cdc a93d
00000080: 2913 a13d 36a3 2a3d 6614 be3d 38f4 aabb
00000090: 7ef7 7a3c d589 09bd ffd8 42bb cbe0 b1bd
000000a0: 5c62 2c3d 00c1 9c3d 41b5 863d e0a4 b03d
000000b0: c866 d2bb b19a 773c 977b b2bc 1e88 063d
000000c0: 73b8 e63c cd67 613d 5f43 213c 5f02 a6bb
000000d0: 3475 41bd 0fe3 3dbd 83ff c03d c97d e0bc
000000e0: e881 e3ba e04c a33b c21e c53c d464 26be
000000f0: 86a0 9a3d 76ec 13bd 336a 95bc a686 c7bc
00000100: 1382 fb3b 34be e43d 3831 98bd 7e8e 03bc
00000110: 1bac 91bd d4a9 543b 9bd0 153c cd6b f53c
00000120: d5c9 4d3c 1cd2 0e3d df9c 10bd c543 debb
00000130: 5eb9 3c3d bde0 ce3c cb9b 3b3c 6d70 2d3d
00000140: 4b38 733d f047 883c 65a2 71bc 480c 43bc
00000150: b338 a33d 2673 d0bd 3604 8d3c c312 19bd
00000160: cf22 463d 381b 07bd 6026 f83c ae78 223c
00000170: 4fd7 763c cd92 6fbd 0708 523c 4453 07bd
00000180: cfa1 d6bc bb75 b53c 1256 db3d fe23 a83d
00000190: de66 ac3d 1c89 5cbd 8ea4 00bd 99f7 983c
000001a0: 7495 f9bb 28a5 973c bdc8 c0bc aaf1 cfbb
000001b0: d4d7 6e3d e860 4fbb 2f6e d8bd 0858 e83d
000001c0: 46ee 0ebd 862f 543d 94a9 8dbc cae1 94bd
000001d0: 8bbf 633d 68f0 283c 7d14 1e3d aebe d03c
000001e0: dd28 153d 759e c2bd c0fb 9c3c e98a f8bc
000001f0: 6c8e 0d3d 6eb4 95bc 2513 cbbc 17b2 a6bd
00000200: 2957 b73c 06f7 2f3d 431e 6d3d 6238 86bb
00000210: d491 06bd fcf4 91bd a250 173d 3f02 e4bb
00000220: f185 adbb ad6a 98bd 5323 a4bd 3f65 d0bd
00000230: fe71 97bd a818 9f3d e541 b6bd 221e a3bc
00000240: 49a5 dcbd e860 c5bb c317 733d 2b51 28bc
00000250: 4a15 2fbc cf49 fc3c a2e7 353c 97f8 a33d
00000260: d8e0 ea3d a079 96bd b977 063c 8a0f 36bd
00000270: 00c2 32bc 2c05 72bb b5d7 c23c 5de1 933d
00000280: fbe2 8abd 4b76 823c 76e3 973d a2cc 013d
00000290: a219 e6bd 5430 f0bd d98a 163c 240e 6fbd
000002a0: af0e 5abc 35eb 8fbd fd3a f0b9 80c4 88bb
000002b0: bd5b d8bc f59e 34bb 3d21 45bd 23d7 cb3d
000002c0: 947a bebd d493 d53c aca7 313d 7467 4e3c
000002d0: 297a 10bd 02b0 bebd c370 9e3d b949 b93d
000002e0: 53f6 4b3d b492 473c 71d3 95bd 7a4b 863c
000002f0: 8a82 c53b c2cf 0c3d bcb0 d2bc b863 b33b
00000300: a353 a5bd a0ff 8f3c e2dc 873d faa7 b43d
00000310: 76c4 ab3d a4b6 9ebc a2da 6e3c 9d62 e2bd
00000320: fb9e a1bb 5001 a4bd 36cb 66bd 55cf 79bd
00000330: 3df6 94bd 7929 8dbd 6dd2 c33c be22 40bb
00000340: c11d f53c 0d8f 6fbb b7db d73b 75cc 27bd
00000350: 0c3f e9bd ac8d 84bd 0116 c43d 6f81 153d
00000360: 37a5 243c c438 013d 3e95 d93c 82c6 8fbd
00000370: 87cb c13d 6716 743d da35 9b3d 257e a0bd
00000380: 84f1 433a 1a9a b5bc f89b b939 9c10 a8bd
00000390: 9a8c 70bd 99c6 d23d f71a 81bc 3965 413d
000003a0: fa54 14bd e3f5 3b3c 3360 bf3c ce4e 1b3d
000003b0: 8807 43bd 7148 51bd 4c7b 143c 3e45 a9bd
000003c0: f557 44bd ca50 b2bd 9992 9f3d c019 23bd
000003d0: 45fc e1bc f444 27bd 0af6 8abc 429e 273d
000003e0: 41bd 92bc 6f44 b03d c3f6 163e 09bc 75bd
000003f0: 7ed5 2b3d 69bb 81bd 397e ba3d 93ac e0bc
-0.09200258 0.005159664 0.03345245 -0.09786452 -0.02021592 -0.017163547 0.0772056 -0.05761287
-0.0027213662 -0.07528356 -0.0351419 0.055198446 0.00689981 0.09918856 0.014936428 0.0559034
-0.031694658 -0.03125358 0.020486236 0.04167248 0.005565192 -0.030053098 -0.09045138 0.010606852
-0.04248961 0.058682498 0.05227762 -0.033174016 0.06629977 -0.03596382 -0.06452435 0.082939476
0.07864983 0.041659556 0.092812344 -0.0052171014 0.015317796 -0.033578712 -0.002973139 -0.08685454
0.04208599 0.07653999 0.0657754 0.086251974 -0.006420944 0.015112565 -0.021787448 0.032844655
0.028164124 0.055030633 0.009842723 -0.0050662006 -0.047230914 -0.046359118 0.09423735 -0.027403729
-0.0017357441 0.0049835294 0.024062518 -0.162494 0.07550149 -0.03611418 -0.018239116 -0.024356198
0.007675418 0.11169091 -0.07431263 -0.008029578 -0.07112905 0.0032449858 0.009143974 0.02995863
0.012560328 0.034868345 -0.035305854 -0.006782981 0.046075217 0.025253648 0.011450718 0.042343546
0.059379857 0.016635865 -0.0147481905 -0.011904784 0.07969799 -0.10178213 0.017213922 -0.03737141
0.04837304 -0.032984942 0.030291736 0.009916468 0.015065982 -0.05848961 0.012819297 -0.033038393
-0.026200203 0.022150865 0.10709776 0.0820999 0.08418058 -0.053841695 -0.03140693 0.018672751
-0.007616693 0.01851137 -0.02353322 -0.0063459473 0.0583113 -0.0031643454 -0.10567891 0.11344916
-0.034895204 0.051803134 -0.017292775 -0.07269628 0.05560259 0.010311224 0.038593758 0.025481548
0.036415923 -0.095028795 0.019163013 -0.030339675 0.034559652 -0.018274512 -0.024789402 -0.08139437
0.022380428 0.04296019 0.057890188 -0.004096077 -0.032853916 -0.07126805 0.03694213 -0.0069582756
-0.005295508 -0.07442222 -0.0801455 -0.10175561 -0.07394789 0.07768375 -0.08899287 -0.01991183
-0.10773713 -0.006023515 0.059348833 -0.010273258 -0.010686228 0.030796913 0.011102589 0.08006399
0.11468667 -0.07347417 0.008207255 -0.044448413 -0.010910511 -0.0036929352 0.023784498 0.07220719
-0.06781574 0.015925547 0.074164316 0.031689294 -0.11235358 -0.11727968 0.009188377 -0.058363095
-0.013309165 -0.07027284 -0.00045820317 -0.0041738153 -0.026410932 -0.0027560566 -0.0481274 0.099531434
-0.09300724 0.026071467 0.043372795 0.012597907 -0.03527275 -0.093109146 0.07736351 0.090472646
0.04979546 0.012180973 -0.0731572 0.016393412 0.0060275244 0.03437782 -0.02571904 0.005474534
-0.08072593 0.017577946 0.06633927 0.088211015 0.08387081 -0.0193742 0.014578493 -0.11053965
-0.004932282 -0.08008063 -0.05634614 -0.060988743 -0.07273529 -0.06892676 0.02390405 -0.0029317583
0.029921414 -0.003655377 0.0065874713 -0.04096647 -0.11388978 -0.06472334 0.095745094 0.03650039
0.010049156 0.031548277 0.026560422 -0.07020284 0.09462648 0.059591677 0.07578631 -0.0783656
0.00074746483 -0.022168208 0.00035402155 -0.08206293 -0.058727838 0.10291786 -0.015759928 0.047215674
-0.036213852 0.011472198 0.023361301 0.03791695 -0.047614604 -0.051094476 0.009062599 -0.0826516
-0.047935445 -0.087068155 0.07791633 -0.03981948 -0.027586112 -0.040837243 -0.016963024 0.04092241
-0.017912509 0.08606803 0.1474257 -0.059993777 0.04195165 -0.06334574 0.09106106 -0.02742604

critic.4.weight f4 [1, 256]
00000000: 0446 043f 3f5a de3e eb08 12bf 5d4c f2be
00000010: 9ab3 ccbe 134b debe bb94 03bf c4df f5be
00000020: aadb de3e fb84 d53e d343 713f 5453 15bf
00000030: d59c d5be 2f28 e5be d4b1 023f 3be1 113f
00000040: 2a6b 2b3f 7d1d d23e 2dbf f9be 2c57 173f
00000050: f5c7 c23e 5581 e53e 18d1 da3e db70 f8be
00000060: e424 14bf e238 b1be 50c8 113f 0153 f6be
00000070: d0f1 e5be ff83 243f 2be1 cb3e db71 ef3e
00000080: e720 71bf a2b1 01bf dab4 f5be cda8 eabe
00000090: 6cb8 ecbe 912e 0abf c0ba f1be 8b62 023f
000000a0: 5dba eabe ab49 e73e 7663 d3be 9391 183f
000000b0: 6bcc edbe c4da 173f 99f1 d3be 35b4 65bf
000000c0: c08a b23e 2dfd 0c3f 495e 07bf 4f16 e7be
000000d0: 39df d0be 886d dd3e 4032 6a3f d204 dc3e
000000e0: 38f8 e03e ae21 083f 9640 c6be cab1 893f
000000f0: 3920 f9be 6781 f6be 4aa2 44bf 7987 e7be
00000100: 30cf 2a3f 0178 70bf cac6 f43e e6c6 de3e
00000110: fdc7 d23e e027 f2be 6e1f 18bf d1b3 043f
00000120: d63c ee3e d9c7 debe dd00 cfbe f1a8 13bf
00000130: 3464 123f ba20 dbbe 6dbd 06bf dd5d 15bf
00000140: 7761 143f 7a0b 0bbf 1d66 d0be 908a ebbe
00000150: 6052 02bf 8d38 12bf ca24 d7be 429f b63e
00000160: f59c f1be d878 cfbe 0aef 023f 056c 6bbf
00000170: 6b0f ed3e 0e41 f7be 65e5 d6be 3235 e43e
00000180: d211 ddbe 5ef6 e7be 6751 0fbf d8f9 e53e
00000190: 7063 c3be 1dbf f4be bdaf 15bf 40d6 123f
000001a0: 2808 0a3f 8343 bebe 1e8a f43e f6c4 dcbe
000001b0: d5cd 16bf 4b39 3a3f 0d21 053f 5aff 8cbf
000001c0: 7308 ffbe 7862 1dbf 4e92 e03e 0b71 ee3e
000001d0: 1458 cfbe a185 e7be b9f1 31bf 060e 03bf
000001e0: 0502 1ebf 0597 ebbe a1d3 fb3e 11c6 e5be
000001f0: 95ca e7be 566d 103f 359f 10bf 985c f1be
00000200: da68 3b3f 701b e7be 3757 14bf 148b fbbe
00000210: 9c84 ecbe f822 cc3e 6872 d6be 561a f5be
00000220: 21a2 fdbe 2d3b 033f dbce ea3e f6c1 00bf
00000230: 6fab d63e cf4b e4be 7593 a83e ed8e ec3e
00000240: d68b e6be 8d1d d63e 6e40 0abf 289a 08bf
00000250: b452 ebbe 70f7 d1be f447 0ebf ca7e ea3e
00000260: cc38 60bf 99fc dc3e aa45 f53e d3b9 f73e
00000270: 7906 1cbf 6a66 eebe 210c d23e a43d cabe
00000280: fe64 053f 8ac2 f5be 5028 0cbf 332b f63e
00000290: 6171 e03e 101a 5abf 8b5a d0be c3f4 2a3f
000002a0: 95c6 07bf 3efa ea3e dc15 0abf 25d6 efbe
000002b0: b650 d03e 86d4 3ebf 7135 14bf c682 d0be
000002c0: c89c 363f c51b dabe 8243 023f 7227 d5be
000002d0: e30c e7be 6c0b f63e 7e17 ddbe 488e c4be
000002e0: 37a8 c53e 4b74 d4be 273a 1b3f 9867 db3e
000002f0: 8fd6 12bf da1b eb3e 47a5 033f 14ef 01bf
00000300: ac7c ef3e ab5e 26bf df78 e2be 7aef f83e
00000310: a830 38bf 9f76 c0be 534f cdbe 0ea5 ed3e
00000320: c5b9 113f 691c dd3e 53f2 dbbe 6514 053f
00000330: 1519 003f 2848 ca3e 5a40 c1be 7d95 ee3e
00000340: d84b eabe 8c53 c33e 2db3 0dbf f4ab 423f
00000350: e492 ddbe 3ab6 153f 596e 1e3f 11be d73e
00000360: 7462 cd3e 3947 ccbe a2d9 ec3e 7dcd 043f
00000370: 6299 ec3e 821d c8be 8b3f fabe a6cf 133f
00000380: 58e4 f23e da9e 013f 2319 e13e fad3 ebbe
00000390: a9f4 e13e 81a3 19bf 4de5 0bbf b315 eb3e
000003a0: 7e75 febe c8be 19bf 0fa3 ecbe fe3a bd3e
000003b0: 3f2c 0f3f a2ce e03e 781c f13e 1d96 cb3e
000003c0: f0e6 dbbe 923d ce3e ecfe 0ebf b96d e73e
000003d0: ef66 cf3e c037 023f 45d1 e2be b042 1cbf
000003e0: 9a36 10bf eaa6 b73e becb 42bf bf65 5f3f
000003f0: c6cb febe 5906 c83e dc74 433f 6802 ef3e
0.51669335 0.43428227 -0.5704486 -0.47323886 -0.39980775 -0.43416652 -0.5139882 -0.48022282
0.43526965 0.4170302 0.94244117 -0.58330274 -0.41721216 -0.4475722 0.51052594 0.569843
0.66960394 0.41038123 -0.48778668 0.5911739 0.3804318 0.44825235 0.4273765 -0.48523602
-0.5786879 -0.3461371 0.5694628 -0.48110202 -0.4491105 0.6426391 0.39820227 0.46766552
-0.9419083 -0.5066167 -0.4798954 -0.4583191 -0.46234453 -0.53977305 -0.4721279 0.50931615
-0.4584531 0.45173392 -0.4128682 0.5959713 -0.4644502 0.59318185 -0.41395262 -0.897281
0.34871483 0.55073816 -0.5287824 -0.45134208 -0.40795305 0.43247628 0.91482925 0.42972428
0.43939376 0.5317639 -0.3872115 1.0757382 -0.48657396 -0.481456 -0.76810133 -0.45220545
0.66722393 -0.9393311 0.47807914 0.43511122 0.41168204 -0.47296047 -0.5942296 0.5183688
0.4653079 -0.43511847 -0.40430346 -0.5767966 0.5718415 -0.42798406 -0.5263279 -0.5834635
0.5796122 -0.54314387 -0.40702906 -0.46004152 -0.50906944 -0.5711754 -0.42020255 0.3566838
-0.4719006 -0.40521884 0.51145995 -0.919617 0.46300825 -0.4829182 -0.4197189 0.44571835
-0.43177658 -0.4530515 -0.55983585 0.44917178 -0.38161802 -0.47802058 -0.5847128 0.5735817
0.53918695 -0.37160882 0.47761625 -0.4311902 -0.58907825 0.7274367 0.52003556 -1.1015427
-0.49811134 -0.61478376 0.43861622 0.4657062 -0.40496886 -0.45219138 -0.69509465 -0.51193273
-0.6172183 -0.46013656 0.49184898 -0.44877675 -0.45271745 0.56416833 -0.5649293 -0.47140956
0.73206866 -0.4513812 -0.5794558 -0.49129546 -0.46194923 0.3987043 -0.4188416 -0.47871655
-0.49537757 0.5126217 0.45860943 -0.5029596 0.41927668 -0.44589087 0.32925 0.46202794
-0.4502856 0.4181942 -0.5400456 -0.53360224 -0.45961535 -0.41009092 -0.5557854 0.45799857
-0.87586665 0.43161467 0.47904712 0.4838396 -0.60947376 -0.4656251 0.4102488 -0.39500153
0.52107227 -0.47999984 -0.5474901 0.48079833 0.438365 -0.8519602 -0.4069408 0.66779727
-0.5303739 0.45894045 -0.53939605 -0.46843067 0.40686578 -0.74543035 -0.57894045 -0.40724772
0.7133298 -0.4259931 0.5088426 -0.41631657 -0.4512702 0.4805559 -0.43181986 -0.38389802
0.386049 -0.41494974 0.6063561 0.42852473 -0.5735864 0.45919687 0.5142407 -0.5075543
0.46774805 -0.649882 -0.44232842 0.48620206 -0.71949244 -0.375905 -0.40099582 0.4641499
0.56924087 0.43185738 -0.42958316 0.51984245 0.5003827 0.39508176 -0.3774441 0.46598426
-0.4576099 0.3814968 -0.55351526 0.7604363 -0.4327613 0.5848118 0.6188713 0.42137197
0.40114176 -0.3989809 0.4625979 0.5187605 0.46210772 -0.39085013 -0.48876604 0.5773872
0.47439837 0.50633013 0.4396449 -0.46060163 0.44131973 -0.6001511 -0.5464676 0.45914993
-0.49699014 -0.60056734 -0.46218154 0.3695907 0.5592689 0.43907648 0.47092032 0.39762965
-0.4294963 0.4028135 -0.5585773 0.452009 0.4050822 0.5086632 -0.44300285 -0.6103926
-0.56333315 0.35869533 -0.76092136 0.8726463 -0.49764842 0.39067343 0.7635019 0.46681523

actor.0.weight f4 [256, 19]
00000000: 2e36 01be 9ea5 08be 9d4b 103e 27d0 92bd
00000010: a0a4 d6bc c8c2 e43c 685a c63e 858d eebc
00000020: 63c4 a8bd c8ed ef3d bf4f 103e 4c6c 52be
00000030: d532 e83d b365 89bd 276d 9bbc c0d5 2a3e
00000040: 1eda e6bd 4c32 0d3e 12b2 8e3d 20fc 7bbd
00000050: 7658 563e 96b7 05bd 652e 3dbc 00ba beba
00000060: c43e 663d c4ac dbbe b43b 4d3e 483e d8bd
00000070: 152d 6a3c 8d14 60be 8fa4 ec3d a250 7abe
00000080: a145 d2bd f6bb 8b3b c1a0 6b3d 2df1 c33d
00000090: 2f84 9f3d 9a4d 2abe 814d 3c3d 56e4 ba3d
000000a0: 832e 153e 3175 94bd 61bc 363e 9adf 63be
000000b0: 0095 5fbd 68e4 7c3d 0ea6 c7bd b1f7 b4bc
000000c0: d6ef 4dbe 24ea 273e 3c26 29bd 8e99 6b3e
000000d0: 48af 7b3d 54a1 e43c 5e70 213e da56 9abd
000000e0: 34eb 86be 2b8c e5bd 7377 4b3d a0ef babd
000000f0: 56db 753c 5f79 2c3e 134b 48be c680 93bd
00000100: 78e3 043e 4c17 b7bd a5ce 8ebd 8007 3cbb
00000110: c166 0a3e 8c2a 4fbc 30cc ac3e d841 fb3c
00000120: 521f 51bd 4120 233e 6026 7ebd 183f 103d
00000130: c246 163e 9dad 86bd 6d88 27bc 3e87 8a3d
00000140: 3db9 013e fe67 f5bd f007 ddbb 30da 1fbe
00000150: b61b 183e f7d9 63be b3aa 4fbe 7f4b 863e
00000160: 19b5 b8bd 7adf d9bd 5ee0 4f3d 8537 f3bc
00000170: f642 523e 5117 2f3e e9e4 93bc 94e3 a23d
00000180: 878c 06be 0f62 48be a48b 813d 2822 a1bc
00000190: ced4 0ebe 18cc e33d 0971 e13d c3dc 45be
000001a0: bb7b 843d c05f a5bd 1963 e6b9 80a5 753e
000001b0: bccc 73be f882 67be 6c1b d8bb 53c5 04be
000001c0: 52a5 eabd d768 23bd c15a 9ebd 3221 303e
000001d0: ec94 20be 5e86 373e 8789 3dbe 4627 47be
000001e0: 55c5 61be 9f25 603e ccca 1ebe f431 0bbe
000001f0: aa99 fc3d 3315 07be 9558 83be fbb6 493e
00000200: 9660 63be 7f18 e2bc ebd7 b43d 3694 433d
00000210: 20be 273e ef0a 3e3e 5192 57be a89a 533e
00000220: d181 dfbd 796a 073e 5da0 3a3e bee0 95be
00000230: 3ec6 8dbd 1e6d 91bb d4cb c7bd 55e9 3bbe
00000240: 8748 58bd faae 703e 9e0f 9f3e 70ee 343d
00000250: 7fe6 88be 6a3d 01bd 3560 27be c754 26be
00000260: 0f42 923c 170d 4f3d 71a7 23be d2f6 f93d
00000270: 49aa 413e a3a9 36be a15e aa3c 72d9 38be
00000280: e78d 60be 29e5 2fbe 882a ee3c f454 7cbe
00000290: 4dd9 823e 2bda 08be db29 513e af07 473e
000002a0: 22e8 5bbe abb2 bf3d 8719 613e 5794 17be
000002b0: 3990 58be 93fd c23d 186b 233e 3586 51be
000002c0: 3649 5ebe 47ca 29be 8466 3d3d 2678 4dbe
000002d0: e985 25bc d4b5 60be 0f3f 9fbe 627b 783c
000002e0: 984f 173d 6994 50bd 0996 d6bd 68f9 aebd
000002f0: 7a91 3e3e 8433 9a3e 5065 113e 55be 243e
00000300: d54a 08be 6db7 30be f69c 69be 5860 e53c
00000310: e124 b1bd 3be9 bfbd b963 a7bd 1a99 d7bd
00000320: 551f 4e3e 574c a9be 4fbc b23d d47a 73be
00000330: fa8a 403e d440 5a3e 4086 0f3d 527d 2a3d
00000340: 454e 2f3e 70c7 483e e6aa 27bd b21b 62bd
00000350: 278f 2a3e fe90 e33d 5bc9 313e 4f8d 963e
00000360: 3959 04be 1376 0f3e 504d 57be faac 01be
00000370: f1a7 783d bac1 1f3d 3fed a23c 9f0f 00be
00000380: 2f36 6f3d 9739 7d3e 6fec a43d f4b7 2ebe
00000390: daf7 6cbe 34cc d7bb 842d 3bbe a886 48bb
000003a0: 55e1 4b3e 7c0b 443d 7877 9c3e b92f 7cbd
000003b0: 7b31 ab3d badb 303e da7c bcbd b8d2 98be
000003c0: 8ffb 8b3e a988 89bd f6f6 88be 6fe7 ee3d
000003d0: 730c 8e3e cbf7 103e b271 643e b2ad 1f3e
000003e0: 69e3 0b3e eefe 1e3d ecc8 71be 1ed9 fc3d
000003f0: a649 e93d ffba e53e cb6c ef3d e7a0 46be
-0.12618324 -0.13344428 0.14091344 -0.07168608 -0.026201546 0.02792491 0.3874085 -0.029120216
-0.08240583 0.11715275 0.1409292 -0.20549124 0.113378204 -0.06708851 -0.018972946 0.16683102
-0.11272071 0.13788718 0.06967558 -0.061519742 0.20932183 -0.032645784 -0.011546706 -0.0014551282
0.0562122 -0.42905247 0.20042306 -0.10558754 0.014292975 -0.2188284 0.115548246 -0.24444821
-0.10267187 0.00426435 0.057526354 0.09567485 0.07788884 -0.16631165 0.04597235 0.09125583
0.14568524 -0.07248915 0.17845298 -0.22253266 -0.054585457 0.061741263 -0.09748469 -0.022090765
-0.20111021 0.16397911 -0.04129623 0.23007795 0.061446458 0.027908958 0.15765521 -0.07536097
-0.2635132 -0.112083755 0.049674463 -0.09127736 0.015005907 0.16843174 -0.19559889 -0.07202296
0.12977397 -0.089399904 -0.06973008 -0.0028690994 0.1351576 -0.012644421 0.33749533 0.030671045
-0.05105526 0.15930273 -0.062048316 0.03521642 0.1467543 -0.06576083 -0.010225398 0.06764077
0.12668319 -0.119827256 -0.006745331 -0.15610576 0.14854321 -0.22251116 -0.2027996 0.26229474
-0.09018917 -0.10638328 0.050751083 -0.02968956 0.20533356 0.17098738 -0.018053489 0.07953563
-0.13139544 -0.19568656 0.063254625 -0.019669607 -0.13948366 0.11122912 0.11007888 -0.19322495
0.06468912 -0.080749035 -0.00043942852 0.23988914 -0.23808569 -0.22608554 -0.006595066 -0.12965898
-0.114573136 -0.039894905 -0.07732154 0.17200163 -0.15681809 0.17922351 -0.18509494 -0.19448575
-0.22047932 0.21889351 -0.15507048 -0.13593274 0.123339966 -0.1319168 -0.2565352 0.19698708
-0.22204813 -0.027599571 0.088302456 0.047748767 0.1638112 0.18558858 -0.21051909 0.20664465
-0.109134324 0.1322421 0.18225236 -0.29273027 -0.06922577 -0.0044380566 -0.09755674 -0.18350728
-0.052803542 0.23504248 0.31066602 0.044172704 -0.26738355 -0.03155271 -0.16345294 -0.16243277
0.017853765 0.050549593 -0.15981843 0.1220528 0.18912615 -0.17838149 0.020797076 -0.18051699
-0.21929131 -0.17177261 0.029073015 -0.24641782 0.25556412 -0.13364474 0.20426123 0.19436525
-0.2147527 0.0936025 0.21982394 -0.14802681 -0.21148767 0.09521022 0.15958822 -0.20461352
-0.21707615 -0.16581069 0.046240345 -0.20065364 -0.010102727 -0.21944362 -0.31102797 0.0151661355
0.03694114 -0.050922785 -0.10477836 -0.08543664 0.18610182 0.30117428 0.14198804 0.16088231
-0.13309796 -0.17257471 -0.22813782 0.028000042 -0.08649612 -0.09370657 -0.081733175 -0.10527249
0.2012914 -0.33066055 0.08727323 -0.23777324 0.18803015 0.21313792 0.03504014 0.04162342
0.17119701 0.1960733 -0.040934466 -0.055202194 0.16656171 0.111116394 0.17361967 0.29404685
-0.1292466 0.14009885 -0.21025586 -0.12663642 0.060707036 0.03900311 0.019888518 -0.12505959
0.058401283 0.24729 0.08052909 -0.1706236 -0.23141423 -0.006585622 -0.18279082 -0.003059784
0.19910176 0.047862515 0.30559897 -0.06156895 0.08359047 0.17271319 -0.09203501 -0.29848266
0.2734036 -0.06715519 -0.26750916 0.11665236 0.27743873 0.14157026 0.22308996 0.15593603
0.13660969 0.03881734 -0.23611802 0.12346099 0.113910004 0.4486923 0.116906725 -0.19397317

actor.0.bias f4 [256]
00000000: b3a6 edbb fb4d 06bd 1401 ca3d 99ff 00be
00000010: 2710 65bd c5e2 113e 1f9a dd3d 3474 243e
00000020: 2625 80bc 3ab8 69bc 277a 203e 9428 f5bd
00000030: f9dc a83d 8eb4 823c ccd0 ccbc 5c41 033e
00000040: 077c 92bd d594 06bd 2deb 493d ec7c b53d
00000050: 076b fa3d e330 0dbe 6f8f 1abe 9cd6 67bc
00000060: b32b f53d bb54 de3d 65d9 573d 0a50 03be
00000070: f0de b73d cade 8fbd d4f9 143d 2610 4e3e
00000080: 9ea2 203e 2f60 f8bd afbd 363d 15ce 553d
00000090: 9d80 edbc 79c9 0dbd 6804 f7bd 478e d83d
000000a0: 0ca2 47be 551b 7a3d 5d14 e1bd 337f a5bd
000000b0: 0af0 fb3d 318d 9dbc 83a8 44bd 0f77 1dbe
000000c0: d4b3 65bd 3b48 e23d a2f0 193e 1657 1a3e
000000d0: 832d 6c3e 5830 a6bc 2dee b43b a475 a8bd
000000e0: 6ac6 0fbe 4104 0c3e 4026 7a3d e9b5 ee3d
000000f0: 903c 073e c1fd b3bd b564 41be 961f 9ebe
00000100: 9b80 35be fe39 e13c f4de 253e 3e37 45bd
00000110: 5f5e e83d cb5d 973d a9b5 563e 9973 e93d
00000120: a68b 763e d1ea 3a3e f711 8c3d 0888 193e
00000130: 4e6a 2b3e 8d0e 1b3e 2e0d 87bd 6cb3 b53d
00000140: 46ad a33d 244f 4fbe ab34 a13d 06f7 8c3b
00000150: fb80 b2bd 2bc8 6e3c 18bc be3d 9dd0 4f3c
00000160: d992 293e d017 4f3e 5fba e73d fa7b e33a
00000170: 6c1d 0e3e ec26 90bd 7ed2 593e e188 afbc
00000180: 11b9 d3bd 088a 36be c790 02bc 95f8 d33d
00000190: 8ded 6abc 8014 e4bd 354b 17be 95d9 b7ba
000001a0: e1df 673c 2f04 d13c fb35 f93d fc72 0d3e
000001b0: 3eb1 673d 00dc 22be b19d 81bd 2261 653d
000001c0: 6661 8c3d 6f37 643e d174 e5bb 7ae2 21be
000001d0: 7ab6 2abe 8ba7 3dbd feaa 603d fa31 9f3d
000001e0: dbaa 46be 4e79 f63d 84e5 3dbe c788 1c3e
000001f0: 921a 03bd 42c9 5c3d c943 433d 057a 2dbd
00000200: 750d f0bd 5996 3c3e 8aa2 393e 4611 e33d
00000210: 2dfb 50be 807e 5d3c 481a 473e c7aa 313e
00000220: 9e25 e53d 81e6 3abe cc22 8abd 51b1 903d
00000230: 68ba 833d 02a6 433e 311e 01ba 35fc eabd
00000240: 7829 953d 7e71 51be 716c 67bc 9d8d f53d
00000250: eb95 0e3e 9696 babd 322f 2abd 30d6 63be
00000260: af79 90bd 601a 2c3e c48d abbd 033c 20be
00000270: f258 2ebe fd98 58be acb9 913d 14a0 34be
00000280: fd7c 4fbd f9e3 3d3e 030c a1bd b726 5b3e
00000290: 59fd 04be f4a7 3ebe 2bc5 68bd 374e c23d
000002a0: 9a37 3a3e 8754 203e 554a 00be cc11 09be
000002b0: 4641 97bc 5da3 403e 6d1e 30be 7fa1 2fbd
000002c0: 754b 1ebe 32b8 c83c 79fd 9bbd 074a 0c3e
000002d0: 980b ff3c e58f 4e3e fc1c 37be bc3c 9dbd
000002e0: 6926 5bbd 8421 a8bd dc2e 0e3e ec4a 75be
000002f0: 0aad ecbd ba00 183e a5cd 60be b60b 41be
00000300: 395e 8c3c c485 893d f06e 7b3d 8715 3a3e
00000310: 48c5 bcbc eab9 1fbe cec2 663d ffbc 0c3d
00000320: d931 0f3e e198 7c3d 0a1c d83d fddf d23d
00000330: 5b5a a23b 0adf 1cbe 0808 2abe 469f 01be
00000340: 803f 9ebd b57e 533d 121f 02be 57bc fc3d
00000350: 3de3 1f3e 7208 2c3e f44a 1d3e 52b4 0bbc
00000360: f910 743d 252c a03d 6e38 5d3e 02b9 fcbd
00000370: 0bc2 16be 8c9b 143e f7ee 2bbd a60f b63d
00000380: 1df3 56be a370 533e cec2 133e d1db 5fbc
00000390: 6c99 59bc 33ee a7bd 35cd f3bd cf0f cabd
000003a0: 08f0 67be 9fb1 08be 9554 33be 683f 00bc
000003b0: 9280 14be 9e9c 04be 49cf 3f3e c249 88bc
000003c0: 0f85 b63d 31ab ba3d 0d75 723d 0e12 553e
000003d0: 682d 7cbc 7a4d eb3d ae20 c0bd 0052 183e
000003e0: 12e6 ae3d c12b 133e 4215 f9bd fd12 95bd
000003f0: 7836 683e 55c9 563d 20cd fe3d 5ed5 75be
-0.007252538 -0.03278921 0.09863487 -0.12597503 -0.055923607 0.14246662 0.10820412 0.16059953
-0.015642714 -0.014265114 0.15671597 -0.1197063 0.08245272 0.015955236 -0.025001906 0.12817901
-0.071525626 -0.03285678 0.049296547 0.088617176 0.12227445 -0.1378818 -0.15093778 -0.014150288
0.119712256 0.10856005 0.052697558 -0.12823501 0.08978069 -0.070249155 0.036371067 0.20123348
0.15687034 -0.121277206 0.04461449 0.05219849 -0.028991992 -0.034615967 -0.12061387 0.10574012
-0.1949541 0.061061222 -0.10990212 -0.08080902 0.12301643 -0.019232364 -0.048012268 -0.15377448
-0.0560797 0.11048933 0.150332 0.15072283 0.23064236 -0.020286724 0.005521557 -0.08225563
-0.14040533 0.13673498 0.061071634 0.1165579 0.13206697 -0.08788634 -0.18886073 -0.30883473
-0.1772484 0.027493473 0.16198331 -0.048148386 0.11346125 0.073909365 0.20967735 0.11399002
0.24076709 0.18253638 0.06839364 0.14993298 0.16739771 0.1514227 -0.06594311 0.08872113
0.07992034 -0.20245034 0.07871374 0.0043019084 -0.08716007 0.014574091 0.0931322 0.012684015
0.16559924 0.20223927 0.11314844 0.0017355673 0.13878411 -0.07038674 0.21271703 -0.021427574
-0.10338033 -0.17826092 -0.007969088 0.10350148 -0.014338863 -0.111367226 -0.14774783 -0.0014026636
0.014152498 0.02551469 0.12168499 0.13813394 0.056565516 -0.15904236 -0.063289054 0.056000836
0.06854515 0.22286771 -0.007002451 -0.1580905 -0.16671172 -0.04630236 0.05485057 0.07773204
-0.19401114 0.12034856 -0.18544585 0.15286551 -0.03200776 0.053902872 0.047672067 -0.042352695
-0.11721317 0.18416728 0.1812841 0.11087279 -0.20408316 0.0135189295 0.19443619 0.17350303
0.111888155 -0.18251993 -0.06744918 0.070650704 0.064320385 0.19106296 -0.00049254583 -0.11473886
0.072833 -0.2045345 -0.014124976 0.11989901 0.13924377 -0.09110753 -0.041548915 -0.22249675
-0.07054459 0.16806936 -0.08376649 -0.15647893 -0.17026117 -0.2115211 0.07115492 -0.1763919
-0.050656307 0.18543996 -0.07863619 0.21401487 -0.1298727 -0.18618757 -0.05682866 0.094875745
0.18185273 0.15657245 -0.12528355 -0.13385695 -0.018463742 0.18812318 -0.17199107 -0.042878624
-0.15458472 0.024501894 -0.076167054 0.13700114 0.031133458 0.20172079 -0.1788215 -0.076776
-0.053503428 -0.082095176 0.13885063 -0.23954362 -0.11556442 0.14844027 -0.21953447 -0.18852124
0.017134773 0.06714967 0.061385095 0.18172275 -0.02304329 -0.15598264 0.056338124 0.03435993
0.13983859 0.061669234 0.10552223 0.102966286 0.004954619 -0.15319458 -0.16604626 -0.12658414
-0.077269554 0.05163451 -0.12707165 0.123406105 0.15614028 0.16800097 0.15360624 -0.008526878
0.0595865 0.0782092 0.21603557 -0.12339975 -0.14722459 0.14512461 -0.04197594 0.088897035
-0.20991178 0.20648436 0.14429781 -0.013663248 -0.0132812075 -0.0819973 -0.119043745 -0.098662965
-0.22650158 -0.13349007 -0.17512734 -0.007827617 -0.1450217 -0.1295037 0.18731417 -0.016636733
0.08912098 0.091146834 0.05919366 0.20807669 -0.015391685 0.11489387 -0.09381233 0.1487503
0.08539976 0.1437216 -0.12162258 -0.07279012 0.22677028 0.0524381 0.12441468 -0.24007174

actor.2.weight f4 [256, 256]
00000000: 0101 653d 216c e13c 3cf7 243c e860 d4bb
00000010: d142 a1bd 55f5 cf3c 765c 973c 6385 8cbc
00000020: c070 353d ed5a 273d 2095 673c f44b 1ebd
00000030: 382e f73c e0f3 583d d257 fa3c fed2 5fbd
00000040: 53c1 1fbd faea c43d 6769 8fbd 9382 8a3d
00000050: 9830 4c3e dab3 623c 058f 86bd 9889 20be
00000060: fae3 ca3d 61db b9bd 411e 1b3d 12b5 aa3a
00000070: ac57 11bd 4f22 fdbd 6898 9b3b 43e3 5bbd
00000080: 39a5 10bd 1f1a ec3c 469c aebd 3881 383d
00000090: bca5 53bd acd4 8ebe ffaf 98bd 1ca6 6b3b
000000a0: 573f c8bd e3dd 41bd b7f6 573d 3b02 a3be
000000b0: 3ae5 22bd f9c3 e1bd 8ebc 473d ede1 ec3c
000000c0: 01af a3bd 6a16 533d fd1a df3c b878 513e
000000d0: b8f5 963d 706b 973e 3727 2bbd b8a6 ddbb
000000e0: 0ade a1bd eeef f63c 60da ffbd d14e b5bd
000000f0: 059e 2e3d 2114 47bd b5c1 3b3d f21f d4bd
00000100: d0fe 823d 3e48 ad3d 73f8 39be 973c 41bc
00000110: e45b 0abd 932f a5bd 0d68 f4bc e4ed 613d
00000120: e6c5 5d3d 8b8b fa3c e49d 11be e91f 4dbc
00000130: b083 1bbc 5e7d 033e bdf7 5c3d bcf5 613c
00000140: ff3b 743d e2c1 6d3d c956 9a3d 790d d43c
00000150: 9c5e 0bbe 2940 733d 3f54 05bd ac9a c23d
00000160: cd66 48bd a196 383d eab2 cf3c cb59 3b3c
00000170: fa74 6bbd a033 383d a20a 36bd 6726 b0ba
00000180: 9f77 933d b48f a0bd b806 273d 161f aa3c
00000190: 60c4 dfbb e2bc 003e ef95 973d 717b bf3d
000001a0: 4921 10bd 001e 9dbd 12e2 bd3c 3ec0 adbb
000001b0: 3988 20bb f643 f8bb a352 04bd 27b5 2ebd
000001c0: b502 27bd 32df 953d f66b 77bd e937 90bb
000001d0: e6d3 b1bd 805c 723d 057f 393e 6bf9 16bd
000001e0: 7ae9 133d 20dd a53d 67f8 6a3d 4746 583d
000001f0: becc 8b3d 9d3c 80bd 38f4 a83d 3f15 4c3d
00000200: 0217 e1bd 91e9 7bbd 628e 013e 8ee7 cf3d
00000210: 5781 81bd 2200 833d a8b4 a13c de0c 563d
00000220: 4041 8f3d 3e45 3bbd e5ef f23c 392c dfbd
00000230: 39b9 aa3d e14e 323c bca1 c63d 1cd0 2dbe
00000240: 705c 0abd 72ae f4bd 435f 413d 2be6 c1bd
00000250: f5af 803d a6cf e5bc c26a f23c e3ba 01bd
00000260: db27 8a3d 2271 5abd 21dd 173d 494d 123d
00000270: de39 c73c eff0 9cbd 8e42 e8bb 831d cb3c
00000280: 6f50 a83d 6bc7 90bb 450f 8cbd 4dc9 48bd
00000290: 60f7 53bd 8efd e73c b786 2f3d a03c 2c3d
000002a0: f7a4 85bb 9646 22bd 574f d03d 5acf 923d
000002b0: 9d43 453d c6b2 6d3d 44b6 b4bc 05af dabd
000002c0: 1e20 953d 08b1 7c3d 968e 57bc 1834 133d
000002d0: b033 f7bd a446 1abe cbfb 9b3c 26d6 06bd
000002e0: 469c 163e a1e7 8f3d 9da9 733d 9597 3b3d
000002f0: 1c1a 60bc 68fc c4bc 2a35 56bd 9405 823d
00000300: d6ce 2a3e d70c ba3d 9556 c33d 0163 7dbc
00000310: 2059 7f3d 4b98 12bd a3b5 fb3c 29a1 20bc
00000320: b819 a5bc f3b1 883d 32fc 0fbe 4642 013e
00000330: 31c1 163e 122f 08bc 7870 ff3b 7ea3 c5bc
00000340: d7a3 2bbd 58ec c83d bbf8 873d 090e 843d
00000350: 76d9 c53b 4b40 673d 7dad 4fbd 3c81 acbd
00000360: 3668 af3d 82b1 22be c051 273e 8e13 55bc
00000370: 025a 383d bf2c e13c e670 8dbd 6655 4dbd
00000380: 1da3 c83d 19ac e43d c213 c93d 3a65 e8bc
00000390: dcf3 dbbd 339c b6bc a327 513c 6ccd 07bb
000003a0: 12cf 8b3c 685e c6bd bee3 1ebd 691f 9ebd
000003b0: d5dd 07bc bc4e 1b3e 91e6 40bd 7e1c a33d
000003c0: b000 473c a599 97bd c076 8fbb ac08 933c
000003d0: 7691 df3d 284a 82bd 334a 45bc aba9 f13c
000003e0: 9a55 dc3d f742 693c 03e2 9cbd 3d35 f53c
000003f0: 4096 c53d 0af2 b7bd b183 b03c a521 a5b9
0.05590916 0.02751738 0.010068711 -0.0064812787 -0.07874072 0.025385538 0.018476706 -0.017153447
0.04429698 0.040858198 0.014134675 -0.038646653 0.030173406 0.052966952 0.030559454 -0.054644577
-0.039002728 0.09615131 -0.07002526 0.06763186 0.19940412 0.013836825 -0.065702476 -0.15677488
0.09906764 -0.09075046 0.03787065 0.0013023934 -0.035484 -0.123600595 0.004748393 -0.05368353
-0.03531382 0.02882105 -0.085259005 0.045045108 -0.05167173 -0.2789663 -0.074554436 0.0035957163
-0.09777706 -0.04733075 0.05272552 -0.3183764 -0.03976939 -0.11023707 0.048763804 0.028916324
-0.07992364 0.051535048 0.027234549 0.20456207 0.07371086 0.29574156 -0.041785445 -0.006764259
-0.07903679 0.030143704 -0.124928236 -0.08852924 0.042631168 -0.04860318 0.04583903 -0.103576556
0.06396258 0.08461045 -0.18161182 -0.011794231 -0.03377904 -0.08065715 -0.029834772 0.05515851
0.05414381 0.030584117 -0.14220387 -0.012519815 -0.009491846 0.12840793 0.0539472 0.013791498
0.05962753 0.05804623 0.07536084 0.02588533 -0.1361031 0.05938736 -0.032551046 0.095021576
-0.048926163 0.045065526 0.025353868 0.0114349825 -0.057484604 0.04497111 -0.044443734 -0.0013439179
0.0720055 -0.07839909 0.040777892 0.020766776 -0.0068288296 0.12572053 0.074016444 0.093497165
-0.035187993 -0.07671738 0.023179088 -0.005302458 -0.0024495258 -0.007576461 -0.03230537 -0.04265323
-0.040774066 0.07317962 -0.060405694 -0.0044011963 -0.086829945 0.059170246 0.1811486 -0.036858957
0.036111332 0.08098817 0.0573658 0.052801397 0.06826161 -0.06261561 0.08249706 0.04982495
-0.109907165 -0.061502043 0.12651971 0.101515874 -0.06323498 0.0639651 0.019739464 0.052258365
0.06994867 -0.04572033 0.029655406 -0.10897107 0.0833611 0.010883064 0.09698817 -0.16973919
-0.03377956 -0.11947335 0.04720999 -0.09467729 0.06283561 -0.028053116 0.029591922 -0.03167237
0.06745883 -0.053330548 0.03707612 0.035718236 0.024319585 -0.07663142 -0.007088012 0.024794346
0.082184665 -0.0044183037 -0.0683885 -0.0490201 -0.051749587 0.028319146 0.042853083 0.042050004
-0.004078503 -0.039618097 0.10171383 0.071684554 0.048160184 0.05803182 -0.022059567 -0.106779136
0.072815165 0.061692268 -0.013156554 0.035938352 -0.120704055 -0.1506601 0.019040963 -0.03291907
0.14708051 0.070266016 0.059487928 0.045798857 -0.0136781 -0.024046138 -0.052296795 0.0634872
0.16680464 0.0908448 0.095379986 -0.015465499 0.062340856 -0.03578977 0.03072626 -0.009804049
-0.020153865 0.06674566 -0.14061049 0.12622938 0.14722134 -0.008312004 0.0077953897 -0.02412581
-0.041904297 0.09810704 0.066392384 0.064479895 0.0060378863 0.0564578 -0.05070256 -0.08423087
0.085647985 -0.15888026 0.16339779 -0.0130051505 0.045007713 0.027487157 -0.06906299 -0.05013027
0.097967364 0.111656375 0.09818222 -0.028368581 -0.10739872 -0.022291278 0.012765798 -0.0020721806
0.017066512 -0.09685975 -0.03879141 -0.07720835 -0.008292635 0.15166754 -0.047094885 0.07964419
0.01214616 -0.07402352 -0.00437817 0.017948471 0.10916416 -0.063618004 -0.012041616 0.02949985
0.10758515 0.014237157 -0.07660296 0.029932613 0.096477985 -0.08981712 0.02154717 -0.0003149632
