models/mec_policy_ep9000.pth (torch, 576658 bytes, 11 tensors)

critic.0.weight f4 [256, 19]
00000000: fed8 21be 9dec 3c3e 53de a4bd 07dc 03bd
00000010: 961d 41be 4e60 df3d b5d1 edbe e74e 53be
00000020: c5ef fb3e 2562 a53e 6540 373e d027 423d
00000030: d5db 15bd 4d9c 6a3e e4cf 4ebe 66a7 b9bd
00000040: 6962 bbbd aa04 023e ca9f 14be 55ef 183e
00000050: 3529 d4bd f7f6 4fbe a586 0e3e d6f1 f33d
00000060: 20a3 5dbd 2ad9 123f 018d 433a 1e9c 29be
00000070: 87df 0fbe 00db 50bd 8883 f23e a54b 1fbe
00000080: dc38 4dbe 22ec 04be 419d 583d 7a0d 923c
00000090: 52f2 d43d 3504 2e3e f0fd f3bd d4d9 a13e
000000a0: 3c53 49bc 8dd8 93bc 0032 f439 a741 69be
000000b0: c33f fc3e b57e b73d 7396 e2be c598 293e
000000c0: 0d6e 003e b3bd a4bd 6ddb 173c d5ac 1e3d
000000d0: 7a4d 943d 7f73 77bc d267 4d3e 2a6d febc
000000e0: 939d dfbd e1c3 d63d 99b0 983d 6659 79be
000000f0: a704 c4bc b0c5 573c 4618 41be 9fe4 90be
00000100: 8ddb 82b9 10c1 ee3e a923 8abd 632a 103e
00000110: dedd 083f 41aa 32be e58e efbd ee93 b93d
00000120: 9cc4 04be 034f e43d bce0 c03c 9699 013e
00000130: 6bf3 963d 53de 9abd 81f9 11be 5b29 d4bc
00000140: 9f12 f4bd 7f60 5b3e 0974 4a3f 65f9 c03c
00000150: 1575 6d3e c1e8 c23d a47e 763d 988b fc3e
00000160: e60b f43d 7b2a 873d e129 41be 3a85 c2bb
00000170: 4bab 1d3e f901 8fbd 7c98 6c3d 17d1 69be
00000180: ffda 89bd 4058 7e3c 5826 da3d e002 9cbc
00000190: f43e 793d bdfb d8be 67cc 55be f27c 28be
000001a0: b1c5 613e 1320 223e f8fa 443f 5962 88be
000001b0: 8a5d 463e 8a06 45be 2157 15be 9045 88bd
000001c0: 1fa0 75be fabd 4b3c aa78 8dbd afce febd
000001d0: 07c4 1bbe dd05 f63d 108e 03be 1942 333e
000001e0: cd47 383f 6626 2d3e a176 3e3e a193 ca3c
000001f0: cc42 a5bd fd31 9a3d 7670 25be d2c2 33be
00000200: 4eb0 56be d4f0 1f3e 7777 bebd 39c2 0bbe
00000210: ea67 4cbe 84a7 2d3e 31c8 0f3d f1f7 c13d
00000220: 0b37 ca3d 12eb 0ebe ba59 3bbe cd70 cdbe
00000230: 52ae 6f3e 1340 343e ad53 5b3e f332 453e
00000240: 533f a03e 5795 f7bd 6b56 883e c2e2 0ebe
00000250: 750c 97bd cd5e 36bd 92ca 17be 2c58 013e
00000260: 72f5 f4bd a22f b3be 64bc c23c f33c 4abe
00000270: a870 c9bd b433 4a3d 51b1 fd3e c0c7 81bd
00000280: 65b6 5c3e f786 57bd 8ccb 78bd 6ae9 0c3f
00000290: 67e4 913b f9bd aabe 9578 403e fc07 08be
000002a0: aff4 f4bd 9ce3 97be 9b01 09bc 51c6 3a3d
000002b0: 8ff3 56be 6f07 58be e1f5 e1bc 9d93 66be
000002c0: 3b35 64be f3b8 a2be b79d bebe 80c4 66be
000002d0: 76e8 1f3b 49cc 2a3e a8a4 b53e 5e09 653e
000002e0: 0874 67be a88c 3f3d e1cf 05be 077f 3abe
000002f0: 72c3 773d 57ae 9b3d bd38 a0bd 1113 83bd
00000300: 0339 003e e538 58bd e8eb 943c ed26 66be
00000310: 6c79 ad3e 7b3c 25be 52dc e9be b19c 3ebe
00000320: 2ca1 0cbe cdea d4be bacb 1cbd 8377 9d3e
00000330: dee6 f23d 7ef4 06bc a462 0c3d b8d5 393e
00000340: 3ec4 033e 3626 963d 47e8 d33d e2a7 56bd
00000350: 49bf 3b3e 188c 34bd 7c40 1bbe 6391 173f
00000360: b15a 30be ccc5 79bd 7e88 81be ca75 65be
00000370: b67f 3abf 8bac 2e3e 11af ad3d 3e1d 7cbd
00000380: c60b 0bbe e5a0 2cbe c637 a43d 3187 5d3e
00000390: 1d0c d53d 3b64 b0bd b746 04be ff27 283e
000003a0: 2e36 b33d 4a31 a13d ea77 01bf ccdd 6abe
000003b0: 19d5 023d d025 dcbd d8f5 f43c c5a0 233f
000003c0: f6cc 453d 91f7 903e 585c 98be e7cb 413d
000003d0: e358 79be 0564 f8bd 23ea 19be 6adb 34be
000003e0: e4f0 143e 2995 d2bd e8ec b03d 8817 883c
000003f0: c727 2d3e 506b 25bf 74df 243e 037c 163e
-0.15805432 0.18449636 -0.080502175 -0.032192256 -0.18858942 0.109070405 -0.46449056 -0.20635568
0.49206367 0.3230144 0.17895658 0.04740125 -0.0365866 0.22911187 -0.20196491 -0.09065132
-0.091496296 0.12697092 -0.1451408 0.14935048 -0.10359422 -0.20309053 0.1391855 0.11911361
-0.054110646 0.57362616 0.0007459671 -0.1656346 -0.14050113 -0.050990105 0.47365975 -0.155562
-0.20041221 -0.12980703 0.052884344 0.017828692 0.103977814 0.16993792 -0.11913669 0.31611502
-0.012287911 -0.018047595 0.0004657656 -0.2277895 0.49267396 0.08959714 -0.4425541 0.16562183
0.12541981 -0.08043995 0.009268624 0.038739044 0.0724134 -0.01510322 0.20059136 -0.031057913
-0.10918727 0.1048658 0.07455558 -0.24350509 -0.023928 0.013169691 -0.18856916 -0.28299424
-0.0002495911 0.4663167 -0.06745083 0.14078669 0.5346354 -0.17447759 -0.11697177 0.090614185
-0.12965626 0.11147883 0.023544662 0.12656245 0.07370647 -0.07561936 -0.14255334 -0.025898626
-0.11917614 0.21423529 0.79083306 0.02355642 0.23189195 0.095170505 0.060179368 0.49325252
0.11916332 0.065998994 -0.18863632 -0.005936292 0.15397374 -0.06982798 0.057762608 -0.22833668
-0.06731223 0.01552397 0.10651845 -0.01904434 0.060851052 -0.4237956 -0.20878755 -0.16453913
0.2204807 0.15832548 0.7694545 -0.26637533 0.1937162 -0.19240776 -0.14584018 -0.06653893
-0.23986863 0.012435431 -0.069077805 -0.124417655 -0.15211497 0.12012837 -0.12847161 0.17505683
0.7198456 0.16909179 0.18599941 0.024728598 -0.08069381 0.07529066 -0.16156182 -0.17554787
-0.20965692 0.15619212 -0.0930013 -0.13648309 -0.19961515 0.16958433 0.035103027 0.09471119
0.0987378 -0.1395686 -0.18295947 -0.40125123 0.23406342 0.17602567 0.21418639 0.19257717
0.31298313 -0.12089031 0.26628432 -0.13953689 -0.07375423 -0.044524003 -0.14823368 0.12631291
-0.119608775 -0.34997278 0.023771472 -0.19749813 -0.098359406 0.049365714 0.49549344 -0.063369274
0.21553953 -0.052618947 -0.060740992 0.5504366 0.0044522765 -0.33348063 0.18795998 -0.13284296
-0.11960732 -0.2966584 -0.008362199 0.045599286 -0.20991348 -0.21096586 -0.027583065 -0.22517247
-0.22285931 -0.3178173 -0.37229702 -0.22535896 0.0024400032 0.16679491 0.35477185 0.22366855
-0.22602856 0.046765 -0.13067581 -0.1821252 0.060489126 0.07601612 -0.07823322 -0.06400121
0.12521748 -0.052788634 0.018178895 -0.22475787 0.338817 -0.16136353 -0.45675904 -0.1861446
-0.13733357 -0.4158539 -0.038280226 0.30755243 0.11860441 -0.008237002 0.03427376 0.18147933
0.12867829 0.07331507 0.10347038 -0.0524062 0.18334688 -0.044078916 -0.15161318 0.5920622
-0.17222096 -0.06097965 -0.25299448 -0.22408214 -0.7285112 0.17058007 0.08480657 -0.061551325
-0.1357871 -0.16858251 0.080184504 0.21633603 0.10402701 -0.086128674 -0.129176 0.16421507
0.08750568 0.07870729 -0.505736 -0.22936171 0.031941507 -0.107494 0.029902384 0.6391719
0.04829117 0.28313878 -0.29757953 0.047313597 -0.24350314 -0.12128452 -0.15030722 -0.17661825
0.14545017 -0.10282356 0.08638936 0.016612783 0.16909705 -0.6461687 0.16100866 0.14695744

critic.0.bias f4 [256]
00000000: 4ce0 083a d50f 4d3e 4f6b 3bbe f832 123e
00000010: 8994 84bd c519 7b3e 02a2 3d3e d607 a03d
00000020: e102 c63d 5a6d 5abe c5be 3ebe 7270 6b3d
00000030: 2a6e 2bbe 60e3 7f3e ad39 f23d 8dc4 803c
00000040: b5d9 a4bc ecf0 11be 8564 2abe ff33 143e
00000050: ed83 04be 5e90 5b3c 9c0f 893d 1539 05be
00000060: 6a0a 09bd 9905 c2bd 99ac 82be 263e c53c
00000070: efd4 443e f4bb 03be 3ed3 aebd 86e0 53bd
00000080: 230c 6c3e ddff 273c 8485 803d 2d1e 4fbd
00000090: 21a3 053e e5cc ecbd 4c1b cd3d 9e23 a3bd
000000a0: 5626 0b3e a4c8 11be 1371 383e 2580 c8bd
000000b0: 8051 f73d ce0e aa3d 37bd 5fbd b740 2b3d
000000c0: 0a38 c23d cde7 be3d 3835 11be b470 bcbd
000000d0: 4d39 313d d32e 74bb 13ea 4fbe 7f7a 8a3d
000000e0: 28bf 13be f85e 183d 25f0 aabd d233 2f3e
000000f0: f047 0d3e ae20 c9bd d20d 793e ffe3 fe3d
00000100: 4c0f 00bd 07c7 00be 621d 8d3d 20c1 423e
00000110: 5d6f 96bd c5c6 86bd 8656 e9bd 2bde 1b3e
00000120: 9c53 0dbb 23d8 03bd d196 013e 08ec bfbd
00000130: 35a4 13be 0b39 243e d155 b3bd c243 243e
00000140: 1fee 0bbd e3c3 163e 1289 6e3e e9a7 2f3b
00000150: 792e a0bd 9ee6 803e b34a c5bd da7d b53d
00000160: 0b8e b6bc 13fb ccbd 124d f1bd 9ef2 6a3c
00000170: e89b 12be e0b4 c2bc c5fc c93d 4981 9dbc
00000180: 5227 0d3e d40e 4cbe cf8a c93d af71 34be
00000190: 9405 19be 4d29 2a3b 324a e13d 03ba 06be
000001a0: 2fd4 09be 93a3 d93d a0f7 47bd b0d6 7c3c
000001b0: cb09 323d 764b 3dbe 98a9 d1bd 9db3 ed3d
000001c0: 1c3f d03d 9263 3e3e 6da0 073e 968b 64be
000001d0: a7a0 993d cabd adbd ae88 033c 2a8b ffbd
000001e0: dcdf 07be 0e28 ad3d 60c1 37be d96f 083d
000001f0: c09d 123e 10aa 62be b506 7d3d eeec ac3d
00000200: 22c2 a2bd e3fc 0c3e 28d7 a63d cbd7 06be
00000210: 7cff 22bb 1549 563c 5cb6 c03d 1cd8 9ebd
00000220: 7e52 c73c adb0 863d 7ddd 4a3e 5f8c 8b3d
00000230: 9844 b33d b168 cc3d cbae 24bc 2619 fabc
00000240: 6186 b0bd 52d6 d2bd 49b0 623a 1af7 f73d
00000250: d816 1dbe 8596 39bd dfa5 5dbe 8ecf 45be
00000260: 469c a9bd 5d0c 4b3e 5cba 2abe 0908 efbd
00000270: f3bf 0b3e a17d 923d d55c 2e3e ada9 00be
00000280: 91d2 903e 9b51 003c 70a2 07bd 26ac 003d
00000290: fd9d 6fbd 8b28 22be c67c aabd ecca 5bbb
000002a0: 6436 75bd faea a6bd 4cbb 55bd 8ce9 693e
000002b0: d8b5 3abc 1ff9 3a3e fe8f 02be 66dd 2c3e
000002c0: a729 4cbd e4da 633d ce13 10bd 10ba 66bd
000002d0: 615e ddbb 0813 c5bd 2797 f03d 33e3 b2bc
000002e0: e915 4fbe 8648 ea3d 30b4 32be 5334 02be
000002f0: 5f14 1ebe 5ec2 0cbe ab2d ddbd 3aab 603d
00000300: d6d1 b53d a485 043e eb72 8a3e 14c3 e2bd
00000310: 0ba4 493e 3e59 633e 1216 5a3e 03ea 4abd
00000320: 713a 23be 5ff3 1bbc d258 4abd 4756 57bd
00000330: 045f bc3d fb46 273d d23e 07be 4872 123e
00000340: ede1 93bd 7d0d 143e 6fbf 023e 282b 143e
00000350: 05e2 a0bc 5367 89bd 35a7 043e 73db 3d3e
00000360: 4669 1a3e 9757 273e 2adf 843d 6e7c 3b3e
00000370: 4fa8 913d ea4d c2bd efc8 503d 6993 60bc
00000380: 489a 5bbe c68d 383e 88d8 ab3d 3948 403e
00000390: 16a3 5b3e 1b91 f13d d17e 393e 8cd1 f9bd
000003a0: 6e35 a2bd 69b4 803e 5f74 24be b9da f2bc
000003b0: bdef e93d dda9 9dbd fa55 81be caa4 af39
000003c0: 6609 24be 3b3b 42be 203f 133e 87c2 35be
000003d0: 2045 6fbe 59f5 3bbe c91e 16bd f85c eabc
000003e0: cc25 67be 8ab4 2c3e 22d9 17be 0d81 53be
000003f0: 3d5e 4b3e 60d6 79be ba71 133e 6cd9 2e3e
0.0005221411 0.2002557 -0.18302654 0.14277256 -0.06473643 0.24521549 0.18518832 0.078139946
0.09668518 -0.21330777 -0.1862746 0.057480283 -0.16741243 0.2498908 0.11827407 0.015718723
-0.020123342 -0.1425206 -0.16639908 0.1447296 -0.1294095 0.013401119 0.066924304 -0.13010056
-0.033457197 -0.09473724 -0.25522307 0.024077486 0.19221853 -0.12864667 -0.08536385 -0.051727794
0.23051505 0.010253874 0.06275466 -0.050565887 0.1305051 -0.11562518 0.10014972 -0.07965778
0.13588843 -0.14236695 0.18011884 -0.09790067 0.12076092 0.08303605 -0.05462381 0.041809764
0.09483345 0.09321556 -0.14180458 -0.09201184 0.043267537 -0.0037259355 -0.20304136 0.067616455
-0.14428389 0.037199944 -0.08346585 0.17109612 0.13796973 -0.09820686 0.24321678 0.124458306
-0.03126459 -0.12575923 0.0689037 0.19018984 -0.073454596 -0.06580881 -0.11393456 0.15221469
-0.0021564728 -0.032188546 0.12655188 -0.09371191 -0.14418109 0.16037385 -0.087566026 0.16041473
-0.034162637 0.14723162 0.23294476 0.0026802963 -0.07821364 0.25175947 -0.09633388 0.08861895
-0.022284528 -0.10008826 -0.11782278 0.014340071 -0.14317286 -0.023767889 0.09862665 -0.019226687
0.13784531 -0.19927531 0.09840929 -0.17621492 -0.14943534 0.0025964559 0.1100048 -0.13156895
-0.13459848 0.106269024 -0.048820138 0.015432045 0.04346637 -0.18485817 -0.102374256 0.11606524
0.10168287 0.1859267 0.13244791 -0.22318873 0.07501345 -0.08483465 0.008028192 -0.12477715
-0.1326899 0.084549055 -0.1794486 0.03330979 0.1431799 -0.22135186 0.061773974 0.08443628
-0.07947184 0.13768344 0.081465065 -0.13168256 -0.0024871519 0.013078948 0.09409782 -0.07756063
0.024331328 0.06576667 0.19811054 0.06813883 0.087533176 0.09980906 -0.0100514395 -0.03052957
-0.08619381 -0.102947846 0.00086474844 0.12107678 -0.15340745 -0.045309562 -0.21645306 -0.19317457
-0.0828176 0.19828935 -0.16672653 -0.116714545 0.13647442 0.07152868 0.170276 -0.12564726
0.2828565 0.007831956 -0.033113897 0.031414174 -0.05850028 -0.15835778 -0.0832458 -0.00335377
-0.059866324 -0.08150287 -0.052180573 0.22842997 -0.011395894 0.18259095 -0.12750241 0.16881332
-0.04984441 0.055628672 -0.035175137 -0.056329787 -0.0067556356 -0.096227705 0.1174758 -0.021836853
-0.20223202 0.11439614 -0.17451549 -0.12715273 -0.15437458 -0.1374602 -0.10799726 0.054850794
0.08877914 0.12941605 0.270408 -0.110723644 0.19691484 0.22202012 0.21297482 -0.049539577
-0.15940262 -0.009518473 -0.049401112 -0.052572515 0.0919781 0.040839177 -0.13207558 0.14301407
-0.07220826 0.1445827 0.12768339 0.14469588 -0.019639025 -0.06709161 0.1295441 0.18540744
0.15079221 0.16342007 0.06487878 0.18309185 0.071121804 -0.09487517 0.050972875 -0.01370702
-0.21445572 0.18022832 0.083909094 0.18777551 0.21448931 0.11795255 0.18114783 -0.12198171
-0.07920347 0.25137642 -0.16060017 -0.02964531 0.114226796 -0.076984145 -0.25260907 0.00033501378
-0.1601921 -0.18967907 0.14379549 -0.17749988 -0.23366213 -0.18355311 -0.036650453 -0.028608784
-0.22573012 0.16865745 -0.14828923 -0.20654698 0.19860168 -0.24398184 0.14398852 0.17075127

critic.2.weight f4 [256, 256]
00000000: 847b abbe 6f3e 883b df05 963e f050 09be
00000010: a367 bebc cc74 24bf 1828 75bd c4b0 03be
00000020: dc81 98bc d709 55bc c9a1 fb3d 5a19 3d3e
00000030: 7806 2bbe 9eae a3bd f414 1c3c 81af a6be
00000040: e811 ce3e ab76 66bd dc92 8ebd 14cc 7c3e
00000050: dba1 533e bd10 af3e 21ff 703e f6b6 ecbc
00000060: 92e3 4e3d 5554 903d a365 213e fb01 453d
00000070: 8db1 173e 7b1d 68be 4ec1 cdbe 8021 0ebe
00000080: f005 87be 1da2 163e 76ff 74be a295 be3d
00000090: 27e4 3cbd fee7 00be 207b a9bd 9c2f 853e
000000a0: d31a 833c 0beb b73e ece3 d6be ad65 05bd
000000b0: 9db4 cbbc 75d4 6f3e 7e6d 2fbe 9c0e 65be
000000c0: d665 b93e 23ef 1e3e 275b 153d cc9b 093f
000000d0: e755 8d3c e6dd 17bd 1951 d63d 4e04 173d
000000e0: 20b3 4e3e 4574 41bd c35c 923c b15c a1bd
000000f0: 239f 3bbe 9cef 163c 7ba4 96bd b6f3 70be
00000100: f2fa 663d d629 36be 0028 67bd becc 05be
00000110: cc29 523e ab2b 223e 04bd 483e b40a ac3d
00000120: 7a5e a43e 6f10 ab3e cdee af3d 2c4f ccbe
00000130: 0ff8 afbe c4c0 863e 1242 dcbd 8821 4e3e
00000140: acbe c73c 6d8c 0c3e dff6 a6be abe5 a1be
00000150: 6dba 0d3e f2b7 9c3d 6f3f 3abd 8df4 00be
00000160: 81a7 5c3e e14e d0bd a595 2fbd ab47 d03d
00000170: d0ab 01be b6f4 fb3d 7541 7dbe 2633 65bd
00000180: 4a90 703e a0b3 93bd 2247 7ebe 0725 053e
00000190: 014e a0bd 49b8 f2bd d23a 0a3c cf3d cf3b
000001a0: 1084 c8bd 8ce6 ae39 ef99 0dbe 2df9 12bd
000001b0: 02b8 7cbd fc4f 41bd 9251 53be 6799 e8bd
000001c0: 0efb a0be 4d4f 73be 8e1c 2cbe b8be 6dbe
000001d0: d330 6b3d 668e 47bd 026e 6dba dea5 b13e
000001e0: 3ca6 acbc d3e4 273c df52 853d cfe6 2fbd
000001f0: 5b55 5c3e bc9b e93d dedf 253d f18f 623d
00000200: b8f3 0b3e 2c11 663c 6caa 3e3e 4649 063e
00000210: d278 683d c7f5 f8bd b243 38be eb43 bcbe
00000220: 0fe1 443e 7aa2 d73c e2ad 19bc f2fa 873e
00000230: 284b dcbd 1c32 15be 58be 5f3d cc0e 0ebe
00000240: 5c00 433e cd74 c03d bceb 9fbe 50c9 14be
00000250: ad0e 19bd 0f7e 863d 2f56 813e 19a0 0cbc
00000260: b441 463c 8a7e 7fbd 1813 c4bd 760f 96be
00000270: f03d 6fbd e372 3dbc 030f 3dbe 8b4d 853e
00000280: ce77 25be 8b4a 913d 5051 f03e 26b2 0ebe
00000290: 1da4 71be e70d f1bd e539 99bd 45bb c9bc
000002a0: e01c b03d 5635 003e 51c0 44bd d745 463d
000002b0: 6088 dcbd 1fc1 abbb b1c9 15bd 971f 08bc
000002c0: 2adb b63e e15d 64bd 547e 8cbe 34e5 0dbe
000002d0: b116 a73e 39ce 9cbd 0dc1 41be 4158 a7bd
000002e0: db18 503d 1cbd 12be a817 2a3e 3a7a fbbd
000002f0: 36a8 f7bd aaac 7b3a 76af f73d dad3 103e
00000300: b550 a7bc 5327 95be 44a2 69bc 9a3b 28be
00000310: 152b 5b3e 42b4 313d 4c11 9ebd 0bb6 83bd
00000320: 5b25 973e 2791 863e 7269 a63e 3709 a5bd
00000330: 9bc5 443e 328a a13e 40dc 923e 48b2 043f
00000340: eb83 043e 9b8c 433d 660f 90bd 2981 453c
00000350: f6f5 61be 17c5 44bc 25d4 33be b4b1 96bc
00000360: 740e 4a3e 0664 4cbe c511 9fbd 08ff 88be
00000370: 9a6c 09be e002 113e 7bfe 803d 32be de3d
00000380: e3f4 363e 99f2 123e 5a3f 6cbd 7faa 983e
00000390: 68aa a8be 48b0 36be 090c 36bc 2706 fb3d
000003a0: d23b 7a3e 2c18 823e a5fd 24be d748 4a3e
000003b0: 697a 1dbb 3f08 873e d78d e8bd f983 cd3c
000003c0: c9ea 08be 8d23 4fbe d3c4 9b3e 837a e63e
000003d0: 355e 283e 7835 853e 3c6f 023d a9d5 33be
000003e0: a8fe 943c 017c 023e 306e e23e 1757 50bd
000003f0: e248 2ebd a67a 9a3e 9ee4 143d 8b87 b0bc
-0.33492672 0.0041578333 0.29301354 -0.13409781 -0.023242777 -0.6424072 -0.05985269 -0.128604
-0.01861661 -0.013002834 0.122867174 0.18466702 -0.16701686 -0.0799229 0.00952648 -0.32555774
0.40248036 -0.056265514 -0.06961605 0.24687225 0.20667212 0.34192458 0.23534824 -0.028895836
0.050509997 0.07047335 0.15761428 0.04809759 0.14813824 -0.22667496 -0.40186542 -0.13879967
-0.26371717 0.14710279 -0.23925576 0.09305884 -0.04611602 -0.12588498 -0.08275437 0.26012886
0.016004002 0.3592151 -0.41970766 -0.03256767 -0.024866397 0.2342089 -0.17131612 -0.22368854
0.36210507 0.15520911 0.036463883 0.5375335 0.017252875 -0.037076853 0.10464687 0.03686934
0.20185518 -0.047230024 0.017866498 -0.078790076 -0.18322425 0.009212401 -0.07355591 -0.23530468
0.056391664 -0.17789397 -0.05643463 -0.13066384 0.20523757 0.1583697 0.19603354 0.08400479
0.3210333 0.33410975 0.085904695 -0.39904153 -0.3436894 0.26318944 -0.107547894 0.20129979
0.024382912 0.13725443 -0.32610223 -0.31620535 0.13840647 0.07652272 -0.04547065 -0.12593289
0.21548273 -0.10171295 -0.04286732 0.101699196 -0.12663198 0.12302534 -0.24732001 -0.055956982
0.23492542 -0.07211995 -0.24831823 0.13002406 -0.07827378 -0.11851556 0.008436875 0.006324507
-0.09790814 0.00033359637 -0.13828252 -0.035882164 -0.06169892 -0.04719542 -0.20636585 -0.11357384
-0.3144154 -0.2376072 -0.16807768 -0.23217285 0.05741961 -0.048719786 -0.0009057225 0.3469686
-0.02107536 0.010247427 0.06509947 -0.042944726 0.21516936 0.11406657 0.0404967 0.055313054
0.1366719 0.01404218 0.18619698 0.13113889 0.05675585 -0.12156253 -0.17994574 -0.36770567
0.19226478 0.026322592 -0.009379836 0.26558644 -0.107565224 -0.14569896 0.054624885 -0.13872832
0.19043106 0.09397278 -0.3123454 -0.1452992 -0.03736751 0.065670125 0.25261065 -0.008583092
0.012100626 -0.062376536 -0.09573954 -0.2930867 -0.058408678 -0.011563036 -0.18462758 0.26035723
-0.16158983 0.07094296 0.46937037 -0.13935146 -0.2359776 -0.1177023 -0.07481746 -0.02462543
0.085992575 0.12520346 -0.04803497 0.04840645 -0.10768199 -0.0052415277 -0.0365693 -0.008308313
0.35714084 -0.055753592 -0.2744013 -0.13856965 0.326345 -0.07656521 -0.189213 -0.0817113
0.050804954 -0.14329952 0.16610587 -0.12279172 -0.120926306 0.0009600619 0.120940134 0.14143315
-0.020424226 -0.29131564 -0.014259879 -0.16428986 0.21403153 0.043384798 -0.07718143 -0.06431206
0.29520687 0.26282617 0.32502323 -0.08058398 0.19216006 0.31550747 0.28683662 0.51834536
0.12940948 0.047741514 -0.07034187 0.01205472 -0.22066483 -0.0120098805 -0.17561395 -0.018395282
0.19732076 -0.19960031 -0.07767061 -0.26757073 -0.13420334 0.14161253 0.06298538 0.108761206
0.17866854 0.14350356 -0.057677604 0.29817578 -0.3294251 -0.17840683 -0.011111268 0.12257033
0.24436882 0.25409067 -0.16112383 0.19754349 -0.002402926 0.2637348 -0.11355179 0.025087344
-0.13370813 -0.20228405 0.30423602 0.45015344 0.16442187 0.26017356 0.031844363 -0.17561974
0.018187836 0.12742616 0.4422469 -0.050864305 -0.042549975 0.30171698 0.03635084 -0.021549007

critic.2.bias f4 [256]
00000000: 2fcf bebd a3fe cc3b 4005 0b3d 3ba2 c7bd
00000010: 7638 abbc 880b 80bc 4ae2 a03d 74d9 6abd
00000020: 0972 3bbb 6f24 9cbd e935 14bd fdb1 543d
00000030: c6b6 f23b 2a3a cb3d 2c85 673c bde8 693d
00000040: 5d56 0abd 8b79 09bd 355a b03c 542f 2c3d
00000050: f443 d33b f7e3 f1bc 90d9 b8bd 6f6a 263c
00000060: adea 33bd ae11 783d 9a93 583d 9f4f 07bd
00000070: 302e 883d d98e 14bd 924b 85bd 572a a93d
00000080: e7fc a23d 5992 2b3d 5c8d bd3d 0525 abbb
00000090: 7552 713c 3bfb 0abd e122 4fbb bbb4 b4bd
000000a0: 5f95 313d dafa 9a3d 4136 8b3d 479e b53d
000000b0: 7fe7 c9bb 945e 893c 2844 b1bc c224 003d
000000c0: 95ab ea3c d298 5b3d f44e 293c 47a8 cdbb
000000d0: 69e4 41bd 8368 41bd e19a ba3d b25c f5bc
000000e0: 8f51 43bb 0f13 9b3b 6648 c33c 082e 27be
000000f0: fda2 993d d26a 11bd 56d8 94bc 8a9d cabc
00000100: a152 a63b 4934 e93d 6525 97bd 7a52 1abc
00000110: f87e 95bd 31c6 453b 89e1 053c 9400 f23c
00000120: bb97 4a3c 3c12 143d 31a5 0fbd 627b 39bb
00000130: e45b 3c3d 3b00 de3c 7019 3a3c f8ee 2a3d
00000140: 472a 713d b20d 873c b146 67bc 6d4a 53bc
00000150: 75e0 a33d c5c8 d2bd 80cc 9b3c 7119 15bd
00000160: c1a3 483d 51b7 fdbc b8ca f73c 11b9 523c
00000170: 7c6c 463c 660a 6fbd 1b67 6a3c 2285 04bd
00000180: 67e0 c4bc 7ea3 b23c 3775 e03d 9afc a53d
00000190: a02c ab3d e640 58bd 78b2 05bd 4c03 813c
000001a0: 7dcb 03bc 9398 973c 59a3 cabc a7e2 8cbb
000001b0: 1d76 6b3d 40fb 4dbb aaa0 d9bd c231 eb3d
000001c0: 3879 0fbd 2a17 553d b09c 99bc 0e0a 95bd
000001d0: c32b 6c3d 9dba 2e3c 7030 1f3d 6279 d23c
000001e0: 0ca1 1b3d 66b7 c2bd 8d10 983c 63a2 f6bc
000001f0: dfa2 143d e4bb a2bc 940b c4bc 7bc1 a4bd
00000200: 95c3 cf3c 5803 2f3d 8eed 6b3d 88a2 83bb
00000210: 4253 07bd a8b0 92bd ccb6 163d c6c4 debb
00000220: 8e42 a2bb 57bf 97bd 1712 a3bd b01e cfbd
00000230: b001 9cbd 06e2 a13d f0f2 b7bd 6ace aebc
00000240: 6ec6 dbbd a0b6 e3bb 6e19 6f3d 1666 32bc
00000250: 2ae3 2cbc c44b 033d 4105 3e3c 72ad a33d
00000260: 0291 ed3d 4164 96bd 5828 0e3c abff 35bd
00000270: eb02 08bc 63c4 63bb 7b56 c03c 3e84 933d
00000280: 5299 8dbd 3721 823c 4632 983d e075 fe3c
00000290: 43d5 eabd 82b3 efbd 2f30 353c 4a36 76bd
000002a0: 0050 3dbc 0f16 93bd 34e4 aaba 925c 89bb
000002b0: 8e90 eabc 8e26 39bb d8bd 3bbd 03c6 cf3d
000002c0: 342a c4bd a859 d63c f46f 313d 914c 413c
000002d0: 035c 0fbd e8cb c1bd 663f 9d3d 7b32 be3d
000002e0: 9861 513d 399c 6a3c e596 9abd b3d8 823c
000002f0: daea c83b 1ca6 0c3d fc1b d3bc 82aa c03b
00000300: 77a8 a3bd 6be3 963c b211 8a3d 6eb3 b23d
00000310: 1b29 b13d ec4f 8dbc 9c9f 853c b67a e5bd
00000320: 57d1 99bb 35f9 a4bd 4dc6 64bd 2087 7fbd
00000330: 5374 97bd 618e 91bd 27de d03c 62a4 50bb
00000340: 7918 f73c 6278 77bb 8b0a d03b 5a8a 2abd
00000350: 273d e9bd 5120 84bd 4a5f c73d 868c 133d
00000360: 2235 283c c4a1 003d 3c13 cc3c 93b1 8fbd
00000370: 54b0 c03d e000 7d3d 2f66 9a3d a054 a4bd
00000380: 9bad 703a 9c0d b8bc dc42 cab9 ac5f a7bd
00000390: a7fb 64bd 9ffb d33d f8f1 80bc c4b3 3c3d
000003a0: 3594 18bd 424f 493c 53df be3c ec4c 153d
000003b0: c0bf 3dbd 858e 54bd a571 1a3c e224 a9bd
000003c0: 52c5 46bd 4726 aebd 06ff 9b3d 2544 24bd
000003d0: a05c ebbc 1fdd 26bd 563f 88bc 56b7 293d
000003e0: 89e0 8cbc 9a3f ae3d 6f05 183e a266 7dbd
000003f0: 1203 2c3d eb5e 86bd 1933 be3d b5cf e3bc
-0.09316861 0.006255941 0.033940554 -0.0974774 -0.020900946 -0.015630499 0.07855661 -0.057336286
-0.0028601906 -0.07624137 -0.036184225 0.051927555 0.007407042 0.09923203 0.014130872 0.057106722
-0.03377377 -0.033563178 0.021527389 0.042037323 0.0064473096 -0.029527647 -0.09025872 0.010157212
-0.043924976 0.060563736 0.05287514 -0.033034917 0.066494346 -0.036269043 -0.065085545 0.08260029
0.079583935 0.041887615 0.09255478 -0.005222919 0.014729132 -0.033931 -0.0031606483 -0.08823534
0.043355342 0.075673774 0.067974575 0.0886808 -0.0061616297 0.016768731 -0.021638945 0.031285055
0.02864627 0.053612538 0.010333765 -0.0062761637 -0.04733697 -0.04721881 0.09111572 -0.029951427
-0.0029803251 0.0047324966 0.023838233 -0.16326153 0.07501791 -0.035502262 -0.018169563 -0.024733324
0.005075768 0.11386926 -0.07380179 -0.009419078 -0.07299608 0.0030177946 0.008171448 0.029541291
0.012365277 0.036150202 -0.03506965 -0.0028302302 0.04598607 0.02709972 0.011358604 0.041731805
0.05887821 0.016486023 -0.014115975 -0.012896162 0.08001796 -0.102922 0.019018412 -0.036401216
0.048984293 -0.030971201 0.030248031 0.012861506 0.012110826 -0.058359526 0.014306809 -0.032353528
-0.024032785 0.021806475 0.10959857 0.081048205 0.08358121 -0.052796267 -0.032640904 0.015748642
-0.008044121 0.01850537 -0.024736093 -0.00429948 0.05748569 -0.0031430274 -0.10626347 0.114841
-0.035027713 0.052024044 -0.018751472 -0.072773084 0.057658922 0.010664609 0.038864553 0.025692645
0.037995383 -0.09507637 0.01856258 -0.030106729 0.03628814 -0.019864984 -0.023931302 -0.08044716
0.025361815 0.0427278 0.057599597 -0.004017178 -0.033038385 -0.07162601 0.036795422 -0.0067983596
-0.0049517816 -0.07409542 -0.07962435 -0.10113275 -0.07617509 0.07904439 -0.089818835 -0.02133866
-0.10731207 -0.006949261 0.05837386 -0.010888597 -0.010552207 0.032054678 0.011597932 0.079920664
0.11599924 -0.07343341 0.008676611 -0.044433277 -0.008301477 -0.0034754507 0.023478737 0.072029576
-0.06914009 0.015884979 0.07431464 0.031062067 -0.11466458 -0.1170416 0.011058851 -0.060110368
-0.011554718 -0.07181942 -0.001303798 -0.0041919434 -0.028633382 -0.002825174 -0.045835346 0.101451896
-0.09578362 0.026165798 0.043319657 0.01179804 -0.03499986 -0.0946272 0.07678108 0.09286972
0.051118463 0.014319473 -0.07548312 0.01597247 0.006131512 0.0343381 -0.02577018 0.005879701
-0.079911165 0.018418988 0.06741656 0.0872563 0.08650418 -0.017250024 0.01631146 -0.11205046
-0.0046941447 -0.08055345 -0.055853177 -0.062384725 -0.07395234 -0.07107235 0.025496555 -0.003183626
0.030163037 -0.0037760963 0.006348913 -0.04163585 -0.11388617 -0.06451476 0.09734972 0.036022685
0.010266574 0.03140427 0.024911515 -0.070162915 0.09408632 0.061768413 0.07539021 -0.080239534
0.00091811427 -0.022467427 -0.00038578256 -0.08172545 -0.055904057 0.10350727 -0.01574038 0.046069875
-0.037250716 0.012286963 0.023299849 0.03645031 -0.046325445 -0.05189373 0.009426509 -0.08258988
-0.048528023 -0.085033946 0.07617001 -0.04010405 -0.02873069 -0.04073822 -0.016631763 0.04143461
-0.01719691 0.08508225 0.14845823 -0.061865456 0.041995116 -0.06561073 0.0928709 -0.027809003

critic.4.weight f4 [1, 256]
00000000: f49d 053f 70ca e13e 6b67 13bf 60ed f4be
00000010: 13b6 cfbe db17 e0be 2df7 05bf 285c f8be
00000020: 44ca e13e 7598 d83e e452 753f 3eb6 16bf
00000030: 4432 dbbe d3ee e7be 2237 043f 46df 133f
00000040: e335 2e3f d145 d53e 21d6 ffbe 02bd 1a3f
00000050: cc98 c63e 4284 e83e ffaa dd3e a0a2 fbbe
00000060: 37c9 16bf e197 b4be 154f 143f 6ade f8be
00000070: 23d7 e9be d114 273f d349 cf3e 800e f23e
00000080: d097 75bf afec 04bf f0d2 f9be b44a edbe
00000090: 7393 efbe 4456 0cbf ec8a f4be 7ffa 043f
000000a0: c224 f0be 5509 ea3e 5e96 d6be 2ecb 183f
000000b0: 1c68 f0be 1afd 173f 51a5 d4be 4092 69bf
000000c0: 5604 b53e ac9c 0d3f 18bd 08bf d8bf eabe
000000d0: 83ee d1be 998c e03e 98cf 6d3f ff75 df3e
000000e0: 8792 e53e 9ba9 0a3f 8d1d c9be f779 8b3f
000000f0: 32e2 fbbe b52c f9be a64d 45bf b171 eabe
00000100: 2639 2d3f c965 74bf 40a1 f73e 1919 e23e
00000110: 900f d63e 9f0d f5be 7a68 1bbf d629 063f
00000120: 1894 f03e 9f14 e2be 28b5 d0be 5309 15bf
00000130: 4494 123f 8b3f debe 442e 08bf cae3 15bf
00000140: 0437 173f c73c 0bbf ec3b d4be df6b eebe
00000150: acb0 03bf 0264 14bf 2818 dabe 2199 b93e
00000160: 674e f4be 5ea3 d2be 7857 043f 364f 6fbf
00000170: 5738 f03e 8bde f9be 6406 dabe d049 e83e
00000180: 2fc5 dfbe a8db eabe 5846 11bf 304d e83e
00000190: 445c c6be 6225 f7be 171b 17bf 7703 143f
000001a0: 075d 0a3f 9598 c5be 6568 fa3e 87e0 dfbe
000001b0: 1f60 17bf 172b 3d3f 8c7e 063f c51e 8fbf
000001c0: 14f1 00bf 76f0 1fbf 96cc e33e 3d3b f13e
000001d0: 7e93 d2be 3d47 eabe e725 34bf 3b7b 04bf
000001e0: f7a9 20bf 8a61 eebe 6284 fe3e 56c7 e7be
000001f0: b643 ebbe a31f 133f f5c3 10bf 8efe f3be
00000200: a3cc 3e3f 7014 eabe 16c7 15bf c4ea 00bf
00000210: 3251 efbe 7301 cf3e 7a4f d9be 54eb f7be
00000220: 3542 00bf 029e 043f 1ec6 ed3e c00a 02bf
00000230: 2d38 db3e 73fb e6be 2c16 ad3e 24d8 ef3e
00000240: 6bd4 e8be 9c91 d73e 0fb3 0bbf 8c0b 0abf
00000250: 1f90 edbe e818 d5be d739 10bf bb13 ed3e
00000260: 8976 64bf 45c9 df3e f43e f83e fe83 fa3e
00000270: 2c88 1dbf 5fcf f0be 69d0 d43e 2bb5 cdbe
00000280: 52bc 063f ce15 fcbe 4b1f 0fbf 9975 f83e
00000290: ade1 e33e feef 59bf e544 d4be d56d 2e3f
000002a0: 7c32 0abf 5aae ef3e d506 0ebf 4fa0 f2be
000002b0: 20ad d33e 93f7 41bf f9da 15bf 4cd4 d3be
000002c0: 04dc 3a3f 6969 ddbe dd8d 033f 1bc9 d8be
000002d0: 9e1e eabe ab9f fa3e 394e e0be b7b7 c7be
000002e0: df52 c73e cf9a d7be 1017 1d3f d39c dd3e
000002f0: 68cc 13bf 30d0 ed3e a114 053f 4e4b 03bf
00000300: c67e f23e 88d7 28bf 1bec e7be 132f fb3e
00000310: bb7e 3cbf 4f91 c2be 8fac cebe cd9a f23e
00000320: d337 133f 3037 e03e 3e45 debe 094f 073f
00000330: e370 013f 10cb cd3e c189 c3be 1bfa f03e
00000340: d691 f0be da16 c63e ac0a 0ebf 38a1 453f
00000350: ea3d e0be 048b 173f 16e9 203f 552a d93e
00000360: cceb d23e a0c4 cfbe 137c f03e 1f3f 063f
00000370: 3300 ef3e 46ac cdbe 2716 fdbe 94a2 153f
00000380: 456f f53e d2f8 023f 76e8 e23e a520 eebe
00000390: a2b9 e43e 13c4 1bbf 6e60 0dbf 4d65 ed3e
000003a0: 1db9 00bf c7a0 1bbf 410a f0be a64e be3e
000003b0: ae9a 0f3f 5ff6 e33e fc0d f43e f663 ce3e
000003c0: 356c e0be 43fa d03e bc65 10bf b665 ea3e
000003d0: 6eb1 d23e 186d 053f d3b6 e5be 6200 20bf
000003e0: 4c59 10bf 5ff4 b83e 733f 44bf 8597 633f
000003f0: 67c0 02bf dd7a cb3e da16 433f 86d1 f13e
0.5219414 0.4409976 -0.5757968 -0.47837353 -0.405686 -0.437682 -0.52330285 -0.4850781
0.4409963 0.42303815 0.95829606 -0.5887183 -0.42811787 -0.45299396 0.51646626 0.57762563
0.68050975 0.41654828 -0.49968055 0.60444653 0.3878845 0.45413405 0.43294522 -0.4914751
-0.5890078 -0.35272124 0.5793317 -0.48607188 -0.4567195 0.6526614 0.4048601 0.47276688
-0.9593477 -0.5192365 -0.48793745 -0.46346056 -0.46792182 -0.5481913 -0.4776224 0.51944727
-0.46903044 0.45710245 -0.41911596 0.5968503 -0.4695443 0.5937058 -0.41532376 -0.91238785
0.3535487 0.5531719 -0.53413534 -0.4584949 -0.41002283 0.43857267 0.9289489 0.4364471
0.44838354 0.5416505 -0.39280358 1.0896596 -0.4919601 -0.4866692 -0.7707161 -0.45789865
0.67665327 -0.9546781 0.4836521 0.44159773 0.41808748 -0.47861955 -0.60706294 0.52407587
0.46987987 -0.44156358 -0.4076321 -0.5821735 0.57257485 -0.43407854 -0.53195596 -0.58550704
0.5906832 -0.54389614 -0.41451967 -0.46566674 -0.51441455 -0.579651 -0.42596555 0.3624964
-0.47716066 -0.41140264 0.51695967 -0.9348024 0.46917984 -0.488026 -0.42583 0.45368814
-0.43705127 -0.4587071 -0.5674796 0.4537139 -0.38742268 -0.48270708 -0.5902571 0.57817787
0.540482 -0.38592973 0.48907772 -0.43725988 -0.59131044 0.73893875 0.52536845 -1.1181265
-0.50367856 -0.6247629 0.44492024 0.47115508 -0.41128153 -0.45757475 -0.70370334 -0.51750535
-0.62759346 -0.4655879 0.49710375 -0.4526927 -0.45950097 0.5747015 -0.56549007 -0.47655147
0.74531 -0.45718718 -0.58506906 -0.50358224 -0.46741635 0.40430793 -0.42443448 -0.4842173
-0.50101024 0.518036 0.46440214 -0.50797653 0.42816296 -0.45113716 0.33805978 0.4684459
-0.45474562 0.4210328 -0.54570097 -0.5392387 -0.46399018 -0.41620564 -0.56338257 0.46304116
-0.8924337 0.43708244 0.4848553 0.48928827 -0.61535907 -0.47033212 0.41565254 -0.40177283
0.52631104 -0.49235386 -0.55907124 0.4852722 0.44508114 -0.85131824 -0.41458812 0.6813634
-0.53983283 0.46812707 -0.55479175 -0.4738793 0.4134302 -0.75768393 -0.5853725 -0.41372907
0.7299197 -0.43244484 0.5138834 -0.4234093 -0.45726484 0.48949942 -0.4380968 -0.3900735
0.38930413 -0.42110297 0.61363316 0.4328371 -0.57733774 0.46447897 0.519846 -0.5128678
0.47362345 -0.65953875 -0.45297322 0.49059352 -0.73630875 -0.38001487 -0.40366027 0.4738373
0.57507056 0.43792105 -0.43412203 0.52854973 0.50562876 0.40193987 -0.38191035 0.47065815
-0.46986264 0.3868931 -0.55485034 0.77199125 -0.43797237 0.59196496 0.6285566 0.4241511
0.41195524 -0.405797 0.4696966 0.52440065 0.4667984 -0.40170497 -0.49430963 0.584512
0.47936454 0.5116092 0.4431798 -0.4650928 0.44672877 -0.6084606 -0.55225265 0.4636635
-0.5028246 -0.607922 -0.46882823 0.3716938 0.560954 0.44523904 0.4766692 0.4031064
-0.43832555 0.40815935 -0.56405234 0.45780724 0.41150993 0.5211959 -0.44866046 -0.62500584
-0.56386256 0.3612394 -0.76659316 0.88903075 -0.5107483 0.39742175 0.76206744 0.47230166

actor.0.weight f4 [256, 19]
00000000: 6f4b febd e286 09be 38c3 103e f6e0 91bd
00000010: a0a4 d6bc c8c2 e43c fe7b c53e e1a0 fdbc
00000020: 48a9 adbd 5428 f13d bf4f 103e a04f 51be
00000030: 1b91 ed3d 3f0e 8fbd e4e1 94bc 5c4d 2b3e
00000040: 1eda e6bd 4c32 0d3e 43a1 8f3d c1e5 81bd
00000050: c956 573e d52d 07bd 6107 43bc 00ba beba
00000060: c43e 663d 1bc3 dabe 9439 4f3e 7a13 d3bd
00000070: e185 623c 8d14 60be 90aa ea3d 580e 7dbe
00000080: d973 ccbd a8b2 6e3b 832a 6a3d 2df1 c33d
00000090: 2f84 9f3d 21ab 2abe 6573 353d c87c bd3d
000000a0: 791f 153e 1293 94bd 61bc 363e 9adf 63be
000000b0: d08d 56bd 6ff5 823d 5ee3 c1bd f07b b5bc
000000c0: d6ef 4dbe 4826 273e d629 34bd 26d3 6e3e
000000d0: 498a 7a3d 092a e43c 5e70 213e da56 9abd
000000e0: 8df2 86be 51ce e9bd c2da 4e3d b2f7 bbbd
000000f0: c69a 6d3c 5f79 2c3e 134b 48be 6af9 8fbd
00000100: adbe 063e f64c b2bd 6135 90bd 8007 3cbb
00000110: ca2f 093e ce34 78bc bb3a ae3e 2373 f33c
00000120: 902f 53bd 4120 233e 6026 7ebd da2e 0e3d
00000130: 181b 143e 1427 85bd c827 31bc 6253 893d
00000140: 3db9 013e fe67 f5bd 5677 aabb 9616 1ebe
00000150: 5f6e 1a3e 1d9a 64be b3aa 4fbe b5af 853e
00000160: df4a bebd 0a7a d4bd d533 4c3d 1307 f8bc
00000170: f642 523e 5117 2f3e 77b4 98bc 655c a73d
00000180: cc48 07be 23bf 47be 05d2 823d 2822 a1bc
00000190: ced4 0ebe 8e90 e03d 97ec dd3d f422 48be
000001a0: 4438 863d c05f a5bd b23a 603a a712 783e
000001b0: 3b96 76be de5a 66be 3db7 c3bb 53c5 04be
000001c0: 52a5 eabd 34dc 20bd 0a13 a3bd 85ac 303e
000001d0: c166 21be 8ab4 363e 8789 3dbe 4627 47be
000001e0: 7d68 60be 63b9 613e 29af 1cbe f03e 0cbe
000001f0: aa99 fc3d 2c82 08be c39a 84be 4146 4c3e
00000200: bea2 64be 5ca7 e8bc ebd7 b43d 3694 433d
00000210: 4cec 263e 4afa 3b3e dd9a 56be e92e 533e
00000220: 7959 e0bd 796a 073e 5da0 3a3e bddf 94be
00000230: b6fa 89bd ca5d 04bb 6cc4 c8bd 55e9 3bbe
00000240: 6803 5dbd a4d5 6d3e 5c92 a03e 95b3 313d
00000250: 701c 89be 6a3d 01bd 3560 27be 87c0 26be
00000260: 326e a03c ee43 4a3d 9f88 23be 6e34 fa3d
00000270: 49aa 413e a3a9 36be 5b86 993c 4512 3bbe
00000280: 4752 63be 47a5 2fbe 882a ee3c 567b 7bbe
00000290: 640a 843e b8ff 0bbe d3be 513e 8326 473e
000002a0: 22e8 5bbe abb2 bf3d 5b38 613e 6f3d 16be
000002b0: d26d 5abe 5724 c23d 5dfe 223e 3586 51be
000002c0: 3649 5ebe b8c0 2cbe 2c15 323d 2e08 51be
000002d0: 12f8 2ebc d4b5 60be 6f0f 9fbe fcd8 913c
000002e0: 3b4d 083d f92d 52bd 466f d7bd 68f9 aebd
000002f0: 7a91 3e3e 46fd 993e 6132 133e 7479 233e
00000300: 7128 08be 0a95 30be f69c 69be 5860 e53c
00000310: de93 b5bd 2775 c4bd cd14 adbd f332 d7bd
00000320: 551f 4e3e f2d9 a8be 0213 b83d f8b7 76be
00000330: bd09 413e 3763 5a3e 4086 0f3d 527d 2a3d
00000340: a870 2f3e 736d 473e 39aa 20bd 229b 60bd
00000350: 5cef 2a3e fe90 e33d 5bc9 313e 68fd 973e
00000360: f2ae 01be 49e8 123e 71af 56be faac 01be
00000370: b955 773d ebcd 143d a472 c03c 460f ffbd
00000380: c1b6 703d 9739 7d3e 6fec a43d bf57 2ebe
00000390: 0dd4 6abe 3328 efbb fc8d 3abe 9da6 20bb
000003a0: 55e1 4b3e 7c0b 443d 9cc5 9b3e 968e 81bd
000003b0: 0f8f a63d 0ca3 313e da7c bcbd a040 98be
000003c0: bb68 8d3e 39a2 8ebd c78c 88be 7726 f03d
000003d0: 730c 8e3e cbf7 103e 3911 653e 4f94 213e
000003e0: e1c7 0a3e 1e0a 203d 3e86 71be 1ed9 fc3d
000003f0: a649 e93d 3cb2 e43e a83b eb3d b44b 49be
-0.124167316 -0.1343036 0.1413697 -0.07122986 -0.026201546 0.02792491 0.3857116 -0.030960502
-0.084795535 0.1177527 0.1409292 -0.20440531 0.11599942 -0.06985139 -0.01817412 0.16728729
-0.11272071 0.13788718 0.0701318 -0.0634265 0.210292 -0.033002693 -0.011903615 -0.0014551282
0.0562122 -0.4272698 0.20236808 -0.10306449 0.0138258645 -0.2188284 0.114583135 -0.24712503
-0.09983034 0.0036422405 0.05716945 0.09567485 0.07788884 -0.16666843 0.044299502 0.09252316
0.14562787 -0.07254614 0.17845298 -0.22253266 -0.052381337 0.06394469 -0.09467195 -0.022153825
-0.20111021 0.16323197 -0.04398521 0.23322734 0.061167035 0.027852075 0.15765521 -0.07536097
-0.26356927 -0.11416305 0.050501592 -0.091781035 0.014502233 0.16843174 -0.19559889 -0.07029994
0.13158675 -0.087060854 -0.07041431 -0.0028690994 0.13397136 -0.015149308 0.34029183 0.029717987
-0.05155903 0.15930273 -0.062048316 0.03471265 0.1446346 -0.06501594 -0.010812707 0.06705357
0.12668319 -0.119827256 -0.0052022142 -0.15438303 0.15081166 -0.22324415 -0.2027996 0.26110616
-0.09291624 -0.103748396 0.04985412 -0.03027681 0.20533356 0.17098738 -0.01864074 0.0817192
-0.13211364 -0.19506507 0.06387714 -0.019669607 -0.13948366 0.109650716 0.108361416 -0.19544584
0.065537006 -0.080749035 0.0008553668 0.24225865 -0.24080746 -0.224956 -0.0059727714 -0.12965898
-0.114573136 -0.039272502 -0.07962616 0.17253311 -0.15761854 0.17842308 -0.18509494 -0.19448575
-0.21914859 0.22043376 -0.15301193 -0.13695884 0.123339966 -0.13330907 -0.25899324 0.19948675
-0.22327706 -0.028400116 0.088302456 0.047748767 0.16301078 0.18357196 -0.20957513 0.20623364
-0.109545656 0.1322421 0.18225236 -0.2907695 -0.067372724 -0.0020197504 -0.098030895 -0.18350728
-0.053958327 0.23226029 0.31361663 0.043384153 -0.2677951 -0.03155271 -0.16345294 -0.16284381
0.019583795 0.04938119 -0.15970086 0.122170314 0.18912615 -0.17838149 0.018740823 -0.18268688
-0.22199355 -0.17152892 0.029073015 -0.24558768 0.25789177 -0.13671768 0.2048295 0.19448285
-0.2147527 0.0936025 0.21994154 -0.14671873 -0.21330956 0.094795875 0.15917344 -0.20461352
-0.21707615 -0.16870391 0.043477222 -0.20413277 -0.010679262 -0.21944362 -0.31066462 0.017803662
0.033276778 -0.051313374 -0.105192706 -0.08543664 0.18610182 0.30076045 0.14374687 0.159643
-0.13296677 -0.17244354 -0.22813782 0.028000042 -0.08866094 -0.095926575 -0.08451233 -0.10507765
0.2012914 -0.3297878 0.089880005 -0.24093616 0.18851371 0.2132691 0.03504014 0.04162342
0.17132819 0.19475345 -0.039224837 -0.054835446 0.16692871 0.111116394 0.17361967 0.2968552
-0.12664393 0.14346422 -0.20965363 -0.12663642 0.060384486 0.03632919 0.023492165 -0.12454085
0.058768038 0.24729 0.08052909 -0.1702566 -0.22932453 -0.0072984933 -0.18218225 -0.0024513372
0.19910176 0.047862515 0.304242 -0.06326024 0.08132755 0.17347354 -0.09203501 -0.29736805
0.27618966 -0.06964535 -0.26669905 0.117260866 0.27743873 0.14157026 0.22369851 0.15779231
0.1355281 0.03907215 -0.23586366 0.12346099 0.113910004 0.44667232 0.11485988 -0.19657785

actor.0.bias f4 [256]
00000000: 4eb3 debb 39c4 07bd 33e3 c93d bb83 01be
00000010: ed77 67bd b385 123e 68f6 db3d 7408 243e
00000020: 9d5c 7ebc d183 70bc 8a9c 203e 4168 f4bd
00000030: 011c aa3d a6ca 843c 9105 d3bc 8d2a 023e
00000040: a1bc 93bd f4fb 04bd 590d 473d 3ea5 b63d
00000050: 7319 fb3d 00c3 0dbe a826 1cbe f523 6dbc
00000060: b18f f63d 036e dd3d 9e1b 563d 91e2 03be
00000070: 7a60 b83d 1bf1 90bd 785e 193d ab61 4e3e
00000080: 8f1f 203e 5c78 f7bd 0404 353d c341 583d
00000090: a6ee f5bc 73c9 0fbd bda7 f7bd d428 cc3d
000000a0: de15 48be 1373 783d 5511 e0bd a572 a6bd
000000b0: 0db9 fa3d c572 a1bc e440 41bd 2b67 1ebe
000000c0: fc11 68bd 0aa6 e33d bdab 193e e7dd 1a3e
000000d0: 5fc9 6c3e 5e2f a3bc 6e83 a63b f085 aabd
000000e0: c863 10be 5f25 0d3e 4aeb 783d 3fd0 ed3d
000000f0: e3cf 073e 8661 b6bd 8808 41be 9365 9ebe
00000100: f241 35be 3274 e53c a968 253e 24cf 46bd
00000110: 5607 e73d 7ab7 953d 4649 583e 1c21 ea3d
00000120: 454e 773e 5426 383e 025f 8b3d d420 193e
00000130: 5345 2c3e 72e4 1b3e 80a6 85bd 21f2 bc3d
00000140: aaa3 a93d b0ca 4ebe e993 a23d 6eab 9f3b
00000150: ad78 b3bd 5500 7c3c 7d03 be3d c202 583c
00000160: 7172 293e 6d28 4f3e a723 ec3d f303 0a3b
00000170: 0a58 0d3e 5e6f 8fbd 6145 593e 2618 abbc
00000180: 4f38 d3bd a9c4 3bbe f97d ebbb 3819 d83d
00000190: b8c5 54bc 5efa e3bd cfdd 11be a6eb 6eba
000001a0: 5ce6 663c 0b19 cb3c c1ed f93d 74b6 0c3e
000001b0: 14db 673d 6b1c 22be c2dd 79bd cf39 673d
000001c0: 235b 933d 20fb 643e feff fabb 92a0 22be
000001d0: b51e 2bbe 3af5 3abd d8de 623d 36d4 9d3d
000001e0: f4c4 46be 06a9 f73d 496b 3ebe 82a0 1d3e
000001f0: 697e 03bd dbee 5c3d 65fb 453d 0e47 30bd
00000200: a3db f0bd 067a 3b3e 8306 3a3e 867d e43d
00000210: fd7d 51be 9004 6b3c 6cf1 473e 33aa 313e
00000220: ca29 e63d 1c44 3bbe 030c 8ebd a8a1 8f3d
00000230: 82ce 843d f3c0 453e 2c33 97b8 b715 ecbd
00000240: 968e 943d eee6 51be f7f7 66bc 1671 f43d
00000250: 5540 103e 263b bcbd 5ee4 27bd 930e 64be
00000260: 7299 8fbd cfe0 2b3e e916 abbd 2b61 20be
00000270: ac46 35be 3308 59be 6461 8e3d 09d8 34be
00000280: 7a31 4cbd 3461 3e3e cc82 a1bd da0e 5b3e
00000290: 0d83 05be 9226 3ebe 40e3 67bd 04c6 c33d
000002a0: 14dd 3a3e bcc9 2c3e 8a44 ffbd 25b9 08be
000002b0: 061e 99bc 5f46 413e aff3 30be f2f5 31bd
000002c0: b7f7 1dbe 9d46 ce3c 20e2 9abd dda9 0c3e
000002d0: 711a fa3c d61d 4e3e 2eed 37be 26bc 9cbd
000002e0: 087c 59bd a9c1 a6bd a0ca 0e3e 66ce 74be
000002f0: 2365 ebbd 2c8f 173e 38ab 61be 5ca7 40be
00000300: 6cc9 8f3c 2079 8a3d 4e97 7c3d 4d5f 3a3e
00000310: 30b2 bcbc 5545 1fbe 8e4d 693d e06e 0f3d
00000320: 9e5e 123e 24af 7e3d e174 d73d 4638 d43d
00000330: c541 ae3b 37dc 1cbe 5ff3 29be d21c 02be
00000340: 38c1 9cbd ed9d 543d cf27 02be 6a18 fe3d
00000350: 4b92 203e f780 2c3e 1375 1f3e f791 18bc
00000360: f239 763d dabf 9f3d b6c9 5d3e 007a fdbd
00000370: 2f94 16be ab4e 153e 9233 2fbd 6a88 b63d
00000380: daad 56be 80b7 533e b70e 143e 8490 6bbc
00000390: 7d77 61bc ab5e a9bd c96d fabd da36 c6bd
000003a0: b4bb 68be 9222 09be 0290 33be bbb0 13bc
000003b0: 8369 0ebe 6513 04be 6b33 3f3e bad0 8ebc
000003c0: d519 b73d a692 b93d 749d 743d 0a27 563e
000003d0: f134 73bc 2d86 ea3d 7dfc a3bd 5b11 193e
000003e0: 3986 af3d e6b3 133e b495 f9bd 54f9 96bd
000003f0: 0ec6 683e 8188 533d e5b5 fd3d 0c4c 76be
-0.006796277 -0.033146117 0.09857788 -0.12647907 -0.056510855 0.14308815 0.10740358 0.1601885
-0.01552501 -0.014679865 0.15684715 -0.11933947 0.083061226 0.016209912 -0.02575949 0.12711544
-0.072137125 -0.032466844 0.048596714 0.08918236 0.122607134 -0.13843918 -0.15249121 -0.014473905
0.12039126 0.10811999 0.05227243 -0.12879397 0.090027764 -0.07077237 0.037443608 0.20154445
0.15637039 -0.120835036 0.044193283 0.05279709 -0.030021023 -0.035104226 -0.120925404 0.09968725
-0.19539592 0.06065662 -0.10940806 -0.081273355 0.12242327 -0.019708047 -0.047181025 -0.15469043
-0.056657776 0.11115654 0.15006919 0.15123712 0.23123692 -0.019920047 0.0050815856 -0.08326328
-0.14100564 0.13783787 0.060771264 0.116119854 0.13262896 -0.0890532 -0.1885091 -0.3093687
-0.17700937 0.028009508 0.16153206 -0.04853739 0.11280696 0.07310386 0.21121702 0.11432096
0.24150951 0.17983371 0.06805231 0.14953929 0.1682332 0.15223864 -0.06525898 0.0922587
0.082831696 -0.20194507 0.07938368 0.004872731 -0.087632515 0.015380939 0.09278009 0.013184251
0.16547562 0.20230265 0.11530238 0.0021059483 0.13803115 -0.070036635 0.21217872 -0.020885538
-0.103134744 -0.18336739 -0.007186648 0.10551685 -0.012986593 -0.11131738 -0.1424477 -0.0009114094
0.014093008 0.024792215 0.12203551 0.13741475 0.056605414 -0.15831153 -0.0610025 0.056451615
0.07195117 0.22361422 -0.007659911 -0.15881565 -0.16710933 -0.045644023 0.0553883 0.07706492
-0.19411069 0.120927855 -0.18595614 0.1539326 -0.032102976 0.053938728 0.04833545 -0.043036513
-0.117606424 0.18308267 0.18166547 0.11156754 -0.20458217 0.0143443495 0.19525689 0.17350082
0.112384394 -0.182877 -0.06935885 0.07013255 0.06484701 0.19311886 -7.2097726e-05 -0.11527579
0.072537586 -0.20498249 -0.014097205 0.11935632 0.1408704 -0.09190969 -0.040989272 -0.22271185
-0.07011689 0.16784976 -0.08353979 -0.15662067 -0.1770274 -0.21194534 0.069521695 -0.17660536
-0.049851872 0.18591768 -0.07886276 0.21392384 -0.13038273 -0.18569401 -0.056613207 0.09559253
0.18248397 0.1687383 -0.12464245 -0.13351877 -0.018691074 0.188745 -0.17280458 -0.043447442
-0.15426527 0.025180155 -0.07562661 0.13736673 0.030530186 0.20128569 -0.1796157 -0.07653074
-0.0530968 -0.081424065 0.13944483 -0.2390686 -0.114939 0.1480071 -0.22037971 -0.18813843
0.0175521 0.06761384 0.061667733 0.18200417 -0.023034185 -0.15553792 0.056958728 0.035017848
0.14293906 0.062178746 0.1052034 0.10362296 0.005317899 -0.1531838 -0.16596745 -0.12706307
-0.07654041 0.051908422 -0.12710498 0.12407 0.15680806 0.16846071 0.15572004 -0.0093121445
0.060113855 0.07800265 0.21658978 -0.12376785 -0.14704965 0.1458079 -0.04277379 0.08912738
-0.20964757 0.20675468 0.14458738 -0.014377717 -0.013761398 -0.082700096 -0.12227971 -0.09678431
-0.22727853 -0.13392094 -0.17535403 -0.009014304 -0.13907437 -0.12898023 0.18671958 -0.017433513
0.08940474 0.09061174 0.05972047 0.2091333 -0.014844165 0.11451373 -0.08007143 0.14948027
0.08570523 0.14424095 -0.12186757 -0.07371774 0.22731802 0.051643852 0.12388209 -0.24052447

actor.2.weight f4 [256, 256]
00000000: cc21 683d d117 de3c ce24 1f3c 9064 11bc
00000010: a5c9 9ebd b1d5 fb3c bab9 703c 19c2 8dbc
00000020: 3f2e 433d 736c 2e3d a214 883c 7a9a 22bd
00000030: 59e4 ec3c a116 703d 81f4 f63c ab23 66bd
00000040: fe3d 27bd ca08 d23d 5d59 8fbd b54c 913d
00000050: 3eef 4c3e 89ef 193c 9676 87bd 32cc 1ebe
00000060: c898 c93d 8bf5 b5bd cadf 2c3d 2357 a7ba
00000070: 351e 11bd 3341 f0bd 6544 a33b 40af 60bd
00000080: 223f 0cbd 6d0f e23c 76a8 b7bd 4e4b 573d
00000090: ce6a 58bd 22d1 8ebe 353d a0bd f0c5 a13b
000000a0: ac29 d1bd 2aa8 45bd 8b97 583d 44d9 a3be
000000b0: 0a39 1dbd 16dd e4bd 30c5 483d 35fa f93c
000000c0: 9f41 a5bd 695f 493d f21a f53c 823f 573e
000000d0: 3802 983d 1463 983e 096e 27bd 8a62 8dbb
000000e0: c77d a4bd dd64 f93c f2f7 03be 1051 b3bd
000000f0: 9a31 303d f23c 34bd 6fd2 403d 8739 d6bd
00000100: a9e6 803d 66e1 ae3d 9bf7 38be daf4 34bc
00000110: e346 0ebd c88f a7bd 5f6a d5bc 6316 6b3d
00000120: 3ff4 693d ec1e ff3c b293 15be 800f 2dbc
00000130: e4fe 2dbb f4a4 043e 93f5 653d d3df 603c
00000140: a910 843d 93f5 693d 60e0 a13d eab5 cd3c
00000150: 7a71 0cbe 4ccf 8d3d d616 04bd 971e b53d
00000160: 742d 3dbd e63c 4b3d e37b cf3c 7fcb 563c
00000170: 66b2 77bd dc6c 513d 6a6a 2dbd 615a d438
00000180: 7d97 933d 60e6 9dbd 9c59 1b3d 4ff2 a63c
00000190: b5fc b0bb 82e6 023e 4fef 9d3d 231d c33d
000001a0: b375 0abd e3fb 9dbd 9cf2 a23c c869 0abc
000001b0: dfb5 30ba deec afbb dcaf 01bd ee3e 33bd
000001c0: 1074 0fbd 9ba5 943d fd88 7abd 6e8a 5bbb
000001d0: bc48 b9bd 0749 713d 5c54 3f3e 8baa 21bd
000001e0: 20e7 173d f481 a63d f7a2 683d 25cf 583d
000001f0: 5190 8c3d 97be 80bd be58 b13d 9425 533d
00000200: 9a14 e2bd af3a 80bd 9e2c 003e 6269 e13d
00000210: 3d8e 60bd b45b 853d 77e7 a73c 9e90 4a3d
00000220: 9697 8d3d 8e4a 45bd f740 f93c 051f dfbd
00000230: 389d a93d c289 873c ccc4 d43d 88bd 32be
00000240: 7fe2 f7bc 9863 f7bd 0fab 383d 9838 c4bd
00000250: 2575 843d 3c4d f1bc b897 143d ef69 16bd
00000260: 7311 8d3d 918e 44bd 10f2 193d de77 0c3d
00000270: bb37 c43c b46c 9ebd 019b 7dbc f569 ca3c
00000280: 88e6 a83d a40f 1a3b 9ff5 96bd 7325 57bd
00000290: 4569 56bd ea75 e83c 8709 2b3d 2a53 2a3d
000002a0: ada3 75bb baa4 1ebd 31ba d53d fc82 8e3d
000002b0: 66b9 433d d209 6c3d 288b e3bc 8e10 e4bd
000002c0: 7e99 993d dbe1 7b3d 92a2 74bc e127 043d
000002d0: 87f1 fbbd ce91 18be e24f a53c 6e2b 0abd
000002e0: 31f7 1a3e 0eda 883d aea1 673d c6a3 3e3d
000002f0: 813f 63bc 3965 b1bc 3c9f 54bd 4016 833d
00000300: d69a 2a3e 7c32 b13d 27d1 c63d 3844 60bc
00000310: 0777 703d d795 13bd 85cb 1d3d c9d5 17bc
00000320: e92a aebc 1b82 833d 90fa 12be 2ded 093e
00000330: 2084 203e 0987 38ba 1678 ccb9 5e7a d9bc
00000340: eeda 2cbd 2cef ca3d 14af 873d 0ea6 883d
00000350: 2977 b93b dbf4 6c3d a955 4abd 061e adbd
00000360: 6a56 b13d 843d 24be 6bbf 253e 8992 73bc
00000370: d4db 2f3d dc52 cf3c d7eb 8bbd 9aab 55bd
00000380: 05f8 c43d 9e49 ea3d 505d cd3d a688 f2bc
00000390: 83ab d9bd cf5f 9bbc 6715 4f3c ee86 4b3a
000003a0: 4b16 593c c220 c6bd 4743 22bd f67b a3bd
000003b0: 2c46 f4bb 5cff 1a3e b3fa 41bd bdb2 a23d
000003c0: ed11 4c3c 48e8 95bd ffe7 c3ba 0bbe b63c
000003d0: 900c e03d c4b2 82bd 4c2d 3fbc edd6 0a3d
000003e0: 3706 de3d 10d0 653c 4469 90bd 9a3d e13c
000003f0: f8eb c53d 204a b6bd e732 a13c b64b 2139
0.056672856 0.027110966 0.009713365 -0.008874074 -0.077533044 0.030741544 0.014692718 -0.017304467
0.047651526 0.042583894 0.016611401 -0.0396981 0.028917478 0.05861533 0.030145885 -0.05618636
-0.040830605 0.10255583 -0.069994666 0.07094709 0.20013139 0.009395489 -0.06614415 -0.15507582
0.09843594 -0.08884724 0.04220561 -0.0012767058 -0.0354292 -0.11731186 0.0049825185 -0.05485463
-0.034239896 0.027595246 -0.08967678 0.05256205 -0.052836232 -0.2789393 -0.07824174 0.004936926
-0.102130264 -0.048256077 0.052878898 -0.32001698 -0.038384475 -0.11174981 0.049016178 0.030514816
-0.08069157 0.049163256 0.029920075 0.2102032 0.07422298 0.2976309 -0.040876422 -0.0043147253
-0.080318026 0.030443603 -0.12887552 -0.08755696 0.043016054 -0.044003434 0.047075685 -0.10460191
0.06293995 0.08539085 -0.18063204 -0.011044705 -0.03473557 -0.08181721 -0.026051698 0.057394397
0.057117697 0.031142674 -0.14607123 -0.0105627775 -0.0026549632 0.1295355 0.0561424 0.013725239
0.0644849 0.057118963 0.07904124 0.025111157 -0.13715163 0.06924304 -0.03224834 0.08843725
-0.046185926 0.049618624 0.025327628 0.013110041 -0.06047287 0.051129207 -0.042337812 0.00010125782
0.072066285 -0.07709956 0.037927255 0.020379214 -0.005401219 0.12783244 0.0771166 0.09527042
-0.033803653 -0.07714059 0.019891076 -0.008448072 -0.0006740968 -0.005368813 -0.031661853 -0.043761186
-0.035022795 0.07258149 -0.0611658 -0.0033499259 -0.09047076 0.058907535 0.18684524 -0.039469283
0.037085652 0.08130255 0.05679604 0.052931923 0.06863464 -0.06286352 0.08659504 0.05154951
-0.11039086 -0.06261193 0.1251702 0.11006428 -0.05482315 0.065116316 0.020496113 0.049454324
0.06913678 -0.048166804 0.030426485 -0.108945884 0.0828194 0.01654518 0.103890985 -0.17455113
-0.030259369 -0.12079543 0.04508501 -0.09581107 0.06467656 -0.029455774 0.036277503 -0.03672212
0.06888094 -0.047987524 0.037584364 0.034294 0.023952356 -0.07735577 -0.01547885 0.024708727
0.08247095 0.0023507858 -0.07371067 -0.05252595 -0.052346487 0.028376538 0.041757133 0.041583218
-0.0037481592 -0.038731314 0.10435904 0.06958577 0.04778423 0.057626553 -0.027776316 -0.1113597
0.074999794 0.06149469 -0.014931338 0.032264594 -0.12301927 -0.1489937 0.020179693 -0.033732824
0.15133359 0.06682216 0.056550674 0.046542905 -0.013870121 -0.021654712 -0.05190967 0.06400728
0.16660628 0.08652207 0.097078614 -0.01368814 0.058707263 -0.03603157 0.03852417 -0.009267279
-0.021260696 0.064213 -0.14353395 0.13469382 0.15675402 -0.0007039165 -0.00038999383 -0.026547607
-0.042200975 0.099089 0.066251904 0.066722974 0.005659957 0.0578507 -0.0493981 -0.08452992
0.0865906 -0.16039091 0.16186301 -0.01486648 0.042934254 0.025308065 -0.06832092 -0.052165605
0.096176185 0.114398226 0.100275636 -0.029606175 -0.106284164 -0.018966584 0.01263938 0.00077639415
0.013249944 -0.09674217 -0.039614942 -0.07982628 -0.007454654 0.15136474 -0.047358226 0.07944248
0.012455446 -0.07319695 -0.001494646 0.022307416 0.10939896 -0.06381753 -0.011668514 0.033896375
0.10841029 0.014026657 -0.07051328 0.027495194 0.09664148 -0.08900857 0.019677592 0.00015382361
