models/mec_policy_ep0.pth (torch, 576610 bytes, 11 tensors)

critic.0.weight f4 [256, 19]
00000000: 8615 64bf fd6c 183f 6358 f5bd 0068 92bd
00000010: 961d 41be 4e60 df3d 64b4 ebbe 60db 10bf
00000020: 5caa dd3f cb51 b53e 6540 373e 6349 e0bd
00000030: b875 1cbe 77eb 813e c108 2abe db10 05be
00000040: 6962 bbbd aa04 023e 54dd 3cbe d9a2 bf3e
00000050: 36e0 2dbd 231d 81be 4786 b83d d6f1 f33d
00000060: 20a3 5dbd 4d31 613f 19bd aebe 11ea eebe
00000070: 083f 8dbe 00db 50bd 4548 1a3f 3325 88be
00000080: 2cfc a5be 8bd8 ff3b da02 793b 7a0d 923c
00000090: 52f2 d43d 6581 f73d 28ed fe3d 1cc3 9a3f
000000a0: 6eba c4bc 1fe9 f3bc 0032 f439 a741 69be
000000b0: 4b59 3d3f c829 30be 2ce2 a0bf f236 5f3e
000000c0: 0d6e 003e 8502 ab3d dcc4 073d 3924 743d
000000d0: 890d 723d bdca dbbc d267 4d3e 2a6d febc
000000e0: 89a1 f7bd 33de b73e 59e6 713e 3513 7ebe
000000f0: 02d2 e9bc b0c5 573c 4618 41be f358 98bf
00000100: 2918 c53e c485 373f e458 c9bd 632a 103e
00000110: 6358 4b3f 8d09 98be 1b73 47be 9d1e a73e
00000120: b17e 09be 034f e43d bce0 c03c 4abf f93d
00000130: 64d0 433e 7e49 ec3a ec7c 6dbe 3413 ecbd
00000140: 9f12 f4bd 7f60 5b3e bbb7 cf3f f2ff 3dbd
00000150: 4c07 0f3f da80 f03d a47e 763d 60fb 103f
00000160: 1797 36bd 10a8 f63d f432 68be 0c31 c3bd
00000170: 4bab 1d3e f901 8fbd 8077 01bd 0acf 9ebf
00000180: 8442 acbf 780d 553d 3c71 123e e002 9cbc
00000190: f43e 793d 51b4 14bf 3798 8bbf 9cf9 5fbf
000001a0: 8b70 753e 1320 223e b47e 703f 6bb4 bebd
000001b0: 6ac3 853e bd34 6bbe fff2 dfbd 9045 88bd
000001c0: 1fa0 75be 0667 483d 0601 c1be 3d94 7ebe
000001d0: 22c4 47be dd05 9e3d 108e 03be 1942 333e
000001e0: 604c f23f 2c0e 023f 4171 a13f 5102 bc3d
000001f0: cc42 a5bd b982 863d 3757 6bbe 702b d3be
00000200: c849 a0bd 3de1 e73d 7777 bebd 39c2 0bbe
00000210: 1368 78be a762 a23e cdee 343e 4e8b 603e
00000220: 69ab 643e 12eb 0ebe ba59 3bbe aa57 4fbf
00000230: 607a f23e 58cc a63e 3438 dd3d f332 453e
00000240: 44f1 f53e fd0e 01be 8914 e83e 2fa4 713c
00000250: 4827 503d cd5e 36bd 92ca 17be f373 803e
00000260: 3f62 95bc b44d e4bf 1801 a6bd b1ca 9abe
00000270: a870 c9bd b433 4a3d c250 7cbd cc18 fbbd
00000280: 4c8e 243e e2d6 e33c 8ccb 78bd 5703 473f
00000290: 7202 a43d 73ab 3bbf ced5 4c3e cd5f 73be
000002a0: aff4 f4bd 9ce3 97be 21d0 e7bd e072 4c3f
000002b0: 3073 61bf f1ff 6cbe b2db 44bd 9d93 66be
000002c0: 3b35 64be 2e7d 2abf 525d 83bf 3ac5 a0bf
000002d0: 3324 053e 49cc 2a3e dbd1 2f3f 83da 313f
000002e0: 4797 ccbe c22f 59be 56c8 1abe 077f 3abe
000002f0: 72c3 773d 187c 633d 140a 66be 9408 98bd
00000300: cbcb 6a3e 9f13 523d e8eb 943c ed26 66be
00000310: 267e 9e3f e070 1ebf 4071 45bf 0ffc 0ebe
00000320: 2ca1 0cbe 5d72 c3be ac08 563d 8da6 223f
00000330: fba3 9b3b 7647 c43d a462 0c3d b8d5 393e
00000340: 9857 6e3e 23f6 613e 4d3f 823f 8050 803d
00000350: 2cc9 983e 188c 34bd 7c40 1bbe ac6c 403f
00000360: c533 57bf bd2d 343f 0214 c5be ca75 65be
00000370: b7b8 78bf b9f1 d53e 812c 223c 01c4 5bbc
00000380: 7ecb a9bc e5a0 2cbe c637 a43d 26ad a93e
00000390: 4bc9 313f 3f03 36be b6ad 3ebe 7d82 db3d
000003a0: 2e36 b33d 4a31 a13d f9f1 37bf fc58 08bf
000003b0: 6172 dabc 8219 95bd d8f5 f43c 57e2 643f
000003c0: 4e4c e3bd 8cdb ef3e f7bf debe a63f 1fbc
000003d0: e358 79be 0564 f8bd 9551 54be 64a8 13bf
000003e0: 2c7d fa3e a170 1abd 0225 1b3e 8817 883c
000003f0: c727 2d3e 1eea 52bf 9747 3b3f 028c 0c3f
-0.8909534 0.595413 -0.11979749 -0.07148743 -0.18858942 0.109070405 -0.46036065 -0.5658474
1.7317615 0.35413966 0.17895658 -0.109514974 -0.15279281 0.25374958 -0.16604902 -0.12994711
-0.091496296 0.12697092 -0.18443805 0.3742893 -0.042450152 -0.25217542 0.09009986 0.11911361
-0.054110646 0.8796585 -0.34128645 -0.46662953 -0.27587152 -0.050990105 0.60266525 -0.2659088
-0.32418954 0.0078077964 0.0037996084 0.017828692 0.103977814 0.12085227 0.12447578 1.2090793
-0.024014678 -0.029774247 0.0004657656 -0.2277895 0.73964375 -0.17203438 -1.2569022 0.21798304
0.12541981 0.0835009 0.033146724 0.059604857 0.05909494 -0.026830072 0.20059136 -0.031057913
-0.12091357 0.35911712 0.23623027 -0.24812014 -0.028542522 0.013169691 -0.18856916 -1.1902145
0.38494995 0.71688485 -0.09831408 0.14078669 0.7943174 -0.29694787 -0.19477503 0.32640544
-0.13427235 0.11147883 0.023544662 0.121946886 0.19122463 0.0018027273 -0.23192185 -0.115271
-0.11917614 0.21423529 1.6227945 -0.046386667 0.5587051 0.117433265 0.060179368 0.5663357
-0.044577684 0.12043774 -0.22675687 -0.09530839 0.15397374 -0.06982798 -0.031608105 -1.2406933
-1.3457799 0.052014798 0.14301008 -0.01904434 0.060851052 -0.5808764 -1.0905827 -0.8749025
0.23968713 0.15832548 0.93943334 -0.09311756 0.26125652 -0.22969337 -0.1093502 -0.06653893
-0.23986863 0.048926376 -0.37696093 -0.24861236 -0.19508412 0.07715962 -0.12847161 0.17505683
1.8929558 0.50802875 1.2612687 0.09180129 -0.08069381 0.06567902 -0.22982489 -0.41244078
-0.07826573 0.11322258 -0.0930013 -0.13648309 -0.24258451 0.3171589 0.1766922 0.2192814
0.22331013 -0.1395686 -0.18295947 -0.8099314 0.4735899 0.32577777 0.108017355 0.19257717
0.48035634 -0.12603374 0.45328167 0.014748617 0.05081871 -0.044524003 -0.14823368 0.25088462
-0.018235324 -1.7836213 -0.08105677 -0.30232766 -0.098359406 0.049365714 -0.061600454 -0.12260589
0.16069907 0.027812425 -0.060740992 0.7773947 0.08008279 -0.73308486 0.20003435 -0.23767014
-0.11960732 -0.2966584 -0.11318994 0.79862785 -0.8806639 -0.23144509 -0.04806108 -0.22517247
-0.22285931 -0.6659726 -1.0262854 -1.2560189 0.1300209 0.16679491 0.6867959 0.6947405
-0.39959165 -0.21209624 -0.15115485 -0.1821252 0.060489126 0.055538267 -0.22464782 -0.07423511
0.22929303 0.051288243 0.018178895 -0.22475787 1.2382247 -0.61890984 -0.7712593 -0.1396334
-0.13733357 -0.3817319 0.052254364 0.63535386 0.0047497726 0.095839426 0.03427376 0.18147933
0.23275602 0.2206655 1.0175568 0.06265354 0.29840982 -0.044078916 -0.15161318 0.7516582
-0.8406337 0.7038229 -0.38491827 -0.22408214 -0.9715685 0.41785982 0.009898306 -0.01341343
-0.020726915 -0.16858251 0.080184504 0.33139914 0.69447774 -0.17774676 -0.18620953 0.10718248
0.08750568 0.07870729 -0.71853596 -0.5326078 -0.026665868 -0.07280256 0.029902384 0.8940787
-0.11098538 0.46847188 -0.43505833 -0.009719765 -0.24350314 -0.12128452 -0.20734246 -0.5767882
0.48923624 -0.037705068 0.15150836 0.016612783 0.16909705 -0.82388484 0.7315611 0.54901135

critic.0.bias f4 [256]
00000000: ded0 1ebd 78cc 1a3e c26d 47be 0279 0d3e
00000010: 2fce 1dbe 003c 903e a7a1 113e 0994 4f3e
00000020: 8e6d 05bc 9e65 6fbe c456 a8bd d8ad 303e
00000030: 42d5 65be d648 a13e 57b2 283e 8cd5 d73e
00000040: d28c 7dbe 61a2 bebe f06e bfbe 9c9b a63d
00000050: 1959 17be 5415 76be ef87 733d bbec 9bbe
00000060: 3beb 28be 1912 fc3d 044b 1bbe 11b9 febd
00000070: 2e51 b03e ef73 d3bd 26f1 aebd 6695 0e3d
00000080: c9a0 3b3e 65be 1d3d e554 da3e 8b13 513a
00000090: f349 243e 298b 81be 4309 f93d a775 a0bc
000000a0: bbf6 a23e bdcd 8cbe 1fff b93e c22c f9bd
000000b0: ad81 b83d f70e 793e ca76 033e 58a2 a03d
000000c0: 534d bc3e dd37 a5bc f7ca 14be 5ee5 91bd
000000d0: 13fa 523d bc83 603d 971a b8be 2118 7a3d
000000e0: 51c5 b9bd 1a87 ea3e e435 5cbe f7d8 a03e
000000f0: 7a06 1e3e 0e3f cbbc 89d9 863e fd4b 4f3c
00000100: d52e a13d f6ec 08be 432e d63b df4f 263e
00000110: bfe9 82bc d320 5f3d f7b6 02bc 6b41 e53d
00000120: ebaa 62be 6334 6b3d f6b3 f03d 1f95 39be
00000130: 1768 b4bd 2758 573e 73a2 33be c29a af3e
00000140: 0302 ddbd c367 263e 6323 823d c57f 71bc
00000150: 56c4 1fbe 6f00 bd3e 849c e5bd 3679 633d
00000160: 5c4e 44be 5531 45be 71d0 c6bc 14e2 90bd
00000170: d57b aebe b5db 43bd 7369 613e 14d3 db3d
00000180: b19f 9f3e a9cd 21be 3723 a73d 0232 cebe
00000190: 550b 04be 6c09 6fbd de23 cfba 2921 82be
000001a0: 65e0 6fbe d5de 8a3d a040 12bd 9b81 bf3c
000001b0: 1324 763e a106 a3be 267f 7bbe df40 4a3e
000001c0: 3c8c d03d 9fa5 4a3e ace1 613e 3194 523d
000001d0: 585f 533e 8a92 5abe e7c1 03bd 01c0 283d
000001e0: cfdc 25be 3974 263d 082f f2be b997 0bbd
000001f0: e715 6e3e 5e27 68be ea6d 32bd 0934 753e
00000200: 8008 3bbb c9fb 813d bb46 88bc b99a 23be
00000210: 61a9 063e b4de 233d 9731 3a3d 59e2 5bbe
00000220: 1914 303e a182 313e 2cba 3e3e a2d3 bf3b
00000230: ba3e 343e 2ae8 383e a9fe d03d 0a5b c0bb
00000240: 956a c4bd 0db8 89bd 3001 b13c 47df c73e
00000250: 0bb8 6dbe 06db 373e 4c2d 92be 01c9 cbbd
00000260: ae1d b7bd 77cb 633d 2755 16be c3b5 59be
00000270: 6980 3f3e 9d7c 66bd 2057 053e ff4e 77be
00000280: 5daa 973e 8ccc e83d e8f3 44be 07ee 413d
00000290: dbba a83d c2cf 57be 8ef5 cfbd 895c 3f3d
000002a0: 9ce1 45bd 8d49 22bd c321 a5bd 69ff 7a3e
000002b0: 21bc 35bc 311b 3b3e dbf8 a2be 7b3b 173d
000002c0: 65d4 ee3d 61f8 ed3d dfa6 3abe a4c3 9dbe
000002d0: 5463 75be 7d7e 41be 2659 0f3d 7f53 453e
000002e0: b907 2abe 2b40 b53d 1e9a 8bbe 19f3 6dbe
000002f0: c7d0 9cbe 5cf6 a1bd d331 203d cb9e 1e3e
00000300: eeb5 e5b9 5a96 b13d 4186 f23e bc85 c3be
00000310: 904e f63d c147 783e 44e6 2f3e 16bf bc3d
00000320: 64c9 69be 237c 893d 9fe2 88be bd90 70be
00000330: bfcc 1f3c 034b 0b3d ea82 09be f65b 993e
00000340: 8df6 8ebe 1394 e43d efd2 8f3e 2079 de3d
00000350: 71d2 dabd d644 74be 0064 933d ff0e 4f3e
00000360: 39cb 413d 33db 303e 98d3 d83d 73d7 ab3d
00000370: 45ec 3dbe b1cf 17bc 4c77 ac3d 4489 4c3d
00000380: 9da9 0ebe 3970 2b3e 0bed c33d 8a52 2f3e
00000390: 63db 683e 681e 003e 94a5 8a3e f74e a0bd
000003a0: 635c 12be 45fd ec3e bd53 18be 1fa3 cc3d
000003b0: 43b2 d83d 4452 7abe 3099 e1be 1e89 2ebd
000003c0: 662f 86be ea8f 9bbe 9adf 683e a4dd a3be
000003d0: 24ea 9abe df91 09be 8299 c73c 91d3 efbb
000003e0: 5969 83be 0ba0 033e 8a6d 8cbe b043 bcbe
000003f0: d992 b33e b3eb bcbe 6c49 043e 70d0 893e
-0.03877341 0.15117061 -0.19475463 0.13815692 -0.15410684 0.28170776 0.14221822 0.20271315
-0.008143796 -0.23378608 -0.08219674 0.17253816 -0.22444633 0.31500882 0.16474281 0.4215511
-0.2476075 -0.3723326 -0.37389326 0.08135149 -0.14780082 -0.24031574 0.05945581 -0.3045405
-0.16495983 0.12308139 -0.15165335 -0.12437642 0.34436935 -0.10324847 -0.08542089 0.034810446
0.18323053 0.038511652 0.42642894 0.00079756294 0.16043834 -0.25301483 0.1215997 -0.019587351
0.31828865 -0.27500716 0.36327454 -0.1216674 0.09009109 0.24322115 0.12838283 0.078434646
0.36777744 -0.02016824 -0.1453055 -0.071238264 0.05150802 0.05481313 -0.35957786 0.061058167
-0.09070838 0.458062 -0.21504933 0.3141553 0.15432158 -0.02481034 0.2633784 0.012652394
0.078702606 -0.13371643 0.0065362765 0.16241406 -0.0159806 0.054474663 -0.0079781925 0.11194118
-0.22135513 0.057423007 0.11753075 -0.18123291 -0.08808916 0.21029721 -0.17542438 0.34297758
-0.10791399 0.1625052 0.06354406 -0.014739935 -0.1560224 0.36914393 -0.112114936 0.055535518
-0.19170517 -0.192571 -0.024269314 -0.07074371 -0.3407885 -0.04781695 0.22012882 0.10733619
0.31176522 -0.1580111 0.081610136 -0.40272528 -0.12894948 -0.058358595 -0.0015803536 -0.25415924
-0.23425443 0.06780783 -0.035706162 0.02337723 0.24037199 -0.31840995 -0.24560222 0.19751309
0.101829976 0.19789742 0.22058743 0.051410858 0.2064184 -0.21344963 -0.03216734 0.041198734
-0.16197513 0.040638182 -0.47301507 -0.03408024 0.23250543 -0.22671267 -0.043561853 0.23945631
-0.0028539002 0.06346852 -0.01663529 -0.15976991 0.1315055 0.040007308 0.04545745 -0.21473064
0.17195167 0.17334987 0.18625706 0.005854086 0.17602053 0.18057314 0.102048226 -0.0058702277
-0.095906414 -0.06724558 0.021607012 0.39037535 -0.23214738 0.17954645 -0.28550184 -0.09950448
-0.08941208 0.05561396 -0.1468092 -0.21260743 0.18701328 -0.056271184 0.13021517 -0.24151228
0.29622164 0.11367139 -0.19233668 0.04734614 0.08238765 -0.21075347 -0.10154258 0.046719108
-0.04831086 -0.039620925 -0.0806308 0.24511494 -0.011092217 0.18272091 -0.31830487 0.03692196
0.11661605 0.1161964 -0.18227719 -0.30813324 -0.23963672 -0.18895908 0.034997128 0.19270132
-0.16604508 0.0885013 -0.2726602 -0.23237266 -0.30628034 -0.079083174 0.039110016 0.15490262
-0.00043813832 0.086712554 0.47368053 -0.3818797 0.12026703 0.24246122 0.17177683 0.09216134
-0.2283073 0.0671313 -0.26735398 -0.23492713 0.009753405 0.034007084 -0.13428846 0.29952973
-0.27922478 0.111610554 0.28090617 0.108629465 -0.1068467 -0.23854384 0.07196808 0.20220564
0.04731295 0.17271118 0.10587233 0.08390703 -0.18547161 -0.009265826 0.084211916 0.049935594
-0.1393189 0.16742028 0.09566697 0.1712133 0.2273994 0.12511599 0.2707945 -0.07827561
-0.14293055 0.4628698 -0.14875694 0.099920504 0.10580876 -0.24445444 -0.44062185 -0.042611234
-0.26208037 -0.30383235 0.22741547 -0.32005036 -0.3025676 -0.13434552 0.02436519 -0.007318922
-0.2566631 0.1285402 -0.27427322 -0.3677039 0.35072973 -0.36898574 0.12918633 0.26916838

critic.2.weight f4 [256, 256]
00000000: ec1b a2bf 2d9a d8bc 8795 4b3f 27db 12bf
00000010: 5300 0e3e 4aac 34bf 2423 313e 9595 9abe
00000020: 0954 053d c027 4dbd 4a21 ce3e c24d 7e3e
00000030: a1a8 4fbe c109 e8be 8317 f83d a284 e7be
00000040: 9895 0a3f 92fc 743b c87c ebbd 894b 823e
00000050: 6f51 9b3e 792c f23e c65f ee3e 6e2f 373b
00000060: 98ff f2be 0b3c 13be 4608 453e 474a 0ebf
00000070: 60d1 d13d 7ccb 96bf f2ce 0ebf 05bb 33bf
00000080: d5b0 e8be 568e 053f 6101 c1be 10bb 023f
00000090: 19ec 1abe e57a 36be f9ca 8ebe ba27 ee3e
000000a0: a1a7 1a3e 986e 103f 3057 0dbf 0703 f0be
000000b0: bb7b 59be d0c4 8b3e a98e b2bd 5dbe 9bbe
000000c0: aaf3 a03e 90c0 a23e 3a9a 0b3b a0a0 5c3f
000000d0: cb63 02be 703d a9be de7c 693e f57f b9bc
000000e0: 9290 173f 9b32 2ebe cccc 893e ea3f 99bd
000000f0: 6fee a5be 5dba c23e 276f e23a 8326 81be
00000100: 2216 9a3e 2ebd c2be 14ba c3be 4165 7fbe
00000110: 99eb ca3d 796e f13d 688c 843f 039d fa3e
00000120: 314a f83e cc23 bb3e c58a fb3e 177e eabe
00000130: e4ff 55bf 5223 b43e 3495 d73d 750f 893e
00000140: 86b7 94bc b8d3 d13e 6a6c 52bf c170 0bbf
00000150: cbc1 f73e 9213 103e f4c8 9fbe f15f d3be
00000160: 324c c13e aa40 9fbe bada c7bd c2a8 943c
00000170: 573e 7dbd fd52 843d 8562 e4be 8dd6 c8be
00000180: 2748 493e 9d96 45be c666 14bf bd1c 513e
00000190: 75a5 a0bd 5bd0 28be 0296 b43d 038a dbbe
000001a0: 15d7 76be a724 f5bd c0d0 91be 37c4 80be
000001b0: f460 86be 89cd 84bd 6dbd 87be e689 f6bd
000001c0: e9c3 efbe a03d bbbe e3a8 afbe de4d bbbe
000001d0: 0f51 493e 3eff 99bd 8e74 94ba 5e77 9e3e
000001e0: 3464 cb3c 594f eebe 6409 493e 82df 51be
000001f0: 7a66 2e3f 4389 043f e148 9cbc 4470 093e
00000200: 8cf8 943e b062 a4bd fdd7 c63e 321e 7cbd
00000210: fdf3 083d 0aff a33d 73f1 1bbf dbad b6be
00000220: b9f1 2a3e 92d8 e5bd 0c61 ecbd 031d 573f
00000230: 5eca 25bf 2eab 86be f6d7 a53e 4b62 3bbe
00000240: 59f5 2c3f 086d a93e 7e68 b8bf 551e 8dbe
00000250: 6117 eebd b427 173d 149e 063f 08c8 503e
00000260: b3d2 65bd c3ca 97be 2afc 13bf da6d 93be
00000270: f65a 333b 693b 5abe f04d e9be c4d3 c43e
00000280: 94f4 e9be 08b2 843e 9763 313f c453 64bd
00000290: 118c cebe 531a 32bf 1cce 00bd 9748 d3be
000002a0: 21d0 1d3e 2ae3 0f3e 86d4 833d 6c3e 843e
000002b0: 6d4d bfbe 22d8 743e 4202 e0bd 1e3a 753e
000002c0: 1457 fd3e 42c3 e2be 94e1 02be f74d 83be
000002d0: db7b f13e c083 17be 90f7 e5be f6a0 7c3d
000002e0: 558d 0b3e 1925 343e 01ea e13e 03e8 babd
000002f0: 1ae8 0abe bccf 94be b0c4 da3e db44 553e
00000300: f593 0f3d 84a6 10bf 6b5e a3bd 1c35 06be
00000310: aad3 9e3e d858 e1bc 8f6c fbbe 3362 c9bd
00000320: 19d7 323f f7b5 883e e27b eb3e f8b9 583e
00000330: e1c5 203f 3e09 e73e 24c8 cf3e 1e85 553f
00000340: 62f9 b03d a676 843e c2db 8cbd b8bc 113f
00000350: 7a74 cebd c59e 21be 2b5c fdbe 4cf3 8fbd
00000360: 08bc 6b3e c1aa 96be c1b4 df3d deb4 a3be
00000370: 9648 1bbd 24ca 5f3e 1fd9 3d3e b1a7 fb3c
00000380: 4898 653e bfa9 f03e 41cb bcbe 4efd 093f
00000390: ae2e 70bf b883 38be 5568 c8be 87aa 443e
000003a0: f0ae 603f 5ff9 863e a1b3 7e3e 8734 333e
000003b0: 4b93 d43d b997 db3e 522c 90bd ef92 403e
000003c0: 69d8 6ebe bc9a bfbe 5273 083f 6f12 163f
000003d0: b476 053f c95a 6d3f 7074 18bf 3226 afbe
000003e0: 9ecf fcba 5bc9 ba3e 4a5d 233f 90bd afbc
000003f0: 63a0 d0bc 203e fd3e ef33 b9bd 51d9 7e3e
-1.2664771 -0.026440704 0.79525036 -0.5736565 0.13867311 -0.7057539 0.17298561 -0.30192247
0.032550845 -0.050086737 0.40259773 0.2483435 -0.2027917 -0.45319942 0.121138595 -0.45218378
0.5413451 0.003738199 -0.114984095 0.25448254 0.30335566 0.47299555 0.46557444 0.0027951854
-0.47460628 -0.14378373 0.19241437 -0.5558209 0.10245013 -1.1780849 -0.55784523 -0.70207244
-0.45447412 0.5217031 -0.37696365 0.51066685 -0.15129127 -0.17820318 -0.2788923 0.46514684
0.15103008 0.5641875 -0.5521116 -0.4687731 -0.21238606 0.27298594 -0.087186165 -0.30418673
0.314359 0.3178754 0.0021301643 0.86182594 -0.1273338 -0.33054686 0.2280154 -0.022644022
0.5920497 -0.17011492 0.2691406 -0.07482894 -0.32408473 0.3803281 0.0017275558 -0.25224695
0.3009501 -0.38034958 -0.38227904 -0.24940969 0.09908218 0.11788649 1.0355349 0.48947915
0.48494104 0.36550748 0.4912931 -0.45799324 -0.83593583 0.35183197 0.10526505 0.26769605
-0.018153917 0.4098184 -0.82196677 -0.54468924 0.4839004 0.14069965 -0.31208003 -0.41284135
0.37753445 -0.31104022 -0.09758516 0.018146876 -0.06182703 0.06461141 -0.44606414 -0.3922619
0.1965643 -0.19295736 -0.5796932 0.20421119 -0.078440584 -0.16485731 0.08817674 -0.42878732
-0.24105485 -0.119698815 -0.28479576 -0.251497 -0.26245844 -0.06484515 -0.26511708 -0.12038021
-0.46829155 -0.36570454 -0.34308538 -0.36582845 0.19659828 -0.07519387 -0.001132624 0.30950445
0.024828054 -0.46544912 0.19632488 -0.20495418 0.68125117 0.51771945 -0.01907772 0.13421732
0.29095876 -0.08026636 0.3883666 -0.061552234 0.03343581 0.08007629 -0.609153 -0.35679516
0.16693772 -0.11222948 -0.11541948 0.84028643 -0.6476191 -0.26302475 0.32391328 -0.18299215
0.6756187 0.33090997 -1.4406888 -0.27562204 -0.11625553 0.0369031 0.5258496 0.20388806
-0.05610914 -0.29646882 -0.57806647 -0.28794748 0.002736745 -0.21311726 -0.45567274 0.38442814
-0.4569441 0.25917077 0.6929259 -0.055743948 -0.40341237 -0.6957142 -0.03144656 -0.4126632
0.15411426 0.140515 0.0643702 0.25828874 -0.3736376 0.23910573 -0.10937931 0.23947951
0.49480498 -0.44289595 -0.12781364 -0.2564542 0.47164807 -0.14796352 -0.44915438 0.06167694
0.13628133 0.17592277 0.44123843 -0.09126284 -0.13565102 -0.2906474 0.42728186 0.20827048
0.035053212 -0.5650408 -0.07976993 -0.13106197 0.31020862 -0.027508184 -0.4910626 -0.09833183
0.6985946 0.26701328 0.45992953 0.21164691 0.6280194 0.4512424 0.40582383 0.83406246
0.08641316 0.25871772 -0.06877853 0.56928587 -0.1008081 -0.15783222 -0.4948438 -0.07028827
0.23020947 -0.2942715 0.10923148 -0.31973928 -0.03791102 0.21854454 0.18539856 0.03071961
0.22421372 0.47004506 -0.3687382 0.5390214 -0.9382123 -0.18018997 -0.391421 0.19205676
0.87766933 0.2636213 0.2487321 0.17500506 0.103796564 0.42889193 -0.070397034 0.1880605
-0.23324741 -0.3742274 0.53300965 0.5862188 0.5213425 0.9271665 -0.5955267 -0.34208828
-0.0019287949 0.36481747 0.6381422 -0.021452695 -0.025467103 0.4946146 -0.09043109 0.24887587

critic.2.bias f4 [256]
00000000: 724e 5bbe a982 35be dc59 f13d 0234 92be
00000010: 2207 3a3c a15c a9be 4599 003e cc05 4abe
00000020: 18ec 7ebe f08b 6dbe 0b6e abbe fdd3 8dbe
00000030: b5d3 443e d9ac 5c3e 18dc 70be a447 023e
00000040: 236c 8a3e e57a 28be 0071 4e3d 8095 8c3e
00000050: aae8 ebbd 8313 083e b66f 33be 6d66 483e
00000060: 4480 a8be d000 3ebe 000e 7f3d b4d1 2a3d
00000070: b5a9 4a3e 44f4 c73e 8d29 30be 123a 663e
00000080: 7775 8a3e da08 623e 35b7 d03e f72f 4b3e
00000090: 2bfe 2a3e f1aa a4be 803a dbbc d02b a7be
000000a0: c777 c83a 396f 8cbe d3eb 0fbe fa00 703e
000000b0: 5e42 a0bd b6d2 513e afa6 8fbd 335e 1f3d
000000c0: f8b7 6f3e 43c3 5d3e 35dd ad3d a5b3 833e
000000d0: 7889 82be f183 8fbe 1535 973e 1939 4fbe
000000e0: ac62 2fbd 1aae 813e 46ea b33d 1dbe bebe
000000f0: 739a 8a3e 50d6 d8bd 9990 913e dbff 453e
00000100: 175f 4d3e c939 fd3e 384b 6cbe 8483 04be
00000110: 5a78 77be 6484 b03d 1dfb 9bbe 39ab 21be
00000120: 584f 66be 938e 7d3e eff3 01be 4677 2dbb
00000130: 9853 d33e 5b1e cf3e de8a 353e 2490 bcbe
00000140: 3881 9a3e de86 cf3e f426 2d3e 9ada 293e
00000150: ed23 843e 69f9 b2be 4aac 20be f3ba 853d
00000160: 410c 693d 91ad cf3d 048c cdbe be00 9b3e
00000170: 5af4 54bb 1d8b 51be b5da 5d3d bac1 9cbe
00000180: 32c8 4a3e e78b 473e 1ab2 1c3d df21 d9be
00000190: d6c6 693d 7b20 fbbd 6552 93be 3752 84be
000001a0: 8ee2 6d3e 0385 663e 2369 95be 7580 dc3c
000001b0: 7152 6bbe d813 9c3d 4ae1 0cbe c5f8 133e
000001c0: 992c e73d 7129 67bb 68db f8bd c714 49be
000001d0: d701 4e3e 38cf 4d3e b136 33bd f5ce 3b3e
000001e0: 2bb6 7a3e ff5b c1bd 0707 f2be 849c c7bd
000001f0: c476 973e 0914 733e b6cc 773d 5f95 f73e
00000200: 3732 bf3e f7f8 6b3e 6122 683e d481 ecbd
00000210: 724b f33d f639 7dbe 815b 7ebc c6ac 153e
00000220: a0c5 513e 87fb 86be f0a4 d4bd bc21 df3d
00000230: 48da 3dbe 6dc6 923d 5f3c a8be 96d8 5f3e
00000240: 0199 503d 35cc 3d3e 18a9 313e e347 9e3d
00000250: 4cb2 183e f1d3 8d3e 39a4 4c3e 36ec 83bd
00000260: 607f 083e 958d 05be 018f 6bbe 64e1 6ebe
00000270: e1ab 8abe 66f1 813d 7dd2 13be 0f19 963e
00000280: 956b bbbd 4980 abbd f86b e13e 8b32 e1be
00000290: cca4 91be fea6 003c 5862 5a3e e178 aebe
000002a0: afb6 823d 35ab 13be 91eb cbbe d8d8 9a3d
000002b0: 3086 593e 959c 01be 0cf6 06be ece4 203e
000002c0: 805a 58b6 e073 57bd 025c f53c 330c 2c3e
000002d0: 11fc c5bc c19b 8abd ea6b 0b3e 9d14 a83e
000002e0: 7048 ccbd 8562 083c 5311 e73c aa24 c23e
000002f0: ff3a 4cbe 2a83 333e 4756 13be 3dd8 9d3d
00000300: 1d48 80be d1ef a8be fb7a a5bc 35fd 3dbe
00000310: e3d5 4fbe 3a06 7e3e 1512 21be b814 b8be
00000320: 7048 693e 313d 8abe 18b2 9b3d 68aa 6ebe
00000330: a4f8 52be d487 85be 2257 cd3d 933d 033d
00000340: 6ff9 f83c 7007 20be 4208 07be 5462 973e
00000350: c00d 1b3d 0499 793e 4b3f aa3e 364c 533e
00000360: 0c84 81bc e1ce 663e b50f ddbd e56b 86be
00000370: d99c ae3e bbf2 c13e 493e 583e fcdc 32bf
00000380: 6c88 d8bc dde8 24be 0b1e 913e 70ff b1be
00000390: 5899 0fbe 9ec0 75be bbe9 233e 4cb7 b8be
000003a0: 865e 213e ec4f b6be 4bcb 81bc 4f39 75be
000003b0: 560f 6abe a3ff 6fbe 601a 43be 5338 8cbe
000003c0: f28a 603e ddba 14be b65f 613e 9848 c4bd
000003d0: ea4c 193e 4ebe 8c3d 3a56 183c 14f4 643e
000003e0: b317 74bd 662a bf3d 67dd 49be 93f3 83bd
000003f0: 6b7b 9cbd ab32 32be 10b4 b7bb 339f 61be
-0.21416643 -0.17725624 0.117847174 -0.28555304 0.01135424 -0.33078483 0.12558468 -0.19728774
-0.2489475 -0.23197913 -0.33482394 -0.27700797 0.19221385 0.21550311 -0.23521459 0.12722641
0.27035627 -0.1645313 0.050400734 0.2745781 -0.115189865 0.13288693 -0.17523083 0.19570322
-0.3291036 -0.18554997 0.06226921 0.041703895 0.197913 0.39053547 -0.1720335 0.2248309
0.27042744 0.22073689 0.40764776 0.19842516 0.1669852 -0.32161668 -0.026761293 -0.32650614
0.0015294485 -0.27428606 -0.14054804 0.23437873 -0.078251585 0.20490536 -0.07014214 0.038908195
0.23410022 0.21656518 0.084894575 0.25722995 -0.25495505 -0.2803035 0.29532686 -0.20236625
-0.04281871 0.2532814 0.087849185 -0.3725442 0.2707096 -0.10587752 0.28430632 0.19335882
0.20055805 0.4945815 -0.23075569 -0.12940794 -0.24167004 0.086190015 -0.30465022 -0.15787973
-0.22491205 0.24761419 -0.1269071 -0.0026468798 0.41274714 0.40452847 0.17728755 -0.3682872
0.3017671 0.40532583 0.1690939 0.16587296 0.2580866 -0.3495591 -0.15690723 0.06529798
0.05689645 0.10140527 -0.40145886 0.30274004 -0.0032494278 -0.20463224 0.054163653 -0.30616552
0.19802931 0.19486962 0.03825579 -0.42408654 0.05707439 -0.122620545 -0.287738 -0.25843975
0.23230955 0.22511677 -0.29181775 0.026916722 -0.22980668 0.076209724 -0.13757816 0.14450367
0.11287803 -0.0035272504 -0.121512234 -0.19636832 0.2011789 0.20098579 -0.04375333 0.18340667
0.24483554 -0.09441375 -0.47270986 -0.0974665 0.29582798 0.23738112 0.060497962 0.4835615
0.37342998 0.23044191 0.22669365 -0.115482 0.118796244 -0.24729142 -0.015524746 0.14616689
0.20485544 -0.26363775 -0.10383022 0.10895106 -0.18540299 0.07166753 -0.3285856 0.21859965
0.050927166 0.1853493 0.1734966 0.07728555 0.14911765 0.2770076 0.19984521 -0.06441538
0.1332984 -0.1304229 -0.2300377 -0.23328167 -0.27084258 0.06344871 -0.14435764 0.29315993
-0.09151379 -0.08374078 0.44027686 -0.43983874 -0.28446043 0.007852314 0.21326578 -0.34076598
0.063825004 -0.14420779 -0.3982816 0.07560891 0.21242595 -0.12657388 -0.13179797 0.15712327
-3.2239186e-06 -0.05260074 0.0299511 0.16801529 -0.024168046 -0.06767989 0.13615385 0.32828227
-0.09974754 0.00832427 0.028206503 0.37918597 -0.1994438 0.17530504 -0.14388381 0.0770726
-0.25055018 -0.32995465 -0.020200243 -0.18553622 -0.20296435 0.24807063 -0.15729554 -0.35953307
0.22781539 -0.2699981 0.07602328 -0.23307192 -0.20602661 -0.2608019 0.10026385 0.032041144
0.030392377 -0.15627837 -0.13186744 0.29567206 0.03785491 0.24374777 0.33251414 0.20634541
-0.015810035 0.22539856 -0.107940115 -0.26254192 0.3410404 0.378805 0.2111751 -0.69868445
-0.026432239 -0.16104455 0.28343233 -0.34765196 -0.1402334 -0.23999259 0.1600713 -0.36077344
0.15758714 -0.3560785 -0.015844008 -0.23947643 -0.22857413 -0.23437361 -0.1905303 -0.27386722
0.21928003 -0.14524408 0.22009167 -0.09584159 0.14970747 0.06872235 0.009297902 0.22358733
-0.059592914 0.09334259 -0.19713365 -0.064429425 -0.076407276 -0.17402141 -0.005606182 -0.22033386

critic.4.weight f4 [1, 256]
00000000: 2e69 243f 0fdd 673f 4a02 5fbf ce00 37c0
00000010: c17e aebf 0dee 1dc0 7e7f 8fbf 1fd2 3cc0
00000020: 2457 e43e be78 363f df4a 1d40 6811 4dbf
00000030: 39ae 60bf 76cd 88bf d365 053f 7ffa ad3f
00000040: 6ee4 e13f 7148 563f 84bc cebf 1797 9d3f
00000050: 490b 293f 2205 463f 4af7 973f 4a2d 4ebf
00000060: d1ab 8cbf fbae ccbf 846e 2a40 df1f fcbf
00000070: 7680 47c0 7e98 603f 22a3 5b3f 52c3 2a40
00000080: f561 31c0 f2d0 8bbf 115e 09c0 916a 0ec0
00000090: 99e3 0fbf be58 0ac0 c0b3 91bf 5ee1 b03f
000000a0: 2674 5bbf f0b4 d73f 4a70 0fc0 f951 2240
000000b0: 3b70 59c0 38ee 1a40 de67 f8bf e0a6 36c0
000000c0: 8dab 703f c6ec 1040 3f78 2abf 3565 1abf
000000d0: ebae 52bf f40e 2a3f 0c01 1d40 18da 9a3f
000000e0: 4b15 903f 7675 993f 4143 52bf 01ec 2740
000000f0: b5a6 18bf a928 0fc0 0b2b 65bf 0e7f 36bf
00000100: dfef f13f 5a7a 16c0 2bd4 263f 762c 983f
00000110: 9e01 f63f e473 56bf c28e 95bf b61c 083f
00000120: 48d0 bb3f d498 c2bf 7eec d2bf 4484 06c0
00000130: 91c7 a53f 1181 51bf 332c 24bf 4972 50bf
00000140: 52c7 9a3f dd01 0bc0 1f20 66bf 6812 15bf
00000150: 8974 2bbf 5098 a3bf 1330 b9bf 4aa2 933f
00000160: 6c29 10bf f169 a4bf 8450 c63f 4626 d5bf
00000170: 02ef 1e3f d901 5dbf c268 d3bf beb0 5c3f
00000180: 742a 52bf c3a3 85bf 9f42 e1bf 1991 c83f
00000190: 74e0 9abf 3963 25c0 9f28 93bf 9fda f53f
000001a0: 530e 953f 83f3 09bf 1bf9 743f 0ef1 56bf
000001b0: e858 95bf 8ca3 a83f 5a68 4f3f 914f b1c0
000001c0: ea44 0ebf 2f01 03c0 b829 2840 c855 f63e
000001d0: 42be 59bf f4ca fbbe 902f 23c0 8baf 0ebf
000001e0: fbb7 30c0 f64a a6bf a325 b23f 14cc 13c0
000001f0: a2bb 0dc0 6ca9 b23f 63dd 0cc0 9b9a cfbf
00000200: 9b83 cc3f c234 24bf c8ad 48bf e387 30bf
00000210: 6aed febe 414b 6f40 7c6e 2fbf 115c 22bf
00000220: ded9 00bf bf60 2c3f 3319 773f 4d4e e3bf
00000230: 5a23 1440 2e84 0ac0 2a0a c53f 5f21 0a40
00000240: 3c38 b9bf 0a45 1440 0001 39bf d21b 15bf
00000250: 2c74 41bf d67e 49bf 87ec 9bbf f4d7 2940
00000260: d0c2 03c0 f78f 9b3f 11f3 543f fc4e 153f
00000270: fc88 87bf ceca 39c0 74f9 d73e c636 11bf
00000280: c92b 173f dc88 b1bf 000c b8bf 6f50 b13f
00000290: 2d7d e93f 9d25 29c0 5bbf 2cc0 6975 4f40
000002a0: 6ce8 86bf 8550 0740 a7d4 7abf bc29 5cbf
000002b0: 448e 1940 e5d3 a8bf 54f9 32c0 7da9 b0bf
000002c0: 8c66 8340 f08b 7bbf 2e60 1c40 106d 58bf
000002d0: ff16 94bf 3aa1 b63f 6d03 3cbf 0503 1bbf
000002e0: 4d6a 0640 eaa4 cbbf e1e6 0640 c416 0640
000002f0: d199 68bf d4ef e33f b498 6a3f 0f46 2cbf
00000300: 9b25 003f 598c 9bbf 7202 45bf a527 bf3f
00000310: 706d c0bf 2024 ecbf 1e3a dbbf 1590 0140
00000320: 32af 643f d465 613f 0c9a fdbf 8e95 9a3f
00000330: 7e43 263f 577c ca3f b189 dabf f2e4 2340
00000340: 56c4 cabf ab42 073f b9ca 44c0 e71c ae3f
00000350: b1e6 f6bf 17cf 933f 6219 a23f f761 c23f
00000360: 5f6a 4240 fc7b b9bf 1812 5d40 509e 0a3f
00000370: 870b 0540 3a55 8dbf 78e8 13bf 8f56 e93f
00000380: aa17 a83f 7e0e 243f 8189 3340 a5be 14c0
00000390: 6356 5a3f a640 8bbf 1ce6 40bf 25c1 cc3f
000003a0: 2edc 2dbf 3e85 7ebf 52c5 01c0 ed1c 1240
000003b0: 8d31 fe3f 5b10 2a3f 3271 063f 63c3 253f
000003c0: c175 1dbf 3237 973f 9b4e 63bf 2c6e 813f
000003d0: 3dcd 1240 75e6 0340 f795 bbbf 629a 48c0
000003e0: 0ec4 0fc0 4d5d 1f40 e3c3 8ebf 8699 0540
000003f0: 570f aebf b57c d63f 006d ef3f ebd8 0a3f
0.6422299 0.90571684 -0.8711287 -2.859424 -1.3632432 -2.4676545 -1.1210783 -2.9503248
0.44597733 0.7127799 2.4576948 -0.80104685 -0.8776584 -1.0687702 0.52108496 1.359207
1.7647836 0.83704287 -1.615128 1.2311734 0.66032845 0.7735158 1.1872342 -0.80537856
-1.0989934 -1.59909 2.6629953 -1.9697226 -3.1172156 0.87732685 0.85795796 2.6681714
-2.7716038 -1.092314 -2.1463664 -2.2252543 -0.5620666 -2.1616664 -1.138298 1.3818777
-0.85724103 1.6852093 -2.2412286 2.5362532 -3.397475 2.4207897 -1.9406698 -2.8539352
0.94011766 2.2644515 -0.6658973 -0.6031068 -0.82298154 0.66429067 2.453189 1.2097807
1.1256498 1.1988971 -0.8213387 2.6237795 -0.59629375 -2.2368567 -0.89518803 -0.7128762
1.8901328 -2.3512177 0.6516749 1.1888568 1.9219244 -0.83770585 -1.1684191 0.5316881
1.4672937 -1.520289 -1.6478422 -2.1018229 1.2951528 -0.81837565 -0.6412994 -0.81424385
1.2092078 -2.1719887 -0.8989276 -0.5823121 -0.66974694 -1.2780857 -1.4467796 1.1533902
-0.56313205 -1.2844831 1.5493321 -1.6652305 0.62083447 -0.86330944 -1.6516345 0.8620719
-0.8209603 -1.0440601 -1.7598456 1.566928 -1.2099748 -2.584181 -1.1496772 1.9207343
1.1644996 -0.53887194 0.95692605 -0.8396157 -1.1667757 1.317491 0.810186 -5.5409627
-0.55573905 -2.0469472 2.6275463 0.4811232 -0.85055935 -0.49178278 -2.549778 -0.5573661
-2.7612293 -1.2991626 1.3917736 -2.309331 -2.2145772 1.3957953 -2.2010124 -1.6219057
1.5977663 -0.64143 -0.7839017 -0.68957347 -0.49790508 3.7389681 -0.6852796 -0.6342173
-0.5033244 0.6733512 0.96522826 -1.775827 2.3146577 -2.1643176 1.5393727 2.1582868
-1.4470286 2.3167138 -0.7226715 -0.58245575 -0.7556789 -0.7870916 -1.2181557 2.6538057
-2.0587654 1.215331 0.8318339 0.58323646 -1.0588679 -2.9030032 0.42182505 -0.567242
0.59051186 -1.3869891 -1.4378662 1.3852671 1.8241326 -2.6429207 -2.6991794 3.2415411
-1.053968 2.1142895 -0.9798073 -0.8600118 2.3993082 -1.3189665 -2.7964678 -1.3801724
4.106268 -0.982604 2.4433703 -0.84541416 -1.1569518 1.4267952 -0.7344273 -0.6055148
2.100238 -1.5909703 2.1078417 2.0951395 -0.90859705 1.7807565 0.91639256 -0.672944
0.5005738 -1.2152206 -0.76956856 1.4933974 -1.5033398 -1.8448524 -1.7127111 2.024419
0.89329827 0.88046 -1.9812636 1.207689 0.64946735 1.5819196 -1.707327 2.5608487
-1.5841167 0.528361 -3.0748732 1.360257 -1.9289151 1.1547574 1.2663996 1.5186146
3.0377424 -1.4490962 3.4542294 0.54147816 2.0788286 -1.1041634 -0.57776594 1.822954
1.3132222 0.64084613 2.8052676 -2.324136 0.85288066 -1.0879104 -0.7535112 1.5996443
-0.6791409 -0.9942206 -2.0276685 2.2830155 1.9858872 0.66431206 0.5251647 0.6475126
-0.61507803 1.1813719 -0.8879182 1.0111747 2.2937768 2.060941 -1.4655141 -3.1344228
-2.2463412 2.4900696 -1.115353 2.0874953 -1.3598431 1.6756808 1.8705139 0.5423724

actor.0.weight f4 [256, 19]
00000000: f5f5 ffbe c09c 3a3c ca8b 013e 9e57 b0bd
00000010: a0a4 d6bc c8c2 e43c fc3c 883f 2033 83bc
00000020: 65b8 17be 8ceb 293e bf4f 103e d0c9 21bf
00000030: 1cc5 9a3e 4762 b7be c4e1 89bd 3812 1c3e
00000040: 1eda e6bd 4c32 0d3e f654 623d faa0 123e
00000050: 8858 253f e4f8 dabc 6386 b8bb 00ba beba
00000060: c43e 663d a4e8 66bf cf6d 753e a23d 25be
00000070: 5afd 08bc 8d14 60be ae32 b03e a119 a1be
00000080: ceba 55be 5abe 073d b1ed 813d 2df1 c33d
00000090: 2f84 9f3d da3e 24be 9445 0e3f 592c 5a3e
000000a0: 052c 0f3e 7a79 a0bd 61bc 363e 9adf 63be
000000b0: c709 3cbf 3a1f dbbd 3735 cdbe aa16 0cbc
000000c0: d6ef 4dbe b3a1 fe3e 3642 f3bd 8ae9 c23e
000000d0: 60ff 1f3d 9d91 b43c 5e70 213e da56 9abd
000000e0: 3eec 89be 5a09 a23e 5d91 33bd 3139 b1bd
000000f0: 74ee a13c 5f79 2c3e 134b 48be 2071 3cbf
00000100: 04f3 983c 799d 67be 70f2 f9bd 8007 3cbb
00000110: 27b6 273f 3e9c a23d dac4 2f3f fce8 25bd
00000120: 549f 3dbd 4120 233e 6026 7ebd 1cbf 233d
00000130: 286f 1a3f bc2b 25be 055f 0bbd d59d 333d
00000140: 3db9 013e fe67 f5bd 2fb2 1cbf da8c 75be
00000150: 3b9c 263c 1f8a 97be b3aa 4fbe aba9 3c3f
00000160: 0328 a5be 1888 0f3e 55e7 423d 330d 5bbd
00000170: f642 523e 5117 2f3e eb63 2bbd 4251 b33e
00000180: a28a 0ebd 3cbb 7abe d0a3 663c 2822 a1bc
00000190: ced4 0ebe e61b db3e cb67 a33c 3c35 07bf
000001a0: acea e93d c05f a5bd 4163 ac3d 1cbf 163e
000001b0: d248 93be 70c0 4fbe b370 64bd 53c5 04be
000001c0: 52a5 eabd 1c6b b6bd 872a 643e abb5 113e
000001d0: a6eb 20be 1b31 373e 8789 3dbe 4627 47be
000001e0: df6d 73bf 0551 a93d 7749 98be 600e 54be
000001f0: aa99 fc3d 7973 433e 31ef 29be 801b 0c3f
00000200: 50ca 8ebe 03c6 e4bc ebd7 b43d 3694 433d
00000210: dd68 273e e7e6 3c3f 21d7 88be 3b04 7d3e
00000220: e8ab 8cbd 796a 073e 5da0 3a3e c733 90bf
00000230: 2082 25be 228c 63bd 0113 b3bd 55e9 3bbe
00000240: 478c 5d3e 3235 c13d 5e5d 1b3f 54f5 db3d
00000250: a762 68be 6a3d 01bd 3560 27be 20d4 f9bd
00000260: 6413 a4be dc8e 48bd 3334 c6bd 0187 3d3e
00000270: 49aa 413e a3a9 36be 7f11 183f b73a 49be
00000280: 994c 83be 2d06 81bd 882a ee3c 8bf5 0abf
00000290: 9f0e f33e 1fc3 a6be 4e7c 713e 9fc9 833e
000002a0: 22e8 5bbe abb2 bf3d bad2 903e 8713 0bbf
000002b0: 3df6 ccbe e046 673e 3999 943e 3586 51be
000002c0: 3649 5ebe 52d5 75bd e6ca a73c 283d a8bd
000002d0: f978 e03d d4b5 60be 7f4f 06bf 48ed d63e
000002e0: 6d31 3f3c a706 803d d8e5 d33c 68f9 aebd
000002f0: 7a91 3e3e 9917 dd3e 651d 52be f63c 403e
00000300: 5a88 bcbd 67b4 06be f69c 69be 5860 e53c
00000310: 27c4 953e bee6 71bd 319b 7d3d 7efb 42bd
00000320: 551f 4e3e a1e4 38bf 9541 6a3e 9a98 e0be
00000330: 8661 273e f021 823e 4086 0f3d 527d 2a3d
00000340: 4b51 593e 9dc5 633f d8cc 0fbe d60f 68bd
00000350: 1c14 293e fe90 e33d 5bc9 313e a4e5 65be
00000360: 4f26 55be 04fd 2b3e c625 8ebe faac 01be
00000370: 3987 eb3c cb02 a1bd e56b 9a3d af9c c33c
00000380: f749 693d 9739 7d3e 6fec a43d fa32 30be
00000390: fcc3 10bf 6dc6 243e 491e 52be 64a9 d0bc
000003a0: 55e1 4b3e 7c0b 443d 8a4a 643f 0045 40bd
000003b0: c20f e93c a927 613e da7c bcbd c82e 20bf
000003c0: c493 003f 0429 a3be f364 c3be 4201 c13d
000003d0: 730c 8e3e cbf7 103e 1e7f 4d3e 439c 8c3e
000003e0: 69a7 1f3f bbce 49bc 9813 93be 1ed9 fc3d
000003f0: a649 e93d 0809 9d3f afbf 3e3c 6ecb 25bf
-0.49992338 0.011389911 0.12650982 -0.08610462 -0.026201546 0.02792491 1.0643611 -0.01601559
-0.14816435 0.1659376 0.1409292 -0.63198566 0.30228508 -0.35817167 -0.067325145 0.15241325
-0.11272071 0.13788718 0.055256806 0.1431922 0.6458821 -0.026730008 -0.0056312545 -0.0014551282
0.0562122 -0.9019873 0.2396767 -0.16136792 -0.008361185 -0.2188284 0.34413666 -0.31464866
-0.20872042 0.033140518 0.06344164 0.09567485 0.07788884 -0.16039601 0.5557492 0.2130598
0.13981636 -0.0783567 0.17845298 -0.22253266 -0.7345242 -0.10699315 -0.40079662 -0.008550325
-0.20111021 0.49732742 -0.11877863 0.380688 0.039061904 0.02204209 0.15765521 -0.07536097
-0.2693805 0.3164776 -0.0438398 -0.086534865 0.019767024 0.16843174 -0.19559889 -0.73610115
0.018670566 -0.22618665 -0.122044444 -0.0028690994 0.6551232 0.07939957 0.68659747 -0.040505394
-0.046294525 0.15930273 -0.062048316 0.039977178 0.6032586 -0.16129965 -0.034026165 0.043851692
0.12668319 -0.119827256 -0.61209387 -0.23979512 0.010169084 -0.29597566 -0.2027996 0.7369639
-0.3225709 0.1401676 0.047583897 -0.053479385 0.20533356 0.17098738 -0.041843336 0.35022932
-0.03480018 -0.24485487 0.014077142 -0.019669607 -0.13948366 0.42794722 0.019946953 -0.52815604
0.11421713 -0.080749035 0.08417369 0.1472134 -0.28766495 -0.20288253 -0.05577154 -0.12965898
-0.114573136 -0.08907148 0.22281848 0.14229457 -0.15714893 0.17889826 -0.18509494 -0.19448575
-0.95089525 0.082674064 -0.2974355 -0.20708609 0.123339966 0.19087018 -0.1659515 0.5472946
-0.27888727 -0.02792645 0.088302456 0.047748767 0.16348596 0.7378983 -0.2672663 0.24708645
-0.06868726 0.1322421 0.18225236 -1.1265801 -0.1616292 -0.055553563 -0.08743859 -0.18350728
0.21635543 0.09433974 0.6068934 0.10740152 -0.22693883 -0.03155271 -0.16345294 -0.12198663
-0.32046044 -0.048964366 -0.09677925 0.18508531 0.18912615 -0.17838149 0.59401697 -0.19651304
-0.25644377 -0.06300006 0.029073015 -0.5428092 0.47472093 -0.3257074 0.23582575 0.25739762
-0.2147527 0.0936025 0.28285772 -0.5432667 -0.40031615 0.2258563 0.2902315 -0.20461352
-0.21707615 -0.06001789 0.020482492 -0.0821479 0.10960574 -0.21944362 -0.5246505 0.41977906
0.011669499 0.06251269 0.025866434 -0.08543664 0.18610182 0.43182066 -0.20519026 0.18773255
-0.092056945 -0.13154756 -0.22813782 0.028000042 0.29251215 -0.059057944 0.06191558 -0.047603123
0.2012914 -0.7222386 0.2287658 -0.43866426 0.16345796 0.25416517 0.03504014 0.04162342
0.21222417 0.8897341 -0.14042985 -0.056655727 0.16511577 0.111116394 0.17361967 -0.22450882
-0.20815395 0.16795737 -0.27763194 -0.12663642 0.028751003 -0.07861861 0.075401105 0.023878423
0.056955304 0.24729 0.08052909 -0.17206946 -0.5654905 0.16091318 -0.20519365 -0.025471397
0.19910176 0.047862515 0.8917624 -0.046940804 0.028449897 0.21987785 -0.09203501 -0.6257138
0.5022547 -0.3186723 -0.38162956 0.09424068 0.27743873 0.14157026 0.20068023 0.27462968
0.6236482 -0.012317355 -0.28725886 0.12346099 0.113910004 1.2268381 0.011642381 -0.64763534

actor.0.bias f4 [256]
00000000: a487 b1bc b726 dcbc c3fc bd3d f93e f8bd
00000010: d640 a3bd 080e bf3d e5ee dc3d 06df 4d3e
00000020: bd1c 423d 3b58 ee3d 1d7d 4a3e c41e f8bd
00000030: b1ed 753d 9621 10bd b636 233d 789c 083e
00000040: 98dc 81bd 66a7 0abd 0979 a23d 5d45 bb3d
00000050: 1a55 fe3d d86e 28be d2d6 38be 4394 3bbc
00000060: bf1b b83d f70e c03d aef6 6d3d 9a15 1dbe
00000070: 5b22 8b3d c860 4fbd 8736 de3d 307b 593e
00000080: 7307 433e 676d 21be bdf6 a93d 34f0 c53c
00000090: a04b 80bd 3cca bdbc b86e 14be a398 e03d
000000a0: 6607 2bbe e06f 003e 3c5a 23be bc85 aabd
000000b0: 1f4b 8f3d b8f9 8abc 5457 363c dbb3 04be
000000c0: 2525 59bd a2e3 613d f798 143e 80c9 0f3e
000000d0: 9fd9 693e fe15 2cbd 8d3e 49bd 66bf 08be
000000e0: fddf 19be 9a32 f73d 3713 d23c 9cff 0f3e
000000f0: 444b 9f3d 2c16 65bd 6617 66be 7590 b7be
00000100: a71f 14be 6723 c93c 49bd 293e 93df a2bd
00000110: e990 893d 98fb af3d 1086 523e ea8f c03d
00000120: 085e 743e 7662 443e 6cdc 8d3d 28b6 273e
00000130: 21b4 4f3e c561 353e fb70 a8bd 187b 063d
00000140: 29cd 9e3d 7e59 4dbe a823 ff3d 4c65 1d3d
00000150: 4b20 bdbd c276 b03c 4c06 043e dd58 b63b
00000160: f9cb 103e 108b 593e 66d7 033e 8499 e0bc
00000170: 79d8 ce3d 1d49 5bbd 03bc 933e d874 dbbd
00000180: 7237 cfbd 337a e2bd 10fc a1bc f968 2e3e
00000190: 62f1 233d 80d7 36be b9fb 31be cf05 5dbc
000001a0: 7d6f 36bd e91e dc3c 0c4e 103e 9e9d 763d
000001b0: f472 fc3c d94b 34be d44d 1bbd e46a 8f3d
000001c0: c7eb 2f3e aba7 813e 8f7c 623c ac68 23be
000001d0: 50c2 2ebe 7580 8abd 9336 843d eb04 fc3d
000001e0: a83c 55be d0ef e93d f9cf 4cbe cbae 983d
000001f0: 99d3 c13c 0842 a63d 5d5d 883d 2cc5 1bb9
00000200: f06d 6ebd 539f 283e a2b3 233e eac5 d23d
00000210: 4118 3ebe fed7 1cbc b2e1 3b3e 293a 443e
00000220: a6c1 c03d 165b 10be 815e 80bd 26b4 013e
00000230: e14c 2e3d 8bfc 613e 7667 79bc 4c76 ecbd
00000240: 8bcb 8b3d 2693 53be e615 103d 1885 0d3e
00000250: 2837 603e c8cf f5bd 5bfb 8abd a658 80be
00000260: d705 49bd ea27 433e c9b5 18be f998 44be
00000270: 7805 01be 88cb 6abe 8d0e bd3d d8a7 3abe
00000280: 732c 33bd 6be8 0c3e ef36 8cbd bd9b 723e
00000290: 99df 2bbe f663 21be c4ec 22bd 2a59 893d
000002a0: 1486 123e 9545 293e ea4a 08be f570 1ebe
000002b0: bf9f 95bc 1e1c 5b3e a07e 0ebe 92e7 c8bc
000002c0: 422c 1dbe dbd3 8e3b 58ae fcbd 845b d43d
000002d0: e960 893c a8b5 523e c24f 0bbe 771f 5abd
000002e0: 7b56 b6bd 4649 d5bd 32bf d13d b694 3fbe
000002f0: 5e28 b9bd 51c1 2a3e 0431 a6be 25b7 60be
00000300: 55ed bb3c f772 5e3d 93f1 d23c 3759 253e
00000310: e255 6cbb f012 20be 9f8d d83c e146 2bbc
00000320: ddda d13d 0729 683d 9ba0 393e f4b3 243e
00000330: 094d 36bd b557 01be 7157 35be b498 10be
00000340: 3768 d9bd d554 bf3b d24b 53bd e7aa 2d3e
00000350: c812 1b3e 5c1f 2d3e fd11 3a3e 59c8 81bd
00000360: 0525 1bbd ff6f e83d a760 5a3e 3f69 a4bd
00000370: 1629 24be 08d1 133e 5be7 62bd cf4a e63d
00000380: c08b 69be ad51 3c3e 277c be3d 90f4 7b3b
00000390: 0f30 0cbd 129c 94bd 0507 b3bd 3293 22be
000003a0: 017a 77be e091 c1bd 4113 15be 893d 5abd
000003b0: 5da6 3cbe a38d 16be 9e59 0f3e ef5a 003d
000003c0: 6421 af3d 3def a33d b25f ff3d e3ef 433e
000003d0: f494 34bd e9bc 033e 7a91 e9bd 14cf ef3d
000003e0: 6e3d 8f3d 5839 283e 42ce 05be 1dc6 09be
000003f0: 01ad 4d3e 01bc 5b3d f0ec ae3d fc3a 5ebe
-0.021671124 -0.02687393 0.09276726 -0.12121386 -0.07971351 0.09328848 0.10787753 0.20104608
0.04739069 0.116379224 0.1977429 -0.12115243 0.060041133 -0.03518828 0.0398471 0.13340938
-0.06340903 -0.03385105 0.07933242 0.09144089 0.124185756 -0.16448534 -0.18050697 -0.011448923
0.08989667 0.09377854 0.05809658 -0.15340272 0.06793662 -0.050629407 0.10850244 0.21238399
0.1904581 -0.1576439 0.08299015 0.02416239 -0.06264424 -0.023167722 -0.14495361 0.10966613
-0.16702041 0.12542677 -0.1595239 -0.08326289 0.0699675 -0.016964778 0.011129219 -0.12959234
-0.05301394 0.05514873 0.14511476 0.1404171 0.22836922 -0.04201316 -0.04913192 -0.13354263
-0.15026851 0.12070198 0.025643928 0.14062351 0.07778028 -0.055929348 -0.22469863 -0.358524
-0.144652 0.024553014 0.16576113 -0.079528 0.067170925 0.085929096 0.20558953 0.094024494
0.23863995 0.19178185 0.06926808 0.16378081 0.20283557 0.17713077 -0.08224674 0.032832235
0.07753975 -0.2005367 0.12457973 0.038426682 -0.09234675 0.021541003 0.12893027 0.0055647925
0.1414031 0.21244454 0.12875137 -0.027416952 0.10099883 -0.053536523 0.2885438 -0.107156456
-0.10117997 -0.11058464 -0.019773513 0.17032231 0.040025122 -0.17855644 -0.17381181 -0.013490154
-0.044539917 0.026870208 0.14092273 0.06020891 0.030816533 -0.17607059 -0.03791602 0.0700281
0.17179786 0.25323233 0.013823642 -0.15957898 -0.17066312 -0.067627825 0.06455722 0.123056255
-0.2082392 0.11422694 -0.2000121 0.07455214 0.023660468 0.08118063 0.06658433 -0.00014855404
-0.058210313 0.16467027 0.15986493 0.10291655 -0.1856394 -0.009572981 0.18347815 0.19162811
0.094119355 -0.14097247 -0.06268025 0.12666377 0.042553786 0.22068994 -0.015222421 -0.11546001
0.06825932 -0.20661601 0.035177134 0.13820302 0.2189604 -0.12002522 -0.067862235 -0.25067633
-0.049077835 0.19058195 -0.14913096 -0.1919898 -0.12599742 -0.22929204 0.09231291 -0.1822809
-0.043743562 0.13760535 -0.06846415 0.23692222 -0.16784514 -0.15760788 -0.03977658 0.0670646
0.14308959 0.1653045 -0.13309827 -0.15472777 -0.01826465 0.21397445 -0.13915491 -0.024524484
-0.15348914 0.0043587512 -0.12337941 0.10369018 0.016769843 0.20577109 -0.13604644 -0.053252663
-0.089032136 -0.104143664 0.10241546 -0.18709072 -0.090409026 0.16675307 -0.3245927 -0.21944864
0.022940317 0.054308858 0.025749957 0.16147314 -0.0036061932 -0.15632224 0.026434718 -0.010453911
0.10246823 0.05667975 0.18127672 0.16084272 -0.04450706 -0.12631114 -0.17709137 -0.14120752
-0.106155805 0.00583897 -0.05158598 0.16959725 0.15143883 0.16906494 0.18170924 -0.063370414
-0.0378771 0.113494866 0.21325932 -0.080278866 -0.16031298 0.14435208 -0.05539642 0.11244737
-0.22807217 0.18390532 0.09301024 0.003844533 -0.03422552 -0.072563305 -0.08741573 -0.15876463
-0.24167635 -0.094516516 -0.14558126 -0.05328134 -0.18422838 -0.14702468 0.1399903 0.03133672
0.08551291 0.080046155 0.12469424 0.19134478 -0.044087365 0.12865032 -0.114047006 0.11709419
0.06994139 0.16428125 -0.13066962 -0.1345448 0.20085527 0.05364609 0.08541286 -0.21702188

actor.2.weight f4 [256, 256]
00000000: c70d d9be e72d 9f3e a534 b33e b9ee 693e
00000010: 9c57 963e 1953 34be 5a15 923e d78b 043f
00000020: 49d7 823e 3962 a43a 83af 683d a599 c4bd
00000030: 3217 0bbe 85cc 48be 3d85 54be 8c91 813d
00000040: fc5d 073e 9413 7139 4051 1a3d db25 6e3d
00000050: 6efd 513d 3516 21be 7035 8cbe 1af8 d03d
00000060: 1a0d 57be 0146 8a3e ab1f 283f c6fa c53b
00000070: 15b7 aabe c28d a5bd d8c4 01be 6ee3 70be
00000080: c74e 913e 0e3c 49bd f266 623e df5f 993d
00000090: a4e1 dabb 42d5 4dbe 9d45 df3d 49a8 e1be
000000a0: cc28 25bd 0aa9 703c 1dd5 bbbe c01f f83d
000000b0: dd70 9a3e cf6f 7e3d babc 69be 296e f03d
000000c0: 3cb6 c5bd bfe6 e2be 7088 173f a010 453e
000000d0: 57a9 a5be c87b 273e ac37 8d3e 7125 1c3e
000000e0: ff9b 8d3d ccd0 7fbc d8a6 0d3e e86f ec3e
000000f0: 4eca d1bd 1fad 32be ba1a 40be c144 fabd
00000100: 10cf 91be 534a eabe 00de 2e3e bb9a 003f
00000110: 77d2 18be 0561 e4bd e37a d23e dc7f 0bbe
00000120: 4ceb a73c c04a 173e 1ff5 b0bd 3bfd d83e
00000130: 4e06 c83d f911 f4bd cb99 cd3d bb26 303d
00000140: 7105 fd3e ad85 cdbe 4d79 bfbd 07fd dfbe
00000150: 7c8d 6a3e 8ed3 a43e 59e2 a03e 194f 3bbf
00000160: 329f b9be f27f 113f 41de 213e 00f9 7a3d
00000170: ed38 593d 1dcc ecbc 80d0 1b3e c6dc b0be
00000180: cbd9 9cbe f22b 47be 3002 85bd 408b 3c3e
00000190: 1f0a b63d bd9b 96bc 9ac3 2d3e 583f b93d
000001a0: cb49 54bd 755a 1d3d 86ec b3be f22e 1d3e
000001b0: ed12 0f3f 5544 3fbd b651 bf3e 2cb4 c6be
000001c0: 1bf8 cd3c dd48 92be 3bf6 00be 0fd4 9c3e
000001d0: a256 fc3d 33b4 e6bd b6ff 713c 0fdf 5bbe
000001e0: b206 e53d 9d4d e43d 3048 9e3d fc82 783e
000001f0: 2879 93bd 499c 5dbe f69c 453e f300 d5bc
00000200: d9ea 98bd 06c2 283d 5350 36be 33f7 fb3e
00000210: 4894 e23e 5bc1 273e 59cb eebc 36cd 80be
00000220: c1ac 22bf 58eb 813e 24d7 1e3e 2c66 7d3d
00000230: 3119 1dbf f6a3 193f 6521 a13e f870 a6bd
00000240: 3c7c 313f b426 18be 7928 ecbd 3b28 413e
00000250: 4512 243d ac59 ea3d e7bf 0bbe d318 553e
00000260: 9b9d c3bd 84fe e23e e3ac 05be 5607 8abe
00000270: 71e9 463c 8970 293d 7fc9 adbe 2ea7 963e
00000280: 89bb f73c 9e06 573d fb8b 1c3d 85c5 3ebe
00000290: d0c8 01bd ed46 76be 454f aebe 9689 5f3d
000002a0: 1cbc 4dbe da0d 853d 4168 523e 9d37 d2be
000002b0: 2cb1 e93e 14fd 88be 27cc b7bd 535a 4f3e
000002c0: e891 7fbd 5bcf cabe 1ae3 b4bd b1f4 f0be
000002d0: 44bd 763d efa7 4a3e 11ec aa3e f064 6dbe
000002e0: 04e3 8cbd 3052 12bf 8a3e 18bf 9618 97be
000002f0: ef43 67bc 7069 223f aafa f93d 8099 74be
00000300: 6a1a b4be cd9a 45be a101 94bd be2f 4f3f
00000310: 069c f2be 6184 a5be cfa4 483e c441 0bbe
00000320: e66b 0d3d ac08 4ebf 9138 703d 8987 4b3e
00000330: d0f0 c1bd ae9e 003f 24e6 4abe 4bd0 14be
00000340: 6bab acbd de3c 2d3d 48fb d2bd 4cda d7bc
00000350: cb56 0bbf a8f4 4bbe cc1a 8d3e 19a6 98bd
00000360: f4a8 3d3d 2837 0dbd f3f3 f8bd b461 12bf
00000370: becd c83d 192f f7be 69ed dbbc 9849 aabe
00000380: 6a4d 19bf a036 3b3e c3bc 463e de71 6abe
00000390: ca16 433e bb20 033f a289 ea3d eac2 bc3e
000003a0: d68b 2e3e d063 423e 72fd c93e 60c0 69be
000003b0: e763 393e 7827 95be 4087 89bd ea76 123e
000003c0: ca2a c0be 35eb 353e b66a b03d e629 203f
000003d0: 7121 babd 4cd0 0c3f 5ee6 0abc b04f 303e
000003e0: ac4e 0fbf 882e 99bd 5a8c 023f 5c00 ab3d
000003f0: 1932 13bf 6d30 7dbe e724 8e3e e5de 913e
-0.42393324 0.31089708 0.35001102 0.22844972 0.29363716 -0.17609824 0.28531915 0.5177588
0.25554875 0.001254148 0.056808006 -0.09599618 -0.13583067 -0.19609268 -0.20753951 0.06326589
0.13219446 0.00022990844 0.037675142 0.05814157 0.05126708 -0.15731128 -0.2738452 0.102035716
-0.21001092 0.27006534 0.6567332 0.0060418574 -0.33342806 -0.08083679 -0.12672746 -0.23524258
0.28380415 -0.04912954 0.22109583 0.07488989 -0.0066797305 -0.20100883 0.109019496 -0.44073704
-0.04032211 0.01468874 -0.3668603 0.12115431 0.30164233 0.062118348 -0.228259 0.117397614
-0.09653899 -0.4431667 0.5919256 0.19244623 -0.3235576 0.16355813 0.27581537 0.15248658
0.069145195 -0.015613746 0.13833177 0.46179128 -0.10243665 -0.17448853 -0.18760195 -0.12220145
-0.2847829 -0.4575983 0.17076874 0.502361 -0.14924036 -0.111513175 0.4110938 -0.13622993
0.02049794 0.14774609 -0.08640503 0.423807 0.097668275 -0.119174905 0.10039099 0.043005686
0.49418214 -0.4014105 -0.09349308 -0.43747732 0.22905535 0.32192653 0.3142269 -0.7316757
-0.3625427 0.56835854 0.1580744 0.06127262 0.053032804 -0.028905923 0.15216255 -0.34543437
-0.30634913 -0.19450358 -0.06494558 0.18412495 0.08888649 -0.018384809 0.16969147 0.09045285
-0.051828187 0.038416345 -0.3514139 0.1534994 0.55888253 -0.046696026 0.37367028 -0.38809335
0.02514272 -0.28571215 -0.1259393 0.30630538 0.123212114 -0.11264839 0.014770439 -0.21471809
0.11182918 0.11147616 0.077286124 0.24268717 -0.07200843 -0.2164165 0.19298157 -0.02600143
-0.07466669 0.04120066 -0.17804079 0.49212036 0.44253755 0.16382353 -0.029149698 -0.25156564
-0.6354485 0.25374866 0.15511757 0.061865017 -0.61366564 0.6001581 0.3147079 -0.08127016
0.6933019 -0.14858514 -0.11531157 0.18863003 0.040056486 0.11442885 -0.13647424 0.20810251
-0.09551545 0.44334805 -0.13054232 -0.26958722 0.012140618 0.041367088 -0.33942792 0.29424423
0.03024079 0.052496545 0.038219433 -0.18630035 -0.03168565 -0.24050494 -0.34044853 0.05457457
-0.2009129 0.064967826 0.20547582 -0.41058055 0.45642984 -0.26755583 -0.08974486 0.202493
-0.062395006 -0.39611325 -0.08832379 -0.47061685 0.06023909 0.19790624 0.3338323 -0.23183036
-0.06879237 -0.5715666 -0.5947043 -0.29510945 -0.014115318 0.63442135 0.122060135 -0.2388668
-0.35176402 -0.19297333 -0.07226873 0.80932224 -0.4738466 -0.3232756 0.1959412 -0.13599306
0.034526728 -0.8048198 0.058647696 0.19875921 -0.094697595 0.50242126 -0.19814354 -0.14532582
-0.08431133 0.042294376 -0.10301834 -0.02634921 -0.5442931 -0.19917548 0.27559507 -0.074535556
0.046303704 -0.03447643 -0.121559046 -0.57180333 0.09804867 -0.4827812 -0.026846604 -0.33259273
-0.5988375 0.18282557 0.19407944 -0.22895 0.19051662 0.5122182 0.114520326 0.36867458
0.1704553 0.18983388 0.39451176 -0.22827291 0.18104516 -0.29131675 -0.0671525 0.14303175
-0.37532645 0.17765506 0.086141035 0.6256393 -0.0908841 0.55005336 -0.008477775 0.17217898
-0.5597942 -0.07479578 0.5099541 0.08349678 -0.5749832 -0.24725504 0.2776253 0.28490368
