models/mec_policy_ep5000.pth (torch, 576658 bytes, 11 tensors)

critic.0.weight f4 [256, 19]
-0.16065744 0.1895262 -0.0815592 -0.033249058 -0.18858942 0.109070405 -0.4638394 -0.2088387
0.48747718 0.3303577 0.17895658 0.053464863 -0.035007954 0.21906964 -0.20244299 -0.09170838
-0.091496296 0.12697092 -0.14619792 0.14868185 -0.11261752 -0.20197898 0.14029704 0.11911361
-0.054110646 0.56320125 0.0054025617 -0.16847461 -0.14926772 -0.050990105 0.46191832 -0.15703663
-0.19920386 -0.12779392 0.053996533 0.017828692 0.103977814 0.17104946 -0.11865768 0.3138129
-0.0106798075 -0.016439423 0.0004657656 -0.2277895 0.49171382 0.09078274 -0.43749624 0.15836816
0.12541981 -0.08838822 0.006589766 0.053784974 0.07330966 -0.013495108 0.20059136 -0.031057913
-0.10757883 0.10689874 0.053631768 -0.24412845 -0.02455111 0.013169691 -0.18856916 -0.2731264
-0.0024509311 0.45645398 -0.060546935 0.14078669 0.5235531 -0.17635308 -0.11551614 0.0900761
-0.13027963 0.11147883 0.023544662 0.12593907 0.06556753 -0.07857437 -0.1403457 -0.023691045
-0.11917614 0.21423529 0.76195455 0.03771646 0.22817291 0.08509729 0.060179368 0.48887092
0.11887049 0.06511141 -0.18553305 -0.0037286675 0.15397374 -0.06982798 0.05996996 -0.2277955
-0.08947731 0.016935548 0.10793014 -0.01904434 0.060851052 -0.41233 -0.21179187 -0.1672407
0.22010848 0.15832548 0.7513906 -0.26054746 0.18947694 -0.1915368 -0.1444285 -0.06653893
-0.23986863 0.013846978 -0.07615919 -0.12397802 -0.15087943 0.121364124 -0.12847161 0.17505683
0.69935024 0.18445055 0.18206143 0.013466819 -0.08069381 0.07041859 -0.16046464 -0.17892028
-0.20780887 0.15742764 -0.0930013 -0.13648309 -0.19837964 0.16754843 0.03164776 0.09052452
0.09455115 -0.1395686 -0.18295947 -0.397021 0.22765347 0.16850147 0.2210338 0.19257717
0.3117339 -0.11960936 0.25498265 -0.1433639 -0.077940874 -0.044524003 -0.14823368 0.12212642
-0.120481 -0.34863532 0.026396379 -0.19487225 -0.098359406 0.049365714 0.4872816 -0.051174615
0.21128589 -0.061933313 -0.060740992 0.54194015 0.0011831004 -0.32097003 0.18887073 -0.13021708
-0.11960732 -0.2966584 -0.005737273 0.04951094 -0.22208722 -0.20778418 -0.02440168 -0.22517247
-0.22285931 -0.31708968 -0.38278052 -0.22328612 0.0033846104 0.16679491 0.3481307 0.21933934
-0.21611819 0.050752472 -0.1274941 -0.1821252 0.060489126 0.07919728 -0.079342134 -0.06324328
0.12783384 -0.050172877 0.018178895 -0.22475787 0.3339608 -0.15861976 -0.44797337 -0.19320358
-0.13733357 -0.41660687 -0.037494622 0.30609515 0.121762395 -0.005621327 0.03427376 0.18147933
0.13129467 0.06787231 0.13166285 -0.05344152 0.1823113 -0.044078916 -0.15161318 0.5792602
-0.16905512 -0.05639101 -0.25293577 -0.22408214 -0.71225506 0.17448272 0.08181283 -0.06357761
-0.13682269 -0.16858251 0.080184504 0.21530044 0.09753438 -0.11362816 -0.12628473 0.16710636
0.08750568 0.07870729 -0.49890494 -0.22296317 0.028516373 -0.11269616 0.029902384 0.63005316
0.050986886 0.28083086 -0.29072356 0.050203886 -0.24350314 -0.12128452 -0.14741594 -0.17503788
0.1376639 -0.10485558 0.08435731 0.016612783 0.16909705 -0.6298731 0.15235384 0.1465409
00000000: 6283 24be 2813 423e 8308 a7bd 2a30 08bd
00000010: 961d 41be 4e60 df3d 5c7c edbe d0d9 55be
00000020: 9c96 f93e a524 a93e 6540 373e f9fd 5a3d
00000030: 8064 0fbd cb53 603e 374d 4fbe 9ad1 bbbd
00000040: 6962 bbbd aa04 023e e8b4 15be 0e40 183e
00000050: 04a4 e6bd 94d3 4ebe 07aa 0f3e d6f1 f33d
00000060: 20a3 5dbd f52d 103f f907 b13b 9c84 2cbe
00000070: a3d9 18be 00db 50bd 8f80 ec3e 36ce 20be
00000080: 19fc 4bbe 69dc 02be 782b 5d3d 7a0d 923c
00000090: 52f2 d43d 9727 2f3e cc02 f3bd 16ac a03e
000000a0: 5cfa 2ebc f8ab 86bc 0032 f439 a741 69be
000000b0: eac1 fb3e 4dec b93d 82ff dfbe 432b 223e
000000c0: 0d6e 003e e204 b5bd f7ee d73b a24d 5c3d
000000d0: 6023 963d 961a 5dbc d267 4d3e 2a6d febc
000000e0: 4a52 dcbd baed da3d fcac 5b3d cffc 79be
000000f0: 691f c9bc b0c5 573c 4618 41be 39d7 8bbe
00000100: cd9f 20bb 56b4 e93e 1000 78bd 632a 103e
00000110: 9307 063f e795 34be ba93 ecbd d179 b83d
00000120: 0668 05be 034f e43d bce0 c03c 2cf6 003e
00000130: 4548 863d 99eb a0bd c8b6 0fbe b913 c2bc
00000140: 9f12 f4bd 7f60 5b3e 740f 433f 937c 1a3d
00000150: 29a6 693e 7d47 ae3d a47e 763d 4a4d fa3e
00000160: 5f72 f33d 2259 853d 60fc 3dbe a95c 74bb
00000170: 4bab 1d3e f901 8fbd 10a3 753d 3943 69be
00000180: e13f b7bd 6bbc 8a3c 7a0a dd3d e002 9cbc
00000190: f43e 793d eb1c d3be f8df 58be 2541 2bbe
000001a0: 1e64 613e 1320 223e 225b 403f 7a66 85be
000001b0: 3e06 423e 3922 44be 11e5 13be 9045 88bd
000001c0: 1fa0 75be 6fde 623c 59f9 9bbd 30e8 fdbd
000001d0: 2380 1abe c18d f83d 108e 03be 1942 333e
000001e0: 9e08 333f 9be0 3c3e 506e 3a3e efa3 5c3c
000001f0: cc42 a5bd 9f37 903d d850 24be e136 37be
00000200: d9cb 54be b634 213e 7777 bebd 39c2 0bbe
00000210: 0824 4bbe d191 2b3e 15a1 013d eb64 b93d
00000220: 09a4 c13d 12eb 0ebe ba59 3bbe 5646 cbbe
00000230: fe1d 693e a68b 2c3e af56 623e f332 453e
00000240: 969b 9f3e c1f5 f4bd 168d 823e fccd 12be
00000250: 779f 9fbd cd5e 36bd 92ca 17be 6b1d fa3d
00000260: bebe f6bd 5480 b2be 383d d83c 978c 47be
00000270: a870 c9bd b433 4a3d f97c f93e 799c 51bd
00000280: 545b 583e c9ad 7dbd 8ccb 78bd 97bc 0a3f
00000290: 4312 9b3a 2f56 a4be 5467 413e a057 05be
000002a0: aff4 f4bd 9ce3 97be bcff bbbb fccb 4a3d
000002b0: d56a 63be 60c5 54be 08e6 c7bc 9d93 66be
000002c0: 3b35 64be 9459 a2be cffb c3be 1ea5 64be
000002d0: 57d0 5d3b 49cc 2a3e 303e b23e 7e9a 603e
000002e0: 164e 5dbe d3e1 4f3d d08d 02be 077f 3abe
000002f0: 72c3 773d 2f32 a23d 217e a2bd b185 81bd
00000300: e0e6 023e 1382 4dbd e8eb 943c ed26 66be
00000310: e9fc aa3e 386d 22be c45c e5be 29d7 45be
00000320: 2ca1 0cbe 7f4d d5be f693 19bd 81b8 9c3e
00000330: 905e f93d 1c33 b8bb a462 0c3d b8d5 393e
00000340: 1c72 063e a300 8b3d a0d2 063e 7fe5 5abd
00000350: d0af 3a3e 188c 34bd 7c40 1bbe 654a 143f
00000360: c91c 2dbe 42fa 66bd cc80 81be ca75 65be
00000370: 5956 36bf 99ab 323e 7c8d a73d fa34 82bd
00000380: 3f1b 0cbe e5a0 2cbe c637 a43d b877 5c3e
00000390: 1bc0 c73d e1b5 e8bd c950 01be ee1d 2b3e
000003a0: 2e36 b33d 4a31 a13d 7870 ffbe 7550 64be
000003b0: 2b9b e93c 3fcd e6bd d8f5 f43c 2a4b 213f
000003c0: a0d7 503d 10c9 8f3e b8d9 94be 97a2 4d3d
000003d0: e358 79be 0564 f8bd 34f4 16be 213d 33be
000003e0: c4f7 0c3e 86be d6bd 86c3 ac3d 8817 883c
000003f0: c727 2d3e 5d3f 21bf a502 1c3e d10e 163e

critic.0.bias f4 [256]
-0.0005346439 0.20136724 -0.18141785 0.14214918 -0.06252852 0.24662717 0.18642384 0.0739533
0.09931018 -0.21012606 -0.18365821 0.056444958 -0.16452114 0.24785899 0.11610606 0.0096918335
-0.018636553 -0.1428457 -0.16351269 0.14671019 -0.12688495 0.015709966 0.06759619 -0.1281466
-0.031300914 -0.095208086 -0.25571692 0.022579981 0.19050139 -0.12953977 -0.08097592 -0.0523095
0.23216593 0.010240545 0.058066446 -0.048066873 0.13332093 -0.11552446 0.09863673 -0.08052387
0.13598484 -0.139397 0.1774252 -0.09801566 0.11900784 0.08128155 -0.056588493 0.03998412
0.0901869 0.09642027 -0.13981703 -0.09164965 0.03989153 -0.0054578753 -0.19586971 0.06905408
-0.14163919 0.03312068 -0.08275866 0.17521992 0.14168848 -0.09791186 0.24158788 0.1268402
-0.0337509 -0.12630004 0.06588307 0.18740462 -0.07392451 -0.06826543 -0.11561997 0.15252869
0.00016560261 -0.03528133 0.12772685 -0.09174213 -0.14555481 0.15697233 -0.08623876 0.15822434
-0.03311671 0.15072419 0.23600094 0.00371798 -0.077599466 0.2504067 -0.09390412 0.08702544
-0.018200021 -0.10004125 -0.120328695 0.01711421 -0.14097567 -0.022269884 0.09884585 -0.021480465
0.13587879 -0.19983488 0.09776845 -0.17497157 -0.15148866 0.0003010205 0.1114938 -0.13365151
-0.13619591 0.10330403 -0.04870751 0.013313336 0.04143849 -0.18185592 -0.10062597 0.116908826
0.10444414 0.18644021 0.12984486 -0.2283142 0.07630123 -0.08232908 0.009993384 -0.12681603
-0.13412236 0.083308786 -0.17746767 0.03674696 0.14467332 -0.21964802 0.06464702 0.083752915
-0.077984214 0.13869302 0.08486412 -0.13476849 -0.0034495122 0.011590495 0.09260081 -0.07391929
0.021226272 0.06414878 0.20120962 0.068544 0.08615357 0.09935545 -0.010629358 -0.03319367
-0.083373554 -0.10003862 0.0016117273 0.11774649 -0.15298583 -0.048618596 -0.21567519 -0.18766457
-0.08461647 0.19863875 -0.16778915 -0.1132274 0.13863896 0.07229529 0.16902885 -0.124863334
0.2796126 0.010305392 -0.031120457 0.02929307 -0.060773518 -0.15992048 -0.07979917 -0.0051228325
-0.061566874 -0.083300725 -0.0506943 0.22572742 -0.012207946 0.18453023 -0.12622747 0.17084405
-0.050470684 0.054878898 -0.03433246 -0.053654138 -0.0031752773 -0.09832234 0.11658274 -0.024492588
-0.20419735 0.115703 -0.17401393 -0.12482903 -0.15377694 -0.13918562 -0.103834204 0.053221907
0.091416486 0.12676133 0.26781 -0.108509 0.19501004 0.21887158 0.2117553 -0.049736265
-0.15944153 -0.011154382 -0.04718052 -0.051910404 0.091670476 0.04135586 -0.13261455 0.14103314
-0.06964323 0.14182998 0.12486119 0.14571358 -0.017431544 -0.06561566 0.12497778 0.183087
0.15361828 0.16604926 0.067873955 0.18490802 0.071449235 -0.09107791 0.049319692 -0.014327068
-0.21315089 0.18009667 0.08179879 0.18882443 0.21398033 0.12186807 0.17858863 -0.120224096
-0.082492374 0.24809152 -0.15855978 -0.032689314 0.11511595 -0.07482551 -0.2487107 0.0026977698
-0.1589662 -0.18970923 0.14561673 -0.17546335 -0.23276153 -0.18632191 -0.035687305 -0.030148689
-0.22345307 0.16875295 -0.14707907 -0.20603183 0.19664474 -0.242458 0.14555638 0.16925763
00000000: 5827 0cba 3733 4e3e 9ac5 39be 8e8f 113e
00000010: f40e 80bd d58b 7c3e e4e5 3e3e d474 973d
00000020: 2363 cb3d 492b 57be e610 3cbe d432 673d
00000030: 3b78 28be bfce 7d3e 04c9 ed3d 7fca 1e3c
00000040: afab 98bc 2546 12be df6f 27be 323b 163e
00000050: 21ee 01be 30b2 803c df6f 8a3d dd38 03be
00000060: 6335 00bd 75fc c2bd 54ed 82be a7f9 b83c
00000070: cc12 433e 13a6 04be b4d6 a5bd 7c42 56bd
00000080: e8bc 6d3e f5c7 273c 15d7 6d3d c5e1 44bd
00000090: 4885 083e 1798 ecbd 0e02 ca3d b3e9 a4bd
000000a0: 9c3f 0b3e 16be 0ebe f4ae 353e 6fbc c8bd
000000b0: 62ba f33d f176 a63d 56c9 67bd 63c6 233d
000000c0: e9b3 b83d fe77 c53d 322c 0fbe d0b2 bbbd
000000d0: 4d65 233d fad7 b2bb 1292 48be 3a6c 8d3d
000000e0: dd09 11be 8da9 073d 5f7d a9bd da6c 333e
000000f0: c916 113e 0386 c8bd d062 773e 66e2 013e
00000100: 623e 0abd cc54 01be b4ed 863d ffe6 3f3e
00000110: bc65 97bd bfce 8bbd 2aca ecbd 7b30 1c3e
00000120: 9da5 2d39 2883 10bd d4ca 023e 4ce3 bbbd
00000130: 520c 15be 5bbd 203e f29d b0bd 9005 223e
00000140: 63a5 07bd 7157 1a3e 3baa 713e 5ba9 733b
00000150: 78ec 9ebd 4f35 803e ce50 c0bd 653a b23d
00000160: 3618 95bc 6de2 ccbd e46e f6bd 1a33 8c3c
00000170: ed5b 10be 556f b6bc b16f ca3d cdf7 afbc
00000180: cf23 0b3e 84a1 4cbe d33a c83d bf2b 33be
00000190: d81f 1bbe 4ad2 9d39 dd56 e43d f1db 08be
000001a0: f176 0bbe 1091 d33d 8781 47bd 2e20 5a3c
000001b0: 68bb 293d 7038 3abe fd14 cebd e56d ef3d
000001c0: cfe6 d53d 2fea 3e3e 0df6 043e 33cb 69be
000001d0: d243 9c3d 269c a8bd 4abb 233c 10dc 01be
000001e0: 5f57 09be cc9d aa3d 16ba 35be fb83 163d
000001f0: 3e25 143e 69eb 60be a865 843d a686 ab3d
00000200: 30b6 9fbd 8b05 0e3e 3dcd ad3d c000 0abe
00000210: 3611 62bb 0fe6 3d3c 7ea5 bd3d ff62 97bd
00000220: b8e2 ad3c 7060 833d e509 4e3e cc60 8c3d
00000230: 4871 b03d df7a cb3d c226 2ebc 16f6 07bd
00000240: c1bf aabd 0ce1 ccbd 9840 d33a 1225 f13d
00000250: 51a8 1cbe 4b24 47bd f5d9 5cbe 242b 40be
00000260: 664b adbd f567 4b3e ebd0 2bbe c4e3 e7bd
00000270: 5ff7 0d3e 8e0f 943d e615 2d3e 59b8 ffbd
00000280: 6229 8f3e f2d7 283c 54f0 febc 05f8 ef3c
00000290: a7ed 78bd 32c2 23be bf6d a3bd 6fdd a7bb
000002a0: 8c2d 7cbd 9299 aabd d4a4 4fbd 1725 673e
000002b0: d603 48bc 7ef5 3c3e c641 01be bef1 2e3e
000002c0: 59ba 4ebd b2c8 603d 32a0 0cbd 71c4 5bbd
000002d0: 5018 50bb 395d c9bd eec2 ee3d aea4 c8bc
000002e0: 1c19 51be b2f5 ec3d b530 32be 5da6 ffbd
000002f0: b477 1dbe ad86 0ebe 07a7 d4bd 37ff 593d
00000300: 9138 bb3d b9cd 013e 641e 893e f739 debd
00000310: b6b0 473e df1f 603e 62d6 583e 41b8 4bbd
00000320: a444 23be dec0 36bc 5c40 41bd 01a0 54bd
00000330: bbbd bb3d c364 293d 1ccc 07be fe6a 103e
00000340: 1ca1 8ebd e13b 113e 39b7 ff3d f135 153e
00000350: 99cc 8ebc 8161 86bd 5af4 ff3d 297b 3b3e
00000360: 1c4e 1d3e d108 2a3e 8001 8b3d 8758 3d3e
00000370: fa53 923d 0e87 babd 7203 4a3d 14bc 6abc
00000380: 3a44 5abe 436b 383e 2086 a73d 315b 413e
00000390: a91d 5b3e f795 f93d f0df 363e 0d38 f6bd
000003a0: c3f1 a8bd b40b 7e3e 7f5d 22be 3be5 05bd
000003b0: e9c1 eb3d 1e3e 99bd 05ae 7ebe 11cd 303b
000003c0: 09c8 22be 2343 42be 8d1c 153e aaac 33be
000003d0: 0a59 6ebe 2ccb 3ebe da2c 12bd 62fa f6bc
000003e0: e2d0 64be 93cd 2c3e e59b 16be 02fa 52be
000003f0: 3d5d 493e e946 78be bb0c 153e df51 2d3e

critic.2.weight f4 [256, 256]
-0.3394872 0.008491566 0.27907735 -0.121580765 -0.02356479 -0.6435883 -0.055267535 -0.1249866
-0.015674368 -0.017229294 0.117993705 0.18097979 -0.17110863 -0.08598055 0.011199065 -0.32193953
0.39475277 -0.05842874 -0.06883219 0.24334568 0.20475596 0.33801982 0.23744327 -0.02802345
0.056364212 0.075259686 0.15758473 0.046270072 0.14779875 -0.22790247 -0.39925018 -0.13877143
-0.26584923 0.13611284 -0.23369391 0.090836436 -0.02834255 -0.1252471 -0.08742486 0.26278698
0.014037989 0.35273722 -0.41407976 -0.029458202 -0.030417893 0.2365192 -0.17729865 -0.22897471
0.36384705 0.14967628 0.040255744 0.51903707 0.0142068295 -0.031034293 0.10133076 0.03712744
0.19474036 -0.04408532 0.017867079 -0.07789282 -0.18015023 0.0016029406 -0.08043179 -0.22580665
0.053666767 -0.18079612 -0.051270217 -0.12515803 0.21160844 0.15724507 0.19207677 0.08418107
0.31854284 0.33415774 0.088968135 -0.40161237 -0.3253344 0.25960058 -0.11053793 0.19928582
0.031512324 0.13223405 -0.31757748 -0.3212017 0.14355986 0.06885786 -0.03865299 -0.12268839
0.2108104 -0.09840076 -0.03748481 0.1087254 -0.12947506 0.12817226 -0.24594931 -0.060168725
0.23572913 -0.07840961 -0.24327175 0.13404748 -0.06802892 -0.11306092 0.005752872 0.002949695
-0.102036335 0.0069859903 -0.14113964 -0.018606322 -0.061350178 -0.039113633 -0.20565942 -0.119352326
-0.31203687 -0.24054271 -0.16341124 -0.22916485 0.04516321 -0.043200076 0.006817292 0.3467149
-0.025086857 0.0059571736 0.061885003 -0.03832193 0.20125124 0.10832605 0.046457265 0.053235307
0.13012858 0.017904807 0.18135455 0.12666811 0.056929175 -0.12159063 -0.17353974 -0.36799672
0.19205797 0.029527977 -0.005599244 0.2661682 -0.10197028 -0.15197149 0.052882988 -0.13766123
0.18539022 0.08556536 -0.30826774 -0.14266409 -0.039787255 0.06997532 0.25644165 -0.012713981
0.016523886 -0.05794482 -0.10076319 -0.29428634 -0.061982058 -0.004197098 -0.1867725 0.26396784
-0.15685332 0.060703952 0.4520194 -0.14466687 -0.22948442 -0.11971994 -0.07362916 -0.017825868
0.082709484 0.12191954 -0.046895273 0.034961466 -0.110701434 -0.007111024 -0.03758856 -0.009936543
0.35837427 -0.06029762 -0.28298753 -0.13765372 0.32297352 -0.07837772 -0.1921394 -0.08882731
0.05423869 -0.14242268 0.16967854 -0.1267638 -0.12332676 -0.002171579 0.11645793 0.13776705
-0.02454309 -0.28453884 -0.015839683 -0.1593521 0.21398854 0.035205092 -0.07190417 -0.060804676
0.2967646 0.2637789 0.32024384 -0.077285774 0.1917042 0.3172173 0.29005975 0.515566
0.1332435 0.047158513 -0.06768097 0.011082725 -0.23168926 -0.0073475493 -0.17098007 -0.015919205
0.20282674 -0.19555601 -0.07239973 -0.2673778 -0.13830651 0.13776848 0.05603887 0.11449217
0.18200792 0.14128157 -0.053361144 0.28648955 -0.31593782 -0.17474733 -0.011421963 0.11920977
0.23870891 0.25339633 -0.15894979 0.1978508 0.0029548588 0.2600351 -0.112842076 0.018921625
-0.12251172 -0.19787161 0.29677618 0.44468966 0.16712524 0.25027215 0.036982056 -0.1661137
0.024910484 0.13048515 0.43653002 -0.050965287 -0.042081233 0.29522434 0.03907907 -0.017036678
00000000: 44d1 adbe 3620 0b3c 3ae3 8e3e 56ff f8bd
00000010: f20a c1bc 34c2 24bf 3660 62bd f9f8 ffbd
00000020: 8867 80bc 7324 8dbc afa6 f13d c452 393e
00000030: 1a37 2fbe 9216 b0bd 487c 373c 42d5 a4be
00000040: 091d ca3e f952 6fbd e4f7 8cbd 9c2f 793e
00000050: 8cab 513e ef10 ad3e 5424 733e 6f91 e5bc
00000060: 29de 663d c021 9a3d e45d 213e b085 3d3d
00000070: 8e58 173e 445f 69be 856a ccbe 191a 0ebe
00000080: 641d 88be 2a61 0b3e 754d 6fbe 7408 ba3d
00000090: a32e e8bc c740 00be ce0b b3bd 048c 863e
000000a0: 98ff 653c f999 b43e 4302 d4be 5452 f1bc
000000b0: f22e f9bc 1732 723e c78d 35be 5978 6abe
000000c0: 294a ba3e bd44 193e 35e3 243d 9ddf 043f
000000d0: c3c3 683c a13b febc 8086 cf3d f112 183d
000000e0: 046a 473e cf92 34bd fb5d 923c 4586 9fbd
000000f0: 4d79 38be c319 d23a 6cb9 a4bd dc39 67be
00000100: afd1 5b3d 9e22 39be b800 52bd 6d29 00be
00000110: e2af 583e da04 213e c6af 443e 2067 ac3d
00000120: 0c18 a33e b916 ab3e ed34 b63d 23a0 cdbe
00000130: 3b92 a6be 5eea 843e b661 e2bd 9511 4c3e
00000140: 1113 013d 5d68 073e 8499 a2be 8d74 a4be
00000150: 5b01 133e 5a05 8d3d 9952 1ebd 0d44 fbbd
00000160: aede 573e 5686 c9bd ac89 19bd 6cab de3d
00000170: 1c95 04be 973f 033e 23da 7bbe 7b73 76bd
00000180: fa62 713e 3895 a0bd 3b1c 79be be43 093e
00000190: bf52 8bbd 7c8c e7bd 9782 bc3b ac4f 413b
000001a0: 6df8 d0bd bcea e43b e986 10be 496c 98bc
000001b0: 534a 7bbd 9e35 20bd 6298 52be fe6e f4bd
000001c0: 4cc3 9fbe d450 76be 4755 27be 31aa 6abe
000001d0: 0ffd 383d 90f2 30bd 9763 df3b 9e84 b13e
000001e0: f482 cdbc 6534 c33b 217b 7d3d 75f7 1cbd
000001f0: ce14 4e3e 0cda dd3d f949 3e3d 440d 5a3d
00000200: 6d40 053e 1aad 923c 02b5 393e 49b5 013e
00000210: 912e 693d 8204 f9bd 67b4 31be 116a bcbe
00000220: d8aa 443e a8e4 f13c dd79 b7bb 3347 883e
00000230: cbd5 d0bd 6a9e 1bbe d59b 583d 11f7 0cbe
00000240: efd6 3d3e e43c af3d 45d5 9dbe 8916 12be
00000250: f6f7 22bd 384f 8f3d 524c 833e 4d4e 50bc
00000260: 1a5d 873c 8c57 6dbd ee5c cebd b3ac 96be
00000270: e6e0 7dbd cf87 89bb 4a41 3fbe cb26 873e
00000280: 289e 20be b5a4 783d 166f e73e 8d23 14be
00000290: f7fd 6abe ba2f f5bd e3ca 96bd 8e07 92bc
000002a0: 9763 a93d f4b0 f93d 4215 40bd c133 0f3d
000002b0: 6fb7 e2bd 9803 e9bb 76f6 19bd e2cc 22bc
000002c0: d57c b73e a3fa 76bd bee3 90be 19f5 0cbe
000002d0: c95c a53e 8084 a0bd 31c0 44be 18eb b5bd
000002e0: 6329 5e3d 40d7 11be 36c0 2d3e 5fce 01be
000002f0: be92 fcbd 0d51 0ebb 7f81 ee3d ce12 0d3e
00000300: 970e c9bc 13af 91be 39c2 81bc 322d 23be
00000310: d01f 5b3e 3733 103d 7e42 93bd 530e 79bd
00000320: 88f1 973e 070e 873e 00f7 a33e 0148 9ebd
00000330: 1b4e 443e 4e6a a23e b682 943e 22fc 033f
00000340: fc70 083e 4929 413d 529c 8abd 5194 353c
00000350: f33f 6dbe b6c3 f0bb 6615 2fbe fe68 82bc
00000360: d0b1 4f3e d63f 48be 4f46 94bd bee5 88be
00000370: 39a0 0dbe 2e13 0d3e 0489 653d df7a ea3d
00000380: 4960 3a3e 1eac 103e 3791 5abd c2ae 923e
00000390: 9ac2 a1be f7f0 32be 2f23 3bbc 4024 f43d
000003a0: 1c70 743e 2abd 813e bcc3 22be 6699 4a3e
000003b0: 4ea6 413b 5223 853e bf19 e7bd 8601 9b3c
000003c0: 6de7 fabd db9e 4abe 0cf3 973e 5dae e33e
000003d0: e122 2b3e ac23 803e 7f7a 173d b619 2abe
000003e0: 1211 cc3c e69d 053e dd80 df3e fac0 50bd
000003f0: 5f5d 2cbd a527 973e 6011 203d 8190 8bbc

critic.2.bias f4 [256]
-0.08987607 0.0038883865 0.03231281 -0.09869584 -0.01900496 -0.015451542 0.07672358 -0.058290727
-0.0022411358 -0.07506076 -0.038668975 0.059693966 0.0052602715 0.09994897 0.015162503 0.054598667
-0.028135939 -0.02865282 0.01829741 0.041914452 0.004956991 -0.03139662 -0.09062252 0.0116105005
-0.039377768 0.058455423 0.051617783 -0.03376138 0.065079026 -0.036630895 -0.065916955 0.083684966
0.07750951 0.04085835 0.09186068 -0.005513983 0.015527685 -0.032294426 -0.0033710168 -0.085534155
0.039667033 0.07690119 0.06317408 0.083229356 -0.0070976955 0.014999083 -0.021979194 0.03322885
0.026488544 0.056224067 0.008792616 -0.004071936 -0.047862142 -0.0465499 0.097392805 -0.024466857
-0.0018000284 0.00567249 0.02418762 -0.16163823 0.074440755 -0.035267778 -0.020868985 -0.023582546
0.012126946 0.10810535 -0.07425157 -0.007930688 -0.06969808 0.0037328345 0.01089859 0.030528089
0.01287351 0.034994442 -0.036092862 -0.009259582 0.04771933 0.022633685 0.010747261 0.0407444
0.06037099 0.015261175 -0.01332937 -0.01174699 0.07845518 -0.10069913 0.013945588 -0.03803135
0.046234116 -0.035569556 0.029934911 0.005816114 0.018668447 -0.058961865 0.012172441 -0.03352539
-0.032446273 0.023018649 0.10490185 0.081502706 0.08446331 -0.05249763 -0.028544573 0.020293424
-0.0076668737 0.018659871 -0.021397157 -0.008494936 0.058919806 -0.0040472182 -0.10425539 0.11201314
-0.035561647 0.05194931 -0.017206982 -0.07241634 0.053882457 0.009941996 0.036344547 0.024304202
0.032477133 -0.09536267 0.019192567 -0.031212565 0.031035658 -0.016508833 -0.026668759 -0.08145576
0.020897713 0.043161217 0.057946175 -0.004997245 -0.034037095 -0.07016437 0.03764096 -0.00749078
-0.0062726256 -0.07393536 -0.081448294 -0.10152698 -0.07296455 0.07126904 -0.08815867 -0.01948746
-0.10859236 -0.003959982 0.05988689 -0.00988205 -0.011028244 0.030381205 0.009477017 0.08052688
0.11272252 -0.073824205 0.007084404 -0.043000054 -0.012579245 -0.0043187602 0.023991834 0.07240102
-0.06540188 0.015232016 0.074001014 0.030976472 -0.11069851 -0.11863327 0.005790892 -0.05515782
-0.014481176 -0.06970694 0.0008948797 -0.0040020635 -0.0245973 -0.0016627773 -0.05358418 0.098093264
-0.08964314 0.02683964 0.043941047 0.014007994 -0.036325287 -0.092847876 0.07720551 0.08759874
0.044300742 0.009536706 -0.06946118 0.017375333 0.004200057 0.034823548 -0.025829457 0.0038572731
-0.08183072 0.01868674 0.063998945 0.088262916 0.08003702 -0.019848716 0.011328795 -0.10954067
-0.005049268 -0.078536995 -0.056014255 -0.060714386 -0.07059619 -0.06759036 0.02414455 -0.0022442797
0.029115058 -0.0036603862 0.0073495004 -0.041161794 -0.11424677 -0.070584826 0.09384849 0.03807704
0.00960727 0.03170556 0.0301042 -0.06975814 0.095842645 0.056194253 0.07588787 -0.07584762
0.0008636179 -0.020362653 0.0021281736 -0.0828917 -0.05688206 0.103867054 -0.015618474 0.047472633
-0.034798037 0.0111223105 0.021887109 0.038052373 -0.050441213 -0.049477216 0.008497151 -0.08257957
-0.047206182 -0.08375204 0.07860018 -0.03740069 -0.027391993 -0.040100984 -0.019642582 0.037676703
-0.01969132 0.08810254 0.14517583 -0.05804554 0.041212335 -0.06180573 0.0901386 -0.02590118
00000000: f210 b8bd 4dd4 7e3b 705a 043d 0b21 cabd
00000010: 4ab0 9bbc 7728 7dbc 4121 9d3d 42c2 6ebd
00000020: 05e0 12bb 75b9 99bd 5c63 1ebd a981 743d
00000030: 5b5e ac3b 0cb2 cc3d 266c 783c daa2 5f3d
00000040: 577d e6bc 52b9 eabc 73e4 953c 7dae 2b3d
00000050: 416e a23b be99 00bd 4d98 b9bd f839 3e3c
00000060: 954a 21bd f46e 6f3d 2b6d 533d 5f49 0abd
00000070: 2748 853d 470a 16bd 78ff 86bd 0663 ab3d
00000080: 4ebd 9e3d 165b 273d 7421 bc3d a4ae b4bb
00000090: d567 7e3c 2947 04bd 47ec 5cbb 882c afbd
000000a0: e679 223d 5f7e 9d3d 6961 813d 2774 aa3d
000000b0: c993 e8bb b7be 753c b60d b4bc fa1a 083d
000000c0: 81fe d83c 354b 663d e80e 103c e06d 85bb
000000d0: 180b 44bd 1cab 3ebd e175 c73d b86e c8bc
000000e0: eeee ebba 4ce0 b93b 1e25 c63c 7e84 25be
000000f0: 6574 983d f274 10bd 6ff5 aabc 2f30 c1bc
00000100: 19b0 463c 5666 dd3d 3511 98bd b7ef 01bc
00000110: debd 8ebd 92a2 743b 0090 323c 0b16 fa3c
00000120: 6aeb 523c 5556 0f3d 1cd6 13bd 80b5 17bc
00000130: 5875 433d 476a b93c 4815 303c 9ae3 263d
00000140: 9247 773d 020a 7a3c 6e63 5abc 7276 40bc
00000150: 1cad a03d 583b cebd 097c 643c c3c6 1bbd
00000160: fc5f 3d3d 62b1 11bd 0f3a f53c 1a95 be3b
00000170: 92ee 983c ff81 71bd eb6e 473c eb51 09bd
00000180: 62e6 04bd 9b91 bc3c c8d6 d63d e4ea a63d
00000190: 1afb ac3d c107 57bd 4fd6 e9bc 653e a63c
000001a0: 663a fbbb 96dc 983c 1749 afbc 582e 0bbc
000001b0: e555 713d 879e 84bb da83 d5bd 2567 e53d
000001c0: 17a9 11bd cdc8 543d a8f5 8cbc 054f 94bd
000001d0: dab3 5c3d c1e3 223c 05de 143d 9b19 c73c
000001e0: be06 053d 814d c3bd bb39 9d3c 7eb1 ffbc
000001f0: 7e3e fe3c 883d 87bc 7178 dabc 47d2 a6bd
00000200: ae31 ab3c d1c9 303d f858 6d3d eebf a3bb
00000210: 7b6a 0bbd 56b2 8fbd 682d 1a3d 3875 f5bb
00000220: 998a cdbb 6c6b 97bd 5dce a6bd 61ed cfbd
00000230: 706e 95bd 81f5 913d 888c b4bd 2aa4 9fbc
00000240: ac65 debd bdc2 81bb f54b 753d 52e8 21bc
00000250: cfaf 34bc 01e2 f83c 7e45 1b3c 47eb a43d
00000260: 11db e63d 2531 97bd 4a24 e83b d320 30bd
00000270: 2d19 4ebc 6384 8dbb 868a c43c fc46 943d
00000280: 6cf1 85bd b58f 793c d88d 973d 5fc2 fd3c
00000290: e7b5 e2bd 00f6 f2bd 86c1 bd3b 2bed 61bd
000002a0: 7442 6dbc 83c2 8ebd 5c96 6a3a be23 83bb
000002b0: 4780 c9bc 8cf1 d9ba 167b 5bbd 1fe5 c83d
000002c0: d396 b7bd cede db3c 87fb 333d c981 653c
000002d0: d3c9 14bd 0727 bebd ec1d 9e3d f866 b33d
000002e0: b274 353d d83f 1c3c aa41 8ebd b756 8e3c
000002f0: a2a0 893b 23a3 0e3d 4c98 d3bc 4eca 7c3b
00000300: dd96 a7bd ef14 993c e111 833d 30c3 b43d
00000310: 73ea a33d c699 a2bc 699c 393c dc56 e0bd
00000320: 5474 a5bb 01d8 a0bd 346f 65bd a6af 78bd
00000330: bc94 90bd d16c 8abd cbca c53c c414 13bb
00000340: b482 ee3c 17e3 6fbb 14d4 f03b 4599 28bd
00000350: 36fa e9bd c78e 90bd a333 c03d acf6 1b3d
00000360: d067 1d3c b0dd 013d 159d f63c 5bdd 8ebd
00000370: 2649 c43d f22b 663d 196b 9b3d ff55 9bbd
00000380: 6b64 623a 94cf a6bc d478 0b3b 20c3 a9bd
00000390: 2afd 68bd 40b8 d43d a1e4 7fbc aa72 423d
000003a0: 6388 0ebd 5a3a 363c 984c b33c cedc 1b3d
000003b0: 729b 4ebd 9fa8 4abd a237 0b3c 7a1f a9bd
000003c0: 455b 41bd 3186 abbd 22f9 a03d 7731 19bd
000003d0: 2c65 e0bc ee40 24bd 7be9 a0bc e352 1a3d
000003e0: b14f a1bc 1b6f b43d f9a8 143e 29c1 6dbd
000003f0: 44ce 283d 0128 7dbd 969a b83d b62e d4bc

critic.4.weight f4 [1, 256]
0.5102965 0.42672807 -0.56392115 -0.46806136 -0.39275476 -0.43072495 -0.502235 -0.47533587
0.42843848 0.40964723 0.9247079 -0.57801044 -0.4063758 -0.4409378 0.5034253 0.56285167
0.6603599 0.4026338 -0.4763268 0.57408464 0.37177518 0.44116336 0.42063516 -0.47783557
-0.5685859 -0.33754668 0.5603799 -0.4760684 -0.44035104 0.6297135 0.39028195 0.4625251
-0.92125607 -0.49322653 -0.4709233 -0.45321843 -0.45559338 -0.53200465 -0.4654643 0.49935228
-0.4487213 0.44586495 -0.40480348 0.5946117 -0.45938927 0.59245735 -0.41314277 -0.8796449
0.34287232 0.5486425 -0.5222525 -0.44314095 -0.40592194 0.42487323 0.89515716 0.42131448
0.4283939 0.5202285 -0.38044494 1.0583471 -0.4801022 -0.47692022 -0.7654413 -0.4453212
0.6583442 -0.9223901 0.47133628 0.42706203 0.40350452 -0.4661134 -0.5789724 0.5115694
0.4606567 -0.4268892 -0.40081117 -0.5721601 0.5705442 -0.42067116 -0.51965284 -0.5812415
0.5676633 -0.54196656 -0.39804614 -0.45334095 -0.50256723 -0.56288403 -0.41347063 0.34972513
-0.46551543 -0.3977234 0.50544775 -0.9028124 0.45551056 -0.47773823 -0.41201267 0.4365933
-0.42575523 -0.44619668 -0.55238545 0.4450353 -0.37466094 -0.4740534 -0.5767723 0.5708123
0.53731525 -0.35525623 0.46644053 -0.42366534 -0.5863933 0.7128204 0.5135387 -1.0815675
-0.49148455 -0.60408133 0.43054497 0.4590791 -0.3969519 -0.4456206 -0.68779576 -0.5053091
-0.607065 -0.45453113 0.4861359 -0.44461364 -0.44718057 0.554321 -0.5637118 -0.46599436
0.7146912 -0.44447577 -0.5726309 -0.47805786 -0.45541698 0.39478683 -0.41204247 -0.47205278
-0.4886939 0.506056 0.45161265 -0.49765483 0.4078496 -0.43964165 0.32033372 0.45386702
-0.44585815 0.41582882 -0.53322667 -0.5267726 -0.4552379 -0.40242273 -0.5478667 0.4528832
-0.8568683 0.4249525 0.472034 0.47732782 -0.6042027 -0.4608829 0.40365213 -0.38723016
0.5146914 -0.46672514 -0.5357606 0.47637406 0.42959788 -0.853743 -0.40158793 0.6530908
-0.5193953 0.447837 -0.52210754 -0.4617914 0.39839113 -0.7297164 -0.57369894 -0.39889756
0.69475216 -0.41827074 0.50367934 -0.40831754 -0.44362888 0.46920863 -0.4246804 -0.37627596
0.3844918 -0.40746143 0.5999063 0.42434624 -0.5687383 0.4538121 0.5073866 -0.5010982
0.46079248 -0.6389329 -0.43255547 0.48183283 -0.70084745 -0.3722465 -0.398249 0.45261642
0.5631108 0.42478415 -0.42497778 0.5087739 0.49399266 0.38614696 -0.37375465 0.4612705
-0.44454557 0.374911 -0.55173415 0.74584883 -0.4275127 0.57801604 0.60890746 0.4184178
0.38929623 -0.391151 0.45696944 0.512067 0.45750505 -0.38181865 -0.48203853 0.5702504
0.46928436 0.4999292 0.4364408 -0.4561162 0.43493617 -0.5920255 -0.5394279 0.45464486
-0.4900796 -0.5935217 -0.4558146 0.36828223 0.5573167 0.4318234 0.46410134 0.39096346
-0.41977465 0.3964897 -0.55202055 0.4453529 0.39693528 0.4951294 -0.4364751 -0.5950198
-0.5622188 0.35666952 -0.75785935 0.85477144 -0.4835803 0.38184488 0.7661846 0.46026695
00000000: cba2 023f 1a7c da3e 235d 10bf bda5 efbe
00000010: 2717 c9be fb87 dcbe 7992 00bf 395f f3be
00000020: 4a5c db3e 48bd d13e a8b9 6c3f 7ef8 13bf
00000030: 7d10 d0be 99c2 e1be 7be0 003f 0c17 103f
00000040: 590d 293f 0426 ce3e 1be1 f3be 36f7 123f
00000050: 5159 be3e 2ae0 e13e 7e5d d73e dda6 f4be
00000060: d88e 11bf ebd2 acbe 0f75 0f3f 3dbf f3be
00000070: b175 e1be e734 213f 09d3 c73e 17d0 ec3e
00000080: 70d7 6bbf 3088 fcbe dc1c f1be 3f0c e8be
00000090: 8943 e9be 7531 08bf 5651 eebe 1aab ff3e
000000a0: ccbe e5be 6948 e43e 6742 cfbe 7938 183f
000000b0: 1235 ebbe 49ab 173f 7387 d3be 6830 61bf
000000c0: f68c af3e d673 0c3f 57b2 05bf 5fe3 e2be
000000d0: 00d5 cfbe fc88 d93e 0529 653f 88b6 d73e
000000e0: 7256 db3e b22d 053f aec9 c2be eb77 873f
000000f0: f5cf f5be e32e f4be f6f3 43bf 2401 e4be
00000100: 3f89 283f c221 6cbf fd52 f13e e0a7 da3e
00000110: 2598 ce3e 6aa6 eebe 8937 14bf 36f6 023f
00000120: 32db eb3e 3991 dabe 1f37 cdbe 1679 12bf
00000130: 2f0f 123f 3662 d7be f807 05bf 3ecc 14bf
00000140: 6252 113f 52be 0abf b4cc cbbe 4e1c e8be
00000150: 3fa8 00bf 2b19 10bf 6cb2 d3be 2c0f b33e
00000160: 0a58 eebe 67a2 cbbe 0665 013f b71e 67bf
00000170: ae38 e93e 1b9a f4be 53f3 d2be 2889 df3e
00000180: 97fc d9be e473 e4be 2269 0dbf abdb e33e
00000190: 8fd3 bfbe 21b7 f2be 59a7 13bf c120 123f
000001a0: 7e8d 093f 25e4 b5be 4bd1 ee3e aaea d8be
000001b0: df1d 16bf 667b 363f 4677 033f ce70 8abf
000001c0: dda3 fbbe 13a5 1abf 6470 dc3e 6a0c eb3e
000001d0: 483d cbbe 6228 e4be 6213 30bf f05b 01bf
000001e0: 9d68 1bbf 4eb8 e8be cee6 f83e 66a4 e3be
000001f0: daf4 e4be fbe7 0d3f 6b4f 10bf d096 eebe
00000200: 01f6 363f 5492 e3be f097 12bf 00c4 f4be
00000210: 6a2c e9be 8021 ca3e 3bf7 d2be e7b0 f1be
00000220: 1636 fabe e38c 013f c639 e73e 9dcc febe
00000230: aad1 d03e b618 e1be c802 a43e 4261 e83e
00000240: 8547 e4be 84e7 d43e 8b81 08bf 92da 06bf
00000250: f114 e9be 5a0a cebe fe40 0cbf 4fe0 e73e
00000260: b95b 5bbf 6093 d93e 71ae f13e 5064 f43e
00000270: 07ad 1abf d8f8 ebbe 7eab ce3e 0843 c6be
00000280: d1c2 033f 99f6 eebe 9b27 09bf 4de7 f33e
00000290: 41f4 db3e e78e 5abf ef9c cdbe f530 273f
000002a0: 17f7 04bf e44a e53e d7a8 05bf ec6f ecbe
000002b0: ecf9 cb3e b2ce 3abf efdd 12bf 4d3c ccbe
000002c0: 47db 313f 9527 d6be 21f1 003f ff0e d1be
000002d0: 5323 e3be 1d3c f03e b66f d9be 3ea7 c0be
000002e0: 1cdc c43e c99e d0be 7693 193f e943 d93e
000002f0: d598 11bf 0f5a e83e 17e4 013f f947 00bf
00000300: feec eb3e 1b91 23bf e977 ddbe cbb2 f63e
00000310: bd6a 33bf 1897 bebe 4be7 cbbe 57bd e73e
00000320: 0828 103f 4f7d d93e b096 d9be 023f 023f
00000330: 9bec fc3e 0eb5 c53e c55c bfbe a62b ec3e
00000340: 7a9b e3be 56f4 bf3e 733e 0dbf f3ef 3e3f
00000350: f2e2 dabe dcf8 133f 5ce1 1b3f dc3a d63e
00000360: d651 c73e f244 c8be e6f7 e93e d316 033f
00000370: 1a3e ea3e bc7d c3be c1cd f6be eefb 113f
00000380: 0a46 f03e b8f6 ff3e 2b75 df3e 1088 e9be
00000390: f4af de3e fc8e 17bf f217 0abf 36c7 e83e
000003a0: b7eb fabe 0af1 17bf 8860 e9be 7d8f bc3e
000003b0: 4fac 0e3f f517 dd3e b19e ed3e 5d2c c83e
000003c0: b4ec d6be b300 cb3e 3851 0dbf 4c05 e43e
000003d0: 1a3b cb3e 9a81 fd3e aa79 dfbe 3853 18bf
000003e0: 92ed 0fbf 639d b63e 1203 42bf 4dd2 5a3f
000003f0: d697 f7be 2c81 c33e ad24 443f 1ca8 eb3e

actor.0.weight f4 [256, 19]
-0.12962538 -0.13385804 0.14046995 -0.07212881 -0.026201546 0.02792491 0.38972604 -0.02879905
-0.07994231 0.11648386 0.1409292 -0.20650813 0.11065804 -0.06221087 -0.020614492 0.16638753
-0.11272071 0.13788718 0.06923285 -0.05825001 0.20963153 -0.032260463 -0.011161438 -0.0014551282
0.0562122 -0.43157318 0.20003572 -0.10817391 0.0148549955 -0.2188284 0.11647254 -0.24157795
-0.10766606 0.0055830083 0.057911687 0.09567485 0.07788884 -0.16592632 0.049067996 0.09146779
0.14605312 -0.07212105 0.17845298 -0.22253266 -0.057836097 0.06129196 -0.10019339 -0.021707112
-0.20111021 0.16508757 -0.038161345 0.22483777 0.06232023 0.02827687 0.15765521 -0.07536097
-0.26314467 -0.10855795 0.050065085 -0.09093714 0.015346565 0.16843174 -0.19559889 -0.074344546
0.12939069 -0.09189602 -0.06911749 -0.0028690994 0.13614224 -0.010336099 0.33252317 0.03257788
-0.050714612 0.15930273 -0.062048316 0.03555707 0.15032429 -0.06518448 -0.009586615 0.06827972
0.12668319 -0.119827256 -0.008825455 -0.15625055 0.14626458 -0.22163628 -0.2027996 0.26345277
-0.08736758 -0.11109946 0.052515414 -0.02905068 0.20533356 0.17098738 -0.017414609 0.076239124
-0.131697 -0.19588555 0.06305522 -0.019669607 -0.13948366 0.11330286 0.1105849 -0.19073994
0.064132564 -0.080749035 -0.0012344389 0.2394204 -0.23316923 -0.22819167 -0.0067942264 -0.12965898
-0.114573136 -0.040094003 -0.0740574 0.17250036 -0.1564366 0.17960504 -0.18509494 -0.19448575
-0.22217648 0.21858437 -0.1573713 -0.13513935 0.123339966 -0.13114303 -0.25681317 0.1922813
-0.21980053 -0.027218165 0.088302456 0.047748767 0.16419274 0.18896578 -0.21021527 0.20697841
-0.10879992 0.1322421 0.18225236 -0.29564363 -0.06964488 -0.007018723 -0.09709745 -0.18350728
-0.05161583 0.23798355 0.30553687 0.045704607 -0.2670505 -0.03155271 -0.16345294 -0.16209902
0.014635242 0.05048367 -0.15992235 0.12194865 0.18912615 -0.17838149 0.023647904 -0.17982584
-0.21649146 -0.17202194 0.029073015 -0.24732798 0.2528041 -0.12844236 0.20291227 0.19426136
-0.2147527 0.0936025 0.21972005 -0.15076827 -0.21164025 0.0946995 0.15907753 -0.20461352
-0.21707615 -0.16163623 0.046612885 -0.19807023 -0.010371805 -0.21944362 -0.31228408 0.011926557
0.042084627 -0.05082264 -0.10528911 -0.08543664 0.18610182 0.30066338 0.1387641 0.1607458
-0.13340849 -0.17288516 -0.22813782 0.028000042 -0.0832917 -0.09315591 -0.0789546 -0.10562663
0.2012914 -0.33181965 0.08414165 -0.23238657 0.18696404 0.21282747 0.03504014 0.04162342
0.17088656 0.19895153 -0.04017262 -0.0540674 0.1676959 0.111116394 0.17361967 0.28980058
-0.12896104 0.13827121 -0.20936468 -0.12663642 0.06242299 0.04238002 0.015499558 -0.12514888
0.0595361 0.24729 0.08052909 -0.16948941 -0.23490225 -0.007243333 -0.18354122 -0.0038103443
0.19910176 0.047862515 0.30743346 -0.061539467 0.08582329 0.17172016 -0.09203501 -0.29954365
0.2705029 -0.062571056 -0.2691099 0.11590186 0.27743873 0.14157026 0.2223396 0.15273556
0.13654648 0.03874565 -0.23618957 0.12346099 0.113910004 0.45164576 0.117590904 -0.19110866
00000000: 84bc 04be 1512 09be 5bd7 0f3e 45b8 93bd
00000010: a0a4 d6bc c8c2 e43c 2c8a c73e fceb ebbc
00000020: cbb8 a3bd 178f ee3d bf4f 103e de76 53be
00000030: afa0 e23d d3d0 7ebd b9df a8bc 7e61 2a3e
00000040: 1eda e6bd 4c32 0d3e f4c9 8d3d 9097 6ebd
00000050: a6a9 563e 8c23 04bd 77de 36bc 00ba beba
00000060: c43e 663d 29f7 dcbe 2ad6 4c3e 488a ddbd
00000070: 5e62 733c 8d14 60be 2889 ee3d 3660 77be
00000080: 0680 dcbd abf1 b63b ce34 6d3d 2df1 c33d
00000090: 2f84 9f3d 97e8 29be 86fb 483d 7753 bb3d
000000a0: f38e 153e 33b4 93bd 61bc 363e 9adf 63be
000000b0: 8be5 6cbd 470d 7b3d 3132 cdbd 1dd3 b1bc
000000c0: d6ef 4dbe b70c 293e 124f 1cbd df3b 663e
000000d0: 7f43 7f3d e5a4 e73c 5e70 213e da56 9abd
000000e0: e6ba 86be a153 debd 0c11 4d3d 403d babd
000000f0: 2970 7b3c 5f79 2c3e 134b 48be f441 98bd
00000100: fe7e 043e fb33 bcbd 788d 8dbd 8007 3cbb
00000110: df68 0b3e be58 29bc 7a40 aa3e 6270 053d
00000120: 20ba 4fbd 4120 233e 6026 7ebd 4aa4 113d
00000130: 9cee 193e 717f 85bd 2d11 1dbc 3dd6 8b3d
00000140: 3db9 013e fe67 f5bd a498 10bc 2500 20be
00000150: 62c6 153e 9ff4 62be b3aa 4fbe 48e3 863e
00000160: c6ed b2bd 1d88 e3bd 671a 573d b1fb edbc
00000170: f642 523e 5117 2f3e 15a9 8ebc 4223 9c3d
00000180: 94db 06be 3996 48be 1823 813d 2822 a1bc
00000190: ced4 0ebe 540b e83d 567a e23d 5551 43be
000001a0: ef57 833d c05f a5bd e5cc a1ba 9f2a 753e
000001b0: eac3 6ebe 14ab 69be 1aa2 debb 53c5 04be
000001c0: 52a5 eabd 9c39 24bd 68ab 97bd efa3 303e
000001d0: eb30 20be 62ea 373e 8789 3dbe 4627 47be
000001e0: 3b82 63be 95d4 5f3e f125 21be f861 0abe
000001f0: aa99 fc3d 5c4a 06be 047d 83be 64e5 443e
00000200: 6413 61be a1f8 debc ebd7 b43d 3694 433d
00000210: 2422 283e 3f80 413e ac42 57be 26f2 533e
00000220: 7ed2 debd 796a 073e 5da0 3a3e 9a5e 97be
00000230: faa1 8ebd 51fd e5bb 07db c6bd 55e9 3bbe
00000240: 1f6b 53bd f6b1 733e 546f 9c3e c134 3b3d
00000250: d8ba 88be 6a3d 01bd 3560 27be 49fd 25be
00000260: a7c8 6f3c f7c7 4e3d afc2 23be 37c0 f93d
00000270: 49aa 413e a3a9 36be 40b9 c13c 4424 38be
00000280: f0af 5dbe 8526 30be 882a ee3c 8c43 7dbe
00000290: 8a6f 813e 6586 03be 3cc8 4f3e 73ec 463e
000002a0: 22e8 5bbe abb2 bf3d 4bfe 603e ff62 1abe
000002b0: 39b8 58be d0f1 c13d 38e5 223e 3586 51be
000002c0: 3649 5ebe f883 25be 27ed 3e3d ecd2 4abe
000002d0: 81ee 29bc d4b5 60be b3e3 9fbe 9b67 433c
000002e0: ee60 2c3d 672b 50bd d1a1 d7bd 68f9 aebd
000002f0: 7a91 3e3e 8df0 993e 2d18 0e3e 8c9a 243e
00000300: 3c9c 08be cf08 31be f69c 69be 5860 e53c
00000310: d794 aabd 87c8 bebd f3b2 a1bd c652 d8bd
00000320: 551f 4e3e 44e4 a9be 7552 ac3d bff6 6dbe
00000330: 8073 3f3e 72ef 593e 4086 0f3d 527d 2a3d
00000340: e3fc 2e3e f3b9 4b3e 0c8c 24bd c775 5dbd
00000350: 79b8 2b3e fe90 e33d 5bc9 313e be60 943e
00000360: 5d0e 04be f896 0d3e b263 56be faac 01be
00000370: 40af 7f3d ac96 2d3d dcf1 7d3c 0727 00be
00000380: 20dc 733d 9739 7d3e 6fec a43d a28e 2dbe
00000390: 378a 70be 7b59 edbb 3bf2 3bbe f8b6 79bb
000003a0: 55e1 4b3e 7c0b 443d eb67 9d3e cf10 7cbd
000003b0: 1fc4 af3d 69d7 2f3e da7c bcbd c95d 99be
000003c0: 5b7f 8a3e 4125 80bd c6c8 89be f45d ed3d
000003d0: 730c 8e3e cbf7 103e feac 633e b666 1c3e
000003e0: d7d2 0b3e c2b3 1e3d aedb 71be 1ed9 fc3d
000003f0: a649 e93d 1d3e e73e 80d3 f03d fdb1 43be

actor.0.bias f4 [256]
-0.007695537 -0.03240388 0.09900297 -0.12563418 -0.055284645 0.14226761 0.10858544 0.16093329
-0.015746793 -0.014775995 0.15640552 -0.11857122 0.08170222 0.015883772 -0.02220834 0.12855962
-0.071274035 -0.033048403 0.049433153 0.08825767 0.12202217 -0.13843714 -0.15157427 -0.013800392
0.12002026 0.10870234 0.05301385 -0.12805331 0.08933526 -0.06976038 0.03563555 0.2005812
0.15716709 -0.12138339 0.044901162 0.051865578 -0.02876476 -0.0342491 -0.12066041 0.106690824
-0.19488904 0.061038006 -0.110354505 -0.08058361 0.12296998 -0.018971844 -0.04878112 -0.14990683
-0.056433864 0.10997822 0.15073387 0.15050709 0.23014499 -0.020536155 0.005576779 -0.081648566
-0.14015526 0.13373128 0.06114034 0.11724572 0.13153544 -0.08805778 -0.18912047 -0.3083432
-0.17644118 0.027108766 0.16220824 -0.048134428 0.1139254 0.07400221 0.20946808 0.11379483
0.2404146 0.18241496 0.06836811 0.15034102 0.16770568 0.15123406 -0.06615531 0.085663274
0.08018709 -0.20217538 0.078327954 0.0039364984 -0.08697445 0.014358053 0.094183736 0.012349191
0.16556074 0.20229867 0.11030191 0.0015599807 0.13909274 -0.0706217 0.21311742 -0.021409055
-0.1034477 -0.17764084 -0.008519945 0.10388892 -0.014457549 -0.11103544 -0.14920218 -0.0013050827
0.014241404 0.026026893 0.12132484 0.13822848 0.056101695 -0.1593963 -0.063478075 0.05453035
0.067454934 0.22292742 -0.0065962025 -0.15778087 -0.16650245 -0.046275645 0.054514576 0.07803873
-0.19439138 0.11995036 -0.18451582 0.15164067 -0.03211096 0.054086413 0.047115155 -0.041223094
-0.116864055 0.18475044 0.18114051 0.11089978 -0.20337582 0.013102245 0.19372739 0.17303132
0.11156266 -0.18250754 -0.06703441 0.07082888 0.06362096 0.18959646 -0.0006859211 -0.11451188
0.07333317 -0.20412433 -0.0148704 0.12003953 0.1393461 -0.09108009 -0.041466814 -0.22201473
-0.07099437 0.1683189 -0.08374466 -0.15569124 -0.16939287 -0.21114413 0.07143006 -0.17537436
-0.051114056 0.1856069 -0.078483485 0.21318534 -0.12910524 -0.18672393 -0.05634588 0.09543603
0.18148421 0.1525975 -0.12567508 -0.13411719 -0.018062947 0.18783695 -0.17182702 -0.042495936
-0.15498118 0.023943895 -0.07620101 0.13673891 0.03151795 0.2020169 -0.17795235 -0.07718903
-0.053523924 -0.082718365 0.13835867 -0.23981087 -0.116023436 0.14886951 -0.21912414 -0.18932132
0.016953662 0.066853225 0.061354224 0.18132427 -0.023307828 -0.15642932 0.056428988 0.034245726
0.13881037 0.0614865 0.10561985 0.10274642 0.0050490187 -0.15313181 -0.16654521 -0.125966
-0.07665962 0.051502813 -0.12613858 0.122954115 0.15601166 0.16775604 0.14810663 -0.008125289
0.05969094 0.078219816 0.215838 -0.122924075 -0.14713013 0.14446867 -0.04199519 0.08870238
-0.20999281 0.20666006 0.14445922 -0.01346099 -0.013159352 -0.08166042 -0.11770545 -0.09745806
-0.22616993 -0.13346446 -0.174772 -0.007836637 -0.14589421 -0.12980554 0.18764147 -0.012569579
0.08878734 0.09127477 0.058819953 0.2073375 -0.0155671155 0.11549418 -0.09774508 0.14966735
0.08514929 0.14426416 -0.12126894 -0.07256095 0.22635601 0.052501578 0.12490122 -0.24045211
00000000: d82a fcbb eeb9 04bd 12c2 ca3d 3fa6 00be
00000010: 2772 62bd 9aae 113e 0b62 de3d b2cb 243e
00000020: 6bff 80bc 0417 72bc c528 203e 78d5 f2bd
00000030: 7e53 a73d af1e 823c 44ee b5bc 22a5 033e
00000040: 1ff8 91bd c35d 07bd 6b7a 4a3d 70c0 b43d
00000050: c2e6 f93d 77c2 0dbe 4936 1bbe 0a1b 62bc
00000060: 2fcd f53d 559f de3d 0d25 593d 6820 03be
00000070: 68f5 b63d 88de 8ebd 95f6 113d 2865 4d3e
00000080: 69f0 203e db97 f8bd 48ea 373d 0071 543d
00000090: 13a4 ebbc c948 0cbd ce1c f7bd b880 da3d
000000a0: fe90 47be fd02 7a3d 8b01 e2bd 0509 a5bd
000000b0: afd7 fb3d d76a 9bbc b6ce 47bd 2d81 19be
000000c0: 3227 67bd 433c e13d fb59 1a3e 881e 1a3e
000000d0: 21ab 6b3e 703b a8bc 6abd b63b 5d37 a7bd
000000e0: dc84 0fbe daf0 083e 4b6e 7a3d 861e f03d
000000f0: 3ab1 063e a357 b4bd cca8 41be 29df 9dbe
00000100: ffac 34be 3413 de3c eb19 263e 9b28 45bd
00000110: b851 e93d 788e 973d cd7e 563e 440d e93d
00000120: 3f2f 763e fdca 3a3e 9404 8c3d fff2 193e
00000130: 0abb 2b3e 1add 1a3e 6f7c 87bd 3a70 af3d
00000140: 2139 a43d 1007 4fbe 686a a03d befd 803b
00000150: a91f b2bd 0a3e 6b3c 67e3 c03d 4354 4a3c
00000160: c188 293e 6227 4f3e f8e5 e13d 4478 cc3a
00000170: 546e 0e3e 1ca2 90bd 743b 5a3e 0b62 afbc
00000180: 63dc d3bd 7be7 35be 3d97 0bbc b7c3 d43d
00000190: 5bdf 6cbc 8c66 e3bd 75c8 18be 4f0f abba
000001a0: c754 693c 5a36 d53c 2879 f83d c48b 0d3e
000001b0: e4ca 653d c938 23be cb00 82bd 375b 5f3d
000001c0: d025 8a3d 1647 643e f524 d8bb 4f91 21be
000001d0: 9e7f 2abe 888b 3dbd ad4a 5f3d c5d2 9f3d
000001e0: 890e 47be 89a8 f53d b7f1 3cbe b147 1b3e
000001f0: c886 03bd b789 5d3d d2fb 403d 8cd9 28bd
00000200: 6c56 efbd 382f 3d3e e67c 393e 6d1f e33d
00000210: c041 50be ccaa 563c 7960 463e 1f2f 313e
00000220: f77a e43d 42e3 3abe 5649 89bd bb0e 913d
00000230: b54b 823d 9325 423e 63cf 33ba 3485 eabd
00000240: b32f 963d f805 51be faa2 73bc 49d7 f53d
00000250: beb0 0e3e 3388 babd 1bd9 29bd d457 63be
00000260: 7f65 91bd ca5b 2c3e 5282 abbd 866d 1fbe
00000270: 5375 2dbe 2b36 58be ec49 923d 5695 33be
00000280: f95c 51bd bc0f 3e3e f3bb a0bd 424d 5a3e
00000290: 2a34 04be 8f34 3fbe f0ca 66bd f773 c33d
000002a0: ffd6 393e 8542 1c3e f8b0 00be 0456 09be
000002b0: bff8 93bc 5458 403e 6cf3 2fbe 3810 2ebd
000002c0: 63b3 1ebe fd25 c43c 460f 9cbd 4905 0c3e
000002d0: f718 013d 85dd 4e3e 2439 36be 4815 9ebd
000002e0: e73b 5bbd 3f68 a9bd e5ad 0d3e fb90 75be
000002f0: b29d edbd 4071 183e 1462 60be 73dd 41be
00000300: 68e2 8a3c 58ea 883d 914e 7b3d 12ad 393e
00000310: 0ff0 bebc 022f 20be 1522 673d 3f45 0c3d
00000320: 4e24 0e3e 45d9 7b3d 384f d83d b76c d23d
00000330: 3d72 a53b 96ce 1cbe d48a 2abe 3bfd 00be
00000340: b8ff 9cbd 9df4 523d 792a 01be 5ecf fb3d
00000350: 85c1 1f3e 3dc8 2b3e 44a9 173e ef1f 05bc
00000360: 7d7e 743d b631 a03d a304 5d3e 9ebf fbbd
00000370: 48a9 16be 98ef 133e 2603 2cbd 98a9 b53d
00000380: 5b08 57be b29e 533e 1eed 133e 7c8b 5cbc
00000390: 539a 57bc 943d a7bd 8e0f f1bd 1798 c7bd
000003a0: 1799 67be e8aa 08be 6ef7 32be 3d65 00bc
000003b0: 4b65 15be beeb 04be 1625 403e a3f0 4dbc
000003c0: 23d6 b53d 44ee ba3d 31ed 703d 4850 543e
000003d0: 370d 7fbc 3688 ec3d 932e c8bd 6642 193e
000003e0: c062 ae3d fcb9 133e da5b f8bd d69a 94bd
000003f0: dfc9 673e e50b 573d 36cc ff3d 1439 76be

actor.2.weight f4 [256, 256]
0.056625012 0.026015302 0.010903425 -0.0025327401 -0.08084325 0.019519113 0.023091894 -0.016903717
0.040627923 0.042112947 0.010111129 -0.037506104 0.033159573 0.042718504 0.030427031 -0.050672613
-0.03523323 0.08961678 -0.06989579 0.06741515 0.20086111 0.018478265 -0.06476816 -0.15411471
0.09983227 -0.09363721 0.03341569 0.0044196704 -0.035537004 -0.12995963 0.0035304136 -0.053719334
-0.035558414 0.030579971 -0.078813985 0.03755609 -0.050231367 -0.28132874 -0.06925593 0.0014503266
-0.09291125 -0.04695302 0.05314995 -0.31637782 -0.041638043 -0.1093328 0.047503993 0.027137032
-0.07905588 0.054495957 0.027435744 0.19357857 0.07319088 0.2928833 -0.042600818 -0.008084017
-0.076241545 0.029894682 -0.12236182 -0.09062213 0.04279119 -0.052303813 0.04361177 -0.102448225
0.0655327 0.0830144 -0.1816715 -0.012435955 -0.032373816 -0.08215164 -0.03385027 0.05304261
0.049608964 0.030363893 -0.13720937 -0.0151925245 -0.01889309 0.12546143 0.051183395 0.012038943
0.05547154 0.058913093 0.07065138 0.025959188 -0.13561901 0.047030006 -0.033639517 0.098551616
-0.051931836 0.04150156 0.024747828 0.011463355 -0.054461807 0.037254892 -0.04813903 -0.0030017656
0.07090713 -0.07857274 0.04428032 0.021013277 -0.008184877 0.12328869 0.06983196 0.09140953
-0.03840082 -0.077582896 0.027047945 -0.0003258434 -0.0043616807 -0.011334538 -0.033426523 -0.04092423
-0.04449991 0.073085435 -0.060047615 -0.0032221924 -0.079190865 0.059088103 0.17518772 -0.033938915
0.035358634 0.08172817 0.057396796 0.053064525 0.06636914 -0.06445126 0.07609465 0.047443874
-0.10896379 -0.059796296 0.12758353 0.09152523 -0.07369286 0.06224368 0.019178914 0.055239633
0.06997549 -0.042040702 0.027684731 -0.110776044 0.083215676 0.0031009451 0.09249421 -0.1625503
-0.03358402 -0.12103452 0.05116799 -0.092402264 0.059103664 -0.02517539 0.02252289 -0.028564468
0.067316465 -0.05694781 0.03441975 0.03574274 0.025572918 -0.07643686 0.002391678 0.02479215
0.08195692 -0.010366631 -0.060470134 -0.044697765 -0.051271107 0.02567097 0.044104192 0.042759907
-0.005920257 -0.03909148 0.09871087 0.074787125 0.049845487 0.057813384 -0.015449442 -0.10022933
0.07289439 0.061199974 -0.011667919 0.041874863 -0.118371196 -0.15118535 0.016367618 -0.032278277
0.14375493 0.074279614 0.061023775 0.04415984 -0.01423799 -0.025458533 -0.05282161 0.06229732
0.16387711 0.094285674 0.09377428 -0.01657457 0.06800206 -0.03541701 0.021769809 -0.008964201
-0.014687065 0.06891029 -0.13654828 0.11496098 0.13580309 -0.015731037 0.015009279 -0.023669194
-0.04197117 0.09699292 0.06610982 0.06411855 0.004564401 0.055454034 -0.051453803 -0.08444932
0.085132085 -0.1565991 0.16154861 -0.010404494 0.047689103 0.02690728 -0.07060515 -0.04790322
0.098438784 0.107989505 0.09632513 -0.029012626 -0.10777293 -0.02285745 0.013324997 -0.0037802323
0.021051995 -0.0967113 -0.03862633 -0.07480626 -0.010002292 0.1513097 -0.046510372 0.07988488
0.011830273 -0.07592821 -0.007870106 0.012299111 0.10849233 -0.063818395 -0.01211162 0.024648502
0.10598386 0.014202241 -0.08190297 0.028082127 0.09570002 -0.09022048 0.024676677 -0.0007337409
00000000: a1ef 673d 0b1e d53c 47a4 323c 54fc 25bb
00000010: 2591 a5bd 8ce6 9f3c 362b bd3c aa79 8abc
00000020: 7769 263d a07e 2c3d 26a9 253c 00a0 19bd
00000030: 55d2 073d 99f9 2e3d 1c42 f93c 168e 4fbd
00000040: b850 10bd 0189 b73d 8625 8fbd f410 8a3d
00000050: 89ae 4d3e bb5f 973c 2ba5 84bd 3fd0 1dbe
00000060: dc74 cc3d dec4 bfbd e4de 083d e2d2 903b
00000070: 408f 11bd 2314 05be 835e 673b ce08 5cbd
00000080: b3a5 11bd d982 fa3c 3a69 a1bd 6ad4 193d
00000090: 68bf 4dbd 520a 90be 0ed6 8dbd e318 be3a
000000a0: 4148 bebd cf51 40bd c3b3 593d 46fc a1be
000000b0: a78c 2abd e0e9 dfbd 8c93 423d 7b4e de3c
000000c0: 0de8 a1bd 2737 5f3d edc0 e03c 7639 463e
000000d0: 1ae5 953d cdf4 953e 327e 2ebd d372 04bc
000000e0: 8724 9cbd b1e5 f43c d598 fabd 1898 b9bd
000000f0: d145 2f3d 863c 56bd 41a2 323d 60d0 d1bd
00000100: 0236 863d 7403 aa3d 1808 3abe 2dc0 4bbc
00000110: 689a 04bd 1e3f a8bd 95a6 0abd 3543 593d
00000120: c532 4b3d b3bd f83c 9d80 0cbe 11ea 78bc
00000130: aec5 9abc f678 003e aea5 513d fd3e 453c
00000140: 2036 633d db4e 713d acb1 903d 5da8 d43c
00000150: b6df 0abe 89a2 403d 97c9 09bd 6ed5 c93d
00000160: 7ab6 54bd 8afd 293d f5bb ca3c ccd0 3b3c
00000170: 5813 5fbd 9698 183d 6e2d 45bd 45b9 44bb
00000180: c237 913d bfea a0bd 485f 353d 0924 ac3c
00000190: dd19 06bc c87e fc3d 0f04 8f3d eb34 bb3d
000001a0: 2e4a 1dbd c8e3 9ebd a793 dd3c f6d5 aab9
000001b0: 6eec 8ebb 80b4 39bc 40ea 08bd 2aa0 27bd
000001c0: 8a45 36bd d1ad 953d 7df4 75bd 6b2b 53bb
000001d0: d22e a2bd 5e06 723d 6964 333e 8803 0bbd
000001e0: 37d4 103d 1961 a73d e718 6b3d 305a 593d
000001f0: 8bec 873d 06ff 83bd 83d7 9b3d 8254 423d
00000200: 6828 dfbd f6ec 74bd 42a5 023e 9471 bb3d
00000210: 48ec 96bd 3bf3 7e3d 191d 9d3c f442 623d
00000220: 4f4f 8f3d df32 2cbd 17cb e23c 8dde e2bd
00000230: fb6c aa3d 3a39 4b3b 9b6d bd3d 9673 26be
00000240: 668f 09bd f2e0 f7bd 8795 513d 663d bdbd
00000250: af16 723d 9f3c cebc ec81 b83c 0800 eabc
00000260: 37dd 893d 1b42 69bd b9fb 0c3d fb66 123d
00000270: 4c7e d13c ee8a 9cbd b3bd 1c3b e818 cb3c
00000280: 08d9 a73d cdd8 29bc 88af 77bd 0115 37bd
00000290: a701 52bd ed4b d23c 99a6 343d 0325 2f3d
000002a0: b7fe c1bb 631e 20bd ed28 ca3d fe29 993d
000002b0: c82a 4c3d bacd 6c3d a81f 7dbc 0945 cdbd
000002c0: a749 953d d3ac 7a3d cd2a 3fbc fa84 2b3d
000002d0: 996c f2bd 55d0 1abe 6215 863c 3a36 04bd
000002e0: 7e34 133e e91f 983d 11f4 793d f3e0 343d
000002f0: 7546 69bc 6a8e d0bc 795b 58bd 7a2b 7f3d
00000300: 67cf 273e d918 c13d bb0c c03d 65c7 87bc
00000310: aa44 8b3d 6d11 11bd 9956 b23c 96de 12bc
00000320: 04a2 70bc d720 8d3d 50d3 0bbe aa70 eb3d
00000330: f70f 0b3e 60de 80bc 7be9 753c e6e5 c1bc
00000340: f6e9 2bbd 39a4 c63d 9664 873d 9650 833d
00000350: f990 953b c523 633d 39c1 52bd c4f3 acbd
00000360: bb59 ae3d 845b 20be 006d 253e 9c77 2abc
00000370: a655 433d a86c dc3c 6f99 90bd 2b36 44bd
00000380: 469a c93d 9a29 dd3d 1c46 c53d e3ab edbc
00000390: 0eb8 dcbd 8c3f bbbc 1751 5a3c c6bd 77bb
000003a0: 3c75 ac3c 9310 c6bd a536 1ebd 0634 99bd
000003b0: a7e0 23bc eef0 1a3e a981 3ebd af9a a33d
000003c0: c3d3 413c 4080 9bbd 9ef1 00bc 3682 493c
000003d0: 3a31 de3d 38b3 82bd d16f 46bc a8eb c93c
000003e0: 110e d93d 84b0 683c bfbc a7bd 7d0c e63c
000003f0: 5ffe c33d 84c5 b8bd be26 ca3c 8558 40ba
