models/mec_policy_ep6000.pth (torch, 576658 bytes, 11 tensors)

critic.0.weight f4 [256, 19]
-0.16011065 0.18747616 -0.08116577 -0.03285553 -0.18858942 0.109070405 -0.4640772 -0.20797266
0.48883897 0.328287 0.17895658 0.05195439 -0.035710424 0.22087415 -0.20185567 -0.091314934
-0.091496296 0.12697092 -0.145804 0.14911316 -0.1097213 -0.20229091 0.13998511 0.11911361
-0.054110646 0.5657688 0.004147063 -0.16785248 -0.14681278 -0.050990105 0.46483454 -0.15605667
-0.19925882 -0.1288009 0.053684443 0.017828692 0.103977814 0.17073753 -0.118655615 0.31505868
-0.011231141 -0.016990801 0.0004657656 -0.2277895 0.4919291 0.090313375 -0.4389328 0.16027778
0.12541981 -0.08634998 0.007928909 0.05068106 0.0724933 -0.014046446 0.20059136 -0.031057913
-0.10813027 0.106409155 0.058303658 -0.24346559 -0.023888275 0.013169691 -0.18856916 -0.27597535
-0.0014341824 0.459355 -0.062011477 0.14078669 0.5266482 -0.17477027 -0.11622152 0.09048373
-0.12961675 0.11147883 0.023544662 0.12660195 0.06815393 -0.07786659 -0.14102378 -0.024369331
-0.11917614 0.21423529 0.77030194 0.03391582 0.22922862 0.08777297 0.060179368 0.48976055
0.11905435 0.06519999 -0.18648355 -0.004406973 0.15397374 -0.06982798 0.059291773 -0.22851929
-0.08401158 0.016375072 0.10736977 -0.01904434 0.060851052 -0.41674054 -0.21097729 -0.16678156
0.22026712 0.15832548 0.7559929 -0.26159367 0.19054393 -0.19237062 -0.14498915 -0.06653893
-0.23986863 0.013286557 -0.07369055 -0.123840146 -0.15119381 0.1210496 -0.12847161 0.17505683
0.7063911 0.18049245 0.18330802 0.016513811 -0.08069381 0.07159901 -0.1605974 -0.17796452
-0.2083618 0.15711327 -0.0930013 -0.13648309 -0.198694 0.16806385 0.032046035 0.09180073
0.09582736 -0.1395686 -0.18295947 -0.39843217 0.22956932 0.17071262 0.2190946 0.19257717
0.31215608 -0.12006143 0.25719303 -0.14191277 -0.076664664 -0.044524003 -0.14823368 0.12340263
-0.119667634 -0.34880203 0.02590563 -0.19536361 -0.098359406 0.049365714 0.49124214 -0.05404744
0.2129543 -0.05879952 -0.060740992 0.5446128 0.0026997926 -0.32336828 0.18802401 -0.13070844
-0.11960732 -0.2966584 -0.006228035 0.047529347 -0.21891172 -0.20870058 -0.025318565 -0.22517247
-0.22285931 -0.317734 -0.3798357 -0.22423784 0.0036274057 0.16679491 0.34991705 0.22098319
-0.2181721 0.048960812 -0.12841052 -0.1821252 0.060489126 0.07828018 -0.07911912 -0.06284703
0.12690058 -0.051105976 0.018178895 -0.22475787 0.33509302 -0.1596937 -0.4507378 -0.19136831
-0.13733357 -0.4167124 -0.03746606 0.30666202 0.120499454 -0.006554454 0.03427376 0.18147933
0.13036141 0.06970163 0.12455773 -0.053298205 0.18245462 -0.044078916 -0.15161318 0.5833139
-0.1701453 -0.057502422 -0.25328958 -0.22408214 -0.7166707 0.17259848 0.08231455 -0.062428378
-0.13667937 -0.16858251 0.080184504 0.21544376 0.098740265 -0.107142165 -0.12714392 0.16624717
0.08750568 0.07870729 -0.5011671 -0.22462063 0.02917654 -0.110842235 0.029902384 0.6323056
0.050491095 0.28132525 -0.2928692 0.04934494 -0.24350314 -0.12128452 -0.14827512 -0.17591217
0.1390545 -0.10441637 0.084796526 0.016612783 0.16909705 -0.6353914 0.15437359 0.14616719
00000000: 0cf4 23be c0f9 3f3e 3d3a a6bd 8593 06bd
00000010: 961d 41be 4e60 df3d 879b edbe c9f6 54be
00000020: 1a49 fa3e 3c15 a83e 6540 373e 20ce 543d
00000030: 1845 12bd d52c 623e 41b3 4ebe 5303 bbbd
00000040: 6962 bbbd aa04 023e a54d 15be 1fb1 183e
00000050: 90b5 e0bd 5925 4fbe 4258 0f3e d6f1 f33d
00000060: 20a3 5dbd 39d6 103f 16e4 873b 85e1 2bbe
00000070: 1756 16be 00db 50bd cbfe ed3e 52cd 1fbe
00000080: 810a 4cbe 62e4 03be 38e4 5b3d 7a0d 923c
00000090: 52f2 d43d d2d5 2e3e b701 f3bd 5f4f a13e
000000a0: d202 38bc 4b30 8bbc 0032 f439 a741 69be
000000b0: 22de fb3e 38f6 b83d cdbb e0be dc1f 243e
000000c0: 0d6e 003e 42d8 b0bd 41e8 013c f196 4f3d
000000d0: 5e77 943d 1123 66bc d267 4d3e 2a6d febc
000000e0: 6773 ddbd 0bed d93d d1cf 6e3d 0b4f 79be
000000f0: 58b1 c3bc b0c5 573c 4618 41be a44c 8dbe
00000100: 2dfb bbba 9430 eb3e bfff 7dbd 632a 103e
00000110: 6bd2 063f faf6 32be 8c05 eebd 894f b93d
00000120: 41ba 04be 034f e43d bce0 c03c f1a3 013e
00000130: 4a94 8b3d 8578 9fbd 8a68 10be 31a2 c7bc
00000140: 9f12 f4bd 7f60 5b3e 8232 453f 51eb 0a3d
00000150: e8ba 6a3e 51c2 b33d a47e 763d e5c1 fa3e
00000160: c4d2 f33d 9387 853d 8bf5 3ebe 5e68 90bb
00000170: 4bab 1d3e f901 8fbd eedb 723d f600 6abe
00000180: 430e acbd 0425 863c afe4 db3d e002 9cbc
00000190: f43e 793d 045f d5be 6e0a 58be c9c8 2abe
000001a0: b48d 613e 1320 223e c088 413f 9bef 85be
000001b0: f31d 433e cefc 44be 0978 14be 9045 88bd
000001c0: 1fa0 75be dcaf 593c 12eb 96bd e79f fdbd
000001d0: 8dd2 1abe dae8 f73d 108e 03be 1942 333e
000001e0: 0cd6 343f 03d3 383e 19b5 3b3e f947 873c
000001f0: cc42 a5bd 80a2 923d a573 24be 553c 36be
00000200: cc5c 55be 4de2 203e 7777 bebd 39c2 0bbe
00000210: 7176 4bbe ee18 2c3e b442 033d 0502 bc3d
00000220: 2341 c43d 12eb 0ebe ba59 3bbe 4dff cbbe
00000230: 3814 6b3e 4acf 2e3e 565a 603e f332 453e
00000240: ecd2 9f3e c4e2 f5bd ceae 833e 9551 11be
00000250: 5d02 9dbd cd5e 36bd 92ca 17be 85ba fc3d
00000260: 4e14 f5bd 2e96 b2be 0b38 d43c 660d 48be
00000270: a870 c9bd b433 4a3d 1784 fb3e d960 5dbd
00000280: b110 5a3e c4d7 70bd 8ccb 78bd bf6b 0b3f
00000290: 01ef 303b 8790 a5be 5e89 403e 6fd8 05be
000002a0: aff4 f4bd 9ce3 97be 8b14 ccbb 22ae 423d
000002b0: 652a 60be 9bb5 55be e168 cfbc 9d93 66be
000002c0: 3b35 64be 08ae a2be d379 c2be 9b9e 65be
000002d0: c5b9 6d3b 49cc 2a3e 5428 b33e 6b49 623e
000002e0: 8268 5fbe 228b 483d 0c7e 03be 077f 3abe
000002f0: 72c3 773d 5c51 a03d 3509 a2bd f2b5 80bd
00000300: 3af2 013e 8054 51bd e8eb 943c ed26 66be
00000310: 5091 ab3e bf86 23be 1bc7 e6be 0ef6 43be
00000320: 2ca1 0cbe 545b d5be 0376 19bd ce02 9d3e
00000330: 6bc8 f63d bfc6 d6bb a462 0c3d b8d5 393e
00000340: 767d 053e babf 8e3d 2018 ff3d 384f 5abd
00000350: 62d5 3a3e 188c 34bd 7c40 1bbe 0f54 153f
00000360: 923a 2ebe a987 6bbd 2caf 81be ca75 65be
00000370: bb77 37bf a8bd 303e 8894 a83d e6b4 7fbd
00000380: adf5 0bbe e5a0 2cbe c637 a43d 4a9d 5c3e
00000390: 5638 ca3d 5a6d dbbd 0432 02be b33c 2a3e
000003a0: 2e36 b33d 4a31 a13d 7d4c 00bf f302 66be
000003b0: a403 ef3c 4101 e3bd d8f5 f43c c8de 213f
000003c0: c0cf 4e3d dd09 903e f4f2 95be eb1d 4a3d
000003d0: e358 79be 0564 f8bd 6fd5 17be 5222 34be
000003e0: 4e64 0e3e 40d8 d5bd cda9 ad3d 8817 883c
000003f0: c727 2d3e 03a9 22bf 1c14 1e3e daac 153e

critic.0.bias f4 [256]
-0.00014115164 0.20105532 -0.18196905 0.14281206 -0.063206926 0.24606653 0.18610947 0.07522951
0.098819375 -0.21104248 -0.18459149 0.056588273 -0.16538033 0.24829793 0.11672394 0.011596976
-0.019273492 -0.14262347 -0.16424409 0.14596406 -0.12770337 0.014997541 0.06734466 -0.12854517
-0.031724416 -0.09495025 -0.25559914 0.023047509 0.19083661 -0.12927991 -0.08215758 -0.051999904
0.23158595 0.010148401 0.05956806 -0.048761293 0.13313782 -0.11534027 0.09899331 -0.08034402
0.13556428 -0.14034174 0.17820522 -0.09789038 0.119394176 0.08167244 -0.05612381 0.04054946
0.09105821 0.09536165 -0.14010559 -0.09200608 0.040818468 -0.0048903213 -0.19802523 0.06855071
-0.14249256 0.03446517 -0.08282095 0.17388006 0.14067279 -0.09823418 0.2420182 0.12651555
-0.03300999 -0.12608613 0.066658534 0.18834876 -0.073735096 -0.06771885 -0.11546882 0.1523374
-0.00049369567 -0.034578834 0.12725799 -0.092187814 -0.14499648 0.15786208 -0.08655772 0.1586123
-0.033169292 0.14969057 0.23544408 0.0033818071 -0.07768918 0.2502431 -0.094363496 0.08750366
-0.019539295 -0.09990205 -0.11946928 0.016389716 -0.14156629 -0.022550901 0.0987674 -0.020952206
0.13607067 -0.19990914 0.09841955 -0.17533758 -0.15073532 0.0011264277 0.11113947 -0.13314614
-0.13575464 0.10421477 -0.048980575 0.014149024 0.04188706 -0.18253043 -0.10075011 0.116579585
0.1035878 0.18620674 0.13077481 -0.22671938 0.07572384 -0.08285634 0.009576667 -0.12641014
-0.13404882 0.08351408 -0.17809615 0.035921276 0.14402328 -0.22016203 0.06411908 0.083541304
-0.07866604 0.13842468 0.08372692 -0.13399287 -0.0030694345 0.01203506 0.093276896 -0.07457159
0.021972464 0.064624876 0.20058413 0.06839667 0.08653046 0.09916795 -0.010688588 -0.032360807
-0.08417501 -0.100929245 0.0015945026 0.1185476 -0.1529798 -0.04743185 -0.21576922 -0.18932377
-0.08397925 0.1984591 -0.16769367 -0.114015035 0.13804844 0.07213876 0.16933157 -0.12489172
0.28060085 0.00937236 -0.03184322 0.029772973 -0.059922125 -0.15949205 -0.08072036 -0.004615065
-0.061125044 -0.082899265 -0.051015563 0.22622122 -0.011924094 0.18405762 -0.12615027 0.1702378
-0.050376374 0.054910105 -0.034855112 -0.054155618 -0.004255551 -0.097712934 0.116982624 -0.023821102
-0.20357226 0.11533955 -0.17418793 -0.12546085 -0.1539979 -0.13868135 -0.10510759 0.053102158
0.090705745 0.12765299 0.26846758 -0.10884508 0.19561388 0.21958706 0.21205953 -0.04968633
-0.15949383 -0.0106493225 -0.048043236 -0.0521212 0.091762066 0.041091636 -0.13251959 0.1412059
-0.07027021 0.14256476 0.12574652 0.14541279 -0.017965775 -0.065982774 0.12628017 0.18365775
0.15285937 0.16528933 0.067179516 0.18466814 0.07137976 -0.09232413 0.0495704 -0.0138904005
-0.21355258 0.18009418 0.082504466 0.18821 0.21422422 0.12072941 0.17898506 -0.12088916
-0.08190913 0.24865551 -0.15894812 -0.032000076 0.11494706 -0.075466305 -0.24919899 0.0019116987
-0.15913196 -0.18930325 0.14492692 -0.1761391 -0.23294944 -0.1857924 -0.03559421 -0.029528275
-0.22385195 0.16867802 -0.14764203 -0.20575997 0.19718808 -0.24292353 0.14504918 0.16974175
00000000: 1b02 14b9 72e1 4d3e 1856 3abe 533d 123e
00000010: a272 81bd ddf8 7b3e 7b93 3e3e ee11 9a3d
00000020: d061 ca3d 851b 58be 8d05 3dbe 1bc9 673d
00000030: 7659 29be d041 7e3e f60c ef3d 3e01 3e3c
00000040: 71e3 9dbc e30b 12be 9a2f 28be 9a77 153e
00000050: acc4 02be 3fb8 753c ffeb 893d 58a1 03be
00000060: 76f1 01bd 4775 c2bd e4dd 82be 21ce bc3c
00000070: ac6a 433e f461 04be 3c42 a8bd dafd 54bd
00000080: de24 6d3e 7b45 263c a3fd 733d ecb9 47bd
00000090: 4855 083e 8537 ecbd 01bd ca3d 688b a4bd
000000a0: 5dd1 0a3e bfb5 0fbe 6e7b 363e c07a c8bd
000000b0: ef84 f43d e143 a73d 15e2 65bd 3117 263d
000000c0: ba7c ba3d f84c c33d d777 0fbe af6d bcbd
000000d0: 4431 273d fd3e a0bb 20c7 4abe 5164 8c3d
000000e0: 92e9 11be 5a2b 0d3d 089e a9bd 9d0d 323e
000000f0: 870c 103e 002f c9bd 9ed3 773e 4b8d 013e
00000100: 7c35 07bd b91c 01be 4584 883d 7fde 403e
00000110: 6d02 97bd 2eb0 8abd eb7a ecbd 56fe 1b3e
00000120: 5b6b 01ba 89a2 0dbd eb4f 023e f7cc bcbd
00000130: f579 14be 99a6 213e 2d45 b1bd 436b 223e
00000140: 86dc 07bd 7c48 193e 4118 713e 4fa1 5d3b
00000150: 811b 9fbd dd1f 803e a641 c1bd 1e35 b33d
00000160: df10 a0bc 7299 ccbd 4fac f4bd ba43 863c
00000170: c1f6 10be abbc b8bc 9046 ca3d f6a3 abbc
00000180: 1c56 0b3e fbb4 4cbe 3090 c93d b28b 33be
00000190: 5c5a 1abe a4a4 933a 179d e33d 7657 08be
000001a0: 4403 0bbe 8e6e d53d db9f 48bd 4fd1 673c
000001b0: c491 2b3d 42e9 3abe 1356 cebd 47c1 ee3d
000001c0: d725 d43d fbac 3e3e d5e9 053e 2029 68be
000001d0: 1a15 9b3d 96b0 a9bd 74e7 1c3c a971 01be
000001e0: 1844 09be 6e09 ab3d d65e 36be 3022 133d
000001f0: d77a 133e 2872 61be dd50 833d b417 ab3d
00000200: a91b a1bd 33bf 0d3e 0579 ab3d 6d35 09be
00000210: 9128 49bb b32e 453c f507 bf3d fdb8 98bd
00000220: 99ff b33c 0c5a 843d ed65 4d3e 8e13 8c3d
00000230: e236 b13d 9118 cb3d 301f 2fbc c48c 04bd
00000240: f363 acbd feb3 cebd a1fe d03a 16c9 f23d
00000250: bda6 1cbe e647 42bd 9bf2 5cbe 17de 41be
00000260: 50fd abbd dd38 4b3e e4b7 2bbe b780 e9bd
00000270: 925c 0d3e 7cbd 933d 4165 2d3e 3bc7 ffbd
00000280: eaaa 8f3e 878e 193c 096e 02bd 73e6 f33c
00000290: e770 75bd e251 23be b750 a5bd f939 97bb
000002a0: 415e 7abd 17c7 a9bd b2f5 50bd 89a6 673e
000002b0: 465d 43bc 9a79 3c3e 892d 01be d152 2e3e
000002c0: 7557 4ebd 6be9 603d 3cc4 0ebd 48d2 5dbd
000002d0: 2672 8bbb b81d c8bd 9694 ef3d 7924 c3bc
000002e0: 3f75 50be 2437 ec3d 525e 32be cf78 00be
000002f0: a0b1 1dbe 7c02 0ebe a642 d7bd a681 593d
00000300: efc3 b93d 77b7 023e 9574 893e 2bea debd
00000310: 014f 483e 6edb 603e 2226 593e e583 4bbd
00000320: 5a52 23be 7f7a 2ebc fcc8 44bd 0a7d 55bd
00000330: c0ed bb3d b44f 283d 37b3 07be 4898 103e
00000340: d4e9 8fbd 7ffc 113e b2c3 003e 17e7 143e
00000350: f62c 93bc fa21 87bd 974f 013e c710 3c3e
00000360: 2b87 1c3e 9b41 293e 6a95 893d a519 3d3e
00000370: 8d2f 923d 6f14 bdbd 550a 4b3d 9094 63bc
00000380: 87ad 5abe 9c6a 383e 1af8 a83d 1fba 403e
00000390: 985d 5b3e fb40 f73d dc47 373e bc94 f7bd
000003a0: f9bf a7bd 8d9f 7e3e 4cc3 22be 8312 03bd
000003b0: 5d69 eb3d 148e 9abd 052e 7fbe f791 fa3a
000003c0: 7df3 22be b6d8 41be b967 143e cf5d 34be
000003d0: 4c8a 6ebe 5d40 3ebe 3ccb 11bd 48e5 f1bc
000003e0: 7239 65be eeb9 2c3e 792f 17be beb2 52be
000003f0: aceb 493e f2c0 78be c687 143e c8d0 2d3e

critic.2.weight f4 [256, 256]
-0.33804515 0.0071029784 0.28291065 -0.1252084 -0.024260668 -0.64289254 -0.05680652 -0.12597242
-0.016962694 -0.016052337 0.11942715 0.18189794 -0.16999622 -0.08402563 0.01148909 -0.3229522
0.39704055 -0.057971735 -0.069622554 0.24412966 0.20512366 0.33909976 0.23671167 -0.028643014
0.054520655 0.07400072 0.15767853 0.046789 0.14816351 -0.22737719 -0.40010262 -0.13828902
-0.26525214 0.13929304 -0.2352533 0.09125008 -0.032864735 -0.12568593 -0.085697666 0.26225758
0.014864194 0.3545786 -0.4156048 -0.02964634 -0.02863689 0.23603503 -0.17500034 -0.22712196
0.36368614 0.15126625 0.039153673 0.5240368 0.015093701 -0.032603674 0.1022257 0.036374032
0.19681755 -0.044937383 0.017496545 -0.07798375 -0.18099879 0.0041020797 -0.07820452 -0.22884777
0.055121146 -0.1799474 -0.05272401 -0.12666708 0.20963112 0.15790662 0.19320138 0.08351136
0.31902558 0.33445793 0.08778799 -0.40105367 -0.3302057 0.2607596 -0.109989725 0.2002348
0.02931725 0.13362406 -0.32024482 -0.31961653 0.1419194 0.0714733 -0.040676054 -0.12335037
0.21213533 -0.09967061 -0.038949292 0.10642269 -0.12884773 0.12660289 -0.24564579 -0.058732178
0.23572595 -0.076575354 -0.24476448 0.13234307 -0.07081902 -0.114326544 0.006040929 0.0039246343
-0.100780174 0.005122513 -0.1403616 -0.023158917 -0.061045047 -0.0419518 -0.20615946 -0.11775944
-0.3126905 -0.2395425 -0.16470642 -0.22995128 0.04880868 -0.04524862 0.0044574426 0.34725493
-0.02389997 0.0074830432 0.062735334 -0.039728276 0.2052835 0.109907776 0.044612147 0.05414356
0.13199602 0.016802358 0.18271102 0.1281195 0.05731625 -0.12156512 -0.17535315 -0.36820528
0.19238515 0.028926661 -0.006657786 0.26546928 -0.10324347 -0.14973275 0.05365318 -0.1376564
0.18675901 0.08801206 -0.30924413 -0.14330517 -0.039061975 0.06890974 0.25513723 -0.011585137
0.015400071 -0.059390813 -0.099000774 -0.29420242 -0.061382074 -0.0067587662 -0.18625468 0.26241037
-0.15811633 0.0636458 0.45705652 -0.14313939 -0.23124754 -0.11895043 -0.073940605 -0.019526392
0.08366258 0.122864924 -0.047518294 0.038608603 -0.10956467 -0.006842271 -0.03748208 -0.010042208
0.3582912 -0.05880832 -0.28053665 -0.13837409 0.32387853 -0.07798907 -0.19138654 -0.08652389
0.05389401 -0.14292184 0.16838813 -0.12573978 -0.12281209 -0.0007566748 0.117707565 0.13919732
-0.023800237 -0.2865047 -0.014806677 -0.16132757 0.21414539 0.037599534 -0.07342682 -0.06177361
0.2956393 0.2637655 0.32156122 -0.07847587 0.19107613 0.31650743 0.28909358 0.5169683
0.13153638 0.047158707 -0.06829791 0.010685604 -0.22869213 -0.008829383 -0.17226295 -0.016375449
0.20102106 -0.19707185 -0.074134834 -0.2677304 -0.13735689 0.13882619 0.05821012 0.11284521
0.18097937 0.14119664 -0.054427788 0.28995258 -0.3197493 -0.17585456 -0.010953118 0.12009177
0.24034081 0.25400922 -0.16005519 0.19800429 0.0014184013 0.26099804 -0.11337453 0.020493701
-0.12618487 -0.19947973 0.29891387 0.44616437 0.16586548 0.25298738 0.035472352 -0.16889168
0.022878168 0.12939197 0.43811306 -0.0511388 -0.04210451 0.297075 0.038302973 -0.017342301
00000000: 4114 adbe 1ac0 e83b aad9 903e a136 00be
00000010: 4fbe c6bc 9b94 24bf f4ad 68bd eafe 00be
00000020: 59f5 8abc 3180 83bc 3996 f43d 7443 3a3e
00000030: 7d13 2ebe a115 acbd bc3c 3c3c fe59 a5be
00000040: e648 cb3e c573 6dbd 4596 8ebd 20fd 793e
00000050: f00b 523e 7c9e ad3e 8b64 723e c1a4 eabc
00000060: 0d51 5f3d b18d 973d 7b76 213e d3a5 3f3d
00000070: 2db8 173e 91d5 68be 40da ccbe a39b 0dbe
00000080: 21cf 87be d6a2 0e3e 3ee6 70be 52e1 ba3d
00000090: 2c9d 06bd d0b3 00be 4282 afbd a046 863e
000000a0: f388 733c 548b b53e 27ca d4be e2dc f2bc
000000b0: e997 eabc 2bb3 713e 4a33 33be a992 68be
000000c0: 1235 ba3e 8ae5 1a3e 9a5f 203d 4727 063f
000000d0: 924b 773c 6e8b 05bd b55b d13d f0fc 143d
000000e0: 8a8a 493e 4310 38bd ea54 8f3c f2b5 9fbd
000000f0: bf57 39be bd6a 863b b129 a0bd 1257 6abe
00000100: b6c6 613d 2244 38be 22f5 57bd 04b5 01be
00000110: 8aa9 563e 46b2 213e 95d6 453e 0108 ab3d
00000120: 5257 a33e 123e ab3e 31ca b33d e856 cdbe
00000130: b910 a9be 4882 853e 4b42 e1bd 5a0a 4d3e
00000140: bb2a f03c bfd4 083e 21f7 a3be c7a4 a3be
00000150: 5253 113e 9860 923d ef9b 26bd 1e9f fcbd
00000160: 013a 593e 1b20 ccbd 4b89 1fbd 24f4 d93d
00000170: a9f0 03be 30a4 013e 928a 7bbe 2791 70bd
00000180: 2562 713e 8ad3 9cbd 8aa3 7abe f184 073e
00000190: 9009 91bd 0924 eabd fcf2 c53b 389a 803b
000001a0: d665 cebd c1da a73b f4ba 0fbe c5b7 bdbc
000001b0: 5f0a 7abd a7d5 2bbd 771b 53be dc2b f1bd
000001c0: f818 a0be a14a 75be cda8 28be 5978 6bbe
000001d0: 9ceb 473d 9e56 39bd bd0f 923b 66cb b13e
000001e0: dfc9 c3bc 5134 f53b 627b 803d 1eba 22bd
000001f0: d635 523e 5417 e13d 3abb 363d a3c5 5d3d
00000200: f729 073e 19a5 893c 9918 3b3e c231 033e
00000210: 72c4 6a3d 22f7 f8bd c78f 33be 6785 bcbe
00000220: 9d00 453e 9bf7 ec3c 8f29 dabb 97eb 873e
00000230: 5071 d3bd 8b53 19be 70c3 5b3d cdf5 0cbe
00000240: c13d 3f3e ab3f b43d 3f55 9ebe 97be 12be
00000250: 73ff 1fbd 8d20 8d3d 59a1 823e 96cf 3dbc
00000260: 9450 7c3c c843 73bd ebc0 cabd b3a1 96be
00000270: c56b 7bbd a478 ddbb 8cb9 3ebe a75a 863e
00000280: 3fe9 21be bb58 823d 5003 ea3e 2293 12be
00000290: 28cc 6cbe 489c f3bd 2c6e 97bd d0f5 9fbc
000002a0: 4957 ab3d 9ba0 fb3d 8ba2 42bd 0e24 1e3d
000002b0: 7163 e0bd 2135 e0bb cf86 19bd 1388 24bc
000002c0: f271 b73e fee0 70bd 80a2 8fbe f0b1 0dbe
000002d0: 68d3 a53e bcb8 9fbd d5fa 43be 7033 b1bd
000002e0: f7bf 5c3d 1a5a 12be f06d 2c3e eec1 00be
000002f0: e884 fbbd 965b 46ba aa10 f13d be89 0e3e
00000300: b7f8 c2bc beb0 92be b497 72bc 0e33 25be
00000310: ee48 5b3e f801 1a3d cd60 96bd 5306 7dbd
00000320: 095e 973e 460c 873e aca3 a43e f5b7 a0bd
00000330: 76a9 433e 430d a23e 1304 943e 0958 043f
00000340: 79b1 063e 7d29 413d c6df 8bbd ac12 2f3c
00000350: 452e 6abe 1ea9 10bc b365 30be ce25 86bc
00000360: 77d8 4d3e 34cd 49be 01d4 97bd f613 89be
00000370: 49a7 0cbe 7428 0e3e bc6d 6e3d 641b e73d
00000380: a852 393e da95 103e acef 5ebd aa74 943e
00000390: 2eb6 a3be 3813 34be b574 33bc adf2 f53d
000003a0: e71b 763e 7f0d 823e 82e5 23be a3c1 4a3e
000003b0: a6e9 b93a 89a1 853e e830 e8bd 68e2 a73c
000003c0: 9b36 01be 6a44 4cbe 3d0b 993e a86f e43e
000003d0: a4d8 293e 9087 813e 754b 113d f1f1 2cbe
000003e0: ff6a bb3c 547f 043e 5b50 e03e eb76 51bd
000003f0: c775 2cbd 371a 983e 94e3 1c3d 7111 8ebc

critic.2.bias f4 [256]
-0.09075015 0.0045182556 0.03276462 -0.09825465 -0.019363932 -0.015686914 0.07746616 -0.057891525
-0.002543146 -0.075057745 -0.036073837 0.057498444 0.005361996 0.099701285 0.014935695 0.055010162
-0.029840404 -0.029971262 0.019149028 0.04133067 0.0048499396 -0.030993534 -0.09066329 0.011415031
-0.04085128 0.05901227 0.051389027 -0.03337839 0.0655004 -0.036208753 -0.06604458 0.08328746
0.07815291 0.041342895 0.091920555 -0.005284505 0.015279184 -0.03285211 -0.0032425078 -0.085567094
0.04018756 0.07677994 0.06453029 0.085157365 -0.0066710766 0.015102096 -0.021895532 0.033854384
0.027330864 0.056055695 0.009230405 -0.004248586 -0.047337297 -0.04636249 0.09569838 -0.025998255
-0.0022210628 0.0052739647 0.024186628 -0.1625485 0.075022206 -0.035475224 -0.019232692 -0.023807434
0.0099759195 0.11089064 -0.0741867 -0.008272612 -0.07047931 0.0036452485 0.010074535 0.030085038
0.012519296 0.03507268 -0.035459112 -0.00846854 0.047076453 0.023866577 0.01126632 0.041858476
0.05957274 0.015679948 -0.013305954 -0.011847898 0.07898785 -0.100983895 0.015583365 -0.037603743
0.04720267 -0.034274142 0.03008493 0.008792931 0.016838482 -0.058637522 0.012546025 -0.03360005
-0.029354524 0.022732347 0.1056959 0.08171865 0.08427734 -0.052695192 -0.0302479 0.019517737
-0.007062129 0.01902119 -0.022012781 -0.007487728 0.058254637 -0.003556448 -0.10486802 0.11297241
-0.035074756 0.05154767 -0.01735696 -0.07260569 0.054744016 0.010176884 0.036667425 0.025073785
0.034437608 -0.095073864 0.019230446 -0.030509064 0.033097424 -0.01773435 -0.025909051 -0.08159691
0.020847654 0.043060426 0.057778683 -0.0045624636 -0.03333253 -0.07071879 0.03748089 -0.0071015866
-0.005591219 -0.07405386 -0.0810674 -0.1017191 -0.074303605 0.07491488 -0.088455185 -0.01975768
-0.108078696 -0.0050739152 0.05946823 -0.010236397 -0.010719453 0.030561145 0.010024396 0.08023516
0.1131937 -0.073759936 0.007493954 -0.04386774 -0.012102615 -0.0039295335 0.023814889 0.07214408
-0.06645663 0.015627507 0.07419289 0.031467684 -0.11194769 -0.11836989 0.007302674 -0.056959033
-0.013536064 -0.07034202 0.00017820373 -0.0040058126 -0.025618298 -0.0022301192 -0.050790623 0.09896406
-0.09131824 0.026442667 0.043558385 0.013151504 -0.03561509 -0.09363141 0.07737186 0.08904822
0.046292476 0.0107783275 -0.07136712 0.016792446 0.005393674 0.034493327 -0.025642619 0.0045393812
-0.081203304 0.017684633 0.06449988 0.08844888 0.082119785 -0.01919069 0.013373104 -0.11044427
-0.004513151 -0.07925528 -0.05613586 -0.061507586 -0.071483314 -0.06867617 0.024491182 -0.0026765964
0.029629951 -0.0037273113 0.006651997 -0.040960245 -0.11400555 -0.067009345 0.09456968 0.0371735
0.009396958 0.031427443 0.028204218 -0.07014912 0.095156476 0.0570306 0.07573215 -0.076779164
0.0006514993 -0.021159168 0.001218552 -0.0824061 -0.05852765 0.10350616 -0.015830342 0.047487184
-0.035644535 0.011049702 0.022866586 0.0377686 -0.04887519 -0.05018914 0.008691385 -0.08255595
-0.047137838 -0.08612134 0.07814541 -0.038668983 -0.027436152 -0.04044123 -0.018194208 0.040604
-0.018968066 0.08702221 0.14674856 -0.05792759 0.041500382 -0.063045055 0.09106643 -0.026837358
00000000: 37db b9bd e00d 943b 3234 063d bc39 c9bd
00000010: 1ca1 9ebc d881 80bc 94a6 9e3d aa1f 6dbd
00000020: e9aa 26bb e0b7 99bd 29c2 13bd 7d83 6b3d
00000030: afb3 af3b 3030 cc3d d8b4 743c 5652 613d
00000040: dd73 f4bc 4b86 f5bc 6cde 9c3c 594a 293d
00000050: 3eec 9e3b 27e6 fdbc adad b9bd 1c06 3b3c
00000060: ac53 27bd dab6 713d 4d7d 523d c7b7 08bd
00000070: 1325 863d a14f 14bd 6142 87bd 9e92 aa3d
00000080: a20e a03d 2b57 293d d840 bc3d a429 adbb
00000090: 8b55 7a3c ef8f 06bd 4180 54bb cd3d afbd
000000a0: b69b 243d cd3e 9d3d 7528 843d fc66 ae3d
000000b0: 0c99 dabb c86e 773c 425e b3bc e5aa 0a3d
000000c0: fae4 df3c a89a 653d 203b 173c b937 8bbb
000000d0: c1e4 41bd 98e6 3dbd 83fd c33d 4bfa d4bc
000000e0: 408f 11bb 39d1 ac3b 0923 c63c 1d73 26be
000000f0: 3ea5 993d 784e 11bd e18d 9dbc cf07 c3bc
00000100: 0a72 233c a21a e33d 32ef 97bd d989 07bc
00000110: 7557 90bd 1fe5 6e3b aa0f 253c e674 f63c
00000120: bc1d 4d3c 5fa8 0f3d 933d 11bd a2bf 0abc
00000130: 3dd3 403d d783 c33c 5f96 383c cb73 2b3d
00000140: 8c02 743d 3c73 803c 3701 5abc b01d 42bc
00000150: 62c4 a13d a5d0 cebd 5f51 7f3c 6206 1abd
00000160: 9657 413d 0b63 0cbd ac74 f63c 3a10 103c
00000170: dbf0 893c e62d 70bd d88d 4d3c 35a0 09bd
00000180: e678 f0bc 3039 ba3c 1877 d83d 1c5c a73d
00000190: 9999 ac3d ead6 57bd 72ca f7bc a9e3 9f3c
000001a0: 6f69 e7bb 54d2 9b3c 2654 b4bc 9d5b f5bb
000001b0: 6a9c 6e3d 4c13 69bb 0bc5 d6bd 145e e73d
000001c0: 8caa 0fbd a623 533d 2f30 8ebc 4bb2 94bd
000001d0: 433b 603d f2bc 263c 9530 163d 8a67 cd3c
000001e0: 730e 0d3d 16b6 c2bd 2b89 9d3c 25ee f9bc
000001f0: 2a91 073d a147 91bc 383f d4bc 481c a7bd
00000200: b3c8 aa3c 2160 303d 57a9 6c3d b880 95bb
00000210: b187 08bd 03d5 90bd 9085 193d 6db4 e8bb
00000220: 8b36 b7bb 8da9 97bd aa06 a6bd 1a52 d0bd
00000230: 7d2c 98bd f96c 993d fe27 b5bd dcda a1bc
00000240: 5d58 ddbd 1643 a6bb f594 733d 90b6 27bc
00000250: a5a0 2fbc 5e5b fa3c 5d3d 243c 5552 a43d
00000260: 19d2 e73d 730f 97bd d88f f53b a9ae 33bd
00000270: 0c4a 46bc 51c3 80bb 7117 c33c 47c0 933d
00000280: 6a1a 88bd 4205 803c 71f2 973d 42e4 003d
00000290: d544 e5bd ea6b f2bd 454b ef3b e04d 69bd
000002a0: 5ec6 5dbc 7a0f 90bd 33dc 3a39 3143 83bb
000002b0: 77dd d1bc 3127 12bb d409 50bd abad ca3d
000002c0: 0f05 bbbd 4b9e d83c 476a 323d 6879 573c
000002d0: 21e1 11bd d3c1 bfbd 2375 9e3d ea5e b63d
000002e0: 2e9d 3d3d 9597 303c ed28 92bd 5090 893c
000002f0: 6bbd b03b e048 0d3d 7810 d2bc 17bf 943b
00000300: eb4d a6bd 5ddf 903c 8318 843d b024 b53d
00000310: 6b2e a83d cb35 9dbc dd1a 5b3c 9b30 e2bd
00000320: 0ee3 93bb 9850 a2bd b7ee 65bd 61ef 7bbd
00000330: d865 92bd 18a6 8cbd bba1 c83c d669 2fbb
00000340: 83ba f23c e845 74bb fff8 d93b eec5 27bd
00000350: be7b e9bd 323c 89bd c0ad c13d 3d43 183d
00000360: b3f5 193c 10ba 003d 880c e73c 58aa 8fbd
00000370: 66e1 c23d eb98 693d 7519 9b3d 653e 9dbd
00000380: 61c9 2a3a fe55 adbc d2b7 9f3a 88c4 a8bd
00000390: b0ba 6fbd 0afb d33d a2ae 81bc ec81 423d
000003a0: 0100 12bd cf09 353c b552 bb3c 3fb3 1a3d
000003b0: 5a31 48bd 2193 4dbd 5066 0e3c 1813 a9bd
000003c0: 9b13 41bd 6360 b0bd b30a a03d 5e63 1ebd
000003d0: c8c1 e0bc b4a5 25bd 050c 95bc 6150 263d
000003e0: eb62 9bbc b338 b23d 4145 163e 7b45 6dbd
000003f0: 4efc 293d c41d 81bd 0981 ba3d 05da dbbc

critic.4.weight f4 [1, 256]
0.5135694 0.43051416 -0.5672599 -0.47023815 -0.39628968 -0.43258372 -0.506997 -0.4773771
0.43190676 0.4133979 0.9324423 -0.58002937 -0.41136825 -0.44430318 0.5070031 0.5661887
0.6645248 0.40655294 -0.48171452 0.58201844 0.3759529 0.44471097 0.42404896 -0.48150745
-0.5731547 -0.3416666 0.564624 -0.47820505 -0.44325364 0.63554287 0.3940001 0.46468505
-0.9311197 -0.4996987 -0.47400585 -0.45541784 -0.45904082 -0.53603494 -0.46886584 0.50433403
-0.45318595 0.44843826 -0.40884867 0.59472746 -0.4615304 0.5932527 -0.4132171 -0.88758683
0.34567776 0.5500267 -0.52558917 -0.44714403 -0.40669793 0.42871618 0.9045568 0.4255411
0.43304068 0.52546686 -0.3838784 1.0662102 -0.48340338 -0.47895038 -0.7668846 -0.44879356
0.66257405 -0.9300956 0.47477823 0.4309688 0.4075783 -0.46957138 -0.5859112 0.51500964
0.46261045 -0.43093982 -0.4022809 -0.5738295 0.57049614 -0.42442515 -0.52303874 -0.5812159
0.5730765 -0.5418841 -0.40209386 -0.45675483 -0.50589377 -0.56680304 -0.41689372 0.35326487
-0.46877837 -0.40154508 0.5081004 -0.91050303 0.45930883 -0.4799499 -0.41587055 0.44100446
-0.42875785 -0.44965824 -0.55560243 0.44671234 -0.37819588 -0.47620133 -0.58020777 0.571774
0.53772765 -0.36298972 0.4716708 -0.42749956 -0.5871778 0.7194946 0.5168639 -1.0907706
-0.4948482 -0.6085342 0.4345388 0.4624495 -0.40098718 -0.4489655 -0.69132555 -0.5086704
-0.61170936 -0.45696554 0.488623 -0.4464141 -0.4494525 0.5583551 -0.56366104 -0.46830252
0.72275585 -0.44798043 -0.5761164 -0.48442614 -0.45874187 0.3964222 -0.41547528 -0.47543323
-0.49207842 0.509415 0.45512012 -0.4999244 0.41294676 -0.44278565 0.324668 0.45791984
-0.44768098 0.41662183 -0.5367069 -0.5302598 -0.45706108 -0.406283 -0.55104035 0.45505577
-0.86568165 0.4283323 0.47556424 0.48064104 -0.60621977 -0.46286058 0.40700698 -0.39117688
0.5179559 -0.47316957 -0.5416183 0.47818223 0.43380156 -0.8532695 -0.4040551 0.6600674
-0.5235079 0.452017 -0.5300843 -0.46516377 0.4025781 -0.7369265 -0.57596594 -0.40301427
0.7036716 -0.42214602 0.5058833 -0.41233972 -0.44748953 0.4738293 -0.42827436 -0.38015684
0.38544482 -0.41129684 0.60245365 0.4260401 -0.5705078 0.45613232 0.5108825 -0.5044024
0.46432188 -0.64362985 -0.43708757 0.48360363 -0.7097764 -0.37426487 -0.3994147 0.4568359
0.5653891 0.42839321 -0.42690682 0.5131928 0.49726036 0.39042202 -0.37578714 0.46324182
-0.45087668 0.37826076 -0.55197775 0.7524711 -0.42976624 0.58064854 0.613592 0.4195715
0.39485916 -0.39513996 0.45931944 0.51545703 0.45938176 -0.38563132 -0.485472 0.57311946
0.47147682 0.50320226 0.43760505 -0.4579541 0.4381589 -0.5958809 -0.5430111 0.45650196
-0.49358997 -0.5965534 -0.45915574 0.3691555 0.55850405 0.4355391 0.4675517 0.3943628
-0.42437923 0.39967698 -0.5553686 0.44872034 0.4010199 0.5016886 -0.43976933 -0.6019327
-0.5621442 0.35729727 -0.7587044 0.8631523 -0.49038744 0.3860626 0.7653537 0.46359393
00000000: 4979 033f 5a6c dc3e f237 11bf 0ec3 f0be
00000010: 7be6 cabe 9d7b ddbe 8eca 01bf c56a f4be
00000020: e222 dd3e e4a8 d33e 8ab4 6e3f ce7c 14bf
00000030: dc9e d2be b57b e3be f5ca 013f bef1 103f
00000040: 4c1e 2a3f b527 d03e 49a3 f6be 29ff 143f
00000050: e67c c03e 28b1 e33e f21c d93e 2588 f6be
00000060: 44ba 12bf edee aebe 338b 103f 4bd7 f4be
00000070: 24f2 e2be f0b2 223f 62ba c93e 33eb ed3e
00000080: dc5d 6ebf 82d8 ffbe e5b0 f2be 872c e9be
00000090: 6607 ebbe 9639 09bf 2f0f f0be 091c 013f
000000a0: fd07 e8be b399 e53e 9d54 d1be 0f40 183f
000000b0: b64d ecbe 69df 173f 3191 d3be e438 63bf
000000c0: adfc b03e 8dce 0c3f 038d 06bf 10f0 e4be
000000d0: b63a d0be b080 db3e 0991 673f 86e0 d93e
000000e0: 82b7 dd3e ff84 063f b68b c4be 9379 883f
000000f0: a680 f7be fc38 f5be 8d52 44bf 45c8 e5be
00000100: 749e 293f bf1a 6ebf 2216 f33e f1a7 dc3e
00000110: 1aae d03e a96b f0be 47fe 15bf acd7 033f
00000120: 47db ec3e 25a4 dcbe c3f7 cdbe 7de6 12bf
00000130: 090c 123f 414e d9be dee5 05bf 91ca 14bf
00000140: 24b5 123f ebb8 0abf 3fdf cdbe c5db e9be
00000150: 4182 01bf 011a 11bf 1873 d5be 22df b43e
00000160: b803 f0be 5197 cdbe de12 023f ba16 69bf
00000170: 872a eb3e febb f5be fcec d4be 56cb e13e
00000180: 2686 dbbe 9b39 e6be f63b 0ebf 7bb7 e43e
00000190: e4a2 c1be a9d0 f3be 7f88 14bf c85f 123f
000001a0: 85a8 093f cad9 b9be d67e f13e 39e1 dabe
000001b0: 4951 16bf cc30 383f 3151 043f 5f9e 8bbf
000001c0: be5c fdbe e6c8 1bbf df7b de3e 2ec6 ec3e
000001d0: 314e cdbe cede e5be b6fa 30bf 3938 02bf
000001e0: fc98 1cbf 63f7 e9be cb2c fa3e 6490 e4be
000001f0: a31e e6be 5cf0 0e3f 174c 10bf 59c5 efbe
00000200: 8706 393f b15d e5be 5d7c 13bf b406 f8be
00000210: 37e0 eabe daf7 ca3e 2db9 d4be fc6b f3be
00000220: b4f1 fbbe 0569 023f 8105 e93e 17f6 ffbe
00000230: c26d d33e cdb4 e2be e23a a63e 7874 ea3e
00000240: 7136 e5be 754f d53e a065 09bf 1bbf 07bf
00000250: e903 eabe 5304 d0be fb10 0dbf 12fd e83e
00000260: 509d 5dbf 5f4e db3e 287d f33e 9516 f63e
00000270: 3831 1bbf 10fc ecbe 3863 d03e 5648 c8be
00000280: c298 043f 4843 f2be 7fa7 0abf 4dd4 f43e
00000290: 3d1b de3e df6f 5abf 4fe0 cebe 2dfa 283f
000002a0: 9d04 06bf c66e e73e 9bb3 07bf f229 eebe
000002b0: b71e ce3e 37a7 3cbf 8172 13bf e357 cebe
000002c0: d223 343f 8623 d8be 9181 013f 311e d3be
000002d0: 591d e5be c199 f23e c746 dbbe eba3 c2be
000002e0: 0659 c53e 8095 d2be 673a 1a3f ee21 da3e
000002f0: cd0c 12bf 2d8a e93e 32c9 023f 8420 01bf
00000300: 99bb ed3e edc4 24bf f1c9 dfbe e59a f73e
00000310: e8b3 35bf a59f bfbe 1580 ccbe 65e6 e93e
00000320: 57bd 103f 5b56 db3e 8893 dabe 9a60 033f
00000330: e998 fe3e 65e5 c73e 2c67 c0be 082e ed3e
00000340: 4fd9 e6be 65ab c13e 6a4e 0dbf f2a1 403f
00000350: 520a dcbe 62a5 143f 5e14 1d3f 13d2 d63e
00000360: fb2a ca3e c94f cabe eb2b eb3e fef4 033f
00000370: 1634 eb3e 7871 c5be c98f f8be f5b7 123f
00000380: 6965 f13e ddd1 003f c50d e03e f678 eabe
00000390: 5d56 e03e a78b 18bf c702 0bbf a0ba e93e
000003a0: d3b7 fcbe b9b7 18bf 7616 ebbe f301 bd3e
000003b0: 1ffa 0e3f fbfe de3e f062 ef3e ece9 c93e
000003c0: 3c48 d9be 76a2 cc3e a32c 0ebf acbe e53e
000003d0: 7b52 cd3e aa6e 003f 7229 e1be 4318 1abf
000003e0: afe8 0fbf abef b63e 743a 42bf 8df7 5c3f
000003f0: 1014 fbbe ffa9 c53e 38ee 433f 2f5c ed3e

actor.0.weight f4 [256, 19]
-0.12733766 -0.13352163 0.1406414 -0.071958 -0.026201546 0.02792491 0.38875577 -0.028478026
-0.08064557 0.11679408 0.1409292 -0.2061585 0.111678 -0.06497078 -0.019644117 0.16655897
-0.11272071 0.13788718 0.06940366 -0.06040066 0.20932864 -0.032425936 -0.011326897 -0.0014551282
0.0562122 -0.430537 0.19973071 -0.10742753 0.014556492 -0.2188284 0.11615243 -0.24264489
-0.10488875 0.0047774524 0.05774619 0.09567485 0.07788884 -0.16609178 0.04713062 0.09116136
0.1458252 -0.07234885 0.17845298 -0.22253266 -0.05643734 0.06097561 -0.09945803 -0.022032734
-0.20111021 0.16458848 -0.03933713 0.22767377 0.061702542 0.028049087 0.15765521 -0.07536097
-0.26337293 -0.11091968 0.04978061 -0.09100437 0.015279212 0.16843174 -0.19559889 -0.073321834
0.12913707 -0.09113773 -0.069324814 -0.0028690994 0.1358583 -0.011178133 0.3353652 0.03149186
-0.050781973 0.15930273 -0.062048316 0.03548971 0.14797242 -0.06560621 -0.009858848 0.06800763
0.12668319 -0.119827256 -0.007982338 -0.15666428 0.14687271 -0.22205502 -0.2027996 0.26303157
-0.08842281 -0.108405486 0.05148266 -0.029322978 0.20533356 0.17098738 -0.017686907 0.07846549
-0.13148135 -0.19593118 0.06300956 -0.019669607 -0.13948366 0.11240009 0.11074606 -0.19151251
0.06424812 -0.080749035 -0.0010990533 0.23925264 -0.23599416 -0.22701213 -0.006839958 -0.12965898
-0.114573136 -0.04013971 -0.07626565 0.17216696 -0.15649599 0.17954563 -0.18509494 -0.19448575
-0.22149396 0.21830457 -0.15670787 -0.135378 0.123339966 -0.13125826 -0.2563007 0.19501983
-0.22105981 -0.027277604 0.088302456 0.047748767 0.16413333 0.18680674 -0.2104916 0.20686081
-0.108918175 0.1322421 0.18225236 -0.2943207 -0.06990427 -0.006259008 -0.097323515 -0.18350728
-0.05207718 0.2368993 0.30839124 0.044784885 -0.26716757 -0.03155271 -0.16345294 -0.16221662
0.016818086 0.050673984 -0.15988526 0.12198579 0.18912615 -0.17838149 0.022396741 -0.17966373
-0.2173319 -0.17188376 0.029073015 -0.24697116 0.25390723 -0.13133055 0.20375867 0.19429842
-0.2147527 0.0936025 0.21975711 -0.14923337 -0.2112912 0.095091514 0.15946959 -0.20461352
-0.21707615 -0.16337714 0.04700268 -0.1986061 -0.009905834 -0.21944362 -0.31162828 0.013134317
0.039504386 -0.050626244 -0.1048971 -0.08543664 0.18610182 0.3010555 0.1407905 0.16097295
-0.13325527 -0.17273198 -0.22813782 0.028000042 -0.08473024 -0.09291147 -0.07975989 -0.1053858
0.2012914 -0.3313284 0.085335776 -0.23534387 0.18762657 0.21298066 0.03504014 0.04162342
0.17103975 0.1974889 -0.040820643 -0.05476395 0.16699995 0.111116394 0.17361967 0.29151586
-0.12965389 0.1383486 -0.21019854 -0.12663642 0.061544694 0.041121162 0.017506221 -0.12536116
0.058839552 0.24729 0.08052909 -0.17018536 -0.23259939 -0.0067479075 -0.18318158 -0.003450793
0.19910176 0.047862515 0.30679157 -0.061035253 0.08526827 0.17223959 -0.09203501 -0.29916453
0.27157107 -0.0651784 -0.26815122 0.11626143 0.27743873 0.14157026 0.22269922 0.15486251
0.13669848 0.038722426 -0.23621286 0.12346099 0.113910004 0.45031664 0.11772316 -0.19202027
00000000: ce64 02be e5b9 08be 4d04 103e b75e 93bd
00000010: a0a4 d6bc c8c2 e43c ff0a c73e c04a e9bc
00000020: 8129 a5bd bc31 ef3d bf4f 103e 371b 53be
00000030: 6fb7 e43d 660f 85bd b3ec a0bc 6f8e 2a3e
00000040: 1eda e6bd 4c32 0d3e 8223 8e3d af66 77bd
00000050: 3f5a 563e 0fd1 04bd 7394 39bc 00ba beba
00000060: c43e 663d 586f dcbe 3586 4c3e f702 dcbd
00000070: 5a7e 6e3c 8d14 60be 53e1 ed3d e777 78be
00000080: eacf d6bd 2d8c 9c3b 4587 6c3d 2df1 c33d
00000090: 2f84 9f3d f713 2abe 090c 413d cfb2 ba3d
000000a0: 3453 153e a22b 94bd 61bc 363e 9adf 63be
000000b0: d72a 67bd 90c1 793d a7b0 cbbd fe7d b4bc
000000c0: d6ef 4dbe e289 283e f81f 21bd 5023 693e
000000d0: cebb 7c3d 33c7 e53c 5e70 213e da56 9abd
000000e0: d1d8 86be db29 e3bd c1e6 4b3d 8060 babd
000000f0: a955 7a3c 5f79 2c3e 134b 48be c229 96bd
00000100: 823c 043e 6ba6 babd 2bfa 8dbd 8007 3cbb
00000110: 701e 0b3e 7d24 37bc fdb4 ab3e 9cfd 003d
00000120: c200 50bd 4120 233e 6026 7ebd a85d 113d
00000130: 1586 173e 8c5c 86bd 0187 21bc 9647 8b3d
00000140: 3db9 013e fe67 f5bd 5ac8 02bc 9a6c 20be
00000150: cd65 163e 6462 63be b3aa 4fbe 13ac 863e
00000160: 0517 b5bd b203 debd 7bdf 523d be36 f0bc
00000170: f642 523e 5117 2f3e 22e4 90bc 84b2 a03d
00000180: 0ca3 06be 2fa2 48be 280b 813d 2822 a1bc
00000190: ced4 0ebe 0532 e63d d5ce e23d db1b 44be
000001a0: 8594 833d c05f a5bd 1c0e 90ba a5fe 743e
000001b0: 74a8 71be de75 68be ba21 e0bb 53c5 04be
000001c0: 52a5 eabd 8969 24bd 2a31 9cbd 894c 303e
000001d0: 7c40 20be cfda 373e 8789 3dbe 4627 47be
000001e0: 50cf 62be 3c8b 5f3e 0778 20be 88a0 0abe
000001f0: aa99 fc3d 9168 06be d839 83be 47b3 473e
00000200: 815d 62be 4875 dfbc ebd7 b43d 3694 433d
00000210: 9112 283e 444a 3f3e 1c8b 57be 52d3 533e
00000220: 7e10 dfbd 796a 073e 5da0 3a3e 34b1 96be
00000230: f829 8fbd 5d18 cdbb 8d51 c7bd 55e9 3bbe
00000240: e24e 55bd bb95 723e 75e5 9d3e 5b70 373d
00000250: 30ca 88be 6a3d 01bd 3560 27be 1d1c 26be
00000260: 15c6 893c 868f 4f3d f6b8 23be b0d3 f93d
00000270: 49aa 413e a3a9 36be 5f79 b73c c5f9 37be
00000280: 418c 5ebe 4c02 30be 882a ee3c 02e6 7cbe
00000290: 2100 823e 847b 06be 1da6 503e 2af6 463e
000002a0: 22e8 5bbe abb2 bf3d 0208 613e a2d0 18be
000002b0: b85c 58be 57bf c23d ff4b 233e 3586 51be
000002c0: 3649 5ebe 564c 27be e285 403d 665f 4bbe
000002d0: 144c 22bc d4b5 60be be8d 9fbe 5131 573c
000002e0: 5acf 213d 775d 4fbd 4ad4 d6bd 68f9 aebd
000002f0: 7a91 3e3e f223 9a3e 632b 103e 18d6 243e
00000300: 1274 08be a7e0 30be f69c 69be 5860 e53c
00000310: 0c87 adbd 5e48 bebd 2759 a3bd 83d4 d7bd
00000320: 551f 4e3e e0a3 a9be 86c4 ae3d fcfd 70be
00000330: 2e21 403e 9a17 5a3e 4086 0f3d 527d 2a3d
00000340: 0b25 2f3e 883a 4a3e 8c33 27bd 2a50 60bd
00000350: 0902 2b3e fe90 e33d 5bc9 313e 9141 953e
00000360: fdc3 04be 41ab 0d3e 493e 57be faac 01be
00000370: 4a16 7c3d aa6e 283d 3569 8f3c ad5e 00be
00000380: be01 713d 9739 7d3e 6fec a43d 1245 2ebe
00000390: 892e 6ebe 8d1d ddbb f493 3bbe b326 62bb
000003a0: 55e1 4b3e 7c0b 443d c913 9d3e 1a00 7abd
000003b0: 21a1 ae3d 935f 303e da7c bcbd 182c 99be
000003c0: 5d0b 8b3e 417c 85bd 1e4b 89be 791a ee3d
000003d0: 730c 8e3e cbf7 103e 440b 643e 4794 1e3e
000003e0: b0fa 0b3e 689b 1e3d c9e1 71be 1ed9 fc3d
000003f0: a649 e93d e78f e63e d718 f13d f6a0 44be

actor.0.bias f4 [256]
-0.0075245905 -0.032569375 0.09877517 -0.12570149 -0.055556927 0.14222199 0.10852596 0.16081569
-0.015709706 -0.014383839 0.1565587 -0.11926791 0.08206179 0.015860403 -0.023733726 0.12857425
-0.07126766 -0.03302538 0.049524147 0.08832606 0.12209632 -0.13803267 -0.15090303 -0.013945048
0.11966508 0.10872152 0.052900653 -0.12799808 0.08958258 -0.0699467 0.03586104 0.20093374
0.15711062 -0.12145421 0.044841357 0.051908545 -0.028670238 -0.034369886 -0.12053278 0.10709538
-0.19481313 0.061164904 -0.11018441 -0.0806085 0.12318093 -0.019005291 -0.04844369 -0.15200974
-0.056070603 0.11015957 0.15054399 0.15051147 0.23032306 -0.020469146 0.0057210317 -0.08177715
-0.14014155 0.1350085 0.06117456 0.11690936 0.13178092 -0.087441705 -0.18905441 -0.30851984
-0.17704321 0.027211342 0.16218384 -0.04805942 0.113809824 0.07414169 0.20916104 0.113834865
0.24047177 0.18293558 0.068478964 0.15018101 0.16727348 0.15116957 -0.0661953 0.08614563
0.07965172 -0.20246536 0.07841413 0.0040768953 -0.08697871 0.014259685 0.093625754 0.012433202
0.16564584 0.20224458 0.111553445 0.001598016 0.13907549 -0.07054544 0.21298674 -0.021601098
-0.10344734 -0.17718053 -0.008377677 0.1033533 -0.014712128 -0.11130077 -0.14940448 -0.0014770844
0.014225393 0.025889141 0.121465 0.13834469 0.05636034 -0.15932567 -0.063897155 0.055268887
0.067296006 0.22275373 -0.0066779484 -0.15777858 -0.16653384 -0.046499033 0.054585982 0.07801043
-0.19411793 0.120048955 -0.18499821 0.15214653 -0.031980466 0.053949367 0.04730463 -0.041579515
-0.116987884 0.18461068 0.18112396 0.110659376 -0.2036878 0.01315213 0.19399382 0.17333789
0.11164349 -0.1824087 -0.06669745 0.07086296 0.06392054 0.1896873 -0.00067486166 -0.114511125
0.07308357 -0.20427768 -0.0144109065 0.12011125 0.13891889 -0.090852365 -0.04167216 -0.22227623
-0.07080622 0.16821769 -0.08380477 -0.15609166 -0.16903625 -0.21127304 0.07183497 -0.17593329
-0.051027708 0.18535192 -0.078540884 0.2137332 -0.129467 -0.18646714 -0.056703724 0.09488346
0.18155473 0.15332823 -0.12561667 -0.13403535 -0.018265514 0.18783362 -0.17172787 -0.04259522
-0.15480146 0.02407054 -0.07631469 0.13681294 0.031431265 0.20195371 -0.17832208 -0.0770047
-0.053616762 -0.08249424 0.13852452 -0.239743 -0.11587037 0.14870594 -0.2191467 -0.18891664
0.016951056 0.06692151 0.061304018 0.18150222 -0.023149984 -0.15625384 0.056175686 0.034157924
0.13861497 0.061467115 0.10564262 0.10271911 0.004888513 -0.15316725 -0.16628347 -0.12626308
-0.07715363 0.05150671 -0.12667377 0.12306305 0.15587963 0.16777012 0.15108225 -0.008174143
0.05943185 0.07827175 0.21581411 -0.12312068 -0.14725997 0.14471692 -0.041776344 0.08871981
-0.21000366 0.20646152 0.144284 -0.013403524 -0.013082446 -0.081703894 -0.11760037 -0.09840183
-0.22617936 -0.13336903 -0.1749367 -0.0075003766 -0.14627486 -0.12972495 0.18762656 -0.014716178
0.08889977 0.0913695 0.058933247 0.2074727 -0.015619754 0.11521838 -0.09727148 0.1488747
0.085223325 0.14376415 -0.121438615 -0.07249412 0.22649445 0.052714217 0.124702916 -0.24013607
00000000: d790 f6bb 7767 05bd a34a ca3d e4b7 00be
00000010: a98f 63bd a4a2 113e dc42 de3d deac 243e
00000020: a4b1 80bc 32aa 6bbc ed50 203e bc42 f4bd
00000030: 0310 a83d aded 813c 3b6d c2bc f8a8 033e
00000040: c7f4 91bd 9f45 07bd d5d9 4a3d 4be4 b43d
00000050: a30d fa3d 7058 0dbe 5386 1abe c579 64bc
00000060: f712 f53d 63a9 de3d 5bae 583d ee11 03be
00000070: 1277 b73d 3740 8fbd 07e3 123d 93c1 4d3e
00000080: 9be1 203e fcbc f8bd 92ab 373d 0e9e 543d
00000090: d9dd eabc 70c7 0cbd e4d9 f6bd d354 db3d
000000a0: 187d 47be 0d88 7a3d 5da8 e1bd 1216 a5bd
000000b0: 4946 fc3d fcb0 9bbc e46c 46bd 71a8 1bbe
000000c0: 4aaa 65bd 579b e13d 3428 1a3e ae1f 1a3e
000000d0: cfd9 6b3e e9ae a7bc 7e77 bb3b c77a a7bd
000000e0: 4481 0fbe ab3f 0a3e 2d92 7a3d 2d6e ef3d
000000f0: 94f1 063e a314 b3bd 7b97 41be 50f6 9dbe
00000100: d14a 35be 52ea de3c 8513 263e f4d9 44bd
00000110: 2015 e93d 99d7 973d 502e 563e 4122 e93d
00000120: 3b3e 763e 7753 3b3e b33e 8c3d 0dc9 193e
00000130: bd49 2b3e 32cc 1a3e 6791 87bd 1f6d b03d
00000140: 7120 a33d 1453 4fbe 9697 a03d 7a97 853b
00000150: e521 b2bd 74a1 693c dcbe bf3d a1b4 4b3c
00000160: 109f 293e 3419 4f3e 2276 e43d 8574 d13a
00000170: ce69 0e3e 217a 90bd 3219 5a3e c9f4 b0bc
00000180: 33dc d3bd d06e 35be 8642 09bc e5aa d33d
00000190: 230b 71bc a8f1 e3bd 7dfd 18be ba9a c1ba
000001a0: 9f11 693c 7715 d43c a4c2 f83d 3baa 0d3e
000001b0: 1ada 663d 4526 23be 83dc 82bd a161 623d
000001c0: 7dd2 893d 8e19 643e b1d2 dabb b590 21be
000001d0: d987 2abe c575 3ebd 8d95 5f3d efc3 9f3d
000001e0: dac6 46be 3adc f53d 2c70 3dbe 4dcc 1b3e
000001f0: f3fd 02bd 03fa 5c3d 80c2 413d 484f 2abd
00000200: 5897 efbd 950a 3d3e 8f78 393e 62a1 e23d
00000210: 8993 50be 087c 573c 51a6 463e 7d7f 313e
00000220: 58a5 e43d 59c9 3abe ac98 88bd 9920 913d
00000230: c6e8 823d 633d 423e 33e9 30ba cf84 eabd
00000240: d7ac 953d 2b2e 51be b91b 6cbc e3fc f53d
00000250: c140 0e3e ce10 babd 6db0 2abd 619c 63be
00000260: da02 91bd 4241 2c3e d6a1 abbd 7ed6 1fbe
00000270: d717 2dbe f657 58be 361e 933d db27 34be
00000280: 6e02 51bd e5cc 3d3e 0bda a0bd e0dc 5a3e
00000290: ff92 04be 3ef1 3ebe 2a42 68bd 4252 c23d
000002a0: 7ce9 393e 1302 1d3e a8a1 00be 9040 09be
000002b0: 8fa1 95bc 7557 403e 6ed9 2fbe 5378 2ebd
000002c0: 4684 1ebe 952f c53c e04a 9cbd b118 0c3e
000002d0: 12be 003d f4cc 4e3e 109a 36be a4b4 9dbd
000002e0: 409d 5bbd bdf2 a8bd 5fd9 0d3e 307f 75be
000002f0: 724d edbd 5f46 183e fe67 60be 5d73 41be
00000300: f1dc 8a3c 250e 893d ec19 7b3d b8db 393e
00000310: 09a5 bdbc 0201 20be 7a18 663d 2ee9 0b3d
00000320: 15f1 0d3e f1c4 7b3d 285b d83d 665e d23d
00000330: d22f a03b e0d7 1cbe 3746 2abe 1c4b 01be
00000340: b902 9ebd b3f8 523d c5b6 01be 7b08 fc3d
00000350: e99e 1f3e eecb 2b3e 4eb5 1a3e d7ec 05bc
00000360: d06e 733d f04c a03d 60fe 5c3e b226 fcbd
00000370: 51cb 16be ac30 143e ac1d 2bbd bbb2 b53d
00000380: 330b 57be a66a 533e 2fbf 133e 749a 5bbc
00000390: c157 56bc 5f54 a7bd 76d8 f0bd e686 c9bd
000003a0: 909b 67be e491 08be 9b22 33be b8c5 f5bb
000003b0: 14c9 15be 9ed6 04be 2d21 403e 201c 71bc
000003c0: 1511 b63d ef1f bb3d fd63 713d b973 543e
000003d0: ffe9 7fbc 9df7 eb3d 4536 c7bd 9c72 183e
000003e0: 9189 ae3d e936 133e cfb4 f8bd cc77 94bd
000003f0: 29ee 673e ddea 573d 3e64 ff3d 3be6 75be

actor.2.weight f4 [256, 256]
0.055744942 0.026924446 0.009961067 -0.0049984944 -0.07921727 0.022094883 0.020345664 -0.016879322
0.04214009 0.040189605 0.012315784 -0.037619974 0.03132515 0.048687983 0.030657386 -0.053379435
-0.037417293 0.0921342 -0.07005426 0.06630547 0.19858727 0.016663874 -0.06540594 -0.15611564
0.09959276 -0.09230423 0.034601107 0.003059418 -0.035942692 -0.12697224 0.004606465 -0.053139027
-0.035767224 0.029652681 -0.08244211 0.040214803 -0.051101718 -0.27928758 -0.072018124 0.0027532533
-0.09540928 -0.04694465 0.052557353 -0.31754467 -0.040750448 -0.10871856 0.048476286 0.02797244
-0.079592034 0.05311139 0.026337273 0.19912021 0.07284429 0.29355335 -0.04224716 -0.008151667
-0.07795481 0.029939713 -0.1233625 -0.0892957 0.042402655 -0.050998196 0.045029763 -0.10295389
0.06479717 0.085301 -0.18192072 -0.012321904 -0.03296667 -0.08054989 -0.03112017 0.05272019
0.052309092 0.03003474 -0.13957094 -0.013922259 -0.014193369 0.12746984 0.052490566 0.0132606765
0.05711276 0.05870963 0.07378319 0.026262693 -0.13604541 0.05256404 -0.032810926 0.09814298
-0.050198037 0.041713316 0.024740933 0.010714912 -0.05610584 0.041088074 -0.046233963 -0.0020474389
0.07184002 -0.07910585 0.04288141 0.020971302 -0.007424017 0.12438845 0.072009675 0.09259212
-0.036480214 -0.076851115 0.0251684 -0.0034270496 -0.0037173934 -0.009168383 -0.03267911 -0.04191056
-0.04312483 0.07352779 -0.059782375 -0.005053068 -0.08376956 0.05919086 0.17704056 -0.035754148
0.035573132 0.08096456 0.057708062 0.052788474 0.067700855 -0.062657155 0.07921559 0.048918553
-0.10926464 -0.06090629 0.12716043 0.09620148 -0.06890719 0.06324711 0.019227264 0.053416308
0.07016406 -0.043920904 0.028842377 -0.109333836 0.08328294 0.0068859984 0.093267135 -0.16570328
-0.034852926 -0.11888893 0.048508868 -0.09408705 0.061442718 -0.027059179 0.026833883 -0.028778
0.06703703 -0.055063386 0.036465805 0.0364967 0.024402628 -0.07633591 -0.0019489389 0.025082603
0.08199149 -0.008376394 -0.06453005 -0.047091495 -0.05127411 0.027764458 0.043589666 0.042386543
-0.0047834096 -0.03993124 0.09957662 0.073191516 0.048990317 0.057933386 -0.01850674 -0.10376123
0.0717215 0.061855987 -0.011808138 0.038947687 -0.11894451 -0.15120411 0.017912606 -0.032387283
0.14488222 0.07233956 0.06048069 0.04515329 -0.013722639 -0.025180677 -0.05251541 0.062796436
0.16767813 0.092978805 0.09434583 -0.01637257 0.06487243 -0.035681795 0.025577856 -0.00963235
-0.019098671 0.06817644 -0.13842663 0.120239355 0.14124247 -0.013023739 0.012043665 -0.023221089
-0.041670617 0.097416766 0.06637345 0.063949764 0.0058630547 0.055862915 -0.051498495 -0.08415645
0.085258365 -0.15770635 0.1634233 -0.011608348 0.04640685 0.027943866 -0.06972058 -0.048403423
0.098640114 0.10972673 0.09681611 -0.028064614 -0.10776107 -0.024131458 0.012845583 -0.0027785269
0.018969363 -0.096971445 -0.038487792 -0.07553892 -0.009010811 0.15182948 -0.04680221 0.07972344
0.011972794 -0.074717715 -0.0065295533 0.015169417 0.10874351 -0.063565314 -0.0121689215 0.027022112
0.10678539 0.014261495 -0.07910087 0.03027297 0.09603922 -0.090095 0.023048427 -0.0009899336
00000000: cf54 643d a890 dc3c be33 233c 69ca a3bb
00000010: aa3c a2bd 5400 b53c f3ab a63c 8146 8abc
00000020: 169b 2c3d db9d 243d 24c8 493c 6717 1abd
00000030: cd4e 003d 0d6d 473d 3325 fb3c 65a4 5abd
00000040: e042 19bd dbb0 bc3d 9c78 8fbd 2acb 873d
00000050: 765a 4b3e ad82 883c 8df3 85bd c7dc 1fbe
00000060: 4af7 cb3d 000a bdbd e4b9 0d3d 8480 483b
00000070: a538 13bd 0305 02be d4f1 963b 4fa8 59bd
00000080: a780 12bd 2eea f23c 69d7 a8bd 47b8 243d
00000090: 0950 51bd c8fe 8ebe 3d7e 93bd ed6f 343b
000000a0: f165 c3bd 0949 40bd 6146 573d 3795 a2be
000000b0: f1e9 26bd d6a7 debd 128f 463d 7526 e53c
000000c0: 2601 a3bd 548b 593d 44c1 d73c 2be6 4b3e
000000d0: 632f 953d a04c 963e 5c0b 2dbd 928e 05bc
000000e0: c5a6 9fbd 2144 f53c 7aa5 fcbd aae0 b6bd
000000f0: 68ae 2d3d 7ce3 50bd 2171 383d 7dd9 d2bd
00000100: 61b4 843d 4ab2 ae3d 6d49 3abe d0e1 49bc
00000110: 0f08 07bd 57f7 a4bd baef febc 20f1 573d
00000120: 0f42 563d 6a0b f63c afeb 0ebe 301a 64bc
00000130: 4e8b 68bc 7487 023e 5900 573d 4f43 593c
00000140: 12ef 693d 8279 703d a41b 973d dc24 d73c
00000150: 7d4f 0bbe 644d 573d c064 06bd 30ff c83d
00000160: 759c 4dbd 95db 2a3d 7fad ca3c 998d 2f3c
00000170: 3dcf 65bd f84b 283d d35f 3dbd 532e 06bb
00000180: dc20 933d 3f02 a2bd 6ba4 2f3d 02cc ab3c
00000190: 2b45 f3bb 5fbf fe3d cf79 933d f0a0 bd3d
000001a0: 476c 15bd 1e64 9dbd f62d ce3c 5a98 60bb
000001b0: 839f 73bb fc36 16bc 88da 05bd 68aa 2bbd
000001c0: a9a3 30bd bd95 963d 5dde 74bd 3594 a5bb
000001d0: 608f abbd 1d72 723d 1f4a 353e f172 12bd
000001e0: 22b5 113d bfd0 a53d 4a5f 6c3d ba38 583d
000001f0: bfa6 8a3d 6552 80bd c93b a23d d25e 483d
00000200: 24c6 dfbd e078 79bd 5836 023e 4805 c53d
00000210: 361f 8dbd b387 813d 7f82 9d3c 0fcb 5a3d
00000220: 2db2 8f3d 68e6 33bd d946 ec3c 6bea dfbd
00000230: 3f90 aa3d f1a3 e13b d702 bf3d 1fae 29be
00000240: f1c1 0ebd 0a7c f3bd 3cb1 463d b6b0 c0bd
00000250: 5cab 7b3d 36ab ddbc bbd2 db3c d7bf ebbc
00000260: b64a 893d 258a 61bd 2b5d 153d 907d 153d
00000270: 05e8 c73c 0056 9cbd 8a73 ffba 087a cd3c
00000280: 28eb a73d 253d 09bc 5528 84bd 03e3 40bd
00000290: cd04 52bd 4a72 e33c 148b 323d 839d 2d3d
000002a0: 26be 9cbb f18e 23bd d4ee cb3d 6fe5 953d
000002b0: 12aa 483d 8f4b 6d3d 729b 97bc c580 d4bd
000002c0: b9e2 923d b45c 7d3d ec76 41bc 9c87 1f3d
000002d0: 2e99 f3bd 40d5 1abe 75bd 923c 87a8 04bd
000002e0: 015c 143e c326 943d 9aba 773d a8f2 383d
000002f0: ebd4 60bc b547 cebc 661a 57bd 6b9b 803d
00000300: d1b3 2b3e ac6b be3d 6338 c13d c51f 86bc
00000310: d6db 843d 1327 12bd a788 d13c 01d1 1dbc
00000320: d174 9cbc 17a0 8b3d b6bf 0dbe 0d40 f63d
00000330: dea1 103e 8561 55bc cb52 453c 273a bebc
00000340: cfae 2abd 7182 c73d ceee 873d 18f8 823d
00000350: de1e c03b 83d0 643d 16f0 52bd 385a acbd
00000360: f09b ae3d c67d 21be 7058 273e f130 3ebc
00000370: 1c15 3e3d 89ea e43c aac9 8ebd ab42 46bd
00000380: d403 ca3d 68b8 e03d 8647 c63d c3e7 e5bc
00000390: d6b1 dcbd 56af c5bc 4876 523c f217 36bb
000003a0: a365 9b3c f798 c6bd 60a5 1dbd 26b4 9abd
000003b0: 15a2 13bc 3079 1b3e adb3 3fbd 0b46 a33d
000003c0: 8a29 443c 9a05 99bd ddf5 d5bb 2589 783c
000003d0: ebb4 de3d 882e 82bd 2860 47bc 7a5d dd3c
000003e0: 4cb2 da3d 0ca9 693c a3ff a1bd 05ff f73c
000003f0: 36b0 c43d ba83 b8bd 0ed0 bc3c a9c0 81ba
