models/mec_policy.pth (torch, 576546 bytes, 11 tensors)

critic.0.weight f4 [256, 19]
0	0xbe1d9110	-0.15387368
1	0x3e4089ce	0.18802568
2	0xbdadec89	-0.08492381
3	0xbd15f848	-0.036613733
4	0xbe411d96	-0.18858942
5	0x3ddf604e	0.109070405
6	0xbef07a44	-0.4696828
7	0xbe4ea6ed	-0.20180865
8	0x3efb1bfb	0.49044785
9	0x3eaa3223	0.33241376
10	0x3e374065	0.17895658
11	0x3d4e4b1f	0.05036461
12	0xbd262c5f	-0.04056966
13	0x3e598d38	0.21245277
14	0xbe43fee7	-0.19140206
15	0xbdc2b59c	-0.095072955
16	0xbdbb6269	-0.091496296
17	0x3e0204aa	0.12697092
18	0xbe1926e8	-0.14956248
19	0x3e118db7	0.14214216
20	0xbdb365db	-0.08759662
21	0xbe4a6715	-0.19765885
22	0x3e141688	0.1446172
23	0x3df3f1d6	0.11911361
24	0xbd5da320	-0.054110646
25	0x3f0917c4	0.5355189
26	0x3a85795d	0.0010183264
27	0xbe38983b	-0.18026821
28	0xbe1ce297	-0.15320812
29	0xbd50db00	-0.050990105
30	0x3ef616ca	0.48064262
31	0xbe18dedd	-0.14928766
32	0xbe4a6b93	-0.19767599
33	0xbe0ad662	-0.13558343
34	0x3d6edd86	0.05831673
35	0x3c920d7a	0.017828692
36	0x3dd4f252	0.103977814
37	0x3e339418	0.17536962
38	0xbdee7a13	-0.116443776
39	0x3e90e97f	0.28303143
40	0xbc63c3d2	-0.013901668
41	0xbca110e2	-0.01966137
42	0x39f43200	0.0004657656
43	0xbe6941a7	-0.2277895
44	0x3ef7cfb8	0.48400664
45	0x3d74148e	0.059589915
46	0xbeee51a3	-0.4654666
47	0x3e1c3a9c	0.15256733
48	0x3e006e0d	0.12541981
49	0xbdc1e3e0	-0.09467292
50	0x3c9beb49	0.019033091
51	0x3d8ff9b1	0.07030047
52	0x3d49a46a	0.049229063
53	0xbc88f232	-0.01671705
54	0x3e4d67d2	0.20059136
55	0xbcfe6d2a	-0.031057913
56	0xbde2ec3c	-0.110802144
57	0x3dc83e89	0.09777553
58	0x3e0e3b34	0.13889772
59	0xbe83495e	-0.25641912
60	0xbd16e82a	-0.036842503
61	0x3c57c5b0	0.013169691
62	0xbe411846	-0.18856916
63	0xbe9fa60b	-0.31181368
64	0xbb878d6f	-0.0041367332
65	0x3eeabb77	0.4584615
66	0xbd8e117d	-0.069369294
67	0x3e102a63	0.14078669
68	0x3f137bc4	0.57610726
69	0xbe26b607	-0.16280375
70	0xbe172fbc	-0.14764303
71	0x3daf3ad7	0.08556145
72	0xbe11fe50	-0.14257169
73	0x3de44f03	0.11147883
74	0x3cc0e0bc	0.023544662
75	0x3de8c067	0.11364823
76	0x3d1df4e3	0.03856362
77	0xbd11ee29	-0.035627518
78	0xbe0fa096	-0.14026102
79	0xbcc162ca	-0.023606677
80	0xbdf4129f	-0.11917614
81	0x3e5b607f	0.21423529
82	0x3f2fe4f8	0.68708754
83	0x3d418aa0	0.047251344
84	0x3e663473	0.22480945
85	0x3dafdfb8	0.08587593
86	0x3d767ea4	0.060179368
87	0x3f03477b	0.51280946
88	0x3ddc09bf	0.107440464
89	0x3d7772bc	0.060412154
90	0xbe32e644	-0.17470652
91	0xbb6ed54a	-0.0036443048
92	0x3e1dab4b	0.15397374
93	0xbd8f01f9	-0.06982798
94	0x3d75fb52	0.06005413
95	0xbe500bda	-0.20317021
96	0xbc30974d	-0.01077826
97	0x3c8bfc77	0.017088158
98	0x3ddd5a75	0.10808269
99	0xbc9c02e0	-0.01904434
100	0x3d793ef4	0.060851052
101	0xbec7d141	-0.39026836
102	0xbe6d40c5	-0.23169239
103	0xbe314390	-0.1731093
104	0x3e6bbbb7	0.23020826
105	0x3e222013	0.15832548
106	0x3f45c2c3	0.7725031
107	0xbe59e0f6	-0.21277222
108	0x3e2c2e31	0.16814496
109	0xbe62dbe9	-0.22154202
110	0xbe13bd5d	-0.14427705
111	0xbd884590	-0.06653893
112	0xbe75a01f	-0.23986863
113	0x3c655e55	0.013999541
114	0xbdc6ab75	-0.097006716
115	0xbd9e5119	-0.07730312
116	0xbe1a90b8	-0.15094268
117	0x3df86dcd	0.12130318
118	0xbe038e10	-0.12847161
119	0x3e334219	0.17505683
120	0x3f1b0a98	0.6056304
121	0x3e4d0e0b	0.20024888
122	0x3e4239df	0.18967389
123	0x3c660662	0.014039608
124	0xbda542cc	-0.08069381
125	0x3dc44048	0.09582573
126	0xbe3d91ee	-0.18512699
127	0xbe2aabca	-0.16667095
128	0xbe475596	-0.19466242
129	0x3e212427	0.15736447
130	0xbdbe7777	-0.0930013
131	0xbe0bc239	-0.13648309
132	0xbe4b3497	-0.1984428
133	0x3e38688c	0.18008631
134	0x3d8dc3d7	0.06922119
135	0x3dc4b4c4	0.09604791
136	0x3dccf3f4	0.10007468
137	0xbe0eeb12	-0.1395686
138	0xbe3b59ba	-0.18295947
139	0xbed5c490	-0.41751528
140	0x3e830271	0.255878
141	0x3e3ee16d	0.1864068
142	0x3e5acfb6	0.21368298
143	0x3e4532f3	0.19257717
144	0x3ea9af5a	0.33141595
145	0xbdd80c6b	-0.105492435
146	0x3e6ff2bc	0.2343244
147	0xbe02caf5	-0.12772734
148	0xbd944f8c	-0.07241735
149	0xbd365ecd	-0.044524003
150	0xbe17ca92	-0.14823368
151	0x3e02b65d	0.12764879
152	0xbdeb3e84	-0.11486533
153	0xbea17396	-0.31533498
154	0x3cc8d1e8	0.024514154
155	0xbe4979f4	-0.19675428
156	0xbdc970a8	-0.098359406
157	0x3d4a33b4	0.049365714
158	0x3ee925ab	0.4553655
159	0xbd83c1ac	-0.06433424
160	0x3e42fd2c	0.1904189
161	0xbd7e928e	-0.062151484
162	0xbd78cb8c	-0.060740992
163	0x3f0e7a9d	0.55655843
164	0x3b6b17f9	0.0035872443
165	0xbe9d0104	-0.30664837
166	0x3e31a82d	0.1734931
167	0xbe0744e6	-0.13209876
168	0xbdf4f4af	-0.11960732
169	0xbe97e39c	-0.2966584
170	0xbbf9abda	-0.0076193633
171	0x3d95a86e	0.07307516
172	0xbe7a740d	-0.24458332
173	0xbe5a8520	-0.21339846
174	0xbcf5e614	-0.030016936
175	0xbe66939d	-0.22517247
176	0xbe64353b	-0.22285931
177	0xbe740e52	-0.23833588
178	0xbee2c4d3	-0.4429079
179	0xbe711d8a	-0.23546425
180	0x3cce99b8	0.025219783
181	0x3e2acc49	0.16679491
182	0x3eab2851	0.33429196
183	0x3e6b240a	0.22962967
184	0xbe515cdc	-0.2044558
185	0x3b890819	0.0041818735
186	0xbe084dca	-0.13310924
187	0xbe3a7f07	-0.1821252
188	0x3d77c372	0.060489126
189	0x3d96b21c	0.073581904
190	0xbdcb4c29	-0.09926636
191	0xbdc4a815	-0.096023716
192	0x3e03f116	0.12884936
193	0xbd49590e	-0.049157195
194	0x3c94ebe8	0.018178895
195	0xbe6626ed	-0.22475787
196	0x3eb5240f	0.35379073
197	0xbe358867	-0.17727815
198	0xbee6bb50	-0.45064783
199	0xbe3b8117	-0.18310963
200	0xbe0ca12c	-0.13733357
201	0xbee57d59	-0.44822195
202	0xbd3a62f4	-0.045504525
203	0x3ea20b47	0.3164923
204	0x3dedf931	0.11619795
205	0xbb96e7c2	-0.0046052644
206	0x3d0c62a4	0.03427376
207	0x3e39d5b8	0.18147933
208	0x3e077c49	0.13231005
209	0x3d2d1c8d	0.042263556
210	0x3d8af865	0.06785659
211	0xbd2e1836	-0.042503558
212	0x3e45e37c	0.1932506
213	0xbd348c18	-0.044078916
214	0xbe1b407c	-0.15161318
215	0x3f189928	0.596087
216	0xbe0a6216	-0.1351398
217	0xbd3a7d27	-0.04552951
218	0xbe810a83	-0.25203332
219	0xbe6575ca	-0.22408214
220	0xbf3bfe27	-0.7343468
221	0x3e213f6d	0.15746851
222	0x3dae5dd0	0.08513987
223	0xbcc8ccee	-0.02451178
224	0xbe00e793	-0.12588339
225	0xbe2ca0e5	-0.16858251
226	0x3da437c6	0.080184504
227	0x3e67ab64	0.22623974
228	0x3dc6d5e4	0.09708765
229	0xbd6027cb	-0.05472545
230	0xbe013ea3	-0.1262155
231	0x3e2b2fda	0.16717473
232	0x3db3362e	0.08750568
233	0x3da1314a	0.07870729
234	0xbefac340	-0.4897709
235	0xbe7358e0	-0.23764372
236	0x3d1e71fd	0.038682926
237	0xbdd04d26	-0.10170965
238	0x3cf4f5d8	0.029902384
239	0x3f261b05	0.6488498
240	0x3d7d1047	0.0617831
241	0x3e8a3a68	0.26997685
242	0xbe928e0b	-0.28623995
243	0x3d4deb3a	0.050273158
244	0xbe7958e3	-0.24350314
245	0xbdf86405	-0.12128452
246	0xbe16e247	-0.14734755
247	0xbe2b5db5	-0.16734965
248	0x3e3ce122	0.18445256
249	0xbdbb9310	-0.09158909
250	0x3dc7ef0e	0.09762393
251	0x3c881788	0.016612783
252	0x3e2d27c7	0.16909705
253	0xbf15cddc	-0.5851724
254	0x3e40b6ed	0.1881978
255	0x3e4c9062	0.19976953

critic.0.bias f4 [256]
0	0xbb7f8c7d	-0.003899365
1	0x3e529fb8	0.2056874
2	0xbe3d11f1	-0.18463875
3	0x3e04f945	0.12985714
4	0xbd7fc5f5	-0.062444646
5	0x3e7cb395	0.2467788
6	0x3e3ed556	0.18636069
7	0x3da2c4c0	0.07947683
8	0x3dc7885a	0.09742804
9	0xbe5ceb1d	-0.21574064
10	0xbe3b06ba	-0.18264285
11	0x3d8a005f	0.06738352
12	0xbe28664c	-0.16445273
13	0x3e85b21a	0.26112443
14	0x3de5f871	0.11229027
15	0x3c9176b6	0.017756801
16	0xbc6a9724	-0.014318261
17	0xbe0fdb04	-0.14048392
18	0xbe2af735	-0.16695864
19	0x3e15efbe	0.14642236
20	0xbe057611	-0.1303332
21	0x3c5b461a	0.013383413
22	0x3d7b5fad	0.06137054
23	0xbe0a7289	-0.13520254
24	0xbd016f9c	-0.03160058
25	0xbdc1367c	-0.0943422
26	0xbe839fcf	-0.25707862
27	0x3c9b29e3	0.018940872
28	0x3e449286	0.1919652
29	0xbe0d6aa9	-0.13810219
30	0xbdb9062c	-0.0903438
31	0xbd674d1f	-0.056470033
32	0x3e6a58f0	0.2288549
33	0x3c8c29df	0.01710981
34	0x3d717218	0.0589467
35	0xbd4eb7d9	-0.0504683
36	0x3e0b0e0b	0.13579576
37	0xbde9fec8	-0.11425549
38	0x3dc80216	0.09766023
39	0xbdb10da1	-0.08645178
40	0x3e0f6d38	0.14006507
41	0xbe0d6130	-0.13806605
42	0x3e3797f5	0.17929061
43	0xbdcab22f	-0.09897267
44	0x3dfe4efb	0.12417408
45	0x3da4c004	0.080444366
46	0xbd53b594	-0.05168684
47	0x3d203a65	0.03911819
48	0x3dbb3ae0	0.09142089
49	0x3dd2fa5f	0.10301661
50	0xbe12ae76	-0.14324364
51	0xbdb6cbe9	-0.089256115
52	0x3d103646	0.03520801
53	0xbc153adf	-0.009108274
54	0xbe526b63	-0.20548777
55	0x3d94dc36	0.072685644
56	0xbe1620a4	-0.14660889
57	0x3d25fe99	0.040526006
58	0xbdb0dabb	-0.086354695
59	0x3e4f5ef4	0.20251065
60	0x3e1751a5	0.14777239
61	0xbdcf2ce7	-0.10115986
62	0x3e757e37	0.23973928
63	0x3e017e75	0.12645896
64	0xbce42af9	-0.027852522
65	0xbe00d166	-0.12579879
66	0x3d6cc954	0.05780919
67	0x3e3aa552	0.18227127
68	0xbd9108cd	-0.07081757
69	0xbd868b2f	-0.06569516
70	0xbe050532	-0.12990263
71	0x3e1c400b	0.15258805
72	0xbb97040e	-0.0046086377
73	0xbd146305	-0.036227245
74	0x3e0b1051	0.13580443
75	0xbdbf9907	-0.093553595
76	0xbe18cc25	-0.14921625
77	0x3e1f4225	0.15552576
78	0xbdb0f052	-0.086395875
79	0x3e23e0a0	0.16003656
80	0xbd086707	-0.03330138
81	0x3e1e3eb9	0.15453614
82	0x3e6f6e7e	0.23381993
83	0xba4c1862	-0.0007785616
84	0xbd98ed0c	-0.07467088
85	0x3e810e8d	0.25206414
86	0xbdb33022	-0.08749415
87	0x3db29b32	0.087210074
88	0xbc5dcce3	-0.013537618
89	0xbdcd0348	-0.100103915
90	0xbdfeb34a	-0.124365404
91	0x3c8eae08	0.017416969
92	0xbe13b5e6	-0.14424857
93	0xbca88096	-0.020569127
94	0x3dc68482	0.096932426
95	0xbcb818f2	-0.022472832
96	0x3e0c89b4	0.13724405
97	0xbe521ee8	-0.20519602
98	0x3de06df6	0.109584734
99	0xbe34c915	-0.17654832
100	0xbe1e01d3	-0.15430383
101	0xbb3911e3	-0.002823942
102	0x3de231fa	0.110446885
103	0xbe14ab03	-0.14518361
104	0xbe0f8478	-0.14015377
105	0x3dcb4631	0.09925497
106	0xbd5af6af	-0.053457912
107	0x3c270064	0.010192964
108	0x3d2dde2a	0.0424482
109	0xbe3da06e	-0.1851823
110	0xbdca781c	-0.0988619
111	0x3df75dac	0.12078413
112	0x3ddc2ade	0.10750364
113	0x3e37a223	0.17932944
114	0x3e034a46	0.12821302
115	0xbe63648e	-0.22206327
116	0x3da17ce0	0.07885146
117	0xbdafaf9e	-0.08578418
118	0x3c3550d8	0.011066638
119	0xbded4bcb	-0.11586722
120	0xbe140c2c	-0.14457768
121	0x3d8fbff8	0.07019037
122	0xbe301646	-0.17195997
123	0x3d17f869	0.037102137
124	0x3e15ce67	0.14629517
125	0xbe60cde9	-0.21953548
126	0x3d9765f2	0.073924914
127	0x3db69729	0.0891555
128	0xbd9c3b99	-0.07628555
129	0x3e111c9c	0.1417107
130	0x3dade200	0.08490372
131	0xbe0bb079	-0.13641538
132	0xbb22ce85	-0.0024842334
133	0x3c1d0015	0.009582539
134	0x3db6cf5d	0.0892627
135	0xbd9bbedf	-0.07604765
136	0x3cbfa35e	0.02339333
137	0x3d82e002	0.06390382
138	0x3e51fd0d	0.20506687
139	0x3d72466c	0.05914919
140	0x3db6bcb0	0.08922708
141	0x3dd533ea	0.104102924
142	0xbc3526dc	-0.011056628
143	0xbd02dd65	-0.03194942
144	0xbdb701dd	-0.08935902
145	0xbdc58582	-0.09644605
146	0x3bdbc76b	0.006707122
147	0x3e07ea6f	0.13273023
148	0xbe25d8d5	-0.16195996
149	0xbd57a65e	-0.052648894
150	0xbe5e8cbd	-0.21733375
151	0xbe3c31f5	-0.18378432
152	0xbda1a0ee	-0.07892023
153	0x3e4be873	0.19912891
154	0xbe29419c	-0.16528934
155	0xbde69f4b	-0.112608515
156	0x3e0f824c	0.14014548
157	0x3d7703d0	0.06030637
158	0x3e2fda06	0.17173013
159	0xbe036288	-0.12830555
160	0x3e8e059a	0.2773865
161	0x3c8ac45f	0.01693934
162	0xbcc19246	-0.023629319
163	0x3ce6f41a	0.028192569
164	0xbd886fa5	-0.066619195
165	0xbe2a59bb	-0.16635792
166	0xbda0fa8c	-0.07860288
167	0xbb9a378a	-0.004706328
168	0xbd7db86b	-0.061943453
169	0xbdca08e2	-0.098649755
170	0xbd6233c9	-0.055225167
171	0x3e67b80f	0.22628807
172	0xbc4f6a31	-0.012659595
173	0x3e3b9ccd	0.18321534
174	0xbe04fda9	-0.12987389
175	0x3e2e7916	0.17038378
176	0xbd3bdb41	-0.045863394
177	0x3d604548	0.05475357
178	0xbd1222ac	-0.035677597
179	0xbd74fafc	-0.05980967
180	0xbbffaeca	-0.007802819
181	0xbdc9eb0a	-0.09859283
182	0x3ddafbf5	0.10692588
183	0xbcb63b80	-0.022245169
184	0xbe53c922	-0.20682195
185	0x3df019e1	0.11723686
186	0xbe254264	-0.16138607
187	0xbe0218a4	-0.12704712
188	0xbe1e5c65	-0.15464933
189	0xbe0f8c13	-0.14018278
190	0xbdc51cdd	-0.09624646
191	0x3d5e62e5	0.054293532
192	0x3db82d1f	0.08992981
193	0x3df7a8a2	0.12092711
194	0x3e87d95d	0.26533023
195	0xbdd8cce0	-0.10585952
196	0x3e4a96c6	0.19784078
197	0x3e610c65	0.21977384
198	0x3e684a71	0.22684647
199	0xbd3072d4	-0.04307826
200	0xbe2513bd	-0.16120811
201	0xbc0a0b73	-0.008425581
202	0xbd3fab91	-0.046794478
203	0xbd4d0a97	-0.050058927
204	0x3db75a1d	0.089527346
205	0x3d397937	0.045281615
206	0xbdfefc81	-0.12450505
207	0x3e18fb1e	0.14939544
208	0xbd92d9e9	-0.07170469
209	0x3e0a160b	0.13484971
210	0x3dfe001d	0.12402365
211	0x3e14f18c	0.14545268
212	0xbcad4f5b	-0.021156004
213	0xbd8ba7f2	-0.068191424
214	0x3dfa1ac5	0.12212137
215	0x3e3d7c6b	0.18504493
216	0x3e211d7c	0.15733904
217	0x3e2d41e2	0.16919664
218	0x3d95336d	0.07285199
219	0x3e37f079	0.17962827
220	0x3d946660	0.07246089
221	0xbdc2db0f	-0.09514438
222	0x3d46fe5f	0.04858243
223	0xbc3d627f	-0.011559128
224	0xbe4febd5	-0.20304807
225	0x3e38793f	0.18015002
226	0x3d9c734b	0.07639178
227	0x3e49f589	0.1972257
228	0x3e5fd5c3	0.21858887
229	0x3e0121b3	0.12610511
230	0x3e3f5d0c	0.18687838
231	0xbe026125	-0.1273237
232	0xbdb07fbc	-0.086181134
233	0x3e807afd	0.25093833
234	0xbe22e635	-0.1590813
235	0xbd124f8b	-0.03572039
236	0x3df41de1	0.119197614
237	0xbda4304b	-0.08017024
238	0xbe7e70bd	-0.24847694
239	0x3bb1c963	0.0054256185
240	0xbe2577d5	-0.16158994
241	0xbe49c127	-0.19702588
242	0x3e1aafdb	0.15106146
243	0xbe31b79f	-0.17355202
244	0xbe758402	-0.23976138
245	0xbe446021	-0.19177295
246	0xbceeb480	-0.029138803
247	0xbcdd75e3	-0.027033752
248	0xbe5f4590	-0.2180388
249	0x3e2dd7b5	0.16976817
250	0xbe142aad	-0.14469405
251	0xbe5226b1	-0.20522572
252	0x3e521ad0	0.2051804
253	0xbe75576b	-0.23959129
254	0x3e185b67	0.14878617
255	0x3e2ef6c0	0.17086315

critic.2.weight f4 [256, 256]
0	0xbeb87b6b	-0.3603166
1	0x3c96827c	0.018372767
2	0x3e8f5a38	0.2799852
3	0xbdf33fd9	-0.11877412
4	0xbd09adb7	-0.033612933
5	0xbf1ddddb	-0.6166665
6	0xbd46a4e5	-0.0484971
7	0xbdf6bd15	-0.12047783
8	0x38d28bb1	0.000100396
9	0xbcefa0b7	-0.02925144
10	0x3de746da	0.11292811
11	0x3e4ee71d	0.2020535
12	0xbe3d52d8	-0.18488634
13	0xbdc81520	-0.09769654
14	0x3b2f3b11	0.0026738087
15	0xbea082df	-0.31349847
16	0x3ec54e87	0.38536474
17	0xbd7e637f	-0.062106606
18	0xbd9d51e6	-0.076816365
19	0x3e8fff86	0.28124636
20	0x3e5fc880	0.21853828
21	0x3ea8059c	0.3281678
22	0x3e7f9c19	0.2496189
23	0xbc76317a	-0.015026445
24	0x3d769026	0.060196064
25	0x3dc37f63	0.095457815
26	0x3e2cf8d6	0.16891798
27	0x3cb934c5	0.02260817
28	0x3e0cc884	0.13748366
29	0xbe74b2db	-0.23896353
30	0xbecbc7a4	-0.3980075
31	0xbe1280e2	-0.14306977
32	0xbe93c631	-0.28862146
33	0x3e0d5a90	0.13804078
34	0xbe6957f8	-0.22787464
35	0x3df62a14	0.120197445
36	0xbca5fe46	-0.020262849
37	0xbe07e2ba	-0.13270083
38	0xbd9d2382	-0.07672788
39	0x3e910bc8	0.283293
40	0x3c41aa1d	0.011820343
41	0x3eb099d9	0.34492376
42	0xbecdbc79	-0.40182856
43	0xbcc9df84	-0.024642713
44	0xbd09c181	-0.033631805
45	0x3e793f34	0.24340516
46	0xbe1f4de3	-0.15557055
47	0xbe7f4930	-0.24930263
48	0x3ebb6eda	0.3660801
49	0x3e0d7c2a	0.13816896
50	0x3d6d3a2c	0.057916805
51	0x3f020821	0.50793654
52	0xb99709e7	-0.00028808342
53	0xbcda6624	-0.026660033
54	0x3dbf51a5	0.09341744
55	0x3d6e2ef9	0.058150265
56	0x3e3b91e3	0.1831737
57	0xbd103bd5	-0.03521331
58	0x3cee565d	0.029093916
59	0xbda1aa80	-0.078938484
60	0xbe2e938b	-0.1704847
61	0x3cf7daa1	0.030255618
62	0xbdab5d7d	-0.08367441
63	0xbe782146	-0.24231443
64	0x3d94809b	0.07251092
65	0xbe4839a2	-0.19553235
66	0xbd27ee27	-0.040998604
67	0xbde5942b	-0.112099014
68	0x3e580c95	0.2109855
69	0x3e10170f	0.14071296
70	0x3e390760	0.1806922
71	0x3d9aedd3	0.075648926
72	0x3ea7c66f	0.3276858
73	0x3ea3ec14	0.3201605
74	0x3dc19c72	0.09453668
75	0xbeced9a3	-0.4040042
76	0xbea6f6cf	-0.32610175
77	0x3e7f6e76	0.24944481
78	0xbdcc7238	-0.09982723
79	0x3e4508a0	0.19241571
80	0x3d19ee84	0.03758098
81	0x3e018522	0.12648442
82	0xbea50fc7	-0.322386
83	0xbea8c879	-0.32965448
84	0x3e1de296	0.15418467
85	0x3df91006	0.12161259
86	0xbcd1612d	-0.025559032
87	0xbe1488c6	-0.145053
88	0x3e4eddb2	0.20201758
89	0xbdca90a6	-0.09890871
90	0xbcb25db7	-0.021773202
91	0x3dd29f15	0.10284249
92	0xbe0b4d17	-0.13603626
93	0x3e0e0624	0.1386953
94	0xbe6d15f7	-0.2315291
95	0xbd8669b0	-0.06563127
96	0x3e709c43	0.23497109
97	0xbdb60478	-0.08887571
98	0xbe6c6f06	-0.23089227
99	0x3dd8a125	0.10577611
100	0xbd371443	-0.044697057
101	0xbddf4c86	-0.109032676
102	0x3c662412	0.014046686
103	0xbc662652	-0.014047222
104	0xbde7420c	-0.11291894
105	0x3c624384	0.013810042
106	0xbe1d0a14	-0.15335876
107	0xbd3e53ca	-0.046466626
108	0xbd87a9d9	-0.06624193
109	0xbcd6fdbc	-0.026244037
110	0xbe541b18	-0.2071346
111	0xbe023ed3	-0.12719278
112	0xbe9a237d	-0.301052
113	0xbe7fc54f	-0.24977611
114	0xbe1d3615	-0.15352662
115	0xbe631087	-0.22174273
116	0x3d0f57bc	0.03499578
117	0xbd39cf15	-0.045363504
118	0x3ba9e011	0.0051841815
119	0x3eabbbc2	0.33541685
120	0xbd171278	-0.036882848
121	0xbadab1f8	-0.0016685119
122	0x3d5caadb	0.053873878
123	0xbcdf12d9	-0.027230667
124	0x3e43473b	0.19070141
125	0x3dc4d5be	0.096110806
126	0x3d616ba7	0.055034306
127	0x3d438344	0.047732607
128	0x3df03620	0.117290735
129	0x3ce88b59	0.028386759
130	0x3e319dcc	0.17345351
131	0x3ded369d	0.11582682
132	0x3d6a69f8	0.057229966
133	0xbe09cf4d	-0.13457985
134	0xbe28712a	-0.16449419
135	0xbeb7a4ed	-0.35868016
136	0x3e3bab9f	0.18327187
137	0x3cbe533c	0.023233049
138	0x3baf1df9	0.005344149
139	0x3e8c1e41	0.27366832
140	0xbdf1c46f	-0.11805045
141	0xbdfd6bb2	-0.12374057
142	0x3d97670d	0.07392702
143	0xbe191290	-0.14948487
144	0x3e369335	0.17829593
145	0x3da2f07f	0.07956027
146	0xbea1050e	-0.3144917
147	0xbe107f2c	-0.14111012
148	0xbd4f654b	-0.05063371
149	0x3db730a6	0.08944826
150	0x3e86387e	0.26214975
151	0xbcb8ddf6	-0.022566777
152	0x3ca0cf42	0.019630078
153	0xbd540222	-0.051759847
154	0xbdd42303	-0.103582405
155	0xbe922929	-0.28547028
156	0xbcb00a06	-0.021489155
157	0xbc55c0c3	-0.013046446
158	0xbe663d8b	-0.22484414
159	0x3e79217e	0.24329183
160	0xbe1584a3	-0.14601378
161	0x3d3f0771	0.046637956
162	0x3ee631be	0.44959825
163	0xbe23b531	-0.15987088
164	0xbe6400db	-0.22265951
165	0xbe03f47c	-0.12886232
166	0xbd732bb6	-0.059367858
167	0xbce36ce5	-0.027761886
168	0x3d912c48	0.07088524
169	0x3de4f133	0.111788176
170	0xbd110f28	-0.035414845
171	0x3d19d820	0.03755963
172	0xbdf4152f	-0.11918103
173	0x3c2d4b34	0.010577012
174	0xbd159101	-0.03651524
175	0xbcff6e07	-0.031180395
176	0x3eba7da9	0.36423996
177	0xbd8a224e	-0.06744824
178	0xbe9aad53	-0.3021036
179	0xbe2740b1	-0.16333272
180	0x3ea528e3	0.32257757
181	0xbdc4c3d0	-0.09607661
182	0xbe5cb51b	-0.21553461
183	0xbdaa4d9d	-0.08315585
184	0x3cde4442	0.027132157
185	0xbe0a4af7	-0.1350516
186	0x3e35c112	0.17749432
187	0xbe0cf7aa	-0.13766351
188	0xbe05e45f	-0.13075398
189	0x3a25160a	0.00062975346
190	0x3dd8d5fe	0.10587691
191	0x3e29d998	0.16586912
192	0xbc9972b7	-0.018731458
193	0xbe8d39a7	-0.27583048
194	0x3c9b1c0d	0.018934274
195	0xbe310225	-0.17285974
196	0x3e4fb2f7	0.20283113
197	0x3ca30cfc	0.019903652
198	0xbd86712e	-0.06564556
199	0xbd42b2ce	-0.047533803
200	0x3e94c4cc	0.29056394
201	0x3e7f0cbb	0.249072
202	0x3e9eeb3f	0.31038854
203	0xbd907560	-0.070536375
204	0x3e36e917	0.17862354
205	0x3eac2e3e	0.3362903
206	0x3e9aef7d	0.3026084
207	0x3f09f142	0.53883755
208	0x3df870bd	0.12130878
209	0x3d45c415	0.0482827
210	0xbd6c258b	-0.05765299
211	0x3c10b4f6	0.008832207
212	0xbe8ab8e0	-0.27094173
213	0xbad085aa	-0.0015908976
214	0xbe24fa3b	-0.1611108
215	0xbcbcb611	-0.023036035
216	0x3e564f9b	0.20928805
217	0xbe3dc7a6	-0.18533191
218	0xbd816428	-0.063179314
219	0xbe8337b2	-0.2562843
220	0xbe1f91f8	-0.15583026
221	0x3e038651	0.12844206
222	0x3d6bdc91	0.057583395
223	0x3e03b7e2	0.12863114
224	0x3e452219	0.19251288
225	0x3e0ce72d	0.13760062
226	0xbd520b77	-0.051280465
227	0x3e8f599e	0.2799806
228	0xbe99c2d9	-0.3003147
229	0xbe202fa3	-0.15643172
230	0xbccfbf31	-0.025359722
231	0x3deb3df9	0.1148643
232	0x3e68cf39	0.22735299
233	0x3e796e42	0.24358466
234	0xbe1e009a	-0.15429917
235	0x3e47693a	0.19473734
236	0x3c900269	0.017579274
237	0x3e83e3f5	0.25759855
238	0xbdddbb10	-0.10826695
239	0x3c29d2d8	0.0103652105
240	0xbde5b226	-0.1121562
241	0xbe4aaf3f	-0.19793414
242	0x3e91157a	0.28336698
243	0x3edd5f82	0.4323693
244	0x3e40a188	0.1881162
245	0x3e73fafb	0.2382621
246	0x3d486d6c	0.048932478
247	0xbe1db80e	-0.15402243
248	0x3d168787	0.036750343
249	0x3e0bc0ad	0.13647719
250	0x3ed980a6	0.42480963
251	0xbd4add74	-0.0495276
252	0xbd19fe60	-0.037596107
253	0x3e91f0d7	0.2850406
254	0x3d6936ca	0.056937017
255	0xbb17382d	-0.0023074255

critic.2.bias f4 [256]
0	0xbda3fbf0	-0.08007038
1	0x3b68965f	0.0035490019
2	0x3c597548	0.013272591
3	0xbdf186eb	-0.11793312
4	0xbd211a3e	-0.039331667
5	0x3d1b2139	0.03787348
6	0x3ddac38f	0.10681831
7	0xbd664183	-0.05621482
8	0xbac426ef	-0.0014965216
9	0xbd66f40a	-0.056385078
10	0xbd67d240	-0.056596994
11	0x3db6abf6	0.08919518
12	0x3c1d9c5a	0.009619797
13	0x3d947876	0.072495386
14	0x3c20a441	0.009804786
15	0x3d81f96d	0.06346402
16	0xbd103679	-0.0352082
17	0xbc914e64	-0.017737575
18	0x3d693835	0.05693837
19	0x3d30d815	0.043174822
20	0x3a935b90	0.0011242498
21	0xbc0fd280	-0.008778214
22	0xbd91a76b	-0.071120106
23	0xbb31963a	-0.0027097599
24	0xbd3af2a5	-0.04564156
25	0x3d48230f	0.04886156
26	0x3d524761	0.051337603
27	0xbcdf9326	-0.027291846
28	0x3d8c68fd	0.068559624
29	0xbce2bedf	-0.027678905
30	0xbd45e469	-0.048313532
31	0x3dc6b4fb	0.09702488
32	0x3da13476	0.07871334
33	0x3cff348b	0.031152984
34	0x3dc5ba8c	0.096547216
35	0xbc45571f	-0.012044697
36	0xbc315b27	-0.010824955
37	0xbd7416e3	-0.05959214
38	0xbce14b83	-0.027501827
39	0xbd570190	-0.052491724
40	0x3daca130	0.084291816
41	0x3d953528	0.072855294
42	0x3d5d6034	0.054046825
43	0x3d88cbf4	0.06679526
44	0xbcb08754	-0.021548904
45	0x3d17a36a	0.03702108
46	0x3bd7d117	0.0065862047
47	0x3cdb9f61	0.026809396
48	0x3d012619	0.031530473
49	0x3d997033	0.074921034
50	0xbc3fe3e2	-0.011712046
51	0xba83d254	-0.001005719
52	0xbd057c4a	-0.032589234
53	0xbcd3f456	-0.025873344
54	0x3dcbcb5d	0.09950898
55	0xbc804f01	-0.015662672
56	0xbc992746	-0.018695485
57	0x3c2ae03a	0.010429436
58	0x3acea17b	0.0015764678
59	0xbe324167	-0.17407762
60	0x3d9f3ff6	0.077758715
61	0xbc910115	-0.017700711
62	0xbcbff0c6	-0.02343024
63	0xbd3b124f	-0.045671757
64	0x3ba2e866	0.0049715517
65	0x3df53b22	0.11974169
66	0xbd505394	-0.050860956
67	0xb98dd32e	-0.00027050957
68	0xbd5d6d08	-0.05405906
69	0xbc939f7b	-0.018020382
70	0x35865029	1.0007108e-06
71	0x3cbfd657	0.023417635
72	0x3cc6a24f	0.024247317
73	0x3c6874e9	0.01418803
74	0xbcc6957e	-0.024241205
75	0x3b03ff42	0.002014116
76	0x3d67679b	0.05649529
77	0x3c588d5e	0.013217298
78	0x3c94a83a	0.018146623
79	0x3d46cccf	0.048535164
80	0x3d70294b	0.05863313
81	0x3cfbd869	0.03074284
82	0xbc040c10	-0.008059517
83	0xbca1cb44	-0.019750245
84	0x3d7d7f25	0.061888833
85	0xbddc7917	-0.107652836
86	0x3c42675b	0.011865462
87	0xbc06f8eb	-0.008238058
88	0x3d3fae43	0.04679705
89	0xbd32ff40	-0.043700457
90	0x3cf133c6	0.029443633
91	0x3c9332c6	0.017968547
92	0x3ccc5f96	0.024947923
93	0xbd72cbc8	-0.059276372
94	0xbbaf6636	-0.0053527607
95	0xbd2a5d6e	-0.041593008
96	0xbd01b90e	-0.031670623
97	0x3a3e84a4	0.000726769
98	0x3ddc4c7c	0.10756776
99	0x3daaa7f8	0.08332819
100	0x3d61376b	0.05498449
101	0xbd232003	-0.03982545
102	0xbd0c53c2	-0.034259565
103	0x3c2c4980	0.010515571
104	0xbd28a862	-0.041176207
105	0x3d1e84d1	0.038700882
106	0xbd86be86	-0.06579308
107	0xbcb7e259	-0.022446798
108	0x3d5a730a	0.053332366
109	0x3af4767b	0.0018651033
110	0xbdafa9a5	-0.08577279
111	0x3dd7c0ea	0.10534842
112	0xbcd9c47e	-0.026582953
113	0x3d45938a	0.048236407
114	0x3b64111d	0.003480024
115	0xbd59cf4c	-0.05317621
116	0x3d20db51	0.039271656
117	0xbc39d876	-0.011343112
118	0x3d9ffedf	0.07812285
119	0x3d048768	0.032355696
120	0x3d116cf8	0.03550431
121	0xbdbfda4d	-0.093678094
122	0x3c9bceb6	0.019019466
123	0xbc8c286c	-0.017109118
124	0x3cd1f714	0.025630511
125	0xbcc74f69	-0.024329858
126	0x3b86daec	0.004115453
127	0xbda57f7e	-0.08080958
128	0x3c5060af	0.012718364
129	0x3d240662	0.04004515
130	0x3ce3318b	0.027733585
131	0xbc1f96b6	-0.009740522
132	0xbcf62912	-0.03004888
133	0xbd1f2cb4	-0.03886099
134	0x3c745ac0	0.014914215
135	0xbccb32b9	-0.02480446
136	0x3b97cf93	0.004632899
137	0xbd6e024b	-0.058107655
138	0xbd7173a2	-0.058948167
139	0xbdd49297	-0.10379522
140	0xbd652d11	-0.05595118
141	0x3d94bade	0.072622046
142	0xbd982218	-0.07428378
143	0xbb057592	-0.0020364267
144	0xbdd8cfe8	-0.1058653
145	0x3c86c0d9	0.016449379
146	0x3cfd2003	0.030899053
147	0xbd292731	-0.04129714
148	0xbc30670d	-0.010766757
149	0x3c36212d	0.011116308
150	0x3cdba23d	0.02681076
151	0x3db3f395	0.08786694
152	0x3da34bcd	0.07973442
153	0xbd4ed91b	-0.050500017
154	0x3d04bdfc	0.032407746
155	0xbd54bb19	-0.051936243
156	0xbb9e0a08	-0.004822973
157	0xbc0687d7	-0.008211098
158	0x3d389131	0.04506034
159	0x3d832da6	0.06405191
160	0xbd6f869b	-0.05847798
161	0x3c0d56f1	0.0086266855
162	0x3d57a13b	0.052643996
163	0x3cf0dc74	0.029401995
164	0xbdce34ad	-0.10068641
165	0xbdcce868	-0.100052655
166	0x3a03faf8	0.00050346507
167	0xbd34592f	-0.044030365
168	0x3d260985	0.040536422
169	0xbdc8d10a	-0.09805496
170	0xbb1907f5	-0.002335069
171	0xbcd60e53	-0.026129877
172	0xbc10e81c	-0.008844402
173	0xbbf16908	-0.007367257
174	0xbdcc62b5	-0.09979764
175	0x3da8a20f	0.08234035
176	0xbda34d4c	-0.079737276
177	0x3c0493ac	0.008091848
178	0x3d14d747	0.036338117
179	0x3c49790a	0.012296924
180	0xbd27ac42	-0.040935762
181	0xbdf88a30	-0.12135732
182	0x3d99f8b4	0.075181395
183	0x3da10225	0.07861737
184	0x3a4337a9	0.00074469537
185	0xbb3d0192	-0.0028840047
186	0xbd94dfde	-0.07269262
187	0x3c8e4fff	0.01737213
188	0x3c738b8a	0.014864812
189	0x3d04aef3	0.032393407
190	0x3be8d403	0.007105352
191	0xbbdd6d1c	-0.0067573916
192	0xbd9ca63e	-0.07648896
193	0xb8a8e187	-8.052872e-05
194	0x3dd68d49	0.10476167
195	0x3da952d0	0.08267748
196	0x3daaadb5	0.08333913
197	0xbc274f13	-0.010211724
198	0x3c248e20	0.010043651
199	0xbe041b4f	-0.12901042
200	0xbcf5f365	-0.030023286
201	0xbd98f53f	-0.07468652
202	0xbd727ba0	-0.05919993
203	0xbda2039f	-0.07910847
204	0xbd784c00	-0.060619354
205	0xbd61dd06	-0.055142425
206	0x3d020dde	0.031751506
207	0xbb9f49d2	-0.004861095
208	0x3c915077	0.017738564
209	0x3c9846f6	0.018588524
210	0x3c9dbc0c	0.019254707
211	0xbd066266	-0.032808684
212	0xbdef2857	-0.11677616
213	0xbdd1883b	-0.10231062
214	0x3dce5da7	0.100764565
215	0x3d176fe6	0.03697195
216	0xb92b97d0	-0.00016364385
217	0x3cba0df6	0.022711735
218	0x3d07d9f4	0.03316684
219	0xbda306ae	-0.079602584
220	0x3ded3d8d	0.115840055
221	0x3dc3bb98	0.09557265
222	0x3d40713b	0.046982985
223	0xbdc15eee	-0.094419345
224	0x38f0c80e	0.00011481355
225	0xbcaa531a	-0.020791579
226	0x3d1a0374	0.03760095
227	0xbddd8ade	-0.108175024
228	0xbd7401eb	-0.05957214
229	0x3dd7ce5e	0.10537408
230	0xbd534bbc	-0.051585898
231	0x3d22919d	0.03968965
232	0xbd2b546a	-0.04182855
233	0x3c811d0b	0.01576092
234	0xbc4e1917	-0.012579224
235	0x3c72106f	0.014774426
236	0xbdb5c064	-0.08874586
237	0xbd2a6b3a	-0.041606165
238	0x3b811c0a	0.00394011
239	0xbd5a3ee6	-0.05328264
240	0xbd21a24c	-0.03946142
241	0xbdae5816	-0.08512895
242	0x3d73d2fa	0.059527375
243	0xbd0e3bd5	-0.03472503
244	0xbc0518eb	-0.008123617
245	0xbd114046	-0.035461687
246	0xbcafb0d7	-0.021446628
247	0x3d022815	0.031776506
248	0xbc8c3817	-0.01711659
249	0x3dcfbdd6	0.1014363
250	0x3e23df77	0.16003214
251	0xbd7c05ad	-0.06152885
252	0x3d11e45b	0.035618167
253	0xbd4dab6d	-0.050212312
254	0x3d837487	0.0641871
255	0xbd12513c	-0.035722002

critic.4.weight f4 [1, 256]
0	0x3f0297b7	0.5101275
1	0x3ed8ef2e	0.4236998
2	0xbf103191	-0.5632563
3	0xbedaaa93	-0.42708263
4	0xbec85c9a	-0.3913315
5	0xbee7a1ee	-0.4524073
6	0xbefbdec6	-0.491934
7	0xbedf840f	-0.4365544
8	0x3edaab22	0.4270869
9	0x3ed54e60	0.41661358
10	0x3f69c01b	0.91308755
11	0xbf1a62ef	-0.6030721
12	0xbecb11f0	-0.39662123
13	0xbee16af4	-0.4402691
14	0x3f00466b	0.5010745
15	0x3f17abf8	0.5924678
16	0x3f295b81	0.6615525
17	0x3ed01559	0.40641287
18	0xbee67f80	-0.4501915
19	0x3f17eabc	0.5934255
20	0x3ebc652b	0.36795935
21	0x3ee168cd	0.4402527
22	0x3ed6b9d4	0.4193865
23	0xbef38648	-0.47563386
24	0xbf1836b6	-0.5945848
25	0xbeaa6584	-0.33280575
26	0x3f172371	0.59038454
27	0xbee164d0	-0.44022226
28	0xbee24929	-0.44196442
29	0x3f26667b	0.6500012
30	0x3ec6d6a6	0.3883564
31	0x3ed7c8f3	0.421455
32	0xbf69d90d	-0.9134682
33	0xbeff0952	-0.49811798
34	0xbef0619d	-0.46949473
35	0xbed2d4d1	-0.4117799
36	0xbee94c77	-0.4556615
37	0xbf0767a0	-0.52892494
38	0xbeee485b	-0.46539578
39	0x3efb556d	0.49088612
40	0xbeda86bb	-0.42680916
41	0x3ed51e9e	0.41624922
42	0xbed071fa	-0.40711957
43	0x3f15caac	0.5851238
44	0xbed63730	-0.4183898
45	0x3f2290ea	0.6350237
46	0xbec9ffcb	-0.39452967
47	0xbf62da60	-0.88614464
48	0x3eb9aaab	0.36263022
49	0x3f0c1319	0.5471664
50	0xbf058715	-0.52159244
51	0xbee242ca	-0.4419158
52	0xbec622be	-0.3869838
53	0x3edebe4f	0.4350457
54	0x3f66fa96	0.90226114
55	0x3ed7a59d	0.4211854
56	0x3ed782da	0.4209202
57	0x3f09e976	0.5387186
58	0xbec26766	-0.37969512
59	0x3f8864fb	1.0655817
60	0xbef54868	-0.47906804
61	0xbee7e536	-0.45292062
62	0xbf457eff	-0.77146906
63	0xbee3a6ed	-0.44463292
64	0x3f2d7a31	0.67764574
65	0xbf6848ec	-0.9073627
66	0x3ef141ae	0.47120422
67	0x3ed91306	0.42397326
68	0x3ed0da44	0.40791523
69	0xbeee1eb0	-0.46507788
70	0xbf18a431	-0.59625536
71	0x3f026b04	0.5094454
72	0x3ed7d2bd	0.42152968
73	0xbedd1e65	-0.43187252
74	0xbebfc53c	-0.37455165
75	0xbf19bf8e	-0.60057914
76	0x3f10d7d8	0.5657935
77	0xbed9e793	-0.4255949
78	0xbf04ba2a	-0.51846564
79	0xbf256027	-0.6459984
80	0x3f1773fe	0.59161365
81	0xbf082f64	-0.5319731
82	0xbeca6df3	-0.3953701
83	0xbee7b068	-0.45251775
84	0xbf0074d5	-0.5017827
85	0xbf176de2	-0.5915204
86	0xbed2ee90	-0.41197634
87	0x3eb442b5	0.35207143
88	0xbeedd78d	-0.46453515
89	0xbeccb676	-0.39982957
90	0x3ef29057	0.47375748
91	0xbf62fec3	-0.88669986
92	0x3ee9f146	0.4569189
93	0xbee045fc	-0.43803394
94	0xbed54e0f	-0.41661116
95	0x3edc2ae5	0.43001476
96	0xbed65cd8	-0.4186771
97	0xbee3c721	-0.4448786
98	0xbf138d3b	-0.57637376
99	0x3ed303ce	0.4121384
100	0xbec02cde	-0.3753423
101	0xbeefd752	-0.46843964
102	0xbf1c2ab2	-0.6100265
103	0x3f1ecacd	0.620282
104	0x3f0caf96	0.5495542
105	0xbea4639d	-0.3210725
106	0x3edeb194	0.43494856
107	0xbedc7529	-0.43058136
108	0xbf16b8dd	-0.5887583
109	0x3f3c5e2b	0.7358119
110	0x3f034bbe	0.5128745
111	0xbf89f8a9	-1.077901
112	0xbefaed54	-0.49009192
113	0xbf1b5cfb	-0.6068875
114	0x3edebd63	0.43503866
115	0x3eea5ec0	0.45775414
116	0xbecd89b3	-0.4014412
117	0xbee3ad50	-0.44468164
118	0xbf3309e1	-0.6993695
119	0xbf010526	-0.5039848
120	0xbf1c93cb	-0.61163014
121	0xbed4317c	-0.41444004
122	0x3ee8b3bd	0.4544963
123	0xbed6c639	-0.41948107
124	0xbefe4bc0	-0.49667168
125	0x3f156118	0.5835128
126	0xbf0fb5be	-0.5613669
127	0xbedf04ce	-0.43558353
128	0x3f39b66b	0.7254397
129	0xbee2d562	-0.44303423
130	0xbf128bc9	-0.57244545
131	0xbef84917	-0.48493263
132	0xbee8a28c	-0.45436513
133	0x3edd2868	0.4319489
134	0xbed27db8	-0.4111154
135	0xbef12ef2	-0.4710613
136	0xbef981a8	-0.48731732
137	0x3f015e88	0.5053487
138	0x3ee6afdd	0.45056048
139	0xbeedf1e1	-0.464736
140	0x3eca633c	0.39528835
141	0xbedb7444	-0.4286214
142	0x3e9e1dff	0.3088226
143	0x3eead28f	0.45863768
144	0xbed1cea4	-0.40977967
145	0x3ec53b47	0.38521788
146	0xbf08c27f	-0.5342178
147	0xbf071466	-0.527655
148	0xbed65bc0	-0.41866875
149	0xbed1f215	-0.41005006
150	0xbf0fbc97	-0.5614714
151	0x3ed2c0ed	0.41162816
152	0xbf559c29	-0.83441406
153	0x3ed906d6	0.42388028
154	0x3ef1ffbc	0.47265422
155	0x3ef3e4bb	0.47635445
156	0xbf208b9d	-0.6271303
157	0xbed7d4a7	-0.42154428
158	0x3ece33aa	0.40273792
159	0xbec6fb11	-0.38863423
160	0x3f038251	0.5137072
161	0xbef2d2f5	-0.47426572
162	0xbf0b0c77	-0.54315895
163	0x3ee365e1	0.44413665
164	0x3ed8a176	0.42310685
165	0xbf5c270e	-0.8599709
166	0xbee3a079	-0.44458368
167	0x3f29fa71	0.6639777
168	0xbf047bc3	-0.51751345
169	0x3ee2026f	0.44142482
170	0xbf0bf339	-0.54668003
171	0xbeebea28	-0.46077085
172	0x3ecc7daf	0.3993964
173	0xbf416f9b	-0.7556092
174	0xbf1c6f7b	-0.61107606
175	0xbecd3e02	-0.4008637
176	0x3f326273	0.6968147
177	0xbed76a08	-0.42073083
178	0x3ef03bdb	0.46920666
179	0xbecfea9b	-0.40608677
180	0xbee46494	-0.44607985
181	0x3eec559d	0.46159068
182	0xbed7dc5a	-0.42160302
183	0xbec1aee7	-0.37828752
184	0x3ed0c44e	0.4077477
185	0xbed388ed	-0.41315404
186	0x3f1f52db	0.622358
187	0x3ec6327d	0.38710395
188	0xbf1aec00	-0.6051636
189	0x3ed45d88	0.4147761
190	0x3f01dd51	0.5072833
191	0xbf003d5a	-0.50093615
192	0x3eeb368a	0.45940048
193	0xbf2c2e4b	-0.6725814
194	0xbed20e59	-0.4102657
195	0x3ee80e26	0.45323294
196	0xbf344c58	-0.7042899
197	0xbeb8d4af	-0.36099765
198	0xbec255f6	-0.37956208
199	0x3ee3403e	0.4438495
200	0x3f15465f	0.583105
201	0x3ed93e66	0.4243042
202	0xbec9173a	-0.39275533
203	0x3f0085c4	0.5020411
204	0x3efcb8bf	0.493597
205	0x3ec2afa0	0.38024616
206	0xbebff897	-0.37494346
207	0x3ed8efb6	0.42370385
208	0xbee3ad88	-0.4446833
209	0x3ebf6d8c	0.37388265
210	0xbf0bd753	-0.54625434
211	0x3f45a4b0	0.7720442
212	0xbec5b658	-0.3861568
213	0x3f1aac23	0.6041891
214	0x3f21ff4e	0.6328019
215	0x3ec79636	0.3898179
216	0x3ec20536	0.378946
217	0xbec943e2	-0.39309603
218	0x3f023cfc	0.50874305
219	0x3f02b5a3	0.51058406
220	0x3ed6a19d	0.41920176
221	0xbebd788f	-0.3700604
222	0xbef72158	-0.48267627
223	0x3f162567	0.5865082
224	0x3edc9f15	0.4309012
225	0x3eff76a9	0.49895218
226	0x3ecdf2c9	0.40224293
227	0xbed5e9ef	-0.4178004
228	0x3edb4c62	0.42831713
229	0xbf246c4f	-0.64227766
230	0xbf0a0b94	-0.53923917
231	0x3eda43e0	0.4262991
232	0xbefa3559	-0.48868826
233	0xbf1e4669	-0.6182619
234	0xbee78937	-0.45221874
235	0x3ec57fce	0.3857407
236	0x3f14a866	0.58069456
237	0x3ede466c	0.43413103
238	0x3eecb133	0.46228942
239	0x3ec8482f	0.39117572
240	0xbed3ae6f	-0.4134402
241	0x3ec73afa	0.38912183
242	0xbf0d1b9b	-0.5512025
243	0x3ee2dd25	0.44309345
244	0x3ed046d9	0.40679052
245	0x3f009b45	0.5023692
246	0xbedd7a28	-0.4325726
247	0xbf21cda1	-0.6320439
248	0xbf0cb0ea	-0.5495745
249	0x3ea709f5	0.32624784
250	0xbf4663c9	-0.7749601
251	0x3f55f625	0.8357871
252	0xbef8e04b	-0.48608622
253	0x3ec046e1	0.37554076
254	0x3f462fdd	0.77416784
255	0x3eeaf6aa	0.45891315

actor.0.weight f4 [256, 19]
0	0xbe0496c3	-0.12948136
1	0xbdf476d7	-0.119367294
2	0x3e1055e1	0.1409526
3	0xbd92bb12	-0.07164587
4	0xbcd6a4a0	-0.026201546
5	0x3ce4c2c8	0.02792491
6	0x3ec11427	0.37710688
7	0xbcd56cae	-0.0260528
8	0xbd9bc5ca	-0.07606085
9	0x3dea45d6	0.114391014
10	0x3e104fbf	0.1409292
11	0xbe5c605c	-0.21521133
12	0x3df2a0ae	0.118470535
13	0xbd8ec2b4	-0.069707304
14	0xbc86abd9	-0.016439365
15	0x3e2ae008	0.16687024
16	0xbde6da1e	-0.11272071
17	0x3e0d324c	0.13788718
18	0x3d8ec726	0.06971578
19	0xbd6eec50	-0.058330834
20	0x3e492a54	0.19645053
21	0xbd0361d1	-0.032075707
22	0xbc33d772	-0.010976659
23	0xbabeba00	-0.0014551282
24	0x3d663ec4	0.0562122
25	0xbed6b40c	-0.4193424
26	0x3e4abdbe	0.19798943
27	0xbde4af1c	-0.11166212
28	0x3c8efed9	0.017455505
29	0xbe60148d	-0.2188284
30	0x3e004ab3	0.12528495
31	0xbe7e3e03	-0.24828343
32	0xbdcccc12	-0.09999861
33	0x3b10a853	0.0022072985
34	0x3d6df6b4	0.058096603
35	0x3dc3f12d	0.09567485
36	0x3d9f842f	0.07788884
37	0xbe29b8a2	-0.16574338
38	0x3d3f2157	0.046662655
39	0x3da29ee8	0.07940465
40	0x3e15827a	0.14600554
41	0xbd93cd13	-0.07216849
42	0x3e36bc61	0.17845298
43	0xbe63df9a	-0.22253266
44	0xbd368401	-0.044559482
45	0x3d72ab31	0.059245292
46	0xbdd2f4f4	-0.10300627
47	0xbc9ef986	-0.019406091
48	0xbe4defd6	-0.20111021
49	0x3e2fa95b	0.17154448
50	0xbd3c1126	-0.04591479
51	0x3e703049	0.2345592
52	0x3d7dcbc2	0.061961897
53	0x3ce7439d	0.028230483
54	0x3e21705e	0.15765521
55	0xbd9a56da	-0.07536097
56	0xbe86c107	-0.26319143
57	0xbddabd5e	-0.1068065
58	0x3d0869f0	0.033304155
59	0xbdbc85ec	-0.09205231
60	0x3c6925b2	0.014230179
61	0x3e2c795f	0.16843174
62	0xbe484b13	-0.19559889
63	0xbd783a38	-0.060602397
64	0x3e0112cf	0.12604831
65	0xbdc31eef	-0.095273845
66	0xbd8a738d	-0.06760321
67	0xbb3c0780	-0.0028690994
68	0x3e14495a	0.14481106
69	0xbc919f5b	-0.017776182
70	0x3eae119a	0.33997804
71	0x3ce551fa	0.027993191
72	0xbd544c8d	-0.051830817
73	0x3e232041	0.15930273
74	0xbd7e2660	-0.062048316
75	0x3d0d11dd	0.034440864
76	0x3e19e887	0.15030108
77	0xbda3c646	-0.07996802
78	0xbc24d79c	-0.010061171
79	0x3d8add6f	0.06780516
80	0x3e01b93d	0.12668319
81	0xbdf567fe	-0.119827256
82	0x3b9455b0	0.0045268163
83	0xbe22dfcd	-0.15905686
84	0x3e11c8d1	0.14236762
85	0xbe60bc7a	-0.21946898
86	0xbe4faab3	-0.2027996
87	0x3e8b5a3b	0.27217278
88	0xbdc4c245	-0.096073665
89	0xbdd41a90	-0.10356629
90	0x3d46bec7	0.048521783
91	0xbcf1defb	-0.02952527
92	0x3e5242f6	0.20533356
93	0x3e2f1751	0.17098738
94	0xbc928c47	-0.017889155
95	0x3d990fd3	0.07473721
96	0xbde3ecec	-0.11129174
97	0xbe46f688	-0.19429982
98	0x3d84634d	0.064642526
99	0xbca12228	-0.019669607
100	0xbe0ed4ce	-0.13948366
101	0x3dbb8213	0.09155669
102	0x3de86cbe	0.11348866
103	0xbe43d51e	-0.19124267
104	0x3d81fb77	0.06346791
105	0xbda55fc0	-0.080749035
106	0xbbdaee54	-0.006681243
107	0x3e7afa48	0.24509537
108	0xbe76e7b3	-0.24111824
109	0xbe63f6e2	-0.22262147
110	0xbbaaa2df	-0.005207404
111	0xbe04c553	-0.12965898
112	0xbdeaa552	-0.114573136
113	0xbd1db9cb	-0.038507264
114	0xbd9579e8	-0.072986424
115	0x3e1c7d20	0.15282106
116	0xbe22a68d	-0.15883847
117	0x3e3574c8	0.1772033
118	0xbe3d8987	-0.18509494
119	0xbe472746	-0.19448575
120	0xbe4eefb1	-0.20208623
121	0x3e5cc82c	0.21560735
122	0xbe20fdc6	-0.15721807
123	0xbe0ae748	-0.1356479
124	0x3dfc99aa	0.123339966
125	0xbe025324	-0.12727028
126	0xbe862ad9	-0.26204565
127	0x3e4cc6d6	0.19997725
128	0xbe65d94d	-0.22446175
129	0xbcf2a39e	-0.029619034
130	0x3db4d7eb	0.088302456
131	0x3d439436	0.047748767
132	0x3e25ac8a	0.161791
133	0x3e405cfc	0.1878547
134	0xbe647f8e	-0.22314283
135	0x3e53a21c	0.20667309
136	0xbddf7268	-0.10910493
137	0x3e076a79	0.1322421
138	0x3e3aa05d	0.18225236
139	0xbe90ec2e	-0.2830519
140	0xbd9396ce	-0.07206498
141	0xbc33e757	-0.010980449
142	0xbdc25352	-0.09488548
143	0xbe3be955	-0.18350728
144	0xbd33ee32	-0.043928333
145	0x3e6b915a	0.23004666
146	0x3ea07efb	0.31346878
147	0x3d2f9cea	0.042874254
148	0xbe88e2d0	-0.26735544
149	0xbd013d6a	-0.03155271
150	0xbe276035	-0.16345294
151	0xbe264d52	-0.16240433
152	0x3c7dea33	0.015497732
153	0x3d81e97f	0.06343364
154	0xbe23f8eb	-0.16012923
155	0x3df9531a	0.121740535
156	0x3e41aa49	0.18912615
157	0xbe36a9a3	-0.17838149
158	0x3c3629c8	0.01111836
159	0xbe3613eb	-0.17781036
160	0xbe5a232b	-0.21302478
161	0xbe32ca49	-0.17459978
162	0x3cee2a88	0.029073015
163	0xbe82c73b	-0.25542626
164	0x3e85394f	0.26020285
165	0xbe0c06b8	-0.13674438
166	0x3e5228dd	0.205234
167	0x3e46b630	0.19405437
168	0xbe5be822	-0.2147527
169	0x3dbfb2ab	0.0936025
170	0x3e60c808	0.21951306
171	0xbe180d40	-0.14848804
172	0xbe4f89c9	-0.20267405
173	0x3dc22ec6	0.094815776
174	0x3e2303db	0.1591944
175	0xbe518635	-0.20461352
176	0xbe5e4936	-0.21707615
177	0xbe315e48	-0.17321122
178	0x3d4843f5	0.048892934
179	0xbe46d782	-0.19418147
180	0xbc4882ef	-0.012238248
181	0xbe60b5d4	-0.21944362
182	0xbea23855	-0.31683603
183	0x3c90c0ae	0.017670002
184	0x3d05fb58	0.032710403
185	0xbd572454	-0.05252488
186	0xbdd764e4	-0.1051729
187	0xbdaef968	-0.08543664
188	0x3e3e917a	0.18610182
189	0x3e99ff63	0.30077657
190	0x3e0f8d98	0.14018857
191	0x3e2f0c86	0.17094621
192	0xbe09124d	-0.13385887
193	0xbe317ed2	-0.17333534
194	0xbe699cf6	-0.22813782
195	0x3ce56058	0.028000042
196	0xbdc2f626	-0.09519605
197	0xbdbb2786	-0.09138398
198	0xbd9ac65c	-0.07557365
199	0xbddd85ff	-0.10816573
200	0x3e4e1f55	0.2012914
201	0xbead02ac	-0.337911
202	0x3db8714a	0.09005983
203	0xbe7708b5	-0.24124415
204	0x3e3f0b99	0.18656768
205	0x3e59796f	0.2123773
206	0x3d0f8640	0.03504014
207	0x3d2a7d52	0.04162342
208	0x3e2e86e0	0.17043638
209	0x3e48dd0b	0.19615571
210	0xbd41d612	-0.047323294
211	0xbd61b39c	-0.05510293
212	0x3e2aa99b	0.16666262
213	0x3de390fe	0.111116394
214	0x3e31c95b	0.17361967
215	0x3e98e94c	0.2986549
216	0xbe075e65	-0.13219602
217	0x3e07bf03	0.13256459
218	0xbe55b8b0	-0.20871234
219	0xbe01acfa	-0.12663642
220	0x3d863f04	0.06554988
221	0x3d1743ec	0.03693001
222	0x3cb8c867	0.022556497
223	0xbdfcbe1b	-0.12340947
224	0x3d6f9e2c	0.058500454
225	0x3e7d3997	0.24729
226	0x3da4ec6f	0.08052909
227	0xbe2e9d80	-0.17052269
228	0xbe71345f	-0.23555134
229	0x3bda6cce	0.0066658026
230	0xbe3c86fa	-0.18410864
231	0xbb8f8428	-0.004379768
232	0x3e4be155	0.19910176
233	0x3d440b7c	0.047862515
234	0x3e96b88e	0.2943768
235	0xbd74e5e8	-0.05978957
236	0x3db56a13	0.08858123
237	0x3e2c93a9	0.16853203
238	0xbdbc7cda	-0.09203501
239	0xbe9e816d	-0.3095812
240	0x3e8e44ac	0.27786767
241	0xbd8fb2a7	-0.07016497
242	0xbe87c10b	-0.26514468
243	0x3dec3350	0.115332246
244	0x3e8e0c73	0.27743873
245	0x3e10f7cb	0.14157026
246	0x3e631840	0.2217722
247	0x3e1cbe8d	0.15307064
248	0x3e18f3bf	0.14936732
249	0x3d1f0ac8	0.03882864
250	0xbe71c587	-0.23610507
251	0x3dfcd91e	0.12346099
252	0x3de949a6	0.113910004
253	0x3ee119da	0.43965036
254	0x3df5cdea	0.120021656
255	0xbe3f6758	-0.18691766

actor.0.bias f4 [256]
0	0xbbec5548	-0.0072123148
1	0xbd03f837	-0.032219138
2	0x3dcaa931	0.09895552
3	0xbe01caf4	-0.12675077
4	0xbd64647f	-0.055759903
5	0x3e134e54	0.14385349
6	0x3dd977a7	0.10618525
7	0x3e247ba9	0.16062798
8	0xbc82b475	-0.01595519
9	0xbc70309d	-0.014660028
10	0x3e1fb2c2	0.15595534
11	0xbdf4f43f	-0.11960649
12	0x3da628db	0.08113261
13	0x3c82cd09	0.015966909
14	0xbc8f8348	-0.017518654
15	0x3e00c828	0.12576354
16	0xbd94471d	-0.07240126
17	0xbd06ab02	-0.03287793
18	0x3d43ec47	0.047832754
19	0x3db5ffc2	0.088866726
20	0x3dfa37da	0.12217684
21	0xbe0ed63c	-0.13948911
22	0xbe1c7995	-0.15280755
23	0xbc65c546	-0.014024084
24	0x3df8367c	0.12119767
25	0x3ddca8f5	0.107744135
26	0x3d57eabc	0.052714095
27	0xbe0675d7	-0.1313089
28	0x3db677ea	0.089095905
29	0xbd8f7b44	-0.07005933
30	0x3d1ed131	0.03877372
31	0x3e4ebecb	0.20189969
32	0x3e20d7e0	0.1570735
33	0xbdf75adc	-0.12077877
34	0x3d3509f1	0.044198934
35	0x3d5d89da	0.054086544
36	0xbcf9631e	-0.03044277
37	0xbd0d6e5a	-0.034529068
38	0xbdf99d2a	-0.1218818
39	0x3dd667bf	0.10469007
40	0xbe47cd30	-0.19511867
41	0x3d789763	0.06069125
42	0xbde129e1	-0.10994316
43	0xbda60c41	-0.08107806
44	0x3df6b468	0.120461285
45	0xbc9f8c3c	-0.019476049
46	0xbd41e559	-0.047337864
47	0xbe2531cb	-0.16132276
48	0xbd57d8fe	-0.052697174
49	0x3de16b55	0.110068
50	0x3e19f982	0.15036586
51	0x3e1b09a2	0.15140393
52	0x3e6ca4a5	0.23109682
53	0xbca626cf	-0.020282177
54	0x3b614837	0.0034375319
55	0xbdad5666	-0.08463745
56	0xbe107098	-0.14105451
57	0x3e0b8c8b	0.13627832
58	0x3d793125	0.060837884
59	0x3defc3c9	0.11707265
60	0x3e07715d	0.13226838
61	0xbdb8e667	-0.09028321
62	0xbe423855	-0.18966801
63	0xbe9e1e0c	-0.308823
64	0xbe332436	-0.17494282
65	0x3ce266d5	0.027636925
66	0x3e253cb5	0.16136439
67	0xbd43b787	-0.047782447
68	0x3de7c716	0.113172695
69	0x3d9414a2	0.07230498
70	0x3e596a33	0.21231918
71	0x3de9817c	0.1140165
72	0x3e780b29	0.24223007
73	0x3e38c625	0.18044336
74	0x3d8a8b06	0.06764798
75	0x3e19db54	0.15025073
76	0x3e2d2386	0.16908082
77	0x3e1d2c2a	0.15348879
78	0xbd8540b3	-0.06506481
79	0x3db833cd	0.08994255
80	0x3da5bdd1	0.08092845
81	0xbe4d6e29	-0.20061554
82	0x3da3cc8a	0.07997997
83	0x3bbd8271	0.005783372
84	0xbdb310ef	-0.08743464
85	0x3c893885	0.016750583
86	0x3dbeeb1a	0.09322186
87	0x3c530808	0.012880333
88	0x3e28a7a7	0.16470204
89	0x3e4f5d13	0.20250349
90	0x3de1722c	0.11008105
91	0x3ae35679	0.0017344496
92	0x3e0cd098	0.13751447
93	0xbd90848f	-0.070565335
94	0x3e5a37e4	0.21310383
95	0xbc9e7a56	-0.019345444
96	0xbdd4a8ee	-0.10383783
97	0xbe37613f	-0.1790819
98	0xbbc8ceed	-0.006128183
99	0x3ddb1d38	0.106989324
100	0xbc49eb60	-0.012324184
101	0xbde24f86	-0.11050324
102	0xbe173f87	-0.14770328
103	0xbaf40adb	-0.0018618958
104	0x3c5b1df6	0.013373842
105	0x3ccac593	0.024752414
106	0x3dfac826	0.122452065
107	0x3e0ba330	0.1363647
108	0x3d6286e0	0.055304408
109	0xbe22d42c	-0.1590125
110	0xbd7871f7	-0.06065556
111	0x3d64592f	0.055749115
112	0x3d8f7ab3	0.07005825
113	0x3e66814b	0.22510259
114	0xbc0a577b	-0.0084437085
115	0xbe22cc2d	-0.158982
116	0xbe2a9aa8	-0.16660559
117	0xbd3a0a8a	-0.045420207
118	0x3d62534e	0.055255227
119	0x3d9c6111	0.076357014
120	0xbe47aafa	-0.19498816
121	0x3df7da47	0.1210218
122	0xbe3e9579	-0.18611707
123	0x3e1bc034	0.15210038
124	0xbd054795	-0.03253897
125	0x3d60d4a5	0.054890294
126	0x3d45f9e5	0.04833402
127	0xbd486177	-0.048921075
128	0xbdeffdc1	-0.117183216
129	0x3e3aae47	0.18230544
130	0x3e3a8840	0.18216038
131	0x3de66e29	0.1125148
132	0xbe50564a	-0.20345417
133	0x3c7f88d5	0.015596588
134	0x3e4893a6	0.19587573
135	0x3e314e57	0.1731504
136	0x3de56866	0.11201553
137	0xbe3bdeea	-0.18346754
138	0xbd906bed	-0.07051835
139	0x3d8fe5a5	0.07026223
140	0x3d8407f4	0.064468294
141	0x3e4622b4	0.19349176
142	0xba6a5b1f	-0.00089399697
143	0xbdecc1c2	-0.11560394
144	0x3d9607ec	0.0732573
145	0xbe512d8e	-0.20427534
146	0xbc700635	-0.014649917
147	0x3df487ee	0.11939989
148	0x3e109adc	0.14121574
149	0xbdbf27ce	-0.09333764
150	0xbd2364db	-0.039891105
151	0xbe638217	-0.22217594
152	0xbd90bb27	-0.070669465
153	0x3e2c6ef5	0.16839202
154	0xbdabac22	-0.08382441
155	0xbe18da9e	-0.14927146
156	0xbe2eee48	-0.17083085
157	0xbe589361	-0.2114997
158	0x3d8b78e2	0.06810166
159	0xbe341c23	-0.17588858
160	0xbd4c258b	-0.04984049
161	0x3e3ed11c	0.18634456
162	0xbda0317d	-0.07821939
163	0x3e5e5232	0.21711043
164	0xbe0439b8	-0.12912643
165	0xbe3e384b	-0.18576162
166	0xbd616eaa	-0.055037178
167	0x3dc4dd4d	0.09612522
168	0x3e3b8d12	0.18315533
169	0x3e203de4	0.1564861
170	0xbdfedeab	-0.12444814
171	0xbe094726	-0.13406047
172	0xbc93025e	-0.017945465
173	0x3e420a68	0.18949282
174	0xbe3189a3	-0.1733766
175	0xbd32c616	-0.04364594
176	0xbe1e5044	-0.15460306
177	0x3cc6f7f3	0.024288153
178	0xbd9a03e8	-0.07520276
179	0x3e0c2345	0.1368533
180	0x3cf79935	0.030224422
181	0x3e4d816d	0.20068903
182	0xbe367a0b	-0.17819993
183	0xbd9ecfee	-0.07754503
184	0xbd5b6034	-0.053558543
185	0xbda83832	-0.082138434
186	0x3e0e4a73	0.13895588
187	0xbe761f63	-0.2403541
188	0xbdea4640	-0.114391804
189	0x3e17af59	0.14812984
190	0xbe63570f	-0.22201179
191	0xbe4102e9	-0.18848766
192	0x3c8ecc3e	0.017431375
193	0x3d89bf30	0.06725919
194	0x3d7ff991	0.062493864
195	0x3e38c8b1	0.18045308
196	0xbcbf91c0	-0.023384929
197	0xbe1fa4a9	-0.15590157
198	0x3d6bf4b8	0.05760643
199	0x3d130b79	0.035899613
200	0x3e119191	0.14215685
201	0x3d7f96e4	0.06239976
202	0x3dd8290f	0.10554706
203	0x3dd601c3	0.10449555
204	0x3bb48ceb	0.005509963
205	0xbe1c89e9	-0.15286984
206	0xbe2a69bf	-0.16641901
207	0xbe008835	-0.12551959
208	0xbd9cf2b5	-0.0766348
209	0x3d591413	0.05299766
210	0xbe022b3c	-0.12711805
211	0x3dff412e	0.12463604
212	0x3e20bea1	0.15697719
213	0x3e2cc710	0.16872811
214	0x3e1b234c	0.15150183
215	0xbc23c3e8	-0.009995438
216	0x3d80bc13	0.06285872
217	0x3da01551	0.07816566
218	0x3e5dfd87	0.21678744
219	0xbdfbe86b	-0.123001896
220	0xbe15f92d	-0.14645834
221	0x3e150003	0.14550786
222	0xbd34e812	-0.044166632
223	0x3db60847	0.088882975
224	0xbe56d3de	-0.20979258
225	0x3e54db40	0.20786762
226	0x3e14b95d	0.14523835
227	0xbc7ae612	-0.015313642
228	0xbc78d87f	-0.015188335
229	0xbdab4705	-0.08363155
230	0xbdf90eb8	-0.121610105
231	0xbdc86bde	-0.09786199
232	0xbe6a2ed7	-0.2286943
233	0xbe08d084	-0.13360792
234	0xbe33a214	-0.17542297
235	0xbc1c3fe8	-0.009536721
236	0xbe13a18a	-0.14417091
237	0xbe03be36	-0.12865528
238	0x3e401dea	0.18761411
239	0xbc8ca0e2	-0.017166559
240	0x3db6f44b	0.08933314
241	0x3db8e5b8	0.090281904
242	0x3d7206d1	0.059088532
243	0x3e581854	0.2110303
244	0xbc7a0e89	-0.0152622545
245	0x3deb9d5c	0.11504623
246	0xbdbf4b6f	-0.0934056
247	0x3e1962d9	0.14979114
248	0x3daff39e	0.08591388
249	0x3e1441aa	0.14478174
250	0xbdf83dbb	-0.12121149
251	0xbd9678a5	-0.0734723
252	0x3e687c14	0.22703582
253	0x3d49483d	0.049141157
254	0x3e0048eb	0.12527816
255	0xbe76c9fe	-0.24100491
