models/mec_policy.pth (torch, 576546 bytes, 11 tensors)

critic.0.weight f4 [256, 19]
0	0x3cd8b69e	0.026454266
1	0x3e57dae7	0.21079598
2	0xbdf2d662	-0.118572965
3	0x3e425712	0.18978527
4	0x3d853e06	0.06505971
5	0x3e586b9f	0.21134804
6	0x3e48da41	0.19614507
7	0xbe46ca26	-0.19413051
8	0x3de1b101	0.11020089
9	0xbdc6d7ed	-0.09709153
10	0xbe62d60e	-0.22151968
11	0xbf00a240	-0.50247574
12	0xbd663e0e	-0.056211524
13	0x3dc32adf	0.095296614
14	0x3d1a51f3	0.03767581
15	0xbc401f86	-0.011726266
16	0xbaea5e80	-0.0017880946
17	0xbdbe8e24	-0.09304455
18	0xbe181f3d	-0.14855666
19	0x3db9e31a	0.09076519
20	0x3accdad6	0.0015629183
21	0xbceb7758	-0.028743431
22	0x3d40612e	0.046967678
23	0x3b290280	0.0025788844
24	0xbe50687c	-0.20352358
25	0x3e1aeca8	0.1512934
26	0xbe254aca	-0.16141811
27	0x3d9432e8	0.07236272
28	0xbdea1d35	-0.11431352
29	0xbdfc027c	-0.12305161
30	0x3e98f683	0.29875574
31	0x3d0cfecc	0.03442268
32	0xbe124492	-0.1428397
33	0x3d63ee7b	0.055647355
34	0x3d1abe86	0.037779354
35	0x3d5dcd54	0.054150894
36	0xbe4bfb0b	-0.19919984
37	0x3c2efd73	0.010680544
38	0x3c8f294e	0.01747575
39	0x3d4b375a	0.049613334
40	0x3de5378f	0.111922376
41	0xbcc901e0	-0.024537027
42	0x3d48bb04	0.049006477
43	0x3e14bf53	0.1452611
44	0x3e5a1e36	0.21300587
45	0xbc437a10	-0.011930957
46	0xbd3c2be0	-0.04594028
47	0x3d884d51	0.06655372
48	0xbe26cb64	-0.16288525
49	0xbe5e92ba	-0.21735659
50	0xbd80af4e	-0.06283437
51	0x3cf3d65a	0.029765297
52	0x3df14d81	0.11782361
53	0xbcbfdbf2	-0.023420308
54	0x3d4d6744	0.05014731
55	0xbd11b5c4	-0.035573736
56	0xbe2f6a8d	-0.1713049
57	0xbddc37df	-0.10752844
58	0xbe1aed82	-0.15129665
59	0xbe4031c6	-0.18768987
60	0xbd280160	-0.041016936
61	0xbe109d7a	-0.14122573
62	0x3e6701e5	0.22559316
63	0xbe7b264c	-0.24526328
64	0x3e8ca174	0.2746693
65	0xbd8d9562	-0.06913258
66	0x3d07fd20	0.033200383
67	0xbd6e3860	-0.058159232
68	0x3e17a9c2	0.14810851
69	0xbe3118b4	-0.1729458
70	0x3e4d383b	0.20040981
71	0xbe7c5f5b	-0.2464575
72	0x3e281b16	0.16416582
73	0xbd69b87c	-0.057060704
74	0xbe1f99bc	-0.15585989
75	0x3d2c002a	0.041992344
76	0x3e6567c7	0.22402869
77	0x3e28de28	0.16490996
78	0xbe43941f	-0.19099472
79	0x3e494425	0.19654901
80	0xbdb945a0	-0.09046483
81	0xbe68287a	-0.2267169
82	0x3e9daa0c	0.30793798
83	0xbe831615	-0.25602785
84	0xbe1f1acc	-0.15537566
85	0x3e00e2c8	0.1258651
86	0xbd9dee8a	-0.07711513
87	0xbd0875f8	-0.03331563
88	0x3d1e0e65	0.038587946
89	0xbecc5e63	-0.3991576
90	0xbe55998a	-0.20859352
91	0xbd9f9e70	-0.077938914
92	0x3e45c353	0.19312792
93	0x3db95cc6	0.09050898
94	0x3d347554	0.044057205
95	0xbc539316	-0.012913486
96	0x3d6b7056	0.05748018
97	0x3e19fc82	0.1503773
98	0xbe207d26	-0.1567274
99	0x3d97c54e	0.0741068
100	0x3df15f26	0.11785726
101	0x3d066dcc	0.032819554
102	0xbe6d29b6	-0.23160443
103	0xbe4a4b91	-0.19755389
104	0x3d89b067	0.06723099
105	0xbe20b226	-0.15692958
106	0xbe4af9fc	-0.19821924
107	0xbdbb20b9	-0.09137101
108	0xbe1dca20	-0.15409136
109	0x3e70d178	0.23517406
110	0x3e0ff49e	0.14058158
111	0x3e21ccb9	0.15800752
112	0x3cbde488	0.023180261
113	0xbd91a0e7	-0.07110768
114	0x3d9f381f	0.07774376
115	0xbe0cff6b	-0.13769309
116	0x3e1be5c1	0.15224363
117	0xbe40ff1a	-0.18847314
118	0xbe5c9780	-0.21542168
119	0x3c74c9f0	0.014940724
120	0x3e5a49d3	0.21317224
121	0xbdbac871	-0.091202624
122	0xbe070d57	-0.13188682
123	0x3e2298cc	0.158786
124	0x3e43355f	0.19063328
125	0x3e7acdf3	0.24492626
126	0xbe5a78eb	-0.21335189
127	0x3ea93805	0.33050552
128	0xbe44614c	-0.19177741
129	0xbe5e4931	-0.21707608
130	0x3e207595	0.15669854
131	0x3e642393	0.22279195
132	0x3e1cb8cd	0.15304871
133	0x3deb67c9	0.11494405
134	0xbe661119	-0.2246746
135	0xbda1e6cd	-0.0790535
136	0xbe444322	-0.19166234
137	0xbd3c6a7c	-0.04599999
138	0x3da192ae	0.07889305
139	0x3ea3af83	0.31969842
140	0xbde4544e	-0.11148892
141	0xbe66940a	-0.2251741
142	0x3cae1e9d	0.021254832
143	0xbd1a98a8	-0.03774324
144	0x3dfb2cde	0.12264417
145	0xbc63e01c	-0.013908412
146	0xbd6046c8	-0.054755002
147	0xbe1e62c8	-0.1546737
148	0xbe2b7de5	-0.16747244
149	0x3e5005e9	0.20314755
150	0x3e4a6cb9	0.19768037
151	0x3d5ed93a	0.054406382
152	0xbd165a9d	-0.03670751
153	0xbe0c113c	-0.1367845
154	0x3becf5da	0.007231456
155	0xbdedc837	-0.116104536
156	0x3e392b71	0.18082978
157	0x3d89626a	0.06708224
158	0x3ea13393	0.3148466
159	0x3dddae33	0.108242415
160	0x3c70c108	0.01469446
161	0xbe4659ed	-0.19370241
162	0xbc6eae60	-0.014567941
163	0x3e1bb0d7	0.15204178
164	0xbe369913	-0.1783183
165	0x3e3bc39e	0.18336341
166	0xbdbb4bd5	-0.09145323
167	0xbd955379	-0.07291312
168	0xbe1b3e99	-0.15160598
169	0xbe2b4e12	-0.16729
170	0xbe5b21b2	-0.21399572
171	0x3df08a00	0.117450714
172	0xbe0a4bae	-0.13505432
173	0x3dc7110c	0.09720048
174	0xbd76b9df	-0.060235854
175	0xbe41abf0	-0.18913245
176	0xbe086783	-0.13320737
177	0x3e2f689c	0.17129749
178	0xbd8d3b98	-0.06896132
179	0x3d94f593	0.07273402
180	0xbe553613	-0.20821409
181	0x3e15d3b3	0.14631538
182	0x3e65452f	0.22389673
183	0xbe059ca1	-0.1304803
184	0xbdd1c701	-0.10243035
185	0x3e7c23c7	0.24623023
186	0xbe146e34	-0.14495164
187	0x3e0acae7	0.13553964
188	0x3e677619	0.22603644
189	0x3dc78616	0.09742372
190	0x3ddc59c4	0.10759309
191	0x3c801390	0.015634328
192	0xbe381a1c	-0.1797871
193	0xbe16e4ad	-0.1473567
194	0x3dfa0b1a	0.12209149
195	0xbe4da624	-0.20082909
196	0xb9bd3f88	-0.00036096224
197	0xbe55680d	-0.20840473
198	0xbe3ae8da	-0.18252888
199	0xbe41c499	-0.18922652
200	0x3e13ea39	0.14444818
201	0xbeb15b5c	-0.34640014
202	0x3e210788	0.15725529
203	0x3dfe3a25	0.12413434
204	0xbcbb5474	-0.022867419
205	0xbc87f946	-0.016598355
206	0xbbb0e080	-0.0053978562
207	0xbd43fde8	-0.047849566
208	0xbc948d36	-0.01813374
209	0xbd85ddd6	-0.065364525
210	0x3ddb01be	0.10693692
211	0x3e1cee80	0.15325356
212	0x3dfc1017	0.123077564
213	0xbe07cded	-0.13262148
214	0xbd279b24	-0.040919438
215	0xbea42138	-0.32056594
216	0x3d09b1a1	0.033616666
217	0xbdf604ad	-0.120126106
218	0xbc72579b	-0.014791395
219	0xbd9c7644	-0.07639745
220	0x3ed52d35	0.41636053
221	0xbe10f96a	-0.14157644
222	0xbd6c6ef9	-0.05772302
223	0x3df8f705	0.1215649
224	0x3e599e1f	0.21251725
225	0xbe407052	-0.18792847
226	0xbe078f80	-0.13238335
227	0xbe2254b0	-0.15852618
228	0xbc5b4e61	-0.013385386
229	0xbe2a3fcc	-0.16625899
230	0x3e30e866	0.17276153
231	0x3de10254	0.10986772
232	0x3e125159	0.14288844
233	0xbe196eaa	-0.14983621
234	0x3dcef1b1	0.10104693
235	0xbca00592	-0.019533906
236	0xbcd92a8f	-0.026509551
237	0x3c845152	0.016152058
238	0x3db5ac2e	0.08870731
239	0x3e02c491	0.12770297
240	0x3d28acd4	0.041180447
241	0xbecb1123	-0.39661512
242	0x3e1fcde8	0.15605891
243	0x3e1ce719	0.15322532
244	0xbdb33faa	-0.08752377
245	0x3e405d55	0.18785603
246	0x3d5b8ebd	0.053602923
247	0x3e1b8286	0.1518651
248	0xbe08e0eb	-0.1336705
249	0x3e1a4447	0.15065108
250	0xbe10386b	-0.14084022
251	0xbe2d3c15	-0.1691745
252	0xbe655421	-0.22395374
253	0xbd8d26bd	-0.06892154
254	0xbe101bba	-0.14073077
255	0xbacdbd20	-0.0015696622

critic.0.bias f4 [256]
0	0x3d45f6c9	0.048331056
1	0xbd6eaa69	-0.058267985
2	0xbe029f5a	-0.127561
3	0x3d49cca2	0.04926742
4	0x3d99ac31	0.07503546
5	0xbc710420	-0.014710456
6	0xbd0d0972	-0.034432836
7	0x3e68357d	0.22676654
8	0x3e456049	0.19275011
9	0x3cecd91b	0.028912118
10	0xbd19c8d7	-0.03754505
11	0xbda59760	-0.08085513
12	0xbe056c0d	-0.130295
13	0x3e424577	0.18971811
14	0xbdee11a5	-0.11624459
15	0x3dc8808f	0.097901456
16	0xbd2b9e35	-0.041898925
17	0x3daaaa57	0.08333271
18	0x3e3b06e3	0.18264346
19	0xbe543e00	-0.20726776
20	0xbdb9524c	-0.090489
21	0x3e6763fc	0.22596735
22	0x3e2f8453	0.17140321
23	0x3dd5e529	0.104440995
24	0x3e27f5d4	0.1640237
25	0x3daedaa3	0.085377954
26	0x3d1b44c0	0.037907362
27	0xbe6890c0	-0.22711468
28	0x3e1810f4	0.14850217
29	0x3e3df1f0	0.18549323
30	0x3dac33fb	0.08408352
31	0xba9daa8d	-0.0012028978
32	0x3e159f55	0.14611562
33	0x3d97cd84	0.07412246
34	0xbdc2abbb	-0.09505411
35	0x3e519fd7	0.2047113
36	0xbd28af50	-0.041182816
37	0xbd29640d	-0.04135518
38	0x3cb55a92	0.022137914
39	0xbd92367f	-0.071393006
40	0x3e147d2e	0.14500877
41	0xbceff483	-0.029291397
42	0x3e430358	0.19044244
43	0x3e03990a	0.12851349
44	0x3e40624b	0.18787496
45	0x3e1493b2	0.14509466
46	0xbe229b11	-0.15879466
47	0xbe61ace8	-0.22038615
48	0x3dc79867	0.09745865
49	0x3e57662e	0.21035072
50	0xbe4fb9cb	-0.20285718
51	0x3e1fa655	0.15590794
52	0x3e5fdf31	0.21862485
53	0x3e5a2c83	0.21306042
54	0x3e088e03	0.13335423
55	0xbc3b7023	-0.01144031
56	0x3e1ccbff	0.15312193
57	0x3dc67371	0.096899875
58	0xbddddb4f	-0.108328454
59	0x3e100e07	0.14067851
60	0x3b1246a5	0.002231994
61	0x3e3c7853	0.18405275
62	0x3e04f15a	0.12982693
63	0xbde25bd1	-0.11052669
64	0x3d9fb661	0.07798458
65	0x3d0642e0	0.03277862
66	0x3d26fd95	0.04076918
67	0xbe7b6372	-0.24549654
68	0xbd3b2e6b	-0.045698564
69	0xbd6c065d	-0.057623256
70	0x3d87bba8	0.066275895
71	0xbda04312	-0.07825293
72	0xbde24738	-0.1104874
73	0xbe21b983	-0.15793423
74	0x3c4382e9	0.011933067
75	0x3c5745b9	0.013139182
76	0xbdee9f2a	-0.11651452
77	0x3d29d2bf	0.04146075
78	0x3e063db6	0.13109478
79	0xbca4e5e9	-0.020129161
80	0xbdb790dd	-0.08963177
81	0x3cb16446	0.02165426
82	0x3e27b844	0.16378886
83	0xbdf0721e	-0.11740516
84	0xbde937ae	-0.11387573
85	0x3dff52c5	0.12466959
86	0x3da7b01f	0.08187889
87	0x3e29d079	0.16583432
88	0xbe6e4bae	-0.23271057
89	0x3e4ed7f9	0.20199575
90	0xbe4c331b	-0.1994137
91	0xbc2108cf	-0.00982876
92	0x3e1bd58b	0.15218179
93	0xbd8f84b5	-0.07007734
94	0x3e0d4f3c	0.13799757
95	0x3df78e18	0.12087649
96	0xbc2ced53	-0.010554629
97	0x3da65631	0.081219085
98	0xbdbcf2cb	-0.092259966
99	0xbc61df96	-0.013786217
100	0xbceae3d8	-0.028673097
101	0x3d5de2ed	0.05417149
102	0x3de7e763	0.113234304
103	0x3e2e338c	0.17011851
104	0x3d62be34	0.055357173
105	0xbe1ed708	-0.15511715
106	0x3de7dc84	0.11321357
107	0xbc66af61	-0.0140798995
108	0xbdd59f9e	-0.10430835
109	0xbe3cdd66	-0.18443832
110	0xbd993089	-0.074799605
111	0x3e2003c3	0.15626435
112	0x3e51e78f	0.20498489
113	0x3e5ce44e	0.21571466
114	0xbda2a1fa	-0.07941051
115	0x3e18508b	0.14874475
116	0x3c8babad	0.017049635
117	0x3dd94c19	0.106102176
118	0x3dcd2205	0.10016254
119	0xbe4fb2f1	-0.20283104
120	0xbd172238	-0.036897868
121	0x3e4d7cc7	0.2006713
122	0xbdade8c5	-0.08491663
123	0x3e384d1c	0.17998165
124	0xbd44bb0a	-0.048029937
125	0x3d5f7f99	0.054565046
126	0x3cb12430	0.0216237
127	0x3c98abcb	0.018636605
128	0xbccadb87	-0.024762882
129	0xbdc4c617	-0.09608095
130	0xbc18bb17	-0.009321949
131	0xbd4fadfa	-0.050703026
132	0x3c6ea571	0.0145658115
133	0x3cbca159	0.023026155
134	0x3c2380ab	0.009979407
135	0xbcf4a54a	-0.029863972
136	0x3d8f750e	0.07004748
137	0xbe0fc0c6	-0.14038381
138	0x3d8e0395	0.06934277
139	0xbe372f45	-0.17889126
140	0x3d90c9a5	0.07069711
141	0xbe31371a	-0.17306176
142	0x3c9f73cf	0.019464402
143	0xbe0c6064	-0.13708645
144	0x3e40d2ab	0.18830363
145	0xbd73f5fd	-0.059560765
146	0x3e593da7	0.21214925
147	0x3e1415b4	0.14461404
148	0xbe56db1c	-0.20982021
149	0xbd1b3d3f	-0.037900206
150	0xbd5f7940	-0.054558992
151	0xbe47edac	-0.19524258
152	0xbe500940	-0.20316029
153	0xbdfcdd25	-0.123468675
154	0x3de5d865	0.112229146
155	0xbd2bfbfc	-0.041988358
156	0xbe022ad8	-0.12711656
157	0x3e2d5967	0.16928636
158	0x3dd1cb5c	0.10243866
159	0xbdd582a7	-0.104253106
160	0x3e178c70	0.14799666
161	0xbe3f2bab	-0.18669002
162	0x3e72a68d	0.23696347
163	0x3da1dcff	0.0790348
164	0xbd85c4a9	-0.065316506
165	0xbe4c374e	-0.19942972
166	0x3c6a71e9	0.014309385
167	0x3e20fcdf	0.15721463
168	0xbe291ec1	-0.16515638
169	0x3d10f5e5	0.035390753
170	0x3e33c897	0.17556988
171	0xbd622ad5	-0.05521663
172	0x3d6df911	0.058098856
173	0x3da9b78b	0.08286961
174	0x3d5fbcbc	0.05462335
175	0x3e46effd	0.19427486
176	0xbdcf08e6	-0.10109119
177	0xbe3f9b33	-0.18711548
178	0x3e1f4cd4	0.15556651
179	0x3e481ad9	0.19541492
180	0x3e470c7e	0.19438359
181	0xbe2faaea	-0.17155042
182	0xbdd8d774	-0.105879694
183	0x3e29f09b	0.1659569
184	0x3e0bfaba	0.13669863
185	0x3de3fc99	0.111321636
186	0xbdada0fd	-0.08477972
187	0x3c407104	0.011745695
188	0x3e4303f9	0.19044484
189	0x3d9a33f0	0.075294375
190	0x3c881581	0.016611816
191	0x3dfca2f8	0.12335771
192	0xbe3b5e26	-0.18297634
193	0xbd722ef8	-0.059126824
194	0x3d12b2c7	0.035815027
195	0x3cd73650	0.026271015
196	0xbde95fdc	-0.11395237
197	0xbe226030	-0.15857005
198	0x3d5ad0d2	0.053421803
199	0xbe4f3811	-0.20236231
200	0xbda7e0f0	-0.081972
201	0x3d00c59d	0.03143846
202	0x3d22ce69	0.03974763
203	0x3e3fb366	0.18720779
204	0xbe6491eb	-0.22321288
205	0xbdc3260f	-0.095287435
206	0x3da3e221	0.08002115
207	0xbd021ab6	-0.031763755
208	0x3dbe6712	0.09297003
209	0xbd8bb0e0	-0.068208456
210	0xbe60a29c	-0.2193703
211	0x3d8ff425	0.07028989
212	0x3d79961e	0.06093418
213	0x3e4d638c	0.20057505
214	0xbd0f6a43	-0.03501345
215	0xbd7bf6a8	-0.061514527
216	0x3d2d74d6	0.04234775
217	0x3df19641	0.11796237
218	0x3e1d7da4	0.1537996
219	0xbe13d7ff	-0.14437865
220	0xbe25a402	-0.16175845
221	0x3ddc5fd7	0.107604675
222	0x3e53eea3	0.20696501
223	0x3d643982	0.055718906
224	0x3e2eedeb	0.17082946
225	0xbd0a0174	-0.033692792
226	0x3e1916e9	0.14950146
227	0xbd8f3080	-0.069916725
228	0xbd93a783	-0.07209685
229	0xbe29afee	-0.16571018
230	0x3db77613	0.08958068
231	0xbd6c67a3	-0.057716023
232	0xbe13326e	-0.14374706
233	0xbde0be6e	-0.109738216
234	0xbde40b15	-0.11134926
235	0x3d04e332	0.032443233
236	0x3da283b9	0.0793528
237	0x3e2e01c7	0.16992866
238	0xbdae74b9	-0.08518357
239	0xbe429a83	-0.19004254
240	0xba1d1922	-0.000599282
241	0x3e0ffe3e	0.1406183
242	0x3e42d55d	0.19026704
243	0x3de97d15	0.11400811
244	0xbe11c9de	-0.14237162
245	0xbd208231	-0.03918666
246	0xbdfb4428	-0.12268859
247	0xbc55fb3d	-0.013060388
248	0xbd44d283	-0.048052322
249	0xbde2af7f	-0.110686295
250	0x3e32db6a	0.17466512
251	0x3cf57d53	0.029966986
252	0xbe0aab27	-0.13541852
253	0x3dccee2b	0.100063644
254	0x3ddab74d	0.10679493
255	0x3e511364	0.20417553

critic.2.weight f4 [256, 256]
0	0xbd93c3d0	-0.07215083
1	0xbe62391f	-0.22092102
2	0xbd6ecd41	-0.058301214
3	0x3ee5481e	0.44781584
4	0xbe6867f1	-0.226959
5	0xbe590584	-0.2119351
6	0x3dd0fec8	0.10204846
7	0xbd89c21e	-0.06726478
8	0xbd0380ca	-0.032105245
9	0xbd97cc99	-0.07412071
10	0x3cf4fc97	0.0299056
11	0x3e12e47d	0.14344974
12	0xbe2242cb	-0.15845792
13	0x3e0153ce	0.12629625
14	0x3e12280d	0.1427309
15	0x3e87d590	0.26530123
16	0xbd2e96ea	-0.04262439
17	0x3ebcdae1	0.3688574
18	0x3e5c5646	0.21517286
19	0x3e00f4db	0.12593405
20	0x3e7ad885	0.24496658
21	0xbe03745e	-0.1283736
22	0x3d818062	0.06323315
23	0x3e911e17	0.2834327
24	0xbe074aca	-0.13212124
25	0xbe43a0d4	-0.1910432
26	0x3e244a55	0.1604398
27	0xbbddbd96	-0.006766985
28	0xbdab27dd	-0.08357213
29	0x3ca905c9	0.020632641
30	0x3cb91d75	0.022597054
31	0x3c9426a6	0.018084835
32	0xbc0011eb	-0.007816772
33	0xbe1692f3	-0.14704494
34	0x3e3530db	0.17694418
35	0xbe7dad79	-0.24773206
36	0x3ba38c09	0.0049910587
37	0x3df1b546	0.11802153
38	0xbe64a278	-0.22327602
39	0x3de7f604	0.11326221
40	0x3e472fee	0.19451877
41	0xbe1c7a4a	-0.15281025
42	0x3d0fe1a0	0.035127282
43	0xbd424bc6	-0.047435544
44	0xbe34e897	-0.17666851
45	0xbec3ef74	-0.38268626
46	0x3e438a81	0.19095804
47	0xbd9bddbd	-0.076106526
48	0xbebf220d	-0.37330666
49	0x3e3dcd2f	0.18535303
50	0x3e623ac9	0.22092737
51	0x3e698007	0.22802745
52	0xbda1bc14	-0.07897201
53	0xbe2f4603	-0.17116551
54	0x3cf940fe	0.030426499
55	0x3e4c2da5	0.19939287
56	0xbce0bb02	-0.027432922
57	0x3d8af581	0.067851074
58	0x3cdd748b	0.027033111
59	0xbdc480ba	-0.09594865
60	0xbe495ef5	-0.1966513
61	0xbdd6df8e	-0.104918584
62	0xbe15df0e	-0.1463587
63	0x3c81f8df	0.015865741
64	0x3d04599a	0.032312013
65	0xbd8655cf	-0.065593354
66	0x3d889e56	0.06670825
67	0xbd9786ca	-0.07398756
68	0xbd62f7cf	-0.05541211
69	0x3e02a111	0.12756754
70	0xbd7ea844	-0.06217219
71	0xbe657f58	-0.22411859
72	0x3e4c17bb	0.19930927
73	0x3e499a0c	0.1968767
74	0x3e697c40	0.22801304
75	0xbde4108a	-0.11135967
76	0xbd5195ef	-0.05116838
77	0x3cef42f1	0.029206725
78	0x3defa476	0.1170129
79	0x3e8d2631	0.275682
80	0xbe44202b	-0.19152896
81	0x3e1a0884	0.15042311
82	0x3dab3cec	0.08361229
83	0xbe0e40dc	-0.1389193
84	0xbdbebb4f	-0.0931307
85	0x3e880a7a	0.26570493
86	0x3d9be762	0.07612492
87	0x3e859b2b	0.26094946
88	0x3b9a88cd	0.004716015
89	0x3d275c6a	0.040859617
90	0x3d8e0ad9	0.06935663
91	0x3d7b128f	0.061296996
92	0xbde20fee	-0.110381946
93	0xbd5e3644	-0.05425097
94	0xbe2c9ed7	-0.16857468
95	0xbd8a3ac9	-0.06749494
96	0x3e368c18	0.17826879
97	0x3ddfb8e3	0.10923936
98	0x3e1e408b	0.15454309
99	0x3e846cab	0.25864157
100	0x3c877acf	0.016538052
101	0xbdee60d9	-0.11639566
102	0xbe3d6700	-0.18496323
103	0x3d20a177	0.039216485
104	0x3e004376	0.12525734
105	0x3e7a1222	0.2442098
106	0xbe0bf081	-0.13665964
107	0x3e0202c0	0.12696362
108	0x3defabf5	0.1170272
109	0x3de3bf95	0.11120526
110	0xbe605387	-0.21906863
111	0xbe6abb2d	-0.22922964
112	0xbddc27db	-0.10749789
113	0x3d4a0cb0	0.049328506
114	0xbc5de100	-0.013542414
115	0x3d093c50	0.033504784
116	0xbe82d3ea	-0.25552303
117	0x3ddf445c	0.109017104
118	0x3e0d57fc	0.13803095
119	0x3e12ea8e	0.14347288
120	0x3de69f29	0.11260826
121	0xbe09d64a	-0.13460651
122	0xbd9463d5	-0.07245604
123	0x3de65b87	0.11247926
124	0x3dca89be	0.098895535
125	0x3ca240ff	0.019806383
126	0x3d8d38fa	0.06895633
127	0xbcb6cfa5	-0.02231581
128	0xbdedbe0a	-0.11608513
129	0xbd7cf2dd	-0.06175505
130	0xbcb7ab97	-0.022420688
131	0xbd92558e	-0.071452245
132	0x3e1162a3	0.14197783
133	0x3e847f60	0.2587843
134	0xbd07c31d	-0.03314506
135	0x3ea64b6a	0.3247941
136	0x3dcfb2eb	0.10141548
137	0xbd9d977f	-0.07694911
138	0xbe14b260	-0.1452117
139	0x3e3faa20	0.18717241
140	0x3e88fb36	0.2675416
141	0xbd32be67	-0.043638613
142	0xbe9a9235	-0.30189672
143	0x3d633543	0.055470716
144	0xbd9bee87	-0.07613855
145	0x3e135957	0.14389549
146	0xbe46d5f7	-0.19417559
147	0x3cb02093	0.021499908
148	0x3ed56008	0.4167483
149	0x3e32d12e	0.17462608
150	0xbd54c6e4	-0.05194749
151	0xbda8aebc	-0.08236453
152	0x3e8db19c	0.27674568
153	0xbd8135b1	-0.06309069
154	0xbdb6bebf	-0.08923101
155	0x3de0b79e	0.10972522
156	0xbdd5e1f2	-0.10443486
157	0xbd91d06b	-0.07119831
158	0xbe20b7b1	-0.15695073
159	0xbdaf29f1	-0.085529216
160	0x3e43a791	0.1910689
161	0x3dc204d7	0.094735794
162	0xbc4f01e2	-0.012634726
163	0xbb9132a3	-0.004431085
164	0xbc2f93b9	-0.010716372
165	0xbe8e4207	-0.2778475
166	0xbc880398	-0.016603276
167	0xbd7d965f	-0.061910983
168	0xbda6a9f6	-0.08137886
169	0x3da56f47	0.08077865
170	0xbe0a42ad	-0.13501997
171	0xbede98df	-0.43476006
172	0xbe09b1d4	-0.13446742
173	0x3cfd92de	0.03095382
174	0x3de02b89	0.10945804
175	0x3d81a4e9	0.06330282
176	0x3dffcafa	0.124898866
177	0x3da3225f	0.0796554
178	0x3d0bbe98	0.03411731
179	0xbe3d9a31	-0.1851585
180	0xbe2ecb16	-0.17069659
181	0xbe2be30d	-0.16785832
182	0xbdb91d53	-0.09038796
183	0xbe32170a	-0.17391601
184	0x3dfa4ccc	0.12221679
185	0x3da9b6fe	0.08286856
186	0x3e9046a8	0.28178906
187	0xbdf22122	-0.11822726
188	0x3d86ea69	0.06587679
189	0x3e40b6a2	0.18819669
190	0x3cdab811	0.026699098
191	0x3c832b77	0.016011937
192	0x3e446052	0.19177368
193	0x3e3bea4a	0.18351093
194	0x3ee0cb58	0.4390514
195	0xbe8faee2	-0.28063112
196	0x3d161b85	0.03664734
197	0xbdb19384	-0.086707145
198	0xbe9075ed	-0.2821497
199	0x3ec9d90b	0.39423403
200	0xbeb98bb1	-0.3623939
201	0x3d6bbed5	0.05755504
202	0x3d1bd05d	0.038040508
203	0xbe2357a9	-0.15951408
204	0xbe13f652	-0.14449432
205	0xbdac87b0	-0.08424318
206	0x3b986517	0.0046507227
207	0x3e1facdf	0.15593289
208	0xbc860735	-0.016360858
209	0x3dd44bb8	0.10366005
210	0xbd4cff3b	-0.050048094
211	0xbdae6317	-0.08514994
212	0x3e1d05d9	0.15334262
213	0xbe8318d0	-0.25604868
214	0x3e190fbb	0.14947407
215	0xbed29c56	-0.411349
216	0xbdf53173	-0.11972322
217	0x3ccc70af	0.024956075
218	0xbe803409	-0.250397
219	0x3dc20ff7	0.09475701
220	0x3dcca32c	0.0999206
221	0xbe1faa15	-0.15592225
222	0x3e4f19dd	0.2022471
223	0xbe410818	-0.18850744
224	0x3d00a3fc	0.031406388
225	0x3e94d4bc	0.29068553
226	0xbe8283d2	-0.25491196
227	0xbea20e06	-0.31651324
228	0xbd6fc7ab	-0.058540028
229	0xbd764c8f	-0.060131606
230	0x3dbbff1a	0.09179516
231	0x3cfe9b8f	0.031080035
232	0xbeaeac16	-0.34115666
233	0xbd6a9607	-0.057271983
234	0x3d1116f2	0.035422273
235	0x3e6849de	0.22684428
236	0xbe749d63	-0.23888163
237	0x3e24025c	0.16016525
238	0xbd887366	-0.066626355
239	0xbd8e4395	-0.06946484
240	0xbe14ff21	-0.14550449
241	0xbde2e1e4	-0.110782415
242	0x3da94142	0.082644
243	0x3e8e5cdd	0.27805224
244	0x3e341ce6	0.17589149
245	0xbd453307	-0.048144367
246	0x3cdade96	0.026717465
247	0x3e489431	0.1958778
248	0xbeb976bd	-0.36223403
249	0x3de3ade5	0.11117152
250	0xbcfdeba2	-0.030996148
251	0xbe15fba0	-0.14646769
252	0xbc51c18c	-0.012802493
253	0xbe5a0aa8	-0.21293128
254	0x3eb956a6	0.3619892
255	0xbd0267da	-0.03183732

critic.2.bias f4 [256]
0	0xbd27751b	-0.040883165
1	0x3d65fccf	0.0561493
2	0xbc893850	-0.016750485
3	0x3d73a4a6	0.059483193
4	0x3d1641cf	0.036683854
5	0x3d8d91a0	0.069125414
6	0xbc8d0346	-0.017213475
7	0x3d47cdad	0.048780132
8	0x3d1a3f30	0.037657917
9	0x3d219463	0.039448153
10	0x3c1ea170	0.009682044
11	0x3c2fe174	0.010734905
12	0xbd7db8a1	-0.061943654
13	0xbd039c46	-0.032131456
14	0xbcb68cbf	-0.02228391
15	0x3c30611c	0.01076534
16	0xbd3ab0ec	-0.045578882
17	0xbcdc9b73	-0.026929593
18	0x3c060a4f	0.008181169
19	0x3b78c0e2	0.0037956764
20	0xbd43da4b	-0.047815602
21	0xbc922373	-0.01783917
22	0xbb95ee2a	-0.0045755105
23	0x3d83e73b	0.06440588
24	0x3d63fdd0	0.055661976
25	0xbd297ecb	-0.041380685
26	0x3cc30003	0.023803717
27	0x3cc96bcc	0.024587534
28	0xbc78e413	-0.015191096
29	0x3cc793ec	0.024362527
30	0x3d75c3fa	0.06000135
31	0x3db12c84	0.08651069
32	0xbbf56409	-0.0074887318
33	0x3d1ab572	0.037770696
34	0xbd416b74	-0.047221616
35	0xbd148266	-0.03625717
36	0xbd5f137d	-0.054461945
37	0xbd5aafbc	-0.05339025
38	0xbc299583	-0.010350588
39	0x3d8485dc	0.06470844
40	0x3cb58026	0.022155832
41	0xbbb708b8	-0.005585756
42	0x3ceec506	0.029146682
43	0xbd022d7d	-0.031781662
44	0x3d345471	0.044025842
45	0xbd3b597c	-0.045739636
46	0x3d5aed83	0.053449165
47	0xbd10d525	-0.03535952
48	0xbca24db5	-0.019812444
49	0xbc849125	-0.016182492
50	0x3d5c6056	0.05380281
51	0xbd0687ac	-0.03284423
52	0x3d8ed091	0.06973375
53	0xbda6402b	-0.08117708
54	0x3c2bc8f3	0.010484922
55	0x3cabfd08	0.020994678
56	0x3c2fa3da	0.010720218
57	0x3da4dad0	0.08049548
58	0x3d560dd0	0.052259266
59	0x3d8020b6	0.06256239
60	0xbb9b5a5e	-0.004740997
61	0xbd628b96	-0.0553089
62	0xbcc50a1d	-0.024052674
63	0x3d79b009	0.060958896
64	0xbb2a10e1	-0.0025950002
65	0x3d7d87c5	0.061897058
66	0xbd23c151	-0.039979283
67	0xbd8362ad	-0.06415305
68	0x3d400e72	0.046888776
69	0x3d17f907	0.037102725
70	0xbb29f433	-0.0025932908
71	0xbc760a64	-0.015017126
72	0xba8805fd	-0.0010377761
73	0x3d1a5789	0.037681136
74	0xbd3b04e2	-0.045658953
75	0xbc5c1d84	-0.013434771
76	0xbdb338fd	-0.08751104
77	0x3d1b16c3	0.037863504
78	0x3cced491	0.025247844
79	0xbdbdf51f	-0.09275269
80	0xbd6b7aa7	-0.057490017
81	0x3d50861d	0.05090915
82	0x3d1d958f	0.03847271
83	0x3cb46917	0.022022767
84	0x3d29663f	0.041357275
85	0xbd679be7	-0.056545164
86	0x3d2a2ed0	0.04154855
87	0xbd74899f	-0.05970156
88	0x3c06dd01	0.008231402
89	0xbcb815db	-0.022471359
90	0xbc3271ce	-0.010891391
91	0x3d7ebf26	0.062194012
92	0xbcc9e1cf	-0.024643807
93	0x3cc3c156	0.0238959
94	0x3b9f6c22	0.0048651854
95	0x3c627b6b	0.01382337
96	0xbd8b76d8	-0.06809777
97	0xbd0dfd3d	-0.034665335
98	0x3d5a8d4f	0.05335742
99	0x3abfae92	0.001462417
100	0x3d099df3	0.033597898
101	0x3d855c57	0.06511753
102	0x3d341765	0.043967623
103	0x3d26d0df	0.04072654
104	0xbd3efdc4	-0.04662873
105	0x3d3e8407	0.04651263
106	0xbd1b584b	-0.037926
107	0x3b9e0483	0.004822315
108	0xbd22d312	-0.039752074
109	0x3d6ceec2	0.057844885
110	0xbd3876a9	-0.04503504
111	0x3b071fe6	0.0020618378
112	0x3c24bdd6	0.010055026
113	0x3d06964a	0.03285817
114	0x3cc168ab	0.02360948
115	0x3ccb8b09	0.02484657
116	0xbd371bbf	-0.044704195
117	0x3c68980e	0.014196409
118	0x3b4a02b8	0.0030824374
119	0xbc1a0e26	-0.009402787
120	0x3d56300e	0.052291922
121	0x3dbaf776	0.09129231
122	0x3cf85fa6	0.030319046
123	0x3d478bcc	0.048717305
124	0xbcaa83f0	-0.020814866
125	0xbccab15c	-0.024742775
126	0xbb8e8f24	-0.00435056
127	0xbd8f1d32	-0.069879904
128	0xbd2ebdc3	-0.04266144
129	0x3cfa6bc7	0.03056897
130	0x3da25270	0.0792588
131	0xbb9caa8b	-0.0047810725
132	0x3cd2ad26	0.02571733
133	0x3d14d857	0.03633913
134	0xbcba34c5	-0.02273024
135	0x3c5174d1	0.012784199
136	0xbcfee8c3	-0.031116849
137	0xbc6cdfc7	-0.01445765
138	0xbd806537	-0.06269305
139	0x3d302d05	0.043011684
140	0x3cbd7a93	0.023129737
141	0x3cdde9dd	0.027089054
142	0x3d1645a8	0.036687523
143	0xbc713f05	-0.014724498
144	0x3c73269d	0.014840749
145	0x3c6cb2c7	0.014446921
146	0xbd3c2f0b	-0.0459433
147	0xbc9238f5	-0.017849425
148	0x3d5c421f	0.053773995
149	0xbc2c1936	-0.010504058
150	0x3d41de22	0.047330983
151	0x3c5c817b	0.013458605
152	0x3da34cb5	0.07973615
153	0x3d2b3ae7	0.04180422
154	0x3bd315ae	0.0064417934
155	0x3d400521	0.04687989
156	0x3d7b2c65	0.061321635
157	0x3a61cb46	0.0008613359
158	0x3d482857	0.048866596
159	0x3cabc89a	0.020969678
160	0x3d044ca1	0.03229964
161	0xbd2f61b8	-0.0428178
162	0xbd8e4ddb	-0.069484435
163	0xb90eeb13	-0.00013629747
164	0x3da0d355	0.078528084
165	0xbd93c5d8	-0.0721547
166	0xbcf46b4b	-0.029836318
167	0x3c8f66e2	0.017505113
168	0x3ca09e32	0.019606683
169	0xbd35b41b	-0.044361215
170	0xbb0278aa	-0.0019908347
171	0x3c88a430	0.016679853
172	0xbd99c3d0	-0.075080514
173	0xbdbb64ca	-0.09150083
174	0xbd2bc02f	-0.041931327
175	0xbc88dbef	-0.016706435
176	0xbd760cfa	-0.06007097
177	0x3ca68673	0.020327782
178	0x3dc0cddc	0.094142646
179	0x3c236289	0.009972223
180	0xbb98f9a7	-0.0046684328
181	0x3c81ace4	0.015829511
182	0x3ccac5a7	0.024752451
183	0x3cb47bfd	0.022031778
184	0xbd9ded63	-0.077112935
185	0xbc3b1047	-0.011417455
186	0x3d5303c1	0.051517252
187	0x3c442370	0.01197134
188	0xbc7fabf1	-0.015604959
189	0x3cc67996	0.024227899
190	0xbd0c515d	-0.03425728
191	0xbc4905da	-0.0122694615
192	0x3c3d4a65	0.011553382
193	0x3d79ab60	0.06095445
194	0x3c9cd155	0.019142786
195	0xbd05c480	-0.0326581
196	0x3c85b1aa	0.016320068
197	0xbd91c8ed	-0.07118402
198	0x3d488738	0.04895708
199	0x3d2ce1fd	0.042207707
200	0x3cc36ab4	0.023854591
201	0x3963374e	0.0002166901
202	0xbd5a7db9	-0.053342555
203	0x3ba63bfc	0.0050730687
204	0x3d054681	0.03253794
205	0x3d22cf9b	0.03974877
206	0xbcb09ec5	-0.021560082
207	0xbde74c70	-0.11293876
208	0x3bb1fae8	0.0054315217
209	0x3cd413ce	0.02588835
210	0x3c83438f	0.016023425
211	0xbd9ce45a	-0.07660742
212	0x3cf9e36e	0.030503955
213	0xbd64aebc	-0.055830702
214	0xbd044657	-0.032293644
215	0xbc20e6da	-0.009820664
216	0xbc7d99aa	-0.015478531
217	0x3d2d69eb	0.04233734
218	0x3d495924	0.049157277
219	0xbc15c513	-0.009141224
220	0xbd5097c7	-0.050925996
221	0x3d50baec	0.050959513
222	0x3cc2984d	0.023754263
223	0x3bb9de3b	0.005672244
224	0x3d1dfb2f	0.038569625
225	0x3d397f5b	0.04528747
226	0xbd3a04bd	-0.045414675
227	0x3d1dd465	0.038532633
228	0xbbc299e6	-0.0059387563
229	0xbbb8062e	-0.005615971
230	0xbd1258b3	-0.03572912
231	0x3cc63b94	0.024198331
232	0x3cb225ab	0.021746477
233	0xbb8c5c55	-0.004283468
234	0x3c50aa32	0.01273589
235	0x3bc7245a	0.0060773315
236	0xbd15e6db	-0.036597114
237	0xbd0f5ba2	-0.034999497
238	0x3cebb80f	0.02877429
239	0x3ca41b64	0.020032592
240	0xbcdcc16e	-0.026947703
241	0xbc4d256c	-0.012521129
242	0xbc816cc2	-0.01579893
243	0xbc398407	-0.011322982
244	0xbd96d2f2	-0.073644534
245	0x3c032a01	0.00800562
246	0xbc9e0717	-0.01929049
247	0xbc1eb0a9	-0.009685674
248	0xbc920b0d	-0.017827535
249	0xbd702212	-0.058626242
250	0x3c82d3ac	0.015970074
251	0xbbb0a0cb	-0.0053902618
252	0xbd1348c6	-0.035958074
253	0xbb9b6626	-0.0047424017
254	0xbd44d3fa	-0.04805372
255	0xbcb28f1a	-0.021796752

critic.4.weight f4 [1, 256]
0	0xbe823dae	-0.25437683
1	0x3e8968b7	0.26837704
2	0xbe8759b6	-0.26435632
3	0x3e82d22a	0.25550967
4	0xbe9c78b1	-0.3056083
5	0xbe97c09e	-0.29639143
6	0x3e97e58e	0.29667324
7	0x3e923991	0.28559545
8	0x3e756da0	0.239676
9	0x3e965f25	0.29369465
10	0x3e924ba1	0.28573325
11	0x3ea5c497	0.3237655
12	0xbe8c5d03	-0.27414712
13	0x3e94cd6c	0.29062974
14	0xbe8d9f06	-0.27660388
15	0x3e8916b6	0.2677514
16	0xbe85530c	-0.26039922
17	0x3e8f6919	0.2800987
18	0xbe9b27ed	-0.30303898
19	0xbe9123b6	-0.28347558
20	0x3e634a03	0.22196202
21	0x3e83480a	0.256409
22	0x3e9198ec	0.28436983
23	0xbe7b0e3c	-0.24517149
24	0x3e9038cf	0.28168342
25	0xbe83f555	-0.2577311
26	0xbea4e112	-0.32202965
27	0x3e82e580	0.2556572
28	0xbe9bc92b	-0.30426916
29	0xbe82c065	-0.2553741
30	0xbe842bb8	-0.25814605
31	0x3e8d0339	0.2754152
32	0x3e8c6904	0.2742387
33	0xbe93cdca	-0.28867942
34	0xbe946257	-0.28981277
35	0x3e8eded7	0.27904388
36	0xbe9c0e49	-0.3047965
37	0x3e8e94e0	0.27847958
38	0xbe92d9ff	-0.28681943
39	0xbe872528	-0.26395535
40	0x3e9036d2	0.28166825
41	0xbe81b216	-0.2533118
42	0x3e91b74c	0.28460157
43	0xbe7e67aa	-0.24844232
44	0x3e9ef4f6	0.31046265
45	0xbe841747	-0.2579901
46	0x3e8af97a	0.2714346
47	0xbe9d3a12	-0.30708367
48	0xbe9b1e69	-0.3029664
49	0xbe98e40b	-0.29861483
50	0xbe8975bd	-0.2684764
51	0xbe9eeaa9	-0.31038406
52	0xbea8e596	-0.3298766
53	0xbe931e4d	-0.28734055
54	0x3e828a3a	0.25496083
55	0xbeaa86b2	-0.3330589
56	0x3e8544e4	0.26029122
57	0xbe892aa2	-0.2679034
58	0xbe93afc8	-0.28845048
59	0xbe8c7760	-0.27434826
60	0xbe960c3e	-0.29306215
61	0x3e8901f7	0.26759312
62	0x3e8761ff	0.26441953
63	0xbe8c3b58	-0.27389026
64	0xbe89bece	-0.26903385
65	0xbe6c4f77	-0.23077188
66	0x3e95497c	0.29157627
67	0xbe8f2ffb	-0.27966294
68	0xbe864023	-0.26220807
69	0x3e9e0de1	0.30869964
70	0x3ea03e04	0.31297314
71	0xbea34572	-0.3188892
72	0x3e86767a	0.26262265
73	0x3e8a3455	0.2699305
74	0xbe83a064	-0.25708306
75	0x3e6d7548	0.2318927
76	0xbe95cc84	-0.29257596
77	0x3e6860db	0.22693197
78	0xbe87bf39	-0.2651308
79	0x3e861bbc	0.26193035
80	0x3e91643a	0.2839678
81	0xbe912c57	-0.2835414
82	0xbe85e632	-0.26152188
83	0xbe90549d	-0.28189555
84	0x3e912be4	0.28353798
85	0x3e84ba6b	0.25923476
86	0xbe9af72b	-0.302667
87	0x3e9b334c	0.30312574
88	0x3e8d281a	0.27569658
89	0x3e9031d0	0.28163004
90	0xbe7ea57c	-0.24867815
91	0x3e8e8980	0.2783928
92	0xbe9c88e1	-0.3057318
93	0xbe8eba29	-0.27876404
94	0xbe8d62d5	-0.27614465
95	0xbe93032d	-0.2871336
96	0xbe92406c	-0.28564775
97	0x3e8cce5d	0.27501193
98	0xbea216b7	-0.31657955
99	0x3e968a0f	0.29402205
100	0x3e8e888d	0.27838555
101	0x3e927b23	0.2860957
102	0xbe6c28ca	-0.23062435
103	0x3e967506	0.29386157
104	0xbe772670	-0.24135756
105	0x3e9b4aff	0.30330655
106	0xbe96b054	-0.29431403
107	0xbe8cd8bf	-0.27509114
108	0x3e91247d	0.2834815
109	0xbe9120ca	-0.2834533
110	0x3ea2625b	0.31715664
111	0xbe9df6cd	-0.30852357
112	0xbe8e95ad	-0.2784857
113	0x3e8ec207	0.27882406
114	0x3e8eb4ef	0.27872416
115	0x3e730666	0.2373291
116	0x3e9167ad	0.2839941
117	0xbea6968b	-0.3253673
118	0xbeaa113e	-0.3321628
119	0xbe834649	-0.2563956
120	0xbe7eba41	-0.24875738
121	0x3e969634	0.2941147
122	0xbe8c908b	-0.27454028
123	0x3e9a234b	0.3010505
124	0x3e9ffa2c	0.31245553
125	0x3e842971	0.25812867
126	0x3e939382	0.28823477
127	0x3e911257	0.28334305
128	0xbe8b2ac6	-0.2718107
129	0x3e807c44	0.25094807
130	0xbe90ca96	-0.2827956
131	0xbea6203d	-0.3244647
132	0xbe8ba947	-0.27277586
133	0x3e974f3b	0.29552636
134	0xbe914c2d	-0.2837843
135	0x3e83ebc4	0.25765812
136	0x3e8587b4	0.26080096
137	0x3e9b8ff7	0.30383274
138	0xbe959abd	-0.29219618
139	0xbe99eee9	-0.30065086
140	0xbe953751	-0.29143766
141	0xbe947598	-0.28995967
142	0x3e66f3ff	0.22554015
143	0xbe99c7d6	-0.30035275
144	0x3e920f6a	0.28527385
145	0x3e89107d	0.26770392
146	0xbe8d9a25	-0.27656665
147	0xbe94b6b8	-0.29045653
148	0xbe9bed9a	-0.30454713
149	0x3e838263	0.25685415
150	0xbe81707c	-0.2528113
151	0xbea479b0	-0.3212409
152	0x3e8ddb4f	0.27706382
153	0x3e9fa84a	0.31183082
154	0x3e8d324b	0.27577433
155	0x3e8cf25b	0.27528653
156	0xbea2a992	-0.31769997
157	0x3e90f497	0.28311607
158	0xbe7028ce	-0.23453066
159	0xbe97eac1	-0.2967129
160	0x3e85f0e8	0.2616036
161	0x3e941808	0.28924584
162	0xbe904a7d	-0.2818183
163	0xbe857616	-0.26066655
164	0x3e8b5753	0.2721506
165	0xbe8ec218	-0.27882457
166	0x3e968b81	0.29403308
167	0xbe90c361	-0.28274062
168	0x3e6ed5dd	0.2332377
169	0x3e999231	0.29994348
170	0x3e9dc74d	0.30816117
171	0x3e9a9931	0.30195
172	0xbe89a04b	-0.26880106
173	0xbe9ccf8a	-0.3062709
174	0xbe93312b	-0.2874845
175	0xbe78e1b0	-0.24304843
176	0xbe8b3bc1	-0.27194026
177	0x3ea876ed	0.32903233
178	0x3ea0c17c	0.31397617
179	0xbe90c4d9	-0.28275183
180	0xbe9955b9	-0.29948214
181	0x3e866d6e	0.26255363
182	0x3e98de86	0.29857272
183	0xbe7fc986	-0.24979219
184	0x3e6cb843	0.23117165
185	0xbe91cf78	-0.284786
186	0xbe9c9572	-0.30582768
187	0x3e845fd3	0.25854358
188	0x3eb4f6b4	0.3534447
189	0x3e8aadb7	0.2708566
190	0x3e938914	0.2881552
191	0x3e8c701a	0.27429277
192	0x3e925208	0.2857821
193	0xbe92ef3d	-0.2869815
194	0x3ea54bd5	0.32284418
195	0xbe94acfa	-0.2903822
196	0xbe9818ca	-0.29706413
197	0x3e8f8bee	0.28036445
198	0xbe9332c5	-0.28749672
199	0xbe9c200f	-0.3049321
200	0x3e90dea9	0.28294876
201	0xbe87d38c	-0.26528585
202	0x3e9c1952	0.30488068
203	0xbe90fd81	-0.28318408
204	0x3e9c71d1	0.30555585
205	0xbe4b30e0	-0.19842863
206	0xbe803594	-0.25040877
207	0xbe8e12d9	-0.27748755
208	0x3e9e2a29	0.3089154
209	0x3e8cf4a7	0.27530405
210	0x3e970f1d	0.29503718
211	0x3e5ad8d0	0.2137177
212	0xbe5b42de	-0.21412227
213	0xbe7897a8	-0.24276602
214	0xbe83bfd5	-0.25732294
215	0x3e84513f	0.25843236
216	0xbe8eaf94	-0.2786833
217	0xbe9ee842	-0.31036574
218	0xbe87759c	-0.26456916
219	0xbe90d089	-0.282841
220	0x3ea44f67	0.3209183
221	0xbe6f91ec	-0.23395509
222	0xbeacbc00	-0.33737183
223	0xbe985b0b	-0.2975696
224	0x3e95eb39	0.29281023
225	0x3e98742a	0.29776126
226	0xbe8dbb2b	-0.2768186
227	0xbea741ca	-0.3266738
228	0x3e9a11d4	0.30091727
229	0xbe6a6771	-0.22891022
230	0xbe89209f	-0.267827
231	0x3e86bb93	0.26314983
232	0x3e7afa84	0.24509627
233	0x3e7d7b3a	0.24754038
234	0xbe6b62d9	-0.22986926
235	0x3e86ce73	0.26329383
236	0x3e95af47	0.29235289
237	0x3e941ddd	0.28929034
238	0x3e6e4dc7	0.23271857
239	0x3ea0cabc	0.31404674
240	0x3e86e74c	0.2634834
241	0xbe94ba0b	-0.2904819
242	0xbe80dbcd	-0.25167695
243	0x3e8fa955	0.28058878
244	0x3ea6a116	0.32544774
245	0xbe8a911e	-0.2706384
246	0x3e8965ca	0.2683547
247	0x3e8f2a72	0.2796207
248	0x3e7f9e15	0.24962647
249	0xbe9ad17d	-0.30237952
250	0xbe8b488f	-0.27203795
251	0x3e8fa8e2	0.28058535
252	0x3e9ab3e0	0.3021536
253	0xbe91dcee	-0.28488868
254	0xbe75fbab	-0.24021785
255	0xbe9c94f4	-0.30582392

actor.0.weight f4 [256, 19]
0	0xbc96a8ea	-0.018391091
1	0x3db4fbb1	0.08837069
2	0x3debe170	0.11517608
3	0x3d52c170	0.051454008
4	0xbe5094c3	-0.20369248
5	0xbd2ba4b8	-0.041905135
6	0x3d50f7c4	0.051017538
7	0x3d68a41e	0.05679714
8	0x3bd35e54	0.006450454
9	0x3e468304	0.19385916
10	0x3d062e84	0.032759205
11	0x3dbe67c7	0.09297138
12	0x3db61fb6	0.08892767
13	0x3df16721	0.117872484
14	0xbcea3506	-0.028589737
15	0x3e4b8c44	0.19877726
16	0x3c9d16c0	0.019175887
17	0xbd307380	-0.0430789
18	0xbe2cfcaa	-0.16893259
19	0xbd83b971	-0.064318545
20	0x3e07ad49	0.13249697
21	0xbe0afa5b	-0.13572066
22	0xbe071dfa	-0.13195029
23	0x3dd5bf9e	0.10436939
24	0x3e0d94d1	0.138263
25	0x3e5bf7bc	0.21481222
26	0x3d7c0512	0.061528273
27	0xbce2b542	-0.027674321
28	0xbe2526ef	-0.16128133
29	0x3e5b0083	0.21386914
30	0xbd0ca645	-0.034338254
31	0xbe3f2dd1	-0.18669821
32	0xbe738967	-0.23782884
33	0xbdeeb0ce	-0.116548166
34	0xbc7ef995	-0.015562435
35	0xbd0d06c8	-0.034430295
36	0x3b546cc0	0.0032413453
37	0xbd9d74a8	-0.07688266
38	0xbde2364b	-0.11045512
39	0x3db21386	0.0869513
40	0xbe50c2f7	-0.20386873
41	0xbd51042c	-0.05102937
42	0xbe339427	-0.17536984
43	0x3d903782	0.07041837
44	0x3d979511	0.07401479
45	0xbe473b63	-0.19456248
46	0x3e4fc3eb	0.2028958
47	0x3d8a3ab9	0.06749482
48	0xbe59fe25	-0.21288355
49	0x3e66cea7	0.22539769
50	0xbe4374ae	-0.19087479
51	0x3c3eedea	0.011653403
52	0xbe44b367	-0.19209062
53	0xbe2caff2	-0.16863993
54	0x3db85b16	0.09001748
55	0x3e2a6b85	0.16642578
56	0x3cc3f057	0.023918314
57	0xbdc37991	-0.09544671
58	0xbd994c99	-0.07485313
59	0x3ddb0ac9	0.106954165
60	0xbe722b0d	-0.23649235
61	0xbcc54030	-0.024078459
62	0xbdf62f2b	-0.12020715
63	0x3e11bac8	0.14231408
64	0x3e2600dc	0.16211265
65	0x3dd38ea8	0.10329944
66	0x3e3ca32c	0.1842162
67	0xbddddba3	-0.10832908
68	0x3e5e15b4	0.21687967
69	0x3e710eeb	0.23540847
70	0xbd84c07a	-0.064820245
71	0xbccc86c4	-0.024966605
72	0xbde53a6c	-0.11192784
73	0x3e515169	0.20441212
74	0xbdf24826	-0.118301675
75	0x3dc9cbde	0.09853338
76	0x3e44b119	0.19208182
77	0xbe6924b6	-0.2276791
78	0xbd5b581f	-0.053550836
79	0xbd70c8c1	-0.058785204
80	0x3e3afc53	0.18260317
81	0xbc92d690	-0.017924577
82	0xbe330f71	-0.17486359
83	0xbd671d9c	-0.056424722
84	0x3da1fd4a	0.07909639
85	0xbc9b5154	-0.018959679
86	0xbdb891ee	-0.09012209
87	0x3d95f08c	0.07321271
88	0x3e430fb1	0.19048955
89	0xbe2b8e1f	-0.16753434
90	0xbdf887e8	-0.12135297
91	0x3e0307f6	0.12796006
92	0x3e4e0095	0.2011741
93	0xbe6288b1	-0.22122456
94	0x3dee577d	0.11637781
95	0x3e0d047d	0.13771243
96	0xbd83f625	-0.06443433
97	0x3c138de5	0.009005998
98	0xbcccd82c	-0.025005423
99	0x3da4d262	0.0804794
100	0x3e57fefb	0.21093361
101	0xbe4694ae	-0.19392654
102	0x3d31fcd7	0.043454017
103	0xbda91436	-0.08255808
104	0x3db079ac	0.08616957
105	0x3e5c7e4b	0.21532552
106	0xbdb8f7cf	-0.09031641
107	0x3a8a6a44	0.0010560234
108	0x3e310865	0.17288359
109	0xbe004601	-0.12526704
110	0xbe028d63	-0.12749247
111	0x3dd238e6	0.10264759
112	0x3c735f20	0.014854223
113	0xbe55b025	-0.20867975
114	0x3dbaf75f	0.091292135
115	0xbe5e67c5	-0.21719272
116	0x3dd577c8	0.10423237
117	0x3e67ce18	0.22637212
118	0x3e173f3f	0.1477022
119	0xbe5e7d3e	-0.21727464
120	0xbe79bd82	-0.24388698
121	0x3dcbe333	0.09955444
122	0xbe47e675	-0.19521506
123	0xbd44c85b	-0.048042636
124	0x3dec8746	0.11549239
125	0xbc605b55	-0.01369365
126	0xbe49813b	-0.19678204
127	0xbcd97ee5	-0.026549766
128	0xbe1b6f98	-0.15179288
129	0xbd9c9dd3	-0.0764729
130	0xbe482914	-0.1954692
131	0xbbc6a5e0	-0.0060622543
132	0x3de4b083	0.111664794
133	0xbd814d78	-0.06313604
134	0xbd24ab8d	-0.040202666
135	0x3dc87a0e	0.09788905
136	0x3e671b0d	0.22568913
137	0x3e3f1ab5	0.18662532
138	0x3d6829dc	0.056680545
139	0xbe696953	-0.22794084
140	0x3b8cd93b	0.004298357
141	0x3d755b6a	0.059901632
142	0x3d0900f3	0.03344817
143	0x3c8d6a60	0.017262638
144	0x3e4a4373	0.19752292
145	0x3e3866be	0.18007943
146	0x3c8035ae	0.015650596
147	0x3d03778a	0.032096423
148	0xbe38cae0	-0.1804614
149	0x3df45bb2	0.11931552
150	0x3e01ee1f	0.12688492
151	0x3df7d92d	0.1210197
152	0x3cfaf874	0.03063605
153	0xbc04eb80	-0.008112788
154	0xbdbf42af	-0.09338891
155	0xbe615f60	-0.22009039
156	0xbcabfcc8	-0.020994559
157	0x3e368793	0.17825155
158	0x3e2ff5a3	0.17183547
159	0x3c2fedfb	0.010737891
160	0xbe4c6e89	-0.19964041
161	0x3e6570ce	0.22406313
162	0x3d8024d6	0.06257026
163	0xbd19f5ef	-0.037588056
164	0x3d126199	0.035737608
165	0xbc95bd63	-0.018278783
166	0x3c914bde	0.017736372
167	0xbc0044e1	-0.007828922
168	0xbdfd39c6	-0.12364535
169	0x3c81c768	0.015842155
170	0x3cc3e0d8	0.023910925
171	0x3e2e1615	0.17000611
172	0xbcf61d6b	-0.030043324
173	0x3e26dc72	0.1629503
174	0xbdfef844	-0.12449697
175	0xbe36392c	-0.17795247
176	0x3e198a7d	0.14994235
177	0xbe501744	-0.20321375
178	0x3e552460	0.20814657
179	0xbe645a84	-0.22300154
180	0x3e3c5fbe	0.18395898
181	0xbc910b18	-0.017705485
182	0xbe191912	-0.1495097
183	0xbe564790	-0.20925736
184	0x3e715e63	0.23571162
185	0x3c2b17ce	0.010442687
186	0xbdd6fe88	-0.10497767
187	0x3cf5f4c8	0.030023947
188	0x3e0d8963	0.1382194
189	0x3d24cfd9	0.04023728
190	0xbe386828	-0.18008482
191	0x3e4684e1	0.19386627
192	0xbc5fd44e	-0.013661457
193	0x3c01c939	0.00792151
194	0x3bea0cc0	0.007142633
195	0x3e17560f	0.14778922
196	0xbe1fc1c2	-0.15601256
197	0xbccaac67	-0.024740411
198	0x3e641386	0.22273073
199	0xbe26c733	-0.16286926
200	0x3e391dbd	0.1807775
201	0xbe7ae418	-0.24501073
202	0x3d84d01b	0.064850055
203	0x3e29f362	0.1659675
204	0xbdcedaf7	-0.10100358
205	0xbdf66a57	-0.120320015
206	0x3bb6d560	0.0055796355
207	0xbd1b8830	-0.037971675
208	0xbe13b1eb	-0.14423339
209	0x3dd66ec4	0.104703456
210	0x3c970079	0.018432843
211	0xbddd10af	-0.10794198
212	0xbe1eb751	-0.15499617
213	0xbe44e2cf	-0.19227146
214	0xbcac0938	-0.02100049
215	0x3d396adc	0.045267925
216	0x3dac84ae	0.08423744
217	0x3dbd0467	0.09229355
218	0xbc95104d	-0.01819625
219	0x3d9e051a	0.07715817
220	0xbe15ee11	-0.14641596
221	0xbd7665c9	-0.060155664
222	0x3e80176f	0.25017878
223	0xbe833fd9	-0.2563465
224	0xbdc37d65	-0.095454015
225	0x3e6465d5	0.22304471
226	0xbda466ee	-0.08027445
227	0x3d06f254	0.032945946
228	0x3dfda268	0.12384492
229	0xbda1f1e8	-0.07907468
230	0x3e3b0891	0.18264987
231	0x3d1fd59a	0.039022066
232	0xbe42e7e1	-0.19033767
233	0xbd9c3950	-0.07628119
234	0xbe23c936	-0.15994725
235	0x3dc6b1e1	0.097018965
236	0xbd14553e	-0.036214106
237	0x3e14b359	0.1452154
238	0xbd989532	-0.07450332
239	0x3e8d0c4c	0.27548444
240	0xbe08ede5	-0.13372
241	0x3d0db928	0.034600407
242	0xbdae3c5f	-0.085076086
243	0xbe23a07a	-0.15979186
244	0xbe310187	-0.17285739
245	0xbd313cc8	-0.043270856
246	0xbcfe6662	-0.03105468
247	0xbe60c3d5	-0.21949704
248	0x3d9fabb2	0.0779642
249	0xbe2ddecb	-0.1697952
250	0x3d8a1b4b	0.06743487
251	0x3d3ec60c	0.04657559
252	0xbd27c81c	-0.040962324
253	0x3daa7486	0.08323006
254	0xbc1e2c54	-0.009654123
255	0x3e5a8427	0.21339475

actor.0.bias f4 [256]
0	0x3e310f5c	0.17291015
1	0x3dc9d568	0.09855157
2	0xbe2a5f86	-0.16638002
3	0xbd55d1cf	-0.052202042
4	0xbe36d65e	-0.17855212
5	0xbe48a58b	-0.195944
6	0xbdf5be8a	-0.11999233
7	0x3dbaddaf	0.09124314
8	0xbe2c048c	-0.1679861
9	0xbe4c979e	-0.19979712
10	0xbcf47328	-0.029840067
11	0xbe3ff202	-0.18744662
12	0x3e42bfdb	0.190185
13	0x3e0ab7ad	0.13546629
14	0x3e2e175d	0.170011
15	0x3e3af3eb	0.1825711
16	0x3e0c9a58	0.13730752
17	0x3dce5a8e	0.10075866
18	0x3e15e2f0	0.14637351
19	0x3d022a41	0.031778578
20	0x3e6619c6	0.2247077
21	0xbddfb630	-0.109234214
22	0x3e61a145	0.22034176
23	0x3e1a2ff5	0.15057357
24	0x3d1300f6	0.03588959
25	0x3e463361	0.19355537
26	0xbe17fe33	-0.14843063
27	0x3be7f4b4	0.0070787314
28	0xbe374e1b	-0.17900889
29	0x3e560542	0.20900443
30	0xbe190abe	-0.14945504
31	0x3ddf841b	0.10913869
32	0x3d752076	0.05984541
33	0xbe46e167	-0.19421922
34	0x3db50547	0.08838897
35	0x3c577827	0.013151205
36	0x3d549b6b	0.05190603
37	0x3e607ce8	0.21922648
38	0xbe483466	-0.19551238
39	0x3e1e703c	0.15472502
40	0xbe666057	-0.22497688
41	0x3e4e4237	0.20142446
42	0xbc71306c	-0.014721017
43	0xbe0038c7	-0.12521659
44	0x3e3e6d78	0.18596447
45	0xbe22139b	-0.15827791
46	0x3c2c6a81	0.010523439
47	0x3e50c57c	0.20387834
48	0xbe0b6a77	-0.13614832
49	0x3da8beee	0.08239542
50	0x3e637467	0.22212373
51	0x3dc95ca6	0.098321244
52	0x3dacdf90	0.08441079
53	0x3e3ca911	0.18423869
54	0xbe3bbc27	-0.18333493
55	0xbe2515d5	-0.1612161
56	0xbe0f959f	-0.1402192
57	0xbe0f46fc	-0.13991922
58	0xbd93b2e3	-0.07211854
59	0xbd9df57f	-0.0771284
60	0xbd0a880d	-0.033821154
61	0xbd9aa88e	-0.075516805
62	0x3e23154a	0.1592609
63	0x3dc57415	0.096412815
64	0x3e462eba	0.19353762
65	0xbe7163c5	-0.23573215
66	0x3e14ed8d	0.14543743
67	0x3c91a631	0.017779442
68	0x3d5c65c0	0.053807974
69	0x3e4b748b	0.19868676
70	0xbe108337	-0.14112554
71	0xbe19ec9e	-0.15031669
72	0xbe1c04ec	-0.15236253
73	0xbe06c436	-0.13160786
74	0x3c9e973a	0.01935922
75	0x3dac388d	0.08409224
76	0x3e3b9178	0.1831721
77	0xbd4799d2	-0.04873068
78	0x3e5d69ab	0.2162234
79	0x3c17d94f	0.009268119
80	0xbd407f74	-0.04699655
81	0x3e09fc39	0.13475122
82	0x3d34b7db	0.04412065
83	0xbe5651f3	-0.20929699
84	0xbe34e691	-0.17666079
85	0x3daab6d5	0.08335654
86	0x3e08a58f	0.13344406
87	0x3dd884b7	0.10572188
88	0x3e4f22ca	0.20228115
89	0x3e1dcff7	0.15411364
90	0xbd8b22da	-0.06793757
91	0xbe4a55e8	-0.19759333
92	0x3ccf3d53	0.025297796
93	0x3c8fc5cd	0.017550373
94	0xbe5e78a3	-0.21725707
95	0xbdddb320	-0.10825181
96	0xbca69c9e	-0.020338353
97	0xbe04f5d1	-0.12984397
98	0x3dcb31ad	0.09921584
99	0xbe0ead41	-0.13933279
100	0x3c12649e	0.008935122
101	0xbd642cb5	-0.0557067
102	0x3de07465	0.109597005
103	0x3e0fd807	0.14047252
104	0x3e6e00d1	0.23242499
105	0xbe2ca512	-0.16859844
106	0x3e19e068	0.1502701
107	0x3dece8b7	0.11567824
108	0x3e042522	0.1290479
109	0xbdcac8e6	-0.099015996
110	0x3cd68b65	0.026189515
111	0x3db552ae	0.088536605
112	0xbe004e14	-0.12529784
113	0x3dd07365	0.1017826
114	0xbe5f5673	-0.21810322
115	0x3c15ede9	0.0091509605
116	0x3e527d2c	0.20555562
117	0x3e073a41	0.13205816
118	0xbe2a2a8b	-0.16617791
119	0x3d3d6c14	0.04624565
120	0xbc5164be	-0.012780366
121	0xbcf312b1	-0.029671999
122	0x3e4defa8	0.20110953
123	0xbdcf8a90	-0.101338506
124	0x3e372579	0.17885388
125	0xbdfad52d	-0.12247691
126	0x3b31e282	0.0027143066
127	0xbd99513e	-0.07486199
128	0xbe0e0cf4	-0.13872129
129	0xbd0e08df	-0.03467643
130	0xbd9d1c58	-0.07671422
131	0x3d42b3d7	0.04753479
132	0x3e2ec339	0.17066659
133	0xbe3b1cc6	-0.18272695
134	0xbd9dede8	-0.07711393
135	0xbe56e960	-0.20987463
136	0xbd824010	-0.06359875
137	0xbe18526b	-0.1487519
138	0x3dc7e961	0.0976131
139	0xbe334364	-0.17506176
140	0x3da70a9a	0.08156319
141	0x3cde9812	0.027172122
142	0xbe615ed1	-0.22008826
143	0x3de2228f	0.11041748
144	0x3c0dd2fb	0.008656259
145	0xbe5ac010	-0.21362329
146	0x3e658ff5	0.22418196
147	0xbe157b57	-0.14597832
148	0x3de7f147	0.11325317
149	0x3e55d09e	0.20880362
150	0xbd11eedb	-0.03562818
151	0x3e68bbcb	0.22727887
152	0x3e1608bc	0.1465177
153	0xbdf7f4d1	-0.12107242
154	0xbc5c5532	-0.0134480465
155	0xbcc87984	-0.024472006
156	0x3df8be90	0.12145722
157	0xbe401fc3	-0.18762116
158	0x3cbf79f3	0.02337358
159	0x3d6db8c1	0.058037523
160	0xbdb13ec0	-0.08654547
161	0x3dae031d	0.084966876
162	0xbe45adcc	-0.1930458
163	0xbd2bd487	-0.04195073
164	0x3e382102	0.17981341
165	0xbe6127cc	-0.21987838
166	0x3e2f1283	0.17096905
167	0xbe63cfb5	-0.22247203
168	0x3e0d18c5	0.1377898
169	0xbd465dec	-0.048429415
170	0x3d623a66	0.055231474
171	0x3e25c6ce	0.16189119
172	0xbe2022b1	-0.15638234
173	0xbe1092e3	-0.14118533
174	0xbdb6d320	-0.08926988
175	0xbe4dd331	-0.20100094
176	0xbcb6676b	-0.02226611
177	0x3b5d6ee1	0.0033788013
178	0xbe4e7bb6	-0.2016438
179	0x3d9068dc	0.0705125
180	0x3e687160	0.22699499
181	0xba0a66db	-0.0005279609
182	0xbda29fc7	-0.07940631
183	0xbd3374db	-0.043812614
184	0x3ccc480e	0.024936702
185	0xbce1a14a	-0.027542729
186	0x3cff2e07	0.031149877
187	0x3e4889a2	0.19583753
188	0xbe1c2efb	-0.15252297
189	0x3d968fa3	0.07351615
190	0xbcf9b8a6	-0.030483555
191	0xbca40244	-0.020020612
192	0xbe234f3a	-0.15948191
193	0xbe53ed97	-0.20696102
194	0x3dd04235	0.10168878
195	0x3d8662f8	0.065618455
196	0xbce306bc	-0.027713172
197	0xbc62f051	-0.013851241
198	0x3e5e0b4a	0.21683994
199	0x3d41c723	0.047309052
200	0xbd846ef7	-0.06466477
201	0x3dbda426	0.092598245
202	0x3dacb6f8	0.08433336
203	0xbe160173	-0.1464899
204	0xbcd53e42	-0.026030663
205	0x3d9f3eca	0.07775648
206	0xbd99beac	-0.07507071
207	0xbc878829	-0.016544418
208	0xbdd6f018	-0.10495013
209	0x3dad44cc	0.084603876
210	0xbd5c0a7d	-0.05372094
211	0x3dce64d4	0.10077825
212	0x3d2424d9	0.040074203
213	0xbdda5d59	-0.10662336
214	0x3db76e0e	0.08956538
215	0x3e0583f1	0.13038613
216	0x3ddb3650	0.10703719
217	0x3cd2e379	0.025743233
218	0x3e371fbb	0.17883198
219	0x3df64bef	0.12026202
220	0xbbcbb6a1	-0.0062168394
221	0xbdf2d77d	-0.118575074
222	0xbe56f64b	-0.20992391
223	0xbe34b372	-0.17646578
224	0xbd32d625	-0.043661255
225	0x3d728177	0.0592055
226	0xbe10137d	-0.14069934
227	0x3df6eed5	0.12057272
228	0xbe100b3d	-0.14066787
229	0xbd86f2f6	-0.0658931
230	0xbdaf59b5	-0.08562032
231	0x3dc81046	0.09768729
232	0xbc1fc401	-0.009751321
233	0xbe010d01	-0.12602617
234	0xbe277c0a	-0.16355911
235	0x3e0a300e	0.13494894
236	0x3e00e165	0.12585981
237	0x3da0985f	0.078415625
238	0xbe19f6ec	-0.150356
239	0xbd1cf4a2	-0.038319238
240	0x3dce915e	0.1008632
241	0xbe156524	-0.14589363
242	0x3e33588d	0.17514248
243	0x3de2b40c	0.110694975
244	0xbda068df	-0.078325026
245	0xbe129fbc	-0.14318746
246	0xbe2dbde9	-0.16966976
247	0x3e004143	0.12524895
248	0xbdfa6192	-0.12225641
249	0xbca2f349	-0.019891398
250	0x3db4140d	0.08792887
251	0x3e5cd51f	0.21565674
252	0xbcdf839b	-0.027284434
253	0x3e1676b8	0.14693725
254	0xbe5b454a	-0.2141315
255	0xbe312cbc	-0.17302221
