models/mec_policy_best.pth (torch, 576626 bytes, 11 tensors)

critic.0.weight f4 [256, 19]
0	0xbe1fef76	-0.15618691
1	0x3e3ef14e	0.18646738
2	0xbdacac9d	-0.08431361
3	0xbd13786b	-0.03600351
4	0xbe411d96	-0.18858942
5	0x3ddf604e	0.109070405
6	0xbeed6166	-0.46363372
7	0xbe4f82d6	-0.20264754
8	0x3efaba77	0.48970386
9	0x3eaba8a4	0.335271
10	0x3e374065	0.17895658
11	0x3d5484a1	0.051884297
12	0xbd1d0111	-0.038331095
13	0x3e5443a4	0.20728928
14	0xbe4452e1	-0.19172241
15	0xbdc175b1	-0.09446276
16	0xbdbb6269	-0.091496296
17	0x3e0204aa	0.12697092
18	0xbe1886e7	-0.14895211
19	0x3e13d837	0.14437948
20	0xbdbce1d2	-0.09222759
21	0xbe4a466e	-0.1975343
22	0x3e14372e	0.14474174
23	0x3df3f1d6	0.11911361
24	0xbd5da320	-0.054110646
25	0x3f07ffcb	0.53124684
26	0x3b5b78e8	0.0033488814
27	0xbe390753	-0.180692
28	0xbe1fe515	-0.15614732
29	0xbd50db00	-0.050990105
30	0x3ef2e66c	0.47441423
31	0xbe196f92	-0.14983967
32	0xbe486414	-0.19569427
33	0xbe0aaf42	-0.13543418
34	0x3d6f60a9	0.05844179
35	0x3c920d7a	0.017828692
36	0x3dd4f252	0.103977814
37	0x3e33b4be	0.17549416
38	0xbdf67d9a	-0.12035675
39	0x3e944ee5	0.28966442
40	0xbc52cad0	-0.012865737
41	0xbc98943e	-0.018625375
42	0x39f43200	0.0004657656
43	0xbe6941a7	-0.2277895
44	0x3ef209e2	0.47273165
45	0x3d838a88	0.06422907
46	0xbeec7c54	-0.46188605
47	0x3e17c5da	0.14821568
48	0x3e006e0d	0.12541981
49	0xbdc5f350	-0.09665549
50	0x3c82083b	0.015873065
51	0x3d94a344	0.07257703
52	0x3d568147	0.052369382
53	0xbc80758d	-0.015681053
54	0x3e4d67d2	0.20059136
55	0xbcfe6d2a	-0.031057913
56	0xbde0cd20	-0.109766245
57	0x3ddaf4d0	0.106912255
58	0x3dea5356	0.11441676
59	0xbe832418	-0.25613475
60	0xbd15bee8	-0.036559016
61	0x3c57c5b0	0.013169691
62	0xbe411846	-0.18856916
63	0xbe962f42	-0.2933293
64	0xbb81ce4b	-0.0039613596
65	0x3ee77fbd	0.45214644
66	0xbd88156a	-0.066447094
67	0x3e102a63	0.14078669
68	0x3f10d4cc	0.565747
69	0xbe2675b7	-0.16255842
70	0xbe0f810a	-0.14014068
71	0x3da76662	0.08173825
72	0xbe11b40f	-0.14228843
73	0x3de44f03	0.11147883
74	0x3cc0e0bc	0.023544662
75	0x3de95527	0.11393195
76	0x3d24a478	0.040195912
77	0xbd3266ad	-0.04355495
78	0xbe0cfae3	-0.1376758
79	0xbcac34c1	-0.021021249
80	0xbdf4129f	-0.11917614
81	0x3e5b607f	0.21423529
82	0x3f2e53f5	0.6809686
83	0x3d50c3a5	0.05096783
84	0x3e62e778	0.22158611
85	0x3da65214	0.08121124
86	0x3d767ea4	0.060179368
87	0x3f02bf95	0.5107358
88	0x3de0e5b8	0.109813154
89	0x3d835c4e	0.0641409
90	0xbe32c364	-0.17457348
91	0xba8ac81f	-0.0010588205
92	0x3e1dab4b	0.15397374
93	0xbd8f01f9	-0.06982798
94	0x3d804943	0.062639736
95	0xbe4e30e5	-0.2013584
96	0xbcdf5f1d	-0.027267033
97	0x3c9de49f	0.019274054
98	0x3de1d471	0.11026848
99	0xbc9c02e0	-0.01904434
100	0x3d793ef4	0.060851052
101	0xbec7c2a4	-0.39015687
102	0xbe65f111	-0.22455241
103	0xbe325e00	-0.1741867
104	0x3e6ad685	0.22933395
105	0x3e222013	0.15832548
106	0x3f42c48c	0.76081157
107	0xbe5933ec	-0.21211213
108	0x3e2e4412	0.17018154
109	0xbe611af5	-0.2198294
110	0xbe11804f	-0.14209102
111	0xbd884590	-0.06653893
112	0xbe75a01f	-0.23986863
113	0x3c849750	0.016185433
114	0xbdc72462	-0.09723736
115	0xbdb2c845	-0.08729605
116	0xbe192925	-0.14957102
117	0x3dfb3c8a	0.12267406
118	0xbe038e10	-0.12847161
119	0x3e334219	0.17505683
120	0x3f1aaa8d	0.6041649
121	0x3e4e5f91	0.20153643
122	0x3e3adfee	0.18249485
123	0x3c009cf8	0.007849924
124	0xbda542cc	-0.08069381
125	0x3dbc943a	0.092079595
126	0xbe394823	-0.18093924
127	0xbe2bbdc1	-0.16771604
128	0xbe48fa3f	-0.19626711
129	0x3e228bbb	0.15873615
130	0xbdbe7777	-0.0930013
131	0xbe0bc239	-0.13648309
132	0xbe49cd03	-0.19707112
133	0x3e3cded5	0.18444379
134	0x3d7f0134	0.062257007
135	0x3dbfd839	0.09367413
136	0x3dc81767	0.09770089
137	0xbe0eeb12	-0.1395686
138	0xbe3b59ba	-0.18295947
139	0xbecd4e5d	-0.4009885
140	0x3e8002a1	0.25002006
141	0x3e3b2eb1	0.1827953
142	0x3e61e315	0.22059281
143	0x3e4532f3	0.19257717
144	0x3ea75bb4	0.3268715
145	0xbdd3f26d	-0.103489734
146	0x3e6ad6d4	0.22933513
147	0xbe0712d0	-0.1319077
148	0xbd992c19	-0.07479114
149	0xbd365ecd	-0.044524003
150	0xbe17ca92	-0.14823368
151	0x3e00486b	0.12527625
152	0xbdf5e5bb	-0.12006708
153	0xbea5e3ba	-0.32400304
154	0x3cd97145	0.026543269
155	0xbe47662f	-0.19472574
156	0xbdc970a8	-0.098359406
157	0x3d4a33b4	0.049365714
158	0x3ee26cda	0.44223672
159	0xbd69c901	-0.057076458
160	0x3e415a69	0.18882145
161	0xbd8bfe0d	-0.06835566
162	0xbd78cb8c	-0.060740992
163	0x3f0d5584	0.5520861
164	0x3a8664b0	0.0010253396
165	0xbe99e3a1	-0.3005648
166	0x3e3441f2	0.17603281
167	0xbe053121	-0.13007022
168	0xbdf4f4af	-0.11960732
169	0xbe97e39c	-0.2966584
170	0xbbb72f20	-0.0055903345
171	0x3d869957	0.06572216
172	0xbe7c6634	-0.24648362
173	0xbe5b2b09	-0.21403135
174	0xbcfb15a5	-0.03064997
175	0xbe66939d	-0.22517247
176	0xbe64353b	-0.22285931
177	0xbe82ce6b	-0.2554811
178	0xbede35a4	-0.434003
179	0xbe6efa08	-0.23337567
180	0x3c888cf6	0.016668778
181	0x3e2acc49	0.16679491
182	0x3ea8506d	0.3287386
183	0x3e63cae1	0.22245361
184	0xbe4c6d8e	-0.19963667
185	0x3c29b3ad	0.010357779
186	0xbe08f3ad	-0.13374205
187	0xbe3a7f07	-0.1821252
188	0x3d77c372	0.060489126
189	0x3d956632	0.07294883
190	0xbdd01427	-0.10160094
191	0xbdb3b604	-0.08774951
192	0x3e049af0	0.12949729
193	0xbd46b0fa	-0.04850862
194	0x3c94ebe8	0.018178895
195	0xbe6626ed	-0.22475787
196	0x3eaf5845	0.34247032
197	0xbe3268db	-0.17422812
198	0xbee5814e	-0.44825214
199	0xbe41b1a6	-0.18915424
200	0xbe0ca12c	-0.13733357
201	0xbee31acc	-0.44356382
202	0xbd447d23	-0.047970902
203	0x3ea20cf4	0.31650507
204	0x3df3ed78	0.11910528
205	0xbb81a891	-0.0039568623
206	0x3d0c62a4	0.03427376
207	0x3e39d5b8	0.18147933
208	0x3e082623	0.13295798
209	0x3d29b4c2	0.04143215
210	0x3dbaba4c	0.091175646
211	0xbd345454	-0.044025734
212	0x3e445455	0.19172795
213	0xbd348c18	-0.044078916
214	0xbe1b407c	-0.15161318
215	0x3f1618ee	0.5863179
216	0xbe12bba7	-0.14329396
217	0xbd2d13de	-0.042255275
218	0xbe7f6900	-0.24942398
219	0xbe6575ca	-0.22408214
220	0xbf394708	-0.7237401
221	0x3e20d438	0.15705955
222	0x3da8fd3d	0.08251426
223	0xbcc8a2ca	-0.024491686
224	0xbe0276ba	-0.12740603
225	0xbe2ca0e5	-0.16858251
226	0x3da437c6	0.080184504
227	0x3e661c3d	0.2247171
228	0x3dc36a62	0.09541775
229	0xbd99596b	-0.07487758
230	0xbdff08a6	-0.124528214
231	0x3e2cea1c	0.1688618
232	0x3db3362e	0.08750568
233	0x3da1314a	0.07870729
234	0xbef728f7	-0.4827344
235	0xbe6a53dd	-0.22883554
236	0x3d0bef9d	0.03416406
237	0xbddc87e3	-0.10768106
238	0x3cf4f5d8	0.029902384
239	0x3f23fc55	0.64056903
240	0x3d83a1df	0.06427359
241	0x3e8aa124	0.27076066
242	0xbe92bfa8	-0.28661847
243	0x3d54d444	0.051960245
244	0xbe7958e3	-0.24350314
245	0xbdf86405	-0.12128452
246	0xbe152805	-0.14566047
247	0xbe22cfcb	-0.15899579
248	0x3e35516f	0.17706846
249	0xbdbcd185	-0.0921965
250	0x3dc6b094	0.09701648
251	0x3c881788	0.016612783
252	0x3e2d27c7	0.16909705
253	0xbf0fb7f9	-0.56140095
254	0x3e3ad5a2	0.18245557
255	0x3e484e4b	0.19561116

critic.0.bias f4 [256]
0	0xbb578f90	-0.0032891966
1	0x3e52c05e	0.20581195
2	0xbe3c0232	-0.18360212
3	0x3e054386	0.1301404
4	0xbd752eb9	-0.05985901
5	0x3e7ef0a3	0.24896483
6	0x3e403cea	0.18773237
7	0x3d9de833	0.07710304
8	0x3dcbb03c	0.099457234
9	0xbe5d9100	-0.21637344
10	0xbe3a5ce0	-0.18199492
11	0x3d86e21b	0.06586095
12	0xbe26ac0a	-0.16276565
13	0x3e85628d	0.2605175
14	0x3de4fd1e	0.11181091
15	0x3c44acd7	0.012004099
16	0xbc6980ff	-0.0142519465
17	0xbe0ee247	-0.13953505
18	0xbe28b9ce	-0.16477129
19	0x3e16af82	0.14715388
20	0xbe042d33	-0.12907867
21	0x3c691f87	0.014228708
22	0x3d7aae49	0.061201368
23	0xbe093805	-0.13400276
24	0xbcfebabc	-0.031094901
25	0xbdc7a07f	-0.09747409
26	0xbe8439e7	-0.25825426
27	0x3c944b6d	0.018102372
28	0x3e43d410	0.19123864
29	0xbe0d9635	-0.1382683
30	0xbdb1fbc1	-0.08690596
31	0xbd68ef01	-0.056868557
32	0x3e6b9bfe	0.23008725
33	0x3c81a1e1	0.01582426
34	0x3d642173	0.055695962
35	0xbd4990c0	-0.04921031
36	0x3e0b3f04	0.13598257
37	0xbde7dee3	-0.11321809
38	0x3dc5d295	0.09659306
39	0xbdb8864f	-0.09009992
40	0x3e0f907f	0.14019965
41	0xbe0c544f	-0.13704036
42	0x3e36bf51	0.17846419
43	0xbdcc86cb	-0.09986647
44	0x3dfbc932	0.12294234
45	0x3da1faf9	0.07909197
46	0xbd58fd75	-0.05297609
47	0x3d1f5196	0.038896166
48	0x3db52c59	0.08846349
49	0x3dd3c2b8	0.10339874
50	0xbe11f81c	-0.14254802
51	0xbdb82440	-0.08991289
52	0x3d0c6793	0.034278464
53	0xbc2305cd	-0.0099501135
54	0xbe4d0440	-0.20021152
55	0x3d95d423	0.073158525
56	0xbe14e8a3	-0.14541869
57	0x3d10bf30	0.03533858
58	0xbdacd4ed	-0.0843905
59	0x3e510723	0.20412879
60	0x3e151b66	0.14561233
61	0xbdce4a56	-0.10072772
62	0x3e749e1d	0.2388844
63	0x3e0287cf	0.1274712
64	0xbcf1dcbd	-0.029524202
65	0xbe00ccb8	-0.12578094
66	0x3d6722be	0.056429617
67	0x3e3a636f	0.18201993
68	0xbd926052	-0.07147278
69	0xbd8a7f59	-0.06762571
70	0xbe06b111	-0.13153483
71	0x3e1d3074	0.15350515
72	0xbb492d55	-0.0030697186
73	0xbd1d5981	-0.038415436
74	0x3e0b2e73	0.13591938
75	0xbdbd047f	-0.09229373
76	0xbe192b37	-0.14957891
77	0x3e1d5cd2	0.1536744
78	0xbdac3e23	-0.08410289
79	0x3e2239fa	0.15842429
80	0xbd0760cd	-0.0330513
81	0x3e1eacfc	0.15495676
82	0x3e7209e6	0.23636588
83	0x39175abc	0.00014434283
84	0xbd96bc8f	-0.073601834
85	0x3e809934	0.25116885
86	0xbdb2aab8	-0.08723968
87	0x3db0a187	0.08624559
88	0xbc4a036f	-0.01232992
89	0xbdcd2d7a	-0.100184396
90	0xbe006cc6	-0.12541494
91	0x3c9a4bc0	0.018834949
92	0xbe116d9f	-0.14201973
93	0xbca3097d	-0.019901985
94	0x3dc54aa1	0.09633375
95	0xbcc5c15f	-0.024140058
96	0x3e0ab592	0.13545826
97	0xbe5317f3	-0.20614605
98	0x3ddffa45	0.10936407
99	0xbe342d26	-0.17595348
100	0xbe1e7f23	-0.15478186
101	0xbb303f79	-0.0026893301
102	0x3de43ac5	0.11144022
103	0xbe162c9c	-0.14665455
104	0xbe0fa8fd	-0.14029308
105	0x3dc8e387	0.098090224
106	0xbd5e1f34	-0.054228976
107	0x3c2079bf	0.0097946515
108	0x3d266e9c	0.04063283
109	0xbe3c7731	-0.18404843
110	0xbdc73ace	-0.09728013
111	0x3df8b78b	0.12144383
112	0x3dddff9a	0.10839768
113	0x3e384de5	0.17998464
114	0x3e01f019	0.12689246
115	0xbe66af54	-0.2252782
116	0x3da04f54	0.07827631
117	0xbdac979e	-0.08427356
118	0x3c4341e4	0.011917565
119	0xbdf2c34b	-0.118536554
120	0xbe14c079	-0.14526547
121	0x3d8c0db5	0.06838552
122	0xbe30791c	-0.172337
123	0x3d1f9a24	0.03896536
124	0x3e15df33	0.14635925
125	0xbe602e10	-0.21892571
126	0x3d966a73	0.07344522
127	0x3db61bb5	0.088920034
128	0xbd9d03fa	-0.07666774
129	0x3e1121d4	0.1417306
130	0x3db1071d	0.08643935
131	0xbe0e4570	-0.13893676
132	0xbb5d08c6	-0.0033727153
133	0x3c1ed431	0.009694145
134	0x3db58e9e	0.08865093
135	0xbd95e530	-0.07319105
136	0x3caf62ab	0.021409353
137	0x3d7e7f07	0.06213286
138	0x3e5333db	0.2062525
139	0x3d75e82e	0.060035877
140	0x3db2c96c	0.087298244
141	0x3dd539a3	0.10411384
142	0xbc3f8aff	-0.011690854
143	0xbd06052a	-0.03271977
144	0xbdb38344	-0.08765271
145	0xbdc38317	-0.09546488
146	0x3bfd2cbe	0.007726281
147	0x3e054d2b	0.13017718
148	0xbe24fef4	-0.16112882
149	0xbd5f63ee	-0.05453866
150	0xbe5f5bd4	-0.21812373
151	0xbe39a6c1	-0.18130018
152	0xbda51783	-0.08061125
153	0x3e4c2295	0.19935067
154	0xbe2a384e	-0.16623041
155	0xbde0dc63	-0.109795354
156	0x3e0ff940	0.14059925
157	0x3d79956d	0.06093352
158	0x3e302492	0.1720145
159	0xbe02efc6	-0.12786779
160	0x3e8d899b	0.27644047
161	0x3c86ea48	0.016469136
162	0xbcbfc8e8	-0.02341123
163	0x3ce9a375	0.028520325
164	0xbd89e8b9	-0.067338414
165	0xbe2ca687	-0.168604
166	0xbd9f4c0b	-0.07778176
167	0xbbc0507f	-0.005868971
168	0xbd7ea070	-0.062164724
169	0xbdc765e2	-0.097362295
170	0xbd61563b	-0.055013876
171	0x3e668aaf	0.22513841
172	0xbc6bdbb3	-0.014395642
173	0x3e3d2e3b	0.18474667
174	0xbe0466a5	-0.12929781
175	0x3e315523	0.17317633
176	0xbd445644	-0.04793383
177	0x3d5fd4cd	0.054646302
178	0xbd0586f4	-0.032599404
179	0xbd6fc846	-0.058540605
180	0xbbcb9518	-0.0062128417
181	0xbdc94be7	-0.0982893
182	0x3ddc21b6	0.10748617
183	0xbcc16dcf	-0.023611931
184	0xbe53f6b1	-0.20699574
185	0x3df2d4e9	0.11857016
186	0xbe2455c9	-0.1604835
187	0xbe00287e	-0.12515447
188	0xbe1df785	-0.15426452
189	0xbe114cb5	-0.14189418
190	0xbdc46249	-0.09589059
191	0x3d5a375d	0.053275455
192	0x3dbb7066	0.09152298
193	0x3df5f7e1	0.1201017
194	0x3e867d6e	0.2626757
195	0xbdd6f1a6	-0.104953095
196	0x3e486a17	0.1957172
197	0x3e603a37	0.21897207
198	0x3e67018f	0.22559188
199	0xbd35114d	-0.044205952
200	0xbe245053	-0.16046266
201	0xbc29c417	-0.010361693
202	0xbd3edde3	-0.046598326
203	0xbd4769ee	-0.048685007
204	0x3db98285	0.09058098
205	0x3d35f504	0.04442312
206	0xbe00b1c9	-0.1256782
207	0x3e176e78	0.14788234
208	0xbd902fe9	-0.07040388
209	0x3e0a4f6c	0.1350686
210	0x3dfbf89f	0.1230328
211	0x3e16b8e6	0.1471897
212	0xbc99487d	-0.018711323
213	0xbd89f1b4	-0.06735554
214	0x3df6726d	0.12033544
215	0x3e3c3827	0.18380795
216	0x3e217cea	0.15770307
217	0x3e2f0ddd	0.17095132
218	0x3d9af8f4	0.07567015
219	0x3e3ae8db	0.1825289
220	0x3d9b0494	0.075692326
221	0xbdbebe1b	-0.093136035
222	0x3d434367	0.0476717
223	0xbc4d3cee	-0.012526734
224	0xbe505aa5	-0.20347078
225	0x3e391066	0.18072662
226	0x3d9891bb	0.07449671
227	0x3e4a1df0	0.19737983
228	0x3e60620a	0.21912399
229	0x3e027dd3	0.1274331
230	0x3e3cf8af	0.1845424
231	0xbe01e549	-0.12685122
232	0xbdb135e9	-0.08652861
233	0x3e7e793e	0.24850938
234	0xbe1f9c1d	-0.15586896
235	0xbd1c17b4	-0.038108543
236	0x3df59f5c	0.11993286
237	0xbda3de60	-0.08001399
238	0xbe7c73ba	-0.24653521
239	0x3bedf3cb	0.0072617284
240	0xbe24e425	-0.16102655
241	0xbe492cf4	-0.19646055
242	0x3e1b1b54	0.15147144
243	0xbe31cf28	-0.1736418
244	0xbe752575	-0.2394007
245	0xbe4553db	-0.1927027
246	0xbcedfe76	-0.029052
247	0xbce3d6ef	-0.02781245
248	0xbe5ef01d	-0.21771283
249	0x3e2e0773	0.16995029
250	0xbe141bfb	-0.14463799
251	0xbe50302c	-0.20330876
252	0x3e50dc9e	0.20396659
253	0xbe74f429	-0.23921265
254	0x3e17e8dc	0.14834923
255	0x3e2e1f12	0.1700404

critic.2.weight f4 [256, 256]
0	0xbeb8ff40	-0.3613224
1	0x3caae52c	0.02086123
2	0x3e8f4cfb	0.2798842
3	0xbde717fa	-0.1128387
4	0xbcd32606	-0.025774967
5	0xbf228846	-0.63489187
6	0xbd389cb2	-0.04507131
7	0xbdf5c2ea	-0.120000675
8	0x3bacbf88	0.0052718557
9	0xbcf6a987	-0.030110134
10	0x3de39d77	0.111140184
11	0x3e5093b2	0.20368841
12	0xbe3db800	-0.18527222
13	0xbdd9bbb4	-0.10631505
14	0xbbdf9626	-0.006823319
15	0xbea03b9a	-0.31295472
16	0x3ec4b77f	0.38421246
17	0xbd75505a	-0.059891082
18	0xbd85dca3	-0.06536224
19	0x3e8fb754	0.28069556
20	0x3e5fdc7c	0.21861452
21	0x3ea812a0	0.3282671
22	0x3e825072	0.25452
23	0xbc4b8ace	-0.01242323
24	0x3d84f3f9	0.064918466
25	0x3dbbfdf9	0.09179301
26	0x3e2b657c	0.16737932
27	0x3cca3733	0.024684524
28	0x3e0b1760	0.13583136
29	0xbe7754ce	-0.24153444
30	0xbec98de3	-0.39366063
31	0xbe175abd	-0.14780708
32	0xbe949b78	-0.29024863
33	0x3e0819ae	0.13291046
34	0xbe68804a	-0.22705188
35	0x3df264c8	0.11835629
36	0xbc81b051	-0.015831145
37	0xbe0199c5	-0.12656315
38	0xbdaedf78	-0.08538717
39	0x3e8beae5	0.27327648
40	0x3bdf50f0	0.0068150684
41	0x3eb03c3a	0.3442095
42	0xbece1e85	-0.4025766
43	0xbd03424b	-0.032045644
44	0xbd1d441d	-0.038395036
45	0x3e76af43	0.24090295
46	0xbe2f8a6e	-0.1714265
47	0xbe840ecc	-0.2579254
48	0x3eb93363	0.36172017
49	0x3e0c618c	0.13709086
50	0x3d6dd833	0.05806751
51	0x3f017aef	0.50578207
52	0x3a28e452	0.0006442714
53	0xbcdab62b	-0.026698193
54	0x3dbee6d9	0.093213744
55	0x3d825565	0.06363944
56	0x3e3aaa6c	0.18229073
57	0xbd0f1a76	-0.034937344
58	0x3d0811cf	0.03322011
59	0xbda30eaf	-0.07961785
60	0xbe2e278a	-0.1700727
61	0x3cb1e69c	0.021716408
62	0xbdb93032	-0.09042396
63	0xbe6ff8c9	-0.23434748
64	0x3d74fc50	0.059810936
65	0xbe49b133	-0.19696502
66	0xbd25395f	-0.040337916
67	0xbde32c34	-0.110924155
68	0x3e5ed8d5	0.21762402
69	0x3e0d6583	0.13808255
70	0x3e3840b6	0.17993435
71	0x3daa99ef	0.08330142
72	0x3ea82022	0.32837015
73	0x3ea34f9f	0.31896684
74	0x3dc7aa00	0.09749222
75	0xbecec15e	-0.40381902
76	0xbea57957	-0.32319137
77	0x3e7d5931	0.24741055
78	0xbdc88fa8	-0.09793025
79	0x3e41ed04	0.1893807
80	0x3d2b7482	0.041859157
81	0x3e004df8	0.12529743
82	0xbea126e5	-0.31474987
83	0xbeab5220	-0.33461094
84	0x3e20824c	0.15674704
85	0x3dd87cf6	0.105707094
86	0xbcc225b9	-0.023699628
87	0xbe156e58	-0.14592874
88	0x3e4d940d	0.20076008
89	0xbdc0ab8c	-0.0940772
90	0xbcb66633	-0.02226553
91	0x3de9d2fd	0.11417196
92	0xbe0ac9e9	-0.13553585
93	0x3e103c94	0.14085609
94	0xbe75d635	-0.24007495
95	0xbd8eb752	-0.06968559
96	0x3e6e4592	0.23268726
97	0xbdbba6d0	-0.09162676
98	0xbe6bc79c	-0.23025364
99	0x3df95d4f	0.12176
100	0xbd376f7f	-0.044784065
101	0xbdddc981	-0.108294494
102	0x3c9fd73f	0.019511817
103	0xbc623239	-0.013805919
104	0xbdead1b9	-0.11465783
105	0x3c71d5e6	0.01476047
106	0xbe1d7ad0	-0.1537888
107	0xbd4848c6	-0.048897527
108	0xbd963286	-0.07333855
109	0xbcabf1fb	-0.020989409
110	0xbe4e41a7	-0.20142232
111	0xbe048c87	-0.12944232
112	0xbe9ada31	-0.30244592
113	0xbe816c2a	-0.25277835
114	0xbe1c9f02	-0.15295032
115	0xbe62d6ab	-0.22152202
116	0x3d0465c4	0.032323614
117	0xbd166b4f	-0.03672343
118	0x3c40bbbf	0.011763512
119	0x3eaad17a	0.33362943
120	0xbd1a2ea8	-0.03764215
121	0xbb9a0150	-0.0046998635
122	0x3d5bbd11	0.053647105
123	0xbccb0668	-0.024783328
124	0x3e408d3a	0.18803874
125	0x3dc46ced	0.095910884
126	0x3d6e168d	0.058126975
127	0x3d2e6f9f	0.04258692
128	0x3dedc9b1	0.11610735
129	0x3cf0316b	0.02932044
130	0x3e309acb	0.17246549
131	0x3de8ee13	0.11373534
132	0x3d56654e	0.052342705
133	0xbe0cdbd2	-0.1375573
134	0xbe26a9e3	-0.16275744
135	0xbeb6a6a2	-0.35674006
136	0x3e39ca29	0.18143524
137	0x3cab0a6f	0.020878999
138	0x3bc0fc18	0.005889427
139	0x3e8f88f9	0.2803419
140	0xbdf982b3	-0.12183132
141	0xbe0f1a52	-0.13974884
142	0x3d7a0ddf	0.061048385
143	0xbe19cfe6	-0.15020713
144	0x3e369a75	0.17832358
145	0x3d9fb12e	0.07797466
146	0xbea084ef	-0.3135142
147	0xbe110109	-0.14160551
148	0xbd5323c8	-0.051547796
149	0x3db5b8ae	0.088731155
150	0x3e880189	0.2656367
151	0xbcbd2969	-0.023091035
152	0x3ca1541f	0.019693432
153	0xbd4566fc	-0.048193917
154	0xbddc9831	-0.10771216
155	0xbe9184f7	-0.28421757
156	0xbcc25077	-0.02372001
157	0xbb7efbc2	-0.0038907384
158	0xbe6433e7	-0.22285424
159	0x3e82583e	0.25457948
160	0xbe152497	-0.14564739
161	0x3d341fbd	0.04397558
162	0x3ee3bb4f	0.44478843
163	0xbe24b07b	-0.16082947
164	0xbe62e880	-0.22159004
165	0xbe05ead1	-0.13077857
166	0xbd75f7f0	-0.060050905
167	0xbce4d540	-0.027933717
168	0x3d8f3c5c	0.069939345
169	0x3de360fa	0.11102481
170	0xbce2450b	-0.027620813
171	0x3cf8a5de	0.03035253
172	0xbdfa397c	-0.122179955
173	0x3c463193	0.01209678
174	0xbd0d142a	-0.034443058
175	0xbc9c47bb	-0.019077173
176	0x3eb865f5	0.36015287
177	0xbd8fe9cf	-0.07027017
178	0xbe9b1f55	-0.30297342
179	0xbe1da378	-0.1539439
180	0x3ea50d8b	0.32236895
181	0xbdc16b5e	-0.09444307
182	0xbe5b6818	-0.21426427
183	0xbdbbd4ba	-0.09171434
184	0x3cbc0568	0.022951797
185	0xbe0792b4	-0.13239557
186	0x3e38732e	0.18012688
187	0xbe0d55f9	-0.13802327
188	0xbe04ca1f	-0.12967728
189	0xbbad6917	-0.0052920687
190	0x3dd728d2	0.10505833
191	0x3e1d6584	0.15370756
192	0xbc804779	-0.01565908
193	0xbe8c3f90	-0.27392244
194	0x3b4635aa	0.0030244389
195	0xbe28ffb4	-0.16503793
196	0x3e5930f6	0.21210083
197	0x3c90c015	0.017669717
198	0xbd850155	-0.06494395
199	0xbd41cd10	-0.047314703
200	0x3e9843aa	0.29739124
201	0x3e7f5de4	0.2493816
202	0x3e9ecba2	0.31014735
203	0xbd8a83ca	-0.06763418
204	0x3e3f6295	0.1868995
205	0x3eadce4e	0.3394646
206	0x3e9bd2fc	0.30434406
207	0x3f070968	0.5274873
208	0x3e09d37e	0.13459584
209	0x3d4bac0e	0.04972463
210	0xbd6ffc37	-0.05859014
211	0x3c6f80f7	0.01461815
212	0xbe8d0e73	-0.27550086
213	0x3aee4dae	0.0018181109
214	0xbe248bb3	-0.16068916
215	0xbcbc4024	-0.022979803
216	0x3e5b130b	0.21393983
217	0xbe3a2ee3	-0.18181948
218	0xbd7936cb	-0.06084327
219	0xbe81edbe	-0.25376695
220	0xbe1c1548	-0.15242493
221	0x3e035bf6	0.12828049
222	0x3d4c89b1	0.049936
223	0x3e051357	0.12995659
224	0x3e47176f	0.19442533
225	0x3e12d1ed	0.14337893
226	0xbd54f79d	-0.051993955
227	0x3e8e5251	0.27797177
228	0xbe98c580	-0.2983818
229	0xbe21f4e3	-0.15816073
230	0xbcf256c0	-0.029582381
231	0x3dead71e	0.114668116
232	0x3e67b04f	0.2262585
233	0x3e742733	0.23843078
234	0xbe1a5f22	-0.15075353
235	0x3e45a145	0.192998
236	0x3c98d47c	0.018656008
237	0x3e83e8b4	0.25763476
238	0xbdd4d528	-0.10392219
239	0x3c22f272	0.009945499
240	0xbddb2822	-0.10701014
241	0xbe4544d2	-0.19264534
242	0x3e905db0	0.28196478
243	0x3edd7edf	0.43260857
244	0x3e45bc1a	0.19310036
245	0x3e716846	0.23574933
246	0x3d4e80b6	0.050415717
247	0xbe1bda9d	-0.15220113
248	0x3d1f375a	0.038871147
249	0x3e0f2c49	0.13981737
250	0x3ed9416f	0.42432734
251	0xbd435c41	-0.047695402
252	0xbd1ee210	-0.03878981
253	0x3e9149f0	0.28376722
254	0x3d611e65	0.054960627
255	0xbc83421e	-0.016022738

critic.2.bias f4 [256]
0	0xbda42374	-0.08014575
1	0x3b893749	0.0041874987
2	0x3c8032a9	0.015649157
3	0xbdf1790f	-0.11790668
4	0xbd1152f2	-0.035479493
5	0x3d051445	0.032490034
6	0x3dcd4177	0.10022252
7	0xbd6f0844	-0.058357492
8	0xbb37d130	-0.002804827
9	0xbd61cfff	-0.05513
10	0xbd6eeaab	-0.058329266
11	0x3daee128	0.08539039
12	0x3bab93a7	0.0052361074
13	0x3d9dd39b	0.07706376
14	0x3c1b2e54	0.009471495
15	0x3d7f55f1	0.06233782
16	0xbd0192f8	-0.0316343
17	0xbc8786dd	-0.0165438
18	0x3d72cc81	0.05927706
19	0x3d2b1e35	0.041776855
20	0x3b058b84	0.0020377347
21	0xbc588aa4	-0.013216648
22	0xbd97a741	-0.07404948
23	0xb95beecd	-0.00020974428
24	0xbd37c6ad	-0.044867206
25	0x3d648fa5	0.055801053
26	0x3d4996fa	0.049216248
27	0xbce17ea7	-0.027526213
28	0x3d8a736a	0.06760295
29	0xbced0014	-0.028930701
30	0xbd5a352e	-0.053273372
31	0x3dca1078	0.098664224
32	0x3d9383ca	0.07202871
33	0x3ced67d3	0.028980171
34	0x3dc677ae	0.09690796
35	0xbc7cfb57	-0.015440783
36	0xbc043c47	-0.008071012
37	0xbd723e27	-0.059141304
38	0xbcca7951	-0.024716051
39	0xbd524af7	-0.051341023
40	0x3daec26f	0.08533179
41	0x3d92cb94	0.07167736
42	0x3d58cbc5	0.052928705
43	0x3d8b7701	0.068098076
44	0xbcb6b718	-0.022304103
45	0x3d115052	0.03547699
46	0x3b6eb0f4	0.003642139
47	0x3d16f4d6	0.036854587
48	0x3cf4741a	0.029840518
49	0x3d8dbba1	0.06920553
50	0xbc13a151	-0.009010629
51	0xbabcdb30	-0.0014408585
52	0xbd0957db	-0.03353105
53	0xbcc786ec	-0.024356328
54	0x3dca3333	0.09873047
55	0xbc5fa1b8	-0.013649397
56	0xbc6cf2c5	-0.014462178
57	0x3c0b7bba	0.008513385
58	0x3b9b705b	0.0047436184
59	0xbe2fc721	-0.17165805
60	0x3da04f25	0.078275956
61	0xbcb580fd	-0.022156233
62	0xbd096b08	-0.03354934
63	0xbd2d408c	-0.042297885
64	0x3be9f2f2	0.007139557
65	0x3deeff60	0.11669803
66	0xbd5b9bd6	-0.053615414
67	0xbb2ff391	-0.0026848058
68	0xbd59032b	-0.052981537
69	0xbc6d0dbb	-0.014468606
70	0x3a987162	0.001163047
71	0x3cbdfbbd	0.023191327
72	0x3cd1aa57	0.02559392
73	0x3c6b0b5c	0.01434597
74	0xbcd134d6	-0.02553789
75	0x3acccfeb	0.0015625929
76	0x3d62eb2d	0.055400062
77	0x3c3b5e29	0.011436024
78	0x3c9a1afa	0.018811692
79	0x3d399f09	0.045317683
80	0x3d68e2db	0.05685697
81	0x3cfce75a	0.030872036
82	0xbc21b6ec	-0.009870272
83	0xbc8eb837	-0.017421825
84	0x3d84791b	0.064684115
85	0xbdda0ead	-0.106473304
86	0x3c1eb6ee	0.0096871685
87	0xbc18e7e0	-0.009332627
88	0x3d3ed7aa	0.046592392
89	0xbd38b5a6	-0.04509511
90	0x3ce1d690	0.027568132
91	0x3c6be89e	0.014398722
92	0x3cd4eb75	0.02599118
93	0xbd7db4d7	-0.06194004
94	0xbbc683da	-0.0060581984
95	0xbd270480	-0.040775776
96	0xbd1469e7	-0.03623381
97	0x3b8a3b5c	0.004218502
98	0x3dd90aa9	0.105977364
99	0x3da7bec4	0.081906825
100	0x3d6a8d6c	0.057263777
101	0xbd2c0be7	-0.04200354
102	0xbd08212b	-0.033234756
103	0x3c62346b	0.013806443
104	0xbd35cbaf	-0.0443837
105	0x3d2bec9f	0.041973706
106	0xbd887aca	-0.06664045
107	0xbcc4b05d	-0.024009878
108	0x3d64c6ea	0.05585376
109	0x3af34316	0.0018559422
110	0xbdb51972	-0.08842744
111	0x3dd5d609	0.104412146
112	0xbcd9cdee	-0.026587453
113	0x3d4a8676	0.04944464
114	0x3b699e5b	0.0035647366
115	0xbd641d28	-0.055691868
116	0x3d1b1f1a	0.037871458
117	0xbc0de2cf	-0.008660032
118	0x3d9a4602	0.07532884
119	0x3d059673	0.032614183
120	0x3d03caa2	0.032175668
121	0xbdc34d85	-0.0953627
122	0x3c8508c6	0.016239535
123	0xbc96c231	-0.018403145
124	0x3cb127ab	0.02162536
125	0xbcab2efa	-0.020896424
126	0xbb8bf2cf	-0.0042708884
127	0xbda08a8b	-0.07838925
128	0x3c3a4c3d	0.011370716
129	0x3d2b6ef0	0.041853845
130	0x3d011482	0.0315137
131	0xbc3fe399	-0.011711978
132	0xbcf00714	-0.02930025
133	0xbd1e43d9	-0.038638923
134	0x3c9aca75	0.018895367
135	0xbcb6f5f4	-0.022334076
136	0x3b8cc324	0.0042957235
137	0xbd798bde	-0.060924403
138	0xbd81adba	-0.06331964
139	0xbdcd70a2	-0.10031249
140	0xbd7db810	-0.061943114
141	0x3d85786d	0.0651711
142	0xbd97b1b4	-0.07406941
143	0xbaaae168	-0.0013037147
144	0xbddbd193	-0.107333325
145	0x3c8e703a	0.017387498
146	0x3d0a3fad	0.033752132
147	0xbd1c7061	-0.03819311
148	0xbc384654	-0.011247236
149	0x3c2678c3	0.010160628
150	0x3cb34241	0.021882178
151	0x3db94963	0.090472005
152	0x3da2a972	0.079424754
153	0xbd5db3d2	-0.05412657
154	0x3cf12a7c	0.029439203
155	0xbd546176	-0.05185076
156	0xbb95a825	-0.0045671635
157	0xbc2c90bb	-0.010532553
158	0x3d2db9fc	0.042413697
159	0x3d81c3d7	0.063361816
160	0xbd728bec	-0.05921547
161	0x3bd2d966	0.0064346073
162	0x3d4fa3a6	0.050693177
163	0x3ce3cd42	0.027807835
164	0xbddbb0c0	-0.10727072
165	0xbddc3be2	-0.10753609
166	0xb9badf4a	-0.00035643048
167	0xbd2e9c49	-0.042629514
168	0x3cf2233c	0.029557817
169	0xbdbdfebc	-0.09277102
170	0xbb17ad37	-0.0023144016
171	0xbcbb457c	-0.022860281
172	0xbc0875e5	-0.0083288895
173	0xbbf49682	-0.007464231
174	0xbdc8bbe3	-0.098014615
175	0x3da83cc5	0.08214716
176	0xbda66618	-0.081249416
177	0x3c087cfb	0.008330579
178	0x3d11e766	0.03562107
179	0x3c520b4b	0.012820075
180	0xbd29a691	-0.041418616
181	0xbdebe9a6	-0.11519174
182	0x3d970b94	0.07375255
183	0x3d9d5823	0.07682826
184	0x3c19df51	0.009391622
185	0xbb9b2537	-0.004734661
186	0xbd933de1	-0.07189537
187	0x3ca760b9	0.020431863
188	0x3c864ab8	0.01639305
189	0x3d0d6731	0.03452224
190	0x3b4739ce	0.0030399445
191	0xbb9c0e84	-0.0047624726
192	0xbda14213	-0.07873931
193	0x3ab0d21a	0.001349035
194	0x3ddb1841	0.106979854
195	0x3daa3158	0.08310193
196	0x3d9f97c7	0.07792621
197	0xbc42e7ce	-0.011896087
198	0x3c3907f8	0.011293404
199	0xbe039813	-0.1285098
200	0xbccdbd28	-0.02511461
201	0xbd95cac8	-0.07314068
202	0xbd669fcb	-0.056304734
203	0xbd9c9039	-0.07644696
204	0xbd78736a	-0.060656942
205	0xbd7d3b6f	-0.06182426
206	0x3cf66b85	0.030080566
207	0xbb61c73f	-0.0034451035
208	0x3c811ce7	0.015760852
209	0x3c7b9bb3	0.015356946
210	0x3c93f620	0.018061697
211	0xbd081382	-0.03322173
212	0xbdf78e84	-0.120877296
213	0xbdd1dc30	-0.102470756
214	0x3dcdb3fe	0.100440964
215	0x3d19d1c6	0.03755357
216	0xba2b1819	-0.0006526723
217	0x3cb7c728	0.022433832
218	0x3d180444	0.037113443
219	0xbda2bb44	-0.07945874
220	0x3dec6070	0.115418315
221	0x3dc6b5eb	0.09702667
222	0x3d4df145	0.05027892
223	0xbdb97a16	-0.09056489
224	0x39d3da26	0.0004040759
225	0xbcab8478	-0.02093719
226	0x3d017cf6	0.031613313
227	0xbdd8f6ca	-0.10593946
228	0xbd62a4d6	-0.05533298
229	0x3dd66d60	0.104700804
230	0xbd42cae1	-0.04755676
231	0x3d293c2b	0.041317146
232	0xbd21c140	-0.03949094
233	0x3c641d50	0.013923004
234	0xbc4cf003	-0.012508395
235	0x3ca82253	0.02052418
236	0xbdb226ac	-0.08698782
237	0xbd257d1d	-0.04040252
238	0x3b4c677f	0.0031189618
239	0xbd67d283	-0.056597244
240	0xbd23d362	-0.039996512
241	0xbda47beb	-0.08031448
242	0x3d8032a5	0.0625966
243	0xbd04daad	-0.032435108
244	0xbbda75c5	-0.0066668713
245	0xbd091809	-0.033470187
246	0xbcc4af42	-0.02400935
247	0x3cecd813	0.028911626
248	0xbc75f167	-0.015011168
249	0x3dd42a5e	0.103596434
250	0x3e22fc80	0.15916634
251	0xbd693f8c	-0.05694537
252	0x3d091988	0.033471614
253	0xbd6438f4	-0.055718377
254	0x3d9afba4	0.07567528
255	0xbd111029	-0.035415802

critic.4.weight f4 [1, 256]
0	0x3f01da1a	0.5072342
1	0x3ed7444f	0.42044303
2	0xbf0f659f	-0.56014436
3	0xbedc25d4	-0.4299761
4	0xbec6934a	-0.38784248
5	0xbee34d79	-0.44395044
6	0xbefa6738	-0.48906875
7	0xbee0c28a	-0.43898422
8	0x3ed91851	0.42401364
9	0x3ed28983	0.41120538
10	0x3f668771	0.9005042
11	0xbf171847	-0.5902142
12	0xbec9a6b2	-0.3938499
13	0xbedfa09a	-0.43677217
14	0x3eff0a5f	0.498126
15	0x3f15b09e	0.5847262
16	0x3f26d111	0.6516276
17	0x3ecd495c	0.4009503
18	0xbee4ab84	-0.44662106
19	0x3f14dfbe	0.58153903
20	0x3eba29bb	0.36359963
21	0x3edf8350	0.4365487
22	0x3ed501ed	0.41603032
23	0xbef1cbc2	-0.47225767
24	0xbf156366	-0.58354795
25	0xbea88873	-0.32916602
26	0x3f152d6f	0.5827245
27	0xbee23622	-0.44181925
28	0xbee0594d	-0.4381813
29	0x3f226409	0.6343389
30	0x3ec53fc3	0.3852521
31	0x3ed93ef1	0.42430833
32	0xbf660d9d	-0.8986452
33	0xbef2df80	-0.47436142
34	0xbeee2ce9	-0.4651864
35	0xbed42d59	-0.41440848
36	0xbee7518c	-0.45179403
37	0xbf05f7fb	-0.52331513
38	0xbeec6d44	-0.46177113
39	0x3ef7c186	0.48389834
40	0xbed9027e	-0.42384714
41	0x3ed5bfd6	0.41747922
42	0xbecd6cd9	-0.40122107
43	0x3f14e222	0.5815755
44	0xbed7b041	-0.4212666
45	0x3f2070e7	0.62672275
46	0xbec81d90	-0.39085054
47	0xbf5e352b	-0.8679988
48	0x3eb63fd6	0.35595578
49	0x3f0b4c1d	0.54413015
50	0xbf04b863	-0.5184385
51	0xbedffccd	-0.4374756
52	0xbec3d6ae	-0.38249725
53	0x3edb6a9f	0.42854783
54	0x3f63b87f	0.88953394
55	0x3ed52549	0.4163001
56	0x3ed60eb0	0.4180808
57	0x3f076569	0.52889115
58	0xbec0913e	-0.3761081
59	0x3f862a3e	1.0481641
60	0xbef3c9cb	-0.47614893
61	0xbee59639	-0.44841173
62	0xbf46bbfa	-0.7763058
63	0xbee1cd2f	-0.44101855
64	0x3f2b025a	0.66800463
65	0xbf6550d7	-0.89576477
66	0x3eef5e5d	0.4675168
67	0x3ed743d5	0.4204394
68	0x3ecdccb3	0.40195236
69	0xbeec56d4	-0.46159995
70	0xbf150012	-0.5820323
71	0x3f01ab4d	0.5065201
72	0x3ed93eb5	0.42430654
73	0xbed9ca7e	-0.42537302
74	0xbebdb00d	-0.3704838
75	0xbf16457e	-0.58699787
76	0x3f0fbe9b	0.56150216
77	0xbed76579	-0.42069605
78	0xbf03fa0d	-0.5155342
79	0xbf21b664	-0.6316893
80	0x3f152550	0.5826006
81	0xbf08b578	-0.534019
82	0xbec8fb99	-0.39254454
83	0xbee60d26	-0.44931906
84	0xbeff3e46	-0.49852198
85	0xbf154eef	-0.5832357
86	0xbed1180b	-0.40838656
87	0x3eb20637	0.34770367
88	0xbeec5d24	-0.4616481
89	0xbeca3ee6	-0.39501113
90	0x3ef3354e	0.47501606
91	0xbf6016e3	-0.8753492
92	0x3ee78e6c	0.45225847
93	0xbee16670	-0.44023466
94	0xbed2679d	-0.41094676
95	0x3eda0d00	0.42588043
96	0xbed52a7a	-0.4163397
97	0xbee20793	-0.44146404
98	0xbf0f9658	-0.5608878
99	0x3ed44577	0.41459247
100	0xbebe0eac	-0.3712057
101	0xbeeb7ce3	-0.45993719
102	0xbf1a35c2	-0.6023828
103	0x3f1b6f68	0.6071687
104	0x3f0c461c	0.5479448
105	0xbea251e7	-0.31703112
106	0x3edd1e39	0.4318712
107	0xbed9aca5	-0.4251453
108	0xbf167d86	-0.58785284
109	0x3f37e728	0.7183709
110	0x3f027879	0.50965077
111	0xbf87f253	-1.0620826
112	0xbef97116	-0.4871909
113	0xbf18efe7	-0.5974106
114	0x3edb8d82	0.428814
115	0x3ee8b261	0.45448592
116	0xbecac6e4	-0.39604867
117	0xbee1fd96	-0.44138783
118	0xbf304d71	-0.68868166
119	0xbf004634	-0.5010712
120	0xbf1a5962	-0.6029264
121	0xbed53329	-0.41640595
122	0x3ee99460	0.45621014
123	0xbed453ee	-0.41470283
124	0xbef7eb34	-0.48421633
125	0x3f122ffb	0.5710446
126	0xbf0f74b8	-0.56037474
127	0xbedfefa0	-0.43737507
128	0x3f36793a	0.7127873
129	0xbee1383d	-0.4398822
130	0xbf117fed	-0.56835824
131	0xbeec2d49	-0.461283
132	0xbee7219d	-0.45142832
133	0x3ed87e54	0.4228388
134	0xbed0b6a1	-0.40764335
135	0xbeef830a	-0.46779662
136	0xbef80697	-0.48442528
137	0x3f007f23	0.50193995
138	0x3ee4debd	0.44701186
139	0xbeef05e1	-0.46684173
140	0x3ec899dd	0.39179888
141	0xbeda337c	-0.42617404
142	0x3e9bdc72	0.30441624
143	0x3ee7d2a2	0.45277888
144	0xbed2f9a2	-0.4120608
145	0x3ec6b4a6	0.388097
146	0xbf07ad2d	-0.5299862
147	0xbf05f80f	-0.5233163
148	0xbed786e0	-0.4209509
149	0xbeced46a	-0.40396434
150	0xbf0cb7f5	-0.54968196
151	0x3ed422df	0.41432855
152	0xbf52e814	-0.82385373
153	0x3ed74a5b	0.42048916
154	0x3eefe6c2	0.46855742
155	0x3ef2692c	0.47345865
156	0xbf1ce0fd	-0.61280805
157	0xbed937ef	-0.42425486
158	0x3ecc84b3	0.3994499
159	0xbec4d0fb	-0.3844069
160	0x3f02c225	0.5107749
161	0xbee6d245	-0.45082298
162	0xbf066e32	-0.52511895
163	0x3ee48476	0.4463231
164	0x3ed68589	0.41898754
165	0xbf5da46c	-0.8657901
166	0xbede6e25	-0.4344341
167	0x3f264a4b	0.6495711
168	0xbf03bfb9	-0.5146442
169	0x3ee08b0d	0.43856087
170	0xbf0832ed	-0.53202707
171	0xbeea3139	-0.4574068
172	0x3ec99a48	0.3937552
173	0xbf3cb770	-0.73717403
174	0xbf1ab468	-0.6043153
175	0xbeca2e91	-0.39488652
176	0x3f2e8ed0	0.68186665
177	0xbed52796	-0.41631764
178	0x3ef1039d	0.4707307
179	0xbece08b0	-0.40241003
180	0xbee184d6	-0.44046658
181	0x3eeade3b	0.45872673
182	0xbed633ef	-0.41836497
183	0xbebf4a3e	-0.3736133
184	0x3ecdd0b2	0.40198284
185	0xbed0f626	-0.40812796
186	0x3f1b4b41	0.60661703
187	0x3ec79442	0.389803
188	0xbf193dbb	-0.5985982
189	0x3ed54451	0.41653684
190	0x3f00d1e4	0.5032027
191	0xbefee5af	-0.4978461
192	0x3ee990f7	0.45618412
193	0xbf28021b	-0.6562821
194	0xbed07971	-0.40717652
195	0x3ee8c0bd	0.45459548
196	0xbf308d9d	-0.68966085
197	0xbeb68d23	-0.35654554
198	0xbebff2b8	-0.37489867
199	0x3ee1c706	0.44097155
200	0x3f11d26b	0.569617
201	0x3ed75efb	0.42064652
202	0xbeca3567	-0.39493868
203	0x3eff9420	0.49917698
204	0x3efb3e9a	0.490712
205	0x3ec06b8d	0.37582055
206	0xbebd0142	-0.36915022
207	0x3eda157a	0.4259451
208	0xbed98ae5	-0.4248878
209	0x3ebdbb87	0.37057135
210	0xbf0aae7c	-0.5417249
211	0x3f40f6e5	0.7537673
212	0xbec6ed4c	-0.38852918
213	0x3f177e6d	0.59177285
214	0x3f1f6597	0.6226439
215	0x3ec69f41	0.38793376
216	0x3ebf981b	0.37420735
217	0xbec6e3e0	-0.3884573
218	0x3efdaf21	0.49547675
219	0x3f01f7d5	0.50768787
220	0x3ed81c34	0.42209017
221	0xbebbf568	-0.36710668
222	0xbef514bb	-0.4786738
223	0x3f13508f	0.575448
224	0x3eddb42a	0.43301517
225	0x3efdfa3e	0.49604982
226	0x3ecf6ce9	0.4051278
227	0xbed76660	-0.42070293
228	0x3ed9eb5f	0.42562386
229	0xbf202429	-0.62555176
230	0xbf08eb8b	-0.5348441
231	0x3edabc50	0.42721796
232	0xbef88be1	-0.4854422
233	0xbf19d9ae	-0.6009778
234	0xbee4fcc6	-0.447241
235	0x3ec1baf9	0.3783796
236	0x3f13ed5b	0.5778405
237	0x3edc102d	0.4298109
238	0x3eeb2fa8	0.45934796
239	0x3ec653d0	0.3873582
240	0xbed152d8	-0.40883517
241	0x3ec5e2e3	0.38649663
242	0xbf0c43be	-0.54790866
243	0x3ee13ea4	0.43993104
244	0x3eccc488	0.3999369
245	0x3ef49eab	0.47777304
246	0xbedbfe64	-0.42967522
247	0xbf1de0ef	-0.61671346
248	0xbf0d6d54	-0.55244946
249	0x3ea881bd	0.32911482
250	0xbf42949a	-0.76008
251	0x3f527310	0.8220682
252	0xbeeb1f64	-0.45922387
253	0x3ebe284d	0.37140122
254	0x3f477b83	0.7792284
255	0x3ee97b95	0.45602098

actor.0.weight f4 [256, 19]
0	0xbe05dad3	-0.13071756
1	0xbdff5883	-0.12468054
2	0x3e0f369b	0.13985674
3	0xbd94f98b	-0.07274159
4	0xbcd6a4a0	-0.026201546
5	0x3ce4c2c8	0.02792491
6	0x3ec4ea77	0.38460132
7	0xbcdaf8a9	-0.026729899
8	0xbd989f77	-0.074522905
9	0x3de9c15e	0.11413835
10	0x3e104fbf	0.1409292
11	0xbe5d4f04	-0.21612173
12	0x3de8c69d	0.113660075
13	0xbd80dc2b	-0.06291994
14	0xbc9c10c6	-0.019050967
15	0x3e29c0c1	0.16577436
16	0xbde6da1e	-0.11272071
17	0x3e0d324c	0.13788718
18	0x3d8c88ad	0.06862006
19	0xbd6af40b	-0.057361644
20	0x3e4e3c3a	0.20140162
21	0xbcff7cc2	-0.031187419
22	0xbc2549df	-0.010088413
23	0xbabeba00	-0.0014551282
24	0x3d663ec4	0.0562122
25	0xbedaa326	-0.42702597
26	0x3e4b40eb	0.19848983
27	0xbde7f6b8	-0.11326355
28	0x3c8f4317	0.017488046
29	0xbe60148d	-0.2188284
30	0x3e00f705	0.1259423
31	0xbe7950f5	-0.24347289
32	0xbddad2f3	-0.106847666
33	0x3b89d903	0.004206778
34	0x3d719a24	0.05898489
35	0x3dc3f12d	0.09567485
36	0x3d9f842f	0.07788884
37	0xbe28cfa7	-0.16485463
38	0x3d43517a	0.047685124
39	0x3dacb008	0.08432013
40	0x3e164460	0.1467452
41	0xbd924980	-0.07142925
42	0x3e36bc61	0.17845298
43	0xbe63df9a	-0.22253266
44	0xbd586725	-0.05283274
45	0x3d73efb8	0.059554785
46	0xbdd6b69a	-0.10484047
47	0xbca07c37	-0.01959048
48	0xbe4defd6	-0.20111021
49	0x3e3074e6	0.17232093
50	0xbd280f6d	-0.041030336
51	0x3e68a851	0.22720458
52	0x3d832219	0.06402988
53	0x3ced51e5	0.028969714
54	0x3e21705e	0.15765521
55	0xbd9a56da	-0.07536097
56	0xbe86603a	-0.2624529
57	0xbdd80c19	-0.105491824
58	0x3d1e9f4e	0.038726144
59	0xbdba6303	-0.09100916
60	0x3c7a3db8	0.015273504
61	0x3e2c795f	0.16843174
62	0xbe484b13	-0.19559889
63	0xbd8bb17a	-0.0682096
64	0x3e01ac64	0.12663418
65	0xbdc6af1e	-0.0970137
66	0xbd8a08d9	-0.06739969
67	0xbb3c0780	-0.0028690994
68	0x3e15453b	0.1457719
69	0xbc5b3a03	-0.01338053
70	0x3eaa7f62	0.3330031
71	0x3cfdb4c6	0.030969989
72	0xbd50069c	-0.050787553
73	0x3e232041	0.15930273
74	0xbd7e2660	-0.062048316
75	0x3d1157ce	0.035484128
76	0x3e1b3be9	0.15159573
77	0xbd9896f3	-0.07450666
78	0xbc1083a9	-0.008820453
79	0x3d8d67e6	0.06904583
80	0x3e01b93d	0.12668319
81	0xbdf567fe	-0.119827256
82	0xbb34cda5	-0.0027588394
83	0xbe2204dc	-0.15822166
84	0x3e105f8e	0.14098951
85	0xbe605104	-0.21905905
86	0xbe4faab3	-0.2027996
87	0x3e8bd79e	0.2731294
88	0xbdbad348	-0.0912233
89	0xbde1a905	-0.11018566
90	0x3d51b8d8	0.05120167
91	0xbce7b4fa	-0.028284539
92	0x3e5242f6	0.20533356
93	0x3e2f1751	0.17098738
94	0xbc886246	-0.016648423
95	0x3d96a2d3	0.07355275
96	0xbdeefed4	-0.11669698
97	0xbe47f0bf	-0.19525431
98	0x3d826e89	0.06368739
99	0xbca12228	-0.019669607
100	0xbe0ed4ce	-0.13948366
101	0x3dca5028	0.0987857
102	0x3de76692	0.112988606
103	0xbe41f109	-0.18939604
104	0x3d8192e5	0.06326846
105	0xbda55fc0	-0.080749035
106	0xbbf4a7bc	-0.0074662846
107	0x3e78cba1	0.24296428
108	0xbe6fec07	-0.23429881
109	0xbe6751e7	-0.22589837
110	0xbbc9efc0	-0.0061626136
111	0xbe04c553	-0.12965898
112	0xbdeaa552	-0.114573136
113	0xbd21a378	-0.039462537
114	0xbd930c7a	-0.07180114
115	0x3e224c1f	0.1584935
116	0xbe2170ab	-0.15765636
117	0x3e36aaab	0.17838542
118	0xbe3d8987	-0.18509494
119	0xbe472746	-0.19448575
120	0xbe55fd44	-0.20897394
121	0x3e5d8d7c	0.21636003
122	0xbe22a60b	-0.15883653
123	0xbe0a6f0f	-0.13518928
124	0x3dfc99aa	0.123339966
125	0xbe018e54	-0.1265195
126	0xbe85b683	-0.26115808
127	0x3e46151e	0.19343993
128	0xbe6249ad	-0.22098418
129	0xbce8f4ad	-0.028436983
130	0x3db4d7eb	0.088302456
131	0x3d439436	0.047748767
132	0x3e26e26d	0.16297312
133	0x3e416375	0.18885596
134	0xbe5f9fc4	-0.2183829
135	0x3e5441cf	0.20728229
136	0xbdde3328	-0.10849601
137	0x3e076a79	0.1322421
138	0x3e3aa05d	0.18225236
139	0xbe9519a4	-0.29121125
140	0xbd933ff5	-0.07189933
141	0xbc548e94	-0.012973446
142	0xbdc2faaf	-0.0952047
143	0xbe3be955	-0.18350728
144	0xbd30b742	-0.04314352
145	0x3e708b72	0.23490694
146	0x3e9cc552	0.30619293
147	0x3d38945d	0.045063365
148	0xbe88930c	-0.26674688
149	0xbd013d6a	-0.03155271
150	0xbe276035	-0.16345294
151	0xbe25ad9f	-0.16179512
152	0x3c6ff727	0.014646328
153	0x3d709da4	0.058744088
154	0xbe246c71	-0.16056992
155	0x3df86beb	0.12129959
156	0x3e41aa49	0.18912615
157	0xbe36a9a3	-0.17838149
158	0x3c9d41c0	0.019196391
159	0xbe3610ea	-0.1777989
160	0xbe57eeb7	-0.21087156
161	0xbe325ae8	-0.1741749
162	0x3cee2a88	0.029073015
163	0xbe831573	-0.25602302
164	0x3e82dc61	0.2555876
165	0xbe047ca6	-0.12938175
166	0x3e4ff87d	0.20309635
167	0x3e4642b0	0.19361377
168	0xbe5be822	-0.2147527
169	0x3dbfb2ab	0.0936025
170	0x3e605488	0.21907246
171	0xbe190fca	-0.1494743
172	0xbe53ff8a	-0.20702949
173	0x3dc09e37	0.09405177
174	0x3e223b85	0.15843017
175	0xbe518635	-0.20461352
176	0xbe5e4936	-0.21707615
177	0xbe287c6d	-0.16453715
178	0x3d46b0af	0.048508342
179	0xbe4575f3	-0.19283275
180	0xbc455308	-0.012043722
181	0xbe60b5d4	-0.21944362
182	0xbea2ae7c	-0.31773746
183	0x3c5c11b1	0.013431952
184	0x3d237699	0.039908025
185	0xbd5badb7	-0.053632464
186	0xbdd8f574	-0.105936915
187	0xbdaef968	-0.08543664
188	0x3e3e917a	0.18610182
189	0x3e999b4f	0.30001304
190	0x3e0e9b13	0.13926344
191	0x3e2a3b01	0.1662407
192	0xbe099dfc	-0.13439173
193	0xbe320a84	-0.17386824
194	0xbe699cf6	-0.22813782
195	0x3ce56058	0.028000042
196	0xbdb1868e	-0.086682424
197	0xbdbb5771	-0.091475375
198	0xbd96ad88	-0.07357317
199	0xbddcb37e	-0.10776423
200	0x3e4e1f55	0.2012914
201	0xbead5de6	-0.338607
202	0x3daea419	0.08527393
203	0xbe6f4452	-0.23365906
204	0x3e3d2333	0.18470459
205	0x3e58edbd	0.2118444
206	0x3d0f8640	0.03504014
207	0x3d2a7d52	0.04162342
208	0x3e2dfb2e	0.16990349
209	0x3e4a22e7	0.19739877
210	0xbd301145	-0.04298522
211	0xbd5cfdb2	-0.05395288
212	0x3e2bd6ed	0.16781206
213	0x3de390fe	0.111116394
214	0x3e31c95b	0.17361967
215	0x3e94410f	0.28955886
216	0xbe068643	-0.13137154
217	0x3e0711e0	0.13190413
218	0xbe558aec	-0.20853776
219	0xbe01acfa	-0.12663642
220	0x3d88ca57	0.06679218
221	0x3d2833b0	0.041064918
222	0x3c802ea7	0.015647246
223	0xbdfb30d6	-0.12265174
224	0x3d745422	0.059650548
225	0x3e7d3997	0.24729
226	0x3da4ec6f	0.08052909
227	0xbe2d702e	-0.16937324
228	0xbe724cb8	-0.23662078
229	0x3aa1c9ea	0.00123435
230	0xbe3dcd11	-0.18535258
231	0xbbb841ee	-0.005623094
232	0x3e4be155	0.19910176
233	0x3d440b7c	0.047862515
234	0x3e9a5da6	0.30149573
235	0xbd78865c	-0.06067501
236	0x3db80fed	0.089874126
237	0x3e2c2031	0.16809155
238	0xbdbc7cda	-0.09203501
239	0xbe9edbd0	-0.3102708
240	0x3e8bcc11	0.27304128
241	0xbd8282cd	-0.063726045
242	0xbe88f1bb	-0.26746926
243	0x3de9a766	0.11408882
244	0x3e8e0c73	0.27743873
245	0x3e10f7cb	0.14157026
246	0x3e61d229	0.22052826
247	0x3e1be26d	0.15223093
248	0x3e142876	0.1446856
249	0x3d1d0da4	0.038343087
250	0xbe7244de	-0.23659083
251	0x3dfcd91e	0.12346099
252	0x3de949a6	0.113910004
253	0x3ee558a7	0.447942
254	0x3df5b712	0.119978085
255	0xbe3d398b	-0.18478982

actor.0.bias f4 [256]
0	0xbc081e9b	-0.008308078
1	0xbd0054c7	-0.03133085
2	0x3dcc2cc4	0.09969476
3	0xbe00b959	-0.12570705
4	0xbd5f4f59	-0.05451903
5	0x3e12541b	0.14289896
6	0x3ddbe35c	0.10736725
7	0x3e251b5c	0.16123718
8	0xbc86510e	-0.016396072
9	0xbc7cb59c	-0.015424158
10	0x3e1f2710	0.15542245
11	0xbdf2996b	-0.118456684
12	0x3da39cf0	0.07988918
13	0x3c7da57e	0.015481351
14	0xbc9237f8	-0.017848954
15	0x3e025d20	0.12730837
16	0xbd9285ce	-0.071544275
17	0xbd094ac3	-0.033518564
18	0x3d476aad	0.04868572
19	0x3db3f27f	0.08786487
20	0x3df8ad14	0.12142387
21	0xbe0e8b2a	-0.13920274
22	0xbe1bca0f	-0.15213798
23	0xbc57b4ee	-0.013165696
24	0x3df7a1a7	0.120913796
25	0x3dde3c82	0.10851385
26	0x3d5a435e	0.053286903
27	0xbe052d6b	-0.13005607
28	0x3db53347	0.08847671
29	0xbd8d69e7	-0.06904965
30	0x3d173c05	0.036922473
31	0x3e4d8bda	0.2007288
32	0x3e21ab00	0.15787888
33	0xbdf8ede3	-0.12154748
34	0x3d38d9ea	0.045129694
35	0x3d58dbe5	0.052944083
36	0xbcf03761	-0.029323282
37	0xbd09a892	-0.033608027
38	0xbdf85078	-0.12124723
39	0x3dd8f60d	0.105938055
40	0xbe47189c	-0.19442981
41	0x3d7af458	0.06126818
42	0xbde2fbaa	-0.11083157
43	0xbda46d7e	-0.080286965
44	0x3df8a44a	0.12140711
45	0xbc988655	-0.018618742
46	0xbd473547	-0.048634794
47	0xbe1572c7	-0.14594565
48	0xbd58eeb7	-0.05296203
49	0x3ddf2977	0.10896581
50	0x3e1ac963	0.15115885
51	0x3e1a1d3c	0.15050215
52	0x3e6b900c	0.23004168
53	0xbcac9576	-0.021067362
54	0x3b947df9	0.0045316187
55	0xbdaa0056	-0.08300845
56	0xbe0f7305	-0.1400872
57	0x3e08fe30	0.13378215
58	0x3d7b65aa	0.06137625
59	0x3df20948	0.118181765
60	0x3e0651ef	0.13117193
61	0xbdb56ee4	-0.08859041
62	0xbe4314a6	-0.19050846
63	0xbe9d92af	-0.30775973
64	0xbe32fa8d	-0.1747839
65	0x3cda7187	0.026665462
66	0x3e2628c0	0.16226482
67	0xbd421370	-0.04738182
68	0x3dea38a6	0.11436586
69	0x3d961bde	0.07329534
70	0x3e5739dd	0.21018167
71	0x3de81e8a	0.1133395
72	0x3e770a3d	0.24125
73	0x3e3a5322	0.18195775
74	0x3d8bcecf	0.06826555
75	0x3e1abb8a	0.15110603
76	0x3e2c5caa	0.16832224
77	0x3e1c1d2a	0.152455
78	0xbd86e222	-0.065861
79	0x3db11cdf	0.08648085
80	0x3da59443	0.08084919
81	0xbe4dfa76	-0.20115075
82	0x3da1a32d	0.078924514
83	0x3b95711f	0.004560604
84	0xbdb19e1a	-0.086727336
85	0x3c7f2c7b	0.01557457
86	0x3dc18d8f	0.09450828
87	0x3c42c417	0.011887572
88	0x3e28ea69	0.1649567
89	0x3e4f9ce2	0.2027469
90	0x3ddcb508	0.107767165
91	0x3a7a520a	0.0009548968
92	0x3e0dc648	0.1384517
93	0xbd923191	-0.0713836
94	0x3e5b334f	0.21406291
95	0xbca5a847	-0.020221842
96	0xbdd595b0	-0.10428941
97	0xbe369c4f	-0.17833064
98	0xbbf3f007	-0.007444385
99	0x3dd6c686	0.10487084
100	0xbc5e00bf	-0.013549983
101	0xbde3434d	-0.11096821
102	0xbe184335	-0.14869387
103	0xbb0f0a70	-0.002182629
104	0x3c5e9be7	0.013586975
105	0x3cd4adec	0.025961839
106	0x3df88774	0.12135211
107	0x3e0c9679	0.13729276
108	0x3d62d889	0.055382285
109	0xbe23b47a	-0.15986815
110	0xbd81170c	-0.06303224
111	0x3d5d91d2	0.054094143
112	0x3d8bb64e	0.06821881
113	0x3e6589a1	0.22415783
114	0xbbf06b94	-0.007337043
115	0xbe21c922	-0.15799382
116	0xbe29d511	-0.16585185
117	0xbd3ca230	-0.04605311
118	0x3d5e68c9	0.05429915
119	0x3d9e2806	0.077224776
120	0xbe47260e	-0.1944811
121	0x3df59d3f	0.11992883
122	0xbe3d6f53	-0.18499498
123	0x3e1a6d90	0.15080857
124	0xbd060331	-0.032717887
125	0x3d602e40	0.054731607
126	0x3d40c1e2	0.0470599
127	0xbd2cb8b1	-0.042168323
128	0xbdee86aa	-0.11646779
129	0x3e3bf5ca	0.1835548
130	0x3e399cc5	0.18126209
131	0x3de51e51	0.11187423
132	0xbe4f3951	-0.20236708
133	0x3c6c5c1f	0.01442626
134	0x3e4724f8	0.19447696
135	0x3e3088cc	0.17239684
136	0x3de39eba	0.11114259
137	0xbe3b1772	-0.18270662
138	0xbd8b8dbd	-0.06814144
139	0x3d918b97	0.07106703
140	0x3d81aed4	0.06332174
141	0x3e4257b5	0.1897877
142	0xbabee419	-0.0014563828
143	0xbdeae9a5	-0.114703454
144	0x3d97da0a	0.074146345
145	0xbe50356b	-0.20332877
146	0xbc803426	-0.015649866
147	0x3df61c30	0.12017095
148	0x3e0f63bc	0.1400289
149	0xbdbd25ce	-0.09235726
150	0xbd2675af	-0.040639576
151	0xbe62c016	-0.22143587
152	0xbd92c380	-0.07166195
153	0x3e2d1897	0.16903912
154	0xbdac4a6a	-0.08412631
155	0xbe18e3fc	-0.14930719
156	0xbe2e31a8	-0.1701113
157	0xbe5772da	-0.21039906
158	0x3d90e0de	0.0707414
159	0xbe3308fd	-0.17483898
160	0xbd505795	-0.050864775
161	0x3e3e6916	0.18594775
162	0xbd9f1d0e	-0.077692136
163	0x3e5bf936	0.21481785
164	0xbe0311e3	-0.12799792
165	0xbe3f61ad	-0.18689604
166	0xbd62ea0d	-0.05539899
167	0x3dc4a31c	0.09601423
168	0x3e3a5ee5	0.18200262
169	0x3e1b91e5	0.15192373
170	0xbe009560	-0.12556982
171	0xbe09fe4d	-0.13475914
172	0xbc8d92ef	-0.017281977
173	0x3e40d19a	0.18829957
174	0xbe30b005	-0.17254646
175	0xbd2e5f7d	-0.042571533
176	0xbe1f2248	-0.15540421
177	0x3cbdca4e	0.023167755
178	0xbd9b7202	-0.07590105
179	0x3e0b65bb	0.13613026
180	0x3d004ee9	0.031325255
181	0x3e4eb344	0.20185572
182	0xbe34f64d	-0.17672081
183	0xbd9fe1d9	-0.07806749
184	0xbd5d0589	-0.053960357
185	0xbdaa95ee	-0.08329378
186	0x3e0d2343	0.13782983
187	0xbe7695e5	-0.24080618
188	0xbdec8e79	-0.11550612
189	0x3e18e1ea	0.1492993
190	0xbe61cc59	-0.22050609
191	0xbe420e28	-0.18950713
192	0x3c8858dd	0.016643936
193	0x3d87c52a	0.06629403
194	0x3d7db26b	0.06193773
195	0x3e3927ab	0.18081538
196	0xbcc45736	-0.023967367
197	0xbe208d3a	-0.15678874
198	0x3d693fa5	0.05694546
199	0x3d0f4aea	0.034983553
200	0x3e0f6920	0.14004946
201	0x3d7bdbcd	0.061488915
202	0x3dd96c08	0.106163085
203	0x3dd3f0bc	0.10348651
204	0x3ba4f360	0.0050338954
205	0xbe1c2759	-0.15249385
206	0xbe2b522d	-0.16730566
207	0xbdfe7242	-0.12424137
208	0xbd9c4d48	-0.07631928
209	0x3d56646c	0.052341864
210	0xbe013283	-0.12616925
211	0x3dfcb81f	0.12339806
212	0x3e1fe32e	0.15614006
213	0x3e2baec6	0.1676589
214	0x3e0fd331	0.14045407
215	0xbc10bc2a	-0.008833924
216	0x3d7cd11a	0.061722852
217	0x3da0c4b1	0.07850016
218	0x3e5d1870	0.21591353
219	0xbdfb9bd1	-0.12285579
220	0xbe167fb7	-0.14697157
221	0x3e13a447	0.14418136
222	0xbd319d43	-0.043362867
223	0x3db665b2	0.089061156
224	0xbe578ed0	-0.21050572
225	0x3e54465d	0.20729966
226	0x3e1436bf	0.14474009
227	0xbc6e336f	-0.01453863
228	0xbc678be0	-0.01413247
229	0xbda9143c	-0.082558125
230	0xbdf3a34c	-0.11896381
231	0xbdc6fbbc	-0.09715983
232	0xbe68fc9e	-0.22752616
233	0xbe08333f	-0.13300799
234	0xbe32d814	-0.1746524
235	0xbc0c5539	-0.008565241
236	0xbe150206	-0.14551553
237	0xbe04b0e6	-0.12958106
238	0x3e412019	0.188599
239	0xbc596bb4	-0.013270307
240	0x3db51d93	0.088435315
241	0x3dba9c1e	0.09111808
242	0x3d6ec5d2	0.058294125
243	0x3e55a575	0.20863898
244	0xbc835a64	-0.016034313
245	0x3ded8c99	0.115990825
246	0xbdc6a209	-0.096988745
247	0x3e19a5c7	0.15004645
248	0x3dae5d88	0.085139334
249	0x3e142500	0.1446724
250	0xbdf6ce77	-0.12051099
251	0xbd966bf1	-0.07344807
252	0x3e67961f	0.2261586
253	0x3d4f2a17	0.05057725
254	0x3e011921	0.12607242
255	0xbe769b41	-0.24082662
