models/mec_policy.pth (torch, 576610 bytes, 11 tensors)

critic.0.weight f4 [256, 19]
0	0xbe212592	-0.15736988
1	0x3e5e23d6	0.21693358
2	0xbdbae93c	-0.09126517
3	0xbd2ff236	-0.0429556
4	0xbe411d96	-0.18858942
5	0x3ddf604e	0.109070405
6	0xbee32638	-0.44365096
7	0xbe61e04e	-0.22058222
8	0x3eee8802	0.4658814
9	0x3eb189b6	0.34675378
10	0x3e374065	0.17895658
11	0x3d87e7fb	0.06636044
12	0xbcb79faf	-0.02241501
13	0x3e3b11c2	0.18268493
14	0xbe599720	-0.21249056
15	0xbdcfb255	-0.10141436
16	0xbdbb6269	-0.091496296
17	0x3e0204aa	0.12697092
18	0xbe1fa56d	-0.15590449
19	0x3e115401	0.14192201
20	0xbe11ad60	-0.14226294
21	0xbe437fb6	-0.19091687
22	0x3e1afde8	0.1513592
23	0x3df3f1d6	0.11911361
24	0xbd5da320	-0.054110646
25	0x3f0630b2	0.52418053
26	0x3cab05ac	0.020876728
27	0xbe228f30	-0.15874934
28	0xbe29402e	-0.16528389
29	0xbd50db00	-0.050990105
30	0x3ee63bae	0.44967407
31	0xbe2d95b6	-0.16951641
32	0xbe2f581b	-0.17123453
33	0xbde9ead8	-0.11421746
34	0x3d853dc9	0.06505925
35	0x3c920d7a	0.017828692
36	0x3dd4f252	0.103977814
37	0x3e3a7b78	0.18211162
38	0xbe170591	-0.14748217
39	0x3e8ad271	0.2711368
40	0xbc9047f2	-0.017612431
41	0xbcbf76e6	-0.023372125
42	0x39f43200	0.0004657656
43	0xbe6941a7	-0.2277895
44	0x3ef01def	0.46897838
45	0x3d989159	0.07449598
46	0xbee46dfe	-0.44615167
47	0x3e05c012	0.1306155
48	0x3e006e0d	0.12541981
49	0xbe04fe74	-0.12987691
50	0xbd69b0f0	-0.057053506
51	0x3dd6aef8	0.104825914
52	0x3dbaf0a9	0.091279335
53	0xbca7581e	-0.02042776
54	0x3e4d67d2	0.20059136
55	0xbcfe6d2a	-0.031057913
56	0xbdea8545	-0.114512004
57	0x3e114937	0.14188085
58	0x3d70b346	0.05876472
59	0xbe79d8db	-0.2439913
60	0xbcc7fe77	-0.02441333
61	0x3c57c5b0	0.013169691
62	0xbe411846	-0.18856916
63	0xbe6496cd	-0.22323151
64	0x3c517530	0.012784287
65	0x3ef0e40d	0.4704899
66	0xbd356d1c	-0.044293508
67	0x3e102a63	0.14078669
68	0x3f054693	0.5206081
69	0xbe0a751d	-0.13521238
70	0xbdf9912f	-0.12185895
71	0x3d84a57d	0.06476877
72	0xbe0543df	-0.13014172
73	0x3de44f03	0.11147883
74	0x3cc0e0bc	0.023544662
75	0x3e011a86	0.12607774
76	0x3d33e278	0.04391715
77	0xbdb2907e	-0.08718966
78	0xbe032ae3	-0.12809329
79	0xbc3b6b41	-0.011439146
80	0xbdf4129f	-0.11917614
81	0x3e5b607f	0.21423529
82	0x3f2becd9	0.67158276
83	0x3d8f5a13	0.06999602
84	0x3e6cbe1f	0.231194
85	0x3d8837ec	0.06651291
86	0x3d767ea4	0.060179368
87	0x3efabdf4	0.48973048
88	0x3dfd91b6	0.12381308
89	0x3d9c983e	0.076462254
90	0xbe35878d	-0.1772749
91	0x3c0ba531	0.008523271
92	0x3e1dab4b	0.15397374
93	0xbd8f01f9	-0.06982798
94	0x3d93e906	0.0722218
95	0xbe51c00d	-0.20483418
96	0xbdd9495b	-0.106096946
97	0x3cd9a870	0.026569575
98	0x3df0c58c	0.11756429
99	0xbc9c02e0	-0.01904434
100	0x3d793ef4	0.060851052
101	0xbebfd123	-0.37464246
102	0xbe5589f8	-0.20853412
103	0xbe2929bb	-0.16519825
104	0x3e6543f6	0.22389206
105	0x3e222013	0.15832548
106	0x3f3ba331	0.73295885
107	0xbe6e4f74	-0.23272496
108	0x3e2ad5f1	0.16683175
109	0xbe354e51	-0.17705657
110	0xbe0a07c8	-0.13479531
111	0xbd884590	-0.06653893
112	0xbe75a01f	-0.23986863
113	0x3cc05b30	0.023480982
114	0xbdc3510e	-0.09536944
115	0xbe06750f	-0.13130592
116	0xbe1016ab	-0.14071147
117	0x3e06b059	0.13153209
118	0xbe038e10	-0.12847161
119	0x3e334219	0.17505683
120	0x3f218ab0	0.63102245
121	0x3e5f4b40	0.2180605
122	0x3e3bec5e	0.18351886
123	0xbbb4f8e0	-0.0055228323
124	0xbda542cc	-0.08069381
125	0x3d77866f	0.06043094
126	0xbe1a35fb	-0.15059654
127	0xbe369e0d	-0.17833729
128	0xbe4daba1	-0.20085002
129	0x3e2b9e31	0.16759564
130	0xbdbe7777	-0.0930013
131	0xbe0bc239	-0.13648309
132	0xbe40ba8d	-0.18821163
133	0x3e37a605	0.17934425
134	0x3d3ac599	0.0455986
135	0x3da49228	0.080356896
136	0x3dacd137	0.08438342
137	0xbe0eeb12	-0.1395686
138	0xbe3b59ba	-0.18295947
139	0xbeb7c46c	-0.35892045
140	0x3e60c744	0.21951014
141	0x3e211dc3	0.1573401
142	0x3e7575a2	0.23970655
143	0x3e4532f3	0.19257717
144	0x3ea34acd	0.31893006
145	0xbd9c28a2	-0.076249376
146	0x3e461c06	0.19346628
147	0xbe28ac1c	-0.16471905
148	0xbdb47249	-0.08810861
149	0xbd365ecd	-0.044524003
150	0xbe17ca92	-0.14823368
151	0x3de54a9a	0.1119587
152	0xbdf2e3f0	-0.11859882
153	0xbeb4546f	-0.35220668
154	0x3d0e7cac	0.034786865
155	0xbe3ef4eb	-0.18648116
156	0xbdc970a8	-0.098359406
157	0x3d4a33b4	0.049365714
158	0x3ee15211	0.44007924
159	0xbccdcb4b	-0.025121352
160	0x3e561894	0.20907813
161	0xbdadf113	-0.08493247
162	0xbd78cb8c	-0.060740992
163	0x3f066473	0.52497023
164	0xbd1c9dc5	-0.0382364
165	0xbe8b627a	-0.2722357
166	0x3e57f162	0.21088174
167	0xbdf97fc4	-0.121825725
168	0xbdf4f4af	-0.11960732
169	0xbe97e39c	-0.2966584
170	0x3b2de3fe	0.00265336
171	0x3dafd8f1	0.085863
172	0xbe6cd658	-0.2312864
173	0xbe4ea144	-0.20178705
174	0xbc96c73b	-0.018405547
175	0xbe66939d	-0.22517247
176	0xbe64353b	-0.22285931
177	0xbe9f5285	-0.31117645
178	0xbecbe1e2	-0.39820772
179	0xbe55bab1	-0.20871998
180	0xbb450f58	-0.003006896
181	0x3e2acc49	0.16679491
182	0x3eaba8e9	0.33527306
183	0x3e3e973d	0.1861238
184	0xbe370e8a	-0.1787664
185	0x3d932554	0.07184854
186	0xbdf8d3ae	-0.1214975
187	0xbe3a7f07	-0.1821252
188	0x3d77c372	0.060489126
189	0x3dae79b4	0.08519307
190	0xbdcaa6bd	-0.09895084
191	0xbda8f61c	-0.08250067
192	0x3e0d2cae	0.13786575
193	0xbd246b14	-0.04014118
194	0x3c94ebe8	0.018178895
195	0xbe6626ed	-0.22475787
196	0x3e9c0817	0.30474922
197	0xbe1f4f18	-0.15557516
198	0xbedde2bd	-0.4333705
199	0xbe555b70	-0.20835662
200	0xbe0ca12c	-0.13733357
201	0xbedb2c5c	-0.4280728
202	0xbd911ea0	-0.070859194
203	0x3eae73a4	0.34072602
204	0x3e10bf8c	0.1413557
205	0x3b9086f8	0.004410621
206	0x3d0c62a4	0.03427376
207	0x3e39d5b8	0.18147933
208	0x3e10b7ed	0.14132662
209	0x3ccf576a	0.025310237
210	0x3e1fdfa5	0.15612657
211	0xbd7ae07c	-0.06124924
212	0x3e32b125	0.17450388
213	0xbd348c18	-0.044078916
214	0xbe1b407c	-0.15161318
215	0x3f04c036	0.5185579
216	0xbe358104	-0.17724997
217	0xbd917a0f	-0.07103359
218	0xbe84a797	-0.2590911
219	0xbe6575ca	-0.22408214
220	0xbf2e73bf	-0.68145365
221	0x3e23a6be	0.15981576
222	0x3db1b9d8	0.08678025
223	0xbd99243e	-0.07477616
224	0xbe1419ea	-0.1446301
225	0xbe2ca0e5	-0.16858251
226	0x3da437c6	0.080184504
227	0x3e54790d	0.20749302
228	0x3de07733	0.109602354
229	0xbe071377	-0.13191019
230	0xbde06a96	-0.1095783
231	0x3e3c3974	0.18381292
232	0x3db3362e	0.08750568
233	0x3da1314a	0.07870729
234	0xbeea87bf	-0.4580669
235	0xbe4b0b46	-0.19828519
236	0x3d28f975	0.041253526
237	0xbdf73062	-0.12069775
238	0x3cf4f5d8	0.029902384
239	0x3f1d6eab	0.6149699
240	0x3dc9764f	0.09837019
241	0x3e843a75	0.2582585
242	0xbe8be41b	-0.27322468
243	0x3d890865	0.06691054
244	0xbe7958e3	-0.24350314
245	0xbdf86405	-0.12128452
246	0xbe05d8ad	-0.13070937
247	0xbe19b5d1	-0.15010764
248	0x3e27a5e1	0.16371872
249	0xbdc94a4e	-0.098286256
250	0x3dba37c2	0.09092666
251	0x3c881788	0.016612783
252	0x3e2d27c7	0.16909705
253	0xbf0ed652	-0.55795777
254	0x3e2062fd	0.15662761
255	0x3e2a1808	0.1661073

critic.0.bias f4 [256]
0	0xbc27c9bf	-0.010240971
1	0x3e598718	0.2124294
2	0xbe40def6	-0.18835053
3	0x3e11b3b4	0.14228708
4	0xbd4def07	-0.050276782
5	0x3e833495	0.25626054
6	0x3e494f61	0.19659187
7	0x3d82a202	0.06378557
8	0x3ddc9257	0.107700996
9	0xbe510726	-0.20412883
10	0xbe31cb15	-0.17362626
11	0x3d4737cd	0.0486372
12	0xbe175cb3	-0.14781456
13	0x3e82445c	0.2544278
14	0x3dd72dfe	0.10506819
15	0xbc3af097	-0.0114099
16	0xbc962f67	-0.01833315
17	0xbe057537	-0.13032995
18	0xbe194de7	-0.14971124
19	0x3e1cc3cb	0.15309064
20	0xbde8373e	-0.113386616
21	0x3c887711	0.016658338
22	0x3d84fc0e	0.06493388
23	0xbde65d0b	-0.11248215
24	0xbc90f898	-0.017696664
25	0xbdd55db2	-0.104182616
26	0xbe84487b	-0.25836548
27	0x3ce457f6	0.027873974
28	0x3e37034a	0.17872348
29	0xbdff6e0f	-0.12472164
30	0xbd8d454c	-0.06897983
31	0xbd6ca784	-0.057776943
32	0x3e783dbd	0.24242301
33	0x3c1b88c2	0.009493055
34	0x3d2af0b2	0.04173345
35	0xbd103566	-0.035207175
36	0x3e129741	0.14315511
37	0xbdddad62	-0.10824086
38	0x3db6b6a3	0.08921554
39	0xbdadc7c4	-0.08485368
40	0x3e06cf69	0.13165058
41	0xbe04db2e	-0.12974235
42	0x3e2f3f52	0.17113999
43	0xbdd4c5e7	-0.103893094
44	0x3dfa0e7c	0.12209794
45	0x3d89f3b7	0.06735938
46	0xbd8e5e0b	-0.06951531
47	0x3cedc3ce	0.029024031
48	0x3d9e5ad7	0.0773217
49	0x3dd819b2	0.10551776
50	0xbe0ab2fb	-0.13544838
51	0xbdc8a3d0	-0.0979687
52	0x3cb97c95	0.022642413
53	0xbc87f5ec	-0.016596757
54	0xbe2e1705	-0.17000969
55	0x3d9fc615	0.07801453
56	0xbe011b05	-0.12607963
57	0x3c6fded7	0.0146405315
58	0xbd94a015	-0.07257096
59	0x3e579f9e	0.21056983
60	0x3e0fd703	0.14046864
61	0xbdc75af3	-0.09734144
62	0x3e6d037d	0.23145862
63	0x3e1244da	0.14284077
64	0xbd3ab8bf	-0.045586344
65	0xbdfb5c3e	-0.12273453
66	0x3d757c6c	0.05993311
67	0x3e375a5c	0.17905563
68	0xbda44e3c	-0.080227345
69	0xbdadab2f	-0.08479916
70	0xbdf31183	-0.118685745
71	0x3e24393a	0.16037455
72	0x3c208bfe	0.009799002
73	0xbd5a5a0d	-0.053308535
74	0x3e043ef6	0.12914643
75	0xbd98d5ff	-0.074626915
76	0xbe110ece	-0.14165804
77	0x3e0f4ba8	0.13993704
78	0xbd9df208	-0.077121794
79	0x3e145770	0.1448648
80	0xbcbb3fc6	-0.022857558
81	0x3e23f081	0.16009714
82	0x3e7fb91d	0.24972959
83	0x3c7d6bd4	0.015467603
84	0xbd8e1b99	-0.069388576
85	0x3e7705d9	0.24123324
86	0xbda6d298	-0.08145636
87	0x3da9dd06	0.0829411
88	0xbb51396e	-0.00319251
89	0xbdb414fc	-0.08793065
90	0xbe0a0258	-0.13477457
91	0x3cf325d2	0.02968112
92	0xbe04c56e	-0.12965938
93	0xbc39e995	-0.011347194
94	0x3dd60c73	0.10451593
95	0xbcef5fae	-0.029220428
96	0x3df6b6f2	0.12046613
97	0xbe45cb16	-0.19315752
98	0x3da38f9a	0.07986374
99	0xbe28896d	-0.16458674
100	0xbe21ef5d	-0.15813966
101	0xbc2d616f	-0.010582312
102	0x3df9cde2	0.12197472
103	0xbdff1a76	-0.12456219
104	0xbe0c146f	-0.1367967
105	0x3dbc6a0f	0.091999166
106	0xbd3cb864	-0.046074286
107	0x3c9e937b	0.019357434
108	0x3d00f912	0.031487532
109	0xbe2b14ba	-0.16707125
110	0xbdbff4bd	-0.09372852
111	0x3e01ec97	0.12687908
112	0x3df0ec58	0.11763829
113	0x3e4a0a49	0.19730486
114	0x3df6254c	0.120188326
115	0xbe7b99e8	-0.2457043
116	0x3da2e052	0.07952942
117	0xbd877fac	-0.06616148
118	0x3cc2459f	0.023714839
119	0xbe0c9937	-0.13730322
120	0xbe0b9c85	-0.13633926
121	0x3db8b8a5	0.09019593
122	0xbe35294c	-0.17691535
123	0x3d4caf80	0.049972057
124	0x3e0f83db	0.14015143
125	0xbe595315	-0.212231
126	0x3d93fab9	0.07225556
127	0x3d9751db	0.073886596
128	0xbd8b7c28	-0.0681079
129	0x3e18d794	0.14925987
130	0x3dc5bb83	0.09654906
131	0xbe10a3aa	-0.14124933
132	0xbc744cfe	-0.0149109345
133	0xba15357c	-0.0005691869
134	0x3dbb0d90	0.09133446
135	0xbd6edaca	-0.058314122
136	0x3b83b586	0.004019442
137	0x3d59b14b	0.053147595
138	0x3e5b185b	0.2139601
139	0x3d88d922	0.0668204
140	0x3db50447	0.088387065
141	0x3de76c58	0.11299962
142	0xbca1c839	-0.019748794
143	0xbd3b753b	-0.045766097
144	0xbd8ccbef	-0.06874835
145	0xbdb8e00a	-0.09027107
146	0x3c86bdef	0.01644799
147	0x3dd77947	0.10521179
148	0xbe19a982	-0.15006068
149	0xbd854b5a	-0.06508513
150	0xbe5e7d20	-0.21727419
151	0xbe2ffd0c	-0.17186373
152	0xbdaec725	-0.085340776
153	0x3e5417a4	0.20712143
154	0xbe2ea1fb	-0.17053978
155	0xbdc16e28	-0.09444839
156	0x3e19afd8	0.15008485
157	0x3da5cd0e	0.08095752
158	0x3e2f6fd3	0.17132501
159	0xbe08b7cf	-0.13351367
160	0x3e899373	0.26870307
161	0x3ba39bed	0.004992953
162	0xbd06c52d	-0.032902885
163	0x3c7053a1	0.014668376
164	0xbd8bf5d2	-0.06833996
165	0xbe1cb01e	-0.15301558
166	0xbd8307ea	-0.06397994
167	0xbc65a3b0	-0.014016077
168	0xbd90ce1c	-0.07070562
169	0xbdacf784	-0.08445647
170	0xbd41e024	-0.047332898
171	0x3e580fda	0.21099797
172	0xbbb06693	-0.0053833215
173	0x3e484bcc	0.19560164
174	0xbdebeb1b	-0.11519452
175	0x3e3904fd	0.18068309
176	0xbd6845a6	-0.056707047
177	0x3d580cc8	0.052746564
178	0xbce0f554	-0.027460732
179	0xbd378fa4	-0.04481472
180	0x3c0ab34f	0.008465602
181	0xbde10f12	-0.109892026
182	0x3df891f9	0.12137217
183	0xbd1b5786	-0.037925266
184	0xbe5e83dc	-0.21729988
185	0x3e00ed8f	0.12590621
186	0xbe386414	-0.18006927
187	0xbde37d9d	-0.11107943
188	0xbe1654e3	-0.14680819
189	0xbe171684	-0.14754683
190	0xbdb4f021	-0.088348635
191	0x3d131d22	0.035916455
192	0x3dcb09ca	0.099139765
193	0x3ded874c	0.115980715
194	0x3e84d05e	0.25940222
195	0xbdcefb69	-0.101065464
196	0x3e3d8e92	0.18511418
197	0x3e4dea07	0.20108806
198	0x3e5245f1	0.20534493
199	0xbd74ec8e	-0.05979591
200	0xbe215595	-0.15755303
201	0xbcd6f6bc	-0.026240699
202	0xbd2e31a9	-0.04252783
203	0xbd3a7771	-0.045524064
204	0x3daea8da	0.085283
205	0x3d10daf3	0.035365056
206	0xbe112ca6	-0.14177188
207	0x3e09ffad	0.13476439
208	0xbd612f4c	-0.054976746
209	0x3e008c24	0.1255346
210	0x3ddda29c	0.10822031
211	0x3e1b86b5	0.15188105
212	0xbc0f1618	-0.008733295
213	0xbd60c1b5	-0.054872233
214	0x3de02fd0	0.109466195
215	0x3e2f6e73	0.17131977
216	0x3e2a50c7	0.16632377
217	0x3e364936	0.17801365
218	0x3da743f8	0.08167261
219	0x3e46a10b	0.1939737
220	0x3d97fb74	0.07421008
221	0xbd955525	-0.07291631
222	0x3d1f9191	0.038957182
223	0xbcd22368	-0.025651649
224	0xbe5da44e	-0.21644709
225	0x3e3adbea	0.18247953
226	0x3d91589c	0.07096979
227	0x3e3d4e33	0.18486862
228	0x3e5fd2da	0.21857777
229	0x3e0c6ba7	0.13712941
230	0x3e2d4f74	0.1692484
231	0xbddf139d	-0.10892413
232	0xbdbf4f68	-0.093413174
233	0x3e6fa9bd	0.23404594
234	0xbe2407c8	-0.16018593
235	0xbd4a3a41	-0.04937196
236	0x3def1091	0.11673082
237	0xbd94a104	-0.07257274
238	0xbe6e6fb1	-0.23284794
239	0x3c78d68d	0.015187872
240	0xbe159f53	-0.14611559
241	0xbe373f0a	-0.17895141
242	0x3e1bee8c	0.15227717
243	0xbe318730	-0.17336726
244	0xbe688c6e	-0.2270982
245	0xbe4fb4b0	-0.2028377
246	0xbce0f35d	-0.027459795
247	0xbd26145d	-0.040546764
248	0xbe581b6e	-0.21104214
249	0x3e33aa33	0.17545395
250	0xbe164bae	-0.14677307
251	0xbe5115e9	-0.20418514
252	0x3e3bb3ea	0.1833035
253	0xbe723fbe	-0.23657128
254	0x3e228ed8	0.15874803
255	0x3e20bbe9	0.15696682

critic.2.weight f4 [256, 256]
0	0xbebd17a3	-0.36932096
1	0x3d155a5d	0.03646313
2	0x3e843182	0.2581902
3	0xbdacba4a	-0.08433969
4	0x3984b892	0.00025314518
5	0xbf2a3caf	-0.66498846
6	0xbcc03d37	-0.02346669
7	0xbdda8a44	-0.10670903
8	0x3c6cd9ab	0.014456193
9	0xbd36a278	-0.044588536
10	0x3dc1e9c1	0.09468413
11	0x3e55621a	0.20838204
12	0xbe4c25ba	-0.19936267
13	0xbdf5087a	-0.119645074
14	0xbb225c54	-0.002477427
15	0xbe998bac	-0.29989374
16	0x3eb9f8ea	0.3632272
17	0xbd899df0	-0.06719577
18	0xbd596413	-0.053073954
19	0x3e85d2d5	0.26137415
20	0x3e523561	0.20528175
21	0x3ea13cf9	0.3149183
22	0x3e883412	0.26602226
23	0xbc87815b	-0.016541174
24	0x3dac434f	0.084112756
25	0x3dcd4066	0.10022049
26	0x3e2cd3c4	0.16877657
27	0x3c8255d0	0.01591006
28	0x3e106b4f	0.14103435
29	0xbe80edc5	-0.25181404
30	0xbec30dbe	-0.38096422
31	0xbe25715b	-0.16156523
32	0xbe9d7bb1	-0.30758432
33	0x3ddd7e96	0.1081516
34	0xbe57144b	-0.21003835
35	0x3dd5e5b8	0.10444206
36	0x3c9401ec	0.018067323
37	0xbdf3250e	-0.11872302
38	0xbdf7a535	-0.120920576
39	0x3e86fc9f	0.2636461
40	0x3b3f1031	0.0029153938
41	0x3ea6a526	0.32547873
42	0xbec61668	-0.3868897
43	0xbd5bcadc	-0.05366026
44	0xbd82bb4e	-0.06383382
45	0x3e7f48f7	0.24930178
46	0xbe5038f2	-0.20334223
47	0xbe84ba4d	-0.25923386
48	0x3eba4380	0.36379623
49	0x3df64d57	0.1202647
50	0x3d8c2180	0.06842327
51	0x3ef21fa0	0.47289753
52	0xbc05b4c2	-0.008160772
53	0xbc18e197	-0.009331129
54	0x3da48e1b	0.08034917
55	0x3d73043c	0.05933021
56	0x3e27ae0b	0.16374986
57	0xbcb7e797	-0.022449298
58	0x3d00e59f	0.031468984
59	0xbd8ddea1	-0.06927229
60	0xbe21a069	-0.15783848
61	0xbd2537c0	-0.04033637
62	0xbde6afd7	-0.112640075
63	0xbe40e4bb	-0.18837254
64	0x3d10c85c	0.035347328
65	0xbe569e9a	-0.20958939
66	0xbcccf31b	-0.025018265
67	0xbdc0b037	-0.0940861
68	0x3e804f95	0.25060716
69	0x3e0dd929	0.13852371
70	0x3e28f81b	0.16500895
71	0x3de2ce61	0.1107452
72	0x3ea2a5f0	0.31767225
73	0x3ea5fb69	0.32418373
74	0x3dee036f	0.11621749
75	0xbed4929f	-0.41518113
76	0xbe9248a5	-0.28571048
77	0x3e6d58fc	0.23178476
78	0xbddd64bf	-0.108102314
79	0x3e4239d5	0.18967374
80	0x3d84d607	0.06486135
81	0x3de14d2b	0.11001047
82	0xbe91e2cf	-0.28493354
83	0xbeb6978d	-0.356625
84	0x3e35e1aa	0.17761865
85	0x3d05faaf	0.032709774
86	0xbb916ee7	-0.0044382694
87	0xbe08e982	-0.13370326
88	0x3e3d3957	0.18478905
89	0xbd8cae93	-0.06869235
90	0xbbcdb731	-0.0062779416
91	0x3e0f0cca	0.13969722
92	0xbe160b85	-0.14652832
93	0x3e233b8f	0.15940689
94	0xbe88f4f5	-0.26749387
95	0xbdb73f9c	-0.089476794
96	0x3e740bc6	0.23832616
97	0xbde73119	-0.112886615
98	0xbe5acf25	-0.21368082
99	0x3e2321b5	0.15930827
100	0xbcc68013	-0.024230992
101	0xbdb63e22	-0.0889857
102	0x3c34994b	0.011022876
103	0xbcd9dd20	-0.026594698
104	0xbe07eaee	-0.13273212
105	0x3d078cae	0.033093147
106	0xbe2b1968	-0.1670891
107	0x3c751c1e	0.014960317
108	0xbd9a068c	-0.0752078
109	0xbbd5758b	-0.0065142564
110	0xbe4b92ff	-0.19880293
111	0xbe16979c	-0.14706272
112	0xbe979789	-0.296078
113	0xbe8a3ec7	-0.2700102
114	0xbe0d84d8	-0.13820207
115	0xbe55eaeb	-0.20890395
116	0x3c0cd9a8	0.008596815
117	0xbc35ae94	-0.011088986
118	0x3d28aa82	0.041178234
119	0x3ea88994	0.32917464
120	0xbd5c41c2	-0.05377365
121	0xbcdb3271	-0.02675745
122	0x3d298627	0.041387703
123	0xbc12d837	-0.008962682
124	0x3e2808da	0.16409627
125	0x3da38f84	0.07986358
126	0x3d9b0659	0.0756957
127	0x3d180b86	0.037120365
128	0x3dca248d	0.09870253
129	0x3d3321a7	0.043733265
130	0x3e20e0bc	0.1571073
131	0x3dc0defb	0.0941753
132	0x3d15c43f	0.036564108
133	0xbe08e6cb	-0.1336929
134	0xbe14e50e	-0.14540502
135	0xbeb8dfa0	-0.36108112
136	0x3e3f53d3	0.1868432
137	0x3d023c53	0.03179581
138	0x3ca1fa06	0.01977254
139	0x3e98ed99	0.29868773
140	0xbde1b8e2	-0.11021592
141	0xbe3e5295	-0.1858619
142	0x3d0b71eb	0.034044188
143	0xbe0ea8a6	-0.13931522
144	0x3e2628cd	0.16226502
145	0x3d6b6f17	0.05747899
146	0xbe996ce3	-0.29965886
147	0xbe053f74	-0.13012487
148	0xbd837091	-0.06417955
149	0x3dd20aed	0.1025599
150	0x3e92eb4c	0.28695142
151	0xbd19116e	-0.037370138
152	0x3d0d569b	0.03450642
153	0xbcfd9d24	-0.03095872
154	0xbe08ffeb	-0.13378875
155	0xbe955c74	-0.291721
156	0xbd34342c	-0.043995067
157	0x3c4c4a96	0.012468955
158	0xbe5ef094	-0.21771461
159	0x3e960fe1	0.2930899
160	0xbe0657c5	-0.13119419
161	0x3cbf67f5	0.023365
162	0x3ed33eef	0.41258952
163	0xbe3231c7	-0.17401801
164	0xbe501559	-0.20320643
165	0xbe175b42	-0.14780906
166	0xbd624bad	-0.05524795
167	0xbc1c20f4	-0.009529341
168	0x3d69c827	0.057075646
169	0x3dc662e6	0.09686832
170	0xbca745f3	-0.020419097
171	0xbba9d054	-0.0051823054
172	0xbe12aa20	-0.1432271
173	0x3b5a9682	0.003335387
174	0xbd23af71	-0.039962236
175	0x3c0f152c	0.008733075
176	0x3eba6f9b	0.36413273
177	0xbdb851d5	-0.08999983
178	0xbea5a11d	-0.32349482
179	0xbe15fe4c	-0.14647788
180	0x3e9e415e	0.30909246
181	0xbdc365a3	-0.0954087
182	0xbe63dfc3	-0.22253327
183	0xbdf261a4	-0.1183503
184	0x3d1b90aa	0.03797976
185	0xbdec9864	-0.11552504
186	0x3e4b7a13	0.19870786
187	0xbe1a92cb	-0.1509506
188	0xbe0ffd25	-0.1406141
189	0xbd025574	-0.031819776
190	0x3db84e6e	0.08999334
191	0x3ddb43ac	0.10706267
192	0xbcefc523	-0.029268807
193	0xbe825dbf	-0.25462148
194	0xbd1a49d6	-0.03766807
195	0xbe07722e	-0.1322715
196	0x3e68ddb7	0.22740828
197	0x3a844d8b	0.001009391
198	0xbd4c911d	-0.04994308
199	0xbd0fff82	-0.03515578
200	0x3ea5848a	0.32327682
201	0x3e84b943	0.25922593
202	0x3e96ec7d	0.294773
203	0xbd4d49c0	-0.05011916
204	0x3e5e96a0	0.21737146
205	0x3eb13c47	0.346163
206	0x3ea325a5	0.31864658
207	0x3efa64ad	0.48904935
208	0x3e1de078	0.1541766
209	0x3d2dc584	0.042424694
210	0xbd40a0af	-0.04702824
211	0x3d180fa8	0.037124306
212	0xbe937dd0	-0.28806925
213	0x3c9ffc4b	0.019529482
214	0xbe154cc8	-0.14580071
215	0xbc1cbb7b	-0.009566183
216	0x3e6d0280	0.23145485
217	0xbe2a5839	-0.16635217
218	0xbd17b023	-0.03703321
219	0xbe81d01d	-0.2535409
220	0xbe23c432	-0.15992811
221	0x3dea0757	0.11427181
222	0x3ccaa834	0.024738409
223	0x3e177cb6	0.14793667
224	0x3e56b703	0.20968251
225	0x3e2abe81	0.16674234
226	0xbd1f136c	-0.03883688
227	0x3e80a6f6	0.2512738
228	0xbe8df234	-0.2772385
229	0xbe1a47a9	-0.15066399
230	0xbcfb4fa2	-0.03067762
231	0x3dcf20f3	0.101137064
232	0x3e569ecf	0.20959018
233	0x3e73a427	0.23793088
234	0xbe0372b6	-0.12836727
235	0x3e4a59d4	0.19760829
236	0x3d1446e9	0.036200438
237	0x3e7aa73d	0.24477859
238	0xbdcff8b3	-0.101548575
239	0xbbfd610d	-0.0077325166
240	0xbdc11512	-0.09427847
241	0xbe30b3f0	-0.1725614
242	0x3e863ccd	0.26218262
243	0x3ed55715	0.41668
244	0x3e4a698a	0.19766822
245	0x3e59b1de	0.21259257
246	0x3d8a60f3	0.06756773
247	0xbe054dc3	-0.13017945
248	0x3d717e5d	0.0589584
249	0x3e220c7a	0.15825072
250	0x3ed0a4f4	0.4075085
251	0xbd5268ed	-0.051369596
252	0xbd049370	-0.03236717
253	0x3e885f84	0.26635373
254	0x3d5cfd75	0.053952653
255	0xbcf9a195	-0.030472556

critic.2.bias f4 [256]
0	0xbd8b0ef9	-0.06789965
1	0xbc15f974	-0.009153713
2	0x3c9052bc	0.017617576
3	0xbde111da	-0.10989733
4	0xbca9ec7b	-0.020742645
5	0x3b6a5e09	0.0035761616
6	0x3db7a21f	0.08966469
7	0xbd8ac70f	-0.06776249
8	0x3b80d20a	0.0039312886
9	0xbd99aef1	-0.075040706
10	0xbd754e9f	-0.059889432
11	0x3d1d507c	0.038406834
12	0x3b623814	0.0034518288
13	0x3dbcbadd	0.09215329
14	0x3ca03245	0.01955522
15	0x3d7f7916	0.062371336
16	0xbc88f7af	-0.016719667
17	0xbd09c4ce	-0.033634953
18	0x3d2a72b2	0.04161329
19	0x3d3caca9	0.0460631
20	0xbc822e4c	-0.015891217
21	0xbcf14a59	-0.029454397
22	0xbdb0958a	-0.08622272
23	0x3c4b52ce	0.012409879
24	0xbd126c61	-0.03574789
25	0x3d78dd24	0.06075777
26	0x3d6560a5	0.05600037
27	0xbd352d79	-0.04423282
28	0x3d8f7f7a	0.07006736
29	0xbd6dee93	-0.05808885
30	0xbd8dd9fb	-0.06926342
31	0x3dc15e97	0.0944187
32	0x3d5fdc74	0.0546536
33	0x3d449055	0.04798921
34	0x3dc3204c	0.095276445
35	0xbc8f061c	-0.017458968
36	0x3c21439c	0.0098427795
37	0xbd308a5a	-0.043100692
38	0xbc3df670	-0.0115944
39	0xbd7e1aaa	-0.062037148
40	0x3d7bedb9	0.061506007
41	0x3db25cf1	0.087091334
42	0x3d93efbd	0.07223461
43	0x3da48942	0.08033992
44	0xbc85d981	-0.016339066
45	0x3d250005	0.04028322
46	0xbcafeca0	-0.021475136
47	0x3cb24a4c	0.021763943
48	0x3d55ea9d	0.052225698
49	0x3d86bf84	0.065794975
50	0xbb9c4ebf	-0.0047701295
51	0x3c87f782	0.016597513
52	0xbd70315a	-0.058640815
53	0xbd3d4bf8	-0.046215028
54	0x3dcd8c93	0.10036578
55	0xbcf255ba	-0.029581893
56	0xbc3ce994	-0.011530299
57	0xbb59a434	-0.0033209445
58	0x3cab541c	0.02091413
59	0xbe3306cc	-0.17483062
60	0x3d7e1706	0.062033676
61	0xbc35fa75	-0.011107077
62	0xbcbd377d	-0.023097748
63	0xbcd8333f	-0.026391624
64	0x3d43f1b0	0.047837913
65	0x3dc6a4a7	0.09699374
66	0xbd88d22e	-0.066807136
67	0xbc5601c3	-0.013061943
68	0xbd9870f5	-0.0744342
69	0xba0b1ec4	-0.00053070136
70	0x3ccca0f9	0.024979101
71	0x3d0fe6f1	0.035132352
72	0x3cd89d02	0.026442055
73	0x3d1a1fd4	0.03762801
74	0xbd2413df	-0.040058013
75	0xbd0e3af6	-0.0347242
76	0x3d9203cb	0.0712963
77	0x3cc31f42	0.023818616
78	0x3b83b043	0.004018815
79	0x3bd9f3f4	0.006651396
80	0x3d82057a	0.06348701
81	0x3b4774af	0.003043454
82	0xbbe1aa7e	-0.0068867793
83	0xbca9fd99	-0.020750808
84	0x3d88e598	0.066844165
85	0xbdd6e4a3	-0.10492828
86	0x3bfd83a5	0.0077366405
87	0xbd10f292	-0.035387583
88	0x3ce4ea1b	0.027943661
89	0xbd0674e7	-0.03282633
90	0x3d2fae2d	0.042890716
91	0xbc2c462e	-0.010514779
92	0x3c53f77d	0.012937424
93	0xbd92addd	-0.07162068
94	0x3c640098	0.013916157
95	0xbd60c8db	-0.05487905
96	0xbd453819	-0.048149202
97	0x3ca1d191	0.01975325
98	0x3d94bab3	0.072621725
99	0x3dcb1867	0.09916764
100	0x3da85a38	0.08220333
101	0xbcb7d5b5	-0.02244077
102	0xbc9f5004	-0.019447334
103	0x3c3e88d0	0.011629298
104	0xbca3b83f	-0.019985316
105	0x3d5986c2	0.05310703
106	0xbd30d699	-0.043173406
107	0xbbcfa003	-0.0063362136
108	0x3ce8ad4b	0.028402945
109	0xbcfd119c	-0.030892186
110	0xbdba36c2	-0.090924755
111	0x3dd39b5a	0.10332365
112	0xbd30f9ad	-0.04320686
113	0x3d30e150	0.043183625
114	0xbc9ab188	-0.018883482
115	0xbd8961e3	-0.067081235
116	0x3d71ccf5	0.059033353
117	0x3b1703d1	0.0023043046
118	0x3d1f21d5	0.038850624
119	0x3c95b03f	0.018272517
120	0xbb84b1df	-0.004049524
121	0xbdded2f8	-0.10880083
122	0x3cfac341	0.030610682
123	0xbd0d7d10	-0.034543097
124	0x3c83f002	0.016105656
125	0x3c660e6e	0.014041526
126	0xbd2cb125	-0.042161126
127	0xbdbb9e86	-0.09161095
128	0x3cb2c186	0.021820795
129	0x3d1692e9	0.0367612
130	0x3d5d629b	0.054049116
131	0xba205f46	-0.00061177125
132	0xbd2ede3a	-0.0426924
133	0xbd43e58e	-0.047826342
134	0x3d04cff0	0.032424867
135	0xbc64cd28	-0.013964929
136	0xbc480916	-0.0122091975
137	0xbd844b90	-0.06459725
138	0xbda02ce0	-0.07821059
139	0xbde8a473	-0.11359491
140	0xbda6312a	-0.08114846
141	0x3d50d9e8	0.05098906
142	0xbd8ea489	-0.06964976
143	0xbcba3906	-0.022732269
144	0xbdf31e62	-0.118710294
145	0x3b170e1f	0.0023049188
146	0x3d58cad9	0.052927826
147	0xbc7d9e20	-0.0154795945
148	0xbcb4818c	-0.022034429
149	0x3d0093fd	0.031391133
150	0xbc28610b	-0.010277043
151	0x3dbde3fe	0.09272002
152	0x3db42765	0.087965764
153	0xbd8b7e84	-0.0681124
154	0x3c1162d9	0.008873665
155	0xbd0b3705	-0.033988018
156	0xbd2c8da0	-0.04212725
157	0xbc6678d5	-0.014066895
158	0x3d017776	0.031608067
159	0x3db0675b	0.086134635
160	0xbd409d7f	-0.0470252
161	0x3c967070	0.018364161
162	0x3d6956fd	0.056967724
163	0x3d3004f2	0.042973466
164	0xbdebc845	-0.11512808
165	0xbddd129e	-0.107945666
166	0x3a6df2f3	0.0009077035
167	0xbc39d7c2	-0.011342945
168	0xbb7e3bbe	-0.0038792933
169	0xbda573c9	-0.08078725
170	0x3c61f8e5	0.013792251
171	0xbc2567e6	-0.010095572
172	0xbcf46458	-0.029833004
173	0x3cb48773	0.022037243
174	0xbdda9bb5	-0.1067423
175	0x3dd51ce7	0.10405903
176	0xbd914a5b	-0.0709426
177	0x3d00aaf5	0.031413037
178	0x3d5ad465	0.05342521
179	0x3d0ff9ea	0.035150446
180	0xbca7aa05	-0.020466814
181	0xbdd7888c	-0.10524091
182	0x3da36f31	0.079801925
183	0x3dba6343	0.09100964
184	0x3d1a2e87	0.03764203
185	0x3c28eaca	0.010309884
186	0xbd07ab00	-0.033122063
187	0x3cc7880d	0.024356866
188	0x3bf61d83	0.0075108423
189	0x3d440f9f	0.04786646
190	0xbcaf3d9e	-0.021391686
191	0xbc4cad0c	-0.012492429
192	0xbd997a64	-0.07494047
193	0x3cf57dca	0.029967207
194	0x3daeeb80	0.08541012
195	0x3dc57ff8	0.09643549
196	0x3d7ab622	0.06120885
197	0xbd46ebdb	-0.048564773
198	0xbc76f31b	-0.015072609
199	0xbdeb557b	-0.114909135
200	0x3c54e794	0.012994666
201	0xbda433b0	-0.08017671
202	0xbd90b5fb	-0.0706596
203	0xbd961efe	-0.0733013
204	0xbd432517	-0.047642794
205	0xbd940948	-0.07228333
206	0x3d14fe03	0.036375057
207	0x3c1180b3	0.008880782
208	0x3d021583	0.031758796
209	0x3b6c391f	0.003604479
210	0xbb5ab98d	-0.0033374757
211	0xbd848f19	-0.06472606
212	0xbe01cbec	-0.12675446
213	0xbd646f95	-0.055770475
214	0x3db917cc	0.09037742
215	0x3d254153	0.0403455
216	0xbc95f718	-0.0183063
217	0x3d4fc37a	0.05072353
218	0x3d2f854e	0.04285174
219	0xbd80ee80	-0.0629549
220	0x3dd6e615	0.104931034
221	0x3d98e176	0.07464878
222	0x3d8a971d	0.06767104
223	0xbd8f7593	-0.070048474
224	0x3c57d148	0.013172455
225	0xbb45a068	-0.0030155424
226	0x3b838dec	0.004014721
227	0xbdbd8059	-0.09252996
228	0xbd3ad05c	-0.045608863
229	0x3da9e071	0.08294762
230	0xbc808c72	-0.01569197
231	0x3d65a6a0	0.05606711
232	0xbd2b3083	-0.04179431
233	0xbcc4cb42	-0.024022702
234	0x3b82e601	0.0039947038
235	0x3d844046	0.06457572
236	0xbd67404b	-0.0564578
237	0xbd5ff75f	-0.05467927
238	0x3c7d0a69	0.0154443765
239	0xbd9a90a0	-0.07547116
240	0xbcc4ed81	-0.024039032
241	0xbd903516	-0.07041375
242	0x3d8a7e9b	0.06762429
243	0xbcff2c40	-0.03114903
244	0xbcf86ed2	-0.03032628
245	0xbd3af4ce	-0.04564362
246	0xbcd75b31	-0.0262886
247	0xbbb48480	-0.0055089593
248	0xbd242ba9	-0.0400807
249	0x3dbeadc4	0.09310487
250	0x3dd5dffe	0.10443114
251	0xbd36c77b	-0.044623833
252	0x3d599aa9	0.05312601
253	0xbd86e3b4	-0.065864
254	0x3d89ed82	0.06734754
255	0xbc9953e4	-0.01871676

critic.4.weight f4 [1, 256]
0	0x3ef7f4fe	0.48429102
1	0x3ec958dc	0.39325607
2	0xbf0949e1	-0.53628355
3	0xbee8aca7	-0.45444223
4	0xbeba0edd	-0.36339465
5	0xbecb8c85	-0.39755645
6	0xbeee7581	-0.46574023
7	0xbeeca79c	-0.46221626
8	0x3ecd0847	0.40045378
9	0x3ec22c98	0.37924647
10	0x3f58ebb3	0.8473465
11	0xbf0764e0	-0.528883
12	0xbeb81100	-0.3595047
13	0xbed33fc1	-0.41259578
14	0x3ef32c80	0.47494888
15	0x3f06b6cc	0.52622676
16	0x3f1c796d	0.6112278
17	0x3ebc2180	0.36744308
18	0xbed96c48	-0.42465425
19	0x3f023aa6	0.5087074
20	0x3ea97b44	0.33101857
21	0x3ed2e56d	0.41190663
22	0x3ec8896f	0.39167354
23	0xbee52c9c	-0.44760597
24	0xbf05d591	-0.52279
25	0xbe9c6370	-0.30544615
26	0x3f05a05b	0.5219781
27	0xbeec537b	-0.4615744
28	0xbed2afa2	-0.41149622
29	0x3f1a1374	0.60185933
30	0x3eb8e6b9	0.36113527
31	0x3ee5bd0b	0.4487079
32	0xbf50e52f	-0.81599706
33	0xbed47f0a	-0.41503173
34	0xbee0ed0a	-0.43930846
35	0xbee090cd	-0.43860474
36	0xbeda7150	-0.42664576
37	0xbef13e78	-0.47117972
38	0xbedfac7d	-0.43686286
39	0x3eddd8b4	0.43329394
40	0xbecdfbd3	-0.4023119
41	0x3ed7057e	0.41996378
42	0xbebc2ee8	-0.36754537
43	0x3f18f3c1	0.5974694
44	0xbee43062	-0.44568163
45	0x3f0ee563	0.55818766
46	0xbed1e770	-0.40996885
47	0xbf4aaeda	-0.7917305
48	0x3e9a9c63	0.3019744
49	0x3efaa6f1	0.4895549
50	0xbefd2c57	-0.4944789
51	0xbed089b8	-0.4073007
52	0xbeca990c	-0.3956989
53	0x3eca18c0	0.39472008
54	0x3f508f51	0.81468683
55	0x3ec3160e	0.38102764
56	0x3eca1977	0.39472553
57	0x3ef1c1a5	0.47218052
58	0xbeb3d94e	-0.35126728
59	0x3f7951d2	0.9739047
60	0xbee81607	-0.45329306
61	0xbedd8973	-0.43268928
62	0xbf46c201	-0.77639776
63	0xbed518d5	-0.41620508
64	0x3f1dccf0	0.61640835
65	0xbf5627b6	-0.83654344
66	0x3ee292dd	0.44252673
67	0x3eca7c6f	0.3954806
68	0x3ebd7e86	0.37010592
69	0xbedfcc91	-0.4371076
70	0xbf059b2a	-0.52189887
71	0x3ef78423	0.48343
72	0x3ee5d7e2	0.44891268
73	0xbeca82bf	-0.39552876
74	0xbec27b70	-0.379848
75	0xbf06acf6	-0.5260767
76	0x3f130fd8	0.5744605
77	0xbec51ad4	-0.3849703
78	0xbefc3934	-0.49262393
79	0xbf0f01b5	-0.5586198
80	0x3f0468d6	0.51722467
81	0xbf092e1a	-0.5358597
82	0xbebcfc41	-0.36911204
83	0xbed9da22	-0.42549235
84	0xbef2e4c1	-0.4744015
85	0xbf05e915	-0.5230878
86	0xbec0fad7	-0.37691376
87	0x3ea40180	0.32032394
88	0xbee0c399	-0.4389923
89	0xbeb81489	-0.35953167
90	0x3ef7acf7	0.4837415
91	0xbf504565	-0.8135589
92	0x3ed4212e	0.41431564
93	0xbeed3046	-0.46325892
94	0xbec2f171	-0.3807483
95	0x3ec9eb93	0.3943754
96	0xbecbd26f	-0.39808986
97	0xbed59092	-0.4171186
98	0xbefde22e	-0.49586624
99	0x3eda2f9e	0.42614454
100	0xbeb0a730	-0.34502554
101	0xbedf493f	-0.4361057
102	0xbf0db2f4	-0.55351186
103	0x3f0dfb46	0.5546154
104	0x3f073053	0.5280811
105	0xbe9508d8	-0.2910831
106	0x3ed261e2	0.41090304
107	0xbec812c5	-0.3907682
108	0xbf138889	-0.5763021
109	0x3f2d3562	0.6765958
110	0x3ef89954	0.4855448
111	0xbf79d50d	-0.97590715
112	0xbeedc397	-0.46438286
113	0xbf0e1ddd	-0.5551432
114	0x3ecc7e29	0.39940003
115	0x3edc441e	0.4302072
116	0xbeb9f8ab	-0.3632253
117	0xbed59474	-0.41714823
118	0xbf23aeb4	-0.6393845
119	0xbef4cc8f	-0.47812316
120	0xbf10dfe1	-0.5659161
121	0xbee076fa	-0.43840772
122	0x3eecd751	0.46258023
123	0xbed8153a	-0.42203695
124	0xbedd8422	-0.43264872
125	0x3f02e894	0.51136136
126	0xbf0ea0cd	-0.5571411
127	0xbedfd19e	-0.43714613
128	0x3f231592	0.6370479
129	0xbed513d5	-0.41616693
130	0xbf0b086b	-0.5430972
131	0xbec973a1	-0.3934603
132	0xbedb5576	-0.4283864
133	0x3ecb31a1	0.396863
134	0xbec444af	-0.3833365
135	0xbee31829	-0.4435437
136	0xbeec5d86	-0.46165103
137	0x3ef4851b	0.477578
138	0x3ed86287	0.4226267
139	0xbef3505b	-0.47522244
140	0x3ebc151e	0.3673486
141	0xbed53a4f	-0.41646048
142	0x3e835ae8	0.25655293
143	0x3ed81622	0.42204386
144	0xbedea06e	-0.43481773
145	0x3ed351db	0.41273388
146	0xbf011d04	-0.504349
147	0xbefec994	-0.49763167
148	0xbee32621	-0.44365028
149	0xbebe5631	-0.37175134
150	0xbefbf97d	-0.49213782
151	0x3ee08765	0.43853298
152	0xbf46557a	-0.77474177
153	0x3ecae203	0.39625558
154	0x3ee2ae27	0.44273493
155	0x3ee6cd1d	0.45078364
156	0xbf0e8be7	-0.55682224
157	0xbee58e7d	-0.44835272
158	0x3ec01b0f	0.37520644
159	0xbeb58591	-0.35453466
160	0x3ef9b4bd	0.48770705
161	0xbec52b47	-0.3850958
162	0xbeece5eb	-0.46269163
163	0x3ee83d3c	0.45359218
164	0x3eca31b9	0.3949106
165	0xbf5ae9d1	-0.85513026
166	0xbec7f1ef	-0.39051768
167	0x3f12f5f9	0.57406574
168	0xbefbc34f	-0.49172446
169	0x3ed49cfc	0.4152602
170	0xbeebea88	-0.4607737
171	0xbeddc653	-0.43315372
172	0x3eba6b9f	0.36410233
173	0xbf301af0	-0.68791103
174	0xbf0ab316	-0.54179513
175	0xbebae5e0	-0.36503506
176	0x3f17e88e	0.59339225
177	0xbec61de0	-0.38694668
178	0x3efa0697	0.48833153
179	0xbec08d23	-0.3760768
180	0xbecf2240	-0.40455818
181	0x3edeec30	0.43539572
182	0xbec85dab	-0.39133963
183	0xbead4427	-0.3384106
184	0x3eb7eccd	0.35922852
185	0xbebef24a	-0.37294227
186	0x3f0d3899	0.55164486
187	0x3ed3cd63	0.41367635
188	0xbf0d7c79	-0.55268055
189	0x3ee070b6	0.43835992
190	0x3ef4b9a9	0.47797897
191	0xbef2dcab	-0.4743398
192	0x3edd60cd	0.43237916
193	0xbf21087f	-0.6290359
194	0xbec56614	-0.38554442
195	0x3eeac4c4	0.45853245
196	0xbf197941	-0.59950644
197	0xbeb6b023	-0.35681257
198	0xbec32cdf	-0.3812017
199	0x3ed5ee34	0.41783297
200	0x3f02a524	0.51033235
201	0x3ec6f16f	0.38856074
202	0xbed18cf9	-0.40927866
203	0x3ef39db3	0.47581252
204	0x3eef85f1	0.46781877
205	0x3eb3f8d8	0.3515079
206	0xbea9d1ca	-0.3316787
207	0x3ee5afff	0.44860837
208	0xbebd7a3a	-0.37007314
209	0x3eb15ce9	0.34641197
210	0xbf0fa205	-0.561066
211	0x3f377b50	0.71672535
212	0xbed30b5a	-0.41219598
213	0x3f085ca6	0.5326637
214	0x3f0f614a	0.56007826
215	0x3ecf5492	0.4049421
216	0x3eb0ad5f	0.34507272
217	0xbeb74ba3	-0.35799894
218	0x3ee176f3	0.44036064
219	0x3ef843c4	0.484892
220	0x3ee4845e	0.44632238
221	0xbeb0bb64	-0.34517968
222	0xbee82980	-0.45344162
223	0x3f0392bc	0.51395774
224	0x3ee8dd25	0.4548122
225	0x3ef25b1c	0.47335136
226	0x3edbfa39	0.42964342
227	0xbee404ad	-0.44534817
228	0x3ed0c2d0	0.4077363
229	0xbf0b01d0	-0.5429964
230	0xbf025b8d	-0.50920945
231	0x3edc65b4	0.43046343
232	0xbeec51e5	-0.4615623
233	0xbf0a6374	-0.54058003
234	0xbeca3940	-0.39496803
235	0x3eaf6eec	0.34264314
236	0x3f0f6690	0.5601587
237	0x3ecaeaf1	0.3963237
238	0x3edf5f17	0.43627235
239	0x3eb98558	0.36234546
240	0xbec0cd00	-0.37656403
241	0x3ebdc4d4	0.3706423
242	0xbf062229	-0.52395874
243	0x3ed3488b	0.41266283
244	0x3ebb090d	0.36530343
245	0x3ed20873	0.4102207
246	0xbecfd9ed	-0.40595952
247	0xbf0940c6	-0.5361446
248	0xbf0e8f03	-0.5568697
249	0x3eb57224	0.35438645
250	0xbf4082f5	-0.75199825
251	0x3f462f10	0.7741556
252	0xbecc9e35	-0.39964452
253	0x3eb1b707	0.3470995
254	0x3f468ac9	0.7755552
255	0x3eddce4e	0.4332146

actor.0.weight f4 [256, 19]
0	0xbe0957f5	-0.13412459
1	0xbe0c67fc	-0.13711542
2	0x3e0e205c	0.13879532
3	0xbd97259b	-0.073802195
4	0xbcd6a4a0	-0.026201546
5	0x3ce4c2c8	0.02792491
6	0x3ecb2dae	0.39683288
7	0xbcd75be4	-0.026288934
8	0xbd89d0f8	-0.06729311
9	0x3de93b72	0.113882914
10	0x3e104fbf	0.1409292
11	0xbe5a3ed0	-0.21313024
12	0x3dabf3cc	0.0839611
13	0xbd1ad783	-0.037803184
14	0x3b3a8dd1	0.0028465877
15	0x3e28aa80	0.1647129
16	0xbde6da1e	-0.11272071
17	0x3e0d324c	0.13788718
18	0x3d8a5c9e	0.067559466
19	0xbd7d5126	-0.061844967
20	0x3e5545fd	0.2082748
21	0xbd11899e	-0.035531633
22	0xbc6c76ef	-0.014432653
23	0xbabeba00	-0.0014551282
24	0x3d663ec4	0.0562122
25	0xbee13591	-0.4398618
26	0x3e45c176	0.1931208
27	0xbdff5327	-0.12467032
28	0x3c4dc500	0.0125591755
29	0xbe60148d	-0.2188284
30	0x3df11066	0.11770706
31	0xbe65253b	-0.22377484
32	0xbe09b8af	-0.13449357
33	0xbca76a6e	-0.020436492
34	0x3d5fceb1	0.054640476
35	0x3dc3f12d	0.09567485
36	0x3d9f842f	0.07788884
37	0xbe2d4236	-0.16919789
38	0x3d3e4777	0.046454873
39	0x3dc1e8b3	0.09468212
40	0x3e18159c	0.14851993
41	0xbd8ea70d	-0.06965456
42	0x3e36bc61	0.17845298
43	0xbe63df9a	-0.22253266
44	0xbd695ee9	-0.05697528
45	0x3d7a4e26	0.061109684
46	0xbddd3fe2	-0.108032
47	0xbc958dea	-0.018256146
48	0xbe4defd6	-0.20111021
49	0x3e2d4d25	0.1692396
50	0xbcd0d66e	-0.025492873
51	0x3e51b260	0.20478201
52	0x3d2a281f	0.04154217
53	0x3cfbda79	0.030743824
54	0x3e21705e	0.15765521
55	0xbd9a56da	-0.07536097
56	0xbe8577a3	-0.26067838
57	0xbdc2c17b	-0.0950956
58	0x3d6728e6	0.05643549
59	0xbdb022c8	-0.08600384
60	0x3ca62118	0.020279452
61	0x3e2c795f	0.16843174
62	0xbe484b13	-0.19559889
63	0xbda98867	-0.0827797
64	0x3e04ac33	0.12956314
65	0xbdd0e786	-0.102004096
66	0xbd81e1c0	-0.063418865
67	0xbb3c0780	-0.0028690994
68	0x3e15f200	0.14643097
69	0x3cd729d2	0.026265059
70	0x3e9e4508	0.30912042
71	0x3c2f954d	0.010716748
72	0xbd3b856d	-0.04578154
73	0x3e232041	0.15930273
74	0xbd7e2660	-0.062048316
75	0x3d25d8fd	0.04049014
76	0x3e21091b	0.1572613
77	0xbd766ce7	-0.06016245
78	0xbbc68722	-0.0060585896
79	0x3d930fd1	0.07180751
80	0x3e01b93d	0.12668319
81	0xbdf567fe	-0.119827256
82	0xbc7316d6	-0.0148369875
83	0xbe20cd5f	-0.15703343
84	0x3e0a6b9b	0.1351761
85	0xbe5e5b28	-0.21714461
86	0xbe4faab3	-0.2027996
87	0x3e8afd46	0.27146357
88	0xbd70f44e	-0.058826737
89	0xbe09afd4	-0.1344598
90	0x3cf4681b	0.029834798
91	0xbcd114a1	-0.025522532
92	0x3e5242f6	0.20533356
93	0x3e2f1751	0.17098738
94	0xbc638409	-0.01388646
95	0x3d8c2ea2	0.06844832
96	0xbe000380	-0.12501335
97	0xbe413cf4	-0.18870908
98	0x3d8fd5c8	0.070231974
99	0xbca12228	-0.019669607
100	0xbe0ed4ce	-0.13948366
101	0x3e0906ff	0.13381575
102	0x3df8dea3	0.121518396
103	0xbe31e4da	-0.17372456
104	0x3d936c17	0.07198351
105	0xbda55fc0	-0.080749035
106	0x3ac5c276	0.0015087861
107	0x3e6853d7	0.22688232
108	0xbe5540eb	-0.20825545
109	0xbe518992	-0.20462635
110	0x39c8540d	0.00038209595
111	0xbe04c553	-0.12965898
112	0xbdeaa552	-0.114573136
113	0xbd06d4a3	-0.03291763
114	0xbd7408f8	-0.059578866
115	0x3e3197f3	0.1734312
116	0xbe1fa0b7	-0.15588652
117	0x3e387a9b	0.1801552
118	0xbe3d8987	-0.18509494
119	0xbe472746	-0.19448575
120	0xbe73ca93	-0.23807745
121	0x3e5d3c0a	0.21604934
122	0xbe29a418	-0.16566503
123	0xbe0ae8f3	-0.13565426
124	0x3dfc99aa	0.123339966
125	0xbe02e762	-0.12783578
126	0xbe78b3ab	-0.24287288
127	0x3e317c4f	0.17332576
128	0xbe738f92	-0.23785236
129	0xbcda7601	-0.026667597
130	0x3db4d7eb	0.088302456
131	0x3d439436	0.047748767
132	0x3e28b25d	0.1647429
133	0x3e45df79	0.1932353
134	0xbe520460	-0.20509481
135	0x3e5844c6	0.21119985
136	0xbdd62d2c	-0.104578346
137	0x3e076a79	0.1322421
138	0x3e3aa05d	0.18225236
139	0xbe993580	-0.2992363
140	0xbd8d6f79	-0.06906027
141	0xbc832dd4	-0.016013063
142	0xbdbc85fd	-0.09205244
143	0xbe3be955	-0.18350728
144	0xbd2f54df	-0.04280555
145	0x3e85fbb0	0.26168585
146	0x3e9076ca	0.2821563
147	0x3cc179b8	0.02361761
148	0xbe86914e	-0.26282734
149	0xbd013d6a	-0.03155271
150	0xbe276035	-0.16345294
151	0xbe21aaa8	-0.15787756
152	0x3c49e7f7	0.012323371
153	0x3d3e1194	0.046403483
154	0xbe26cd86	-0.16289338
155	0x3df3a9e3	0.11897638
156	0x3e41aa49	0.18912615
157	0xbe36a9a3	-0.17838149
158	0x3cddbcf4	0.027067639
159	0xbe375a97	-0.17905651
160	0xbe53341b	-0.20625345
161	0xbe341dbb	-0.17589466
162	0x3cee2a88	0.029073015
163	0xbe82467b	-0.25444397
164	0x3e6c6085	0.23083694
165	0xbdd67056	-0.10470645
166	0x3e671798	0.22567594
167	0x3e43e19d	0.19129033
168	0xbe5be822	-0.2147527
169	0x3dbfb2ab	0.0936025
170	0x3e5df375	0.21674903
171	0xbe155cc9	-0.14586176
172	0xbe5b15e6	-0.21395072
173	0x3dbe216f	0.09283721
174	0x3e20fd38	0.15721595
175	0xbe518635	-0.20461352
176	0xbe5e4936	-0.21707615
177	0xbe28c877	-0.16482721
178	0x3d40000d	0.04687505
179	0xbe441db8	-0.19151962
180	0xbc5feb40	-0.013666928
181	0xbe60b5d4	-0.21944362
182	0xbea181f0	-0.31544447
183	0x3b213f1c	0.0024604267
184	0x3d76d6a9	0.06026331
185	0xbcfd44c9	-0.030916588
186	0xbddb7239	-0.107151456
187	0xbdaef968	-0.08543664
188	0x3e3e917a	0.18610182
189	0x3e98fc41	0.29879954
190	0x3e0f59ca	0.13999096
191	0x3e1ffa1d	0.15622754
192	0xbe0ca846	-0.13736066
193	0xbe3514d0	-0.1768372
194	0xbe699cf6	-0.22813782
195	0x3ce56058	0.028000042
196	0xbdaebaa5	-0.08531693
197	0xbdc174e6	-0.09446125
198	0xbd94cb64	-0.07265356
199	0xbde2b838	-0.11070293
200	0x3e4e1f55	0.2012914
201	0xbeacf6cc	-0.3378204
202	0x3d8eedd6	0.06978957
203	0xbe590c8b	-0.21196191
204	0x3e53ee08	0.2069627
205	0x3e55e371	0.20887543
206	0x3d0f8640	0.03504014
207	0x3d2a7d52	0.04162342
208	0x3e2af0e2	0.16693452
209	0x3e496a49	0.19669451
210	0xbd0fa148	-0.03506592
211	0xbd48fb6e	-0.049067907
212	0x3e30d773	0.17269687
213	0x3de390fe	0.111116394
214	0x3e31c95b	0.17361967
215	0x3e979075	0.296024
216	0xbe00db31	-0.12583615
217	0x3e0ab6c9	0.1354629
218	0xbe4f8f19	-0.20269431
219	0xbe01acfa	-0.12663642
220	0x3d8ce9d7	0.06880539
221	0x3d62202a	0.055206455
222	0xba214bd8	-0.0006152964
223	0xbe13d426	-0.14436397
224	0x3d842b11	0.06453527
225	0x3e7d3997	0.24729
226	0x3da4ec6f	0.08052909
227	0xbe286fa8	-0.16448843
228	0xbe6cd432	-0.23127821
229	0xbb9fab43	-0.004872711
230	0xbe3712f0	-0.17878318
231	0x3a786452	0.0009475398
232	0x3e4be155	0.19910176
233	0x3d440b7c	0.047862515
234	0x3ea2421a	0.31691056
235	0xbd58956f	-0.052876886
236	0x3dd5bc2e	0.10436283
237	0x3e336a4e	0.17521021
238	0xbdbc7cda	-0.09203501
239	0xbe9921ea	-0.29908687
240	0x3e807377	0.25088093
241	0xbd120f05	-0.035658855
242	0xbe78ef48	-0.24310029
243	0x3df71c46	0.120659396
244	0x3e8e0c73	0.27743873
245	0x3e10f7cb	0.14157026
246	0x3e688c4b	0.22709768
247	0x3e1950d4	0.1497224
248	0x3e07b245	0.13251598
249	0x3d123f02	0.03570462
250	0xbe74f8a7	-0.23922978
251	0x3dfcd91e	0.12346099
252	0x3de949a6	0.113910004
253	0x3ee98071	0.45605806
254	0x3df24225	0.11829022
255	0xbe390b1c	-0.18070644

actor.0.bias f4 [256]
0	0xbc198070	-0.009369001
1	0xbd12200b	-0.03567509
2	0x3dcfcf38	0.10146946
3	0xbdf73245	-0.12070135
4	0xbd53ff1f	-0.051756974
5	0x3e1907e9	0.14944424
6	0x3ddf82c8	0.109136164
7	0x3e291e53	0.16515474
8	0xbc995888	-0.018718973
9	0xbc884d2c	-0.01663836
10	0x3e1c1cc4	0.15245348
11	0xbde89844	-0.11357167
12	0x3db111d1	0.08645976
13	0x3c526bd8	0.012843095
14	0x3cab9e8f	0.02094963
15	0x3e015247	0.12629043
16	0xbd96829a	-0.07349129
17	0xbd11cb1f	-0.035594102
18	0x3d4a6f26	0.049422406
19	0x3db4c0dc	0.088258475
20	0x3df4c138	0.11950916
21	0xbe1266f1	-0.14297082
22	0xbe21fc53	-0.1581891
23	0xbc3517e6	-0.011053061
24	0x3df93809	0.12168891
25	0x3de01dcc	0.10943183
26	0x3d64cbef	0.05585855
27	0xbe0166e0	-0.126369
28	0x3db3fc8c	0.08788404
29	0xbd8abcf1	-0.06774319
30	0x3d166a70	0.0367226
31	0x3e45c54c	0.19313544
32	0x3e2261ac	0.15857571
33	0xbdff0273	-0.12451639
34	0x3d484334	0.048892215
35	0x3d7312a5	0.059343953
36	0xbd18d645	-0.03731372
37	0xbd08cda9	-0.033399258
38	0xbdf08fd2	-0.117461815
39	0x3dd259b9	0.102710195
40	0xbe4ce59b	-0.20009463
41	0x3d585d32	0.052823253
42	0xbde803aa	-0.11328824
43	0xbda0c293	-0.07849612
44	0x3dfb08ed	0.12257562
45	0xbc945073	-0.018104767
46	0xbd58ad0e	-0.052899413
47	0xbe063288	-0.13105214
48	0xbd8c2052	-0.06842102
49	0x3deb00f3	0.114747904
50	0x3e1e9f7a	0.15490523
51	0x3e197694	0.1498664
52	0x3e67a864	0.2262283
53	0xbcb7e539	-0.022448169
54	0x3bf4500d	0.007455832
55	0xbda5ffd0	-0.08105433
56	0xbe0d8504	-0.13820273
57	0x3dfbd7b6	0.12297003
58	0x3d839cd5	0.06426398
59	0x3df36829	0.11885101
60	0x3e046b53	0.12931566
61	0xbdc02494	-0.09381977
62	0xbe3e09d0	-0.1855843
63	0xbe9c1158	-0.30481982
64	0xbe399bba	-0.18125811
65	0x3cbabdb1	0.02279553
66	0x3e280493	0.16407995
67	0xbd440c59	-0.04786334
68	0x3decf755	0.11570612
69	0x3d87018e	0.065920934
70	0x3e58e5f9	0.21181478
71	0x3de76e4d	0.11300335
72	0x3e78be54	0.24291354
73	0x3e356a57	0.17716347
74	0x3d8b6665	0.068066396
75	0x3e1c60b5	0.15271266
76	0x3e2fc910	0.17166543
77	0x3e1db0cc	0.15399474
78	0xbd6713fd	-0.056415547
79	0x3db5a9be	0.088702664
80	0x3dac8feb	0.08425888
81	0xbe4d7b01	-0.20066454
82	0x3d9beef9	0.0761394
83	0x3bcb44af	0.006203256
84	0xbdb54e81	-0.08852864
85	0x3c945867	0.01810856
86	0x3dcbfb7b	0.099600755
87	0x3c2587d5	0.010103186
88	0x3e2602ee	0.16212055
89	0x3e52277a	0.20522872
90	0x3dcf4222	0.10120036
91	0x3c08ab80	0.00834167
92	0x3e0dca4a	0.13846698
93	0xbd9935fd	-0.074810006
94	0x3e566287	0.20936023
95	0xbc554fea	-0.013019541
96	0xbdda30fc	-0.10653874
97	0xbe3adc82	-0.1824818
98	0xbae4b6f3	-0.0017449543
99	0x3ddeb026	0.108734414
100	0xbc2e3a71	-0.010634051
101	0xbddc76ce	-0.10764848
102	0xbe14defc	-0.14538187
103	0x3c69c7de	0.014268843
104	0x3c351fd3	0.011054951
105	0x3cc5817d	0.024109596
106	0x3df24f5b	0.11831542
107	0x3e0be9df	0.13663433
108	0x3d503ae8	0.050837427
109	0xbe1c565d	-0.1526732
110	0xbd73727f	-0.059435364
111	0x3d3e174b	0.046408933
112	0x3d8d817b	0.06909462
113	0x3e67dc76	0.22642693
114	0xbb0e4f5e	-0.0021714787
115	0xbe1e5fad	-0.15466185
116	0xbe28df95	-0.1649154
117	0xbd36bfb6	-0.044616424
118	0x3d5411c4	0.051774755
119	0x3da5380f	0.08067333
120	0xbe4e71a6	-0.20160541
121	0x3df44f30	0.11929166
122	0xbe326964	-0.17423016
123	0x3e0fb8d5	0.14035352
124	0xbd0da197	-0.034577932
125	0x3d6dd488	0.058064014
126	0x3d2d1748	0.04225853
127	0xbd2f24bf	-0.042759653
128	0xbde5ca08	-0.11220175
129	0x3e3c62f6	0.18397126
130	0x3e38ef30	0.18059993
131	0x3de9d967	0.11418419
132	0xbe4cd345	-0.20002468
133	0x3ca621f1	0.020279856
134	0x3e4160ca	0.18884578
135	0x3e2cd4b1	0.1687801
136	0x3ddf08af	0.10890328
137	0xbe3cd5fd	-0.18441005
138	0xbd919725	-0.07108907
139	0x3d921426	0.07132749
140	0x3d6e92fe	0.05824565
141	0x3e423744	0.18966395
142	0x3b3e4713	0.0029034063
143	0xbde85a12	-0.113453045
144	0x3d9d0f69	0.07668955
145	0xbe52a287	-0.20569812
146	0xbc9f6480	-0.019457102
147	0x3df50ec5	0.11965708
148	0x3e11e3f9	0.14247121
149	0xbdbac385	-0.09119324
150	0xbd0134fb	-0.031544667
151	0xbe5ee382	-0.21766475
152	0xbd998212	-0.07495512
153	0x3e2f2edf	0.17107724
154	0xbdad861d	-0.08472846
155	0xbe0d2ab0	-0.13785815
156	0xbe30c992	-0.17264393
157	0xbe52da13	-0.20591001
158	0x3d89d2a8	0.067296326
159	0xbe2e5426	-0.17024288
160	0xbd4d2f26	-0.050093792
161	0x3e4a6b4d	0.19767494
162	0xbd9a0bb4	-0.075217634
163	0x3e55675c	0.2084021
164	0xbe01bac8	-0.12668908
165	0xbe410b72	-0.18852022
166	0xbd60287d	-0.054726113
167	0x3dcfd12e	0.1014732
168	0x3e3c3979	0.18381299
169	0x3e1ddbd5	0.1541589
170	0xbe012ebf	-0.12615488
171	0xbe0bc7bf	-0.13650416
172	0xbc5bb208	-0.013409145
173	0x3e3fc5c1	0.18727781
174	0xbe32f100	-0.17474747
175	0xbd2c494d	-0.042062093
176	0xbe2191db	-0.15778296
177	0x3c9244f7	0.01785515
178	0xbd9fc0cc	-0.07800445
179	0x3e0a4461	0.13502647
180	0x3d048f56	0.03236326
181	0x3e51ab32	0.20475462
182	0xbe38c739	-0.18044747
183	0xbda77837	-0.08177226
184	0xbd53be4e	-0.05169516
185	0xbdb1c7c0	-0.086806774
186	0x3e0b7db8	0.13622177
187	0xbe761bed	-0.2403409
188	0xbdf2aa68	-0.11848909
189	0x3e1d5f6a	0.15368429
190	0xbe638256	-0.22217688
191	0xbe47b04f	-0.1950085
192	0x3c72b1f9	0.01481294
193	0x3d90c648	0.07069069
194	0x3d81a4e3	0.06330278
195	0x3e3ae925	0.18253
196	0xbcda18ea	-0.026623208
197	0xbe25f81e	-0.1620793
198	0x3d82f1fa	0.063938096
199	0x3d31e6ba	0.04343293
200	0x3e115f9f	0.14196633
201	0x3d794d37	0.060864653
202	0x3dd70f2d	0.105009414
203	0x3dd3e132	0.10345687
204	0x3c3025b4	0.010751177
205	0xbe19d9b5	-0.15024455
206	0xbe2dcfdc	-0.16973823
207	0xbe035946	-0.12827024
208	0xbd92aa89	-0.07161433
209	0x3d3ac6b3	0.04559965
210	0xbdefbb54	-0.11705652
211	0x3dfea537	0.12433856
212	0x3e1dc2d7	0.15406357
213	0x3e296588	0.16542637
214	0x3dfe82de	0.12427305
215	0xbc005190	-0.007831946
216	0x3d8f285f	0.06990122
217	0x3da5dd75	0.0809888
218	0x3e5c8798	0.215361
219	0xbdff5c76	-0.124688074
220	0xbe1c4756	-0.15261588
221	0x3e0f44bb	0.13991062
222	0xbd38f599	-0.045156095
223	0x3db994b7	0.09061568
224	0xbe596279	-0.2122897
225	0x3e5413e6	0.20710716
226	0x3e20937c	0.15681261
227	0xbc9d977b	-0.01923727
228	0xbc681c0c	-0.014166843
229	0xbda4b627	-0.08042555
230	0xbdf944ba	-0.12171312
231	0xbdbb0b49	-0.09133012
232	0xbe6bb805	-0.23019417
233	0xbe0d39bb	-0.13791554
234	0xbe2d4f3e	-0.1692476
235	0xbc3e3627	-0.011609591
236	0xbe12ec51	-0.1434796
237	0xbe096f02	-0.13421252
238	0x3e3e2952	0.1857045
239	0x3bb79b46	0.005603227
240	0x3daac19b	0.083377086
241	0x3dbe9d1d	0.09307311
242	0x3d5f3028	0.054489285
243	0x3e53bb06	0.20676813
244	0xbc8a5c5e	-0.016889747
245	0x3df7cd15	0.12099663
246	0xbdc3971f	-0.095503084
247	0x3e213d69	0.15746082
248	0x3da605e1	0.0810659
249	0x3e17aa3a	0.1481103
250	0xbdf19e63	-0.11797788
251	0xbd99ee6b	-0.07516178
252	0x3e639b91	0.22227313
253	0x3d2aef4d	0.04173212
254	0x3e037992	0.12839344
255	0xbe7d6556	-0.24745688
