models/mec_policy_ep8000.pth (torch, 576658 bytes, 11 tensors)

critic.0.weight f4 [256, 19]
000000 22 95 22 be d4 b8 3d 3e 55 53 a5 bd 09 c6 04 bd
       -0.15877202 0.18527538 -0.08072535 -0.032415424
000010 96 1d 41 be 4e 60 df 3d cd 4a ed be 70 e7 53 be
       -0.18858942 0.109070405 -0.4634613 -0.20693755
000020 98 a7 fb 3e 32 4c a6 3e 65 40 37 3e b6 da 46 3d
       0.491513 0.32480007 0.17895658 0.048548423
000030 a5 2c 15 bd 8c 10 69 3e 57 ed 4e be 69 1c ba bd
       -0.03641953 0.22760218 -0.20207725 -0.0908745
000040 69 62 bb bd aa 04 02 3e 47 da 14 be b0 14 19 3e
       -0.091496296 0.12697092 -0.14536391 0.14949298
000050 4b ca d7 bd a4 91 4f be f8 eb 0e 3e d6 f1 f3 3d
       -0.10536631 -0.20270401 0.13957202 0.11911361
000060 20 a3 5d bd f1 fb 11 3f 7c e8 05 3b 00 7e 2a be
       -0.054110646 0.5702506 0.002043276 -0.16649628
000070 c0 fa 11 be 00 db 50 bd ef 3a f1 3e 29 d0 1e be
       -0.1425581 -0.050990105 0.47115275 -0.15509094
000080 1f d5 4d be 85 92 04 be be 32 5a 3d 7a 0d 92 3c
       -0.2010083 -0.12946518 0.053271048 0.017828692
000090 52 f2 d4 3d 88 69 2e 3e ed 56 f3 bd 4c b9 a1 3e
       0.103977814 0.17032444 -0.11881814 0.31586683
0000a0 a1 a4 41 bc 4d 01 90 bc 00 32 f4 39 a7 41 69 be
       -0.011819036 -0.017578745 0.0004657656 -0.2277895
0000b0 9c cb fb 3e 4d 34 b8 3d 36 43 e2 be 24 c9 27 3e
       0.4917878 0.089943506 -0.44191903 0.16385323
0000c0 0d 6e 00 3e 86 9e a7 bd e5 72 17 3c 7d 64 28 3d
       0.12541981 -0.08184533 0.009243702 0.041111458
0000d0 84 bc 94 3d e1 c4 6f bc d2 67 4d 3e 2a 6d fe bc
       0.07262519 -0.014634342 0.20059136 -0.031057913
0000e0 ba a7 de bd cd 5a d8 3d e4 c8 8d 3d 81 15 79 be
       -0.10871835 0.10564194 0.069230825 -0.2432461
0000f0 dc e5 c1 bc b0 c5 57 3c 46 18 41 be be b1 8f be
       -0.023669176 0.013169691 -0.18856916 -0.28065294
000100 3f c2 19 ba ee e5 ed 3e 52 bb 85 bd 63 2a 10 3e
       -0.0005865432 0.46464485 -0.06529869 0.14078669
000110 b1 22 08 3f 95 6e 31 be 03 e4 ef bd 72 20 b9 3d
       0.53177935 -0.1732734 -0.11713412 0.090393916
000120 b8 80 04 be 03 4f e4 3d bc e0 c0 3c 7a dd 01 3e
       -0.12939727 0.11147883 0.023544662 0.12682143
000130 51 9c 93 3d 5b 52 9c bd 4b 55 11 be f3 07 cf bc
       0.07207549 -0.076328956 -0.14192693 -0.025272345
000140 9f 12 f4 bd 7f 60 5b 3e 04 cc 48 3f c3 20 dd 3c
       -0.11917614 0.21423529 0.78436303 0.026993161
000150 a4 84 6c 3e 32 de bd 3d a4 7e 76 3d 66 09 fc 3e
       0.23097473 0.09270896 0.060179368 0.4922592
000160 f0 45 f5 3d 1d c2 85 3d d0 7d 40 be a3 ff ad bb
       0.1197623 0.06531165 -0.18797994 -0.0053100153
000170 4b ab 1d 3e f9 01 8f bd 1d 29 6f 3d 23 89 69 be
       0.15397374 -0.06982798 0.058388818 -0.2280622
000180 76 67 94 bd 66 9e 81 3c e4 c2 da 3d e0 02 9c bc
       -0.07246296 0.0158226 0.10681704 -0.01904434
000190 f4 3e 79 3d 36 bb d8 be 7c 90 56 be 7a 54 29 be
       0.060851052 -0.4233033 -0.20953554 -0.16536132
0001a0 5c bc 61 3e 13 20 22 3e b5 da 43 3f 39 7c 87 be
       0.2204451 0.15832548 0.76505595 -0.26461962
0001b0 51 9c 44 3e 5c b6 44 be d8 08 15 be 90 45 88 bd
       0.19200255 -0.1921019 -0.14554155 -0.06653893
0001c0 1f a0 75 be 88 a2 50 3c 21 5d 90 bd ed 75 fe bd
       -0.23986863 0.012734063 -0.07049013 -0.12424836
0001d0 94 68 1b be be bc f6 3d 10 8e 03 be 19 42 33 3e
       -0.15176612 0.120477185 -0.12847161 0.17505683
0001e0 7d 2f 37 3f 32 e6 30 3e 3b 73 3d 3e 83 59 b3 3c
       0.71556836 0.17275313 0.18500988 0.021893268
0001f0 cc 42 a5 bd 3e f4 97 3d 60 4f 24 be c8 d7 34 be
       -0.08069381 0.074196324 -0.16045904 -0.17660439
000200 9e 86 56 be 47 4c 20 3e 77 77 be bd 39 c2 0b be
       -0.2094979 0.15654097 -0.0930013 -0.13648309
000210 77 0c 4c be bb 30 2d 3e 55 60 0b 3d 9d f8 bf 3d
       -0.1992663 0.1691312 0.034027416 0.09373591
000220 ba 37 c8 3d 12 eb 0e be ba 59 3b be 2a 98 cc be
       0.09776254 -0.1395686 -0.18295947 -0.39959842
000230 9b 2b 6e 3e 86 19 33 3e 82 0f 5d 3e f3 32 45 3e
       0.23258822 0.17490205 0.21587947 0.19257717
000240 b8 fd 9f 3e f6 94 f6 bd 37 14 87 3e b1 f3 0f be
       0.3124826 -0.12040131 0.2638261 -0.14057805
000250 c6 0b 99 bd cd 5e 36 bd 92 ca 17 be 8f 58 00 3e
       -0.07472949 -0.044524003 -0.14823368 0.12533782
000260 2b d1 f4 bd a0 f6 b2 be ce f3 c8 3c 07 76 49 be
       -0.11953958 -0.34953785 0.024530318 -0.1967393
000270 a8 70 c9 bd b4 33 4a 3d 6e d4 fc 3e 29 10 78 bd
       -0.098359406 0.049365714 0.4938082 -0.060562287
000280 5d d2 5b 3e e9 b7 5f bd 8c cb 78 bd db 60 0c 3f
       0.21466966 -0.05461875 -0.060740992 0.5483529
000290 f2 6b a0 3b 7a a2 a9 be 9f 43 40 3e 10 41 07 be
       0.0048956806 -0.33131772 0.18775795 -0.13208413
0002a0 af f4 f4 bd 9c e3 97 be ae 25 f9 bb 6c d1 3d 3d
       -0.11960732 -0.2966584 -0.0076033687 0.0463423
0002b0 4c 7c 59 be 33 06 57 be 98 ec d9 bc 9d 93 66 be
       -0.21238822 -0.20998459 -0.026602075 -0.22517247
0002c0 3b 35 64 be 88 3e a3 be 23 aa bf be 24 4c 66 be
       -0.22285931 -0.31883645 -0.37434492 -0.22489983
0002d0 e2 4c 50 3b 49 cc 2a 3e 4a fb b4 3e ed b8 63 3e
       0.0031784107 0.16679491 0.35347968 0.22238512
0002e0 8b 61 65 be 2b dd 46 3d a5 ce 04 be 07 7f 3a be
       -0.22400491 0.048550766 -0.12969454 -0.1821252
0002f0 72 c3 77 3d 9e b0 9d 3d 48 f9 a0 bd a3 0e 82 bd
       0.060489126 0.07699703 -0.078600466 -0.06350448
000300 3b b5 00 3e 27 48 56 bd e8 eb 94 3c ed 26 66 be
       0.12569134 -0.052314904 0.018178895 -0.22475787
000310 b9 77 ac 3e a0 9f 24 be f7 3f e9 be 59 95 40 be
       0.3368509 -0.16076517 -0.45556614 -0.18806972
000320 2c a1 0c be cb d8 d4 be a0 83 1f bd ff ec 9c 3e
       -0.13733357 -0.4157165 -0.038943887 0.30649564
000330 08 06 f5 3d a2 63 fe bb a4 62 0c 3d b8 d5 39 3e
       0.11964041 -0.007763342 0.03427376 0.18147933
000340 77 40 04 3e d7 ff 92 3d e0 72 e1 3d 94 b2 58 bd
       0.12915216 0.07177704 0.11008239 -0.05290468
000350 88 3c 3b 3e 18 8c 34 bd 7c 40 1b be 63 3f 17 3f
       0.1828481 -0.044078916 -0.15161318 0.59081095
000360 5b c2 2f be 50 b6 75 bd 2d b4 81 be ca 75 65 be
       -0.17163984 -0.05998832 -0.25332776 -0.22408214
000370 a7 8b 39 bf 29 24 2e 3e ce 1d ad 3d cd 2e 7d bd
       -0.7247872 0.17005982 0.084529504 -0.06181221
000380 87 8e 0b be e5 a0 2c be c6 37 a4 3d 70 04 5d 3e
       -0.13628589 -0.16858251 0.080184504 0.21583724
000390 72 ca d1 3d b6 0b be bd fe c9 03 be ba a4 28 3e
       0.102436915 -0.092795774 -0.12870023 0.16469088
0003a0 2e 36 b3 3d 4a 31 a1 3d 3a 91 01 bf 0d 84 69 be
       0.08750568 0.07870729 -0.50612223 -0.2280428
0003b0 a1 20 fd 3c 56 9b de bd d8 f5 f4 3c 94 08 23 3f
       0.030899348 -0.10869472 0.029902384 0.63684964
0003c0 78 80 48 3d 0f 8e 90 3e 2b 95 97 be a1 be 43 3d
       0.048950642 0.28233382 -0.29605994 0.04778922
0003d0 e3 58 79 be 05 64 f8 bd 68 6d 19 be 90 87 34 be
       -0.24350314 -0.12128452 -0.14983141 -0.17629838
0003e0 05 c6 12 3e a1 bc d3 bd 6f c5 af 3d 88 17 88 3c
       0.14333351 -0.103387125 0.08582579 0.016612783
0003f0 c7 27 2d 3e 52 94 24 bf d9 aa 22 3e 08 68 16 3e
       0.16909705 -0.6428882 0.15885486 0.14688122

critic.0.bias f4 [256]
000000 16 cd 9c 39 28 75 4d 3e 55 f0 3a be dd 76 12 3e
       0.0002990744 0.20064223 -0.18255742 0.14303155
000010 3b 4c 83 bd 0e 68 7b 3e 75 fd 3d 3e 85 08 9e 3d
       -0.06411024 0.24551412 0.18553717 0.07716469
000020 b1 90 c7 3d 1e 6c 59 be 8c 42 3e be c0 65 69 3d
       0.097443946 -0.2123265 -0.18580073 0.056981802
000030 6f f1 2a be aa 4f 7f 3e 01 0c f1 3d 62 48 6c 3c
       -0.16693662 0.24932733 0.11769868 0.014421554
000040 a7 1f a2 bc e9 bf 11 be 10 81 29 be 35 9e 14 3e
       -0.019790484 -0.14233364 -0.1655314 0.14513476
000050 fd d8 03 be 78 c8 64 3c b1 86 89 3d 9c 92 04 be
       -0.12875743 0.013963811 0.067151435 -0.12946552
000060 a7 f9 05 bd 38 56 c2 bd 9e ad 82 be 2f 6d c2 3c
       -0.03270879 -0.09489101 -0.25523084 0.023733703
000070 81 77 44 3e 63 1e 04 be 30 90 ac bd 5b d4 54 bd
       0.19186212 -0.12902217 -0.08425939 -0.05196033
000080 d7 79 6c 3e 6c 08 24 3c e6 c1 7c 3d 99 5d 4c bd
       0.23093353 0.010011774 0.061708353 -0.04989395
000090 9a c2 06 3e 7d ba ec bd 59 f0 cb 3d 06 72 a3 bd
       0.13160172 -0.11559007 0.09957952 -0.079807326
0000a0 7c f0 0a 3e 00 03 11 be 96 cc 37 3e 9e c2 c8 bd
       0.135683 -0.141613 0.17949137 -0.09802745
0000b0 bc 22 f6 3d 0d 03 a9 3d 75 94 62 bd 80 1c 29 3d
       0.12018344 0.08252535 -0.05531736 0.041286945
0000c0 64 c9 bf 3d ab 7b c0 3d 9e 61 10 be b8 9a bc bd
       0.09364584 0.09398588 -0.14099738 -0.09209198
0000d0 b1 1a 2e 3d f3 87 8d bb e8 0c 4e be d2 72 8b 3d
       0.042505924 -0.004319185 -0.20122111 0.068090096
0000e0 2e 14 13 be ce 24 14 3d ef 3d aa bd 14 b4 2f 3e
       -0.14363167 0.036167912 -0.08312594 0.17158538
0000f0 e5 fc 0d 3e 12 8a c8 bd f5 7b 78 3e 20 2b 00 3e
       0.13866003 -0.0979196 0.24266036 0.12516451
000100 3e 1a 03 bd 76 03 01 be 7d 89 8b 3d 1f 01 42 3e
       -0.03200745 -0.12598976 0.06813333 0.1894574
000110 bb d4 96 bd 2d 1a 88 bd 0b b2 e9 bd f0 1e 1c 3e
       -0.07364794 -0.06645618 -0.11410912 0.15246177
000120 e1 45 c7 ba 4b cf 06 bd bf b7 01 3e bb c7 be bd
       -0.0015203321 -0.032912534 0.1266775 -0.09315439
000130 3f ea 13 be 03 58 23 3e 6c 38 b2 bd 0d b0 23 3e
       -0.14444827 0.15951543 -0.08702168 0.15985127
000140 f7 ad 09 bd 68 8d 17 3e 56 1a 6f 3e 8a 11 43 3b
       -0.03361317 0.14800036 0.2334989 0.0029765093
000150 e2 7c 9f bd 82 a1 80 3e ae cc c3 bd a2 76 b4 3d
       -0.077874914 0.2512322 -0.09560524 0.0881169
000160 2d ee ae bc 99 c2 cc bd 44 86 f2 bd 92 e1 77 3c
       -0.021353805 -0.09998054 -0.118420154 0.015129464
000170 0f ed 11 be 62 08 be bc 28 82 ca 3d 0e e7 a3 bc
       -0.14250587 -0.023197357 0.098881066 -0.020007636
000180 d1 8a 0c 3e 34 0e 4c be 1e 39 ca 3d 66 f7 33 be
       0.1372483 -0.19927293 0.098741755 -0.17574844
000190 c6 a4 19 be a7 cf 02 3b 40 60 e2 3d 0b 55 07 be
       -0.15004262 0.0019960196 0.110535145 -0.13216035
0001a0 20 3c 0a be 10 10 d8 3d d0 7d 48 bd 93 39 74 3c
       -0.13499498 0.10549939 -0.04894811 0.014906305
0001b0 76 ce 2e 3d de 5c 3c be 66 7c d0 bd 1e 8c ee 3d
       0.042677365 -0.18394801 -0.10179977 0.11647819
0001c0 6f 62 d1 3d 8f 79 3e 3e c9 23 07 3e 01 bb 65 be
       0.10223853 0.18601058 0.13197245 -0.22434618
0001d0 3e bc 99 3d 0b 31 ac bd e0 9f 0e 3c 92 7b 00 be
       0.075066075 -0.08407792 0.008705109 -0.12547138
0001e0 bd 93 08 be 9e 1b ac 3d 42 4c 37 be a1 80 0c 3d
       -0.13337608 0.08403705 -0.17900184 0.034302358
0001f0 1c f3 12 3e e0 1d 62 be c8 83 80 3d 0d d8 ac 3d
       0.14350551 -0.22081709 0.06275135 0.08439646
000200 44 3d a2 bd 5c 64 0d 3e 5e 8d a8 3d 5b a5 07 be
       -0.07921842 0.13807815 0.08230089 -0.13246672
000210 28 53 3a bb 56 e1 4f 3c f2 76 c0 3d a4 f1 9c bd
       -0.0028430913 0.012688002 0.09397687 -0.07663277
000220 28 5f c1 3c 21 9e 85 3d a3 fe 4b 3e ff 05 8c 3d
       0.023604944 0.06524301 0.19921355 0.06837081
000230 51 45 b2 3d c9 ab cb 3d fc 3d 25 bc 2d 25 ff bc
       0.08704627 0.09944875 -0.010085579 -0.031145656
000240 35 f1 ae bd c5 2f d1 bd f4 ad 5e 3a 83 11 f6 3d
       -0.085421 -0.102141894 0.0008494549 0.12015059
000250 55 c6 1c be b2 eb 3c bd c2 66 5d be 6b 65 44 be
       -0.15310033 -0.046123214 -0.2162123 -0.19179313
000260 d5 9f aa bd f8 3e 4b 3e aa 4e 2b be 5f 6f ed bd
       -0.08331267 0.1984824 -0.16729227 -0.11593508
000270 c9 61 0c 3e 4e b6 92 3d d1 f8 2d 3e 27 50 00 be
       0.13709177 0.07163678 0.16989447 -0.12530576
000280 0f 6f 90 3e a2 f1 09 3c b8 ff 05 bd 99 0e fc 3c
       0.2820973 0.008419426 -0.032714576 0.03076868
000290 9a 93 71 bd 75 a8 22 be aa c5 a8 bd 62 0a 82 bb
       -0.058978654 -0.15884574 -0.082408264 -0.003968523
0002a0 0c 3f 77 bd 7b f7 a6 bd a1 95 53 bd e7 0c 69 3e
       -0.06036286 -0.08152672 -0.05165637 0.22758828
0002b0 37 8c 3c bc f1 a4 3b 3e 84 e9 01 be de 60 2d 3e
       -0.011508039 0.18324639 -0.12686735 0.16931483
0002c0 e0 a4 4c bd 8e 3b 62 3d 1f a2 0f bd 2d 51 63 bd
       -0.049961925 0.055232577 -0.03506672 -0.055497337
0002d0 9a b7 c2 bb 28 fe c5 bd 10 4a f0 3d 06 f4 b9 bc
       -0.005942297 -0.09667617 0.11732876 -0.022699367
0002e0 73 9e 4f be 49 0b eb 3d 22 a9 32 be 18 b2 01 be
       -0.20275287 0.11476762 -0.17447332 -0.12665594
0002f0 dd f4 1d be c3 7c 0d be b9 de da bd d1 b1 5d 3d
       -0.15425439 -0.13817124 -0.10687012 0.054124657
000300 3d 6e b7 3d 15 db 03 3e 8c 12 8a 3e 46 8e e1 bd
       0.08956573 0.12876542 0.26967275 -0.11013465
000310 b4 0f 49 3e cf 7b 62 3e 36 d4 59 3e 07 a1 4b bd
       0.19634897 0.22117542 0.21272358 -0.049714115
000320 92 1e 23 be 56 45 22 bc 42 ea 48 bd 77 84 56 bd
       -0.1592963 -0.009904226 -0.04905153 -0.052372422
000330 a5 8e bc 3d a1 ad 27 3d ad 61 07 be 66 ed 11 3e
       0.09206895 0.04093707 -0.13220854 0.14250717
000340 5a 36 92 bd b3 6f 13 3e d6 16 02 3e 49 ab 14 3e
       -0.07139273 0.14398079 0.12704024 0.14518465
000350 fd 1d 9c bc 22 4e 88 bd f7 75 03 3e c0 1e 3d 3e
       -0.019057268 -0.06655528 0.12837969 0.18468761
000360 e9 35 1b 3e 79 14 28 3e 85 72 85 3d e8 f2 3b 3e
       0.15157284 0.1641406 0.065159835 0.1835438
000370 7f fa 91 3d f4 3c c0 bd 27 cc 4d 3d 5a ca 61 bc
       0.071278565 -0.09386626 0.050243523 -0.0137811545
000380 5a 54 5b be 9c ad 38 3e 48 bb aa 3d c0 5b 40 3e
       -0.21418896 0.18034977 0.08336502 0.18785
000390 85 60 5b 3e 83 6e f3 3d 53 92 38 3e f5 c7 f8 bd
       0.21423538 0.11886313 0.18024568 -0.12147514
0003a0 9c 82 a3 bd 0e 33 80 3e 8e d7 23 be 1d 97 f8 bc
       -0.07983896 0.25038952 -0.16000196 -0.030345494
0003b0 20 a0 e9 3d a3 a8 9c bd bf c8 80 be 81 c3 86 3a
       0.114074945 -0.076493524 -0.25153157 0.0010281653
0003c0 61 75 23 be 77 09 42 be b5 c8 13 3e ba 4d 35 be
       -0.15962745 -0.18948923 0.14432032 -0.17705432
0003d0 1f 01 6f be c9 69 3c be df fb 13 bd 75 87 ee bc
       -0.23340271 -0.18399729 -0.036128875 -0.029117325
0003e0 e8 5e 66 be 41 da 2c 3e 2e 9c 17 be 0b 16 53 be
       -0.22497141 0.16880132 -0.14805672 -0.20613877
0003f0 55 fd 4a 3e a9 5b 79 be c9 bc 13 3e d6 54 2e 3e
       0.19823201 -0.24351372 0.14427485 0.1702455

critic.2.weight f4 [256, 256]
000000 cd b8 ab be 4b 9c 8d 3b e7 9c 94 3e 4c 5d 07 be
       -0.3353943 0.00432161 0.29025957 -0.13219184
000010 df 5b c5 bc bb 82 24 bf 12 2c 75 bd 50 88 03 be
       -0.02409166 -0.6426198 -0.05985648 -0.12844968
000020 98 18 92 bc e0 53 57 bc 87 22 fb 3d c8 e7 3a 3e
       -0.017833993 -0.013142556 0.12262445 0.1825248
000030 a4 31 2b be 62 cb a4 bd f5 02 22 3c a5 a0 a6 be
       -0.16718155 -0.08046605 0.0098884 -0.32544437
000040 a4 b4 cd 3e 20 b8 66 bd 52 18 8e bd c7 c6 7c 3e
       0.4017688 -0.05632794 -0.069382325 0.24685203
000050 25 ce 53 3e 9a fa ae 3e 6d 74 70 3e 8a 2b e8 bc
       0.20684107 0.3417557 0.23481913 -0.028341074
000060 49 8a 50 3d 84 82 91 3d 23 cf 20 3e 70 84 46 3d
       0.05091313 0.07104972 0.15704016 0.048466146
000070 f1 36 17 3e 4a 89 67 be 9a de cd be 26 04 0d be
       0.14767052 -0.22610965 -0.40208894 -0.13771114
000080 1f cd 86 be 3b d4 14 3e de 69 74 be ea 89 be 3d
       -0.2632837 0.14534084 -0.2386851 0.09303649
000090 9f e9 2d bd d8 71 00 be bc 46 ab bd 82 5e 85 3e
       -0.042459127 -0.12543428 -0.08363101 0.26048666
0000a0 6a b7 79 3c f3 8e b7 3e 2c 99 d6 be 29 e8 fc bc
       0.015241483 0.3585125 -0.41913736 -0.030872421
0000b0 e3 91 ce bc bf e6 6f 3e be c0 30 be 40 23 66 be
       -0.025216049 0.23427866 -0.17261025 -0.22474384
0000c0 26 70 b9 3e c3 7e 1e 3e 40 a9 15 3d 6c b0 08 3f
       0.36218375 0.15478043 0.036538363 0.533942
0000d0 73 92 8c 3c 3a b1 14 bd ff 35 d6 3d a6 c0 17 3d
       0.017159676 -0.03630183 0.10459518 0.03704896
0000e0 4c f9 4d 3e c1 72 41 bd e1 4f 94 3c ce e6 a1 bd
       0.2011463 -0.04722858 0.018104495 -0.079053506
0000f0 3c a3 3b be 47 a6 fc 3b 7b d7 98 bd 3c ed 6e be
       -0.18323988 0.0077102515 -0.07462975 -0.23332685
000100 e4 b3 67 3d 15 f9 35 be 85 56 65 bd d9 75 05 be
       0.05656804 -0.17770799 -0.055990715 -0.13033237
000110 1d 0e 53 3e 01 a1 21 3e 2a c1 48 3e 50 72 aa 3d
       0.20610853 0.15784074 0.19604936 0.08322585
000120 ea 4f a4 3e 6f df aa 3e c7 74 af 3d 6c 55 cc be
       0.3209222 0.3337359 0.085671954 -0.39908922
000130 e9 43 ae be 2d c9 86 3e 49 fe dc bd 22 43 4d 3e
       -0.34036186 0.2632536 -0.107906885 0.2004514
000140 80 d8 cd 3c 0d 1b 0c 3e 69 4b a6 be e0 f0 a1 be
       0.02512765 0.13682194 -0.32479408 -0.31629086
000150 99 e0 0d 3e c8 4a 99 3d e5 50 37 bd 36 7a 00 be
       0.13855208 0.074849665 -0.04475488 -0.1254662
000160 30 6a 5c 3e c8 f6 d0 bd 27 c6 2d bd dc eb d2 3d
       0.21524882 -0.1020332 -0.0424253 0.10298893
000170 31 bd 01 be 31 93 fc 3d f6 5c 7c be 18 11 65 bd
       -0.12669827 0.12332762 -0.24644837 -0.055924505
000180 ae 4f 70 3e 80 31 94 bd 36 e6 7d be f1 cd 05 3e
       0.23467895 -0.07236004 -0.2479485 0.13066842
000190 0f 02 9e bd e2 da f2 bd 9a 3c 03 3c 81 61 ce 3b
       -0.077152364 -0.11858155 0.008010054 0.0062982445
0001a0 5a c1 c8 bd 56 c0 8f 3a 07 74 0d be 87 f2 00 bd
       -0.09802504 0.0010967355 -0.13813792 -0.031481292
0001b0 b4 36 7d bd 9b c2 38 bd fa d8 52 be 76 8f e9 bd
       -0.061819747 -0.045107465 -0.20590582 -0.11404316
0001c0 09 f8 a0 be 20 d4 72 be 34 c5 2b be 2c cc 6d be
       -0.31439236 -0.23713732 -0.16774446 -0.23222417
0001d0 44 a9 63 3d 29 3c 42 bd d7 71 03 3a 93 9d b1 3e
       0.055581346 -0.047420654 0.0005014217 0.34690532
0001e0 2f cd ad bc f4 1d 26 3c 7e 45 85 3d 70 11 2f bd
       -0.021216003 0.010138977 0.06507395 -0.04274124
0001f0 76 18 5a 3e 27 80 e8 3d 13 1b 28 3d 2e a4 5f 3d
       0.21298394 0.11352568 0.041041445 0.054599933
000200 9f 5c 0b 3e 69 30 68 3c cf 4c 3e 3e 1c 30 06 3e
       0.13609551 0.014171698 0.18583988 0.1310429
000210 bd f9 6c 3d 1e cb f7 bd 93 98 37 be d4 1d bc be
       0.057855356 -0.120992884 -0.17929296 -0.36741507
000220 55 67 44 3e 57 6a da 3c 1e bf 17 bc fc d2 87 3e
       0.19180043 0.026662035 -0.0092618745 0.26528156
000230 be cd d9 bd 1c 6f 16 be 9f 9c 5d 3d 38 64 0e be
       -0.10634945 -0.14690822 0.054104444 -0.13905418
000240 52 8d 42 3e 5c 1f be 3d 18 b3 9f be c3 c2 14 be
       0.18999222 0.09283325 -0.31191325 -0.1452742
000250 31 11 18 bd c5 e1 86 3d 45 40 81 3e ae b6 0f bc
       -0.03712577 0.06586031 0.25244346 -0.008771582
000260 37 33 4b 3c 51 2a 7f bd 5e c2 c4 bd a8 fe 95 be
       0.012402347 -0.062296215 -0.09607385 -0.2929585
000270 ca 61 71 bd 19 4b 1f bc 1f b5 3c be f8 88 85 3e
       -0.05893115 -0.0097224945 -0.18428467 0.2608106
000280 5b 1a 25 be 96 98 8e 3d ec c4 ee 3e 60 32 0f be
       -0.16123335 0.06962697 0.46634614 -0.1398406
000290 04 ee 70 be 70 3d f0 bd 84 01 9a bd 0a 76 c0 bc
       -0.23528296 -0.11730468 -0.0751982 -0.023493785
0002a0 47 20 b0 3d 0b 45 00 3e 2e 02 48 bd 4a 6a 3a 3d
       0.085999064 0.12526338 -0.048830204 0.04551152
0002b0 f4 cf db bd 68 de b0 bb e1 1e 15 bd 09 b0 0f bc
       -0.10733023 -0.0053976066 -0.0364064 -0.008769997
0002c0 6c d1 b6 3e d1 ec 64 bd ad 16 8d be 39 60 0d be
       0.3570665 -0.05588991 -0.27556363 -0.13806237
0002d0 f8 06 a7 3e 62 95 9c bd cb ca 41 be e9 47 a9 bd
       0.32622504 -0.0764568 -0.18925016 -0.08265669
0002e0 a0 77 56 3d c4 a3 13 be e3 ee 29 3e 22 f3 fb bd
       0.052360177 -0.1441794 0.16595034 -0.12302233
0002f0 d5 8b f7 bd fb 2c 70 3a 74 39 f7 3d e0 0b 10 3e
       -0.12087218 0.0009161976 0.12071505 0.1406703
000300 53 87 ab bc a6 c9 94 be ea 9c 6e bc ce 7b 27 be
       -0.020938551 -0.29060096 -0.014563778 -0.16355821
000310 2a e7 5a 3e f7 0e 2d 3d a8 1d 9d bd 02 85 83 bd
       0.21377245 0.0422506 -0.07671672 -0.064218536
000320 e6 e6 96 3e 40 71 86 3e 16 41 a6 3e 1a a5 a5 bd
       0.29473037 0.26258278 0.32471532 -0.08088131
000330 3b 0a 44 3e 3b 55 a1 3e 79 c6 92 3e 14 9c 04 3f
       0.19144528 0.31510338 0.28667048 0.51800656
000340 94 83 05 3e 7e cc 44 3d 52 30 90 bd 8d e2 2d 3c
       0.13038474 0.04804658 -0.07040466 0.010613096
000350 1e d4 63 be 44 18 42 bc 5e 80 33 be 13 d2 96 bc
       -0.22248885 -0.011846606 -0.17529437 -0.018410718
000360 13 87 4a 3e 75 3d 4c be 55 a2 9e bd 4f d8 88 be
       0.19778089 -0.19945319 -0.07745806 -0.2672753
000370 a3 e4 09 be c0 e4 10 3e c9 dc 7e 3d 30 aa df 3d
       -0.13466124 0.14149761 0.062222276 0.109211326
000380 b5 d7 36 3e 69 30 11 3e c5 78 6a bd a7 bc 97 3e
       0.17855723 0.14178623 -0.05724408 0.29636118
000390 ee 85 a7 be cc 65 36 be 0c 10 3a bc e1 df fa 3d
       -0.32719368 -0.1781227 -0.011356365 0.12249733
0003a0 fa bc 79 3e 54 e7 81 3e 83 7b 25 be 4f e7 49 3e
       0.24388495 0.25371802 -0.16160397 0.19717143
0003b0 7c 0b 0f bb fa e7 86 3e 38 98 e7 bd 68 f3 c7 3c
       -0.0021826914 0.2634886 -0.1130833 0.024408057
0003c0 40 f1 05 be ec f3 4d be b5 66 9b 3e 2e 3c e6 3e
       -0.13080311 -0.2011258 0.30351797 0.44967788
0003d0 f6 f5 28 3e 0f 87 84 3e de d3 03 3d 87 c8 32 be
       0.16500077 0.25884292 0.032184474 -0.17459308
0003e0 e8 b2 9a 3c c6 44 02 3e 25 2d e2 3e 46 b1 4e bd
       0.018884137 0.12721547 0.44175068 -0.05046203
0003f0 94 0b 30 bd d8 1d 9a 3e c0 db 15 3d 5c 53 9e bc
       -0.04297979 0.30100894 0.036586523 -0.019326858

critic.2.bias f4 [256]
000000 34 ae be bd 8d f2 c2 3b 3c a6 0b 3d a6 a2 c7 bd
       -0.0931057 0.0059493245 0.03409408 -0.097478196
000010 10 f5 ab bc c2 9e 8d bc 50 83 9f 3d 25 8b 6a bd
       -0.020990878 -0.017287616 0.07788718 -0.057261605
000020 ab 74 4f bb d2 09 9b bd 7c 79 15 bd c3 3b 5c 3d
       -0.0031655233 -0.075702325 -0.03649281 0.05376793
000030 eb eb f0 3b 3c 5d ca 3d 45 79 6c 3c c3 46 65 3d
       0.0073523424 0.09881064 0.01443321 0.055975687
000040 68 88 06 bd 79 9d 04 bd 37 1d ac 3c 62 96 2a 3d
       -0.03284493 -0.03237674 0.021010024 0.041647322
000050 22 da c9 3b a9 0b f0 bc c3 99 b8 bd 2e 0d 23 3c
       0.0061600367 -0.029302435 -0.09013703 0.009951873
000060 2b 9c 31 bd 20 bf 72 3d f0 4d 55 3d 4c ae 06 bd
       -0.043361824 0.059264302 0.05207628 -0.032881066
000070 0d 7a 89 3d 85 e6 13 bd fc 1e 83 bd 4e 1c a9 3d
       0.067127325 -0.036108512 -0.06402394 0.08257352
000080 69 66 a1 3d cf d2 2a 3d 1a 1e bf 3d e2 9a a8 bb
       0.07880861 0.04170495 0.09331913 -0.0051454166
000090 51 3c 7d 3c 2e 37 0c bd 93 00 34 bb 97 58 b4 bd
       0.015456275 -0.03423231 -0.0027466163 -0.0880596
0000a0 27 bf 2d 3d 5c 32 9b 3d 76 ef 88 3d 3c 2f b3 3d
       0.042418625 0.07577965 0.066862985 0.087492436
0000b0 94 cf c9 bb 6a 8e 80 3c 5d 2f b0 bc 94 ec 07 3d
       -0.0061587784 0.015692908 -0.02150696 0.033184603
0000c0 46 19 e7 3c c8 08 5f 3d 82 ba 2a 3c 77 fa be bb
       0.028210294 0.054451734 0.0104204435 -0.0058281976
0000d0 6e 23 43 bd 7d 5e 3f bd 13 b7 bd 3d 56 c4 ea bc
       -0.04764121 -0.04672097 0.09263434 -0.028658073
0000e0 ed 18 12 bb 53 81 9a 3b fe 4c c3 3c 47 e0 26 be
       -0.002229269 0.0047151237 0.023840424 -0.16296493
0000f0 18 74 9b 3d 14 d2 12 bd 41 ff 96 bc da ba cb bc
       0.075905025 -0.035844877 -0.018432261 -0.024869371
000100 88 79 d0 3b 00 05 e7 3d bb 7a 98 bd 95 62 08 bc
       0.006362144 0.112802505 -0.07445284 -0.008324285
000110 18 69 93 bd 8c 1f 39 3b d7 04 10 3c cf b8 f1 3c
       -0.071977794 0.0028247563 0.008790216 0.029507069
000120 c7 80 4b 3c 6a 97 10 3d 1f 5e 11 bd 2e 4b a6 bb
       0.01242084 0.03530065 -0.03549015 -0.00507488
000130 cb b7 3c 3d b6 76 d7 3c a6 99 41 3c f5 c6 28 3d
       0.046073716 0.026301723 0.011816418 0.041205365
000140 3a 0d 70 3d 2d d8 87 3c 09 fe 77 bc d9 a9 41 bc
       0.058606364 0.016582573 -0.01513625 -0.01182028
000150 22 81 a4 3d dc a1 d0 bd 93 78 95 3c 6a 03 18 bd
       0.08032443 -0.10187122 0.01824597 -0.03711263
000160 05 40 4a 3d bc d7 02 bd ad ac f5 3c 2f ee 38 3c
       0.04937746 -0.03194402 0.029989565 0.011287256
000170 a9 4a 5e 3c 5f b0 6e bd df 67 5b 3c cf 68 05 bd
       0.013567605 -0.05827367 0.013391464 -0.032570656
000180 ab d7 c8 bc e7 43 b1 3c e5 93 dd 3d eb aa a7 3d
       -0.024516901 0.021638824 0.10819224 0.08186897
000190 f9 f5 ab 3d 1f 5a 5c bd 7d 6d 03 bd 4f 95 90 3c
       0.08396525 -0.053796884 -0.032086838 0.01764932
0001a0 8d 8b f4 bb 09 46 96 3c a5 09 c5 bc f4 3a ad bb
       -0.007462925 0.018343942 -0.02405245 -0.005286569
0001b0 7a 11 6d 3d 4a 9e 4a bb 8b ee d9 bd 94 02 ea 3d
       0.057877995 -0.0030917102 -0.106412016 0.11426273
0001c0 f2 7b 0d bd f5 47 55 3d 06 18 92 bc 9f d9 94 bd
       -0.03454203 0.052070577 -0.01783372 -0.072680704
0001d0 56 ca 67 3d 90 42 2a 3c f2 78 20 3d c9 fe d4 3c
       0.056589447 0.010391846 0.039177842 0.026000397
0001e0 2c b5 17 3d 85 4b c2 bd ef 10 98 3c 26 37 fa bc
       0.037038013 -0.094870605 0.018562762 -0.030543875
0001f0 80 5f 12 3d 73 34 99 bc 47 46 c8 bc b6 16 a5 bd
       0.035735607 -0.018701768 -0.024447573 -0.080609724
000200 9c 2a c7 3c fe f6 30 3d 5b 08 6e 3d 46 08 85 bb
       0.02431231 0.0432043 0.058113437 -0.004059824
000210 0f ac 04 bd f7 86 92 bd 09 5d 15 3d 86 40 e6 bb
       -0.03239065 -0.07154649 0.03646568 -0.0070267348
000220 08 10 9d bb 7b 3c 99 bd b8 95 a2 bd ba 3d cf bd
       -0.004793171 -0.07482239 -0.07938713 -0.10119195
000230 0f d3 98 bd c5 c8 a1 3d f4 9d b7 bd c3 fc a7 bc
       -0.07462131 0.07899622 -0.08965674 -0.020506268
000240 a5 dc db bd 82 0d d7 bb 76 26 73 3d 1b 47 26 bc
       -0.10735444 -0.0065628896 0.05936285 -0.010148789
000250 ad fa 2b bc e1 60 00 3d 7c 43 2f 3c a7 8d a3 3d
       -0.0104967775 0.03134239 0.010697242 0.079860024
000260 43 61 ec 3d ab df 95 bd e7 f1 0f 3c e2 51 38 bd
       0.11541989 -0.07318052 0.008785701 -0.044999965
000270 cd e5 20 bc e4 50 60 bb 2e e2 c2 3c be bd 93 3d
       -0.009820414 -0.0034227902 0.023789492 0.07213925
000280 76 5e 8d bd 57 78 81 3c b2 ea 97 3d df e7 ff 3c
       -0.069027826 0.015804453 0.074178115 0.031238494
000290 8a f6 e7 bd 0a 7d f0 bd 84 c3 2b 3c c1 ed 72 bd
       -0.113263205 -0.11742599 0.010483626 -0.05930877
0002a0 d1 7f 3e bc 38 60 92 bd ff aa 84 ba c9 03 8f bb
       -0.0116271535 -0.071472585 -0.0010121762 -0.004364465
0002b0 42 f9 e0 bc 3a da 3f bb f4 a2 40 bd 42 90 cd 3d
       -0.027462605 -0.002927436 -0.047030404 0.100372806
0002c0 a7 08 c2 bd 87 b1 d4 3c 65 8f 30 3d 74 63 44 3c
       -0.094743066 0.025963558 0.0431055 0.011986602
0002d0 2a 45 10 bd 16 e1 bf bd c5 e3 9d 3d d8 ca bb 3d
       -0.03522221 -0.093691036 0.07709459 0.09169549
0002e0 5e 88 54 3d 8d 6a 5b 3c 75 bb 97 bd 0b 6e 83 3c
       0.051887862 0.013392103 -0.074088015 0.016043684
0002f0 92 20 c6 3b 37 0c 0c 3d 05 04 d5 bc e1 83 ce 3b
       0.006046363 0.034191336 -0.026002893 0.0063023423
000300 d1 43 a5 bd 81 14 93 3c 54 6a 88 3d 5c 39 b3 3d
       -0.080695756 0.017954113 0.066609055 0.08751175
000310 8f d6 ae 3d 6f 45 9a bc 56 bb 72 3c 40 6e e5 bd
       0.085370176 -0.018831937 0.014815172 -0.11202669
000320 ed b3 90 bb 18 d5 a4 bd 4f 61 65 bd f7 f9 7b bd
       -0.00441598 -0.08048457 -0.056001004 -0.061517682
000330 ce 22 97 bd 9e df 8e bd c2 f8 c6 3c d7 65 54 bb
       -0.07379685 -0.06976245 0.024288539 -0.0032409334
000340 01 4b f4 3c 69 8f 69 bb d0 bf ca 3b 54 b2 28 bd
       0.02982092 -0.0035638458 0.0061874166 -0.041185692
000350 1f f5 e8 bd 98 04 85 bd 12 6a c5 3d 0c 68 15 3d
       -0.11374878 -0.06495017 0.09639372 0.03647618
000360 02 e0 28 3c 0c dc 00 3d 97 0d d1 3c a8 56 90 bd
       0.010307314 0.031459853 0.025519175 -0.07047778
000370 d8 d9 c0 3d 3e 6d 75 3d 8c 7b 9b 3d 87 16 a1 bd
       0.094165504 0.059918635 0.07591924 -0.07865625
000380 5d 48 2d 3a 9e c7 bc bc 36 cb 4e b9 2e 74 a7 bd
       0.0006610209 -0.023044404 -0.00019721393 -0.081764564
000390 df 07 6c bd 8c d8 d3 3d 6c d7 7e bc 0d 3a 3e 3d
       -0.057624694 0.103440374 -0.01555429 0.04644208
0003a0 07 b5 14 bd 76 ed 45 3c 25 01 bf 3c fd 46 1c 3d
       -0.036305454 0.012080541 0.023315975 0.038153637
0003b0 2b 35 3c bd 21 91 53 bd e3 83 13 3c d4 80 a9 bd
       -0.045949142 -0.051652078 0.009003612 -0.08276525
0003c0 98 34 46 bd df 2e b1 bd b4 42 9f 3d c2 de 24 bd
       -0.04839 -0.08651518 0.077763945 -0.0402515
0003d0 30 76 e6 bc 08 0e 27 bd b6 08 87 bc d4 8a 2a 3d
       -0.028132528 -0.040784866 -0.016483646 0.041636303
0003e0 0c 03 90 bc 74 1b af 3d 4b 3a 17 3e 0a 48 7a bd
       -0.017579578 0.08550158 0.14768331 -0.061103858
0003f0 4e 63 2c 3d ae 81 83 bd b9 95 bc 3d 89 d8 e5 bc
       0.04208689 -0.06421219 0.09208245 -0.028057354

critic.4.weight f4 [1, 256]
000000 a1 fd 04 3f 66 25 e0 3e e4 c3 12 bf c2 c6 f3 be
       0.51949507 0.43778533 -0.57330155 -0.47612578
000010 bc 5c ce be 77 42 df be cb 13 05 bf b7 47 f7 be
       -0.40305126 -0.43605396 -0.51983327 -0.48296902
000020 d2 64 e0 3e 76 31 d7 3e 9b 50 73 3f c9 f7 15 bf
       0.4382692 0.42029923 0.9504487 -0.58581215
000030 3f 6a d8 be 59 ab e6 be 49 7f 03 3f cc e9 12 3f
       -0.4226856 -0.45052603 0.51366097 0.57387996
000040 32 fe 2c 3f e0 dc d3 3e 23 e4 fc be 5f 25 19 3f
       0.6757537 0.41379452 -0.49392805 0.5982265
000050 e3 ee c4 3e 3b 2d e7 3e 8a 5d dc 3e 7d 36 fa be
       0.38463506 0.45151696 0.43040115 -0.48869696
000060 a4 7d 15 bf b0 31 b3 be 3c 07 13 3f 97 c0 f7 be
       -0.5839484 -0.34998846 0.57432914 -0.48389122
000070 6d 23 e8 be e4 c8 25 3f 39 db cd 3e c1 e9 f0 3e
       -0.45339528 0.6475966 0.40206316 0.4705334
000080 16 60 73 bf c6 5b 03 bf 37 f4 f7 be 75 1a ec be
       -0.9506849 -0.5131191 -0.4842851 -0.46113935
000090 76 3b ee be a8 2c 0b bf 39 3a f3 be de 92 03 3f
       -0.4652974 -0.54365015 -0.47505358 0.51395977
0000a0 ee 80 ed be 3b de e8 3e 2c 30 d5 be 1b b7 18 3f
       -0.46387428 0.45482048 -0.41638315 0.59654397
0000b0 25 3f ef be 58 28 18 3f 76 70 d4 be ea ba 67 bf
       -0.46727863 0.5943656 -0.4149205 -0.90519583
0000c0 da a0 b3 3e db 7b 0d 3f 9e 19 08 bf 79 25 e9 be
       0.35083658 0.55267113 -0.5316409 -0.45536402
0000d0 d9 87 d1 be 84 25 df 3e 97 0f 6c 3f 58 ed dd 3e
       -0.40923956 0.4358331 0.9221129 0.4334514
0000e0 21 cd e3 3e 8c 62 09 3f fb cc c7 be af 92 8a 3f
       0.44492438 0.53665996 -0.39023575 1.0826014
0000f0 4c 95 fa be 76 e5 f7 be 61 f5 44 bf c2 1f e9 be
       -0.4894203 -0.48417252 -0.7693692 -0.45532042
000100 76 0a 2c 3f 74 98 72 bf 4b 4a f6 3e a5 ad e0 3e
       0.6720346 -0.94763875 0.48103556 0.4388248
000110 1d a1 d4 3e 51 bd f3 be 6e be 19 bf a2 78 05 3f
       0.4152917 -0.47605374 -0.600562 0.52137196
000120 31 93 ef 3e 01 a9 e0 be 80 01 d0 be 21 42 14 bf
       0.46791986 -0.4387894 -0.40626144 -0.57913405
000130 3b 76 12 3f cf c8 dc be fe 7e 07 bf ca 6c 15 bf
       0.57211655 -0.43121955 -0.5292815 -0.58369124
000140 29 cc 15 3f 75 1c 0b bf d8 b0 d2 be 80 0c ed be
       0.5851465 -0.54340297 -0.41150546 -0.462986
000150 c6 0c 03 bf e3 54 13 bf 37 b5 d8 be ca 34 b8 3e
       -0.51191366 -0.575514 -0.42325756 0.35977775
000160 58 0c f3 be 6e 2c d1 be 09 bd 03 3f 88 87 6d bf
       -0.47470355 -0.4085421 0.5146032 -0.9278493
000170 6e c3 ee 3e e8 b7 f8 be 56 a6 d8 be e5 80 e6 3e
       0.46633476 -0.4857781 -0.42314404 0.45020214
000180 b1 80 de be d6 8b e9 be 98 38 10 bf 14 4d e7 3e
       -0.4345756 -0.456145 -0.56336355 0.45175993
000190 b5 fb c4 be b8 f3 f5 be 07 61 16 bf c2 35 13 3f
       -0.38473287 -0.48037505 -0.587418 0.575039
0001a0 02 34 0a 3f 0f 41 c2 be 98 8f f7 3e 00 76 de be
       0.5398561 -0.3794026 0.4835174 -0.43449402
0001b0 3e 10 17 bf f6 ae 3b 3f 2c db 05 3f 1f 0b 8e bf
       -0.5900916 0.73313844 0.52287555 -1.1097144
0001c0 08 44 00 bf 68 95 1e bf 2a 67 e2 3e ef f1 ef 3e
       -0.5010381 -0.61946726 0.44219333 0.46864268
0001d0 55 24 d1 be 35 02 e9 be b2 37 33 bf ff cd 03 bf
       -0.40848032 -0.45509496 -0.7000686 -0.514862
0001e0 6e 58 1f bf ee 24 ed be ed 61 fd 3e 00 ed e6 be
       -0.6224431 -0.46317238 0.49488774 -0.45102692
0001f0 a4 e8 e8 be 76 f3 11 3f 4e aa 10 bf af e5 f2 be
       -0.4548999 0.57012117 -0.56509864 -0.4744086
000200 ac 3b 3d 3f 4e a9 e8 be d2 1a 15 bf 62 d0 fe be
       0.7391918 -0.4544167 -0.5824405 -0.49768358
000210 f9 fd ed be 51 d8 cc 3e 85 04 d8 be c5 a0 f6 be
       -0.46482828 0.40008786 -0.42190948 -0.48169532
000220 2c 26 ff be 1e f7 03 3f 48 73 ec 3e b4 81 01 bf
       -0.4983381 0.51548946 0.46181703 -0.50588536
000230 9e 6e d9 3e d8 bb e5 be c8 9f aa 3e 85 68 ee 3e
       0.42467207 -0.44869876 0.33325028 0.46564117
000240 97 d7 e7 be ff f3 d6 3e 05 04 0b bf e0 5d 09 bf
       -0.4528167 0.4198303 -0.5430301 -0.53658867
000250 63 98 ec be 59 b3 d3 be 68 24 0f bf 81 f1 eb 3e
       -0.46210012 -0.4134777 -0.55914927 0.4608269
000260 27 61 62 bf e5 81 de 3e fe e7 f6 3e 2a 32 f9 3e
       -0.8842949 0.43458477 0.4822387 0.48671085
000270 8b b5 1c bf 55 c3 ef be 04 8b d3 3e 5b 08 cc be
       -0.6121451 -0.46828714 0.41316998 -0.39850125
000280 56 1c 06 3f c1 00 f9 be c1 97 0d bf b4 83 f7 3e
       0.5238699 -0.48633388 -0.55309683 0.4834267
000290 c6 74 e2 3e b9 11 5a bf 61 d1 d1 be 28 bf 2c 3f
       0.44229716 -0.8518329 -0.40980056 0.6747918
0002a0 a8 30 09 bf c6 e2 ed 3e fc 0a 0c bf 87 58 f1 be
       -0.5358987 0.46462077 -0.5470426 -0.47137854
0002b0 db 39 d2 3e 20 64 40 bf 7d 4b 15 bf 39 67 d2 be
       0.41059765 -0.7515278 -0.5831831 -0.41094378
0002c0 ba c0 38 3f dd e7 db be f3 fc 02 3f 9a 09 d7 be
       0.7216908 -0.42950335 0.5116722 -0.41999513
0002d0 05 cb e8 be 81 f0 f8 3e aa c3 de be df 45 c6 be
       -0.45467392 0.4862099 -0.43508655 -0.38725182
0002e0 05 7d c6 3e 8d 22 d6 be 30 12 1c 3f 67 a6 dc 3e
       0.38767257 -0.41823235 0.6096525 0.43095705
0002f0 1a 53 13 bf 96 9d ec 3e 85 69 04 3f eb a7 02 bf
       -0.5754868 0.4621398 0.5172351 -0.5103747
000300 60 0e f1 3e 87 90 27 bf 19 47 e5 be ad 3f fa 3e
       0.4708128 -0.65454906 -0.44780806 0.48876706
000310 e2 5a 3a bf 5c 73 c1 be 0d 02 ce be 90 99 f0 3e
       -0.72794926 -0.37783325 -0.4023594 0.4699216
000320 5d 68 12 3f cb bb de 3e 4b 4c dd be 64 7f 06 3f
       0.57190496 0.4350265 -0.4322227 0.5253813
000330 ea d0 00 3f 8f 55 cc 3e ee 4f c2 be 33 f0 ef 3e
       0.5031878 0.39909026 -0.37951607 0.46862945
000340 e2 75 ed be 78 d1 c4 3e fa e5 0d bf 99 23 44 3f
       -0.46379 0.38441062 -0.5542904 0.7661682
000350 80 0d df be 3e 8e 16 3f d8 b7 1f 3f 17 9e d8 3e
       -0.43564987 0.58810794 0.623899 0.42308113
000360 11 6d d0 3e 63 15 ce be 89 11 ee 3e 0e 90 05 3f
       0.4070821 -0.40250692 0.46497753 0.52172935
000370 95 f4 ed 3e 04 d2 ca be 16 c2 fb be 1f 97 14 3f
       0.46475664 -0.39613354 -0.49171513 0.5804309
000380 c8 53 f4 3e e1 56 02 3f a2 26 e2 3e f1 22 ed be
       0.4772017 0.50913817 0.441701 -0.4631572
000390 97 6d e3 3e 0f 93 1a bf 60 b0 0c bf ad 6b ec 3e
       0.44419548 -0.60380644 -0.54956627 0.461759
0003a0 25 02 00 bf 8e a0 1a bf 55 21 ee be 55 87 bd 3e
       -0.5000327 -0.60401237 -0.46509805 0.37017313
0003b0 14 63 0f 3f 4b 75 e2 3e 7e a8 f2 3e 8b 16 cd 3e
       0.56010556 0.44230112 0.47394174 0.4005626
0003c0 0e 6a de be e7 b2 cf 3e b7 bb 0f bf 64 fb e8 3e
       -0.43440288 0.4056618 -0.56145805 0.45504296
0003d0 cf 3a d1 3e 86 e1 03 3f 25 57 e4 be fe 26 1e bf
       0.4086518 0.51515996 -0.44597736 -0.6177825
0003e0 cc 3f 10 bf da 69 b8 3e 60 68 43 bf 9c 8d 61 3f
       -0.56347346 0.36018258 -0.7633114 0.88106704
0003f0 b0 25 01 bf e6 0c ca 3e f4 55 43 3f 53 7d f0 3e
       -0.5044813 0.39462966 0.7630303 0.46970615

actor.0.weight f4 [256, 19]
000000 9a 58 00 be 09 89 09 be 30 78 10 3e e5 76 92 bd
       -0.12533799 -0.13431181 0.14108348 -0.071515836
000010 a0 a4 d6 bc c8 c2 e4 3c ca 0e c6 3e 92 35 f9 bc
       -0.026201546 0.02792491 0.38683158 -0.030421052
000020 d1 93 ab bd 00 b6 f0 3d bf 4f 10 3e 27 af 51 be
       -0.08377803 0.11753464 0.1409292 -0.20476972
000030 7a bf eb 3d 07 45 8b bd e5 09 9a bc 53 02 2b 3e
       0.11511131 -0.06800275 -0.018803546 0.16700105
000040 1e da e6 bd 4c 32 0d 3e 54 0b 8f 3d 5d 3b 7f bd
       -0.11272071 0.13788718 0.069845825 -0.062312473
000050 40 4f 57 3e 31 37 06 bd be 2c 3f bc 00 ba be ba
       0.21026325 -0.03276748 -0.011668382 -0.0014551282
000060 c4 3e 66 3d 1e 56 db be 4d a2 4e 3e 49 43 d5 bd
       0.0562122 -0.4283914 0.201791 -0.10413224
000070 35 24 65 3c 8d 14 60 be 72 42 eb 3d 52 27 7c be
       0.013985683 -0.2188284 0.11487283 -0.24624375
000080 1c 41 d0 bd 1f 04 89 3b 29 21 6b 3d 2d f1 c3 3d
       -0.10168669 0.0041813995 0.05740467 0.09567485
000090 2f 84 9f 3d 7f 6d 2a be 6f 67 39 3d 86 0e bd 3d
       0.07788884 -0.16643332 0.045264658 0.09231286
0000a0 64 2e 15 3e 63 75 94 bd 61 bc 36 3e 9a df 63 be
       0.14568478 -0.07248952 0.17845298 -0.22253266
0000b0 0e f5 5b bd 98 78 81 3d 2f 61 c4 bd 6f de b5 bc
       -0.0537005 0.063218296 -0.09588849 -0.022200791
0000c0 d6 ef 4d be ae 4e 27 3e 82 dc 30 bd b6 be 6c 3e
       -0.20111021 0.16338608 -0.043179043 0.23119625
0000d0 79 0f 7c 3d d1 a0 e4 3c 5e 70 21 3e da 56 9a bd
       0.061538193 0.027908714 0.15765521 -0.07536097
0000e0 43 eb 86 be 01 5b e7 bd 74 e2 4e 3d 40 58 bb bd
       -0.26351365 -0.112966545 0.05050893 -0.09147692
0000f0 16 96 72 3c 5f 79 2c 3e 13 4b 48 be 84 62 92 bd
       0.014806291 0.16843174 -0.19559889 -0.071476966
000100 58 32 06 3e 95 5c b4 bd 6c b6 8f bd 80 07 3c bb
       0.13105142 -0.08806721 -0.07017216 -0.0028690994
000110 da 9d 09 3e 3c f4 69 bc dc 41 ad 3e f8 32 f9 3c
       0.13439122 -0.014279421 0.3383931 0.030419812
000120 b7 f0 51 bd 41 20 23 3e 60 26 7e bd b3 6d 0f 3d
       -0.051254954 0.15930273 -0.062048316 0.035016727
000130 48 59 15 3e 6d 04 85 bd 34 87 2b bc 77 07 8a 3d
       0.1458484 -0.06494985 -0.010469247 0.06739705
000140 3d b9 01 3e fe 67 f5 bd 1a 80 cc bb 46 95 1e be
       0.12668319 -0.119827256 -0.006240857 -0.15486631
000150 bc 72 19 3e 2c 51 64 be b3 aa 4f be fc e4 85 3e
       0.14985174 -0.2229659 -0.2027996 0.26151264
000160 29 61 bc bd bc 1e d8 bd 1f f0 4e 3d c4 36 f5 bc
       -0.09198219 -0.10552737 0.050521966 -0.02993334
000170 f6 42 52 3e 51 17 2f 3e 28 e4 95 bc fd c6 a4 3d
       0.20533356 0.17098738 -0.01829727 0.080457665
000180 60 5a 07 be fc 1f 48 be e8 0f 82 3d 28 22 a1 bc
       -0.13218069 -0.19543451 0.0635069 -0.019669607
000190 ce d4 0e be 36 d7 e2 3d 1a ea de 3d e0 2a 47 be
       -0.13948366 0.110762045 0.10884495 -0.1944995
0001a0 e2 8f 85 3d c0 5f a5 bd 36 ba c2 39 77 29 77 3e
       0.06521584 -0.080749035 0.000371413 0.24136911
0001b0 f2 ad 74 be 35 28 67 be 5b d8 cf bb 53 c5 04 be
       -0.2389448 -0.22573932 -0.0063429303 -0.12965898
0001c0 52 a5 ea bd 5a 60 22 bd 26 5c a0 bd 30 d9 30 3e
       -0.114573136 -0.03964267 -0.07830076 0.1727035
0001d0 d8 ed 20 be 74 2d 37 3e 87 89 3d be 46 27 47 be
       -0.1571573 0.17888433 -0.18509494 -0.19448575
0001e0 38 67 61 be 76 52 61 3e bb 90 1d be fe d1 0b be
       -0.22012031 0.22004113 -0.15387242 -0.13654324
0001f0 aa 99 fc 3d 38 f6 07 be a6 1e 84 be 96 7f 4a 3e
       0.123339966 -0.13277519 -0.25804633 0.19775233
000200 3d ca 63 be d4 df e4 bc eb d7 b4 3d 36 94 43 3d
       -0.22245117 -0.02793876 0.088302456 0.047748767
000210 36 65 27 3e 74 24 3d 3e be a9 56 be d3 6c 53 3e
       0.16347203 0.18470937 -0.20963189 0.20646982
000220 7e dd df bd 79 6a 07 3e 5d a0 3a 3e 79 85 95 be
       -0.10930918 0.1322421 0.18225236 -0.29203394
000230 b1 1d 8b bd ea 0c 48 bb 9d 7b c8 bd 55 e9 3b be
       -0.067927726 -0.0030525276 -0.09789202 -0.18350728
000240 52 7b 5b bd c5 be 6e 3e cb 8f 9f 3e d7 41 34 3d
       -0.053584404 0.2331496 0.31164393 0.044008102
000250 57 fd 88 be 6a 3d 01 bd 35 60 27 be 9d 82 26 be
       -0.26755783 -0.03155271 -0.16345294 -0.16260763
000260 12 1d 98 3c 38 16 4b 3d 81 a0 23 be a2 04 fa 3d
       0.01856855 0.049581736 -0.15979196 0.12207915
000270 49 aa 41 3e a3 a9 36 be 4c 43 a4 3c ef 50 3a be
       0.18912615 -0.17838149 0.02005162 -0.18194936
000280 0c 1a 62 be 5d ac 2f be 88 2a ee 3c 57 b7 7b be
       -0.22080249 -0.17155595 0.029073015 -0.24581657
000290 19 ab 83 3e f2 e8 09 be 56 3c 51 3e 9f 0e 47 3e
       0.25716475 -0.13467768 0.20433173 0.19439171
0002a0 22 e8 5b be ab b2 bf 3d 77 20 61 3e 7e 0d 17 be
       -0.2147527 0.0936025 0.2198504 -0.1475124
0002b0 f6 f7 59 be eb 84 c2 3d bb 2e 23 3e 35 86 51 be
       -0.21285996 0.09498008 0.15935795 -0.20461352
0002c0 36 49 5e be 20 1e 2b be 4d 22 36 3d 93 78 4f be
       -0.21707615 -0.1671071 0.044466306 -0.20260839
0002d0 3b 89 29 bc d4 b5 60 be e8 04 9f be 56 9d 8b 3c
       -0.01034766 -0.21944362 -0.3105843 0.017042797
0002e0 d1 a0 11 3d d8 89 52 bd b3 0e d7 bd 68 f9 ae bd
       0.035553757 -0.05140099 -0.105008505 -0.08543664
0002f0 7a 91 3e 3e 6d 15 9a 3e ee 2e 12 3e 4d b7 23 3e
       0.18610182 0.30094472 0.14275715 0.15987892
000300 e6 39 08 be 7f a6 30 be f6 9c 69 be 58 60 e5 3c
       -0.13303337 -0.17251013 -0.22813782 0.028000042
000310 95 ce b2 bd 13 e3 c2 bd 2b 8e aa bd d1 29 d7 bd
       -0.08730809 -0.09515967 -0.08327898 -0.10506023
000320 55 1f 4e 3e 0c f5 a8 be 24 7a b6 3d 37 95 74 be
       0.2012914 -0.32999456 0.08910015 -0.23885046
000330 61 96 40 3e c2 51 5a 3e 40 86 0f 3d 52 7d 2a 3d
       0.18807365 0.2132025 0.03504014 0.04162342
000340 33 5f 2f 3e 33 37 48 3e 00 54 22 bd a6 5d 61 bd
       0.1712616 0.19552307 -0.03963089 -0.05502095
000350 b9 be 2a 3e fe 90 e3 3d 5b c9 31 3e 70 36 97 3e
       0.16674317 0.111116394 0.17361967 0.2953372
000360 89 a2 02 be 1e 66 11 3e 41 0a 57 be fa ac 01 be
       -0.12757315 0.14199111 -0.21000005 -0.12663642
000370 7e cd 76 3d 93 0d 18 3d ef 37 ae 3c 8d 04 ff bd
       0.060254566 0.03712232 0.021266906 -0.1245204
000380 37 f4 6f 3d 97 39 7d 3e 6f ec a4 3d 62 88 2e be
       0.05858251 0.24729 0.08052909 -0.17044213
000390 e7 13 6c be 2e 68 f3 bb 49 f0 3a be 7a 39 39 bb
       -0.23054467 -0.0074281907 -0.18255724 -0.0028263018
0003a0 55 e1 4b 3e 7c 0b 44 3d e3 39 9c 3e 85 ab 80 bd
       0.19910176 0.047862515 0.30512914 -0.06282715
0003b0 a8 73 a8 3d 5b 50 31 3e da 7c bc bd 77 71 98 be
       0.08225185 0.1731581 -0.09203501 -0.29774067
0003c0 d4 e8 8c 3e 8a 44 8b bd 7f df 88 be d0 61 ef 3d
       0.27521384 -0.06800182 -0.26733014 0.11688578
0003d0 73 0c 8e 3e cb f7 10 3e ec ae 64 3e fc 7a 20 3e
       0.27743873 0.14157026 0.22332352 0.15671915
0003e0 3d e8 0a 3e b2 5a 1f 3d 03 b2 71 be 1e d9 fc 3d
       0.13565154 0.038904853 -0.23603062 0.12346099
0003f0 a6 49 e9 3d 43 5b e5 3e fc 90 ec 3d fa 23 48 be
       0.113910004 0.4479619 0.11551091 -0.19544974

actor.0.bias f4 [256]
000000 0f 13 e8 bb 93 cd 06 bd e2 00 ca 3d f4 33 01 be
       -0.00708235 -0.032910895 0.0986345 -0.12617475
000010 ce 0f 66 bd da 24 12 3e 53 e8 dc 3d 5e 46 24 3e
       -0.056167416 0.1427187 0.107865 0.16042468
000020 d9 da 7f bc 76 7e 6d bc 15 8b 20 3e 88 c9 f4 bd
       -0.015616142 -0.014495483 0.15678056 -0.119525015
000030 5a 57 a9 3d ca 6b 83 3c 8c 69 d0 bc 53 ce 02 3e
       0.08268614 0.016042609 -0.025440954 0.12774019
000040 a0 04 93 bd b2 fa 05 bd 5a 95 48 3d b9 f7 b5 3d
       -0.071786165 -0.032709785 0.048970558 0.0888514
000050 eb ad fa 3d 61 59 0d be eb 2c 1b be 30 bf 69 bc
       0.122402035 -0.13803627 -0.15153854 -0.014266774
000060 6b ce f5 3d 11 fc dd 3d a1 30 57 3d a3 82 03 be
       0.12002262 0.108390935 0.05253661 -0.12842803
000070 a7 13 b8 3d be 4e 90 bd 9b d4 16 3d b9 22 4e 3e
       0.089881234 -0.07046269 0.03682385 0.20130433
000080 c0 6a 20 3e d6 fe f7 bd 42 13 36 3d 19 c3 56 3d
       0.15665722 -0.12109153 0.04445196 0.052432153
000090 9e 45 f1 bc 45 91 0e bd d0 39 f7 bd 44 34 d4 3d
       -0.029452141 -0.03480651 -0.12071574 0.103615314
0000a0 f6 cd 47 be 64 87 79 3d ee ae e0 bd da e0 a5 bd
       -0.19512162 0.060920134 -0.10970865 -0.08099528
0000b0 70 73 fb 3d fd 1e 9f bc b8 3c 43 bd fe 0e 1e be
       0.12277877 -0.019423956 -0.047665328 -0.15435407
0000c0 98 a6 66 bd f9 d5 e2 3d 08 db 19 3e d2 8c 1a 3e
       -0.05631122 0.11075968 0.1502496 0.15092781
0000d0 73 71 6c 3e 30 14 a5 bc 79 14 b0 3b 6b 4e a9 bd
       0.23090152 -0.020151228 0.0053735343 -0.0826691
0000e0 e9 0a 10 be 16 b6 0c 3e 44 bf 79 3d ca 58 ee 3d
       -0.14066662 0.13741335 0.06097342 0.11638029
0000f0 89 73 07 3e 2f 9e b5 bd 74 41 41 be cf 3c 9e be
       0.13227667 -0.08868062 -0.18872625 -0.30905768
000100 07 5a 35 be e3 fa e2 3c 52 b1 25 3e 7d d4 45 bd
       -0.17710124 0.027707523 0.16180924 -0.048298348
000110 6c cc e7 3d 89 a8 96 3d 70 67 57 3e 7a b5 e9 3d
       0.11318287 0.07356364 0.21035552 0.11411567
000120 1c dc 76 3e 4d d5 39 3e 65 da 8b 3d 2e 5e 19 3e
       0.24107403 0.18147774 0.06828765 0.14977333
000130 f5 c5 2b 3e 5e 65 1b 3e 16 76 86 bd 3e c5 b9 3d
       0.16774733 0.15175387 -0.06565492 0.09070824
000140 40 b2 a5 3d 2a 17 4f be 6b c5 a1 3d e9 ac 93 3b
       0.08090639 -0.2022368 0.078989826 0.0045066965
000150 8f e4 b2 bd 11 74 74 3c 59 67 be 3d c0 e9 52 3c
       -0.08735 0.0149202505 0.09297056 0.012873113
000160 27 77 29 3e ee 26 4f 3e da af e9 3d 99 66 f1 3a
       0.1654936 0.20229694 0.11410494 0.0018417417
000170 d1 c8 0d 3e b9 ea 8f bd 7a 9c 59 3e 9c d1 ad bc
       0.13846137 -0.07027192 0.21251097 -0.021218114
000180 ba 93 d3 bd 9d b2 38 be 61 15 fa bb 00 01 d5 3d
       -0.10330911 -0.18036886 -0.007631943 0.10400581
000190 7a 94 61 bc b9 2b e4 bd 56 f5 14 be 2b fc 9e ba
       -0.01376831 -0.11141152 -0.14546713 -0.0012129595
0001a0 9a ef 66 3c a5 73 ce 3c 4a 6d f9 3d 3f 2a 0d 3e
       0.014095211 0.025201628 0.12179048 0.13785647
0001b0 35 ed 67 3d c7 89 22 be 9a 0b 7f bd c6 52 66 3d
       0.056622703 -0.1587287 -0.062266923 0.056231283
0001c0 e9 d2 8f 3d b3 79 64 3e e3 81 ee bb dd 33 22 be
       0.0702265 0.2231205 -0.0072786673 -0.15840097
0001d0 3d e0 2a be 9b 5c 3c bd 55 8f 61 3d eb 96 9e 3d
       -0.16687103 -0.045986753 0.055068333 0.07743629
0001e0 3b c0 46 be dc f6 f6 3d c6 23 3e be 72 15 1d 3e
       -0.19409268 0.120588034 -0.18568334 0.15340212
0001f0 c1 9a 03 bd aa ff 5c 3d c1 60 44 3d 78 62 2f bd
       -0.032130007 0.053954758 0.047943834 -0.042818516
000200 12 63 f0 bd d6 15 3c 3e 22 c6 39 3e e5 ac e3 3d
       -0.11737646 0.18367705 0.18141988 0.111169614
000210 40 36 51 be 67 8c 63 3c 6c 73 47 3e 5f a1 31 3e
       -0.20430851 0.013888455 0.19477624 0.17346714
000220 80 8a e5 3d 79 05 3b be 1e 26 8c bd 3d 3a 90 3d
       0.112080574 -0.18263806 -0.06843208 0.07042358
000230 8f 38 84 3d 3b b6 44 3e 14 14 b2 b9 88 6d eb bd
       0.064561 0.1921014 -0.00033965765 -0.11495501
000240 b8 f3 94 3d e2 9d 51 be d7 b6 67 bc 7e 15 f5 3d
       0.07273048 -0.20470384 -0.0141427135 0.1196699
000250 64 45 0f 3e f5 4d bb bd 11 50 29 bd 06 e8 63 be
       0.13991314 -0.091457285 -0.041336123 -0.22256479
000260 b7 26 90 bd 45 03 2c 3e 2e 6a ab bd 16 65 20 be
       -0.07038634 0.16798122 -0.083698615 -0.15663561
000270 11 bc 30 be e7 c7 58 be 12 1c 90 3d f1 ba 34 be
       -0.17259242 -0.21170007 0.07036604 -0.17649437
000280 ff 05 4e bd 9d 11 3e 3e 66 2a a1 bd 11 2a 5b 3e
       -0.050298687 0.18561406 -0.07869415 0.21402766
000290 1b 3b 05 be 09 80 3e be a3 93 68 bd 44 ef c2 3d
       -0.13010828 -0.18603529 -0.056781422 0.095182925
0002a0 bb 7d 3a 3e f8 1c 25 3e de 01 00 be 61 f0 08 be
       0.18212025 0.16124332 -0.12500712 -0.13372947
0002b0 5e ea 97 bc c4 e5 40 3e ae 7a 30 be 97 94 30 bd
       -0.018544372 0.18837649 -0.17234299 -0.043110456
0002c0 ce 2e 1e be 72 5b cb 3c 45 8c 9b bd 8f 6f 0c 3e
       -0.15447542 0.024823878 -0.07595114 0.13714431
0002d0 fa 09 fd 3c 52 67 4e 3e 29 73 37 be ce 02 9d bd
       0.030888546 0.20156601 -0.17915024 -0.076665506
0002e0 e5 72 5a bd c0 88 a7 bd 39 6f 0e 3e 89 1b 75 be
       -0.05333223 -0.0818038 0.13909616 -0.23936285
0002f0 4e 35 ec bd b4 d5 17 3e 01 2b 61 be 0f e2 40 be
       -0.115336046 0.14827615 -0.21989061 -0.18836235
000300 75 b1 8d 3c 88 e6 89 3d 85 af 7b 3d f7 54 3a 3e
       0.017296532 0.067334235 0.061446685 0.18196474
000310 e7 f9 bc bc bd 8d 1f be 59 cd 67 3d e6 d0 0d 3d
       -0.023068381 -0.15581413 0.05659232 0.03462305
000320 8b be 10 3e 43 6a 7d 3d 88 e0 d7 3d 2f 6a d3 3d
       0.14135186 0.061868917 0.10540873 0.10322987
000330 b0 53 a6 3b 57 d9 1c be d6 fb 29 be d0 c9 01 be
       0.0050758943 -0.15317284 -0.16599974 -0.12674642
000340 bc 98 9d bd b8 ca 53 3d 88 1a 02 be 1b 4c fd 3d
       -0.076951474 0.051707 -0.12705433 0.123680316
000350 33 32 20 3e 69 33 2c 3e 84 51 1e 3e 65 4e 11 bc
       0.1564415 0.16816486 0.15460783 -0.008868788
000360 14 c2 74 3d 13 06 a0 3d 8a 74 5d 3e eb 29 fd bd
       0.0597554 0.078136586 0.21626487 -0.12361511
000370 b5 b1 16 be 5a e6 14 3e d6 58 2d bd 81 5f b6 3d
       -0.14716227 0.14540997 -0.04232105 0.08904935
000380 e1 de 56 be 8d 82 53 3e 22 d4 13 3e ce 0c 65 bc
       -0.20983459 0.2065527 0.14436391 -0.013980104
000390 7b 73 5c bc 3e 87 a8 bd 19 14 f7 bd 13 5a c8 bd
       -0.013455267 -0.082289204 -0.1206438 -0.09782805
0003a0 9b 45 68 be ad db 08 be 36 63 33 be 11 f7 08 bc
       -0.22682802 -0.1336505 -0.17518315 -0.0083596865
0003b0 9e de 11 be b9 64 04 be b6 89 3f 3e 94 04 8c bc
       -0.14245078 -0.12929048 0.18704876 -0.017092027
0003c0 52 c7 b6 3d fc 2c ba 3d cc 64 73 3d 44 8f 55 3e
       0.08924736 0.09090611 0.0594223 0.20855433
0003d0 a3 56 78 bc b9 f6 ea 3d d0 ca b5 bd 89 9f 18 3e
       -0.015157375 0.1147284 -0.08876574 0.14904608
0003e0 17 21 af 3d 8b 62 13 3e ce 45 f9 bd b1 e1 95 bd
       0.08551233 0.1439306 -0.12171517 -0.07318438
0003f0 9a 70 68 3e 06 6a 55 3d c5 5d fe 3d 30 03 76 be
       0.22699204 0.052103065 0.12420229 -0.24024653
