models/mec_policy_ep4000.pth (torch, 576658 bytes, 11 tensors)

critic.0.weight f4 [256, 19]
00000000: e991 25be 0a4c 453e 7153 a7bd 0ac6 08bd
00000010: 961d 41be 4e60 df3d 4414 edbe 9543 56be
00000020: 6c1b f93e 9a3b aa3e 6540 373e 3531 633d
00000030: 1127 0cbd 717e 5f3e 1dca 4fbe 881c bcbd
00000040: 6962 bbbd aa04 023e 64da 15be a788 183e
00000050: 2738 eebd bb84 4ebe e1f8 0f3e d6f1 f33d
00000060: 20a3 5dbd 3a68 0f3f 9954 d53b 3e73 2dbe
00000070: db21 1bbe 00db 50bd b6f2 ea3e 439c 21be
00000080: 54e1 4cbe 8ebb 01be e066 5e3d 7a0d 923c
00000090: 52f2 d43d 7176 2f3e 3558 f2bd aa91 9f3e
000000a0: 77a4 28bc 3781 83bc 0032 f439 a741 69be
000000b0: 051c fb3e 9dd5 b93d e589 dfbe aa51 203e
000000c0: 0d6e 003e 2f7f babd 4dc2 b13b 8235 673d
000000d0: 7d4c 973d b6c4 56bc d267 4d3e 2a6d febc
000000e0: 8d87 dbbd 2667 dc3d 2904 4d3d 0660 7abe
000000f0: ff39 ccbc b0c5 573c 4618 41be cf70 89be
00000100: e243 32bb e55a e83e 53fb 71bd 632a 103e
00000110: 8051 053f 0f2e 36be 2b5f ebbd b561 b83d
00000120: 3dcb 05be 034f e43d bce0 c03c f592 003e
00000130: b00c 823d 2dbf a2bd cebc 0ebe ed43 babc
00000140: 9f12 f4bd 7f60 5b3e 58de 403f 3bd8 2b3d
00000150: cfb0 683e ad1f aa3d a47e 763d f301 fa3e
00000160: adad f33d 7b16 833d 3d91 3cbe 82de 35bb
00000170: 4bab 1d3e f901 8fbd fe8a 793d 6dd9 68be
00000180: 8d96 c3bd 58a3 8d3c 50c4 dd3d e002 9cbc
00000190: f43e 793d b8a9 d0be f448 5abe 64d9 2cbe
000001a0: af8b 613e 1320 223e 1b9d 3e3f 5e66 84be
000001b0: 950f 413e a638 44be 3688 13be 9045 88bd
000001c0: 1fa0 75be 6bac 683c 5c63 9fbd f3fd fdbd
000001d0: 4b9b 19be 8257 fa3d 108e 03be 1942 333e
000001e0: fa6e 313f 64b6 413e f39c 393e a1c7 393c
000001f0: cc42 a5bd 92c9 8e3d 9f59 23be 3451 39be
00000200: 5d98 53be 8f19 223e 7777 bebd 39c2 0bbe
00000210: 2f3f 4abe 18b3 2a3e 575a 033d 5514 b73d
00000220: 7553 bf3d 12eb 0ebe ba59 3bbe bc1f cabe
00000230: 0286 673e c574 2a3e b2ee 633e f332 453e
00000240: 609c 9f3e 41f5 f3bd 8d5a 813e 3012 14be
00000250: 0bf0 a1bd cd5e 36bd 92ca 17be d8cc f73d
00000260: d147 f5bd 3bd4 b1be 18f2 e73c fd95 45be
00000270: a870 c9bd b433 4a3d 3828 f83e 6a9f 3fbd
00000280: 9d90 573e 55cf 80bd 8ccb 78bd b43d 0a3f
00000290: 8218 633a d2e1 a2be 572b 433e 0661 03be
000002a0: aff4 f4bd 9ce3 97be 9557 7abb cfaf 503d
000002b0: 21b6 67be 30b5 54be 3165 c7bc 9d93 66be
000002c0: 3b35 64be 8643 a2be 0619 c6be df89 64be
000002d0: 8f4c 463b 49cc 2a3e ad6f b03e 7fda 5e3e
000002e0: 1049 5abe 2bca 4f3d a17d 02be 077f 3abe
000002f0: 72c3 773d 4e52 a23d d91d a3bd 6e34 85bd
00000300: c649 033e 75f6 4bbd e8eb 943c ed26 66be
00000310: 13d7 a93e fd49 22be 1538 e4be ede6 47be
00000320: 2ca1 0cbe 8fc4 d5be d1eb 1abd 3a3c 9c3e
00000330: 1fdf fa3d 93d5 abbb a462 0c3d b8d5 393e
00000340: 00d5 063e 497b 863d 7932 0e3e 4f21 5cbd
00000350: dc60 3a3e 188c 34bd 7c40 1bbe a0df 123f
00000360: 3b17 2cbe a509 61bd 4da3 81be ca75 65be
00000370: cbea 34bf b1e6 333e 7c33 a63d b4bd 83bd
00000380: 336a 0cbe e5a0 2cbe c637 a43d c428 5c3e
00000390: 5dfd c33d 7dce f8bd 44c2 00be 74ac 2b3e
000003a0: 2e36 b33d 4a31 a13d 9cd0 fdbe ccdc 62be
000003b0: de7e de3c 285b e9bd d8f5 f43c 9260 203f
000003c0: 3616 573d ce88 8f3e c8a3 94be b1dc 4f3d
000003d0: e358 79be 0564 f8bd ae65 16be f7ba 33be
000003e0: 1435 0b3e 0a5e d9bd 0124 aa3d 8817 883c
000003f0: c727 2d3e 42bf 1fbf 7546 193e decd 153e
-0.16168942 0.19267288 -0.08170212 -0.03339199 -0.18858942 0.109070405 -0.46304524 -0.20924218
0.48653734 0.33248597 0.17895658 0.05546685 -0.034216944 0.21825577 -0.20291944 -0.091851294
-0.091496296 0.12697092 -0.1463409 0.14895879 -0.11631804 -0.2016782 0.14059784 0.11911361
-0.054110646 0.5601841 0.006510329 -0.16938493 -0.15149634 -0.050990105 0.458883 -0.15782265
-0.20007831 -0.12669203 0.054297328 0.017828692 0.103977814 0.17135026 -0.118332304 0.3116582
-0.010293118 -0.016052825 0.0004657656 -0.2277895 0.49044815 0.090739466 -0.43659893 0.15656152
0.12541981 -0.091062896 0.005424774 0.056447513 0.07387636 -0.013108423 0.20059136 -0.031057913
-0.10719214 0.107618615 0.050052796 -0.24450693 -0.024929998 0.013169691 -0.18856916 -0.2684388
-0.0027201106 0.45381847 -0.059077572 0.14078669 0.52077484 -0.17791007 -0.11492761 0.09003011
-0.1306581 0.11147883 0.023544662 0.1255606 0.06350076 -0.0794662 -0.13939211 -0.022737468
-0.11917614 0.21423529 0.7533927 0.04195426 0.22723697 0.08306823 0.060179368 0.48829612
0.118983604 0.06400772 -0.18414779 -0.0027751033 0.15397374 -0.06982798 0.06092357 -0.22739191
-0.095502 0.017289802 0.10828459 -0.01904434 0.060851052 -0.40754485 -0.21316892 -0.16879803
0.22025941 0.15832548 0.74458474 -0.2585935 0.188536 -0.19162235 -0.14407429 -0.06653893
-0.23986863 0.014201264 -0.07782623 -0.124019526 -0.15000646 0.12223722 -0.12847161 0.17505683
0.6930996 0.18917233 0.18126278 0.011339099 -0.08069381 0.0697204 -0.15952156 -0.18097383
-0.2066359 0.15830062 -0.0930013 -0.13648309 -0.19750665 0.16669881 0.032068577 0.08939425
0.0934209 -0.1395686 -0.18295947 -0.39477336 0.22609714 0.16646107 0.22259024 0.19257717
0.31173992 -0.11912013 0.25264397 -0.14460063 -0.07907113 -0.044524003 -0.14823368 0.12099618
-0.119765885 -0.34732231 0.028313681 -0.19295497 -0.098359406 0.049365714 0.48468184 -0.04678289
0.2105126 -0.062895454 -0.060740992 0.540004 0.0008663015 -0.31812912 0.19059502 -0.1282998
-0.11960732 -0.2966584 -0.0038199176 0.050948914 -0.2262807 -0.20772243 -0.024340244 -0.22517247
-0.22285931 -0.3169214 -0.38690966 -0.22318219 0.0030258035 0.16679491 0.34460202 0.21763037
-0.21316934 0.05072991 -0.12743236 -0.1821252 0.060489126 0.079258546 -0.07964677 -0.06504141
0.12821111 -0.049795587 0.018178895 -0.22475787 0.331719 -0.15848537 -0.44574037 -0.19521685
-0.13733357 -0.41751525 -0.03782255 0.305147 0.12249588 -0.005243966 0.03427376 0.18147933
0.1316719 0.065664835 0.13886441 -0.053742703 0.18201011 -0.044078916 -0.15161318 0.57372475
-0.16805737 -0.05494084 -0.253199 -0.22408214 -0.70670766 0.1756847 0.081152886 -0.064326674
-0.13712387 -0.16858251 0.080184504 0.21499926 0.095698096 -0.121487595 -0.12574106 0.16765004
0.08750568 0.07870729 -0.4957322 -0.2215454 0.027160104 -0.1139434 0.029902384 0.62647355
0.052511416 0.2803406 -0.29031205 0.050747577 -0.24350314 -0.12128452 -0.14687225 -0.1755179
0.13594466 -0.1061364 0.083076485 0.016612783 0.16909705 -0.6240121 0.14968283 0.14629313

critic.0.bias f4 [256]
00000000: d89c 31ba 1182 4e3e 3e60 39be 572c 113e
00000010: f835 7cbd b0e8 7c3e bdca 3f3e 4024 953d
00000020: 6350 cf3d 1a1b 57be 02ae 3bbe 02f7 653d
00000030: b5e9 27be f97e 7c3e 90d6 ec3d 3487 0f3c
00000040: fa39 9abc edc8 11be 5e78 26be c7e3 163e
00000050: 3b52 01be 4ad8 803c 5067 8b3d 0758 02be
00000060: 8ad3 fbbc 2560 c2bd 6bf7 82be 2f17 b23c
00000070: 940b 423e 86e9 04be d9b7 a1bd 296f 55bd
00000080: b96b 6e3e 2c18 243c 1c36 6a3d 5cc4 41bd
00000090: 7a4b 0a3e 8800 ecbd 92fa c83d e245 a6bd
000000a0: b04c 0b3e 9540 0ebe 4c7e 353e e427 c9bd
000000b0: 7986 f13d 8845 a53d b660 6abd ac8b 213d
000000c0: a4c7 b43d fed7 c53d 233a 0ebe b39d bcbd
000000d0: 310b 1f3d abaf bcbb 90d5 46be 1133 8e3d
000000e0: c495 10be 56cf 033d 05dc a8bd cc82 343e
000000f0: 5957 133e 1ac7 c9bd a4bd 763e 4880 033e
00000100: 309c 0cbd f1c1 01be d56b 863d 52f6 3f3e
00000110: 80f5 96bd 0554 8ebd c77f efbd 4279 1c3e
00000120: 2900 583a c4d0 17bd edba 033e f925 babd
00000130: 493d 15be e466 1f3e eff9 aebd fdad 203e
00000140: 902e 05bd e743 1b3e a660 733e 07a6 843b
00000150: 188a 9dbd 86af 7f3e 1141 bebd 1efb b13d
00000160: 297e 8ebc 49d3 cbbd d7ee f6bd c43c 933c
00000170: aa68 0fbe 66d4 b0bc 4f8c c93d 3859 b6bc
00000180: 6a53 0a3e 6672 4dbe b134 c83d 55fc 32be
00000190: 6a4f 1bbe 4892 f7b4 a37f e53d c1f4 09be
000001a0: 8591 0cbe 36a7 d23d 5b34 4abd cd4e 573c
000001b0: bf5f 273d 276a 39be c115 cdbd a5fd ef3d
000001c0: 3bcb d73d 26d7 3e3e 97b6 043e d5e8 6abe
000001d0: 112c 9c3d 386f a6bd 3581 2f3c cd1e 03be
000001e0: fe4b 0abe 901c a93d 3895 35be c7b1 1b3d
000001f0: ae37 143e 38ee 60be c491 853d 0f04 aa3d
00000200: 27eb 9ebd c589 0e3e 298f af3d ffcb 0bbe
00000210: 8e1c 72bb 592e 383c d4a4 bc3d a28c 93bd
00000220: 59c5 a33c 963e 823d 2b2d 4f3e a2a5 8d3d
00000230: 860f af3d 5f6b c93d 36fb 38bc 1a6f 0bbd
00000240: ffd5 a9bd 56ac cbbd c0df 933a 908a f03d
00000250: f9f2 1cbe aac9 47bd a011 5cbe b32c 3fbe
00000260: deb0 adbd 825a 4b3e 754d 2cbe 3585 e4bd
00000270: 0f6c 0e3e 1742 933d df6d 2c3e 6fd9 febd
00000280: f0d9 8e3e bd54 343c 84ec fbbc 8bbe ea3c
00000290: bf8e 79bd e999 24be 5a3d a1bd ae7b b9bb
000002a0: e169 7ebd 8d65 adbd d85d 4cbd adc2 653e
000002b0: 2dc4 55bc afa5 3d3e ce4b 00be 0035 303e
000002c0: e77a 52bd 7d86 5f3d 3f1b 0cbd a576 59bd
000002d0: fcfc 22bb b82e cabd dbd4 ed3d 1800 cfbc
000002e0: da82 51be 9578 ee3d 4a39 31be 6af6 fdbd
000002f0: df75 1dbe 4637 0fbe ce6c d3bd 4303 543d
00000300: 9d1e bc3d 95a9 013e ac92 883e 6e7f dbbd
00000310: fd1a 473e fa44 5f3e ea3e 583e 7639 49bd
00000320: 3221 23be 0258 46bc f45a 40bd 5951 52bd
00000330: 862e bc3d 258f 2a3d dfe7 07be a2fa 0e3e
00000340: c016 8dbd 431b 103e afb1 fe3d 5dc0 153e
00000350: 11f6 87bc a5b8 85bd 0c67 fe3d 181e 3b3e
00000360: 8efe 1d3e 7715 2b3e f655 8f3d b7bf 3e3e
00000370: 6326 943d 812d b9bd 8908 473d e899 61bc
00000380: 659b 59be 6582 383e 0f21 a73d 2613 413e
00000390: 172b 5b3e c3df fb3d 225d 353e bf64 f5bd
000003a0: be25 acbd d35b 7c3e adce 20be 42b5 0abd
000003b0: 8eb2 ee3d 2473 98bd 9101 7dbe 61e3 563b
000003c0: 8f42 22be 019c 41be e3bb 143e b8bb 33be
000003d0: 51c2 6dbe 1860 40be a3e6 0ebd 76dd f7bc
000003e0: c504 64be a1e4 2c3e 708a 16be db8e 52be
000003f0: e809 493e 1860 78be 0b70 153e 7806 2d3e
-0.00067753857 0.20166804 -0.1810312 0.1417707 -0.061574906 0.24698138 0.18729682 0.07282305
0.101227544 -0.21006432 -0.18328097 0.056143768 -0.16397746 0.24657811 0.11564362 0.008760262
-0.018826474 -0.14236803 -0.16256854 0.14735328 -0.12629025 0.015728135 0.06806815 -0.12728892
-0.030740518 -0.09490994 -0.2557939 0.02173957 0.18949729 -0.12979707 -0.07896394 -0.052107964
0.2328328 0.010015529 0.05718051 -0.047306404 0.13505355 -0.11523539 0.098134175 -0.08118798
0.13603473 -0.13891824 0.1772396 -0.09822062 0.11793227 0.08069903 -0.057221137 0.039439842
0.08827141 0.09660338 -0.13889365 -0.09209766 0.038829032 -0.005758246 -0.19417405 0.06943334
-0.14119631 0.032180153 -0.082450904 0.1762802 0.14388789 -0.09852429 0.2409578 0.12841904
-0.03432864 -0.12671639 0.06563536 0.18746307 -0.07371044 -0.06949619 -0.116942935 0.15280631
0.000823977 -0.03706433 0.12864275 -0.09089274 -0.1457416 0.15566593 -0.08543765 0.15691371
-0.03251511 0.15162621 0.23767337 0.0040481123 -0.07692355 0.249693 -0.09289754 0.08690475
-0.017394142 -0.09952409 -0.12057274 0.017973311 -0.1400477 -0.021585654 0.09841215 -0.02225934
0.13508382 -0.20063171 0.09775675 -0.1747907 -0.15167013 -4.611377e-07 0.112059854 -0.13472272
-0.13727386 0.10285799 -0.049366336 0.013141346 0.040862795 -0.181069 -0.10013915 0.11718301
0.1053681 0.1863676 0.12960277 -0.22940381 0.076255925 -0.08126682 0.010711958 -0.12804718
-0.13505551 0.08257401 -0.17732704 0.03801134 0.14474365 -0.21965873 0.06521943 0.08301555
-0.077596955 0.13919742 0.085722275 -0.13652037 -0.003694329 0.011241519 0.09211126 -0.07204558
0.019991564 0.063595936 0.20232074 0.069163576 0.08547883 0.098349325 -0.011290362 -0.0340415
-0.0829277 -0.0994498 0.0011281893 0.11745179 -0.15327062 -0.048776306 -0.21491098 -0.18669395
-0.08481 0.19858745 -0.16826423 -0.1115822 0.13908409 0.0719034 0.16838787 -0.12443816
0.27900648 0.011006531 -0.030752428 0.028655311 -0.06092715 -0.16074337 -0.0787303 -0.0056604957
-0.062112693 -0.08466635 -0.049894184 0.22437544 -0.01304726 0.18520235 -0.12528917 0.17207718
-0.05138674 0.054571617 -0.03420567 -0.053091664 -0.0024870029 -0.09872192 0.116128646 -0.0252686
-0.20460072 0.11644093 -0.1730701 -0.124005154 -0.15376996 -0.13985929 -0.10323487 0.051760923
0.091855265 0.12662347 0.26674402 -0.10717665 0.19443889 0.21803656 0.2111775 -0.049127065
-0.15930632 -0.012105944 -0.04696174 -0.05134711 0.09188561 0.04164042 -0.13272046 0.13962796
-0.06889105 0.140729 0.12436234 0.14624162 -0.016596826 -0.06529359 0.124219984 0.18273199
0.15429136 0.16707407 0.069988176 0.18627821 0.07233884 -0.09041882 0.048592124 -0.013769604
-0.21250685 0.18018492 0.08160602 0.18854961 0.21403156 0.122985385 0.17711309 -0.119821064
-0.08405636 0.24644403 -0.1570384 -0.033864267 0.1165515 -0.07443836 -0.24707629 0.0032789337
-0.15845703 -0.18907167 0.14524798 -0.17552078 -0.23218657 -0.18786657 -0.03488792 -0.030256968
-0.22267444 0.1688409 -0.14701247 -0.20562308 0.19632685 -0.24255407 0.14593522 0.16896999

critic.2.weight f4 [256, 256]
00000000: 10a5 aebe 06f0 233c b488 8c3e d37a f0bd
00000010: c2d0 b6bc 0b1e 25bf d9a3 5abd d91e febd
00000020: 1148 61bc d37d 96bc 3c9b ee3d 0754 383e
00000030: 834a 30be 53ed b4bd 55a5 2b3c 9259 a4be
00000040: 56d2 c83e 7a6f 70bd 9b42 8abd 4b63 783e
00000050: 6e61 513e f68e ac3e d2e7 733e e3c1 dcbc
00000060: bc82 6f3d f39b 9c3d 5eed 203e 6b40 3c3d
00000070: 0496 163e f0d5 69be 6a18 ccbe fdd3 0ebe
00000080: d4a8 88be 87d3 073e 4aa0 6dbe a15e b93d
00000090: 98a5 bdbc 46b9 febd 38d6 b7bd 42b6 863e
000000a0: 31b9 4f3c 8e99 b33e 173c d3be 0344 f2bc
000000b0: cc3b 05bd a28c 723e 77c6 38be 62e4 6cbe
000000c0: 2333 ba3e bd94 173e d1a7 283d 5d60 033f
000000d0: 1f77 5c3c 14c7 f0bc 30e0 cd3d 2095 1d3d
000000e0: 94ff 443e 4185 31bd 6f50 993c 31da 9fbd
000000f0: 83b7 37be 5e91 f4ba d292 aabd 0116 63be
00000100: 6c16 543d 00de 39be 21e0 4bbd 013a fdbd
00000110: 748d 5b3e 18e4 1f3e 9e92 433e 17a3 ae3d
00000120: 1afb a23e 21b9 aa3e 9a3c b93d afdd cdbe
00000130: 5ce6 a3be b64a 843e 932b e3bd d477 4a3e
00000140: 91f0 0b3d d3fc 053e 27d0 a0be a49f a5be
00000150: 8e10 153e 45c7 853d d50f 15bd e826 fabd
00000160: 2783 563e 2601 c6bd ef66 13bd e579 e43d
00000170: 3d09 05be 6e05 053e deb5 7cbe 991f 7dbd
00000180: 5c0a 713e 464e a5bd db8b 77be cac8 0b3e
00000190: d59c 84bd 211d e5bd cd35 bd3b edc0 083b
000001a0: c2b1 d3bd 9e20 143c 4731 11be 7634 53bc
000001b0: 242e 7ebd 26d2 10bd 37a3 51be 07f1 f7bd
000001c0: 9e88 9fbe 5991 77be b205 26be 2607 6abe
000001d0: 809f 273d 6554 25bd c87b 1f3c f715 b13e
000001e0: 0249 d7bc 8545 843b e997 7a3d 9946 17bd
000001f0: d73d 493e 5874 da3d 7da0 463d dd0d 543d
00000200: 6229 033e 078c 9b3c 1d4f 383e cc09 003e
00000210: f327 673d 4815 f8bd 68b6 2fbe a21b bcbe
00000220: 0aea 433e a1ff f43c 6305 97bb 5df2 883e
00000230: bc59 cebd 56de 1ebe 5495 533d 3559 0dbe
00000240: bf61 3c3e d487 a93d 5361 9dbe b79c 11be
00000250: 39a6 25bd c048 913d af16 843e 0105 62bc
00000260: eb2f 913c 3c9b 66bd 1c13 d3bd 9090 96be
00000270: 85aa 80bd 6df8 3dba 1e6a 3fbe 535d 883e
00000280: 6164 1fbe 7a0b 6b3d 056b e43e feaf 15be
00000290: b81d 69be 81d0 f6bd 3eef 96bd 91cc 82bc
000002a0: fb98 a73d 8ed9 f73d 3b6e 3dbd 7e85 f93c
000002b0: 4e9e e5bd 5c38 ebbb 7e40 19bd 6d5d 1abc
000002c0: ac58 b73e 6a14 7ebd 6851 92be dda4 0bbe
000002d0: 36f4 a43e 8f96 a0bd 6b5a 45be 06d9 bbbd
000002e0: 116d 603d 5455 11be 9661 2f3e 8fc3 02be
000002f0: ee3c fdbd 013d 86bb 40fc eb3d ff00 0b3e
00000300: 8f27 cebc 4a95 90be bc66 8fbc 083c 20be
00000310: 281e 5b3e 9ef3 053d e3d0 8fbd 3452 75bd
00000320: f1d3 983e 1df0 863e db50 a33e 425c 9bbd
00000330: 9f95 453e abdc a23e 9802 953e 3c72 033f
00000340: 40ed 0a3e 319b 423d 00b7 89bd f35e 403c
00000350: ce12 71be aeaa babb d0c7 2dbe ed31 7ebc
00000360: 6bcb 513e 8452 46be 308c 8fbd 3d7f 88be
00000370: d568 0ebe c30a 0c3e 2103 5b3d ae20 ee3d
00000380: 3470 3b3e 8115 113e fd9e 56bd e8ab 903e
00000390: 978e 9fbe daf4 31be 23fe 49bc d172 f23d
000003a0: 22ae 723e e42f 813e 9236 21be 430e 4a3e
000003b0: 5aa5 983b bfb6 843e a0ff e4bd 5ccd 8d3c
000003c0: b9be f1bd aa44 48be 07bf 963e 54f1 e23e
000003d0: 4030 2d3e abf0 7c3e 1ef9 1d3d 0ea2 26be
000003e0: 2bc5 de3c 7de5 063e c2b1 de3e 5a88 4ebd
000003f0: 1486 2dbd 4923 963e 247b 223d 86c2 8abc
-0.34110308 0.0100059565 0.27448046 -0.11742177 -0.02231634 -0.64498967 -0.053378914 -0.124082275
-0.013750092 -0.018370545 0.11650702 0.18000804 -0.17215924 -0.088343285 0.01047643 -0.32099587
0.39222974 -0.058700062 -0.06750985 0.24256627 0.20447323 0.3370282 0.23818901 -0.026947921
0.058474287 0.076469325 0.15715548 0.04595987 0.14705664 -0.22835517 -0.39862376 -0.13948055
-0.26691306 0.13264285 -0.23205677 0.09051252 -0.02315025 -0.12437682 -0.08976406 0.26310927
0.01267843 0.3507809 -0.41256782 -0.029573446 -0.03252773 0.2368646 -0.18044458 -0.23133996
0.3636714 0.14802833 0.041175667 0.51318914 0.013456135 -0.029391803 0.10052526 0.038472295
0.1923812 -0.04333997 0.018715112 -0.078052886 -0.17941098 -0.0018659045 -0.08328785 -0.22176363
0.051779196 -0.18151093 -0.049774293 -0.12364579 0.21440679 0.15614355 0.19098899 0.08527201
0.318322 0.33344367 0.09044762 -0.40208194 -0.32011688 0.2583825 -0.110922955 0.19772273
0.03416497 0.13084726 -0.31408808 -0.3234836 0.14557096 0.06532148 -0.03639205 -0.12214452
0.20948468 -0.09668188 -0.035986837 0.11156062 -0.12991805 0.12990353 -0.24678752 -0.061797712
0.23539108 -0.0807157 -0.24174444 0.13650814 -0.06475226 -0.111871965 0.005774236 0.0020866946
-0.10336639 0.00904098 -0.14178954 -0.012890926 -0.062055722 -0.035356663 -0.20472418 -0.12106519
-0.31158918 -0.2417654 -0.1621311 -0.2285429 0.040923595 -0.040363688 0.009734102 0.3458707
-0.02627993 0.0040366077 0.06118003 -0.03693256 0.19652496 0.10666722 0.048492897 0.051771034
0.12808755 0.018987669 0.1799893 0.12503737 0.056434583 -0.12113434 -0.17159426 -0.36739832
0.19132248 0.02990705 -0.0046087964 0.26747409 -0.10075709 -0.15514502 0.051656082 -0.13803561
0.18396662 0.0827786 -0.30738315 -0.14219938 -0.040441725 0.07093954 0.25798556 -0.013795138
0.017723044 -0.056300387 -0.10306379 -0.29407167 -0.06282524 -0.0007246796 -0.18692824 0.266337
-0.15565635 0.05738399 0.446129 -0.14617917 -0.22765243 -0.12051488 -0.073698506 -0.015966685
0.081834756 0.12102042 -0.046247702 0.030459162 -0.11211835 -0.0071783494 -0.03741502 -0.0094216885
0.3580984 -0.062031187 -0.28577733 -0.13637109 0.32217568 -0.07841217 -0.19272773 -0.09172253
0.054791514 -0.14192706 0.1712707 -0.12769912 -0.12365137 -0.0040966277 0.11522722 0.13574599
-0.025165347 -0.282389 -0.017505042 -0.156479 0.21398222 0.032703035 -0.07022264 -0.059892848
0.29849198 0.26355067 0.31897625 -0.07585956 0.19295357 0.3180898 0.2910354 0.5134618
0.13567066 0.047511283 -0.067243576 0.011741388 -0.2354233 -0.005696616 -0.16970754 -0.015514833
0.20487754 -0.19367415 -0.070091605 -0.26659575 -0.13907178 0.1367598 0.05346978 0.11627327
0.18304521 0.1416836 -0.052397717 0.28256154 -0.31163475 -0.1737856 -0.012328657 0.11838306
0.23699239 0.2523185 -0.15743473 0.19732003 0.0046583833 0.25920674 -0.11181569 0.017309837
-0.118039556 -0.19557443 0.29442617 0.44324744 0.16912937 0.24701183 0.038567655 -0.16272756
0.027193626 0.1317348 0.43494993 -0.050423004 -0.042364195 0.29323795 0.039668217 -0.01693846

critic.2.bias f4 [256]
00000000: 6f81 b6bd 913d ba3a 4c0a 043d 00ca cbbd
00000010: 95b5 90bc c39f 67bc 8ec0 9e3d d36c 71bd
00000020: 215f 19bb d20e 9dbd 8739 27bd 252e 773d
00000030: 95f2 a43b a424 cf3d b4d8 6c3c ea2c 5d3d
00000040: df3c ddbc 8f02 e8bc e2e6 7c3c a6ee 2e3d
00000050: 1f34 873b a95a 06bd 642d bbbd ba0d 513c
00000060: fce4 19bd 90d2 733d 1c8c 503d ebba 0cbd
00000070: 6a51 873d ba51 16bd ceb4 89bd b1dd ac3d
00000080: 8fcb 9d3d 4bad 1d3d 978d be3d 1821 c2bb
00000090: 6700 883c e77a 01bd cad8 3cbb dba4 aabd
000000a0: b7e3 183d dd4a 9d3d 0959 803d aa9c a43d
000000b0: 9637 febb fcb8 843c 10ad b3bc 5850 093d
000000c0: 90b7 d53c 6158 663d 3422 103c 8982 38bb
000000d0: abca 43bd 9a1e 46bd 2e0f cb3d 8007 c3bc
000000e0: 05d1 3cbb 6431 c43b a90f cd3c 0c0e 25be
000000f0: 5ef2 963d db20 12bd 63af c7bc 5fb3 b7bc
00000100: 1221 5f3c 67dd d83d 738f 99bd 64e9 10bc
00000110: 1ef6 8fbd 0c31 9a3b 4b30 3b3c f50e fb3c
00000120: be71 613c fb28 163d 8ff7 11bd 067f 2cbc
00000130: 6380 473d ee5d b63c 839e 253c 0100 243d
00000140: ce0a 773d 5dc7 6c3c 6afa 45bc 0cc5 3abc
00000150: 193e a03d 7c94 cdbd 5e91 563c 332d 21bd
00000160: c9df 383d 9b4e 13bd ffed f43c fc55 533b
00000170: 05c9 a13c f506 74bd 4a11 5a3c 6a46 0dbd
00000180: 816f 0fbd e6f5 c63c 9864 d33d fcef a63d
00000190: 990b af3d b5b7 55bd 1477 dbbc f8c9 a33c
000001a0: 42f1 14bc b99c 983c 6fb4 99bc 4835 08bc
000001b0: 98e7 6f3d 8fae 8dbb a7e8 d4bd 4f46 e43d
000001c0: 46e0 13bd c73e 513d a76e 99bc 1672 95bd
000001d0: 6ba1 5e3d 5e89 2b3c df35 133d dcbe bf3c
000001e0: fcdc f43c fe74 c4bd 27d3 9b3c 31e4 fcbc
000001f0: 7245 fe3c e369 85bc 673b e6bc 2cbf a5bd
00000200: 02c3 9e3c 225b 333d e87b 713d 671a f0bb
00000210: 0421 0fbd 9068 93bd 3d9a 1e3d ab47 ecbb
00000220: 58f1 e3bb 9619 98bd 059e a9bd 8e4b cfbd
00000230: 0e94 95bd 40c2 8b3d 163b b0bd 2012 abbc
00000240: dd15 e0bd d487 29bb 7836 7a3d 84f2 0dbc
00000250: d8dd 3ebc 9327 023d 9157 013c ea20 a63d
00000260: fc29 e53d 7f1b 99bd 95f7 b93b a371 2bbd
00000270: c228 63bc a83b a3bb 5f7d bf3c cf9b 983d
00000280: 5bd6 83bd ee9b 533c d4d3 943d fb3e f93c
00000290: 807e e2bd 9ae5 f4bd 1219 a23b a62c 5fbd
000002a0: 75c1 70bc 84aa 8fbd 4fca e33a 3943 4ebb
000002b0: 32b7 cbbc 0af4 baba eb6f 67bd 8cd0 c93d
000002c0: 6202 b5bd 7f46 e93c 489b 363d b86c 8c3c
000002d0: 9a8d 14bd a215 c0bd b604 a13d af46 b23d
000002e0: 22d6 273d 1fb3 183c 47de 88bd d31f 953c
000002f0: c34c 0f3b eb10 113d 8bef dcbc b5d9 553b
00000300: 3f30 aabd 3c20 a23c 1aa2 7c3d fbdf b33d
00000310: 7328 a13d c9a9 a8bc 8ea1 1b3c d261 e1bd
00000320: 87a9 91bb e6cb a1bd 52dd 65bd bb4b 7cbd
00000330: 26ee 8ebd f8e4 8abd 320f c43c 61f9 c1ba
00000340: b9e2 da3c 8b77 90bb b25a 0d3c 2c28 28bd
00000350: 00f6 eabd 87d4 96bd 0304 bf3d 0e00 1d3d
00000360: 1e2f 143c b0df 093d ee6a f93c 0a59 8ebd
00000370: 936e c63d 6ab1 5d3d 2e45 9d3d 911f 98bd
00000380: 1831 c73a af60 9fbc 32b0 513b 2853 abbd
00000390: 210c 67bd dc95 d53d 288f 6bbc 2460 413d
000003a0: 2329 08bd 280e 223c ac0a a63c 112b 193d
000003b0: 2bd4 55bd 905a 4cbd 1056 013c 5ccd aabd
000003c0: ab0a 3ebd e3bf a8bd 99d0 a23d be11 18bd
000003d0: fedd edbc e407 1bbd 5f37 a4bc c010 153d
000003e0: e69b aebc 820c b73d dcb0 123e 7473 6abd
000003f0: 2286 1f3d 367b 7cbd eb64 b73d beaa cbbc
-0.08911406 0.0014209022 0.032236382 -0.09950638 -0.01766471 -0.014137211 0.07751571 -0.058941673
-0.0023402649 -0.076688424 -0.040826347 0.06034674 0.005033801 0.101144105 0.014455963 0.05399791
-0.027006565 -0.028321533 0.015435906 0.04270806 0.0041260864 -0.032801304 -0.09139517 0.01275962
-0.037571892 0.05952698 0.05091487 -0.034357946 0.066073254 -0.036699034 -0.06723939 0.08440722
0.07704841 0.038495343 0.0930435 -0.0059243552 0.016601754 -0.03161135 -0.002881574 -0.08332225
0.03732654 0.07680295 0.06266982 0.08037694 -0.007758091 0.016201489 -0.021933109 0.033523887
0.026088506 0.05623663 0.008797217 -0.0028153977 -0.0478007 -0.048369028 0.09915005 -0.023807287
-0.0028811109 0.005987333 0.025031881 -0.1611864 0.073704466 -0.035675865 -0.024375623 -0.022424398
0.013618724 0.10589104 -0.07498064 -0.008844707 -0.07029365 0.004705554 0.011425088 0.03064678
0.013760028 0.036660176 -0.03563648 -0.010528332 0.048706423 0.022261586 0.010108593 0.040039066
0.06031304 0.014451829 -0.012083629 -0.011399519 0.07824344 -0.10038087 0.013096182 -0.039349746
0.045135293 -0.035963636 0.029898642 0.0032247296 0.019749174 -0.059576947 0.013309786 -0.03449098
-0.035018448 0.024287175 0.10321921 0.08151242 0.08547134 -0.05217715 -0.02679018 0.019993767
-0.0090907235 0.018629419 -0.018762795 -0.0083134845 0.058570474 -0.0043237875 -0.103959374 0.11146223
-0.036102556 0.05108526 -0.018729521 -0.07297151 0.05435316 0.010469763 0.035940047 0.023406439
0.02989053 -0.09592627 0.019021584 -0.030870529 0.031038973 -0.016285842 -0.028104497 -0.08093104
0.019380096 0.043788083 0.058956057 -0.007327366 -0.034943596 -0.07197678 0.03872131 -0.007210692
-0.0069562607 -0.07426755 -0.08282093 -0.10121833 -0.0730363 0.068241596 -0.0860502 -0.020882666
-0.1094167 -0.0025868313 0.0610871 -0.008663777 -0.011649571 0.031776022 0.007894413 0.081117466
0.111896485 -0.074759476 0.005675266 -0.04185642 -0.013864698 -0.004981477 0.023375211 0.07451593
-0.064373694 0.0129155945 0.072669655 0.03042554 -0.11059284 -0.119578555 0.0049468363 -0.05448594
-0.014694561 -0.07014945 0.0017379018 -0.0031473173 -0.024867628 -0.0014263403 -0.056503218 0.0985423
-0.08838345 0.028475998 0.04458168 0.017141685 -0.036267854 -0.09379126 0.07862227 0.08704888
0.040975697 0.00932005 -0.06683021 0.018203652 0.0021865822 0.035416525 -0.026969692 0.0032630984
-0.083099835 0.019790761 0.06167803 0.08782955 0.07869043 -0.020588772 0.009498967 -0.11004986
-0.004445258 -0.07900219 -0.05611927 -0.06159566 -0.06979017 -0.067819536 0.023933027 -0.0014799052
0.026719438 -0.004408782 0.0086275805 -0.041053936 -0.11472702 -0.07364755 0.09326937 0.03833013
0.009044437 0.03366059 0.030446496 -0.069505766 0.09689059 0.054124273 0.076792106 -0.07427896
0.0015197126 -0.019455282 0.003199589 -0.0836547 -0.05640805 0.10428974 -0.014377393 0.047210827
-0.033242356 0.00989107 0.02026876 0.037394587 -0.052204292 -0.049891055 0.007894054 -0.083399504
-0.046396893 -0.082397245 0.07949943 -0.037126295 -0.029036518 -0.037849322 -0.020045934 0.036392927
-0.021314573 0.089379326 0.14325279 -0.05723901 0.03894628 -0.06164094 0.089547954 -0.02486169

critic.4.weight f4 [1, 256]
00000000: a129 023f 1133 d93e dcdd 0fbf 3cad edbe
00000010: 41f6 c7be 6a56 dabe 8a90 febe b478 f1be
00000020: 204b da3e fd6c d03e 6e76 6a3f 12d4 12bf
00000030: 32a8 ccbe a1be e0be 684e 003f eb0a 0f3f
00000040: 39e4 273f f59f cc3e 76a5 f0be 2dac 103f
00000050: a08c bc3e 46bd e03e c44f d63e c96a f3be
00000060: d919 10bf 1435 abbe a33b 0e3f d8c9 f1be
00000070: 7e5c dfbe 5655 1f3f b563 c63e bfd9 ea3e
00000080: 58d3 68bf 54b3 f8be 2adf eebe 8e0f e6be
00000090: b431 e8be 19f8 06bf 7b46 edbe 7b6f fc3e
000000a0: c4e3 e2be 59f2 e13e ad9a cdbe 6d10 183f
000000b0: 8d47 e9be c955 173f e8b5 d2be 2eed 5ebf
000000c0: da77 ad3e fafd 0b3f d832 05bf 8a3b e1be
000000d0: 62a0 cebe 2e29 d83e 7763 623f 8bfb d53e
000000e0: f215 d93e e98b 033f 8bb8 c1be 803b 863f
000000f0: 22dc f4be a1f3 f1be adf1 43bf 22ea e2be
00000100: aeef 263f 7ff1 69bf 3a42 f03e 172d d93e
00000110: 02fc cc3e 6191 edbe 5411 12bf c770 023f
00000120: 7ff9 e93e 0b06 d9be 589a cbbe c367 11bf
00000130: 30f4 113f e401 d6be 2988 04bf 7610 14bf
00000140: 9dae 0f3f 0bad 0abf b021 cabe fa14 e7be
00000150: cf29 00bf 66df 0ebf 5a87 d2be 8ded b13e
00000160: e368 edbe 9431 cabe b038 003f 15f5 64bf
00000170: 7ac5 e73e 9496 f2be be87 d1be 9f9e dd3e
00000180: a61f d9be 5f5f e3be d7e4 0bbf f3f8 e13e
00000190: c5b1 bebe e55e f0be 6b7e 12bf cb85 113f
000001a0: 9450 093f f7ef b1be 3fa3 eb3e 7478 d7be
000001b0: 64c5 15bf c360 343f faf8 023f b1f9 88bf
000001c0: 23a7 fabe e71c 19bf 98ee da3e aa06 ea3e
000001d0: e0a7 c9be 1a27 e3be 1419 2fbf c7dd 00bf
000001e0: 5ca1 19bf a498 e6be 7d9a f63e 44dc e1be
000001f0: 181a e3be e774 0c3f 6936 10bf 8c5c ecbe
00000200: e27f 343f ca7c e2be 7a0b 12bf e501 f1be
00000210: 6635 e8be 6224 c93e ebe6 d1be c5a7 f0be
00000220: ba35 f9be 1c0c 013f 551d e63e a79a fcbe
00000230: b65d ce3e a732 e0be ff15 a13e afd1 e63e
00000240: ab7e e2be 25c4 d33e 67f6 07bf 774e 06bf
00000250: 3e48 e7be f49f ccbe 26b8 0abf b3e1 e53e
00000260: 4ba9 58bf 3f8c d83e 438e f03e e46f f33e
00000270: 5c82 19bf c51b eabe eca7 cd3e 71da c4be
00000280: aa4a 033f f42c ebbe a956 07bf 26f2 f13e
00000290: 0a3d da3e c905 5bbf d3c6 cbbe 88f7 243f
000002a0: 60ea 03bf 8deb e23e ce45 03bf f069 ebbe
000002b0: 6946 ca3e c78f 38bf 332d 12bf 3497 cabe
000002c0: fb12 2f3f fbc9 d4be 0ae2 ff3e 6ea3 cfbe
000002d0: 848d e1be 9ed3 ed3e e43b d8be 7728 bfbe
000002e0: df9a c33e fa29 cfbe 2547 183f ba96 d73e
000002f0: b00a 11bf d348 e63e 8256 013f 4098 ffbe
00000300: e1d5 ea3e 7610 22bf d099 dabe 6bc5 f43e
00000310: 95a3 30bf 4365 bcbe 198e cabe e044 e53e
00000320: 24de 0e3f b941 d83e f49e d7be c511 013f
00000330: 5efb fb3e 81f3 c33e 3222 bdbe 854c ea3e
00000340: 79e5 dfbe a7f2 be3e c20e 0dbf 06d7 3c3f
00000350: 51db d8be 3fd6 123f 895b 1a3f 28c5 d43e
00000360: e3c6 c43e 4dd8 c6be 8710 e83e e195 023f
00000370: 3d79 e83e 9be7 c0be aebe f5be 69a6 103f
00000380: 9343 ee3e 3006 ff3e 7b1d de3e cac2 e7be
00000390: 09be dd3e ad00 16bf 6d82 09bf b9d2 e63e
000003a0: 9fd7 f9be 3380 16bf 222b e7be 5468 bb3e
000003b0: 77bb 0e3f cac8 db3e cd93 ec3e f321 c73e
000003c0: 9cf0 d4be 1c13 ca3e 33d2 0cbf c8ed e23e
000003d0: 12a9 c93e 62ac f93e 016e debe d82f 16bf
000003e0: 68d8 0fbf fc90 b53e 8161 41bf fd51 583f
000003f0: 389e f3be 6fca c13e 79b1 443f dbb0 ea3e
0.5084477 0.42421773 -0.56197906 -0.4642123 -0.39055064 -0.42644054 -0.4971965 -0.47162402
0.4263544 0.4070815 0.9158696 -0.57354844 -0.39972073 -0.43895438 0.5011964 0.55876034
0.65582615 0.39965788 -0.47001237 0.5651272 0.36826038 0.43894404 0.4185773 -0.47542408
-0.5628944 -0.33438933 0.5555975 -0.47224307 -0.43625253 0.6223959 0.38747945 0.45869252
-0.90947485 -0.48574317 -0.46654636 -0.44933742 -0.4535042 -0.52722317 -0.46342835 0.49303803
-0.44314396 0.4413021 -0.4015707 0.59400064 -0.455624 0.5911527 -0.41154408 -0.8708066
0.33880502 0.5468441 -0.52030706 -0.43990737 -0.40356737 0.42218918 0.8843302 0.41793475
0.42399555 0.5138536 -0.37836108 1.0486908 -0.47824198 -0.47256187 -0.7654064 -0.44319254
0.6520947 -0.9138412 0.46925527 0.42417213 0.40036017 -0.46399978 -0.5705769 0.50953335
0.45698163 -0.42387423 -0.39766192 -0.5679895 0.57013226 -0.41798317 -0.51770264 -0.5783762
0.56125814 -0.5417029 -0.39478827 -0.4513319 -0.50063795 -0.5580963 -0.4111889 0.3475155
-0.46369085 -0.3949095 0.500865 -0.89436466 0.4526785 -0.47380507 -0.40923876 0.4328508
-0.42406958 -0.444087 -0.54646057 0.44135246 -0.37245002 -0.469474 -0.5722415 0.56844777
0.5363858 -0.3475339 0.46022984 -0.42084086 -0.5850432 0.70460147 0.5116116 -1.07012
-0.4895564 -0.59809726 0.42760158 0.4570821 -0.3938589 -0.4436577 -0.6839764 -0.50338405
-0.6001184 -0.4503833 0.4816474 -0.44113362 -0.44355845 0.5486588 -0.56333023 -0.46164358
0.70507634 -0.44235831 -0.5704876 -0.47071758 -0.4535324 0.3928557 -0.4099649 -0.47002998
-0.48673803 0.504091 0.44944254 -0.4933674 0.4030587 -0.43788645 0.31462094 0.4508185
-0.44237265 0.41360584 -0.53110355 -0.5246348 -0.45172304 -0.39965785 -0.5418724 0.44898757
-0.8463332 0.422945 0.46983537 0.47546303 -0.5996454 -0.4572431 0.40167177 -0.38447908
0.51285803 -0.45932734 -0.5286661 0.47255057 0.42624694 -0.855557 -0.39800128 0.644402
-0.515295 0.44320336 -0.5127839 -0.4597926 0.39506844 -0.72094387 -0.5710022 -0.39568484
0.68388337 -0.4156035 0.49977142 -0.40554374 -0.4405328 0.46450514 -0.42233193 -0.3733556
0.38204095 -0.40461713 0.5948356 0.42107183 -0.5665693 0.44977435 0.50522625 -0.49920845
0.45866302 -0.6330637 -0.42695475 0.47806868 -0.68999606 -0.36796007 -0.39561537 0.4477911
0.5580771 0.42237642 -0.4211346 0.5041774 0.49215215 0.38271716 -0.3694015 0.45761505
-0.4372976 0.37294504 -0.55100644 0.737656 -0.42354825 0.57358164 0.6029592 0.41556668
0.3843299 -0.388369 0.4532511 0.5100995 0.45404997 -0.376767 -0.4799704 0.5650392
0.4653593 0.49809408 0.43381867 -0.452658 0.43309048 -0.5859478 -0.5371464 0.45082644
-0.48797318 -0.58789366 -0.45150095 0.36603034 0.557548 0.42926627 0.46206513 0.3889309
-0.4158982 0.39467704 -0.5500824 0.44322038 0.39386803 0.4876433 -0.434433 -0.58666754
-0.56189585 0.35462177 -0.75539404 0.84500104 -0.4758165 0.37849757 0.768333 0.45838055

actor.0.weight f4 [256, 19]
00000000: 5a72 05be 9709 0abe d098 0f3e 6235 94bd
00000010: a0a4 d6bc c8c2 e43c ec34 c83e 31a5 e8bc
00000020: c6dc a0bd e87c ed3d bf4f 103e 39fd 53be
00000030: 1e7a e13d 316a 78bd 2fb2 afbc f522 2a3e
00000040: 1eda e6bd 4c32 0d3e d74c 8d3d d098 6cbd
00000050: 5571 573e 44ba 03bd 0039 35bc 00ba beba
00000060: c43e 663d b6ba ddbe df4b 4c3e c2aa e0bd
00000070: 9cd5 793c 8d14 60be ef56 ef3d 60e8 76be
00000080: 300d e0bd 0ab7 cc3b 169e 6d3d 2df1 c33d
00000090: 2f84 9f3d 4ece 29be 769f 493d 411f bc3d
000000a0: 8874 153e 0fe9 93bd 61bc 363e 9adf 63be
000000b0: e272 74bd e133 783d 6a9d d0bd 1932 b0bc
000000c0: d6ef 4dbe 945a 293e f2ab 1abd 9a34 643e
000000d0: 5667 803d 68d1 e63c 5e70 213e da56 9abd
000000e0: 28c8 86be 4173 dcbd 27a0 513d 4487 b9bd
000000f0: c38f 803c 5f79 2c3e 134b 48be 0aad 9abd
00000100: 2a33 043e e0dc bebd 6e4c 8cbd 8007 3cbb
00000110: 370b 0c3e 4ec6 1cbc 5881 a93e ba97 093d
00000120: 374e 4ebd 4120 233e 6026 7ebd 3310 133d
00000130: 64b3 1a3e d566 83bd 83b4 17bc d381 8c3d
00000140: 3db9 013e fe67 f5bd 2350 24bc aa53 20be
00000150: 876e 143e 9a52 62be b3aa 4fbe 102e 873e
00000160: f7b7 b1bd e293 e6bd e2b8 5a3d 3c4d ebbc
00000170: f642 523e 5117 2f3e a0fa 8bbc ef1d 9a3d
00000180: 3f0d 08be c1f2 48be da69 803d 2822 a1bc
00000190: ced4 0ebe 2c36 ea3d c104 e33d 100d 42be
000001a0: ce24 823d c05f a5bd 57c7 e8ba 2a8e 743e
000001b0: c45c 6dbe fccb 6abe 0634 eabb 53c5 04be
000001c0: 52a5 eabd bdab 25bd c060 95bd 390b 323e
000001d0: 1ba8 1fbe 3573 383e 8789 3dbe 4627 47be
000001e0: 0a74 64be 21c2 5f3e a13f 22be c99f 09be
000001f0: aa99 fc3d ebb4 05be fa3a 83be 4ea4 433e
00000200: cad6 5fbe 1ab2 dabc ebd7 b43d 3694 433d
00000210: f7aa 283e 4b07 423e 4385 56be 2707 543e
00000220: 4ca8 debd 796a 073e 5da0 3a3e d821 98be
00000230: 4bae 8fbd 7672 0bbc 6d1b c6bd 55e9 3bbe
00000240: 8270 51bd bb33 743e 6d8f 9b3e ee31 3e3d
00000250: 34b0 88be 6a3d 01bd 3560 27be 47e8 25be
00000260: d456 673c e2d7 4b3d 32d2 23be 28a1 f93d
00000270: 49aa 413e a3a9 36be cc06 ce3c d588 37be
00000280: 4811 5cbe 007d 30be 882a ee3c 13b5 7dbe
00000290: 922a 813e cec8 01be 9b14 4f3e f1dc 463e
000002a0: 22e8 5bbe abb2 bf3d c9ee 603e c33d 1abe
000002b0: 7da7 58be 776f c23d 2924 233e 3586 51be
000002c0: 3649 5ebe 8a2b 23be 9319 423d 602b 49be
000002d0: 8274 2abc d4b5 60be f7fd 9fbe 9fd4 3d3c
000002e0: 167d 353d a5cc 4fbd 2a24 d7bd 68f9 aebd
000002f0: 7a91 3e3e 0010 9a3e d8d7 0d3e 7d23 243e
00000300: 5593 08be e3ff 30be f69c 69be 5860 e53c
00000310: c5de a6bd ff6f bdbd 9a59 9ebd 89db d8bd
00000320: 551f 4e3e 8a17 aabe dc5f ab3d 0ef3 6bbe
00000330: 23f6 3e3e 5ef8 593e 4086 0f3d 527d 2a3d
00000340: cf05 2f3e 178a 4b3e b11b 25bd 5701 5ebd
00000350: 9095 2b3e fe90 e33d 5bc9 313e 590b 933e
00000360: 4e9d 04be 6f5a 0c3e 5640 56be faac 01be
00000370: 1556 803d ae00 2f3d 0819 5c3c cf87 00be
00000380: 8a50 733d 9739 7d3e 6fec a43d 8bb1 2dbe
00000390: 182a 71be 605e 06bc d437 3cbe ca8d 85bb
000003a0: 55e1 4b3e 7c0b 443d d00f 9e3e 5886 7abd
000003b0: 4c9c b23d cb41 2f3e da7c bcbd 4798 99be
000003c0: 6f41 8a3e 30ca 79bd 772d 8abe c1d2 ec3d
000003d0: 730c 8e3e cbf7 103e 6567 633e 2ae0 1b3e
000003e0: 9918 0b3e b88f 1e3d a8e4 71be 1ed9 fc3d
000003f0: a649 e93d 920a e83e 9208 f23d c50f 42be
-0.13031903 -0.1348022 0.14023137 -0.072367445 -0.026201546 0.02792491 0.39102876 -0.028399082
-0.07854609 0.115960896 0.1409292 -0.20702066 0.1100962 -0.060648147 -0.02144727 0.16614898
-0.11272071 0.13788718 0.06899422 -0.05776292 0.21039326 -0.03216006 -0.011060953 -0.0014551282
0.0562122 -0.43306512 0.19950818 -0.109700695 0.015248682 -0.2188284 0.11686503 -0.24112082
-0.10940015 0.006247406 0.05801209 0.09567485 0.07788884 -0.16582605 0.04922434 0.09185649
0.14595234 -0.07222187 0.17845298 -0.22253266 -0.059679873 0.06059635 -0.10186274 -0.021508263
-0.20111021 0.16538459 -0.037761636 0.22285691 0.0626971 0.028176025 0.15765521 -0.07536097
-0.26324582 -0.107641704 0.051178124 -0.09059003 0.01569355 0.16843174 -0.19559889 -0.07552536
0.12910143 -0.09319472 -0.06850515 -0.0028690994 0.13676153 -0.009568764 0.33106494 0.033591963
-0.05036756 0.15930273 -0.062048316 0.03590412 0.15107495 -0.06416098 -0.009259346 0.068606995
0.12668319 -0.119827256 -0.010028872 -0.15656915 0.14495288 -0.22101822 -0.2027996 0.2640233
-0.08677667 -0.11258675 0.053398974 -0.028723352 0.20533356 0.17098738 -0.01708728 0.07525241
-0.13286303 -0.19623853 0.062701896 -0.019669607 -0.13948366 0.11436114 0.11084891 -0.18950295
0.06354676 -0.080749035 -0.0017759603 0.23882356 -0.23179919 -0.22929376 -0.007147315 -0.12965898
-0.114573136 -0.040446986 -0.07293844 0.17387094 -0.15591471 0.18012698 -0.18509494 -0.19448575
-0.2230989 0.21851398 -0.15844585 -0.1343986 0.123339966 -0.13057296 -0.25630933 0.19105646
-0.2185928 -0.026696254 0.088302456 0.047748767 0.16471468 0.18948095 -0.20949273 0.20705853
-0.10871944 0.1322421 0.18225236 -0.2971332 -0.070156656 -0.008511176 -0.096732 -0.18350728
-0.051132686 0.23847859 0.30382863 0.046434335 -0.26696932 -0.03155271 -0.16345294 -0.16201888
0.0141198225 0.04976643 -0.15998152 0.12188941 0.18912615 -0.17838149 0.025149725 -0.17923291
-0.21490967 -0.17235184 0.029073015 -0.24776106 0.2522779 -0.12674257 0.20222704 0.1942022
-0.2147527 0.0936025 0.2196609 -0.15062623 -0.21157642 0.094939165 0.15931763 -0.20461352
-0.21707615 -0.15934578 0.04738767 -0.19645452 -0.010403754 -0.21944362 -0.31248447 0.011586337
0.044308744 -0.050732274 -0.105049446 -0.08543664 0.18610182 0.30090332 0.13851869 0.16029163
-0.13337453 -0.17285113 -0.22813782 0.028000042 -0.08147959 -0.09249877 -0.07731934 -0.10588748
0.2012914 -0.33221084 0.08367893 -0.23041937 0.18648581 0.21286151 0.03504014 0.04162342
0.1709206 0.19876896 -0.04030961 -0.054200497 0.16756272 0.111116394 0.17361967 0.28719595
-0.12950632 0.13706373 -0.2092298 -0.12663642 0.06266419 0.042725258 0.013433702 -0.12551807
0.05940298 0.24729 0.08052909 -0.16962259 -0.23551214 -0.008201212 -0.18380672 -0.0040757405
0.19910176 0.047862515 0.3087144 -0.061163276 0.087212175 0.17114942 -0.09203501 -0.2999899
0.27003047 -0.060983837 -0.26987812 0.115636356 0.27743873 0.14157026 0.2220741 0.1522223
0.13583602 0.03871128 -0.23622382 0.12346099 0.113910004 0.45320565 0.11818041 -0.18951328

actor.0.bias f4 [256]
00000000: 14fe 01bc a750 04bd 368d ca3d 404b 00be
00000010: 091b 61bd 1452 113e c873 df3d b4e0 243e
00000020: a27b 81bc 3a29 6ebc b131 203e 641b f3bd
00000030: 4cc8 a63d 89d6 813c 4d3d acbc 5f5e 043e
00000040: a845 91bd cae4 07bd a4e1 4b3d 7b16 b43d
00000050: a1a6 f93d 9c96 0dbe 33d9 1abe 6043 60bc
00000060: 5b49 f53d e516 df3d 541a 5a3d e47f 02be
00000070: bc04 b73d cc5c 8ebd 0cad 0e3d 2c14 4d3e
00000080: ff29 213e ff09 f9bd 7bde 383d 43c9 523d
00000090: 6029 e8bc 1052 0bbd 38c1 f6bd 1a06 dc3d
000000a0: a366 47be ca84 7a3d 5c75 e2bd 6e92 a4bd
000000b0: c395 fc3d 0654 99bc 6c2f 4abd adbc 16be
000000c0: 79b6 66bd f487 e03d 9a7d 1a3e 0ed4 193e
000000d0: 644c 6b3e 475e a9bc c687 c03b 56b4 a5bd
000000e0: d82b 0fbe 6872 083e 1dd7 7a3d 8575 f03d
000000f0: 8e7c 063e f25a b3bd 16c7 41be 7cb6 9dbe
00000100: f695 34be c3a1 db3c 8456 263e c8aa 44bd
00000110: 8c19 ea3d 8d47 983d 58b6 553e 19d7 e83d
00000120: eec3 753e 184a 3b3e 925b 8c3d 5b19 1a3e
00000130: 3327 2b3e 3661 1a3e 5e07 88bd 777e ad3d
00000140: 4081 a33d 683a 4fbe 1796 9f3d 6998 6b3b
00000150: 69bf b1bd e2bb 603c 7b1a c13d 208e 453c
00000160: 9bc9 293e 220a 4f3e f11c dd3d ae09 bb3a
00000170: 39de 0e3e 1fcc 90bd 797a 5a3e e9d3 b1bc
00000180: 4ff7 d3bd a64e 35be e595 13bc 35cd d33d
00000190: 6448 77bc d748 e3bd 756f 19be 1c46 b6ba
000001a0: e184 6d3c dbb2 d83c ce06 f83d 6605 0e3e
000001b0: e3dc 643d d691 23be 0a5e 83bd 5544 5e3d
000001c0: 80eb 883d 78df 633e 8909 c8bb 7d14 21be
000001d0: c859 2abe dfd9 3ebd 1df5 5d3d c29a a03d
000001e0: 47f4 46be 14fa f43d 9a9a 3cbe 359d 1a3e
000001f0: d651 02bd c543 5d3d 5e16 3f3d 0ca7 24bd
00000200: a002 efbd 55cd 3d3e bf4b 393e dc1d e23d
00000210: 17fc 4fbe 9c6e 4f3c d1c8 453e 1c3c 313e
00000220: 58ee e33d 9ebc 3abe a700 88bd ef91 913d
00000230: 51bf 813d d022 413e be63 42ba 0ade e9bd
00000240: 2666 963d fdcf 50be dca5 73bc 6e67 f63d
00000250: ba0c 0e3e 516c b9bd dff1 2abd fe4d 63be
00000260: b5d8 91bd fd62 2c3e c473 abbd 5b0e 1fbe
00000270: 5fce 2cbe 1bed 57be eb9e 933d d686 33be
00000280: 842b 53bd 39df 3d3e 40e2 a0bd 3398 593e
00000290: 99f5 03be 9d97 3fbe d8bd 66bd 3208 c33d
000002a0: ef71 393e 6ec7 1a3e 451a 01be a073 09be
000002b0: cb98 93bc 66ea 3f3e 5e80 2fbe 6ab1 2cbd
000002c0: f4d1 1ebe dda5 c03c 46a1 9cbd 48e2 0b3e
000002d0: 6cad 023d 7e30 4f3e d7c1 35be b636 9ebd
000002e0: f49c 5bbd 0932 aabd de55 0d3e 4cc1 75be
000002f0: e269 eebd 1cb7 183e 98d5 5fbe 1508 42be
00000300: 3929 893c 1276 883d c7ad 7a3d 9f93 393e
00000310: 2b6c bebc 0b74 20be a8b5 653d 29f6 0a3d
00000320: 5280 0d3e 22a9 7a3d ef6f d83d f588 d13d
00000330: 49d3 a13b f5e4 1cbe 57a0 2abe 26b2 00be
00000340: 617b 9dbd 3ac4 523d 7b12 01be d7eb fa3d
00000350: 1b67 1f3e 5f7b 2b3e b20c 133e bf68 fabb
00000360: d22d 733d 6134 a03d 68b7 5c3e 165f fbbd
00000370: bec8 16be 1d72 133e 4f7f 2abd af67 b43d
00000380: 6e23 57be 9c80 533e 6ed8 133e 580f 57bc
00000390: df7b 51bc f656 a6bd 1597 efbd 52fb c7bd
000003a0: d914 67be 1483 08be 35df 32be 5076 edbb
000003b0: 121a 16be d331 05be b376 403e 99a5 3abc
000003c0: a397 b53d 3d77 bb3d 5f8b 6f3d 0f27 533e
000003d0: 64bc 81bc 3be6 ec3d e7af cabd 8f04 193e
000003e0: b930 ae3d 579e 133e 053d f8bd ac7e 93bd
000003f0: a783 673e a3b2 583d ca2a 003e d928 76be
-0.007934112 -0.03230348 0.09890215 -0.12528706 -0.054957423 0.14191467 0.109107554 0.16101342
-0.015806023 -0.014536196 0.15643956 -0.11870459 0.08143672 0.015849369 -0.021025324 0.12926625
-0.07093364 -0.033177175 0.049775735 0.0879335 0.12189985 -0.13826984 -0.15121917 -0.013687938
0.11976882 0.10893039 0.053247765 -0.12744099 0.0893645 -0.06951293 0.034833 0.20027226
0.15738676 -0.1216011 0.04513405 0.05146147 -0.028340042 -0.034013808 -0.12048572 0.10743351
-0.19472747 0.061161794 -0.11057541 -0.08035742 0.12333252 -0.018716823 -0.04936163 -0.14720412
-0.056326363 0.10963431 0.15086976 0.15022299 0.2297836 -0.020674838 0.0058755605 -0.08091037
-0.13981569 0.13324893 0.061240304 0.11741165 0.13133451 -0.08757581 -0.18923602 -0.30803287
-0.1763533 0.026810532 0.1624394 -0.048014432 0.11430654 0.07435522 0.2087034 0.113691516
0.24000522 0.18289983 0.06853403 0.15048735 0.16714172 0.15076146 -0.0664203 0.08471387
0.07983637 -0.20237124 0.07792299 0.0035948998 -0.08679087 0.01371667 0.09428879 0.012057811
0.16580813 0.20218709 0.10796536 0.0014269853 0.13951959 -0.07070183 0.21335782 -0.021707492
-0.10349905 -0.17705783 -0.009007906 0.103418745 -0.015092943 -0.110978775 -0.14983924 -0.0013906392
0.014497013 0.026452472 0.12110673 0.13869247 0.055874716 -0.15973601 -0.06414421 0.054264385
0.06685543 0.22253215 -0.0061046523 -0.15730472 -0.16635811 -0.046594497 0.054188836 0.07842018
-0.19429122 0.11961761 -0.18418351 0.15099032 -0.031816326 0.05401971 0.04665219 -0.04019837
-0.116704226 0.18535359 0.18095301 0.110408515 -0.20311008 0.012660649 0.19314887 0.17308086
0.11129445 -0.18236014 -0.066407494 0.07107913 0.06335319 0.18860936 -0.00074153754 -0.11419304
0.07343702 -0.20391841 -0.014871087 0.120314464 0.13872042 -0.09053863 -0.041734572 -0.2219772
-0.07121412 0.16834636 -0.0837169 -0.1553282 -0.168756 -0.21086542 0.072080456 -0.17531905
-0.05155517 0.18542184 -0.07855654 0.21249466 -0.12886657 -0.1871018 -0.056333393 0.095230475
0.18109868 0.15115139 -0.12607677 -0.13423014 -0.018017193 0.1874176 -0.17138812 -0.042161383
-0.15509778 0.02351659 -0.07647948 0.13660538 0.03190367 0.20233342 -0.17749725 -0.07725279
-0.05361648 -0.08310325 0.13802287 -0.23999518 -0.11641289 0.149136 -0.21858823 -0.18948396
0.01674329 0.06663145 0.061200883 0.18122719 -0.023244938 -0.15669267 0.056081444 0.033926163
0.13818482 0.061196454 0.10568225 0.102312006 0.004938517 -0.15321715 -0.16662727 -0.12567958
-0.07689548 0.051456667 -0.12604706 0.12252014 0.15566675 0.16746281 0.14360312 -0.0076418812
0.05936987 0.078224905 0.21554339 -0.122739956 -0.14725015 0.14399 -0.041625317 0.088088386
-0.21009609 0.2065453 0.1443803 -0.013126217 -0.012785881 -0.08122055 -0.116987385 -0.097647324
-0.22566546 -0.13331252 -0.17467959 -0.00724677 -0.14658383 -0.13007288 0.1879528 -0.011392021
0.08866813 0.09153602 0.058482524 0.20620368 -0.015836902 0.115673505 -0.09896832 0.14943145
0.08505387 0.1441587 -0.121210136 -0.07201895 0.22608815 0.052904736 0.12516323 -0.2403902

actor.2.weight f4 [256, 256]
00000000: ca80 673d 6d48 ce3c 4722 343c e201 8cba
00000010: 6c47 a5bd e425 933c fb8f c53c 1df9 85bc
00000020: d09e 1e3d 8e9c 2b3d 6478 073c 5c2e 14bd
00000030: f694 0a3d 465a 203d cc99 f93c c9fa 4bbd
00000040: 4203 08bd 06f8 b23d 8629 8fbd 08e4 883d
00000050: 6334 4c3e e5df a83c 5cb5 84bd 4cbb 1bbe
00000060: ecc9 cd3d a203 c2bd 9ebc fe3c fa57 cd3b
00000070: e0f1 14bd ff93 06be 8059 5d3b 6439 5abd
00000080: 29a1 11bd d90d 013d 336b 9cbd 72b3 0c3d
00000090: adcb 4cbd bffe 8fbe d91d 89bd efe0 e039
000000a0: fd9f b9bd 5305 3ebd 2e65 563d 517c a1be
000000b0: e58d 2ebd 5f70 dcbd 475d 413d 07f3 d83c
000000c0: c964 a2bd 1cae 633d 8b65 e43c 0a5b 413e
000000d0: fac8 933d 0296 943e 014f 30bd 73e6 13bc
000000e0: 1e95 99bd c6e5 f23c d750 f9bd 93e8 babd
000000f0: b7f2 2d3d 8a75 5dbd 2b2c 303d 36e6 cebd
00000100: 231a 883d b1f5 ab3d 850f 3abe 84b5 54bc
00000110: 4f63 02bd 28ba a8bd 7ff0 09bd 5636 4f3d
00000120: 6ca0 453d 9a88 f23c fcaa 09be ed98 83bc
00000130: 4dc0 bbbc 8e5d ff3d f464 4e3d e8e1 343c
00000140: 239d 5e3d 75f5 733d 0210 8f3d 89f9 d63c
00000150: c217 0bbe c747 2c3d 9e65 0abd cf03 cd3d
00000160: 0f07 58bd ef2f 1d3d f6bc c03c cb03 323c
00000170: 07ff 5abd 830b 0e3d 9d0d 4abd f488 5dbb
00000180: 4618 913d 7ca7 a2bd a5da 373d 7948 ae3c
00000190: 2bf1 04bc 2e0b fa3d 8306 8c3d 23d7 ba3d
000001a0: 1624 21bd 4bc4 9fbd b664 ed3c a14a 6f3a
000001b0: c595 b8bb a529 4dbc d09a 09bd 72b8 25bd
000001c0: a993 3cbd 1eb2 963d a64a 74bd 2fef 62bb
000001d0: b646 9cbd 1804 723d 7088 2f3e 973f 08bd
000001e0: 8dff 103d e309 a83d 0b9c 6c3d 0e1a 593d
000001f0: d303 873d bb56 83bd 008b 973d 7cb9 403d
00000200: a5a2 ddbd d67b 73bd ef20 033e d474 b33d
00000210: 1625 a0bd 194b 7d3d ec53 983c 825a 633d
00000220: 5e36 8e3d dddc 24bd 50a5 e03c 738a e3bd
00000230: d3c4 a93d ceef a639 a0a7 b83d 6748 24be
00000240: 4f1b 09bd fdb6 f6bd 3650 543d b4a9 bbbd
00000250: 5d41 6d3d eb27 c6bc f3f8 b03c c584 d7bc
00000260: 5760 893d d7be 6bbd 558f 0b3d f287 153d
00000270: ee42 cf3c 0742 9cbd 776d 973b 1fe0 cf3c
00000280: d1d3 a73d 7300 3fbc b048 6dbd b8f0 32bd
00000290: 8cc5 4fbd 420b cd3c 7f0f 373d 4296 313d
000002a0: 8e9a d7bb e806 21bd ccd3 c63d 7993 9a3d
000002b0: 4a68 513d 7e99 6b3d f05a 54bc 2a51 c8bd
000002c0: 9d62 933d 19bf 7a3d f0bf 28bc 709d 343d
000002d0: 0969 ecbd 9bed 1abe 73e1 7f3c 0f58 02bd
000002e0: 8575 113e e7ea 9a3d 958f 7a3d 908c 323d
000002f0: 437c 69bc 218d d5bc 4535 5abd 948b 7a3d
00000300: 1e9c 283e f1ad c23d 9828 be3d 3b62 8dbc
00000310: 5594 8e3d 4cb3 11bd 5356 9a3c 672a 0bbc
00000320: 715a 66bc 3c71 8f3d eeb2 09be bde9 e13d
00000330: 786c 073e 62ea 99bc 2ff0 933c 86d8 bcbc
00000340: e3bb 2abd 16e3 c43d 7b8a 873d 9cd8 823d
00000350: 7818 813b 6e92 603d 6a95 56bd 99d2 acbd
00000360: c4f4 ad3d 8903 1fbe e741 243e f3a9 17bc
00000370: 1380 483d fdfc d83c 4945 92bd 2731 3dbd
00000380: 6346 ca3d d0fc d83d 54f1 c23d c6a5 eebc
00000390: d6b5 dcbd 5cdb c9bc 5a87 5d3c edb0 81bb
000003a0: db61 b83c e03e c6bd 580c 1dbd b5b0 96bd
000003b0: 9d8c 2dbc 1221 1b3e 76d3 3dbd 87e7 a33d
000003c0: 6484 3f3c bb3c 9dbd a823 28bc 0289 233c
000003d0: 2be6 dd3d 8e82 82bd c408 4bbc ed5b c13c
000003e0: 0e17 d73d 09d8 6a3c 5d6d aabd 48b5 e43c
000003f0: 8646 c23d 5842 b9bd 37b2 d43c 2ee3 b4ba
0.056519307 0.02518102 0.0109945005 -0.0010681713 -0.08070263 0.017962404 0.024116507 -0.016354138
0.038725674 0.04189735 0.008268449 -0.036177024 0.033833466 0.03914859 0.030468844 -0.049799714
-0.033206232 0.08738713 -0.06990342 0.066841185 0.19941859 0.020614574 -0.06479904 -0.15208167
0.10048279 -0.09473349 0.031095799 0.006266591 -0.036363482 -0.13142394 0.003377527 -0.05327739
-0.035554085 0.031507347 -0.07637634 0.03435082 -0.049998928 -0.28124043 -0.06695146 0.00042892198
-0.090637185 -0.046391796 0.052342586 -0.31540158 -0.04261579 -0.107636206 0.047208097 0.026483072
-0.079293795 0.055585966 0.02788045 0.18882385 0.072160676 0.29020697 -0.043044094 -0.009027111
-0.07499145 0.02965058 -0.12173622 -0.09126391 0.0424678 -0.054067172 0.04301087 -0.10102503
0.0664561 0.08396471 -0.18169983 -0.01298273 -0.03183299 -0.082386315 -0.03367662 0.05058893
0.048248693 0.029606152 -0.13444132 -0.016064132 -0.022918845 0.12469016 0.050389245 0.011040188
0.054349076 0.059560258 0.06985475 0.026242035 -0.13583282 0.04206064 -0.033788316 0.10010492
-0.052741107 0.03837579 0.023527604 0.010865162 -0.05346587 0.034678947 -0.04932939 -0.0033803554
0.07084708 -0.07942101 0.04488625 0.021274792 -0.00811414 0.122091636 0.068371795 0.09123065
-0.039341055 -0.07801112 0.028978687 0.0009128247 -0.0056330883 -0.012522136 -0.033594906 -0.040459104
-0.046039257 0.07358192 -0.059641503 -0.0034627428 -0.076306745 0.059085935 0.1714189 -0.03326377
0.035399962 0.08205011 0.057766 0.053003363 0.06592526 -0.06413027 0.07399559 0.04705189
-0.108220376 -0.05944427 0.12805532 0.087625176 -0.078195736 0.061839197 0.018594705 0.055506237
0.069439635 -0.040249694 0.027422577 -0.111103915 0.08289494 0.00031840656 0.09016347 -0.16043244
-0.03347331 -0.12046621 0.051834308 -0.09163228 0.057923663 -0.024188956 0.021603083 -0.026308427
0.067078285 -0.057555046 0.03407224 0.0365066 0.02530047 -0.07629781 0.0046212035 0.025375424
0.08194698 -0.011657822 -0.05793065 -0.0436866 -0.050725505 0.025029782 0.044692513 0.043356188
-0.0065797037 -0.039313227 0.09708366 0.075476594 0.05112485 0.05751943 -0.012961134 -0.09781106
0.07196543 0.0612174 -0.010299668 0.044095457 -0.11543471 -0.15129702 0.015617716 -0.03182226
0.14204986 0.07564335 0.061172087 0.043591082 -0.014250818 -0.026068272 -0.053273458 0.06116827
0.16465804 0.09505833 0.092850864 -0.017258754 0.06961886 -0.03557138 0.01883999 -0.008493996
-0.014059649 0.070040196 -0.13447163 0.1103091 0.13224971 -0.01878852 0.018058864 -0.023052465
-0.04168309 0.09613626 0.0661821 0.06388971 0.0039396845 0.054827146 -0.052388586 -0.08438606
0.08493951 -0.15528692 0.16040765 -0.009256828 0.048950266 0.026487822 -0.07142121 -0.046189453
0.098767065 0.10595095 0.09518686 -0.029131781 -0.1077687 -0.024640732 0.01352104 -0.003957859
0.022507599 -0.09679961 -0.03834185 -0.07357923 -0.010592607 0.15149334 -0.046344243 0.08003145
0.011689279 -0.07677599 -0.010262407 0.009981396 0.10834917 -0.063725576 -0.012392227 0.023603404
0.10502444 0.014333733 -0.08321641 0.027918473 0.094861075 -0.09045857 0.025963886 -0.0013800615
