models/mec_policy_ep2000.pth (torch, 576658 bytes, 11 tensors)

critic.0.weight f4 [256, 19]
0	0xbe267834	-0.16256791
1	0x3e4c7702	0.19967273
2	0xbda9bbbe	-0.08287762
3	0xbd0d96ae	-0.034567527
4	0xbe411d96	-0.18858942
5	0x3ddf604e	0.109070405
6	0xbeecffc9	-0.462889
7	0xbe57b2d9	-0.21064319
8	0x3ef81eb9	0.4846094
9	0x3eac85a1	0.336957
10	0x3e374065	0.17895658
11	0x3d6f4e26	0.058424138
12	0xbd11bb6e	-0.035579138
13	0x3e5a1f6e	0.21301052
14	0xbe4f7235	-0.2025841
15	0xbdbe84d5	-0.093026794
16	0xbdbb6269	-0.091496296
17	0x3e0204aa	0.12697092
18	0xbe170e79	-0.14751615
19	0x3e16d820	0.14730883
20	0xbe00316d	-0.12518854
21	0xbe4e283b	-0.20132534
22	0x3e105561	0.1409507
23	0x3df3f1d6	0.11911361
24	0xbd5da320	-0.054110646
25	0x3f0e32d8	0.5554633
26	0x3c00c2f0	0.007858977
27	0xbe307258	-0.17231119
28	0xbe20ee09	-0.15715803
29	0xbd50db00	-0.050990105
30	0x3ee82bad	0.45345822
31	0xbe20cb38	-0.15702522
32	0xbe4b8305	-0.19874199
33	0xbe0221be	-0.12708184
34	0x3d5fd969	0.054650698
35	0x3c920d7a	0.017828692
36	0x3dd4f252	0.103977814
37	0x3e2fd2f1	0.17170312
38	0xbdf530b5	-0.11972181
39	0x3e9cf5a4	0.3065616
40	0xbc0f40a4	-0.008743439
41	0xbc6d9e84	-0.014503125
42	0x39f43200	0.0004657656
43	0xbe6941a7	-0.2277895
44	0x3efa6036	0.48901528
45	0x3db9c968	0.09071618
46	0xbedf28b8	-0.43585753
47	0x3e1caee5	0.15301092
48	0x3e006e0d	0.12541981
49	0xbdc4b115	-0.09604088
50	0x3b57be5d	0.0032919862
51	0x3d88aa1a	0.06673069
52	0x3d999226	0.07498579
53	0xbc3d60e2	-0.011558743
54	0x3e4d67d2	0.20059136
55	0xbcfe6d2a	-0.031057913
56	0xbdd85b2d	-0.105642654
57	0x3de1aaa7	0.110188775
58	0x3d33fb8b	0.043941062
59	0xbe7d55ba	-0.24739733
60	0xbce3e754	-0.027820267
61	0x3c57c5b0	0.013169691
62	0xbe411846	-0.18856916
63	0xbe853676	-0.26018113
64	0xbb900af4	-0.004395837
65	0x3ee64316	0.44973058
66	0xbd6b61d4	-0.057466343
67	0x3e102a63	0.14078669
68	0x3f03eb01	0.5153046
69	0xbe3920c6	-0.18078908
70	0xbdee1715	-0.11625496
71	0x3db3eb0a	0.087850645
72	0xbe08c0f4	-0.13354856
73	0x3de44f03	0.11147883
74	0x3cc0e0bc	0.023544662
75	0x3dfb3a9e	0.1226704
76	0x3d6aecc5	0.057354707
77	0xbda92ad7	-0.08260124
78	0xbe0da162	-0.13831094
79	0xbcb16968	-0.021656707
80	0xbdf4129f	-0.11917614
81	0x3e5b607f	0.21423529
82	0x3f3c0860	0.7345028
83	0x3d47798a	0.048699893
84	0x3e64192d	0.22275229
85	0x3d9e181e	0.07719444
86	0x3d767ea4	0.060179368
87	0x3ef997d5	0.4874865
88	0x3df75f9a	0.120787814
89	0x3d84ed3a	0.0649056
90	0xbe3c3d8c	-0.18382853
91	0xbade1748	-0.0016944194
92	0x3e1dab4b	0.15397374
93	0xbd8f01f9	-0.06982798
94	0x3d7df7fc	0.062004074
95	0xbe68af9e	-0.22723243
96	0xbdd8a63a	-0.1057858
97	0x3c917c7d	0.017759556
98	0x3ddeba88	0.10875422
99	0xbc9c02e0	-0.01904434
100	0x3d793ef4	0.060851052
101	0xbec9af31	-0.39391473
102	0xbe5d75c9	-0.21626963
103	0xbe2ffcf2	-0.17186335
104	0x3e6161e1	0.22009994
105	0x3e222013	0.15832548
106	0x3f3b7437	0.73224205
107	0xbe818918	-0.25299907
108	0x3e3e191f	0.1856427
109	0xbe453604	-0.19258887
110	0xbe130d0d	-0.14360447
111	0xbd884590	-0.06653893
112	0xbe75a01f	-0.23986863
113	0x3c705ea4	0.014671002
114	0xbdaa8b78	-0.08327383
115	0xbe0111d4	-0.12604457
116	0xbe18f6f7	-0.1493796
117	0x3dfba013	0.12286391
118	0xbe038e10	-0.12847161
119	0x3e334219	0.17505683
120	0x3f2d645d	0.6773127
121	0x3e49496e	0.19656917
122	0x3e34f1ea	0.17670408
123	0x3baa132c	0.0051902737
124	0xbda542cc	-0.08069381
125	0x3d8ae750	0.067824006
126	0xbe208283	-0.15674786
127	0xbe3a40ed	-0.1818883
128	0xbe53cde5	-0.20684011
129	0x3e22bde1	0.15892746
130	0xbdbe7777	-0.0930013
131	0xbe0bc239	-0.13648309
132	0xbe499add	-0.19687982
133	0x3e2a3098	0.166201
134	0x3d095576	0.033528768
135	0x3db0b5bc	0.08628413
136	0x3db8f4d8	0.09031075
137	0xbe0eeb12	-0.1395686
138	0xbe3b59ba	-0.18295947
139	0xbec88256	-0.39161938
140	0x3e643400	0.22285461
141	0x3e26fa4a	0.16306415
142	0x3e67521f	0.2258992
143	0x3e4532f3	0.19257717
144	0x3e9f48ad	0.31110135
145	0xbdf09b4e	-0.11748372
146	0x3e7a6fac	0.24456662
147	0xbe176a68	-0.14786685
148	0xbda84ea8	-0.082181275
149	0xbd365ecd	-0.044524003
150	0xbe17ca92	-0.14823368
151	0x3df16e3b	0.11788603
152	0xbdf770b3	-0.120820425
153	0xbeb1cd3f	-0.34726903
154	0x3cf9be15	0.030486146
155	0xbe435c52	-0.19078186
156	0xbdc970a8	-0.098359406
157	0x3d4a33b4	0.049365714
158	0x3ef4989c	0.47772682
159	0xbd273377	-0.040820565
160	0x3e52e382	0.205946
161	0xbd8a460d	-0.067516424
162	0xbd78cb8c	-0.060740992
163	0x3f090b46	0.53532827
164	0xbb0b83ba	-0.0021288232
165	0xbe9f0907	-0.31061575
166	0x3e455017	0.19268833
167	0xbe01275b	-0.12612669
168	0xbdf4f4af	-0.11960732
169	0xbe97e39c	-0.2966584
170	0xbad7eeca	-0.0016474363
171	0x3d62b7fb	0.05535124
172	0xbe6e7b76	-0.23289284
173	0xbe53195b	-0.20615141
174	0xbcba86bc	-0.022769324
175	0xbe66939d	-0.22517247
176	0xbe64353b	-0.22285931
177	0xbe9f813a	-0.3115328
178	0xbec99341	-0.39370158
179	0xbe62388c	-0.22091883
180	0x3b3351cf	0.0027361994
181	0x3e2acc49	0.16679491
182	0x3ead9ac9	0.33907154
183	0x3e58869d	0.21145101
184	0xbe532d39	-0.2062272
185	0x3d6084dc	0.054814205
186	0xbe00e1cb	-0.12586133
187	0xbe3a7f07	-0.1821252
188	0x3d77c372	0.060489126
189	0x3da589fb	0.08082958
190	0xbda4da3c	-0.080494374
191	0xbd8bbd05	-0.06823162
192	0x3e06219b	0.13098757
193	0xbd409793	-0.047019552
194	0x3c94ebe8	0.018178895
195	0xbe6626ed	-0.22475787
196	0x3ea8d289	0.32973126
197	0xbe204171	-0.15649964
198	0xbee16034	-0.4401871
199	0xbe4aefda	-0.19818059
200	0xbe0ca12c	-0.13733357
201	0xbed5ca7d	-0.4175605
202	0xbd177b88	-0.036983043
203	0x3e9e974e	0.3097481
204	0x3dfffddf	0.12499594
205	0xbb21ba45	-0.0024677676
206	0x3d0c62a4	0.03427376
207	0x3e39d5b8	0.18147933
208	0x3e09acd9	0.13444842
209	0x3d799c28	0.060939938
210	0x3e1b1417	0.15144382
211	0xbd5c8f6c	-0.053847715
212	0x3e3a456c	0.18190545
213	0xbd348c18	-0.044078916
214	0xbe1b407c	-0.15161318
215	0x3f0f4acd	0.5597351
216	0xbe29bc58	-0.16575754
217	0xbd599e78	-0.053129643
218	0xbe81b85e	-0.25335974
219	0xbe6575ca	-0.22408214
220	0xbf3204e7	-0.6953873
221	0x3e3544c2	0.1770201
222	0x3da4fd63	0.08056142
223	0xbd84d895	-0.06486622
224	0xbe0c85a3	-0.13722853
225	0xbe2ca0e5	-0.16858251
226	0x3da437c6	0.080184504
227	0x3e5c0d54	0.2148946
228	0x3dbd6c40	0.09249163
229	0xbe0953ef	-0.13410924
230	0xbdfea316	-0.1243345
231	0x3e2d1d25	0.16905649
232	0x3db3362e	0.08750568
233	0x3da1314a	0.07870729
234	0xbef7b7f5	-0.48382536
235	0xbe601f21	-0.21886875
236	0x3ccf4ffb	0.025306692
237	0xbdefb2e5	-0.11704043
238	0x3cf4f5d8	0.029902384
239	0x3f1e954d	0.61946565
240	0x3d668e85	0.05628826
241	0x3e8efc6a	0.27926952
242	0xbe94851b	-0.290078
243	0x3d559f2f	0.052153762
244	0xbe7958e3	-0.24350314
245	0xbdf86405	-0.12128452
246	0xbe14f4fd	-0.1454658
247	0xbe31ceb3	-0.17364006
248	0x3e0aa17b	0.13538162
249	0xbddc9e89	-0.10772426
250	0x3da6e384	0.08148864
251	0x3c881788	0.016612783
252	0x3e2d27c7	0.16909705
253	0xbf1c6563	-0.61092204
254	0x3e16363b	0.14669125
255	0x3e18fd46	0.14940366

critic.0.bias f4 [256]
0	0xbaf2df5a	-0.0018529699
1	0x3e4ede91	0.2020209
2	0xbe37ca08	-0.17948163
3	0x3e0e36a0	0.13888025
4	0xbd77c8fa	-0.0604944
5	0x3e7d63d9	0.2474512
6	0x3e406f0f	0.18792365
7	0x3d8ec5a3	0.0697129
8	0x3dd3c381	0.10340024
9	0xbe557f44	-0.20849329
10	0xbe38d629	-0.18050446
11	0x3d6588e6	0.05603876
12	0xbe267904	-0.16257101
13	0x3e7aded7	0.24499069
14	0x3deadf57	0.1146838
15	0x3b6fe802	0.0036606793
16	0xbc8f2183	-0.017472034
17	0xbe113eb9	-0.14184083
18	0xbe25143d	-0.16121002
19	0x3e18b83d	0.14914031
20	0xbdfe9f9c	-0.12432787
21	0x3c8e2420	0.01735121
22	0x3d8d5742	0.06901409
23	0xbe01191e	-0.12607238
24	0xbcf7387e	-0.030178305
25	0xbdc1a804	-0.094558746
26	0xbe82c645	-0.25541893
27	0x3ca92286	0.020646345
28	0x3e411752	0.18856552
29	0xbe05c070	-0.1306169
30	0xbd9d24f0	-0.07673061
31	0xbd56aa10	-0.052408278
32	0x3e6fdea2	0.23424771
33	0x3c2bfed4	0.0104977675
34	0x3d5bc45c	0.05365406
35	0xbd39a911	-0.04532725
36	0x3e0b75bc	0.13619131
37	0xbdee0db8	-0.116237104
38	0x3dc738a7	0.097276025
39	0xbda5c6d7	-0.08094566
40	0x3e0c142a	0.13679567
41	0xbe0be7d3	-0.13662653
42	0x3e33bb7a	0.17551985
43	0xbdc990c4	-0.09842065
44	0x3defebb6	0.1171488
45	0x3da3aa4c	0.07991466
46	0xbd6f60e9	-0.05844203
47	0x3d1bc9e9	0.038034353
48	0x3db29595	0.08719937
49	0x3dcb4eee	0.09927164
50	0xbe0d0738	-0.13772285
51	0xbdb998e5	-0.090623654
52	0x3d16dded	0.03683274
53	0xbbf3c921	-0.007439748
54	0xbe420278	-0.18946254
55	0x3d9063ba	0.07050271
56	0xbe0e52ec	-0.1389882
57	0x3ce0401b	0.027374318
58	0xbda872cb	-0.0822502
59	0x3e363795	0.1779464
60	0x3e1457cc	0.14486617
61	0xbdc83e98	-0.09777564
62	0x3e75989f	0.23984002
63	0x3e04ae9a	0.1295723
64	0xbd10d484	-0.03535892
65	0xbe029f44	-0.12756068
66	0x3d813b21	0.06310106
67	0x3e3e14fa	0.1856269
68	0xbd971c0b	-0.07378396
69	0xbd914ea8	-0.070950806
70	0xbdee912c	-0.11648783
71	0x3e1d08f6	0.1533545
72	0x3b2e5bad	0.0026604936
73	0xbd1ee86e	-0.03879588
74	0x3e05144c	0.12996024
75	0xbdb76401	-0.08954621
76	0xbe1689ea	-0.14701048
77	0x3e1e310e	0.154484
78	0xbdac7bf0	-0.08422077
79	0x3e1f6991	0.15567614
80	0xbd037787	-0.032096412
81	0x3e1e4044	0.15454203
82	0x3e741486	0.23835954
83	0x3b9eede8	0.004850138
84	0xbd9bdbed	-0.07610307
85	0x3e8035e6	0.2504112
86	0xbdbc65d8	-0.09199113
87	0x3daf74c9	0.08567197
88	0xbc66b136	-0.014080336
89	0xbdcbf57d	-0.099589325
90	0xbdfb5af0	-0.12273204
91	0x3ca060bb	0.019577375
92	0xbe0e21f4	-0.1388014
93	0xbcab343f	-0.020898936
94	0x3dc920f7	0.09820741
95	0xbcc2db0f	-0.023786096
96	0x3e09f3c2	0.13471892
97	0xbe4e0472	-0.20118883
98	0x3dc447ee	0.09584032
99	0xbe327620	-0.17427874
100	0xbe1cb5b8	-0.15303695
101	0xbaf1edbb	-0.001845769
102	0x3de6f48b	0.112771116
103	0xbe0b0e75	-0.13579734
104	0xbe0dc68d	-0.13845272
105	0x3dce1c33	0.10063972
106	0xbd4f6a76	-0.05063864
107	0x3c417408	0.011807449
108	0x3d239130	0.039933383
109	0xbe37d11d	-0.17950864
110	0xbdce7fda	-0.100829795
111	0x3df29ca3	0.11846282
112	0x3ddad7d4	0.10685697
113	0x3e3f5217	0.18683659
114	0x3e01a74e	0.12661478
115	0xbe6e8ea6	-0.23296604
116	0x3d9f1d66	0.07769279
117	0xbda39de4	-0.079890996
118	0x3c46e1a0	0.012138754
119	0xbe040ba8	-0.12895072
120	0xbe0ae6cd	-0.13564606
121	0x3da7a4ce	0.08185731
122	0xbe33f65e	-0.1757445
123	0x3d23a51c	0.039952382
124	0x3e1645d3	0.14675073
125	0xbe5fbe9e	-0.21850058
126	0x3d8783b0	0.06616914
127	0x3dabdc0c	0.0839158
128	0xbd9a2bfc	-0.075279206
129	0x3e0f75f7	0.14009844
130	0x3db61b55	0.08891932
131	0xbe0d8031	-0.13818432
132	0xbb78f490	-0.0037987567
133	0x3c259b0b	0.010107766
134	0x3db76167	0.08954125
135	0xbd906ccd	-0.07052002
136	0x3c96dd1a	0.018415976
137	0x3d7edf3d	0.062224615
138	0x3e50bedc	0.20385307
139	0x3d9005e1	0.07032371
140	0x3dac42e2	0.084111944
141	0x3dc95ede	0.098325476
142	0xbc306de8	-0.010768391
143	0xbd13b04b	-0.036056798
144	0xbda5d42e	-0.08097111
145	0xbdc70ad6	-0.09718864
146	0x39e99872	0.00044554804
147	0x3dec757b	0.11545845
148	0xbe1d2463	-0.15345912
149	0xbd4e6b17	-0.050395098
150	0xbe5b934e	-0.21442911
151	0xbe3b2f42	-0.18279746
152	0xbdb02102	-0.08600046
153	0x3e4b1fe2	0.19836381
154	0xbe2cc5f0	-0.16872382
155	0xbde0fea1	-0.109860666
156	0x3e0fb5e4	0.1403423
157	0x3d903c03	0.07042696
158	0x3e2b2ade	0.16715571
159	0xbdfecf0b	-0.12441834
160	0x3e8d91be	0.27650255
161	0x3c5e26ef	0.013559087
162	0xbce97309	-0.028497236
163	0x3cdef569	0.02721663
164	0xbd80b2c8	-0.062841
165	0xbe25e7da	-0.16201726
166	0xbd9cc974	-0.07655612
167	0xbbec7dd7	-0.0072171497
168	0xbd80657d	-0.06269357
169	0xbdae7f40	-0.08520365
170	0xbd47bd11	-0.048764292
171	0x3e642fa0	0.22283792
172	0xbc6399fa	-0.013891691
173	0x3e3ef90d	0.18649693
174	0xbdfedd86	-0.12444596
175	0x3e31a238	0.17347038
176	0xbd517a16	-0.05114182
177	0x3d5e26ce	0.054236226
178	0xbd093bfc	-0.03350447
179	0xbd590f6c	-0.052993223
180	0x381f2955	3.7947048e-05
181	0xbdcd0175	-0.100100435
182	0x3debb2c4	0.11508706
183	0xbcd9c1c5	-0.026581654
184	0xbe52bf85	-0.20580871
185	0x3defa9d3	0.11702313
186	0xbe303395	-0.17207177
187	0xbdfadc75	-0.1224908
188	0xbe1deeab	-0.15423076
189	0xbe10257f	-0.14076804
190	0xbdcd0e90	-0.10012543
191	0x3d4ffada	0.05077634
192	0x3dbef116	0.09323327
193	0x3dfe7f3b	0.12426611
194	0x3e883104	0.26599896
195	0xbdda95f2	-0.10673131
196	0x3e45fb2f	0.193341
197	0x3e5d47b3	0.21609382
198	0x3e560704	0.20901114
199	0xbd4ad0e3	-0.049515616
200	0xbe23245c	-0.15931839
201	0xbc599b6f	-0.013281687
202	0xbd3789ae	-0.044809036
203	0xbd511b24	-0.051051274
204	0x3dbbf7c6	0.091781184
205	0x3d2da777	0.042396035
206	0xbe0801f0	-0.13281989
207	0x3e0f05c8	0.13967049
208	0xbd8a6ecb	-0.06759413
209	0x3e0d8051	0.1381848
210	0x3dfbe40a	0.122993544
211	0x3e169557	0.14705406
212	0xbc780a09	-0.015139111
213	0xbd84d409	-0.06485755
214	0x3df7cead	0.12099967
215	0x3e39e2ae	0.18152878
216	0x3e1f9208	0.1558305
217	0x3e2c6bda	0.16838017
218	0x3d9382e6	0.07202701
219	0x3e3f45af	0.18678926
220	0x3d9422b9	0.07233185
221	0xbdb3d0d6	-0.08780067
222	0x3d42f6b0	0.04759854
223	0xbc69b9e6	-0.014265513
224	0xbe58875a	-0.21145383
225	0x3e3897ef	0.18026708
226	0x3da388c8	0.07985073
227	0x3e4292c8	0.19001305
228	0x3e5a377d	0.2131023
229	0x3e001e3d	0.12511535
230	0x3e33e612	0.17568234
231	0xbdf1a515	-0.11799065
232	0xbdab7fa5	-0.08373956
233	0x3e7a952e	0.2447097
234	0xbe1f55f3	-0.15560131
235	0xbd0ef54c	-0.034901902
236	0x3df24af8	0.118307054
237	0xbd94a9de	-0.07258962
238	0xbe7c0bd1	-0.24613883
239	0x3baafcc9	0.0052181226
240	0xbe21809c	-0.15771717
241	0xbe423631	-0.18965985
242	0x3e1664c7	0.14686881
243	0xbe321468	-0.17390597
244	0xbe6d18f1	-0.23154046
245	0xbe4146db	-0.18874685
246	0xbd0b9f6c	-0.034087583
247	0xbd03a05f	-0.032135364
248	0xbe631349	-0.22175325
249	0x3e2d245a	0.16908398
250	0xbe14e59d	-0.14540716
251	0xbe531167	-0.20612107
252	0x3e476390	0.19471574
253	0xbe76f9f6	-0.2411879
254	0x3e167b01	0.1469536
255	0x3e2c6279	0.1683444

critic.2.weight f4 [256, 256]
0	0xbeb15a34	-0.34639132
1	0x3c76be19	0.015059971
2	0x3e8911fb	0.2677153
3	0xbddf7711	-0.10911382
4	0xbc8f387f	-0.017482994
5	0xbf264911	-0.6495524
6	0xbd424f8b	-0.04743914
7	0xbdf86517	-0.12128656
8	0xbc0b85d2	-0.008515792
9	0xbcb8451a	-0.022493888
10	0x3de5c1c0	0.112185955
11	0x3e3c13bb	0.18366902
12	0xbe3446e0	-0.17605162
13	0xbdc1bb9c	-0.09459612
14	0x3be42f2c	0.006963631
15	0xbea29ef1	-0.31761888
16	0x3ec57edc	0.3857335
17	0xbd745261	-0.059648875
18	0xbd828af7	-0.06374162
19	0x3e78266b	0.24233405
20	0x3e509bf9	0.20371999
21	0x3eaacc38	0.33358932
22	0x3e78897f	0.242712
23	0xbcc8dac1	-0.024518372
24	0x3d8346d0	0.06409991
25	0x3da33a9a	0.07970162
26	0x3e21b981	0.1579342
27	0x3d2d04e1	0.04224098
28	0x3e150d1d	0.14555784
29	0xbe6d9181	-0.23200037
30	0xbecaac58	-0.39584613
31	0xbe1360b4	-0.14392358
32	0xbe8bbcc3	-0.2729245
33	0x3e0169aa	0.12637964
34	0xbe6986b9	-0.22805299
35	0x3dbaaf12	0.09115423
36	0xbc613268	-0.013744928
37	0xbdfb1997	-0.1226074
38	0xbdc483e4	-0.09595469
39	0x3e86a256	0.26295727
40	0x3c256e09	0.010097035
41	0x3eb131bd	0.3460826
42	0xbed12f7e	-0.40856546
43	0xbd09b06e	-0.033615522
44	0xbd1de82c	-0.038551494
45	0x3e73fce5	0.2382694
46	0xbe3f3b5e	-0.1867499
47	0xbe72eb55	-0.23722585
48	0x3eb9c062	0.3627959
49	0x3e129747	0.1431552
50	0x3d388b5e	0.045054786
51	0x3f00997a	0.50234187
52	0x3c29a443	0.010354104
53	0xbcd5446b	-0.0260336
54	0x3dc7a7dd	0.09748814
55	0x3d31114d	0.04322939
56	0x3e3ec0fb	0.18628304
57	0xbd24ef6a	-0.040267386
58	0x3cb08933	0.021549797
59	0xbd9f4986	-0.07777695
60	0xbe347f9b	-0.17626803
61	0xbc240a74	-0.010012258
62	0xbdb85901	-0.09001351
63	0xbe5a95b4	-0.2134617
64	0x3d402891	0.046913687
65	0xbe3de21a	-0.18543282
66	0xbd3a70c1	-0.045517687
67	0xbdf3516e	-0.11880766
68	0x3e62ee37	0.22161184
69	0x3e1ccef9	0.15313329
70	0x3e3f21fe	0.1866531
71	0x3db8420f	0.08996975
72	0x3ea2fff0	0.3183589
73	0x3ea9c519	0.33158186
74	0x3dc36d7f	0.09542369
75	0xbecebb4b	-0.40377268
76	0xbe9ffe05	-0.3124849
77	0x3e81d7ba	0.253599
78	0xbde2a9a3	-0.11067512
79	0x3e479e8d	0.19494076
80	0x3d27361c	0.040823087
81	0x3e024cf0	0.12724662
82	0xbe9cfa5c	-0.3065976
83	0xbea9070f	-0.33013198
84	0x3e1b771f	0.1518216
85	0x3d6c4a97	0.057688322
86	0xbcf822e2	-0.03029007
87	0xbdfbe07b	-0.122986756
88	0x3e522bbd	0.20524497
89	0xbdba0c91	-0.09084428
90	0xbd0081f4	-0.031373933
91	0x3df13d5c	0.117792815
92	0xbe06e646	-0.1317378
93	0x3e0a77e1	0.13522293
94	0xbe807f6b	-0.25097212
95	0xbd894002	-0.06701662
96	0x3e709ac4	0.23496538
97	0xbdb2d21e	-0.08731483
98	0xbe729f1f	-0.23693512
99	0x3e11b9aa	0.14230981
100	0xbd66a07e	-0.0563054
101	0xbdddd762	-0.10832097
102	0x3bf38f28	0.007432837
103	0xbafb247e	-0.0019160656
104	0xbddd7137	-0.1081261
105	0x3c6135bc	0.013745721
106	0xbe14c608	-0.14528668
107	0xbbb745d1	-0.0055930396
108	0xbd8475a5	-0.064677514
109	0xbce595dc	-0.02802556
110	0xbe4f9bf9	-0.20274343
111	0xbe00a408	-0.12562573
112	0xbe9e819b	-0.30958256
113	0xbe7ce2f2	-0.24695948
114	0xbe220764	-0.15823132
115	0xbe673aa7	-0.22580968
116	0x3d049367	0.032367136
117	0xbd0aaedd	-0.03385817
118	0x3c863fa8	0.016387776
119	0x3eaf740d	0.34268227
120	0xbcfad1eb	-0.030617675
121	0xbaef7161	-0.0018268042
122	0x3d6f33d4	0.058399037
123	0xbd03b932	-0.032159038
124	0x3e3fa652	0.1871579
125	0x3dd0f720	0.10203385
126	0x3d5ccb03	0.053904545
127	0x3d4652cb	0.0484188
128	0x3dfa96ee	0.12235819
129	0x3cbb4e4f	0.022864489
130	0x3e34498f	0.17606185
131	0x3df4a5db	0.11945697
132	0x3d56fb56	0.052485786
133	0xbdfa0413	-0.12207808
134	0xbe2a8d89	-0.16655554
135	0xbebb51f7	-0.36585972
136	0x3e427b1d	0.18992276
137	0x3cf4b578	0.029871687
138	0xba73d63b	-0.0009301637
139	0x3e8bc300	0.2729721
140	0xbdcf20de	-0.10113691
141	0xbe25fe2e	-0.16210243
142	0x3d464cd6	0.04841312
143	0xbe0e2796	-0.13882288
144	0x3e387aa7	0.18015538
145	0x3d9db456	0.07700412
146	0xbe9cbca7	-0.3061268
147	0xbe0ff92e	-0.14059898
148	0xbd3494a6	-0.044087075
149	0x3d995551	0.07486976
150	0x3e86cc52	0.2632776
151	0xbc8ed16b	-0.017433843
152	0x3cab448a	0.020906705
153	0xbd50e533	-0.05099983
154	0xbddfe029	-0.10931427
155	0xbe963023	-0.293336
156	0xbd7c4392	-0.061587878
157	0x3bac037b	0.0052494383
158	0xbe42a2f6	-0.19007477
159	0x3e8b7037	0.2723405
160	0xbe1baf1b	-0.15203516
161	0x3d4c9a06	0.049951576
162	0x3edee25e	0.4353208
163	0xbe1a5be9	-0.15074123
164	0xbe64aaf3	-0.22330837
165	0xbdff788d	-0.12474165
166	0xbd936935	-0.07197801
167	0xbc60784a	-0.013700554
168	0x3d9fdf8a	0.078063086
169	0x3df015bd	0.11722896
170	0xbd2b9361	-0.0418886
171	0x3cb3815d	0.021912271
172	0xbdf0f73c	-0.11765906
173	0xbbc44a9d	-0.00599034
174	0xbd18c3c4	-0.03729607
175	0xbbc4d0e3	-0.0060063465
176	0x3eb725c3	0.35770997
177	0xbd89e49e	-0.067330584
178	0xbe95ddf5	-0.29270902
179	0xbe0a3c8e	-0.13499662
180	0x3ea3c7ad	0.31988278
181	0xbda36079	-0.07977385
182	0xbe48e368	-0.19617999
183	0xbdc8cfa4	-0.09805229
184	0x3d556ef0	0.05210775
185	0xbe0ce7f3	-0.13760357
186	0x3e34cb4a	0.17655674
187	0xbe05f416	-0.13081393
188	0xbe00725a	-0.12543622
189	0xbc1fbd12	-0.009749668
190	0x3de3a4dd	0.111154296
191	0x3e055397	0.13020168
192	0xbcd13444	-0.025537618
193	0xbe8dcf1c	-0.27697074
194	0xbcb60343	-0.022218352
195	0xbe193766	-0.14962539
196	0x3e5cc819	0.21560706
197	0x3cda0214	0.026612319
198	0xbd869c97	-0.06572836
199	0xbd663f25	-0.056212563
200	0x3e9b8e7a	0.30382138
201	0x3e86957f	0.2628593
202	0x3ea15092	0.31506783
203	0xbd909369	-0.07059366
204	0x3e4a9be9	0.19786038
205	0x3ea5441a	0.3227852
206	0x3e974054	0.29541266
207	0x3f01ec9d	0.5075167
208	0x3e10289a	0.14077988
209	0x3d4466cf	0.04794961
210	0xbd84f282	-0.06491567
211	0x3c8488ba	0.016178478
212	0xbe79a233	-0.2437828
213	0xba2681ab	-0.00063517195
214	0xbe29d4c3	-0.16585068
215	0xbc6bed7a	-0.014399881
216	0x3e57640c	0.21034259
217	0xbe404b4a	-0.1877872
218	0xbd81c5a2	-0.063365236
219	0xbe8741b7	-0.26417324
220	0xbe10aa24	-0.14127403
221	0x3e086225	0.13318689
222	0x3d41733b	0.047229033
223	0x3df94360	0.12171054
224	0x3e3fcb14	0.18729812
225	0x3e1575ce	0.1459572
226	0xbd4e74c7	-0.050404336
227	0x3e8c9f35	0.27465215
228	0xbe9b27e1	-0.30303863
229	0xbe2e73f1	-0.17036416
230	0xbc7e946c	-0.015538316
231	0x3decc4e5	0.11560992
232	0x3e6d7590	0.23189378
233	0x3e7f44aa	0.24928537
234	0xbe1b757e	-0.15181538
235	0x3e4941a6	0.19653949
236	0x3c2a086d	0.010377985
237	0x3e839ac8	0.25704026
238	0xbddfed2c	-0.10933909
239	0x3c5d65c2	0.0135130305
240	0xbde2f2b0	-0.11081445
241	0xbe4318a3	-0.19052367
242	0x3e938539	0.28812578
243	0x3ee0d534	0.4391266
244	0x3e332af2	0.17496851
245	0x3e74fa98	0.23923719
246	0x3d328cfe	0.043591492
247	0xbe1e4a87	-0.15458117
248	0x3d086d15	0.033307154
249	0x3e0bd10c	0.13653964
250	0x3edc58bd	0.43036452
251	0xbd4b97bb	-0.04970525
252	0xbd2adc44	-0.041713968
253	0x3e938828	0.28814816
254	0x3d2ae4f7	0.041722264
255	0xbca35d83	-0.01994205

critic.2.bias f4 [256]
0	0xbdb057e3	-0.08610513
1	0x3ae4ab1f	0.0017446018
2	0x3cf9d08a	0.030494947
3	0xbdcdd581	-0.10050488
4	0xbc8455b7	-0.016154153
5	0xbc1a0b40	-0.009402096
6	0x3d9de384	0.07709411
7	0xbd753ebc	-0.05987428
8	0xb9d2d3af	-0.00040212038
9	0xbda08cad	-0.07839332
10	0xbd339947	-0.04384735
11	0x3d7804ee	0.060551576
12	0x3a4bacfc	0.0007769612
13	0x3dd12e68	0.102139294
14	0x3c78781d	0.015165356
15	0x3d4cf3c7	0.05003717
16	0xbccfe550	-0.0253779
17	0xbcd644b3	-0.026155805
18	0x3c39bd5d	0.011336652
19	0x3d3311ce	0.04371815
20	0x3b27555b	0.0025533054
21	0xbd0ca65e	-0.034338348
22	0xbdbc798c	-0.09202871
23	0x3c68ac7e	0.014201282
24	0xbd061474	-0.03273435
25	0x3d791e0d	0.060819674
26	0x3d473637	0.048635688
27	0xbd11aa9e	-0.035563104
28	0x3d82ad1a	0.06380673
29	0xbd16430f	-0.036685046
30	0xbd8beb9c	-0.06832048
31	0x3dae9641	0.085247524
32	0x3d93134a	0.071814135
33	0x3d192830	0.03739184
34	0x3dba8c90	0.091088414
35	0xbbc93c84	-0.006141247
36	0x3c9185ae	0.017763939
37	0xbd0628c0	-0.032753706
38	0xbb3fde9b	-0.002927697
39	0xbda01385	-0.07816223
40	0x3d092e29	0.033491287
41	0x3d9b521a	0.07584019
42	0x3d79fd39	0.061032508
43	0x3d985004	0.07437137
44	0xbc0b3e2f	-0.008498712
45	0x3c8702ba	0.016480792
46	0xbcb9dd20	-0.022688448
47	0x3d0c270a	0.034216918
48	0x3cc233e9	0.023706393
49	0x3d55ae35	0.05216809
50	0x3bee50c1	0.00727281
51	0xb8922a4d	-6.969702e-05
52	0xbd4f6c11	-0.05064017
53	0xbd4e6992	-0.05039365
54	0x3dd0b562	0.10190846
55	0xbca3a412	-0.019975696
56	0xbb58751f	-0.0033028794
57	0x3ba230d7	0.00494967
58	0x3cd38bf5	0.025823573
59	0xbe245c39	-0.16050805
60	0x3d904950	0.07045233
61	0xbd091e1d	-0.033475984
62	0xbd1107d2	-0.03540785
63	0xbcae2dce	-0.021262076
64	0x3ca20302	0.019776825
65	0x3dd26990	0.10274041
66	0xbd9a5f11	-0.07537664
67	0xbc30abff	-0.010783195
68	0xbd91627a	-0.07098861
69	0x3bb59036	0.005540873
70	0x3c4b3085	0.012401705
71	0x3d06f97f	0.03295278
72	0x3c827822	0.015926424
73	0x3d1fc6af	0.03900784
74	0xbd16f52f	-0.03685492
75	0xbc4ac74f	-0.01237662
76	0x3d4c641b	0.049900156
77	0x3c9396fa	0.018016327
78	0x3bd765e5	0.006573426
79	0x3d1702dd	0.036867965
80	0x3d765f53	0.060149502
81	0x3c6244ab	0.013810317
82	0xbc3370cb	-0.010952185
83	0xbc529669	-0.012853243
84	0x3d9cb75d	0.07652161
85	0xbdc6a234	-0.096989065
86	0x3be260e6	0.006908524
87	0xbd26f48f	-0.040760573
88	0x3d2b069a	0.041754343
89	0xbd24ff60	-0.040282607
90	0x3cf9b27a	0.030480612
91	0xb99bee9b	-0.0002974168
92	0x3cc0b2e3	0.0235228
93	0xbd77fede	-0.060545795
94	0x3c6d8aa2	0.014498385
95	0xbd14f85e	-0.036369674
96	0xbd338fce	-0.043838315
97	0x3cd2af89	0.025718467
98	0x3dcb391f	0.09923004
99	0x3da535fa	0.08066936
100	0x3db1694a	0.086626604
101	0xbd4e6002	-0.05038453
102	0xbca9e603	-0.020739561
103	0x3ca6ab79	0.020345436
104	0xbc7ac661	-0.015306086
105	0x3cad6220	0.021164954
106	0xbc788afb	-0.015169854
107	0xbc1da90e	-0.009622825
108	0x3d60e153	0.054902386
109	0xbb8bd773	-0.004267627
110	0xbdd0d242	-0.101963535
111	0x3ddfe667	0.10932618
112	0xbd20c08f	-0.03924614
113	0x3d53d038	0.051712245
114	0xbcaae1ed	-0.020859683
115	0xbd95dc8e	-0.07317458
116	0x3d6087b8	0.05481693
117	0x3c2c78f1	0.010526882
118	0x3d1ac5d7	0.03778633
119	0x3ca14c64	0.019689746
120	0x3ca82c88	0.020529047
121	0xbdc6dad7	-0.09709709
122	0x3c969f08	0.018386379
123	0xbd04d057	-0.03242525
124	0x3ce7d798	0.028301045
125	0xbc4b513a	-0.012409503
126	0xbcf859df	-0.030316291
127	0xbd9f8844	-0.077896625
128	0x3c9e4134	0.0193182
129	0x3d2f42c0	0.042788267
130	0x3d76ba53	0.060236286
131	0xbbe8c00c	-0.007102972
132	0xbd1dff1c	-0.03857337
133	0xbd95e119	-0.073183246
134	0x3d224cd6	0.039624058
135	0xbbf62885	-0.0075121545
136	0xbc29e0ae	-0.010368509
137	0xbd96a995	-0.07356564
138	0xbdac8208	-0.08423239
139	0xbdcd4ce7	-0.100244336
140	0xbd923dd3	-0.07140698
141	0x3d72f44b	0.059315007
142	0xbda934a9	-0.08261997
143	0xbcbba97a	-0.022907961
144	0xbde36886	-0.11103921
145	0xb9f50fe9	-0.00046741895
146	0x3d7f296f	0.062295374
147	0xbbec37f6	-0.0072088195
148	0xbc5a4e98	-0.013324402
149	0x3d07f2e6	0.03319063
150	0x3ba73e4e	0.005103863
151	0x3da7a674	0.08186045
152	0x3ddbcb67	0.10732155
153	0xbd9abd5c	-0.07555649
154	0x3b882837	0.0041551846
155	0xbd1a86d1	-0.037726227
156	0xbc8357ec	-0.016033135
157	0xbbc7f0ae	-0.0061016893
158	0x3cbe23aa	0.023210365
159	0x3d9b3a87	0.075795226
160	0xbd7b37c6	-0.061332487
161	0x3c52f1e1	0.012875051
162	0x3d92d512	0.07169546
163	0x3ce651aa	0.028115112
164	0xbde08ce6	-0.10964374
165	0xbdfc1c8a	-0.12310131
166	0x3b0ad505	0.0021184098
167	0xbd52d453	-0.05147202
168	0xbc86e032	-0.016464327
169	0xbd8d373d	-0.068953015
170	0x3b52b708	0.0032152552
171	0xbb22a058	-0.002481481
172	0xbccf9381	-0.02533889
173	0xbadc81e5	-0.001682338
174	0xbd892341	-0.06696177
175	0x3dcb5268	0.09927827
176	0xbdb440bb	-0.08801409
177	0x3cfd230f	0.030900506
178	0x3d3c9a43	0.046045553
179	0x3ca65f90	0.02030924
180	0xbd172c4c	-0.03690748
181	0xbdbfa0e3	-0.093568586
182	0x3d9b5098	0.075837314
183	0x3daa0d8a	0.083033636
184	0x3d1071d8	0.03526482
185	0x3bc62043	0.0060463264
186	0xbd7ed9c3	-0.062219393
187	0x3c9dfa03	0.019284254
188	0x39b9ee22	0.00035463372
189	0x3d153cff	0.036435124
190	0xbcea04f8	-0.028566822
191	0x39cc45ab	0.0003896182
192	0xbdaa6159	-0.08319349
193	0x3ce3c0f4	0.027801968
194	0x3d6cdedf	0.057829734
195	0x3dae76a0	0.0851872
196	0x3da15c7f	0.0787897
197	0xbcc5e5fa	-0.024157513
198	0x3ba30a3a	0.0049755843
199	0xbddc244c	-0.107491106
200	0xbb88697a	-0.0041629644
201	0xbd9a0e9d	-0.075223185
202	0xbd6b35b0	-0.057424247
203	0xbd7ac14c	-0.0612195
204	0xbd88dbf9	-0.066825815
205	0xbd8a776b	-0.067610584
206	0x3cc6d224	0.024270125
207	0x38d11587	9.9699064e-05
208	0x3cd12a1d	0.025532776
209	0xbb9f3510	-0.0048586205
210	0x3c3edda8	0.011649527
211	0xbd268bf9	-0.040660832
212	0xbdebdd11	-0.115167744
213	0xbd9f02c2	-0.07764198
214	0x3db81572	0.08988465
215	0x3d284c34	0.041088298
216	0x3bcb18dc	0.006198032
217	0x3d0ed95b	0.034875255
218	0x3d096401	0.033542637
219	0xbd88e139	-0.06683583
220	0x3dc9139f	0.098181956
221	0x3d4f6682	0.05063487
222	0x3d9ec257	0.07751911
223	0xbd950c3b	-0.072777234
224	0x3b595308	0.0033161063
225	0xbc855cd3	-0.016279614
226	0x3b8eaafe	0.00435388
227	0xbdad7651	-0.08469833
228	0xbd4bfc5f	-0.049801227
229	0x3dd4180f	0.10356151
230	0xbc4bb8bb	-0.01243418
231	0x3d389872	0.04506726
232	0xbd057667	-0.03258362
233	0x3bd69adc	0.0065492224
234	0x3c8a5cb1	0.016889902
235	0x3d1addda	0.03780923
236	0xbd63a9bd	-0.055581797
237	0xbd3f6edd	-0.046736587
238	0x3c15d1a0	0.009144217
239	0xbdac3063	-0.084076665
240	0xbd3621f1	-0.044465963
241	0xbd99671b	-0.07490369
242	0x3da32417	0.07965868
243	0xbd004dd5	-0.031324226
244	0xbd005d8e	-0.03133922
245	0xbd1c76b8	-0.038199157
246	0xbcd66846	-0.026172768
247	0x3cee5428	0.029092863
248	0xbcc5593b	-0.0240904
249	0x3dbb5bb0	0.091483474
250	0x3e0d6565	0.1380821
251	0xbd66f792	-0.056388445
252	0x3d1e417a	0.038636662
253	0xbd772d16	-0.06034573
254	0x3db6215a	0.0889308
255	0xbcadc58e	-0.021212365

critic.4.weight f4 [1, 256]
0	0x3f00ae7a	0.5026623
1	0x3ed5f165	0.41785732
2	0xbf0e570a	-0.5560156
3	0xbeeacf8b	-0.45861468
4	0xbec4b7ab	-0.38421378
5	0xbed6f4d3	-0.4198366
6	0xbef95622	-0.48698527
7	0xbeeeaf2b	-0.46618018
8	0x3ed72fdb	0.42028698
9	0x3eccf870	0.40033293
10	0x3f659cea	0.89692557
11	0xbf105a79	-0.5638805
12	0xbec745f5	-0.3892056
13	0xbeddabeb	-0.43295226
14	0x3efd6c32	0.4949661
15	0x3f0d621c	0.5522783
16	0x3f25999d	0.6468752
17	0x3ec8af20	0.3919611
18	0xbeead701	-0.4586716
19	0x3f0bb1dc	0.54568267
20	0x3eb7deb6	0.35912102
21	0x3edd7e1c	0.43260276
22	0x3ed32875	0.41241804
23	0xbeeffe95	-0.46873918
24	0xbf0dc544	-0.5537913
25	0xbea7535f	-0.32680795
26	0x3f0b8d20	0.54512215
27	0xbeeed0e3	-0.46643743
28	0xbedbca0d	-0.4292759
29	0x3f1b753a	0.6072575
30	0x3ec2df3d	0.38060942
31	0x3ee7f973	0.45307502
32	0xbf61f96d	-0.8827122
33	0xbef15088	-0.47131753
34	0xbeeb0ba3	-0.45907316
35	0xbee30f2a	-0.44347507
36	0xbee503f9	-0.44729593
37	0xbf051805	-0.51989776
38	0xbeea20c1	-0.45728114
39	0x3ef76678	0.48320365
40	0xbeddc3cc	-0.43313444
41	0x3eddd36a	0.4332536
42	0xbec950db	-0.393195
43	0x3f17ab88	0.5924611
44	0xbee672d6	-0.45009488
45	0x3f15c7a3	0.58507746
46	0xbed1c5ae	-0.4097113
47	0xbf59f4fd	-0.8513945
48	0x3ea83b8a	0.32857925
49	0x3f0a274a	0.539662
50	0xbf03abad	-0.5143383
51	0xbedce6cf	-0.43144843
52	0xbecc6875	-0.39923444
53	0x3ed4a598	0.41532588
54	0x3f5c0868	0.85950327
55	0x3ed1a613	0.40947017
56	0x3ed45379	0.41469935
57	0x3effa20f	0.49928328
58	0xbebe8b1b	-0.37215504
59	0x3f836009	1.0263683
60	0xbef1e98f	-0.47248504
61	0xbeeea378	-0.46609092
62	0xbf447634	-0.76742864
63	0xbedfb8be	-0.43695635
64	0x3f244be5	0.64178306
65	0xbf6548e4	-0.8956435
66	0x3eed138b	0.46303973
67	0x3ed566f7	0.41680118
68	0x3ec8f8e1	0.3925238
69	0xbeea61c2	-0.45777708
70	0xbf0d84e7	-0.5528092
71	0x3f00e98c	0.50356364
72	0x3ee74d29	0.45176056
73	0xbed5422a	-0.41652042
74	0xbec833bf	-0.3910198
75	0xbf0f17ff	-0.5589599
76	0x3f11ac55	0.5690358
77	0xbed26fb2	-0.41100842
78	0xbf030cb6	-0.5119127
79	0xbf12a463	-0.57282084
80	0x3f0bd573	0.5462257
81	0xbf0a5439	-0.54034764
82	0xbec643bb	-0.3872355
83	0xbee4016f	-0.44532344
84	0xbefd4674	-0.49467814
85	0xbf0cb0d3	-0.5495731
86	0xbecf8eab	-0.40538535
87	0x3eaea8f8	0.34113288
88	0xbeea78a0	-0.45795155
89	0xbec683dd	-0.3877248
90	0x3efc743e	0.49307436
91	0xbf604d5a	-0.8761803
92	0x3ee3fb7a	0.445278
93	0xbeef9197	-0.46790764
94	0xbecde4ce	-0.40213627
95	0x3ed8be3b	0.42332634
96	0xbed70004	-0.419922
97	0xbee03211	-0.43788198
98	0xbf08cbc7	-0.5343594
99	0x3edee459	0.4353359
100	0xbebb683c	-0.36602962
101	0xbeec614f	-0.4616799
102	0xbf105fc9	-0.56396157
103	0x3f10613d	0.56398374
104	0x3f089f73	0.533683
105	0xbea8a484	-0.32938015
106	0x3ee5c688	0.4487803
107	0xbed3bbaa	-0.41354114
108	0xbf151a0c	-0.5824287
109	0x3f30081b	0.6876237
110	0x3f0172fe	0.5056609
111	0xbf85bb20	-1.0447731
112	0xbef7af90	-0.4837613
113	0xbf15f238	-0.5857272
114	0x3ed7354b	0.42032847
115	0x3ee6ea2a	0.45100528
116	0xbec5a4db	-0.38602337
117	0xbee013a5	-0.43764988
118	0xbf2ceae2	-0.675459
119	0xbefeca08	-0.49763513
120	0xbf16d185	-0.5891345
121	0xbee35749	-0.4440253
122	0x3ef29bfe	0.47384638
123	0xbede2784	-0.43389523
124	0xbedfd66e	-0.43718284
125	0x3f09b414	0.537904
126	0xbf0fd91b	-0.5619065
127	0xbee874ff	-0.4540176
128	0x3f2eadc2	0.68233883
129	0xbedf590e	-0.4362263
130	0xbf106cfb	-0.5641629
131	0xbee95d6d	-0.4557909
132	0xbee543ce	-0.44778293
133	0x3ec7da4b	0.39033732
134	0xbecec0d3	-0.40381488
135	0xbeed85ec	-0.46391237
136	0xbef6403f	-0.4809589
137	0x3eff03ba	0.4980753
138	0x3ee2e816	0.44317693
139	0xbef8d259	-0.48597983
140	0x3ec927f9	0.3928831
141	0xbeddb986	-0.43305606
142	0x3e9c3944	0.3051244
143	0x3ee2fd42	0.44333845
144	0xbedff318	-0.43740153
145	0x3ed292a5	0.41127506
146	0xbf065cc2	-0.5248529
147	0xbf04b287	-0.5183491
148	0xbee4abf2	-0.44662434
149	0xbec906b0	-0.39262915
150	0xbf07b48d	-0.53009874
151	0x3ee2e9f1	0.44319108
152	0xbf528708	-0.8223729
153	0x3ed571c4	0.4168836
154	0x3eed5234	0.46351779
155	0x3ef0877d	0.4697837
156	0xbf171030	-0.59009075
157	0xbee7688c	-0.4519695
158	0x3eca91fd	0.39564505
159	0xbec151e4	-0.3775779
160	0x3f01d01f	0.5070819
161	0xbee3a343	-0.44460496
162	0xbf046645	-0.5171855
163	0x3eeea6ba	0.46611577
164	0x3ed61332	0.4181152
165	0xbf5bfab5	-0.85929424
166	0xbec8bc3e	-0.39206117
167	0x3f2004af	0.62507147
168	0xbf01dfcf	-0.5073213
169	0x3ede3baa	0.43404895
170	0xbefd7e01	-0.49510196
171	0xbee8500c	-0.4537357
172	0x3ec612a7	0.38686106
173	0xbf33f779	-0.7029949
174	0xbf110d2f	-0.5666074
175	0xbec67f83	-0.3876916
176	0x3f28d4ae	0.65949523
177	0xbed12f5a	-0.4085644
178	0x3efccdf0	0.49375868
179	0xbecc2c09	-0.39877346
180	0xbedd4967	-0.43220064
181	0x3ee8e784	0.45489132
182	0xbed51e3a	-0.41624624
183	0xbebb4f2d	-0.36583844
184	0x3ec2594d	0.37958756
185	0xbecb7231	-0.3973556
186	0x3f15b302	0.5847627
187	0x3ed53b82	0.41646963
188	0xbf1008f0	-0.5626364
189	0x3ee32153	0.44361362
190	0x3eff6e17	0.4988868
191	0xbefc9862	-0.4933501
192	0x3ee7afe1	0.45251372
193	0xbf1f5804	-0.62243676
194	0xbed56955	-0.41681924
195	0x3ef18681	0.4717293
196	0xbf2a7021	-0.66577345
197	0xbeb88ae4	-0.36043465
198	0xbec7d1d5	-0.39027277
199	0x3ee05dab	0.43821463
200	0x3f0c2d2c	0.54756427
201	0x3ed500af	0.41602084
202	0xbed46b34	-0.4148804
203	0x3efd5c95	0.49484697
204	0x3ef90616	0.48637456
205	0x3ebfbda6	0.37449378
206	0xbeb94775	-0.3618733
207	0x3ee79095	0.45227495
208	0xbed8d8e6	-0.4235298
209	0x3ebbdf12	0.36693627
210	0xbf0ca389	-0.54937035
211	0x3f388c98	0.7208953
212	0xbed5c86c	-0.41754472
213	0x3f10824b	0.5644881
214	0x3f17c700	0.59288025
215	0x3ed1f151	0.41004422
216	0x3ebeb38f	0.37246367
217	0xbec33ea1	-0.3813372
218	0x3ee4b6fb	0.44670853
219	0x3f0116d7	0.50425476
220	0x3ee605aa	0.44926196
221	0xbebc6537	-0.3679597
222	0xbef294ac	-0.47379053
223	0x3f0dea6f	0.5543584
224	0x3eeb3d76	0.45945328
225	0x3efc13c9	0.49233845
226	0x3edc7325	0.43056598
227	0xbee54d7d	-0.4478568
228	0x3edb05d6	0.4277789
229	0xbf12a578	-0.57283735
230	0xbf07d620	-0.53061104
231	0x3ee38230	0.44435263
232	0xbef6b5a8	-0.48185468
233	0xbf138b68	-0.5763459
234	0xbee37886	-0.4442789
235	0x3eb9854f	0.3623452
236	0x3f0e6a62	0.5563108
237	0x3ed856cb	0.42253718
238	0x3ee983cb	0.45608363
239	0x3ec3feef	0.38280436
240	0xbecff438	-0.40616012
241	0x3ec773f3	0.3895565
242	0xbf0b4da0	-0.5441532
243	0x3ee01721	0.43767646
244	0x3ec5d702	0.386406
245	0x3ef1e42a	0.47244388
246	0xbedbb420	-0.42910862
247	0xbf120b44	-0.5704844
248	0xbf0f898b	-0.5606925
249	0x3eb486b8	0.35259032
250	0xbf403ce9	-0.7509294
251	0x3f52c9b4	0.82339025
252	0xbeeb976f	-0.46013972
253	0x3ebda42a	0.3703931
254	0x3f45c106	0.77247655
255	0x3ee7c280	0.4526558

actor.0.weight f4 [256, 19]
0	0xbe0940d4	-0.13403636
1	0xbe0a18df	-0.1348605
2	0x3e0f386e	0.1398637
3	0xbd94f60b	-0.072734915
4	0xbcd6a4a0	-0.026201546
5	0x3ce4c2c8	0.02792491
6	0x3ec97b0b	0.39351687
7	0xbce3c75c	-0.027805023
8	0xbd9aea1b	-0.07564183
9	0x3decf76d	0.1157063
10	0x3e104fbf	0.1409292
11	0xbe54e005	-0.20788582
12	0x3dd7e0de	0.10540937
13	0xbd649a7e	-0.055811398
14	0xbcaa858e	-0.020815637
15	0x3e29c292	0.16578129
16	0xbde6da1e	-0.11272071
17	0x3e0d324c	0.13788718
18	0x3d8c8c2e	0.06862675
19	0xbd5f8991	-0.054574553
20	0x3e57613e	0.21033189
21	0xbd028bba	-0.031871535
22	0xbc307fa6	-0.010772621
23	0xbabeba00	-0.0014551282
24	0x3d663ec4	0.0562122
25	0xbedf0bd7	-0.4356372
26	0x3e4ba699	0.1988777
27	0xbde697fe	-0.11259459
28	0x3c7e8ef7	0.015537015
29	0xbe60148d	-0.2188284
30	0x3df0f377	0.11765187
31	0xbe72c145	-0.23706539
32	0xbdea5ca4	-0.11443451
33	0x3bacb9a3	0.005271153
34	0x3d6ecca2	0.05830062
35	0x3dc3f12d	0.09567485
36	0x3d9f842f	0.07788884
37	0xbe29828f	-0.1655371
38	0x3d53e765	0.051734347
39	0x3dbd0420	0.092293024
40	0x3e1654b4	0.14680749
41	0xbd9228cd	-0.071366884
42	0x3e36bc61	0.17845298
43	0xbe63df9a	-0.22253266
44	0xbd7dc746	-0.06195762
45	0x3d787f83	0.06066848
46	0xbdd4503e	-0.103668675
47	0xbca6ea51	-0.020375403
48	0xbe4defd6	-0.20111021
49	0x3e2ac903	0.16678242
50	0xbd0d0b6b	-0.034434717
51	0x3e5f541b	0.21809427
52	0x3d7b5a8a	0.06136564
53	0x3cedd2ca	0.029031176
54	0x3e21705e	0.15765521
55	0xbd9a56da	-0.07536097
56	0xbe865813	-0.2623907
57	0xbdd3b8b7	-0.10337966
58	0x3d515af8	0.051112145
59	0xbdb93647	-0.09043556
60	0x3c81d39e	0.015847977
61	0x3e2c795f	0.16843174
62	0xbe484b13	-0.19559889
63	0xbda01bad	-0.07817779
64	0x3e0362c4	0.12830645
65	0xbdc558ca	-0.09636076
66	0xbd8c93cf	-0.0686413
67	0xbb3c0780	-0.0028690994
68	0x3e0cbd3f	0.13744067
69	0xbb6ee8cc	-0.0036454676
70	0x3ea70114	0.3261801
71	0x3d0833fb	0.033252697
72	0xbd4dac49	-0.050213132
73	0x3e232041	0.15930273
74	0xbd7e2660	-0.062048316
75	0x3d13b221	0.03605855
76	0x3e1eb656	0.15499243
77	0xbd82d14f	-0.06387579
78	0xbc0da2e7	-0.008644796
79	0x3d8dc407	0.06922155
80	0x3e01b93d	0.12668319
81	0xbdf567fe	-0.119827256
82	0xbc48d51c	-0.0122578405
83	0xbe20b023	-0.15692191
84	0x3e11b23a	0.14228144
85	0xbe61d2d7	-0.22053085
86	0xbe4faab3	-0.2027996
87	0x3e87b462	0.2650481
88	0xbda7d0bb	-0.08194109
89	0xbdf01b95	-0.11724011
90	0x3d58cd12	0.052929945
91	0xbce64450	-0.028108746
92	0x3e5242f6	0.20533356
93	0x3e2f1751	0.17098738
94	0xbc86f1b3	-0.016472673
95	0x3d92f080	0.07174778
96	0xbe072bf6	-0.13200364
97	0xbe48254b	-0.19545476
98	0x3d8204fb	0.06348606
99	0xbca12228	-0.019669607
100	0xbe0ed4ce	-0.13948366
101	0x3df0371f	0.117292635
102	0x3de63b64	0.112417966
103	0xbe3e3786	-0.18575868
104	0x3d84ed1b	0.06490537
105	0xbda55fc0	-0.080749035
106	0xbaaa3eeb	-0.0012988722
107	0x3e70a6ba	0.23501101
108	0xbe683294	-0.22675544
109	0xbe6a9356	-0.22907767
110	0xbbd0860a	-0.006363635
111	0xbe04c553	-0.12965898
112	0xbdeaa552	-0.114573136
113	0xbd22760f	-0.03966337
114	0xbd8e1b8f	-0.0693885
115	0x3e31987e	0.17343327
116	0xbe1ffacf	-0.1562302
117	0x3e382083	0.17981152
118	0xbe3d8987	-0.18509494
119	0xbe472746	-0.19448575
120	0xbe673bff	-0.2258148
121	0x3e5eb393	0.2174819
122	0xbe2584cd	-0.1616394
123	0xbe0ab98d	-0.13547345
124	0x3dfc99aa	0.123339966
125	0xbe05fd6f	-0.13084958
126	0xbe820054	-0.25390875
127	0x3e3eddae	0.18639252
128	0xbe5fbb12	-0.21848705
129	0xbcdd4650	-0.027011067
130	0x3db4d7eb	0.088302456
131	0x3d439436	0.047748767
132	0x3e285845	0.16439922
133	0x3e459afc	0.19297403
134	0xbe561da0	-0.20909739
135	0x3e54cf5b	0.20782225
136	0xbddd1817	-0.107956104
137	0x3e076a79	0.1322421
138	0x3e3aa05d	0.18225236
139	0xbe99794f	-0.29975364
140	0xbd8fe7d6	-0.07026641
141	0xbc30cb2b	-0.0107906265
142	0xbdc4a213	-0.09601226
143	0xbe3be955	-0.18350728
144	0xbd4b67f5	-0.049659688
145	0x3e788a62	0.24271539
146	0x3e99199d	0.29902354
147	0x3d3b9d72	0.04580445
148	0xbe884bef	-0.26620433
149	0xbd013d6a	-0.03155271
150	0xbe276035	-0.16345294
151	0xbe252016	-0.16125521
152	0x3c326dbf	0.010890423
153	0x3d4c0aff	0.049815174
154	0xbe242721	-0.16030551
155	0x3df8f702	0.12156488
156	0x3e41aa49	0.18912615
157	0xbe36a9a3	-0.17838149
158	0x3ce3f1b0	0.027825207
159	0xbe36db96	-0.17857203
160	0xbe59216d	-0.21204157
161	0xbe30dbf2	-0.17271402
162	0x3cee2a88	0.029073015
163	0xbe7ec770	-0.24880767
164	0x3e7e27a2	0.24819806
165	0xbdf95a8c	-0.121754736
166	0x3e500a7d	0.20316501
167	0x3e468803	0.19387822
168	0xbe5be822	-0.2147527
169	0x3dbfb2ab	0.0936025
170	0x3e6099db	0.21933691
171	0xbe1c00c1	-0.15234663
172	0xbe594288	-0.21216786
173	0x3dc0677f	0.0939474
174	0x3e22205a	0.15832654
175	0xbe518635	-0.20461352
176	0xbe5e4936	-0.21707615
177	0xbe21907f	-0.15777777
178	0x3d407d12	0.046994276
179	0xbe483f2d	-0.1955535
180	0xbc43819d	-0.011932758
181	0xbe60b5d4	-0.21944362
182	0xbea0ba95	-0.3139235
183	0x3c11c7c3	0.008897725
184	0x3d45d23b	0.048296195
185	0xbd47b4fd	-0.04875659
186	0xbdd92c27	-0.106041245
187	0xbdaef968	-0.08543664
188	0x3e3e917a	0.18610182
189	0x3e998dd9	0.29991034
190	0x3e0b5c9c	0.13609546
191	0x3e23a3b0	0.1598041
192	0xbe098705	-0.13430412
193	0xbe31f394	-0.17378074
194	0xbe699cf6	-0.22813782
195	0x3ce56058	0.028000042
196	0xbda277f4	-0.079330355
197	0xbdbdcde7	-0.092677884
198	0xbd9b161d	-0.07572577
199	0xbddb6fb8	-0.10714668
200	0x3e4e1f55	0.2012914
201	0xbeaadc7f	-0.3337135
202	0x3da4b6f9	0.08042712
203	0xbe671d48	-0.22569764
204	0x3e40627f	0.18787573
205	0x3e5904ad	0.2119319
206	0x3d0f8640	0.03504014
207	0x3d2a7d52	0.04162342
208	0x3e2e121e	0.16999099
209	0x3e4d1ee4	0.20031315
210	0xbd2061a7	-0.03915563
211	0xbd583910	-0.052788794
212	0x3e2d07c7	0.16897498
213	0x3de390fe	0.111116394
214	0x3e31c95b	0.17361967
215	0x3e931008	0.28723168
216	0xbe039761	-0.12850715
217	0x3e0c8bc8	0.13725197
218	0xbe541aaf	-0.20713304
219	0xbe01acfa	-0.12663642
220	0x3d83d0bb	0.064362966
221	0x3d3953e9	0.04524604
222	0x3c3594df	0.011082857
223	0xbe02537e	-0.12727162
224	0x3d7918d4	0.060814694
225	0x3e7d3997	0.24729
226	0x3da4ec6f	0.08052909
227	0xbe2c3f54	-0.16821033
228	0xbe749e03	-0.23888402
229	0xbc06d0cd	-0.008228493
230	0xbe3c8e23	-0.18413596
231	0xbb9057c1	-0.0044049923
232	0x3e4be155	0.19910176
233	0x3d440b7c	0.047862515
234	0x3e9f236d	0.31081715
235	0xbd782250	-0.060579598
236	0x3db88518	0.090097606
237	0x3e2ee92a	0.17081133
238	0xbdbc7cda	-0.09203501
239	0xbe99e184	-0.30054867
240	0x3e881cba	0.26584417
241	0xbd660168	-0.056153685
242	0xbe89cfbf	-0.2691631
243	0x3dec262f	0.115307204
244	0x3e8e0c73	0.27743873
245	0x3e10f7cb	0.14157026
246	0x3e631118	0.2217449
247	0x3e185cd7	0.14879166
248	0x3e0b0f26	0.13579997
249	0x3d1ce366	0.0383028
250	0xbe724fd6	-0.23663267
251	0x3dfcd91e	0.12346099
252	0x3de949a6	0.113910004
253	0x3ee984ad	0.45609036
254	0x3df31906	0.11870007
255	0xbe3f3241	-0.18671514

actor.0.bias f4 [256]
0	0xbc080361	-0.008301587
1	0xbd03221a	-0.032014944
2	0x3dcc4d78	0.099757135
3	0xbe0022d4	-0.12513286
4	0xbd5e96e8	-0.054343134
5	0x3e121f8c	0.14269847
6	0x3ddeceb4	0.10879269
7	0x3e25a8e5	0.1617771
8	0xbc842406	-0.016130459
9	0xbc7e68a6	-0.01552788
10	0x3e1f3e00	0.15550995
11	0xbdf03732	-0.11729278
12	0x3da61bba	0.08110757
13	0x3c7cfc32	0.015440987
14	0xbc82369e	-0.015895184
15	0x3e036997	0.12833248
16	0xbd91e9be	-0.07124661
17	0xbd096e26	-0.03355231
18	0x3d4b8723	0.049689423
19	0x3db3fffd	0.0878906
20	0x3df8cefd	0.12148855
21	0xbe0ed114	-0.13946944
22	0xbe1c85ee	-0.15285465
23	0xbc572f50	-0.013133839
24	0x3df70881	0.12062169
25	0x3ddecb84	0.10878661
26	0x3d5b3e14	0.053526
27	0xbe03373b	-0.12814038
28	0x3db55833	0.08854713
29	0xbd8d5916	-0.069017574
30	0x3d12131c	0.035662755
31	0x3e4c40e7	0.19946633
32	0x3e216877	0.15762506
33	0xbdf9185f	-0.121628515
34	0x3d3a398b	0.045465034
35	0x3d5513c5	0.052020807
36	0xbcf245cb	-0.029574296
37	0xbd0a6060	-0.033783317
38	0xbdf6f3c1	-0.12058211
39	0x3dd92eee	0.10604654
40	0xbe47c876	-0.19510064
41	0x3d77e84c	0.06052427
42	0xbde37ff1	-0.11108387
43	0xbda4583b	-0.08024641
44	0x3dfaf72a	0.12254174
45	0xbc98ee62	-0.018668357
46	0xbd4b4802	-0.04962922
47	0xbe11ea8c	-0.14249629
48	0xbd6cbf18	-0.05779943
49	0x3de0aeed	0.109708644
50	0x3e1b27c0	0.15151882
51	0x3e19f3cd	0.15034409
52	0x3e6ae019	0.22937049
53	0xbcabc9d8	-0.02097027
54	0x3bbcc205	0.0057604336
55	0xbda6c9a2	-0.08143927
56	0xbe0f41d2	-0.13989952
57	0x3e062f28	0.13103926
58	0x3d7be6b6	0.06149932
59	0x3df20b01	0.11818505
60	0x3e05e0d5	0.13074048
61	0xbdb66ea3	-0.08907821
62	0xbe41c8eb	-0.189243
63	0xbe9d7c7a	-0.3075903
64	0xbe3439ca	-0.1760017
65	0x3cd8ad1a	0.026449729
66	0x3e267708	0.16256344
67	0xbd456b12	-0.048197813
68	0x3deac77d	0.114638306
69	0x3d95f602	0.07322313
70	0x3e56ee64	0.20989376
71	0x3de84890	0.11341965
72	0x3e761002	0.24029544
73	0x3e39d0e6	0.18146095
74	0x3d8b96d9	0.06815881
75	0x3e1ab8ca	0.15109554
76	0x3e2c7b1c	0.16843837
77	0x3e1b2fae	0.15154907
78	0xbd876473	-0.06610956
79	0x3daeed3f	0.08541345
80	0x3da621e3	0.08111932
81	0xbe4e6297	-0.20154797
82	0x3d9fa52c	0.07795176
83	0x3b76cb5a	0.0037657828
84	0xbdb1abcb	-0.08675345
85	0x3c727c2e	0.014800115
86	0x3dc3f217	0.09567659
87	0x3c42a1df	0.011879413
88	0x3e28ebc7	0.16496192
89	0x3e4fa719	0.20278586
90	0x3ddb3afd	0.107046105
91	0x3ae0ba11	0.0017145296
92	0x3e0e7db2	0.13915136
93	0xbd91f787	-0.0712729
94	0x3e5a8294	0.21338874
95	0xbca99a6a	-0.020703513
96	0xbdd499ef	-0.10380923
97	0xbe36ae17	-0.17839848
98	0xbc0c3ae8	-0.008558966
99	0x3dd6e14e	0.10492192
100	0xbc63540a	-0.013875017
101	0xbde20ff9	-0.11038203
102	0xbe182ba0	-0.14860392
103	0xba310e22	-0.000675412
104	0x3c6144cf	0.013749315
105	0x3cd8b431	0.02645311
106	0x3df72f23	0.120695375
107	0x3e0d1d8d	0.13780804
108	0x3d6386b9	0.055548403
109	0xbe2355e4	-0.15950733
110	0xbd8094a5	-0.06278352
111	0x3d57838f	0.0526157
112	0x3d8af5c6	0.06785159
113	0x3e64dd81	0.22350122
114	0xbbcca3a9	-0.0062450957
115	0xbe213844	-0.1574412
116	0xbe2a0f17	-0.16607319
117	0xbd3ccc9b	-0.046093564
118	0x3d5d758c	0.05406718
119	0x3da08c6c	0.07839283
120	0xbe4862f4	-0.19568998
121	0x3df4c456	0.119515106
122	0xbe3af9a5	-0.18259294
123	0x3e1918b9	0.14950837
124	0xbd0529fc	-0.032510743
125	0x3d605af6	0.054774247
126	0x3d3dd8f5	0.046349484
127	0xbd26d01f	-0.040725823
128	0xbdedb1c7	-0.11606174
129	0x3e3d9167	0.18512498
130	0x3e3933e2	0.18086198
131	0x3de4529f	0.11148571
132	0xbe4f3fb0	-0.20239139
133	0x3c565313	0.01308133
134	0x3e45527a	0.19269744
135	0x3e303674	0.17208272
136	0x3de368cf	0.11103975
137	0xbe3b067f	-0.18264197
138	0xbd8a9374	-0.06766406
139	0x3d9175ac	0.07102522
140	0x3d7f96ca	0.062399663
141	0x3e41da1b	0.18930857
142	0xba6dc625	-0.00090703584
143	0xbdea3fda	-0.1143796
144	0x3d97fa23	0.07420757
145	0xbe50a5d0	-0.20375752
146	0xbc82df69	-0.01597567
147	0x3df5f90a	0.12010391
148	0x3e0f5ac3	0.13999467
149	0xbdbb3e48	-0.091427386
150	0xbd24dfe4	-0.04025258
151	0xbe625653	-0.22103243
152	0xbd930989	-0.07179553
153	0x3e2d030a	0.1689569
154	0xbdac1200	-0.08401871
155	0xbe1e4a88	-0.15458119
156	0xbe2e05a6	-0.16994342
157	0xbe577410	-0.21040368
158	0x3d910f18	0.07082957
159	0xbe323897	-0.174044
160	0xbd537869	-0.051628504
161	0x3e3f4fdc	0.18682808
162	0xbd9f809d	-0.07788203
163	0x3e58d2bd	0.2117414
164	0xbe033661	-0.12813713
165	0xbe3fb6e9	-0.18722118
166	0xbd645c4c	-0.055752084
167	0x3dc5c2df	0.09656309
168	0x3e39a1af	0.18128084
169	0x3e1ae686	0.15127
170	0xbe010ee6	-0.1260334
171	0xbe09ece7	-0.13469277
172	0xbc8cb87f	-0.017177818
173	0x3e402e1c	0.1876759
174	0xbe302d2d	-0.17204733
175	0xbd2c6296	-0.042086206
176	0xbe1f71f0	-0.15570807
177	0x3cbbdea2	0.022933308
178	0xbd9bf532	-0.07615127
179	0x3e0b81e6	0.13623771
180	0x3d026106	0.03183081
181	0x3e4f5191	0.20245959
182	0xbe356a94	-0.17716438
183	0xbda00cf0	-0.07814968
184	0xbd5b6679	-0.053564522
185	0xbdab51e0	-0.08365226
186	0x3e0d04d1	0.13771369
187	0xbe75d816	-0.24008211
188	0xbdeee5f8	-0.11664957
189	0x3e193e1c	0.14965099
190	0xbe606dbe	-0.21916863
191	0xbe43468b	-0.19069879
192	0x3c88661e	0.016650256
193	0x3d8876d6	0.06663291
194	0x3d7bc973	0.061471414
195	0x3e3932f8	0.1808585
196	0xbcc3be0d	-0.023894334
197	0xbe2133c8	-0.15742409
198	0x3d6bf4d8	0.057606548
199	0x3d0f50ae	0.03498905
200	0x3e0e8875	0.13919242
201	0x3d7b72fa	0.061388947
202	0x3dd8aec5	0.1058021
203	0x3dd2c3f5	0.10291282
204	0x3bb2ed4c	0.005460417
205	0xbe1c4ad2	-0.15262917
206	0xbe2b5ff5	-0.16735823
207	0xbe00782a	-0.12545839
208	0xbd9abe6b	-0.075558506
209	0x3d4ff38e	0.05076938
210	0xbdfee04b	-0.12445124
211	0x3dfb5742	0.122725025
212	0x3e1fa9b6	0.15592083
213	0x3e2b78fc	0.1674537
214	0x3e0eaab8	0.13932312
215	0xbc0058b7	-0.007833651
216	0x3d78ab17	0.06071004
217	0x3da0e9e6	0.078571126
218	0x3e5ce175	0.2157038
219	0xbdfb4040	-0.12268114
220	0xbe1709ba	-0.14749804
221	0x3e130ce3	0.14360385
222	0xbd2d59ca	-0.042321958
223	0x3db68e88	0.089139044
224	0xbe575a95	-0.21030648
225	0x3e5406d0	0.20705724
226	0x3e14feb1	0.14550282
227	0xbc5d4c32	-0.013506936
228	0xbc5ba6bd	-0.013406453
229	0xbda6cb73	-0.081442736
230	0xbdf1b06c	-0.11801228
231	0xbdc4be1c	-0.09606573
232	0xbe67dd75	-0.22643073
233	0xbe08ecb2	-0.13371542
234	0xbe31ef47	-0.17376433
235	0xbc0abe70	-0.008468255
236	0xbe150ff0	-0.14556861
237	0xbe059204	-0.13043982
238	0x3e40832a	0.18800035
239	0xbc05e974	-0.008173335
240	0x3db3e8c8	0.08784634
241	0x3dbb785f	0.09153818
242	0x3d6ee2a6	0.058321618
243	0x3e53b68f	0.2067511
244	0xbc81c219	-0.015839623
245	0x3deee7cd	0.11665306
246	0xbdc99ab6	-0.09843962
247	0x3e1ae8ad	0.15127821
248	0x3dace910	0.08442891
249	0x3e148f1f	0.14507721
250	0xbdf6ddb1	-0.12054003
251	0xbd953801	-0.072860725
252	0x3e66f489	0.2255422
253	0x3d5307a1	0.051520947
254	0x3e00bcbc	0.12571996
255	0xbe7712c0	-0.24128246
