models/mec_policy_ep3000.pth (torch, 576658 bytes, 11 tensors)

critic.0.weight f4 [256, 19]
-0.1626567 0.19562526 -0.08224307 -0.03393311 -0.18858942 0.109070405 -0.46341535 -0.20995139
0.4854483 0.33484662 0.17895658 0.056505136 -0.035571482 0.21623741 -0.20245603 -0.09239224
-0.091496296 0.12697092 -0.14688207 0.14857672 -0.120332204 -0.2016971 0.14057896 0.11911361
-0.054110646 0.558274 0.0070298356 -0.1706531 -0.15469444 -0.050990105 0.45655054 -0.15691485
-0.20024432 -0.12720025 0.05427912 0.017828692 0.103977814 0.17133138 -0.11850694 0.30948636
-0.0097263465 -0.015486036 0.0004657656 -0.2277895 0.49015698 0.090665 -0.43606463 0.15440771
0.12541981 -0.09300981 0.005849776 0.060802586 0.07369107 -0.0125416545 0.20059136 -0.031057913
-0.106625594 0.10815885 0.04669335 -0.24575357 -0.026176577 0.013169691 -0.18856916 -0.26533335
-0.003742745 0.4512211 -0.058019087 0.14078669 0.51778483 -0.18078738 -0.11583706 0.08995508
-0.13190477 0.11147883 0.023544662 0.124314144 0.06097046 -0.08100163 -0.13909198 -0.022437504
-0.11917614 0.21423529 0.74456996 0.044997364 0.22542582 0.07963281 0.060179368 0.48799875
0.11984819 0.06420075 -0.18415667 -0.002475161 0.15397374 -0.06982798 0.061223414 -0.22758134
-0.10041308 0.017541729 0.10853654 -0.01904434 0.060851052 -0.40207666 -0.21455692 -0.17004313
0.2202207 0.15832548 0.7389877 -0.25537542 0.18671463 -0.19210145 -0.1438223 -0.06653893
-0.23986863 0.014453198 -0.080222026 -0.12516315 -0.15006787 0.122175954 -0.12847161 0.17505683
0.6855831 0.19236189 0.17933787 0.0075846985 -0.08069381 0.06900119 -0.15823472 -0.18151139
-0.20708984 0.15823919 -0.0930013 -0.13648309 -0.19756809 0.1659805 0.032448053 0.08786695
0.0918936 -0.1395686 -0.18295947 -0.3936661 0.22439015 0.16451354 0.22439131 0.19257717
0.31110582 -0.1196657 0.24925974 -0.14565037 -0.08059843 -0.044524003 -0.14823368 0.119468875
-0.12063477 -0.34752473 0.029080726 -0.19218762 -0.098359406 0.049365714 0.48143148 -0.044259425
0.20851079 -0.06569651 -0.060740992 0.53793126 0.00017688388 -0.31534958 0.19103706 -0.12753245
-0.11960732 -0.2966584 -0.0030528696 0.053070538 -0.2287164 -0.2061852 -0.022803174 -0.22517247
-0.22285931 -0.31421933 -0.38940698 -0.22165129 0.00398977 0.16679491 0.34243575 0.21639287
-0.21085711 0.052904252 -0.12589513 -0.1821252 0.060489126 0.080795646 -0.079322755 -0.06616955
0.12956113 -0.048445888 0.018178895 -0.22475787 0.3309911 -0.15732425 -0.4428427 -0.19684306
-0.13733357 -0.41720802 -0.036006797 0.30669296 0.12325852 -0.0038941868 0.03427376 0.18147933
0.13302198 0.06402951 0.14500955 -0.053808637 0.18194453 -0.044078916 -0.15161318 0.5682625
-0.16691728 -0.05396155 -0.2532709 -0.22408214 -0.7017479 0.17594488 0.0813914 -0.06476255
-0.13718945 -0.16858251 0.080184504 0.21493368 0.09418072 -0.12748833 -0.1247811 0.16861038
0.08750568 0.07870729 -0.4917129 -0.2197393 0.02676 -0.11532924 0.029902384 0.62370145
0.05484042 0.27956292 -0.289587 0.0517073 -0.24350314 -0.12128452 -0.14591192 -0.1745411
0.13574098 -0.10653244 0.08268045 0.016612783 0.16909705 -0.6185157 0.14857824 0.14768384
00000000: 7a8f 26be fd51 483e 0e6f a8bd 72fd 0abd
00000010: 961d 41be 4e60 df3d c744 edbe 7ffd 56be
00000020: ae8c f83e 0471 ab3e 6540 373e ee71 673d
00000030: 67b3 11bd 576d 5d3e a250 4fbe 2538 bdbd
00000040: 6962 bbbd aa04 023e 4168 16be 7f24 183e
00000050: bb70 f6bd af89 4ebe eef3 0f3e d6f1 f33d
00000060: 20a3 5dbd 0beb 0e3f 895a e63b b0bf 2ebe
00000070: 3868 1ebe 00db 50bd fec0 e93e 49ae 20be
00000080: d90c 4dbe c840 02be c853 5e3d 7a0d 923c
00000090: 52f2 d43d 7e71 2f3e c4b3 f2bd ff74 9e3e
000000a0: 415b 1fbc 25b9 7dbc 0032 f439 a741 69be
000000b0: dbf5 fa3e 92ae b93d dd43 dfbe 0e1d 1e3e
000000c0: 0d6e 003e ed7b bebd 7aaf bf3b 220c 793d
000000d0: 58eb 963d 837b 4dbc d267 4d3e 2a6d febc
000000e0: 855e dabd 6382 dd3d 8741 3f3d d3a6 7bbe
000000f0: 4370 d6bc b0c5 573c 4618 41be c6d9 87be
00000100: d748 75bb 7406 e73e 6ca5 6dbd 632a 103e
00000110: 8c8d 043f 5420 39be fb3b edbd 5e3a b83d
00000120: 0b12 07be 034f e43d bce0 c03c 6a98 fe3d
00000130: 29bc 793d 2fe4 a5bd 216e 0ebe dbce b7bc
00000140: 9f12 f4bd 7f60 5b3e 239c 3e3f 284f 383d
00000150: 07d6 663e 8716 a33d a47e 763d f9da f93e
00000160: f872 f53d af7b 833d 9193 3cbe 5036 22bb
00000170: 4bab 1d3e f901 8fbd 67c5 7a3d 150b 69be
00000180: 5fa5 cdbd acb3 8f3c 6848 de3d e002 9cbc
00000190: f43e 793d fedc cdbe cfb4 5bbe c91f 2ebe
000001a0: 8981 613e 1320 223e 4c2e 3d3f 91c0 82be
000001b0: 1f32 3f3e 3eb6 44be 2746 13be 9045 88bd
000001c0: 1fa0 75be 1bcd 6c3c 724b a4bd c52a 00be
000001d0: 64ab 19be 6337 fa3d 108e 03be 1942 333e
000001e0: 6082 2f3f 84fa 443e 59a4 373e 1089 f83b
000001f0: cc42 a5bd 7f50 8d3d 4808 22be 1fde 39be
00000200: 5c0f 54be 7409 223e 7777 bebd 39c2 0bbe
00000210: 4a4f 4abe cbf6 293e 40e8 043d 96f3 b33d
00000220: b632 bc3d 12eb 0ebe ba59 3bbe 9a8e c9be
00000230: 88c6 653e 3d76 283e d6c6 653e f332 453e
00000240: 4349 9f3e 4a13 f5bd f23d 7f3e 5f25 15be
00000250: ca10 a5bd cd5e 36bd 92ca 17be 19ac f43d
00000260: 5d0f f7bd c3ee b1be b43a ee3c d5cc 44be
00000270: a870 c9bd b433 4a3d 307e f63e 5f49 35bd
00000280: da83 553e e48b 86bd 8ccb 78bd ddb5 093f
00000290: e879 3939 8075 a1be 389f 433e de97 02be
000002a0: aff4 f4bd 9ce3 97be a712 48bb 7e60 593d
000002b0: a234 6abe 3722 53be b9cd babc 9d93 66be
000002c0: 3b35 64be 5be1 a0be 5a60 c7be 8ef8 62be
000002d0: 9ebc 823b 49cc 2a3e bd53 af3e 1896 5d3e
000002e0: edea 57be 21b2 583d a7ea 00be 077f 3abe
000002f0: 72c3 773d 3078 a53d f873 a2bd e783 87bd
00000300: acab 043e 326f 46bd e8eb 943c ed26 66be
00000310: aa77 a93e 9c19 21be 47bc e2be 3a91 49be
00000320: 2ca1 0cbe 4a9c d5be dd7b 13bd dc06 9d3e
00000330: f76e fc3d 9d35 7fbb a462 0c3d b8d5 393e
00000340: ea36 083e e721 833d 627d 143e 7266 5cbd
00000350: ab4f 3a3e 188c 34bd 7c40 1bbe a779 113f
00000360: 5dec 2abe c906 5dbd b9ac 81be ca75 65be
00000370: c0a5 33bf e52a 343e 89b0 a63d 3aa2 84bd
00000380: 647b 0cbe e5a0 2cbe c637 a43d 9317 5c3e
00000390: d2e1 c03d 4d8c 02be 3c8d ffbd 33a8 2c3e
000003a0: 2e36 b33d 4a31 a13d cbc1 fbbe 5703 61be
000003b0: ca37 db3c bd31 ecbd d8f5 f43c e6aa 1f3f
000003c0: 59a0 603d df22 8f3e bf44 94be 09cb 533d
000003d0: e358 79be 0564 f8bd ef69 15be e7ba 32be
000003e0: afff 0a3e ae2d dabd 5e54 a93d 8817 883c
000003f0: c727 2d3e 0b57 1ebf e524 183e 6f3a 173e

critic.0.bias f4 [256]
-0.0012185939 0.20164916 -0.1804646 0.14052404 -0.06127506 0.24723338 0.18723539 0.071295746
0.101994775 -0.20852709 -0.1819309 0.05607784 -0.16301712 0.24618195 0.11515741 0.005994399
-0.01806821 -0.1422673 -0.16202003 0.1480661 -0.12550054 0.016820591 0.06823091 -0.1268272
-0.030626368 -0.09493007 -0.25593647 0.0214274 0.18917428 -0.1300812 -0.07827409 -0.052361555
0.23343459 0.010274465 0.055313535 -0.04638395 0.13547969 -0.115579456 0.0977037 -0.08092541
0.13623579 -0.13766362 0.17616779 -0.09823846 0.117905594 0.08028745 -0.057737883 0.038841356
0.08795838 0.09833747 -0.13866456 -0.09140472 0.038023528 -0.006680481 -0.19178943 0.069936424
-0.14023477 0.029743345 -0.08228271 0.17721282 0.14340712 -0.09790456 0.24051623 0.12855694
-0.034727596 -0.12691791 0.06408914 0.18600424 -0.073911555 -0.06999011 -0.11656258 0.15298292
0.0017265031 -0.03759553 0.12885052 -0.0903851 -0.1462416 0.15544409 -0.084990196 0.15655142
-0.03249853 0.15312806 0.23753093 0.004361305 -0.07681288 0.24994944 -0.09264393 0.086191155
-0.01565415 -0.099861145 -0.1217703 0.01868517 -0.13949598 -0.021524452 0.09862605 -0.022804905
0.13498476 -0.20069833 0.09662566 -0.1745555 -0.15243372 -0.00097484555 0.11232868 -0.13490172
-0.13744956 0.101678744 -0.049618423 0.012571233 0.040322307 -0.18021926 -0.100345984 0.1180881
0.10580387 0.18671587 0.12783797 -0.23122695 0.07694597 -0.08080981 0.011259195 -0.1282726
-0.13496631 0.08239067 -0.1761808 0.03869244 0.1455784 -0.21888639 0.065593906 0.083604835
-0.07688455 0.13926958 0.087315604 -0.13683847 -0.0035854587 0.010788462 0.09100157 -0.071667776
0.019377014 0.06295304 0.20275915 0.069443084 0.08490501 0.098733835 -0.010945253 -0.034921516
-0.082028024 -0.098239765 0.0010381761 0.11631149 -0.15307087 -0.049862463 -0.21502475 -0.18434012
-0.085379854 0.19837795 -0.16830267 -0.11096315 0.13976529 0.07163376 0.16816889 -0.12440719
0.27749476 0.012370338 -0.029763654 0.028121365 -0.061992854 -0.16111854 -0.0778128 -0.006369793
-0.06219295 -0.08428835 -0.049586732 0.22393219 -0.013148823 0.18583198 -0.124892876 0.17246859
-0.051045503 0.0546178 -0.03377757 -0.05290694 -0.0012173005 -0.099312104 0.115804315 -0.025816299
-0.20511448 0.11641372 -0.1730546 -0.123079546 -0.15388599 -0.14023718 -0.10126948 0.051704343
0.0926371 0.12519123 0.26638338 -0.10721841 0.19376536 0.21710362 0.21061198 -0.049804095
-0.15942042 -0.012515536 -0.04582686 -0.051331304 0.091735624 0.041736275 -0.13285518 0.14000887
-0.06828379 0.1399124 0.12357817 0.1464363 -0.015833287 -0.06533768 0.12229689 0.18202287
0.15499996 0.16740611 0.07033114 0.18623258 0.07221225 -0.08920411 0.048351288 -0.014335636
-0.21222922 0.18011543 0.08059872 0.18937537 0.21360624 0.12399286 0.17643745 -0.11904251
-0.08361428 0.24594834 -0.15686634 -0.03437913 0.11685914 -0.073433384 -0.24676839 0.004266814
-0.15816985 -0.18955898 0.14644742 -0.17454681 -0.2318793 -0.1879822 -0.034993634 -0.03130221
-0.22223356 0.1687905 -0.14614415 -0.20570758 0.19532283 -0.24175067 0.14632861 0.16875347
00000000: 3ab9 9fba 1e7d 4e3e b6cb 38be 89e5 0f3e
00000010: 8ffb 7abd bf2a 7d3e a2ba 3f3e 8103 923d
00000020: a3e2 d03d 2088 55be 184c 3abe e1b1 653d
00000030: f6ed 26be 1f17 7c3e a6d7 eb3d aa6c c43b
00000040: c803 94bc 85ae 11be 94e8 25be a49e 173e
00000050: 3783 00be 56cb 893c a6bc 8b3d fdde 01be
00000060: 26e4 fabc b26a c2bd 1b0a 83be 8488 af3c
00000070: e7b6 413e 0234 05be 2b4e a0bd 1279 56bd
00000080: 7a09 6f3e 3b56 283c 7290 623d 19fd 3dbd
00000090: 30bb 0a3e ecb4 ecbd e118 c83d 39bc a5bd
000000a0: 6581 0b3e b1f7 0cbe 5465 343e 3f31 c9bd
000000b0: 7d78 f13d bf6d a43d 8f7e 6cbd 1d18 1f3d
000000c0: 8623 b43d 2865 c93d 15fe 0dbe 6632 bbbd
000000d0: 8fbe 1b3d f0e7 dabb 7364 44be d43a 8f3d
000000e0: b499 0fbe 51a8 f33c d683 a8bd 4777 353e
000000f0: 51d9 123e 3082 c8bd e349 763e 6ea4 033e
00000100: 863e 0ebd c5f6 01be 2b41 833d e577 3e3e
00000110: f15e 97bd fa56 8fbd 5db8 eebd 8ea7 1c3e
00000120: d54b e23a c5fd 19bd 64f1 033e d31b b9bd
00000130: 5cc0 15be bc2c 1f3e 570f aebd 044f 203e
00000140: 2e1d 05bd 9acd 1c3e 4f3b 733e 47e9 8e3b
00000150: 1250 9dbd bff2 7f3e 1abc bdbd fd84 b03d
00000160: 223d 80bc 0084 ccbd b562 f9bd a411 993c
00000170: 09d8 0ebe 0c54 b0bc 74fc c93d 5ad1 babc
00000180: 7239 0a3e dd83 4dbe ade3 c53d adbe 32be
00000190: 9617 1cbe c78c 7fba 940c e63d ad23 0abe
000001a0: 94bf 0cbe f23c d03d b03c 4bbd 93f7 4d3c
000001b0: 0129 253d 668b 38be 3282 cdbd 2cd8 f13d
000001c0: b3af d83d 7232 3f3e f5e7 023e c2c6 6cbe
000001d0: d995 9d3d 9d7f a5bd 7d78 383c e459 03be
000001e0: 9c34 0abe 71bc a83d bd68 34be f77b 1e3d
000001f0: 8112 153e c123 60be 1956 863d 0339 ab3d
00000200: a675 9dbd af9c 0e3e 86d2 b23d 621f 0cbe
00000210: 04fa 6abb 17c2 303c 085f ba3d 8ec6 92bd
00000220: 8bbc 9e3c 86ed 803d 18a0 4f3e 2d38 8e3d
00000230: aee2 ad3d f734 ca3d b853 33bc dd09 0fbd
00000240: 4ffe a7bd ee31 c9bd 6913 883a b834 ee3d
00000250: 9cbe 1cbe 953c 4cbd 732f 5cbe a8c3 3cbe
00000260: a2db aebd 9723 4b3e 8957 2cbe a640 e3bd
00000270: a21e 0f3e b9b4 923d 7734 2c3e 32c9 febd
00000280: cb13 8e3e f5ac 4a3c e8d2 f3bc c75e e63c
00000290: 38ec 7dbd 42fc 24be 515c 9fbd b2b9 d0bb
000002a0: 09be 7ebd 5f9f acbd 751b 4bbd 7b4e 653e
000002b0: 296e 57bc bd4a 3e3e d6c7 ffbd 9b9b 303e
000002c0: 1715 51bd eab6 5f3d 595a 0abd f3b4 58bd
000002d0: d48d 9fba 2564 cbbd d02a ed3d b47c d3bc
000002e0: 8809 52be 516a ee3d 3a35 31be 2111 fcbd
000002f0: 4a94 1dbe 569a 0fbe 6066 cfbd efc7 533d
00000300: 85b8 bd3d 2132 003e 6763 883e 5395 dbbd
00000310: 6d6a 463e 6950 5e3e abaa 573e 61ff 4bbd
00000320: 1b3f 23be f60d 4dbc f2b4 3bbd c640 52bd
00000330: e3df bb3d a8f3 2a3d 300b 08be 7c5e 0f3e
00000340: 5fd8 8bbd 3245 0f3e 8d16 fd3d 66f3 153e
00000350: cfb4 81bc c3cf 85bd cb76 fa3d 3464 3a3e
00000360: 4fb8 1e3e 826c 2b3e c609 903d c1b3 3e3e
00000370: 04e4 933d a5b0 b6bd 000c 463d 04e0 6abc
00000380: 9e52 59be 2e70 383e f110 a53d 9eeb 413e
00000390: 98bb 5a3e f8ef fd3d 05ac 343e 8fcc f3bd
000003a0: f73d abbd e2d9 7b3e 92a1 20be 21d1 0cbd
000003b0: d853 ef3d 3e64 96bd dab0 7cbe a1d0 8b3b
000003c0: 47f7 21be c01b 42be 50f6 153e 66bc 32be
000003d0: c471 6dbe 687e 40be 7c55 0fbd bf36 00bd
000003e0: 3291 63be 6bd7 2c3e d0a6 15be 02a5 52be
000003f0: b502 483e 7d8d 77be 2bd7 153e b6cd 2c3e

critic.2.weight f4 [256, 256]
-0.34295887 0.011741217 0.27064553 -0.11400725 -0.020573048 -0.6468116 -0.051337976 -0.12317235
-0.011779307 -0.019619726 0.11497438 0.18076377 -0.17324726 -0.09049022 0.009028873 -0.31996077
0.38976425 -0.05885635 -0.06595304 0.24192792 0.20406906 0.33596778 0.23946218 -0.025869459
0.060594115 0.077408604 0.15701805 0.045166764 0.14634877 -0.22929403 -0.39783862 -0.1409787
-0.26825303 0.12971263 -0.23065223 0.09045826 -0.019470956 -0.123440236 -0.0919912 0.26297846
0.011464267 0.34910324 -0.41126525 -0.030777391 -0.034566913 0.23708054 -0.18310581 -0.23352367
0.36314368 0.14641376 0.0421238 0.50861585 0.012615417 -0.02822723 0.09960856 0.04037603
0.19003646 -0.04244189 0.01986753 -0.0780827 -0.17851517 -0.0051174434 -0.08588346 -0.21830203
0.049687076 -0.18249674 -0.048338052 -0.12216053 0.21699081 0.15497144 0.1896325 0.08684186
0.31838316 0.33253163 0.09216294 -0.40241298 -0.316674 0.25685933 -0.1108619 0.19621772
0.036638368 0.12961255 -0.3109575 -0.3257173 0.1477218 0.0621621 -0.03426387 -0.122216
0.20809466 -0.094545595 -0.03455184 0.11385114 -0.1303264 0.13165858 -0.2482059 -0.063496515
0.23498648 -0.08310089 -0.24019387 0.13885477 -0.061531484 -0.11091809 0.00651844 0.0010297586
-0.10483843 0.010809022 -0.14271241 -0.009204569 -0.06309701 -0.03216399 -0.20375742 -0.12253799
-0.31105733 -0.24341191 -0.16087276 -0.22780153 0.037227843 -0.03775361 0.012173465 0.34466445
-0.027600935 0.002019088 0.06039537 -0.03548248 0.19232264 0.105058596 0.050394703 0.050315965
0.12602276 0.02018914 0.17866582 0.12325588 0.055119306 -0.12108007 -0.16976666 -0.36665952
0.19057652 0.029812152 -0.003515189 0.26931295 -0.100560665 -0.1578231 0.05030636 -0.13844605
0.18260062 0.08040964 -0.30645636 -0.1417597 -0.04149242 0.07191771 0.25968775 -0.014911301
0.018990582 -0.05434853 -0.10531734 -0.29364157 -0.06294994 0.0022148802 -0.18723735 0.26868796
-0.15455756 0.05459166 0.4409875 -0.1475799 -0.22611316 -0.121717066 -0.073596336 -0.014861628
0.08073043 0.11988327 -0.045012057 0.027031953 -0.11387335 -0.006862756 -0.037216734 -0.008251623
0.35759535 -0.06384205 -0.28816313 -0.13503887 0.3214015 -0.07848943 -0.19345313 -0.094193816
0.054073557 -0.14071217 0.17307226 -0.1285262 -0.12403364 -0.0061209826 0.11393834 0.13363104
-0.025355577 -0.28045088 -0.019371575 -0.15346472 0.21426606 0.030741513 -0.068378516 -0.058833137
0.3004101 0.2632207 0.31772718 -0.07400375 0.19471127 0.31943554 0.29227754 0.51116323
0.13785261 0.047870826 -0.066733725 0.013068415 -0.23804179 -0.0038880864 -0.16846405 -0.015057467
0.20677735 -0.19155788 -0.0677044 -0.26557782 -0.13952924 0.13562277 0.05120932 0.11802158
0.18428482 0.14298716 -0.051756565 0.27923295 -0.30795524 -0.17286848 -0.013507216 0.11743301
0.2352449 0.25108358 -0.15556292 0.19676231 0.006566787 0.2585389 -0.110698886 0.016060507
-0.114431016 -0.1933767 0.29221475 0.4419476 0.17129745 0.2439952 0.040209897 -0.1594514
0.029316975 0.13333543 0.43345255 -0.049935915 -0.04245063 0.2913923 0.040340833 -0.017923666
00000000: 4e98 afbe 3c5e 403c 0d92 8a3e a27c e9bd
00000010: cf88 a8bc 7295 25bf c547 52bd c941 fcbd
00000020: fffd 40bc 8cb9 a0bc b077 eb3d 231a 393e
00000030: bb67 31be f052 b9bd d7ed 133c e6d1 a3be
00000040: 2e8f c73e 5b13 71bd 6312 87bd f4bb 773e
00000050: 7bf7 503e f803 ac3e 9335 753e 30ec d3bc
00000060: 8931 783d 6788 9e3d 57c9 203e c900 393d
00000070: 74dc 153e 0ecc 6abe 81b1 cbbe b85c 10be
00000080: 7658 89be 63d3 043e 1930 6cbe 2e42 b93d
00000090: 8e81 9fbc 3cce fcbd e265 bcbd 1da5 863e
000000a0: 9fd4 3b3c a9bd b23e 5c91 d2be de20 fcbc
000000b0: 0996 0dbd 3ec5 723e 1780 3bbe d420 6fbe
000000c0: f8ed b93e 7ded 153e 018a 2c3d a634 023f
000000d0: e5b0 4e3c cb3c e7bc 93ff cb3d 5661 253d
000000e0: eb98 423e 8cd7 2dbd 3bc1 a23c d3e9 9fbd
000000f0: aecc 36be 3ab0 a7bb abe3 afbd 918a 5fbe
00000100: ad84 4b3d 6de0 3abe 1ffe 45bd 4d2f fabd
00000110: d732 5e3e d5b0 1e3e 062f 423e 25da b13d
00000120: 1e03 a33e 9641 aa3e ecbf bc3d 1309 cebe
00000130: 1823 a2be 1183 833e 900b e3bd 4ced 483e
00000140: 1d12 163d 27b9 043e d235 9fbe 6bc4 a6be
00000150: 6244 173e b09d 7e3d 4658 0cbd 624c fabd
00000160: c416 553e 1fa1 c1bd 3b86 0dbd c92a e93d
00000170: 4974 05be 82d1 063e b029 7ebe 760a 82bd
00000180: 4ca0 703e cd30 aabd 62f5 75be f22f 0e3e
00000190: 7008 7cbd 0629 e3bd a398 d53b f7f8 863a
000001a0: 88b5 d6bd 5318 313c 3423 12be c3ce 16bc
000001b0: 0139 81bd 63be 03bd c9a5 50be 33f5 fabd
000001c0: e842 9fbe f940 79be d4bb 24be ce44 69be
000001d0: 397c 183d 88a3 1abd 3773 473c dc77 b03e
000001e0: 5b1b e2bc ad52 043b 2361 773d 1456 11bd
000001f0: 3af0 443e f628 d73d ad6a 4e3d 1d18 4e3d
00000200: 1c0c 013e b263 a53c 2cf4 363e 946d fc3d
00000210: c8c4 613d d4f8 f7bd 50d7 2dbe ccba bbbe
00000220: 7e26 433e 9d38 f43c 165f 66bb 63e3 893e
00000230: c0f2 cdbd 619c 21be 0b0e 4e3d cdc4 0dbe
00000240: a8fb 3a3e cfad a43d d9e7 9cbe 7429 11be
00000250: f5f3 29bd 9849 933d cbf5 843e 884e 74bc
00000260: 2392 9b3c 909c 5ebd 9eb0 d7bd 3058 96be
00000270: e6eb 80bd 8627 113b 26bb 3fbe 7891 893e
00000280: 5644 1ebe 819b 5f3d 1dc9 e13e 2f1f 17be
00000290: 358a 67be cc46 f9bd adb9 96bd 307e 73bc
000002a0: ff55 a53d 5c85 f53d 905e 38bd 1d72 dd3c
000002b0: 6e36 e9bd f8e0 e0bb 9370 18bd d131 07bc
000002c0: bd16 b73e 9fbf 82bd 1e8a 93be a147 0abe
000002d0: bd8e a43e 11bf a0bd 9418 46be b0e8 c0bd
000002e0: 3c7c 5d3d da16 10be db39 313e 5f9c 03be
000002f0: 5905 febd 8692 c8bb 8158 e93d 93d6 083e
00000300: 80b6 cfbc 4297 8fbe 23b1 9ebc db25 1dbe
00000310: 9068 5b3e a0d5 fb3c 090a 8cbd 04fb 70bd
00000320: 5acf 993e ddc4 863e 23ad a23e 478f 97bd
00000330: 6462 473e 0e8d a33e 67a5 953e 98db 023f
00000340: 3c29 0d3e 3314 443d b1ab 88bd e81c 563c
00000350: 3ac1 73be 44cf 7ebb d781 2cbe 98b3 76bc
00000360: 71bd 533e c027 44be 9ba8 8abd d1f9 87be
00000370: c1e0 0ebe b2e0 0a3e ddc0 513d 4cb5 f13d
00000380: 29b5 3c3e 3a6b 123e b1fe 53bd 9ff7 8e3e
00000390: 4fac 9dbe 6f04 31be 5f4d 5dbc b880 f03d
000003a0: 0ae4 703e 078e 803e e34b 1fbe 0f7c 493e
000003b0: 342e d73b 365f 843e 19b6 e2bd 5391 833c
000003c0: cf5a eabd 8b04 46be 2c9d 953e f546 e23e
000003d0: 9968 2f3e e1d9 793e 22b3 243d 3a47 23be
000003e0: 272a f03c 1589 083e 7eed dd3e 9a89 4cbd
000003f0: b6e0 2dbd 5f31 953e 6e3c 253d a7d4 92bc

critic.2.bias f4 [256]
-0.088245064 0.0022814395 0.031862136 -0.09946327 -0.017101644 -0.012451698 0.07724423 -0.058719307
-0.0013048163 -0.0765328 -0.04209346 0.061089396 0.003359688 0.10165561 0.01481979 0.051943
-0.026106896 -0.026393477 0.013833919 0.042975247 0.0036560101 -0.033358734 -0.09153234 0.013143943
-0.03510762 0.059746817 0.050058346 -0.034335088 0.06605231 -0.036612425 -0.06670273 0.08430679
0.074839145 0.037871026 0.09318095 -0.0058152094 0.01722975 -0.030775543 -0.0028830336 -0.08099183
0.036044497 0.076456994 0.061106768 0.077017 -0.0075264815 0.015740465 -0.021429876 0.03309451
0.024562526 0.054108318 0.008476303 -0.001990061 -0.04886999 -0.048633706 0.09996416 -0.021184873
-0.0027656362 0.0053341733 0.025253262 -0.16066796 0.07229963 -0.03563674 -0.03014657 -0.022143865
0.015965344 0.10378608 -0.075221375 -0.009215987 -0.06966525 0.0050351676 0.0117407795 0.031778924
0.014481932 0.03709517 -0.035790093 -0.01077886 0.04935878 0.019405255 0.008502098 0.038039546
0.06005443 0.013935676 -0.012521526 -0.012011744 0.07759096 -0.09890403 0.009132409 -0.03972961
0.043795567 -0.038846195 0.030006818 0.000966088 0.022243544 -0.05977148 0.013043544 -0.03527837
-0.040771056 0.024956588 0.10147126 0.081713796 0.08579918 -0.05214981 -0.02424873 0.021241892
-0.011852866 0.020128796 -0.017388849 -0.009970418 0.05774584 -0.004305894 -0.10323893 0.11042599
-0.037535433 0.05148625 -0.019087363 -0.07294015 0.053500634 0.01041912 0.036345366 0.02163637
0.026257722 -0.09611161 0.018715901 -0.031148726 0.028807674 -0.014177055 -0.029397143 -0.0800152
0.018875172 0.04324479 0.059760544 -0.007592557 -0.036633506 -0.07190209 0.0390981 -0.0074748727
-0.008527884 -0.07401117 -0.08344256 -0.1008516 -0.07171945 0.06287033 -0.08446515 -0.02098502
-0.10951565 -0.0023636562 0.06184493 -0.007795575 -0.011996199 0.031627554 0.0059117805 0.08123498
0.109347425 -0.07511603 0.0053662164 -0.039915096 -0.014380209 -0.0049120476 0.023366133 0.0739692
-0.06321341 0.012577821 0.072451964 0.029766886 -0.109682314 -0.12062966 0.0028659345 -0.052724443
-0.016318046 -0.069662526 0.0022309604 -0.0028613985 -0.024167981 -0.0015151749 -0.06089403 0.09803985
-0.08756992 0.028766477 0.044529345 0.017618 -0.0370885 -0.093486294 0.076345034 0.084308185
0.037969753 0.006831107 -0.06483707 0.017891303 0.0007592144 0.035629578 -0.028012205 0.0022401293
-0.083186924 0.022528956 0.060487796 0.0869611 0.07823339 -0.02214185 0.006939835 -0.10929873
-0.0038936294 -0.07622982 -0.05651871 -0.061328825 -0.06895361 -0.06722379 0.023559688 -0.0013397911
0.026051357 -0.0046161953 0.010420848 -0.040813576 -0.11472995 -0.0772352 0.09191253 0.039402194
0.0077495445 0.033041906 0.032936312 -0.06836221 0.09670571 0.052982002 0.07729825 -0.07300049
0.0019517797 -0.018227546 0.002838237 -0.08347085 -0.052285686 0.10375555 -0.013243828 0.04652414
-0.032864403 0.008874244 0.019337654 0.03758011 -0.053591147 -0.04745472 0.008401249 -0.0837599
-0.045490544 -0.07776976 0.07999372 -0.033265546 -0.02930252 -0.037682023 -0.024166645 0.033407297
-0.022825994 0.08961468 0.14131106 -0.055806573 0.038669776 -0.060726054 0.088654056 -0.023089284
00000000: d4b9 b4bd 3484 153b df81 023d 66b3 cbbd
00000010: bf18 8cbc 3502 4cbc 3932 9e3d a883 70bd
00000020: 5f06 abba 3bbd 9cbd 316a 2cbd e038 7a3d
00000030: 362e 5c3b d130 d03d b4ce 723c 2fc2 543d
00000040: 21de d5bc 2237 d8bc a9a7 623c d006 303d
00000050: ac99 6f3b 2ba3 08bd 4f75 bbbd b159 573c
00000060: 02cd 0fbd 14b9 743d fb09 4d3d f3a2 0cbd
00000070: 6f46 873d e9f6 15bd 719b 88bd 0aa9 ac3d
00000080: 4445 993d a61e 1b3d a7d5 be3d 838d bebb
00000090: 6825 8d3c fe1c fcbc 47f1 3cbb 0bdf a5bd
000000a0: 65a3 133d 7c95 9c3d 174b 7a3d 17bb 9d3d
000000b0: b4a0 f6bb 26f2 803c b58d afbc 1c8e 073d
000000c0: 5a37 c93c afa0 5d3d 31e0 0a3c af6b 02bb
000000d0: e62b 48bd 2334 47bd 02ba cc3d e68b adbc
000000e0: ad3f 35bb 4aca ae3b eedf ce3c 2486 24be
000000f0: d411 943d d5f7 11bd f1f5 f6bc 0d67 b5bc
00000100: c1c9 823c cc8d d43d aa0d 9abd a7fe 16bc
00000110: a8ac 8ebd 0cfe a43b 665c 403c 9e2a 023d
00000120: a045 6d3c 1bf1 173d a298 12bd d199 30bc
00000130: 6f2c 4a3d c5f7 9e3c 624c 0b3c 5bcf 1b3d
00000140: a2fb 753d 7652 643c 1627 4dbc e8cc 44bc
00000150: 02e8 9e3d 328e cabd 19a0 153c 84bb 22bd
00000160: fb62 333d 301d 1fbd dcd0 f53c 1141 7d3a
00000170: 1838 b63c f0d2 74bd 97b4 553c 0d80 10bd
00000180: 8dff 26bd c271 cc3c 2ad0 cf3d 9059 a73d
00000190: 7bb7 af3d 0a9b 55bd 46a5 c6bc 7a03 ae3c
000001a0: 8632 42bc 25e5 a43c 0f73 8ebc f75a 23bc
000001b0: e786 6c3d 7518 8dbb ef6e d3bd 0527 e23d
000001c0: c1be 19bd 3fe3 523d 1a5d 9cbc a561 95bd
000001d0: 7b23 5b3d f5b4 2a3c e1de 143d c23e b13c
000001e0: 6f1a d73c 2ad6 c4bd 1752 993c 9d2b ffbc
000001f0: 12fe eb3c e146 68bc 47d2 f0bc 02df a3bd
00000200: 1ba0 9a3c 7321 313d 79c7 743d fcca f8bb
00000210: 040d 16bd 6741 93bd 5425 203d c7ef f4bb
00000220: 8ab8 0bbc 2b93 97bd efe3 aabd 498b cebd
00000230: a6e1 92bd 29c2 803d 11fc acbd c7e8 abbc
00000240: be49 e0bd 92e7 1abb 1c51 7d3d 0672 ffbb
00000250: b58b 44bc e58b 013d 9cb7 c13b 865e a63d
00000260: 8bf1 df3d 6fd6 99bd 16d7 af3b 037e 23bd
00000270: f89a 6bbc 3ef5 a0bb 556a bf3c 2a7d 973d
00000280: 0876 81bd 3413 4e3c b261 943d afd9 f33c
00000290: 1fa1 e0bd af0c f7bd 67d2 3b3b 96f5 57bd
000002a0: 6cad 85bc 3aab 8ebd 4e35 123b 4d86 3bbb
000002b0: eefb c5bc d598 c6ba 056c 79bd 1ec9 c83d
000002c0: dc57 b3bd ada7 eb3c 6764 363d a053 903c
000002d0: 1cea 17bd be75 bfbd c95a 9c3d c5a9 ac3d
000002e0: 2c86 1b3d 7bd7 df3b 4cc9 84bd c890 923c
000002f0: 0406 473a 52f0 113d da79 e5bc 22cf 123b
00000300: e85d aabd a58e b83c 0dc2 773d a918 b23d
00000310: d438 a03d d362 b5bc 8e67 e33b 03d8 dfbd
00000320: 432c 7fbb 611e 9cbd 2a80 67bd ef33 7bbd
00000330: 8d37 8dbd a0ac 89bd 3f00 c13c ee9b afba
00000340: a869 d53c 7443 97bb 34bc 2a3c 232c 27bd
00000350: 89f7 eabd 7d2d 9ebd a33c bc3d 3264 213d
00000360: e4ef fd3b f356 073d 3ae8 063d 7d01 8cbd
00000370: a50d c63d a803 593d 8b4e 9e3d 4881 95bd
00000380: dcd2 ff3a ef51 95bc b701 3a3b c4f2 aabd
00000390: 8429 56bd ca7d d43d a4fc 58bc 1990 3e3d
000003a0: d39c 06bd 4765 113c 006a 9e3c 9aed 193d
000003b0: 6482 5bbd e15f 42bd 64a5 093c 4f8a abbd
000003c0: 4b54 3abd c045 9fbd bfd3 a33d 7441 08bd
000003d0: d70b f0bc 7758 1abd 21f9 c5bc 17d6 083d
000003e0: 94fd babc e787 b73d d9b3 103e 6f95 64bd
000003f0: 3364 1e3d e2bb 78bd 4290 b53d bd25 bdbc

critic.4.weight f4 [1, 256]
0.5052121 0.42079404 -0.5586588 -0.46265158 -0.38706818 -0.42438576 -0.49218547 -0.4701688
0.42300704 0.40351576 0.90767735 -0.57077193 -0.39525032 -0.43563187 0.49775305 0.55619454
0.651116 0.39588666 -0.46543145 0.5567831 0.3639549 0.43546215 0.41519 -0.4717902
-0.5594778 -0.33030608 0.5511948 -0.47061688 -0.4325434 0.61591274 0.38378245 0.45711678
-0.89817846 -0.4798432 -0.4627155 -0.4476004 -0.45007452 -0.5249762 -0.4600398 0.48947522
-0.43923378 0.43881592 -0.39749798 0.59433275 -0.45407933 0.58896947 -0.4117455 -0.8625401
0.33552694 0.54400676 -0.516986 -0.43585092 -0.4026306 0.41851786 0.8733478 0.41395298
0.419424 0.508046 -0.37494937 1.039629 -0.4750289 -0.47044605 -0.7652997 -0.4397746
0.6482026 -0.9059023 0.46582785 0.4202584 0.3963534 -0.4605713 -0.5630143 0.5062236
0.45562953 -0.4199558 -0.39577344 -0.5656706 0.57077926 -0.41454804 -0.5144633 -0.57665783
0.55505764 -0.5422884 -0.3909039 -0.44800392 -0.49733615 -0.5546845 -0.40823475 0.3440301
-0.46048743 -0.3914208 0.49843293 -0.88646823 0.44918555 -0.47209442 -0.40550935 0.42829838
-0.42162147 -0.4406598 -0.54260904 0.43979493 -0.36894032 -0.46669886 -0.5693064 0.5680139
0.536157 -0.33867285 0.4556439 -0.41719475 -0.5848304 0.6972443 0.50831157 -1.0595981
-0.48631936 -0.59349686 0.42372134 0.4537352 -0.38990846 -0.44034103 -0.6795599 -0.5001693
-0.59523755 -0.44847944 0.47928804 -0.43895638 -0.44090885 0.5440313 -0.56384015 -0.45939323
0.6952006 -0.4389773 -0.56699604 -0.46466708 -0.4503219 0.39158216 -0.40657076 -0.46666312
-0.48349983 0.50076574 0.44598606 -0.49122378 0.39782205 -0.43497938 0.31124458 0.44689086
-0.44112912 0.41347468 -0.5276478 -0.5211619 -0.45042777 -0.39595196 -0.5374908 0.44733143
-0.8360181 0.4195954 0.4663925 0.4722803 -0.59704316 -0.45586532 0.39834544 -0.38086748
0.50963885 -0.45333728 -0.5242443 0.4708722 0.421989 -0.8564666 -0.39596784 0.63600177
-0.5114294 0.43863353 -0.50524575 -0.456447 0.39088443 -0.7130915 -0.5699808 -0.39156562
0.673135 -0.41188884 0.49808496 -0.40192232 -0.43665048 0.45976144 -0.41906995 -0.36974287
0.38211814 -0.40105298 0.5920144 0.41997525 -0.5657907 0.44793898 0.5017191 -0.49594253
0.45526454 -0.62833273 -0.42298174 0.47641116 -0.6792534 -0.3653729 -0.39429897 0.44299018
0.55445045 0.41909236 -0.41944405 0.49953496 0.48892355 0.37839335 -0.3669367 0.45621005
-0.43164855 0.36962315 -0.5513317 0.73032075 -0.42177042 0.5709973 0.59899384 0.41407987
0.37848362 -0.38471916 0.45066008 0.5068308 0.452853 -0.37348068 -0.47655225 0.56146663
0.46370006 0.4948812 0.4332822 -0.45149377 0.43004426 -0.5819143 -0.53353953 0.4490918
-0.48458874 -0.5843616 -0.44943702 0.36598122 0.5563619 0.42585516 0.45874375 0.38554788
-0.41118965 0.39168963 -0.54678065 0.440234 0.38993126 0.48145175 -0.4315152 -0.5790909
-0.56247544 0.35463104 -0.75475544 0.8352986 -0.46938163 0.37419528 0.7695227 0.4551806
00000000: 9555 013f 5172 d73e 4304 0fbf abe0 ecbe
00000010: cd2d c6be 1749 d9be bcff fbbe f7b9 f0be
00000020: 6194 d83e 9e99 ce3e 8b5d 683f 1c1e 12bf
00000030: 405e cabe 240b dfbe 7dd9 fe3e c462 0e3f
00000040: 8aaf 263f a8b1 ca3e 084d eebe 5689 0e3f
00000050: 4c58 ba3e e5f4 de3e c993 d43e 7c8e f1be
00000060: f039 0fbf e11d a9be 1a1b 0d3f b2f4 f0be
00000070: 5476 ddbe 75ac 1d3f 227f c43e 360b ea3e
00000080: 06ef 65bf 02ae f5be 0ce9 ecbe e12b e5be
00000090: 2b70 e6be d764 06bf 568a ebbe 7f9c fa3e
000000a0: 40e3 e0be 7bac e03e db84 cbbe 3126 183f
000000b0: 167d e8be b4c6 163f 4ed0 d2be 6ecf 5cbf
000000c0: 30ca ab3e 0744 0b3f 3259 04bf da27 dfbe
000000d0: 9925 cebe f947 d63e b993 5f3f a5f1 d33e
000000e0: bebe d63e 4d0f 023f 5df9 bfbe 9012 853f
000000f0: fd36 f3be 4ede f0be aeea 43bf 232a e1be
00000100: 9bf0 253f 37e9 67bf fd80 ee3e 1c2c d73e
00000110: d5ee ca3e 00d0 ebbe b521 10bf df97 013f
00000120: 4648 e93e 7204 d7be d1a2 cabe cacf 10bf
00000130: 971e 123f a43f d4be deb3 03bf d99f 13bf
00000140: 4218 0e3f 6ad3 0abf 8e24 c8be c560 e5be
00000150: d8a2 febe ceff 0dbf 2504 d1be b724 b03e
00000160: 02c5 ebbe 4f68 c8be 9a32 ff3e 95ef 62bf
00000170: a6fb e53e 5cb6 f1be ec9e cfbe ed49 db3e
00000180: c5de d7be 299e e1be 6de8 0abf cd2c e13e
00000190: bfe5 bcbe 27f3 eebe 10be 11bf 5c69 113f
000001a0: 9641 093f 8766 adbe 284a e93e 8d9a d5be
000001b0: 72b7 15bf 9a7e 323f b520 023f e9a0 87bf
000001c0: dafe f8be 69ef 17bf 01f2 d83e fb4f e83e
000001d0: 15a2 c7be 6174 e1be a3f7 2dbf 180b 00bf
000001e0: 7d61 18bf 199f e5be 3e65 f53e e4be e0be
000001f0: cebe e1be a345 0b3f d457 10bf 9735 ebbe
00000200: abf8 313f a2c1 e0be a726 11bf d8e8 edbe
00000210: 9890 e6be 757d c83e 0b2a d0be 78ee eebe
00000220: 4a8d f7be 2f32 003f 4958 e43e af81 fbbe
00000230: 55af cb3e 9eb5 debe 735b 9f3e e1ce e43e
00000240: addb e1be f4b2 d33e ed13 07bf de6a 05bf
00000250: 789e e6be 37ba cabe ff98 09bf a008 e53e
00000260: 4805 56bf 35d5 d63e ffca ee3e b9ce f13e
00000270: d2d7 18bf 2e67 e9be eff3 cb3e 1001 c3be
00000280: b177 023f d31b e8be e034 06bf 2916 f13e
00000290: f10e d83e 6541 5bbf 4cbc cabe 03d1 223f
000002a0: 0aed 02bf 9394 e03e c957 01bf 6cb3 e9be
000002b0: 0122 c83e 2a8d 36bf 43ea 11bf 4a7b c8be
000002c0: 9352 2c3f 18e3 d2be fe04 ff3e c3c8 cdbe
000002d0: a790 dfbe da65 eb3e 5690 d6be f04e bdbe
000002e0: fda4 c33e d156 cdbe 418e 173f ff06 d73e
000002f0: a9d7 10bf 4258 e53e aa70 003f 2eec fdbe
00000300: 6f18 e93e 6ada 20bf 1091 d8be 2aec f33e
00000310: 8de3 2dbf 2812 bbbe 8ee1 c9be 9ccf e23e
00000320: 77f0 0d3f 4693 d63e 5fc1 d6be 0cc3 ff3e
00000330: 3054 fa3e c6bc c13e 21df bbbe 5d94 e93e
00000340: 0a01 ddbe 3f3f bd3e 1324 0dbf 4df6 3a3f
00000350: 4bf2 d7be e12c 123f a957 193f 4702 d43e
00000360: 9bc8 c13e e9f9 c4be ebbc e63e aabf 013f
00000370: 59dc e73e dc38 bfbe a8fe f3be 47bc 0f3f
00000380: 186a ed3e 1261 fd3e 2ad7 dd3e 312a e7be
00000390: c32e dc3e 56f8 14bf 0c96 08bf 5cef e53e
000003a0: 041c f8be b998 15bf 9c1c e6be e461 bb3e
000003b0: bc6d 0e3f b009 da3e 76e0 ea3e 8866 c53e
000003c0: 7387 d2be 8b8b c83e d1f9 0bbf 5a66 e13e
000003d0: 12a5 c73e d880 f63e 8fef dcbe 4d3f 14bf
000003e0: 64fe 0fbf 3392 b53e a737 41bf 21d6 553f
000003f0: ca52 f0be 8696 bf3e 71ff 443f 6e0d e93e

actor.0.weight f4 [256, 19]
-0.13213144 -0.13469416 0.14007264 -0.07252635 -0.026201546 0.02792491 0.39202893 -0.028154856
-0.07726822 0.115812205 0.1409292 -0.20749687 0.10782461 -0.058437247 -0.021328378 0.16599023
-0.11272071 0.13788718 0.06883531 -0.056137744 0.21024634 -0.031998172 -0.010899134 -0.0014551282
0.0562122 -0.43411165 0.19927031 -0.11096923 0.0154372575 -0.2188284 0.117353424 -0.23910661
-0.11168172 0.0059827864 0.058173988 0.09567485 0.07788884 -0.16566369 0.050580043 0.09191453
0.14640541 -0.07176852 0.17845298 -0.22253266 -0.060742345 0.06065786 -0.102723144 -0.02092625
-0.20111021 0.1662152 -0.036062606 0.22068422 0.062271398 0.028629133 0.15765521 -0.07536097
-0.26279294 -0.10566698 0.051023785 -0.09056829 0.015715161 0.16843174 -0.19559889 -0.07658527
0.12875947 -0.09457563 -0.06854659 -0.0028690994 0.1370934 -0.0067509995 0.32881063 0.033588715
-0.050345894 0.15930273 -0.062048316 0.035925787 0.15296882 -0.06416797 -0.008989917 0.06887634
0.12668319 -0.119827256 -0.010908723 -0.15670484 0.14378323 -0.22076316 -0.2027996 0.26456907
-0.08444988 -0.11471464 0.053349193 -0.028453946 0.20533356 0.17098738 -0.016817873 0.07355381
-0.13251914 -0.1959088 0.063031785 -0.019669607 -0.13948366 0.115472086 0.11144357 -0.18794225
0.06402978 -0.080749035 -0.001586655 0.23673967 -0.22949052 -0.22936234 -0.006817734 -0.12965898
-0.114573136 -0.040117383 -0.07122124 0.17372975 -0.15608363 0.17995809 -0.18509494 -0.19448575
-0.2240898 0.2181085 -0.15983486 -0.13480565 0.123339966 -0.13076408 -0.25503808 0.18887922
-0.21840191 -0.026864609 0.088302456 0.047748767 0.16454579 0.19122918 -0.20948379 0.20740601
-0.108372405 0.1322421 0.18225236 -0.29827148 -0.07021382 -0.009578265 -0.09638556 -0.18350728
-0.0503493 0.24055608 0.30162147 0.046301737 -0.26662132 -0.03155271 -0.16345294 -0.1616714
0.012486285 0.04995065 -0.16012357 0.12174703 0.18912615 -0.17838149 0.026289491 -0.1789421
-0.21360737 -0.17253539 0.029073015 -0.24833602 0.2502706 -0.12445626 0.20246547 0.19406015
-0.2147527 0.0936025 0.21951884 -0.15160151 -0.21174021 0.0943656 0.15874429 -0.20461352
-0.21707615 -0.15845555 0.047132503 -0.1960696 -0.0112351915 -0.21944362 -0.31339893 0.010187446
0.046100765 -0.049958922 -0.10562303 -0.08543664 0.18610182 0.30032957 0.13717936 0.16022404
-0.13385691 -0.17333353 -0.22813782 0.028000042 -0.08039562 -0.09258677 -0.07649693 -0.106509164
0.2012914 -0.33309168 0.08198205 -0.22821903 0.18693823 0.21237911 0.03504014 0.04162342
0.1704382 0.19965366 -0.039848246 -0.053408377 0.16835481 0.111116394 0.17361967 0.2870241
-0.12895536 0.13722263 -0.20810023 -0.12663642 0.06372531 0.04404498 0.012462847 -0.12624173
0.060195107 0.24729 0.08052909 -0.1688305 -0.23722167 -0.008141406 -0.1840073 -0.00427642
0.19910176 0.047862515 0.3094966 -0.06098773 0.08841604 0.1709084 -0.09203501 -0.30038363
0.26795074 -0.058814943 -0.2697349 0.115435734 0.27743873 0.14157026 0.22187354 0.1505152
0.13599679 0.0385495 -0.23638599 0.12346099 0.113910004 0.454448 0.11843459 -0.18820864
00000000: 774d 07be 44ed 09be 346f 0f3e b288 94bd
00000010: a0a4 d6bc c8c2 e43c 04b8 c83e 03a5 e6bc
00000020: cd3e 9ebd f32e ed3d bf4f 103e 0f7a 54be
00000030: 26d3 dc3d e55b 6fbd dab8 aebc 58f9 293e
00000040: 1eda e6bd 4c32 0d3e 87f9 8c3d b1f0 65bd
00000050: d14a 573e 8410 03bd 4892 32bc 00ba beba
00000060: c43e 663d e243 debe 840d 4c3e d643 e3bd
00000070: 8dec 7c3c 8d14 60be fe56 f03d 5dd8 74be
00000080: 63b9 e4bd 400b c43b d947 6e3d 2df1 c33d
00000090: 2f84 9f3d bea3 29be 052d 4f3d af3d bc3d
000000a0: 4deb 153e 60fb 92bd 61bc 363e 9adf 63be
000000b0: f7cc 78bd 6074 783d 8360 d2bd 876d abbc
000000c0: d6ef 4dbe 5134 2a3e 62b6 13bd 0bfb 613e
000000d0: 4b10 7f3d a587 ea3c 5e70 213e da56 9abd
000000e0: cc8c 86be ee67 d8bd 51fe 503d de7b b9bd
000000f0: 15bd 803c 5f79 2c3e 134b 48be bdd8 9cbd
00000100: 86d9 033e deb0 c1bd 2862 8cbd 8007 3cbb
00000110: 3662 0c3e 7d37 ddbb de59 a83e 5294 093d
00000120: 7f37 4ebd 4120 233e 6026 7ebd eb26 133d
00000130: dca3 1c3e 7f6a 83bd 724a 13bc 0a0f 8d3d
00000140: 3db9 013e fe67 f5bd 80ba 32bc 3c77 20be
00000150: e93b 133e bd0f 62be b3aa 4fbe 9975 873e
00000160: 0ff4 acbd 82ef eabd af84 5a3d 4018 e9bc
00000170: f642 523e 5117 2f3e a3c5 89bc 61a3 963d
00000180: 19b3 07be 519c 48be cf16 813d 2822 a1bc
00000190: ced4 0ebe a17c ec3d 873c e43d ef73 40be
000001a0: 0c22 833d c05f a5bd 4ff7 cfba e26b 723e
000001b0: 90ff 6abe f6dd 6abe 4c67 dfbb 53c5 04be
000001c0: 52a5 eabd 2052 24bd 71dc 91bd 36e6 313e
000001d0: 63d4 1fbe ef46 383e 8789 3dbe 4627 47be
000001e0: cc77 65be d657 5f3e c0ab 23be 7e0a 0abe
000001f0: aa99 fc3d 05e7 05be 5a94 82be 8e69 413e
00000200: c0a4 5fbe 2b13 dcbc ebd7 b43d 3694 433d
00000210: b17e 283e 95d1 433e eb82 56be 3e62 543e
00000220: 5af2 ddbd 796a 073e 5da0 3a3e 0ab7 98be
00000230: 43cc 8fbd 28ee 1cbc cb65 c5bd 55e9 3bbe
00000240: 113b 4ebd 5554 763e 216e 9a3e e4a6 3d3d
00000250: 9782 88be 6a3d 01bd 3560 27be 308d 25be
00000260: 4693 4c3c 0e99 4c3d 6ff7 23be 8256 f93d
00000270: 49aa 413e a3a9 36be 0f5d d73c 993c 37be
00000280: e4bb 5abe 1ead 30be 882a ee3c cc4b 7ebe
00000290: 7823 803e ece2 febd 1c53 4f3e b4b7 463e
000002a0: 22e8 5bbe abb2 bf3d 8cc9 603e 6d3d 1bbe
000002b0: 6dd2 58be c042 c13d dd8d 223e 3586 51be
000002c0: 3649 5ebe 2c42 22be 030e 413d 78c6 48be
000002d0: cf13 38bc d4b5 60be d375 a0be 3fe9 263c
000002e0: 28d4 3c3d baa1 4cbd e350 d8bd 68f9 aebd
000002f0: 7a91 3e3e ccc4 993e bf78 0c3e c511 243e
00000300: c911 09be 587e 31be f69c 69be 5860 e53c
00000310: 75a6 a4bd 229e bdbd 6caa 9cbd 7a21 dabd
00000320: 551f 4e3e fe8a aabe 34e6 a73d 40b2 69be
00000330: bc6c 3f3e e979 593e 4086 0f3d 527d 2a3d
00000340: 5a87 2e3e 0272 4c3e ea37 23bd bec2 5abd
00000350: 3465 2c3e fe90 e33d 5bc9 313e d3f4 923e
00000360: e00c 04be 1784 0c3e 3a18 55be faac 01be
00000370: 6a82 823d 8268 343d f830 4c3c 8345 01be
00000380: 258f 763d 9739 7d3e 6fec a43d e7e1 2cbe
00000390: 3dea 72be 8863 05bc 696c 3cbe 3621 8cbb
000003a0: 55e1 4b3e 7c0b 443d 5776 9e3e 45ce 79bd
000003b0: 7813 b53d 9d02 2f3e da7c bcbd e2cb 99be
000003c0: d730 893e f0e7 70bd b11a 8abe 9269 ec3d
000003d0: 730c 8e3e cbf7 103e d132 633e a820 1a3e
000003e0: be42 0b3e 15e6 1d3d 2b0f 72be 1ed9 fc3d
000003f0: a649 e93d 69ad e83e d68d f23d c4b9 40be

actor.0.bias f4 [256]
-0.008093024 -0.032141577 0.0993555 -0.12526566 -0.054688044 0.14224441 0.10893916 0.1613609
-0.015948385 -0.015109787 0.15595716 -0.11791223 0.0812361 0.015687635 -0.018945927 0.12876812
-0.07107865 -0.03331294 0.049697082 0.08793531 0.121724844 -0.13892415 -0.152118 -0.0134358285
0.12022419 0.108832955 0.05334201 -0.1278428 0.08893256 -0.06928865 0.035235036 0.19993894
0.15747915 -0.121566854 0.045248363 0.051672693 -0.02888336 -0.0339229 -0.120593116 0.10665312
-0.19489613 0.060887497 -0.110794924 -0.08033958 0.12293118 -0.018720677 -0.04945556 -0.14524984
-0.056966625 0.10964286 0.1511597 0.15030444 0.2296258 -0.020795543 0.0057587237 -0.081189245
-0.13990021 0.1320667 0.061320744 0.11780653 0.13107349 -0.08840766 -0.18926588 -0.3078491
-0.17608379 0.02668521 0.16246253 -0.048121996 0.114420064 0.07384581 0.20939209 0.113577574
0.24014226 0.18209407 0.06833499 0.15077256 0.16790025 0.15115528 -0.06627733 0.08506785
0.080549724 -0.2019525 0.077972546 0.0036764878 -0.08679228 0.01427745 0.095016606 0.012003009
0.16536924 0.20247234 0.1076262 0.0015453126 0.13933241 -0.07093618 0.21338756 -0.02126602
-0.103614815 -0.17781109 -0.008847452 0.104248635 -0.014425107 -0.110691585 -0.14915033 -0.0010950586
0.014118713 0.026449744 0.12093652 0.13824017 0.055724822 -0.15965359 -0.06338147 0.053414937
0.0674323 0.2230343 -0.0062111164 -0.15742762 -0.16625221 -0.04632863 0.054164972 0.07837945
-0.19499378 0.11959196 -0.18343973 0.15033592 -0.032172453 0.054407943 0.046555895 -0.040492736
-0.11642924 0.1852349 0.18094069 0.11098796 -0.20276159 0.012805878 0.19298667 0.17256807
0.11120765 -0.18251103 -0.0671248 0.07102825 0.062900335 0.18903868 -0.00082953635 -0.11430825
0.07380604 -0.20384571 -0.015451697 0.120189786 0.13944535 -0.09101951 -0.0410827 -0.22149864
-0.071465455 0.16864333 -0.08383091 -0.15498915 -0.16944286 -0.21068336 0.071371175 -0.1746309
-0.05157009 0.18601249 -0.07823862 0.21217453 -0.128488 -0.18712175 -0.056015007 0.09590939
0.18117547 0.15119575 -0.12603833 -0.13443692 -0.01760516 0.18756549 -0.17171116 -0.042143412
-0.15538132 0.023294082 -0.07627874 0.13644554 0.031847846 0.20235594 -0.1773193 -0.07770102
-0.05357463 -0.08333453 0.13789809 -0.24000977 -0.116480045 0.14934702 -0.21886022 -0.1900983
0.016738566 0.0666173 0.061342176 0.18101484 -0.023574913 -0.15699841 0.056826096 0.034370124
0.13871032 0.06131283 0.10572701 0.10260996 0.0051911157 -0.15293075 -0.16700101 -0.12555046
-0.07615156 0.05118311 -0.12523922 0.12261788 0.15584973 0.16750097 0.1415708 -0.00775489
0.05995988 0.078364514 0.21564353 -0.12268967 -0.14730932 0.14384218 -0.041981272 0.08867956
-0.2101614 0.20681207 0.14485164 -0.013291215 -0.013088686 -0.08134925 -0.11756999 -0.09676128
-0.22600867 -0.13349983 -0.17425583 -0.007912889 -0.14598973 -0.13019335 0.18795824 -0.009777545
0.08828691 0.09148516 0.05844144 0.20656128 -0.015791984 0.11614604 -0.09865742 0.15042321
0.084775805 0.144646 -0.120884016 -0.07249417 0.22586691 0.052308265 0.12539475 -0.24080634
00000000: 9a98 04bc e3a6 03bd e57a cb3d a445 00be
00000010: 9200 60bd 85a8 113e 7f1b df3d cb3b 253e
00000020: 30a6 82bc 0a8f 77bc 3cb3 1f3e f87b f1bd
00000030: 1d5f a63d 5b83 803c 7d34 9bbc cadb 033e
00000040: af91 91bd 2673 08bd 2b8f 4b3d 6e17 b43d
00000050: e04a f93d 2242 0ebe d2c4 1bbe f321 5cbc
00000060: 1a38 f63d d0e3 de3d 277d 5a3d 39e9 02be
00000070: 4622 b63d 35e7 8dbd 9d52 103d cbbc 4c3e
00000080: 3742 213e 0bf8 f8bd 5956 393d bfa6 533d
00000090: cc9c ecbc bdf2 0abd 86f9 f6bd f36c da3d
000000a0: da92 47be 2b65 793d 73e8 e2bd 1489 a4bd
000000b0: 58c3 fb3d 1b5c 99bc ea91 4abd 60bc 14be
000000c0: d655 69bd 708c e03d 9cc9 1a3e 68e9 193e
000000d0: 0723 6b3e 6a5b aabc adb3 bc3b 8c46 a6bd
000000e0: 0042 0fbe 7e3c 073e 762b 7b3d 8d44 f13d
000000f0: 2138 063e 130f b5bd eace 41be 669e 9dbe
00000100: 4f4f 34be f19a da3c 945c 263e 921b 45bd
00000110: 1155 ea3d 793c 973d e16a 563e 5c9b e83d
00000120: dae7 753e de76 3a3e 37f3 8b3d 1f64 1a3e
00000130: 0bee 2b3e 73c8 1a3e 69bc 87bd 0e38 ae3d
00000140: 41f7 a43d a3cc 4ebe 12b0 9f3d 3bf1 703b
00000150: 27c0 b1bd f7eb 693c 1198 c23d 45a8 443c
00000160: 8e56 293e e954 4f3e 206b dc3d 168c ca3a
00000170: 28ad 0e3e fd46 91bd 4582 5a3e 1436 aebc
00000180: 0134 d4bd 1c14 36be e7f4 10bc 4f80 d53d
00000190: 4957 6cbc 45b2 e2bd ddba 18be 1288 8fba
000001a0: 2d52 673c 22ad d83c 91ad f73d d58e 0d3e
000001b0: b63f 643d 3b7c 23be 25ce 81bd 9fc9 5a3d
000001c0: f219 8a3d 1b63 643e 9f86 cbbb b534 21be
000001d0: 053e 2abe 17c3 3dbd 17dc 5d3d 6885 a03d
000001e0: 73ac 47be a1ec f43d a0d7 3bbe a9f1 193e
000001f0: 43c7 03bd ddda 5e3d 65b1 3e3d b6db 25bd
00000200: 7472 eebd 38ae 3d3e 8448 393e a84d e33d
00000210: bca0 4fbe bfcf 513c 4c9e 453e afb5 303e
00000220: d6c0 e33d 2ce4 3abe ba78 89bd 4277 913d
00000230: e4d1 803d 5b93 413e 3e75 59ba 721a eabd
00000240: 9f27 973d eebc 50be 1d29 7dbc 1026 f63d
00000250: c3ca 0e3e 7068 babd 5546 28bd 8ad0 62be
00000260: 7b5c 92bd d6b0 2c3e 8aaf abbd 7ab5 1ebe
00000270: 6e82 2dbe 61bd 57be 0d2b 923d 71d2 32be
00000280: 293b 53bd 0f7a 3e3e 923b a0bd 4844 593e
00000290: 5c92 03be d89c 3fbe fe6f 65bd 246c c43d
000002a0: 1086 393e 0fd3 1a3e 3110 01be d5a9 09be
000002b0: b238 90bc 2b11 403e 0dd5 2fbe 929e 2cbd
000002c0: 481c 1fbe 3bd3 be3c 0738 9cbd 61b8 0b3e
000002d0: e372 023d 6536 4f3e 3193 35be b621 9fbd
000002e0: 1271 5bbd 4bab aabd 2835 0d3e 1fc5 75be
000002f0: 178d eebd 6dee 183e e51c 60be 21a9 42be
00000300: 511f 893c a76e 883d ef41 7b3d f45b 393e
00000310: 2d20 c1bc 31c4 20be 7bc2 683d b0c7 0c3d
00000320: 140a 0e3e 2923 7b3d 6787 d83d 2c25 d23d
00000330: 3c1a aa3b e199 1cbe 5002 2bbe 4d90 00be
00000340: 59f5 9bbd 61a5 513d b63e 00be 151f fb3d
00000350: 1297 1f3e 6085 2b3e f0f7 103e bb1c febb
00000360: 7e98 753d 937d a03d a8d1 5c3e b944 fbbd
00000370: 41d8 16be 5d4b 133e 8ef4 2bbd a19d b53d
00000380: 8d34 57be 8bc6 533e fd53 143e 65c3 59bc
00000390: ee71 56bc 709a a6bd 89c8 f0bd c72a c6bd
000003a0: d16e 67be 2eb4 08be 1f70 32be 10a5 01bc
000003b0: 557e 15be 6851 05be 2078 403e ff31 20bc
000003c0: c4cf b43d 925c bb3d 4b60 6f3d cd84 533e
000003d0: 315e 81bc fadd ed3d e70c cabd 8b08 1a3e
000003e0: f09e ad3d 151e 143e 0a92 f7bd d377 94bd
000003f0: a849 673e 3141 563d 7b67 003e f095 76be

actor.2.weight f4 [256, 256]
0.056896847 0.025017979 0.011922243 0.00074899837 -0.08181209 0.013893606 0.026235938 -0.017055657
0.037153013 0.042532403 0.006784827 -0.03681672 0.03456675 0.0344404 0.030012943 -0.04731208
-0.031584535 0.08382993 -0.068900764 0.06531797 0.20069495 0.023993619 -0.063086905 -0.15108387
0.09994737 -0.09589544 0.02852419 0.0064545395 -0.035467 -0.13436389 0.0025991674 -0.05379553
-0.035600252 0.031429 -0.07315804 0.03074675 -0.048142847 -0.28239483 -0.065377 0.00040546077
-0.08759768 -0.045175504 0.053102642 -0.314059 -0.04297168 -0.107424006 0.046401434 0.024853738
-0.07795041 0.05611663 0.027044507 0.1847835 0.07308902 0.2896036 -0.042981446 -0.009705688
-0.074267 0.030331368 -0.12062831 -0.0921329 0.042970352 -0.053648073 0.041140668 -0.09958021
0.06633871 0.0820995 -0.18069379 -0.013276801 -0.030331794 -0.08231375 -0.03686801 0.049918585
0.044532884 0.030994931 -0.13266861 -0.017816927 -0.026896698 0.12246299 0.047868364 0.01029322
0.05107293 0.05930946 0.066424176 0.025899597 -0.13403599 0.036627274 -0.035056967 0.102173395
-0.053316075 0.03685929 0.024536114 0.01063623 -0.051293727 0.032512654 -0.049871687 -0.0046071573
0.07063555 -0.07773204 0.044217195 0.020876594 -0.010161107 0.12101962 0.06637441 0.08871645
-0.039696485 -0.07669206 0.029855384 0.0027615388 -0.0060422188 -0.014936647 -0.03487876 -0.038730767
-0.0473298 0.07256963 -0.05952809 -0.0034331272 -0.072470486 0.058436457 0.16944274 -0.030651681
0.035226803 0.08213963 0.056918368 0.053526722 0.0650813 -0.06624602 0.07050735 0.04635206
-0.10788741 -0.05774036 0.12712435 0.0830584 -0.08221661 0.05971721 0.019033236 0.057747457
0.07102382 -0.038643043 0.026596915 -0.11055083 0.083878696 -0.0032114713 0.08804281 -0.15601003
-0.034344174 -0.1204737 0.054173674 -0.090432756 0.05601923 -0.023656067 0.017143255 -0.02618217
0.066998795 -0.060150303 0.031123597 0.035463717 0.02703249 -0.076566055 0.009202303 0.024384798
0.08084498 -0.015074609 -0.055052556 -0.039925747 -0.050712295 0.023941075 0.044806086 0.042353384
-0.008013288 -0.039009772 0.0949409 0.07763731 0.050143883 0.057190206 -0.009097803 -0.09508814
0.07238168 0.061418228 -0.010518393 0.04607224 -0.11573128 -0.15111724 0.014779051 -0.030635111
0.13941303 0.078549616 0.06209741 0.04287256 -0.0150363995 -0.02646379 -0.052515652 0.061946858
0.16194439 0.09451925 0.092297435 -0.017567866 0.07259108 -0.033870663 0.014636732 -0.010309812
-0.011871194 0.0707168 -0.13237795 0.10660367 0.12682801 -0.022514978 0.021226017 -0.022428704
-0.04301469 0.096386105 0.06539899 0.06305796 0.004342651 0.054860055 -0.052029725 -0.08386564
0.084565826 -0.15470673 0.15974891 -0.00805289 0.049693286 0.026238099 -0.07136728 -0.045324553
0.098761395 0.10470407 0.09408514 -0.02831092 -0.1077959 -0.023475679 0.013716212 -0.0065188464
0.024829384 -0.095399074 -0.038881082 -0.0720439 -0.011441044 0.15030794 -0.045594193 0.07958869
0.012165895 -0.07670628 -0.011289498 0.007061417 0.10719716 -0.06448592 -0.012016654 0.020758267
0.10523891 0.013764978 -0.086660296 0.028445505 0.095656045 -0.090077706 0.027223319 -0.0005428708
00000000: ab0c 693d 81f2 cc3c 8355 433c 6e58 443a
00000010: 198d a7bd 02a2 633c c0ec d63c 4eb8 8bbc
00000020: c22d 183d 7536 2e3d 4153 de3b 21cd 16bd
00000030: dd95 0d3d 6011 0d3d b4dd f53c 50ca 41bd
00000040: c95e 01bd 07af ab3d d81b 8dbd 6ec5 853d
00000050: fa82 4d3e 448e c43c b533 81bd bbb5 1abe
00000060: 35b1 cc3d d464 c4bd 90ab e93c 9a80 d33b
00000070: d845 11bd b096 09be cb56 2a3b b458 5cbd
00000080: 92d1 11bd b2bb 003d e2d3 95bd 9ce0 fb3c
00000090: 6f31 45bd 0e96 90be 60e4 85bd 0694 d439
000000a0: 6a66 b3bd f309 39bd 2882 593d 57cc a0be
000000b0: 1303 30bd 1e01 dcbd 6e0f 3e3d 119a cb3c
000000c0: 77a4 9fbd 8dda 653d 718c dd3c e337 3d3e
000000d0: b2af 953d ec46 943e 500d 30bd 9b04 1fbc
000000e0: 4c19 98bd 7d79 f83c fa0b f7bd 2db0 bcbd
000000f0: ae01 303d 15be 5bbd 1e83 283d b6f0 cbbd
00000100: 97dc 873d c823 a83d cb07 39be f186 59bc
00000110: 627a f8bc 1d94 a8bd e902 17bd 6e77 4c3d
00000120: 1d68 363d 15e9 fd3c 48da 07be cef4 91bc
00000130: 7756 dcbc e0cd fa3d 9e11 443d e5a4 283c
00000140: d931 513d 7aee 723d 6609 883d 642b d43c
00000150: bb40 09be 7b06 163d e597 0fbd 4940 d13d
00000160: f561 5abd c4f9 163d f6ff c83c 9543 2e3c
00000170: 5f19 52bd fd2b 053d 4146 4cbd a3f7 96bb
00000180: 5fa9 903d fa31 9fbd 171d 353d 6405 ab3c
00000190: c67a 26bc 22d9 f73d 4fef 873d f8b0 b53d
000001a0: c898 22bd ba10 9dbd 4793 f43c effa 343b
000001b0: cefd c5bb d7b8 74bc 08dd 0ebd 27a4 1ebd
000001c0: e4dc 41bd 639f 943d bad3 73bd 51fe 60bb
000001d0: 686b 94bd 115b 6f3d 6682 2d3e 3c19 fbbc
000001e0: fb49 103d d338 a83d 3c23 693d d63e 5b3d
000001f0: 5849 853d feab 87bd 2866 903d a8db 3d3d
00000200: 13f4 dcbd 2881 6cbd e32c 023e 861a aa3d
00000210: 2f61 a8bd 089a 743d 97eb 9b3c 9988 6c3d
00000220: f074 913d 2b48 1ebd c6e1 d93c 7968 e2bd
00000230: 98c8 ab3d 8c77 52bb ca4f b43d 18c1 1fbe
00000240: 7aac 0cbd eaba f6bd 37e5 5d3d cf34 b9bd
00000250: 6c74 653d 5eca c1bc 0370 8c3c fd7b d6bc
00000260: aa36 893d 2a60 76bd eaf6 fe3c 6742 113d
00000270: 3e73 dd3c aace 9cbd 42c5 163c a1c2 c73c
00000280: 0e92 a53d 7efb 76bc ca7e 61bd 2e89 23bd
00000290: b2b7 4fbd 1320 c43c 9686 373d be7a 2d3d
000002a0: 2a4a 03bc b6c8 1fbd 6070 c23d 4f00 9f3d
000002b0: ac63 4d3d 4740 6a3d f40e 15bc 92bd c2bd
000002c0: d93c 943d ae91 7b3d 5655 2cbc 3fb6 3c3d
000002d0: 8504 edbd 7abe 1abe d523 723c 7cf6 fabc
000002e0: 4ac2 0e3e 9fde a03d db59 7e3d 239b 2f3d
000002f0: 3b5b 76bc 97ca d8bc a71a 57bd fdbb 7d3d
00000300: c0d4 253e 4f93 c13d 7006 bd3d 7cea 8fbc
00000310: a2aa 943d f7bb 0abd e7ce 6f3c 7cea 28bc
00000320: 657f 42bc f8d3 903d 168e 07be 0653 da3d
00000330: 34df 013e 5571 b8bc 2fe2 ad3c 67bc b7bc
00000340: 2c30 30bd 1466 c53d e8ef 853d 8824 813d
00000350: cc4c 8e3b f0b4 603d 1f1d 55bd c0c1 abbd
00000360: d930 ad3d 716b 1ebe 3895 233e 45f0 03bc
00000370: 308b 4b3d 48f1 d63c 0229 92bd 3da6 39bd
00000380: 6a43 ca3d 166f d63d b6af c03d 4dec e7bc
00000390: 19c4 dcbd 1150 c0bc f6b9 603c 0c9c d5bb
000003a0: fe66 cb3c 9760 c3bd c541 1fbd c18b 93bd
000003b0: 3773 3bbc 53ea 193e fac0 3abd 65ff a23d
000003c0: 7653 473c 2f18 9dbd 96f7 38bc 7663 e73b
000003d0: 2f8a db3d 3211 84bd 80e1 44bc 3e0d aa3c
000003e0: 7f87 d73d 8186 613c f47a b1bd 8c06 e93c
000003f0: 51e7 c33d a97a b8bd 7003 df3c 714f 0eba
