models/mec_policy_ep1000.pth (torch, 576658 bytes, 11 tensors)

critic.0.weight f4 [256, 19]
000000 c7 67 27 be fb 99 50 3e 11 a8 ab bd 7a 6f 11 bd
       -0.16348182 0.20371239 -0.083816655 -0.035506703
000010 96 1d 41 be 4e 60 df 3d e0 5f ec be e7 b1 58 be
       -0.18858942 0.109070405 -0.46166897 -0.21161614
000020 7c 2d f7 3e 94 76 ae 3e 65 40 37 3e e5 e6 73 3d
       0.4827689 0.34074843 0.17895658 0.05954637
000030 13 7b 14 bd 89 eb 57 3e d3 d4 4f be 27 71 c0 bd
       -0.036250185 0.21085943 -0.2029603 -0.09396582
000040 69 62 bb bd aa 04 02 3e aa 04 18 be 2c 26 16 3e
       -0.091496296 0.12697092 -0.14845529 0.14662999
000050 1e 53 05 be 89 ef 4d be 14 8e 10 3e d6 f1 f3 3d
       -0.13019988 -0.20110907 0.14116699 0.11911361
000060 20 a3 5d bd 5d 50 0d 3f 9a e9 08 3c 09 6a 31 be
       -0.054110646 0.5520075 0.008356476 -0.17325605
000070 c4 d2 25 be 00 db 50 bd 78 df e6 3e c8 00 21 be
       -0.16193682 -0.050990105 0.45092368 -0.15722954
000080 02 f7 4a be 84 d5 01 be 13 bc 60 3d 7a 0d 92 3c
       -0.19820789 -0.12679106 0.05486686 0.017828692
000090 52 f2 d4 3d a4 0b 30 3e 8f 9c f5 bd 29 f7 9a 3e
       0.103977814 0.1719194 -0.11992752 0.30266693
0000a0 75 c8 00 bc 54 26 5f bc 00 32 f4 39 a7 41 69 be
       -0.007860293 -0.013619978 0.0004657656 -0.2277895
0000b0 81 8b f9 3e 8f 42 b9 3d dd c9 de be 65 1b 19 3e
       0.48739246 0.09045898 -0.43513384 0.14951856
0000c0 0d 6e 00 3e f0 16 ca bd 2c be e2 39 e8 14 91 3d
       0.12541981 -0.09867656 0.00043247768 0.07084066
0000d0 46 c5 9c 3d b2 e8 2e bc d2 67 4d 3e 2a 6d fe bc
       0.076548144 -0.010675596 0.20059136 -0.031057913
0000e0 1c 8c d6 bd f4 d8 e0 3d ec 20 2e 3d 71 10 80 be
       -0.104759425 0.109788805 0.042511865 -0.25012544
0000f0 9b 41 fa bc b0 c5 57 3c 46 18 41 be a1 b1 82 be
       -0.030548861 0.013169691 -0.18856916 -0.25526145
000100 f1 b8 c9 bb c7 8c e4 3e 24 ed 67 bd 63 2a 10 3e
       -0.00615608 0.44638655 -0.05662264 0.14078669
000110 4c cd 02 3f e2 c6 3b be 55 da f0 bd 2a 7a af 3d
       0.5109451 -0.18337587 -0.117603935 0.08568223
000120 15 8c 0b be 03 4f e4 3d bc e0 c0 3c 2d a4 f5 3d
       -0.13627656 0.11147883 0.023544662 0.11994205
000130 2a f8 63 3d b0 ff ab bd 64 45 0c be 8e 89 a6 bc
       0.05565659 -0.08398378 -0.13698345 -0.020329263
000140 9f 12 f4 bd 7f 60 5b 3e e6 e1 38 3f b1 04 56 3d
       -0.11917614 0.21423529 0.72219694 0.052250568
000150 98 09 63 3e d3 1b 95 3d a4 7e 76 3d b1 3e fa 3e
       0.22171628 0.07280698 0.060179368 0.48875955
000160 8e 63 f9 3d b3 b0 85 3d e1 10 3b be 0a 63 c0 b9
       0.12177192 0.06527843 -0.18268158 -0.00036694884
000170 4b ab 1d 3e f9 01 8f bd 11 b4 81 3d 2d 2b 69 be
       0.15397374 -0.06982798 0.06333173 -0.22770377
000180 67 1b e1 bd b5 2a 92 3c 0d e6 de 3d e0 02 9c bc
       -0.10991555 0.01784263 0.108837225 -0.01904434
000190 f4 3e 79 3d d2 64 c6 be d7 22 5f be 3e 2f 32 be
       0.060851052 -0.38748795 -0.21790634 -0.17400834
0001a0 b3 8e 60 3e 13 20 22 3e a0 cd 39 3f 2a 9e 7f be
       0.21929435 0.15832548 0.72579384 -0.24962679
0001b0 ab 5a 3b 3e 03 a4 45 be 53 f7 12 be 90 45 88 bd
       0.18296306 -0.19300847 -0.14352159 -0.06653893
0001c0 1f a0 75 be d7 ba 71 3c e9 e5 ad bd e6 74 02 be
       -0.23986863 0.014754019 -0.084911175 -0.12739906
0001d0 8e 0c 18 be c9 74 fd 3d 10 8e 03 be 19 42 33 3e
       -0.14848539 0.123757906 -0.12847161 0.17505683
0001e0 75 c5 2a 3f 74 d5 4c 3e 71 59 33 3e 5f 81 19 3a
       0.66707546 0.20003301 0.17514588 0.00058557646
0001f0 cc 42 a5 bd 6b 4e 8b 3d f1 37 1f be 30 79 3b be
       -0.08069381 0.068020664 -0.15548684 -0.18307948
000200 44 e5 52 be 4a a8 23 3e 77 77 be bd 39 c2 0b be
       -0.2059527 0.15982166 -0.0930013 -0.13648309
000210 74 b0 48 be db 79 28 3e e6 66 0d 3d 53 d7 ab 3d
       -0.19598562 0.16452734 0.03452196 0.08390679
000220 6a 16 b4 3d 12 eb 0e be ba 59 3b be 3e 78 c6 be
       0.08793338 -0.1395686 -0.18295947 -0.38763613
000230 41 fc 61 3e 8a 14 24 3e 43 67 6a 3e f3 32 45 3e
       0.22068883 0.1602346 0.22890954 0.19257717
000240 0f ba 9e 3e e0 3a ee bd a1 2d 75 3e 1b 22 1a be
       0.31001326 -0.11632323 0.23943187 -0.15052073
000250 16 2d ad bd cd 5e 36 bd 92 ca 17 be cd 8f ec 3d
       -0.08455865 -0.044524003 -0.14823368 0.11550865
000260 d1 69 f8 bd 6f 04 b2 be d9 1b 02 3d 10 0d 42 be
       -0.12129558 -0.34769008 0.03176484 -0.18950295
000270 a8 70 c9 bd b4 33 4a 3d 20 eb f0 3e 13 1a 1d bd
       -0.098359406 0.049365714 0.47054386 -0.038354944
000280 f6 06 50 3e 5d da 93 bd 8c cb 78 bd 81 50 08 3f
       0.20315155 -0.07219384 -0.060740992 0.5324784
000290 e9 29 b1 bb 84 13 9d be 54 ea 47 3e 33 b0 ff bd
       -0.0054066074 -0.30678952 0.19522983 -0.12484779
0002a0 af f4 f4 bd 9c e3 97 be ce 47 c1 b9 9d 7b 6a 3d
       -0.11960732 -0.2966584 -0.00036865327 0.057246793
0002b0 b0 4d 71 be 53 dc 52 be 25 9f b8 bc 9d 93 66 be
       -0.23564792 -0.2059186 -0.022536824 -0.22517247
0002c0 3b 35 64 be 62 30 9f be 5f 38 cb be f9 75 61 be
       -0.22285931 -0.310916 -0.39691445 -0.22017659
0002d0 22 22 93 3a 49 cc 2a 3e 49 48 ab 3e ab 79 54 3e
       0.0011225382 0.16679491 0.33453587 0.20749538
0002e0 37 4d 4e be 1a 39 66 3d ca a4 00 be 07 7f 3a be
       -0.20146643 0.0562068 -0.12562862 -0.1821252
0002f0 72 c3 77 3d d5 03 a6 3d dc 4e a2 bd a3 a4 8f bd
       0.060489126 0.081062 -0.079251975 -0.07013824
000300 35 60 08 3e f7 9c 37 bd e8 eb 94 3c ed 26 66 be
       0.1331795 -0.044827428 0.018178895 -0.22475787
000310 06 63 a7 3e 7f 76 1e be 8c 3c df be 4b a5 4d be
       0.32692736 -0.1547489 -0.4360088 -0.20082586
000320 2c a1 0c be cf 37 d5 be c5 79 15 bd f3 a9 a0 3e
       -0.13733357 -0.4164414 -0.03649308 0.3137966
000330 88 fc 01 3e b3 8c 90 b9 a4 62 0c 3d b8 d5 39 3e
       0.1269399 -0.0002757065 0.03427376 0.18147933
000340 74 eb 0b 3e ca 89 72 3d 45 55 20 3e c9 a2 5a bd
       0.13664037 0.059213437 0.15657528 -0.0533779
000350 90 c0 3a 3e 18 8c 34 bd 7c 40 1b be 93 78 0d 3f
       0.1823752 -0.044078916 -0.15161318 0.55262107
000360 e7 21 28 be 52 3b 53 bd 86 5b 81 be ca 75 65 be
       -0.16419183 -0.051570244 -0.2526514 -0.22408214
000370 6e 19 30 bf e9 ac 35 3e bc ab a6 3d 43 cd 84 bd
       -0.687888 0.17741741 0.081382245 -0.06484463
000380 7f 0a 0c be e5 a0 2c be c6 37 a4 3d 78 88 5c 3e
       -0.13675879 -0.16858251 0.080184504 0.21536434
000390 8e bd bc 3d 49 41 0d be fe 87 fb bd da aa 2e 3e
       0.09215842 -0.13794436 -0.12281798 0.17057362
0003a0 2e 36 b3 3d 4a 31 a1 3d 16 0b f6 be e7 39 5e be
       0.08750568 0.07870729 -0.48055333 -0.21701775
0003b0 f8 cf ce 3c 64 d6 f5 bd d8 f5 f4 3c 79 dc 1d 3f
       0.025245652 -0.120037824 0.029902384 0.6166454
0003c0 4b 48 75 3d cd 4c 8e 3e 06 00 94 be cb d5 5b 3d
       0.059883397 0.2779297 -0.28906268 0.053670686
0003d0 e3 58 79 be 05 64 f8 bd 48 67 13 be 46 34 31 be
       -0.24350314 -0.12128452 -0.14394867 -0.17305097
0003e0 56 c9 0b 3e 55 87 de bd b5 fa a4 3d 88 17 88 3c
       0.13651022 -0.10865656 0.08055631 0.016612783
0003f0 c7 27 2d 3e dd 39 1a bf f7 44 15 3e da f2 1a 3e
       0.16909705 -0.6024454 0.14577089 0.15131703

critic.0.bias f4 [256]
000000 cf fc 36 bb 44 17 4f 3e af e2 36 be 7f 6b 0b 3e
       -0.0027921682 0.20223719 -0.1785991 0.13615225
000010 2b 59 72 bd 93 79 7d 3e 78 59 41 3e 35 e7 89 3d
       -0.05916707 0.24753408 0.18881786 0.06733552
000020 fd 61 d6 3d 3c 42 55 be 8e 97 36 be 89 75 67 3d
       0.104679085 -0.20826048 -0.17831251 0.056508575
000030 4e eb 24 be 57 ea 79 3e 9e 55 e9 3d 6b c0 02 ba
       -0.16105387 0.244058 0.11393283 -0.0004987779
000040 f4 c7 84 bc 4f b4 10 be eb 17 24 be ed 18 1a 3e
       -0.016208626 -0.14131282 -0.16024749 0.15048571
000050 5e 09 fc bd 72 03 98 3c 1b 18 8f 3d ad 79 00 be
       -0.12306474 0.01855633 0.0698702 -0.12546416
000060 4d 79 f5 bc 14 0c c3 bd 4e ea 82 be c5 52 9f 3c
       -0.029965067 -0.09523788 -0.25569385 0.019448647
000070 2f 77 40 3e 89 20 06 be 7e a8 9a bd 6f bb 59 bd
       0.18795465 -0.13098349 -0.075516686 -0.053157266
000080 6e 68 70 3e f2 7d 38 3c 08 4e 50 3d c6 95 33 bd
       0.23477337 0.011260496 0.050855666 -0.043844007
000090 02 b2 0b 3e 5c 09 ef bd 12 5a c5 3d 4f 3b a7 bd
       0.13642123 -0.11671707 0.0963632 -0.08165609
0000a0 43 8e 0d 3e c2 0f 0a be 67 41 32 3e 73 5a cb bd
       0.138238 -0.13482574 0.17407762 -0.09929361
0000b0 99 12 ef 3d a0 74 a2 3d 9c 07 72 bd 11 60 18 3d
       0.11673469 0.07932401 -0.059089288 0.03720099
0000c0 02 5d b2 3d 87 a3 cf 3d 98 2a 0d be 87 8c b7 bd
       0.08709146 0.10138612 -0.1378578 -0.0896235
0000d0 91 40 11 3d 33 1f 0f bc f8 aa 3e be f6 e8 91 3d
       0.035461966 -0.008735466 -0.18619907 0.07124512
0000e0 bc c8 0c be c7 93 c6 3c cc df a6 bd aa b1 39 3e
       -0.13748449 0.024240388 -0.081481546 0.1813418
0000f0 bc 27 14 3e 3a 22 c8 bd 85 e6 74 3e 86 c3 05 3e
       0.14468282 -0.09772153 0.23916061 0.13062868
000100 6d ad 12 bd 17 90 03 be ff ef 7a 3d 64 be 3c 3e
       -0.035809923 -0.12847935 0.061264034 0.18432003
000110 ca fd 95 bd ac 84 93 bd 31 9b ef bd 08 02 1e 3e
       -0.07323797 -0.072030395 -0.11699522 0.15430462
000120 49 d9 8b 3b 2f 9d 24 bd c7 4c 06 3e 4f a9 b5 bd
       0.004267846 -0.040188964 0.13115226 -0.08870184
000130 15 6f 17 be bb 22 1d 3e ea 83 aa bd ac 5f 1f 3e
       -0.14788468 0.1534528 -0.08325942 0.1556384
000140 a7 7d 02 bd f3 7c 20 3e d5 b5 74 3e 9a 7e a8 3b
       -0.031858113 0.15672664 0.23897488 0.005142045
000150 fd dc 99 bd a8 b8 80 3e 29 d9 ba bd e4 1b ad 3d
       -0.07512853 0.25140882 -0.09123451 0.08452585
000160 ed bc 3f bc 40 df ca bd 03 96 fe bd 2b ed a7 3c
       -0.011702758 -0.09905863 -0.12430956 0.020498833
000170 60 8b 0d be e9 55 a6 bc 00 2c c8 3d a4 27 cc bc
       -0.13822699 -0.020304637 0.09774017 -0.024921246
000180 67 db 09 3e 8b cb 4e be ad 99 be 3d a8 df 31 be
       0.13462602 -0.20194833 0.09306655 -0.17370474
000190 c0 57 1d be 51 ca 37 bb 69 a6 e8 3d 5d 65 0b be
       -0.15365505 -0.0028044174 0.11359865 -0.13612886
0001a0 92 c6 0e be d5 cb ca 3d 01 95 53 bd 7e c7 32 3c
       -0.13942936 0.09902159 -0.051655773 0.01091182
0001b0 5c 74 20 3d fc 4d 37 be c1 6c d1 bd 42 1b f4 3d
       0.03917347 -0.17900842 -0.10225821 0.119192615
0001c0 06 f7 db 3d 1c 95 3f 3e 4e 46 fe 3d 2c 28 71 be
       0.10740475 0.18709224 0.12415753 -0.2355048
0001d0 f0 33 a2 3d e3 97 a1 bd 54 dd 54 3c 41 ac 04 be
       0.079200625 -0.07890298 0.012992222 -0.12956335
0001e0 d7 71 0b be 8b ac a6 3d 2d 74 32 be fd 2e 28 3d
       -0.13617645 0.08138379 -0.1742713 0.041060437
0001f0 97 9c 17 3e df dc 5e be 5f 22 87 3d 38 a4 ac 3d
       0.14805828 -0.21763943 0.06598353 0.0842976
000200 46 66 97 bd 61 e6 0f 3e a0 39 bb 3d d2 0a 0f be
       -0.07392554 0.14052726 0.091418505 -0.13968971
000210 f4 86 8e bb 84 38 1b 3c bc 57 b3 3d f1 d6 8e bd
       -0.0043495838 0.009473924 0.087569684 -0.069745906
000220 dc f1 8c 3c 35 8d 79 3d fd a3 51 3e 8b 7d 92 3d
       0.017205171 0.06092568 0.20472713 0.07152852
000230 21 64 a9 3d e2 2d cb 3d ac 73 34 bc 5e f7 18 bd
       0.08271051 0.09920861 -0.011013906 -0.037345283
000240 90 34 a3 bd 51 76 c3 bd 79 52 f9 39 2b 5b e9 3d
       -0.0796901 -0.095440514 0.00047554428 0.11394342
000250 70 f4 1d be 61 72 51 bd 0d 0c 5b be 2c bd 38 be
       -0.15425277 -0.05113447 -0.21391316 -0.18040913
000260 e9 7d b0 bd 18 52 4b 3e 5e 10 2d be 11 94 dd bd
       -0.086177655 0.19855535 -0.16900775 -0.10819257
000270 85 bb 10 3e 41 be 8c 3d dd 46 2a 3e d1 0a fe bd
       0.14134033 0.068722256 0.16628595 -0.12404407
000280 af b5 8c 3e 18 aa 73 3c d6 1b dc bc cd eb d8 3c
       0.27482364 0.0148720965 -0.026868742 0.026479626
000290 14 df 83 bd 93 13 27 be 9b b2 99 bd 94 25 08 bc
       -0.06439033 -0.1631606 -0.075047694 -0.008309741
0002a0 9f 4b 81 bd 5b 25 b0 bd 34 a1 44 bd 03 3e 63 3e
       -0.06313252 -0.08600875 -0.048005298 0.22191624
0002b0 8e 0f 77 bc 84 38 40 3e e7 d7 fe bd 04 0e 33 3e
       -0.015079392 0.18771559 -0.12443524 0.17485815
0002c0 80 b9 50 bd ad b2 5d 3d 0e 54 07 bd 28 b5 5a bd
       -0.050958157 0.054125477 -0.033039145 -0.05339542
0002d0 0e 1d 01 3b 1c da ce bd b0 93 e9 3d 7b 79 e1 bc
       0.0019701156 -0.10100195 0.11405122 -0.027523747
0002e0 8a 9e 53 be 74 9f f1 3d 5c 2f 2f be a1 a0 f8 bd
       -0.20665947 0.117979914 -0.1710791 -0.121400125
0002f0 3b 71 1e be 4f 3e 11 be 77 39 c9 bd 0b 46 4c 3d
       -0.15472881 -0.14183925 -0.09825414 0.049871486
000300 4e 16 c0 3d 57 8e fa 3d 31 c2 87 3e 16 cb d9 bd
       0.09379254 0.122341804 0.26515344 -0.10634439
000310 3a ce 45 3e 48 d6 5b 3e dc d7 54 3e 51 34 4c bd
       0.1931695 0.2146846 0.20785469 -0.04985458
000320 3e 9a 22 be 44 ea 6e bc 41 f0 2f bd eb 38 4d bd
       -0.15879151 -0.01458222 -0.042953733 -0.05010311
000330 d8 86 bc 3d 43 0e 31 3d 3a bf 07 be 80 67 0f 3e
       0.09205407 0.04322649 -0.13256541 0.14004326
000340 43 4e 89 bd 45 f2 0c 3e bf 4a f9 3d af 5d 17 3e
       -0.0670438 0.13764293 0.1217246 0.14781831
000350 11 a5 6d bc 35 65 84 bd ae 5e f3 3d f5 48 39 3e
       -0.014504687 -0.06464616 0.11883293 0.18094237
000360 34 96 20 3e 37 46 2d 3e de fa 98 3d 41 61 40 3e
       0.15682298 0.16921316 0.07469724 0.187871
000370 dc df 93 3d 08 33 b0 bd 95 67 43 3d 14 7c 75 bc
       0.07220432 -0.086034834 0.047706205 -0.014983196
000380 18 7b 57 be f6 3c 39 3e a0 30 a0 3d be 0c 44 3e
       -0.2104305 0.18089661 0.078217745 0.19145486
000390 40 c2 59 3e ae 83 01 3e 36 d1 32 3e 8b 81 ef bd
       0.21265507 0.12647888 0.1746262 -0.1169463
0003a0 01 66 aa bd 09 c4 79 3e 3e 5f 1e be 38 32 11 bd
       -0.08320237 0.24391188 -0.1546602 -0.035448283
0003b0 fa 4e f6 3d 81 e0 90 bd ed 30 7c be 17 b7 da 3b
       0.12026782 -0.07074071 -0.24628039 0.006674658
0003c0 d3 49 21 be 51 d9 42 be 8b 92 17 3e 3d e2 30 be
       -0.15750818 -0.19028212 0.14801995 -0.17273803
0003d0 e2 46 6c be af 9a 42 be 10 07 0b bd cf a8 08 bd
       -0.23073915 -0.1900432 -0.033942282 -0.033364113
0003e0 3a 27 62 be df b6 2d 3e 00 78 13 be 50 d0 53 be
       -0.22085276 0.16964291 -0.14401245 -0.20684934
0003f0 e9 f2 45 3e 6d 09 76 be cd 1f 17 3e 93 b4 2b 3e
       0.19330944 -0.24027033 0.14758225 0.16768102

critic.2.weight f4 [256, 256]
000000 0a 88 b2 be 03 6e 8b 3c e1 25 86 3e b8 3c d8 bd
       -0.34869415 0.017020231 0.26200774 -0.10558456
000010 76 f7 83 bc f3 e4 26 bf 9a 49 3a bd fb 74 f5 bd
       -0.01610921 -0.651931 -0.04548035 -0.11985203
000020 76 9b df bb 58 f5 c6 bc a7 a4 e1 3d eb c7 3d 3e
       -0.0068239523 -0.02428691 0.11017733 0.18533294
000030 a5 f9 35 be 00 0a c6 bd ba 2e cf 3b 6c d3 a1 be
       -0.17771013 -0.09669876 0.006322709 -0.31606615
000040 0f f9 c3 3e dc f2 76 bd 6d 98 80 bd 33 75 76 3e
       0.38275954 -0.060290202 -0.06279073 0.24068145
000050 49 12 4f 3e 79 fa a9 3e 6d 07 7a 3e 54 51 c3 bc
       0.20221819 0.33198908 0.24416895 -0.023842491
000060 0f 97 87 3d 30 66 a6 3d 3d de 21 3e 68 fd 27 3d
       0.06620609 0.081249595 0.15807433 0.04101315
000070 9a ad 14 3e 52 a3 6e be 24 65 ca be d0 c9 14 be
       0.14519349 -0.2330449 -0.3953029 -0.1453011
000080 e1 c6 8c be 9d 4f fc 3d 28 69 67 be 32 87 b9 3d
       -0.27495483 0.123198725 -0.22598708 0.090589896
000090 12 02 2b bc 3b 6a f9 bd f6 ef c7 bd 6a b7 86 3e
       -0.010437505 -0.12178465 -0.09762566 0.2631181
0000a0 73 65 13 3c 8e ff af 3e 3d 28 d0 be da db 0d bd
       0.008996355 0.3437466 -0.406557 -0.034633495
0000b0 b2 f4 25 bd c7 fb 74 3e cc 33 41 be 08 86 74 be
       -0.040516563 0.2392417 -0.18867415 -0.23879254
0000c0 70 99 b9 3e a6 68 10 3e 9a 1e 3c 3d 8d ef fe 3e
       0.36249876 0.1410242 0.04592762 0.49792138
0000d0 51 ca 16 3c 69 1f c5 bc d7 75 c4 3d 65 0c 37 3d
       0.009203509 -0.02406283 0.09592789 0.044689555
0000e0 b8 44 3b 3e 0f d9 1e bd 40 b3 b9 3c 23 05 9e bd
       0.18287933 -0.038781222 0.02266848 -0.077158235
0000f0 a1 0e 33 be 28 9f 5e bc 1d e1 bc bd 52 78 57 be
       -0.17486049 -0.0135877505 -0.092226245 -0.21041992
000100 93 fa 39 3d d9 13 3f be 15 c9 31 bd 63 3b ef bd
       0.04540498 -0.18659915 -0.043404657 -0.11681249
000110 92 91 65 3e e0 ec 1b 3e d1 31 3d 3e 54 88 ba 3d
       0.22418812 0.1522708 0.18476035 0.09108034
000120 77 f9 a2 3e 50 5b a9 3e 24 5f c7 3d 65 4e cf be
       0.31830952 0.33077478 0.097349435 -0.40489498
000130 7e 34 9e be 55 f0 80 3e c8 93 e3 bd a6 1c 46 3e
       -0.30899423 0.2518336 -0.111121714 0.19346866
000140 ae e2 30 3d 1c 8d 00 3e 0a 9b 9b be 8b 4c aa be
       0.04318493 0.12553829 -0.30391723 -0.33261523
000150 54 ae 1d 3e 63 10 60 3d ee cf e3 bc 61 63 fb bd
       0.15398532 0.054703128 -0.02780911 -0.122748144
000160 53 34 50 3e 98 2c b6 bd d0 c7 ed bc c0 3e f4 3d
       0.2033246 -0.08895224 -0.029025942 0.11926031
000170 0b e8 07 be 54 94 0c 3e d4 1e 81 be e0 56 8c bd
       -0.13272111 0.13728458 -0.25218832 -0.068525076
000180 10 71 70 3e 12 0e b8 bd ea a3 70 be 50 98 13 3e
       0.2348063 -0.08987059 -0.23500028 0.14413571
000190 e5 c9 51 bd c9 cd d9 bd a2 2c 00 3c 9b fe 57 bb
       -0.051217932 -0.106349535 0.007823141 -0.0032958153
0001a0 77 31 e1 bd 82 29 87 3c 14 43 16 be cf bd 45 ba
       -0.10995763 0.016499285 -0.14674026 -0.00075432373
0001b0 28 e2 85 bd bd 3d d0 bc ad fb 4e be e4 d4 02 be
       -0.065372765 -0.025420064 -0.20213194 -0.12776524
0001c0 e8 23 9e be 86 e9 7e be e8 1f 20 be 48 fe 65 be
       -0.3088677 -0.2489377 -0.15637171 -0.22460282
0001d0 96 88 e6 3c e6 cf 01 bd da 9b 94 3c 31 25 af 3e
       0.028141301 -0.031692408 0.018140722 0.34208062
0001e0 12 b9 04 bd f2 2c 78 bb e1 0a 6a 3d e4 3c fc bc
       -0.03240306 -0.0037868586 0.05713928 -0.030790754
0001f0 68 f4 3a 3e 46 ce cb 3d c2 cf 64 3d ef 7d 40 3d
       0.18257296 0.09951453 0.055862196 0.0469951
000200 18 c8 f4 3d 8d bd c9 3c 07 57 32 3e 55 c8 f0 3d
       0.11952227 0.024626518 0.17416011 0.1175696
000210 4b f5 51 3d b1 92 f8 bd b5 ff 27 be 69 0a bb be
       0.05125932 -0.12137354 -0.16406138 -0.3653138
000220 5b f6 41 3e 61 dc f6 3c f4 69 30 3a 94 b6 8c 3e
       0.18941633 0.030134382 0.00067296554 0.27483046
000230 fc 82 ce bd 39 51 28 be 84 39 41 3d b6 2b 0e be
       -0.10083577 -0.16437234 0.04717399 -0.13883862
000240 07 11 36 3e 19 f8 96 3d 68 f0 9b be a4 05 0f be
       0.17779933 0.073715396 -0.30456853 -0.13966995
000250 e9 2b 3b bd 40 e4 9c 3d ea b0 87 3e 04 0e 9d bc
       -0.045696173 0.07660723 0.26502162 -0.019171722
000260 a3 9e c0 3c 57 47 48 bd b2 30 e4 bd c7 1b 96 be
       0.023513144 -0.04889616 -0.111421004 -0.29318067
000270 a2 fd 80 bd 8f 7d fd 3b 3d d9 42 be e8 7c 8c 3e
       -0.062983766 0.007735915 -0.19028182 0.27439046
000280 71 08 1a be 8c c3 3f 3d 57 28 dc 3e 0a 09 1c be
       -0.15042283 0.046817347 0.42999527 -0.15237823
000290 88 66 62 be fe 29 01 be 17 a0 93 bd 1a 4a 40 bc
       -0.22109425 -0.12613675 -0.07208269 -0.011736417
0002a0 7d c3 9c 3d 62 9b ec 3d 81 f9 26 bd d1 7a 9b 3c
       0.07654474 0.115530744 -0.04076529 0.018979462
0002b0 4c c5 f4 bd 19 04 c7 bb db 72 19 bd 13 a5 a6 bb
       -0.11951694 -0.0060734865 -0.03746305 -0.0050855963
0002c0 d8 02 b7 3e 5d 0a 8e bd 20 84 97 be e4 65 09 be
       0.35744357 -0.069355704 -0.2959299 -0.13417774
0002d0 db 24 a3 3e e4 61 a3 bd 68 20 4a be 8b b3 cc bd
       0.31864056 -0.079776555 -0.19738925 -0.099951826
0002e0 f9 09 55 3d 0f a4 0b be a2 d4 36 3e 7b 58 07 be
       0.052011464 -0.13636802 0.1785455 -0.13217346
0002f0 bf 94 01 be b3 a8 38 bc ef c9 df 3d 58 74 03 3e
       -0.12654398 -0.01127069 0.10927188 0.1283735
000300 f6 ce db bc 68 81 8c be b4 ca c1 bc bb 50 16 be
       -0.026832085 -0.2744248 -0.023656227 -0.14679234
000310 96 f2 5c 3e 01 a0 cd 3c aa 94 80 bd 8c 6b 5f bd
       0.21576914 0.02510071 -0.062783554 -0.054545924
000320 ce 64 9c 3e 23 b0 86 3e a0 65 a0 3e f4 65 8c bd
       0.30545658 0.26306257 0.31327534 -0.068553835
000330 68 30 4c 3e a3 22 a6 3e 55 1c 98 3e a4 6a 01 3f
       0.1994034 0.324483 0.29709116 0.50553346
000340 f0 95 11 3e da 14 45 3d 83 80 82 bd e3 a3 8c 3c
       0.14217353 0.04811559 -0.06372168 0.017167991
000350 0c b7 7c be d6 1c b9 3a c9 e4 27 be 08 62 50 bc
       -0.24679202 0.0014122974 -0.16395868 -0.012718685
000360 ba 0c 59 3e e0 35 3e be 0c fb 79 bd 15 b9 86 be
       0.21196261 -0.18575239 -0.061030433 -0.2631308
000370 6f 97 11 be d7 78 06 3e 46 7a 3a 3d 84 f1 fd 3d
       -0.14217924 0.13132034 0.045526765 0.12399581
000380 7a 65 41 3e 57 99 16 3e 09 f2 49 bd 7f a2 8a 3e
       0.18886366 0.14706932 -0.04930309 0.270771
000390 98 f9 98 be 18 88 2d be 5a fd 86 bc 37 0e e9 3d
       -0.29877925 -0.16946447 -0.01647823 0.113796644
0003a0 d0 1f 6b 3e d0 75 7e 3e a7 91 19 be c8 e4 48 3e
       0.22961354 0.2484963 -0.14996968 0.19618523
0003b0 b1 60 52 3c d1 15 83 3e 56 ce dd bd 2c 95 3a 3c
       0.012840436 0.25602582 -0.10830371 0.011388104
0003c0 e6 de dd bd c8 c6 40 be 5e 17 92 3e 92 d8 df 3e
       -0.1083353 -0.18825829 0.28533453 0.43719918
0003d0 d7 6a 35 3e 3a d4 71 3e 9a d9 3a 3d e6 31 1a be
       0.17716537 0.23616114 0.045617677 -0.15058097
0003e0 69 b0 11 3d 7e 8c 0d 3e 32 50 db 3e cb 6e 4a bd
       0.03556863 0.13823125 0.42834622 -0.049422067
0003f0 ad c0 29 bd 5e 3e 92 3e 0d 16 2e 3d 2a 12 a7 bc
       -0.041443516 0.28563207 0.042501498 -0.020394403

critic.2.bias f4 [256]
000000 34 4f ad bd 74 ee 64 3b 06 38 f8 3c 23 d3 cf bd
       -0.084623724 0.0034932168 0.030300152 -0.10147693
000010 28 77 63 bc 3b f9 9a bb e2 fd 9c 3d 07 a4 78 bd
       -0.0138833895 -0.0047294176 0.07665612 -0.060703304
000020 17 b2 ed 3a a3 7c a3 bd aa b7 26 bd 0d 94 74 3d
       0.001813474 -0.07982757 -0.0407025 0.059711505
000030 fa 61 e4 ba 1a fa d4 3d 29 95 8b 3c d5 da 47 3d
       -0.0017424219 0.103992656 0.017038899 0.04879268
000040 48 c4 c3 bc 21 a8 d3 bc 8e 70 16 3c 24 77 2f 3d
       -0.023897305 -0.025837006 0.009182109 0.04283823
000050 9a 1d ff 3a 9d 84 15 bd 71 c0 bf bd 29 4a 84 3c
       0.0019463778 -0.036503423 -0.09362877 0.016148644
000060 28 30 01 bd e7 4e 80 3d e0 51 3a 3d 5a 73 17 bd
       -0.031540066 0.062650494 0.04548824 -0.036975242
000070 60 8b 82 3d 0e 4d 1d bd bf d0 8f bd c3 a3 b0 3d
       0.0637424 -0.038403563 -0.07022237 0.08624985
000080 fb 73 8f 3d 1e da 0d 3d b7 75 bb 3d 88 b5 f4 bb
       0.070045434 0.03463184 0.09153312 -0.0074679293
000090 c4 42 a1 3c d7 cb 11 bd 4f 13 02 bb 89 95 98 bd
       0.019685157 -0.035594787 -0.0019847935 -0.074503966
0000a0 11 a2 01 3d 38 b2 9d 3d 16 90 79 3d ac 94 91 3d
       0.0316487 0.07700008 0.060928427 0.07108435
0000b0 c8 f0 17 bc 0e 23 9b 3c 58 ec b5 bc 56 73 fc 3c
       -0.009273715 0.018937614 -0.022207424 0.030816715
0000c0 72 3c c4 3c 59 48 4e 3d 3b 70 f5 3b 9b df d6 3a
       0.023954604 0.050361965 0.0074901856 0.0016393544
0000d0 7a ea 54 bd 90 7f 56 bd df d0 d1 3d 41 8b 97 bc
       -0.051981427 -0.052367747 0.10244917 -0.018499019
0000e0 83 d0 64 bb c1 16 1d 3b 85 96 e3 3c 93 c7 22 be
       -0.0034914322 0.0023969861 0.027781734 -0.15896444
0000f0 55 e0 89 3d 8e 56 0a bd 60 3b 19 bd 5a 14 a0 bc
       0.06732241 -0.03377395 -0.03741014 -0.019540954
000100 c5 bc b1 3c 9e 7d cb 3d 13 d3 9c bd c3 c2 4a bc
       0.021696458 0.09936069 -0.07657447 -0.012375536
000110 d3 e7 94 bd 73 7e f8 3b 4c 93 56 3c 70 39 13 3d
       -0.072707795 0.0075834333 0.013096642 0.03594345
000120 39 3f 91 3c 19 d9 28 3d 19 46 17 bd bc ae 5e bc
       0.017730342 0.041222665 -0.036932085 -0.013591465
000130 8f af 4a 3d 5d 86 7f 3c bc f0 39 3b 1b 70 11 3d
       0.049483832 0.015596 0.0028372249 0.035507303
000140 63 3d 6f 3d 74 97 6b 3c 20 3e 19 bc c8 79 6a bc
       0.058408152 0.014379371 -0.009353191 -0.0143112615
000150 32 96 9b 3d 92 b6 c2 bd 8c 41 2c 3b f9 01 30 bd
       0.07597007 -0.09507479 0.0026284186 -0.04297063
000160 5d c8 1f 3d dc dc 2f bd 66 65 09 3d 22 8f 66 bb
       0.03900944 -0.042935237 0.033543967 -0.0035180529
000170 46 0e d3 3c 69 a9 7e bd 77 92 82 3c 22 cb 18 bd
       0.025763642 -0.06217328 0.01593898 -0.037303098
000180 dc 69 4b bd dd be e7 3c b8 06 c6 3d c8 4c a6 3d
       -0.049661502 0.028289253 0.0966925 0.081201136
000190 16 17 b6 3d f8 e9 4c bd e5 f6 9f bc e1 43 a0 3c
       0.08891122 -0.050027817 -0.019526908 0.019563617
0001a0 9a 8f a5 bc f3 45 b9 3c 36 18 53 bc 5c 18 19 bc
       -0.020210076 0.022616362 -0.01288419 -0.009344187
0001b0 6b 74 52 3d 83 69 ae bb 0b 80 cf bd 5e 3a db 3d
       0.051380556 -0.0053226366 -0.10131844 0.10704492
0001c0 ee 00 2f bd ce e2 4e 3d b0 97 bc bc a5 8c 98 bd
       -0.042725496 0.050509267 -0.023021549 -0.07448701
0001d0 92 3e 67 3d 81 b5 3f 3c 64 6d 1c 3d aa 7c 82 3c
       0.056456156 0.011700989 0.03819026 0.015928585
0001e0 0b 24 87 3c e4 5a ca bd ee 08 a4 3c 25 e2 05 bd
       0.016496679 -0.09880617 0.02002379 -0.03268637
0001f0 1e 86 e1 3c ec 82 1f bc 02 93 f9 bc a9 22 9d bd
       0.027529772 -0.009735804 -0.030465607 -0.076726265
000200 3d 56 a3 3c c4 f8 28 3d 07 55 80 3d f6 c3 0c bc
       0.019938583 0.041252866 0.06266218 -0.008591643
000210 11 39 2c bd 37 f8 97 bd 2e 24 2a 3d a3 37 d7 bb
       -0.04204661 -0.0742039 0.04153841 -0.0065679117
000220 9b d6 67 bc b1 b2 96 bd e3 35 b1 bd 0a a7 cf bd
       -0.014150287 -0.073583014 -0.08652856 -0.10139282
000230 a1 a5 90 bd be c3 58 3d 93 ab a3 bd 26 f6 cc bc
       -0.07062841 0.05292105 -0.079917096 -0.025019716
000240 17 aa e5 bd 01 cb a7 b9 77 80 83 3d 29 91 a2 bb
       -0.11214083 -0.00032003972 0.06420987 -0.004961152
000250 34 e6 75 bc 2e 93 0e 3d 90 26 7b 3b fa a7 aa 3d
       -0.015008498 0.03480833 0.0038322546 0.0833282
000260 0d 1e d8 3d fa a6 9e bd 32 71 22 3b fb 1e 0b bd
       0.10552607 -0.07746692 0.0024786708 -0.033965092
000270 8f 1a 8f bc ab 58 e7 bb 67 a0 b3 3c 35 24 9c 3d
       -0.017468719 -0.0070601306 0.021927072 0.076240934
000280 fd f3 72 bd db bc 33 3c 1d 46 8e 3d 29 10 e2 3c
       -0.059314717 0.01097032 0.06946967 0.027595596
000290 0a e5 e1 bd 9a a3 00 be 58 5d 4f 39 c3 30 46 bd
       -0.11030014 -0.12562409 0.00019775832 -0.048386347
0002a0 77 9e 8f bc db 0c 8b bd c1 3c 81 3b 5f 0a 3f ba
       -0.017531617 -0.06789561 0.00394401 -0.0007287617
0002b0 ba ba de bc b3 c0 da ba a8 15 97 bd b2 fa ce 3d
       -0.027188648 -0.0016689509 -0.073771775 0.1010641
0002c0 ff a5 b2 bd 45 96 07 3d 36 42 42 3d 46 71 ad 3c
       -0.087230675 0.033102293 0.047426425 0.021172177
0002d0 7f 77 18 bd a6 15 bf bd bf 59 94 3d 07 e6 a5 3d
       -0.037223335 -0.09330301 0.0724368 0.08100515
0002e0 63 58 08 3d 97 51 99 3b 12 61 76 bd 0c 95 a0 3c
       0.033287417 0.0046789157 -0.060151167 0.019602321
0002f0 2f ae f8 3a cb 87 1c 3d 6d fe 00 bd 00 59 d7 ba
       0.0018972809 0.03821544 -0.03149264 -0.0016429722
000300 8c 01 a9 bd 70 7c 0f 3d b9 02 65 3d 57 ec ab 3d
       -0.08252248 0.035030782 0.0559108 0.083946876
000310 f6 72 a0 3d dc 1b e7 bc 6d d2 30 3b 3a 00 da bd
       0.07834427 -0.028211527 0.0026980892 -0.106445745
000320 cc 7a 61 bb dd 63 93 bd f7 48 75 bd 6b 1c 79 bd
       -0.0034405468 -0.07196782 -0.059884038 -0.060818117
000330 9d e5 85 bd 18 f7 8c bd 9f 4a c0 3c 0e 09 ba 3a
       -0.06537936 -0.06883067 0.023473082 0.0014193372
000340 c1 3e b9 3c 10 b9 d1 bb d5 3f 59 3c e3 d5 2e bd
       0.022612931 -0.006400235 0.013259848 -0.042684447
000350 40 fe ee bd 8e 94 9e bd ac 4c b5 3d 28 f3 2b 3d
       -0.11669588 -0.07743178 0.088525146 0.04197994
000360 6e 55 88 3b 23 82 12 3d 1f 5c 0d 3d 23 6b 82 bd
       0.0041605746 0.03576864 0.03451168 -0.06368091
000370 15 9c c9 3d 8c 09 4c 3d db 2b a2 3d dd 26 93 bd
       0.098442234 0.049813792 0.07918521 -0.07185147
000380 2a 57 ab 3b c3 68 5e bc ef cf 72 3b c4 8e ae bd
       0.0052288966 -0.013574782 0.0037050208 -0.08523324
000390 e0 5c 38 bd 90 ea d1 3d 39 b4 0d bc a9 cc 34 3d
       -0.045010448 0.10249817 -0.008648925 0.04414049
0003a0 b2 ea 05 bd ba 16 7f 3b fa 55 68 3c 35 4a 1b 3d
       -0.032694526 0.0038923458 0.014180655 0.037912566
0003b0 a4 63 5c bd 47 e4 35 bd df 2b 3a 3c 1f ce af bd
       -0.053805962 -0.044407155 0.011362999 -0.08584236
0003c0 e8 ed 33 bd af 6e 8e bd 67 55 a4 3d ba f2 d8 bc
       -0.043928057 -0.06954705 0.08024102 -0.026482929
0003d0 d3 8c 0a bd 44 8e 16 bd a9 3a 00 bd c8 d9 c6 3c
       -0.033825707 -0.03675677 -0.031305943 0.024273768
0003e0 56 df c9 bc fc b1 bb 3d 9d 9e 0a 3e 68 22 67 bd
       -0.024642628 0.09164807 0.13537069 -0.056429297
0003f0 1a d1 15 3d fb 29 79 bd 59 db b6 3d c9 01 91 bc
       0.036576368 -0.06083105 0.08928556 -0.017701047

critic.4.weight f4 [1, 256]
000000 9a 1d 00 3f 99 cc d4 3e ec bc 0d bf 59 9f e9 be
       0.5004517 0.41562346 -0.55366397 -0.45629385
000010 61 6d c3 be 48 3f d5 be f7 36 f7 be c3 89 ed be
       -0.38169387 -0.41649842 -0.48284122 -0.46394166
000020 cb 0f d6 3e b3 a8 cb 3e 23 52 63 3f f6 d2 0e bf
       0.41808924 0.39777145 0.88797206 -0.5579065
000030 40 25 c5 be ed 79 dc be 68 47 fc 3e 7b b9 0c 3f
       -0.38504982 -0.43061772 0.4927323 0.5497052
000040 b9 3b 24 3f f4 00 c7 3e a9 6c e8 be 62 27 09 3f
       0.6415363 0.38867915 -0.453954 0.5357572
000050 0b d9 b5 3e 5d 34 dc 3e 3a e9 d1 3e ea 98 ee be
       0.35517153 0.430087 0.4099825 -0.4660104
000060 22 9d 0c bf 73 c6 a5 be 37 7b 0a 3f cf 86 ed be
       -0.54927266 -0.32377967 0.5409426 -0.46391913
000070 ee cf da be 15 a4 19 3f ef 3a c1 3e f6 c2 e6 3e
       -0.42736763 0.60015994 0.37740275 0.45070618
000080 fb e0 5e bf e1 06 ee be 5a d8 e9 be 21 9b e1 be
       -0.8706204 -0.46489623 -0.45672876 -0.44063666
000090 c3 c1 e3 be 48 07 04 bf 55 e0 e8 be 54 a1 f4 3e
       -0.44483766 -0.5157361 -0.45483652 0.47779334
0000a0 63 a4 db be f2 9e db 3e 43 53 c7 be 5c 01 18 3f
       -0.42898855 0.42894703 -0.3893071 0.59377074
0000b0 e5 49 e5 be 84 bb 14 3f bd 73 d1 be 00 69 57 bf
       -0.4478294 0.58098626 -0.40908614 -0.8414459
0000c0 2a af a5 3e cb ca 08 3f a3 10 03 bf ad 05 db be
       0.32360202 0.5343444 -0.5119726 -0.42777768
0000d0 8a 7e cb be 1d 47 d3 3e 24 9c 58 3f a6 d2 cf 3e
       -0.3974498 0.41265193 0.8461325 0.405904
0000e0 d1 55 d2 3e 1a d9 fb 3e aa 46 bd be 8b 0f 82 3f
       0.41081098 0.49189073 -0.36967975 1.0160993
0000f0 e4 dd f0 be 5d 90 ec be a1 fc 44 bf 3a 77 de be
       -0.4704429 -0.4620389 -0.7694798 -0.43450338
000100 2e 2a 23 3f 17 e6 62 bf 2f cf eb 3e f7 d3 d3 3e
       0.63736236 -0.8863234 0.46056506 0.41372654
000110 14 51 c7 3e ec 1b e9 be 20 4a 0b bf 01 63 00 3f
       0.38929045 -0.45529115 -0.5440998 0.5015107
000120 7f 31 e6 3e 4c c9 d3 be 11 8f c6 be 64 b1 0d bf
       0.44959638 -0.41364515 -0.38781026 -0.553488
000130 7b 09 12 3f a9 16 d1 be c9 90 02 bf 1a 30 12 bf
       0.57045716 -0.408376 -0.51002175 -0.5710465
000140 68 eb 09 3f 1d ae 0a bf 60 8e c4 be 7c d7 e2 be
       0.53874826 -0.54171926 -0.38389874 -0.44305027
000150 51 14 fc be 25 cd 0b bf 2e d0 ce be 2f 5a ad 3e
       -0.4923425 -0.546099 -0.40393203 0.33857867
000160 e3 64 e9 be 02 27 c5 be 44 65 fa 3e 13 d9 5d bf
       -0.45584783 -0.38506323 0.48905385 -0.86659354
000170 6c 6b e2 3e 37 27 ee be e1 79 cc be a4 9f d6 3e
       0.4422258 -0.46514294 -0.39936736 0.4191867
000180 c6 ee d6 be ea ef de be 0b 04 07 bf ba 6f dd 3e
       -0.41979045 -0.43542415 -0.52740544 0.43249303
000190 18 14 ba be ad e2 e9 be e9 96 0f bf fc 30 10 3f
       -0.36343455 -0.45680752 -0.56089646 0.56324744
0001a0 ee e2 08 3f de 76 a4 be 88 45 e3 3e 19 37 d2 be
       0.5347127 -0.32121938 0.44388986 -0.4105766
0001b0 ff 3f 15 bf 03 e6 2d 3f cb d9 00 3f 6a 3c 84 bf
       -0.58300775 0.67929095 0.50332326 -1.0330937
0001c0 6d b0 f6 be 61 7d 14 bf 5d bf d5 3e 61 b0 e5 3e
       -0.48181477 -0.58003813 0.4174756 0.4486113
0001d0 74 fc c3 be 47 df de be 06 92 2b bf 22 d7 fd be
       -0.38278544 -0.43529722 -0.6701969 -0.49578196
0001e0 7a 9b 15 bf d2 de e1 be a0 89 f0 3e af 67 dc be
       -0.58440363 -0.4411531 0.4698 -0.43047854
0001f0 ce 49 de be b6 d8 08 3f e4 32 10 bf 3f 78 e6 be
       -0.43415684 0.53455675 -0.5632765 -0.45013615
000200 3c 97 2b 3f 9f 2e de be 48 c6 0f bf a0 bc e5 be
       0.6702764 -0.43394944 -0.5616193 -0.44870472
000210 04 44 e4 be aa 9e c7 3e 20 82 cd be 27 45 ec be
       -0.44583142 0.3898824 -0.4013834 -0.4614651
000220 22 4d f5 be eb cf fd 3e a5 a1 e1 3e 4b e6 f6 be
       -0.4791041 0.4957269 0.44068637 -0.48222575
000230 c5 8a c6 3e 26 35 dd be 6e 25 9a 3e 4f 7a e1 3e
       0.38777748 -0.43204612 0.30106682 0.44038627
000240 9d ec de be a8 38 d2 3e de b9 05 bf 62 0e 04 bf
       -0.43539897 0.4105885 -0.52236736 -0.51584446
000250 4c 8d e3 be 4f 9c c7 be e6 fa 05 bf 81 85 e1 3e
       -0.44443738 -0.38986441 -0.52335966 0.44047168
000260 a2 02 50 bf 74 39 d4 3e a1 0e ec 3e 2a 95 ef 3e
       -0.8125402 0.41450083 0.4610491 0.4679349
000270 41 94 15 bf ce 4e e6 be d1 5b c9 3e 2b 05 c0 be
       -0.5842934 -0.44981998 0.39327863 -0.37503943
000280 92 41 01 3f 00 24 e0 be 31 18 03 bf e8 16 ed 3e
       0.5049068 -0.43777466 -0.5120879 0.4630654
000290 3c 44 d4 3e ca 80 5c bf 36 5c c7 be 37 a7 1d 3f
       0.4145831 -0.86134017 -0.3893754 0.61583275
0002a0 83 65 01 bf 08 a1 dc 3e 89 1f f9 be 08 18 e7 be
       -0.5054552 0.43091607 -0.48656872 -0.45135522
0002b0 5e 4b c4 3e bd bc 31 bf 21 4d 10 bf a0 c6 c4 be
       0.3833875 -0.69428617 -0.5636769 -0.3843279
0002c0 0a d7 25 3f d9 c0 cf be 41 84 fb 3e 3f eb ca be
       0.6478125 -0.4057682 0.4912434 -0.39632604
0002d0 ca 4a db be 29 f4 e6 3e cf 1f d4 be 18 c7 b9 be
       -0.42830497 0.45108154 -0.41430518 -0.3628471
0002e0 bf b6 c1 3e 29 f9 c9 be bb 28 14 3f 8a 55 d4 3e
       0.37834737 -0.39447907 0.5787465 0.4147151
0002f0 a4 fa 0f bf bf a2 e1 3e 66 20 fe 3e 47 74 fb be
       -0.5624182 0.44069478 0.49634093 -0.4911215
000300 61 7f e6 3e 88 b0 1e bf b6 2c d3 be d8 08 f0 3e
       0.45019057 -0.61988115 -0.4124505 0.46881747
000310 54 70 27 bf ad ca b6 be 92 84 c6 be 4d ce de 3e
       -0.65405774 -0.35701504 -0.38773018 0.4351677
000320 69 90 0a 3f 90 eb d3 3e de ee d2 be 6e 82 fb 3e
       0.541266 0.41390657 -0.41197866 0.49122947
000330 4d e5 f7 3e 0a f1 bd 3e e5 24 b7 be a0 6f e6 3e
       0.4841713 0.3709796 -0.35770336 0.45007038
000340 4a c0 d5 be ed aa ba 3e d4 ea 0c bf d1 8a 36 3f
       -0.41748267 0.3645853 -0.5504582 0.7130557
000350 75 4d d4 be c0 1c 0f 3f bf 89 16 3f d3 92 d0 3e
       -0.41465345 0.55903244 0.58803934 0.40737018
000360 99 32 bc 3e 5d e4 c1 be d7 fc e2 3e a0 93 00 3f
       0.36757353 -0.3786954 0.44333526 0.5022526
000370 08 1c e5 3e 6d c8 ba be f1 52 f1 be c9 4f 0c 3f
       0.4474795 -0.36481038 -0.47133592 0.5480924
000380 83 ee e9 3e 09 ff fa 3e b2 e0 db 3e 85 5c e4 be
       0.45689783 0.490227 0.42944866 -0.44601837
000390 80 37 da 3e d1 10 11 bf e2 27 07 bf 13 f0 e1 3e
       0.42620468 -0.56666285 -0.5279523 0.44128475
0003a0 b5 84 f5 be da d5 11 bf ba 53 e1 be 2b 8a b8 3e
       -0.4795281 -0.56966937 -0.4400919 0.36042914
0003b0 76 72 0e 3f e9 17 d7 3e a0 69 e8 3e f7 c0 c2 3e
       0.55643404 0.4201043 0.45393085 0.38037845
0003c0 9f dd cd be 2e c2 c6 3e 07 b7 0a bf 3f 64 df 3e
       -0.40208146 0.38820022 -0.5418553 0.4363117
0003d0 e8 50 c4 3e d9 23 ee 3e 0b 1c db be 28 7d 10 bf
       0.38342977 0.46511725 -0.42794833 -0.56440973
0003e0 67 ef 0f bf 57 3b b4 3e 89 d8 3f bf a5 70 50 3f
       -0.56224674 0.35201523 -0.7493978 0.8142188
0003f0 b2 b7 e7 be c3 c9 bb 3e c9 4e 46 3f 9e cb e6 3e
       -0.45257336 0.3667737 0.77463967 0.45077223

actor.0.weight f4 [256, 19]
000000 65 90 09 be 85 c7 0a be 69 14 0f 3e 10 3e 95 bd
       -0.13433988 -0.13552673 0.1397263 -0.07287228
000010 a0 a4 d6 bc c8 c2 e4 3c 12 1a ca 3e e4 86 dd bc
       -0.026201546 0.02792491 0.39473015 -0.02704186
000020 04 8f 96 bd 6d 62 ec 3d bf 4f 10 3e 30 0a 55 be
       -0.07351497 0.11542211 0.1409292 -0.20804667
000030 6a da d0 3d d1 f0 62 bd ad 85 90 bc 8d 9e 29 3e
       0.10197909 -0.05540544 -0.017641867 0.16564389
000040 1e da e6 bd 4c 32 0d 3e 29 44 8c 3d bf f0 5f bd
       -0.11272071 0.13788718 0.06848938 -0.054672953
000050 d6 ac 57 3e bf 03 03 bd f3 5f 32 bc 00 ba be ba
       0.21062025 -0.031985994 -0.010887134 -0.0014551282
000060 c4 3e 66 3d 7c 92 df be 71 89 4a 3e 94 b0 eb bd
       0.0562122 -0.43666446 0.19778992 -0.11508289
000070 b0 c7 80 3c 8d 14 60 be 50 cb f0 3d cf 17 70 be
       0.015720218 -0.2188284 0.11757529 -0.23446582
000080 1e 9f eb bd 47 32 f8 3a 9b 54 6e 3d 2d f1 c3 3d
       -0.115049586 0.0018935882 0.058186155 0.09567485
000090 2f 84 9f 3d 9e a0 29 be 93 e5 53 3d 95 9a bd 3d
       0.07788884 -0.16565177 0.05173261 0.09258
0000a0 71 97 16 3e 57 a3 91 bd 61 bc 36 3e 9a df 63 be
       0.14706208 -0.07111233 0.17845298 -0.22253266
0000b0 59 24 7b bd 60 46 75 3d 9d c9 d8 bd 73 06 a0 bc
       -0.06131396 0.059881568 -0.1058533 -0.019534325
0000c0 d6 ef 4d be ab 16 2b 3e e1 08 06 bd 48 e2 5e 3e
       -0.20111021 0.16707866 -0.03272331 0.21766007
0000d0 df 31 6d 3d 0b e9 ef 3c 5e 70 21 3e da 56 9a bd
       0.05790889 0.029285928 0.15765521 -0.07536097
0000e0 b3 36 86 be fa 05 d2 bd 85 b2 55 3d 2c 87 b8 bd
       -0.26213607 -0.10255046 0.052172203 -0.09010157
0000f0 a1 8f 84 3c 5f 79 2c 3e 13 4b 48 be 44 96 a3 bd
       0.016181769 0.16843174 -0.19559889 -0.07987645
000100 db fb 02 3e b1 c8 c8 bd 7e 3a 8c bd 80 07 3c bb
       0.12791388 -0.09803904 -0.06847094 -0.0028690994
000110 14 1c 0d 3e fe f4 ce 3a 44 dd a6 3e c2 98 f7 3c
       0.13780242 0.0015789566 0.32590687 0.030224208
000120 3b 4e 4c bd 41 20 23 3e 60 26 7e bd 2f 10 15 3d
       -0.049879294 0.15930273 -0.062048316 0.036392387
000130 b2 2a 1f 3e ca 2a 81 bd 04 46 09 bc b1 4f 8e 3d
       0.1554363 -0.063069895 -0.008378509 0.06948794
000140 3d b9 01 3e fe 67 f5 bd 6d 46 5d bc 7c 57 21 be
       0.12668319 -0.119827256 -0.01350556 -0.15756029
000150 13 a0 0f 3e bd 71 61 be b3 aa 4f be 2a d9 87 3e
       0.14025907 -0.22016044 -0.2027996 0.2653287
000160 94 4c a0 bd ad c1 f0 bd d1 f5 4b 3d ed 15 e4 bc
       -0.07827106 -0.11755691 0.049794976 -0.027842486
000170 f6 42 52 3e 51 17 2f 3e 50 c3 84 bc 7d 41 92 3d
       0.20533356 0.17098738 -0.016206414 0.07141397
000180 78 c4 07 be 2a ae 47 be 45 f3 82 3d 28 22 a1 bc
       -0.1325854 -0.19500032 0.06394056 -0.019669607
000190 ce d4 0e be ec 5b f6 3d 52 59 e7 3d fd c8 3c be
       -0.13948366 0.120292515 0.112963334 -0.18436046
0001a0 d6 6f 87 3d c0 5f a5 bd 06 45 4c ba 8f d4 6c 3e
       0.06613128 -0.080749035 -0.0007792268 0.2312796
0001b0 40 b4 67 be d1 66 67 be 8c a1 c1 bb 53 c5 04 be
       -0.22627354 -0.22597815 -0.0059091505 -0.12965898
0001c0 52 a5 ea bd 8e 99 20 bd be f4 8b bd e3 c1 32 3e
       -0.114573136 -0.03920894 -0.0683379 0.17456774
0001d0 48 c3 1f be 07 58 38 3e 87 89 3d be 46 27 47 be
       -0.15601838 0.1800233 -0.18509494 -0.19448575
0001e0 99 8f 6a be af 06 5f 3e bd ed 25 be 5a 7f 0b be
       -0.2290634 0.21779893 -0.16203971 -0.136228
0001f0 aa 99 fc 3d 35 d2 05 be f9 77 80 be 86 b4 3e 3e
       0.123339966 -0.13068469 -0.25091532 0.18623552
000200 dd 94 62 be 2e 8a db bc eb d7 b4 3d 36 94 43 3d
       -0.221271 -0.026799288 0.088302456 0.047748767
000210 c9 8f 28 3e 6b 21 46 3e 23 4e 55 be dd 55 55 3e
       0.164611 0.19348685 -0.20830588 0.20833535
000220 ef 0a dc bd 79 6a 07 3e 5d a0 3a 3e 77 ab 99 be
       -0.10744273 0.1322421 0.18225236 -0.3001363
000230 bb e2 90 bd 0e 01 50 bc fc f3 c2 bd 55 e9 3b be
       -0.070744954 -0.012695564 -0.095191926 -0.18350728
000240 27 f8 48 bd 16 7a 7b 3e 5c f4 98 3e f6 c2 2e 3d
       -0.04906478 0.24558291 0.2987393 0.042666398
000250 cd 08 88 be 6a 3d 01 bd 35 60 27 be 95 99 24 be
       -0.26569214 -0.03155271 -0.16345294 -0.16074212
000260 00 3e 2f 3c 7b bd 49 3d 90 59 24 be 02 92 f8 3d
       0.010695934 0.04925297 -0.1604979 0.12137224
000270 49 aa 41 3e a3 a9 36 be 0e 3c e8 3c 83 0e 36 be
       0.18912615 -0.17838149 0.028348949 -0.17778973
000280 30 e3 56 be 81 6c 31 be 88 2a ee 3c 7e fc 7e be
       -0.20985103 -0.17326547 0.029073015 -0.24901006
000290 e2 84 7b 3e 61 7c f8 bd 3e 5d 53 3e 94 55 46 3e
       0.2456241 -0.121330984 0.20641038 0.19368583
0002a0 22 e8 5b be ab b2 bf 3d 6c 67 60 3e a1 b4 1b be
       -0.2147527 0.0936025 0.21914452 -0.15205623
0002b0 30 3c 59 be d9 35 c0 3d 8d 07 22 3e 35 86 51 be
       -0.21214366 0.093852706 0.15823193 -0.20461352
0002c0 36 49 5e be ca 4c 23 be a4 46 44 3d a6 02 46 be
       -0.21707615 -0.15947261 0.04791893 -0.19336948
0002d0 57 8b 51 bc d4 b5 60 be 43 cb a0 be dc 35 01 3c
       -0.012789569 -0.21944362 -0.31405076 0.007886376
0002e0 2e ea 47 3d e5 87 39 bd ce 5d d9 bd 68 f9 ae bd
       0.048807316 -0.045295615 -0.10613595 -0.08543664
0002f0 7a 91 3e 3e 87 81 99 3e f6 58 0b 3e 4a 5c 23 3e
       0.18610182 0.29981634 0.13608155 0.15953174
000300 dd da 09 be 6a 47 32 be f6 9c 69 be 58 60 e5 3c
       -0.13462396 -0.17410055 -0.22813782 0.028000042
000310 a3 98 a4 bd 06 5c bc bd d6 e7 96 bd 43 5e dd bd
       -0.08036926 -0.091972396 -0.07368438 -0.108089946
000320 55 1f 4e 3e d2 0b ab be eb 8d a1 3d ed b5 66 be
       0.2012914 -0.33407456 0.07888397 -0.22530337
000330 57 c3 43 3e d7 b0 58 3e 40 86 0f 3d 52 7d 2a 3d
       0.19117485 0.21161209 0.03504014 0.04162342
000340 48 be 2d 3e 6c f8 4c 3e d1 11 20 bd 2a 07 57 bd
       0.16967118 0.2001664 -0.03907949 -0.052497067
000350 41 54 2d 3e fe 90 e3 3d 5b c9 31 3e 45 37 94 3e
       0.16926672 0.111116394 0.17361967 0.28948417
000360 90 4e 04 be ca a6 0a 3e e7 01 53 be fa ac 01 be
       -0.12920594 0.13540187 -0.20606194 -0.12663642
000370 59 78 84 3d 44 7c 3d 3d 34 c6 31 3c 28 5b 05 be
       0.06468267 0.046261087 0.010850478 -0.13023055
000380 b7 4a 7a 3d 97 39 7d 3e 6f ec a4 3d da f2 2b be
       0.06110641 0.24729 0.08052909 -0.1679186
000390 1c 3a 74 be 36 9b 08 bc 0d 1c 3c be 4a 17 82 bb
       -0.23850292 -0.008337786 -0.18370076 -0.0039700614
0003a0 55 e1 4b 3e 7c 0b 44 3d 70 e8 9f 3e 18 a7 72 bd
       0.19910176 0.047862515 0.31232023 -0.059241384
0003b0 71 fc bd 3d eb 1b 2f 3e da 7c bc bd 76 a8 99 be
       0.09276665 0.17100494 -0.09203501 -0.30011338
0003c0 b1 b0 86 3e ba 18 63 bd 57 13 88 be 29 0a ed 3d
       0.2630668 -0.055443503 -0.26577255 0.115742035
0003d0 73 0c 8e 3e cb f7 10 3e 2c 83 63 3e 48 e5 17 3e
       0.27743873 0.14157026 0.22218007 0.14833558
0003e0 d5 4d 0a 3e 0d 30 1b 3d 9e bc 72 be 1e d9 fc 3d
       0.13506253 0.03788762 -0.23704764 0.12346099
0003f0 a6 49 e9 3d 7c d1 e9 3e 80 46 f4 3d 73 22 3d be
       0.113910004 0.45667636 0.11927509 -0.18470173

actor.0.bias f4 [256]
000000 91 42 0a bc 21 9a 03 bd ee d2 cc 3d b6 96 ff bd
       -0.008438722 -0.03212941 0.10001169 -0.12479918
000010 b8 7f 5d bd ab 96 12 3e b7 3d df 3d 66 2f 26 3e
       -0.05407688 0.14315288 0.10900443 0.16229019
000020 e8 b7 85 bc 0a f6 7f bc 2a ea 1e 3e 3a 9e ef bd
       -0.016323045 -0.015622625 0.15519014 -0.11700101
000030 b4 ff a6 3d 41 2f 76 3c a1 f5 3c bc 46 29 03 3e
       0.0815424 0.015025915 -0.011533172 0.12808713
000040 6b cd 91 bd 2a c8 0a bd ac f8 4d 3d e7 d4 b3 3d
       -0.071192585 -0.033882298 0.05028598 0.08780842
000050 0c 38 f8 3d f5 28 0f be 3c 1d 1d be 27 ee 52 bc
       0.12120065 -0.13980468 -0.15343183 -0.012874163
000060 a8 8a f6 3d 9e 24 df 3d 81 76 5c 3d 5a 13 03 be
       0.12038165 0.10895656 0.05382395 -0.12800351
000070 11 d2 b4 3d 40 dc 8c bd 28 35 14 3d 98 f7 4b 3e
       0.088291295 -0.06877947 0.036183506 0.19918668
000080 09 ac 21 3e 16 fd f9 bd 37 9a 3b 3d d8 58 57 3d
       0.15788282 -0.122064754 0.045801368 0.052574962
000090 2a cb f8 bc 88 b2 09 bd 7f d4 f5 bd c6 29 d8 3d
       -0.030370314 -0.033617526 -0.12003421 0.10554843
0000a0 72 e1 47 be 53 8b 76 3d 88 25 e4 bd b4 c1 a3 bd
       -0.19519594 0.060191464 -0.11139971 -0.0799593
0000b0 eb 44 fb 3d 6f 1a 97 bc a5 c0 4b bd bb f1 0f be
       0.122690044 -0.018445222 -0.049744267 -0.14057057
0000c0 98 77 6f bd 92 49 e1 3d 1c 78 1b 3e f9 c3 19 3e
       -0.058463663 0.110003605 0.15182537 0.15016164
0000d0 d8 7e 6a 3e 90 9b ad bc 1f e8 cc 3b dc fd a6 bd
       0.2289995 -0.021192342 0.006253257 -0.081538886
0000e0 08 ee 0e be 6d 71 05 3e ab b1 7d 3d 37 42 f2 3d
       -0.13957989 0.1303155 0.061937016 0.11829036
0000f0 36 b4 05 3e 69 7b b7 bd 91 7d 41 be 04 5e 9d be
       0.13057026 -0.089590855 -0.18895556 -0.3073579
000100 ad 93 35 be 25 a5 d5 3c e1 bf 26 3e dc 2f 45 bd
       -0.17732115 0.026079724 0.16284133 -0.048141345
000110 16 73 eb 3d 61 cf 94 3d c9 44 57 3e b3 e4 e7 3d
       0.1149656 0.07266117 0.21022333 0.11322918
000120 17 02 76 3e f6 59 39 3e 3a fa 8b 3d 9f 0b 1b 3e
       0.24024235 0.18100724 0.06834836 0.15141152
000130 6b c2 2c 3e 1a 49 1b 3e 63 7a 87 bd 3a 44 b0 3d
       0.1687104 0.15164605 -0.0661514 0.08606763
000140 09 c4 a6 3d eb 97 4e be 3e 26 9f 3d 87 1e 7c 3b
       0.081428595 -0.2017514 0.07770966 0.0038470344
000150 56 35 b1 bd 84 12 78 3c e0 c7 c4 3d f6 d3 40 3c
       -0.08652751 0.015141133 0.09608436 0.011769285
000160 a7 72 28 3e 9b fa 4f 3e c7 77 da 3d 00 84 09 3b
       0.16449986 0.20310442 0.10667377 0.002098322
000170 aa 99 0e 3e 27 bf 92 bd f9 55 5a 3e f7 7f a6 bc
       0.13925806 -0.07165366 0.21321858 -0.02032469
000180 f0 1c d5 bd 41 25 37 be f5 12 03 bc 50 25 d8 3d
       -0.1040591 -0.17885305 -0.008000125 0.10553992
000190 b6 63 5d bc 27 aa e1 bd 85 a6 17 be 7a 85 e9 b9
       -0.0135125425 -0.11018782 -0.14809616 -0.0004454067
0001a0 0a 80 59 3c 2b 92 d8 3c 5a 8b f6 3d 0a fb 0c 3e
       0.013275156 0.026436886 0.12038298 0.13767639
0001b0 bf 2e 63 3d 0b 58 23 be a4 1e 7f bd 4d 20 55 3d
       0.055464502 -0.15951554 -0.06228508 0.052032758
0001c0 5e b2 8b 3d de 08 65 3e 33 22 c3 bb e7 d9 20 be
       0.0682113 0.22366664 -0.0059550046 -0.15708123
0001d0 45 c9 29 be 37 84 3e bd c2 53 5c 3d d0 64 a1 3d
       -0.16580684 -0.04651281 0.053790815 0.078805566
0001e0 c6 27 49 be f6 6f f4 3d af f9 39 be b2 1d 18 3e
       -0.19644079 0.11935417 -0.18161653 0.14855078
0001f0 34 3d 06 bd f6 17 62 3d fe 86 3c 3d a1 a1 28 bd
       -0.03277321 0.055198632 0.046027176 -0.041169766
000200 b4 b7 ec bd 56 9e 3d 3e 50 de 38 3e 26 85 e4 3d
       -0.11558476 0.18517432 0.18053555 0.111582085
000210 e9 f5 4e be bd 2d 5b 3c da b9 44 3e 55 dd 2f 3e
       -0.20210995 0.013377604 0.19211522 0.17174275
000220 75 e7 e2 3d c9 f6 3a be e2 40 8b bd 7c 02 92 3d
       0.11079303 -0.18258204 -0.06799485 0.0712938
000230 8c e2 7d 3d 33 14 42 3e 7e 5c 46 ba 55 e5 e9 bd
       0.06198363 0.18953018 -0.0007566883 -0.11420695
000240 ea 3e 98 3d 39 cc 50 be 41 6a 85 bc a6 87 f6 3d
       0.07433875 -0.20390405 -0.016286017 0.12037592
000250 d4 a1 0f 3e ce 02 bb bd 58 c1 21 bd cf f3 61 be
       0.14026576 -0.09131394 -0.039491028 -0.22065662
000260 79 b1 93 bd fc 53 2d 3e 5e de ac bd d2 4e 1e be
       -0.072115846 0.16926569 -0.08440851 -0.15459755
000270 b4 5c 2e be 4d 03 57 be 84 47 90 3d 0a e4 31 be
       -0.17027551 -0.20997353 0.070448905 -0.17372146
000280 f9 c7 54 bd c4 07 40 3e fa c0 9e bd 11 04 59 3e
       -0.05194852 0.18752962 -0.07751651 0.21192957
000290 7d 43 03 be c4 a3 3f be cc d2 65 bd b8 23 c6 3d
       -0.12818713 -0.18714815 -0.056109235 0.096747816
0002a0 2d 91 39 3e 09 0d 1b 3e 22 37 01 be 4d 39 0a be
       0.18121786 0.15141691 -0.12618688 -0.13498421
0002b0 b4 d1 89 bc 50 ff 3f 3e a5 22 30 be eb b6 2b bd
       -0.016823627 0.18749738 -0.17200716 -0.04192249
0002c0 13 ba 1f be 8d 6e b7 3c 7c a3 9c bd 7a 37 0b 3e
       -0.15598325 0.022391582 -0.0764837 0.13595381
0002d0 e6 c8 02 3d cf a2 4f 3e 60 ad 35 be 02 f4 a0 bd
       0.031929873 0.2027695 -0.17741919 -0.07859041
0002e0 67 7c 5c bd 86 00 ac bd 21 d4 0c 3e fb f7 75 be
       -0.053829577 -0.08398537 0.13752796 -0.24020378
0002f0 47 92 ef bd bb 88 19 3e a2 a0 60 be 1c c2 43 be
       -0.11697822 0.14993565 -0.21936277 -0.19117016
000300 ed 11 86 3c 2a 87 88 3d 11 6b 7b 3d da 35 39 3e
       0.01636597 0.066664055 0.061381403 0.18086949
000310 ac b8 c5 bc f7 ca 21 be 4a 06 6e 3d df e9 11 3d
       -0.02413591 -0.15800081 0.058111466 0.035623427
000320 2a c1 0e 3e 0b e3 7a 3d 68 ee d8 3d 66 bc d2 3d
       0.13940874 0.06125168 0.105923474 0.102898404
000330 e7 06 b4 3b 04 f6 1b be 73 9e 2b be 03 fc 00 be
       0.005493987 -0.15230566 -0.16759662 -0.12596135
000340 d6 d9 99 bd f2 ab 4c 3d 58 47 fd bd 83 7e fb 3d
       -0.07512252 0.049968667 -0.12367123 0.122799896
000350 f4 54 1f 3e 8f 1e 2b 3e 42 23 0d 3e d3 4e fb bb
       0.15559751 0.16710876 0.13782981 -0.0076693087
000360 00 25 7b 3d b5 d0 a1 3d 0a ad 5c 3e 3a bb fb bd
       0.061314583 0.07901136 0.21550384 -0.1229157
000370 e2 ab 17 be 47 de 12 3e c3 06 2d bd 84 7b b7 3d
       -0.14811662 0.14342605 -0.042242777 0.089591056
000380 36 9d 57 be 30 ca 53 3e 3d dd 15 3e de 2c 5c bc
       -0.21056065 0.20682597 0.14635177 -0.013438432
000390 44 a3 5b bc 1b 5a a6 bd 65 a3 f2 bd c8 0f c4 bd
       -0.013405625 -0.08122655 -0.11847571 -0.095733225
0003a0 72 2e 68 be 93 fc 08 be 4d 42 31 be 18 49 0f bc
       -0.22673967 -0.133776 -0.17310448 -0.008745454
0003b0 8c e8 14 be 61 22 06 be b8 9d 40 3e 0c 66 f2 bb
       -0.14541835 -0.13099052 0.18810165 -0.007397419
0003c0 06 c7 b2 3d 23 81 bc 3d 78 cf 6d 3d e9 c7 53 3e
       0.08729367 0.092043184 0.058059186 0.20681728
0003d0 ff 14 85 bc a2 e8 ef 3d a5 ef c8 bd fd 65 1b 3e
       -0.016245363 0.11714293 -0.098113336 0.15175624
0003e0 70 ef ab 3d 1e 37 14 3e 10 45 f6 bd 6b b6 95 bd
       0.083952785 0.1447415 -0.120248914 -0.07310184
0003f0 35 7c 66 3e b0 71 4f 3d bd 1a 01 3e 10 01 77 be
       0.22508319 0.05064553 0.12607856 -0.24121499
